models/archived/failed-long/DenseSteganoGAN/3/epoch_12.pth (torch, 365151 bytes, 59 tensors)

encoder.initial.block.0.weight f4 [32, 3, 3, 3]
00000000: 5883 c3bd f5dc 393e c385 ebbd b732 6bbd
00000010: 2614 073d 26de 593e e304 09be 95a0 3a3e
00000020: 2035 0d3d 04eb 14bb 02c5 243e 1d1e 15be
00000030: 03ae 24bd 8cd3 ab3d 39d1 4f3e b4e3 6fbb
00000040: 0ec0 ed3c cd57 9cbd 3c3f bc3d e367 05be
00000050: 5115 253e 7103 25bc f136 dbbd 3484 e0bd
00000060: 41f3 ccbd 2a4d ff3c 8ac6 bd3d 5341 e13d
00000070: d5ad 853d fba0 353d b950 ea3d 7eb8 e33d
00000080: b064 e23b 6bee 3d3e aaec a23d 5747 813d
00000090: 28ba ec3c 1395 723e fa01 95bd eb01 a7bd
000000a0: 37a7 3e3e bae1 d0bd 4fe7 69bd b4ae ee3d
000000b0: ace0 ac3d cf5e 323e fd8d 3d3e 8626 143e
000000c0: 99ab 083c 768a e5bd a5c5 69bd d0bb 903d
000000d0: a4fa c63d e870 22bd 4820 e4bd f4e5 bb3b
000000e0: 91ce 3e3c 54af 5c3d 9f11 673e e7eb 6e3d
000000f0: 588f 913d 0e16 623e 2f1f 26bd f5ea d93d
00000100: 9657 59bd 86ab e0bd 9fbe 2f3e 307a b6bc
00000110: be1c 5c3e 3145 92bd 8a99 813d b359 303e
00000120: 1624 793d 6cf7 093d eacb f2bd 965b 883c
00000130: 474a 533c 4238 753d 9a69 943d f134 fb3d
00000140: 27b1 3f3e c6d9 0ebe ec76 3cbe b9e7 1f3e
00000150: 713c dbbd 43ac 50bd f988 59be 576e 95bc
00000160: 819c 3e3e 92a4 c23d 47cc 993d 48aa 023d
00000170: ad8d 04bd 9fb9 02be f354 213e fb6f 3cbd
00000180: 6f81 5abe bf02 49be 7907 f93d 4a96 2bbe
00000190: b3cb b9bc 4a9a 493d 0676 1bbe 738d ff3d
000001a0: f449 67bd 5812 6b3d d063 263e 51e8 3cbe
000001b0: 6394 5b3d aee4 fdbd c8aa a33c 6c11 bd3d
000001c0: 4d84 5b3d 0b49 3f3b 3b29 073d a485 19bd
000001d0: a87d 18bd cc66 31bd 5153 debd 16aa 573c
000001e0: 8499 98bc d266 3abe 5ca5 c43d 002d 4c3d
000001f0: f349 6d3d 5a92 0abe 01aa 03be 3d3c ac3c
00000200: a462 96bd 0257 c13d 4857 b03d 066b b13d
00000210: 4c56 b3bd 5aec 23be 2d42 d0bc 521e 233e
00000220: e9bf e5bd 8f19 fbbd 8a35 babd 4562 dbbc
00000230: f648 acbd a611 0c3d 8318 c7bb 36b3 0bbd
00000240: 793e c439 074a b33d f239 99bd 522f a73c
00000250: 4be3 b9bd aba7 123d 7803 3ebe 2698 683d
00000260: 2081 fc3c 1818 eebc 4c08 2dbe 4f70 da3d
00000270: 5b17 a03d 5437 f43d 081f fbbd e9c5 b13d
00000280: 61a1 cebc 7d7b af3c af62 583d 77a4 34bd
00000290: d664 363e eeac cd3c 3d48 923d b61a 8a3d
000002a0: edc9 313e 6045 0f3e 8c29 2dbd 00d1 ca3c
000002b0: 73da d53d f2b6 2e3e 47d6 0c3e 5d3b 233e
000002c0: 735e 7e3d e1fb 0fbe b20b b73d 138b b43b
000002d0: ccfa ac3d 0d5a 3a3d 4cc0 e4bd dbb4 3bbc
000002e0: e22d 2fbd 6d16 0b3e 329b a03d 4d35 92bd
000002f0: 03f0 2a3e 60e4 06be f084 5cbe 7b1e 78bd
00000300: 8638 3fbe 55c4 313d 6f35 31be 1d1a 973d
00000310: fb5d bc3d 3c4c 2ebe d6e9 5abe b1ba e2bd
00000320: 7697 66bd 0945 29bd 9058 053e 7eec dc3d
00000330: 1848 413d e6b3 a0bd 961a 1b3e f663 2abe
00000340: b9bd 973c 566b 963d f0a0 dcbd 2db6 1d3d
00000350: 1b80 b2bc dfb9 f03c 6690 25bc 5591 83bd
00000360: a4ed 4dbd ec1a 2b3e e4c4 3ebe 82a6 0cbe
00000370: 41c6 f4bc 53ed f13c ef7c e9bc 27f4 bdbd
00000380: 128d 813d bb97 753d 8d23 3bbd efbf 2bbe
00000390: 95fa c93d 862b a83d 2811 c73d 448e 493d
000003a0: 410a 38be 9b03 d9bc 0106 d1bd a845 b1bd
000003b0: d480 bb3d be82 8dbd ecbb c2bd 20e8 4cbe
000003c0: bfc1 4bbe 2722 f0bd 22c5 bb3d 2ce0 ccbd
000003d0: 9423 89bb 7da3 653e 97a4 92bd 24cf 133e
000003e0: 6ba4 3cbd 6303 113e 527b 85bc c631 ca3c
000003f0: 5a88 993d 47ea a83c 73a7 a7bd 833f d33d
-0.09546536 0.18150695 -0.115001224 -0.057421412 0.0329782 0.21276149 -0.1338077 0.1822532
0.034474492 -0.0022723088 0.16090778 -0.14562269 -0.040205013 0.08389959 0.20294656 -0.0036604227
0.029022243 -0.07633934 0.091917485 -0.13027911 0.16121413 -0.010071621 -0.107038386 -0.10962716
-0.100073345 0.031164724 0.09266384 0.10998788 0.065272965 0.044342976 0.11441178 0.111191735
0.0069089755 0.1854798 0.07955296 0.06312435 0.02889736 0.2368968 -0.072757676 -0.08154663
0.18618475 -0.10199304 -0.05710536 0.11654416 0.0844129 0.17418979 0.18511195 0.1446782
0.008341693 -0.1120805 -0.057073254 0.070670724 0.09715775 -0.039658457 -0.1113897 0.0057341997
0.011645929 0.053878143 0.22565316 0.058330443 0.07107419 0.22078726 -0.040557083 0.106405176
-0.053062044 -0.109702155 0.1716256 -0.02227506 0.2149534 -0.071421035 0.063281134 0.17221718
0.06082543 0.033683226 -0.118553 0.016645234 0.012896127 0.059868105 0.072467044 0.12265957
0.18719922 -0.13950261 -0.1840474 0.15615739 -0.10704888 -0.05094553 -0.21243657 -0.01824109
0.18614389 0.095040455 0.07509666 0.031900674 -0.032361675 -0.12766121 0.15755062 -0.04600523
-0.21338437 -0.19629954 0.121596284 -0.1675655 -0.02268014 0.049219407 -0.15181741 0.12478151
-0.05646701 0.05739054 0.16249013 -0.18447997 0.05360831 -0.12397133 0.019978896 0.092318386
0.05359297 0.0029187824 0.032998305 -0.037480965 -0.03722921 -0.043310925 -0.10855735 0.01316311
-0.01862789 -0.18203285 0.09601852 0.049847603 0.05793185 -0.13532391 -0.1285782 0.021024818
-0.07343033 0.094404235 0.086103976 0.08662991 -0.08756694 -0.1600813 -0.02542218 0.15929535
-0.112182446 -0.12260734 -0.09092243 -0.026780257 -0.08412354 0.03419652 -0.00607592 -0.034106456
0.0003743058 0.08754354 -0.07481755 0.020408306 -0.09076556 0.035804432 -0.1855601 0.056785725
0.03082329 -0.029064223 -0.16897696 0.106659524 0.07816955 0.119246155 -0.12261778 0.086803265
-0.025223436 0.021421188 0.052828487 -0.04410216 0.17811903 0.025106873 0.071426846 0.06743376
0.17362185 0.13991308 -0.04227595 0.024757862 0.104420565 0.17061976 0.13753615 0.15940614
0.062101793 -0.14060928 0.089377776 0.005509743 0.08446273 0.045496035 -0.1116949 -0.0114566935
-0.042768367 0.13582774 0.07842101 -0.071390726 0.1669312 -0.13173056 -0.21535087 -0.060575943
-0.18673906 0.043400127 -0.1730554 0.073780276 0.09197613 -0.17021269 -0.21378264 -0.11070765
-0.05629679 -0.041325603 0.13022065 0.10787295 0.047187895 -0.07846813 0.1514686 -0.16639695
0.018523084 0.073446915 -0.10772884 0.038503814 -0.021789601 0.029385505 -0.010105228 -0.06424204
-0.05027546 0.16709489 -0.18629795 -0.13735393 -0.029879691 0.02953211 -0.028501956 -0.09275084
0.06325735 0.059959155 -0.0456882 -0.16772436 0.09862248 0.082114264 0.09720069 0.04920794
-0.17972662 -0.026490977 -0.10206223 -0.08655864 0.091554314 -0.06909703 -0.095084995 -0.20010424
-0.19898127 -0.11725264 0.091684595 -0.10003695 -0.0041851494 0.22425647 -0.07160299 0.14434487
-0.04605524 0.14161448 -0.016294155 0.024681937 0.0749671 0.020619525 -0.08186235 0.10314848

encoder.initial.block.0.bias f4 [32]
00000000: fcd2 0e3e 46d0 9f3b 43c5 093e dfd9 6bbe
00000010: 7e29 bd3e f4f3 c43e b4ad 80bc 61ab 4dbe
00000020: db7d 89bd 3090 1e3e e0ee 9ebd 03ab 45be
00000030: a8bb 12be 20d5 823d dece 683c 9a98 a13d
00000040: 2471 223e ef17 6abe 6706 e83d a23b e33d
00000050: d1f9 0f3e afcc 54be 3f79 b43d 3c07 e2bd
00000060: 2cad 3b3e 00d8 04be ed8a 2bbe d76b 09be
00000070: 16b0 47be 820e c53d a79c f6bb aca6 0f3d
0.13947672 0.004877123 0.13454156 -0.2303233 0.3694572 0.3846737 -0.015707828 -0.20084907
-0.06713458 0.1548469 -0.077604055 -0.19303517 -0.14329398 0.063883066 0.014209477 0.078904346
0.15863472 -0.22860692 0.11329346 0.110953584 0.14060141 -0.20781206 0.08812188 -0.11036536
0.18327779 -0.12973022 -0.16752215 -0.13420044 -0.19500765 0.09621908 -0.0075259986 0.03507106

encoder.initial.block.2.weight f4 [32]
00000000: 3883 5c3f 7e26 803f 534f 783f efee 813f
00000010: 7b1c 4d3f b168 573f cc5c 813f f544 7a3f
00000020: 7744 7d3f 9cad 7d3f b39f 7e3f 19fc 773f
00000030: 6771 7c3f b73b 393f 87ac 7d3f 4065 713f
00000040: acc8 793f bbe3 7d3f e070 703f 9dcb 793f
00000050: 14f7 773f c2bb 823f 948d 693f 924a 773f
00000060: d055 7d3f b35b 833f d1cb 843f c4ae 813f
00000070: 2424 7f3f 8b11 753f 099e 823f ac0f 7d3f
0.86137724 1.0011747 0.9699604 1.0151042 0.8012158 0.8414412 1.0106444 0.9776147
0.98932594 0.9909303 0.9946243 0.96869045 0.9861054 0.7235674 0.9909138 0.9429512
0.97571826 0.99175614 0.93922234 0.97576314 0.96861386 1.0213549 0.91231656 0.9659816
0.98959064 1.0262359 1.03747 1.0131459 0.9966452 0.95729893 1.0204479 0.9885204

encoder.initial.block.2.bias f4 [32]
00000000: 4f57 0fbd a53e 043d c190 5abc a5eb a0bc
00000010: 3785 55bd f6e5 f4bb 0a0f 033d 045f 1d3c
00000020: da78 113b 8a48 dc3c cd89 cd3b 8a13 edbc
00000030: d3a8 0f3d 9363 7abd c659 313d 98da 7bbb
00000040: 8722 023d 2b89 443c 921e e43b 2008 413c
00000050: c375 ec3c 014f 29bd 4b89 5d3d 3dce ca3c
00000060: 0825 993c bc6b 8cbc 4a06 853c bdc8 34bd
00000070: 88a2 46bd 3fee 4cbb 8eb9 203d 112f c53c
-0.034995373 0.032286305 -0.013340176 -0.019643614 -0.052128997 -0.0074737025 0.031996764 0.009605173
0.0022197277 0.026890058 0.0062725306 -0.028939981 0.035073113 -0.061130118 0.043298505 -0.0038429853
0.03177121 0.011995594 0.006961652 0.011781722 0.028864747 -0.04133511 0.05408601 0.024756545
0.018694416 -0.017141216 0.01623835 -0.04413675 -0.048494846 -0.0031269935 0.03923946 0.024070295

encoder.initial.block.2.running_mean f4 [32]
00000000: 4756 a13e d79b 3b3f aab2 483f 9ac7 b3bb
00000010: 54fe 3f3e bcfe 673e b56d 2e3f 0730 d8bb
00000020: 592e a6bb 004f 353f d87d b2bb 3e56 a9bb
00000030: f855 90bb 3623 11bb 9907 533f 3661 d63e
00000040: 30ed 513f ce17 91bb f58c 2d3f 997e 0b3f
00000050: b06c 2d3f f127 67bb d5f1 0f3f cf1c 92bb
00000060: 0a0b 713f c13a 3abb 2aaa 3abb 64c6 a4bb
00000070: 2e9c 8bbb 977c 373f 8d14 3f3f a883 673f
0.31511137 0.7328467 0.7839762 -0.005486441 0.18749362 0.22655767 0.6813615 -0.006597522
-0.005071443 0.7082367 -0.0054471307 -0.0051677516 -0.0044047795 -0.0022146231 0.8243347 0.4187104
0.82002544 -0.0044278866 0.6779321 0.5449005 0.6774397 -0.003527161 0.5622838 -0.0044590007
0.9415747 -0.0028416368 -0.0028482773 -0.005028533 -0.0042605614 0.71674484 0.74640733 0.90435266

encoder.initial.block.2.running_var f4 [32]
00000000: 3dc7 083c fcf8 d53d b7f0 ac3d 2978 0f36
00000010: 8884 f73b 1b62 cb3b 2d30 be3d e680 9a36
00000020: 5a9e 8e36 9528 763d 8f7b 9436 48ac 2236
00000030: be85 0736 7843 bf38 bb5f 063e aaaa c53c
00000040: 838d b43d 1122 9035 3780 8d3d c9a6 183d
00000050: c147 6a3d b2a9 0535 692f 383d 216d 2d36
00000060: 8ee7 e13d 49a5 0d35 0e0b a634 d610 3d36
00000070: cc51 9635 d3c7 a13d 121f dd3d 147e 173e
0.008348283 0.104478806 0.0844435 2.1378603e-06 0.0075536408 0.0062067634 0.092865326 4.6045634e-06
4.2503643e-06 0.060097296 4.425128e-06 2.4240162e-06 2.0194416e-06 9.120157e-05 0.13122456 0.02412923
0.08816054 1.0738751e-06 0.06909221 0.037268434 0.057197336 4.97933e-07 0.04496709 2.584253e-06
0.11030494 5.2767115e-07 3.0927953e-07 2.8172994e-06 1.1199677e-06 0.078994416 0.10796942 0.14794189

encoder.block1.block.0.weight f4 [32, 35, 3, 3]
00000000: 9a00 1a3d 95a4 e5bc 5cbc cdbb eddc 6c3c
00000010: deb9 77bc 9c4f 06bb 3dcc 9cbc fc6c 533c
00000020: 3a1f fa3c 2eca df3a 0b37 5cbd e2ff 52bd
00000030: 614b d63c eced 77bd 1b5c 69bd 3d73 f9bc
00000040: 31f8 c73c 4a79 01bc 1f41 a5ba 1a9d 51bb
00000050: a7eb 95bb f8ff 32bd 917c 37bd 9f2c b63c
00000060: 9113 24bd 1078 5dbd 60ee c4bc ae8f 753d
00000070: 0cde 033d 0722 913c 9e40 303d a9a1 29bd
00000080: e1b9 48bc 1321 3dbb 4827 283d 3d0c d03c
00000090: f2b6 cd3a 74b8 12bc 4472 30bc 7a42 e93c
000000a0: 8dc6 c6bc 47be b73c 89c5 40bd ee97 413d
000000b0: 6c87 293d 5250 873c 84b7 13bd 3a29 873b
000000c0: d358 2d3d e280 b3bb 62b5 32bc 0a64 c33c
000000d0: 0eb5 513d ab3f e13c ba16 263d df03 37bd
000000e0: 00cb 703c 2a9d 58bd 2a54 2ebd e8e8 37bc
000000f0: 32d8 9f3c a1aa 8ebd acae 8cbd 6646 803d
00000100: 0673 e4bb 6cd6 ca3c 67be d63c cad4 363d
00000110: 0b76 2eb9 1c41 693d 83f4 2fbd a1c3 5d3d
00000120: b63d adbc 6f8a 273c 3ca3 0fbc 521e 6f3d
00000130: efb9 a53c 262c 403d 5eb5 073d 6ce5 053d
00000140: 93ac 7639 7656 0bbd b8d4 87bd 02c2 6b3c
00000150: 7746 9cbd d7c3 c93c 9d5e babb bbff 36bd
00000160: 0a1d 7e3b d8e4 6dbc 6647 3cbd a358 ff3b
00000170: 94aa 21bc 2df9 133d 057e a43c f0ac ce3c
00000180: d33d 033d 6f9d c33b aca9 0a3d 15f6 cdba
00000190: 1239 153d a2e6 0a3d b050 ff3c f7bc c83c
000001a0: 0872 3a3d 1240 e9bc 5817 91bc 1998 2b3d
000001b0: 6bd5 09bc 5baa 213b 3152 84bc 7c79 023d
000001c0: cb4e cfb9 140e 283d b8b6 b8bc fba3 65bd
000001d0: 0292 943b d5b0 e6bb 5b33 dcbc 605b 003d
000001e0: 4ba1 c2bc 6cc8 9b3b 3b98 6d3d 0d34 d83c
000001f0: 4dcd 92bc fe1c 833c 8a2f 95bd 2c83 55bc
00000200: 7b7e f1bc bd62 0a3d 4132 38bd aeaa dfbc
00000210: 9ff3 afbc d517 0e3d b04e 3cbd bec9 16bd
00000220: 298b 2dbd c3aa 28bd 0026 56bd ac35 bb3c
00000230: ed0e 0a3d 7606 a43a aeb7 f3bc 175d 163c
00000240: d154 25bc 707c 9f3c aaee 80bd 1645 29bd
00000250: d4ac 853c 70f2 7cbd 7f9d 613c a6a8 48bd
00000260: e451 4f3c 1af0 6039 290e ba3c eb76 913c
00000270: 761f 403c 1ad7 2a3d 7f1b f33c d011 9bbb
00000280: f2b5 23bc 836b 5abc f392 14bd 3301 34bd
00000290: 0137 c3bc a976 5ebd 4743 ffbc 0466 713d
000002a0: bf53 ec3a f797 ee3b 8f58 81bd eb84 8dbc
000002b0: 193c 333d 89d7 6cbd 5218 ddbc 17b3 05bc
000002c0: f201 92bc 4e39 3cbd 9ba9 67bd 7e1e 4dbc
000002d0: e1d8 acbc a592 94bd ced1 8abd 845b 0cbd
000002e0: 1fc0 a63c 4a16 b2bc c77e e1bb 40ca 08bd
000002f0: ee05 83bd 0f5c a1bb 3547 abbd 50fc 03bd
00000300: 5129 af3a f20c e43c b93c 683d bdd0 05bd
00000310: 0b97 21bd 5c28 c9bc 9538 7c3c bd69 32bd
00000320: 5e8d 92bc d821 973b 95d0 7abd a3fe 143d
00000330: e940 223d 780b 3a3a 2b5b c7bc 51a4 db3c
00000340: 355e 7d3d 2117 93bc d6e7 1ebc 6663 babc
00000350: 5a59 5fbc 25f2 ac3c 8b52 363d e355 59bc
00000360: c435 42bd 236a 32bd 1948 723c 8312 39bd
00000370: 2345 58bd 5a72 113d 8a3a ff3c f9e8 5abd
00000380: d9d5 7cbd 4634 a63d 0c2a cebc 6974 ec3c
00000390: c0c0 223d 47a6 1abd 46cb c63b fe2d 8c3d
000003a0: f152 8b3c ce9c 5c3d 427a 51b9 1c74 b1bc
000003b0: 0394 d73b 9e29 86bc 3043 1a3c ed0c 2f3d
000003c0: 8972 8dbc 79c9 033d 1757 b53b 360f 873d
000003d0: ba7c f6bc cbbb b7bc ac5e 333d 1169 b93b
000003e0: 5478 e1bc c50a a2bc 45e5 3e3c c4b6 c83c
000003f0: c62f 293d d80e 24bd 0a10 8a3c f9b9 853c
0.03759823 -0.02803258 -0.0062785577 0.01445697 -0.015119998 -0.0020494228 -0.019140357 0.012904402
0.030532468 0.0017073804 -0.05376343 -0.05151356 0.02615899 -0.060529634 -0.056972604 -0.030450458
0.02441034 -0.007902453 -0.0012607909 -0.003198451 -0.004575211 -0.043701142 -0.04479653 0.022238074
-0.040057722 -0.05406958 -0.024039447 0.059951477 0.032194182 0.01771642 0.043030374 -0.041413937
-0.012251348 -0.0028858825 0.041053087 0.02539646 0.0015694781 -0.00895511 -0.010769431 0.028474081
-0.024264598 0.022429598 -0.047063384 0.047264032 0.041388914 0.016517792 -0.036063686 0.0041247876
0.042321038 -0.0054780105 -0.010907503 0.023851413 0.051198058 0.02749618 0.040549017 -0.044681426
0.0146968365 -0.05288426 -0.042560734 -0.011224963 0.01951227 -0.06966139 -0.068692535 0.062634274
-0.0069717197 0.024760447 0.026213838 0.044636525 -0.00016637908 0.05694686 -0.042957794 0.054141644
-0.02114759 0.010225876 -0.008766945 0.058378525 0.020230262 0.046917103 0.03313195 0.032689497
0.00023524677 -0.034018002 -0.0663237 0.014389517 -0.076306276 0.024629517 -0.0056875483 -0.044677477
0.0038774633 -0.014519893 -0.04596653 0.0077925487 -0.009867329 0.036126304 0.020079622 0.025228947
0.032041382 0.0059696953 0.033853218 -0.0015713597 0.03643138 0.033911355 0.031166404 0.024504168
0.045518905 -0.028472934 -0.017711326 0.0418931 -0.008412699 0.002466819 -0.016152473 0.031854138
-0.00039540822 0.04102905 -0.022548065 -0.056064587 0.004534007 -0.007040123 -0.026879957 0.031337142
-0.023758551 0.0047541168 0.058006506 0.026392007 -0.01792016 0.016005035 -0.07284458 -0.013031762
-0.029479256 0.03378557 -0.0449698 -0.027303066 -0.021478472 0.034690697 -0.04597348 -0.03681349
-0.04236904 -0.041178476 -0.052282333 0.022852741 0.03370564 0.0012514133 -0.029750671 0.009177468
-0.010091023 0.019468516 -0.062955216 -0.04132565 0.016317762 -0.061754644 0.01377046 -0.04898896
0.012653802 0.0002145175 0.02271183 0.0177569 0.011726251 0.041709043 0.029676197 -0.004732348
-0.00999211 -0.013331297 -0.036272954 -0.043946456 -0.023829939 -0.054312382 -0.03116001 0.05893518
0.0018030329 0.007281299 -0.06315719 -0.017275294 0.043758485 -0.057822738 -0.026989136 -0.008160374
-0.017823193 -0.045953088 -0.056558233 -0.012519477 -0.02109951 -0.07254533 -0.06778298 -0.034266964
0.020355282 -0.021739144 -0.006881568 -0.033396006 -0.063976154 -0.0049243043 -0.08363191 -0.032223046
0.0013363754 0.027838204 0.056698535 -0.03266977 -0.039450686 -0.024555378 0.01539435 -0.04355787
-0.017889675 0.004612189 -0.061234076 0.036375653 0.039612684 0.0007097046 -0.024335464 0.02681175
0.06185742 -0.017955365 -0.009698829 -0.022752475 -0.013632143 0.021111557 0.044512313 -0.013265106
-0.047414556 -0.04355825 0.014787697 -0.04518367 -0.05280031 0.035509445 0.031155843 -0.053444836
-0.06172738 0.08115439 -0.025166534 0.028864102 0.039734602 -0.03775623 0.0060667126 0.0684471
0.017007323 0.053860478 -0.00019977338 -0.02166181 0.0065789237 -0.016377266 0.009415433 0.042736936
-0.017266529 0.03217456 0.0055340636 0.06594698 -0.030088771 -0.022428414 0.043791458 0.005658277
-0.027523197 -0.019780526 0.011651342 0.024501212 0.041305326 -0.04005322 0.016853351 0.01632403

encoder.block1.block.0.bias f4 [32]
00000000: 0c00 23bd 87ac 04bb e7ea c0bc 4b43 9d3c
00000010: 6879 d2bc a558 02bd 0ed2 2abb ac0b 35bb
00000020: 8ebf 9e3b 08c0 b73b e7de b43c 18bd 33bd
00000030: 2c35 97bc 8520 1a3d 85dd 2bbd 3075 a5bc
00000040: f22b 7cba ae69 4bbd d28f acbc f4f5 463c
00000050: a1d2 23bd e62d 893b 7369 55bc 5a79 4bbd
00000060: 4c78 bbbc 1820 963c 44a2 2ebd 78a3 033d
00000070: c047 9d3c 801c 70bb 982a 0dbd e335 c3bc
-0.039794967 -0.0020244436 -0.02354951 0.019197127 -0.025692657 -0.03182282 -0.0026065144 -0.0027625365
0.0048446124 0.0056076087 0.022078944 -0.043881506 -0.018457972 0.03762867 -0.041959304 -0.02019748
-0.00096195855 -0.04966133 -0.021064673 0.012143601 -0.039995793 0.0041863797 -0.013025629 -0.049676277
-0.02288451 0.01832585 -0.042635217 0.032138318 0.019199252 -0.003663808 -0.03446445 -0.023829406

encoder.block1.block.2.weight f4 [32]
00000000: 9a09 773f 9fb6 6f3f f86a 733f 959e 733f
00000010: fd55 773f 048a 763f bc36 703f d7d6 763f
00000020: 590a 723f efc1 763f 3aa3 773f 15b3 6d3f
00000030: ccc0 763f a540 743f 38e3 773f 416a 713f
00000040: 9440 753f 2a9b 723f 5220 713f efac 713f
00000050: 2996 733f 238a 743f 1bb6 743f 0291 773f
00000060: e0f8 753f 49d2 743f 5022 743f bc21 703f
00000070: 6a1d 743f 24c2 763f 3293 783f db1b 6b3f
0.96499026 0.9363803 0.95085096 0.9516385 0.9661558 0.96304345 0.9383352 0.9642157
0.9454704 0.9638967 0.9673344 0.9285138 0.96387935 0.9541114 0.96831083 0.94302756
0.95801663 0.9476801 0.9418994 0.944045 0.95151 0.9552328 0.9559037 0.9670564
0.9608288 0.9563337 0.95364857 0.93801475 0.9535738 0.96389985 0.970996 0.9183938

encoder.block1.block.2.bias f4 [32]
00000000: 7278 7dbc 69cd e83c 16c1 5a3b 7bca 273c
00000010: da4b ac3c 8d42 493d 26a7 a23c 5d42 ea3b
00000020: 0e7d d23b 1e06 5dbb 3774 a53c 3a99 babc
00000030: eb5e 843c 3eea 6a3c dc19 fa3c 6ac5 ee3c
00000040: c79b 083c 685d 0cbb 2262 6e3d 1d69 f43c
00000050: 36ae aabc 5686 e3bb 3cbf 73bc cd78 e8ba
00000060: 44b4 733b e0b1 743d 633a 84bc 0fc1 62bb
00000070: ff0e 563d 2083 9a3c 0b60 c4ba 34f8 843b
-0.015470611 0.02841826 0.0033379248 0.010241146 0.021032263 0.049135733 0.019855093 0.0071490244
0.006423599 -0.003372557 0.020197017 -0.022778142 0.016158542 0.014338074 0.030529909 0.029146869
0.008337921 -0.002141798 0.058199055 0.029835278 -0.020835023 -0.0069435043 -0.014877137 -0.0017736197
0.0037186304 0.059739947 -0.016141122 -0.0034599935 0.052260395 0.018861353 -0.0014982236 0.0040579084

encoder.block1.block.2.running_mean f4 [32]
00000000: 5ee9 913f e3ff ac3f 8163 9d3f 9af4 af3f
00000010: e5f8 a73f a97c ae3f 1833 9f3f 02fb bb3f
00000020: fc29 933f 08e6 af3f 8e53 b53f 1279 923f
00000030: 73a1 9d3f 5368 9d3f 08d0 a73f 374c b13f
00000040: 3084 9d3f 0580 af3f a166 923f 8817 a03f
00000050: 8375 803f 2eec 8b3f e437 8e3f f206 b73f
00000060: b8eb 993f 1e6a be3f 398c ae3f d4b2 ad3f
00000070: efb5 b73f a1c4 973f e736 ac3f 6ce3 813f
1.1399343 1.351559 1.2295991 1.3746521 1.3122832 1.3631793 1.2437468 1.4685977
1.1497188 1.3742075 1.4166124 1.1443198 1.2314895 1.2297462 1.3110361 1.3851384
1.2305965 1.3710943 1.143757 1.2507181 1.0035862 1.0931451 1.1110806 1.4298995
1.2025061 1.4876134 1.3636543 1.3570199 1.4352397 1.1856881 1.3454255 1.0147529

encoder.block1.block.2.running_var f4 [32]
00000000: de87 3240 00e7 5140 059d 4c40 7043 5840
00000010: 2a29 6940 6b09 5840 2b4e 5240 b842 7840
00000020: 3ff3 3140 1ad1 5840 a734 6540 b62f 3140
00000030: 0203 2f40 7a81 2f40 4991 4640 cd58 5d40
00000040: 1202 2f40 715c 7e40 7e08 1640 1dec 3440
00000050: de09 0840 dcc2 2140 3fce 2540 a105 8b40
00000060: e77c 2540 ce47 7e40 dae9 5540 eaff 5340
00000070: 4c92 6c40 e381 2240 fa1d 5040 32ab 0b40
2.7895427 3.2797241 3.1970837 3.379116 3.6431375 3.3755748 3.286021 3.8790722
2.7804716 3.3877625 3.5813386 2.768537 2.7345586 2.7422776 3.1026175 3.458545
2.7345014 3.9743922 2.3442683 2.8269112 2.1256022 2.5275183 2.5907133 4.344437
2.5857484 3.9731326 3.3423982 3.3124948 3.6964293 2.5391777 3.2518296 2.182324

encoder.block2.block.0.weight f4 [32, 67, 3, 3]
00000000: ef52 e13c 22db ddbc 0c71 233d 7af4 13bb
00000010: 994d 1b3c 786a 0cbc 46f7 13bb 57ac f03c
00000020: 04a4 f53b 0bfd 3c3d 5e56 de3c fe17 e43b
00000030: 8d5d 3fbc d209 ba3c 011c c13c 60e8 073c
00000040: 5109 fcbb d441 5b3a 52e3 82bb 7b7f 64bc
00000050: 153e 81bb 8169 193d c8ec 953c 1761 b5bb
00000060: 83ec c63c 14c3 8cb9 7d6c 04bc bdd4 8ebc
00000070: 20b0 1bbd b2b9 4f3a 494a 9abc 7946 39bd
00000080: 138a 73bd 867f b9bc 161f 8a3c b5ea f5bc
00000090: 9516 0abd 144e 62bc 92c1 03bd 6519 5bbb
000000a0: cdf8 fe3a 0242 7b3c a158 df3c 69e0 013c
000000b0: 3487 9ebc b233 18bd 516b a73c ea6a ccbc
000000c0: 6170 543c f46f dabc 2d78 b33c 3fcf 7b3c
000000d0: 11d1 39bc d75c 03bc 2023 063d 21ab 09bc
000000e0: 2e40 c4bb 936f 27bc 9f77 d63c 3ac0 833c
000000f0: 0d11 4abc 5d27 55bc 14d1 be3c f1ae c3bc
00000100: 9523 113d ec72 2abb fad0 1e3d b9a9 3c3c
00000110: bfb9 813b 29de 7f3c f1e0 f43c c350 ab3c
00000120: b05c 6dbd 58d2 14bd 3b42 adbc 2ed3 66bd
00000130: 2427 b9bc cb85 89bd f77a 043d 8ed2 523c
00000140: bf45 fa3c accf d63c 645e 213c 93e3 263d
00000150: 2c70 d9bc bb73 0ebd 60f7 17bc 6715 fd3c
00000160: e53f 48bc 6686 2aba 15f3 72bc 8382 bbba
00000170: c2e1 133d e850 8d3c 5e58 f33c 9d94 013c
00000180: e687 b7bc 33bf 19ba 2a59 00bd 6b40 9bbc
00000190: 8efa 25bc e974 06bd 7328 93ba 8642 95b9
000001a0: 7f2a 1ebd e55c 03bc 367f ed3b 5832 223c
000001b0: c06d 5a3d 34b1 3f3c a7c1 c4bc 5ab1 edbb
000001c0: e58e 1a3c 32e5 11bd 553e 10bd b6ba 9dbc
000001d0: af42 bcbc 06db 833c 7fe4 0c3c b152 5abc
000001e0: 5b55 9a3c f670 3cbc 9909 90bc 796b a0bb
000001f0: b1ed e1bc b79b c9bc 2285 8b3c d508 013d
00000200: d7e0 e03c c0be 1c3d 2c62 85bc 0b68 043d
00000210: 0cff 81bc 77f7 fa3c 3ddf 253c fe83 11bc
00000220: 472a 163c 286c 3ebb 9e31 273d 6cd6 a6bc
00000230: 81bb c33b 04e5 93bc b194 453d 3007 9cbc
00000240: 83ef 423d 741b d43c 9c88 57bc acef 15bd
00000250: 097a 853c 3262 d53b 4252 a53c eeaa 9bba
00000260: 3f1d c23b 3506 10bd 3d59 b9bc 2d36 c33c
00000270: cde9 19bc 242a 66bc e45b 333d 8c7b d4bc
00000280: 3acb de3c 57ab cd3c 858c 933c 9f33 f03b
00000290: c4cf 143d 70aa 36bb 8228 413d ef36 b2bc
000002a0: 50f5 c73c 8d81 163d 84a5 e0b8 c96d fc3c
000002b0: e8b9 223d 0c1d 14bd 9461 a2bc a9aa c63c
000002c0: 0962 123c f89b e23c f6ec 733c f4f7 063d
000002d0: 77cd 8d39 bd3b ef3c 5c77 c33c fcf4 153d
000002e0: 508d 223d 2c87 56bc 056f 0cbd 427c 2e3c
000002f0: 3e43 ee3c ab24 0b3d c8c8 76bd ebf4 3abd
00000300: e44e 68bd 4806 58bc ec5e 14bd 03dd 1fbd
00000310: 2ad4 dfbc 6912 2fbd 121c 17bc cfe5 44bc
00000320: 11e3 95bc 2e4e 843c 551b 183d 6ec1 df3c
00000330: 5926 e03c e62a aa3c cde5 ee3c b7ed 06bb
00000340: c44a 99bd 82fa fb3c e83e c73c f8f4 483c
00000350: c163 c5bc ef25 dd3c 11c0 ca3c 20e1 f73c
00000360: c1e2 373d 99f0 143d 860a 1bbc 9800 6e3d
00000370: fe3a 22bc 5808 c23c 5cef 953c 28da d83c
00000380: b307 b93c 3799 73bc e03d 90bc ee15 39bc
00000390: 5629 57bd 8925 0fbb 7061 6fbc 602a 463c
000003a0: bfbc 7bbb 3889 073c 10e3 e43c 3ebb 213d
000003b0: e9f7 693b 257f 2f3d 5a56 1fbc ddb9 07bd
000003c0: 8f90 693c 4e54 373c 5cc6 483c 7862 50bb
000003d0: 1415 fdbb 042f 57bc 3a64 08bc ec42 08bd
000003e0: 3fdd f1bc ff82 0fbd 739c 6bbc ab03 30bd
000003f0: 68a7 24bd 8338 3e3d 7194 353b 0f4a e43a
0.027505366 -0.02708203 0.03990273 -0.002257614 0.00947895 -0.008570306 -0.0022577806 0.029379053
0.007496359 0.046139758 0.027140792 0.006960868 -0.011680019 0.02270976 0.023572924 0.008295149
-0.0076915403 0.0008363996 -0.003994384 -0.013946409 -0.0039441683 0.037454132 0.018301383 -0.0055352557
0.0242827 -0.00026848225 -0.008082506 -0.017435426 -0.038009763 0.0007924094 -0.01883425 -0.045233224
-0.05945785 -0.022643816 0.016860526 -0.030019144 -0.033712942 -0.013812561 -0.032167025 -0.0033431884
0.001945281 0.015335562 0.027263941 0.007927039 -0.01935158 -0.037158675 0.020436915 -0.024953324
0.012966246 -0.026664712 0.02190789 0.015369236 -0.011341349 -0.00801774 0.03274834 -0.008402617
-0.005989096 -0.010219472 0.026180087 0.016082872 -0.012333167 -0.013009873 0.023293056 -0.02388713
0.035434324 -0.002600844 0.038773514 0.011515074 0.0039589102 0.015616932 0.029892417 0.020912534
-0.05794972 -0.036333412 -0.021149745 -0.05635374 -0.022601672 -0.06714972 0.03234383 0.012867583
0.030550836 0.026222073 0.009849165 0.040744375 -0.026542746 -0.034778338 -0.009275287 0.030893994
-0.012222265 -0.0006505012 -0.014828463 -0.0014305863 0.03610397 0.017250493 0.029705223 0.007908967
-0.022403669 -0.0005864978 -0.031335033 -0.018951615 -0.010130538 -0.032826338 -0.0011227265 -0.00028469058
-0.038614746 -0.008017753 0.0072478307 0.009899698 0.053327322 0.011699963 -0.024018122 -0.007253808
0.009433483 -0.03561897 -0.035215694 -0.01925407 -0.022981016 0.01609565 0.0085994 -0.013325379
0.018839529 -0.011501541 -0.017582702 -0.0048956242 -0.02757916 -0.024610383 0.017031256 0.031502564
0.027450962 0.03826785 -0.016282164 0.032325786 -0.015868686 0.030635579 0.010124025 -0.008881567
0.009165353 -0.0029056165 0.040818803 -0.020365916 0.00597328 -0.01805354 0.048237506 -0.019046396
0.047591697 0.025891997 -0.013155129 -0.036605522 0.016293542 0.00651195 0.020180825 -0.0011876503
0.0059238966 -0.03516217 -0.02262556 0.023829544 -0.009394121 -0.014048133 0.043788806 -0.025937818
0.027196515 0.025106115 0.01801134 0.0073303725 0.036330953 -0.0027872585 0.047157772 -0.02175471
0.024408966 0.036744643 -0.00010711982 0.030814068 0.039728075 -0.036160514 -0.01982192 0.024251299
0.008934506 0.027662262 0.014888039 0.03295131 0.000270467 0.02920329 0.023860626 0.03661059
0.039685547 -0.013093751 -0.034285564 0.010649743 0.029084798 0.033970516 -0.060250074 -0.04564373
-0.05671586 -0.013185091 -0.036223337 -0.039029133 -0.027322847 -0.042742167 -0.009223001 -0.012017681
-0.01829675 0.01615056 0.03713544 0.027313914 0.027362036 0.020772409 0.029162312 -0.0020588466
-0.074849635 0.0307591 0.024321988 0.012265436 -0.024095418 0.026995627 0.024749788 0.030258715
0.044893984 0.036362264 -0.009462958 0.058106035 -0.00990176 0.02368562 0.018302612 0.026471213
0.02258668 -0.014868072 -0.01760763 -0.011296732 -0.052529655 -0.002184244 -0.014610633 0.012095064
-0.0038412062 0.008272462 0.027940303 0.03948521 0.0035700744 0.042845864 -0.009725178 -0.033136237
0.014255657 0.011189533 0.012254324 -0.0031796973 -0.00772346 -0.013133768 -0.008324677 -0.033266947
-0.029524444 -0.035037037 -0.014380562 -0.042972248 -0.040198714 0.046440613 0.0027706886 0.0017417091

encoder.block2.block.0.bias f4 [32]
00000000: d5c7 bc3c 7bae a93c fa1e 733c 5637 cb3c
00000010: f126 8f3c 4ae0 143d 7c22 6f3c af2d 3b3c
00000020: 4538 023d 5ea1 073d a518 5d3c f010 9d3c
00000030: 3a6a 7fba 1fc5 4f3d edc4 603d 7675 7c3e
00000040: cc8f 273c 08ec a7bb 38a1 9d3d 1f0f 843b
00000050: e9e4 3fbb 9a01 c33c e658 033d 0855 633d
00000060: cf97 1d3d 7ca2 c1bb 4a36 003d b3a9 59bc
00000070: e33d 8a3d 076e d0bb fe38 d03c 6219 b63c
0.023044506 0.020713082 0.014838928 0.02480666 0.017474623 0.03634671 0.014595624 0.011424466
0.031791944 0.033112876 0.013494645 0.019173115 -0.0009743307 0.0507251 0.054875303 0.24654183
0.010227155 -0.0051245727 0.07696766 0.004030123 -0.0029280728 0.023804475 0.032067202 0.055501014
0.038474854 -0.005909262 0.031301774 -0.013285088 0.06750085 -0.0063607725 0.025417801 0.0222289

encoder.block2.block.2.weight f4 [32]
00000000: 0c9e 763f acb2 713f b768 763f 801e 773f
00000010: 74f5 753f 307e 773f dfdf 783f 1b4e 783f
00000020: 82ee 713f 2818 793f 7eae 793f 2397 773f
00000030: 9a95 773f b491 763f 72a4 763f 362c 713f
00000040: e995 743f 9350 783f 3d98 743f 2b51 793f
00000050: 800f 783f ed99 753f 1e35 753f 1de1 753f
00000060: e77e 763f 7558 793f 37e5 763f 943f 773f
00000070: 8ba3 703f de86 783f d438 763f ec49 713f
0.9633491 0.94413257 0.9625353 0.96530914 0.96077657 0.9667692 0.972166 0.9699418
0.9450456 0.97302485 0.9753188 0.9671499 0.9671265 0.96316075 0.96344674 0.94208086
0.95541245 0.96997947 0.955448 0.9738948 0.9689865 0.95938 0.95784175 0.9604662
0.9628739 0.974006 0.96443504 0.9658139 0.93999547 0.9708079 0.9618046 0.9425342

encoder.block2.block.2.bias f4 [32]
00000000: e71e 34bb 8072 d0ba 7adc 20bc 76db 9f3c
00000010: bd3f f23c 215e 263d 1707 61bc dba2 a13b
00000020: c7f1 233c bfad 223c 27c1 74bc a307 dfbb
00000030: 9a2c 083b cd2a 3d3c e561 c13c e86a 2a3c
00000040: 22b5 1f3c 6e4e 0f3c 44db 1dbd f2f3 2c3c
00000050: c49b 60bb e9fb 44bc 5491 c1bc 1eb9 afbc
00000060: 0837 acbb 2217 b6bc b0c2 42bc fdc7 db3c
00000070: 84f3 d9bc 06a5 56bc 33d0 873a 2d85 7bbc
-0.002748424 -0.0015903264 -0.009818191 0.019513827 0.029571408 0.040617112 -0.0137346005 0.004932744
0.010006375 0.00992912 -0.014938629 -0.0068063303 0.0020778538 0.011545849 0.02360625 0.010401465
0.009747775 0.008746726 -0.038539186 0.010556208 -0.003427253 -0.012022951 -0.023628868 -0.021450575
-0.0052555837 -0.022227827 -0.011887237 0.02682876 -0.026605375 -0.013100868 0.0010361731 -0.015351576

encoder.block2.block.2.running_mean f4 [32]
00000000: 3bf4 cd3f cc44 d03f 7edc e23f 1433 c33f
00000010: bbff 963f c272 c03f f80f c23f b863 d33f
00000020: 544c e73f 7fa8 0440 60fd f83f 9453 d33f
00000030: 462c 0140 cc87 8b3f 03c4 c83f 11dd 1c3f
00000040: 698d e03f f710 cf3f a027 873f b901 e23f
00000050: aec7 ab3f 2cb9 d93f 024d 953f 4d53 913f
00000060: 7b46 873f 233c dd3f e6dc ac3f 2756 8a3f
00000070: 1f04 c33f 368c da3f 128f db3f b7ea 983f
1.6090158 1.6270995 1.7723539 1.5249963 1.1796793 1.5035021 1.5161123 1.6514807
1.8070168 2.0727842 1.9452324 1.6509881 2.0183272 1.0900817 1.5684818 0.6127482
1.7543155 1.6177052 1.0558968 1.7656776 1.3420312 1.7009635 1.1664126 1.1353546
1.0568384 1.7283977 1.3504913 1.0807542 1.5235633 1.7074039 1.7153037 1.1946629

encoder.block2.block.2.running_var f4 [32]
00000000: cf4c 9640 bd9a 9940 f292 b740 4439 9840
00000010: e9f2 3840 bf11 8340 cef0 8540 38a7 9e40
00000020: 5756 be40 6eae f840 fb91 de40 cb0a 9e40
00000030: e343 ed40 7301 2040 7109 8f40 6ca1 ad3d
00000040: 1087 b240 9ae5 ac40 735d 0040 de6e b540
00000050: f1dd 5040 234c a840 7070 3640 3f00 2840
00000060: 5bf1 1440 6c0e ad40 61bb 6f40 0484 1840
00000070: 862b 8740 ad20 ab40 3b1f aa40 84d7 2540
4.696876 4.800139 5.7366877 4.7569904 2.889826 4.0959163 4.185645 4.9579124
5.9480395 7.7712927 6.95532 4.9388175 7.414537 2.5000885 4.4699025 0.084780544
5.578987 5.4030275 2.0057037 5.6697836 3.2635462 5.259294 2.8506126 2.625015
2.3272312 5.4080105 3.7458117 2.3830576 4.224063 5.3477387 5.3163123 2.591279

encoder.final.block.0.weight f4 [3, 99, 3, 3]
00000000: b4b5 d73b e789 cd39 787e 173c cc9a 14bb
00000010: a2ff 6ebb 4564 03bb 06a5 883b 0773 c9bb
00000020: 8a37 3bb9 82ac a0bc 1c2e 923b f0a4 073c
00000030: 363b f8bb 18d3 05bc d1c9 81bc 1b76 563c
00000040: b63d 5a3c 27f3 b53b 5d88 24bb 61ea 6abc
00000050: 86f5 26bc c7f6 18bc dbff dbbc 62bc 323c
00000060: ee1d 7bbb 2ae1 7d3c faf3 4bb9 842d 0abd
00000070: 3ba5 e3bc 5139 c6bc 1efa 553d 5f3b c3bb
00000080: 004a 833c 6fde 12bc 300c c53b b25e 81bc
00000090: f0e3 cabb e31c e03b 27e6 f9b8 9fda 873b
000000a0: fdd8 12bc d804 bf3b de22 85bb a5b9 ed3b
000000b0: a8fc 03bc 89ec e23b 92f5 ffbb 17be a63b
000000c0: dede c9bb 2a9d 5c3c 84e4 9c3b 68b7 533a
000000d0: 0c90 08bc 5bad 44bc 04a6 dc3c 6065 97ba
000000e0: ee45 57bb 0586 c6bc 7323 f93c cfce b43c
000000f0: 7769 d13b c96d 7fbc 9d81 58bc 55c7 48bb
00000100: cc35 bcba 26bc c5bb 4497 17bb 9118 213c
00000110: fe35 8b3b 2923 27bc 4263 a93c 383c babc
00000120: eb38 b8bc ae8e b13b a575 28bc 3425 11bc
00000130: 078c 363b d1cd b83c ff65 2d3c c7b9 72bc
00000140: 0e93 e73b c00a a73c fcac 9ebc 35a8 5e3c
00000150: 24fa cfba cad8 c63b 2a31 a63c 8213 c33b
00000160: e72d cabc 5d6e e5bb ceba db3b c3e5 20bb
00000170: 3f43 0e3c 79bf ff3b c5e1 9abc 95b9 953a
00000180: 021f 3cbc f53a 56bb 3ce8 8e3b baca 813c
00000190: 836e 413b 0029 ad3c 8042 e23b e2eb 36bc
000001a0: 7d0a 8bbb 2f3c 9ebb 0e64 5cbc 3a00 743c
000001b0: c6f5 6b3a 9afc eb3b 76e9 88bc 9933 a13c
000001c0: 339e 9bbc eecb 80bc bad9 e3bb 18ac b63a
000001d0: 9328 4e3c 112c 50ba 1321 d039 f0b2 e63a
000001e0: 102a bd3a fe28 6839 4828 0abb 6a06 59ba
000001f0: 24fb ddba 7719 5a3b d600 80bc c37b 97bc
00000200: 7e7a c73b 5534 79bb 66c0 ee3b 953a b33c
00000210: 595a a03c 60d6 133c 1af5 05bc a444 9ebb
00000220: 2447 e1bb 842d 993c d803 79bc 0133 873c
00000230: be7d 8d3a 6e5e 553c d70f 25bc 88ed 643c
00000240: fd77 0e3c 8ddc cd3c 2577 53bc 707d 7c3c
00000250: e746 d7bb 1d1b 60bb 071b 2e3b 07c8 7cbc
00000260: dab1 8c3b 0816 573c faf9 c53c 603a 943b
00000270: a330 eabb 5d6a 6fbb 1345 c4bb 08b9 b33c
00000280: 52f0 17bc a84a 623b c912 133b fd57 1bbc
00000290: 1d82 cd3b aeb0 5c3c e89b 96ba 7563 8ebc
000002a0: 50a9 1ebc c0b8 7a3c f6e6 d2bb 1908 b73b
000002b0: bdf0 903b a4d6 2fb9 02d1 d4bb c25f 99bc
000002c0: 4ff1 f23b 4997 133c e47e c5bb 1f45 b53a
000002d0: ace1 35bc 2967 303b e42f e13b 92ab 0ebc
000002e0: ca2f b73c 964e f3bb 0e93 5bbc 03d5 f63a
000002f0: b32d d33b a471 1a3c d73d ca3c bd9a 98bc
00000300: 4814 833a 92c4 a93c bfa8 0dbd 7305 99bc
00000310: 08b7 183d 908d 583c 3fa3 0ebc cf36 a3bc
00000320: bbe4 833c 3a72 a93c fe1d 0a3c b6b5 7cbc
00000330: e8c8 563c 5350 acbc e4ea b73a 21e1 be3b
00000340: 3e7e d83b c112 573c 42b2 02bc 565e 403b
00000350: 8c3c 74bb 6cbc b2bb 66a3 09bb 30e3 143c
00000360: 847b 6f3b 4c49 94bc 642d 293c acaf 933c
00000370: 7c21 de3c 886b 23bc 4e51 a5bc b0e4 a3b7
00000380: 7e21 37bb 60d4 bc39 f95a 0d3d a82b 363b
00000390: d742 6b3a ad91 c9bc 6d7d c3bc 8135 d03c
000003a0: e711 dbbc 702c 45bc 3b91 5c3b 420e babb
000003b0: f703 18bc d2cb 233c 7595 87bb 09ba bcbc
000003c0: 9061 b1bc 03b0 9d3c 37fb ad39 c8d2 8abb
000003d0: 35d4 54bc 5744 c9bb 118b 883b 5744 2bbd
000003e0: 6581 ce3c 4234 413c a6bf a03c a7d4 26ba
000003f0: e12b cf3b a1e7 a53c c755 83bc 57ec ba3c
0.00658294 0.00039203392 0.009246461 -0.0022675274 -0.0036468287 -0.002004878 0.004170063 -0.0061477455
-0.000178544 -0.019613508 0.004461063 0.00827907 -0.007575418 -0.008168004 -0.015843304 0.013089682
0.013320377 0.0055526677 -0.0025105693 -0.014338107 -0.010190373 -0.00933618 -0.0268554 0.010909172
-0.00383174 0.015495578 -0.00019450477 -0.033734813 -0.027788749 -0.024197252 0.052240483 -0.0059580053
0.016026497 -0.008964165 0.0060134158 -0.015792225 -0.006191723 0.006839381 -0.000119161145 0.0041459347
-0.008962867 0.005829435 -0.0040629944 0.0072547966 -0.008055843 0.00692517 -0.0078112567 0.0050885784
-0.006160601 0.013465205 0.0047879834 0.0008076341 -0.008335125 -0.012004222 0.026934631 -0.0011550598
-0.0032848078 -0.024233827 0.030412411 0.02207127 0.006390746 -0.01559014 -0.013214496 -0.003063639
-0.0014359294 -0.006034392 -0.0023130933 0.009832517 0.0042483797 -0.010201254 0.020677213 -0.022733793
-0.022488078 0.00541862 -0.010281955 -0.008858968 0.002785446 0.022559078 0.0105834 -0.014814801
0.007067091 0.020390868 -0.019369595 0.013589908 -0.0015867394 0.0060683237 0.020287115 0.0059532532
-0.024680091 -0.0070016817 0.0067056185 -0.002455101 0.008683025 0.0078048077 -0.018906483 0.0011423106
-0.011482002 -0.003268895 0.0043611806 0.015843738 0.0029515333 0.021137714 0.0069049 -0.011164637
-0.0042431937 -0.004828952 -0.013451589 0.014892632 0.00090011617 0.0072017433 -0.016712885 0.019677924
-0.018996334 -0.015722241 -0.0069534453 0.0013936786 0.012582916 -0.0007941137 0.00039697494 0.0017600935
0.0014432091 0.00022140515 -0.0021081138 -0.0008278849 -0.0016935808 0.0033279338 -0.015625399 -0.018491631
0.0060876003 -0.0038025577 0.0072861193 0.02187852 0.019574331 0.009023279 -0.008176113 -0.00482996
-0.0068749357 0.018698461 -0.01519867 0.016503813 0.001079492 0.013023002 -0.010074577 0.0139726475
0.0086956 0.02512958 -0.012906824 0.015410766 -0.0065697315 -0.0034195848 0.0026566403 -0.01542855
0.0042936625 0.013127811 0.02416705 0.0045235604 -0.007146911 -0.0036531903 -0.0059896796 0.021938816
-0.009273605 0.0034529362 0.0022441617 -0.009481427 0.006271614 0.013469858 -0.0011490555 -0.01738141
-0.009683922 0.015302837 -0.006436224 0.005585682 0.0044232295 -0.0001676926 -0.0064946422 -0.018722419
0.00741402 0.009008237 -0.0060270894 0.0013829804 -0.011101168 0.0026916957 0.006872164 -0.008707898
0.022361655 -0.0074251397 -0.01340176 0.0018831793 0.0064446568 0.009426508 0.02468769 -0.018628472
0.0010000551 0.020723615 -0.034584757 -0.018679356 0.037283927 0.013217345 -0.008705913 -0.019923596
0.016100278 0.02068435 0.008430002 -0.015424183 0.013109423 -0.021034395 0.0014031795 0.0058251773
0.006606846 0.01312703 -0.00797707 0.0029353104 -0.0037267534 -0.0054545905 -0.0021001934 0.009087369
0.0036542127 -0.018101357 0.010325763 0.018028103 0.027115576 -0.009974368 -0.02018037 -1.9537605e-05
-0.0027943547 0.00036016386 0.034510586 0.0027797017 0.00089744985 -0.024605596 -0.023863519 0.025416138
-0.026741935 -0.0120345205 0.00336559 -0.005677969 -0.009278289 0.009997325 -0.0041376897 -0.023037927
-0.021652967 0.019248968 0.000331843 -0.004236553 -0.012990047 -0.00614218 0.0041669686 -0.04181322
0.025208184 0.011792244 0.019622635 -0.0006364085 0.0063223694 0.02025205 -0.016032113 0.022817774

encoder.final.block.0.bias f4 [3]
00000000: d0ee adbb 8311 c03c 700a e7b9
-0.0053080097 0.02344585 -0.0004406753

decoder.initial.block.0.weight f4 [32, 3, 3, 3]
00000000: cd1f c5bd bae9 e5bd 349e e83d cfed c13d
00000010: 8e98 d23d 29b2 1bbe 3ffe d1bd f1b2 433e
00000020: 4289 ffbc 9c27 983d 0dfc 91bd 681d 4d3d
00000030: 8e89 963d 482d 2dbe 9e81 9c3d d259 5e3c
00000040: cf6a b2bd f7df 65bc 9fe9 913d cf2f 37bd
00000050: 3d90 0a3d f49f 94bd 54f8 403e f16b f4bd
00000060: b491 c03c 0526 27be 8140 003e e4e4 18be
00000070: 0094 233e 43cb 00be 9ef5 373d 01d8 853c
00000080: b885 333e 2f91 173e d73e 2c3e ebd5 7ebd
00000090: 7e4a 983d 0b14 56be 7dda 93bd 7f33 7bbd
000000a0: 1c6b 77bd f2ee 7d3c 7ef0 18be ab4d 1abd
000000b0: c277 fdbd f67f 08bc ccd2 353e b4f4 e03d
000000c0: 97e1 483d 0dc5 b93c 185e 3ebc 88f1 e43c
000000d0: dc33 bfbd b557 993d be6a 19be 5911 f73d
000000e0: b9f5 a73d 206f 413b e431 09be ba25 4c3e
000000f0: d14f d7bd fcb4 f9bd 2bdb fe3d 6e86 11be
00000100: 56be a4bd 934f 32bc cf93 b1bd 8f97 353e
00000110: 02c8 fd3d 844f efbb 114f ca3d 001c 9bbd
00000120: 246d 45be 5f6a 38be a8de 03be e289 b03d
00000130: a160 593d 00bf f23d e5a5 7dbd 2ea5 253e
00000140: 627b 093e 56d2 1dbe c4ed 513e 07ec 8abd
00000150: b53a 0d3e 6100 433e 5e79 26be 1d72 48bd
00000160: 9e07 13be 793b 203d 58cb 1ebe 918f 4c3e
00000170: a0f4 9a3d 4d75 973d cb01 c5bd 3a93 8abd
00000180: 6022 e83c 6538 083e 4212 3dbe 643d 8abd
00000190: b243 67bd 78cf a23d 2d56 b1bd f806 4ebe
000001a0: 04ba ea3d 44b2 af3d e11b 223d 3e7e b53d
000001b0: b693 143c b9da 1a3d ba09 df3c 2d0b 2a3d
000001c0: 23ec de3c f9cc 78bd 874b 04be 696c 80bc
000001d0: 6194 843d 0af1 ff3d dff3 0ebe 0a5a 7e3d
000001e0: 6fc5 9fbd fa3c d93d cbaf 083d 3089 c03d
000001f0: c89f 273e 8c48 473c 7713 273e 5be6 e43d
00000200: 1784 f93d ddad c43d 60e2 333e 87d2 27bd
00000210: 040c 1fbd 5765 83bd 5e1e 1ebe 6c3f 95bd
00000220: c9c4 2ebe b41b 1cbe db1e 9bbc 2065 c03c
00000230: 5a96 373e 081f 8e3d 8c27 173e 77d1 eebb
00000240: 43ce 363e 119b 31be d255 0abe db97 33bd
00000250: 74f1 9f3d cf62 fd3d 06fd 04be b417 dc3d
00000260: 5412 90bc ecda 3abe c54c 173e 8429 3abe
00000270: 4fd9 293e 7bad e43c 92e2 78bd 7430 b9bc
00000280: 3cbd ad3c 06e8 e03d fb9e e0bd ab69 3d3e
00000290: 61f3 aebd 6597 d0bd 7ec7 1c3e 888b 65bd
000002a0: c9ee a5bc 5fe3 e9ba 38fc 903c 5995 8f3c
000002b0: da05 b4bc 8914 d2bd c227 0bbe 831e 2ebe
000002c0: 81f1 e83d 3386 083e ba5a 1a3e c4be 763b
000002d0: 7178 133e a782 c3bd 0197 783d 7817 1a3e
000002e0: 8021 ad3d b032 863c 7a9e b5bd 7ee4 17be
000002f0: 6c7f 00be 89c8 523d 1a92 b93d 40b4 883d
00000300: 04c2 2d3e 760f a53c a370 41bd a764 c53d
00000310: ca87 173e 52b5 b43d 9903 b6bc 033b 803d
00000320: 07af 92bd 2e65 d0bb 4044 0dbe 6b49 b2bd
00000330: 0961 633e db79 d83d 0a11 e63d 4054 1cbe
00000340: ee9e 033e 7fab 543d 88da 07be 2897 3e3e
00000350: 835c 1dbd 35f7 53bd 1fb5 90bd 60e7 8bbd
00000360: 6680 3bbc eb69 c93d 4734 01be a74b 003d
00000370: 7388 f8bd 461f aabd 6a6a c9bd 9fd9 27bd
00000380: 9821 303e 98c8 273e 8975 ae3d 3965 13bd
00000390: c811 a7bd 5640 c03d 998d a33d 8948 77bd
000003a0: d1a2 f5bc 0865 943d fc0f 9fbd 0696 d5bd
000003b0: e8a6 e83a 233d 3ebe 3091 553e e55e 2b3e
000003c0: 9e36 d33d b82d b7bd 52b9 fcbd 9b2f 243e
000003d0: 653e 873d 13ed ba3d 959c bcbc 6bfb cbbd
000003e0: 9006 ee3d b2d3 20be 3825 b5bd 169a afbc
000003f0: 338f c43d 0f88 8a3d aec0 a2bd 1956 143d
-0.09625206 -0.112262204 0.113583 0.094691865 0.10283004 -0.15204681 -0.10253572 0.1911123
-0.03119338 0.0742943 -0.07128153 0.050076872 0.07350455 -0.16911805 0.0764191 0.0135712195
-0.08711778 -0.014030448 0.07124638 -0.04472333 0.033828963 -0.07257071 0.1884473 -0.11934651
0.023506977 -0.16323097 0.12524606 -0.14931065 0.15974426 -0.12577538 0.044911973 0.01633835
0.17531478 0.14801477 0.16820846 -0.062215727 0.07436083 -0.20906083 -0.07219408 -0.061328407
-0.06040488 0.0154988635 -0.1493549 -0.037671726 -0.123763576 -0.0083312895 0.17756194 0.109841734
0.049043264 0.022676969 -0.011619113 0.027947202 -0.09336063 0.07487432 -0.14982125 0.12063856
0.08201165 0.0029515699 -0.13397938 0.19936267 -0.10513271 -0.12192723 0.12444147 -0.14211437
-0.08044116 -0.01088323 -0.086707704 0.17733596 0.12391664 -0.00730318 0.09878362 -0.075737
-0.19279915 -0.18009327 -0.12877905 0.08620049 0.053070668 0.118528366 -0.061925787 0.16176292
0.13425973 -0.15412268 0.20500857 -0.067833 0.13791926 0.19043113 -0.16257235 -0.048936952
-0.14358374 0.039119218 -0.15507257 0.19976641 0.0756619 0.0739542 -0.096194826 -0.067663625
0.028336704 0.13302763 -0.18463996 -0.067499906 -0.056461044 0.07949728 -0.08659015 -0.20119846
0.11461261 0.08578923 0.03957737 0.088619694 0.00906842 0.037806246 0.027226318 0.041514564
0.027212208 -0.060742352 -0.12919436 -0.015676694 0.064736135 0.124971464 -0.13960217 0.062097587
-0.07801329 0.106073335 0.033370774 0.094011664 0.16369545 0.012163293 0.16316019 0.11176749
0.12183397 0.09603474 0.17566824 -0.04097226 -0.03882982 -0.064158134 -0.15441272 -0.072874874
-0.17067255 -0.15244943 -0.018935611 0.02348572 0.17928448 0.069395125 0.1476118 -0.0072881537
0.1785212 -0.1734431 -0.135093 -0.043845993 0.078097254 0.12372362 -0.12987146 0.107467085
-0.017586865 -0.18247575 0.14775379 -0.181799 0.16586803 0.027914753 -0.06076295 -0.022606112
0.021208398 0.10981755 -0.10967823 0.1849734 -0.085425146 -0.10185126 0.15310475 -0.05604127
-0.020255463 -0.0017844251 0.017698392 0.01752727 -0.021975446 -0.10257823 -0.13589385 -0.17003827
0.11374188 0.13332443 0.15073672 0.0037650326 0.14401414 -0.09546404 0.060690884 0.15048015
0.08453655 0.016381592 -0.08868118 -0.14833257 -0.12548608 0.051460776 0.0906107 0.06675005
0.16968542 0.020148974 -0.04722656 0.096383385 0.14797893 0.088236466 -0.022218512 0.062612556
-0.0716229 -0.006359718 -0.13795567 -0.087054096 0.22204985 0.10570117 0.11233719 -0.15266514
0.12853596 0.051921364 -0.13266957 0.18612349 -0.038418304 -0.051749427 -0.07065796 -0.06831241
-0.011444187 0.098346554 -0.12617598 0.031322148 -0.121354006 -0.08306746 -0.0983475 -0.040979024
0.17200315 0.16385114 0.08518512 -0.035985205 -0.081576884 0.09387271 0.07985992 -0.06037191
-0.029984863 0.07245833 -0.07766721 -0.10429005 0.0017749937 -0.1857801 0.20856166 0.16735418
0.10313152 -0.08944267 -0.123400345 0.16033785 0.06603698 0.091272496 -0.023023883 -0.099600635
0.116223454 -0.15705755 -0.088449895 -0.021435779 0.095976256 0.06764232 -0.07946907 0.03621492

decoder.initial.block.0.bias f4 [32]
00000000: f760 fd3d 76b8 3e3e 4f9a d5bc ba44 c1bb
00000010: a724 02be a106 673c 6cba f93d 7020 b6bd
00000020: 78c9 623e 6a23 ac3d ba6b f83d bbd6 223e
00000030: f15b cb3d c16a e03c 4361 fa3d a7f1 883c
00000040: e9d2 e83d 36bb 323e f401 893d 6255 53bc
00000050: 41a7 753e 14b7 4c3e e649 b0bd 7fe8 4b3e
00000060: 6efc 43be 6972 3c3e 74be 9f3d 9f65 68bc
00000070: a2fd 6bbc 8803 433e 1209 f93d ce2e 3d3e
0.1237201 0.18625054 -0.026074557 -0.0058980854 -0.12709294 0.014100702 0.1219376 -0.08892906
0.22147167 0.08405192 0.12129922 0.15902226 0.09929646 0.027394654 0.122255825 0.016716791
0.11368353 0.17454228 0.06689826 -0.012898775 0.23989584 0.19991714 -0.08607845 0.19912909
-0.19139263 0.18403019 0.07799998 -0.014184385 -0.0144037325 0.19044316 0.12159933 0.18474886

decoder.initial.block.2.weight f4 [32]
00000000: be4e 823f 0108 7c3f 623f 623f 9fe3 663f
00000010: 9008 6f3f 32e2 793f 8ccb 883f ba50 6e3f
00000020: 8ca4 6f3f 62a6 7c3f ed9f 7b3f 97f9 893f
00000030: 059e 813f b650 733f 091a 8a3f 31ff 6b3f
00000040: c11f 773f ea88 883f f423 703f c2df 783f
00000050: 9963 7e3f 69eb 833f d790 713f 5a66 833f
00000060: 4682 6a3f ea21 843f 10bb 8b3f 36c7 643f
00000070: f77a 783f f6bf 6b3f b78f 6d3f fea3 803f
1.018028 0.98449713 0.88377964 0.9019107 0.9337244 0.9761077 1.0687118 0.9309193
0.93610454 0.9869138 0.982909 1.0779294 1.0126349 0.9504503 1.0789195 0.92186266
0.9653283 1.0666783 0.9380486 0.9721643 0.99370724 1.0306216 0.94361633 1.026561
0.9160503 1.032285 1.0916462 0.8936647 0.9706263 0.92089784 0.92797416 1.0050046

decoder.initial.block.2.bias f4 [32]
00000000: 910c 22be 994e 48be a12d e8bd a130 35bd
00000010: 00ac 4b3e 28fb 33be e521 a1bd b95c 273d
00000020: 253a 0ebe 0ed7 cd3d 56c9 453e 479f 20be
00000030: bfdf 2fbe faff 6a3e 3037 49be b511 25be
00000040: b9cc 243e de0e 19be 7ecc 67be 6dd8 1cbc
00000050: 6479 64be 87ce a73d 8f4a 4abe 2e2b 36be
00000060: ea52 71be 1d32 4bbe a21f 92bd 1d99 b0bd
00000070: 6a7a 573d 6585 6dbd ebb9 fcbd 527a 86bd
-0.15825106 -0.19561233 -0.11336828 -0.04423583 0.19889832 -0.17576277 -0.07867793 0.04085991
-0.13889368 0.10050784 0.19315085 -0.1568576 -0.17175196 0.2294921 -0.19649959 -0.16120036
0.1609372 -0.14947078 -0.22636601 -0.009573084 -0.22311932 0.08193689 -0.19755004 -0.17789909
-0.23566785 -0.19843335 -0.0713494 -0.08622954 0.052606978 -0.057988543 -0.123401485 -0.065662995

decoder.initial.block.2.running_mean f4 [32]
00000000: dd0d f73d ef5a 623e d019 783c a79e d23b
00000010: e894 683e eaea f53c 5d50 db3d ae2d 813e
00000020: 253c 6b3e d3ac 623e c3ba 053e 691e 2b3e
00000030: 75fe d63d 74b2 083d 8b2d 033e 0082 d93c
00000040: dc04 433e 785a 573e 9def 0a3f 3723 473e
00000050: d2a8 783e 36cf 5e3e c01e 773e c7d5 413e
00000060: 62f1 3fbb bfe7 433e d10a a53d 30b0 c33b
00000070: 5208 773c aef4 a13d 3a02 133e 2275 683e
0.12063191 0.22105001 0.015142873 0.0064276042 0.22713053 0.030019242 0.107086875 0.25230163
0.22972162 0.2213624 0.13059525 0.1671082 0.104977526 0.03337331 0.12810342 0.026551247
0.19044822 0.21030605 0.5427187 0.19447027 0.2428315 0.21758732 0.24132824 0.18929206
-0.0029288162 0.19131373 0.08058704 0.005971931 0.015077667 0.07907997 0.14356318 0.22700933

decoder.initial.block.2.running_var f4 [32]
00000000: 02ea 4939 c1df 043b 75dd 163b 5196 7d39
00000010: 2dce b73c 54be 043b e069 b439 5a0d cd3c
00000020: 6d22 6c3a b838 993b 9eae 9239 2fde dd39
00000030: 97c4 3639 b771 433a 1512 8b39 8ca9 9b3a
00000040: 2a49 dc3a 6954 453a d1a0 433d 632c 0d3c
00000050: d706 5e3a fe63 3e3a 39a0 a03c 358d 803a
00000060: f220 0335 ddc3 d639 6403 0739 bb1a 9f39
00000070: 004a 1a3b 06ba 5a3b 4484 163b 6123 bc3a
0.00019256028 0.002027497 0.0023020182 0.00024183957 0.02243718 0.0020255046 0.00034411158 0.02503078
0.00090078154 0.004675951 0.0002797739 0.00042317944 0.00017430108 0.00074556045 0.00026525618 0.001187609
0.0016806473 0.00075275317 0.04776079 0.00861654 0.0008469647 0.0007262825 0.01960765 0.0009807708
4.8849245e-07 0.0004096319 0.00012875866 0.0003034676 0.0023542643 0.0033375039 0.002296702 0.0014353805
