results/models/normal/BasicSteganoGAN/9/epoch_16.pth (torch, 345247 bytes, 59 tensors)

encoder.initial.block.0.weight f4 [32, 3, 3, 3]
00000000: c975 1d3e b24a 663e 9911 9e3d f60f c83c
00000010: 1929 aebc 3e16 193e 5c7a 6b3c e1f8 adbd
00000020: 5a2a 283d 34c7 903d 4a7c 343e 61cc f9bc
00000030: 6095 01be a829 1abe 441b 853d c926 16be
00000040: 7e5f d53d fdc6 95bd bc3a 3a3d 2463 79bc
00000050: 6536 3cbc 5970 593e 8b18 173c dc48 133e
00000060: 0969 a73d 2b7a c0bd 63cd cfbd ff28 7a3d
00000070: d686 d5bd 23cd d1bc 709b 4bbe 6bf4 143e
00000080: 1b4b e23d b7d5 f73d 41c7 0abe 8e81 0abe
00000090: 23db b93d 52d3 d2bd 8889 6a3d 14d8 b73d
000000a0: de0f c8bc aa0e ddbc 632d 0cbe b2f3 853d
000000b0: 2085 36bd 0e2b 12bc f57c 86bc 2896 94bd
000000c0: b3d0 c1bc ebf8 bfbd 4545 01be 8735 f3bd
000000d0: 2e6d b73c a3db 1e3e 4e85 1cbe f6fe d0bd
000000e0: f7ad 563d fcd2 a33d 249e d2bd 4b54 193e
000000f0: 0092 88bd 8f91 ab3d 2e6b 183e 7620 023e
00000100: 12fc 01be 8d70 1a3e 585b 1f3e 4287 79bc
00000110: 2ae8 323e f0ed b6bc 914d 24bd 4888 ab3d
00000120: fb08 a6bd e593 0bbe 391b 0bbe b75a 983d
00000130: 5f24 a33d 1990 e2bd 3d64 a5bd 7a27 f93d
00000140: 7ac0 cb3d 1a52 e03c 4723 593d 8e33 25bc
00000150: e2f9 c13d 36ad b93d 7a04 1cbe 8387 39be
00000160: c7f6 08bd cac3 11be 6a5f 06be 6724 193e
00000170: b01a cabc db00 b3bd fea4 e2bd 9e42 143e
00000180: 5bf4 19be 9299 f6bd 97d6 f2bc b094 48bd
00000190: a7db dabb fc69 cdbd 2a8f 413e b71e e3bd
000001a0: 43f5 493e ae08 17be 6c44 25be c7df 5cbd
000001b0: 9eeb a43d 7468 433e 0477 843c a189 d43a
000001c0: b9fb 373e a2fe 263d f7bd 3c3e d599 3d3e
000001d0: ec8d 013e 553f 00be ad6e 0cbe 020d b33d
000001e0: 5418 1d3c 9b0f f1bb 445d ac3d 7bdd d5bd
000001f0: 2ca1 fabd 6b22 6cbd 08f7 d4bc 6c7d 9dbd
00000200: 6917 153c 1b0f 083e b223 e33d f1f1 24be
00000210: 2b55 30be 1783 f0bc 9caf 00be bf00 3cbe
00000220: 8cca ed3d 0b45 17be f965 b2bd 98e2 f9bd
00000230: 62a5 333d bd11 dabd 7dfb 9f3d 1cae 1f3b
00000240: 341a 5fbd 0add 32be 4f34 8f3d 7219 c8bd
00000250: 9304 a23c 0133 973c 81b4 b63c 13a7 a63d
00000260: ee32 f2bc a292 b23d 6b4e c4bd 0aff 01be
00000270: 7f08 b73c d636 44be ef92 3e3d 3f1e 35be
00000280: bc90 dcba f93a edbc 729d 6b3c 85e8 4e3c
00000290: 5cb5 143e f410 45bc eb11 0abe be81 5cbd
000002a0: d90c f33d d108 dabd 5edd 6bbd f75b 0abe
000002b0: 8927 0dbe 405b f9bd 8848 483d 7b8b b73d
000002c0: 59dd 46bd b5f6 20bc 6164 0ebd 6ddd 1b3e
000002d0: 062c 413c 554a 2ebd 0f54 5cbd 6c4a 83bb
000002e0: 0752 cf3d 8d11 623d 6c9b 0bbd 7f61 a2bb
000002f0: dd20 a5bd 5975 5abc bf8d b6bc d90f 48be
00000300: cdef 833d 1dba 0dbd d29c 44be 170d 25be
00000310: ed86 0fbe e4e6 b2bc 1bbe 32be b18b 53be
00000320: b835 883d bb6f f63d 518f 033e c2dd de3d
00000330: e449 f03d 7840 f6bd d14e 4f3d f5af b13d
00000340: 2ef4 b9bd 057d f13d 223f 53be 93c1 4abe
00000350: 9c0c 07bd af70 cf3c bda7 533d e14f 9e3d
00000360: b383 2f3d 53fc 21be bf5b 38bd a266 2939
00000370: 9118 1cbe daf4 86bd aaa9 56bd 87bb d93d
00000380: 44f0 ad3d 1cb0 acbc 26f4 083c 0964 12be
00000390: ba78 32bd 5ff3 57bd 8fe5 f1bd fde5 11be
000003a0: 4645 6e3d b4c0 713d fce0 103e 2fd3 c6bd
000003b0: d934 53be dcd8 1ebe 9b2d 9cbd e984 efbd
000003c0: b439 033d ab80 0fbe 9d23 c5bd 456e 5d3d
000003d0: a693 20bd 2192 c2bd 0dca 41be f5d0 303d
000003e0: 4600 c0bd 89ae d0bc 6fb5 c9bd d84d 9d3c
000003f0: a8d0 623d 62a3 313d bb6a 003e bcd0 d63d
0.15376963 0.22489432 0.077182 0.024421673 -0.021259831 0.14949891 0.0143724345 -0.084947355
0.041056015 0.07069245 0.17625538 -0.030492963 -0.12654638 -0.15054953 0.06499341 -0.14663233
0.10418604 -0.07313345 0.04546617 -0.015221391 -0.011487578 0.21234263 0.00922216 0.14383262
0.08174331 -0.09398302 -0.10146596 0.061074253 -0.104261085 -0.025610512 -0.19883513 0.14546363
0.110494815 0.1210131 -0.13552572 -0.13525984 0.09075 -0.102942124 0.057260066 0.089767605
-0.024421629 -0.026984531 -0.13689189 0.06540622 -0.04456055 -0.008921398 -0.016417006 -0.072552025
-0.023659086 -0.09373649 -0.1262408 -0.11875444 0.022390928 0.15513472 -0.15285227 -0.1020488
0.052412 0.079992265 -0.10284069 0.14973561 -0.06668472 0.083773725 0.14884636 0.12707695
-0.12693813 0.15081997 0.15562189 -0.015230002 0.17471376 -0.022330254 -0.040113036 0.08375603
-0.08107182 -0.13630636 -0.13584603 0.074391775 0.079659216 -0.11062641 -0.080757596 0.12165733
0.09948821 0.0273829 0.05301216 -0.010083092 0.094714895 0.090662405 -0.15236083 -0.181181
-0.03343847 -0.14234844 -0.13122335 0.14955293 -0.024670929 -0.087403975 -0.11066626 0.14478537
-0.1503462 -0.1204101 -0.02964334 -0.048969924 -0.0066790166 -0.100299805 0.18902269 -0.11089843
0.19722466 -0.14749405 -0.16139382 -0.05392435 0.08052753 0.19082814 0.016170032 0.0016215333
0.17967118 0.04077018 0.18431841 0.18515714 0.12651795 -0.12524159 -0.13714094 0.087427154
0.00958832 -0.0073565966 0.084162265 -0.10442635 -0.12237772 -0.05765001 -0.0259967 -0.07689938
0.00909982 0.13287012 0.11090793 -0.16107918 -0.17219989 -0.029359384 -0.1256699 -0.1835966
0.116108984 -0.14772432 -0.08710856 -0.122014225 0.043858893 -0.106479146 0.078116395 0.0024365252
-0.05446835 -0.17467132 0.06992399 -0.09770478 0.019777572 0.018456938 0.022302868 0.08137336
-0.0295653 0.08719374 -0.095852695 -0.12694946 0.022342918 -0.19161543 0.046526846 -0.17687319
-0.0016827802 -0.028958784 0.0143808 0.012628679 0.14522308 -0.012027968 -0.13483398 -0.05383467
0.11867685 -0.10646213 -0.05758416 -0.13511644 -0.13784613 -0.12175608 0.048897296 0.08962151
-0.048550937 -0.009824445 -0.034763698 0.15221186 0.011790281 -0.042551357 -0.053791102 -0.0040066745
0.10123067 0.05519252 -0.03408377 -0.00495547 -0.08062909 -0.013333642 -0.022284387 -0.19537295
0.06442223 -0.03460132 -0.19200447 -0.16118275 -0.14016314 -0.021838613 -0.17455332 -0.20658757
0.06650871 0.1203303 0.1284764 0.10882141 0.117328435 -0.12024015 0.050612275 0.08676139
-0.09079777 0.11791424 -0.20629552 -0.19800405 -0.03297101 0.025322286 0.05167364 0.077300794
0.042850208 -0.1581891 -0.04500937 0.0001615533 -0.15243746 -0.065896705 -0.052407898 0.10631471
0.08493093 -0.02108007 0.008358991 -0.14295973 -0.043572165 -0.05272233 -0.11811363 -0.1424789
0.058171533 0.059021667 0.14148325 -0.09708249 -0.20625629 -0.15512413 -0.07625886 -0.116952725
0.032037452 -0.14013927 -0.09625933 0.05406024 -0.03920331 -0.09500528 -0.18924733 0.043168027
-0.09375052 -0.02547385 -0.09849059 0.019202158 0.05537477 0.043368705 0.12540714 0.10489032

encoder.initial.block.0.bias f4 [32]
00000000: 5f13 d73c fea9 393e 59df 333e 73df 65bd
00000010: 40ee 053d 63ff a9bd 4f95 423e 4831 24be
00000020: 8356 bbbd 619e bf3d 719a 01bd 999c e1bd
00000030: 49fb debd 8aee 783d c7dd 4cbe 5e48 05be
00000040: e71b 9c3d 32f9 38be ec60 9f3e a3c1 e13d
00000050: c814 a13e 6696 363a 0b4a 303e 391e f73d
00000060: 85cb adbd 053e a6bd 26c8 b33e bf31 453e
00000070: 61aa 513e d3fd 173e 660b ef3c f764 3dbe
0.026254354 0.18131253 0.17565669 -0.0561213 0.032697916 -0.08300664 0.19002269 -0.16034424
-0.0914736 0.0935638 -0.031641427 -0.11016197 -0.108877726 0.060774364 -0.20006476 -0.13015887
0.076225094 -0.1806381 0.31128633 0.110232614 0.31461167 0.000696516 0.17215745 0.120663114
-0.08486084 -0.08117298 0.3511364 0.19257258 0.2047515 0.1484292 0.02918024 -0.18495546

encoder.initial.block.2.weight f4 [32]
00000000: 5de7 7c3f 2c54 7c3f e828 803f 636f 803f
00000010: 68f4 573f 4903 863f 9408 7d3f 364d 743f
00000020: a622 823f bd11 623f 1687 813f 51d3 7f3f
00000030: a469 663f 60c3 7b3f 1733 883f d1d1 853f
00000040: 614f 7e3f 2645 7d3f 7bc1 6b3f a205 843f
00000050: 4d7d 7c3f 8ec9 7d3f c4a6 803f b78e 793f
00000060: 60d1 6f3f 1cb8 843f 5d39 6f3f 0a56 7c3f
00000070: e2f4 7a3f d565 863f d437 823f e75a 833f
0.9879053 0.98565936 1.0012484 1.0033993 0.8435731 1.0469753 0.98841214 0.95430315
1.0166824 0.88308316 1.011935 0.9993182 0.90004945 0.98344994 1.0640591 1.0454656
0.9933987 0.9893364 0.920921 1.0314219 0.98628694 0.99135673 1.0050893 0.9748339
0.93678856 1.0368686 0.93446904 0.98568785 0.9802991 1.0499827 1.0173287 1.0262116

encoder.initial.block.2.bias f4 [32]
00000000: 49af 6bbd 0f07 d63d b72b 243d 15b0 42bd
00000010: ca78 30bd dbda 4f3c 0e05 a43d 915e 053d
00000020: 1126 0abc 236e 3d3d fdad 85bc 9b30 95bd
00000030: 074c fcbc 61a8 a8bc 639e 50bd 1242 abbc
00000040: 646b 31bd 1ef3 0c3c ed72 063d 5bd4 2dbd
00000050: 7327 87bd da22 88bc 08ec 50bc 8812 6abc
00000060: 20f6 78bd 213e 62bd cd7e 1bbd 9e83 f53c
00000070: b162 833d 8b17 45bd cb33 5ebd 9b81 c1bc
-0.05754021 0.10450565 0.040080752 -0.047531206 -0.043083943 0.012686457 0.080087766 0.03256089
-0.008431927 0.046247613 -0.016318316 -0.072846614 -0.030797971 -0.020588102 -0.0509323 -0.020905528
-0.043315306 0.0086028855 0.032824446 -0.042438846 -0.06599321 -0.016618181 -0.012751587 -0.014286645
-0.060781598 -0.055235032 -0.037962724 0.029969987 0.06415308 -0.048118155 -0.054248612 -0.023621371

encoder.initial.block.2.running_mean f4 [32]
00000000: 871d ba3e 7789 073d 9e72 ba3e 0bb6 8abb
00000010: cd57 603e 5f89 aebb 5314 793d 04bf adbb
00000020: b9dd ddbb 2831 e93b 127a 94bb 222a e83e
00000030: da80 81bb 6264 a73e 6820 a1bb 4fc1 b6bb
00000040: 4248 1c3f 03be e93d 849f 4e3e 398e f73e
00000050: 935a 0f3f 4521 d43e 750f 183f 285c 3e3f
00000060: 61bf 18bb e611 a3bb cc24 853e d111 483d
00000070: 5a71 0b3d 3fa6 313c f096 053f eb83 afbb
0.36350653 0.03309008 0.3641557 -0.004233127 0.21908493 -0.0053264345 0.0608104 -0.005302312
-0.006770816 0.0071164556 -0.0045311535 0.45344645 -0.003952128 0.32693774 -0.004917193 -0.0055772434
0.61047757 0.11413195 0.20178038 0.48350695 0.5599758 0.41431633 0.59398586 0.7435937
-0.002330743 -0.004976499 0.26004636 0.048845116 0.034043647 0.010842859 0.5218344 -0.005356302

encoder.initial.block.2.running_var f4 [32]
00000000: 71cd d93c 232b f63a 9a3d 3c3c 67f2 3d37
00000010: f1ef 863c f6cf 8f36 508b 2e3b c9a4 4736
00000020: ecaa 0037 ea67 b339 bb11 8d37 95e0 833d
00000030: 1dd2 c536 226e 943c e656 0236 e739 8336
00000040: fd03 863d 8ba3 363c 2f00 d33b f569 0c3d
00000050: f22b a83c 7084 133d a41e 2f3d 57f0 a93d
00000060: f3aa c737 53df 8836 89cd 823b 72af 2f3b
00000070: 3122 1b3b fcc9 5b3a 2e31 683d 2bd0 5736
0.02658722 0.0018781166 0.011489296 1.1321717e-05 0.016471835 4.285942e-06 0.002663333 2.9749228e-06
7.66919e-06 0.00034218963 1.6816766e-05 0.0643932 5.895518e-06 0.018118922 1.942209e-06 3.910845e-06
0.065437295 0.01114739 0.006439231 0.034280736 0.020528767 0.036014974 0.04275383 0.08297794
2.3802253e-05 4.079114e-06 0.003991787 0.0026807454 0.0023671503 0.0008384285 0.056687526 3.2158666e-06

encoder.block1.block.0.weight f4 [32, 41, 3, 3]
00000000: f9f3 91ba e932 03bc 72c5 1c3d 3721 5f3c
00000010: 2581 e93b 9949 59bd 60af 7c3d 1c3f 6dbc
00000020: 5265 bfbc 3182 34bc 2541 f9bc 08cd a4bc
00000030: 5f76 57ba 6327 43bd bcfe 4a3c d6ff 8a3c
00000040: bfce 713c 655a a13c 7bd5 013d 9a1e ee3c
00000050: 9f3e 123d 941d f33c 48a9 a33d 5ce3 6cbd
00000060: 012e b13a cbf3 a53b d16d 26bd 5765 46bd
00000070: fd8a 523c ab48 93bb 38f7 903c 4d52 3b3c
00000080: 96c3 ab3c b17f 9ebc 72e0 763c 2f52 babc
00000090: 4523 9f3c 24b0 cb3c 7364 c1bc 3cfd 1d3d
000000a0: 0951 99bc 64e1 adbc 5b16 3cbc 12b0 0c3d
000000b0: 2507 783c 2f4b 6b3b 29e8 363d b232 613d
000000c0: 0dc4 523d bd9d a43d 95e8 b83b 4475 0f3d
000000d0: ba6e 613c 4ce0 783c c26b 8f3b d3c1 91bc
000000e0: 5158 1e3d 8bd5 043d 2a17 723c 153e 023c
000000f0: bebb 60bb 28ec 87bc 1b69 173d 5551 49bd
00000100: edf8 f2bc 83b8 a0bc 335e 693c cdd9 d9bb
00000110: 6e7a 353c f867 1abd 3c79 113d f738 273d
00000120: 228a 9e3d 6e85 da3c ac24 36bc 9f19 953c
00000130: 1983 dbbb 785d 153d b2d0 f23c 8d46 b4ba
00000140: 0abb 313b 5ec1 7dbc 1c0c efbc 20fb 24bc
00000150: 397a 36bc b343 2e3d 5384 e3bc 86b8 3dbd
00000160: 39db 313c 29a8 453c 3502 363d bfe3 843d
00000170: 0dc6 3f3d 0067 333d 3e50 ec3c e7a7 c43d
00000180: a20f 9a3a b42d 603c cb04 773b 16fe c9bb
00000190: 7be4 173d 47b0 b63c 3713 6dbc c9f4 99bc
000001a0: 4531 18bd a1c5 613c ae55 4f3d c977 9f3c
000001b0: c07c 22bd 0cb9 ad3c afec 95bb 95c7 c93c
000001c0: 23fb 273b 92e2 4ebc e0ae 22bd cc20 cdbc
000001d0: 3cf0 8d3c 509f 5ebd 283e 9abc 11f6 da3c
000001e0: 1a59 3fbc 6605 f73b c149 253d f839 56bd
000001f0: c95c cd3a 9644 21bd d22d 553d 08de 703c
00000200: 877d 003d 36ec 5dba 85b7 80bc e35b 82b9
00000210: 728c a03c 2d17 0c3d fa35 b2bd 5274 843d
00000220: a2b9 513d f0df 81bd 1c92 c0bc dd53 95bc
00000230: 6eb5 833c e7b7 46bb 0420 34bd 9af9 83bc
00000240: 6338 adbc cd89 50bc f81b 763d 0964 a13b
00000250: c6f2 56bd f6b2 0dbd 4017 873c 4e84 9a3b
00000260: a63b 1e3c 52d7 1bbc 44a5 363d e872 1c3c
00000270: 82c0 0bbb 3276 f0bc a7ad 3bbc d3c2 8fbc
00000280: 16ca 273d b6d0 2c3d 7358 bebb 77b3 7ebd
00000290: 8658 6d3c 8469 233c 17db 69bc d220 03bc
000002a0: a752 ef3c b430 84bd 1efd aebb 2666 653d
000002b0: b3ae 0e3d e3ab 20bd 89f2 bcbc 6947 3cbd
000002c0: 9ab8 03bc c94d 7b3d 9e27 67bc cf9d 763c
000002d0: bb11 bcbb 8c0e 2b3d e3e0 9cba 8230 21bd
000002e0: ad65 86bd 00ac 56bd ef32 92bc 9961 893d
000002f0: 7778 31bb b6c8 8d3d e155 16bd eb2c 00bc
00000300: c8ab 343d d8e0 3dbc dd23 84bd 2eaf 99bc
00000310: d0e9 35bc 018f f7bc 5304 163c 1ac6 d83c
00000320: 7062 c33b 8f8c ddbc 11e3 183d 62a4 0d3d
00000330: cc50 f03c eba0 f9bb a2ed 503d f447 36bc
00000340: a21d 3b3c dd3d 273b b3f8 5bbb 1445 11bd
00000350: 0b21 ff3c e0b7 2bbd 8b46 203d 2d7b 483d
00000360: 38a0 0e3c 3240 253c 2a69 383c a0c3 943c
00000370: 106d 45bc 6699 4d3c 15b9 6dbb 97ca a2bc
00000380: 09f1 f4bb 36b9 f0bc 91c7 a83c a7ed 89bc
00000390: 71e1 24bd b6d8 563d a0b2 033d 7d17 8dbc
000003a0: 73c6 353c 0375 c83b 627b 00bc 709e 0a3b
000003b0: 484e 24bd 561a af3a cd11 56bd 317a 10bc
000003c0: 4e05 46bd bb10 c1bc d7d9 a4bc b35d 0abc
000003d0: 4e63 61bc af67 d1ba fbe6 d7bc b99c 9b3c
000003e0: d76e 2bb9 abcd d7bc fc94 0dbd 307a 443c
000003f0: ecdc 26bd 4f01 3ebd 2cd8 a23c a3a8 c9bc
-0.0011135332 -0.008007743 0.038274236 0.013618759 0.007125991 -0.053048704 0.061690688 -0.0144803785
-0.023363743 -0.011017368 -0.030426571 -0.020117298 -0.0008219238 -0.047644984 0.012389835 0.016967695
0.014758765 0.019696424 0.03169773 0.029067326 0.03570425 0.02967719 0.07991272 -0.057834014
0.0013517739 0.005064463 -0.040632073 -0.04843649 0.01285052 -0.0044947467 0.017696008 0.011433196
0.020967286 -0.019347997 0.01506816 -0.022744266 0.019425998 0.024864264 -0.023607468 0.03857158
-0.018715398 -0.021225639 -0.011479939 0.0343476 0.015138422 0.0035902967 0.044655 0.054979987
0.0514565 0.08037899 0.0056429603 0.035023943 0.013759309 0.015190195 0.0043768594 -0.017792618
0.038658444 0.032430213 0.014776031 0.007949372 -0.003429159 -0.0165921 0.03696547 -0.04914983
-0.029659713 -0.019619232 0.01424365 -0.0066482783 0.011076553 -0.03769681 0.03551601 0.04082581
0.077411905 0.026674952 -0.011117142 0.018200694 -0.0066989777 0.036466092 0.02964053 -0.0013753936
0.002711954 -0.015487997 -0.029180579 -0.0100696385 -0.011137539 0.04254503 -0.027773058 -0.046318553
0.010855489 0.012064018 0.0444357 0.064887516 0.046819735 0.0437994 0.028846856 0.09602337
0.0011753927 0.0136827715 0.0037692066 -0.0061643226 0.03708313 0.022300852 -0.014469913 -0.01879348
-0.037156362 0.013780029 0.05061882 0.019466298 -0.039669752 0.021206401 -0.004575334 0.024631301
0.0025631867 -0.012627261 -0.039717555 -0.025040053 0.017326467 -0.05435115 -0.018828467 0.026728662
-0.011678958 0.0075384853 0.04035354 -0.052301377 0.0015667911 -0.03937205 0.05204565 0.014701374
0.031369712 -0.0008465679 -0.015712509 -0.00024863993 0.01959822 0.03420179 -0.087017015 0.06467499
0.051202424 -0.06341541 -0.02350717 -0.018228466 0.016077723 -0.0030322017 -0.043975845 -0.01611023
-0.021145051 -0.012728167 0.060085267 0.004925255 -0.05247762 -0.0345945 0.016490579 0.004715479
0.009657776 -0.009511786 0.044591203 0.00954888 -0.002132446 -0.029353235 -0.011454976 -0.017548954
0.04096421 0.04219123 -0.005808884 -0.06218287 0.014486438 0.009973887 -0.0142734265 -0.00800343
0.029214216 -0.06454602 -0.0053402325 0.05600562 0.034834575 -0.039226424 -0.023064869 -0.04596654
-0.008039618 0.06135348 -0.014108567 0.015052273 -0.0057394183 0.04176192 -0.0011968877 -0.0393529
-0.06562362 -0.052410126 -0.017846553 0.067080684 -0.002707986 0.06923048 -0.036702994 -0.007823209
0.044109136 -0.011589251 -0.06452153 -0.01876029 -0.0111031085 -0.030219557 0.009156304 0.02646165
0.0059626624 -0.027044563 0.037325922 0.034580596 0.029335402 -0.00761806 0.051007874 -0.011125553
0.011420639 0.002551905 -0.0033564984 -0.03546627 0.031143686 -0.041923404 0.039129775 0.048945595
0.008705191 0.010086106 0.011255542 0.018159688 -0.012049928 0.01254878 -0.0036273648 -0.019871993
-0.0074750227 -0.02938519 0.020602973 -0.016836954 -0.04025406 0.052452765 0.032152772 -0.017223114
0.011094677 0.0061174645 -0.007841917 0.0021151565 -0.040113717 0.0013359289 -0.05226307 -0.008818195
-0.048344903 -0.023567548 -0.020123405 -0.008445191 -0.013756586 -0.0015976335 -0.026355257 0.01899563
-0.00016349122 -0.026343187 -0.03456591 0.011992022 -0.04073803 -0.046387967 0.01987847 -0.024616545

encoder.block1.block.0.bias f4 [32]
00000000: 38ac db3d 7b76 c93b 1186 903c 12a3 8fbd
00000010: dd9d a2bc 27cf 483e 6ff5 8dbc 094c 3ebd
00000020: e976 9b3d e5b2 643a 9f19 9d3c da89 38bd
00000030: ce01 493d 91ec da3c f183 edbb 4367 183e
00000040: d46e c1bb c31e 7c3c 1b0f 6d3c fdcc 8a3d
00000050: eafd c13c ac52 e03c 4857 e1bd a892 123d
00000060: b07b 513c 7009 4a3e c6ed a63b b1f3 573d
00000070: 3303 8d3d fcd6 893d 95f6 353c 28a4 0cbd
0.107262075 0.006148157 0.017642053 -0.07013525 -0.019850666 0.19610272 -0.017328946 -0.04645923
0.0759104 0.0008724167 0.019177256 -0.04505334 0.049073987 0.026724132 -0.0072483947 0.14883141
-0.0059031043 0.015388194 0.014468933 0.0677738 0.023680646 0.027383171 -0.11002976 0.035784394
0.012785837 0.19730163 0.005094263 0.052722637 0.06885376 0.06730458 0.011106153 -0.03433624

encoder.block1.block.2.weight f4 [32]
00000000: 3cb8 6f3f 8765 733f 9946 803f c0fc 903f
00000010: 5a8d 763f 8d93 663f d0f9 7b3f bf0f 8b3f
00000020: 8a25 713f 463e 833f 421e 773f b8a3 733f
00000030: 4380 793f 12ad 7c3f fb17 793f d55e 783f
00000040: 56fb 7a3f 1918 813f 0a60 743f cca0 763f
00000050: 9a69 7a3f 074a 763f 1f04 8a3f 9b6c 773f
00000060: 7ae6 713f 2491 6d3f 7f01 753f 5041 733f
00000070: 8471 793f 266b 6b3f fb1d 693f bb05 7a3f
0.93640494 0.95076793 1.0021545 1.1327133 0.96309435 0.90068895 0.9842806 1.086418
0.94197905 1.0253379 0.96530545 0.9517169 0.97461337 0.98701584 0.97302216 0.970197
0.9803976 1.0085479 0.95459044 0.96339107 0.97817385 0.96206707 1.0782508 0.96650094
0.94492304 0.9279959 0.9570541 0.95021534 0.97438836 0.9196037 0.9106137 0.97664994

encoder.block1.block.2.bias f4 [32]
00000000: 5ab9 b9bd 4840 8e3d 8ad8 503d 051c 553d
00000010: c0fa 853c 1bd0 6d3c 6f5b dfbd aa96 283d
00000020: d877 4b3c 9b96 45bc a1f9 d53c 5803 203e
00000030: fbb4 783d f84d 773c eaa1 d2bc 79ee dbba
00000040: 772c 35ba c5dc 33bc f838 9d3d 1aa2 ae3d
00000050: 6a5d 983c 2a64 0abd 28d9 4ebc 0054 5f3d
00000060: b912 dcbc da08 56bc 8355 b73d 4542 1b3d
00000070: 09b7 193d 56da b9bd 838a 9d3c 54a5 1f3d
-0.09068556 0.069458544 0.050987758 0.052028675 0.016354918 0.014514948 -0.109061114 0.04115931
0.01241871 -0.012059833 0.026120009 0.15626276 0.06071947 0.015094273 -0.025711972 -0.0016779444
-0.0006911228 -0.0109779285 0.076768816 0.08527012 0.01859923 -0.03378693 -0.012625016 0.054523468
-0.026864396 -0.013063634 0.08951857 0.037904996 0.03752807 -0.090748474 0.019231087 0.03897603

encoder.block1.block.2.running_mean f4 [32]
00000000: d085 bc3f 4edf 563f d2e3 733f 8e95 483d
00000010: b4f7 7a3f 7e91 cb3f e129 4f3f afc4 123d
00000020: 87a0 473f 52f7 2e3e c8e6 063f 78fb a53e
00000030: 57ab 553f 0623 923f ef04 123f 9fff 333f
00000040: e5df 1d3f 2e93 183f 1423 5c3f 8056 853f
00000050: b7ac 703f 4113 583f c7eb 3a3d 6d63 563e
00000060: 1a65 6f3e f3d8 b43f def4 083f 7b0f 353f
00000070: 9263 3e3f 7f65 d43f 13eb 3a3f ee66 433e
1.4728336 0.83934486 0.952695 0.04897075 0.98034215 1.5903776 0.8092328 0.035832103
0.7797932 0.17086533 0.52695894 0.32418418 0.8346457 1.1416938 0.5703878 0.7031192
0.6166976 0.5959958 0.85991025 1.0417023 0.9401354 0.8440438 0.04563501 0.20936365
0.23378411 1.4128708 0.5349864 0.70726746 0.7437068 1.6593474 0.73014945 0.19082233

encoder.block1.block.2.running_var f4 [32]
00000000: 9118 7e3e 074e 883f f479 ab3f 2b3b 3b3d
00000010: 604d 0040 b69f 223f 6cc6 833f 39e8 1d3d
00000020: ed4e 4a3e aa7e e33d f163 f43d 67af a33e
00000030: 4eb3 563f fb37 bc3f 5cee 783f adf0 a83e
00000040: 996a a93f dbca 8c3f 4b9c 823f 898e b83f
00000050: 0454 a73f 9ee6 a23f 811f 273d 168e 193e
00000060: 687e 1c3e 8e75 2c3e c21d 4f3f c18d 3a3f
00000070: 260a 683f 5a08 f03e 2c81 143f 76fa 083e
0.24814059 1.0648812 1.3396592 0.045710724 2.0047226 0.6352495 1.0294929 0.038551543
0.1975667 0.11108144 0.11933125 0.3196976 0.8386735 1.4704584 0.9723871 0.3299612
1.3235656 1.0999407 1.0203947 1.4418498 1.3072515 1.2726629 0.04080153 0.14995608
0.15282595 0.16841719 0.8090478 0.7287255 0.90640485 0.46881372 0.580096 0.13376793

encoder.block2.block.0.weight f4 [32, 32, 3, 3]
00000000: 8388 813c 188e 9abd c004 60bd 1575 89bd
00000010: 4e9f 103c e411 e9bc 5d4a 87bc 3f4d 52bd
00000020: c5d1 33bc ab7a 2e3d 66e3 41bd 4019 11bd
00000030: a1bf c33b 9f3b 1abd ef11 013c f263 1d3d
00000040: 9f5c 00bd 499d 2d3c de7d 5bbd 56d6 b73c
00000050: 8d67 7dbc 5644 11bd 4e01 d63c ed46 943c
00000060: 90c9 39bd e736 f93c e382 0ebd 97c9 84bb
00000070: 5d7f 65bd 6501 07bd 49a5 5a3d 3652 22bc
00000080: 2c41 813c e040 55bb 7cd5 c5bc 17c3 74bb
00000090: b6a3 68ba f47a 223c feb4 83bb 5ae9 0abc
000000a0: e66f 3bbd aa48 023d 6a1c 2ebd 687f fb3c
000000b0: 3314 b73b 9382 95bc 488f fd3c fe77 6dbc
000000c0: 1fa3 95b9 93e0 6d3b 8203 fb3c e876 bc3c
000000d0: e4e6 2fbd 903b 0e3c bcfd bf3b 0b62 173d
000000e0: f3e2 a73c 94c5 e43b a49a 84bc b972 96bc
000000f0: 39e6 283d 8f1a 103d 4ba5 433c 522f b13c
00000100: ebb8 103d 6e6b f83c e17d 7e3d e8d0 a53d
00000110: cde2 c23d f2a6 8abc 2f1c 943c 75b7 b13c
00000120: 3313 08bc e676 09bd de7d 0dbd fbba 063c
00000130: 6eb5 163d a468 89bb b70f 093d d912 c93b
00000140: 447f a83c ff07 74bb 9bbb 573d 2150 3c3a
00000150: 14df 8b3c 1fb4 c83d 0abf c43c e3f7 523c
00000160: 7da7 883c b06a 193c 000e 433d 414c 833d
00000170: 7b52 3d3d b171 483d bd7c ad3c 278e 2c3d
00000180: e413 9c3d ce65 7d3d dd2d 35bc c567 29bd
00000190: ae9d 98bd d44f c43b c17f 1c3d 825e 08bd
000001a0: b628 1d3d 9323 77bd f0d0 c2bb 3194 ea3b
000001b0: d901 7ebc 2f73 f8bc 6ac7 c43c a844 c1bc
000001c0: a51f 283d 7eb0 9f3d cbfd 72bd 5ba7 99bc
000001d0: 33a8 013d 603c 0d3d e68b 2dbd beb4 fb3c
000001e0: d07c d8bb b296 35bd 9d56 3f3c aa57 a3bd
000001f0: bd19 34bd b7c2 ba3c 842d 5c3d 9d41 273d
00000200: 3b68 fc3c 6478 9cbb 7fab 06bc c074 f33c
00000210: f997 81bc 190b 20bc df5e 943c a7aa 103d
00000220: 11f5 24bd d284 c33b 7aac f43c 2488 67bc
00000230: f4f2 5e3c fb8f 8a3c aa68 d93b 0e67 03bc
00000240: b127 5bbc 114d 57bd 4e3a 9e3c 0871 473d
00000250: 4863 b5bc 0b51 e43c ac90 5c3c 8c02 d8bc
00000260: ed29 b9bc 194a 733b 93c4 b9bc 0666 b2bb
00000270: c11c 1ebc 802c ed3c b368 063d 93f7 043c
00000280: 9d03 8ebc 24dc 3b3d 983a 14bd 93f4 553d
00000290: fe7b 3cbc 44f4 6ebd 86b0 d5bc ee5a 03bd
000002a0: 9c1a 8bbd bc7c d7bc 4e60 f1bc 5352 143d
000002b0: 254e fa3b 3617 013c d4b6 2dbc 4c07 533c
000002c0: 6855 263d e150 8e3c fed8 3d3d 5e8b 41bd
000002d0: d513 ce3c 1ee8 523b dad4 c1bc 999b e5bc
000002e0: 8c98 40bd 768f 893c d4e6 943c 3a51 4e3d
000002f0: 99ff e8bc 39c5 2d3c 5d81 263d 272c 353d
00000300: dba3 10bc 0a70 773d 16f8 203d 21f8 7e3d
00000310: dcc1 b53b 87a7 88bc 7de9 853c b043 993d
00000320: 9e6d a9bc 8481 39ba b8e3 d03d 1e12 fd3c
00000330: bb3b 04bc fe77 073d 4e8c ddbb 0633 12bc
00000340: 6b99 c9bb cb4a 15bc a629 20bc 583f b13c
00000350: 1dc6 c63c e8ab 693c 30ad 823c 9d9e 093c
00000360: 4cde 803d 8394 b0bc 50c8 663d 8d35 0ebd
00000370: a2e9 c3bc 9f86 0a3d 015b 223d 30c7 34bd
00000380: 6853 003d d9a8 233d ab1f 61bc 5eb6 4f3d
00000390: a234 073d 74d9 693c c381 a2bc 0007 b4bc
000003a0: 068b c0bb 5dc5 6d3d b869 26bd 52ed 1d3d
000003b0: f2dd 94bb 3e90 4c3d 7b07 2f3c 2092 0cbd
000003c0: 29bf 033d c109 cbbc 0641 8dbd 2059 213d
000003d0: 6492 403d 835c 3a3c ce9a 03bd c838 44bd
000003e0: 409a b0bc e563 aa3c 739a f83b 64d9 40bd
000003f0: 88ca 113c 5f0c 3bbd 34b1 a63c 339f 233c
0.015812164 -0.075466335 -0.05469203 -0.06711785 0.008827044 -0.028450914 -0.016514951 -0.0513432
-0.010975306 0.042597454 -0.047336005 -0.03542447 0.0059737717 -0.037654515 0.007877811 0.038425393
-0.03133833 0.010596582 -0.053586833 0.02244107 -0.015466583 -0.03546556 0.026123669 0.018100226
-0.04535824 0.030421687 -0.034792792 -0.0040523517 -0.056029666 -0.032960314 0.053380284 -0.009907296
0.015778147 -0.003253989 -0.024149649 -0.0037347728 -0.00088744925 0.00991701 -0.0040193787 -0.008478487
-0.04576101 0.03180758 -0.042507567 0.0307004 0.0055871247 -0.01825074 0.03095211 -0.01449394
-0.0002854103 0.0036297187 0.030641321 0.023005918 -0.042944804 0.008681193 0.005859105 0.036958735
0.02049396 0.006981561 -0.01618702 -0.01836525 0.041235182 0.03518158 0.011941264 0.02162901
0.0353326 0.030324664 0.062131766 0.08096486 0.09515915 -0.016925309 0.018079845 0.021693924
-0.008305359 -0.033560656 -0.034543864 0.008223291 0.03679412 -0.0041933823 0.033462252 0.00613628
0.020568497 -0.0037236211 0.05266915 0.0007183571 0.017074145 0.0979998 0.024016876 0.012876484
0.016681427 0.009363815 0.047620773 0.06411029 0.046221238 0.04893655 0.021177644 0.042127755
0.07620981 0.061864667 -0.011058298 -0.041358728 -0.0745195 0.0059909616 0.038207773 -0.033293255
0.038368903 -0.06033666 -0.0059453174 0.007158779 -0.01550337 -0.030328361 0.02402087 -0.023592308
0.041045804 0.07797335 -0.059324067 -0.01875656 0.031654548 0.034481406 -0.042369746 0.030725833
-0.0066066757 -0.044333167 0.011678365 -0.07975705 -0.04396986 0.022797925 0.053754345 0.040834058
0.03081142 -0.004775094 -0.008219599 0.029718757 -0.015819537 -0.009768271 0.018111644 0.035318997
-0.040272776 0.005966761 0.0298674 -0.01413158 0.013607729 0.016914358 0.0066347914 -0.008020176
-0.013376162 -0.05256373 0.019314911 0.04869178 -0.022142068 0.027870676 0.013462227 -0.026368402
-0.022603 0.0037123023 -0.022676742 -0.005444291 -0.00965041 0.028951883 0.032814693 0.008115667
-0.017335707 0.04586424 -0.03618869 0.052235197 -0.011504171 -0.05833842 -0.02608515 -0.03206914
-0.06792185 -0.026304595 -0.029464867 0.036211323 0.00763871 0.007879069 -0.010602672 0.012880158
0.040608793 0.01737255 0.046349518 -0.04725205 0.025155941 0.003218181 -0.023661066 -0.028028296
-0.04702048 0.01679204 0.018176474 0.050370432 -0.028442191 0.010606104 0.040650714 0.04423156
-0.008828129 0.060409583 0.039299093 0.062248353 0.0055467915 -0.016681446 0.016346687 0.074836135
-0.020682152 -0.0007076489 0.10199684 0.030892428 -0.0080708815 0.033073418 -0.0067611104 -0.008923298
-0.006152322 -0.00911207 -0.009775555 0.02163665 0.02426439 0.014262177 0.015951723 0.008399633
0.062924 -0.02155519 0.056343377 -0.03471904 -0.023915116 0.03381979 0.03963757 -0.044135273
0.031329542 0.039955948 -0.01374046 0.05071103 0.03300918 0.014273036 -0.019837266 -0.021975994
-0.005875948 0.05804955 -0.040628165 0.038556404 -0.0045430595 0.049942248 0.010682936 -0.034319043
0.032164726 -0.024784924 -0.06897168 0.039391637 0.04701461 0.011374596 -0.032130055 -0.047905713
-0.021557927 0.020799587 0.007586771 -0.04708232 0.008898385 -0.045666095 0.020348169 0.0099866865

encoder.block2.block.0.bias f4 [32]
00000000: daed 093d 87c6 b93d ce6d b63d d05d 963d
00000010: 5f25 2c3d ea4e 293a 737b 62bd 7db1 783d
00000020: a752 a23c 777a fd3c 16b8 dabc 4bfe 8e3b
00000030: cc9e be3c 737f 903d e639 c7bc ef08 a33d
00000040: bbcb 6f3d 39aa 333d af1c 47bc 16b8 a33d
00000050: 9139 383c 8e9a 31bc 7140 a03d 0557 753d
00000060: 2281 2e3c bd5a 363d ce2f db3b d28f a63d
00000070: e4d1 a63d 188c 8c3d 3948 933c 2e53 4dbd
0.0336741 0.09071069 0.08907662 0.07342112 0.042027827 0.00064585975 -0.05529351 0.06071614
0.019814802 0.030942185 -0.026699107 0.00436381 0.02326908 0.07055559 -0.0243196 0.07960688
0.058543902 0.04386351 -0.012152835 0.07994096 0.011244194 -0.010840071 0.07824791 0.05989744
0.010650905 0.04452013 0.0066890484 0.081329 0.08145502 0.06862658 0.017978774 -0.050128154

encoder.block2.block.2.weight f4 [32]
00000000: 96a4 7c3f 8229 733f 1173 763f a9f2 763f
00000010: 72dd 763f 5d03 7f3f 2a92 763f d1be 7c3f
00000020: 6ab9 7b3f 734c 793f 1fa5 7b3f eaa3 793f
00000030: b1b3 793f 320c 7b3f 34f7 763f 80fc 7c3f
00000040: cc8f 7a3f 2acb 7b3f 85a0 7c3f 50be 7a3f
00000050: fdc6 7b3f 4cfa 7c3f 5d8e 773f 7a5f 7c3f
00000060: 6815 793f 8bf0 793f 2b55 793f accc 753f
00000070: cd22 783f ae13 7c3f cdc7 743f fe89 823f
0.9868864 0.9498521 0.9626933 0.9646402 0.9643165 0.99614507 0.9631678 0.9872866
0.98329794 0.9738228 0.9829883 0.9751574 0.9753981 0.98065484 0.9647095 0.98822784
0.97875667 0.9835688 0.98682433 0.97946644 0.9835051 0.9881942 0.96701604 0.98583186
0.9729829 0.97632664 0.9739558 0.9601543 0.969281 0.9846753 0.9561737 1.0198362

encoder.block2.block.2.bias f4 [32]
00000000: bd63 84bd 2dff 61bd 198e 8ebd 2a4f 97bd
00000010: 5fa8 9ebd 5747 873d d65e 56bd 29c7 7a3d
00000020: c899 7fbd ec3b 81bd 82cc 5f3d 25a1 823d
00000030: 9a09 8c3d ee4a 833d 2560 70bd f019 6fbd
00000040: ce21 95bd 8fd6 8bbd 3558 83bd 072d 813d
00000050: e79a a53d bb1c 703d 7ad8 7e3d dd85 83bd
00000060: b8b0 75bd c90d 833d a709 953d b3ed 93bd
00000070: ca8b 57bd f68c a63d 5b5d a2bd 9693 89bd
-0.06464336 -0.055174995 -0.06960697 -0.07388146 -0.07746958 0.06605404 -0.052336536 0.06122509
-0.062402517 -0.06310257 0.054638393 0.06378392 0.06837769 0.06410776 -0.05868544 -0.058374345
-0.07281838 -0.06828033 -0.064133085 0.063074164 0.08086186 0.05862115 0.062218167 -0.06422017
-0.059982985 0.06399114 0.07277232 -0.07223072 -0.052623548 0.08132355 -0.079279624 -0.06717603

encoder.block2.block.2.running_mean f4 [32]
00000000: 419c 193f c2a8 353f 28f4 3d3f 583e 5f3f
00000010: 24a0 4f3f 8123 cc3e 17e2 1d3f 5015 5e3f
00000020: f0b9 093f 687b 173f 66f7 053f 71e6 5d3f
00000030: ed8b 893f 61a7 7b3f f2f2 363f ae24 e63e
00000040: c498 1a3f c8ab 113f 92d0 1a3f e48c 823f
00000050: 0e45 013f d579 ff3e b56a 5c3f 557a 393f
00000060: fc3b 293f 56ed 7b3f c88f 363f d10a 343f
00000070: a65c 413f 3531 c03e a8b1 743f 0947 e93e
0.6000405 0.7096063 0.7420068 0.87204504 0.8110373 0.39870837 0.6167311 0.8675127
0.53799343 0.5917268 0.52330625 0.8667975 1.0745827 0.98302275 0.71464455 0.4494986
0.6038935 0.5690274 0.60474503 1.0199246 0.50495994 0.49897638 0.8610032 0.7245229
0.66107154 0.9840902 0.7131314 0.70329005 0.75531995 0.37537542 0.9558358 0.45562008

encoder.block2.block.2.running_var f4 [32]
00000000: 2e06 963f 33ab 033f b529 ae3f 58be ab3f
00000010: 3269 933f beac 583f 3c02 143f fcb1 c43f
00000020: fb63 383f b45f 533f 0b60 473f 3e51 c43f
00000030: 05f9 0640 28e0 1340 9a76 8b3f 7199 2a3f
00000040: 4345 583f c8e1 b53f 5cbe b03f 587f dd3f
00000050: 510d 353f 3e85 863f bcfc ed3f 6cb1 ba3f
00000060: baa8 803f 2e71 0140 8b7c bf3f e66b 373f
00000070: 0f78 8d3f a8dc fb3e 4085 f63f fa24 533f
1.1720636 0.51433104 1.3606478 1.3417463 1.1516478 0.84638584 0.5781591 1.5366817
0.7202756 0.82567906 0.77880925 1.5337293 2.108949 2.3105564 1.0895569 0.66640383
0.84480685 1.4209528 1.3808093 1.7304487 0.70723444 1.0509412 1.8592753 1.4585395
1.0051491 2.022533 1.4959882 0.71649015 1.1052264 0.49191785 1.9259415 0.82478297

encoder.final.block.0.weight f4 [3, 32, 3, 3]
00000000: 3e2e 13bc a89a 2dbd 5482 68bd c4e2 cfbc
00000010: ca11 12bd d044 02bd b1ef 52bd 2269 01bb
00000020: 4e06 ffbc a54c d8bc 84c1 f9bc 7c16 61bc
00000030: 5ac3 273c a6d6 ccbc 6e19 0cbc c429 6cbc
00000040: 1d89 aa3b 39fc 8439 7623 dbbc 3c91 193d
00000050: f1d2 4ebd 25b8 06bc b474 4bbd 522e 41bd
00000060: 5418 94bc e9e3 96bc 8e37 adbb cd6f 133d
00000070: b511 32ba 67ea 19bd 6429 ccbc 0759 ccbc
00000080: 5900 22bc 8b1d 64bd 5daa 76bd d06a f83c
00000090: 464c 06bb 5edc d93c 2c60 50bc b3b7 10bd
000000a0: 809e 87bd 63c5 89bb 5151 863b 5d93 073d
000000b0: 4034 07bd 14a8 8dbd e3f7 eb3c a873 debc
000000c0: 6524 083c 6f80 7d3d c15a 3a3d c8e7 2f3d
000000d0: 54f3 1c3b d039 d13c 388e c5bc 3a95 25bd
000000e0: efdb aabb 095d 2bbd 76e0 0f3d 9a14 28bd
000000f0: e4fc e3bb 44e1 223c 13ee 9f3c fd3b 853d
00000100: 7cab 013d 5812 a33d 003e 6abc fee7 2a39
00000110: 1afe 3d3c f86f ee3c 5b80 043d 0b5a 593d
00000120: c734 6fbd 0e6f 6dbd a8a1 1fbd 1196 853b
00000130: fc57 5abb ccaf 28bc 672b 23bc 8363 a5bc
00000140: 24ac f7bc 4328 c03c 9f0f 4ebd 85d4 8fbd
00000150: 6d93 45bd 7f3e 06bd fdb6 d9bc 29b8 773c
00000160: df33 863c 359c 6e3c 629f 6a3d 1014 a83c
00000170: 4291 05bc cfc1 813c 4f85 f63c 73db 543d
00000180: bfa3 eb3c 29b7 8abb 9038 2b3b e5bc c2bb
00000190: bb10 433d 8bde a3bc 6e0d b13b 4015 293b
000001a0: 7f03 4b3d efd8 5a3c 2b5f 403c 360f 16bc
000001b0: 87e5 22bc 238c 053d 5817 073d 4491 213c
000001c0: 0abb 4b3c 4b4d 813d d6ba 783d d997 5b3d
000001d0: d07c 293d 600a 7d3d 566c 3d3d d402 f63b
000001e0: e3d3 173d 658b 163c 1c31 6e3d 97f0 21bc
000001f0: f0d3 febc 79f7 833d 877c 05bd 39cf 56bc
00000200: c601 f5bc 59b4 2f3c 8566 33bd 6e10 83bd
00000210: a677 bd3c eaca 4ebd 34f4 5bbd 70b4 eeb9
00000220: 1ef1 4fbd 8c9c 98bd 5d20 8dbb aab9 ed3b
00000230: d39b 333d df20 073d c4ad 44bc 9974 e2bc
00000240: 9c06 9dbd 0b91 3cbd 2a5d 45bc afee 3fbd
00000250: cb54 4c3a 30c5 4ebd a2d4 3bbb 4032 92bc
00000260: 970a 813c 0985 19bd 02a4 4dbd c668 23bd
00000270: 7abe 4fbd 16fc 3d3d fbfc 19bd 81ee 1abd
00000280: b01c 35bd d3b7 6c3c 3957 88bd 139d a5bd
00000290: 9815 95bd 495a edbc 3e50 4c3d 56d3 52bd
000002a0: 84f1 a33b 89c4 fd3c c8ec 0abd 25df 263d
000002b0: 542c 8c3d 4026 7d3d 129e b1bc 7436 913d
000002c0: 51e0 6d3d 4ae3 713d 7a8b 133d 01e3 96bb
000002d0: ef6b 3fbc 0832 bdbc 3456 873c 1374 273d
000002e0: 3239 4a3d 3a6a 8539 2bb3 cc3c 9886 95bb
000002f0: 2633 233d d16e 573d 67a6 8b3d 4297 293d
00000300: cd7e 113d f8ab bf3c e41b 5c3d 9315 1c3c
00000310: adf0 f43b c8cb 223d 197a 483c 5a60 80bd
00000320: 9923 e53c 917b 0b3d ce98 843d 3805 703d
00000330: 4918 533d b6bc 363d f441 4c3d 0307 58bd
00000340: a361 d53c 5043 0abd b845 b53c 5663 d4bc
00000350: d535 e33c 56f7 ebbb b27c 8dbd e863 0abc
00000360: d8dd 5ebd d735 41bd 37f0 d4bc f383 2bbd
00000370: 8f29 a63c ef08 2b3c 174e debc 4226 413c
00000380: 01c9 02bd f64b 0a3c 27c0 4d3d b30d 953c
00000390: 1021 793d 910f 6fbc 6cc8 98ba caaa 05bd
000003a0: 35ed 0c3d 1e55 5ebc edbe 0f3d 03d9 263c
000003b0: 27d6 f0bc d334 0d3d 931b 373d b455 1f3d
000003c0: 9cdf 1b3d 2ff7 c43c 635f aebc 50b0 c43c
000003d0: abf8 e3bc 1909 453d a6ee c8bc 42fa 57bd
000003e0: 7b47 143c 289e 0abd 9779 033d 5cbb 35bd
000003f0: 92e5 14bd 32c8 2d3d a30d 71bc 4e7b 353d
-0.008983193 -0.04238382 -0.056764916 -0.025376685 -0.035661496 -0.031803906 -0.05149812 -0.0019746502
-0.031130936 -0.026403734 -0.030487783 -0.013738271 0.010239447 -0.025004696 -0.008550985 -0.014414255
0.0052043335 0.00025364922 -0.026750308 0.037492022 -0.05049414 -0.008222614 -0.049671844 -0.047163315
-0.018078007 -0.018419223 -0.0052861637 0.035995293 -0.00067927997 -0.03757706 -0.02492208 -0.024944795
-0.009887778 -0.055692237 -0.060221065 0.03032437 -0.002049224 0.026594337 -0.012718242 -0.03533144
-0.06622028 -0.0042044385 0.004099049 0.03309952 -0.033008814 -0.06916824 0.028804725 -0.027154759
0.008309458 0.061890062 0.045496706 0.042945653 0.0023948746 0.025540262 -0.024115667 -0.040425517
-0.0052142064 -0.041836772 0.035126172 -0.041035272 -0.006957637 0.009941403 0.019522702 0.065055825
0.03165768 0.07962483 -0.0142970085 0.00016298887 0.011596227 0.029106125 0.03234897 0.053064387
-0.05839994 -0.057967238 -0.038972527 0.004076727 -0.0033316603 -0.0102958195 -0.009959078 -0.020189052
-0.03023345 0.023456698 -0.050307866 -0.07022957 -0.0482363 -0.032774445 -0.026576513 0.015119591
0.016382156 0.01456361 0.057280906 0.020517379 -0.008152308 0.015839485 0.030092863 0.051967096
0.028764604 -0.00423326 0.0026126243 -0.005942928 0.047623377 -0.020003578 0.0054032123 0.002580002
0.04956388 0.013357385 0.01174144 -0.0091589 -0.009942419 0.032604348 0.032981247 0.009861294
0.01243473 0.063135706 0.060725056 0.05361161 0.041378796 0.061777472 0.046245895 0.0075076614
0.037067305 0.009188508 0.058152303 -0.009884021 -0.031106919 0.06443686 -0.03258946 -0.013110929
-0.029908072 0.010724151 -0.043798942 -0.06399618 0.023128342 -0.050486483 -0.053699687 -0.00045529334
-0.050767057 -0.07451734 -0.0043068365 0.007254799 0.043849777 0.032990333 -0.01200432 -0.027643489
-0.07667276 -0.04603676 -0.012046138 -0.046858486 0.00077946176 -0.05048102 -0.0028660675 -0.017846227
0.01575212 -0.037480388 -0.05020524 -0.03989484 -0.050718762 0.046382986 -0.037594777 -0.03782511
-0.04421681 0.014448124 -0.066572614 -0.080866 -0.07279509 -0.028973715 0.049881212 -0.051471077
0.005003156 0.030977504 -0.03391722 0.04074015 0.068443924 0.061804056 -0.02168182 0.07090464
0.058075253 0.05905465 0.036021687 -0.0046046977 -0.011683448 -0.023095146 0.016520597 0.04088218
0.049370952 0.00025446882 0.024987778 -0.004563164 0.0398437 0.052595917 0.06818848 0.041404016
0.035521317 0.02339743 0.053737536 0.009526628 0.00747498 0.039745122 0.012236142 -0.062683776
0.027971076 0.03405339 0.06474458 0.058598727 0.051536832 0.044613563 0.049867585 -0.052741062
0.026047533 -0.0337556 0.022127971 -0.025926273 0.02773563 -0.0072011156 -0.06908549 -0.008446671
-0.054410785 -0.047170486 -0.02599345 -0.041873883 0.020283489 0.010439142 -0.027136846 0.0117889065
-0.031929974 0.008440962 0.05023208 0.018195009 0.060822546 -0.014591114 -0.001165641 -0.03263358
0.034405906 -0.013570098 0.03509419 0.010183576 -0.02939899 0.034474205 0.04470403 0.038900092
0.038055047 0.024043648 -0.021285718 0.024009854 -0.027828535 0.04810438 -0.024527859 -0.0527289
0.009050245 -0.033842236 0.03209838 -0.044368133 -0.036351748 0.04242725 -0.014712724 0.044307046

encoder.final.block.0.bias f4 [3]
00000000: 5f9c b73c 447e df3c df93 403d
0.02241343 0.027281888 0.04701602

decoder.initial.block.0.weight f4 [32, 3, 3, 3]
00000000: d320 d13d 0ef0 25be b0b1 193d 39dc 2a3e
00000010: 27d3 d93d 92ed 3dbe 1dd0 8a3c 805a 8dbd
00000020: 8b37 fe3d 0ddb 5e3d d5a9 efbc f9d5 4f3e
00000030: ad42 64be 6a1a 0a3e a937 ddbb ea53 ed3c
00000040: 24bd 38be 9160 fe3d 7388 403d aa34 eabc
00000050: a0ce 9c3d 1b23 5c3d c54e 3dbe 6665 d7bd
00000060: 4d6b ed3d 377b 153d 13b3 833d 33d6 1c3e
00000070: b24b d6bd 3a1a 463d 2177 493e 249f 1f3e
00000080: 437d 8fbd 8c05 37be 73cf e93d aa5f 56be
00000090: dcff 26be 6dd1 c53d 84db b13d b30c 423d
000000a0: 00b2 193e 9664 dfbc bd9e f93d 36d0 b1bd
000000b0: 7f2a 03be 6d17 1c3d 5bf2 893d 7e49 9b3c
000000c0: f79c adbd e982 d2bd 7052 533e 9ff9 d1bd
000000d0: 2ad1 12be 9043 133e 64a0 d0bd 14da 53bd
000000e0: 72ea a7bd 8a87 7a3e 8c40 fcbc 292b e9bc
000000f0: 3f25 2bbd 1362 a13c 4713 ae3d 10b5 d53c
00000100: 48e2 af3d 4daf de3d e36a 62be ecf6 403c
00000110: 829f 22be 346b 553b 760d bc3d 6384 053d
00000120: efcc a93b 7367 933d 8857 babd 7b8e f93c
00000130: 38f2 a73c fdbe 2e3e f733 56bc d42a dabd
00000140: 8957 a9bd e9d2 0bbd cc57 2c3e 9923 15bd
00000150: ee72 09be b95b 7f3d db03 f4bd df8d 02be
00000160: 9eaf 85bd 8396 7a3c 744e e7bd b581 bc3b
00000170: 74c5 1bbe 8efb a83d 9376 22be 95ad 0a3d
00000180: 0002 b9bd b627 ecbd b68c 9f3d ee1d aabd
00000190: f06f 14be 2781 8f3d 9c15 ccbd dbf9 98bd
000001a0: 3d89 9f3c f593 07bb a9db 453d 7ed9 fc3d
000001b0: 09e9 173e 3d09 82bc 243c b9bd 32a4 0e3e
000001c0: 7835 2a3e 814c 663d b300 8ebd ae6b 15be
000001d0: a15c 40bc 8fbe 1c3c ab21 8a3c c69c fe3c
000001e0: dda7 4c3e 07ee d9bc e8af 7a3c ffb2 583e
000001f0: 568a 8fbd 0a96 293e 0d08 1a3e ff05 2e3e
00000200: 0110 033e e6a2 04be a57b 913d 811f cd3c
00000210: af1b 86bd 9567 35bc 6d80 993d 1d26 d6bd
00000220: 1be4 043d 91d9 b1bd c8f7 28be 14db 713e
00000230: cfc4 69bd a573 4d3e d4ef 8abd ec2a 85bd
00000240: f039 213e 8488 6e3d 4fc7 0f3e af6b 24be
00000250: 66bb a6bd b02b a6bd ef77 2dbe 0c42 263e
00000260: 38e4 013e 2b9a 76bb 70b5 893d 764a 38be
00000270: 3d10 b23c c8c2 e8bd 2988 d63d 3498 a33d
00000280: 0b6e 0abe 9e2f fd3d 0028 9c3d 5abe 1abe
00000290: 5504 8a3d 6a66 3a3e 45b6 3d3d e70a e6bc
000002a0: e188 c73d 24b1 0dbe a663 e0bd 221f 453d
000002b0: 9896 0bbe bd64 07be f0c5 4dbe 7111 453e
000002c0: 688d 1e3e 6342 e2bc e6f8 14be c318 183e
000002d0: 4c82 c23b d77d 493e b967 85bd 5a52 05be
000002e0: e4af 97bd d248 1ebe 1035 f53d c7c1 81bc
000002f0: e868 0e3e 9a24 a93c c8b6 74bd 8afc 0abe
00000300: 5a2c d13d b187 51be 5ed3 6c3e f74b 503e
00000310: a524 dfbd 6484 34bd 324b 9d3b 428a 0b3e
00000320: f895 92bd e32d 8dbd 56cf f8bd d234 88bd
00000330: 9ee1 efbd acfa 993c 1b23 a33d 4a01 aebd
00000340: ef80 b53d 1475 93bd 5c0a 853d 7422 baba
00000350: 63aa 0ebc 7862 10bd 322e 0d3b 77d4 63bc
00000360: 9821 41bd 28f7 9d3d f7df 0f3e d2ae c7bd
00000370: d384 c73d 2662 2b3e 0d14 0e3e 3052 8bbd
00000380: 5dc1 26bc ec16 113e 9486 35be aae9 653d
00000390: 26fe febd 6ddf 2fbd 5eff 483e 3882 2c3e
000003a0: 088d 56bc 10bf e53c 8d6d 92bd f623 503e
000003b0: aeaf 773d bba7 b8bd ca7d 0bbd 97a2 fbbd
000003c0: 9353 983d af8e 8f3d 7773 253e 5790 04be
000003d0: 9339 5b3e a43e e6bd 2095 3abd 89a0 003e
000003e0: b83c 133e 8647 2b3e 3861 1abd ef07 e2bd
000003f0: 0ad8 8f3d efc9 53be 852e dd3d fe81 8e3d
0.10211339 -0.16204855 0.03752297 0.16685571 0.10635977 -0.18547657 0.01694494 -0.06902027
0.12412938 0.05440812 -0.029255787 0.20296468 -0.2229106 0.13486639 -0.00675102 0.028970677
-0.18040901 0.12420762 0.047005128 -0.028589565 0.07656598 0.053744417 -0.1848708 -0.10517387
0.115927316 0.03649446 0.0643064 0.15316086 -0.104636565 0.048364855 0.1967435 0.15588051
-0.07006314 -0.1787321 0.11416521 -0.2093493 -0.1630854 0.096590854 0.086844474 0.047375392
0.15009308 -0.027269643 0.1218848 -0.08682291 -0.1280918 0.038108278 0.06735679 0.018955942
-0.08477204 -0.102788754 0.20636916 -0.102526896 -0.14337602 0.14381242 -0.10186842 -0.051721647
-0.08199014 0.24465767 -0.030792497 -0.028462963 -0.041783568 0.019700086 0.084997706 0.026087314
0.085880816 0.1087328 -0.22111087 0.011777621 -0.1588116 0.0032565119 0.09182255 0.032596957
0.0051819007 0.07197466 -0.090987265 0.030463448 0.020501241 0.17065044 -0.013073913 -0.106527
-0.08268649 -0.034136686 0.16830367 -0.0364109 -0.13422748 0.062343333 -0.11914798 -0.12749432
-0.06527637 0.015294674 -0.112942606 0.005752767 -0.15212041 0.08251105 -0.15865545 0.033856947
-0.090335846 -0.11531012 0.0779051 -0.0830649 -0.14495826 0.07007056 -0.09965059 -0.07469531
0.01947462 -0.0020687554 0.048305187 0.12346171 0.1483499 -0.015873546 -0.09044674 0.13929823
0.16621959 0.056225304 -0.06933727 -0.14591858 -0.011740834 0.009566917 0.016861757 0.031080615
0.1998591 -0.026602758 0.015300728 0.21162032 -0.07008807 0.16561142 0.15042134 0.16994475
0.12799074 -0.12952766 0.071036614 0.025039436 -0.06548249 -0.011072059 0.074951984 -0.10456488
0.0324441 -0.086840756 -0.16500771 0.23618728 -0.057072457 0.20063646 -0.06784025 -0.06502327
0.15744758 0.05823566 0.14040874 -0.16056703 -0.08141212 -0.081138015 -0.16940282 0.16236132
0.12684715 -0.0037628512 0.067240596 -0.17997155 0.021736259 -0.113652766 0.10475189 0.07988015
-0.1351854 0.12362598 0.07624817 -0.15111676 0.067391075 0.1820313 0.046316404 -0.02808137
0.097429045 -0.13837105 -0.109565064 0.048125394 -0.13631666 -0.13222022 -0.20095038 0.19244935
0.1548363 -0.027619546 -0.14548072 0.14853196 0.0059359428 0.1967691 -0.06513924 -0.13019696
-0.07406595 -0.15457466 0.119730115 -0.01583947 0.13907206 0.020647336 -0.059744626 -0.13572899
0.102135375 -0.20461918 0.23127505 0.20341478 -0.10895661 -0.04407157 0.0048002237 0.1362696
-0.071575105 -0.06893518 -0.12148921 -0.066507 -0.11712955 0.018796287 0.0796568 -0.084963396
0.08862483 -0.07200065 0.064961165 -0.0014200942 -0.008707616 -0.035250157 0.0021542427 -0.013905636
-0.047151178 0.07713157 0.1405028 -0.09750141 0.09742131 0.1673666 0.13874836 -0.068027854
-0.010177937 0.141689 -0.17727119 0.056131043 -0.12450819 -0.042937685 0.19628665 0.1684655
-0.013095148 0.028045207 -0.071498014 0.20326218 0.060470276 -0.09016367 -0.03405551 -0.12286871
0.074378155 0.070096366 0.16157328 -0.12945686 0.21408682 -0.112424165 -0.045552373 0.1256124
0.14378631 0.16726503 -0.03769037 -0.110366695 0.07023628 -0.206825 0.107998885 0.06958388

decoder.initial.block.0.bias f4 [32]
00000000: 0b1b b4bd d4fc b1bd 7cfa 4f3d bebb 30be
00000010: 83c0 243e 0f25 103e 3540 103e 4cc8 153e
00000020: 5f12 7b3d a768 c33c 4deb 02be be09 47be
00000030: 52bd 5a3d 2f34 7c3d 448e 47be 4add 2cbe
00000040: bb88 163e 3e91 0d3e 4707 c13d fe65 1dbe
00000050: 2948 943c 92fb cfbc 03fb ae3d 5a07 81bc
00000060: fc40 2fbe d4f6 11bd e5ad c13d b6ef 643e
00000070: c7f9 ed3d 5e6a 333d e1e1 fbbd af18 293d
-0.087942205 -0.08690801 0.05077599 -0.17259118 0.16089062 0.14076637 0.14086993 0.14627188
0.061296817 0.023853613 -0.12785073 -0.1943731 0.053403206 0.061573204 -0.19487864 -0.1688129
0.14700596 0.13824937 0.09425216 -0.15370938 0.018100815 -0.025388513 0.085439704 -0.015750576
-0.17114633 -0.035635784 0.09456996 0.22357067 0.11619907 0.04380261 -0.12298942 0.041283306

decoder.initial.block.2.weight f4 [32]
00000000: db76 6e3f 4b30 693f 490a 863f a2cb 673f
00000010: 97d0 7f3f d432 833f 8184 853f 7fc8 723f
00000020: b6a0 823f 7e7c 7f3f cb9e 7b3f 20f4 7a3f
00000030: cee2 743f 6950 823f 20c4 653f 43a0 703f
00000040: 36e4 5d3f d417 843f cc97 773f dae4 6c3f
00000050: 0d47 793f 754d 683f 75fa 613f 1192 6a3f
00000060: 766d 6d3f ed93 623f 7c66 6b3f a6e1 6d3f
00000070: 3633 843f 1c29 7f3f 1718 713f f7cb 633f
0.9315011 0.91089314 1.0471889 0.90545094 0.9992766 1.0249887 1.0431062 0.9483718
1.0205295 0.99799335 0.98289174 0.98028755 0.95658576 1.0180789 0.8975239 0.9399454
0.8667635 1.0319772 0.96716 0.925367 0.9737404 0.9074319 0.8827279 0.9162913
0.9274515 0.88506967 0.91953254 0.9292244 1.0328128 0.996721 0.94177383 0.889831

decoder.initial.block.2.bias f4 [32]
00000000: 5b61 d63d 3433 893d 3d5a 28bb 5a87 333e
00000010: f107 c1bd ba6c dcbd ebe5 c23c c822 313d
00000020: 3a35 12bd 01b5 e03b 7e2a 053d 3d3d 0f3e
00000030: 46ff fbbc 52b4 a43a d930 683e ff4b 733d
00000040: 9dee 86bd e920 a33d 37af aabd f54f 533d
00000050: 843f c53d a921 a83d 18b3 043e 7b35 9b3d
00000060: b32a 603d 975b 303d 2995 833c f53a f63c
00000070: fffc 513b f3db 313e defc c4bc 0da0 063e
0.10467788 0.06699219 -0.0025688552 0.17532101 -0.09425343 -0.107629254 0.023791274 0.04324606
-0.035695292 0.006857515 0.032511227 0.13988204 -0.030761372 0.0012565947 0.22674884 0.059398647
-0.065884806 0.079652615 -0.08334201 0.051589925 0.09631255 0.08209545 0.12958944 0.0757856
0.05472822 0.043056097 0.016062336 0.03005741 0.0032041667 0.1736906 -0.024046358 0.13146992

decoder.initial.block.2.running_mean f4 [32]
00000000: 9585 753d a01a 243d 60a5 4f3d f2c4 b2bb
00000010: 241d 273f fb8f 213e 9aac 003e a956 393d
00000020: 73dd e53e 14cc f83e 175b 733d 6c63 35bb
00000030: 4b4e 6d3d 7966 973d fc2d c2bb 5ab5 8d3d
00000040: f03d 563d 9a85 df3d 9c59 aa3d 224c 183d
00000050: 3422 bc3c 75d0 573c 3414 983d af87 143c
00000060: 5b4d 89bb fe56 a33c dc83 df3c 572e 703d
00000070: 7c2f fe3d 48a6 503d 168e 8abb 68c4 703c
0.059941847 0.040064454 0.050694823 -0.0054556066 0.6527884 0.1577758 0.12565842 0.04524866
0.44895515 0.485932 0.059413042 -0.0027677668 0.057935994 0.07392592 -0.005925892 0.06919356
0.052305162 0.10914154 0.08317873 0.03718198 0.022965528 0.013172259 0.074257284 0.009065553
-0.0041901297 0.019938942 0.027284555 0.058637943 0.12411401 0.05093983 -0.0042283637 0.014695264

decoder.initial.block.2.running_var f4 [32]
00000000: 97b5 533b eb84 2a3b d1d3 6739 523f 4c36
00000010: 7125 663d 6ec8 5d3a 634d 3b3a 7d6b f73a
00000020: 4104 043d b516 4f3d 9cb0 8d3b d79b 8934
00000030: f5b7 f239 1d97 ed39 81bb 5236 1f75 d43b
00000040: af2a fe3a 1ebe 473a f276 463a ca1a 383b
00000050: 2b83 603a ca9e a83a 4131 a23b 300c 293a
00000060: c707 c035 4139 663a 8c0c 433a 3837 6d3b
00000070: 7bec 2b3a 44b7 5a39 4c1f 0d36 ac06 9239
0.003230428 0.0026019167 0.00022108784 3.0435226e-06 0.05618805 0.00084603473 0.00071450154 0.0018876638
0.03223062 0.050558764 0.004324032 2.5631627e-07 0.00046294896 0.0004531675 3.140158e-06 0.0064836885
0.0019391383 0.0007619577 0.0007570825 0.002809214 0.00085644674 0.0012864706 0.004949719 0.00064486545
1.4307378e-06 0.0008782335 0.00074405293 0.0036196243 0.00065583707 0.00020858372 2.1028854e-06 0.0002785226
