models/leaky/LeakyResidualSteganoGAN/1/epoch_8.pth (torch, 307796 bytes, 58 tensors)

encoder.initial.block.0.weight f4 [32, 3, 3, 3]
-0.087927245 0.03386917 0.15057649 -0.16053557 0.21569207 -0.16219185 0.052635256 0.08024373
0.15599309 0.0833142 -0.0144156255 0.080755234 -0.036453318 -0.094240226 0.053166535 0.15173964
-0.11338211 0.055810638 0.0031070253 -0.055989392 -0.14955087 0.16923136 -0.032692038 0.13368782
-0.027212663 0.073658645 -0.13868833 0.03167781 -0.18975787 0.03101922 0.097152516 -0.051279522
0.060539227 -0.11151419 -0.15131958 -0.09260512 -0.19470294 0.08330642 0.0758363 0.036594294
0.047936805 0.12830919 0.13202205 0.094662994 -0.21904162 0.038322605 0.09046547 -0.14078753
-0.1522367 -0.16324317 -0.027159853 0.053115807 -0.03962776 0.035312235 0.10278799 0.012756205
0.04203529 0.16107002 0.043321732 0.0873539 -0.1591411 0.056228515 0.13301368 0.019089065
-0.0058175162 -0.021968355 0.046920355 -0.03716883 0.049601536 0.13961656 0.096827835 -0.03744649
-0.12079727 0.20023666 0.11712172 -0.14505805 -0.06994635 -0.14873509 0.1647905 0.004980108
0.04552822 -0.08718574 -0.08009589 -0.13811488 0.08259604 -0.09696971 -0.045771427 -0.01213419
-0.05750702 0.027689938 -0.06573774 0.17735212 -0.049300484 -0.24766804 -0.01868415 -0.04763031
-0.060803257 -0.03488033 -0.04524749 0.1252464 -0.114941075 0.15414897 0.07246725 -0.00076267024
-0.14997715 -0.13686974 0.014509401 0.14196166 -0.103621565 -0.13041866 -0.020385258 -0.13221899
-0.048927654 -0.091151915 0.041632053 0.03416857 0.12580533 0.10878224 -0.07976765 -0.018374236
-0.044058982 0.008188373 -0.06614501 0.11919886 -0.16399789 -0.11548582 -0.15062633 0.08429627
-0.0783978 -0.003165284 0.059356935 0.14432156 -0.10904849 0.08727675 -0.069043234 -0.03350348
-0.15585746 -0.09105703 0.10264465 0.07630418 -0.021532873 -0.042241495 -0.07709515 0.100905985
0.11351866 -0.024929313 0.06572443 -0.10190348 0.14058019 0.06844688 -0.15189165 0.024985997
-0.19213088 0.011954118 0.12538816 -0.085047215 -0.14732517 -0.13456798 -0.017240638 0.18597826
-0.046509463 0.059262287 -0.1160799 0.12311567 0.029214844 0.059070356 0.12409418 -0.036579244
-0.03764795 -0.1143995 0.24955459 -0.12222836 0.1013364 0.104834095 0.094344385 0.08565447
-0.035043664 0.10922348 -0.05654879 0.12675391 0.1996761 0.07344886 0.049879063 -0.087274924
-0.077729166 0.14460675 0.0427595 0.06688121 -0.016057245 0.04470643 0.16326125 0.073479325
0.06405589 -0.051898576 0.10534998 0.106834136 -0.20777053 -0.050581384 -0.19815771 0.027724667
-0.19411196 -0.07744466 -0.023983639 0.09957769 0.02122199 0.12992568 0.024003278 0.17676246
-0.1840178 0.087234244 -0.084865786 -0.06357605 -0.15950371 -0.22152616 -0.021782422 -0.11117152
0.08761179 0.121265024 0.019215994 0.024053311 -0.12434699 -0.13544855 -0.083224535 0.17616
0.021044668 -0.009997932 -0.14427005 -0.01426852 0.06519124 0.17730998 0.13013357 0.21284954
-0.1682608 0.15638521 -0.03373045 0.08117599 0.038312245 -0.08517406 -0.03264331 -0.021112792
-0.11235925 0.06546025 -0.13592587 -0.16726121 -0.09825312 -0.1706457 -0.19960856 -0.104776114
-0.12406488 -0.02625969 -0.111546606 0.0718015 0.0033878796 0.015815394 -0.052912094 -0.14814745
00000000: 3313 b4bd 66ba 0a3d b930 1a3e 7063 24be
00000010: 62de 5c3e 9f15 26be 1198 573d d356 a43d
00000020: a7bc 1f3e a3a0 aa3d 842f 6cbc 0063 a53d
00000030: 1350 15bd 0501 c1bd 27c5 593d a361 1b3e
00000040: e134 e8bd b299 643d 3c9f 4b3b 2255 65bd
00000050: dd23 19be fc4a 2d3e 16e8 05bd 76e5 083e
00000060: 17ed debc 58da 963d 5004 0ebe 97c0 013d
00000070: e34f 42be 051c fe3c e6f7 c63d 7a0a 52bd
00000080: fbf7 773d 8d61 e4bd 85f3 1abe c1a7 bdbd
00000090: 3560 47be 8e9c aa3d 1050 9b3d e6e3 153d
000000a0: 6259 443d 7c63 033e ca30 073e acde c13d
000000b0: 724c 60be 2af8 1c3d f645 b93d 9b2a 10be
000000c0: f0e3 1bbe 3829 27be 577e debc f68f 593d
000000d0: b850 22bd 90a3 103d 8282 d23d 67ff 503c
000000e0: 322d 2c3d 8aef 243e 2172 313d 9ae6 b23d
000000f0: e2f5 22be df4f 663d bd34 083e ac60 9c3c
00000100: dda0 bebb fbf6 b3bc 8f2f 403d 583e 18bd
00000110: fb2a 4b3d a5f7 0e3e ac4d c63d 7e61 19bd
00000120: 8f64 f7bd d70a 4d3e 83dd ef3d 198a 14be
00000130: 0840 8fbd 034e 18be d7be 283e 2c30 a33b
00000140: cc7b 3a3d 708e b2bd 5009 a4bd fd6d 0dbe
00000150: 1d28 a93d 0e98 c6bd d27a 3bbd 7bce 46bc
00000160: 7b8c 6bbd 02d6 e23c 82a1 86bd cb9b 353e
00000170: 4eef 49bd b19c 7dbe 810f 99bc 0018 43bd
00000180: d60c 79bd adde 0ebd 6f55 39bd 9840 003e
00000190: 3a66 ebbd 3ad9 1d3e b669 943d efed 47ba
000001a0: 9c93 19be 9527 0cbe d7b8 6d3c 665e 113e
000001b0: 8b37 d4bd 788c 05be fcfe a6bc 6a64 07be
000001c0: 5d68 48bd dbad babd 5f86 2a3d 58f4 0b3d
000001d0: 1dd3 003e 39c9 de3d 395d a3bd 9185 96bc
000001e0: 3177 34bd 8728 063c 0977 87bd 881e f43d
000001f0: 10ef 27be d483 ecbd ca3d 1abe 86a3 ac3d
00000200: 078f a0bd a770 4fbb 4220 733d 08c9 133e
00000210: d154 dfbd 27be b23d 8a66 8dbd f23a 09bd
00000220: 1999 1fbe 1c7c babd 5c37 d23d 5e45 9c3d
00000230: b565 b0bc 6b05 2dbd 10e4 9dbd cca7 ce3d
00000240: 797c e83d 8f38 ccbc 889a 863d c6b2 d0bd
00000250: 41f4 0f3e e12d 8c3d 7c89 1bbe 6faf cc3c
00000260: f5bd 44be 34db 433c c165 003e 3c2d aebd
00000270: 69dc 16be 30cc 09be 3d3c 8dbc 1671 3e3e
00000280: b580 3ebd 03bd 723d 4cbb edbd 1224 fc3d
00000290: f853 ef3c c2f3 713d 1725 fe3d 1ed4 15bd
000002a0: bd34 1abd 494a eabd 3d8b 7f3e dd52 fabd
000002b0: 7589 cf3d 42b3 d63d a137 c13d 9c6b af3d
000002c0: f289 0fbd 8fb0 df3d b49f 67bd c7cb 013e
000002d0: e477 4c3e 5b6c 963d fd4d 4c3d 32bd b2bd
000002e0: 7830 9fbd cb13 143e 9624 2f3d 04f9 883d
000002f0: 7c8a 83bc 171e 373d f52d 273e 547c 963d
00000300: bc2f 833d 9a93 54bd bbc1 d73d dbcb da3d
00000310: ccc1 54be 6d2e 4fbd dbe9 4abe d71e e33c
00000320: 49c5 46be 4e9b 9ebd 5679 c4bc 63ef cb3d
00000330: bdd9 ad3c 3d0b 053e 86a2 c43c 3801 353e
00000340: 2a6f 3cbe dea7 b23d 1dce adbd 2934 82bd
00000350: f154 23be c1d7 62be 0d71 b2bc e5ad e3bd
00000360: cf6d b33d cc59 f83d dc6a 9d3c 730b c53c
00000370: a2a9 febd 06b3 0abe a071 aabd 4963 343e
00000380: de65 ac3c 5ece 23bc 87bb 13be 83c6 69bc
00000390: fc82 853d bf90 353e bc41 053e 3bf5 593e
000003a0: 8f4c 2cbe 7223 203e f128 0abd 993f a63d
000003b0: 4ded 1c3d bd6f aebd feb4 05bd bcf4 acbc
000003c0: 9b1c e6bd 0610 863d 2730 0bbe 8646 2bbe
000003d0: ef38 c9bd bfbd 2ebe 3066 4cbe dc94 d6bd
000003e0: ba15 febd 901e d7bc 8c72 e4bd aa0c 933d
000003f0: 3007 5e3b 498f 813c 5aba 58bd f7b3 17be

encoder.initial.block.0.bias f4 [32]
0.103821285 0.14337984 -0.045509536 0.06857039 0.0808361 -0.11423225 0.082532674 0.079943016
-0.14203429 -0.0027516766 -0.05646932 -0.090918615 -0.0744697 -0.04402003 -0.14494973 0.015291809
-0.14862503 0.11353861 0.16602755 -0.10251346 0.15201925 -0.18132865 -0.12653264 0.08882098
-0.04633152 -0.12522444 0.1523328 -0.08656949 0.100661546 -0.095564425 0.050042268 -0.15696526
00000000: 41a0 d43d 2ad2 123e 3568 3abd a26e 8c3d
00000010: 668d a53d 99f2 e9bd e406 a93d 2ab9 a33d
00000020: 7071 11be 7955 34bb 604c 67bd 8a33 babd
00000030: 9283 98bd 594e 34bd b46d 14be 7f8a 7a3c
00000040: 2931 18be ee86 e83d 2003 2a3e 94f2 d1bd
00000050: efaa 1b3e 38ae 39be c691 01be c6e7 b53d
00000060: 1fc6 3dbd d63a 00be 21fd 1b3e 584b b1bd
00000070: a427 ce3d 48b7 c3bd 1ff9 4c3d 80bb 20be

encoder.initial.block.1.weight f4 [32]
0.98555964 0.942736 1.0288682 1.028562 1.0109525 0.98437953 0.96161497 0.9576489
1.0099926 0.98942167 0.93300366 0.95799553 0.9663967 1.0033386 1.0098652 0.990696
0.93260497 1.0057327 0.9813169 1.0034051 0.97773695 1.0195274 1.0037177 0.9866101
0.9851305 0.97755265 0.9520932 1.0118169 0.9623704 0.99326575 0.98748374 0.9208511
00000000: a34d 7c3f 2657 713f f4b1 833f eba7 833f
00000010: e466 813f 4c00 7c3f 662c 763f 7a28 753f
00000020: 7047 813f bd4a 7d3f 54d9 6e3f 323f 753f
00000030: c665 773f 666d 803f 4343 813f 419e 7d3f
00000040: 33bf 6e3f d9bb 803f 9637 7b3f 946f 803f
00000050: f84c 7a3f e07f 823f d279 803f 7b92 7c3f
00000060: 8331 7c3f e440 7a3f 61bc 733f 3783 813f
00000070: e85d 763f aa46 7e3f bccb 7c3f e6bc 6b3f

encoder.initial.block.1.bias f4 [32]
0.15882164 0.06915631 0.00052230357 0.06555675 0.06517163 0.19095224 0.0053732623 0.063926004
0.18828957 0.020872455 0.0037958547 0.11730195 0.058283582 0.07291485 0.030218985 0.05218102
-0.0023169855 0.038502704 0.018951423 0.088697694 0.11416854 0.017639764 0.082658455 0.14444397
0.014946819 0.17309465 0.038025495 0.21814652 0.0023758616 0.034290034 0.14323191 -0.008774
00000000: 24a2 223e d3a1 8d3d 33eb 083a 9e42 863d
00000010: b478 853d fc88 433e 3112 b03b a3eb 823d
00000020: fbce 403e b6fc aa3c e0c3 783b 013c f03d
00000030: c4ba 6e3d 6254 953d ce8d f73c c4bb 553d
00000040: 91d8 17bb 03b5 1d3d 0440 9b3c 23a7 b53d
00000050: 32d1 e93d 4481 903c d648 a93d 1fe9 133e
00000060: 81e3 743c b93f 313e 9fc0 1b3d cd61 5f3e
00000070: 58b4 1b3b b573 0c3d 63ab 123e d3c0 0fbc

encoder.initial.block.1.running_mean f4 [32]
0.29766783 -0.0754948 0.3083951 -0.25302973 -0.19637653 -0.22510715 0.5508245 -0.1190442
-0.009625241 -0.6251428 -0.3815888 -0.24272037 0.13278173 0.16429895 -0.5166446 -0.211332
-0.5124424 0.30081692 0.6253974 -0.28767863 0.39952576 0.051104028 -0.4000642 -0.09651773
-0.65202504 -0.28238404 -0.24826072 -0.24940637 0.4868822 -0.5407576 0.25486434 0.20887555
00000000: eb67 983e 059d 9abd f6e5 9d3e 1d8d 81be
00000010: ee16 49be 7d82 66be d602 0d3f 72cd f3bd
00000020: 30b3 1dbc 5c09 20bf 9b5f c3be b08b 78be
00000030: eff7 073e fc3d 283e d242 04bf 6a67 58be
00000040: 6d2f 03bf ad04 9a3e 0b1a 203f 9d4a 93be
00000050: a48e cc3e 7552 513d 37d5 ccbe 16ab c5bd
00000060: 1deb 26bf a494 90be 0f38 7ebe 6264 7fbe
00000070: a048 f93e 176f 0abf 947d 823e 79e3 553e

encoder.initial.block.1.running_var f4 [32]
0.008861608 0.0131881945 0.028763076 0.023642708 0.018211322 0.00317376 0.05653023 0.01809307
0.004249173 0.09101065 0.040457424 0.006335158 0.011105255 0.009952962 0.03271851 0.011836159
0.033144522 0.0081499405 0.05250767 0.008424252 0.014092142 0.012583678 0.01790533 0.0087818615
0.094705686 0.006454995 0.03787516 0.0064660693 0.034093827 0.045856073 0.01029374 0.039476156
00000000: 4730 113c 4c13 583c 8ba0 eb3c 5aae c13c
00000010: e92f 953c dbfe 4f3b 3e8c 673d eb37 943c
00000020: a63c 8b3b cb63 ba3d afb6 253d 2897 cf3b
00000030: d1f2 353c c011 233c d803 063d 73ec 413c
00000040: 8dc2 073d 5487 053c 4812 573d e005 0a3c
00000050: bae2 663c c52b 4e3c 33ae 923c cce1 0f3c
00000060: 0ef5 c13d 6c84 d33b fc22 1b3d 52e1 d33b
00000070: f8a5 0b3d 94d3 3b3d 13a7 283c c0b1 213d

encoder.block1.block.0.weight f4 [32, 33, 3, 3]
0.005855115 -0.044025473 -0.015526036 -0.033114154 0.019567944 0.011457309 -0.033798374 -0.02652996
-0.040986776 -0.055217933 -0.025624683 -0.008498106 0.04913162 -0.018095322 0.033788983 0.044337705
-0.019259678 0.03512879 0.016715843 -0.064362116 -0.017141636 -0.02569467 -0.071519874 0.04005747
-0.040705662 -0.050055303 -0.0050186967 0.07031069 -0.04279491 -0.0067144446 0.032172017 -0.014336652
0.034273427 -0.00474995 0.024559652 0.017880104 0.033616994 0.008465466 0.03622129 0.025940854
0.05122419 0.006031408 0.01899253 -0.069207065 0.0422529 0.029956965 -0.02889966 -0.016075585
0.01745218 0.010034593 -0.010528088 0.010222662 0.019699978 0.0068284655 -0.009174914 -0.005191939
-0.0017106737 0.008246722 -0.030932123 -0.016063062 -0.01832155 0.0043720515 -0.015199823 0.024474014
0.0074674156 0.053794675 -0.02825641 0.0017869368 -0.064089306 0.016548425 0.006857872 -0.032750953
0.00884328 -0.037075672 0.0066088084 -0.042978954 -0.06013355 -0.009631964 -0.027229756 0.036330573
-0.022330804 -0.015862003 -0.007647651 0.026069783 -0.008110659 0.01248782 -0.017968975 0.020794509
-0.046021093 -0.025607098 0.0173589 0.044371873 0.024116952 -0.05322499 0.03402629 0.030344889
0.028588286 0.0149196545 0.051729217 -0.0025737889 -0.071423054 0.039632667 0.004382745 -0.036061503
0.0057818876 0.03950662 0.04072715 -0.047437713 -0.020824017 -0.03528366 0.03127599 -0.037675176
-0.0013849566 0.013622922 0.02653104 -0.039238717 -0.017322468 0.014253496 -0.018540466 0.01465386
0.020321772 0.01215026 0.029879881 -0.029847445 0.022703864 -0.03518465 0.015750507 0.02783012
0.05220591 -0.028066002 -0.031132594 0.036593676 -0.012457727 0.045883182 -0.029935243 0.020699216
-0.021508234 -0.0293792 -0.0491755 0.08511997 -0.04623891 -0.03428768 0.05469964 -0.013811411
0.03998474 -0.011002828 -0.0033089123 -1.7404165e-05 0.011754328 0.007224412 -0.028483663 -0.03713132
0.018781006 0.020978397 0.024346136 0.02351936 -0.02065181 -0.0028471868 -0.014502061 0.0014349385
-0.029388702 -0.06228616 -0.03633949 0.008258212 -0.009347261 -0.036579546 0.00091298926 -0.059409562
-0.056484945 0.01570455 -0.0043566003 0.036356974 0.027258033 0.0038814815 0.029221637 0.038166437
-0.033836927 0.052332208 0.018331954 -0.009632494 -0.007831815 -0.023165677 -0.04141997 -0.036280442
0.003595381 -0.022653796 0.02197357 -0.025971588 -0.011037065 -0.06758826 -0.044080276 0.027677435
-0.05124049 -0.072945364 -0.038208034 0.034490116 -0.040930595 -0.016267074 -0.0056481673 0.039281588
0.019113375 -0.024762992 0.07143363 -0.02536021 -0.01931801 0.07205572 0.056689747 -0.02506536
-0.036108702 0.012802894 -0.0070828344 0.05973694 -0.02771755 0.012110355 -0.0051071323 0.03853417
0.034478925 -0.0012436333 0.05073129 -0.027545739 0.025178319 0.0035936153 0.047653835 0.0033814462
0.025905617 0.008424446 -0.0241139 -0.03663427 0.014926195 0.04975915 -0.063080914 -0.0088860085
-0.0028964933 0.017475288 -0.0070613637 0.03669075 0.05237098 -0.017210659 -0.0009333632 0.034144666
0.03159778 -0.02931913 0.04040145 0.009900948 -0.037244573 -0.021188058 0.012246863 0.06149741
0.016821794 0.013656678 0.018100075 0.042594306 -0.01596086 -0.03050498 -0.01638917 0.033779293
00000000: 44dc bf3b 0e54 34bd ea60 7ebc b5a2 07bd
00000010: f44c a03c 70b7 3b3c 2a70 0abd 5c55 d9bc
00000020: c0e1 27bd 332c 62bd dbea d1bc a43b 0bbc
00000030: 3d3e 493d a43c 94bc 5166 0a3d 749b 353d
00000040: 79c6 9dbc 35e3 0f3d aaef 883c 49d0 83bd
00000050: 9e6c 8cbc a17d d2bc 0379 92bd 4d13 243d
00000060: fbba 26bd ca06 4dbd e173 a4bb 0dff 8f3d
00000070: b749 2fbd d804 dcbb cec6 033d 47e4 6abc
00000080: 4b62 0c3d 78a5 9bbb 5331 c93c 4c79 923c
00000090: f9b1 093d bdb2 0a3c c65c 143d ea81 d43c
000000a0: 75d0 513d 1ea3 c53b 3996 9b3c 6fbc 8dbd
000000b0: 6011 2d3d 4f68 f53c fbbe ecbc f2b0 83bc
000000c0: e0f7 8e3c 2268 243c 007e 2cbc f47c 273c
000000d0: d961 a13c 52c1 df3b 6152 16bc 2421 aabb
000000e0: af38 e0ba 421d 073c 5d65 fdbc af96 83bc
000000f0: 1317 96bc 6d43 8f3b ae08 79bc ba7d c83c
00000100: 39b1 f43b ce57 5c3d fd79 e7bc a637 ea3a
00000110: 4141 83bd 9090 873c 00b8 e03b dd25 06bd
00000120: 68e3 103c a9dc 17bd b48e d83b b30a 30bd
00000130: 994e 76bd 63cf 1dbc f010 dfbc 5ecf 143d
00000140: 17ef b6bc 08f1 81bc 2599 fabb 4c90 d53c
00000150: 92e2 04bc b799 4c3c ac33 93bc 3f59 aa3c
00000160: 9d80 3cbd fac5 d1bc 4034 8e3c 48bf 353d
00000170: ea90 c53c 7202 5abd 275f 0b3d d895 f83c
00000180: fb31 ea3c 9171 743c 04e2 533d 03ad 28bb
00000190: 4046 92bd dd55 223d 219d 8f3b 3ab5 13bd
000001a0: fd75 bd3b b2d1 213d 83d1 263d 0c4e 42bd
000001b0: 2197 aabc 9985 10bd 411b 003d 4951 1abd
000001c0: 6f87 b5ba ad32 5f3c a057 d93c c7b8 20bd
000001d0: d9e7 8dbc 7f87 693c 2de2 97bc be16 703c
000001e0: d879 a63c e211 473c a7c6 f43c a182 f4bc
000001f0: 74fd b93c c81d 10bd 3507 813c fefb e33c
00000200: ddd5 553d acea e5bc c809 ffbc 40e3 153d
00000210: 7f1b 4cbc 01f0 3b3d c13a f5bc 6791 a93c
00000220: 0932 b0bc a6ac f0bc 406c 49bd 6153 ae3d
00000230: 0365 3dbd 3d71 0cbd bb0c 603d 4249 62bc
00000240: 0ac7 233d 3545 34bc 56da 58bb 29ff 91b7
00000250: 3a95 403c c3ba ec3b 9256 e9bc 0317 18bd
00000260: a0da 993c e3da ab3c 8c71 c73c acab c03c
00000270: fc2d a9bc de97 3abb 0d9a 6dbc 8c14 bc3a
00000280: 93c0 f0bc c61f 7fbd b8d8 14bd 744d 073c
00000290: 4125 19bc 6fd4 15bd ac55 6f3a 7157 73bd
000002a0: c25c 67bd d4a6 803c d0c1 8ebb 0deb 143d
000002b0: 3d4c df3c 7460 7e3b 3762 ef3c 6954 1c3d
000002c0: 9798 0abd 4c5a 563d e52c 963c 9cd1 1dbc
000002d0: 0351 00bc f2c5 bdbc fda7 29bd cd9a 14bd
000002e0: 7ca0 6b3b 7494 b9bc eb01 b43c 5ec2 d4bc
000002f0: ced4 34bc b76b 8abd 858d 34bd cabb e23c
00000300: 8ce1 51bd 6164 95bd 0780 1cbd 8245 0d3d
00000310: d7a6 27bd 8742 85bc 4314 b9bb bbe5 203d
00000320: a793 9c3c c2db cabc cc4b 923d 37c0 cfbc
00000330: ce40 9ebc f391 933d 8233 683d df55 cdbc
00000340: b8e6 13bd 3bc3 513c 1f17 e8bb b9ae 743d
00000350: ea0f e3bc 836a 463c bb59 a7bb 01d6 1d3d
00000360: c639 0d3d 6901 a3ba 9dcb 4f3d 9aa7 e1bc
00000370: c342 ce3c dc82 6b3b ab30 433d 419b 5d3b
00000380: 0438 d43c b006 0a3c 838a c5bc d10d 16bd
00000390: 008d 743c 40d0 4b3d 9130 81bd 9f96 11bc
000003a0: 18d3 3dbb 5628 8f3c 0363 e7bb 0a49 163d
000003b0: f482 563d 5efd 8cbc f2ac 74ba 47db 0b3d
000003c0: ac6c 013d ac2e f0bc fe7b 253d 9637 223c
000003d0: c48d 18bd 9492 adbc 11a7 483c b5e4 7b3d
000003e0: dccd 893c 42c0 5f3c 9c46 943c 5e77 2e3d
000003f0: 59c0 82bc 94e5 f9bc 9542 86bc 285c 0a3d

encoder.block1.block.0.bias f4 [32]
-0.034681577 -0.039495658 -0.04216132 0.001479844 0.0022643388 0.021363288 0.026115583 -0.020584041
0.0085075265 0.00711452 0.023502555 0.022739058 0.057688985 0.021890607 -0.023325626 0.045467786
-0.036270097 0.045619827 0.054595854 -0.008611521 0.00979634 0.05162521 0.05092919 0.0031383394
-0.003732421 0.03112978 0.03813381 0.053643677 0.033350237 0.042690888 -0.050247084 -0.010577929
00000000: 450e 0ebd 33c6 21bd 59b1 2cbd 53f7 c13a
00000010: 4d65 143b 1002 af3c 59f0 d53c dd9f a8bc
00000020: 2763 0b3c eb20 e93b 6e88 c03c 4347 ba3c
00000030: 494b 6c3d ee53 b33c 6215 bfbc 6e3c 3a3d
00000040: f48f 14bd dbdb 3a3d e79f 5f3d 5617 0dbc
00000050: d480 203c f574 533d 209b 503d 99ac 4d3b
00000060: a29b 74bb e103 ff3c 3332 1c3d 79b9 5b3d
00000070: 429a 083d a4dc 2e3d e3cf 4dbd 0d4f 2dbc

encoder.block1.block.1.weight f4 [32]
0.99796355 0.95504266 1.006899 0.9994524 1.0111662 1.0055814 1.0056804 1.0001119
1.0081666 0.98440814 0.99464256 1.0146661 1.0216291 1.0230467 1.0189668 0.9675869
0.9975616 0.97864014 0.9694644 0.9399273 0.9706798 1.0146155 0.9503089 0.9601132
0.9959693 1.007059 1.0038985 1.004214 0.99806094 0.99544257 1.0027739 0.9438181
00000000: 8a7a 7f3f ad7d 743f 11e2 803f 1ddc 7f3f
00000010: e56d 813f e4b6 803f 23ba 803f ab03 803f
00000020: 9a0b 813f 2c02 7c3f e5a0 7e3f 94e0 813f
00000030: bec4 823f 32f3 823f 816d 823f c6b3 773f
00000040: 3260 7f3f 2988 7a3f d22e 783f 139f 703f
00000050: 797e 783f ecde 813f 7247 733f fbc9 753f
00000060: d8f7 7e3f 4fe7 803f bf7f 803f 168a 803f
00000070: ec80 7f3f 53d5 7e3f e55a 803f 109e 713f

encoder.block1.block.1.bias f4 [32]
0.07301679 0.065246895 0.014797042 0.037258405 -0.020093493 0.036733963 0.038912598 0.06445816
0.03345393 3.9375685e-05 0.11436064 0.018213889 0.023729982 0.029542632 0.06585811 0.036683958
0.052272413 0.01980448 -0.015861902 0.08435199 0.067604415 0.052383706 -0.0053180116 0.028619317
0.047999702 0.11893978 0.00970151 0.050560318 0.06752264 0.015370918 0.022077741 0.04269466
00000000: d489 953d 2aa0 853d 4b6f 723c 459c 183d
00000010: 1c9b a4bc 5a76 163d d162 1f3d a402 843d
00000020: fd06 093d 5227 2538 e935 ea3d 4b35 953c
00000030: 6165 c23c 6403 f23c 9ee0 863d eb41 163d
00000040: 991b 563d 013d a23c d2f0 81bc bcc0 ac3d
00000050: 2f74 8a3d 4c90 563d b742 aebb 0f73 ea3c
00000060: 569b 443d b396 f33d 15f3 1e3c 5618 4f3d
00000070: 4f49 8a3d 4ed6 7b3c 61dc b43c 99e0 2e3d

encoder.block1.block.1.running_mean f4 [32]
0.060964502 -0.30015165 0.2825948 -0.06568729 0.4408801 0.34652832 0.11853108 0.0064830873
0.022623383 0.23913297 -0.28792885 0.13463351 0.34917727 0.18873814 0.06825489 -0.40097243
0.17909598 0.3399898 0.19897096 -0.8174814 -0.05732024 0.1883236 0.45133165 0.14686392
0.5176147 -0.076648764 0.33918345 0.14431047 -0.15141773 -0.015738402 0.16664569 -0.41789952
00000000: eab5 793d 7aad 99be 44b0 903e 0f87 86bd
00000010: 09bb e13e 296c b13e 6cc0 f23d 1470 d43b
00000020: ac54 b93c 46df 743e 696b 93be 5edd 093e
00000030: 5dc7 b23e 9244 413e 38c9 8b3d 424c cdbe
00000040: f064 373e 2513 ae3e 0bbf 4b3e 7646 51bf
00000050: a1c8 6abd e7d7 403e f114 e73e 7f63 163e
00000060: 6682 043f 07fa 9cbd 74a9 ad3e 20c6 133e
00000070: 400d 1bbe d2ed 80bc 2ba5 2a3e edf6 d5be

encoder.block1.block.1.running_var f4 [32]
1.3944966 1.4819341 1.1106848 1.2693446 1.7387407 1.2933768 1.1419139 1.0615878
1.7452195 2.400284 0.94147456 0.73349607 2.1398716 1.3604249 1.1083282 1.5702115
1.6883017 0.79034877 2.1694183 0.9586612 0.9024108 1.4495807 0.7267495 2.6748827
0.9608079 0.7429455 1.8631508 1.496628 1.0690807 1.279648 1.2392515 2.5726194
00000000: dd7e b23f 04b0 bd3f eb2a 8e3f e279 a23f
00000010: 0e8f de3f 5f8d a53f 3c2a 923f 1ce2 873f
00000020: 5a63 df3f 419e 1940 7a04 713f 66c6 3b3f
00000030: a8f3 0840 6722 ae3f b3dd 8d3f b1fc c83f
00000040: 451a d83f 4c54 4a3f c0d7 0a40 d26a 753f
00000050: 6504 673f dc8b b93f 410c 3a3f 4731 2b40
00000060: 82f7 753f ad31 3e3f ba7b ee3f 8291 bf3f
00000070: a3d7 883f 81cb a33f cb9f 9e3f cca5 2440

encoder.block2.block.0.weight f4 [32, 32, 3, 3]
-0.041020278 -0.0032850173 -0.011707839 0.049720503 0.034113795 0.010074906 0.040294476 -0.01381483
-0.01020555 -0.02020146 0.0008600021 0.016429257 -0.02236243 -0.0540791 -0.000678115 -0.02142371
-0.05399173 0.0063790446 -0.05497944 0.026906092 0.012100503 -0.0014723117 -0.014842077 -0.05336853
-0.0035575016 -0.004490562 -0.012698602 -0.016791696 -0.028662639 -0.046753835 -0.03953939 -0.06044733
-0.046097785 -0.03946852 0.017487861 -0.032230154 -0.013356081 -0.028943105 -0.044040054 0.02652797
0.015769064 0.033614654 -0.062359497 0.00909574 0.035804022 0.041458905 -0.0135986 -0.0005752362
0.013349555 -0.004245185 -0.016927883 -0.0023556268 -0.02206795 0.018634858 -0.0083199125 -0.05984428
-0.0020481618 0.04040534 0.07001866 0.03361024 0.078333944 0.028943947 0.0403652 -0.014395395
0.007576554 0.0028531658 -0.037174053 0.015750438 0.03053442 0.012163291 -0.005301373 -0.0132581955
0.047004413 0.030871699 0.03397566 -0.042449854 0.07154617 -0.042014606 0.045475762 0.040574815
0.042478897 -0.04629778 0.019501122 0.041367836 -0.044040628 -0.019886827 -0.012543321 0.07803712
-0.0096954405 -0.0274365 0.08853767 -0.022216821 0.027970586 0.008724107 -0.056976806 0.018963138
-0.013606151 -0.0019509017 -0.016060285 -0.057881758 -0.056048494 -0.024789173 0.010349248 -0.07207801
0.01585214 -0.004804334 -0.05157403 0.042842414 -0.019597583 0.054916553 0.07197117 0.015792962
0.015124162 -0.022974944 0.00806637 -0.009144906 0.031124799 0.001006461 0.023872072 -0.028845372
0.042912968 0.048814185 0.010493692 -0.035407227 -0.023789011 0.017790854 -0.012827911 -0.033204965
0.013153454 -0.023425724 -0.04836322 -0.058400527 0.052121397 -0.032015987 -0.06816015 0.011644614
0.061907515 -0.01633558 -0.016273215 -0.04254771 -0.057060216 -0.03655739 0.030454716 0.006075043
0.029432833 0.021591483 0.039370954 0.047838334 0.01778613 -0.0006175198 0.028228601 0.026109608
-0.0018473079 -0.020560052 0.011212457 -0.008941768 -0.030617684 -0.030015903 -0.015215599 -0.031565495
-0.012258881 0.031066725 -0.014039927 -0.028816314 -0.05524439 0.010426388 -0.04589529 0.005502737
-0.036078162 0.0022781757 -0.02810989 0.052303288 -0.04605906 0.00952535 -0.028693184 0.0016021032
0.023807665 -0.0033968948 -0.04043123 -0.0057374556 -0.007574971 0.019749256 -0.04178247 0.026055818
0.037318982 -0.0039427835 0.040069096 -0.0018851741 0.020231688 -0.05319745 -0.05227946 -0.022492763
-0.021843245 0.045936283 0.015293566 -0.0014412148 -0.023332445 0.0066450457 0.047709692 -0.040592063
0.00713307 0.024799611 -0.014409652 0.025259469 0.024572348 -0.0111872535 -0.05674757 0.036106937
-0.060637496 -0.0045840847 -0.0022898943 -0.021066489 0.054071352 -0.036889628 0.044077836 0.018431146
-0.07699034 -0.066112645 0.028116705 -0.06817818 -0.056330405 0.021845402 -0.04848235 0.039306067
-0.038617752 0.015701314 0.037415493 0.0027259397 -0.008620203 -0.018706461 0.037029076 0.020212416
0.046861447 0.04900709 -0.013417183 -0.039700348 0.015384514 0.03217379 0.06511591 -0.03234241
-0.024037141 0.009376489 0.03944724 0.03155724 -0.034444436 0.0123345 0.005705608 -0.04744955
-0.024377001 -0.0073450967 -0.07869605 0.023021633 -0.030569319 0.009712141 0.044186328 -0.060743302
00000000: e104 28bd 7249 57bb 3cd2 3fbc baa7 4b3d
00000010: e8ba 0b3d 3811 253c d20b 253d 9957 62bc
00000020: 2e35 27bc 887d a5bc c471 613a a696 863c
00000030: 6a31 b7bc 0c82 5dbd 87c3 31ba c780 afbc
00000040: 6f26 5dbd 4e07 d13b 1f32 61bd 2a6a dc3c
00000050: 3041 463c 95fa c0ba 2f2c 73bc f698 5abd
00000060: f924 69bb 9025 93bb cc0d 50bc bd8e 89bc
00000070: e9cd eabc f380 3fbd 0ef4 21bd 9f97 77bd
00000080: 08d1 3cbd bea9 21bd b442 8f3c c403 04bd
00000090: 77d3 5abc 171a edbc 5863 34bd 2f51 d93c
000000a0: 202e 813c 85af 093d ac6c 7fbd 4c06 153c
000000b0: 3da7 123d d0d0 293d aacc 5ebc 73cb 16ba
000000c0: 18b8 5a3c 311b 8bbb 58ac 8abc dc60 1abb
000000d0: d8c7 b4bc 21a8 983c 3e50 08bc 471f 75bd
000000e0: 743a 06bb 1280 253d f165 8f3d e4aa 093d
000000f0: 8c6d a03d db1b ed3c fb55 253d aada 6bbc
00000100: be44 f83b 2efc 3a3b d243 18bd 1007 813c
00000110: 5223 fa3c 8a48 473c 24b7 adbb e738 59bc
00000120: b387 403d a5e6 fc3c 102a 0b3d e6df 2dbd
00000130: cc86 923d 8217 2cbd cb44 3a3d c731 263d
00000140: 5afe 2d3d bea2 3dbd d1c0 9f3c 5271 293d
00000150: f263 34bd b3e9 a2bc 8082 4dbc edd1 9f3d
00000160: a0d9 1ebc 83c2 e0bc 3d53 b53d 0d00 b6bc
00000170: 9222 e53c 8fef 0e3c 8360 69bd 9558 9b3c
00000180: 55ec 5ebc 66b5 ffba dc90 83bc 6c15 6dbd
00000190: 1b93 65bd aa12 cbbc e48f 293c a39d 93bd
000001a0: 59dc 813c ad6d 9dbb 4a3f 53bd 877b 2f3d
000001b0: 1c8b a0bc 2ef0 603d 9f65 933d 3e60 813c
000001c0: 55cb 773c f335 bcbc cf28 043c 84d4 15bc
000001d0: 6ff9 fe3c 3aeb 833a 5d8f c33c 214d ecbc
000001e0: 82c5 2f3d 62f1 473d bced 2b3c 2b07 11bd
000001f0: 2ce1 c2bc 20be 913c 292c 52bc ee01 08bd
00000200: 9681 573c 4ee7 bfbc 8318 46bd 6435 6fbd
00000210: 3f7d 553d 3223 03bd 8c97 8bbd 0dc9 3e3c
00000220: bc92 7d3d 32d2 85bc 684f 85bc 8246 2ebd
00000230: f9b7 69bd 34bd 15bd 2b7c f93c 2811 c73b
00000240: 201d f13c 9fe0 b03c 7043 213d 21f2 433d
00000250: 38b4 913c 0de1 21ba ab3f e73c d1e3 d53c
00000260: 5e21 f2ba 8e6d a8bc 74b4 373c 7e80 12bc
00000270: f0d1 fabc e9e3 f5bc d94a 79bc d24a 01bd
00000280: 79d9 48bc a57f fe3c b907 66bc 3110 ecbc
00000290: f147 62bd 71d3 2a3c b3fc 3bbd 4e50 b43b
000002a0: b2c6 13bd 724d 153b b646 e6bc f93b 563d
000002b0: 6da8 3cbd 3710 1c3c f80d ebbc aafd d13a
000002c0: 4b08 c33c 709e 5ebb 389b 25bd 4401 bcbb
000002d0: 7637 f8bb 31c9 a13c 1824 2bbd 0373 d53c
000002e0: cadb 183d 7732 81bb 7e1f 243d f217 f7ba
000002f0: edbc a53c 92e5 59bd fd22 56bd be42 b8bc
00000300: 9bf0 b2bc af27 3c3d dd91 7a3c 25e7 bcba
00000310: af23 bfbc afbe d93b 3d6b 433d dd43 26bd
00000320: 87bc e93b 8e28 cb3c 7616 6cbc f2ec ce3c
00000330: f34b c93c be4a 37bc 2470 68bd dee4 133d
00000340: 065f 78bd 1736 96bb 0d12 16bb a193 acbc
00000350: ec79 5d3d 9419 17bd f68a 343d eafc 963c
00000360: 1dad 9dbd 1166 87bd 0155 e63c 00a1 8bbd
00000370: b6ba 66bd 21f5 b23c 6e95 46bd 66ff 203d
00000380: a62d 1ebd 0ba0 803c fd40 193d aea5 323b
00000390: c03b 0dbc 4b3e 99bc cdab 173d 8294 a53c
000003a0: caf1 3f3d a9bb 483d bfd3 5bbc d59c 22bd
000003b0: 540f 7c3c aac8 033d 7d5b 853d 7a79 04bd
000003c0: 8ae9 c4bc d89f 193c 6e93 213d 2a42 013d
000003d0: 9c15 0dbd a516 4a3c 1cf6 ba3b 765a 42bd
000003e0: 47b2 c7bc 23af f0bb 652b a1bd dd97 bc3c
000003f0: 826c fabc ac1f 1f3c b9fc 343d f8cd 78bd

encoder.block2.block.0.bias f4 [32]
0.01660318 -0.0006638205 -0.044433214 0.021217193 0.02402559 0.013296061 -0.05536652 0.040704884
0.03468072 -0.03355021 -0.008225847 0.040734325 -0.05260168 0.0048089344 0.029562116 0.020660086
-0.024290688 -0.0044147167 -0.018588724 0.05502141 0.04004049 0.01790299 -0.05049898 0.031854734
0.035584487 0.054509535 0.029143812 0.017159732 0.029452838 0.024719113 -0.056025043 -0.014813042
00000000: 6403 883c 3d04 2eba 9aff 35bd aecf ad3c
00000010: 50d1 c43c b9d7 593c 01c8 62bd 2aba 263d
00000020: 5f0d 0e3d f26b 09bd b4c5 06bc 09d9 263d
00000030: dc74 57bd 4494 9d3b 402c f23c 573f a93c
00000040: 44fd c6bc 54a9 90bb 6147 98bc 215e 613d
00000050: 7f01 243d 4ba9 923c 05d8 4ebd 1c7a 023d
00000060: 0ac1 113d 6445 5f3d 01bf ee3c 9192 8c3c
00000070: 1447 f13c bd7f ca3c 847a 65bd 67b2 72bc

encoder.block2.block.1.weight f4 [32]
0.9681908 0.9641507 0.9614729 0.97638977 0.97756237 0.9882127 0.98573655 0.96775293
0.9630163 0.95863456 0.97583884 0.97062373 0.957175 0.9473756 0.9662587 0.97483194
0.96278965 0.96077925 0.9515081 0.9424263 0.96325994 0.971833 0.97092927 0.9608265
0.97949857 0.9707625 0.9547729 0.9688561 0.97019655 0.969719 0.9549576 0.9657338
00000000: 5adb 773f 95d2 763f 1723 763f aef4 793f
00000010: 8741 7a3f 82fb 7c3f 3b59 7c3f a8be 773f
00000020: 3c88 763f 1369 753f 93d0 793f cc7a 783f
00000030: 6c09 753f 3587 723f bb5c 773f 968e 793f
00000040: 6279 763f a1f5 753f 0996 733f da42 713f
00000050: 3498 763f 0cca 783f d28e 783f baf8 753f
00000060: 6bc0 7a3f e483 783f ff6b 743f f406 783f
00000070: cd5e 783f 813f 783f 1a78 743f 553a 773f

encoder.block2.block.1.bias f4 [32]
-0.041781433 -0.014767468 0.0166604 -0.03428906 0.0037443764 0.0028784233 -0.018470276 -0.012847034
-0.011164055 -0.020630311 -0.007725178 0.007871955 0.002524273 -0.001767943 -0.005227203 -0.0018520457
-0.040399946 -0.0018320482 -0.007750858 -0.0065999883 -0.018347494 -0.021403272 0.0054313447 0.003470203
-0.01192132 -0.0050741876 0.0023988544 -0.017089233 -0.014814919 0.005706789 -0.029123543 0.0032384668
00000000: 0223 2bbd 40f3 71bc 647b 883c af72 0cbd
00000010: 3664 753b eea3 3c3b fa4e 97bc 5e7c 52bc
00000020: 71e9 36bc e600 a9bc 7d23 fdbb 5ff9 003c
00000030: 466e 253b 53ba e7ba f548 abbb 57c0 f2ba
00000040: 6a7a 25bd 5621 f0ba e9fa fdbb b744 d8bb
00000050: 7c4d 96bc ea55 afbc 6cf9 b13b 586c 633b
00000060: a451 43bc 5f45 a6bb 1936 1d3b b8fe 8bbc
00000070: 46ba 72bc 0400 bb3b 7f94 eebc 753c 543b

encoder.block2.block.1.running_mean f4 [32]
-0.15562387 -0.30359918 -0.10344419 -0.03996542 -0.18813609 -0.2399338 -0.18057804 -0.17257401
-0.17763425 -0.43535668 -0.06634213 -0.6049697 -0.36827093 0.10233657 -0.102257095 -0.11001924
-0.13722003 0.0374218 -0.80812746 -0.53616005 -0.36916918 -0.41859713 -0.3803668 -0.27574506
-0.22927198 -0.10332325 -0.44130066 -0.5769456 -0.4010033 -0.21473433 -0.31061262 -0.21876273
00000000: dd5b 1fbe 5a71 9bbe 8cda d3bd c8b2 23bd
00000010: bfa6 40be 35b1 75be 73e9 38be 3eb7 30be
00000020: c1e5 35be 12e7 debe 62de 87bd 4bdf 1abf
00000030: 028e bcbe d695 d13d 2b6c d1bd c451 e1bd
00000040: 6883 0cbe 9a47 193d 71e1 4ebf c941 09bf
00000050: be03 bdbe 5d52 d6be 70bf c2be 752e 8dbe
00000060: 46c6 6abe 249b d3bd 29f2 e1be b5b2 13bf
00000070: 4e50 cdbe 51e3 5bbe 9e08 9fbe 5603 60be

encoder.block2.block.1.running_var f4 [32]
2.9507127 3.3439124 1.451926 2.706178 2.6680539 3.6448877 2.8125446 2.7332623
3.6716537 1.8589852 3.254115 3.2938728 4.290135 3.6308978 1.9206944 1.7098745
2.627202 2.6083636 4.186657 3.935887 4.801663 4.0867305 5.0211105 4.5827923
3.2900665 3.3006535 2.8677351 3.1722314 2.8449254 3.0046823 3.1407766 2.31168
00000000: 7ad8 3c40 a902 5640 b6d8 b93f 0532 2d40
00000010: 65c1 2a40 d745 6940 bb00 3440 c5ed 2e40
00000020: 60fc 6a40 3af3 ed3f 6c43 5040 d0ce 5240
00000030: c948 8940 a160 6840 50d9 f53f 2bdd da3f
00000040: 1424 2840 6eef 2640 18f9 8540 93e5 7b40
00000050: 39a7 9940 7fc6 8240 f0ac a040 3ca6 9240
00000060: 7390 5240 e83d 5340 f988 3740 d705 4b40
00000070: 4213 3640 b74c 4040 7c02 4940 91f2 1340

encoder.final.block.0.weight f4 [3, 32, 3, 3]
0.007722069 0.032489564 0.011056311 0.04422293 -0.02995734 -0.0016327269 0.028026495 -0.0053973147
0.031986203 -0.01579529 -0.056134816 -0.02222718 0.0222871 0.01966157 -0.018122237 0.021234594
0.059242662 0.025149282 -0.030279139 -0.016647704 -0.018409707 0.011462206 0.028803932 -0.04847425
0.0030197394 0.000937048 -0.008694203 0.014944087 0.0490654 -0.01970789 0.025452977 -0.042099003
-0.029696893 -9.4857656e-05 -0.008853116 0.05768534 0.030130832 0.024359647 -0.01512423 -0.047433816
0.007040903 -0.023409033 -0.06065926 -0.01874111 -0.043953262 -0.0050526075 -0.0020774768 0.012747887
0.0018808789 0.06070293 -0.006129489 -0.006081869 0.012048108 -0.022414766 -0.042544402 0.036869388
0.03021983 -0.015787546 0.0467387 0.043204006 0.036582362 0.035268385 0.048262067 0.0039771977
0.002570409 0.00088581786 0.008585281 -0.04377979 -0.0011765582 -0.018676609 -0.011132025 0.038623177
0.03302224 0.029725147 0.020445902 -0.0142040765 -0.008535885 0.021271 0.04092509 -0.015482487
-0.038741633 0.006325737 0.0042437953 -0.027716147 0.026609927 -0.040373184 -0.009395225 0.024965415
0.02437035 0.014246289 -0.03277343 -0.036577214 0.011125887 -0.013054285 -0.05063366 0.0038253071
-0.029632166 0.014214312 0.039415304 -0.043568667 -0.035448607 0.045575663 -0.050954808 0.023002237
0.0057642823 0.0138368895 0.023664644 -0.025630806 -0.036099497 -0.03799791 -0.034517355 0.006017807
-0.03601872 0.017809888 0.044602033 0.042504426 0.021876821 0.031235438 0.032621596 0.0047753616
-0.024051934 -0.011342357 0.024505503 -0.038007777 0.03811516 0.021090664 -0.031934213 0.047034748
-0.024899224 -0.036254153 -0.03918436 -0.0029308281 0.04749685 -0.041255258 -0.048949845 -0.0044917534
0.042787373 0.016381957 0.016039588 0.023678787 -0.031022035 -0.0041468367 -0.03582854 -0.0013118832
0.021995878 -0.054014146 0.04067366 0.018938504 0.04791212 0.011414992 0.04616892 -0.010064789
-0.01914827 -0.0075739385 0.033183284 0.0076606735 -0.028157797 -0.029105486 -0.033472244 0.04267666
0.026521074 -0.03519934 -0.017883064 -0.013031755 -0.036054585 -0.026051514 -0.003620582 0.013659798
-0.03331508 0.05002724 -0.027700698 0.00705622 -0.0018115359 0.00037470943 0.02698707 -0.038898397
0.038061876 -0.009396242 -0.04583317 0.045072146 0.030777186 0.04083045 0.02816576 -0.031992476
-0.038263217 0.04879397 -0.041527536 0.04123241 0.015114653 -0.0060004126 -0.008150044 -0.04052572
0.0051397043 0.028371295 0.007997186 0.014024819 0.030819863 -0.034693744 0.016953507 -0.041661855
-0.024373053 -0.032689974 -0.018502407 -0.008306636 -0.04924022 -0.04394393 -0.0042093326 -0.006874623
-0.0459427 0.047153197 0.0451603 0.014784029 0.0029667977 -0.019161569 -0.022703905 -0.022208951
0.015926605 -0.028986078 -0.0017074569 -0.003585065 0.032220855 -0.019429004 -0.03651813 -0.0057273097
-0.04194403 -0.0054638516 -0.03238342 0.015539944 0.037344053 -0.020348785 -0.04469596 0.010675531
0.049493708 0.009347428 0.031140085 -0.027982809 0.034201887 0.019376494 0.040848635 -0.038491648
-0.029974474 0.007750789 -0.0025137584 0.02542897 0.050639126 0.02221185 0.017291512 0.011212345
-0.034012403 -0.008335677 -0.029646004 -0.0051589957 0.01355275 0.007949357 0.018836088 0.01275421
00000000: 6909 fd3b c713 053d 8825 353c 1a23 353d
00000010: 1869 f5bc 3901 d6ba d297 e53c f5db b0bb
00000020: f703 033d 2065 81bc 9fed 65bd c615 b6bc
00000030: 7093 b63c 4d11 a13c 1675 94bc 2cf4 ad3c
00000040: 6fa8 723d de05 ce3c f50b f8bc c460 88bc
00000050: f4cf 96bc facb 3b3c 39f6 eb3c ef8c 46bd
00000060: d2e6 453b 3aa4 753a 2172 0ebc 0bd8 743c
00000070: cdf8 483d 7172 a1bc c382 d03c 0170 2cbd
00000080: e646 f3bc 51ee c6b8 a90c 11bc 7747 6c3d
00000090: efd4 f63c e28d c73c 9ecb 77bc f649 42bd
000000a0: 60b7 e63b 4dc4 bfbc d875 78bd f586 99bc
000000b0: 5608 34bd 5890 a5bb 4726 08bb 83dc 503c
000000c0: d387 f63a a3a3 783d e1d9 c8bb 6a4a c7bb
000000d0: 6d65 453c 2c9f b7bc 0a43 2ebd 5b04 173d
000000e0: 948f f73c e254 81bc 1471 3f3d aff6 303d
000000f0: 63d7 153d 9575 103d 72ae 453d 2753 823b
00000100: 4f74 283b 3b36 683a 47a9 0c3c 7052 33bd
00000110: be36 9aba b0ff 98bc 1963 36bc 5633 1e3d
00000120: 5442 073d 2782 f33c 2a7e a73c 37b8 68bc
00000130: 19da 0bbc 8540 ae3c 11a1 273d 42aa 7dbc
00000140: 8caf 1ebd 2148 cf3b 890f 8b3b f90c e3bc
00000150: 10fd d93c 5a5e 25bd 6eee 19bc 4584 cc3c
00000160: 54a4 c73c 4469 693c 6f3d 06bd fdd1 15bd
00000170: 5a49 363c a4e1 55bc 3e65 4fbd 01b2 7a3b
00000180: 28bf f2bc 25e3 683c f171 213d 0f75 32bd
00000190: 8f32 11bd 8cad 3a3d fdb5 50bd 306f bc3c
000001a0: 4ee2 bc3b 1fb4 623c 5bdc c13c b2f7 d1bc
000001b0: 11dd 13bd b2a3 1bbd 1262 0dbd 0631 c53b
000001c0: 5e88 13bd 0be6 913c 9fb0 363d 1f19 2e3d
000001d0: 0537 b33c 76e1 ff3c 399e 053d a37a 9c3b
000001e0: 9008 c5bc 4bd5 39bc c4bf c83c 0bae 1bbd
000001f0: a41e 1c3d 54c6 ac3c 73cd 02bd 82a7 403d
00000200: 75f9 cbbc 3c7f 14bd c87f 20bd 2313 40bb
00000210: 0f8c 423d 46fb 28bd a27f 48bd 8f2f 93bb
00000220: d041 2f3d 7433 863c 7465 833c 04fa c13c
00000230: ec21 febc 30e2 87bb f2c0 12bd 7ff3 abba
00000240: b330 b43c f03d 5dbd 6c99 263d ec24 9b3c
00000250: 803f 443d f205 3b3c 9f1b 3d3d c9e6 24bc
00000260: d5dc 9cbc cd2e f8bb 32eb 073d 6306 fb3b
00000270: 2eab e6bc a16e eebc 311a 09bd b9cd 2e3d
00000280: b942 d93c 2f2d 10bd 817f 92bc 2483 55bc
00000290: f9ad 13bd fc69 d5bc 4947 6dbb 58cd 5f3c
000002a0: 6575 08bd 5de9 4c3d 93ec e2bc dd37 e73b
000002b0: 0f71 edba a674 c439 fd13 dd3c ed53 1fbd
000002c0: c5e6 1b3d b2f2 19bc 90bb 3bbd 929d 383d
000002d0: 7020 fc3c d43d 273d e1bb e63c 8b0a 03bd
000002e0: e4b9 1cbd 30dc 473d c718 2abd 51e3 283d
000002f0: 73a3 773c 1c9f c4bb c387 05bc 4cfe 25bd
00000300: f76a a83b eb6a e83c a106 033c 5bc8 653c
00000310: f079 fc3c 071b 0ebd 15e2 8a3c 9fa5 2abd
00000320: ffa9 c7bc ece5 05bd 5c92 97bc 8e18 08bc
00000330: 1db0 49bd 8dfe 33bd 71ee 89bb 8444 e1bb
00000340: 6a2e 3cbd b623 413d 02fa 383d b638 723c
00000350: 9b6e 423b b9f8 9cbc 8afd b9bc 8cef b5bc
00000360: 8378 823c 3674 edbc bfcc dfba 69f3 6abb
00000370: 04fa 033d 9329 9fbc 0994 15bd 28ac bbbb
00000380: 81cd 2bbd 1c0a b3bb 7aa4 04bd 409b 7e3c
00000390: 14f6 183d 7fb2 a6bc 1c13 37bd 6ce8 2e3c
000003a0: eab9 4a3d f425 193c 7e19 ff3c 343c e5bc
000003b0: 4717 0c3d 74bb 9e3c e650 273d 6ba9 1dbd
000003c0: 078d f5bc 55fa fd3b debd 24bb 6a50 d03c
000003d0: f96a 4f3d a0f5 b53c eea6 8d3c fcb3 373c
000003e0: 9750 0bbd 5d92 08bc 2ddc f2bc cb0c a9bb
000003f0: 5b0c 5e3c 053e 023c 244e 9a3c 09f7 503c

encoder.final.block.0.bias f4 [3]
0.011622255 -0.0043803873 -0.0031300439
00000000: 456b 3e3c 5a89 8fbb 6c21 4dbb

decoder.initial.block.0.weight f4 [32, 3, 3, 3]
-0.022821657 0.21046656 -0.102466576 -0.038793888 0.0038311798 -0.13065195 0.15457028 -0.124356635
-0.056314968 0.086590655 -0.12919773 -0.008319118 -0.15442438 0.16649738 0.083351545 -0.13062541
0.13417594 0.028258128 -0.06472883 -0.12282601 0.09183861 0.15733002 -0.19426434 0.045981184
0.05687891 0.04948352 -0.08089963 0.011546923 -0.046261944 -0.045137215 0.19183366 -0.20773044
0.09569171 -0.12691098 0.16528428 -0.07126748 -0.07843073 0.109060824 0.08602044 -0.13037188
0.109905444 -0.07085543 0.067404926 -0.086496875 -0.0074409666 0.018569883 -0.035252042 -0.015705254
-0.17740636 0.119257346 0.027680753 0.013527637 0.018106565 0.0011679599 -0.04796344 0.027793776
0.07984646 0.048934948 0.011724895 -0.0034696467 -0.030171853 -0.093962476 0.14498655 0.18541293
-0.050679456 0.01001095 0.071047716 -0.010829724 -0.127183 0.10286255 -0.118593484 -0.02158524
-0.065788805 0.09317156 -0.1136019 -0.21236306 0.005527496 0.16489187 0.04532976 0.17357028
-0.108705506 0.015194041 -0.19440044 -0.049982823 -0.085448235 0.117478214 0.040874165 0.024850698
-0.058819063 -0.052076112 0.06984262 0.04757195 -0.02175323 0.15087898 -0.00029132332 0.06722473
0.10397867 0.028046666 -0.2630636 0.071155995 0.022917354 0.08559557 -0.11774195 -0.16298164
-0.1542607 -0.041464154 -0.007313981 0.1739112 -0.032118782 0.079430394 0.052333027 0.18536246
0.06709828 -0.07494972 -0.09917343 -0.005059576 -0.19826011 -0.016161969 0.09570249 -0.08643955
-0.042917054 -0.20686716 -0.18129832 -0.14948474 -0.23272525 0.18249616 -0.12556706 0.12982206
-0.1842938 -0.1877878 0.021071184 0.14972398 0.19551727 0.18288262 -0.0030994331 -0.13863322
0.044562265 0.02060225 0.22474031 0.056935873 -0.16579768 0.023038445 0.010131945 -0.038373712
0.09791924 -0.008801525 0.0705486 -0.16669843 -0.1630844 0.12397083 -0.06365255 -0.047326308
0.18280989 -0.00817176 -0.002010765 -0.061469812 -0.027055472 0.14897189 -0.012030624 0.010855399
0.045954403 -0.09369891 -0.03940293 -0.09670644 0.08552721 0.103388295 0.099305645 0.08601432
-0.07027806 0.013802451 -0.077277474 0.020046894 0.04627749 -0.125069 0.092260055 -0.22542359
-0.21419196 -0.0035678337 0.0445352 0.007086587 0.031244997 0.0116284 0.0034320152 -0.16080977
0.19561985 0.07516404 0.080947064 -0.06024749 0.040239736 0.085869916 -0.052802302 0.027028577
-0.05840492 0.07082236 -0.08951967 -0.12872188 0.10025883 0.0039509633 -0.13595293 -0.13611193
-0.12786211 0.20123668 -0.022609698 0.15614393 0.040812314 -0.23372337 0.14467888 0.027319314
0.14058048 0.06527978 -0.11016407 -0.040777598 -0.051932875 0.038387038 0.12359632 -0.1582875
-0.16857952 -0.05868836 0.063308716 0.04304765 -0.0053863428 0.0019323366 0.13777591 0.1629481
-0.0672804 -0.19136761 0.03765656 0.11529696 0.043984666 0.186835 0.14872907 -0.18241642
-0.037960865 -0.042870745 -0.06834378 -0.22440119 0.0117035415 -0.17534147 -0.011824721 -0.18868999
0.08422847 -0.072908066 -0.09912522 -0.07146529 -0.07046185 0.12169267 -0.0032362856 -0.08544054
-0.037623435 -0.06527929 0.06998838 0.079131134 0.14979753 0.14184318 -0.2273041 0.073515065
00000000: 7cf4 babc 8c84 573e ffd9 d1bd 57e6 1ebd
00000010: 8814 7b3b a0c9 05be ac47 1e3e b1ae febd
00000020: 86aa 66bd 7156 b13d 694c 04be e94c 08bc
00000030: 6d21 1ebe 4a7e 2a3e 37b4 aa3d abc2 05be
00000040: 6b65 093e 977d e73c 8c90 84bd 348c fbbd
00000050: e215 bc3d 1f1b 213e 3bed 46be c456 3c3d
00000060: dcf9 683d 3baf 4a3d b5ae a5bd 4e2f 3d3c
00000070: 2a7d 3dbd cde1 38bd 0b70 443e 4ab7 54be
00000080: 04fa c33d f4f4 01be 4840 293e aff4 91bd
00000090: 4aa0 a0bd 485b df3d 7c2b b03d 3580 05be
000000a0: 1b16 e13d a71c 91bd 980b 8a3d 4625 b1bd
000000b0: 5ad3 f3bb de1f 983c 7264 10bd 4ea8 80bc
000000c0: 03aa 35be 323d f43d bfc2 e23c 06a3 5d3c
000000d0: 3854 943c 3b16 993a 5075 44bd c6af e33c
000000e0: 8a86 a33d 0370 483d c619 403c 0363 63bb
000000f0: f62a f7bc 666f c0bd 5b77 143e e3dc 3d3e
00000100: 4395 4fbd f804 243c 7781 913d 286f 31bc
00000110: 433c 02be 9aa9 d23d 24e1 f2bd 87d3 b0bc
00000120: 48bc 86bd bbd0 be3d 1da8 e8bd b475 59be
00000130: ff1f b53b 6ad9 283e b3ab 393d 68bc 313e
00000140: fea0 debd 6df0 783c e910 47be caba 4cbd
00000150: 7cff aebd 6b98 f03d ab6b 273d b193 cb3c
00000160: 42ec 70bd c34d 55bd a609 8f3d ceda 423d
00000170: d433 b2bc 0580 1a3e c1bc 98b9 1fad 893d
00000180: c5f2 d43d 1fc2 e53c 46b0 86be 3cba 913d
00000190: 2dbd bb3c bb4c af3d b122 f1bd a9e4 26be
000001a0: 84f6 1dbe 51d6 29bd 1faa efbb c715 323e
000001b0: fc8e 03bd 67ac a23d 285b 563d a8cf 3d3e
000001c0: d36a 893d 3d7f 99bd 701b cbbd cdca a5bb
000001d0: b304 4bbe 1b66 84bc abff c33d 3807 b1bd
000001e0: cbc9 2fbd fcd4 53be 44a6 39be 8712 19be
000001f0: 874f 6ebe 46e0 3a3e a794 00be 13f0 043e
00000200: 84b7 3cbe 724b 40be 7a9d ac3c 3e51 193e
00000210: ae35 483e 9545 3b3e dc1f 4bbb def5 0dbe
00000220: ec86 363d 0dc6 a83c 5322 663e 9735 693d
00000230: dec6 29be 1fbb bc3c 7500 263c c12d 1dbd
00000240: e289 c83d 4634 10bc c97b 903d feb2 2abe
00000250: 99ff 26be 6be4 fd3d 455c 82bd 3bd9 41bd
00000260: 8432 3b3e d8e2 05bc 0ac7 03bb c5c7 7bbd
00000270: 70a3 ddbc 168c 183e 181c 45bc d8da 313c
00000280: af3a 3c3d 37e5 bfbd f764 21bd 070e c6bd
00000290: e428 af3d 3ebd d33d c260 cb3d 4728 b03d
000002a0: f2ed 8fbd ad23 623c a743 9ebd 6239 a43c
000002b0: 778d 3d3d 1712 00be d7f2 bc3d 71d5 66be
000002c0: 2355 5bbe 51d2 69bb 8b6a 363d 9a36 e83b
000002d0: 82f5 ff3c 0b85 3e3c a9eb 603b 51ab 24be
000002e0: 9250 483e 9bef 993d 93c7 a53d 12c6 76bd
000002f0: 6cd2 243d 91dc af3d 3a47 58bd 096b dd3c
00000300: ff39 6fbd 500b 913d 1756 b7bd abcf 03be
00000310: 8054 cd3d 1577 813b 3f37 0bbe ed60 0bbe
00000320: 49ee 02be fd10 4e3e f937 b9bc 32e4 1f3e
00000330: d02a 273d 2e55 6fbe b326 143e c1cc df3c
00000340: 54f4 0f3e 68b1 853d b39d e1bd 6906 27bd
00000350: 91b7 54bd ba3b 1d3d 1120 fd3d 1e16 22be
00000360: 1ca0 2cbe 3563 70bd 00a8 813d bc52 303d
00000370: eb7f b0bb 7546 fd3a 2115 0d3e dedb 263e
00000380: 4eca 89bd dff5 43be c43d 1a3d d020 ec3d
00000390: 4429 343d ad51 3f3e 6f4c 183e 5fcb 3abe
000003a0: da7c 1bbd 3c99 2fbd d3f7 8bbd 6dc9 65be
000003b0: 36c0 3f3c b78c 33be 79bc 41bc f337 41be
000003c0: fa7f ac3d d350 95bd 2a02 cbbd 655c 92bd
000003d0: 4d4e 90bd 023a f93d dd17 54bb 73fb aebd
000003e0: 081b 1abd 26b1 85bd 1156 8f3d 810f a23d
000003f0: 8664 193e 573f 113e 68c2 68be 118f 963d

decoder.initial.block.0.bias f4 [32]
-0.13098595 0.09056419 0.06263473 -0.1856051 0.10218267 -0.07449715 0.13289204 0.118177526
0.07669324 0.08511395 -0.114759006 0.02550298 -0.028085887 -0.12929773 -0.101329386 0.022907523
-0.16421294 0.08295271 0.035823595 0.045555122 0.025494345 0.01294979 0.042090613 0.073681325
0.17472722 0.08541025 0.06787285 0.1288658 -0.0017335117 0.11495275 -0.14979218 -0.08512004
00000000: 2e21 06be b879 b93d a346 803d 430f 3ebe
00000010: 2645 d13d f691 98bd da14 083e 0f07 f23d
00000020: 5811 9d3d 3950 ae3d c506 ebbd a0eb d03c
00000030: 6014 e6bc a066 04be c885 cfbd 8fa8 bb3c
00000040: 7027 28be 1ce3 a93d c3bb 123d 0298 3a3d
00000050: 84d9 d03c 5b2b 543c 3567 2c3d 3ce6 963d
00000060: b1eb 323e 92eb ae3d ec00 8b3d 65f5 033e
00000070: 0037 e3ba 596c eb3d 1f63 19be 6a53 aebd

decoder.initial.block.1.weight f4 [32]
1.0063885 1.0033827 1.0312868 0.9963368 0.9944273 1.001757 0.9503728 1.0426394
0.9309526 0.9879153 0.93492085 0.94028664 0.96822816 0.9890509 0.95868266 0.9784646
0.9938824 0.9880585 1.0214013 0.9671338 0.9696905 0.94189525 0.9705312 0.98116064
1.0095178 1.0334474 0.9732143 0.99179405 0.9359565 0.97454774 0.97715354 0.96300054
00000000: 57d1 803f d86e 803f 3501 843f ee0f 7f3f
00000010: ca92 7e3f 9339 803f a24b 733f 3575 853f
00000020: e952 6e3f 04e8 7c3f f956 6f3f a0b6 703f
00000030: cddd 773f 7132 7d3f 3a6c 753f a87c 7a3f
00000040: 146f 7e3f 67f1 7c3f 47bd 823f 1596 773f
00000050: a33d 783f 0c20 713f bc74 783f 582d 7b3f
00000060: e137 813f 0148 843f 9324 793f 37e6 7d3f
00000070: d89a 6f3f f67b 793f bc26 7a3f 3487 763f

decoder.initial.block.1.bias f4 [32]
0.19372033 0.22914943 0.16306809 0.15350474 0.108509846 0.2240284 0.19967876 0.06772342
0.077544495 0.16845895 0.109542124 0.14135744 0.12311106 0.11000617 0.01208283 0.3557274
0.05405523 0.06362953 0.10891889 0.2004996 0.08652059 0.28379795 0.09812013 0.23206067
0.112464845 0.116233796 0.14866464 0.27200785 0.05400502 0.27510262 -0.011846141 0.046034195
00000000: 9f5e 463e 26a6 6a3e 52fb 263e 5930 1d3e
00000010: 693a de3d b367 653e 9778 4c3e 94b2 8a3d
00000020: a6cf 9e3d 8180 2c3e 9f57 e03d 01c0 103e
00000030: a721 fc3d ea4a e13d 10f7 453c e721 b63e
00000040: 0469 5d3d 3350 823d de10 df3d c44f 4d3e
00000050: b531 b13d f74d 913e 35f3 c83d 50a1 6d3e
00000060: f853 e63d fc0b ee3d 8b3b 183e 9d44 8b3e
00000070: 5e34 5d3d 40da 8c3e 5116 42bc 5a8e 3c3d

decoder.initial.block.1.running_mean f4 [32]
-0.17230192 0.06264581 0.13803567 -0.27203032 -0.118796885 -0.044996575 0.11172833 0.06258283
-0.13368438 0.048278447 -0.2069625 0.006406123 0.0211667 -0.041273877 -0.29808128 0.032880887
-0.25636676 0.021686032 -0.024924159 0.10740325 -0.07733149 0.042018086 0.101829745 0.032914363
0.029790001 0.15812586 0.15810934 0.16206993 0.0954989 0.1069296 0.21561797 0.011252153
00000000: ea6f 30be 724c 803d 3959 0d3e 8f47 8bbe
00000010: c84b f3bd 544e 38bd d3d1 e43d 6d2b 803d
00000020: 8fe4 08be 9fbf 453d faed 53be 74ea d13b
00000030: ca65 ad3c cc0e 29bd 1c9e 98be 1cae 063d
00000040: 8142 83be e8a6 b13c c02d ccbc 3cf6 db3d
00000050: f95f 9ebd 281b 2c3d 1d8c d03d 36d1 063d
00000060: 290a f43c bfeb 213e 6ae7 213e a9f5 253e
00000070: ed94 c33d e8fd da3d f5ca 5c3e f35a 383c

decoder.initial.block.1.running_var f4 [32]
0.0007747475 0.00047927833 0.0014127919 0.0027431909 0.012255738 0.0003374047 0.0007554071 0.00082136807
0.021699147 0.00048301296 0.0035070875 0.00071282644 0.0010995225 0.0024243605 0.014526651 0.00018981873
0.003296312 0.0023412225 0.0010934992 0.0012526282 0.0038837804 0.00055906427 0.0018926266 0.00086772104
0.0058560804 0.0015490603 0.0025985355 0.0004336566 0.0049928096 0.00015515767 0.034013085 0.0045317817
00000000: 6d18 4b3a a647 fb39 6e2d b93a 1bc7 333b
00000010: 4acc 483c b1e5 b039 8306 463a 1451 573a
00000020: 69c2 b13c e73c fd39 2ad7 653b f9dc 3a3a
00000030: da1d 903a 05e2 1e3b 3101 6e3c 140a 4739
00000040: f006 583b 326f 193b bf53 8f3a 3a2f a43a
00000050: 0687 7e3b 2b8e 123a 0312 f83a c677 633a
00000060: 5de4 bf3b d709 cb3a 314c 2a3b 675c e339
00000070: b99a a33b d2b1 2239 4e51 0b3d 577f 943b
