models/DenseSteganoGAN/1/epoch_12.pth (torch, 353375 bytes, 58 tensors)

encoder.initial.block.0.weight f4 [32, 3, 3, 3]
000000 4d 45 4b be 6a 49 01 3e 7e 13 59 bb b6 6e 86 3c
       -0.19850655 0.12625661 -0.003312319 0.016410213
000010 06 28 8c bc 4b 94 3a 3d 66 16 29 be fd df d9 bd
       -0.017108928 0.04555158 -0.1651245 -0.106384255
000020 8a ef f4 bd f8 3c 83 3d 43 cb 7d be a1 bc 01 3d
       -0.11959751 0.06408113 -0.2478457 0.03167403
000030 b0 17 01 be 19 6f 8f 3d 8b f6 eb bd 34 67 26 be
       -0.12606692 0.07003612 -0.11521634 -0.16250306
000040 3e 24 a6 3d 8f fc 2a bd ed d7 f4 3c 27 b4 8b 3d
       0.081123814 -0.041744765 0.029888118 0.06821471
000050 a5 5c be 3d c6 8d 12 3d da 4b ec 3d 13 29 5a be
       0.09295014 0.035779737 0.11537905 -0.21304731
000060 5c e0 e7 3c 36 b8 52 bd 9a 00 d1 bd 0d 7d 4d 3e
       0.028305225 -0.05144521 -0.10205193 0.20067234
000070 82 16 af 3d 92 53 96 3b a4 8b 1d 3e c2 cb c1 3c
       0.08549215 0.004587599 0.153853 0.02365673
000080 a9 90 07 3e 26 0c 1e 3e 63 35 0a bc fc 30 d3 3d
       0.13238777 0.15434322 -0.00843558 0.103120774
000090 46 0f 1c 3e cb a7 25 bd 79 dc 48 3d 80 30 75 3e
       0.15240201 -0.040443223 0.049038384 0.23944283
0000a0 b0 18 f5 bb 7e 88 f0 bd ce 29 82 bc 76 27 0e 3e
       -0.0074797496 -0.11744784 -0.015889075 0.1388224
0000b0 d2 a5 bf 3c 5f cf 0c 3e 17 7b 93 bd 35 01 14 3e
       0.023394499 0.13750981 -0.07201212 0.14453585
0000c0 43 40 d0 bd b6 a6 0d 3c cb c2 69 bd e9 22 0e 3e
       -0.10168507 0.008645704 -0.057070535 0.13880505
0000d0 68 9a d8 bd 73 06 12 bc 0d a3 bf 3d e3 88 76 bb
       -0.10576326 -0.00891267 0.09357271 -0.0037618212
0000e0 1a 7d 4f 3d 87 c9 95 3d ab a6 36 be 91 33 74 bc
       0.050656416 0.07313829 -0.17837016 -0.0149048725
0000f0 7c 6d 97 bc d0 fe ec 3d a7 f6 26 bd 32 e9 21 be
       -0.018484823 0.11572039 -0.04076257 -0.15811613
000100 d9 9e bc 3c bf ec aa bd 56 43 17 bd 08 c9 ad bd
       0.023024963 -0.08345937 -0.03692945 -0.08485609
000110 70 f4 33 3e 9b 50 b5 3d 36 cc dd 3d 38 44 89 bc
       0.17573714 0.08853265 0.10829966 -0.016756162
000120 79 c7 bd bd d7 71 0e be d5 46 00 3e 51 b5 00 3e
       -0.09266562 -0.13910614 0.1252702 0.12569167
000130 c1 bb 5c 3d 63 d8 a1 bd 4d 4f 13 be 2d 69 4d be
       0.053889994 -0.079026006 -0.1438572 -0.20059653
000140 c8 41 13 be 41 4b 31 be b0 86 8d 3d 1b 6f 21 3d
       -0.14380562 -0.17313863 0.06910455 0.0394126
000150 77 65 0e be 78 f7 d4 3b 1f 8d f4 3d cd 3f 10 be
       -0.13905893 0.006499227 0.11940979 -0.14086838
000160 c1 e1 f0 3d 2f f4 1f be 69 36 1f be 8d 29 9d bd
       0.11761809 -0.15620492 -0.155481 -0.07673941
000170 cf d3 8c bd a3 e1 1f 3d 7f 70 06 3d 51 a7 76 3c
       -0.06876337 0.039033543 0.03282213 0.01505454
000180 0e 78 a7 3d df 82 3a be 4d 45 50 3d d0 f9 4d 3e
       0.081771955 -0.18213986 0.05084734 0.20114827
000190 fc f5 e3 bd dc 72 04 be d4 e8 2a bd 38 42 dc 3d
       -0.11130902 -0.1293444 -0.04172595 0.10754818
0001a0 44 8b b6 3d 27 ae 42 3d 13 78 de bb 7f 42 c1 bd
       0.089132816 0.047529366 -0.0067892163 -0.09436511
0001b0 50 fa 81 bc fd bb 94 bd 00 79 0a 3e de dc 15 be
       -0.015866429 -0.072624184 0.1352272 -0.14635035
0001c0 ac 6e c6 bc a3 1e 34 3c ec 5f 1a be 2c 9e e5 3d
       -0.024222694 0.0109936325 -0.15075654 0.112118095
0001d0 38 eb b7 bc be 65 ea bd e6 9f e3 bd e4 21 d5 3c
       -0.022451028 -0.11445187 -0.111144826 0.026017137
0001e0 6e bf 11 3e 0a 68 03 3e 3d e2 b2 bd 09 ac d4 3c
       0.14233181 0.12832657 -0.08734558 0.025960939
0001f0 a0 7e 72 3b 34 d9 4d bc 08 1a 2f 3e 47 a7 50 bd
       0.0037001744 -0.012563992 0.17099774 -0.050940778
000200 f7 1d 9f bd 3f 82 d2 bd a7 74 d4 bd 24 cf 13 3d
       -0.07769387 -0.10278749 -0.10373812 0.036086217
000210 b9 1a ac 3b c5 64 04 bc 25 df 9d bc b8 e8 a2 bc
       0.005252209 -0.008080666 -0.019271443 -0.01988636
000220 dc 73 ae bd 2c 62 ca 3d ec b0 e7 bd d6 ae 96 3d
       -0.08518192 0.09882006 -0.11313042 0.07357566
000230 fd 27 41 3e 8b 74 5b bc ae 97 0b 3e c5 57 9b 3d
       0.1886291 -0.013394485 0.1363208 0.075851
000240 d5 3e a1 bc a7 e4 f8 3d c2 3d a0 ba ef 71 50 3e
       -0.019683281 0.12152987 -0.0012225437 0.20355962
000250 0e 0f 01 be e4 b8 36 3e 9a a5 d2 3d 3e 3a 82 3d
       -0.12603399 0.17843968 0.10285492 0.06358765
000260 67 11 32 3e cf 64 94 bd f3 c4 ff 3d 31 ea 21 be
       0.17389451 -0.0724579 0.12488737 -0.15811993
000270 cf 5a bc bd 55 34 5f 3e 0f 69 50 3e ec ba 73 3d
       -0.09197008 0.21797307 0.20352577 0.059504434
000280 05 86 97 3b 7f 1a 77 bd c7 2f ef bc f8 0c 09 be
       0.0046241307 -0.060328003 -0.029197587 -0.13383853
000290 a3 9b 2e 3e f2 04 a7 3d b2 a8 10 3d 29 52 47 bd
       0.17051558 0.0815524 0.03531713 -0.04866234
0002a0 db d7 37 3e d8 bf 87 3d 3c 70 43 3e 4d 76 13 3e
       0.17953436 0.06628388 0.19085783 0.14400597
0002b0 87 13 4d bb b7 d5 0f 3e 8a 43 f8 3b e8 a0 3e 3c
       -0.0031292157 0.1404637 0.0075764107 0.011635043
0002c0 a6 b3 e4 3c 49 a2 dc 3d 1d f4 fa 3c e7 31 94 bd
       0.027917694 0.10773141 0.03063398 -0.072360806
0002d0 52 9d 4b bd 07 2f eb bd ac f4 a9 3d 13 eb 82 3d
       -0.04971058 -0.11483579 0.082986206 0.06392493
0002e0 e7 55 35 3e d3 db 4e 3e 25 12 3d 3b 8a eb b7 bd
       0.1770855 0.20201044 0.0028849926 -0.089804724
0002f0 8c c2 ab 3d 31 56 8c 3d f7 e1 e6 3d c3 42 6d 3b
       0.08386716 0.06852377 0.11273568 0.0036203123
000300 68 f1 62 3d d0 51 42 3e 05 2f 11 3e 5f b2 e3 bd
       0.055406004 0.18976521 0.14178093 -0.11118006
000310 48 0a 30 3d 57 b7 40 3e e7 d6 a4 3d c3 39 b4 3d
       0.042978555 0.18819939 0.08048802 0.0880008
000320 0a 99 f0 3d eb a5 1f 3b ee 79 c0 3d 82 8f 22 3e
       0.1174794 0.002436037 0.09398256 0.15875056
000330 30 e7 d2 bc 8a 31 86 bb 96 aa 9f 3b 38 fa 18 3c
       -0.025745004 -0.004095261 0.0048726304 0.009337001
000340 78 5d 76 3d 9c 56 4f 3e 12 e5 bb bd d9 43 7c 3d
       0.060147732 0.20247883 -0.09174551 0.061588142
000350 b4 a4 59 bd 45 92 0f 3e b0 1e 48 bd b7 d4 1d bb
       -0.05313559 0.14020641 -0.04885739 -0.0024083087
000360 b8 c6 88 3d e3 34 ee bd 6b 6f 76 bd 1c 09 0a bc
       0.066785276 -0.11631181 -0.06016485 -0.008425023
000370 07 01 b0 3c 0c 27 c8 3d 60 24 cb bd 00 16 e7 3c
       0.021484865 0.097730726 -0.09919047 0.028208733
000380 5e 07 5f 3c 2d a5 c6 3d e6 c1 f5 bd 37 8a 24 be
       0.013612596 0.096994735 -0.11999874 -0.1606835
000390 63 cb e8 bd 7b 4c 86 bc e7 b0 7b 3d 5e 4d 52 be
       -0.11366918 -0.01639389 0.061448004 -0.20537326
0003a0 db fc cc bc be d6 80 3d a2 52 f9 bd c8 65 98 3c
       -0.025022915 0.06290959 -0.12173964 0.01860322
0003b0 1e fa 17 bd 90 21 11 be cc f3 09 bd ae 01 25 be
       -0.037103765 -0.1417296 -0.03367977 -0.16113922
0003c0 74 17 96 bd b1 35 5f 3d 88 f3 4a be b5 fe 39 be
       -0.07328692 0.054494563 -0.19819462 -0.1816357
0003d0 c3 19 2d 3d d2 6c d2 bd 92 c8 ec 3d 38 60 0a bd
       0.042260896 -0.10274662 0.11561693 -0.033783168
0003e0 e7 88 bf 3c ba c0 1e 3c 0d ed b3 3b ec 8a f6 3d
       0.02338071 0.009689504 0.005490905 0.12038216
0003f0 4a c8 02 bd a8 74 10 3e 34 af d7 bd ae 17 39 3e
       -0.03192929 0.14107001 -0.10531464 0.1807544

encoder.initial.block.0.bias f4 [32]
000000 60 48 ea bd 69 b8 8e bd 3a 6b 79 be d2 c7 5a be
       -0.11439586 -0.06968767 -0.2435731 -0.21365288
000010 4e dd a6 3e 85 25 21 3e 3d 60 3e 3d 13 bf a7 3b
       0.32590717 0.15736969 0.0464785 0.0051192134
000020 ff d2 1a be 5b 7c 70 be 64 6b 5b be 6f 1c 1a 3c
       -0.15119551 -0.23484938 -0.21427685 0.009406193
000030 7d 46 45 be f7 74 7e 3e de d2 4f be ab e2 6d bd
       -0.1926517 0.24849306 -0.20295283 -0.058077496
000040 0e 8e a5 3e b5 c9 59 3d 1d 42 97 3d da 77 19 bd
       0.32334942 0.05317088 0.07385657 -0.037467815
000050 74 d9 9b bd db 42 da 3b a8 29 34 3e fd 10 37 be
       -0.07609835 0.006660802 0.17594016 -0.17877574
000060 5a 98 4a 3c 1a 74 05 3e 9e f1 13 bd 7a ea 14 be
       0.012365425 0.1303257 -0.036119096 -0.1454257
000070 58 39 d8 bd 16 35 2f 3e 71 89 29 39 74 1a d5 3d
       -0.105578125 0.17110094 0.00016168297 0.10405436

encoder.initial.block.2.weight f4 [32]
000000 46 a4 76 3f 62 03 70 3f c0 43 7e 3f 40 b3 79 3f
       0.9634441 0.9375516 0.9932213 0.9753914
000010 fb bc 5d 3f c5 3c 78 3f 95 68 7b 3f da 80 7b 3f
       0.86616486 0.96967727 0.98206455 0.98243487
000020 26 29 77 3f c5 7f 7f 3f a9 bb 79 3f 44 2b 7a 3f
       0.9654716 0.99804336 0.9755197 0.9772227
000030 62 b6 78 3f 4b 5c 5c 3f 4b 03 7d 3f 99 8e 79 3f
       0.97153294 0.8607833 0.9883315 0.9748321
000040 c4 d6 51 3f 24 d3 74 3f f8 50 6f 3f 1c 78 6e 3f
       0.8196833 0.95634675 0.93482924 0.9315202
000050 15 49 7b 3f a7 6a 7d 3f a5 01 7b 3f 0d 6a 83 3f
       0.9815839 0.98990864 0.98049384 1.0266739
000060 f7 5e 76 3f 90 13 74 3f 4f 7d 79 3f b1 d2 7d 3f
       0.96238655 0.9534235 0.9745683 0.99149615
000070 62 84 7d 3f 07 c6 4b 3f 3e c0 7a 3f 2c 70 73 3f
       0.99030125 0.7959904 0.9794959 0.95093036

encoder.initial.block.2.bias f4 [32]
000000 12 bc 27 3d fc 9d 56 3c 3c 30 a6 bc 08 e8 04 3d
       0.040950842 0.01309919 -0.020286672 0.032447845
000010 e2 26 41 3b 94 5b 60 bb 02 c2 10 bd 64 f6 00 3d
       0.002947264 -0.0034234272 -0.03534127 0.031484976
000020 4f 9e 59 bc 5b cb e8 3b 0b 02 54 3c 00 b8 1b bb
       -0.013282373 0.00710432 0.01293994 -0.0023760796
000030 02 8b 31 3b b0 4c ad bc 69 b0 d2 bc c8 6b c7 bb
       0.0027090912 -0.021154732 -0.025718885 -0.0060858466
000040 91 a3 42 3d 20 4c c8 bc f7 de 2a bd 07 4d 87 3c
       0.04751927 -0.024450362 -0.041716542 0.016516222
000050 02 5e a5 3c 5e 1b 12 bd 92 a7 dd 3b 1d 67 28 bd
       0.020186428 -0.03567063 0.0067643607 -0.04111396
000060 f2 f2 64 bc 60 75 64 3c cb 07 ee bc 57 c3 42 3c
       -0.013973938 0.013944 -0.02905645 0.011887393
000070 99 8c 31 bc d2 14 0f bc 83 d1 17 bc 09 7f 95 3c
       -0.010836744 -0.008732991 -0.00926626 0.018249052

encoder.initial.block.2.running_mean f4 [32]
000000 cc 77 a4 bb e5 a5 0b 3f 59 b0 7b bb 2c d6 8a bb
       -0.0050191637 0.5455001 -0.0038404672 -0.004236957
000010 0d b4 3f 3e fb 18 33 3f da 28 17 3f dc 2a 28 3f
       0.18721028 0.6995999 0.5904671 0.656904
000020 a7 a8 c8 bb 0e 2e 9a bb a5 5a bb bb d3 83 0f 3f
       -0.0061236206 -0.004705197 -0.005717593 0.5606052
000030 5a 16 a5 bb 11 84 12 3e fb 2c 6f bb 5c e8 36 3f
       -0.005038065 0.14308192 -0.0036495316 0.714483
000040 32 3b 3b 3e 2a 21 09 3f 93 1c 56 3f 0b 6e 17 3f
       0.182843 0.5356623 0.8363735 0.5915229
000050 dd fc 12 bc 0b 65 44 3f fb 27 4f 3f f5 cc b5 bb
       -0.00897142 0.7671668 0.8092038 -0.0055481144
000060 90 7f 01 3f 11 d9 57 3f 3b 3e 05 3f f9 ad b2 bb
       0.5058527 0.8431559 0.5204808 -0.005452868
000070 8a 7f 05 bc 24 00 dc 3b 52 84 28 3f 28 e2 24 3f
       -0.008148083 0.006713884 0.65826905 0.6440759

encoder.initial.block.2.running_var f4 [32]
000000 b3 6d 6a 36 f6 34 ad 3d ff 49 90 35 2e bc 8b 35
       3.493257e-06 0.08457367 1.0750372e-06 1.0411075e-06
000010 4a d1 a7 3b c7 d9 99 3d 0d 87 93 3d ac a3 ce 3d
       0.0051213847 0.07512241 0.07203493 0.10089812
000020 80 d5 df 36 67 09 04 36 6f 72 9c 36 bf ec 9b 3d
       6.6707726e-06 1.9675006e-06 4.662484e-06 0.07613515
000030 91 10 1f 36 3a a2 5d 3b c4 49 39 35 5a d7 0c 3e
       2.370249e-06 0.0033818618 6.9025214e-07 0.13754025
000040 e0 58 c6 3b 64 a4 80 3d 9c 08 30 3e 79 08 c4 3d
       0.006053075 0.06281355 0.17190784 0.095719285
000050 89 e6 7e 37 de 07 0d 3e 97 11 c7 3d c5 52 6b 36
       1.5193255e-05 0.13772532 0.09720152 3.5065907e-06
000060 27 ca 6b 3d 88 a0 fa 3d 04 bd 91 3d b1 2e 84 36
       0.057565834 0.1223765 0.0711613 3.939342e-06
000070 8c 28 44 37 47 89 60 3a 13 7a ea 3d 91 11 92 3d
       1.1691951e-05 0.0008565378 0.11449065 0.07132257

encoder.block1.block.0.weight f4 [32, 33, 3, 3]
000000 22 6a 10 bd 23 15 51 bd 32 32 78 3b 53 c7 1d bb
       -0.035257466 -0.05104555 0.0037871716 -0.0024075105
000010 aa ee 0c 3d ec 80 f4 bc f7 41 41 bc 32 e0 06 3d
       0.034407295 -0.029846631 -0.011795512 0.032928653
000020 e7 04 bc 3b 47 57 ea 3c 77 b1 f7 3c 26 f5 72 bc
       0.005737889 0.02860607 0.030235989 -0.014828956
000030 06 fa 6b 3c 07 66 e9 bc b8 8c 21 bd 6c 95 66 3d
       0.014402872 -0.028491033 -0.03944084 0.056294844
000040 0f 81 85 bc 3a a9 13 3d ac dc 94 3c cd 50 b1 bc
       -0.016296891 0.03605006 0.01817163 -0.021644974
000050 ab 30 c9 3b 1b e6 0c 3d 44 19 6f 3d 13 a0 bf 3c
       0.006139835 0.034399133 0.058373705 0.023391759
000060 b5 7a 44 bd b2 f2 c7 bb 30 59 52 3d 16 f9 f9 bc
       -0.047968585 -0.0061019296 0.051354587 -0.030514281
000070 23 07 11 3d 94 7d 1d bd cb ca 20 3d 6a 1b 6e 3c
       0.035407197 -0.03844984 0.0392559 0.014532903
000080 0b 4a dc 3b b7 53 3d 3d bb ce 26 bd 20 9b df bc
       0.006722694 0.046222415 -0.040724497 -0.027295649
000090 31 11 6f bc 00 a7 7a 3a 54 15 80 3c 14 54 cd bc
       -0.014591501 0.0009561628 0.01563517 -0.025064506
0000a0 ba 6a 99 3c 1c c8 32 bb 00 1b 64 bd 33 4f c2 3c
       0.018727649 -0.002727992 -0.05568981 0.023719406
0000b0 8b cf dc 3b 39 80 87 3d 9a 66 b6 bc e1 69 8b bc
       0.0067386082 0.066162534 -0.022265721 -0.01701826
0000c0 8a d8 a7 3c 6d ea 0c 3d e8 05 03 bd 37 ad c6 3c
       0.020488996 0.034403253 -0.031988055 0.024252517
0000d0 e8 e6 9a 3c 44 ea 8e 3c 01 71 6e 3d 28 51 92 3c
       0.018908933 0.01744569 0.058213238 0.017860964
0000e0 51 72 c1 3c 3a 6a 08 bc 87 b2 44 3d f1 e3 5b 3d
       0.02361408 -0.008326108 0.04802182 0.05368418
0000f0 e0 77 06 bd 50 45 5f 3c 48 4a 78 3a 11 b7 16 bc
       -0.032829165 0.013627365 0.0009471518 -0.00919892
000100 69 63 02 3d 8a 3b 18 3d 3b 87 2a 3c 3d 3c 7e 3d
       0.031833086 0.037166156 0.010408218 0.062069166
000110 cd 34 5a 3d 36 f4 53 3d 62 40 15 bd 8e 90 b1 3c
       0.05327301 0.05174657 -0.036438353 0.021675374
000120 5b b1 2d bc 1a 54 f1 3c 4d 5c 0d 3d 51 f6 07 bd
       -0.010601367 0.029459048 0.034511853 -0.03319389
000130 2f 5c d4 bc 80 6f 50 bd 32 06 52 3d 0b c8 81 bc
       -0.025922863 -0.050887585 0.05127544 -0.015842458
000140 25 65 89 3c 07 ac 29 3d 3e 81 f6 3c ac 52 07 bd
       0.016771862 0.041423824 0.030090924 -0.033037826
000150 8c 7f 2d bd 8e 4f 87 bd 27 f9 7e 3b 16 3c 4a bd
       -0.042357966 -0.06606971 0.003890583 -0.04937371
000160 94 be f3 bc f5 1d eb bc af ff 57 3d 43 12 1e bd
       -0.02975396 -0.028700808 0.052734073 -0.038591634
000170 1c 34 76 bd 14 5f 80 3c 83 04 f3 bc be 43 9e bb
       -0.06010829 0.015670337 -0.029665237 -0.004829853
000180 7a 1a 44 bd a2 a9 14 bc 31 65 2b bc be 6e 0c 3c
       -0.047876813 -0.009073647 -0.010461138 0.008571325
000190 23 d8 77 3c c2 0e d6 3c 17 6f fa 3c 3c 91 9a bc
       0.015127215 0.026130084 0.03057055 -0.018868081
0001a0 f5 dc 84 bc 4c 7e 44 3b e5 29 8e bb 5b 7d 47 3d
       -0.016218642 0.0029982505 -0.0043384903 0.048703533
0001b0 b5 7d 3f 3c 59 a2 db 3c 5b bc 91 bd 51 23 0d 3d
       0.011687686 0.026810812 -0.07116004 0.03445751
0001c0 32 ef ef 3c 73 d8 d5 bc 5d 1f bc bb 7a 1a df bb
       0.029288862 -0.026104188 -0.0057410435 -0.006808576
0001d0 03 23 a1 3c 12 9f 06 3c 22 b3 b5 3b 36 0e 04 bd
       0.019670015 0.008216636 0.005545036 -0.032240115
0001e0 6b cc 89 bc 79 4b 71 bc 21 52 c9 3c a6 82 e4 ba
       -0.016821107 -0.014727467 0.024575295 -0.0017433956
0001f0 3a ea 4e bd 2c 0b 00 bd 7e 98 09 3c 97 e5 bb bc
       -0.050516345 -0.031260654 0.008398173 -0.022936625
000200 78 6d 36 bd 63 29 31 3c 8a b0 3f bd 92 3f 31 bd
       -0.04453799 0.01081309 -0.04679922 -0.043273516
000210 5d 51 64 3d 64 52 0e bd 4c 52 79 3d 28 75 c2 bc
       0.055741657 -0.034746543 0.0608695 -0.023737505
000220 5d 0b 11 bc 16 21 4a 3d b4 dc 94 3d 8e c8 cb 3c
       -0.008852807 0.04934796 0.07268658 0.024875905
000230 62 35 f1 ba 35 ea 2d 3d 56 0a 60 3d ec 95 87 3c
       -0.001840275 0.042459685 0.054697357 0.01655098
000240 1b 0a b7 bc ef 37 14 bd fe 9e 88 bc 47 5f 63 bd
       -0.022343686 -0.036186155 -0.016677376 -0.055510785
000250 d0 d6 62 3b dc 9a 3a bc 5b 63 47 3d 55 4a 5d bd
       0.0034612902 -0.01138946 0.048678737 -0.054025967
000260 fd 86 7e bc 00 26 09 bd 6c ff 82 3d 73 a8 5b bb
       -0.015535113 -0.033483505 0.06396374 -0.0033517152
000270 6a f9 0b 3d 0c d7 89 3d 3a 83 23 bc 2f 09 18 bd
       0.034173407 0.0673047 -0.009980017 -0.037118133
000280 e7 11 52 3d c7 2e ae 3c fe 30 21 3d 78 0c b4 3b
       0.051286604 0.02126254 0.039353363 0.0054946505
000290 59 f8 e5 3c b6 39 d2 3c c4 42 97 bc c8 84 61 3d
       0.028072523 0.025662284 -0.018464454 0.05505827
0002a0 d1 2b 51 3c ce 7c c0 3c f5 7e 63 3d c4 94 44 3d
       0.012766794 0.023497012 0.055540998 0.047993436
0002b0 b2 29 28 3d 69 ea 12 3d d2 4b 36 3d 2f 27 23 bd
       0.04105539 0.035868082 0.0445059 -0.03983229
0002c0 d5 01 87 3d 52 07 dc bc 34 69 6b 3d 85 b7 6e 3d
       0.06592146 -0.02685896 0.057473376 0.058280487
0002d0 59 de 88 3c f8 2f 79 3c 00 af db b9 11 3d a8 3b
       0.016707586 0.015209191 -0.0004190132 0.005134233
0002e0 2e 50 6c bd 1b da 23 bd 24 95 43 3d af 20 6f bd
       -0.057693653 -0.040002923 0.047749653 -0.05838078
0002f0 bb c0 f0 3b cc 0d 5a 3d 01 8e a1 bb 88 7f 7a ba
       0.007347194 0.053235814 -0.0049302583 -0.0009555747
000300 48 03 98 3c cd ef 15 3a 66 ef 6f 3d cd b7 70 3c
       0.018556252 0.0005719632 0.058577918 0.014692259
000310 e0 aa a8 3b 8a 62 6f 3d c0 a0 a1 3c d3 03 9f 3c
       0.005147323 0.058443584 0.019729972 0.019411003
000320 e4 89 04 3d 38 59 e0 3c 80 cf d9 bb 77 f9 2c 3d
       0.032358065 0.027386293 -0.0066470504 0.042230096
000330 19 5d 88 3d f0 dd 68 bc b6 ae dc bb 9e 05 9d bd
       0.06658382 -0.01421307 -0.0067346944 -0.07667087
000340 43 eb 2b bd db 36 1f 3b a1 f7 8a bd 1d 89 99 3d
       -0.04197241 0.002429417 -0.06785513 0.074968554
000350 1f 42 73 3d 16 36 bf 3b b6 b0 f2 3c 4a 0a 10 bc
       0.05938923 0.005835305 0.029625278 -0.008791516
000360 10 9f 03 bd 03 51 88 3d 37 3c 01 3c 92 db 58 3d
       -0.032134116 0.06656077 0.0078878915 0.052943774
000370 03 40 9d bb 51 22 7e 3d 23 db 0a 3d e8 d9 de bc
       -0.0047988906 0.062044445 0.03390039 -0.027203515
000380 9a 57 f4 3c ab 5b 05 3d 83 b7 88 3c 15 95 ae 3b
       0.029826928 0.032558125 0.016689068 0.0053278306
000390 a8 ac 43 3d 1c a4 af bb c9 36 93 bc 17 32 7b 3d
       0.04777208 -0.0053601395 -0.01797046 0.061327066
0003a0 91 c9 d0 bc 76 6c 4b 3d 6f 92 68 3d 0f ec 63 3d
       -0.02548674 0.049663983 0.056780275 0.055645045
0003b0 c7 9d 17 bb ff da fc bc 07 1d c3 bc 3b f8 1c 3d
       -0.0023134814 -0.030866144 -0.023817552 0.03832267
0003c0 32 53 1f 3d 9a a0 46 3d de de bc bc ab 31 d5 bc
       0.0388977 0.048493005 -0.02305549 -0.02602466
0003d0 c2 6e 8a 3a 55 49 e8 bb 3e 1f 8d b9 1c ea c8 3b
       0.0010561573 -0.00708882 -0.00026916893 0.0061314236
0003e0 30 9f f3 3b d7 20 8e bd 49 46 d0 bc b5 b5 82 3d
       0.007434748 -0.069398575 -0.02542414 0.06382314
0003f0 8d c8 16 3c 4e de 78 bc 36 2c 93 3c c3 50 96 bc
       0.0092030885 -0.01518972 0.017965417 -0.018349057

encoder.block1.block.0.bias f4 [32]
000000 11 41 f2 bc 78 8a e6 3c 1f 12 2b 3c 5c 32 8d ba
       -0.029572042 0.028142199 0.010441332 -0.0010772455
000010 5f 29 b1 3a b4 c8 f8 3c 3a f3 e0 3c 3d 17 c4 bc
       0.0013516358 0.03036914 0.02745973 -0.023936862
000020 24 b5 c5 bb f0 58 4b bc 85 15 73 3c e9 a4 bc 3a
       -0.0060335565 -0.012411341 0.014836674 0.0014392409
000030 16 63 a1 bc 84 d3 e3 39 b9 9f b4 bc d4 c2 3c 3d
       -0.019700568 0.00043454405 -0.022048818 0.04608424
000040 86 f5 b9 3b a3 af 1c bb 72 46 c6 bb b5 95 f7 bb
       0.0056750206 -0.0023908399 -0.006050878 -0.0075556883
000050 50 f9 36 bb 75 53 04 3c df db e0 3b 64 36 44 3c
       -0.0027919598 0.008076538 0.006862148 0.011975858
000060 23 dc 54 3c ee cb 12 3c 1a 62 2b bd a6 aa d9 3b
       0.012991938 0.008959753 -0.041841604 0.0066426573
000070 ab d7 cc 3c 62 2c 75 bc 2b c2 c3 3a 1e fb 67 3c
       0.025005182 -0.014964195 0.0014935186 0.014158992

encoder.block1.block.2.weight f4 [32]
000000 d9 e3 76 3f fc 09 76 3f 4a 4a 7a 3f c4 67 76 3f
       0.9644142 0.96108985 0.97769606 0.96252084
000010 67 6b 78 3f 36 72 78 3f 40 7b 78 3f c3 d8 7b 3f
       0.9703888 0.9704927 0.97063065 0.9837763
000020 9b 26 78 3f 9e b9 74 3f a5 31 76 3f 09 6b 71 3f
       0.9693391 0.9559573 0.961695 0.9430395
000030 4a e6 77 3f 5e 71 77 3f c7 f3 77 3f fe f5 75 3f
       0.9683577 0.9665736 0.9685635 0.9607848
000040 05 eb 77 3f 8b b9 76 3f c4 67 77 3f 87 87 79 3f
       0.96842986 0.96376866 0.9664271 0.97472423
000050 d8 0d 76 3f f5 34 72 3f b3 14 79 3f 95 0b 78 3f
       0.96114874 0.94612056 0.9729721 0.9689267
000060 3b c5 76 3f 73 45 79 3f 9a 38 74 3f b1 a1 77 3f
       0.963947 0.97371596 0.9539887 0.96731097
000070 76 54 75 3f 84 6a 73 3f 3e 8d 78 3f 8c 59 7a 3f
       0.95832 0.95084405 0.9709052 0.9779289

encoder.block1.block.2.bias f4 [32]
000000 db 9f 07 bc cc 3c 05 3c 02 67 09 bd 21 51 92 39
       -0.008277859 0.008132171 -0.0335455 0.00027907736
000010 01 45 31 3c c4 43 45 3b b8 aa 79 3b ad 7f a6 3c
       0.0108196745 0.0030100206 0.003809614 0.020324552
000020 01 88 1e bc 8a 5a c1 3c 67 8a 26 3d ff c9 3c 3c
       -0.009675981 0.023602743 0.040659335 0.011522769
000030 1b 52 2a 3c bb 3c 5f 3d ea 6f 54 3b 0b 87 03 3c
       0.010395552 0.054501276 0.0032415339 0.008027802
000040 ec c9 cf bc 7b 4f a9 3c 31 d4 e8 3b 35 48 ed bb
       -0.025364839 0.020667782 0.0071053733 -0.0072412738
000050 0a f9 07 3d 42 d5 03 bd 20 51 88 3c 9b f3 9d bc
       0.033196487 -0.0321858 0.016640246 -0.0192812
000060 d5 41 b7 bc 33 e8 02 3d 51 b6 87 ba 80 e2 0b 3c
       -0.022370258 0.031959724 -0.0010354017 0.0085378885
000070 68 a5 3e bc 56 ba d3 bb 27 43 03 3d b1 fc cd bb
       -0.011636116 -0.006461422 0.032046463 -0.0062862267

encoder.block1.block.2.running_mean f4 [32]
000000 07 c5 9c 3f c7 09 99 3f 67 15 ab 3f ad 59 a0 3f
       1.2247628 1.1956109 1.3365906 1.2527367
000010 4b 27 bf 3f fe 08 d0 3f bc d9 ad 3f bf 62 9d 3f
       1.4933866 1.6252744 1.3582072 1.229576
000020 3a e8 9d 3f d5 f4 a7 3f fb ee 9b 3f 10 dc 97 3f
       1.2336495 1.3121592 1.2182306 1.1864033
000030 7b 68 a9 3f 74 81 ae 3f 33 a8 b2 3f 01 be b9 3f
       1.323501 1.3633256 1.395758 1.451111
000040 e4 d8 ab 3f a1 75 9f 3f c4 f7 b0 3f 18 25 ae 3f
       1.3425565 1.2457772 1.3825612 1.360507
000050 1a 58 a2 3f e2 a1 a2 3f 4e 67 a0 3f 62 c1 b7 3f
       1.2683136 1.2705653 1.2531526 1.4355891
000060 2e 0a cf 3f 87 38 9d 3f 67 ed 8f 3f 3a 76 ad 3f
       1.6174982 1.2282876 1.1244324 1.3551705
000070 45 51 b0 3f f8 83 9a 3f ab 32 8e 3f 87 5a a3 3f
       1.3774801 1.2071524 1.1109213 1.2762002

encoder.block1.block.2.running_var f4 [32]
000000 0a 61 41 40 95 75 34 40 f9 25 60 40 2f 2a 44 40
       3.0215478 2.8196766 3.5023177 3.0650747
000010 d8 a5 8c 40 26 26 9e 40 30 95 5d 40 18 63 41 40
       4.3952446 4.942157 3.4622307 3.0216732
000020 1d 26 43 40 e3 cb 53 40 56 5f 33 40 03 fa 31 40
       3.0492013 3.3093193 2.8026938 2.7808845
000030 9a 75 52 40 f1 9b 69 40 b2 39 68 40 f4 77 7d 40
       3.2884278 3.650143 3.6285214 3.9604464
000040 95 50 66 40 19 50 3c 40 53 55 70 40 73 a8 5f 40
       3.5986683 2.9423888 3.7552078 3.4946563
000050 f8 87 3e 40 7d a5 42 40 0f 68 46 40 9a d9 80 40
       2.9770489 3.0413506 3.1001012 4.0265627
000060 f9 f3 9b 40 c7 f6 33 40 cf 2f 1f 40 c3 5d 5d 40
       4.873532 2.811937 2.487293 3.4588478
000070 64 84 63 40 00 62 30 40 c7 e3 1b 40 41 39 4e 40
       3.5549555 2.7559814 2.4357774 3.2222445

encoder.block2.block.0.weight f4 [32, 65, 3, 3]
000000 00 46 8a bc f4 c4 05 bd b5 07 12 3c b2 8e f2 3c
       -0.016879082 -0.032658532 0.00891297 0.029609058
000010 9c c6 3e bd 9b ed 78 3c 9d 89 6f 3c 5a 8c a3 3c
       -0.046576127 0.015193368 0.014620212 0.019964386
000020 7a 81 9b 3c 4a 5f 80 3d da 44 2a bd f2 e9 b1 bb
       0.018982638 0.06268175 -0.04156957 -0.0054295
000030 2d b0 0c bd fb db f5 bc 67 b4 46 bd db b0 2f bc
       -0.0343477 -0.030012121 -0.04851189 -0.010723318
000040 5e c7 8d bc 68 eb 90 bb f9 c2 26 bb 35 7f e9 bc
       -0.01730698 -0.004422594 -0.0025445803 -0.02850304
000050 aa 1d 2f bd c6 c9 cd bc c2 e1 e2 3c a0 6e 39 bd
       -0.0427529 -0.025120627 0.02769554 -0.045271516
000060 39 46 52 bc ac eb 12 3d 2a 2c 2a 3c 84 7e 3e bd
       -0.012834125 0.035869285 0.010386506 -0.046507373
000070 f3 9e 50 bc e8 ec 10 3c f0 52 f3 3a 5d 1a 7d 3c
       -0.012733209 0.008845545 0.0018564146 0.01544818
000080 66 a2 88 bb 3f 8f 9e 3c 59 71 da bb c4 3d 51 bc
       -0.00416975 0.019355414 -0.006666344 -0.012771074
000090 6e b7 9b 3c 48 46 c2 3b 5b a1 80 bc f4 96 d9 3b
       0.019008365 0.0059287883 -0.01570194 0.0066403095
0000a0 45 f4 4c bb 40 f0 29 3d 38 a0 ba 3c 33 ac 4a 3c
       -0.0031273526 0.041488886 0.022781476 0.012370157
0000b0 39 4f df 3c 10 1f d2 3c 9d 57 a2 bc 0d 83 2a bc
       0.027259456 0.025649577 -0.019817168 -0.0104072215
0000c0 c8 9d 23 3d a0 d5 54 bc d8 be 9e 3a 16 b6 09 bd
       0.039945394 -0.012990385 0.0012111319 -0.033620916
0000d0 65 5e 23 bd 76 29 f1 3b 5b 4f d0 bc 5a db 13 bd
       -0.039884944 0.007359679 -0.025428465 -0.03609786
0000e0 7c 90 37 bd 34 d0 27 3d d5 fa 76 bc 5c fa 84 3c
       -0.044815525 0.040970042 -0.015074451 0.016232662
0000f0 2a c2 26 bc fe 40 f1 bc 75 c5 78 3c f6 51 bb bb
       -0.010178128 -0.029449936 0.015183796 -0.0057165576
000100 c5 4b a7 bb 78 a7 21 3c 29 ae eb bb f2 04 b1 3b
       -0.005105468 0.009866588 -0.0071923924 0.005402201
000110 3e 02 0a bd ff de bd 3a fa f9 b3 bc f9 39 22 3c
       -0.033693545 0.0014486014 -0.021969784 0.009901517
000120 88 cf 1a 3d 8c 41 9e 3c da 85 6d bd 9b cf dc bc
       0.037795573 0.019318365 -0.05798898 -0.026954463
000130 3c 2c 35 bc 3d f2 21 3d 27 b5 ef 3c 06 f1 19 3d
       -0.01105791 0.039537657 0.029261185 0.037583373
000140 ee 9b fc 3b fe f3 1f 3d df f8 f4 3b 90 76 36 3d
       0.007709018 0.03905105 0.007475957 0.044546664
000150 e2 60 3e 3d c5 59 9a 3c 5e 19 f6 bc fd 86 08 3d
       0.046479113 0.018841634 -0.030041393 0.03333186
000160 0d 4d b0 bc 8d 12 61 bc ec b4 01 3c b0 31 a6 39
       -0.021521116 -0.013737333 0.00791667 0.00031699007
000170 1f 08 69 bd 7e f1 f0 3c fa 00 18 3d 71 39 1e 3d
       -0.05689251 0.029412027 0.037110306 0.038629
000180 da 4a 4f 3d 03 85 12 bd 9d 88 34 3c d8 9f 43 bc
       0.050608493 -0.03577138 0.011018899 -0.011939965
000190 0f cd 8e bc 99 89 ab 39 ed a0 01 3d 18 f0 40 3c
       -0.017431764 0.0003271818 0.03164761 0.011775993
0001a0 a1 da 90 bc df 33 da bc 26 3c ef bc 5d 09 d1 bc
       -0.017682375 -0.026636062 -0.029203486 -0.02551716
0001b0 96 f7 22 bd 35 4e 32 3d 77 32 ab 3b 74 17 ac bc
       -0.039786898 0.043531615 0.0052245217 -0.021007277
0001c0 04 b8 8a 3d b6 a4 84 3c c4 ce d9 3b ba d2 1b bd
       0.067733794 0.016191822 0.006646963 -0.03804276
0001d0 87 17 57 bc 3b 76 03 3d ca ab 03 bd 0a 1f 52 3d
       -0.013128168 0.032095175 -0.032146253 0.051299132
0001e0 a7 d1 ce 3b c2 e9 15 bc b5 44 bd bb b3 87 80 bc
       0.0063116136 -0.0091499705 -0.005776013 -0.015689706
0001f0 b2 dc 63 3c 89 39 c7 bc 70 2b 6f 3c 7d 22 bb bc
       0.013907598 -0.024319427 0.014597759 -0.022843594
000200 1c c0 a7 ba 9e d0 a4 bc e5 d1 43 3d 49 32 95 3c
       -0.0012798342 -0.020119008 0.047807593 0.018212454
000210 48 0f f0 bc 09 68 ca bc 11 90 08 3c 2f 2d 64 bc
       -0.029304162 -0.024707811 0.008335129 -0.013926788
000220 00 a4 18 bd 3e 09 14 bc 28 f7 4d bd 3d a7 ba bc
       -0.037265778 -0.009035407 -0.050284535 -0.022784824
000230 cf f4 4d bc 3e 13 9b 3c 0c 28 24 3c 4f 75 18 3c
       -0.012570574 0.018930074 0.010019314 0.009305312
000240 93 b5 83 b8 9b 16 3c bc d4 14 9c bc 48 e4 43 bc
       -6.2803876e-05 -0.011479999 -0.0190529 -0.011956282
000250 4f 6d 02 bb 61 06 e9 3c fc f5 7d 3c 3d 07 0c 3c
       -0.0019901579 0.028445425 0.015500542 0.008546648
000260 6f 8f 0e 3c 0a 3c 1e bc 1c c8 c7 bc aa 07 5b bc
       0.008701189 -0.009657869 -0.024387412 -0.0133685265
000270 a6 2b a5 3b 9c 9f 87 3c 18 f7 af 3c 7d 8e 69 bc
       0.0050406037 0.0165556 0.021480128 -0.014255163
000280 fb cb 2b bd 0b 88 eb bc 3e 10 6b 3d 7f b8 92 bc
       -0.041942578 -0.028751394 0.057388537 -0.01791024
000290 3f 72 15 bd f6 07 72 bc ab a5 11 bd 79 28 e9 3b
       -0.036485907 -0.014772406 -0.035558384 0.0071154204
0002a0 62 ff 39 ba 06 16 78 3b c9 d1 bf bc c6 2f f1 3c
       -0.0007095245 0.0037854924 -0.023415463 0.029441725
0002b0 41 99 95 bc 9c 5f fd 3b 08 fc ea 3c e5 d4 28 bc
       -0.018261554 0.007732345 0.028684631 -0.010304664
0002c0 56 20 10 bd 4e 99 23 bc 6c 72 12 bd fa b4 45 3c
       -0.035187088 -0.009985281 -0.035753652 0.012067074
0002d0 4c 6d 04 3d ff 30 46 3d f6 bd 1a bd 57 93 1b 3d
       0.032330796 0.04838657 -0.037778817 0.03798231
0002e0 a5 93 cc 3b 0a 66 42 3d 96 77 0e bc e2 22 a1 bc
       0.0062431865 0.047460593 -0.008695504 -0.019669954
0002f0 a9 a7 d6 ba 9d 9f c2 bc 9b 9a 8d bc e7 13 89 bc
       -0.0016376871 -0.02375775 -0.017285636 -0.016733123
000300 ee 7c 10 bc 8d c4 28 bd 52 01 08 bd 68 23 c2 3b
       -0.008818848 -0.04120307 -0.033204384 0.005924631
000310 95 59 24 bd 11 f5 28 bc 36 ee 1f bd 93 16 d7 bb
       -0.040124495 -0.010312335 -0.039045535 -0.0065639704
000320 e8 b0 8b 3a c2 6e ae bb 9e 70 c9 bc 59 76 5f 3c
       0.001065758 -0.005323262 -0.024589833 0.013639056
000330 85 57 57 bc 5e 87 0f 3d 6f 21 39 bc cf d8 12 3d
       -0.013143425 0.035041206 -0.011299475 0.035851296
000340 b6 ff 12 3c 21 ee 1e bc 07 ed 3e bc 74 f8 67 bd
       0.008972099 -0.009700329 -0.011653191 -0.056633428
000350 93 25 96 3b 34 26 1d bd 1c b1 3c 3d 3f 3e 3d 3d
       0.004582116 -0.03836651 0.046067342 0.04620194
000360 b3 bf 80 3c d7 62 e5 3b 06 8b 8d bb 11 5d c1 bc
       0.01571641 0.007000308 -0.0043195514 -0.023603948
000370 fc d6 1b bd cb 7c f8 ba 12 1d 72 bd 1a 5e 64 bc
       -0.038046822 -0.001895809 -0.059109755 -0.013938451
000380 2a 6d 55 bd 24 53 02 bd a3 2d f6 3a 21 4f 3b bd
       -0.05210606 -0.03181757 0.0018781911 -0.04572976
000390 9b 96 7f 3d a9 2c 62 bb a6 b4 88 3c db 11 fb bc
       0.062399488 -0.0034511483 0.016687702 -0.030648163
0003a0 1c d4 ef 3b 9a 0b 07 3c 07 a6 7e bc 84 e2 29 bd
       0.0073189866 0.008242512 -0.015542514 -0.041475788
0003b0 55 2c 07 bd 94 63 8b bc 23 80 24 bd 1d 64 3b 3c
       -0.033001263 -0.017015256 -0.040161263 0.011437443
0003c0 4d dc 94 bb 91 17 33 b9 d1 4b ec 3b 91 87 9a 3c
       -0.0045428635 -0.0001707955 0.0072111865 0.018863471
0003d0 83 4f 5a 3d 90 80 d1 3c 0b 2b cd 3c 1d e7 2b bd
       0.053298485 0.025573999 0.025044939 -0.041968454
0003e0 d8 f7 18 bc 5a 5c 00 3d e4 ab 4f bb 04 2b 26 3c
       -0.009336434 0.031338073 -0.0031688148 0.010142092
0003f0 ec 3d 77 3c 69 52 ac 3c 80 86 ec 3b da 66 a4 3c
       0.015090447 0.02103539 0.007218182 0.020068575

encoder.block2.block.0.bias f4 [32]
000000 9f 62 3d 3d f5 ce 2a bb 76 49 f1 3c a3 cd 07 3d
       0.04623663 -0.0026063297 0.029453974 0.033155095
000010 4e 01 07 3d 9a 66 28 3c db 32 84 bc 5b 98 87 3c
       0.03296023 0.010278368 -0.016137531 0.016552141
000020 79 12 55 3c 12 5b 17 3c c3 a3 19 3d 12 b1 79 3d
       0.0130048925 0.009238021 0.03750969 0.060959883
000030 34 57 05 3d 25 4d 30 3c 51 9f 29 3d 63 59 b5 3c
       0.032553867 0.01076058 0.0414117 0.02213735
000040 f6 58 17 ba 3e 78 47 3d fd 44 45 3d bc 5a 03 3d
       -0.0005773449 0.048698656 0.048161495 0.032068953
000050 92 75 30 3d a2 4a 2a 3d 46 ec 01 bc 20 ec 35 3d
       0.043080874 0.04157508 -0.007929867 0.04441464
000060 2f 45 82 3d 28 fb 57 3d e4 90 79 bc 2b ea 96 3a
       0.06360852 0.052729756 -0.0152322985 0.0011513879
000070 d5 01 75 bb a5 52 12 3d 51 b0 28 3d 75 47 55 ba
       -0.0037385125 0.035723347 0.041183773 -0.0008135953

encoder.block2.block.2.weight f4 [32]
000000 81 6d 79 3f 47 c7 77 3f f2 fd 79 3f 71 7a 79 3f
       0.97432715 0.9678845 0.97653115 0.97452456
000010 a3 0a 7a 3f dd 82 78 3f e9 34 78 3f 1f 8f 75 3f
       0.9767248 0.9707468 0.96955734 0.9592151
000020 0b 95 73 3f 17 df 78 3f c3 e7 78 3f c8 25 77 3f
       0.95149297 0.9721541 0.9722864 0.96542025
000030 2d 33 77 3f 8f 8d 79 3f 88 c5 79 3f 83 8d 78 3f
       0.96562463 0.97481626 0.97567034 0.9709093
000040 7d d2 7a 3f 7f 71 76 3f b5 e5 78 3f b3 ea 7a 3f
       0.9797743 0.9626693 0.97225505 0.9801437
000050 6a 39 7a 3f 3c 10 79 3f e0 be 78 3f 6e 8a 76 3f
       0.97743857 0.97290397 0.9716625 0.96304977
000060 27 27 7a 3f e2 69 7a 3f 8c 9e 7b 3f bb 63 7a 3f
       0.9771599 0.97817814 0.982888 0.97808427
000070 d9 58 79 3f 58 10 79 3f 30 cd 73 3f 36 85 77 3f
       0.97401196 0.97290564 0.95234966 0.9668764

encoder.block2.block.2.bias f4 [32]
000000 d9 06 56 3c 82 ea cd 3b 99 75 1d 3d d4 01 b0 3b
       0.013063156 0.006284059 0.038442228 0.0053713117
000010 b8 90 1b bb 09 28 91 3c d0 57 d5 3b e8 d8 02 bc
       -0.0023737382 0.017719286 0.006510712 -0.007986285
000020 9c 03 6e bc 88 67 11 bc 2e c1 a9 bc 34 55 fd 3b
       -0.014527228 -0.008874781 -0.020721998 0.0077311043
000030 25 67 4a bc a8 e1 84 3a 45 29 f3 3a 34 12 44 3c
       -0.012353693 0.0010138052 0.0018551728 0.011967231
000040 17 bc 3c bc 92 8a a8 ba 9f 2d a9 3b 19 89 2f bc
       -0.0115194535 -0.001285868 0.005162909 -0.010713839
000050 44 ab 14 3c 45 7a 80 bb c2 85 7a bc 5b fb 30 3c
       0.009074036 -0.0039208257 -0.015290679 0.010802115
000060 88 55 ee 3b f2 1e 2e 3c 0a 42 a7 bc 45 81 02 bb
       0.0072733797 0.010627495 -0.020417232 -0.0019913476
000070 3a 5b 79 3b be 2b 2e 3d ec 50 98 ba 32 d2 47 3c
       0.003804876 0.042522185 -0.0011620796 0.012196111

encoder.block2.block.2.running_mean f4 [32]
000000 af a3 cd 3f a7 7f c9 3f 0f cb 9c 3f 7c 90 c0 3f
       1.6065577 1.5742081 1.2249469 1.5044093
000010 0b 16 d2 3f 50 10 c3 3f e7 13 c8 3f 89 1e 8c 3f
       1.6412977 1.5239353 1.5631074 1.0946819
000020 21 5a f0 3f 28 41 c8 3f b7 17 c2 3f 4b cc c8 3f
       1.8777505 1.5644884 1.5163487 1.5687345
000030 40 43 d4 3f eb c3 b6 3f d9 b4 b0 3f 9a 10 d0 3f
       1.6583023 1.427854 1.380519 1.6255066
000040 9c d9 c8 3f a5 2e c2 3f 8f a8 d6 3f ad e7 b4 3f
       1.5691409 1.5170485 1.677019 1.4133202
000050 d3 a1 cd 3f 54 4f b0 3f 39 e5 b3 3f ae 3e d4 3f
       1.606501 1.3774209 1.4054328 1.6581628
000060 8e c4 c8 3f ba 31 c2 3f 9e 21 bd 3f 7e 4e 8e 3f
       1.5684984 1.5171425 1.4775884 1.1117704
000070 ab e8 e5 3f 4c f4 c6 3f 05 0f 83 3f c8 3b cb 3f
       1.796163 1.5543303 1.0238959 1.5877619

encoder.block2.block.2.running_var f4 [32]
000000 c4 c6 94 40 fd 11 9f 40 df 31 2d 40 2a 75 84 40
       4.6492634 4.970946 2.706169 4.1393023
000010 8f 0f 9b 40 b3 15 88 40 cb e1 98 40 0e 4f 15 40
       4.8456492 4.252649 4.7775626 2.33295
000020 2a 08 e3 40 79 f4 9b 40 72 a1 86 40 57 eb 90 40
       7.0947466 4.873593 4.2072077 4.528728
000030 ef ca af 40 45 21 82 40 d2 4e 6f 40 ef cf aa 40
       5.493522 4.066561 3.7391858 5.3378825
000040 23 3b 9e 40 72 b9 94 40 30 3e a3 40 58 1a 67 40
       4.944719 4.6476374 5.1013412 3.610983
000050 2c fa a3 40 85 6c 6f 40 3e 0c 65 40 d7 d9 ad 40
       5.1242886 3.7409985 3.5788722 5.432842
000060 18 04 91 40 7e 5a 85 40 3b 11 8c 40 95 e9 12 40
       4.5317497 4.1672964 4.3771033 2.2955067
000070 a0 3e cf 40 78 9e 99 40 ac b1 07 40 a4 b5 90 40
       6.4763947 4.8005943 2.1202192 4.522173

encoder.final.block.0.weight f4 [3, 97, 3, 3]
000000 3f 0c 78 bb e2 64 e2 bb 43 38 90 ba a6 33 05 3a
       -0.0037849096 -0.006908999 -0.0011003095 0.00050812436
000010 d3 2c a7 3c 45 c3 11 bb ae 8d 3a ba 39 98 c0 3b
       0.020407116 -0.0022241634 -0.0007116449 0.0058775214
000020 d4 56 22 bb 5d b2 e3 b9 32 5d 98 3c 6d 05 77 3c
       -0.0024770992 -0.00043429705 0.018599126 0.015076977
000030 00 c7 dd bb f5 60 92 bc fa e3 6d 3b 81 b6 f4 bb
       -0.0067681074 -0.017868498 0.0036299215 -0.007468045
000040 f8 65 1f bc 5d 08 82 3c 6e 55 82 3c b4 90 6d bc
       -0.009728901 0.015873129 0.015909877 -0.014499832
000050 7e 05 a7 3b ec 86 75 3c f5 4a 5f 3c 48 8c 2f 3b
       0.0050970903 0.014985781 0.013628711 0.0026786495
000060 8b 5d 21 bc e7 fe 9e 3a 87 e0 11 bc 0c 60 41 3c
       -0.009848963 0.001213041 -0.008903629 0.0118026845
000070 8c 57 3a bc af 2b 0d 3c 10 de 58 bb b8 71 de bc
       -0.011373412 0.008616372 -0.0033091344 -0.027153835
000080 c1 69 3a 3c bc 95 90 3c 95 7c 5e bc f7 82 13 bb
       0.011377753 0.017649524 -0.013579507 -0.002250848
000090 d7 b1 19 bc c9 fb f7 3b 98 b4 6e 3b 07 ec 1e 3c
       -0.009380779 0.007567857 0.003642356 0.009699828
0000a0 8e e5 d9 3b 8c e8 3a ba a5 64 08 bc 06 c7 96 3b
       0.0066496795 -0.0007129989 -0.008324777 0.004601362
0000b0 e4 0b b0 3b 7c 33 c3 3c 87 5b 5c 3c 78 8d 04 bc
       0.005372511 0.02382826 0.013449556 -0.008090369
0000c0 8c 8a a7 3a ab d1 07 3c 61 81 b7 3c 0f ce a0 bc
       0.0012782379 0.008289735 0.02240056 -0.019629506
0000d0 ec 88 90 bc d1 30 8f 3b 25 6e b1 3c f5 93 04 bb
       -0.017643414 0.004369833 0.021658966 -0.002022979
0000e0 98 ab 15 bc c4 7f a0 3c 47 fd 9d bc 39 d6 33 bc
       -0.009135149 0.019592173 -0.019285811 -0.010976368
0000f0 37 fb 72 bc e5 58 89 3c 44 0b cb 3b 43 2e c8 bc
       -0.014830402 0.016766021 0.0061964113 -0.024436122
000100 28 48 8c 3c 72 7b 8c bc f2 29 ed bc 09 db 02 bd
       0.01712425 -0.017148707 -0.028950665 -0.03194717
000110 b4 3f 97 3b 53 9e e1 3c 2e de 98 bb f1 8c 45 bc
       0.0046157483 0.027541315 -0.0046651578 -0.012057529
000120 17 82 16 3c e5 5f b9 3b d3 16 a8 bc 7a e1 8f 39
       0.009186289 0.0056571835 -0.020518696 0.0002744308
000130 ec e1 ac 39 d3 eb 13 bc 5e 42 8a 3c 76 48 5d bc
       0.0003297472 -0.009028393 0.01687735 -0.013506046
000140 90 ca 50 bc a3 ec b5 bb ad 98 1a 3c ac e9 81 bc
       -0.012743607 -0.005551891 0.009435815 -0.015858494
000150 48 7b 21 bd 99 b5 19 3a 10 47 cd 3c 7b fb 8a 3c
       -0.03942421 0.0005863547 0.0250583 0.016965618
000160 b7 b6 e9 3b 9c 24 60 bc 3e b8 59 bc 1d 14 83 3c
       0.007132377 -0.013680603 -0.013288556 0.016000802
000170 71 46 a7 bc 5e 5f d2 bb ab f4 63 3c 68 5a ee 3c
       -0.020419331 -0.00642006 0.013913314 0.029095843
000180 cf 41 99 bb 43 3d 91 bc 87 c3 82 3b d7 dc 50 bc
       -0.0046770344 -0.017729407 0.003990594 -0.012747965
000190 73 c0 58 3a f3 5a ec bb 79 d7 aa 3c 16 5e e8 ba
       0.0008268423 -0.0072129904 0.020854698 -0.0017728235
0001a0 37 ed 85 3b e0 d9 c6 3b 40 6a 00 bc 0c 1e df 3c
       0.004087116 0.006068453 -0.007837832 0.027236007
0001b0 1b 7e 1d bb 7c d1 bb bb 07 c8 07 bc e6 fd 83 3b
       -0.0024031464 -0.0057317596 -0.008287436 0.00402807
0001c0 d2 fa c3 bb 19 e0 52 3c 98 6a 0d 3c fa 81 ba bb
       -0.005980828 0.012870812 0.008631371 -0.005691764
0001d0 51 de 44 ba 45 17 03 3b de 14 40 3b 0b d0 81 b8
       -0.00075099344 0.0020002883 0.0029309313 -6.18995e-05
0001e0 6d 81 3b 3c e2 ba 50 bc 69 b3 b8 bb 1c 05 c2 39
       0.011444432 -0.012739869 -0.0056366217 0.0003700637
0001f0 7b d9 a2 ba 35 c5 e5 3b 1a c0 5a 3b 9c fd b0 bc
       -0.0012424433 0.0070120343 0.0033378662 -0.021605305
000200 d5 29 c2 3b cf 9a 46 3c 83 65 c1 bc f7 74 3b 3c
       0.005925397 0.01212187 -0.023607975 0.011441461
000210 98 29 d6 3b 6f 9a 5b 3c c2 34 73 3b 8e e3 22 bc
       0.00653572 0.013403519 0.0037110304 -0.009941949
000220 82 5f 2d 3c 39 31 87 bc 85 90 da bb 15 2f 31 bc
       0.010581853 -0.016502963 -0.00667006 -0.010814448
000230 87 b1 a3 bc 69 76 48 bb f8 6a 9a 3c f6 86 48 3a
       -0.019982113 -0.0030588156 0.018849835 0.0007649505
000240 68 4e 60 bb 13 1d 57 3c 40 89 02 bc e4 31 02 3b
       -0.0034226421 0.01312949 -0.007967293 0.0019866163
000250 ca dd 57 3b 2c 23 a2 bb bd bc bf b9 1a 36 8b bc
       0.0032938593 -0.0049480405 -0.0003657098 -0.016993571
000260 4f 0e d3 3b 7d a2 76 3c dc f4 70 bc 74 35 fe bb
       0.0064409147 0.015053389 -0.0147068165 -0.007757837
000270 99 5a 42 3a e1 c2 1b bc e9 47 b6 3c f3 cd 05 3b
       0.0007414013 -0.009506912 0.022251086 0.0020416945
000280 be 8e 41 b9 b1 70 e2 bb 76 11 fe b9 62 24 9b 3c
       -0.0001845909 -0.0069104065 -0.00048459665 0.018938247
000290 58 19 09 bc de 6a a5 3c f9 da 31 bc 4a 3f 9f b8
       -0.008367859 0.02019256 -0.01085543 -7.593499e-05
0002a0 4e c9 1a 3b 33 6c 85 bc ad 9b 22 3b ea 37 06 3c
       0.0023618522 -0.016286945 0.0024812028 0.008192042
0002b0 34 61 65 3c c6 dc 80 bc d3 55 36 3c 8e 21 2b 3c
       0.014000226 -0.015730273 0.0111288605 0.010445012
0002c0 fc 32 93 3b d7 1f c5 bc e1 e5 42 bc 72 5e 8a 3c
       0.004492162 -0.024063034 -0.011895628 0.016890738
0002d0 d4 3d a7 bc e1 0f 91 3c df de 31 3c 7b 99 80 bc
       -0.020415224 0.017707767 0.010856359 -0.015698185
0002e0 62 5b 01 3c 9b ea d2 3c de b1 0b bc 93 4b 2b 3c
       0.0078953225 0.025746634 -0.008526294 0.01045503
0002f0 7b b2 ed bc 46 06 95 3c ec 43 b9 3c 47 0c 05 3c
       -0.02901577 0.018191468 0.022615395 0.008120603
000300 89 38 b3 bc 3a f4 63 3c b8 00 ea 3b 18 0c a3 bc
       -0.021877544 0.013913209 0.007141199 -0.019903228
000310 a5 14 52 3c ee b8 d5 bc 07 ce 9e bc 97 a2 bc 3c
       0.012822305 -0.026089158 -0.01938535 0.023026748
000320 71 88 4b bc 8b 26 a8 bc 0e 9a 16 bc ae 03 c1 3c
       -0.012422667 -0.020526191 -0.009192003 0.023561325
000330 58 cb ab bb 3a 0a 3a 3b 51 df 10 bc 1a 0d 96 3c
       -0.0052427463 0.0028387443 -0.008842305 0.018316794
000340 dc 06 d8 3c 55 76 85 bc cd f6 ee 3b 75 fc 05 bc
       0.026370458 -0.016291777 0.0072926045 -0.008177866
000350 4f 01 eb bc 0e 9d 64 3c 12 dd 8a 3b c0 0b a4 3c
       -0.028687147 0.01395346 0.0042377794 0.020025134
000360 1e db 91 bc a4 65 0a 3c 88 20 2f bc 73 a6 69 3c
       -0.017804679 0.008447085 -0.010688908 0.014260876
000370 06 a5 7a bc f3 8e 43 bb ee 15 b6 3b 46 81 ac 3c
       -0.015298134 -0.0029839843 0.0055568134 0.021057736
000380 2c c2 96 3c fc 82 5d bc 38 50 9e bb c3 62 5b 3c
       0.018403135 -0.013519999 -0.00483134 0.013390246
000390 f1 43 7f 3c 81 a1 bd 3c 5e ee 83 3c 54 74 67 bc
       0.015580163 0.0231483 0.016104873 -0.014126856
0003a0 80 c8 b6 bc 7f d4 8e 3c 36 56 4c 3c 7a 96 0e 3c
       -0.022312403 0.01743531 0.012471726 0.008702869
0003b0 7d 16 f7 ba 79 9b 6a bc 75 e0 b6 3c ee 71 0c 3c
       -0.0018851307 -0.014319294 0.022323826 0.008572085
0003c0 61 ef d9 3c 47 11 66 bc 74 9e 7c bc b9 f0 1d 3c
       0.026603403 -0.014042205 -0.015418638 0.009639912
0003d0 1b 29 c4 3c 3a e5 31 bc 78 7e 9f bc ad f9 0e bc
       0.023945382 -0.0108578745 -0.019469485 -0.0087265195
0003e0 98 ec 90 3c 07 bb 9e bc b3 80 58 bc fe 0b 8d 3c
       0.017690942 -0.019376291 -0.013214278 0.017217632
0003f0 29 b3 c8 bc 0a 4b 2a 3c 3e d6 7a 3c 07 69 53 3c
       -0.024499493 0.010393867 0.015309868 0.012903458

encoder.final.block.0.bias f4 [3]
000000 05 83 63 3c 25 1d b3 3c e0 43 60 bc
       0.013886218 0.021864483 -0.013688058

decoder.initial.block.0.weight f4 [32, 3, 3, 3]
000000 5f c2 3e bd 25 28 ed bd d7 d3 8d 3d 9e 0f 8f 3d
       -0.046572085 -0.115799226 0.06925171 0.069854006
000010 5a fd ea bd b9 ca be bd 21 b2 22 3e 33 b7 5b 3c
       -0.11474104 -0.0931601 0.15888263 0.013410377
000020 97 a2 0a 3c ae fa 44 3e 1e 74 14 3b 30 fa e9 bd
       0.008461616 0.19236252 0.002265222 -0.114246726
000030 d2 54 8e bd c1 78 d7 3c 7c c9 4b 3e 90 d5 c3 bd
       -0.06949772 0.026302697 0.19901079 -0.09562218
000040 66 77 00 be 95 ea e0 3d d9 57 b3 3b 8d 36 20 bd
       -0.12545547 0.10982243 0.0054731187 -0.039114524
000050 64 b0 9a 3d 41 ed 3d be a0 0f 45 bd 3c f5 e4 3d
       0.07553175 -0.18547536 -0.048110604 0.11179587
000060 d4 39 ac 3d b0 f4 f2 3d cf 68 d4 bd e3 17 31 3d
       0.08409467 0.11863077 -0.10371553 0.04323567
000070 63 18 7f bd 67 56 16 3e 4f a3 15 bd 39 86 26 be
       -0.062279116 0.14681397 -0.036532696 -0.1626214
000080 7d 7c 0c 3e e6 39 cb bd 1e e2 0f 3d f5 45 1d be
       0.13719364 -0.099231526 0.03512775 -0.15358718
000090 cd ab 78 3b 8f 4d 07 be 33 c8 09 be 46 f1 38 3e
       0.0037944198 -0.1321318 -0.13455276 0.18060789
0000a0 16 34 b2 bd a1 2c 0d 3d 95 f8 18 3d 99 8e 57 bd
       -0.08701341 0.03446639 0.03734644 -0.052626226
0000b0 e4 ec 24 be e0 e9 1c bd 96 c6 00 be 00 41 e2 3c
       -0.16105992 -0.038308978 -0.12575755 0.027618885
0000c0 ac cc aa ba e9 c7 8e 3d 86 ad 34 bc 54 fd ff bd
       -0.0013030968 0.069717236 -0.011027699 -0.124994904
0000d0 36 c7 0f 3e 96 72 83 3d a1 d8 8d bc 73 29 9c bd
       0.14040837 0.0641834 -0.01731521 -0.07625093
0000e0 77 5a a3 bd 1b 0b 8a bd dd 8d 3b 3e a0 c5 ca bd
       -0.07976239 -0.067403995 0.18315835 -0.09900975
0000f0 9f 4f 56 3e 39 b4 33 be d9 fc d8 3d d3 55 40 be
       0.2092881 -0.17549218 0.10595102 -0.1878274
000100 12 62 0a 3e 9a 0b fd 3d 2e b2 88 3d b0 ef e6 bd
       0.13513973 0.123557284 0.0667461 -0.112761855
000110 89 bd 3e 3e 93 56 d7 bd 49 9e 13 3e 9e b9 e7 3d
       0.1862699 -0.105145596 0.1441585 0.113147005
000120 48 68 b9 3c 8c fa c9 3d 5b d5 14 3d bd af e2 3d
       0.022632733 0.09862241 0.036336284 0.11068676
000130 33 2e d0 3c cc a9 1f bd 61 28 b6 3d 26 9e 85 bd
       0.025412655 -0.03898029 0.088944204 -0.06524305
000140 6c 0c 14 be 8c 64 18 3e 3f 3a 05 be 88 80 ee bd
       -0.14457864 0.14882106 -0.130105 -0.11645609
000150 c4 d3 29 be 0a 64 68 3d 53 17 d2 3d b0 5c a3 bd
       -0.16584688 0.05673603 0.10258355 -0.07976663
000160 f1 7a 1f be 63 ef 86 3c 94 ed bd bd f2 c3 0f be
       -0.15574242 0.01647157 -0.0927383 -0.14039591
000170 e6 ba bd 3d 80 2e 21 be 38 9d a5 3b cb 3d c6 bd
       0.09264164 -0.15740395 0.0050541423 -0.09679755
000180 f3 b6 74 3c d6 f7 fd bd b0 5f 10 be 69 95 03 3d
       0.014936197 -0.124007866 -0.14099002 0.03212491
000190 62 c1 98 bd 18 a2 69 3d f1 23 ef bd f5 c5 df bd
       -0.0745876 0.05703935 -0.11676777 -0.10926429
0001a0 2f 1d f6 bd 5d 9c eb bd 6f 9c b0 3d 5a 4f ae bd
       -0.12017285 -0.11504433 0.08623587 -0.08511229
0001b0 9d 4f 34 3d 7b 2f f8 3c fc 67 80 3d 1a 6b 45 bd
       0.044021238 0.030296078 0.062698334 -0.048197843
0001c0 8b d6 f5 3d a8 35 37 bd bf 12 51 3d f6 93 04 be
       0.120038114 -0.044728905 0.05104327 -0.12947068
0001d0 a3 9e 7d 3d a1 35 99 bd 00 cc 39 3e aa ec 51 bd
       0.061918866 -0.07480932 0.18144226 -0.05125109
0001e0 cb e0 f7 3d e4 a4 0a 3e f4 9f 10 bd c5 61 39 3c
       0.12103423 0.13539463 -0.035308793 0.011314814
0001f0 f8 75 1c be 61 96 04 be 95 2d 30 be 3a b6 c5 3c
       -0.15279377 -0.1294799 -0.17204888 0.024134744
000200 91 f2 02 be b6 df c6 3c 9e 5e 06 3e 55 2d b6 bd
       -0.12787844 0.024276596 0.13122031 -0.08895365
000210 85 79 f3 3d 0e 3c ee 3d b8 41 b5 3d 33 fa 0d 3e
       0.118884124 0.11632548 0.088504255 0.13864975
000220 38 b5 cc 3c 7a 8a 0c 3d 31 af 63 bd a5 99 3a 3e
       0.024988756 0.03431175 -0.055586997 0.18222673
000230 cb 38 47 3d d8 c9 ba bd 8c af 52 3d e7 ef d3 bd
       0.048638146 -0.0912053 0.051436946 -0.10348492
000240 b0 03 c7 bd e6 3e 2b 3e ba d3 bb bc 74 11 5f 3c
       -0.097175 0.16723213 -0.022928108 0.013615001
000250 b7 83 26 3c 4b f1 4e 3d f0 32 25 3e fa ff 81 bc
       0.010163239 0.050523084 0.16132712 -0.01586913
000260 4a 5b 12 3b 35 08 c6 3b fd 82 2a 3e d3 ef 3f be
       0.0022332245 0.006043459 0.1665153 -0.1874383
000270 83 2a 0e be 0c 29 08 3e d5 34 f8 3d 78 cf b7 3d
       -0.13883404 0.13296908 0.12119452 0.089751184
000280 92 b7 dc 3c 84 65 1c be fd 47 18 3d 75 a6 03 3e
       0.026943002 -0.152731 0.03717803 0.12856467
000290 f3 27 64 bd e9 83 bd bd ce 42 74 3c 52 f4 e9 3c
       -0.05570216 -0.092536755 0.014908506 0.028558884
0002a0 46 a4 bb 3d d5 9e 02 3e aa 6b 0e 3e ce 1f bd 3d
       0.09162192 0.12755902 0.13908258 0.09234582
0002b0 65 24 c8 bd e2 71 53 be 18 65 64 3e d1 9e 45 bc
       -0.09772567 -0.20648912 0.22304189 -0.012061791
0002c0 47 4d 2e bd dc 3b 34 3e 34 10 b4 3d 4b a8 fd bd
       -0.042554166 0.1760096 0.08792153 -0.12385615
0002d0 bc 08 1e 3e 62 99 eb 3d 9a 49 41 3e d9 78 d4 3c
       0.1543302 0.11503865 0.18875733 0.02593653
0002e0 84 d9 f6 3d 0d 98 2c 3e 0b 18 9d bc 12 c1 2e bd
       0.120532066 0.16854878 -0.019176504 -0.042664595
0002f0 45 27 b5 bd 78 d8 49 be cc 50 33 be de 85 b8 3a
       -0.08845381 -0.19711483 -0.1751129 0.0014077981
000300 60 fc 09 3e a9 a4 31 3e 7f 19 0b 3e 79 b7 86 bc
       0.1347518 0.17347969 0.13583945 -0.016444908
000310 93 0a 7b 3d 22 e9 d3 bd 8f 95 41 3e 45 05 37 3d
       0.06128938 -0.10347201 0.18904708 0.04468276
000320 07 32 9e bd 09 a8 88 3c db 46 04 be bd 54 46 bd
       -0.07724386 0.016681688 -0.12917654 -0.048420656
000330 a0 d3 17 be f4 7e 44 3d aa 10 3b ba 69 da 22 bd
       -0.14826822 0.047972634 -0.0007135967 -0.039759073
000340 71 7d 5a 3d d8 32 be bd 22 a9 b3 3b 47 af 19 3e
       0.053342286 -0.092870414 0.0054828087 0.15008269
000350 4a 66 17 bc 84 ff 7e 3c 6c 6f 68 bd 04 d3 78 bd
       -0.009240696 0.015563849 -0.056746885 -0.060748115
000360 c2 73 99 bd 40 e6 ec 3d 04 c5 a6 3d a2 e9 90 bd
       -0.07492782 0.11567354 0.081430465 -0.07075812
000370 be 37 21 be 1e e5 a7 bc a7 0e af 3d c0 32 94 3d
       -0.1574392 -0.020494994 0.085477166 0.07236242
000380 27 19 26 3e 60 50 2e be 20 29 0e bd ce 24 3f 3e
       0.16220532 -0.17022848 -0.03470719 0.18666384
000390 07 5d 1f be 86 a2 db 3d 98 5b e9 3b ef 3e 85 3c
       -0.15562831 0.10724358 0.0071215145 0.01626536
0003a0 c6 dc d2 bd e8 64 19 bd 49 b9 23 be a1 fc ac bb
       -0.102960154 -0.037449747 -0.1598865 -0.005279139
0003b0 0d cf 88 3d 8d b1 6e bc 6b ec 88 3d 93 31 d8 3d
       0.06680117 -0.014568699 0.06685718 0.105563305
0003c0 62 ec ae bd e4 7e cc bd 7f e0 ee 3d 1e 59 ce bd
       -0.0854118 -0.0998514 0.11663913 -0.100755915
0003d0 5e 74 f3 bd a1 e3 cf bc 3f 23 24 be a6 dc c6 3d
       -0.1188743 -0.025377097 -0.1602907 0.09710054
0003e0 3c c7 ce 3c 1a 58 d5 bc 32 0d 56 3e ff 40 7a 3d
       0.025241487 -0.026042987 0.20903471 0.06109714
0003f0 7c 5f 51 bd e0 3f 0e be c5 17 20 3e 1d 33 d7 bd
       -0.05111645 -0.13891554 0.15634067 -0.10507796

decoder.initial.block.0.bias f4 [32]
000000 f4 1f 51 3e 2b 81 c5 bd 2d a7 27 3d 34 48 08 bd
       0.20422345 -0.096437775 0.040930916 -0.033271983
000010 c4 ed 25 3e c5 c1 18 3b c7 2a b3 3d f8 c4 96 3e
       0.16203982 0.0023308855 0.087483935 0.2944715
000020 6b c5 35 3d 81 5f 97 bd 4c ea 41 3e fe 9c 5d be
       0.044377726 -0.07391263 0.18937033 -0.21641919
000030 a4 fc 39 bd b1 f1 1d 3e b9 8f 5e 3e 15 dc 63 be
       -0.045406953 0.15424229 0.21734513 -0.22251923
000040 80 42 9f 3e fc 56 83 3e b1 42 9e 3c f2 4c 10 3e
       0.31105423 0.256523 0.01931891 0.14091852
000050 30 27 2c be 20 e9 2c 3c 44 4a 05 be 21 74 3b 3e
       -0.16811824 0.010553628 -0.13016611 0.18306018
000060 24 dc ae bd a8 9e 1d 3d bb 53 31 3e f3 af c1 3d
       -0.08538082 0.038481385 0.17317097 0.09457388
000070 16 43 dd 3d 03 eb 61 3e 4e 67 5a 3e df a5 02 3e
       0.10803811 0.22062306 0.2132847 0.12758587
