models/long/DenseSteganoGAN/6/epoch_32.pth (torch, 382751 bytes, 59 tensors)

encoder.initial.block.0.weight f4 [32, 3, 3, 3]
00000000: bb46 033c d297 3a3c 8778 8dbd 2fb4 a73c
00000010: 2e16 30bd fcb8 093d 7657 003e 7b4d d63d
00000020: 5c49 383e 9e93 183e 7c39 f2bd a8ae c43c
00000030: e643 133e 15a7 283e e48a 443d c7ea 1e3e
00000040: af4a 0f3d ea9d 603d 8fe0 1e3e 7d16 2e3e
00000050: 20bd b9bd 1b81 113e 3b5b 563d baa2 72bd
00000060: 0596 9c3d c83c f9bd ebd2 a13d dcf0 bf3d
00000070: a438 f43d eb85 acbd a912 52be 3a6e 83bd
00000080: 4a8e 11bc 9284 2f3d 33a9 0abe af18 d6bd
00000090: 6219 04bd acf5 44be f22c 0a3e 5031 b83d
000000a0: 840e 983d d56f f1bd 5dbd ffbd e2e2 9bbd
000000b0: 5faa 31bd 0432 393d 9cb3 a23d 9a8f e6bd
000000c0: b4ec f8bc 1546 033d 825e 32bd bb19 5ebd
000000d0: ef2e 043e f2ec ae3d 81a2 b63d db21 0abe
000000e0: daea cab9 87e2 c4b9 7840 babc efd4 a63d
000000f0: 2699 22be cba8 123e 12d0 19be 5883 c03d
00000100: c710 a1bd b730 30be 086f 12be 0fe2 60be
00000110: 5f57 abbc e6df fd3d 3c01 e7bd 554f a93d
00000120: 1d6a 853d 761c c43d f58c b7bb ece6 43be
00000130: 145a 473e 74e5 043e 50c3 81bd cfd8 1bbd
00000140: 4dfe c0bd ebad 19be aa0c f7bc cd05 0d3e
00000150: a411 673c 2ebd 4fbe a85c 4d3d abd6 613d
00000160: 83b2 91bd e489 223e a05e bf3b 7399 71bc
00000170: 3fcc c53c 8c67 90bd 5229 4ebe 0344 873d
00000180: dd75 563d c7bd b0bc 8e78 183e a09a 1abe
00000190: 2133 103e 81f5 a73d 69ed 8abd a15c 41be
000001a0: 5b2a d53d 6853 ecbd 34ea 96bd b6da fb3d
000001b0: 20bb 303e 1627 0a3e ea68 e63d 5bb2 043b
000001c0: 4cf8 6abd fba1 6c3d 007b 263e 3863 0d3e
000001d0: cec4 72bd e4d3 393e ef89 4d3e 6ed8 c0bc
000001e0: 798f 073e 6036 b53d de86 1d3e 0559 1d3e
000001f0: 48aa ba3d 3d72 fc3d 2c11 ac3d 1986 283d
00000200: 2bca 173e 47f3 3c3d 50b7 3fbd 0024 4e3e
00000210: 0aa6 03bd 76e3 bf3c f97e bd3d 1917 eebd
00000220: e453 07be 3e72 10be 4739 2f3e 9a5f a8bd
00000230: ed51 85bd ee6e 53be 6a64 12be 4618 d23d
00000240: 0e3b a03d d9fa 2ebe fb29 c43d 0688 77be
00000250: 01d7 1d3c 299f 38be a471 063e 58d3 ad3c
00000260: 4757 6abd d94e aa3d fe46 21be 78b4 d73d
00000270: 191a 133d f629 353c b271 c6bc 104e 92b9
00000280: 0013 27bc 5345 07be ae00 a13d 485e 103e
00000290: 4a96 f13d b7de b8bc f043 253e b6d1 223e
000002a0: 1f4c 13bd aa21 2e3e 8b16 43bd 23aa cf3d
000002b0: ff73 603e fa1b e7bd 1364 573d e570 08be
000002c0: f2a3 d3bc 53e4 ad3d 9167 ea3d 38e2 053d
000002d0: 2805 c8ba 0ed0 cc3b a28c 9e3d a26b bcbd
000002e0: bb4b 723e 69c5 813d a3c9 32bd b01d c83d
000002f0: b4a2 eb3d d834 26bd 65ba e4bd 50da a0bd
00000300: 6cd2 fabd 5b14 c33d d19f 51be dbf8 14be
00000310: 303c 22bc 602e 393e 5187 183d 3dd4 1abd
00000320: b72f 313d 95ab 31be 0344 d73c de11 0bbe
00000330: c7ba 19be 3542 5cbd 97d5 3fbe 2a1c b5bd
00000340: 1b3e d53c 39bf f0bd 49cc 28be e5d5 e93d
00000350: ae2a cebc 6671 4b3e 25f5 73be 2b8b 073e
00000360: 9ece 3a3e 75ca b1bd 1de4 c6bd e243 cabc
00000370: c644 363e 97f7 f63d 606e 833d 8e66 fe3d
00000380: b16c f83d d11d dfbc b9d8 563e 71e9 b63d
00000390: 3eaf 213e 260e 9b3d 23ac 203e 44a6 663e
000003a0: 7dc5 e73d 1ad7 49bd f0e3 563e ce8d 9fbd
000003b0: cb71 f43d bf6f e83d 291e a83c 53f1 a5bb
000003c0: 8450 cabd f00c 443e 91ed 333b 6d95 80bd
000003d0: 4da9 1f3d 77fb 2b3e 3162 da3d 20ed bf3d
000003e0: 263e f13c 72b1 b9bb 1839 e53d 4739 8fbc
000003f0: 9e9e ba3d 5fc8 2d3e 9f06 a6bd ead6 b83d
0.008012469 0.011388736 -0.069077544 0.02047166 -0.042989902 0.03362368 0.12533364 0.10463997
0.17996734 0.14900061 -0.118273705 0.024009064 0.1438137 0.16469987 0.04798402 0.15519248
0.034983333 0.0548381 0.1551535 0.17000766 -0.09069276 0.14209406 0.052333098 -0.05923722
0.076458015 -0.12169796 0.079015575 0.09372112 0.11924866 -0.0842398 -0.20514931 -0.064175084
-0.008884022 0.04285104 -0.13541107 -0.10453927 -0.03225077 -0.19234341 0.13493708 0.089937806
0.07424644 -0.117889084 -0.1248729 -0.07611634 -0.04337537 0.045213714 0.07944414 -0.112578586
-0.030386306 0.032049257 -0.04354716 -0.054223757 0.12908529 0.085412875 0.08917714 -0.13489477
-0.0003870342 -0.0003755281 -0.02273582 0.081460826 -0.15878734 0.14322202 -0.15020779 0.09400052
-0.07864528 -0.17206083 -0.14300168 -0.21961235 -0.020915685 0.12396221 -0.11279532 0.082670845
0.0651438 0.09575741 -0.00560152 -0.19131058 0.19467956 0.12978154 -0.06336081 -0.03804856
-0.09423504 -0.1500775 -0.030157406 0.13771744 0.014103327 -0.2028701 0.050137192 0.055136364
-0.071141265 0.15872914 0.0058401376 -0.014746058 0.024145244 -0.07051 -0.2013295 0.06604769
0.052358497 -0.021574868 0.14889738 -0.15098047 0.14082004 0.08201123 -0.06783564 -0.18882991
0.10408469 -0.11539346 -0.073688895 0.12297575 0.17258883 0.13491473 0.112504795 0.002024791
-0.0573657 0.057771664 0.16257858 0.1380738 -0.05926972 0.18147236 0.20072149 -0.023540702
0.13238324 0.08848262 0.15383479 0.1536599 0.0911451 0.12326477 0.08401713 0.04114351
0.14823215 0.046130445 -0.04680568 0.2013092 -0.03214077 0.023423892 0.09252734 -0.11625499
-0.13215595 -0.1410608 0.17111693 -0.082213596 -0.06509767 -0.20647785 -0.14296117 0.10258536
0.07823764 -0.17087878 0.0957832 -0.24172983 0.00963378 -0.18029465 0.13129288 0.02121894
-0.05721214 0.0831582 -0.15749738 0.105324686 0.03591356 0.011057368 -0.024224136 -0.0002790545
-0.010197401 -0.13210039 0.07861458 0.14098465 0.117962435 -0.022567136 0.16139197 0.15900311
-0.035961267 0.1700503 -0.04762892 0.10139873 0.21919249 -0.11284633 0.052585673 -0.13324316
-0.025835011 0.08490815 0.11445535 0.032686442 -0.0015260326 0.006250388 0.07741667 -0.09200217
0.23661701 0.06336481 -0.043649327 0.097712874 0.115056425 -0.04057774 -0.111683644 -0.0785414
-0.12247166 0.09525367 -0.20471121 -0.14548056 -0.009902045 0.18084097 0.037238423 -0.037800062
0.043258395 -0.1735061 0.026277548 -0.13581035 -0.15012656 -0.053774077 -0.18733822 -0.088432625
0.02603059 -0.11755223 -0.16484179 0.1141775 -0.025166836 0.19867477 -0.23823984 0.13236682
0.1824288 -0.08681194 -0.09711478 -0.024690572 0.17799672 0.12058943 0.06417537 0.124219045
0.12130106 -0.027235897 0.2098111 0.08931244 0.15789506 0.07571058 0.15690665 0.22524363
0.11316965 -0.049277402 0.20985389 -0.07790719 0.11935767 0.11349439 0.020522194 -0.0050641685
-0.098786384 0.1914556 0.0027454833 -0.06278501 0.038979817 0.16795145 0.1066326 0.093714
0.02944858 -0.005666905 0.111925304 -0.017483367 0.09112285 0.16970967 -0.081067316 0.090253666

encoder.initial.block.0.bias f4 [32]
00000000: b087 ef3d 4305 26be 0d8d 57be 7f94 b93e
00000010: 6f4f bcbc 784f 98bd c0a9 af3d a5b9 e2bd
00000020: 6e0f e13c 0881 7ebd cdb4 df3d c889 4cbe
00000030: 3a85 153e 7ee3 2abe 7b86 51be 1a1e 7dbe
00000040: 449e 0ebd f875 1d3e 07a4 b33c 676b b83e
00000050: a359 3dbe 5be6 623d 0459 013d 0e4f 6f3d
00000060: 5d7c 203e 3d28 79be 23fd 8b3c 41e4 1bbe
00000070: ce3f a73d fd40 4e3e 740e 5e3e 11de 5cbe
0.11695802 -0.16212945 -0.210499 0.36246106 -0.022987096 -0.074370325 0.08577299 -0.11070565
0.027473178 -0.062134773 0.10923157 -0.19974434 0.14601603 -0.16688344 -0.20461456 -0.24718514
-0.034818903 0.15377033 0.0219288 0.3601944 -0.18491225 0.055395465 0.031579033 0.058425
0.15672441 -0.24331756 0.017088478 -0.1522379 0.08166467 0.20141979 0.21685201 -0.21569087

encoder.initial.block.2.weight f4 [32]
00000000: c27e 723f 83be 7f3f 437d 783f 5f87 1a3f
00000010: 4666 773f 72f4 753f a7a6 703f ea84 7b3f
00000020: 93f2 763f de2d 6e3f cc81 723f 7ce6 673f
00000030: 8a9e 733f 1a5b 803f f8a5 853f 5170 823f
00000040: 0cfd 733f 4880 703f de77 653f 2219 293f
00000050: 33d0 713f f578 6f3f 8a70 713f 025f 613f
00000060: 8f18 603f 4fa0 863f 0da4 723f 2651 7c3f
00000070: 3f12 6f3f 0450 383f c9f7 283f 36de 7d3f
0.9472467 0.9990007 0.97066134 0.6036281 0.9664043 0.9607612 0.9400429 0.98249686
0.9646389 0.9303874 0.94729304 0.90586066 0.95163786 1.0027802 1.0441275 1.0190526
0.95307994 0.9394574 0.8963603 0.66053975 0.9445831 0.9354394 0.94312346 0.88035595
0.87537473 1.0517672 0.9478157 0.9856132 0.93387216 0.71997094 0.6600309 0.9916719

encoder.initial.block.2.bias f4 [32]
00000000: 0c27 993c f7a7 05bc 5482 5cbc e58e 1e3d
00000010: d4b5 35bd c445 273c 1d20 a43c 3891 ff3c
00000020: b891 f63b 954b e0bc fab6 b7ba 3465 15bd
00000030: 79c1 3cbc f338 e23c 8d22 583a 97cf 373c
00000040: 2495 f73b 41cb 81bb add3 d23a 15ff bbbc
00000050: 68ff 403d 6b15 9d3a 4c73 1f3c 8f84 c83b
00000060: f6bd 9b3b 65b5 37bc dedf a33b f5ab 05bc
00000070: 8874 6d3c e486 01bc 6e26 923c 08f6 ffbb
0.018695377 -0.008157722 -0.013458807 0.038710494 -0.044362858 0.0102095045 0.020034844 0.031197175
0.0075246952 -0.02737979 -0.0014016323 -0.036473468 -0.011520737 0.027615046 0.00082448946 0.011218927
0.0075556207 -0.0039609973 0.0016084813 -0.022948781 0.047118574 0.0011984532 0.009732079 0.006119318
0.0047528697 -0.011212681 0.0050010523 -0.0081586735 0.014493115 -0.007905696 0.01784059 -0.0078113116

encoder.initial.block.2.running_mean f4 [32]
00000000: 7d05 3f3f 36ce 82bb 22f7 91bb bf75 8f3e
00000010: 7279 803f ea29 afbb d108 413f 5f30 d9bb
00000020: aaaf 6a3f 346f 023f 73a1 3c3f ca66 8dbb
00000030: a29f 5a3f 7150 67bb 927c 71bb ab56 82bb
00000040: b495 6a3f 534c 703f a690 5d3f 0b96 963e
00000050: b0d4 9cbb 8800 223f 5d70 1b3f 8da0 133f
00000060: b330 413f 97d3 83bb efd1 2e3f f548 a7bb
00000070: c004 343f da6d 403c c01c 4b3c 4990 8bbb
0.7461775 -0.0039918674 -0.0044545094 0.2801952 1.0037062 -0.0053455727 0.7540408 -0.0066280807
0.9167429 0.5095093 0.7368385 -0.004315232 0.8539983 -0.003529575 -0.0036847931 -0.003977617
0.9163468 0.9386646 0.8654884 0.2941135 -0.0047860965 0.6328206 0.6071833 0.57666856
0.75464934 -0.004023026 0.68289083 -0.0051051327 0.7031975 0.011744941 0.012396991 -0.0042591435

encoder.initial.block.2.running_var f4 [32]
00000000: f16b b93d abe1 b735 e5ed ab35 1bce f83b
00000010: c88c 6d3e b2e8 a036 b28e cd3d c583 e136
00000020: 54fa 333e d60d 943d 1445 b53d 2720 bc35
00000030: 486e e83d 4c70 5635 4759 2e35 37b8 1135
00000040: 90ee 4c3e 688b 0e3e c959 233e b171 153b
00000050: 8079 0936 7196 9a3d 3b70 973d 28dc 7a3d
00000060: e308 a43d a964 2f35 45ea ca3d 00fe 4136
00000070: 825e b23d 7f43 ab3a 4302 c53a 769f 9335
0.09053791 1.370024e-06 1.2809729e-06 0.007592929 0.23198235 4.795461e-06 0.100369826 6.7208625e-06
0.17575961 0.072292015 0.08851066 1.4016449e-06 0.113491595 7.9884626e-07 6.4949967e-07 5.428478e-07
0.2001288 0.13920367 0.15952219 0.002280336 2.0485313e-06 0.07548226 0.07394453 0.061245114
0.080095075 6.533906e-07 0.099079646 2.8907089e-06 0.08709432 0.001306638 0.0015030581 1.0998763e-06

encoder.block1.block.0.weight f4 [32, 38, 3, 3]
00000000: fdda 933d 33c1 303a e302 ee3c 0429 143d
00000010: dcf4 363c cf12 893c 5d7f 793d 8aae 903d
00000020: 5d16 cc3c 317a 1fbd dd50 433b c37f 04bd
00000030: 5b0d 6f3b ac28 25bd 47c7 c73b a794 463c
00000040: ebc3 75bd a6d1 80bd 077d c23c f624 a7bd
00000050: 6a09 acbc 3388 dcbc 509e c83a 2f02 0dbd
00000060: 30c6 8bbd 9bd8 14bd 03a7 4abc 2dc2 8cbc
00000070: 1f85 423c 4072 1ebc a96c 4b3c f1e1 34bb
00000080: 4cf8 e5bb 93de 37bd debf 423c 8f4f e839
00000090: afd6 323d c74f a93b 96c3 043d a932 813d
000000a0: 8b3f 943c 5aa4 adbb 70f4 193d eea9 3c3d
000000b0: 9842 da3c 8f87 bdbc 24f4 38bd 5767 42bd
000000c0: 19d0 c9bc dea2 49bd 167a 10bd 6877 613c
000000d0: 6e7d 203c 4cd1 13bd 326a be3c 0042 cc3c
000000e0: 7385 47bd 968b 1f3d 3de0 633c 8412 5d3d
000000f0: c063 caba 09df 783c 0386 3e3d d092 88bd
00000100: 9283 58bd c70e 79bd 1ef1 a0ba 2777 d4bd
00000110: fc45 30bd ddea 25bd b892 a5bd dc0b dcbc
00000120: 2dd8 afba 913f 313d 0c2e 543d 1c7f 623d
00000130: 2d5e 183d ba65 6dbc d88b cebc 70e8 523c
00000140: f9d8 3c3d cd2f 0c3d 9756 eb3c 8a4a 893d
00000150: 058d 523d 52d8 1c3d f8c1 02bd 3b1f 943d
00000160: 0edc 3e3d 4372 133d e36c 7e3d f635 58bb
00000170: d73c 853d 0eb4 ff3b 34ed 91bc dd15 653d
00000180: c2ae af3d 2185 83ba 5797 863d 5b33 1bbc
00000190: 1de1 23bc 23d5 083c 75cd fa3c f429 59bc
000001a0: 3edd 933c af95 2fbd 8fd9 2d3d d6bb 3abd
000001b0: 0cff 1e3b 9890 803d 6e9c 983d 3f63 82bc
000001c0: aeb2 8d3d 3f7d 0d3d 3e18 8b3c de31 d53c
000001d0: c681 243c a117 093d 498a 953b 21c0 b73c
000001e0: 6e58 abbd add9 5ebd c285 c4bd b17a 04bc
000001f0: 7158 65bd fbb3 24bd 352e cebc abf7 233d
00000200: 3fb7 7c3c e5ec 7d3d 66ab a0bc 047e 593d
00000210: 1920 0bbd 3dba d33d bfac 81bc a086 83bc
00000220: 5763 f0bc 880c 63bd 909d cabc 1194 60bb
00000230: 24e6 d83c d1de 04bc cf13 50bd 21b8 34bc
00000240: f4b9 663d a6c6 a23d a35b fd3c b310 643d
00000250: 327d ba3c f245 033d a41a ab3d 6277 9dbc
00000260: 4c77 c23c c8c7 c03a c337 0d3d 166a fcba
00000270: 01d9 353d ca42 0b3c 1fd7 823c d38c f1bc
00000280: c79a 393d 50ce 03bd ebc7 483d 8e59 04bd
00000290: 0fd6 7e3c 94d3 3cbc 0ded 1dbc 001e 553d
000002a0: f9c1 813d d6ca b8bb 57d0 c43c 9c5c 1bbc
000002b0: 53c8 33bd fba6 583c 43fb 91bc 32d4 7bbc
000002c0: 684e a3bc 47a3 e03c 4ef8 99bb 2cc3 adba
000002d0: 2e05 32bd 5d56 8d3c 7e80 dfbc 5b9c 19bc
000002e0: 0c82 1ebd 2a4c adbb 3225 2ebd ae2e f8bc
000002f0: 996b c4bd e028 aabb 81a0 0d3c 2a50 76bc
00000300: 4e36 29bd 1d43 043d 93cf ec3c 9b6f 2dbd
00000310: 8675 ecbc cff1 073c 626c 4b3d 17b8 0b3d
00000320: e547 b53a 8784 813c 5b37 193d 472d 993d
00000330: aa3a 103d fb46 043d 2813 b5bb 6107 b0bc
00000340: 82b4 4f3d 03ce dc3c beeb c1bc 5732 293a
00000350: 1568 553b ee60 5d3c 3861 d53c b8b7 f83b
00000360: 35e0 0fbd 29a7 513c 43f5 d9bc a36d 2a3d
00000370: 063a 363d d690 463c 821e f0bb 9cfc 0e3c
00000380: d5bc 103d 60ac 7cbc 25b1 253d 0a43 963c
00000390: 4a5e ad3b 20ec 8b3d 9907 953c 73bd c5bc
000003a0: 4910 8bbc 2e31 823d df02 b93c dd9a 6e3d
000003b0: 516b 0c3c 3137 6dbc f441 cabb 107b 9f3c
000003c0: b28f 913c c90c f93c 9522 633d 21dd 50bb
000003d0: cb76 4fbd a034 81bd 58b1 5ebc b07a 053d
000003e0: da7f acbc 3b8d 153a 8f8e 0abd 0364 a0ba
000003f0: d1eb b13a 8248 783c 2e41 673c 8117 d23c
0.07219503 0.0006742656 0.02905411 0.036171928 0.011166777 0.016732601 0.06091248 0.07064541
0.024913007 -0.03893489 0.0029802837 -0.032348406 0.0036476466 -0.04032199 0.0060967538 0.012120402
-0.060001295 -0.06289987 0.023741258 -0.081613466 -0.021000583 -0.026920414 0.001530597 -0.03442591
-0.06824911 -0.036339384 -0.01236892 -0.017182434 0.011872559 -0.009670794 0.012416043 -0.0027600492
-0.0070181247 -0.044889998 0.011886565 0.00044309764 0.04366177 0.005166981 0.032413088 0.06308491
0.018096706 -0.0052991332 0.03758663 0.046060495 0.026643082 -0.023135928 -0.045154706 -0.047461834
-0.024635362 -0.049227588 -0.03527268 0.013761379 0.00979553 -0.036088273 0.023243997 0.024933815
-0.04871125 0.03895148 0.013908443 0.053972736 -0.0015441105 0.0151898945 0.046514522 -0.06668627
-0.05285985 -0.06080511 -0.001227889 -0.10374289 -0.043035492 -0.040507186 -0.08084625 -0.026861124
-0.0013415866 0.043273512 0.051801726 0.055297002 0.037199188 -0.0144895855 -0.025213167 0.0128728
0.04610536 0.034225274 0.028727813 0.0670367 0.051404018 0.038292237 -0.031923264 0.07232519
0.04659658 0.03599764 0.06211556 -0.0032991148 0.06505745 0.0078034466 -0.017813303 0.055929054
0.08578254 -0.0010034182 0.065718345 -0.009472693 -0.010002402 0.008351597 0.030615548 -0.013254631
0.018049832 -0.04286736 0.04244381 -0.04558929 0.0024260907 0.06277579 0.074517116 -0.015916465
0.06918846 0.034543272 0.016979333 0.026024755 0.010040706 0.0334698 0.004563604 0.022430481
-0.08366476 -0.05440681 -0.09595825 -0.008085893 -0.055992547 -0.040210705 -0.025168518 0.040031116
0.015424549 0.0619935 -0.01961298 0.053098693 -0.033966158 0.103382565 -0.015829442 -0.016055405
-0.029344244 -0.055431873 -0.024733335 -0.0034267942 0.026476927 -0.008109764 -0.05080014 -0.011030228
0.056329682 0.079480454 0.030927485 0.055679988 0.022764776 0.032049127 0.08354691 -0.019221965
0.023738526 0.0014707977 0.034477007 -0.001925769 0.044396404 0.0084998105 0.015971718 -0.029486096
0.045313623 -0.032179177 0.04901878 -0.03231197 0.015553965 -0.0115250535 -0.009639037 0.052030563
0.063358255 -0.0056394143 0.024025125 -0.009482529 -0.043892216 0.013223405 -0.017820006 -0.0153704155
-0.019934848 0.027421607 -0.0046987897 -0.0013257018 -0.04346197 0.017253095 -0.02728295 -0.009375657
-0.03869824 -0.0052886205 -0.04251594 -0.030295696 -0.09590835 -0.005192861 0.008644224 -0.015033761
-0.041311555 0.032290567 0.028907573 -0.042342763 -0.028864633 0.008297398 0.04966391 0.03411111
0.001383063 0.015810264 0.037406307 0.07479339 0.035212196 0.032294255 -0.0055259652 -0.021487894
0.050709255 0.026953703 -0.023671981 0.00064543396 0.0032563258 0.013511879 0.026047334 0.0075902604
-0.03512593 0.012796202 -0.026606208 0.041608464 0.04448893 0.0121194925 -0.0073278556 0.008727219
0.035336334 -0.015421957 0.04045214 0.018342514 0.005290781 0.06832147 0.0181921 -0.024138188
-0.016975539 0.063570365 0.022584377 0.058253158 0.008570508 -0.014478491 -0.006172413 0.01946786
0.017768715 0.030401604 0.055452902 -0.0031870084 -0.0506504 -0.063088655 -0.013592087 0.032587707
-0.021057058 0.0005704944 -0.03382736 -0.0012236837 0.0013574307 0.015154006 0.014114661 0.025645973

encoder.block1.block.0.bias f4 [32]
00000000: 88c6 6f3b 067a 9dbc 0ae1 1d3d 90e3 393c
00000010: c763 043d b226 f9bc 50a5 cd3c c6d7 9c3c
00000020: b2e2 1ebc 5905 823b c858 a7ba aded f23c
00000030: ec63 883c 77cc b4bc b51b dc3a 0361 bfbb
00000040: c3a7 353d f145 cc3c e958 19bd 1542 293d
00000050: 9d7b 503d 9d46 43bc ddc4 c9bc ae1b 743c
00000060: d64c c3ba 8369 9bbc a523 11bd 2cec 1dbe
00000070: 36cc c0bc 4d7b 24bc 949b 24bc ff4a 343d
0.003658684 -0.019223224 0.038544692 0.011345759 0.032321718 -0.03041396 0.025103241 0.019145858
-0.009697603 0.0039679226 -0.0012767548 0.029654348 0.016649209 -0.022070153 0.0016792925 -0.005840422
0.044349443 0.024935694 -0.037438307 0.041322786 0.050899137 -0.011918691 -0.024630005 0.0148991775
-0.0014900218 -0.01897121 -0.035434384 -0.15422124 -0.023534875 -0.010039163 -0.010046858 0.044016834

encoder.block1.block.2.weight f4 [32]
00000000: 1f88 713f 1ae6 753f c668 6b3f e1d0 723f
00000010: 11b8 743f 234d 6e3f ea54 713f 3ed6 693f
00000020: 6ecf 6f3f c020 613f 5ff9 6c3f 0115 743f
00000030: 5036 6e3f 19f1 6d3f 39fe 743f ea00 6b3f
00000040: 17f2 6a3f eb10 693f 2264 713f e113 743f
00000050: 1b9d 733f ba51 713f 5348 703f f702 743f
00000060: 8aa7 723f c982 6f3f 19d2 673f d435 ab3e
00000070: fe3e 713f 941d 733f e720 6f3f 7a3f 723f
0.9434833 0.9605423 0.91956747 0.94849974 0.95593363 0.9308645 0.94270194 0.9134253
0.9367589 0.879406 0.9256801 0.9534455 0.93051624 0.9294601 0.95700413 0.9179827
0.9177565 0.9104144 0.94293416 0.9534283 0.951616 0.9426533 0.9386036 0.95317024
0.94786894 0.9355894 0.9055496 0.33439505 0.94236743 0.9496701 0.9340958 0.9462811

encoder.block1.block.2.bias f4 [32]
00000000: ef6b 043c 8fe8 dc3c d6a8 c2bc ab5a 7a3c
00000010: 5f00 abbb ad4d 7a3b ec9b 11bc 297e b63c
00000020: 5bf0 273d 89c6 293c d483 1f3d b0c9 873a
00000030: d905 873c 1bb9 993c 0856 a13b 91df e03b
00000040: 94aa 213c 6866 c83c f46a 6bba 153a d73c
00000050: 919b 2ebb 28bb 513d 4851 58bc fc5d b73c
00000060: ae2a 4fbd ed56 2a3d 9aa0 7ebc e164 a2bc
00000070: 154a c53b b8c7 f93b dc41 dc3c afff 033b
0.008082374 0.026966361 -0.023762148 0.015280406 -0.00521855 0.003819327 -0.008887272 0.022276955
0.041000705 0.010362276 0.03894408 0.001035979 0.01648228 0.018765023 0.004923586 0.0068625887
0.009867329 0.024462894 -0.0008980476 0.026272813 -0.0026643018 0.051203877 -0.013202973 0.022383682
-0.050577812 0.041586805 -0.01554122 -0.019823493 0.006020794 0.0076226853 0.026886873 0.0020141413

encoder.block1.block.2.running_mean f4 [32]
00000000: 3551 cc3f 9c47 d63f f204 c93f d305 c63f
00000010: e00c c13f 538c cb3f 7f55 c13f b5ba be3f
00000020: bc17 ba3f baab cd3f 9c9b ce3f ca1d b03f
00000030: 1633 e43f 0def c93f c52b be3f 3d2d cd3f
00000040: 2f56 c83f 1d1d c93f a12f e03f bc31 e63f
00000050: e01a c33f a5ce c83f 5520 b83f b070 d43f
00000060: 983b 923f 3e3b cc3f 928f ad3f b73b 3cbc
00000070: 02ec c13f 8f85 d13f 9f3e c83f 487e 983f
1.5962282 1.6740603 1.5704634 1.5470527 1.5082054 1.5902199 1.5104216 1.4900728
1.4538493 1.6068032 1.6141238 1.3759091 1.782809 1.5776078 1.4857107 1.6029431
1.5651301 1.571201 1.7514535 1.7983928 1.5242577 1.5688063 1.4384867 1.659689
1.1424437 1.5955579 1.3559439 -0.0114888465 1.5150149 1.6368884 1.564411 1.1913538

encoder.block1.block.2.running_var f4 [32]
00000000: f975 b240 09f7 a640 358c 9240 9159 a740
00000010: 84bc 9e40 a7ab 9640 6f28 9f40 cebd 9a40
00000020: 4f56 9340 a647 b440 d909 9b40 8a81 6240
00000030: acd6 bc40 6a78 ae40 35c2 9940 4a9d 9940
00000040: 2fff 9140 0b2a 9340 189c d640 e280 c040
00000050: 4f4d a240 e041 9240 a33b 7540 3747 a440
00000060: 9cbd 3640 8a82 9740 b96b 8040 aa30 5636
00000070: 97c4 a040 fd57 9f40 0974 9140 2d4b 2940
5.576901 5.2176557 4.579615 5.2296834 4.960512 4.7084537 4.9736857 4.8356695
4.6042857 5.633746 4.844952 3.5391564 5.901205 5.452199 4.804957 4.8004503
4.5624003 4.598882 6.7065544 6.015733 5.071937 4.5705414 3.831765 5.133693
2.8553228 4.734685 4.0131497 3.1916811e-06 5.023998 4.9794908 4.5454144 2.6452134

encoder.block2.block.0.weight f4 [32, 70, 3, 3]
00000000: f58f 8c3c 26a0 92bc 0429 db3b e0b2 c6bc
00000010: f52f b5bc f10b c9bc cc3b 1fbd d95e 363a
00000020: 3c98 78bc 2305 153d 64f1 873d 44b9 c93c
00000030: 98f6 22bd 3ea6 bf3c dfac 703c 5edc 073d
00000040: b404 b9bd 530f 143d cd75 97b7 2d34 90bd
00000050: 9794 3abd 23c4 a6bb 4745 0c3d b491 8dbc
00000060: 574b 363c edde ce3b e57d 4b3c 81a9 f7bc
00000070: 9f2f 063a ded9 013c 027b d43b f882 733c
00000080: ee6a bbbc 59df b0bc 9017 5abc 960a 073c
00000090: 17a7 d7bc 0d3a e0bc 210f 85bb 11bf 1fbd
000000a0: b57f c5bc 4df8 c0bc 135e acbb 3240 f2bc
000000b0: 5f04 99bd 93cd 8c3c b585 1f3d 09ff 873c
000000c0: ae35 173d a9ae 083c 9b17 dcbc c983 e4bc
000000d0: 9718 503d 8213 7c3c 5a72 8dbd 466b 263c
000000e0: 453e c2bb bd2a b1bc 0edf 3ebd 2fac 333b
000000f0: ad7b 01bd 4e3d 583b 1753 a8bc 0d9c 313c
00000100: 0b23 0abc 5536 77bc 3b9b 44bc 9357 263c
00000110: eeac 07bd 7b46 e13c 197e 4e3d 7524 753d
00000120: b1d1 2dbd f565 16bd 3b81 f7bc 2489 53bd
00000130: 7af7 47bd 1047 23bd 47cc bc3a 2958 28bd
00000140: cda5 cebb 900a 66bd 4c08 f5bc aebc 9b3a
00000150: 253c 063d 24ce a6bc e147 82bc 7633 143d
00000160: 1efd 8abd e023 3f3d 87f9 e6bc f069 c6bc
00000170: 74a1 023d 774d bb3c 991b 13bc 6a56 9dbc
00000180: 3c34 d7bb 1f0e b8bc ba6e edbc 38e0 a7bc
00000190: 0698 623d 286b 32bc 4433 383c 5891 df3b
000001a0: 3fca 853c 44a6 69bc d17b e5bc d8cf df3c
000001b0: d314 4c3c 486b c2bc 7ff4 1bbd 3856 c2bc
000001c0: a00a 6c3c 01eb 54bd b6a8 29bd f0fb ecbb
000001d0: 7846 1cbd 20c0 f5bc 934b 74bd 1659 573d
000001e0: 1242 9c3c 1cff f03b f9ce 6e3b 6e81 8c3d
000001f0: e6dc fe3c b261 0b3c 05ab d43c 68cb d3bc
00000200: 305b 3fbd 22f5 e7bc 3d3d ddba e7e1 87bc
00000210: aa8b 5ebd d2e3 093d a6da 46bc 294f 7d3d
00000220: 42ec 663c 37f6 15bc eb95 71ba 0d81 163d
00000230: 108e 6a3d fc9e 07bc d9cb 4fbc 82d1 743c
00000240: a104 6fbd d0ad 953c 753d b0bc 9887 acbb
00000250: b719 d2bc 0bfc 9abc 20f0 64bd 6435 393d
00000260: bff6 9b3c defb 4bbc 9294 dabc 97c9 9e3c
00000270: 87a7 603b 14a3 64bd 4aca a33c 47ad e93b
00000280: fd3c 8e3c 1250 0a3d d65a 143b 661a dabb
00000290: a805 45bd 5ff1 573b 9f52 cabd 1663 adba
000002a0: b0c2 3bbd 2120 0abd 36c1 b63c 5219 933c
000002b0: 9e1a 21bc 38d6 03bd 6cd8 893b 80fe 663c
000002c0: 1acb 0f3d 8f03 183d 0c21 1ebd 7336 9dbb
000002d0: cf89 cc3c d153 5b3d 2d0e 733c 767a 423c
000002e0: 1eb9 533c ef7c 4b3d 229e bf3c 0c63 823c
000002f0: f8d0 213d 4957 ab3c 6803 d83c 93fe 2fbc
00000300: 0f4a 4e3c 1fa3 343c e048 2fbd 40ee d7bc
00000310: 28b7 93bc 99b9 dd37 4be2 c8bc df1d 6b3c
00000320: 775a 8bbd 739c 6fbc e19b 2cbd 2dc7 adbc
00000330: 0d08 2bbb 4ddb 6cbd bc94 26bc 7601 53bd
00000340: a998 003d 541a c4bc 40d7 203a 3f84 40bc
00000350: 49f5 a0bc 8491 8a3c 2476 0ebd b5f0 22bc
00000360: e9e9 133a 8d1f 4bbd 0d9e 24bd 7df9 fc3c
00000370: d38d e53c e8c1 d1bc 7990 edbc ba01 f6bb
00000380: 856b 503c b4b8 593c 060d 0ebc b624 f23b
00000390: b591 05bc c9a5 823d d4e4 f3bb fd40 05bd
000003a0: 6287 a9bc 88db 973d bfcc e2bc be8b 1a3c
000003b0: 39c8 dcbc 2da9 0cbd 98a0 32bd 49c5 fbbc
000003c0: 12de eebc 0a7d b83b f6dc 02bd 1b04 abbc
000003d0: 9a85 193d 163d 87bc 6e43 8a3d 719e 463d
000003e0: 268e 663d 9bbe 3d3d 1389 193c bc2c ed3c
000003f0: 500f d03b 9b2c 8f3b a128 52bc b273 01bd
0.017158488 -0.01789863 0.006688239 -0.024255216 -0.022117594 -0.024541827 -0.038875386 0.00069568824
-0.015173014 0.036381852 0.066378385 0.024624474 -0.03978595 0.0233947 0.014689653 0.033169143
-0.090341 0.036147427 -1.8055458e-05 -0.07041202 -0.045551863 -0.0050892993 0.034245756 -0.01728139
0.011126361 0.006313196 0.012420152 -0.030232193 0.00051187904 0.007925479 0.0064843902 0.014862768
-0.022878136 -0.021590875 -0.013311282 0.00824227 -0.026324792 -0.02737143 -0.0040606414 -0.039000574
-0.024108747 -0.023555899 -0.005260238 -0.029571626 -0.07471537 0.01718787 0.038945872 0.016601102
0.036916427 0.0083424235 -0.026866725 -0.027894871 0.0508047 0.01538551 -0.069065765 0.010157412
-0.0059278333 -0.021626825 -0.04659944 0.0027415862 -0.031612087 0.0032995525 -0.020547433 0.010840428
-0.008431206 -0.015088637 -0.0119999 0.010152715 -0.033123903 0.027499428 0.050413225 0.05984922
-0.042436305 -0.036718328 -0.03021299 -0.05164446 -0.048819996 -0.039862692 0.0014404141 -0.0410997
-0.006306386 -0.056162417 -0.029911183 0.0011881792 0.032772202 -0.020361967 -0.015903415 0.03618189
-0.067865595 0.046665072 -0.028195156 -0.024220437 0.031892255 0.022864087 -0.008978748 -0.019206244
-0.006567506 -0.022467671 -0.028983463 -0.020492658 0.055320762 -0.010889806 0.011242691 0.0068227462
0.01633179 -0.014260832 -0.028013142 0.027320787 0.012456137 -0.023732796 -0.038074967 -0.023722753
0.01440683 -0.05198193 -0.04142066 -0.0072321817 -0.03815314 -0.029998839 -0.059642386 0.052575193
0.019074474 0.00735463 0.0036439283 0.06860624 0.031111192 0.008507179 0.025960455 -0.025853828
-0.046717823 -0.02831513 -0.0016879212 -0.01658721 -0.054332413 0.033664532 -0.012137091 0.06184307
0.014094414 -0.0091529405 -0.000921576 0.036744166 0.057264388 -0.008277651 -0.012682878 0.014942529
-0.058354024 0.018271357 -0.02151368 -0.0052651875 -0.025647027 -0.018919012 -0.055893064 0.045216933
0.019038556 -0.012450187 -0.026682172 0.019383235 0.0034279542 -0.055819586 0.01999392 0.007131252
0.017363066 0.033767767 0.002263715 -0.006655979 -0.048101097 0.0032950265 -0.0987904 -0.0013228382
-0.045839965 -0.033722047 0.022308927 0.01795641 -0.009833006 -0.032186717 0.0042067077 0.0140987635
0.035105802 0.03711277 -0.038605735 -0.0047977506 0.024968056 0.05354673 0.014834923 0.011870017
0.012922553 0.049679693 0.023390833 0.01591637 0.03950593 0.020915644 0.026368812 -0.010741848
0.012590899 0.011025219 -0.04279411 -0.026358724 -0.018031672 2.6431679e-05 -0.024521967 0.014350384
-0.06804364 -0.014624703 -0.042140845 -0.021213138 -0.0026097328 -0.05782633 -0.010167297 -0.051515065
0.031395588 -0.023938335 0.00061355904 -0.01175028 -0.019648211 0.01691509 -0.034780636 -0.009945084
0.00056424603 -0.049590636 -0.04018979 0.030880684 0.028021729 -0.025605157 -0.028999554 -0.00750753
0.012720947 0.013288666 -0.008670097 0.00738963 -0.008152415 0.06379277 -0.00744305 -0.03253268
-0.020694438 0.07414919 -0.027685521 0.009432731 -0.026950942 -0.034341026 -0.043610185 -0.030733721
-0.029158626 0.00563014 -0.031949006 -0.020875981 0.037480928 -0.01650862 0.067511424 0.048490945
0.056287907 0.046324354 0.00937106 0.028951995 0.0063494816 0.004369331 -0.0128270695 -0.031604476

encoder.block2.block.0.bias f4 [32]
00000000: 681e 183d b16e 653b b0f6 2c3d c6e2 ecba
00000010: d208 6f3d 809f 00bb 7b9b 313d 6741 e93b
00000020: 2c1a d4bb 60ac 573d 3294 4a3b afa3 45bc
00000030: 862d b13b 2f47 a63c d38f ab3c de6a 223d
00000040: e7cb 203b d53b 713c c3ae 1e3b bd30 65bb
00000050: 30e8 2c3d 7773 913c c6d1 a73c a1cf 22bc
00000060: e353 b03c 36a1 703d 66af 483d ffee dc3c
00000070: d54b eabb a05f fb3c f5fe 27bc b265 123d
0.037138373 0.0035008604 0.042227447 -0.0018072955 0.05835802 -0.001962632 0.04336117 0.0071183923
-0.0064728465 0.052654624 0.0030911085 -0.012062951 0.005407038 0.020297615 0.020942604 0.039652698
0.0024535598 0.014723738 0.0024213053 -0.0034971677 0.04221362 0.017755253 0.02048577 -0.009937198
0.021524375 0.058747493 0.048995398 0.026969431 -0.007150153 0.030685246 -0.010253658 0.035741515

encoder.block2.block.2.weight f4 [32]
00000000: 0a9e 723f ae3a 753f 661c 703f a382 713f
00000010: 2eef 743f a528 753f cfc2 6e3f 815a 723f
00000020: 1938 743f 2923 753f a3e2 713f a54e 703f
00000030: 668f 743f 34ea 743f d2ba 733f c02c 713f
00000040: f64e 723f b857 743f 6e41 723f 4a11 773f
00000050: b0f3 6d3f d9cc 703f 77ed 743f a906 743f
00000060: 5c43 753f 4c27 743f 7b2f 713f 1c73 703f
00000070: bd24 733f 4490 703f 9d74 723f eba0 713f
0.947724 0.95792663 0.9379333 0.9433996 0.9567746 0.95765144 0.93266004 0.9466935
0.953981 0.95756775 0.94486445 0.9387 0.9553131 0.95669866 0.9520694 0.9420891
0.94651735 0.9544635 0.9463109 0.96510756 0.9294996 0.9406257 0.9567484 0.9532266
0.9580591 0.9537246 0.94213074 0.9392564 0.94977933 0.9397013 0.9470919 0.94386166

encoder.block2.block.2.bias f4 [32]
00000000: c0c5 233c 7476 b9bc 5ad4 363d 54cb 793c
00000010: ee61 ec3a c247 9cbc 934a 71bb 737b 30bc
00000020: d516 cb39 001a 883a 9a11 35bb e889 a73c
00000030: 7ca8 953b 0ca4 f33b c43e 3f3d 094d 3e3c
00000040: 4467 b13a d593 363c c54e b138 9a27 8dbb
00000050: 2aae 9739 e05e 06bb 24c4 55bb 7616 3a3c
00000060: 0394 3039 1fd6 513c d72e c1ba bac5 b03c
00000070: 093a bab9 93b1 c03b 0bbc ba3b b29a f03b
0.009995878 -0.02263949 0.044636108 0.015246231 0.0018034556 -0.019077186 -0.0036818131 -0.01077162
0.00038736188 0.0010383725 -0.00276289 0.020451501 0.004567204 0.0074353274 0.046690717 0.011615046
0.0013534804 0.011143644 8.45469e-05 -0.0043076994 0.00028930727 -0.0020503327 -0.003261813 0.011357894
0.00016839807 0.012807398 -0.0014738691 0.021578658 -0.00035519924 0.0058805435 0.005698686 0.00734266

encoder.block2.block.2.running_mean f4 [32]
00000000: 3859 0140 8b48 1b40 0b38 ea3f 23a1 0a40
00000010: 495f 0e40 073d 0040 4a7c c03f d6f7 0740
00000020: 74d1 e93f c5f0 0440 1b21 eb3f 5f9a 0240
00000030: b8f6 e13f 5ee9 2140 5ebc e13f b8ea 0040
00000040: 38eb 2840 a98e ba3f 2db4 1540 65cb 1240
00000050: fef2 0240 8254 0a40 1d07 f23f 8742 1b40
00000060: 806e 1a40 3406 1640 1d5a f83f 5665 0640
00000070: 5c06 e93f ad55 1640 5db9 1740 e789 d73f
2.0210705 2.4263027 1.8298353 2.166085 2.2245657 2.0037248 1.503793 2.1245017
1.8267045 2.0771954 1.8369478 2.040672 1.7653418 2.5298686 1.763561 2.014326
2.6393566 1.4574786 2.339122 2.2936642 2.046081 2.161408 1.8908421 2.4259355
2.4129944 2.3441286 1.94025 2.099935 1.8205066 2.3489792 2.3706887 1.683896

encoder.block2.block.2.running_var f4 [32]
00000000: 4e1c f040 f5bf 2a41 5f10 c440 a4bf 2141
00000010: 55fa 0f41 326a 0a41 a2f6 9b40 3c8a 0341
00000020: 2e1b e640 6fb7 fa40 1278 e840 90bb f240
00000030: 7a9e d740 6bd6 3a41 310d d640 6c1f 0c41
00000040: 7236 4c41 3d9e 9340 53f7 1e41 7650 3641
00000050: 0397 f240 9730 0841 b884 cf40 94d1 4b41
00000060: 4616 2a41 c978 2041 0376 0241 16d7 fe40
00000070: a70c c140 d465 2041 4635 4341 5792 c540
7.503455 10.6718645 6.1269984 10.109287 8.998616 8.650927 4.8738565 8.221249
7.190818 7.834892 7.264657 7.585396 6.7380953 11.677348 6.6891103 8.757671
12.763292 4.613066 9.935382 11.394644 7.580934 8.511863 6.484951 12.738667
10.630438 10.029489 8.153811 7.9637556 6.0327945 10.02486 12.200506 6.1741138

encoder.final.block.0.weight f4 [3, 102, 3, 3]
00000000: 6be9 53bc d2de c4ba 3739 883a 8894 c0bc
00000010: 87c8 bc3c 48aa 993c 63b1 aa3b b62b 27bc
00000020: 4523 c3bb 26b9 263c 2335 973b 8ce6 26bd
00000030: 14bb 82bc 1086 55bb 71fd 1b3d 41ee b0bc
00000040: f572 00bd 041a aebc f2d2 973c f3f0 a7bc
00000050: 156d 4ebb 6bb4 023c 6ad2 08bb beee d0bc
00000060: af7b 0e3c 59ce 2e3c 9bcb 8dbc 9062 86bb
00000070: 686b 19bb 01c3 d83a c7b4 88bb 3e6c ca3b
00000080: cd75 f2bb e950 a33a 6bc9 dbb9 321a 843b
00000090: 1f95 5e3c 23b6 ac3b a9d4 16bc bf23 383b
000000a0: 2ae9 10b9 5b7c e5bb 2e9f 393b 691e d33b
000000b0: dc53 e03c 2287 afbc e1cd b13c 4959 893c
000000c0: 366d b2bb bd98 603c 9c87 14bc 658c 10bc
000000d0: 4253 abbc 17ad 5d3b 1fd3 873c 7264 c1bc
000000e0: f82a 99bb f58b 4bbc 3391 df3c efd2 373c
000000f0: 5a72 07bb 1a64 56bc 057a 09bb 9f6a f8bc
00000100: ce70 88bb 1b21 63bc 5e40 3eb9 9111 8e3b
00000110: 03a2 843c 2448 743b 19e5 093d d5e3 7739
00000120: 352a 76bc c576 cd3b 3d12 81bc 7195 b43c
00000130: 4327 d0bc cd63 723b 2127 6cbc bb21 8e3c
00000140: cac8 adbc d2a1 903c cb44 cc39 64c0 29bc
00000150: 4f20 bd3b 9787 dd3b fa5f f6bb de83 723c
00000160: bf7b df3b c6d5 e13a b92f 8ebc 12f2 163c
00000170: ac04 bb3b 5d19 993c e636 8c3c ab6a 30bc
00000180: 3a07 6bbc 62f4 a2bb acf2 83bc 3a98 cb3b
00000190: db71 5ebb 63bc c43b d619 74bc cc91 803c
000001a0: 4ce6 863b a01e 5ebc 1cc9 bc3b 84cf 103c
000001b0: 797f ac3b 0269 be3b c236 1538 73b0 903c
000001c0: fe77 a0bc df59 5abc bbaa 1abb 09af a43c
000001d0: 6473 0c3c 30a8 cb3c 053d 63bc d06e 5bbb
000001e0: 3b2f 60bc fc79 fe3b d68a 143c 6134 423c
000001f0: 8d0b 0d3c dbcf aa3a 984f a83c b730 5d3d
00000200: 19dd cfb9 e574 c23c eba1 4cbd 047d debc
00000210: 99b4 eabc b955 303d 2a33 44bb f415 583c
00000220: b016 77bd 630c 773c 52a9 ea3c 6192 b2bc
00000230: 6de1 b7b9 2fad 19bc 780d 87bc 3ba7 623c
00000240: bc1d 673c 93c2 26bc c775 4c3c a5f6 5ab9
00000250: 3d86 73bb 40bb 0a3c 18d6 81bb 64b0 573b
00000260: 99bf 533b 9185 133c b99c 953b f33a cf3a
00000270: 9bcd 293c d26b 63bc 2d3b 073c 90c2 bfbb
00000280: 7e95 273c 0957 07bd b59d 6b3c 4733 b8bc
00000290: 3d3d 053c 3f95 ed39 f618 4f3b 2b88 13bc
000002a0: 5495 8abb 836e a23c 98db 39bc 7a84 76bb
000002b0: 6c6b 1d3c 12b6 6dbb 6c3b 4d3b 42d3 f3bb
000002c0: 2019 123b 755a 6339 346c 35bb acc1 c33a
000002d0: 008c f53b 760e 11bc 9aab 78bc 5b44 abbb
000002e0: 8a55 903b 9af5 a4bc 70fd f23b cdf7 0a3b
000002f0: a52a 893c d1b9 9ebc bf2a b2bb 905f c53b
00000300: 23f2 d63b 5988 57bc 6d36 133b 63da f2bb
00000310: e389 0db8 69cc 3d3c 151a 1b3c 032e f5bb
00000320: 2372 0bbc c4cf de3a 4af5 0abc 12c8 323b
00000330: fe36 3abc ad37 483c be10 053c ecef 69bc
00000340: 7a7d 213c 0b03 ab3a 8c4a 473c c7b4 32ba
00000350: 7a2e c93a be57 be3b a071 d0bb 65dd e03b
00000360: 0b0c 9ebb 99ba 933c 41c9 f43b 395e 36bc
00000370: 0b9e aebb be6d bdbb 48b2 cbba 6b71 99bc
00000380: 0841 563c 9fbb 043a e9f4 f5bc f3a0 f63c
00000390: 1088 e5bb 8fda 0c3d 6621 82bc f940 f4bb
000003a0: f42d c13c 201e a23c 5d0e 30bc 91de 8cbb
000003b0: eec2 633c 98ec b0bc b752 30bb 73ea 80bc
000003c0: 382c cc3a efa8 423c 3b65 1e3c f777 b23c
000003d0: f884 25bd c8fc 383c 389c df3b 3f05 eabc
000003e0: 5139 313d 9a8a c2bb 48e4 d83c d924 54bc
000003f0: c2b6 9bbb 0125 c3ba c4ee 2c3b c163 65bc
-0.012934069 -0.0015020019 0.0010393028 -0.023508325 0.023044838 0.018757954 0.0052091344 -0.010203293
-0.005955132 0.010175979 0.0046144887 -0.04074721 -0.015958346 -0.0032581128 0.038083497 -0.021597983
-0.03135963 -0.02125264 0.018533204 -0.020500636 -0.0031498123 0.007977585 -0.002087737 -0.025504466
0.008696481 0.010669314 -0.017309 -0.004101105 -0.0023409966 0.0016537608 -0.004171941 0.0061774543
-0.007399297 0.0012460026 -0.00041921003 0.004031443 0.013585358 0.005270736 -0.009205976 0.0028097478
-0.0001381977 -0.0070033497 0.0028323638 0.006442834 0.027383737 -0.021426741 0.021704616 0.016766207
-0.005445148 0.013708291 -0.009065535 -0.008822535 -0.020913724 0.0033825093 0.016580163 -0.023607466
-0.0046743117 -0.012423505 0.027290916 0.011219724 -0.0020667524 -0.0130853895 -0.002097727 -0.030324278
-0.004163838 -0.013862873 -0.0001814379 0.00433559 0.016190534 0.0037274444 0.03366575 0.0002364063
-0.015024711 0.006270262 -0.015755767 0.022043915 -0.025409346 0.0036985755 -0.014413626 0.017350068
-0.021213908 0.017655287 0.00038961167 -0.010360811 0.0057716738 0.0067605483 -0.0075187655 0.014801947
0.0068201716 0.0017229847 -0.01735674 0.0092129875 0.005707344 0.018688852 0.017116021 -0.010767619
-0.014344985 -0.0049729804 -0.016106926 0.006213215 -0.0033942375 0.0060039028 -0.014898738 0.015694521
0.004116809 -0.013557106 0.005761279 0.008838538 0.0052642194 0.0058108578 3.5575365e-05 0.017662263
-0.019588467 -0.013327091 -0.0023600298 0.020102995 0.008572433 0.024860471 -0.013869529 -0.0033482797
-0.013683136 0.0077660065 0.009066304 0.011853308 0.008608711 0.0013031916 0.020545766 0.054001536
-0.00039646847 0.02373738 -0.049959105 -0.027159221 -0.028650569 0.0430505 -0.0029937723 0.013188828
-0.06032437 0.015078637 0.028645191 -0.021798315 -0.00035072435 -0.009379669 -0.016485915 0.013833816
0.01410621 -0.010178226 0.012479252 -0.00020881982 -0.003715887 0.008467495 -0.0039622895 0.0032911533
0.0032310246 0.009004013 0.004565802 0.0015810415 0.010363962 -0.013880687 0.008253855 -0.005852051
0.010228513 -0.033041988 0.014380862 -0.022485388 0.008132276 0.0004531536 0.0031600571 -0.009004633
-0.004229227 0.019828087 -0.011343859 -0.0037615583 0.009608131 -0.0036271852 0.0031315936 -0.0074409554
0.0022292808 0.00021682105 -0.0027682902 0.0014935038 0.007493496 -0.008853545 -0.015177632 -0.0052266545
0.0044047283 -0.020136643 0.007415466 0.002120483 0.016743967 -0.019375714 -0.0054372246 0.006023355
0.0065596267 -0.013155066 0.002246286 -0.0074112876 -3.3745437e-05 0.01158438 0.009466668 -0.0074822917
-0.008511099 0.0016999175 -0.008481333 0.0027279896 -0.01136565 0.012220305 0.008121667 -0.014278393
0.009856576 0.0013047172 0.012163769 -0.0006817099 0.0015348934 0.0058087995 -0.0063612014 0.00686233
-0.004823213 0.018033313 0.0074702804 -0.011130863 -0.005328899 -0.0057809046 -0.0015540803 -0.01873084
0.013077028 0.0005063358 -0.030024009 0.030106043 -0.0070047453 0.03438812 -0.015885066 -0.0074540344
0.023581482 0.019789755 -0.010745612 -0.004298993 0.013901455 -0.021597192 -0.002690477 -0.015736794
0.0015577143 0.011881097 0.00966769 0.02178572 -0.040410012 0.0112907365 0.0068240426 -0.028566955
0.04326755 -0.0059369328 0.02647604 -0.012948238 -0.004752011 -0.0014888347 0.0026387433 -0.014000834

encoder.final.block.0.bias f4 [3]
00000000: f21b a4bb 08a7 873b 4971 5d3c
-0.005008214 0.0041397847 0.013515779

decoder.initial.block.0.weight f4 [32, 3, 3, 3]
00000000: aec5 f33d 191d 483e 908d 34be d9bb 0abd
00000010: e431 06be c9ae 973c 44a1 f2bc dda6 e1bd
00000020: 2409 1f3e b633 5f3d de68 e9bd 63a9 32ba
00000030: 2873 b63d 1aaa 33be e15c 5fbb 3bfe 4cbb
00000040: 2123 d43c cc17 de3d e96b 8a3c fcee 083d
00000050: 111d 27be 2d88 9cbd ee36 7a3d cda0 1b3e
00000060: 4067 0ebe 93ca 54bc 2a2d 083e 2845 043d
00000070: 3caa 903c 25c2 a3bd 80a2 903c 9365 1d3e
00000080: 9eaf 0dbe 449e c73d 7721 503d 425e 20be
00000090: ffe6 013c e8d8 62bd dccf edbd decd 373e
000000a0: 6975 d4bc 0dd2 cf3b 24b9 e7bd a69d 0fbe
000000b0: 9a96 cc3d 6870 a2bd 7ab1 fbbd 0b36 b4bd
000000c0: cffb 04be 1638 d23d 4fc1 d33d bb95 94bc
000000d0: 61d1 403e 590b 47bd c1cc 2f3d cf41 ed3d
000000e0: fdbe 803d bbce fb3d 5a4c 173e c21b 04be
000000f0: 1a62 ccbc 1ee3 da3d d30d 56bd 9c3e 9dbd
00000100: 21d7 67be 0652 273d c142 db3c 59ba 283e
00000110: da43 ccbd 52ba 2c3e 2704 37bd 0e2d 693d
00000120: 2e70 4b3c 4140 953d a081 a8bc 618e e53c
00000130: a6cb 06be 670e 423e 15d2 96bd 4421 6b3d
00000140: 5f14 0f3e 1a2a 303d 5248 023e d7b2 fbbd
00000150: 8472 11be 73fd 3b3e 26ca 1bbe 39cb 303d
00000160: a761 1dbd d0a1 f43d aea0 09bc a99f 073b
00000170: a85d 5f3e 5629 3cbd a8cd e8bd 2cc4 043e
00000180: db74 f8bd 6661 0ebe e086 ff3c 11c4 bbbd
00000190: 1da9 65bd 2809 b8bc 8490 193e 2661 16be
000001a0: 8359 eebd 7f07 b93d ec40 493e 4a1d ef3c
000001b0: 3c06 03be ca98 9f3c 0f1b cd3d d5f1 a83d
000001c0: ac55 f2bd f65a c8bc 19e2 38bd 532a 85bd
000001d0: be71 523e bdac d63d d138 3a3e 150c cbbc
000001e0: e5d7 50bd d91f 36bd 679c c2bd 4efe f0bd
000001f0: 82fc 0a3e 23d1 00be 39b9 993d 72d0 3bbe
00000200: 373f 28bd da4b 7dbd 52d1 153e cccc f63d
00000210: 68e5 cf3d 7559 90bc ad9a d6bd 542a 5abe
00000220: 911f 413c 0a41 c63c 3689 66bd 7f1c 04be
00000230: a7db db3d 6a4d ae3d 48ca 99bd 69b4 a03c
00000240: 059e b43c 4a92 e0bc dbe5 96bc 2110 42be
00000250: 4b32 76bd c1ac 0abd 35d9 793d 6737 48bd
00000260: e87f 263d 4849 333e c478 2e3e 179a fabd
00000270: c4a4 f2bd b6e2 203e 6ada e5bd f802 ec3d
00000280: 0635 8cbd 3d7e f3bd 0a62 c13c e5d3 543d
00000290: d517 793d 7b9f c3bd 861f 1c3e 0a15 20bd
000002a0: c728 27be 858a 2e3c 5567 803c 1c7a a13d
000002b0: e9ed 8bbd d768 b3bd d5df 123e 8d84 28bd
000002c0: a3de 5fbd a309 293e d054 90bd 875f 83bd
000002d0: 6bf7 293d edb0 2cbd 3971 07bc ce22 69be
000002e0: 8100 ef3c 094d 493d 56cd 0d3e e742 d9bd
000002f0: a415 0d3e f417 12bd b0a0 bf3b 3afa ea3c
00000300: d679 073e 2861 133e a30c 043e 2c80 43be
00000310: 0861 a03d 4783 46be e849 da3d d08a 21bd
00000320: d342 0f3d 919a 8fbd 4684 903d 5332 5ebe
00000330: 36b0 f0bc f2ab 9b3d 18f6 4c3d fcb5 c1bc
00000340: 94d9 1b3c 1295 bbbd f2c0 113d 8947 81bd
00000350: ec6d f93d 24a5 3f3e 84d1 2ebe 7378 483b
00000360: 247d 07bd 737d 053e 6cc2 9e3c 8e7b 0c3e
00000370: 5381 09bc ec8e 06be 623e f3bd 10f9 2dbe
00000380: a8c0 bb3d b526 763d 2cd7 fabd 2b36 2fbe
00000390: c062 703d 3d91 a4bc 9900 a83d 19d3 14bd
000003a0: 2bfb 1fbe 4ff7 153e 5a9b 1b3d 1edf 6fbd
000003b0: 9b5a bcbd 9629 f8bd b9d3 443d 9f49 433e
000003c0: 1dc8 283e b5ea b2bd 1ea0 bbbd ddee 90bd
000003d0: f0c0 a13d 5f43 25be 4fbe 393e faff 16bd
000003e0: 46a7 b03d 4752 22be c3c1 e7bd f55d 3e3e
000003f0: b485 fdbc 95ea db3b dabf 9e3d 3252 01bd
0.11902939 0.1954235 -0.17632127 -0.03387055 -0.1310497 0.018515961 -0.029617913 -0.11018155
0.1553083 0.054492675 -0.11396955 -0.0006815402 0.08908683 -0.17545357 -0.003408246 -0.0031279463
0.025895657 0.10844383 0.016897159 0.03343104 -0.16319682 -0.07643161 0.06108754 0.1519806
-0.13906574 -0.012987751 0.13298479 0.032292515 0.0176593 -0.079960145 0.017655611 0.15370779
-0.13836524 0.09746984 0.050813165 -0.15660957 0.007928609 -0.05538264 -0.11611912 0.17949626
-0.025934892 0.0063421787 -0.1131461 -0.14024982 0.099896625 -0.07931596 -0.1228971 -0.087993704
-0.12986682 0.10264604 0.10339605 -0.018137803 0.18829872 -0.048594806 0.042919878 0.115848176
0.06286428 0.1229529 0.1477522 -0.12901214 -0.024949122 0.106878504 -0.052259278 -0.076779574
-0.22640659 0.040849708 0.02676523 0.16477336 -0.09973879 0.1686795 -0.044681694 0.056927733
0.012416882 0.07287646 -0.020569623 0.028021993 -0.13163623 0.18950807 -0.07364289 0.05740477
0.13972615 0.0430089 0.127229 -0.1228997 -0.1420384 0.18358402 -0.15213832 0.04316256
-0.038423207 0.11944926 -0.008400125 0.002069453 0.21813071 -0.04593786 -0.11367351 0.12965459
-0.121316634 -0.13904342 0.031192243 -0.09168256 -0.056069482 -0.022465304 0.14996535 -0.14685497
-0.11638167 0.09034633 0.19653672 0.02918877 -0.12795347 0.019482035 0.10014927 0.08249251
-0.11832747 -0.024457436 -0.0451375 -0.06502213 0.20551202 0.10482166 0.18185736 -0.024786035
-0.050987143 -0.044463966 -0.09502488 -0.11767255 0.13572887 -0.1257978 0.075060315 -0.18341234
-0.04107591 -0.061839916 0.1463063 0.12050781 0.10151178 -0.017620781 -0.10478721 -0.2130521
0.011787311 0.024200935 -0.0562832 -0.12901495 0.10735255 0.08510859 -0.07509285 0.019617276
0.022048006 -0.027413506 -0.01842015 -0.18951465 -0.060106557 -0.033856157 0.06099816 -0.04888096
0.040649325 0.17508423 0.17038256 -0.122364216 -0.11847833 0.15711483 -0.112233 0.11524004
-0.06846051 -0.118893124 0.023606319 0.05195989 0.060813744 -0.09551903 0.152464 -0.039082564
-0.16324149 0.010653143 0.015674273 0.07884619 -0.06832487 -0.08760231 0.14343198 -0.041142035
-0.054655682 0.16507582 -0.07047427 -0.06414705 0.04149572 -0.042160917 -0.0082667405 -0.22767183
0.029175045 0.049145732 0.1384786 -0.10608464 0.13777786 -0.035667375 0.005848013 0.02868377
0.1323007 0.14392531 0.12895446 -0.19091862 0.07831007 -0.19386016 0.10658628 -0.039439023
0.034975838 -0.07011903 0.07056479 -0.21698885 -0.029380899 0.07601155 0.05003938 -0.023646347
0.009512324 -0.09159292 0.035584398 -0.063124724 0.12179169 0.1871534 -0.17072111 0.0030589371
-0.033078328 0.13036136 0.019379817 0.13719007 -0.00839265 -0.13140458 -0.11877133 -0.16989541
0.09167606 0.060095508 -0.12248072 -0.17110507 0.058687925 -0.020088786 0.08203239 -0.03633413
-0.15623157 0.14645122 0.03798995 -0.05856239 -0.09196969 -0.12117307 0.048053477 0.19071053
0.16482587 -0.08736173 -0.09161399 -0.070768096 0.07898128 -0.16138981 0.18139003 -0.036865212
0.08625655 -0.15851699 -0.11316254 0.1859053 -0.030947544 0.006711314 0.077514365 -0.03157253

decoder.initial.block.0.bias f4 [32]
00000000: d0f4 c73c 241b 583e 7080 143d 09da 5d3e
00000010: 0f53 133e c922 6cbe 4db5 cb3d d98a 0b3e
00000020: e89a 50be 827e de3d e8cc 643c f988 383d
00000030: f5bf 7e3e 523e 703e 5632 8b3e 4dfc 89bd
00000040: 4fbb 9e3d da89 76bd 40cc b4bd 6ddb 513e
00000050: 003d aabd 08a0 813e 2ded 623c 2691 b93d
00000060: e246 c2be b2b1 a23d 8dec ea3d dfdd 563e
00000070: c7bc ee3c 860a 99be aa48 a8bc d18a f43d
0.024408728 0.21104103 0.0362553 0.21665205 0.14387153 -0.23060144 0.0994669 0.13627185
-0.20371592 0.10863973 0.013964869 0.045052502 0.24877913 0.23461273 0.2718684 -0.06737576
0.0775057 -0.06019006 -0.0882802 0.2049386 -0.08312416 0.25317407 0.013850492 0.09060888
-0.37944704 0.07944049 0.114709 0.20983075 0.02914275 -0.2989084 -0.020542461 0.1194054

decoder.initial.block.2.weight f4 [32]
00000000: e7b5 563f 64f2 503f 3e18 733f 527f 853f
00000010: 419a 7d3f dd93 763f 8613 873f 1052 6c3f
00000020: 9959 773f 7e06 813f ceac 793f ae5d 6b3f
00000030: 7919 723f b790 7a3f 7483 6a3f 3081 593f
00000040: d077 7a3f 7111 6e3f 07e4 593f 8fc7 873f
00000050: eb33 623f 966b 7b3f a2c1 6b3f 1486 7d3f
00000060: 0e5f 833f 21d1 6c3f e631 443f 7422 853f
00000070: 076c 6b3f ebd7 8c3f 24bd 683f 567b 7b3f
0.8387131 0.8161986 0.94958866 1.042948 0.990635 0.9631937 1.0552833 0.9231272
0.9662109 1.0080106 0.97529304 0.9193982 0.9457012 0.9787707 0.9160683 0.8496275
0.9783907 0.92995363 0.8511357 1.0607775 0.8836047 0.9821104 0.92092335 0.9903271
1.0263383 0.92506605 0.7663864 1.0401139 0.9196171 1.1003393 0.90913606 0.9823507

decoder.initial.block.2.bias f4 [32]
00000000: b091 023d 1acc 94be 4832 883e 89f4 0a3e
00000010: aa41 36be 2f50 16be 0b1d 143e 0867 423e
00000020: 06b9 1abe e7b6 57bd 013e 3ebb 5a9c 3fbe
00000030: 06fa b33d e2b1 05be 0a3a f4bd 89ad 7c3e
00000040: 62ce 923d 1973 a03e 063a 83bb d1c1 8f3b
00000050: 5851 a3be 869d e9bc f5b3 1dbd c52c f43d
00000060: d8fd 9ebd ba7b 23be bb49 32bc 2f6f 2bbe
00000070: f1e4 febd c697 ac3e 20ef 053d b190 893a
0.03187722 -0.29061967 0.26600862 0.13569845 -0.17798486 -0.14679025 0.14464204 0.18984616
-0.15109643 -0.052664664 -0.0029028656 -0.18711987 0.087879226 -0.13056138 -0.119251326 0.24675573
0.07168271 0.31337813 -0.0040047197 0.0043871184 -0.31897998 -0.028517496 -0.0385017 0.119226016
-0.077632606 -0.15965167 -0.0108818365 -0.16741632 -0.12446011 0.33709544 0.03269875 0.0010495392

decoder.initial.block.2.running_mean f4 [32]
00000000: 8706 de3c e372 d43d a986 aa3e bfb1 713e
00000010: 9565 1d3e e343 89bb 2e51 e63d f86d 353e
00000020: c5ef 4fbb 83d2 ed3d f243 fe3c 6619 063e
00000030: 5aef 933e 50c2 683e cac3 c33e 9551 c8bb
00000040: ab59 a03d d872 2a3e ac27 1e3e d985 5f3e
00000050: cf0f 903e 2721 8c3e 78c7 1c3d b287 c83d
00000060: b261 92bb d7e6 0a3e 6070 143c 31e4 673e
00000070: ae2c 213d 9762 73bb e7f9 be3e 7e3d f83d
0.027102722 0.103734754 0.33305863 0.23602961 0.15370782 -0.004189001 0.112459525 0.17717731
-0.0031728607 0.116124175 0.031038258 0.13095626 0.28893548 0.22730374 0.38235313 -0.006113241
0.07829603 0.16645372 0.15444821 0.21828403 0.2813706 0.27369043 0.038276166 0.09791507
-0.0044672126 0.13564621 0.009059995 0.22645642 0.03934925 -0.0037137622 0.37300035 0.12121104

decoder.initial.block.2.running_var f4 [32]
00000000: ca7b 6f3a 7946 803b 3246 ac3c c457 0d3a
00000010: 01d4 8139 d247 6a35 486b 8a39 6412 8c3a
00000020: 7567 c434 570f 2339 99d3 413b cedf 5e3b
00000030: 5962 c33a bbc3 fe3a 24b0 da3b 7c3c dc36
00000040: 44f7 dc38 8dd1 4f3c 27b0 453c c812 b239
00000050: 3400 023d d92b 0e3a 77b7 8c3b 83b9 3739
00000060: 7e34 cd34 a989 9e3a b075 6c3a ade9 f339
00000070: 5e94 f63a 5d8e 7434 3913 133d c32d 4539
0.00091355725 0.003914651 0.021029565 0.0005391801 0.00024762753 8.7276305e-07 0.00026401342 0.0010686633
3.658312e-07 0.00015550606 0.0029575585 0.003400791 0.0014906629 0.0019436994 0.0066738296 6.5635522e-06
0.00010536474 0.012684238 0.012065924 0.000339648 0.031738475 0.0005423404 0.0042943317 0.00017521348
3.822242e-07 0.0012095469 0.00090202224 0.00046522674 0.0018812527 2.2776062e-07 0.035907004 0.00018804432
