models/normal/BasicSteganoGAN/1/epoch_28.pth (torch, 308383 bytes, 58 tensors)

encoder.initial.block.0.weight f4 [32, 3, 3, 3]
00000000: 2b4b bb3d 199f 3cbe 17d5 d33d 5bcf aabc
00000010: 9329 d4bd 3e85 bb3d e37d 493d b739 b13d
00000020: d914 36bd 2e9a dfbd 5267 e93d 5272 25bd
00000030: 0fba 043d 1220 eabd b80e ba3c 8d0a 75bd
00000040: 2785 babd a59b a8bd c3f9 083d ac55 abbd
00000050: c3a2 95bd 6264 2abe 5487 c1bd 5cfc a6bc
00000060: 2fb1 f4bd 9c1f 74bb aef6 b6bd 5f8c 2d3d
00000070: de7f abbd f939 b9bd f590 fdbd 8c25 703d
00000080: 6b1a 7d3c 9b08 efbc f84e b3bc 2e59 fbbb
00000090: 7984 3abe dc32 033e 77e8 54be aee2 9abb
000000a0: 7e22 273e fa17 efbd 1c4d be3d b47f 07be
000000b0: 45f1 c93d a95f ebbd b3dd f4bb 9bb8 cbbd
000000c0: 1c2b ae3d c659 f93d 8013 26be 906f d83d
000000d0: ef2f 19be 1f8e 86bd 049e 20be fc13 d6bd
000000e0: 67cd 99bc 0b73 ff3c 4642 743e 31cb 003e
000000f0: 1aa0 e7bc c4bb d1bd d3fe c83c b33c d43d
00000100: 600c 523d f286 9bbd a290 e63d adbe da3d
00000110: 3e86 413e 91ba 09be ec80 043e 4763 cdbd
00000120: 0c44 c43d ef84 333e 0e4e 1cbd a21f 7a3d
00000130: 17de 353e 6f55 ac3d b9c8 b8bd 14a2 ae3d
00000140: ae64 0dbe 6dd9 273e 95d0 ccbd 08a8 1bbd
00000150: 9398 bdbc 8ce3 abbd ebba 07be 2c9a e13d
00000160: 8124 e0bd 92f8 9e3d 561d ffbd 48ea 003e
00000170: 8965 753d d7fc cbbd e1f6 b73d 6b9a cdbd
00000180: 1cc7 153e 41b1 bb3d c399 aabb 5157 11be
00000190: cd7a 0fbe 5a1f 2e3d 0ff5 42be 8ac6 353c
000001a0: deb5 02be 6001 3ebd 5963 37be 4070 c7bd
000001b0: 6c48 0cbe 5757 9abd c876 e73d c4d6 4cbd
000001c0: 4d37 1cbe da66 8e3d 9dc8 f93d ada4 0b3b
000001d0: d7c1 313e a3bb 963d 271e 20be 6911 203d
000001e0: b4af cb3d d7ac eb3d 5e32 ee3d bd1c d53d
000001f0: 8184 f63c e778 3e3e eb1a 3bbe 0e9d 15bd
00000200: 2952 b6bd 4143 e03d 5613 08be 9eb3 0d3e
00000210: f970 463e 82bc 5e3d f952 b8bb 9336 593d
00000220: 854f 26bd 7cdf a8bd 2606 e3bc 1b0a d5bd
00000230: 0a43 13be 3344 313d 6b53 15be 942d 463d
00000240: 2832 03be a598 dfbd 3210 e9bd 6c9b 15be
00000250: 691c dc3c 87de 26be 4ef8 073e 0e66 15bd
00000260: 47df 57bd 5d3d 29be 4036 843d ed42 163d
00000270: ad65 60bb 1da3 ea3d 9146 ba3d b5ab 4f3d
00000280: 439f c4bd b73a d13b 6c66 4dbe ebf3 0bbe
00000290: 0207 edbd ebad 483e 006d 763d 05f8 3e3c
000002a0: 3a7e cbbd f01c 01be d842 863c 11e0 0fbe
000002b0: 5025 89bd 1cc1 10be 0f90 7c3c 2a38 63bd
000002c0: 61e1 b93c 7ef8 94bd 203a 183e a58c cebd
000002d0: 02a0 dd3d 7760 45be daf0 11be eb63 24be
000002e0: 0fec f83d b452 003e 4611 573d 6048 2d3d
000002f0: 178e 85bd 863f 293e ab5b 9ebd 5034 74be
00000300: 52a8 8fbd 086c 033e 9d2f 85bc 0e0d 173e
00000310: c01b d4bd a162 32bd 690e 0abe b017 d13d
00000320: 3628 bfbe c472 cabd 9167 c13d 6985 dc3d
00000330: f305 00bd 2515 a5bd 4926 b3bc 0e83 25be
00000340: 38e8 a23d fd83 4bbe c03d 993d 2189 813d
00000350: 843f 3cbe b07b 983d f208 c23d a2fe 1f3d
00000360: fecc 3d3e e644 39bd 67b7 ca3d 34de fb3d
00000370: 4272 123e 2a41 653c 0b32 023e 21b8 57bd
00000380: f972 14bd 4b7f 7c3d 199c 2d3e cf21 0fbe
00000390: f72f 213e abdd 453e 2529 063e 1da5 b73c
000003a0: 466f 2fbd d9b1 24bd 6cfc 2bbe 4c44 c4bd
000003b0: f640 bc3d 53d0 1cbc 13ee 113e 0ff0 a9bd
000003c0: 551c 013e aaf9 e33d ca68 f9bb 5cf8 21b9
000003d0: e3c5 e83d 1f51 1bbe e3c4 9cbd 844f f2bd
000003e0: 4c83 78bd 2589 06be 9371 95bc 69f6 23be
000003f0: 5769 8c3d 000f 213e edb7 1ebe 26f5 c13c
0.091451965 -0.18420066 0.10343378 -0.020850828 -0.10359492 0.09156273 0.04919232 0.08653586
-0.044453476 -0.10918079 0.1139666 -0.040392227 0.032404 -0.11431898 0.022712097 -0.059824515
-0.09107428 -0.08232812 0.033441316 -0.0836595 -0.07306435 -0.16639856 -0.0944964 -0.020384006
-0.119478576 -0.0037250286 -0.08933769 0.042370196 -0.08373998 -0.090442605 -0.12381164 0.058629557
0.015448193 -0.029178908 -0.021888241 -0.007670543 -0.18214597 0.1281237 -0.20791803 -0.0047267294
0.16321751 -0.11674495 0.09292051 -0.13232309 0.09860472 -0.11492855 -0.0074727177 -0.0994732
0.08504316 0.12175326 -0.16218376 0.10568154 -0.14959691 -0.06570076 -0.15685278 -0.104530305
-0.018774701 0.031182786 0.23853406 0.12577511 -0.028274585 -0.102408916 0.024535572 0.1036314
0.051281333 -0.07594098 0.11258055 0.106809 0.18898866 -0.13450076 0.12939805 -0.10028701
0.095832914 0.17531179 -0.038160376 0.061065324 0.17760502 0.08414733 -0.0902266 0.08527008
-0.13807938 0.16391535 -0.10000721 -0.038002044 -0.023144042 -0.083930105 -0.13254897 0.11015734
-0.109444626 0.07762255 -0.12456767 0.12589371 0.059911285 -0.09960335 0.08982635 -0.100392185
0.14626735 0.09164668 -0.005206318 -0.14193465 -0.14011689 0.042510368 -0.19038795 0.011094699
-0.1276469 -0.04638803 -0.17908992 -0.09738207 -0.13699502 -0.0753619 0.113019526 -0.050009504
-0.1525547 0.06953211 0.12196467 0.0021307871 0.173591 0.073600076 -0.15636502 0.039079104
0.09945622 0.11507576 0.116307005 0.10405872 0.03009248 0.18600808 -0.18271987 -0.036526732
-0.089023896 0.10950328 -0.13288626 0.1383805 0.19379033 0.054378994 -0.0056251255 0.05303056
-0.04060318 -0.08245751 -0.027712893 -0.10402318 -0.14381042 0.04327793 -0.14582603 0.04838331
-0.12812102 -0.109177865 -0.11380042 -0.1461007 0.026869016 -0.16295825 0.13278314 -0.03647428
-0.05270317 -0.16527314 0.0645566 0.03668492 -0.003424029 0.11456893 0.09095491 0.050700862
-0.09600689 0.006385173 -0.20058602 -0.13667266 -0.11573602 0.19597594 0.060162544 0.011655812
-0.09936185 -0.12608695 0.016389295 -0.14050318 -0.0669657 -0.14136165 0.015415206 -0.055473484
0.022690477 -0.072739586 0.14865923 -0.100854196 0.10821535 -0.1927508 -0.14252034 -0.1605374
0.121543996 0.12531549 0.052506708 0.04230535 -0.06521242 0.16528139 -0.07732328 -0.2384808
-0.070145264 0.1283418 -0.016258055 0.14751074 -0.103568554 -0.04355109 -0.1348206 0.10209596
-0.37335366 -0.09885171 0.09443582 0.107676335 -0.031255674 -0.080606736 -0.021868842 -0.16163275
0.079544485 -0.19874568 0.07482481 0.063249834 -0.18383604 0.074454665 0.094743624 0.039061196
0.1853523 -0.045231722 0.098982625 0.12298241 0.14301398 0.013992587 0.12714402 -0.052665833
-0.03624246 0.061644834 0.16954078 -0.1397774 0.15740953 0.19322841 0.13101633 0.0224176
-0.042830728 -0.04020867 -0.1679551 -0.09583339 0.09192078 -0.009571153 0.14250974 -0.08297741
0.12608464 0.11131604 -0.007611369 -0.00015446678 0.11365869 -0.15167664 -0.07654741 -0.11831573
-0.06067209 -0.13138254 -0.018242633 -0.16011967 0.068560295 0.15728378 -0.1549985 0.023676466

encoder.initial.block.0.bias f4 [32]
00000000: 5649 18be ec00 6a3e 55d1 2f3e 800d 40be
00000010: 419b 7b3e 0b5e f7bd 57ef 3a3e b0de cdbd
00000020: 2e12 983d 239b 60be def6 973e d232 1fbe
00000030: 1eda d1bd 8bdd 88bd 11fa 7f3e 921d 00be
00000040: 170c 363e b54e 97bd 0e11 0e3e d613 09bd
00000050: dd45 00be 94ab fa3d d0d2 1cbe fc5f e73c
00000060: 2ef6 bbbd 1626 57bb 423f de3d e1e6 623d
00000070: 4f59 bfbd 49dc 15be 94ba 133e f825 863e
-0.14871725 0.22851914 0.17169698 -0.1875515 0.24570943 -0.12078484 0.18255363 -0.1005224
0.074253425 -0.2193418 0.29680532 -0.1554673 -0.10246681 -0.06682881 0.24997737 -0.1251128
0.1777805 -0.07388059 0.13873693 -0.033466183 -0.1252665 0.12239757 -0.15314794 0.028244011
-0.091778144 -0.0032829097 0.10851909 0.055395965 -0.09343206 -0.14634813 0.14426643 0.26200843

encoder.initial.block.2.weight f4 [32]
00000000: 88b1 7a3f c317 673f e04c 703f 5bab 803f
00000010: 6758 733f a6eb 7b3f 527d 7c3f 77cb 673f
00000020: f5eb 733f cac6 803f e9cd 683f 3114 7e3f
00000030: 0c0a 723f a54d 743f 60b4 713f f62d 733f
00000040: 43cf 703f cef9 893f 0613 5f3f d6ae 763f
00000050: 3618 863f 36f3 553f 7e6e 823f af38 7a3f
00000060: 7543 753f 4ec6 783f 1840 7e3f 942e 673f
00000070: 92f1 7c3f f515 813f 73cd 7e3f b051 4c3f
0.9792714 0.9027063 0.938673 1.0052294 0.95056766 0.98406446 0.98628724 0.9054484
0.95281917 1.0060666 0.90939194 0.9924956 0.9454658 0.95430976 0.94415855 0.94992006
0.94066256 1.0779359 0.871384 0.9636053 1.0476139 0.83574235 1.018997 0.9774274
0.95806056 0.9717759 0.9931655 0.9030545 0.9880611 1.0084826 0.9953224 0.79812145

encoder.initial.block.2.bias f4 [32]
00000000: 9ee4 4dbe ef93 703e 288d 25be 19f3 553d
00000010: 82ca 0c3d 9b71 c2bd b79e ad3d 3ad9 cfbd
00000020: 631b 17bd 48eb 5fbd b6d4 e43b a38d 0ebe
00000030: 436d 8abe 18c0 733d f4af 073d d15a 373d
00000040: 660d 21be 1ac4 5a3d e697 b23d a8ff 4dbd
00000050: 6904 cb3b 6015 96be 7147 8a3d b544 8a3a
00000060: d72f fabd 460a d3bd a96a cebc 8227 553d
00000070: 7f6e 6c3d dfb6 993d 6442 62be 25fc e0bb
-0.20106742 0.23493932 -0.16167128 0.05223379 0.034372814 -0.09494325 0.08477538 -0.101488546
-0.036891352 -0.05466774 0.006983365 -0.13921218 -0.27036485 0.059509367 0.033126786 0.044764344
-0.15727767 0.053409673 0.087203786 -0.05029264 0.006195594 -0.29313183 0.067519076 0.0010549041
-0.12216156 -0.10304694 -0.025197344 0.05203963 0.057722565 0.07505583 -0.22095639 -0.0068659955

encoder.initial.block.2.running_mean f4 [32]
00000000: 31e2 a3bb 52e5 fa3c 4c03 023f 81bb a6bb
00000010: 0479 103f 0dd8 afbb 6c4d 163c 9561 75bb
00000020: cbdf 1c3f 367d 94bb 41de fa3e 8e4b bcbb
00000030: c43c adbb 9d83 a33e ce2e 8c3d b9f5 953e
00000040: e029 263f 70f3 8dbb c4b5 d63b d898 943e
00000050: 3987 a6bb b8f1 8a3a 61de f6bb ae0c 2e3f
00000060: 0ac8 e13e 0311 2a3f f98f 223f ef14 913e
00000070: 3293 acbb f7f4 a0bb 5193 463f 6970 163e
-0.0050013294 0.030626927 0.5078628 -0.00508827 0.56434655 -0.0053663314 0.009173732 -0.0037442197
0.6127898 -0.004531528 0.4899769 -0.0057463115 -0.005286785 0.3193635 0.06844865 0.29289034
0.64907646 -0.0043319985 0.00655243 0.2902286 -0.0050820378 0.0010600602 -0.007533834 0.679881
0.4409793 0.6643221 0.63500935 0.28336284 -0.0052665705 -0.0049120146 0.77568537 0.14691319

encoder.initial.block.2.running_var f4 [32]
00000000: 4a93 4c36 23ef 333b d956 e53c 2e85 3f36
00000010: 3996 d13c fcab 6836 dd83 963a 858e 8337
00000020: baf7 6a3d bd23 a435 4858 4d3c b786 6d36
00000030: bf29 8a36 3c3f 023d 12ee 843b e833 053d
00000040: 711f 353d 495a f136 b3a0 283a ed38 b43c
00000050: 5c6f 4936 e6e3 7239 0895 1238 d5a6 cf3d
00000060: 8e89 6d3d 8e9b c63d b756 6c3d 7578 4b3c
00000070: bc2a 7836 c8c7 2136 b40f c03d 824e 5c3b
3.0484102e-06 0.002745577 0.027995514 2.8538739e-06 0.025584327 3.4670802e-06 0.001148339 1.5682783e-05
0.057365157 1.2229353e-06 0.012533255 3.5394166e-06 4.1175804e-06 0.031798586 0.0040567005 0.032520205
0.044219438 7.1928703e-06 0.00064326375 0.0219998 3.0016154e-06 0.00023163817 3.494791e-05 0.101392426
0.05799251 0.096976385 0.057699885 0.012418856 3.6979754e-06 2.4107158e-06 0.09377995 0.003361613

encoder.block1.block.0.weight f4 [32, 33, 3, 3]
00000000: 778d c0bc 9383 e5bc f5ab 963b 71eb 84bb
00000010: fac0 083d e544 cfbc 675b d1bb 686f 80bc
00000020: c533 52bd 4ef3 3c3c 100c f33c 540b 9bbb
00000030: 1330 4ebc ca7c b9bc bbee acbc 42dc 0b3d
00000040: ee8c 543c 05c2 e13c 7d27 4f3d a74e 54bd
00000050: 84ed c0bb 009f 1abd 630e c6bc d33f 2fbd
00000060: a37f 60bc 0bc8 88bd 9b12 02bd a8e8 a5bd
00000070: 69e9 173b 716c 04bd f932 57bc 2b2b 453d
00000080: 9ddf cebc 4189 dfbc 03b4 e2bc 8eae 40bd
00000090: 9d39 69bd fd61 143d 5bfd 863d c638 293d
000000a0: e9a6 25bc e440 473d 36dc 1c3d 7b40 953c
000000b0: 5e26 a03a 0a37 8e3c a074 2fbd f6c3 59bd
000000c0: 7f17 00bd 685c 113d 9df4 983d 5465 f3bc
000000d0: cd8a b7bc 9232 b23c 2b9a 01bc 8fe3 d9bb
000000e0: 5348 c83c caca ccbc 78a1 d4bb bdca 4bbd
000000f0: 3e7f 243d b404 5c3c 3278 a63c 7e9e 25bd
00000100: a2be 8dbc bf0f e1bb 9b62 90bc 0a2b 133c
00000110: 8b7d 8abc ddb5 29bd 301f e338 4f84 0b3c
00000120: bc33 0f3d aba7 713d 3525 0b3d 4af1 333d
00000130: b7ee 85bb 71d1 d7bc 8568 8c3c 7444 803d
00000140: ba8a fd3b 27d2 50bd ed35 63bc f2b8 393d
00000150: 2a6a 9cbc b609 173c 1f5b 893d b85d 293d
00000160: 9f68 bc3b 5038 8a3c 1757 c6bc 2a7a 643b
00000170: 8c21 e13b a726 d83c 2360 acbb 9f35 013d
00000180: be42 3abc 4269 08bd 35a5 8fbc 4ad9 93bd
00000190: b4f3 8fbd 4396 233d b6e3 e6bd 80e1 15bd
000001a0: f089 50bd 9852 e3bc ae0f edbb d867 9abd
000001b0: 8436 b3bc 5b27 5dbd f5ee c6bc 7844 5abd
000001c0: ee0b a4bc ddca 463b 946a 41b9 4319 77bd
000001d0: 50f1 b63c 6707 08bd 1a9e e73a a7b8 4a3d
000001e0: eaaa 4e3d f5b0 643d 7b38 4d3d ab55 fa3c
000001f0: bd4a f6bb ab87 e63b f3a0 4bbc a4f2 433d
00000200: b19e 173d da08 c63a 7f6b 93bc 12c5 98bc
00000210: fd71 88bb 90ae f33c 1d94 ba3c 06dd 8b3d
00000220: 6149 e33c e911 413d 5bff 8a3d c066 c13d
00000230: 4b3c a73d a1d7 a23d 6f8f 243d a268 5f3b
00000240: 4ec2 82bd 5305 17bd 522b 6bbb 004f 96bc
00000250: df50 48bc 3677 383d 9bc5 3dbc 1410 32bd
00000260: 3b1b 01bd 57f4 6ebc 659d 343d 0e34 c9bc
00000270: fbbd f0bc db39 e03b 799c 2a3d 2dff eb3c
00000280: 241c b83c 24c3 8bbc 2e3f 943b 9eb8 433c
00000290: a01f 02bb 86b1 55bc 5eb0 5cbc 6065 91bc
000002a0: 1e16 f2bb 0fdb 0f3c a609 a03b 69d5 45bc
000002b0: ae95 063d cd3d 0f3d 22a7 19bc 7aa5 19bc
000002c0: 8568 0abc 9cbc 4f3b 6176 febc a453 dbba
000002d0: 44e9 313d 37bc 623c 9baf 8f3c c76c 9fbb
000002e0: 0ea6 8a3d 6389 953d f650 ba3c a236 863d
000002f0: 3d47 8e3d 54e3 08bd 7c5e 85bd 01f3 a2bc
00000300: 5ebc 1abc b590 46bd 8cf4 4dbd 51f6 4ebd
00000310: e918 c4bd 253e 2ebd 91a7 d4bc cc32 babb
00000320: cd1a 5a3c cc0a a13c e870 d8bc 1bf1 20bd
00000330: e246 c53c 1e13 1f3c ded9 4d3b ead4 5abc
00000340: b03f cd3c 5197 11bd 7761 e9ba f074 383d
00000350: 957e 83bc 6876 01bc f5cb cbbc cdf1 8c3a
00000360: dc0d 02bd 532b c23c f7ae 28bc 23ab 6f3c
00000370: 7b44 20bd 66b8 d0bb 2dc1 733d 5921 3b3d
00000380: 2a58 ad3c e325 183d 272f 9bbb ffda 8bbc
00000390: cd81 2c3d dc2d 4d3c 8d9b 28bd 8ba9 38bd
000003a0: e097 373d 7835 09bb 5948 61bc 4200 d7bb
000003b0: 51e6 103c b6df 623d bafd 923d 82c4 213d
000003c0: cca0 0f3d 834d 6abc 8ab0 2dbd 1e93 8fbc
000003d0: e180 07bd af39 d23c f9eb 3f3a 8ba8 fbbc
000003e0: c860 2e3b ef9b 0abd da3f dabc 375d 1cbc
000003f0: e15f f33b b612 653d b126 5e3d fac9 4f3d
-0.023504956 -0.028016841 0.0045981356 -0.004056387 0.03338716 -0.025301406 -0.00638907 -0.015678123
-0.051318903 0.011532618 0.029668838 -0.004731575 -0.012584704 -0.022642512 -0.02110993 0.0341456
0.012973053 0.027558336 0.05057477 -0.05183282 -0.005887689 -0.03774929 -0.024176782 -0.042785477
-0.013702306 -0.0667878 -0.031756025 -0.08101016 0.0023179895 -0.03232998 -0.013134711 0.04813687
-0.025253111 -0.027287127 -0.027673727 -0.04704147 -0.05693971 0.03622626 0.065912925 0.04131391
-0.010110595 0.04864587 0.038295947 0.018219223 0.0012218466 0.017360229 -0.04283583 -0.0531654
-0.031272408 0.035488516 0.07468531 -0.029711403 -0.022405053 0.02175263 -0.007910292 -0.0066494416
0.02444855 -0.024999041 -0.006488975 -0.049753893 0.04016041 0.013428856 0.020320985 -0.040434353
-0.017302815 -0.006868332 -0.017625144 0.008982429 -0.016905567 -0.041433204 0.000108300126 0.008515432
0.034961447 0.05899779 0.03397103 0.043931283 -0.004087295 -0.026344987 0.017139683 0.062630564
0.0077374848 -0.050981667 -0.013867837 0.045342393 -0.019093592 0.009218624 0.06706833 0.041349143
0.0057497765 0.016872555 -0.02421145 0.0034862855 0.006870454 0.026385618 -0.005260484 0.031545278
-0.011368452 -0.033303507 -0.017534832 -0.07219179 -0.070289046 0.039938223 -0.11273901 -0.036592007
-0.050912797 -0.027749345 -0.007234535 -0.07539338 -0.021876581 -0.05399261 -0.024283865 -0.053287953
-0.02002522 0.0030333318 -0.00018445618 -0.060326826 0.022331864 -0.033210184 0.0017671019 0.049492504
0.050455965 0.055832822 0.050102692 0.030558428 -0.0075162337 0.007035216 -0.01242851 0.047838822
0.037016574 0.0015108839 -0.017995594 -0.018648658 -0.004163979 0.029746324 0.022775704 0.06829266
0.02774495 0.04713622 0.067869864 0.09443426 0.08165797 0.07951284 0.04017585 0.0034089466
-0.06384717 -0.036870312 -0.0035883975 -0.018348217 -0.012226312 0.045035563 -0.011582757 -0.043472365
-0.03152011 -0.014584622 0.044095416 -0.024560954 -0.029387465 0.0068428344 0.04165313 0.0288082
0.022474356 -0.017060824 0.004524133 0.011945872 -0.0019855276 -0.013042813 -0.013469784 -0.017748535
-0.0073878905 0.008780255 0.0048839627 -0.012074807 0.03285759 0.034971047 -0.0093782265 -0.009377832
-0.008447771 0.0031698113 -0.031062307 -0.0016733301 0.04343535 0.013838819 0.01753979 -0.004865262
0.06769954 0.07301595 0.022743683 0.06553389 0.069471814 -0.033419922 -0.06512162 -0.019891264
-0.009444324 -0.048477847 -0.050282046 -0.050527874 -0.09575064 -0.042539734 -0.025958808 -0.005682325
0.013312054 0.019658469 -0.026421025 -0.039292436 0.024081651 0.009709148 0.0031410377 -0.013356427
0.025054783 -0.035544697 -0.0017805536 0.045033395 -0.01605157 -0.007901765 -0.024877528 0.0010753215
-0.0317515 0.0237023 -0.010295621 0.0146282045 -0.039127808 -0.0063696383 0.0595104 0.0456861
0.021160204 0.037145507 -0.0047358456 -0.017072199 0.042115975 0.012523141 -0.04116397 -0.045083564
0.044822574 -0.002093641 -0.013750159 -0.00656131 0.008843974 0.05538913 0.07177301 0.039494045
0.035065457 -0.014300707 -0.04240469 -0.017526206 -0.033081893 0.025662271 0.00073212344 -0.030720016
0.002660798 -0.033840116 -0.026641775 -0.0095437085 0.007427201 0.055926047 0.054236118 0.05072973

encoder.block1.block.0.bias f4 [32]
00000000: db04 273e 0f56 cb3d c873 173e b0b0 c33d
00000010: 5c98 a3bd e3f4 94bd fc9d 9dbd c199 433d
00000020: 4014 4fbd b1e1 203d 2040 8a3c c670 7cba
00000030: 8b21 9d3d 43ca 283e 3b21 fb3c a9bc 913e
00000040: c61f 993e f04c 91bc a862 a33d 5613 263e
00000050: 3f4a 403d ecf7 f1bd 33f6 243c dc74 e6bd
00000060: 0612 cf3c 8159 073d f217 1e3d 1e00 edbd
00000070: 0f00 d53d c548 05bd 57e8 84bd 68b8 ca3e
0.16310446 0.09928524 0.14790261 0.09555185 -0.079880446 -0.07273271 -0.07696149 0.047754053
-0.05055642 0.039277736 0.01687628 -0.00096298417 0.076724134 0.16483407 0.030655494 0.2846425
0.29907054 -0.017736882 0.079778016 0.16218314 0.046945807 -0.118148655 0.010068464 -0.11252758
0.025277149 0.033044342 0.038597055 -0.11572288 0.10400402 -0.0325401 -0.06489628 0.39593816

encoder.block1.block.2.weight f4 [32]
00000000: 2cc0 713f de71 743f 2ffb 6a3f b87a 763f
00000010: ac1e 783f 3915 7a3f de7b 743f 32f5 7a3f
00000020: 4426 753f db4f 733f 68d6 723f cce9 593f
00000030: 6074 773f 82fc 753f 6fe1 763f 3b6c 7f3f
00000040: 16bd 713f a556 843f 7df6 6e3f ce54 703f
00000050: ba64 723f 0001 923f 78de 6e3f aa86 793f
00000060: 6b17 703f 6185 693f 0326 693f 4077 8f3f
00000070: 4b89 733f 075b 673f 347b 723f 1d86 7f3f
0.94433856 0.9548625 0.91789526 0.96281004 0.969218 0.97688633 0.95501506 0.9803039
0.95761514 0.95043725 0.9485841 0.8512237 0.9666195 0.9608842 0.96437734 0.9977452
0.9442915 1.0338942 0.9334486 0.938794 0.94684947 1.1406555 0.9330821 0.97471106
0.93785733 0.91219145 0.91073626 1.1208267 0.9513137 0.9037327 0.94719243 0.99814016

encoder.block1.block.2.bias f4 [32]
00000000: ce95 6cbc a013 2abe fd37 383d 29bc 2fbd
00000010: cb7e 89bc 5c8e 273e 2819 293d 6576 edbc
00000020: ef58 c1bc 01d2 093e a358 0e3e aa72 a73d
00000030: 531a bc3d e1f9 873d 4856 903d a1c6 913d
00000040: 7f3b 2dbd 23f0 6f3c 852f 983c e435 aebc
00000050: 97fc 50bd a3c9 a5bc 7ebd 183e 7fa4 19bd
00000060: 30bd 2b3d 3356 fd3c 80ef 20bd 3c62 b23c
00000070: 851c a9bc 0ae2 b0bc 6b88 373e bbc2 753d
-0.014440013 -0.16609049 0.04497527 -0.042904053 -0.016784092 0.163629 0.041283756 -0.028987119
-0.023601977 0.13459016 0.13901 0.08176167 0.091847084 0.066394575 0.07047707 0.071179636
-0.042293068 0.014644655 0.018577347 -0.021265931 -0.05102214 -0.02023775 0.14916036 -0.03751039
0.04192847 0.030924892 -0.039290905 0.021775357 -0.020643482 -0.021592159 0.17923133 0.060000163

encoder.block1.block.2.running_mean f4 [32]
00000000: 1f3e 353f 1f4c 203f bcee d53e 8710 4f3f
00000010: 940f a33e af40 4d3e ce83 1c3e d6c5 b23e
00000020: 1e2a a13e ac29 4a3f 3800 ae3e 989c 193e
00000030: 280e 093e e1db 143f 5b3b 243f 8e3f 4b3f
00000040: 774d 313f 7d74 fe3d 4545 1e3f 5ca1 3f3f
00000050: 2274 123f a8e3 1a3d 71ad 7b3e 8583 f03e
00000060: fb23 b63e 85d3 253f b655 383e 6074 253d
00000070: 2f5a 313f 30a0 843e 1017 943e d412 493f
0.70797914 0.6261615 0.41783702 0.80884594 0.31847823 0.20044206 0.15284654 0.34916562
0.31477445 0.78969836 0.33984542 0.15001142 0.13384306 0.5814801 0.6415307 0.7939385
0.69258827 0.12424562 0.61824447 0.7485559 0.57208455 0.037814766 0.24577881 0.4697534
0.35574326 0.6477588 0.18001446 0.040394187 0.69278234 0.25903463 0.28923845 0.78544354

encoder.block1.block.2.running_var f4 [32]
00000000: f461 bb3e adf0 fb3e 44a7 113e 35fd 303f
00000010: 4105 a43e 3e2d 4c3e 608e f93d e46d 933e
00000020: e402 683e 65e1 753f f185 d63e 62ba 913d
00000030: 8847 b13d 5f9d 093f 7e7e 2d3f 1b6b 2f3e
00000040: 55a0 1b3e 18dd 893d d21c 8e3e 4c3a f13e
00000050: 0c84 473f fcdf bb3c eb0e 153e 7677 163f
00000060: 1de7 bd3e 3911 003f 3e4b fa3d b6d7 b23c
00000070: 10ce 4b3e 4e18 323e 2356 893e 6161 2a3e
0.3659817 0.4920706 0.14223963 0.69136363 0.32035258 0.19939134 0.12185359 0.28794777
0.22657353 0.9604705 0.41899064 0.07115628 0.08656222 0.53755754 0.67771137 0.17130701
0.1519788 0.067316234 0.27756363 0.4711479 0.7793586 0.022933953 0.14556472 0.5877603
0.37090388 0.5002628 0.122213826 0.021831375 0.19902825 0.17392084 0.2682353 0.1663871

encoder.block2.block.0.weight f4 [32, 32, 3, 3]
00000000: 4a26 08bc 07c4 4e3b f4bb 383d f396 0e3d
00000010: b232 f5bc 2257 24bd 118e 58bd f130 3d3c
00000020: 3a86 36bd f9e0 083c 5174 c83b 0c79 8d3c
00000030: e8e7 14bd f20d 40bd 6eec 93bd b7d8 6dbd
00000040: 9aee 53bd dc39 9fbc 0a42 fe3c 8693 1bbd
00000050: 2305 033c 69be 0fbc 8f96 473d e723 d03c
00000060: aef1 8e3d 5f4a 663d 985f d5bc 0afd 81bc
00000070: 18ba 85bd 8145 8cbb 56d3 dbbc cb92 d9bd
00000080: c20c 11bc 2b67 a8bd 354c 24bd 2313 b0bd
00000090: 533b 383d 2001 6bbb 30cd 993d 41dc 0dbd
000000a0: 0d76 8bbc 7422 64bd 1f9e b63c 99a4 e73c
000000b0: 3240 1c3d e04a d53c b7aa 123d d5ce c8bc
000000c0: 1888 a33c b3cf 92bc e1b6 1abd 6516 203d
000000d0: cee2 0cbd 0f7e 2d3b d2bf e1bc 894d 07bd
000000e0: 00b6 613c 1b20 083d 626f 28bc 5cd3 bb3c
000000f0: 0d95 45bc 5782 7a3d 69f4 d73b f251 453d
00000100: 629e 00bd b0c7 8cbc 376c 57bd 811c 18bd
00000110: e057 213c 9792 033b b4e7 33bd 6032 4dbd
00000120: ca60 cabc 340c a7bb c8a8 513d 1132 c63c
00000130: 0236 d438 63a8 63bd d83e 7e3c 15ef c6bc
00000140: 6b2b 2d3d c1a0 883d 7933 3d3d f617 1fb9
00000150: 08c5 a5bc cb6a 71bb 99a3 e2bc d43f 71bc
00000160: c8c0 14bd 227c d43b 7393 033d b1d7 59bc
00000170: 156c 62bc 67b4 243d 3749 f8bb 0028 4bbc
00000180: 8919 0b3d 3d95 953c 9771 8cbc 35bb 803d
00000190: 51e9 cfbb 1ac5 e4bb 95e9 623c 6f6e 83bc
000001a0: 52d9 043d b21f 1cba e3bf 2e3d a21c 163c
000001b0: 6849 243d 87d7 e93a 7970 0a3d 3c55 f3bc
000001c0: cc38 313c 8e82 163c a05c 6b3d 22d1 443c
000001d0: afcb 0f3d 8188 e6bc 6848 293d e5c5 dd3a
000001e0: aa0e 883c ae32 b4bc 965d a239 691c 8b3d
000001f0: ad5a 1f3d 7f44 45bc 3fc4 0cbd 14ad cfbc
00000200: 6542 993b c888 da3a dbf5 473c 6dc1 b73b
00000210: 105c 2d3d 7981 b9bc 2c70 75bd 80a0 c03b
00000220: dd2d 50bc 23f2 003c 90b3 96bc 29d2 37bd
00000230: 8d6a 903c 8b5f 08bd a31e 39bd 565a 853c
00000240: 5b23 26bc 3a23 11bd acb5 273a 4e55 ffbc
00000250: d117 d3bc 89a1 fcbc 1ac6 f63b a305 75bd
00000260: 3597 cdbc 6675 953c 5b15 fbbc 2ac4 2bbd
00000270: 65ee 223c 956d 0f3d 7ee6 22bd 4bea d93b
00000280: 3141 6a3d 9e0f a33c d630 6c3d fade 6d3d
00000290: 05ed ab3d edac 143d aaa3 f4ba 7181 3b3b
000002a0: 9e9f eb3c 11ec f43c 68ec b838 fe0d 53ba
000002b0: 1285 8dbd fce2 99bc 4a51 363d 8ad0 bbbd
000002c0: b9e5 9f3b ff4b 65bd ba91 a43c 35d0 213d
000002d0: fbd5 8ebc 414b dabc e068 683d 04f5 46bc
000002e0: 2afd 23bd deba 58bd 6207 3a3d ab96 50ba
000002f0: 5ed6 033d 0d9e ce3c 2f5d e1bc c25c c53c
00000300: db4d a3bb 523d 52bd 8fcb f1ba 033d 593d
00000310: 9497 153d e8ac b23d bbe4 19bc 1bce 0a3d
00000320: 0619 a6bc 1b00 96bd 02bd 413a f296 773c
00000330: 0700 6f3d 1854 a7bc 9578 e13c acbe 42bd
00000340: d75b 00bd 46a9 8abd b73e 6dbc 6b63 763c
00000350: 800d 63bd 8135 4fbd 212d 95bc 16e5 5b3c
00000360: 91d7 43bd 2ab3 e4bc 02a7 04bd 0b9f 9f3c
00000370: 75e3 103d 3d37 6fbc 2856 58bc 55e6 983b
00000380: 14ee 49bd eb9b 37bd 7527 abbc 8c43 5abd
00000390: 8ed4 bdbc 1d47 86bd 8390 0a3c 2201 b5bb
000003a0: fb76 94bd 4357 35bd 1b96 c43c 9d4a 16ba
000003b0: 5b44 503c 3a84 4d3d ad2e 6b3b 9576 42bb
000003c0: f2ba 1a3d b3f6 4bbc 2f85 8b3c d44e cdbc
000003d0: f481 863c 72ac 49bc 8b92 ac3d 2922 cc3c
000003e0: 284d 583d b4ee 893d ee7c 03bd 1912 ec3c
000003f0: 3024 123d a6be 95bd 1a0e 14bd 8fb4 93bd
-0.00830991 0.0031549947 0.04510112 0.034811925 -0.0299314 -0.04012216 -0.05286986 0.011547313
-0.044561602 0.008354419 0.0061173816 0.017269634 -0.036353976 -0.0468883 -0.0722283 -0.058068004
-0.05174122 -0.01943677 0.03103735 -0.037982486 0.00799683 -0.008773425 0.04872757 0.025407745
0.069796905 0.05622327 -0.02604656 -0.015867729 -0.06529635 -0.0042807464 -0.026834171 -0.10623702
-0.008853139 -0.08222803 -0.04011174 -0.085974 0.04497845 -0.0035858825 0.075098395 -0.03463388
-0.017024064 -0.05569692 0.022292195 0.028276728 0.03814716 0.02603668 0.035807338 -0.024512688
0.019962355 -0.017921304 -0.037772063 0.039083857 -0.034395985 0.0026472842 -0.027557287 -0.033032928
0.013776302 0.033233743 -0.010280462 0.022927932 -0.012059462 0.061159458 0.0065904153 0.048173852
-0.031401046 -0.017185062 -0.052593436 -0.03713656 0.009847611 0.0020076388 -0.04392214 -0.05009687
-0.024704356 -0.0050978903 0.051186353 0.024193795 0.000101190075 -0.055580508 0.015517913 -0.024283925
0.042277735 0.066712864 0.046191666 -0.00015172348 -0.020235553 -0.0036837335 -0.0276659 -0.0147246905
-0.036316663 0.0064845243 0.03212304 -0.013296054 -0.013819714 0.040211108 -0.0075770873 -0.012399673
0.0339599 0.018259639 -0.017144008 0.06285707 -0.006344952 -0.006981504 0.013849636 -0.01604387
0.032433815 -0.00059556507 0.042663466 0.0091621 0.04010907 0.0017840721 0.03379867 -0.029703729
0.010816764 0.0091864 0.05746138 0.012012752 0.035106357 -0.028141262 0.041328818 0.0016919939
0.016608555 -0.021996822 0.00030968775 0.06792528 0.038904835 -0.0120402565 -0.034366842 -0.025351085
0.0046771043 0.0016672844 0.012204613 0.005607775 0.042324126 -0.022644745 -0.05992143 0.005878508
-0.012706247 0.00787023 -0.018396169 -0.04487816 0.017628932 -0.033294242 -0.045195233 0.016278427
-0.010140265 -0.035433985 0.00063976157 -0.031168606 -0.025768192 -0.030838745 0.0075309398 -0.05981983
-0.025096515 0.018244456 -0.030649832 -0.041935124 0.009944533 0.035016615 -0.039770596 0.0066502444
0.057191078 0.019904908 0.05766376 0.058073975 0.08394817 0.036297727 -0.0018664498 0.0028611089
0.028762635 0.029897721 8.817838e-05 -0.0008051096 -0.06910147 -0.018784992 0.044511117 -0.09170635
0.00487968 -0.05598068 0.02008902 0.039505202 -0.017436018 -0.026647212 0.05674064 -0.012143377
-0.040036358 -0.052912585 0.045417197 -0.00079570216 0.03218686 0.025221849 -0.027510254 0.024092082
-0.0049836463 -0.05132801 -0.0018447506 0.0530367 0.03652151 0.087243855 -0.0093929125 0.033887964
-0.020275604 -0.07324239 0.000739053 0.015111672 0.058349635 -0.020425841 0.027523318 -0.04754512
-0.031337585 -0.067705676 -0.014480284 0.0150383515 -0.055432796 -0.050588135 -0.018209996 0.013421318
-0.047813002 -0.027917463 -0.032385834 0.019485017 0.03537317 -0.014600572 -0.013204135 0.0046661296
-0.049299315 -0.04482643 -0.020892838 -0.053287074 -0.023172643 -0.065565325 0.008457306 -0.0055238167
-0.07249256 -0.044272672 0.023997357 -0.0005733164 0.01271161 0.05017493 0.0035885975 -0.0029672731
0.03777594 -0.012448954 0.01703128 -0.025062002 0.016419388 -0.012309181 0.08426388 0.024918633
0.052807957 0.06734982 -0.032101564 0.028817223 0.035679042 -0.07311754 -0.03614626 -0.07212173

encoder.block2.block.0.bias f4 [32]
00000000: 36d0 a03d ffbd 433c adb2 973d e97d c9bc
00000010: ddbc 673d f67e cc3d 1870 023d acc9 503d
00000020: 12f4 753d 64fe 72bb 7b6e 283c 1cb1 5c3d
00000030: 6007 393d 76cf fd3c 8448 dd3b 4ab1 c13d
00000040: e052 b9bb 9e9e 013d a36a ae3b 4632 7e3c
00000050: 699a c13c dd6e 9cba 33fd f33c ef91 a53a
00000060: f0c7 95bc ea61 a83d 6a38 6e3d 0fc6 833d
00000070: c89e 143d 484e aa3d bc25 033e c3b5 533d
0.07852213 0.011947154 0.074071266 -0.024596171 0.0565766 0.099851534 0.031845182 0.05097358
0.060047217 -0.0037077898 0.010280247 0.053879842 0.04517305 0.030982714 0.0067530293 0.09457643
-0.0056556314 0.03164541 0.0053227707 0.015514916 0.023633199 -0.0011934895 0.02978382 0.0012631993
-0.018283814 0.082218006 0.05815927 0.06434261 0.036284238 0.08315712 0.12807363 0.051687013

encoder.block2.block.2.weight f4 [32]
00000000: 70ba 743f 7269 783f 8376 773f 4822 7b3f
00000010: c8f3 783f 3bad 763f 28f0 783f 0be1 783f
00000020: 3b43 7a3f 72a8 803f 33aa 773f 361c 763f
00000030: d080 7a3f 297b 773f cfc1 773f 4086 773f
00000040: 3e96 7a3f 1c9d 793f f060 7f3f 5e09 7a3f
00000050: ad05 703f 829f 813f 82bf 783f 986e 8a3f
00000060: 4c8c 803f a8b5 743f bda5 7b3f 4a22 773f
00000070: 312a 763f 17ab 793f 5401 793f ef3c 773f
0.9559698 0.97035897 0.9666521 0.98099184 0.9724698 0.9635808 0.9724145 0.9721839
0.97758836 1.0051405 0.9674408 0.96136796 0.978528 0.966723 0.96780103 0.96689224
0.978855 0.97505355 0.9975729 0.97670543 0.9375866 1.0126803 0.9716722 1.0815
1.0042815 0.95589685 0.9829977 0.96536696 0.9615813 0.9752669 0.9726765 0.9657735

encoder.block2.block.2.bias f4 [32]
00000000: 5d3a 1d3d 0bbd 493d 27ba 4a3d d33a 35bd
00000010: 8899 43bd f23f 693d c7da 36bd 28d3 2dbd
00000020: 335f 2e3d 7cd0 40bd 2f77 563d 0715 883d
00000030: 34eb 2e3d 1437 2dbd 79df 2b3d 56b0 843d
00000040: dbe4 4dbd 03b0 23bd c24d 3cbd cfea 50bd
00000050: 7586 32bd c145 53bd 2b13 523d 6e70 383d
00000060: d2c1 42bd b9b8 513d f014 4c3d 6265 59bd
00000070: 5997 58bd 1247 4bbd b8c3 203d bbf3 403d
0.038385738 0.04925255 0.049493935 -0.044245552 -0.04775384 0.05694575 -0.044642236 -0.042437702
0.042571258 -0.047073826 0.052359756 0.06644636 0.042704776 -0.042288855 0.041961167 0.06478946
-0.05026708 -0.03996278 -0.045972593 -0.05100518 -0.04358526 -0.051580194 0.05128781 0.045029096
-0.047548123 0.051201556 0.049824655 -0.0530752 -0.05287871 -0.049628325 0.039249152 0.04710744

encoder.block2.block.2.running_mean f4 [32]
00000000: df5f 373f 5037 133f 317b 6e3f eac9 333f
00000010: 4d7f 463f 367a 6b3f 1591 323f 9787 4c3f
00000020: c365 603f 7258 cb3e 9946 793f f81a 523f
00000030: 5dae 173f e7de 103f f950 513f 3eea 243f
00000040: 8b15 283f 42c1 483f 58e3 153f d85b 493f
00000050: 0c7d 703f 485d 293f fdb0 2e3f 44a8 f33e
00000060: 7426 343f 25c0 843f 2f40 193f cbd6 563f
00000070: 946b 443f 2b34 1e3f ed1c 8e3f 33ae 5e3f
0.7163066 0.57506275 0.93156725 0.7022997 0.77537996 0.91983354 0.6975263 0.79894394
0.87655276 0.39715916 0.9737335 0.820724 0.5925043 0.5659012 0.8176418 0.64419925
0.6565787 0.7841989 0.58550024 0.7865577 0.93940806 0.6615796 0.6823881 0.47589314
0.70371175 1.0371138 0.5986356 0.839215 0.7672665 0.6179835 1.1102577 0.86984557

encoder.block2.block.2.running_var f4 [32]
00000000: 6e9a 2a3f 5db4 5c3f f8cd 0140 d8fb ca3f
00000010: 82c9 bd3f ea34 e23f 76f9 de3f 7f71 c63f
00000020: 60a5 e03f 75f5 e63e ada2 ef3f abcb c23f
00000030: 424b 963f f011 fb3e 17a0 c73f 97a5 4e3f
00000040: 0054 9a3f 7fb7 c93f 3f17 543f ceac d13f
00000050: c41c c73f 7d5b 943f 2559 d53f 98f4 7b3f
00000060: cf64 b73f a2a4 2640 2603 a63f 53d4 d43f
00000070: 41f9 b93f c30d 213f 0164 2b40 4d07 e33f
0.6664189 0.8621271 2.0281963 1.5858107 1.482712 1.7672398 1.741988 1.5503386
1.7550468 0.45109144 1.872152 1.5218405 1.1741717 0.49037123 1.559573 0.8072142
1.2056885 1.5759124 0.8284797 1.6380861 1.5555654 1.159042 1.666783 0.98420095
1.4327639 2.6037984 1.2969711 1.6627296 1.4529191 0.62911624 2.6779788 1.7736603

encoder.final.block.0.weight f4 [3, 32, 3, 3]
00000000: 10e1 b63c 870d c23b 31bc a03c 20dc 123d
00000010: b87e 123d acd0 d83c 0b6f 933c a5d0 2f3d
00000020: d266 d33c 154b 5e3d e814 263d 689b 8d3c
00000030: ccc0 8a39 5371 8d3d 0172 5dbc 9839 20bd
00000040: bf25 85bc a41a 193d d0f7 23bc 9c4d 3e3d
00000050: 35fd 023d a259 e83a cf3f dbbc 661e 763d
00000060: 34f8 5b3d f801 293d 6c0a fa3c 2822 edbc
00000070: d6d7 6cbd 167e a8bd 09a9 85bb c0e5 2abd
00000080: f23e 5ebd 5152 67bd acd1 b53b 10ed 5ebc
00000090: 35b6 fabc dedb d5bc 7348 0fbd 2340 df3c
000000a0: 1566 abbc 1aeb 56bd 0a64 5bbd 3362 94bd
000000b0: 50d0 61bc fbc7 e73c 0bdd 3f3c ea92 6e3d
000000c0: 4385 693d 6f1b 54bb a9e0 e23b 861b 5a3d
000000d0: 3081 2f3d 3249 e73c 571d 21bd f5b7 193c
000000e0: f074 79bd 7b82 6cbd 16ad c8bc 5674 c73b
000000f0: b6aa 80bd beec e4bc ea4f 56bd c03f 74bd
00000100: 67aa b2bb 9130 c93c 484c 8ebd a69f 31bd
00000110: be74 ccbc 269c 22bd 4e08 12bd 5c5d 15bd
00000120: 2898 413d fd02 2cbd 757f cc3c 93a9 dd3b
00000130: fd78 adba bfdd 7d3c 4a4d cc3c d8f5 ec39
00000140: 8a40 243a 56a1 27bc 8d06 d03c 3590 3d3d
00000150: 5d31 64bd 6990 26b9 bbbc e93b 4b59 65bd
00000160: 6701 14bd cf2a b2bc d5da 223d 0550 103d
00000170: d661 f83c f505 203d 7b4b 9c3c 1625 4d3c
00000180: 880c a53c 3fdf 183d 6241 823a faa9 0c3d
00000190: 6d97 6a3d 9337 f0bc 82bc 213c 2578 bf3c
000001a0: 01f5 333d c344 843c 6152 0e3c 5029 02bb
000001b0: 7005 ef3c 331d 1c3d 3ed2 36bc e4b5 823d
000001c0: 1ffe 8b3d fe40 1abd 7f56 203d e1eb 863d
000001d0: f370 57bc 7a7a 8dbd 3ed9 973c 31b0 2737
000001e0: 9546 7ebc 452b f63c e7b8 82bd d390 d5bc
000001f0: 570a c9bc 1f0d 8dbc 45e0 64bc 8288 723c
00000200: 008c 94bc 2949 5e3c b7e9 2b3d b329 c7bc
00000210: 0a09 8e3c 4660 5d3d 8473 84bc b2d8 4a3d
00000220: e18d f93b 3876 523c bc39 253b d34c 273d
00000230: 883f 3ebc 1e1f 153d 7a1c 153d b191 8b3d
00000240: 3177 18bd c2fb db3b 3393 733c e37c b3bb
00000250: 1e38 ed3c d857 66bc b9e3 abbd fe43 98bd
00000260: b2f8 97bd 878b 55bd f2f3 b83c cf7a 643c
00000270: 90f7 803c 852e 273b 64b3 46bd cd2d 07bd
00000280: e43d bcbc 92cd 94bc d94d 253d 9927 3b3c
00000290: 6364 6abc 5ffe d23c 1e13 19bc e1b2 7fbd
000002a0: 2f51 25bc 74aa 8cbd 430e 89bd e23a cbbc
000002b0: 649f 0cbd d174 1ebd b074 86bd 9b54 dbbc
000002c0: 61c3 ed3c 1233 17bd 7647 5cbd 246e de3c
000002d0: 0d5c 943b b90b 02bc d29e 803c 576a b0bc
000002e0: 76c2 bcbc f99f 27bd da43 d4bc 482e 46bd
000002f0: ccaf 8b3a ea43 3cbc a485 7e3b 4875 82bc
00000300: 3eac 56bd 521b 35bc c26d 523d 93e1 7dbc
00000310: 207b ec3a 2b35 04bd fdd9 86bc 8c6b 163d
00000320: 5879 853c 1f5d 9c3d 7474 2b3d 982b 3b3c
00000330: d4c9 863d 9f84 a53c 07e6 0e3b 71fc fb3c
00000340: 9eec 1b3d 18eb 8b3d 6404 893d fea3 583d
00000350: 5ab4 093d cf4e 58bd 41e6 c7bd 5d57 b5bd
00000360: 6f1a 9abc 8a18 8ebb 883a 36bd a913 34bd
00000370: 88d5 d93b 2a99 423d 10de 9fbd bd68 a3bd
00000380: e96f 78bd 06a3 17bb 88b6 ca3b 2009 c43c
00000390: f706 24bc c09b be3c c33c 313d a44e 4d3d
000003a0: 5b0b 843d 4bb4 0c3d 3c9a 93bc 0040 663d
000003b0: ab6e 2d3d 5a4e 1fbc 53e8 753c 40d0 e33c
000003c0: a2f7 31bd 864e 763d 0131 fb3c 99bb 45bc
000003d0: 2c84 7c3c afd7 8ebd 9fe0 ddbc ffd3 43bd
000003e0: 9b35 063d 4e06 65bd f48a ce3a 01be 1dbd
000003f0: c4d6 7ebd 8d04 1fbd f1d1 51bc ac4f e83c
0.022324115 0.0059220227 0.019620987 0.03585446 0.03576538 0.02646669 0.017997285 0.04292359
0.025805864 0.054270823 0.04054728 0.017286018 0.00026465056 0.069063805 -0.01351595 -0.039117426
-0.01625335 0.037378922 -0.010007814 0.046460733 0.03197976 0.0017726908 -0.026763825 0.060087584
0.0537035 0.041261643 0.030522548 -0.028946951 -0.057823025 -0.08227174 -0.0040789885 -0.041723013
-0.054259248 -0.056474987 0.0055486765 -0.013606325 -0.030604461 -0.026105817 -0.034981202 0.027252262
-0.0209227 -0.052470304 -0.0535622 -0.072452925 -0.013782576 0.0282936 0.011710416 0.058245577
0.057011854 -0.0032364985 0.0069237542 0.053248905 0.042847812 0.028233144 -0.03933462 0.009382238
-0.060902536 -0.057741623 -0.024496596 0.0060868664 -0.062825605 -0.027944919 -0.052322306 -0.05963111
-0.0054524424 0.024559291 -0.06948143 -0.043365143 -0.02495801 -0.039699696 -0.03565245 -0.036465988
0.047264248 -0.041995037 0.02496312 0.0067645996 -0.001323491 0.015494763 0.024939198 0.00045196596
0.00062657206 -0.010231337 0.025393749 0.046280105 -0.05571114 -0.0001588479 0.007133094 -0.05599336
-0.03613415 -0.021748928 0.039759476 0.035232563 0.03032009 0.03906818 0.01907896 0.012521049
0.020147577 0.03732228 0.0009937698 0.03434179 0.057273317 -0.029323375 0.009871604 0.023372719
0.043934826 0.01614607 0.008686633 -0.001986105 0.029177397 0.038113784 -0.011158524 0.06382349
0.06835579 -0.037659638 0.03914499 0.06587959 -0.013149488 -0.06908126 0.018536206 9.994998e-06
-0.015519758 0.03004993 -0.063829236 -0.026070034 -0.024541063 -0.01721817 -0.013969486 0.014803054
-0.018133163 0.013567247 0.041970935 -0.024311876 0.017338295 0.05404689 -0.016168363 0.049523063
0.0076157902 0.012845568 0.0025211414 0.04084475 -0.011611827 0.03640663 0.03640411 0.06814898
-0.037223045 0.0067133615 0.014866638 -0.005477534 0.028957423 -0.0140590295 -0.08393044 -0.074348435
-0.07420482 -0.052135017 0.02257726 0.0139452955 0.015743047 0.0025509906 -0.048510924 -0.033002663
-0.02297873 -0.01816443 0.040357444 0.011423015 -0.014306161 0.02575606 -0.009342937 -0.06242645
-0.010090156 -0.06868449 -0.06692173 -0.024808351 -0.034331694 -0.038685624 -0.06565225 -0.026773741
0.029023828 -0.03691394 -0.053779088 0.027152129 0.004527575 -0.007937365 0.015700731 -0.021535082
-0.023041945 -0.040924046 -0.02591126 -0.04838398 0.001065725 -0.011490801 0.003883698 -0.015925065
-0.052410357 -0.011053877 0.051374204 -0.015495676 0.0018042065 -0.032277267 -0.016461367 0.03672366
0.016293213 0.07634949 0.041859105 0.011423968 0.065814644 0.02020484 0.0021804587 0.030760022
0.038067453 0.0683195 0.066902906 0.05289077 0.033619262 -0.052809533 -0.09760714 -0.08854554
-0.018811433 -0.0043364214 -0.044489413 -0.043964062 0.0066477694 0.04750935 -0.07806027 -0.079789616
-0.0606536 -0.002313794 0.00618631 0.023930132 -0.010011426 0.023267627 0.043270838 0.050123826
0.064474784 0.03435163 -0.01801788 0.05621338 0.04234187 -0.00972327 0.015009004 0.027809262
-0.04344905 0.06013348 0.030663015 -0.012068653 0.015412372 -0.06974732 -0.027084647 -0.047809597
0.032765966 -0.055914216 0.0015757964 -0.03851128 -0.062216535 -0.0388227 -0.012806402 0.028358303

encoder.final.block.0.bias f4 [3]
00000000: ed50 983d 0c4e 4f3d 0fa7 3f3d
0.0743731 0.05061154 0.04679018

decoder.initial.block.0.weight f4 [32, 3, 3, 3]
00000000: 78a0 0abe 167e c43d 3b98 be3d 577c 15bd
00000010: eaa0 93bd 64fe 973d 9112 86bc 9e21 033e
00000020: 46fa 10be a32c ea3c 62f3 77bd ff1d 003e
00000030: 3b9e c33d 1c8b dfbd 8cb8 f4bd 0c4b b33d
00000040: 0e1a a1bc cfbe 823d aeab 8abc ea19 26bc
00000050: 1455 25be 4c74 ce3d 534a 1d3e aa8e 64bd
00000060: 36e7 c7bd 3975 02bd d754 b13d 6d0a 17bd
00000070: ed7b e63d e5ec ccbc ea0b b6bd 9774 35bd
00000080: 0530 a93d af26 d0bd 2ac0 0c3d b52c 393d
00000090: e94f d13d 4155 43be 98b4 ec3d fb72 523e
000000a0: 7a5c 813d 8609 3ebe 1514 6e3d 1bce d6bd
000000b0: 65fc 4b3c 49c9 2fbd 2e05 f93d b35b 17be
000000c0: 7ce7 00be 856c fbbd 446d 513e 9482 803c
000000d0: f029 c13d 3593 06bd d96a f1bd e122 10bd
000000e0: 4a86 dbbd 57c6 b8bc 6362 6e3c 36e6 3dbd
000000f0: 115a 333d e615 b13d c173 713d 6f09 f7bc
00000100: e28b dc3d ce17 99bb 0bf5 6cbd 389d 053d
00000110: 1bf6 84bd a07b e73b 679c 9cbd 2bed d1ba
00000120: dbbb b1bd f07a 35be bf3f 1cbe 6a48 1abd
00000130: 1151 3e3b 2233 013e 0135 62bd 96bf 173e
00000140: b42e 613d 6881 d0bd 0736 05be 0099 c53d
00000150: 9e02 1abb 2a1e 20bd ec76 0e3e fbde 1abe
00000160: a644 abbd 19a7 96bc db7b 6e3d 0275 c5bd
00000170: 0d90 10bd 6eb0 2abe b4e6 433d 5dd6 0c3d
00000180: b7f5 44bc c0d0 063e 5f3d f63d 7eae d33d
00000190: 6dab 003e 1e11 0a3e eeee 4ebe e013 623e
000001a0: a9e1 24be 5f4f 0ebb 82a1 d3bd a77f 54be
000001b0: 5776 853d 4827 643d d088 f93b d6dc 8abc
000001c0: d03c 66be dbac 143e 15b1 383d 3964 d0bd
000001d0: 1b73 613b 7351 e4bd d2ea 8abd 2743 13bb
000001e0: bce9 7c3d cc02 823e e26c 8abc 8f9c c1bd
000001f0: 9874 383e be27 0abe cd0b fd3c 15b3 7abd
00000200: bec7 053c 8939 923c 914d d4bc 7c71 a6bd
00000210: e16d b53d 3987 92bd 146f 563d e0f0 27be
00000220: fabf 283e 72fd 88bd a8e0 de3c 5b72 6a3d
00000230: 77d7 b5bd 46b9 b93c a778 7d3c 0eb7 073e
00000240: 2849 9c3c 34a3 d43d a933 2c3e 473a e63d
00000250: 6e79 a1bd f0f8 523d 9e74 0c3e 04eb 40be
00000260: c6b0 00be 0837 053e 2197 b23d 6b55 6fbd
00000270: 75dd e6bd 65ab 243e 802e cabd 9402 7abc
00000280: cf1e 373e d95d e83d df8b 063d f5bf ef3c
00000290: 3a2c 363d a310 1c3e e347 29bd 709b 873d
000002a0: 30b0 f23d c334 45be 09c7 edbd 06b9 7cbd
000002b0: d45d 46bc beda 1f3e da3f 86ba 6d2e a13d
000002c0: 0f3c 0cbd 6a00 113d 3c4a 303e 571d 293d
000002d0: 03f7 213e 8bc7 a13d dfd1 2dbe e4ec 883d
000002e0: ae74 c7bd 95a0 6bbd f54e a8ba d455 3b3e
000002f0: bb65 acbd 7c61 073e 7b5a dd3d b42c 81bd
00000300: b75f 013e 1d32 65be 6b6b e43d e551 11bd
00000310: f349 01be a906 9c3d 2e62 9e3d 33b4 853d
00000320: ee4f 06bd 3cfd 053e 3228 023e 55c3 00bc
00000330: 3bca a0bd fc96 8bbd ec6f 023e 9cfc 5ebd
00000340: 3175 873d 4b1e 87bd a2a9 063d 75a6 e83c
00000350: 17d0 1a3e 0634 1d3e 46a4 393e d3df 87bd
00000360: b940 0dbe b672 023e 56d0 d9bd 23c7 d2bd
00000370: f289 a53d 3dc5 c2bd 999f 1abe 706e 583d
00000380: 80b1 c7bd 1626 a33d 40b7 d43d 25d2 e93d
00000390: 1e22 1a3d f67f 1ebe 666f 2bbe df77 043d
000003a0: 38c8 043e 12dd 18bd fad4 3ebe 1509 60be
000003b0: 16e0 773c 6db5 213e 303d 5b3d 0356 1e3d
000003c0: 6d3a f03d 33c6 653d 61f0 f8bd 88ba 19be
000003d0: 9609 9fbd 8c58 1a3e 20c0 3c3d d66a 683b
000003e0: dfd2 c23d 7339 b5bd 2af7 28bd 4ff9 c1bd
000003f0: c315 143d 79c5 2c3d 7ebe d5bd d96e d2bd
-0.13537776 0.095943615 0.093063794 -0.036495533 -0.07208426 0.07421568 -0.016366275 0.12805793
-0.14157972 0.028585738 -0.060534842 0.12511443 0.095516644 -0.10915205 -0.11949262 0.087545484
-0.019665744 0.0638405 -0.016927566 -0.010138014 -0.16145736 0.100807756 0.15360384 -0.055800118
-0.09760897 -0.031850073 0.0865876 -0.036875177 0.11254106 -0.025015304 -0.08888991 -0.044300642
0.08261112 -0.10163628 0.03436295 0.04520865 0.1022032 -0.1907549 0.11557883 0.20551674
0.06316467 -0.1855832 0.05812462 -0.1048853 0.012450312 -0.04291657 0.12159191 -0.14781074
-0.12588304 -0.12276558 0.20451838 0.015687265 0.09431827 -0.03285523 -0.11787958 -0.035189513
-0.10718973 -0.022555513 0.014549824 -0.046362124 0.043787066 0.08646755 0.058948282 -0.030155865
0.10768868 -0.004672027 -0.05785088 0.03262064 -0.064922534 0.007064298 -0.07647019 -0.0016016116
-0.08678409 -0.17722678 -0.15258692 -0.037666716 0.0029040019 0.12617162 -0.05522633 0.14819178
0.05497618 -0.10180932 -0.13008891 0.09648323 -0.0023500095 -0.039091267 0.13912553 -0.15124123
-0.08362703 -0.018390225 0.058223587 -0.09641458 -0.035293628 -0.16668865 0.047827438 0.03438412
-0.012021474 0.1316557 0.12023424 0.10336016 0.12565394 0.13483092 -0.20208332 0.22077894
-0.16101708 -0.002171479 -0.103335395 -0.2075182 0.06516712 0.055701524 0.0076151863 -0.016951006
-0.22484136 0.14519064 0.045090754 -0.10175366 0.0034400884 -0.11148348 -0.0678307 -0.0022470446
0.061746344 0.2539276 -0.016897622 -0.09453689 0.18013227 -0.13491723 0.030889416 -0.061205942
0.008165298 0.0178497 -0.025915893 -0.08127114 0.08858848 -0.07154698 0.052352026 -0.1640048
0.16479483 -0.06688966 0.027206734 0.057237964 -0.08878987 0.022671353 0.01547066 0.13253424
0.019077852 0.10382691 0.16816582 0.11241584 -0.07884489 0.051506937 0.13716361 -0.18839651
-0.12567434 0.13009274 0.08720232 -0.05843107 -0.11272708 0.16081007 -0.098721504 -0.015259404
0.17882846 0.11346025 0.032848235 0.029266337 0.04447577 0.15240721 -0.041328322 0.06621444
0.11850011 -0.19258408 -0.116102286 -0.06169989 -0.012107331 0.15610787 -0.0010242418 0.07870183
-0.034236964 0.035400786 0.17215818 0.041287746 0.15816884 0.07899388 -0.1697459 0.06685808
-0.09739052 -0.05752619 -0.0012840914 0.1829446 -0.08417841 0.13220781 0.108082734 -0.063073546
0.12634169 -0.22382398 0.11153301 -0.03547849 -0.12625866 0.07618458 0.0773357 0.06528511
-0.03279107 0.13084882 0.12710646 -0.007859071 -0.078510724 -0.06815907 0.12738007 -0.054440126
0.06614149 -0.06597575 0.03287662 0.028399685 0.15118442 0.15351877 0.18129072 -0.06634488
-0.13794221 0.12739071 -0.1063544 -0.102918886 0.080829516 -0.095102765 -0.15099944 0.052839696
-0.09750652 0.07966249 0.10386515 0.11417035 0.037630193 -0.154785 -0.16741714 0.03234088
0.12967002 -0.037320204 -0.18635932 -0.21878465 0.01512911 0.15791865 0.05352515 0.038656246
0.11729894 0.05609722 -0.12155224 -0.15012562 -0.077655 0.1507284 0.046081662 0.003546407
0.09512877 -0.08848848 -0.04125134 -0.0947138 0.036153566 0.042180512 -0.10436724 -0.10275049

decoder.initial.block.0.bias f4 [32]
00000000: 186f 083e ce34 cb3d 8c7f 213e 1cfe 46be
00000010: a2ac fa3d 9936 af3c 3b3d 41be 7cfd 9d3c
00000020: f233 54be 7871 47be 1e7c 153e 20c0 4c3d
00000030: 26e9 653d 925f 853e 7dcc 763e acec fdbb
00000040: c4a3 1f3e 4bfd 5bbe 422f 143e 4809 093e
00000050: c761 813e 751e 29be 73bb 55be 9c6e 943e
00000060: 994e 6f3d 10ee 3f3e 39e1 8b3d 650b 04be
00000070: 311d 033e 1858 4abe 6f38 113e 46a9 ac3b
0.13323629 0.09922181 0.15771312 -0.19432873 0.12239958 0.021388339 -0.18871014 0.01928591
-0.2072294 -0.19476879 0.14598128 0.049987912 0.05613055 0.26049477 0.24101444 -0.0077491608
0.15589815 -0.21483342 0.14471152 0.13382447 0.2526991 -0.16515525 -0.20872287 0.28990638
0.058424566 0.18743157 0.06830067 -0.12894972 0.12804104 -0.19760168 0.14181684 0.0052692024

decoder.initial.block.2.weight f4 [32]
00000000: 073a 803f 2212 893f 2d3d 5f3f 0fe1 723f
00000010: a7d9 813f 8ce0 743f d0c4 663f c71f 793f
00000020: 6765 7d3f 7bdd 743f 9a14 813f cd70 5f3f
00000030: bdcd 663f 7a1d 833f a619 5f3f 043b 443f
00000040: 7cb2 843f e6b1 743f 3fa4 763f abb8 533f
00000050: 477a 7b3f 6b86 673f 606a 693f 7602 7e3f
00000060: 2b80 663f 8167 7f3f 2ae1 773f 9302 6d3f
00000070: 47c9 693f caf2 713f 2eb5 7f3f afc5 563f
1.0017709 1.0708659 0.8720272 0.9487466 1.0144547 0.9565513 0.9014406 0.97314113
0.9898285 0.9565045 1.0084412 0.87281495 0.9015768 1.024337 0.8714851 0.7665255
1.0366969 0.9558395 0.9634437 0.82703656 0.98233455 0.9043948 0.9117794 0.99222505
0.9003932 0.9976731 0.9682795 0.9258205 0.9132275 0.9451109 0.99885833 0.8389539

decoder.initial.block.2.bias f4 [32]
00000000: a936 363e f832 943d 72f1 443c 0a33 b6bd
00000010: d065 2bbe 6c5e c5bd 4530 dc3d 4afb 99bd
00000020: 57af 21be eb52 6abc e73c c8bd a1c7 84bd
00000030: 9c58 48bd a341 c3bd 3d6f 753d 59f2 e2bc
00000040: 5c06 c8bd 8b45 7d3d fe1d ef3d f787 1abd
00000050: 67a5 983c c742 123e e74e c33d 433a 3bbe
00000060: 57d0 f0bc 885d 553d d9f3 81bd 96cf 653d
00000070: bdf9 ccbc 0038 343e 7719 063d 320c afbd
0.17794289 0.07236284 0.012020456 -0.08896454 -0.16738057 -0.0963715 0.10751394 -0.07518633
-0.15789543 -0.014301996 -0.09777241 -0.06483389 -0.04891263 -0.095340036 0.05992054 -0.027703451
-0.09766838 0.0618339 0.116756424 -0.037727322 0.018633557 0.14283286 0.09536534 -0.18283944
-0.02939622 0.05209115 -0.063453384 0.056106173 -0.025021428 0.17599487 0.03273913 -0.08547248

decoder.initial.block.2.running_mean f4 [32]
00000000: fde9 1e3e 435a dc3d 5133 fa3c fc49 55bb
00000010: 6bab 003e 3d39 9b3e ab5d 873d 8af5 c23e
00000020: 3ba2 76bb 8875 76bb 054f 2d3e 5581 353e
00000030: b348 1e3e a93e 773e 0cc4 693d 0f50 de3b
00000040: 971f 343e e4a9 c43d f2f7 373e ed2c ed3c
00000050: 0c60 9b3e 4e3f 023d 078b 78bb f762 ae3e
00000060: fa20 633e d0fa d93e d0f3 813e 14c3 cb3d
00000070: f6f7 223e 9c86 5dbb ad87 363e c26e 02bb
0.15518947 0.107594036 0.030542048 -0.0032545319 0.12565391 0.30317107 0.066096626 0.38077956
-0.0037633318 -0.0037606675 0.16924675 0.17725118 0.1545742 0.24144997 0.05707173 0.006784446
0.17590176 0.096027166 0.17965677 0.028952086 0.30346715 0.031798653 -0.0037924664 0.3405988
0.22180548 0.42574167 0.25381327 0.099493176 0.15914902 -0.0033802157 0.17825194 -0.0019902443

decoder.initial.block.2.running_var f4 [32]
00000000: 2c08 ca39 cffb 4539 447d fc3a a249 9a35
00000010: 5822 7a39 77df 763c c788 b73b bf4f c23c
00000020: d68b 6a35 4061 1a35 d1b6 033a 6069 ab3b
00000030: dac7 6d3b ba21 263a 0e9e 593b 94db 4139
00000040: b4d7 9239 a51c 153c 96f3 4a3a 7d4e c23a
00000050: 642b cf3a caa3 0f3b 2276 3135 877d 153b
00000060: 2691 003c 2a2d 1b3c 1a53 bb3b 1c4d e33b
00000070: 1a1e 5b3a 8675 e034 a903 2c3a cc82 f839
0.0003853453 0.0001888119 0.0019263406 1.1495324e-06 0.00023854652 0.015067927 0.005601022 0.023719667
8.737528e-07 5.751099e-07 0.0005024495 0.0052310675 0.003628245 0.0006337423 0.003320578 0.00018487714
0.00028008 0.009101068 0.00077419856 0.0014824417 0.0015805778 0.0021917694 6.6109544e-07 0.0022810416
0.007847106 0.009471217 0.0057166936 0.0069366824 0.00083586725 4.180876e-07 0.00065618247 0.00047399697
