results/models/archived/failed-long/DenseSteganoGAN/6/epoch_32.pth (torch, 382751 bytes, 59 tensors)

encoder.initial.block.0.weight f4 [32, 3, 3, 3]
0	0x3e321c84	0.1739369
1	0x3cb32ad9	0.021871017
2	0x3e274f2e	0.16338798
3	0xbcfc066f	-0.030764787
4	0x3db78f00	0.08962822
5	0x3e3349c1	0.17508604
6	0x3d3d20cf	0.046173867
7	0x3d88f2a6	0.066869065
8	0x3da103ec	0.07862076
9	0x3dfadadb	0.122487746
10	0xbd9d9fb3	-0.07696476
11	0x3dc27040	0.09494066
12	0xbdc9c44f	-0.09851896
13	0x3e0d88ea	0.1382176
14	0xbd041b6e	-0.03225272
15	0x3e512db4	0.2042759
16	0xbd066c5c	-0.032818183
17	0x3e0454de	0.12923
18	0xbe211690	-0.15731263
19	0x3e1b24f0	0.1515081
20	0xbde2c31f	-0.11072373
21	0xbd56d557	-0.05244955
22	0x3d277a79	0.040888283
23	0x3e5b95c1	0.21443845
24	0xbdc3f21e	-0.095676646
25	0x3e554a74	0.20829183
26	0x3de06204	0.10956195
27	0xbd8fba2c	-0.07017931
28	0xbd1a8d93	-0.037732672
29	0xbcbadc01	-0.022809984
30	0xbe1db3ae	-0.15400574
31	0x3d6a2d23	0.057171952
32	0x3c244316	0.01002576
33	0xbd3b6619	-0.045751665
34	0x3e214877	0.157503
35	0x3d109209	0.03529552
36	0x3d80b7bf	0.06285047
37	0xbcdb8733	-0.026797866
38	0xbe1bbd1c	-0.15208858
39	0x3b8567a1	0.0040711914
40	0x3d48a2a5	0.048983235
41	0xbdcd017f	-0.10010051
42	0x3d20323b	0.039110404
43	0xbe0a5a80	-0.13511086
44	0xbc4a4bfb	-0.012347217
45	0xbcd5bd76	-0.026091319
46	0xbd9b0f37	-0.075712614
47	0x3de313e2	0.11087777
48	0x3e21d0db	0.15802328
49	0xbe0b2b33	-0.13590698
50	0xbd8031b9	-0.06259484
51	0xbd523216	-0.051317297
52	0x3d7e4b40	0.062083483
53	0x3d0485cb	0.032354157
54	0xbca496ce	-0.02009144
55	0x3e1be508	0.15224087
56	0x3dedafe5	0.11605815
57	0x3e0af14a	0.13568607
58	0x3d3c80a6	0.046021126
59	0x3e6195f4	0.22029859
60	0x3dabf059	0.08395452
61	0xbe121bee	-0.14268467
62	0x3e07ec73	0.13273792
63	0x3e0036e3	0.12520938
64	0x3ccfc6d6	0.025363367
65	0xbd0308ba	-0.031990744
66	0xbd951698	-0.072797
67	0x3c76a9c1	0.015055121
68	0xbd43819e	-0.047731034
69	0xbcf21342	-0.029550198
70	0x3e2ca6f2	0.1686056
71	0xbd9354bc	-0.07193896
72	0x3d82c1bf	0.063846104
73	0xbe0786a5	-0.13234957
74	0xb905a415	-0.00012744994
75	0x3dc63463	0.09677961
76	0x3e50da6a	0.20395818
77	0xbde69be6	-0.11260204
78	0x3ddae960	0.10689044
79	0x3e486c60	0.19572592
80	0x3da552a2	0.080724016
81	0x3dc34d6d	0.09536252
82	0xbcace83b	-0.02110683
83	0x3d85cc86	0.065331504
84	0x3d135fe9	0.03598014
85	0x3e36c491	0.17848422
86	0x3dc5ed32	0.09664382
87	0x3de32aef	0.11092173
88	0xbc8b5737	-0.01700936
89	0xbd2674df	-0.0406388
90	0x3da3313c	0.07968375
91	0x3d48d80f	0.049034175
92	0x3ce2c899	0.027683543
93	0x3d311da5	0.04324116
94	0x3e00cad1	0.12577368
95	0xbe0993d3	-0.13435297
96	0x3ca7347d	0.02041077
97	0x3e36b3a6	0.17841968
98	0x3dfa9703	0.122358344
99	0xbd651ca2	-0.05593551
100	0x3db1d6cd	0.08683548
101	0xbc54acdd	-0.012980667
102	0xbdf5800b	-0.11987313
103	0x3cda57e9	0.026653247
104	0x3e57cb3d	0.21073623
105	0x3dca56b7	0.09879821
106	0x3c69e595	0.014275928
107	0xbdb2ba88	-0.08726984
108	0x3e3de102	0.18542865
109	0x3e03629e	0.12830588
110	0x3d9ac4ba	0.07557054
111	0xbe0029d1	-0.12515952
112	0x3e04191c	0.12900203
113	0x3d9e389b	0.077256404
114	0x3dfd2fc1	0.12362624
115	0x3dd8a646	0.10578589
116	0x3cbaf6ad	0.022822702
117	0xbc7436b0	-0.014905617
118	0xbc210034	-0.009826709
119	0x3c026fed	0.0079612555
120	0x3e17f325	0.14838846
121	0x3df462f7	0.119329385
122	0x3db9ebae	0.090781555
123	0xbd8ea90e	-0.069658384
124	0x3da44327	0.08020621
125	0x3e390749	0.18069185
126	0xbddee63b	-0.10883757
127	0xbd176a71	-0.036966745
128	0x3dd7bc4e	0.10533963
129	0x3daf3867	0.0855568
130	0x3d82e7dc	0.0639188
131	0x3cd5f2a8	0.026116684
132	0x3c6484be	0.013947664
133	0x3d553543	0.052052747
134	0x3de6d739	0.11271519
135	0xbbc8f967	-0.0061332467
136	0xbd350981	-0.044198517
137	0xbd26aeaa	-0.040693916
138	0x3dabbe2a	0.0838588
139	0x3e88e93e	0.2674045
140	0x3d0943eb	0.033512037
141	0xbc0dfb74	-0.008665908
142	0x3d8ad806	0.067794845
143	0x3e18d779	0.14925946
144	0xbd7e3510	-0.062062323
145	0x3ddcef4f	0.10787832
146	0x3e37c070	0.17944503
147	0x3e56e074	0.2098406
148	0xbb00ad55	-0.0019634564
149	0xbdc1bf50	-0.09460318
150	0x3da5101f	0.080597155
151	0x3dff96df	0.12479948
152	0x3db03557	0.08603924
153	0x3c9206ca	0.017825503
154	0x3e092b10	0.13395333
155	0x3e47be47	0.19506179
156	0x3e2acd7d	0.1667995
157	0x3e5f897d	0.21829791
158	0x3d8c6e71	0.068570025
159	0x3d97b3ed	0.07407365
160	0x3e1dd68a	0.15413871
161	0xbddd930d	-0.10819063
162	0x3dabec24	0.083946496
163	0x3de6884c	0.11256465
164	0xbdeadf0b	-0.11468323
165	0x3d91563c	0.07096526
166	0xbe0fc56b	-0.14040153
167	0xbd28a891	-0.041176382
168	0xbdcce95b	-0.100054465
169	0xbdffdae2	-0.124929205
170	0xbd1d3c36	-0.0383875
171	0x3ce38acd	0.027776146
172	0xbba13666	-0.004919815
173	0x3df3d484	0.119057685
174	0x3c0ec434	0.008713771
175	0xbbb0cdb8	-0.0053956173
176	0xbdb6fbf0	-0.08934772
177	0xbe03addc	-0.12859291
178	0x3e1d1f60	0.15344
179	0x3bc9f56a	0.006163289
180	0x3cefd577	0.029276593
181	0x3d5b9967	0.053613093
182	0xbd7f4ccc	-0.0623291
183	0xbe149481	-0.14509775
184	0x3d0eeb88	0.03489259
185	0x3dfabcf9	0.12243075
186	0x3e2b9ea7	0.1675974
187	0xbe0b9b9f	-0.13633583
188	0xbdd24283	-0.10266592
189	0x3cdb599f	0.026776133
190	0xbcee3606	-0.029078495
191	0x3cdf73f8	0.027276978
192	0x3e1e3c18	0.15452611
193	0x3dd3d697	0.10343664
194	0x3d0d9637	0.034567084
195	0xbe3ba705	-0.18325432
196	0xbc6a4499	-0.0142985815
197	0x3e1ed2b2	0.15510061
198	0xbd42ce6b	-0.047560137
199	0x3c9aa993	0.018879687
200	0xbe19ccc5	-0.1501952
201	0xbc542006	-0.012947088
202	0xbddd429e	-0.10803722
203	0x3d9ff45f	0.07810282
204	0xbb0708f2	-0.0020604697
205	0x3e6cd62f	0.2312858
206	0xbc3a806a	-0.011383155
207	0xbe1b99df	-0.15195416
208	0xbc8fd4d2	-0.017557535
209	0x3e050bda	0.12992802
210	0xbe106f08	-0.14104855
211	0xbdab4e56	-0.08364551
212	0x3c293ff9	0.010330194
213	0x3e2aec66	0.16691741
214	0x3cb44305	0.022004614
215	0x3daddaa6	0.084889695
216	0xbd0bce47	-0.03413227
217	0x3e33a113	0.17541914
218	0x3e02a75a	0.12759152
219	0x3d20f9d3	0.03930075
220	0xbdacb73d	-0.084333874
221	0x3c9ba1af	0.018997995
222	0x3e392146	0.18079099
223	0x3dbcd179	0.09219641
224	0x3d07485a	0.033027984
225	0x3e02090b	0.12698762
226	0x3dcc1d6c	0.09966549
227	0x3d9710e9	0.07376272
228	0x3e74d755	0.23910268
229	0x3d34191a	0.04396925
230	0x3e41be51	0.18920256
231	0xbd607571	-0.0547995
232	0x3d63aede	0.05558669
233	0x3e27bfd0	0.16381764
234	0x3e362219	0.17786445
235	0x3d5539d8	0.052057117
236	0x3db97d6e	0.09057127
237	0xbdb719a1	-0.08940435
238	0xbd8a4b2b	-0.067526184
239	0xbd20e998	-0.039285272
240	0x3e3801d6	0.1796945
241	0x3e33476d	0.17507716
242	0x3dd09b51	0.10185874
243	0xbd36a569	-0.04459134
244	0x3e328c3c	0.17436308
245	0xbe2e2995	-0.1700805
246	0x3d7ac188	0.061219722
247	0xbe16d890	-0.1473105
248	0x3e01a984	0.12662321
249	0xbd2797b7	-0.04091617
250	0xbde37d3e	-0.111078724
251	0xbdc22310	-0.09479344
252	0xbd0b1cb0	-0.033962905
253	0xbd1ddabb	-0.038538676
254	0xbda55d7a	-0.0807447
255	0xbd7dcddc	-0.0619639

encoder.initial.block.0.bias f4 [32]
0	0x3d952548	0.072825015
1	0x3ebe745d	0.37198153
2	0x3d5f5cf6	0.054532014
3	0x3d0d19bd	0.034448374
4	0x3e26fe8c	0.1630804
5	0x3c12a3df	0.008950203
6	0x3ec72723	0.38897046
7	0x3e889e9b	0.26683506
8	0x3c08c7f2	0.008348452
9	0xbe512626	-0.20424709
10	0x3d8ef0ea	0.069795445
11	0xbe5de7d8	-0.21670473
12	0xbe6d7fc7	-0.23193274
13	0x3d3ede81	0.046598915
14	0xbe1b6e76	-0.15178856
15	0xbe87dba2	-0.26534754
16	0x3c7f610f	0.015587105
17	0xbe5c00a5	-0.21484621
18	0x3d0313ce	0.03200131
19	0x3df8ef5e	0.12155031
20	0x3ec70844	0.38873494
21	0x3d8a7b82	0.067618385
22	0x3b55c933	0.0032621145
23	0x3f00138c	0.50029826
24	0x3e8ab193	0.27088603
25	0x3d6fa591	0.058507506
26	0x3af9c4b4	0.0019055814
27	0x3dbc2a3f	0.09187745
28	0x3c4013ab	0.011723439
29	0x3d2c5967	0.04207745
30	0xbe4f53dd	-0.20246835
31	0x3c63cb15	0.013903399

encoder.initial.block.2.weight f4 [32]
0	0x3f734a9f	0.9503574
1	0x3f3f427b	0.74710816
2	0x3f6a546d	0.91535074
3	0x3f76790b	0.96278447
4	0x3f742559	0.9536949
5	0x3f5cefcb	0.86303395
6	0x3f4858b0	0.78260326
7	0x3f3f2ea2	0.7468053
8	0x3f718ea8	0.943583
9	0x3f869b82	1.0516207
10	0x3f66d9e3	0.9017622
11	0x3f827f8c	1.0195174
12	0x3f80d65f	1.0065421
13	0x3f783b87	0.9696583
14	0x3f88c7bf	1.0685958
15	0x3f874d43	1.0570453
16	0x3f557530	0.8338194
17	0x3f793142	0.97340786
18	0x3f7832f4	0.9695275
19	0x3f63f268	0.8904176
20	0x3f50f671	0.8162604
21	0x3f684293	0.90726584
22	0x3f685525	0.9075492
23	0x3f5ca21f	0.8618488
24	0x3f467d6b	0.7753512
25	0x3f71d3c9	0.94463784
26	0x3f6692ec	0.90067935
27	0x3f737643	0.9510233
28	0x3f65980e	0.8968514
29	0x3f764c4c	0.9621017
30	0x3f8628d1	1.0481206
31	0x3f7111f7	0.9416804

encoder.initial.block.2.bias f4 [32]
0	0x3cd29cde	0.025709566
1	0xbb808491	-0.003922053
2	0x3ce9176d	0.028453553
3	0xbb21afe1	-0.0024671482
4	0x3cddbfa2	0.027068917
5	0xbbf64a64	-0.0075161923
6	0xbc594eaa	-0.013263384
7	0x3dc0515c	0.09390518
8	0xbd33f3ee	-0.0439338
9	0xbce605c5	-0.028078923
10	0x3d551f9b	0.052032094
11	0xbd058b6e	-0.032603674
12	0x3c080d9c	0.008304026
13	0x3c570f11	0.013126151
14	0x3c3c6423	0.011498484
15	0xbcb9563a	-0.022624124
16	0xbd8a4bb9	-0.06752724
17	0xbd005fbe	-0.031341307
18	0xbca66144	-0.020310052
19	0x3cfa9e78	0.030593142
20	0xbd16d647	-0.036825445
21	0xbd311f13	-0.043242525
22	0xbd25a4b7	-0.040440287
23	0x3c9cff91	0.019164832
24	0x3cbaa3d3	0.022783196
25	0x3b9c979c	0.0047788154
26	0xbc394b3f	-0.011309444
27	0x3cb6dc51	0.022321852
28	0x3d29ffdf	0.041503783
29	0x3bb10474	0.005402142
30	0xbb5b5b6b	-0.0033471237
31	0xbb7c6841	-0.0038514289

encoder.initial.block.2.running_mean f4 [32]
0	0x3f358266	0.709021
1	0x3e6e5192	0.23273304
2	0x3f1443b3	0.579158
3	0x3f060822	0.5235616
4	0x3f4f29a5	0.8092292
5	0x3f4f09ba	0.80874217
6	0x3e91167f	0.28337476
7	0x3ec910f8	0.3927076
8	0x3f5624c2	0.8364984
9	0xbb5aff43	-0.0033416308
10	0x3f22afd4	0.6354954
11	0xbb67ce9c	-0.0035370952
12	0xbb9cfe6d	-0.004791072
13	0x3f181dde	0.59420574
14	0xbb25b687	-0.0025285797
15	0xbb704491	-0.0036661963
16	0xbac62a4a	-0.0015118804
17	0xbbaa4e57	-0.005197327
18	0x3f2f164e	0.6839341
19	0x3f35b748	0.7098279
20	0x3e823e54	0.25438178
21	0x3f1d6d33	0.6149475
22	0x3f3d86bb	0.7403371
23	0x3e9a61b7	0.30152676
24	0x3e488abd	0.19584174
25	0x3f328bb0	0.69744396
26	0x3f26481a	0.6495377
27	0x3f561d04	0.83638024
28	0x3f17a122	0.59230244
29	0x3f26d9e5	0.6517623
30	0xbb669412	-0.0035183472
31	0x3f3bc117	0.73341507

encoder.initial.block.2.running_var f4 [32]
0	0x3dca63d9	0.09882326
1	0x3bac6707	0.0052613053
2	0x3d891e9b	0.06695291
3	0x3d6eccfc	0.058300957
4	0x3dcfb1e8	0.10141355
5	0x3e272621	0.16323139
6	0x3b879ceb	0.004138579
7	0x3bc3cf2f	0.005975626
8	0x3e2bcb23	0.1677671
9	0x34fa236b	4.65919e-07
10	0x3da04e94	0.078274876
11	0x3511ef8f	5.4365313e-07
12	0x35d891b3	1.6135658e-06
13	0x3d962282	0.073308006
14	0x34967510	2.802485e-07
15	0x34c57972	3.6782473e-07
16	0x36d239cc	6.265216e-06
17	0x361cadfb	2.3347081e-06
18	0x3dd41011	0.10354627
19	0x3daf77f5	0.08567802
20	0x3b965141	0.004587323
21	0x3d98a4f9	0.07453341
22	0x3e06d5e2	0.13167527
23	0x3c1fb890	0.009748593
24	0x3b079fec	0.0020694686
25	0x3dc96113	0.098329686
26	0x3dda128b	0.10648068
27	0x3e088fcb	0.13336103
28	0x3daad310	0.08341038
29	0x3db993eb	0.09061416
30	0x351cc829	5.84058e-07
31	0x3e011f92	0.126097

encoder.block1.block.0.weight f4 [32, 38, 3, 3]
0	0x3cd503ad	0.02600273
1	0x3b5023ad	0.0031759546
2	0x3d8d5c54	0.06902376
3	0xbce3638c	-0.027757429
4	0x3b9111b3	0.0044271587
5	0x3c6adf7d	0.01433551
6	0x3d2e382f	0.04253405
7	0x3d447c3b	0.047970038
8	0x3d95b92b	0.073107086
9	0xbca8d6ef	-0.0206103
10	0xbcdb93e0	-0.02680391
11	0xbc8a5db9	-0.016890394
12	0xbd531360	-0.05153215
13	0x3ca5230d	0.020158315
14	0xbc42c3e9	-0.011887529
15	0xbb48314d	-0.0030546964
16	0x3c9edd70	0.019392699
17	0x3cb5043c	0.022096746
18	0xba8dbb02	-0.0010813179
19	0x3d0878f5	0.03331848
20	0x3d44841a	0.047977544
21	0xbd0826c0	-0.03324008
22	0x3d0a9a8b	0.03383879
23	0x3ce74b62	0.028234188
24	0x3d60998f	0.054833945
25	0xbcc77798	-0.024349019
26	0x3babce3a	0.00524309
27	0xbb67ad7d	-0.003535121
28	0x3c488608	0.012238987
29	0x3c0062cd	0.007836056
30	0xbc059ede	-0.008155553
31	0xbc55e38b	-0.013054739
32	0x3d495c08	0.049160033
33	0xbc15213b	-0.009102161
34	0xbb9fc178	-0.004875358
35	0xb914be31	-0.00014185232
36	0x3c8e7bd3	0.017393028
37	0x3ceab2b0	0.028649658
38	0x3a801648	0.0009772265
39	0x3cf12109	0.029434698
40	0xbd01c51a	-0.03168211
41	0x3ca5efbd	0.020255918
42	0x3c9591fc	0.018258087
43	0x3ca06542	0.019579533
44	0x3d19b400	0.037525177
45	0x3c7484e9	0.014924266
46	0xbc922d3b	-0.017843833
47	0x3b9265d0	0.0044677034
48	0xbc9a3e43	-0.018828517
49	0x3d88aaa9	0.06673176
50	0x3d366c67	0.044536974
51	0xbc357097	-0.011074207
52	0x3d8641fb	0.065555535
53	0xbd15aa3b	-0.036539298
54	0xbade60bd	-0.0016966086
55	0xbd20a880	-0.039223194
56	0x3cf4e4c8	0.029894248
57	0xbd07f515	-0.033192713
58	0x3d3cc9c6	0.046090864
59	0xbcc5bb1d	-0.024137074
60	0xbd0e9e02	-0.034818657
61	0xbce73719	-0.028224515
62	0xbcefea4a	-0.029286522
63	0x3caa6df4	0.020804383
64	0x3d2577e7	0.04039755
65	0x3ca388cd	0.019962693
66	0xbcee321c	-0.029076628
67	0xbc92c321	-0.01791531
68	0x3ba40351	0.005005278
69	0xbcef0b35	-0.029180149
70	0xbc473131	-0.012157724
71	0x3d21b0b5	0.03947516
72	0x3d33fff5	0.04394527
73	0x3d2f3ec2	0.04278446
74	0x3cb8630a	0.022508163
75	0xbbeccd00	-0.0072265863
76	0xbccbc7fa	-0.02487563
77	0x3c82b0c5	0.01595343
78	0x3bb91aee	0.005648962
79	0x3d8f0c60	0.06984782
80	0xbcf18dbe	-0.029486533
81	0xbd814fb8	-0.06314033
82	0xbd6a5e1a	-0.05721865
83	0xbd33e614	-0.04392059
84	0x3d942ba5	0.07234887
85	0xbdd71cae	-0.10503517
86	0xbd1e7ec8	-0.038695127
87	0xbc7d5d1c	-0.015464094
88	0x3bd8f488	0.0066209473
89	0x3cc3c99c	0.023899846
90	0x3ce6cf9e	0.028175171
91	0xbb6ee13c	-0.0036450168
92	0xbd3c4349	-0.045962606
93	0x3db35b6f	0.08757674
94	0x3d21741b	0.039417367
95	0x3d14adfb	0.036298733
96	0x3bdec577	0.006798442
97	0x3c9c66e6	0.019092035
98	0xbca9d8be	-0.020733234
99	0xbd124c6b	-0.03571741
100	0x3c4c2cef	0.012461885
101	0x3c9af92d	0.018917644
102	0xbd4b394a	-0.049615182
103	0x3d321e89	0.04348615
104	0xbd2b2220	-0.04178059
105	0x3bda23b7	0.0066570896
106	0xbda24bdc	-0.07924625
107	0xbd5a42bf	-0.05328631
108	0xbd1dfe66	-0.03857269
109	0xbd080729	-0.033209953
110	0xbc9f9736	-0.019481283
111	0xbd82e64d	-0.06391583
112	0x3baf63b3	0.0053524612
113	0x3c40d30b	0.011769067
114	0xbb6ba5e3	-0.003595703
115	0xbcc09533	-0.023508644
116	0xbbc14c95	-0.005899022
117	0x3c389d7e	0.011268018
118	0x3cf67ca5	0.030088732
119	0x3d3981d1	0.04528982
120	0x3c88acff	0.016684053
121	0xbbd00957	-0.0063487696
122	0x3d8cc242	0.06872989
123	0x3b40f2bc	0.0029441556
124	0x3d1d2dc6	0.03837373
125	0x3d147745	0.036246557
126	0xbc8498e7	-0.01618619
127	0xbcedc204	-0.029023178
128	0xbd4cac9c	-0.0499693
129	0xbdbb7a98	-0.09154242
130	0xbbe43ff7	-0.006965633
131	0xbc973865	-0.018459508
132	0xba522b5c	-0.00080173253
133	0xbd58a99c	-0.052896127
134	0xbc894930	-0.016758531
135	0xbd8c24b3	-0.06842937
136	0x3b1a35b9	0.0023530556
137	0xbda4f6a0	-0.080548525
138	0xbcb8fd02	-0.022581581
139	0x3ca3d9c0	0.020001292
140	0xbc9f8a5a	-0.01947515
141	0xbd3aa5ba	-0.045568205
142	0xbb7bee90	-0.0038441755
143	0xbd1d6eba	-0.038435675
144	0xbd0d3d0f	-0.03448206
145	0xbc923a1b	-0.017849972
146	0xbd090de8	-0.033460528
147	0x3a46a55a	0.000757774
148	0xbda8b351	-0.08237327
149	0xbcb4105c	-0.021980457
150	0xbd158531	-0.036503974
151	0x3d6853ee	0.056720667
152	0xbcd8cefd	-0.026465887
153	0xbcd997cb	-0.026561638
154	0xbc9d4a2c	-0.019200407
155	0xbce9e24a	-0.028550286
156	0xbd30ecd5	-0.04319461
157	0xbda301a6	-0.07959299
158	0x3ba972e4	0.0051711667
159	0xbb9e24e3	-0.0048261746
160	0xbd8e6409	-0.06952674
161	0xbd20c3c0	-0.03924918
162	0x3d29f063	0.041489016
163	0x3d362291	0.04446656
164	0x3a9ac1d2	0.001180703
165	0x3d0860a3	0.033295285
166	0x3c053940	0.008131325
167	0x3ca0c9a0	0.019627392
168	0x3c4b9673	0.012426007
169	0x3d4c8b3a	0.049937464
170	0xbc3309cf	-0.0109276315
171	0x3d00af13	0.031416964
172	0x3d43f21d	0.04783832
173	0x3cad669b	0.02116709
174	0xbced8a20	-0.028996527
175	0x3b6ceb55	0.003615101
176	0x3d59ee85	0.053205986
177	0xb8130080	-3.5047997e-05
178	0xbcf56098	-0.029953286
179	0xbc1520af	-0.009102031
180	0x3c02365b	0.00794753
181	0x3c0f8f5f	0.00876221
182	0xbd2a7e16	-0.04162415
183	0xbbed30c5	-0.00723848
184	0xbcae9a9e	-0.021313962
185	0x3d1deac5	0.03855397
186	0x3bb6c28e	0.005577392
187	0x3be1ce58	0.006891053
188	0x3c9c9546	0.019114148
189	0x3cee2b70	0.029073447
190	0x3aa2eace	0.0012429596
191	0x3c119166	0.008884763
192	0x3d066ce1	0.03281868
193	0x3c8285e4	0.015932985
194	0x3bce12ad	0.0062888474
195	0xbbc9ed58	-0.006162327
196	0xbcc1b58f	-0.023646144
197	0xbcf5089d	-0.029911334
198	0x3d0780ac	0.033081695
199	0x3c4d2b26	0.012522494
200	0xbcbd7041	-0.023124816
201	0x3d5a09b4	0.05323191
202	0x3d62c2db	0.05536161
203	0x3d3fabbb	0.046794634
204	0x3d0b732b	0.03404538
205	0x3d58dcd9	0.05294499
206	0x3c4ed90b	0.012624989
207	0xbd7baabf	-0.061442133
208	0x3bea370c	0.0071476754
209	0x3cf46c92	0.029836927
210	0xb94e278d	-0.00019660425
211	0xbd815ef7	-0.06316941
212	0x3c1cbfb9	0.009567195
213	0xbd2e0085	-0.042480964
214	0xbc8cd0be	-0.01718938
215	0xbd213b0f	-0.039362963
216	0x3c8d1201	0.017220499
217	0xb8e94fc8	-0.00011125166
218	0xbc931db4	-0.0179585
219	0xbc7a6303	-0.015282395
220	0xbd8c7f43	-0.06860211
221	0x3cd6a5c8	0.026202098
222	0x3ad92546	0.0016566894
223	0xbc2e3864	-0.010633562
224	0x3c8f003b	0.017456165
225	0xbbb3e4c6	-0.0054899184
226	0xbc8534c4	-0.016260512
227	0x3d1f88e0	0.038948894
228	0x3d913449	0.07090051
229	0x3c9c10d7	0.019050999
230	0x3c12af8f	0.008952989
231	0x3cf31f90	0.029678136
232	0x3c85be22	0.016326014
233	0x3a30ee75	0.00067494
234	0x3d3bf267	0.04588547
235	0xbad799a4	-0.0016448987
236	0x3c510259	0.012756907
237	0x3cb3f827	0.021968914
238	0x3dbbaebd	0.09164188
239	0x3c8a6536	0.016893964
240	0x3d6ae929	0.057351265
241	0x3ca91df8	0.020644173
242	0x3bd09c53	0.0063662915
243	0x3d30d501	0.043171886
244	0x3d7534c0	0.05986476
245	0xbb6bf612	-0.0036004824
246	0x3d6bcd01	0.057568554
247	0xbca9bb56	-0.020719212
248	0xba8ed97d	-0.0010898557
249	0x3d5b048e	0.05347114
250	0x3da23da2	0.07921912
251	0x3d78c95a	0.0607389
252	0xbca7e1a7	-0.020493342
253	0x3d888164	0.06665304
254	0x3c1a7fbc	0.009429868
255	0x3d5e30db	0.05424581

encoder.block1.block.0.bias f4 [32]
0	0x3ca53ecb	0.020171544
1	0x3ce6371a	0.028102446
2	0x3d874e5d	0.066067435
3	0xbcae958c	-0.021311544
4	0xbbed22cd	-0.0072368146
5	0xbce98f6f	-0.028510777
6	0xbbefd048	-0.00731853
7	0xbd2f0281	-0.042726997
8	0x3c33fb1b	0.010985161
9	0x3cdb2954	0.026753105
10	0x3bf0f2f6	0.007353182
11	0xbc657219	-0.014004254
12	0xbcad3913	-0.02114538
13	0xbc90ca87	-0.017674698
14	0xbc753b68	-0.014967777
15	0x3cdb77d6	0.02679054
16	0x3ce35569	0.027750688
17	0xbd514dd5	-0.051099617
18	0x3c683afe	0.014174221
19	0xbc1266f0	-0.008935675
20	0x3d1ec539	0.038762305
21	0x3d138945	0.036019582
22	0xbbb69cea	-0.005572905
23	0x3bd03227	0.006353635
24	0xbc3a47dc	-0.011369672
25	0x3c779bb2	0.015112804
26	0x3c320013	0.0108642755
27	0xbc985000	-0.018592834
28	0xbd90cb76	-0.07070057
29	0x3c9073f4	0.017633416
30	0x3d844861	0.06459118
31	0x3cda504e	0.02664962

encoder.block1.block.2.weight f4 [32]
0	0x3f712ad2	0.94205964
1	0x3f69c538	0.91316557
2	0x3f70ff30	0.94139385
3	0x3f6e3744	0.9305308
4	0x3f71640b	0.9429328
5	0x3f6f1311	0.9338847
6	0x3f6bf372	0.92168343
7	0x3f6ea380	0.9321823
8	0x3f713c15	0.942323
9	0x3f727f20	0.9472523
10	0x3f6433aa	0.89141333
11	0x3f72156a	0.94563925
12	0x3f71b4ad	0.94416314
13	0x3f6ea7f6	0.9322504
14	0x3f718d25	0.94355994
15	0x3f707478	0.9392772
16	0x3f694e46	0.9113506
17	0x3f72881d	0.9473894
18	0x3f6ce4d7	0.9253668
19	0x3f70f70c	0.94126964
20	0x3f6ceb2d	0.9254635
21	0x3f716ed2	0.94309723
22	0x3f62d10d	0.88600236
23	0x3f6c6264	0.9233763
24	0x3f6d71ec	0.92751956
25	0x3f6fa291	0.9360743
26	0x3f751295	0.9573148
27	0x3f720d9b	0.9455201
28	0x3f74bda0	0.95601845
29	0x3f755c2f	0.95843786
30	0x3f647a1c	0.89248824
31	0x3f7267fe	0.9468993

encoder.block1.block.2.bias f4 [32]
0	0x3d0b6946	0.034035943
1	0x3d38748d	0.045033026
2	0x3cafbb89	0.021451728
3	0x3af6c953	0.001882831
4	0xbca15360	-0.019693077
5	0xbbbb838c	-0.0057224687
6	0xbc83fd5b	-0.01611202
7	0x3c9980ee	0.018738236
8	0x3caee9af	0.021351663
9	0x3b93785f	0.0045004333
10	0x3b3d7c05	0.0028913033
11	0x3cf63a81	0.030057194
12	0x3bae9610	0.0053279474
13	0x3d0b1613	0.0339566
14	0xbc206483	-0.009789589
15	0x3d45bc51	0.048275296
16	0x3c2a6cb9	0.010401898
17	0x3cef5a62	0.029217903
18	0x3d665256	0.056230865
19	0x3ceabbf7	0.028654082
20	0xbbbce3d3	-0.0057644635
21	0xbd594d3f	-0.053052183
22	0x3cec1a2b	0.028821072
23	0xbc176115	-0.009239455
24	0xbbc916cd	-0.0061367513
25	0xbd119dde	-0.035550945
26	0x3acbb0ba	0.001554034
27	0x3cfb0087	0.0306399
28	0x3c9cb20e	0.019127872
29	0xbb418f85	-0.0029535007
30	0xbcfb638f	-0.030687122
31	0xbc2d079c	-0.010560896

encoder.block1.block.2.running_mean f4 [32]
0	0x3fbe3754	1.4860635
1	0x3fca6c5c	1.5814319
2	0x3fa81d35	1.3133913
3	0x3fc4524d	1.5337616
4	0x3fd67a4d	1.6756073
5	0x3f9b051e	1.2110937
6	0x3fbbcbb0	1.4671535
7	0x3fb55964	1.4167905
8	0x3ff3ebec	1.9056373
9	0x3fce431c	1.611423
10	0x3fbfc2bb	1.4981302
11	0x3fc79db1	1.5594999
12	0x3fbc08ee	1.4690225
13	0x3fbf1a94	1.4929986
14	0x3fc0b035	1.5053774
15	0x3fabbf34	1.3417726
16	0x3f890262	1.0703852
17	0x3fa3e76e	1.2805002
18	0x3fbbf119	1.4682952
19	0x3fbf02ca	1.4922726
20	0x3fa56929	1.2922717
21	0x3f9e5038	1.2368231
22	0x3fdc446f	1.7208384
23	0x3fc90ec2	1.5707629
24	0x3fe406f5	1.7814623
25	0x3f8e94e8	1.1139193
26	0x3fe4bbe9	1.7869846
27	0x3fd5abd0	1.6693058
28	0x3fcb568d	1.5885788
29	0x3fbe913a	1.488807
30	0x3f9889a7	1.1917008
31	0x3fcb2f7d	1.5873867

encoder.block1.block.2.running_var f4 [32]
0	0x40937aee	4.608756
1	0x40a76fc1	5.232392
2	0x4057fa10	3.3746376
3	0x409dd285	4.931948
4	0x40bbdeed	5.8709626
5	0x40453468	3.0813236
6	0x4090cb2c	4.5248013
7	0x4086f93d	4.2179246
8	0x40f24be8	7.571766
9	0x40ae8580	5.4537964
10	0x4096a00a	4.707036
11	0x40a3237d	5.098082
12	0x4086b34c	4.209387
13	0x408ae0e1	4.339951
14	0x409773f5	4.732905
15	0x4061f239	3.530409
16	0x3facfee1	1.3515283
17	0x404bec8a	3.1863122
18	0x40906b49	4.5130963
19	0x408b02e7	4.3441043
20	0x40617d17	3.5232599
21	0x404ce6f1	3.2015955
22	0x40c6d870	6.2139206
23	0x40a4f66c	5.155081
24	0x40c54cc5	6.1656213
25	0x40267d59	2.6014006
26	0x40c67620	6.2019196
27	0x40acf3fe	5.404784
28	0x409d85e3	4.9225936
29	0x408a0b8c	4.3139095
30	0x3fd537b4	1.6657624
31	0x40a8e8cc	5.2784176

encoder.block2.block.0.weight f4 [32, 70, 3, 3]
0	0x3d05ce1a	0.032667257
1	0x3a8d7b71	0.0010794235
2	0x3c3e5a53	0.011618215
3	0xbb199721	-0.0023436027
4	0xbd04e6e7	-0.032446768
5	0x3c8aac41	0.01692784
6	0x3d26a482	0.04068423
7	0x3d07d92c	0.033166096
8	0xbcb6fbc9	-0.022336857
9	0xbc713696	-0.014722487
10	0xbc854270	-0.016267031
11	0x3c49fd2d	0.012328428
12	0xbd03eea4	-0.032210007
13	0x3b51c84d	0.0032010258
14	0x3cb59407	0.022165312
15	0x3aa13bb3	0.0012301117
16	0xbcf61b0c	-0.030042194
17	0x3b6e244e	0.0036337557
18	0x3d085869	0.03328744
19	0xbc1124a6	-0.008858835
20	0x3d6c1b70	0.057643354
21	0x3d76a9f3	0.06022067
22	0xbc99f78a	-0.018794794
23	0x3cafa82a	0.021442492
24	0x3cb355e0	0.021891534
25	0x3cb7b367	0.022424413
26	0xbac3caf4	-0.0014937804
27	0x3cc3f354	0.023919739
28	0x3d873e41	0.06603671
29	0x3d46ff69	0.04858342
30	0x3d1614c0	0.036640882
31	0x3bedc88e	0.007256574
32	0x3d470e66	0.048597716
33	0x3cce7458	0.025201961
34	0x3d09207b	0.03347824
35	0x3d10a2f3	0.03531165
36	0xbb7f6b3f	-0.0038973836
37	0x3d170981	0.036874298
38	0x3cc8417d	0.02444529
39	0x3d933c7a	0.07189269
40	0x3ba2fe96	0.0049741967
41	0xbbb44e0a	-0.005502467
42	0x3b4b60c7	0.0031033026
43	0x3c89a971	0.016804429
44	0x3d6f3788	0.058402568
45	0xbc742ea9	-0.014903703
46	0x3ccbcd73	0.02487824
47	0x3ae7cb18	0.0017684428
48	0x3d639feb	0.05557243
49	0xbc0b7df4	-0.008513916
50	0xbbe84a58	-0.0070889406
51	0x3a13d2dc	0.00056390255
52	0xbcbeb947	-0.023281706
53	0x3c98745e	0.018610176
54	0xbc705015	-0.014667531
55	0xbb2c0ec3	-0.0026253916
56	0xbb28cdcf	-0.0025757437
57	0xbbb56aa0	-0.0055363923
58	0x3c0fd2d4	0.008778293
59	0xbd1d7aff	-0.038447376
60	0xbc28acc4	-0.010295097
61	0x3b836feb	0.0040111444
62	0x3c7c33ed	0.015393239
63	0xbc5041ad	-0.012710971
64	0x3c9300a9	0.01794465
65	0xbcedf720	-0.029048502
66	0x3cb2f018	0.021843001
67	0xbcb39e2a	-0.021926004
68	0xbc178211	-0.009247319
69	0xbcbce4dd	-0.02305835
70	0x3b148660	0.0022663102
71	0x3c4d5a39	0.012533718
72	0x3d544886	0.051826976
73	0xbca318d0	-0.019909292
74	0x3c91896f	0.017765729
75	0x3d8f6c99	0.07003135
76	0x3cb5e9a6	0.022206139
77	0xbc76a360	-0.0150536
78	0xbd44b78f	-0.048026618
79	0xbc9d771b	-0.019221833
80	0x3cd2e73f	0.025745032
81	0x3d6bd359	0.057574604
82	0x3d936291	0.071965344
83	0x3c63d413	0.013905543
84	0xbd3bd2b4	-0.04585524
85	0xbd7dbc9a	-0.061947443
86	0x3be0b474	0.006857449
87	0x3a06c54e	0.0005141095
88	0xbd44c133	-0.04803581
89	0x3bdd19c1	0.006747455
90	0x3ccad51c	0.024759822
91	0x3a43a9df	0.00074639724
92	0x3cb7a241	0.022416236
93	0x3caade31	0.020857902
94	0x3d0a6120	0.033784032
95	0x3c85cc07	0.01633264
96	0xbc70d80e	-0.014699949
97	0x3cdfe05b	0.02732866
98	0x3c725c80	0.0147925615
99	0x3cf9adc9	0.030478375
100	0xbcb58a2b	-0.02216061
101	0x3c2a0de2	0.0103792865
102	0x3d794c73	0.060863923
103	0x3ca915fa	0.020640362
104	0xbd6f24ff	-0.05838489
105	0x3d0d12c1	0.034441713
106	0x3c39bf42	0.011337103
107	0x3d212b29	0.0393478
108	0xbc1dc7fd	-0.0096302
109	0xbbab1226	-0.0052206693
110	0x3d575908	0.05257514
111	0x3cb263e5	0.021776149
112	0xbd4ed62a	-0.05049721
113	0xbc684ffe	-0.014179228
114	0xbd7f28f7	-0.062294926
115	0x3c2c1a6d	0.010504347
116	0x3a11cfb1	0.00055622595
117	0x3d3c19e0	0.045923114
118	0x3c9da503	0.019243723
119	0xbbad3ebb	-0.005287019
120	0x3d070465	0.032963175
121	0x3bf7a51c	0.0075575244
122	0x3c45fb93	0.012083906
123	0x3cae354d	0.02126565
124	0x3cd08fda	0.025459219
125	0xbc426ec4	-0.011867229
126	0xbd7f0995	-0.062264998
127	0xbcb62fd8	-0.02223961
128	0xbd34ac9a	-0.04410992
129	0xbd4ba4df	-0.04971778
130	0x3d2a3beb	0.04156105
131	0x3dd07b91	0.101798184
132	0xbcc132ea	-0.023583848
133	0xbd7d4e9c	-0.061842546
134	0xbdb36f03	-0.08761408
135	0xbd9bb574	-0.07602969
136	0x3c50e073	0.012748825
137	0x3cb65a8b	0.022259971
138	0x3c8eb6df	0.017421184
139	0xbc7d3c08	-0.015456207
140	0xbd0484e7	-0.032353308
141	0xbd2775f5	-0.040883977
142	0x3d5efc6f	0.05443996
143	0xbb9e386e	-0.0048285043
144	0xbccee69e	-0.025256451
145	0x3c1d7715	0.009610911
146	0x3c5a455f	0.013322203
147	0x3cd43d3b	0.025908103
148	0xbd7416c5	-0.059592027
149	0xbb069980	-0.002053827
150	0x3c03423b	0.008011396
151	0x3d22b540	0.039723635
152	0xbbbcbadc	-0.00575958
153	0x3d7c0978	0.061532468
154	0xbbf2d6af	-0.007410846
155	0xbd492bd1	-0.049114052
156	0xbc801afe	-0.01563787
157	0x3c8bb08f	0.017051963
158	0xbcb74ad8	-0.022374555
159	0xbd71d87c	-0.059044346
160	0xbcbae33e	-0.022813436
161	0x3cd9053e	0.026491757
162	0x3c920b41	0.017827632
163	0x3cd7d8e9	0.026348548
164	0x3bdd70bf	0.006757825
165	0x3c5c2611	0.01343681
166	0x3d351d04	0.044217125
167	0x3d68c63b	0.056829672
168	0x3cb96582	0.02263141
169	0x3cecb143	0.028893119
170	0x3d7ddaeb	0.061976355
171	0xbcb1822f	-0.021668522
172	0x3ca7d980	0.020489454
173	0xba78d451	-0.0009492087
174	0x3ca2c687	0.019870056
175	0x3ceb6bf9	0.028738009
176	0x3c85dd2d	0.016340816
177	0xbb48c660	-0.003063582
178	0xbbd3c48a	-0.0064626383
179	0x3d4b56aa	0.049643196
180	0x3c316404	0.010827068
181	0xbb383924	-0.002811023
182	0x3c30f96a	0.010801652
183	0x3bbc52f6	0.0057471944
184	0x3c350a60	0.011049837
185	0x3b8b1d2a	0.00424542
186	0xbb8d2dcc	-0.004308438
187	0x3c864918	0.016392276
188	0xbcc4a9fa	-0.024006832
189	0x3cdd732a	0.027032454
190	0x3c4252d9	0.011860573
191	0x3c9ffe64	0.019530483
192	0x3c151c8b	0.009101043
193	0xbb8f1b0a	-0.004367237
194	0x3cd3978a	0.025829095
195	0x3d0cae0e	0.03434568
196	0x3c6be353	0.01439746
197	0x3d13e40f	0.036106165
198	0x3d27c781	0.040961746
199	0x3d2d47cb	0.042304795
200	0x3ce77825	0.028255532
201	0xbb523d7f	-0.0032080112
202	0x3b2f0350	0.0026704855
203	0x3b5b88aa	0.0033498206
204	0xbc60f6af	-0.013730689
205	0xbb0f37a8	-0.0021853242
206	0xbc23ab27	-0.009989536
207	0x3b54d9e6	0.003247851
208	0xbceaadf2	-0.028647397
209	0x3b9db6a2	0.0048130313
210	0xbc6069bd	-0.013697085
211	0x3cb0ecbe	0.021597262
212	0xbc015cc2	-0.00789565
213	0xbd2d6f3a	-0.042342402
214	0xbc3b3a84	-0.011427525
215	0x3cd5917c	0.026070349
216	0x3c83964b	0.016062876
217	0xbc0c77bd	-0.00857347
218	0x3bfba572	0.0076796347
219	0xbc49a289	-0.012306818
220	0xbc93a410	-0.018022567
221	0x3cc789f3	0.024357772
222	0xbb84c038	-0.0040512346
223	0x3c09319d	0.008373645
224	0xba7abd15	-0.00095649186
225	0xbb8d33b3	-0.0043091415
226	0x3c79722c	0.015224975
227	0x3bb07987	0.005385581
228	0x3ce6b300	0.028161526
229	0x3c9bbdcd	0.019011403
230	0x3cefe0ec	0.029282056
231	0x3c444ef8	0.011981718
232	0x3d7679fd	0.06017493
233	0x3cba6178	0.022751555
234	0xbbad7b42	-0.0052942345
235	0x3cf81dc1	0.030287625
236	0xbc0266c9	-0.007959076
237	0x3cec27f7	0.02882765
238	0x3d2c3f5d	0.042052615
239	0x3cd193f3	0.025583243
240	0x3d114d7b	0.03547428
241	0xba2f7bd0	-0.000669417
242	0xbb95c347	-0.004570398
243	0x3c8daa7c	0.017293207
244	0xbbcd0395	-0.0062565305
245	0x3d7fe619	0.062475298
246	0x3b4efa14	0.0031582164
247	0x3b92e025	0.0044822865
248	0x3cced0fe	0.02524614
249	0xbbc27deb	-0.0059354207
250	0x3d6bbd13	0.057553362
251	0x3daccb34	0.084371954
252	0x3ae9f886	0.0017850555
253	0x3c9f5c00	0.019453049
254	0x3c49d5d5	0.012319048
255	0xbc090e29	-0.008365192

encoder.block2.block.0.bias f4 [32]
0	0x3d1d74e7	0.038441565
1	0x3cc24462	0.023714248
2	0xba56f7af	-0.000820036
3	0x3cf5c770	0.030002326
4	0x3c9f0b84	0.01941467
5	0x3d1e11ae	0.03859108
6	0x3cc55572	0.024088595
7	0x3cc74cea	0.024328668
8	0x3c8794cd	0.016550446
9	0x3c3f65a4	0.011681948
10	0x3cb94d36	0.022619825
11	0x3ba802e2	0.005127297
12	0x3c01b46e	0.007916553
13	0x3b307474	0.002692488
14	0x3c3e66b0	0.011621162
15	0x3d4e40f4	0.050354913
16	0x3cc48cc0	0.023992896
17	0x3d4d96ab	0.050192516
18	0x3d8d64b9	0.06903977
19	0x3d2384bc	0.039921507
20	0x3cc79ce3	0.024366802
21	0x3d18a6fb	0.03726862
22	0x3c8140b0	0.015777916
23	0x3d582db6	0.05277797
24	0x3c96daf9	0.018414961
25	0x3d48ef83	0.04905654
26	0x3d7e8836	0.06214162
27	0x3c75e725	0.015008722
28	0x3c0daa2f	0.008646532
29	0x3d320f66	0.043471716
30	0xbc22462b	-0.009904425
31	0xbcc17f91	-0.023620399

encoder.block2.block.2.weight f4 [32]
0	0x3f73bcd9	0.95210034
1	0x3f74794d	0.9549759
2	0x3f72a9a7	0.9479012
3	0x3f714d6e	0.94258773
4	0x3f71f2cc	0.94511104
5	0x3f728401	0.9473267
6	0x3f716e17	0.9430861
7	0x3f6d5092	0.92701066
8	0x3f70e05d	0.9409235
9	0x3f70cd4c	0.9406326
10	0x3f722fe0	0.946043
11	0x3f733803	0.9500734
12	0x3f71d3e1	0.94463927
13	0x3f7211e3	0.9455854
14	0x3f745913	0.95448416
15	0x3f72a223	0.9477865
16	0x3f72b632	0.9480926
17	0x3f65e36e	0.89800155
18	0x3f626993	0.88442343
19	0x3f6f1e99	0.93406063
20	0x3f72ad05	0.94795257
21	0x3f758b80	0.95915985
22	0x3f7461d0	0.9546175
23	0x3f73f45b	0.9529473
24	0x3f727446	0.9470867
25	0x3f6bfa90	0.92179203
26	0x3f7481c2	0.95510495
27	0x3f6e2147	0.9301953
28	0x3f6f8bea	0.93572867
29	0x3f6a34fd	0.91487104
30	0x3f710467	0.9414734
31	0x3f710918	0.941545

encoder.block2.block.2.bias f4 [32]
0	0xbccea153	-0.02522341
1	0x3c94f935	0.018185237
2	0xbc26db93	-0.0101841865
3	0xbc520b9f	-0.0128201535
4	0x3cc377f0	0.023860902
5	0xbd196e63	-0.03745879
6	0xbc9d6e7e	-0.019217726
7	0xbc563bc0	-0.013075769
8	0x38fbc3cf	0.00012005085
9	0x3c99d1d9	0.018776821
10	0x3b1ff35b	0.0024406526
11	0x3cc01344	0.023446687
12	0x3c201fc9	0.009773203
13	0xbd44f2c5	-0.048083086
14	0x3d32db7f	0.04366636
15	0xbcc49bcb	-0.02400007
16	0x3c585a2f	0.013205095
17	0x3bfb9f40	0.007678896
18	0x3cd56625	0.026049683
19	0x3cc59488	0.024118677
20	0xbcf6119f	-0.0300377
21	0xbc987b88	-0.018613592
22	0xbc346443	-0.011010232
23	0x3d189b77	0.037257638
24	0x3d3038a1	0.043022756
25	0xbbcc24f7	-0.0062299925
26	0xb971d276	-0.00023061954
27	0xbc9b609f	-0.018966971
28	0xbc45fdcd	-0.012084437
29	0x3b3b4d76	0.0028580106
30	0x3c68765f	0.014188378
31	0x3914f397	0.00014205124

encoder.block2.block.2.running_mean f4 [32]
0	0x3ff79d02	1.934479
1	0x40176db6	2.3660712
2	0x400bcc74	2.1843538
3	0x3fd22442	1.6417315
4	0x3fba3b72	1.4549391
5	0x400803cf	2.1252325
6	0x3fecd741	1.850319
7	0x3fc17984	1.5115209
8	0x400896cd	2.1342041
9	0x3fd2ceab	1.646932
10	0x4013dd1d	2.3103707
11	0x3fd65031	1.6743222
12	0x4010e0b8	2.2637157
13	0x4006ec3b	2.1081684
14	0x3fce4a9a	1.6116517
15	0x3fe6cd80	1.8031464
16	0x4003c3a5	2.0588162
17	0x3fcbaa29	1.5911304
18	0x3fb6cd9b	1.4281496
19	0x3ff9f18e	1.9526842
20	0x3fb52575	1.4152056
21	0x40014878	2.0200481
22	0x3ff5861b	1.9181551
23	0x40137d0e	2.3045077
24	0x3fa032f2	1.2515547
25	0x3fb81bfe	1.4383543
26	0x3ff4bb94	1.9119744
27	0x3fd8dfde	1.6943319
28	0x3fd31b7d	1.6492764
29	0x3fc5f309	1.5464793
30	0x40168fbe	2.3525233
31	0x3fb78217	1.4336575

encoder.block2.block.2.running_var f4 [32]
0	0x40fa12dd	7.8148026
1	0x413ab35f	11.668792
2	0x410f234c	8.946117
3	0x40b327ba	5.5985994
4	0x40803750	4.006752
5	0x41175107	9.457282
6	0x40ceb2d7	6.459331
7	0x4089319b	4.2873054
8	0x410861fa	8.52392
9	0x40b4b55f	5.64714
10	0x413231d0	11.137161
11	0x40a67f0e	5.2030096
12	0x41183d3d	9.514951
13	0x41052872	8.322374
14	0x409b99f8	4.862545
15	0x40c5b856	6.178752
16	0x410ccaaf	8.799483
17	0x40a7d834	5.245142
18	0x4072772e	3.7885242
19	0x40e474d7	7.1392627
20	0x406fbc39	3.7458632
21	0x40f23aac	7.569662
22	0x40f88c69	7.76714
23	0x4130f8e0	11.0607605
24	0x403a12fd	2.907409
25	0x407c078c	3.9379606
26	0x40dd230b	6.9105277
27	0x40bff482	5.998597
28	0x40a3d911	5.1202474
29	0x408e18b9	4.440518
30	0x41249e37	10.288627
31	0x408a6fb3	4.326135

encoder.final.block.0.weight f4 [3, 102, 3, 3]
0	0xbb99ac93	-0.004689762
1	0x3bdae8a8	0.006680567
2	0xbc0df851	-0.00866516
3	0xbc399025	-0.011325871
4	0x3cd1a7ba	0.025592674
5	0xbcb0bb9b	-0.021573832
6	0x3b7d34b1	0.0038636143
7	0xbc7c3aed	-0.015394908
8	0x3bf48b1b	0.0074628717
9	0xbb79a892	-0.003809486
10	0xbb92b96c	-0.0044776704
11	0x3bbf3e4f	0.005836285
12	0xbbc3baab	-0.0059731803
13	0x3bd2a665	0.006428527
14	0x3bcf0cc4	0.0063186605
15	0xbbfe20d4	-0.0077553783
16	0x3b829130	0.003984593
17	0x3b323275	0.002719072
18	0x3c632ee5	0.013866161
19	0xbc5f9603	-0.013646605
20	0xbc66b4f9	-0.014081233
21	0xbc6fcdf5	-0.014636506
22	0x3c0dbab5	0.008650471
23	0xbc7d2148	-0.015449829
24	0xbb17c0bd	-0.0023155652
25	0xba9a9c33	-0.0011795819
26	0x3c8c24a2	0.017107312
27	0xbb8d0b56	-0.00430433
28	0xbc686b4e	-0.01418574
29	0x3b198ee9	0.0023431128
30	0x3c8f2b0c	0.017476581
31	0xbccdc2da	-0.025117327
32	0x3cd3fe03	0.025877958
33	0x3c1bec14	0.009516735
34	0xbc9263c2	-0.017869834
35	0xbc49f66d	-0.012326819
36	0xbb808633	-0.003922248
37	0xbcd52880	-0.026020288
38	0xbc70d10e	-0.01469828
39	0xbc99dbf0	-0.018781632
40	0x3c9ec08b	0.019378921
41	0x3b1bd05a	0.002377531
42	0x3c5ca8df	0.013467996
43	0xbcb8c90d	-0.022556806
44	0x3c520f86	0.012821084
45	0xba092dc0	-0.00052329525
46	0xbc364b1d	-0.011126307
47	0xbc89c403	-0.016817098
48	0xbcace5e3	-0.021105712
49	0x3c9519bf	0.018200753
50	0xbc5067ea	-0.012720088
51	0x3c4f196e	0.01264034
52	0x3c91d6fd	0.01780271
53	0xbbfd1db9	-0.0077244905
54	0x3b8d22bc	0.004307119
55	0xbb551d03	-0.0032518513
56	0x3b94fca7	0.00454672
57	0xbb8187b3	-0.003952944
58	0x3c020cd0	0.007937625
59	0xbb33349a	-0.0027344585
60	0x3bafbfb4	0.005363429
61	0xbbc243b7	-0.0059284824
62	0xbbf43735	-0.0074528703
63	0x3b7e5e94	0.0038813697
64	0xbb9755d0	-0.004618384
65	0x3c1bd4cb	0.009511183
66	0xb9812d15	-0.00024638386
67	0x3c1f544e	0.00972469
68	0xbc27e36c	-0.010247093
69	0xbb4967bc	-0.0030731997
70	0x3a601045	0.0008547346
71	0xbb05a8c0	-0.0020394772
72	0x3b88e070	0.0041771457
73	0x3ca30cf1	0.019903632
74	0x3c63eb0f	0.013911023
75	0x3bccb1e7	0.0062467935
76	0xbc79cb26	-0.015246188
77	0xbadf7664	-0.0017048833
78	0x3b968fe6	0.0045947907
79	0xbc878e43	-0.016547328
80	0xbc4f202f	-0.0126419505
81	0x3b6f7144	0.0036536017
82	0x3c72219b	0.01477852
83	0x3c21a73e	0.009866534
84	0xbcf58702	-0.029971603
85	0x3ca02c3f	0.019552348
86	0xbc81dd93	-0.015852725
87	0x3ceafe26	0.02868564
88	0xbd4ce4ea	-0.050022997
89	0xbc0aeaf4	-0.008478869
90	0x3c485eca	0.012229631
91	0x3bb5e55e	0.0055510243
92	0xbc8cc671	-0.017184468
93	0xbc920cac	-0.017828308
94	0x3c0702f3	0.008240449
95	0x3c4182e0	0.011810988
96	0xbbc8e2d8	-0.0061305575
97	0x3c81f1aa	0.015862305
98	0xbc9a0c49	-0.018804686
99	0xbb6225c1	-0.0034507366
100	0x3b17c9a8	0.0023160968
101	0x3c741827	0.0148983365
102	0xbd3bab92	-0.04581792
103	0xbc9293f4	-0.017892815
104	0x3bb79956	0.005602996
105	0x3c23240b	0.009957324
106	0x3d1911bc	0.03737043
107	0xbc87e3c5	-0.016588101
108	0xbca19591	-0.01972464
109	0xbc6ab5c2	-0.014325561
110	0xbc9e60fb	-0.019333353
111	0x3ce35104	0.027748592
112	0xbcba5437	-0.022745235
113	0x3d37b4c1	0.044850115
114	0xbbd837ec	-0.0065984633
115	0xbcb008f9	-0.021488653
116	0x3ca8f5c8	0.02062501
117	0xbcd09af1	-0.025464507
118	0x3baed4b9	0.005335417
119	0x3cb61e77	0.022231324
120	0xbc9f06b6	-0.01941238
121	0xbbf48318	-0.0074619167
122	0x3c97ab85	0.018514404
123	0xb91e26b3	-0.00015082471
124	0xbab5f313	-0.0013881646
125	0xba13766d	-0.0005625252
126	0x3cae4176	0.021271449
127	0x3c276f47	0.010219402
128	0x3c3b5c53	0.011435586
129	0x3ba2a694	0.0049637053
130	0xbd3e6062	-0.046478637
131	0xbb18eaff	-0.0023333428
132	0x3d03dedf	0.03219497
133	0x3c65b950	0.014021233
134	0xbd4c439e	-0.049869172
135	0xbd07220a	-0.032991447
136	0x3ce2abf7	0.02766989
137	0x3c623f28	0.013809003
138	0x3c7cf3bc	0.01543897
139	0xbc85ec25	-0.016347954
140	0x3c8ba379	0.017045723
141	0xbc302356	-0.010750612
142	0xbd2ee34d	-0.04269724
143	0xbca44f77	-0.020057423
144	0x3b9eb162	0.004842923
145	0xba0035f5	-0.0004890853
146	0x3abae1c2	0.0014257955
147	0x3a978309	0.0011559437
148	0x3a852f8e	0.0010161267
149	0x3ad3df5f	0.0016164592
150	0x3b0b6260	0.0021268353
151	0x3b63a3c0	0.0034735054
152	0x3bb34e38	0.005471971
153	0x3b456760	0.003012143
154	0xbc802407	-0.01564218
155	0x3bcacd98	0.0061890595
156	0xb79259fd	-1.744646e-05
157	0xbc774447	-0.015091962
158	0xbbb4653c	-0.005505232
159	0x3c64580e	0.0139370095
160	0x3cde4fe0	0.027137697
161	0x3a0181c9	0.0004940299
162	0xbc78c8f6	-0.015184632
163	0x3cb8832e	0.022523489
164	0x3ccbba3e	0.02486908
165	0x3c090a78	0.008364312
166	0xbc412f0b	-0.011791001
167	0x3bfa5ade	0.0076402267
168	0xbbae8247	-0.005325589
169	0x3c98f1fc	0.018670075
170	0x3c5cb254	0.013470251
171	0x3be85826	0.0070905862
172	0x3af4388c	0.0018632575
173	0xbb80e2dc	-0.0039332937
174	0xbca85d64	-0.020552345
175	0x3cfe4936	0.03104077
176	0xbbded51f	-0.0068003084
177	0x3b670916	0.0035253218
178	0xbc12e15b	-0.008964862
179	0xbc71400d	-0.014724744
180	0x3b4d2e3e	0.003130808
181	0xbc40af24	-0.011760507
182	0x3a95f5b5	0.0011441024
183	0xbb7178b2	-0.0036845622
184	0x3bbdeec9	0.0057962877
185	0xba9995d3	-0.0011717625
186	0xbbea7b39	-0.0071558026
187	0x3bb79418	0.005602371
188	0x3b500791	0.0031742791
189	0x3c3eea15	0.011652489
190	0xbc8d89e8	-0.017277673
191	0x3c84f791	0.01623133
192	0xbb0ed7f5	-0.00217962
193	0x3c476c88	0.012171872
194	0xbc29e522	-0.010369571
195	0x3b4af1e5	0.0030966934
196	0x3c882360	0.01661843
197	0x3c1cb558	0.00956472
198	0xbad52db0	-0.0016264226
199	0x3c87e880	0.016590357
200	0xbb272d75	-0.0025509272
201	0x3b95d232	0.0045721764
202	0xba84d599	-0.0010134458
203	0x3c5f06dd	0.013612476
204	0x3c84e258	0.01622121
205	0xbccd29ae	-0.025044288
206	0xbbb4257e	-0.0054976335
207	0xbb3634fa	-0.0027802573
208	0xb9ea5645	-0.00044696234
209	0xbc347889	-0.011015066
210	0x3be5fa16	0.007018338
211	0xbc22f6ae	-0.009946508
212	0x3c8a00d6	0.016846102
213	0x3b09de6b	0.0021037112
214	0xbb7ee804	-0.0038895616
215	0xbb9b0f52	-0.004732051
216	0xbb3f6fe8	-0.0029210988
217	0x3a918aac	0.001110395
218	0xbba04bdb	-0.004891855
219	0x3ba05dd6	0.0048939986
220	0x3ba16d17	0.0049263346
221	0xbb24ffae	-0.002517681
222	0xbb9a7c0c	-0.0047144946
223	0x3b504331	0.003177833
224	0x3afabd61	0.0019129926
225	0xbcd67d58	-0.026182815
226	0xbb69b0f8	-0.003565846
227	0xbc1f734c	-0.009732079
228	0x3b973d23	0.0046154424
229	0xbc25215a	-0.010078752
230	0x3c5b4db3	0.013385224
231	0x3cbad39d	0.022805983
232	0x3c747a63	0.014921757
233	0x3c243dd4	0.010024507
234	0xbaed728c	-0.0018115803
235	0x3c79f604	0.015256409
236	0x3ca647e2	0.020297948
237	0x3c443184	0.011974696
238	0x3b44683e	0.002996936
239	0x3b6cef21	0.0036153274
240	0xbcc9d00d	-0.02463534
241	0xbbf0c093	-0.0073471754
242	0xbb618968	-0.0034414176
243	0x3c10d0db	0.0088388575
244	0xbc91ab91	-0.017782005
245	0x3b157ddd	0.0022810616
246	0x3c88c63b	0.016696086
247	0xbb7d6976	-0.0038667596
248	0x3b234477	0.0024912634
249	0xbc0df08c	-0.008663308
250	0x3c12d49d	0.008961824
251	0x3b8c0a29	0.004273672
252	0x39b33869	0.0003418357
253	0x3b9b430d	0.0047382177
254	0xbc49c954	-0.012316067
255	0x3af84de5	0.0018944113

encoder.final.block.0.bias f4 [3]
0	0xbac87ba3	-0.0015295636
1	0x3cbbf74f	0.022945074
2	0x3c1e4043	0.009658876

decoder.initial.block.0.weight f4 [32, 3, 3, 3]
0	0xbb81dd89	-0.0039631766
1	0x3dc97b34	0.09837952
2	0x3e009c50	0.12559628
3	0x3d879187	0.06619554
4	0xbdbcc6c0	-0.09217596
5	0x3d5046e1	0.050848845
6	0xbda795a3	-0.08182838
7	0x3da5ae20	0.08089852
8	0xbe42145d	-0.1895308
9	0xbddde978	-0.10835546
10	0x3c4ea50b	0.0126125915
11	0xbe3ffbf1	-0.18748452
12	0xbcb1b438	-0.02169238
13	0x3d019209	0.03163341
14	0x3dd6a28c	0.10480222
15	0x3db5cd79	0.088770814
16	0xbde716b9	-0.11283631
17	0x3e2987a7	0.16555654
18	0x3d21eb75	0.03953119
19	0xbdb1d800	-0.08683777
20	0x3d5877c7	0.052848604
21	0x3db0af51	0.08627189
22	0xbe1978b7	-0.14987455
23	0x3de0614c	0.10956058
24	0xbdc3966f	-0.09550177
25	0x3e143fcc	0.14477462
26	0xbd84db04	-0.064870864
27	0xbc43f8aa	-0.011961142
28	0xbd80085d	-0.06251595
29	0x3a2cb12f	0.0006587682
30	0xbdef4ba5	-0.1168435
31	0xbdd37b39	-0.10326237
32	0x3e5195de	0.20467326
33	0xbc9ff211	-0.019524606
34	0xbc6e0ae6	-0.014528966
35	0x3dfab892	0.12242235
36	0x3e04f087	0.12982379
37	0xbbff83a4	-0.007797675
38	0x3d876cfd	0.06612585
39	0xbe1d8cad	-0.15385695
40	0xbe09dc64	-0.13462979
41	0x3cfe64c3	0.031053906
42	0xbd83d555	-0.06437174
43	0x3d7fe234	0.062471583
44	0x3d8cf87e	0.068833336
45	0xbd4ee087	-0.050507095
46	0xbd905c5e	-0.07048868
47	0x3d653314	0.055956915
48	0xbc46ec65	-0.012141322
49	0x3b0d9d21	0.0021608549
50	0x3d46594d	0.048425008
51	0xbdc4f4ff	-0.09617042
52	0xbe09ccdd	-0.13457055
53	0x3e864f7d	0.2623252
54	0xbc5d9d64	-0.013526294
55	0x3d8bf728	0.06834251
56	0xbde3b144	-0.11117795
57	0xbd964693	-0.0733768
58	0xbd6fb08b	-0.058517974
59	0xbdc54d16	-0.096338436
60	0xbcb2353d	-0.021753902
61	0x3df47ea5	0.11938218
62	0x3e3ec122	0.18628362
63	0xbd2380cc	-0.039917752
64	0x3d0295ce	0.031881146
65	0xbce1b7ca	-0.027553458
66	0xbe179420	-0.14802599
67	0xbde1df0e	-0.110288724
68	0xbdacd69c	-0.08439371
69	0x3e03e9bf	0.12882136
70	0x3e304370	0.17213225
71	0x3da28de2	0.07937218
72	0x3e4be9ac	0.19913357
73	0x3d900557	0.070322685
74	0xbac39da7	-0.0014924303
75	0xbdfcf1ef	-0.12350833
76	0xbe2be8ce	-0.16788027
77	0x3da97891	0.08274949
78	0xbd78f6dd	-0.060782302
79	0x3d5cb897	0.053886976
80	0xbd71ae17	-0.059003916
81	0xbdf575cf	-0.11985361
82	0x3e0395bd	0.1285009
83	0xbe4f7600	-0.20259857
84	0x3e306c53	0.17228822
85	0x3e41a418	0.18910253
86	0x3e320764	0.17385632
87	0x3c8b9217	0.017037435
88	0x3e42a797	0.19009243
89	0xbe0d97b3	-0.138274
90	0xbc430bdc	-0.011904683
91	0xbe25f669	-0.1620728
92	0xbbd734e8	-0.006567586
93	0x3deef3ea	0.11667617
94	0x3e3ddf8e	0.1854231
95	0x3de28210	0.11059964
96	0x3dfb476d	0.12269483
97	0xbd617269	-0.05504075
98	0xbd3cd2fa	-0.04609964
99	0x3e1d528d	0.15363522
100	0x3dcb70a9	0.099335976
101	0x3d3fe4da	0.04684911
102	0xbcc655cd	-0.024210835
103	0x3e0082e8	0.12549937
104	0x3ce48fa2	0.02790052
105	0xbdd76e2e	-0.10519062
106	0xbddc1d83	-0.107478164
107	0xbd185ed3	-0.037199806
108	0xbe0ebe7c	-0.13939852
109	0xbd1aec4b	-0.037823003
110	0x3df15444	0.117836505
111	0xbad31129	-0.0016103137
112	0xbdc4ab5d	-0.096029975
113	0x3a6540a2	0.0008745288
114	0xbd030ff6	-0.031997643
115	0xbe108fd2	-0.14117363
116	0xbe155683	-0.14583783
117	0x3daf8a3a	0.085712865
118	0xbcd539f3	-0.026028609
119	0xbe00212f	-0.12512659
120	0xbbe36708	-0.0069397725
121	0xbdca54e1	-0.098794706
122	0x3c5ef3a3	0.013607892
123	0x3dccc338	0.099981725
124	0x3c0d2df8	0.008616917
125	0x3e142caa	0.14470163
126	0xbda3a976	-0.079913065
127	0x3c77e61b	0.015130545
128	0x3dd5aa12	0.10432829
129	0xbe21a2d4	-0.1578477
130	0xbcfd3560	-0.03090924
131	0x3c2099dd	0.009802309
132	0xbb55ed2a	-0.0032642582
133	0x3d32581b	0.043541055
134	0x3da28dc6	0.079371974
135	0xbd7bf0e4	-0.061509028
136	0x3db72c4b	0.08943995
137	0x3d5d2fff	0.05400085
138	0x3d9a9c1d	0.075493075
139	0xbe8a3bac	-0.2699865
140	0x3dc39abc	0.095509976
141	0x3d84a9e2	0.06477715
142	0xbd85c235	-0.06531183
143	0x3d886a4f	0.06660902
144	0x3dfcd528	0.12345344
145	0xbde094a6	-0.109658524
146	0x3c4f1999	0.01264038
147	0xbe3d8fcb	-0.18511884
148	0x3e104771	0.14089753
149	0xbcb317d5	-0.02186195
150	0x3c1ed5d1	0.0096945325
151	0xbda4a330	-0.08038938
152	0x3e02e7fc	0.12783808
153	0x3e0b4656	0.1360105
154	0xbdb6c8e7	-0.08925038
155	0xbd62d491	-0.0553785
156	0x3cb8196f	0.022473065
157	0xbb98830e	-0.004654295
158	0xbcd830d6	-0.026390474
159	0xbd26ce37	-0.040724006
160	0x3e448838	0.19192588
161	0xbdf9669c	-0.12177774
162	0x3dc21c9b	0.09478112
163	0x3d946178	0.07245153
164	0xbd89d5a1	-0.067301996
165	0x3daa953f	0.08329248
166	0x3d99ed05	0.07515911
167	0x3e50d7fc	0.20394892
168	0xbe3e0898	-0.18557966
169	0xbd8e05ac	-0.069346756
170	0xbdec7b92	-0.11547007
171	0xbc976e36	-0.01848517
172	0xbe111f62	-0.14172128
173	0x3e314df7	0.17314897
174	0x3df9b257	0.12192219
175	0xbe28b7e1	-0.16476394
176	0x3deb7d8e	0.11498557
177	0x3de9bb03	0.11412623
178	0xbd4fd12c	-0.05073659
179	0xbd4791b9	-0.048722956
180	0x3d5c64a8	0.05380693
181	0xbcedb5b4	-0.029017307
182	0xbd16e12f	-0.036835846
183	0xbdf0110a	-0.11722
184	0x3d754dd1	0.059888665
185	0xbe0010b9	-0.12506379
186	0x3dea25b7	0.11432975
187	0x3d73262e	0.059362583
188	0x3d4d0c19	0.050060365
189	0xbb9f27b8	-0.0048570298
190	0x3d296d28	0.041363865
191	0xbd81dac2	-0.06340553
192	0xbcecea18	-0.028920218
193	0x3e5695e0	0.2095561
194	0x3dcccf88	0.10000521
195	0x3d959a1a	0.07304783
196	0xbe2f0a32	-0.17093733
197	0xbdd8b4eb	-0.10581382
198	0x3df89cdf	0.12139296
199	0x3b8cbe9b	0.004295183
200	0x3b5d00e2	0.003372245
201	0x3e4a96ec	0.19784135
202	0xbe038142	-0.12842277
203	0xbb02a627	-0.001993546
204	0xbdcac9e0	-0.09901786
205	0xbdc354ac	-0.09537634
206	0x3cd9ad1e	0.026571807
207	0xbdf4581b	-0.11930867
208	0xbdb9f2fb	-0.09079548
209	0x3ddb4a1d	0.10707495
210	0xbd9fb591	-0.07798303
211	0xbc7436a0	-0.014905602
212	0xbd1d0706	-0.038336776
213	0xbd91805e	-0.07104562
214	0x3e3e67f7	0.18594347
215	0x3e0b0c96	0.1357902
216	0xbd50938f	-0.050921973
217	0x3db25065	0.0870674
218	0xbd97b693	-0.0740787
219	0x3d950e3f	0.07278108
220	0xbe0d5be0	-0.13804579
221	0x3dbd0b85	0.09230713
222	0x3d1509d6	0.036386333
223	0xbd87272c	-0.06599268
224	0x3d946262	0.072453275
225	0xbe16b4cc	-0.14717406
226	0x3e3b805a	0.18310681
227	0xbd8aa405	-0.067695655
228	0xbdc5ecc0	-0.09664297
229	0x3e5bb3bb	0.2145528
230	0xbd5c59ca	-0.053796567
231	0x3d76a375	0.06021448
232	0x3d1bd98c	0.038049266
233	0xbdfe2c06	-0.124107406
234	0x3e006515	0.1253856
235	0xbe5c0838	-0.2148751
236	0x3e1aaadb	0.15104239
237	0xbd870b72	-0.0659398
238	0xbc8a9087	-0.01691462
239	0xbd4521ee	-0.04812806
240	0x3d38a31f	0.04507744
241	0xbdce0dfa	-0.100612596
242	0x3e120f03	0.14263539
243	0xbb8ad5f6	-0.004236932
244	0xbdf3c764	-0.11903265
245	0x3df3bd05	0.11901287
246	0xbd9a2c5a	-0.07527991
247	0xbdd90ef4	-0.10598555
248	0x3e31d607	0.17366801
249	0x3e32e3bf	0.1746969
250	0x3e08ea2d	0.13370581
251	0x3dcd1249	0.10013253
252	0xbdb1dfce	-0.086852655
253	0x3dda7661	0.1066711
254	0xbdc7e176	-0.097598
255	0x3e3dc384	0.18531615

decoder.initial.block.0.bias f4 [32]
0	0x3dfd1810	0.12358105
1	0x3c3db491	0.011578695
2	0xbc4e5836	-0.012594273
3	0x3d83bd52	0.06432594
4	0xbe77d920	-0.2420392
5	0x3e37bdcd	0.17943497
6	0x3e023c17	0.12718235
7	0x3deb6574	0.1149396
8	0x3dd5a69b	0.10432168
9	0x3c45cf51	0.012073354
10	0x3e30c6f2	0.17263392
11	0x3e6d01b9	0.23145188
12	0x3e025538	0.12727821
13	0x3c3fbfa4	0.0117034055
14	0x3e3d537e	0.18488881
15	0x3c939ae6	0.018018197
16	0x3e2e8e07	0.17046367
17	0x3db2a5a7	0.08723002
18	0x3dccdb6b	0.10002788
19	0x3c9d3f5b	0.01919525
20	0x3c623e07	0.013808734
21	0xbe8dc30f	-0.2768788
22	0x3eab010b	0.33399233
23	0x3e6a59ab	0.22885768
24	0x3d9f0f62	0.07766606
25	0x3d9472b1	0.07248438
26	0x3e223078	0.15838802
27	0x3d3513ce	0.04420834
28	0x3e7bf712	0.24605969
29	0x3e5db276	0.21650109
30	0x3e288022	0.16455129
31	0x3d939ab8	0.07207245

decoder.initial.block.2.weight f4 [32]
0	0x3f7c7f34	0.98631597
1	0x3f59a7bf	0.85021585
2	0x3f5623ef	0.8364858
3	0x3f71ebe0	0.9450054
4	0x3f720611	0.94540507
5	0x3f830d37	1.0238408
6	0x3f774d31	0.9660216
7	0x3f855907	1.0417794
8	0x3f814428	1.0098925
9	0x3f65ad25	0.8971732
10	0x3f7f0dbe	0.99630344
11	0x3f6f65a4	0.93514466
12	0x3f68b0d0	0.90894794
13	0x3f4da584	0.8033068
14	0x3f85e25e	1.0459707
15	0x3f4d55cd	0.80209047
16	0x3f7ae008	0.97998095
17	0x3f694e02	0.91134655
18	0x3f7cf6a8	0.9881387
19	0x3f77db8d	0.9681938
20	0x3f665691	0.8997584
21	0x3f82a3e3	1.0206264
22	0x3f7c232d	0.98491174
23	0x3f87a38e	1.0596788
24	0x3f731b50	0.9496355
25	0x3f6ee0b6	0.9331163
26	0x3f6d4a51	0.9269152
27	0x3f5581d4	0.83401227
28	0x3f692f88	0.9108815
29	0x3f5fc0fe	0.8740386
30	0x3f6881e9	0.9082323
31	0x3f6a5b83	0.91545886

decoder.initial.block.2.bias f4 [32]
0	0xbdac6bdd	-0.08419011
1	0x3de2494a	0.11049135
2	0x3d3f509c	0.046707734
3	0xbd6ef2ce	-0.058337025
4	0xbd7a2c7f	-0.06107759
5	0xbdb8e21b	-0.09027501
6	0x3e8c8473	0.274448
7	0xbd753cf1	-0.05987257
8	0x3e910f4c	0.28331983
9	0x3d71adf7	0.059003796
10	0xbd6184da	-0.055058338
11	0xbe5db11f	-0.21649598
12	0xbbb60d2e	-0.0055557704
13	0xbda2fcfe	-0.07958411
14	0x3dfc46dc	0.12318203
15	0xbe0b116e	-0.13580868
16	0xbe2c4ae7	-0.16825448
17	0xbdbf5f4e	-0.0934435
18	0xbe099b30	-0.13438106
19	0x3e7ea395	0.24867089
20	0x3ec32838	0.38116622
21	0xbc8636d6	-0.01638357
22	0x3d8134b8	0.063088834
23	0xbe2e2c81	-0.17009164
24	0x3e0886fc	0.13332742
25	0xbe687b03	-0.22703175
26	0xbea10fcf	-0.31457373
27	0x3d560790	0.052253306
28	0xbc97bdfc	-0.018523209
29	0xbe453227	-0.19257413
30	0xbe296010	-0.16540551
31	0xbde5292d	-0.11189494

decoder.initial.block.2.running_mean f4 [32]
0	0x3e1896f0	0.14901328
1	0x3cc541c9	0.02407922
2	0x3bdea1eb	0.0067942045
3	0x3ed3c54c	0.41361463
4	0xbb892c5e	-0.004186197
5	0x3e58caa2	0.21171048
6	0x3e60705e	0.21917865
7	0x3e1e7ec1	0.1547804
8	0x3e021651	0.12703826
9	0x3eacb33d	0.33730498
10	0x3e557278	0.20844448
11	0x3eed385e	0.46332067
12	0x3e217e4c	0.15770835
13	0x3ccdf116	0.025139373
14	0x3e5c4aa8	0.21512854
15	0x3d360686	0.044439815
16	0x3e10bf18	0.14135396
17	0x3e6a613d	0.22888656
18	0x3e02f4b3	0.12788658
19	0x3e3f51e2	0.1868358
20	0x3ebcd5b2	0.36881787
21	0xbb6f2ed1	-0.003649641
22	0x3e8f51b5	0.27992025
23	0x3e45b7ee	0.19308445
24	0x3e1d5c3a	0.15367213
25	0x3e963ced	0.29343358
26	0x3e96f327	0.29482386
27	0x3d9cd043	0.0765691
28	0x3e4fd59c	0.2029633
29	0x3e875547	0.2643225
30	0x3e6e61f8	0.2327956
31	0x3d6eca32	0.058298297
