results/models/archived/norm-normal/DenseSteganoGAN/9/epoch_28.pth (torch, 400351 bytes, 59 tensors)

encoder.initial.block.0.weight f4 [32, 3, 3, 3]
00000000: e3fc 253d 9c9c 2dbe cfaa fabd aefa fd3d
00000010: 8cba 8f3c 865e d13d 5f9e ebbc 63c0 7c3c
00000020: 1a61 083e d453 1c3e d997 d63d 22d5 5a3c
00000030: 40d4 84bd 4fcb 06be 466d 95bd afa6 f13d
00000040: b8ae 2dbd 152e 1a3e c409 393d 5fc8 d63d
00000050: 1a4f 3cbe 6a91 2dbe a06d bb3d 9795 f13d
00000060: 8817 7dbd e445 9bbd 647e a1bd 95fc aa3d
00000070: b8f2 8f3d 4ce3 d2bd 1e08 bfbb 2977 f6bd
00000080: e718 dc3d dcbc ee3d 4ff9 df3d 41ba 00bd
00000090: 6959 1bbe 3e91 64bd 134e 3fbd a39c 113e
000000a0: 11ea de3d 65cf 253e 900d 3c3d 9f24 833d
000000b0: a65f 583c 496a d1bd 6bed e13c 980d 2abd
000000c0: 30e3 ae3d 39b5 183e 95af acbd 4fd3 7f3d
000000d0: 723e e83d 7784 1a3e 6250 dcbd 596f 183e
000000e0: 1b08 46be cca8 96bd f132 22be 6f7d 023e
000000f0: e319 2c3e 7d57 333d 48a9 a63d 33c9 9dba
00000100: 2f0e 1dbe 9c7d 14be 8798 3fbd 9f9b 3d3d
00000110: a7e0 0abe 2f3f e5bd 79bd 3bbe 746a 083e
00000120: a307 5fbd 1c09 ddbd 24b3 53bd d8d8 7a3d
00000130: 5a92 9cbd 47ec 85bd d574 2e3e e4cc e23c
00000140: 7294 67bd 1157 f0bd e52b 2b3e c621 11be
00000150: 562d 273c a097 513e 7c9a c33d 0264 a53d
00000160: d431 633d 62fd 12bd 9381 0b3e ff8d 9bbd
00000170: 5663 2e3e 73c8 353e d898 ce3d fb82 04bd
00000180: e54f 10be 65e3 873d 8bff 143e bdff 893d
00000190: 95a9 9a3d a5e4 333e eb8d 2b3c f70a 0f3e
000001a0: 65be 4cbd beb9 183e 8b41 5b3d 53a3 07bd
000001b0: 815e ffbd 0e2f 963d ea68 94bd 23e3 f6bd
000001c0: 881e 38be a7f8 063e 0c71 7d3d 9150 923d
000001d0: 8297 2b3e b2c1 1e3e d967 68bd 1e1b cd3d
000001e0: 048f 2bbe 95d7 4ebd cae2 26be 51d6 543c
000001f0: 0417 a7bd 6b3d 053e da18 d5bd 0345 3bbe
00000200: aef8 43be 99ae 213e f062 e13d d411 f03c
00000210: 27dd cc3d 316d f53d 898c 643d 24a9 183e
00000220: 0a1e 673d 9d72 fc3d f0ce 85bd cd6a 02be
00000230: e067 d83c 1e03 283e d7cb 1f3d 66f7 1dbd
00000240: e7d7 3abe ff40 1d3e f477 a53d 4161 a5bd
00000250: ada1 1a3e 6159 35bd 1160 1b3e a254 1e3e
00000260: 67d6 783d 1be8 10be 4673 ddbd b22f 0e3e
00000270: 87b9 753d b162 f9bd 9d3b e73d b9f2 043e
00000280: 0b4f 0ebe c023 d9bd d6af e63d 5889 0dbd
00000290: e77c 5b3d 1218 f8bd 7f1a e4bd e4fc 0fbd
000002a0: 7158 8fbd 114d 58bd d276 2b3e 9c26 17be
000002b0: 819a 1d3e 7a7a 62bd ea76 a4bd 14ae c2bd
000002c0: 72e6 15be 5fcb 16be 3274 9d3d ea3f d33d
000002d0: 17cd 883d 8690 c43d 573b 403e 286b 4b3d
000002e0: 9240 6cbd 6789 23be 17d9 eb3d 71ec a73d
000002f0: 2904 e63d f8f4 05be e881 eb3d 9155 47be
00000300: db7e 84bd 1e32 be3c 22e0 18bc 7249 e13c
00000310: 4709 bebc 2a0a 4bbd 041d cdbd c8a5 b0bc
00000320: beec f0bc dae2 c83d b971 9fbc ddc5 1fbc
00000330: 47e3 c7bc 6570 39bd 24ca 823c 9531 253e
00000340: 9f50 8a3d 32f0 1fbe a56e 2dbc 83e1 4f3d
00000350: 2d52 0abe 0c3a 133e c1bc d8bd 5158 ffbc
00000360: f0e9 de3d 3644 303e 8e0c 3b3d a26f 3b3e
00000370: f5e3 113d b66b 9c3d 44ed c83c 4969 c2bd
00000380: 062a be3c 210b 763d 34c5 38be f471 e63d
00000390: 7402 773d 0cc6 b7bd 62bb dabd f381 043e
000003a0: 7383 d0bd 540d e73d dd36 dabd 4f89 043e
000003b0: 777b 403c f494 b13d 2f10 82be 34ac e23d
000003c0: 24ae 223e 6ec6 c33d 0d87 143e 8e8b 08bd
000003d0: 5b93 9dba c834 093d e978 0dbe a8bf e73d
000003e0: 3428 ce3d bad4 fbbd 2cb6 c7bd d5da 523d
000003f0: b08a 853c c8bb a83c 03c2 1a3e 1550 8a3d
0.040524375 -0.16954273 -0.122396104 0.12401329 0.017545007 0.10223107 -0.02876204 0.015426728
0.13318291 0.15266353 0.104781814 0.013356479 -0.06485796 -0.13163494 -0.07296233 0.117993705
-0.042402953 0.15056641 0.04517533 0.104874365 -0.1838955 -0.16950002 0.09151769 0.1179611
-0.06179002 -0.0758169 -0.07885435 0.083489574 0.07028717 -0.1029726 -0.005829825 -0.12034447
0.10746937 0.11657116 0.10936224 -0.031427626 -0.15170826 -0.055802576 -0.046705317 0.14219908
0.108844884 0.16192396 0.04591137 0.06403469 0.013206398 -0.102253504 0.02757903 -0.04151687
0.08539426 0.14912881 -0.08431927 0.06245738 0.113400355 0.15089594 -0.10757519 0.14886226
-0.1933903 -0.07356414 -0.15839745 0.12743162 0.1680675 0.043784607 0.081377566 -0.0012038111
-0.15337442 -0.14501041 -0.04677632 0.04629099 -0.1356226 -0.11193692 -0.18333997 0.13321859
-0.054450642 -0.10792753 -0.051684514 0.061241955 -0.07645102 -0.06539207 0.17036755 0.02768559
-0.056538053 -0.117353566 0.16715963 -0.1417304 0.01020368 0.20467997 0.0955095 0.080757156
0.05546744 -0.035886176 0.13623647 -0.07595443 0.17030081 0.17752247 0.100877464 -0.032351475
-0.14092977 0.06635169 0.14550607 0.06738231 0.075518765 0.1756769 0.010470848 0.13969027
-0.049986262 0.14914605 0.053529304 -0.033114742 -0.12469197 0.07333194 -0.07246573 -0.12055042
-0.17980397 0.13180791 0.061875388 0.07144273 0.16757014 0.15503576 -0.05673966 0.10014938
-0.16753775 -0.050498564 -0.1629745 0.01299055 -0.08158687 0.1301171 -0.10405131 -0.18288045
-0.19137833 0.1578926 0.11005199 0.029305376 0.10003119 0.11983717 0.055798087 0.14908272
0.05642513 0.12326548 -0.06533611 -0.12736054 0.026416719 0.16407439 0.039012756 -0.038566016
-0.18246423 0.15356825 0.0807952 -0.0807519 0.15100737 -0.04427469 0.15173365 0.15461972
0.060751345 -0.14151041 -0.10813002 0.13885382 0.059991386 -0.12177027 0.11290667 0.12983216
-0.1389734 -0.10602522 0.11264007 -0.03455481 0.053585913 -0.12113966 -0.11137866 -0.035153285
-0.06999291 -0.05280787 0.16744545 -0.14760822 0.1539097 -0.055292584 -0.080304936 -0.09505859
-0.14638689 -0.14726017 0.07688178 0.10314925 0.06679743 0.09597878 0.18772636 0.04966274
-0.057678767 -0.15970384 0.11516016 0.081993945 0.11231262 -0.1308173 0.11499387 -0.19466235
-0.06469508 0.023217257 -0.009330781 0.027500842 -0.023197783 -0.04957024 -0.100153 -0.021563426
-0.029409762 0.098088935 -0.019463407 -0.009751764 -0.024400366 -0.045273203 0.015965529 0.16132195
0.067536585 -0.15618971 -0.010585462 0.050752174 -0.1350791 0.14377612 -0.10582877 -0.031170042
0.10884464 0.1721352 0.04566627 0.18304303 0.035617787 0.07637732 0.0245272 -0.09492738
0.023213398 0.060069207 -0.18043977 0.112522036 0.060305074 -0.08973321 -0.10680272 0.12940197
-0.10181322 0.11281839 -0.106549956 0.12943004 0.011748186 0.08670989 -0.25402972 0.110680014
0.15886742 0.09559332 0.14504643 -0.033336215 -0.0012022065 0.0334976 -0.13815655 0.113158524
0.10066262 -0.12296434 -0.097515434 0.051478226 0.016301483 0.020597354 0.15113072 0.06753556

encoder.initial.block.0.bias f4 [32]
00000000: 6c15 4dbd c6e5 58bd 43c5 26bd 182f 083d
00000010: 5c6c 10be 9da7 1dbe 2f28 0b3e d77a 0e3e
00000020: 44f3 93bd f306 f83c 8422 b23b bad5 0e3e
00000030: d572 733d 965e 12be 0647 0f3e 101c 54bd
00000040: 9f97 93bb 6167 08be e20c a03d c5e1 a8bd
00000050: fef5 1dbe 1332 d1bd e631 96bd fbf6 29be
00000060: ec68 483e bad1 4cbd a5ee 02be 6003 4f3d
00000070: 0fbd d4bd 152f 1ebe 420c 14be 473a 793d
-0.050069258 -0.052953504 -0.040715467 0.033248037 -0.14103836 -0.1539597 0.13589548 0.13914047
-0.072241336 0.030276751 0.0054362435 0.13948718 0.059435684 -0.14293894 0.13991937 -0.051784575
-0.0045041586 -0.13320686 0.07814957 -0.08246187 -0.1542587 -0.10214629 -0.07333736 -0.16598122
0.19571275 -0.0500047 -0.12786348 0.050540328 -0.103876226 -0.15447648 -0.14457801 0.060846593

encoder.initial.block.2.weight f4 [32]
00000000: 9e01 783f 6e2d 783f bbbf 7b3f d4ad 793f
00000010: 381a 7d3f d2d8 773f c639 7a3f 5f67 7d3f
00000020: dd17 7a3f fc32 7a3f 3f9c 7b3f 1aa8 7d3f
00000030: 3990 7c3f 8166 7a3f 4f02 7c3f 7872 7b3f
00000040: 6cc1 753f 17b7 7b3f 82ed 7d3f 7326 793f
00000050: 13be 7d3f f05e 783f efb2 783f 2c7f 793f
00000060: 8dc8 7b3f 0c3b 793f 3817 7a3f 57d0 7b3f
00000070: 74b1 7b3f 7900 7c3f 5608 7b3f 559b 793f
0.9687747 0.9694432 0.9833943 0.97530866 0.9886813 0.96815217 0.97744405 0.98985857
0.9769266 0.97734046 0.9828529 0.9908463 0.98657566 0.9781266 0.9844102 0.9822154
0.95998263 0.9832625 0.99190533 0.97324294 0.99118155 0.97019863 0.9714803 0.97459674
0.9835289 0.97355723 0.9769168 0.98364776 0.98317647 0.9843822 0.98059595 0.9750264

encoder.initial.block.2.bias f4 [32]
00000000: 5fa7 5fbd 1b30 01bd 6a26 69bb 1255 5cbc
00000010: 6a33 93bc 935e 4a39 e434 093c e18d bcbc
00000020: 4780 003d 2983 d3bc 54a2 f6bc 2e55 993c
00000030: f59e 87bc aaaf 69ba 0821 e33c 55ac 17bd
00000040: 5c0b d4ba 5264 5d3c 706f f8bb 2bf7 37bc
00000050: ca0b 50bc ecf3 ad3a f621 7dbd d8dd cfbc
00000060: 758a e6bc b941 69bc 74c6 24bd 2232 88bc
00000070: 1cd5 cfbc a1b6 1ebd 21b2 fc3c 0f61 9139
-0.054602977 -0.031540018 -0.0035575875 -0.013448017 -0.017968852 0.00019299453 0.0083744265 -0.023016872
0.031372335 -0.025819378 -0.030106701 0.018717375 -0.016555289 -0.00089144206 0.027725711 -0.037029583
-0.0016177702 0.013512688 -0.0075816438 -0.011228363 -0.012698123 0.0013271547 -0.061799966 -0.025374338
-0.028142193 -0.014236861 -0.040228322 -0.016625468 -0.025370173 -0.038748387 0.030846657 0.0002772887

encoder.initial.block.2.running_mean f4 [32]
00000000: 7e67 e9ba 0f58 16bc 9565 2b3f 5b82 67bc
00000010: 66ac c139 616d f4bb 4b16 9b3d 5eec 173f
00000020: 02e1 25bc 9be9 8a3f 04c2 09bb 9820 933e
00000030: 23c6 0f3f 07de 303f 3596 4d3f e63c 8339
00000040: abdf 853e 6f5b 103f d469 4f3a e5cd 693f
00000050: 6dc2 1cbc fad7 79bb 6f07 b53a 04db 6ebb
00000060: c0b2 733a 71fd 09bc 6ae3 abb8 25bc 0c3f
00000070: 7c27 463c 5890 163f 0118 c1bb 08f9 d73e
-0.0017807332 -0.009176268 0.66951877 -0.0141302 0.00036940275 -0.007459328 0.075726114 0.5934504
-0.010124447 1.0852541 -0.0021020183 0.28735805 0.5616171 0.69088787 0.8030732 0.0002503164
0.26147208 0.56389517 0.0007912193 0.91329795 -0.009567839 -0.0038123117 0.001381142 -0.0036446461
0.000929635 -0.008422242 -8.1962746e-05 0.54974586 0.012094375 0.58814 -0.005892754 0.42182183

encoder.initial.block.2.running_var f4 [32]
00000000: b4a7 5034 44ac 3234 acb0 da3a 4003 1534
00000010: 5016 493a ba31 3934 d1ae 8c3a 175c 833a
00000020: 3c5f 8c34 0899 2f3b bf60 193a 20ed fc39
00000030: 12e6 a23a 258e 063b 79e0 0f3b e622 9539
00000040: 6d44 9839 95fa 893a 32ea 4c3a be6f 3a3b
00000050: e514 aa33 9bed 1233 0738 cb3a 1ceb 5033
00000060: 223a 653a b85c 9b34 1a24 4f38 420b 703a
00000070: e585 673a ca94 fc3a e013 b133 49ee 763a
1.943252e-07 1.6640212e-07 0.0016684732 1.3877889e-07 0.00076708663 1.7247558e-07 0.0010733252 0.0010021952
2.6146324e-07 0.0026794095 0.0005850903 0.00048241857 0.0012428185 0.0020531502 0.0021953864 0.00028445496
0.0002904268 0.001052695 0.000781688 0.0028447951 7.9200426e-08 3.4209375e-08 0.0015504368 4.8642605e-08
0.0008744319 2.8938462e-07 4.9386268e-05 0.0009156951 0.00088319025 0.0019270417 8.24582e-08 0.00094196625

encoder.block1.block.0.weight f4 [32, 41, 3, 3]
00000000: ea4e 013d 76c7 813c cdb8 87bd 2777 003d
00000010: 7d9b 2e3d 8a42 7e3b b6b4 de3b 7b24 e03c
00000020: 6dc1 233d 930f 2c3c fc5f eabc f704 ec3c
00000030: 67f6 21bd a9a9 1cbd c61b 9cbc 99ea 0dbc
00000040: 1871 573d 7d0e 7abb 3bf5 45bd a49d 84bc
00000050: 081c c9bc 9fd4 3f3d 0721 523d 53fc f6bc
00000060: ac96 403d 7e6d 08bd 46ca 073c bbf8 de3c
00000070: 7862 bd3b bb64 9dbc a862 513c 2bb5 2a3d
00000080: 843e 323d 7e63 903c 83d3 cfbc 6def eb3b
00000090: 2a77 57bc c467 573d 79e3 893d fb40 4abb
000000a0: 7cce 2c3d 91d5 f4bc 9295 5e3d 0863 5b3d
000000b0: 81f9 28bb c4f5 e6bb e0f6 873d bbad 8d3d
000000c0: b64e e7bb eab3 d73c 5ff5 633c d95c 22bd
000000d0: 05b3 98bc 2a4a 58bd 05eb 393d 9254 5cbb
000000e0: d977 a13c 1ce6 54bd 7755 41bc abea c5bb
000000f0: 64ff e83c 1d1d 25bd 2c3d f4bc 8521 ca3c
00000100: c7a6 583c 2351 323c 8999 9d3c 0e6a 763d
00000110: 6cf7 de3b 0462 a03a 66ca 6e3d c76c debc
00000120: 17ed debc 5677 353d 3a34 383d 33fb 653d
00000130: 4bf7 e4bb d42f ad3c 039d 1e3d 6a6f 003d
00000140: db62 99bc 644b dc3c 6f32 67bd acf7 2d3d
00000150: 6304 9b3c a72e 38bd 90d2 32ba b252 f43c
00000160: 9883 44bd d10a bbbc 22b8 43bc db7c 90bc
00000170: 7e59 51bc ab5e 2abc 0e72 18bc 598c e1bc
00000180: c5a1 253d 906c a23c 118b f13c 10b6 e53c
00000190: 3fed 0c3d 5648 1ebd f008 f53c 44cc c4bc
000001a0: 8c3c b13c e972 053d 2978 95bc 4c6b 3e3c
000001b0: 5e37 4ebc e436 41bd a142 19bd 874d 883c
000001c0: e023 8b3b 42a6 73bd 33e2 1bbc d26f f9bc
000001d0: f49c 913c 1f6a 44bc a7e5 d13c 6554 13bd
000001e0: cfec 07bd 201d 82bd 1504 313c 3bcd ad3c
000001f0: 2236 a9bc d37c c5bb 3e9a 16bd c2cd d9bc
00000200: 8cd7 413d 0111 f73c d313 6ebd 3da4 79bd
00000210: e5be 5abd 5de3 90bc 7f6d 893c 8f1e 2bbd
00000220: a1b2 13bd fe90 bd3c 4631 03bc e30e ba3c
00000230: b63c 633d fef8 2bbd 4abc f0bb 874f 993c
00000240: c139 4cbd b280 1c3c e8cd 2f3d f152 19bd
00000250: 4239 433c 2ffd 603d f658 39bd a0a0 12bd
00000260: 8f92 07bd 00f2 5fbd ada7 c7bc e9a4 873c
00000270: f0a8 0dbd dd1e 2ebd d094 e13b ab97 0b3d
00000280: 24c9 83bd de87 e2bc e9b6 183c a267 2e3d
00000290: f627 6e3c c025 58bd d74f 063d 0d79 d63a
000002a0: 0b77 e2bc a575 083d 822c 0a3d 55bb 883c
000002b0: 12da 12bc ce67 2cbd 67a8 84bc d3ae b7bc
000002c0: 65b5 083d 80a0 723b ba81 84bc cde2 ca3c
000002d0: 0197 333d 1ff0 03bd 1864 853d 4b4c b53a
000002e0: 91a5 a6bb 3a9d eabc 50de 65bd 2e89 0fbc
000002f0: 52d6 85bc ab07 623d fc7f d1bb 9bd9 153d
00000300: fd76 263d 6d09 b9bc b6d8 123d 038d 563c
00000310: 6a26 5a3c e862 f4bc 9f2f dd3c bc1f 8d3c
00000320: 2468 7e3d f10d 93bb 9904 1fbd a2b8 4bbc
00000330: fa20 f33c be54 cebc bcbd 5a3d ded9 13bd
00000340: 0d08 12bc be65 ffbb 53b0 07bb 06da 7e3b
00000350: a585 843d 35bd 263d ff5d 023d 38b1 793d
00000360: e253 f4bc 3f9a 123d 3f25 2b3d 3ea9 90bb
00000370: fb53 c2bc eade 83ba 7033 f03c 4a60 44bd
00000380: e521 10bd 7570 f4bc fc8b b93c 1360 843c
00000390: 02e2 6d3d 5651 a738 aa0b d93c 29c1 99bc
000003a0: 4b55 833c 6f83 223c 3fa1 ffbb 46d7 76bc
000003b0: 2faa f53c 5b58 493d 75ae 2cbc 1fc5 213d
000003c0: ba94 b43c 95de b2bc 1f4a 99bc 5936 f23c
000003d0: c149 20bd 7cdd edbc c8fb a13b 497f f83b
000003e0: 08f9 5b3c 57cf 96bc 6bfd c13c 71e3 38bd
000003f0: 1879 0e3c d744 13bb 6d30 293c 1a69 1abd
0.0315694 0.01584218 -0.06627045 0.031363633 0.042628754 0.0038796985 0.0067964448 0.027361145
0.039979387 0.01050176 -0.028610222 0.028810961 -0.03954163 -0.038247738 -0.019056212 -0.0086618895
0.05259809 -0.0038155608 -0.048329573 -0.01618845 -0.0245495 0.04683363 0.05130103 -0.030149614
0.047018692 -0.033307545 0.008287972 0.027218213 0.0057795607 -0.019213071 0.012779869 0.04167668
0.04351665 0.017625567 -0.025369411 0.0072001726 -0.0131509695 0.052589193 0.0673284 -0.0030861485
0.042189106 -0.029886993 0.05434186 0.05356124 -0.0025783482 -0.0070483405 0.066388845 0.06917902
-0.0070589436 0.026330907 0.0139134815 -0.039639328 -0.01864005 -0.052805103 0.045390148 -0.0033619744
0.019710468 -0.051977262 -0.011800162 -0.0060399375 0.028442092 -0.040310968 -0.029814325 0.024674186
0.013223357 0.010883602 0.01923825 0.060159735 0.0068043973 0.0012236242 0.05829849 -0.027151478
-0.027212663 0.04430326 0.044971682 0.056147765 -0.0069874874 0.02114097 0.038723957 0.031356253
-0.018723896 0.026891418 -0.05644458 0.042472526 0.01892299 -0.044966366 -0.00068215374 0.029824588
-0.04797706 -0.022832306 -0.011945756 -0.01763766 -0.012777684 -0.010398547 -0.0093045365 -0.027532743
0.04043748 0.019827157 0.029485257 0.028040916 0.034405943 -0.038643204 0.029911488 -0.024023183
0.021635316 0.03258029 -0.018245773 0.011622261 -0.012586443 -0.04717149 -0.037417058 0.01663853
0.00424622 -0.059484728 -0.009514379 -0.030448828 0.017775036 -0.011988192 0.025622202 -0.035969157
-0.033184823 -0.063532114 0.010804196 0.021216026 -0.020655695 -0.006026843 -0.03676819 -0.02658737
0.047324702 0.030159475 -0.058124375 -0.060947645 -0.053404707 -0.01768654 0.016775845 -0.04177719
-0.036059026 0.023140427 -0.008007353 0.022712177 0.05547782 -0.041985504 -0.0073466646 0.01871468
-0.049859766 0.009552168 0.042920977 -0.037432615 0.011915507 0.054928955 -0.045250855 -0.035797715
-0.033098754 -0.05467415 -0.024371946 0.016558127 -0.03458494 -0.042509902 0.006884195 0.03408019
-0.06434849 -0.027652677 0.009320953 0.0425793 0.014535895 -0.052770376 0.032790985 0.001636298
-0.027644655 0.03331532 0.033733852 0.01669089 -0.008963125 -0.042091183 -0.016193582 -0.02242223
0.033376116 0.0037021935 -0.01617514 0.02476635 0.04384518 -0.03221142 0.06513232 0.0013831941
-0.005085655 -0.028639425 -0.056120217 -0.0087607335 -0.016337547 0.055183094 -0.0063934308 0.036584478
0.04064082 -0.022587502 0.035851203 0.013095143 0.013314823 -0.029832318 0.027000247 0.017227046
0.062111035 -0.004487746 -0.038822744 -0.012434157 0.02967881 -0.025186893 0.0534036 -0.036096446
-0.008913052 -0.007794111 -0.0020704463 0.0038887276 0.06470803 0.040707786 0.031827923 0.060960025
-0.029825155 0.03579163 0.041783568 -0.0044147065 -0.023721686 -0.001006094 0.029321402 -0.04794339
-0.035188574 -0.02983878 0.022649758 0.016159093 0.058076866 7.9783305e-05 0.02649482 -0.018768864
0.016031882 0.0099190315 -0.0078012045 -0.015065974 0.029988376 0.049156528 -0.010539641 0.03949463
0.022043575 -0.021834651 -0.018712102 0.02956693 -0.039132837 -0.029036276 0.0049433447 0.007583533
0.013426073 -0.018409414 0.02368041 -0.04513878 0.008695863 -0.0022471452 0.010326487 -0.03769789

encoder.block1.block.0.bias f4 [32]
00000000: 2cbd 783c d47a a7bb 940d 303d 2eaf 6d3d
00000010: ee9a 1bbd 4ab9 803d 7331 943d 3dc8 873d
00000020: ff71 83bd fe53 743d eb70 68bd cc82 823d
00000030: 94a3 6bbd 55d7 c83b f6c1 8a3d 2e04 5b3d
00000040: 52da 2abd 1061 6d3d d3b3 91bd 8b5b 953d
00000050: a4f9 f23b 1d12 983b 9b97 823c 4c7d d8b9
00000060: 142e 68bc 7ee3 3ebc e9b5 943d 9bca ce3c
00000070: 01d2 163d de91 62bd 3843 4c3c 7226 c7bd
0.015181821 -0.005111078 0.0429817 0.058028392 -0.03798955 0.06285341 0.07235994 0.06629989
-0.064182274 0.059650414 -0.056748312 0.06372604 -0.057529047 0.006129185 0.06775276 0.053470783
-0.041712113 0.057953894 -0.07114377 0.07292851 0.0074150134 0.004640831 0.015941432 -0.00041292084
-0.014171142 -0.011650918 0.07261259 0.025243094 0.03682137 -0.05531489 0.012467198 -0.0972413

encoder.block1.block.2.weight f4 [32]
00000000: 73eb 753f 7e79 773f c74f 733f cb89 743f
00000010: 4b01 763f fd0d 753f 668a 723f ca6b 763f
00000020: 45e8 723f d15b 743f 25aa 763f d4be 6d3f
00000030: 72f7 783f d023 743f 27f7 6e3f 6b93 713f
00000040: 8299 763f ba87 733f 735e 763f 9bfb 703f
00000050: 4a6d 723f 4ba0 743f 61c3 713f bea3 773f
00000060: effb 733f 8f05 723f d9e0 753f b0f2 713f
00000070: 6d76 753f d3bc 773f a6ab 743f 0fe0 763f
0.9606239 0.9666976 0.95043606 0.95522755 0.9609572 0.9572447 0.9474243 0.96258223
0.94885665 0.954526 0.9635337 0.92869306 0.9725257 0.95367146 0.93345875 0.94365567
0.96327984 0.9512898 0.9623787 0.9413392 0.9469801 0.9555709 0.9443875 0.96734226
0.95306295 0.9453973 0.96046215 0.94510937 0.9588383 0.967725 0.95574415 0.96435636

encoder.block1.block.2.bias f4 [32]
00000000: 8021 24bc 6572 d73a a9d7 a6bb 077e 333c
00000010: 8c5d 0dbb 995c 31bb d06c 7dbc b2ae 863c
00000020: 4954 123d 2eda f4bb 28e9 093a 0f82 44bc
00000030: cd45 583c d02d 2a3a ebc6 72bc 7387 f93b
00000040: 38c2 00bc 1671 703b 652b 28bc c5c2 153b
00000050: 4641 33bc d175 1b3c 8540 f8ba c2a2 a83b
00000060: 32a7 873a 6b85 8cbc 0faa 823c 30b0 b5bb
00000070: f7c7 04bc 820b 9a3c ed2d feba 6a66 3c3b
-0.010017753 0.001643729 -0.0050916267 0.01095534 -0.002157065 -0.002706325 -0.015467837 0.016440723
0.03572491 -0.007472298 0.0005260878 -0.011993899 0.013200236 0.0006491812 -0.014817934 0.0076150238
-0.007858805 0.0036688498 -0.010264252 0.0022851687 -0.010940855 0.009488539 -0.0018940127 0.0051463554
0.0010349511 -0.017153462 0.01595023 -0.005544685 -0.008104316 0.018804315 -0.0019392349 0.0028747567

encoder.block1.block.2.running_mean f4 [32]
00000000: f447 8a3d 6ac5 313d 0487 bc3e b9a5 a93e
00000010: 4166 533d f849 c83e 4af3 c93e 5b2d a63e
00000020: 27d8 e93c cd5b c03e 82ab 473d b8ce 9f3e
00000030: c7f0 0c3d fe40 df3c 8607 de3e 9bdb be3e
00000040: dc81 523d de5e d03e 5075 5a3d 3389 e13e
00000050: 28b0 163d ba6c b93e c60c c83e f72f 893d
00000060: c847 3f3d 8ff0 be3e 2e00 b43e 12d4 da3e
00000070: d4f5 833d 69cd e53c 038f cf3e 3ab7 c23c
0.06752005 0.04340116 0.3682176 0.3313425 0.05161119 0.39118934 0.39443427 0.32456478
0.028545452 0.37570038 0.048747547 0.312124 0.03440931 0.02725267 0.43365115 0.3727692
0.051393375 0.40697378 0.053334534 0.44049987 0.03678909 0.36215764 0.39072245 0.06698602
0.046699315 0.37292907 0.35156387 0.42739922 0.06443372 0.028052049 0.40538797 0.02376901

encoder.block1.block.2.running_var f4 [32]
00000000: 5148 c23e 47bb 873e 1acb 9f3f e3ef 603f
00000010: 7f62 9c3e 8bb6 8e3f bee7 613f 97ea 813f
00000020: f7d2 343e 995f fe3f 4467 133f 3cb0 633f
00000030: d0d2 2a3f 11a2 b93e c96f aa3f f920 683f
00000040: a2bd 873e efe3 b53f 8239 183f f0c8 8d3f
00000050: adf1 c13e edbc 883f 4caf 5e3f 4049 c43e
00000060: 7ee8 913e 13be 5d3f 66b6 463f b65b 8c3f
00000070: 8473 e93e 3c78 3b3e 0e52 993f d0a8 533e
0.37945798 0.2651007 1.2483857 0.8786604 0.30543897 1.1149458 0.88244236 1.0149716
0.17658602 1.9872924 0.57579446 0.8894079 0.66727924 0.3625646 1.3315364 0.9067531
0.26511866 1.4210185 0.5946275 1.1076946 0.37879696 1.0682656 0.8698623 0.38337135
0.2849769 0.86618155 0.7762207 1.0965488 0.45595944 0.18307585 1.1978166 0.20669866

encoder.block2.block.0.weight f4 [32, 73, 3, 3]
00000000: 44ef 943b 3ee3 023d ee4b ac3c a250 543b
00000010: 770c be3c 6db0 2dbd a18a 873d 2cdb f23c
00000020: 5ad8 023a fa92 a6bc 6a88 23bc b7a5 aaba
00000030: e31e 1c3d fb10 933b 2183 633c 12c7 83bc
00000040: a423 7cbb 8626 47ba 98e4 27bc 5a4d 213c
00000050: e983 753b da59 32bd 2d16 c8bd 47e6 a8bb
00000060: 854b dfbc 951d ce3c 8e73 6e3c 36fb e4bc
00000070: a1e0 b6bc 087b 1d3c 9ba9 363c c90d 1bbc
00000080: 891a 52bc f644 183c be5c 49bc 65a0 51bc
00000090: cb48 84bc bfef d3bc c1f8 e7bc fe93 51bd
000000a0: f9ca 18bd 5f88 9d3a 2874 073d a64d 9fbc
000000b0: 3549 febb 155c cebb ccef 813c a0e7 a3bc
000000c0: 659a ffbc fde7 153d 933b 073c f836 2e3d
000000d0: 51cf ab3a 4c4e c63c 37c9 2b3c 1d93 9cbc
000000e0: 0a4e 2dbc 3bbe 4ebc 348d 173c 123c 16bd
000000f0: 165c ec3c cdb0 013d 3880 7a3c b148 d93c
00000100: 4566 87bb 69ea 003d b532 493d a70a ad3c
00000110: 81ec ccbc d5fe dabb e50c 1b3d d817 eb3c
00000120: 76a8 b63c 4168 e13c 890d d5bc e33c 2d3d
00000130: 205b 803b 62b6 b73c 3b7b e23c 08c7 143d
00000140: 872e 0e3d c5b6 c8bc 9f00 37bd f2c0 533c
00000150: dd9e 17bd 9a35 04bb ee92 f5ba 931c 0bbd
00000160: 8940 29bd e4d6 4c3c 6d2c 1abc d97c 57bd
00000170: e615 7ebc 6594 95bc 84b8 8d3c 1b1d 9dbc
00000180: 5553 893c 1f93 873c c5b7 3f3d f4f7 79bd
00000190: b9dd b03c 9c05 eebc 520a e03c 3efd 733c
000001a0: 0357 74bc 46c3 0ebd 3775 4ebc 970f 05bd
000001b0: 9250 edbc abdd a33c 581b b83b b885 033d
000001c0: c6b3 183d efca f63c 9d18 75bc efe7 d63b
000001d0: bf25 30bd bc6c 43bc 19de b1bc 0df4 963b
000001e0: 9d87 a03c 900c 2b3c 4a2c 4dbc 2130 bdbb
000001f0: a740 4fbd b1d1 ccbc 3717 a83c c629 93bb
00000200: da92 56bc 51f4 cf3c 90bf ebbc 0d24 c23c
00000210: efc3 03bd bf5b 04bd 1f2c 4ebd a8b3 f3bc
00000220: 1a85 17bd 5f96 23bd 3749 f6bc 5078 013c
00000230: fcaa c2bc 3ea6 403d ab86 8bbc 65b2 e23c
00000240: 2255 4dbc d0df f63b 9332 bdb8 0a78 f23b
00000250: 4007 05bd c17e 54ba b6c0 4a3c 63bb 04bc
00000260: c520 47bd 4c41 dd3c 76b6 1dbd 9b8c 593c
00000270: 7036 03bd ea58 00b9 96cb ab3c 4aa2 a1bb
00000280: f007 d53c 0f38 82b8 7c15 b0bb fea9 4b3d
00000290: 7227 f03c 2d77 4fbd f82a 4ebd e615 18bd
000002a0: 478d e3bb cc51 51bd f345 a53a 5dc0 f03b
000002b0: 1c73 533c 69db 393c af81 ecbc a6ef babb
000002c0: 83ef efbc 4a56 d33c ee74 11bd ab5a 70ba
000002d0: f9c9 e0bc cf76 583c 4268 a13c ef85 833c
000002e0: 1881 23bd 6d88 44bc 882f 983c 31c8 1dbc
000002f0: 4141 dd3c 1a49 cdb8 2a60 0d3c ae6e 8b3c
00000300: 706a fb3c f533 67bc d179 f1bc c5f4 f23c
00000310: c008 2f3b ed52 6c3b 16cf 09bd f36c 93bd
00000320: 19fb 9dbc 00d0 3d3c 9425 05bc 4690 82bd
00000330: c17b 313d 5ae9 b63c 1c0d 043d f835 29bd
00000340: e7c4 ab3c f9ec 3cbb d45f aebb 2763 19bd
00000350: d8a0 03bd c9d0 c9bc ffda d2bb a72e 1fbd
00000360: ac9f e63c 212c da3b 4e28 d73c dd2f 7fbd
00000370: 5151 88bd 8d44 66bd 6192 68bd ceee 19bd
00000380: c11c fdb9 5b60 d3bc 4bfc 85bc 511f fa3c
00000390: 0a37 bb3c da4a babc 29b1 223d 8e27 b63b
000003a0: 4790 14bc 6bec fa3c eb8a a5bc 8e4e 533c
000003b0: cf28 eabc 2078 12bc b510 adbb 16cf 6bbd
000003c0: 7ca1 50bb 0258 0e3d 0dda 04bc abc7 063d
000003d0: 1c6b ec3c 3ede cb3c bf16 173d 7f13 153c
000003e0: 582b ca3b 93fa 51bd 4368 04bd 3ddf bb3c
000003f0: d6da 11bc 8802 22bd aa4a ec3b e791 253d
0.0045451242 0.031954996 0.0210323 0.0032396694 0.023199303 -0.04240458 0.06618238 0.029645525
0.00049913453 -0.020333756 -0.009981254 -0.0013019358 0.038115393 0.004488108 0.013886244 -0.016086135
-0.0038473392 -0.0007596988 -0.010247372 0.009845102 0.0037462658 -0.04354272 -0.09769855 -0.0051544043
-0.02725769 0.02516059 0.014553918 -0.027951818 -0.022323908 0.0096118525 0.0111488355 -0.009463736
-0.012823709 0.009293785 -0.012290178 -0.012794589 -0.016147992 -0.025871156 -0.028316857 -0.051166527
-0.037302945 0.0012018791 0.03306976 -0.019446205 -0.007760192 -0.006297598 0.015861414 -0.020007908
-0.03120155 0.036598194 0.00825395 0.04253289 0.001310805 0.024207257 0.010484985 -0.019113118
-0.010577688 -0.012618597 0.009249974 -0.03667838 0.028852504 0.03166275 0.015289359 0.02652392
-0.0041320645 0.03147355 0.049120624 0.021123243 -0.025015118 -0.0066832104 0.037854094 0.028697893
0.022297125 0.027515532 -0.02600743 0.042294394 0.003917113 0.022425834 0.027646651 0.036322623
0.03471234 -0.024501214 -0.044678327 0.01292442 -0.03701674 -0.002017355 -0.0018735805 -0.033962797
-0.04132131 0.012502406 -0.009410006 -0.0526093 -0.015508151 -0.018259237 0.017299898 -0.019178918
0.016763369 0.016549645 0.046806116 -0.061027482 0.0215901 -0.02905541 0.027348671 0.014891921
-0.014913323 -0.034854196 -0.012601188 -0.03248557 -0.028969083 0.02000316 0.005618494 0.032109946
0.03728082 0.030126063 -0.014959482 0.0065584104 -0.043004747 -0.01192778 -0.02171235 0.00460673
0.019595915 0.010440007 -0.012522766 -0.0057735597 -0.050598767 -0.025002332 0.020518882 -0.0044910638
-0.013096536 0.025385054 -0.028777868 0.023698831 -0.03216928 -0.03231406 -0.050335046 -0.029748753
-0.03699217 -0.039938327 -0.030064208 0.00790222 -0.023763172 0.04703354 -0.017031988 0.027672956
-0.012532504 0.0075340047 -9.0216425e-05 0.0073995637 -0.032477617 -0.0008106046 0.012375047 -0.008101317
-0.048615236 0.027008675 -0.038504086 0.013278152 -0.032034338 -0.00012240154 0.0209711 -0.0049326764
0.026004761 -6.209325e-05 -0.005373655 0.049722664 0.029315684 -0.050650764 -0.050333947 -0.03713026
-0.006944332 -0.0511034 0.0012609347 0.0073471502 0.012905862 0.011343815 -0.028870432 -0.005704838
-0.029289013 0.025797982 -0.035511903 -0.0009168784 -0.027440058 0.01321192 0.019703034 0.016055075
-0.039918035 -0.011995417 0.018577352 -0.009630249 0.027008655 -9.788778e-05 0.008628884 0.01702055
0.030690402 -0.014111509 -0.029477032 0.02965773 0.0026708096 0.003606017 -0.03364476 -0.07198515
-0.019284772 0.011585236 -0.008126635 -0.06375174 0.04333091 0.022328068 0.032239065 -0.041311234
0.020967914 -0.002882777 -0.005321482 -0.037448075 -0.032135814 -0.02463569 -0.006434798 -0.03886285
0.02815231 0.0066580926 0.026264336 -0.062301505 -0.06656135 -0.05621772 -0.056780223 -0.037581258
-0.00048277344 -0.025802782 -0.016355654 0.030532511 0.022853393 -0.02274077 0.039719734 0.0055589145
-0.0090676015 0.030630311 -0.020207843 0.012897147 -0.028583912 -0.008939773 -0.0052815326 -0.05757054
-0.0031834533 0.0347519 -0.008108628 0.032905262 0.028859667 0.024886247 0.036886927 0.0090988865
0.0061697178 -0.051264357 -0.032325994 0.022933597 -0.008902272 -0.039553195 0.007211049 0.040422346

encoder.block2.block.0.bias f4 [32]
00000000: 9287 223c 1eed 81bc c1b8 7ebc 3d66 933c
00000010: 70b9 53bd 9a67 6a3c 7329 c5bc f478 2f3d
00000020: 917b 40bd cda4 973d f38d 61bd 160f 40ba
00000030: 0f83 7e3d 5dc7 2b3d caaa 6f3d a45d 553d
00000040: 8e77 093e 4893 103d d2c9 893d 3014 1f3d
00000050: c0f2 00bd fc76 6e3c c6e0 c13c 196f 3e3d
00000060: 4d8c 89bc ac69 6d3e 6b40 15bd 96f9 2abd
00000070: dadf 46bc 008d 6b3c 85d8 e2bc 22e9 1ebd
0.009920018 -0.015860137 -0.015546978 0.017993087 -0.05169052 0.014306927 -0.024067616 0.04283996
-0.046992842 0.0740448 -0.055067014 -0.0007326467 0.062136706 0.041938175 0.058512487 0.052091256
0.13424513 0.03529671 0.06727947 0.03883761 -0.031481504 0.014554735 0.02366675 0.04649267
-0.016790533 0.23184842 -0.036438387 -0.04174193 -0.012138331 0.014376879 -0.027691135 -0.03879655

encoder.block2.block.2.weight f4 [32]
00000000: 3fe7 733f cdbd 6d3f 0677 743f 492a 743f
00000010: ae26 723f a564 723f 6907 783f 1868 733f
00000020: 8847 733f 3121 743f 47c6 743f ceb2 773f
00000030: f2f5 733f 02d6 723f 84a7 753f 4055 6f3f
00000040: fd67 713f 4c27 753f b402 693f 781c 703f
00000050: 5860 743f ebe0 723f 26d7 723f 4f07 723f
00000060: d018 773f 2e9e 753f 5353 743f 0d4b 723f
00000070: 80dc 723f 26d7 743f ce8c 743f b6e2 743f
0.9527473 0.9286774 0.95494115 0.9537702 0.9459027 0.9468482 0.96886307 0.9508071
0.95031023 0.95363146 0.9561505 0.9675721 0.9529716 0.948578 0.95958734 0.93489456
0.942993 0.9576309 0.9101975 0.9379344 0.9545951 0.9487445 0.9485954 0.945424
0.96522236 0.9594449 0.9543964 0.9464577 0.94867706 0.9564079 0.9552735 0.95658433

encoder.block2.block.2.bias f4 [32]
00000000: ed8b 2abc 1115 68ba 4f23 843c 3cfc 55bb
00000010: 4c24 d13b 4306 f53b 4118 c23b 6259 9fbb
00000020: aa34 99bb c33b e5bb fb91 f2bb 1af8 51bc
00000030: abec 3a3a 7efc f93b 16be 79bb eedf 08bc
00000040: ad7b c6bb b352 37bc 9af9 343c 7786 03bc
00000050: a18f 0dbc 5355 27bc 379c 793a 3948 09bc
00000060: d1bd 013b 97f5 7d3a 54d4 0eb9 8848 253c
00000070: b184 09bc fe86 87bb de46 eebb 9547 c339
-0.0104093375 -0.0008853237 0.016130118 -0.0032651564 0.0063825008 0.007477553 0.0059233014 -0.00486295
-0.0046754675 -0.0069956495 -0.007402656 -0.0128155 0.0007130603 0.0076289764 -0.0038107685 -0.00835417
-0.006057224 -0.011189151 0.011045838 -0.008027664 -0.008640201 -0.010213214 0.0009521874 -0.008379036
0.0019796977 0.000968778 -0.00013621274 0.010088094 -0.0083934525 -0.0041359654 -0.0072716316 0.0003724663

encoder.block2.block.2.running_mean f4 [32]
00000000: 3033 e43e e48b 863e 490d 0b3e 7a73 f63d
00000010: 4d4b 2f3e 0f9a c63e 17f0 ad3d 7f6d e43e
00000020: c7e0 c13d f244 d23e 2dc4 bb3d 0343 d93d
00000030: 0293 bc3e 7b09 af3e aecc 113f 8f46 9f3e
00000040: 50c3 123f ac4e 293e de12 3b3f 024a 203f
00000050: fd7d 013e 5b9e af3e 42da 973d 112b ba3e
00000060: 565e bb3d 129d 223f c2e9 0a3e ad82 243e
00000070: 6a36 473e 95dc 293e 6a79 133e 9987 f83d
0.44570303 0.26278603 0.13579287 0.12033744 0.17118569 0.38789412 0.08493059 0.4461479
0.09466701 0.41068226 0.09168277 0.106084846 0.36830908 0.3418692 0.5695294 0.3110852
0.57329273 0.16533917 0.73075664 0.62612927 0.12645717 0.34300503 0.07414676 0.36360982
0.091488525 0.6352092 0.13565734 0.16065474 0.19454351 0.16588052 0.14401785 0.12135238

encoder.block2.block.2.running_var f4 [32]
00000000: cf8c 0840 89b6 da3e 79ee 1740 c5ac ad3f
00000010: 2122 0240 fcbe 4740 3f33 0840 19be 8e3f
00000020: a1b8 ee3f 80e2 0f40 8cbb 9f3f 9272 2b40
00000030: 2cab 3d40 e4e3 a23f 2396 8a40 e080 743f
00000040: dc0a 3140 9390 0040 c8c2 bb3c 73d7 6040
00000050: fded bb3f a114 ec3f 74b1 b83f e8a1 eb3f
00000060: fecd 4440 e2c2 4040 5c98 fb3f 3b1c d93f
00000070: 82ff 0640 20e9 0040 5d7c 1740 bff7 b13f
2.1335943 0.42717388 2.3739302 1.356835 2.033333 3.1210318 2.1281278 1.1151763
1.8650094 2.2481995 1.247911 2.6788678 2.9635725 1.2725797 4.330827 0.9550915
2.7662878 2.008824 0.022920027 3.51315 1.4682003 1.8443795 1.4429154 1.8408785
3.0750728 3.0118947 1.9655871 1.696174 2.109345 2.0142288 2.3669655 1.3903731

encoder.final.block.0.weight f4 [3, 105, 3, 3]
00000000: 80f4 313c a1d1 553c 0a07 383c 69d5 07bc
00000010: 8377 2c3c 4076 efba a240 743c 129a 0f3c
00000020: 6523 6ebc 2a0c 8dbc 7c75 58bc fe8a 483c
00000030: 3a52 9dbb 2b12 ea3c 7564 a03b 3ee3 bdbc
00000040: 6226 99bc b0b1 a03c 43df 7f3c 5415 ae3c
00000050: e1ac 833c db62 303b 2c7a b13b 3112 c83c
00000060: 6e54 643b 5e07 c13c fe5b f93c 2478 85bc
00000070: d741 e63c 2f66 a9bc 6a8d 70bc 613c aebb
00000080: 483d aa3b f6cd bd3c e6b4 aa3c dc85 ce3c
00000090: d71e 51bc 1d9c 09bc 28c8 27bb 3023 39bc
000000a0: 03ec 9ebc 9ee8 c63c 8134 043d be2d c6bc
000000b0: 8d26 d53c bf14 d73c 5026 adb9 5fed 06bc
000000c0: 8630 f63c 609b a63c 94d0 f53b f0de 52bb
000000d0: 99cc d8bb 25a9 a03c 9f63 953c f9d3 fe3b
000000e0: 1af6 9b3c 4a27 f23c a062 bb3c 9849 afbb
000000f0: 64a6 abbc 8b62 92bc d773 b03c 5a14 913c
00000100: ad7f 76bc 8ae7 3bbc 71e8 04bc 8d5c 293c
00000110: 608f 483b fd83 f83b a8a5 4f3c 45f4 cd3c
00000120: d284 9c3c 279c cf3c bebb e6bc 9db9 acbb
00000130: ff0e d5bc 25d4 a03c 27d7 d63a 8e41 dcbc
00000140: 0497 69bc 19dd cebc 666c 953c 2cb3 823b
00000150: 6df3 943b aab0 aeb9 6f42 98bb 5429 48bc
00000160: 3006 8e3c 9cce b33b 91d1 cfbb 856e e8bc
00000170: 30a6 da3a f591 9bbc 9a92 753b 41ca ad3c
00000180: 0b9e e9bc b098 cfbb 90cb 8fbc 18a8 47bb
00000190: 02f1 bd3c fd5c e7bc 3f8b fc3a 98a8 77bc
000001a0: 00f5 56bc 8def a83c b9ef d93b 3641 b93c
000001b0: c05d 37bb 2310 acbc 447d ae3b 7f60 bcbb
000001c0: a8e1 89bc 9e31 433c c365 cd3b ecd3 92bb
000001d0: 8f74 e3ba 622b 0eba e0c2 afbc 1d7f f33a
000001e0: 175d d9bc 6609 973c 89d1 3e3c 0092 5bbc
000001f0: d829 58b8 296c eebc 0761 023c be0d eebc
00000200: 74d2 ce3c e26e 56bc 5dbb f3bc d0f7 29bc
00000210: 9e79 ddbc 374a b93c 201f 043c 6685 d23c
00000220: 963e a23b f1f1 7a3c c47e f53b 52e0 f93c
00000230: 5575 2b3c 764e 0e3c 49c8 b33c 243a 1fbc
00000240: ef48 433a 0411 0dbc d2c6 1c3c 0c6f 843c
00000250: 8c85 bebb 729c de3c d41e 603c 27e0 063b
00000260: d64d 82ba b95f 15bc be13 333c 6f8d 36bc
00000270: 8f6c d9bc 4070 a23b c4c7 bf3b 6f27 233c
00000280: ca2d 593c ef4d d039 ff25 e43c d8e8 edbc
00000290: 5d15 fa3c f393 193a 3f6c e03c 2aae 87bc
000002a0: 0f94 d2bb b702 b03c 4fbe 3f3c fa84 e03b
000002b0: aac7 d43c 328f 053c 357a 9f3b a94b c63b
000002c0: c037 d03c aa42 a53c 3b19 efbc 4893 9dbb
000002d0: c638 303c f949 be3c 3307 8e3c 0253 263b
000002e0: b9d3 903b cf62 33bb 3020 543c 9b6f 913a
000002f0: 8958 bcbc 2a6c d7bb ac47 153c ed83 3fbc
00000300: 7dcd ed3c 9e50 8eba 679d 493c 472d babc
00000310: 9678 4fbb 589e a6bc 6cbf 493b b666 df3c
00000320: e0cd af3b cd01 d9bc 9c55 ca3c e356 f83c
00000330: 8eba 8fbc 16fb 3bbb ec87 a6bc 4bf4 22bb
00000340: 2abb 80bc e646 ecbc 4c1b e33c 378b acbc
00000350: fed7 b43c c6be 85bc 435c be3c cabe 8c3c
00000360: 76ed c93c eaa1 efbc b73b 803c e7fa 46bc
00000370: ded6 f7bb ba34 ccbc 8e44 1dbd 4f54 e5bc
00000380: 2ce7 00bd 5a19 c33c b0be 82bb 428f 0e3d
00000390: 74a5 0cbc 1309 823c df2f 41bc 1037 2e3b
000003a0: d2d5 823b a1ff 693c 883a a1bc 4050 373c
000003b0: 3909 bc3c 2b94 52bc f3bc 723c 6c9d 483b
000003c0: 727b 9abc 15c9 b7bc 33dd 53bc 73a0 3e3c
000003d0: 36b3 073c d863 c13c f65b b83c 9e77 063b
000003e0: f649 89bc 8ec9 76bb 79c6 a2bc b222 e23b
000003f0: 0b98 fabc 265b 853c 1d78 fc3b 35b8 09bb
0.010861516 0.013050468 0.011232147 -0.008290627 0.010526541 -0.0018269494 0.014907988 0.008764761
-0.014534806 -0.017217714 -0.013211604 0.01224017 -0.004801062 0.028573116 0.004894788 -0.023179647
-0.01869506 0.019615978 0.015617195 0.021250404 0.016073646 0.0026914391 0.0054161754 0.024422737
0.0034840363 0.023563083 0.030439373 -0.01629264 0.028107567 -0.020678608 -0.014682153 -0.0053172563
0.0051952936 0.023169499 0.020838212 0.025210313 -0.0127637 -0.008399037 -0.002560148 -0.011299893
-0.019399649 0.024280842 0.032276634 -0.024191733 0.026019359 0.02625501 -0.00033025676 -0.008235305
0.030052435 0.02033776 0.007501671 -0.0032176338 -0.006616187 0.019611904 0.01823598 0.007776734
0.019038249 0.02955975 0.022874177 -0.005349349 -0.020953365 -0.017869255 0.021539612 0.0177099
-0.015045089 -0.011468777 -0.008112059 0.010337007 0.0030603036 0.0075840936 0.012673773 0.02514089
0.019106302 0.025343014 -0.028165694 -0.0052711503 -0.026008127 0.019632408 0.0016391025 -0.026886728
-0.014257196 -0.025251912 0.018240165 0.003988644 0.00454562 -0.0003331949 -0.0046465914 -0.012216885
0.017336935 0.0054872762 -0.006342121 -0.028373012 0.0016681608 -0.018990496 0.0037471415 0.021214606
-0.028517744 -0.0063353404 -0.01755312 -0.0030465182 0.02318621 -0.028242582 0.0019267573 -0.0151158795
-0.013119936 0.02062204 0.0066508916 0.022614103 -0.0027979463 -0.021003788 0.0053249914 -0.005748808
-0.016831234 0.011913685 0.0062682345 -0.0044808295 -0.0017353463 -0.00054233347 -0.021455228 0.0018577311
-0.026533647 0.018437099 0.011646637 -0.013401508 -5.1537383e-05 -0.02910431 0.007957703 -0.029059287
0.025246836 -0.01308796 -0.029752428 -0.0103740245 -0.02703553 0.022618396 0.008064061 0.025698375
0.0049513085 0.015316472 0.0074919183 0.030502472 0.010464986 0.008685699 0.02194609 -0.009718452
0.00074495276 -0.008610014 0.009568887 0.016166233 -0.00581426 0.027174208 0.013679225 0.0020580383
-0.000994141 -0.00911706 0.01093 -0.011142119 -0.026541023 0.004957229 0.0058526713 0.009958132
0.013255546 0.00039730917 0.02785015 -0.029041693 0.030527765 0.0005858533 0.027395366 -0.01656254
-0.0064263414 0.02148567 0.011703088 0.0068517895 0.025974113 0.008151816 0.004866863 0.0060515
0.025417209 0.02017339 -0.029186836 -0.004808817 0.010755723 0.023228632 0.017337417 0.0025379066
0.0044197706 -0.0027372127 0.012947127 0.0011095883 -0.022991436 -0.0065741735 0.009111326 -0.011689168
0.029028649 -0.0010857766 0.012305594 -0.022726668 -0.0031657568 -0.020339176 0.0030784262 0.027270656
0.0053651184 -0.026490116 0.024699025 0.030314868 -0.01754501 -0.0028683594 -0.020328484 -0.0024864848
-0.015714247 -0.0288424 0.027722977 -0.021062477 0.02207565 -0.01632632 0.023237353 0.017180819
0.024649363 -0.029252011 0.015653474 -0.012144781 -0.007563456 -0.024927486 -0.038395457 -0.027994303
-0.031470463 0.0238158 -0.003990017 0.03480459 -0.008584369 0.015873468 -0.0117911985 0.0026583113
0.0039927745 0.014282138 -0.01968123 0.011188567 0.022953616 -0.012852709 0.014815557 0.003061141
-0.018857691 -0.02243475 -0.012931156 0.011634934 0.008282473 0.02360718 0.022504788 0.0020518075
-0.0167589 -0.0037656757 -0.01987003 0.0069011087 -0.030590078 0.016278815 0.0077047483 -0.0021014337

encoder.final.block.0.bias f4 [3]
00000000: 33ff 99bc 703c 04bd aa80 ad3c
-0.018798446 -0.0322842 0.021179516

decoder.initial.block.0.weight f4 [32, 3, 3, 3]
00000000: b806 0d3e 5c08 7d3d 1ecd 033e dc99 38bd
00000010: 616f f13d bda2 c4bd 009f 673d 3a20 893d
00000020: 780a 0b3d 07e3 273d 5e4e 11bd b91e 603e
00000030: 02b2 9dbd 0040 313e d637 30bd 50b1 3ebc
00000040: 4e25 b03d 36fc 173e 65ee df3c e65b 943d
00000050: 8baa 7a3b 9985 913d b498 11be 6e8b 15bd
00000060: 2a0d 223d 05a9 2ebe db8c 433e e71a 0e3d
00000070: efdf 3d3e b31f 213e ae43 a23c 7ec5 0e3e
00000080: aae4 083e 21f9 1a3e 145f 3d3e 8f6a a33d
00000090: 47ce 23be 5a9a 01be 7ccc 64bd 96d2 9fbc
000000a0: 8d47 683d f43f ac3d e74f 00be 2194 29bb
000000b0: eac6 db3d 72f5 883d 11bb 96bc 6a4a c63c
000000c0: 9e06 3e3e 2363 62bd 730e 0c3e 1fc4 943d
000000d0: 2b52 603d 6f31 043d 28cb 8bbc c1fc dbbd
000000e0: 5739 053e 3348 2abe 4156 17bd ea12 1e3e
000000f0: e1e3 3b3e 6a56 00be e6ef 1bbe 1f64 82bd
00000100: 38b0 0d3e 93c3 21be 3933 86bd e2e1 193e
00000110: f8e7 61bc 8d2a 87bd 4171 a4bd eb78 173e
00000120: f0c3 4bbd 4c4e 2abe 5b20 813c 370d 4c3e
00000130: ec4e 1cbe 1f32 2dbe 3882 4bbe b17c 2a3e
00000140: 433e bf3d 2898 383e d7d8 a63d 9c0a eabd
00000150: eb36 05be 9b8a 33bd e0c6 9bbd a729 88bb
00000160: 6923 6fbd dbfc 353d 39e4 993d a268 88bb
00000170: c5d5 6a3c bbb1 b33d 4e7c 49be aa36 54bd
00000180: 6504 b6bd a506 f43c c26a 273e 8ed1 d43d
00000190: d926 6dbd 0881 48bd 61cd 95bd 7a9a 023c
000001a0: 708f bfbd a75c 123d 4c0f b23d 1568 1c3e
000001b0: 6929 603e 9279 c4bd fbe5 08be 40c8 1abe
000001c0: 2308 c2bd 18e2 25be 36a1 06be a5a2 cabd
000001d0: d14a 65bd 1c2f 203e 582e e43d 68f0 8ebd
000001e0: d5f0 4e3e 3448 9fbd c33d 6b3c 0107 443c
000001f0: 0249 ed3d 8779 08be 9bba 25be a46d d83d
00000200: 7cee 833d 7480 833d 563b f7bc 0935 d4bd
00000210: 3472 8abd 7b1f d1bd c361 653c c813 5e3c
00000220: ff7e 533d 0c62 eabd 1923 f4bc e41b 133e
00000230: 8543 36be efc3 06bd 092a 9abd 4003 003e
00000240: 0c1e 3a3b fde3 6d3d 1633 b3bc 6b54 d43d
00000250: a277 6ebd be81 d4bd 9fe9 203c 27e3 16be
00000260: 98aa 1dba 5e49 ffbb e7ae 28bc ad32 453a
00000270: ffca 8d3d 89e9 76be 367a 523e c2bb 1fbd
00000280: aec3 4d3d d640 c7bd 9dea 05bd a9f0 84bd
00000290: 3f17 853d 62ca bfbd bc52 1f3a f990 c73c
000002a0: 0d17 1ebe 0baa 0e3e 6ee6 283b cc8e d33d
000002b0: 0a75 10be 059e 893d 16b0 f0bd beb9 b43d
000002c0: b75f 693d ce97 24be 822f 223d b1ea af3d
000002d0: db46 16be 39ff 92bd 1d54 ce3d 028e 03be
000002e0: df9b 273d c1bc 0d3e a75c eebd c636 093e
000002f0: a1fb 08be 6271 7bbd 26ce 88bc 286f d2bc
00000300: 7f1b 24be 8ccc 633e 96e8 273e 8552 f8bb
00000310: de4e 4abd 0b09 edbd 909d 0dbe 17c4 143e
00000320: 482c e2bd 2188 03bd fa6f 4f3d bfbc 3cbe
00000330: fcda b9bd 993f 713c a139 fbbd 1cff 243e
00000340: ae4d 55bc eedb 13be 597f 73bb 4e85 983d
00000350: ee36 47bb b1c9 abbc f681 2dbe 1757 273e
00000360: 3ba2 2dbd 2b00 123e 0396 8abd 7ca8 2f3e
00000370: afc0 ffbd 5333 3cbd 6284 cabb ebf0 9bbc
00000380: eb59 c13d d81b 243e 44b8 4fbe b58f 76bd
00000390: 7eb1 76bd 11ea 013d 62df cabc 46cc 9d3d
000003a0: fac8 953d 7297 d7bc 367e 72bb 6f30 4ebd
000003b0: 9ae3 93bd 4c73 56bd aebf 94bd 5a4b 96bd
000003c0: e61e 8c3d e558 f8bd 9f62 6d3c 141c 0f3e
000003d0: 78a5 1ebe 5a62 15bd a245 fc3d c2b3 02be
000003e0: 9e5d f9bd 656c 5dbe 3e7c 2a3e 57cc e33d
000003f0: 1ce3 bdbd 799a a6bc d560 093e 07e2 713d
0.13772094 0.06177555 0.12871215 -0.045068607 0.11788822 -0.09601352 0.05654812 0.066956
0.03394553 0.040987995 -0.035475127 0.2188672 -0.07699968 0.1730957 -0.043022 -0.011638954
0.08600865 0.14842305 0.027335355 0.07244091 0.0038248624 0.0710556 -0.14218408 -0.036509924
0.039563335 -0.17056663 0.19096701 0.034693625 0.18542455 0.15734749 0.019807663 0.13942525
0.13368478 0.15134098 0.184933 0.07979309 -0.15996657 -0.12656537 -0.055859074 -0.019509595
0.05670886 0.084106356 -0.1253048 -0.0025875645 0.10731299 0.0668744 -0.018399747 0.024205405
0.18557212 -0.055270325 0.13677387 0.0726397 0.05476586 0.032273706 -0.017064646 -0.10741568
0.13010155 -0.16629104 -0.036947493 0.15436903 0.18348648 -0.12532964 -0.15228233 -0.06366753
0.13836753 -0.15797262 -0.06552739 0.15027574 -0.013788216 -0.06599913 -0.08029414 0.1479222
-0.049747407 -0.1663143 0.015762499 0.19926916 -0.15264481 -0.16913651 -0.19873893 0.16649128
0.09338047 0.18026793 0.08146828 -0.11427805 -0.13009231 -0.043833356 -0.07606292 -0.004155356
-0.05838338 0.044430595 0.07514233 -0.004162864 0.014333193 0.08774134 -0.19676325 -0.051809944
-0.08887557 0.029788325 0.16349319 0.10391532 -0.057898376 -0.04895118 -0.073145635 0.0079714
-0.093535304 0.03573289 0.08694324 0.15274079 0.21890797 -0.095935 -0.1336898 -0.15115452
-0.09474208 -0.16199529 -0.13147435 -0.09894303 -0.055979554 0.15642971 0.11141652 -0.069794476
0.20209058 -0.077774435 0.014357987 0.0119645605 0.11586191 -0.13327609 -0.16184466 0.10567787
0.06441972 0.06420985 -0.03017966 -0.10361678 -0.06760064 -0.102110825 0.014000359 0.013554521
0.051634785 -0.11444482 -0.029801892 0.14366108 -0.17799194 -0.0329017 -0.07527549 0.1250124
0.0028399257 0.058078755 -0.021874946 0.10367664 -0.05821956 -0.10376309 0.009821325 -0.14735089
-0.0006014495 -0.0077907285 -0.010295606 0.0007522505 0.06923484 -0.24112524 0.20554432 -0.03899742
0.050235443 -0.09729163 -0.032694448 -0.06491215 0.064985745 -0.09364773 0.0006077697 0.02436112
-0.1543848 0.13932054 0.0025772112 0.10329971 -0.14107147 0.06719593 -0.11752336 0.0882449
0.056976046 -0.16073534 0.03959609 0.08589686 -0.14675467 -0.07177586 0.10074637 -0.1284714
0.040920135 0.13841535 -0.11638766 0.133998 -0.13377239 -0.061387427 -0.016699862 -0.025687769
-0.16026114 0.22245997 0.16397318 -0.0075781965 -0.04939162 -0.115739904 -0.13829637 0.14527927
-0.11043602 -0.032112245 0.0506439 -0.18431376 -0.09074971 0.0147246355 -0.12266851 0.16112942
-0.013019009 -0.14439365 -0.0037154763 0.07447301 -0.003039773 -0.020970197 -0.16944107 0.16341816
-0.042391043 0.14257877 -0.06766894 0.17154115 -0.12487923 -0.045947384 -0.006180332 -0.019035777
0.094409786 0.16026247 -0.20285136 -0.060195643 -0.060227863 0.031717364 -0.02476472 0.07704978
0.07313724 -0.026317332 -0.0037001497 -0.05033916 -0.07221146 -0.05235605 -0.072631225 -0.07338591
0.06841831 -0.1212633 0.014488845 0.13975555 -0.15492809 -0.03647075 0.12317969 -0.12763885
-0.12176059 -0.2162338 0.16648957 0.11122959 -0.09271833 -0.02033733 0.13415845 0.059053447

decoder.initial.block.0.bias f4 [32]
00000000: abea 20bd 9f4c 423c dbf2 81bd 06dd 803c
00000010: 5d70 c93d b7bc 30bc 9c93 4ebc 4495 f73d
00000020: 1b5f 16be 60fb 05be e92e 1f3e 780b 08be
00000030: b657 133e c049 b23d 745d 48bd 547e 8f3d
00000040: 8c44 a9bd 415a 523b 318e 183e ed04 3d3e
00000050: b227 0ebe b69b 103e 8733 e13d 1d8a 043d
00000060: b251 e4bd 99ce f63c f00c 0b3e cb92 64be
00000070: f4fa c8ba 23ab ddbd 4c4d 73bd 6365 97bd
-0.039286297 0.011859088 -0.06345149 0.015730392 0.09835885 -0.010787181 -0.012608435 0.12089017
-0.14684717 -0.13084173 0.15545239 -0.13285625 0.14388928 0.08705473 -0.04891725 0.07006517
-0.082650274 0.0032097253 0.14897992 0.1845891 -0.1388233 0.14121899 0.10996156 0.032358278
-0.11148395 0.03012781 0.13579154 -0.22321622 -0.0015333579 -0.10823657 -0.059399888 -0.07392385

decoder.initial.block.2.weight f4 [32]
00000000: b410 793f 1b15 793f 6471 7d3f c1d1 933f
00000010: 86fe 7a3f e6e4 7e3f b19d 823f 929a 7f3f
00000020: add8 803f 90e6 803f 0998 7c3f e3eb 7e3f
00000030: 183e 803f dbd9 823f c398 823f 45c2 703f
00000040: 9fa0 833f 3a96 813f 7a0a 813f 86ac 753f
00000050: f262 803f 4238 763f b25f 773f b20a 823f
00000060: be80 763f fa87 823f 6c48 873f 2ac9 773f
00000070: cc1c 833f 4be8 7b3f 08b9 7a3f 3b55 843f
0.9729111 0.9729783 0.99001145 1.1548387 0.9804462 0.9956802 1.0204374 0.9984523
1.0066124 1.0070362 0.9866949 0.99578685 1.001895 1.0222734 1.0202869 0.9404643
1.0283393 1.012397 1.0081322 0.95966375 1.0030196 0.9617959 0.96630394 1.0159514
0.96290195 1.0197747 1.0568976 0.96791327 1.0243163 0.98401326 0.97938585 1.033851

decoder.initial.block.2.bias f4 [32]
00000000: ce72 05be 8331 6bbe 2789 9c3d 4eb3 73bb
00000010: 35e5 14be c9a7 0abe 283b 2abd 5f3d cd3d
00000020: 22ef 8fbd 96de 4c3d 6baf 3c3e 12bb 14bc
00000030: 27da 303d 4778 22bd 6618 8e3d 1b1d f3bc
00000040: 524d b9bc 615e 37be dd12 7bbb 2744 d3bd
00000050: eb09 c03d 4aaa 033b 5e10 0b3e 685a a73d
00000060: 3833 27bc 131d 06be 2348 083c a364 313e
00000070: 35d7 6b3d a190 763d 60b1 debd 16be 0d3c
-0.13032076 -0.22968106 0.07643347 -0.0037185731 -0.1454056 -0.13540567 -0.041560322 0.10021471
-0.07028033 0.050016962 0.18426292 -0.009077804 0.043176796 -0.039665487 0.069382474 -0.029676965
-0.022619877 -0.17907096 -0.0038310804 -0.103157334 0.09376892 0.0020090514 0.13580462 0.081715405
-0.010205083 -0.13097028 0.00831798 0.17323546 0.057578284 0.060196523 -0.10873675 0.008651277

decoder.initial.block.2.running_mean f4 [32]
00000000: 7cca 31bc baf8 5dbc ac13 b43e ba3a 1a3b
00000010: 9c72 323f 8767 a43e 6643 883e c912 1c3f
00000020: 735a 173e ca1f a83e aed8 ff3e 7317 403f
00000030: 7a9c 153f 5982 273e d932 e13e bbd4 6bb9
00000040: 490e 1c3b 6044 09bc f8ee 313c 6baa bc3e
00000050: a913 113f c11b 8b3e 9f55 283f ecc2 d43e
00000060: 0b63 19b9 8f8e 35bc 6db0 993a 1750 0ebc
00000070: d6a2 a93e da5b 6d3e 9a40 843e cd45 e13a
-0.010851499 -0.013548071 0.35171258 0.002353354 0.6970613 0.32110235 0.2661392 0.60966164
0.14780597 0.32836753 0.4997 0.7503578 0.5844189 0.16358317 0.43984106 -0.00022490595
0.0023812226 -0.008378118 0.010860197 0.3684877 0.56670624 0.27169612 0.6575565 0.41554964
-0.00014628113 -0.011081352 0.0011725553 -0.008686087 0.33132046 0.2317957 0.25830537 0.001718694

decoder.initial.block.2.running_var f4 [32]
00000000: 8e63 9134 2ed8 5c34 4ad8 b139 2bd3 2e3a
00000010: a649 d03a 2b68 8439 eb3f 333a 9be3 a43a
00000020: d298 f539 bcb4 a739 1eb5 d839 1f3d 683a
00000030: 131c 2d3a 9f20 aa39 57e9 d43a 5a0b 5939
00000040: 93f1 a23a 463e 0d34 8eb6 a73a 3351 1c3a
00000050: 8bdf 143a 24d8 ed39 3435 ba3a 257d 4d3a
00000060: 98ba af39 77d1 ea33 8fae 3739 8a4f c733
00000070: d23c 3939 9d27 b639 4479 7139 95be d539
2.708079e-07 2.0567742e-07 0.0003392122 0.000666904 0.001589109 0.00025254613 0.00068378326 0.0012580039
0.00046843902 0.0003198738 0.00041333673 0.00088592054 0.00066036097 0.0003244923 0.0016243857 0.00020698961
0.0012431614 1.3154303e-07 0.0012795494 0.00059630274 0.00056790625 0.000453652 0.001420653 0.00078387774
0.00033517624 1.09345756e-07 0.00017517268 9.281128e-08 0.00017665632 0.0003474326 0.00023028726 0.0004076852
