models/archived/norm-augmented/BasicSteganoGAN/12/epoch_12.pth (torch, 359071 bytes, 59 tensors)

encoder.initial.block.0.weight f4 [32, 3, 3, 3]
0	0x3d332fb9	0.043746684
1	0x3dd4a593	0.10383143
2	0x3e41a563	0.18910746
3	0x3d61bbaa	0.05511061
4	0x3d89fc9e	0.06737636
5	0xbd84c9aa	-0.06483777
6	0xbe1dff5f	-0.15429448
7	0x3e376897	0.17910992
8	0x3e2aa891	0.16665865
9	0xbd57c3fd	-0.052677143
10	0xbd04a268	-0.032381445
11	0x3e18ea6c	0.14933175
12	0x3e2a127d	0.16608615
13	0xbe2c69ef	-0.16837285
14	0xbde2e483	-0.110787414
15	0xbd67bb94	-0.056575373
16	0x3d4ecc42	0.050487764
17	0xbe279a27	-0.16367398
18	0xbd860d4f	-0.06545507
19	0x3dc66fd1	0.09689296
20	0x3d4ddb13	0.050257754
21	0x3df62116	0.120180294
22	0x3d9987d1	0.07496608
23	0x3d4537cc	0.048148915
24	0xbd810a47	-0.063007884
25	0x3e426b1f	0.18986176
26	0x3e50d695	0.20394357
27	0x3dc01f6c	0.09380993
28	0x397734e5	0.0002357546
29	0x3d972776	0.073805735
30	0x3e3ecf32	0.18633726
31	0xbe0913f8	-0.13386524
32	0xbcc55c54	-0.024091877
33	0x3e2cf9c7	0.16892157
34	0x3e4f3ecd	0.202388
35	0x3dafb28c	0.08578977
36	0x3cddffa8	0.027099445
37	0xbd879047	-0.066193156
38	0x3e13251c	0.14369625
39	0x3e2c2871	0.16812302
40	0xbd3cb4b0	-0.046070755
41	0x3e279d63	0.16368632
42	0x3e564158	0.20923364
43	0x3dd00b25	0.10158376
44	0x3d863faf	0.065551154
45	0xbe32e8f0	-0.17471671
46	0xbd7a9dde	-0.06118571
47	0xbe228b14	-0.15873367
48	0x3e1a35fe	0.15059659
49	0x3df56722	0.11982562
50	0xbdcd0540	-0.10010767
51	0x3dcda2cc	0.10040817
52	0xbd93d346	-0.072180316
53	0x3da05557	0.07828777
54	0x3da67131	0.08127058
55	0xbe1e9585	-0.15486725
56	0xbdffc863	-0.124893926
57	0xbe1b5b94	-0.15171653
58	0x3e03b269	0.12861027
59	0x3d859c43	0.06523945
60	0xbe2e9f28	-0.17052901
61	0xbd93d851	-0.072189935
62	0x3da85f62	0.08221318
63	0xbe16bb48	-0.1471988
64	0x3e15cb79	0.146284
65	0xbdfcd9ef	-0.12346255
66	0x3c976736	0.018481832
67	0x3d5e827b	0.054323655
68	0xbe1891ef	-0.14899419
69	0x3c1c178e	0.0095271
70	0x3e4d3de4	0.2004314
71	0x3de9dc7f	0.114190094
72	0x3db09350	0.08621848
73	0x3dcb8aed	0.09938607
74	0x3dc1f846	0.094711825
75	0xb9192319	-0.00014604292
76	0xbe356197	-0.17713009
77	0xbdbe89f9	-0.0930366
78	0x3e0a2c65	0.13493498
79	0xbd8a97b0	-0.06767213
80	0x3de99d0b	0.11406907
81	0xbdbdaedf	-0.0926187
82	0x3e304894	0.17215186
83	0xbc831c02	-0.016004566
84	0x3e0bc9ea	0.13651243
85	0xbd9eded0	-0.07757342
86	0xbc8e847d	-0.01739716
87	0xbda39984	-0.07988265
88	0xbd877d7d	-0.06615732
89	0xbdeb9cca	-0.115045145
90	0x3e123b78	0.14280498
91	0x3e1930e5	0.14960058
92	0xbca6a98d	-0.02034452
93	0x3e26fa09	0.16306318
94	0xbdf6a46a	-0.12043078
95	0xbdd4fb03	-0.10399439
96	0x3d71442d	0.058902908
97	0x3d26e60d	0.040746737
98	0x3dd33487	0.10312753
99	0xbe2d8209	-0.16944136
100	0x3c918d4b	0.017767569
101	0xbd2a298f	-0.04154354
102	0x3dfc3dbd	0.12316463
103	0xbb3961eb	-0.0028287123
104	0xbdbc5bd0	-0.09197199
105	0x3dccd4d4	0.10001531
106	0xbe3a74fe	-0.18208691
107	0x3e17aa87	0.14811145
108	0xbc3f2f7e	-0.011669038
109	0x3e434250	0.19068265
110	0x3d387c26	0.045040272
111	0x3e06fdaa	0.13182703
112	0x3cad6835	0.021167854
113	0x3e25c8b5	0.16189845
114	0x3d8d7ff0	0.06909168
115	0x3e18743e	0.14888093
116	0x3ae912f5	0.0017782139
117	0x3e5c0207	0.21485148
118	0x3e3412f3	0.17585354
119	0x3e1d15a2	0.15340284
120	0xbe1849c4	-0.1487189
121	0xbe699dbe	-0.2281408
122	0xbd22563b	-0.039633017
123	0x3d7e6c41	0.062114958
124	0x3cb67c5e	0.0222761
125	0x3dc33cce	0.09533082
126	0x3dc735e6	0.09727077
127	0x3d56a4f7	0.052403416
128	0x3e230459	0.15919627
129	0xbd54a3bf	-0.051913973
130	0x3d78ade6	0.060712717
131	0x3e21507c	0.15753359
132	0xbbed80f9	-0.0072480408
133	0x3db68395	0.08911816
134	0x3d1e26fc	0.038611397
135	0x3db1fb7a	0.086905435
136	0xbe44c44e	-0.1921551
137	0xbc1ddf2f	-0.009635731
138	0x3b248117	0.0025101358
139	0xbe0bf853	-0.13668947
140	0xbbf0f9e1	-0.0073540066
141	0xbe1f9513	-0.15584211
142	0x3e0651ca	0.13117138
143	0xbe1d51a7	-0.15363179
144	0xbd3f123b	-0.046648245
145	0x3c8f6e41	0.017508628
146	0xbd9201e1	-0.071292646
147	0xbe2594fa	-0.16170111
148	0xbd9059bb	-0.07048365
149	0x3e1e0b6c	0.15434045
150	0x3d16e8a6	0.036842965
151	0xbe435069	-0.19073643
152	0x3babb823	0.0052404567
153	0xb9de1738	-0.0004236044
154	0xbbea8715	-0.0071572163
155	0xbc0d8150	-0.0086367875
156	0x3e3688ad	0.17825575
157	0xbd08c74f	-0.0333932
158	0xbe150b4c	-0.1455509
159	0x3bf6a47e	0.007526933
160	0xbdfd0be2	-0.12355782
161	0xbcea459e	-0.02859765
162	0x3e32a6fc	0.17446512
163	0xbe00d919	-0.12582816
164	0xbd78e909	-0.060769115
165	0x3e0afe92	0.13573673
166	0xbdead079	-0.11465544
167	0xbe36b424	-0.17842156
168	0xbdf254f2	-0.11832608
169	0x3e34040d	0.1757967
170	0x3dac06e2	0.0839975
171	0x3d9bd1c4	0.07608369
172	0x3ddc7b14	0.10765663
173	0x3e3eea74	0.18644124
174	0xbe059f83	-0.1304913
175	0xbd513560	-0.051076293
176	0xbb229b17	-0.002481168
177	0xbdd7d41e	-0.10538505
178	0x3e087ba4	0.13328415
179	0x3d4baf80	0.049727917
180	0xbcfd777a	-0.03094076
181	0x3d2bdfd0	0.04196149
182	0xbd5abc66	-0.053402327
183	0xbe2d569c	-0.1692757
184	0xbd1c3903	-0.038140308
185	0xbe0f83ec	-0.14015168
186	0x3dcc44e8	0.0997408
187	0x3dd198ba	0.102342084
188	0xbddd5c4b	-0.10808619
189	0x3e08b387	0.13349734
190	0x3d9f01e7	0.07764035
191	0xbddef39f	-0.10886311
192	0x3d239366	0.039935492
193	0x3dc03533	0.09385147
194	0xbd8209cb	-0.06349524
195	0xbe05aa40	-0.13053226
196	0xbcbbae72	-0.02291033
197	0xbc893b16	-0.016751807
198	0x3cbbc0a6	0.02291901
199	0xbc46cdf1	-0.012134061
200	0xbe23a0bb	-0.15979283
201	0x3e1861ed	0.14881106
202	0x3e0ceb50	0.1376164
203	0xbe3c7794	-0.1840499
204	0x3e1315b1	0.14363743
205	0x3d00ea03	0.03147317
206	0x3d7effe5	0.06225576
207	0x3e199ca6	0.15001163
208	0x3db61cd4	0.08892217
209	0x3e3f34cd	0.18672486
210	0xbdfe0f03	-0.12405207
211	0x3e57387b	0.2101764
212	0x3d4817ba	0.048850752
213	0x3d27edbf	0.040998217
214	0x3cac6904	0.02104617
215	0x3d9efd17	0.07763117
216	0xbb21cd77	-0.0024689117
217	0xbdacd7e5	-0.08439616
218	0xbe37d0bc	-0.1795072
219	0xbdcf35ff	-0.10117721
220	0xbe2715c0	-0.1631689
221	0x3e3092a5	0.1724344
222	0x3e3f61d3	0.1868966
223	0x3d942e75	0.072354235
224	0xbdb49db2	-0.088191405
225	0x3d56b405	0.052417774
226	0x3e1e3a0e	0.15451834
227	0x3d3295f5	0.04360004
228	0xbda734f9	-0.081644006
229	0xbc292ee7	-0.010326124
230	0xbe3ec620	-0.18630266
231	0xbd1b04f6	-0.037846528
232	0x3bde4f7a	0.0067843767
233	0xbd6ad137	-0.05732843
234	0x3df1f285	0.11813835
235	0xbd444875	-0.047920663
236	0x3e1b62a8	0.15174353
237	0x3e0a87c9	0.1352836
238	0x3d67855f	0.056523677
239	0x3e2b054b	0.16701238
240	0xbcf3ccb2	-0.029760692
241	0xbdfa1577	-0.12211125
242	0xbcb8ad18	-0.022543475
243	0xbdca70ce	-0.09884797
244	0xbc9eb54a	-0.019373555
245	0xbe0d89f6	-0.13822159
246	0x3e0e1fc6	0.13879308
247	0x3d0b3469	0.03398553
248	0x3dca7941	0.098864086
249	0x3e1bcb19	0.15214194
250	0xbe16dea5	-0.1473337
251	0xba547524	-0.00081046135
252	0x3d3950cd	0.045243073
253	0x3daa473b	0.083143674
254	0xbd800937	-0.062517576
255	0xbd32b304	-0.043627754

encoder.initial.block.0.bias f4 [32]
0	0xbddd3cb9	-0.108025976
1	0xbd60ce6f	-0.05488437
2	0xbc908199	-0.017639922
3	0x3dcd1893	0.10014453
4	0x3de8e178	0.1137113
5	0xbd2c807e	-0.042114727
6	0xbd2faedd	-0.042891372
7	0x3c3ffc38	0.0117178485
8	0x3ccc0a0d	0.024907136
9	0xbe3fd827	-0.187348
10	0xbe42a6b1	-0.190089
11	0xbe03299d	-0.12808843
12	0x3dd18913	0.10231223
13	0xbd9f07a5	-0.0776513
14	0x3c689035	0.014194538
15	0x3e27b356	0.16377005
16	0xbdc6253e	-0.09675072
17	0xbc8ccc90	-0.017187387
18	0x3d546268	0.05185166
19	0xbe0cc0af	-0.13745378
20	0x3e25dd42	0.16197684
21	0x3ddcde4e	0.10784589
22	0xbe315a5c	-0.17319626
23	0xbd2b1ac8	-0.041773587
24	0x3df605ce	0.12012826
25	0x3d129ff1	0.035797063
26	0x3cc88f61	0.02448243
27	0x3d03b49c	0.032154664
28	0xbdd855bf	-0.1056323
29	0xbdef9e80	-0.11700153
30	0xbe2cbbdc	-0.16868538
31	0x3e04352c	0.12910908

encoder.initial.block.2.weight f4 [32]
0	0x3f82f2b9	1.0230323
1	0x3f82b01c	1.0209994
2	0x3f800e34	1.0004334
3	0x3f8164fb	1.0108942
4	0x3f83ea63	1.0305904
5	0x3f80f4a7	1.0074662
6	0x3f807dd6	1.0038402
7	0x3f83c48d	1.0294358
8	0x3f827523	1.0191997
9	0x3f7e0777	0.9923014
10	0x3f7e3b26	0.99309003
11	0x3f7d3961	0.9891568
12	0x3f82e9c0	1.0227585
13	0x3f8083ce	1.0040224
14	0x3f819887	1.0124673
15	0x3f807f80	1.003891
16	0x3f80bf1f	1.0058326
17	0x3f8024bd	1.0011212
18	0x3f7d9170	0.99050045
19	0x3f80e216	1.0068996
20	0x3f7ee5d5	0.99569446
21	0x3f7eb492	0.9949428
22	0x3f7fc7b5	0.99914104
23	0x3f7e5b60	0.9935818
24	0x3f7c39f5	0.98525935
25	0x3f81ebbb	1.0150064
26	0x3f7eec6d	0.9957951
27	0x3f7e2db7	0.99288505
28	0x3f816eb3	1.0111908
29	0x3f848450	1.0352879
30	0x3f8020d7	1.0010022
31	0x3f7ccf3c	0.98753715

encoder.initial.block.2.bias f4 [32]
0	0x3d8564c7	0.065133624
1	0xbb64fcf2	-0.0034940806
2	0xbd917511	-0.07102407
3	0xbde2e617	-0.110790424
4	0x3cb1777d	0.021663422
5	0x3cfb98d9	0.030712532
6	0x3b21f022	0.002470978
7	0xbdd68dee	-0.1047629
8	0xbd406db7	-0.046979632
9	0xbdc09c26	-0.09404783
10	0x3ca298fe	0.019848343
11	0xbb741673	-0.0037244826
12	0xbd0b61a3	-0.03402866
13	0x3c8c955a	0.01716106
14	0xbd98267a	-0.07429214
15	0xbd2a2150	-0.041535676
16	0xbdb79379	-0.08963675
17	0xbd1d4076	-0.038391553
18	0xbd38bbde	-0.04510104
19	0xbc9dc9ca	-0.01926126
20	0xbc961a3b	-0.018323055
21	0xbc8d4dd5	-0.017249027
22	0xbdbdcda6	-0.0926774
23	0xbd75402e	-0.05987566
24	0x3d249d60	0.040189147
25	0x3d3c1b74	0.04592462
26	0x3d074d0a	0.033032455
27	0x3c307dc4	0.010772172
28	0x3c9d47ce	0.019199278
29	0x3cb61a2f	0.022229282
30	0xbd349221	-0.044084672
31	0x3cbca9be	0.023030158

encoder.initial.block.2.running_mean f4 [32]
0	0xbc37d49c	-0.011220124
1	0xbc5c4188	-0.013443358
2	0x3ab9f83a	0.0014188357
3	0x3a6a9441	0.0008948483
4	0xbc7acef8	-0.015308134
5	0x3f5f964e	0.8733872
6	0x3ca44600	0.02005291
7	0xbc0f5aa8	-0.0087496415
8	0x39c1921b	0.00036920686
9	0xba9e64a0	-0.0012084432
10	0x3f555e27	0.8334679
11	0x3e801693	0.25017223
12	0xbbab510b	-0.005228167
13	0xbc4274a3	-0.011868629
14	0x3ae2f282	0.0017314705
15	0x3f05ce85	0.5226825
16	0xbad6f6ae	-0.001640042
17	0x3e5a706a	0.21331945
18	0x3ea7e384	0.32790768
19	0x3a232725	0.00062237895
20	0x3f314989	0.6925283
21	0x3ac72596	0.0015193697
22	0x3a5298b0	0.00080336165
23	0x3e09b08f	0.13446258
24	0x3f362445	0.7114909
25	0xbc38bc65	-0.0112753855
26	0x3ed735d9	0.4203327
27	0x3e8653b4	0.26235735
28	0xbbe7c13e	-0.007072597
29	0xbc0de02b	-0.008659403
30	0x39f8d052	0.00047457457
31	0x3ecb2104	0.39673626

encoder.initial.block.2.running_var f4 [32]
0	0x34815a30	2.4093742e-07
1	0x35507566	7.7656875e-07
2	0x3a076cab	0.0005166034
3	0x39c80531	0.0003815084
4	0x35754abd	9.137837e-07
5	0x3acae6d0	0.0015480164
6	0x3a764663	0.0009394644
7	0x342721c5	1.5565372e-07
8	0x392c75b3	0.00016447045
9	0x34d60839	3.986659e-07
10	0x3afbbf49	0.0019206788
11	0x3a432ad3	0.0007445041
12	0x34a1c563	3.0132205e-07
13	0x34ac7f98	3.2130333e-07
14	0x3a58d4c2	0.00082714495
15	0x3b284b55	0.0025679667
16	0x39512abc	0.00019947713
17	0x3a99485c	0.0011694538
18	0x3a5f9e13	0.000853033
19	0x3986cfb9	0.00025713237
20	0x3ab1879e	0.0013544445
21	0x3a5106b6	0.00079737173
22	0x3a9059ac	0.0011013052
23	0x3a36db60	0.00069754384
24	0x3b17b6c5	0.002314971
25	0x361083f0	2.153447e-06
26	0x3aa422a4	0.0012522531
27	0x3a8f8e64	0.001095247
28	0x3496c94e	2.8086146e-07
29	0x34d05bd2	3.8809827e-07
30	0x39ddfeee	0.00042342342
31	0x3a2c4e0e	0.00065729104

encoder.block1.block.0.weight f4 [32, 44, 3, 3]
0	0xbc0fee73	-0.008784878
1	0x3d3d2c2f	0.046184715
2	0x3c8c583f	0.017131923
3	0xbd0f4b50	-0.034983933
4	0xbcdc8096	-0.026916783
5	0x3d565942	0.052331217
6	0xbd75ee9d	-0.060042012
7	0x3c1c60e6	0.009544587
8	0x3cab73ec	0.0209293
9	0xba465c75	-0.0007566878
10	0x3cd1acf6	0.02559517
11	0x3c87f1ef	0.016594855
12	0x3d80c3fc	0.06287381
13	0x3d3c5347	0.045977857
14	0x3c555ac3	0.013022128
15	0xbd492ec0	-0.04911685
16	0x3c52fc78	0.012877576
17	0xbc9622bd	-0.018327111
18	0xbdc910e8	-0.09817678
19	0xbd117ff2	-0.03552241
20	0xbc585d44	-0.01320583
21	0xbdadb797	-0.084822826
22	0x39a8988c	0.00032157113
23	0xbbe468e5	-0.006970512
24	0x3d8033b9	0.06259865
25	0x3d032c69	0.032024775
26	0x3c308037	0.010772756
27	0xbd80c86b	-0.06288227
28	0xbd8c71e0	-0.068576574
29	0xbda88160	-0.08227801
30	0xbd98dada	-0.074636176
31	0xbd48f3ee	-0.049060754
32	0xbcddac25	-0.027059624
33	0xbda3439c	-0.0797188
34	0xbdc64a19	-0.09682102
35	0xbd224888	-0.039619952
36	0x3d1fe7f8	0.039039582
37	0xbd356efc	-0.044295296
38	0x3cdd4149	0.02700867
39	0xbbd057f4	-0.006358141
40	0x3d2a588b	0.041588347
41	0xbd08c6ac	-0.033392593
42	0xbd4cf7d2	-0.050041027
43	0xbd2ec4e0	-0.042668223
44	0x3d46a31c	0.048495397
45	0x3cff1003	0.031135565
46	0x3ca93ec3	0.02065981
47	0xbcd3be66	-0.025847625
48	0x3c8c21a5	0.017105887
49	0xbca508fe	-0.02014589
50	0xbc686a0d	-0.014185441
51	0xbd5e4582	-0.054265507
52	0x3d0a132a	0.033709683
53	0x3d04afe3	0.0323943
54	0x3c75d532	0.015004443
55	0x3bc064de	0.0058713993
56	0x3ca8b515	0.02059416
57	0xbcd72e96	-0.026267331
58	0x3d3ff845	0.046867628
59	0x3d4880b3	0.048950862
60	0x3cec58ea	0.028850991
61	0x3d0d282f	0.03446215
62	0x3bc124ec	0.005894294
63	0x3c044738	0.0080736205
64	0x3c315f68	0.010825969
65	0xbd2071fd	-0.039171208
66	0xbcf19aeb	-0.029492816
67	0xbc6bbecd	-0.014388752
68	0xbd4302a5	-0.047609944
69	0xbcad5bfc	-0.021162026
70	0xbd8e6ef2	-0.06954755
71	0xbd9fbea1	-0.078000315
72	0x3d373745	0.044730444
73	0xbcd6fe89	-0.026244419
74	0xbcded0e2	-0.027199212
75	0xbd086452	-0.033298798
76	0x3b9130a7	0.0044308486
77	0x3d5f246e	0.0544781
78	0xbd1da148	-0.038483888
79	0xbcbd2987	-0.02309109
80	0xbdade0d8	-0.08490151
81	0xbd57741c	-0.052600965
82	0xbda54c8f	-0.08071243
83	0x3d2b8cee	0.041882448
84	0xbd87dd86	-0.06634049
85	0xbd43fe6d	-0.04785006
86	0xbd3edf8e	-0.046599917
87	0x3d1283e2	0.035770305
88	0x3cc42d36	0.02394734
89	0x3c669124	0.01407269
90	0xbc3ad021	-0.011402161
91	0xbd8b6b4d	-0.068075754
92	0xbc069519	-0.008214259
93	0xbcaf0392	-0.021364007
94	0x3c47fe63	0.012206647
95	0x3b8dcd9b	0.0043274886
96	0xbd272964	-0.040810958
97	0xbca7bc1c	-0.02047544
98	0xbd37bb89	-0.04485658
99	0xbc082a91	-0.00831093
100	0xbce759c0	-0.028241038
101	0xbd28df77	-0.041228738
102	0x3d0f919c	0.035050973
103	0x3d328afc	0.043589577
104	0x3d5ca88c	0.053871676
105	0x3ce110ec	0.02747389
106	0xbd2cc9d6	-0.042184673
107	0x3cfad531	0.030619236
108	0x3c38abf0	0.011271462
109	0xbae5ceac	-0.0017532906
110	0xbc363c0a	-0.011122713
111	0xbd4c6eca	-0.049910344
112	0xbd8314d3	-0.06400456
113	0xbcf70a8e	-0.0301564
114	0x3c3a4167	0.011368132
115	0x3a6fb3c3	0.0009143913
116	0x3c1b451d	0.009476927
117	0x3cdc05ac	0.026858173
118	0xbc43a250	-0.011940554
119	0x3d796be8	0.060893923
120	0xbcc6543b	-0.024210086
121	0xbcbe68aa	-0.023243267
122	0x3d59a304	0.05313398
123	0xbd9da60d	-0.07697687
124	0xbd9b05a3	-0.075694345
125	0x3d41660e	0.047216468
126	0xbd011158	-0.03151068
127	0xbb5edee1	-0.0034007358
128	0xbba5a60a	-0.005055194
129	0x3d87d2a2	0.06631972
130	0x3d72bfce	0.05926495
131	0x3d18134a	0.03712777
132	0xbc936951	-0.017994555
133	0xbd865d99	-0.06560821
134	0xbd3e87ca	-0.046516217
135	0x3b44b9c6	0.0030017956
136	0xbd3a13c7	-0.045429017
137	0x3ce59d36	0.028029066
138	0xbbdd5ea8	-0.0067556687
139	0xbcef71f9	-0.029229151
140	0x3bf73306	0.0075439243
141	0x3b828abc	0.0039838236
142	0xbc88f79a	-0.016719628
143	0xbd0ff9ba	-0.035150267
144	0xbdbf2ee7	-0.09335118
145	0xbd921a77	-0.07133954
146	0xbd041d1d	-0.032254327
147	0xbdd0e2aa	-0.10199483
148	0xbd4da99c	-0.05021058
149	0xbd3c3c7f	-0.04595613
150	0xbd4a92bf	-0.049456354
151	0xbdaa6734	-0.08320466
152	0x3c8e9edf	0.01740974
153	0xbd6badd1	-0.05753881
154	0xbca4f66f	-0.02013704
155	0xbcc06951	-0.023487719
156	0x3cffe5b6	0.031237464
157	0xbc5f3cc4	-0.0136253275
158	0x3b08b327	0.0020858736
159	0xbcc591a3	-0.024117297
160	0xbb8da8d3	-0.004323104
161	0xbcee876a	-0.029117305
162	0xbcc81d94	-0.024428166
163	0xbd09a2bd	-0.033602465
164	0xbc8f2ef4	-0.017478444
165	0xbbc0a916	-0.0058795316
166	0xbcdc147c	-0.026865236
167	0xbca0ac8e	-0.01961353
168	0xbcd80dd4	-0.026373781
169	0x3b218c9c	0.002465046
170	0xbd2421e5	-0.040071387
171	0xbd9b7d8c	-0.075923055
172	0xbcb1a08f	-0.021683006
173	0xbd85068d	-0.0649539
174	0xbcda47b2	-0.026645515
175	0xbdc29713	-0.09501471
176	0x3abe7c29	0.0014532852
177	0x3a1138e9	0.00055397913
178	0x3d677403	0.05650712
179	0x3d873f75	0.066039
180	0xbd1d7492	-0.03844125
181	0x3d5b3d16	0.053525053
182	0xbd2356e6	-0.039877795
183	0x3c32c3ce	0.010910941
184	0xbd12a10d	-0.03579812
185	0xbcd493d9	-0.025949406
186	0xbca2ad98	-0.019858167
187	0xbc4f50da	-0.012653554
188	0x3c8bee0a	0.01708128
189	0xbb3cfc43	-0.0028836883
190	0xbd6dffb9	-0.058105204
191	0x3a8cbcfb	0.0010737473
192	0xbd35b70b	-0.044364017
193	0x3a48a6c8	0.0007654247
194	0x3c21dbf4	0.009879101
195	0x3ce901e7	0.02844329
196	0xbc9a1cea	-0.018812615
197	0x3bda20a9	0.0066567254
198	0xbbab17b2	-0.0052213306
199	0xbd243f22	-0.04009927
200	0xbda1be15	-0.078975834
201	0xbda6fe3b	-0.08153959
202	0xbded6a3e	-0.1159253
203	0xbd9719f6	-0.073779985
204	0xbbf24f4d	-0.0073947073
205	0x39f62169	0.0004694567
206	0xbc9d6a68	-0.019215778
207	0x3d07cf86	0.033156894
208	0xbc8740dd	-0.016510421
209	0xbc57bfeb	-0.013168315
210	0xbcb803f0	-0.022462815
211	0x3c5d4b28	0.013506688
212	0x3a33b30d	0.0006854989
213	0x3bcb1cf7	0.0061985212
214	0x3b6a75bf	0.0035775749
215	0xbd388d9e	-0.04505693
216	0x3c6980cb	0.014251898
217	0xbb4681e8	-0.0030289833
218	0xbc53a906	-0.012918716
219	0x3bdc04d2	0.006714442
220	0xbbedb2f7	-0.0072540003
221	0xbcfaab2b	-0.030599197
222	0x3d640eca	0.055678166
223	0x3d049dd3	0.032377075
224	0xbbb0c82d	-0.0053949566
225	0x3cf5096b	0.029911717
226	0x3c915643	0.017741328
227	0x3d133b50	0.035945237
228	0xbd15c2a9	-0.036562596
229	0x3b9a8f37	0.0047167796
230	0x3cdfe224	0.027329512
231	0x3c16d664	0.009206388
232	0xbbfa0aa5	-0.0076306635
233	0x3c8f3bab	0.017484507
234	0x3cd2a07c	0.02571129
235	0xbc9b9c61	-0.018995466
236	0x3c90cc2e	0.017675485
237	0x3b6e8769	0.0036396629
238	0xbc1d9d8b	-0.009620081
239	0x3d4c8ac0	0.04993701
240	0x3c0f73b1	0.00875561
241	0xbd2c2ce7	-0.04203501
242	0xbc9a1e7d	-0.018813366
243	0x3c0a19ee	0.008429034
244	0x3cd397b7	0.02582918
245	0x3c69f890	0.014280453
246	0xbd2457c7	-0.040122773
247	0xba03f4f6	-0.00050337554
248	0x3c40f856	0.011777958
249	0xbd121bcc	-0.03567104
250	0x3b08c4c4	0.0020869235
251	0x3d37da76	0.044886075
252	0xbc162f19	-0.009166502
253	0x3d4b306d	0.04960673
254	0x3cbb3706	0.022853386
255	0x3d00fd64	0.031491652

encoder.block1.block.0.bias f4 [32]
0	0x3d374dd6	0.044751965
1	0xbb73ce73	-0.003720191
2	0xbd41a9d6	-0.04728111
3	0xbd25a639	-0.040441725
4	0x3cb426bf	0.021991132
5	0xbd6dde22	-0.05807317
6	0x3bc6126f	0.006044678
7	0x3d94e2c1	0.072698124
8	0xbd8852ec	-0.06656441
9	0xbd1f59b7	-0.038903918
10	0xbd2b3dc0	-0.041806936
11	0x3dc029c7	0.093829684
12	0x3bcac7df	0.0061883773
13	0xbbd6ed38	-0.0065590404
14	0xbd0a4191	-0.033753935
15	0x3c7a0556	0.015260061
16	0x3d399cba	0.04531548
17	0xbc9ec501	-0.019381048
18	0xbc33d9a1	-0.01097718
19	0x3cd4d8ff	0.025982378
20	0xbccb0881	-0.024784328
21	0xbc80e27d	-0.015732998
22	0xbd803844	-0.06260732
23	0xbc5468f5	-0.012964477
24	0xbd95afc5	-0.07308916
25	0xbd6c32a7	-0.057665493
26	0x3cab0c3c	0.020879857
27	0x3d77a9d4	0.060464695
28	0x3d8db9da	0.06920214
29	0xbd9fb68a	-0.077984884
30	0xbcef23c7	-0.029191865
31	0xbd8d2ecc	-0.068936914

encoder.block1.block.2.weight f4 [32]
0	0x3f76166e	0.96127975
1	0x3f79b19e	0.9753665
2	0x3f815ac0	1.010582
3	0x3f7cb5cf	0.9871492
4	0x3f7fae23	0.99875087
5	0x3f7ee68c	0.99570537
6	0x3f7bb54d	0.9832352
7	0x3f7b195c	0.9808557
8	0x3f828f74	1.0200028
9	0x3f7c3947	0.985249
10	0x3f803644	1.001656
11	0x3f77fa58	0.9686637
12	0x3f8155e4	1.0104337
13	0x3f7e4cfb	0.9933621
14	0x3f7ddf46	0.99168813
15	0x3f7f2175	0.99660426
16	0x3f7745b8	0.9659076
17	0x3f77c4bf	0.96784586
18	0x3f7c9822	0.98669636
19	0x3f80bd3f	1.0057753
20	0x3f7d3e46	0.98923147
21	0x3f7b773c	0.9822881
22	0x3f8008c2	1.0002673
23	0x3f7f4746	0.9971813
24	0x3f80f622	1.0075114
25	0x3f7f7505	0.9978793
26	0x3f77f50f	0.96858305
27	0x3f7688ce	0.963025
28	0x3f78b6f8	0.9715419
29	0x3f7f0eab	0.99631757
30	0x3f820e57	1.0160626
31	0x3f7e059b	0.99227303

encoder.block1.block.2.bias f4 [32]
0	0xbd9260a7	-0.07147341
1	0xbc8c58d8	-0.017132208
2	0xbbcbf650	-0.006224431
3	0xbcc41832	-0.023937318
4	0x3cc91d7b	0.02455019
5	0xbd69a2c2	-0.057039984
6	0xbd78164e	-0.060568146
7	0x3cd71048	0.02625288
8	0xbd12d725	-0.03584971
9	0x3d016a74	0.031595662
10	0x3a509196	0.00079562643
11	0xbd5fd098	-0.05464229
12	0xbd3a6e0c	-0.045515105
13	0xbd6c28ac	-0.057655975
14	0xbd127f58	-0.035765976
15	0xbd4c74f1	-0.04991621
16	0xbd2079b0	-0.03917855
17	0xbd09b06a	-0.033615507
18	0x3d16ff84	0.036864772
19	0xbd78c71a	-0.060736753
20	0xbd55da94	-0.052210405
21	0xbc4949d8	-0.012285672
22	0xbd46d851	-0.04854614
23	0xbd34f340	-0.044177294
24	0xbd8976d3	-0.06712117
25	0xbcff03c4	-0.031129725
26	0x3d41e7f1	0.047340337
27	0xbb83b697	-0.004019569
28	0xbd3e893d	-0.0465176
29	0xbc81672f	-0.015796272
30	0xbd34433b	-0.04400943
31	0xbd4cb2cb	-0.049975198

encoder.block1.block.2.running_mean f4 [32]
0	0x3f16e4a5	0.58942634
1	0x3d47213f	0.04861569
2	0x3c1f4b9d	0.009722617
3	0x3d0117c3	0.0315168
4	0x3cb6d606	0.022318851
5	0x3d474aa9	0.048655186
6	0x3c384d82	0.011248948
7	0x3ec0c057	0.37646744
8	0x3cc347b6	0.023837905
9	0x3cf5932f	0.02997741
10	0x3cc60968	0.024174407
11	0x3ee1d02c	0.44104135
12	0x3ce2ac59	0.027670072
13	0x3cb4b9ad	0.022061193
14	0x3d4c259c	0.049840555
15	0x3bbe8723	0.0058144494
16	0x3eed50f0	0.46350813
17	0x3ee9f8f9	0.45697764
18	0x3d142c2f	0.03617495
19	0x3ce7ad1a	0.028280783
20	0x3d6c7a4e	0.057733826
21	0x3d900feb	0.07034286
22	0x3d2320f4	0.03982635
23	0x3d8f0799	0.06983871
24	0x3c08bf0e	0.008346332
25	0x3d220053	0.03955109
26	0x3ef44282	0.4770699
27	0x3ecd0154	0.40040076
28	0x3f27a1d3	0.654813
29	0x3ca04012	0.019561801
30	0x3d1c6cb5	0.03818961
31	0x3d227d37	0.039670195

encoder.block1.block.2.running_var f4 [32]
0	0x3ec858b7	0.39130184
1	0x3ec672dd	0.3875951
2	0x3d1cdf5e	0.038298957
3	0x3e39a334	0.18128663
4	0x3dec129e	0.115269884
5	0x3e7193ed	0.23591585
6	0x3d9e44eb	0.07727989
7	0x3e535717	0.20638691
8	0x3dc47f2c	0.095945686
9	0x3e004462	0.12526086
10	0x3dc08950	0.0940119
11	0x3edbd238	0.42933822
12	0x3e0bd322	0.1365476
13	0x3dcdc06c	0.10046467
14	0x3ec998b5	0.3937432
15	0x3d0d04ff	0.034428593
16	0x3f0a0c0b	0.53924626
17	0x3e9893df	0.29800317
18	0x3e3362dd	0.17518182
19	0x3dbba40d	0.091621496
20	0x3f10b24c	0.5652206
21	0x3ede3cc9	0.4340575
22	0x3e5c6d92	0.21526173
23	0x3e8b1a3b	0.2716845
24	0x3d164666	0.03668823
25	0x3e3c3689	0.18380179
26	0x3f03e81b	0.5152604
27	0x3e5ee586	0.21767244
28	0x3e47eb11	0.19523264
29	0x3de70562	0.112803236
30	0x3e08bbe0	0.13352919
31	0x3e3750b3	0.17901878

encoder.block2.block.0.weight f4 [32, 32, 3, 3]
0	0xbca9f7fc	-0.020748131
1	0x3ca963fb	0.020677557
2	0x3ca3786e	0.019954886
3	0x3d20514a	0.039140023
4	0x3c1a6776	0.009424081
5	0xbc4b072b	-0.012391846
6	0x3c72fa8b	0.014830242
7	0x3c986959	0.018604921
8	0x3c19acf4	0.009379614
9	0xbd24c7f1	-0.04022974
10	0xbc2303d2	-0.009949641
11	0xbd3ad37a	-0.045611836
12	0x3afed0fd	0.0019440945
13	0xbd05f7bf	-0.032706972
14	0x3d0759ad	0.033044506
15	0x3d02cb33	0.031932067
16	0xbd1930f8	-0.037400216
17	0xbca2ee77	-0.0198891
18	0x3c787f39	0.015167051
19	0x3ccdacc0	0.025106788
20	0x3b51bfe1	0.0032005238
21	0x3a619774	0.0008605637
22	0xbcd7c8d3	-0.026340878
23	0x3d7bfd59	0.061520908
24	0x3d59dc35	0.05318852
25	0x3d247426	0.04014983
26	0xbc5538be	-0.013014017
27	0xbd5a28b5	-0.053261478
28	0xbccd6870	-0.025074214
29	0x3b88f95e	0.0041801175
30	0x3d662bbc	0.056194052
31	0xbac938a0	-0.0015351959
32	0x3c9950b1	0.018715234
33	0x3b8d3f61	0.004310534
34	0xbcfc92fc	-0.030831806
35	0xbd72c91d	-0.059273828
36	0x3c3d730d	0.011563075
37	0xbd21f538	-0.0395405
38	0x3ceef190	0.02916792
39	0xbc9630d0	-0.018333822
40	0xbd3e8410	-0.046512663
41	0x3d47cced	0.048779417
42	0x3d4f83ea	0.050662912
43	0x3cd8e0fd	0.02647447
44	0xbcccad06	-0.024984848
45	0xbd117090	-0.03550774
46	0x3c0b9d6a	0.008521417
47	0x3d408cc7	0.047009256
48	0x3d4ca48c	0.04996161
49	0xbd5d4471	-0.05402035
50	0xbd1e2faf	-0.038619693
51	0xbcd6987b	-0.026195755
52	0xbd9149d9	-0.070941634
53	0xbd179083	-0.03700305
54	0xbd05fae5	-0.032709975
55	0xbcd25e0c	-0.02567961
56	0x3c8a5c0b	0.016889593
57	0x3d2cecac	0.042217895
58	0x3d239b91	0.03994328
59	0xbd7608f6	-0.06006714
60	0xbd4a4a6b	-0.049387377
61	0xbcc0acf5	-0.023519972
62	0xbd1193e8	-0.035541445
63	0xbc2ef3e2	-0.010678263
64	0xbd812ce8	-0.06307393
65	0x3c45913a	0.0120585505
66	0x3d9488bc	0.072526425
67	0x3d214b40	0.039378405
68	0x3d83c7fc	0.06434628
69	0xbcc7ee81	-0.02440572
70	0x3c9fac79	0.019491421
71	0xbd3b0a7e	-0.045664303
72	0xbd08aee3	-0.03336991
73	0xbc1207a2	-0.008912953
74	0xbd3dc826	-0.046333455
75	0x3c9a7956	0.018856686
76	0xbd4b2170	-0.049592435
77	0xbcdca07d	-0.026931996
78	0x3d2a7371	0.041614
79	0xbd9cf600	-0.07664108
80	0xbd70e518	-0.05881223
81	0x3d070634	0.0329649
82	0xbd7015a6	-0.058614396
83	0x3cda7f2b	0.026671967
84	0x3d79767e	0.06090402
85	0x3ca910e3	0.020637935
86	0x3d104112	0.035218306
87	0x3d05ab42	0.032634027
88	0xbd0989f2	-0.03357882
89	0xbc42bb7e	-0.011885522
90	0x3c81284b	0.015766283
91	0x3c36f812	0.011167543
92	0xbd3c5dd5	-0.045987923
93	0xbd1bd6b0	-0.03804654
94	0x3ced7f93	0.028991496
95	0x3ca136fd	0.01967954
96	0x3ce2b8ca	0.027676005
97	0x3d34728f	0.044054564
98	0xbcf2cefa	-0.02963971
99	0xbd17d7b6	-0.037070952
100	0x3cf727aa	0.03017028
101	0xbd0f8ace	-0.035044484
102	0xbd2a25a2	-0.041539796
103	0xbd62b901	-0.055352215
104	0xbc0f271a	-0.00873735
105	0xbd31ad9d	-0.04337846
106	0x3d15b8be	0.036553137
107	0x3b5bd0be	0.0033541168
108	0x3d0299d7	0.031884994
109	0xbd28d9e6	-0.04122343
110	0x3b366ada	0.0027834685
111	0xbcb10acd	-0.021611596
112	0xbd2752a8	-0.04085031
113	0xbccf95ca	-0.02533998
114	0x3bcfbb8f	0.0063394974
115	0xbd877005	-0.06613163
116	0x3c6c6a9b	0.014429714
117	0xbc90eb80	-0.01769042
118	0xbd13fb3f	-0.03612828
119	0xbd1b2a0e	-0.037881903
120	0xbcf5c466	-0.030000877
121	0x3cf99080	0.03046441
122	0x3ced0adb	0.02893584
123	0xbd8416fe	-0.06449698
124	0xbd3b1c42	-0.045681246
125	0xbacec7ad	-0.0015776061
126	0x3c0df19b	0.00866356
127	0x3b06ac79	0.002054958
128	0x3bd2e206	0.0064356355
129	0x3c4d44a0	0.0125285685
130	0x3cae3835	0.021267036
131	0xbc0ed3d5	-0.008717497
132	0x3bcc24bf	0.0062299664
133	0x3d5c3202	0.05375863
134	0x3d67eae5	0.056620497
135	0xbd5b0ffd	-0.053482044
136	0x3d16840c	0.036747023
137	0x3d27033e	0.040774576
138	0x3d1d1956	0.03835424
139	0x3d335a15	0.04378708
140	0xbc2f8426	-0.010712659
141	0xbcf82689	-0.030291812
142	0xbd77959b	-0.06044541
143	0x3ce36ca0	0.027761757
144	0x3cd19fee	0.025588956
145	0x3c0cb512	0.008588092
146	0xbc8e6f24	-0.01738698
147	0xbc38eb06	-0.011286503
148	0xbd0f1109	-0.034928355
149	0xbbe467bb	-0.0069703734
150	0xbc888ead	-0.016669596
151	0xbc93b2e2	-0.018029634
152	0xbc332972	-0.010935174
153	0x3d504777	0.050849404
154	0xbc9d4b31	-0.019200893
155	0x3d69fa55	0.0571235
156	0x3d3c0b64	0.0459093
157	0xbce3811b	-0.027771523
158	0xbd0baeed	-0.03410237
159	0xbc4709c0	-0.012148321
160	0xbd0aa214	-0.033845976
161	0x3d34ee47	0.04417255
162	0x3c99c62c	0.018771254
163	0xbd898a53	-0.067158364
164	0x3c379191	0.011204139
165	0x3d4226b8	0.047400206
166	0x3a3ce0c7	0.00072051253
167	0x3d5df1d5	0.054185707
168	0x3c9c5146	0.019081723
169	0x3d824966	0.06361656
170	0xbd15e84e	-0.036598496
171	0xbc2f7965	-0.010710095
172	0x3d0ce593	0.034398627
173	0xbca65499	-0.020304011
174	0x3bfec729	0.0077752066
175	0xbd4eaad1	-0.050455872
176	0xbb30300c	-0.0026884107
177	0xbd46e7ef	-0.048561033
178	0xbc6f3274	-0.014599431
179	0xbd5e411c	-0.054261312
180	0x3ae006b6	0.0017091844
181	0xbd81a967	-0.06331139
182	0xbc980eaa	-0.01856168
183	0xbc0f6833	-0.00875287
184	0x3d629f10	0.055327475
185	0xbc5acf0d	-0.013355029
186	0x3d03ab05	0.03214552
187	0xbd01cd31	-0.031689826
188	0xbd2f1e87	-0.042753723
189	0xbd49616d	-0.049165178
190	0x3bbbe92b	0.005734583
191	0x3d049154	0.03236516
192	0x3bdf9b0f	0.0068239043
193	0xbc585651	-0.013204173
194	0xbcf7f02a	-0.030265886
195	0x3d2d9185	0.042375106
196	0xbb878ba7	-0.004136521
197	0xbd44d756	-0.048056923
198	0x3b0df258	0.002165934
199	0x3c85c822	0.016330782
200	0xbbc72f6a	-0.0060786502
201	0x3d1ce1ef	0.038301405
202	0x3cb07604	0.02154065
203	0x3d41da23	0.047327172
204	0xbc819416	-0.015817683
205	0xbca03a38	-0.01955901
206	0xbd539d5e	-0.05166375
207	0xbd9a58cf	-0.0753647
208	0xbd86bc7d	-0.0657892
209	0xbc8d8cdd	-0.017279083
210	0xbcdd0825	-0.026981423
211	0xbd680626	-0.05664649
212	0x3d04ac92	0.03239114
213	0xbce9727c	-0.028496973
214	0x3d36338b	0.04448275
215	0x3be130a2	0.0068722526
216	0xbd60f81a	-0.054924108
217	0x3cb5116e	0.022103038
218	0xbc77395c	-0.015089359
219	0xbd11d153	-0.035600018
220	0x3d371fe0	0.044708133
221	0x3d392baa	0.045207657
222	0x3d0bf3ec	0.03416817
223	0xbd544a69	-0.051828776
224	0xbd783bea	-0.060604014
225	0x3d0b4b89	0.034007583
226	0xbd2fc269	-0.042910013
227	0xbd716f71	-0.05894417
228	0x3b834ead	0.0040071816
229	0x3c50b400	0.012738228
230	0xbb967e65	-0.004592704
231	0x3d83844b	0.06421717
232	0x3d40ca6d	0.04706805
233	0x3d857c94	0.06517902
234	0x3d26842a	0.040653385
235	0x3d0be8bc	0.0341575
236	0xbc90eee3	-0.017692035
237	0xbd67999c	-0.056542978
238	0x3d05775f	0.032584544
239	0x3b24f410	0.0025169887
240	0x3cf4114a	0.0297934
241	0xbcf83c1d	-0.030302102
242	0x3d2ee2c6	0.042696737
243	0x3bd2189f	0.0064116265
244	0x3cc84485	0.024446735
245	0x3d00c40f	0.031436976
246	0xbd868d5c	-0.06569931
247	0x3c2f0d88	0.010684378
248	0xbc7bd26d	-0.015369994
249	0x3c437b25	0.011931215
250	0xbbc44f71	-0.0059909155
251	0x3d0184f1	0.031620923
252	0xbd368f3e	-0.0445702
253	0xbc355654	-0.0110679455
254	0xbb4d294f	-0.003130514
255	0x3cfd97ed	0.030956233

encoder.block2.block.0.bias f4 [32]
0	0xbc047c72	-0.008086311
1	0xbd29c349	-0.041446004
2	0xbd3acf5e	-0.045607917
3	0x3db16a55	0.08662859
4	0xbdabb45c	-0.0838401
5	0x3d27e91e	0.040993802
6	0x3d35149b	0.044209104
7	0xbc71314f	-0.014721229
8	0xbb0276b2	-0.0019907174
9	0xbc52bf2e	-0.012862964
10	0xbda92c31	-0.08260382
11	0xbd03d851	-0.032188717
12	0xbd81ecb6	-0.06343977
13	0x3d73c505	0.059514064
14	0xbd45530e	-0.04817491
15	0xbdc6beb5	-0.09704343
16	0xbd04557e	-0.032308094
17	0xbd3921bd	-0.04519819
18	0x3d751212	0.059831686
19	0xbca20a14	-0.019780196
20	0x3da30a76	0.0796098
21	0xbdb0865f	-0.08619379
22	0x3d382641	0.044958357
23	0xbd1a029b	-0.03760014
24	0x3d51bbe2	0.05120457
25	0x3d800eb3	0.06252804
26	0x3d5bb3d7	0.053638306
27	0x3b4e6d1e	0.0031498144
28	0x3d88c204	0.066776305
29	0xbce0beaf	-0.027434675
30	0xbccbd3eb	-0.024881324
31	0xbdc556b5	-0.09635679

encoder.block2.block.2.weight f4 [32]
0	0x3f881d12	1.0633872
1	0x3f88639c	1.0655398
2	0x3f852926	1.0403183
3	0x3f85ac2f	1.0443171
4	0x3f8655a2	1.0494883
5	0x3f889ff4	1.0673814
6	0x3f865780	1.0495453
7	0x3f85bddd	1.0448567
8	0x3f855af6	1.0418384
9	0x3f860909	1.0471507
10	0x3f881153	1.0630287
11	0x3f85f65a	1.0465806
12	0x3f869924	1.0515485
13	0x3f86059e	1.0470464
14	0x3f879ec3	1.0595325
15	0x3f87152b	1.0553335
16	0x3f860c71	1.0472547
17	0x3f86f80c	1.0544448
18	0x3f886754	1.0656533
19	0x3f8663a4	1.0499158
20	0x3f88274f	1.0636996
21	0x3f87763f	1.0582961
22	0x3f877a24	1.0584149
23	0x3f86fd65	1.054608
24	0x3f85de07	1.0458382
25	0x3f870a1c	1.054996
26	0x3f88f286	1.0699012
27	0x3f85afd6	1.0444286
28	0x3f888c4d	1.0667816
29	0x3f874ceb	1.0570349
30	0x3f878083	1.0586094
31	0x3f86f5b8	1.0543737

encoder.block2.block.2.bias f4 [32]
0	0xbdfb2fff	-0.12265014
1	0xbde65880	-0.11247349
2	0xbda505dd	-0.08057759
3	0x3db2a3f2	0.08722676
4	0xbdb38beb	-0.087669216
5	0xbddff29d	-0.10934947
6	0xbdcf2ba5	-0.101157464
7	0xbdac836a	-0.08423503
8	0xbd9e708a	-0.07736309
9	0xbd9ccd82	-0.07656385
10	0xbdf16cff	-0.117883675
11	0xbdabc6b3	-0.08387508
12	0xbdc4c137	-0.09607165
13	0xbd4fdb89	-0.050746474
14	0xbdb07d35	-0.08617631
15	0xbdb37f0d	-0.087644674
16	0xbdab0e0e	-0.0835229
17	0xbdcca7ec	-0.09992966
18	0xbdd7eed5	-0.105436005
19	0xbdb85056	-0.08999698
20	0xbdf0d236	-0.117588446
21	0xbddc1570	-0.107462764
22	0xbdd94a18	-0.106098354
23	0xbdbe6d61	-0.09298206
24	0x3be02ab8	0.00684103
25	0xbde69017	-0.11257952
26	0xbdda09c8	-0.10646397
27	0xbdaa0165	-0.08301047
28	0xbdd3376a	-0.10313304
29	0xbdc550c1	-0.09634543
30	0xbdef393e	-0.1168084
31	0xbdb56d4f	-0.088587396

encoder.block2.block.2.running_mean f4 [32]
0	0x3e746668	0.2386719
1	0x3d9aaeb0	0.0755285
2	0x3de75f84	0.11297515
3	0x3ea8d2b0	0.32973242
4	0x3d850f70	0.06497085
5	0x3e668596	0.22511896
6	0x3e6e7852	0.23288086
7	0x3dafd5e0	0.08585715
8	0x3e0b5c74	0.13609487
9	0x3df717ea	0.12065108
10	0x3d9446d6	0.072400734
11	0x3dde3033	0.10849037
12	0x3dac347e	0.084084496
13	0x3e862e7c	0.2620734
14	0x3d96ca5b	0.07362815
15	0x3d7a8e80	0.061171055
16	0x3dcc3748	0.099714816
17	0x3df3d61e	0.11906074
18	0x3e69612b	0.22790973
19	0x3d82bd04	0.06383708
20	0x3e818cb1	0.25302652
21	0x3d87f5cc	0.06638679
22	0x3e712479	0.2354907
23	0x3dd491de	0.103793845
24	0x3e97a79d	0.29620066
25	0x3e618462	0.22023156
26	0x3e9fc1b6	0.31202477
27	0x3dd57add	0.10423825
28	0x3e8a530c	0.27016485
29	0x3dc78779	0.09742636
30	0x3de37712	0.11106695
31	0x3d824661	0.0636108

encoder.block2.block.2.running_var f4 [32]
0	0x3e6b97fb	0.23007195
1	0x3ee642ef	0.4497294
2	0x3f6f4cfd	0.9347685
3	0x3d92c5da	0.071666434
4	0x3ebbea35	0.36702123
5	0x3e9142b9	0.28371218
6	0x3dfc0df1	0.123073466
7	0x3ebaf349	0.36513737
8	0x3fc41aae	1.5320642
9	0x3f4b4c0c	0.79412913
10	0x3ecc3095	0.39880815
11	0x3f3e715a	0.7439171
12	0x3f04fc3e	0.5194739
13	0x3dd62239	0.10455746
14	0x3f2430c9	0.6413694
15	0x3e8d2dd2	0.2757402
16	0x3f25258f	0.64510435
17	0x3f473600	0.7781677
18	0x3dcb1b7d	0.09917352
19	0x3eb3e244	0.35133564
20	0x3e98969e	0.29802412
21	0x3ebe4d3c	0.371683
22	0x3ea0358f	0.31290862
23	0x3f4fa3db	0.811094
24	0x3e593bdc	0.21214241
25	0x3de4c55a	0.11170454
26	0x3e5e6a30	0.21720195
27	0x3f0418d0	0.5160036
28	0x3eea221f	0.45729157
29	0x3f8db51f	1.1070899
30	0x3f836445	1.0264975
31	0x3ed27d41	0.41111186

encoder.final.block.0.weight f4 [3, 32, 3, 3]
0	0x3c00eaae	0.007868452
1	0x3dd349c5	0.10316805
2	0x3d163193	0.03666837
3	0xbc1d24b4	-0.00959127
4	0x3d4455c1	0.047933344
5	0x3c8f7997	0.017514033
6	0x3d55694a	0.052102365
7	0x3da71a69	0.08159334
8	0x3de9dc39	0.11418957
9	0x3ddf8660	0.10914302
10	0xbcf28d94	-0.029608525
11	0x3d8a7a01	0.06761552
12	0x3dcf01b1	0.101077445
13	0xbdab9ae0	-0.083791494
14	0x3c4307af	0.011903687
15	0x3db0e801	0.08638001
16	0xbd3d1641	-0.0461638
17	0xbc33acb3	-0.010966468
18	0xbc5902e0	-0.013245314
19	0x3d44a166	0.048005484
20	0x3d900600	0.070323944
21	0x3dc40e9a	0.095730975
22	0x3cbe70ff	0.02324724
23	0x3c85d6df	0.01633781
24	0x3dd08907	0.10182386
25	0x3d87fc42	0.06639911
26	0x3ddb17bd	0.10697887
27	0xbd6ee40f	-0.058322962
28	0xbb24cbe7	-0.002514595
29	0xbd082769	-0.03324071
30	0xbd6be4d1	-0.057591263
31	0x3ca29949	0.019848483
32	0xbdd6f635	-0.10496179
33	0xbc50117e	-0.012699483
34	0x3daa0ae9	0.08302862
35	0xbc0e6942	-0.008692088
36	0x3d83679a	0.06416245
37	0x3db7d487	0.08976083
38	0x3ccae139	0.024765598
39	0x3de46cae	0.111535415
40	0x3df9a4bb	0.12189623
41	0x3d0217fc	0.031761155
42	0x3deb38af	0.11485421
43	0x3db6e9d2	0.089313164
44	0x3dafdfad	0.08587585
45	0x3d3cd278	0.046099156
46	0xbc140d59	-0.009036385
47	0x3dc64894	0.09681812
48	0x3d2d1eb5	0.042265613
49	0xbca85fff	-0.020553587
50	0x3d62f579	0.055409882
51	0x3d610e04	0.054945007
52	0xbcd7c45d	-0.02633875
53	0x3d542ed2	0.051802464
54	0x3cd142ec	0.025544606
55	0x3d49cf72	0.0492701
56	0x3dbaa9b0	0.091143966
57	0x3da9b628	0.08286697
58	0x3df78fad	0.12087951
59	0x3d790285	0.06079342
60	0x3b9b5654	0.0047405157
61	0xbc0ba141	-0.008522333
62	0x3d65f4dd	0.056141723
63	0x3d3828ef	0.044960912
64	0xbd2864a2	-0.041111596
65	0x3dd8b7ae	0.10581909
66	0x3cf334e2	0.029688302
67	0xbd80770a	-0.06272705
68	0x3d803635	0.06260339
69	0x3d64366c	0.055715963
70	0x3d0f2f31	0.034957115
71	0x3d7762df	0.060397025
72	0x3d817540	0.06321192
73	0x3da4612f	0.08026349
74	0x3aee3256	0.001817296
75	0x3d579c42	0.052639253
76	0xbced085e	-0.028934654
77	0x3d2f0f43	0.042739164
78	0x3dd84348	0.10559708
79	0x3cf73cfe	0.03018045
80	0x3dd676b8	0.104718626
81	0x3d2f83f3	0.042850446
82	0x3d78fd47	0.06078842
83	0x3c3708c2	0.011171522
84	0xbd60a776	-0.054847203
85	0xbd81c6b1	-0.063367255
86	0xbd8118f7	-0.0630359
87	0x3bdf1622	0.0068080584
88	0x3cdc07af	0.026859133
89	0x3be682a4	0.0070346165
90	0x3d7db80b	0.061943095
91	0x3c2062c3	0.009789172
92	0xb943cbee	-0.00018672619
93	0x3d94b271	0.072605975
94	0x3dff27a0	0.1245873
95	0x3dcd54e5	0.10025958
96	0x3d571b4c	0.052516267
97	0x3c76d3c5	0.015065138
98	0xbd1a4373	-0.03766198
99	0x3de99b7e	0.11406611
100	0x3a6b04c4	0.00089652487
101	0x3dba28e2	0.09089829
102	0x3d984ea7	0.07436877
103	0x3cc84d6f	0.024450986
104	0x3d2eb1e5	0.042650122
105	0x3da3d1e0	0.07999015
106	0x3db36bb9	0.08760781
107	0x3cb55de5	0.022139499
108	0x3de2786c	0.11058125
109	0xbd12933f	-0.035784956
110	0x3ce2d548	0.027689591
111	0x3dc1c44d	0.094612695
112	0xbd67b88e	-0.05657249
113	0xbcc1ceef	-0.023658244
114	0x3c0561bb	0.008140977
115	0xbd376f86	-0.04478409
116	0xbcd4d9cf	-0.025982765
117	0xbcdc55eb	-0.026896438
118	0xbd23faec	-0.04003422
119	0xbd995293	-0.07486453
120	0xbd0a0d7f	-0.033704277
121	0x3dd0afa9	0.101897545
122	0x3d99c223	0.07507732
123	0x3d17bd9c	0.03704606
124	0x3ca70c9a	0.020391751
125	0x3cc83d76	0.02444337
126	0x3dcf3982	0.101183906
127	0x3cb52da3	0.022116488
128	0xbdb41738	-0.08793491
129	0x3da787c2	0.081801906
130	0x3d844089	0.064576216
131	0xbc99c81b	-0.018772176
132	0x3dc47f85	0.09594635
133	0x3deab159	0.11459608
134	0xbd6395f6	-0.055562936
135	0x3d978bc4	0.07399705
136	0x3d9a37db	0.07530185
137	0x3ccd49df	0.025059639
138	0x3db825a9	0.08991558
139	0x3d99f12f	0.07516705
140	0xbc3f3ad7	-0.011671743
141	0x3d733614	0.059377745
142	0x3dee77af	0.116439216
143	0xbc5bbe34	-0.013412047
144	0x3cb1da74	0.021710612
145	0x3db41dd1	0.087947495
146	0x3dc9eaec	0.09859261
147	0x3d4a79f3	0.049432706
148	0x3de59b6d	0.11211286
149	0x3dd1d7a6	0.1024621
150	0xbd16adf3	-0.036786985
151	0x3d1d1cf7	0.0383577
152	0xbbf98d6b	-0.0076157353
153	0x3cf43c23	0.029813832
154	0xbd05bead	-0.032652546
155	0xbd6f6055	-0.05844148
156	0x3daf6779	0.08564658
157	0x3daf9071	0.08572472
158	0x3c940a13	0.01807121
159	0x3dd152e0	0.10220885
160	0xbc569a3f	-0.013098299
161	0x3d855a86	0.065114066
162	0x3c975f99	0.018478202
163	0x3d9ceb8e	0.07662116
164	0x3d4c96ed	0.04994862
165	0xbc44f2b1	-0.012020753
166	0x3d97ee7f	0.074185364
167	0x3cfdf64b	0.03100123
168	0x3da59c32	0.080864325
169	0x3d272442	0.040806063
170	0x3c1e67e7	0.009668327
171	0xbb6ca216	-0.0036107353
172	0xbc6a1512	-0.01428725
173	0x3d54ec28	0.05198303
174	0x3dc0766c	0.09397587
175	0x3d82e8af	0.06392037
176	0x3da8f652	0.08250107
177	0x3dd9d519	0.10636348
178	0x3ce93c39	0.0284711
179	0x3daaebd8	0.08345765
180	0x3d434ca4	0.047680512
181	0x3d0f9654	0.035055473
182	0x3de649d3	0.112445496
183	0x3ddeda32	0.10881461
184	0x3d5c8cdb	0.053845268
185	0x3dc800d4	0.09765783
186	0x3ca1f650	0.019770771
187	0x3da4e14f	0.08050787
188	0x3d1ca840	0.038246393
189	0xbc3080da	-0.010772908
190	0xbcafeb7e	-0.021474596
191	0x3d9e29bb	0.07722803
192	0x3d969874	0.07353297
193	0xbce96324	-0.028489657
194	0x3d9839d7	0.07432907
195	0xbd31f4cb	-0.043446343
196	0xbd894806	-0.067031905
197	0xbc65435c	-0.0139931105
198	0x3d9a8a6d	0.07545934
199	0xbcee0745	-0.0290562
200	0x3b02d12a	0.0019961097
201	0xbc7621a1	-0.015022666
202	0xbd893ee6	-0.0670145
203	0xbcb49e25	-0.022048065
204	0x3cd21878	0.025646433
205	0xbd872295	-0.06598393
206	0x3db6ffd9	0.08935518
207	0x3c3c98e5	0.011511062
208	0x3db0ced3	0.086331986
209	0x3dd12419	0.10211963
210	0x3d350a1c	0.044199094
211	0x3cce4e81	0.025183918
212	0x3d716466	0.058933638
213	0x3dce6765	0.10078315
214	0x3cd395aa	0.025828201
215	0x3de0eb17	0.1098234
216	0xbdc36022	-0.0953982
217	0xbcba3bdc	-0.022733621
218	0xbdac7bc0	-0.08422041
219	0x3cc8e903	0.024525171
220	0x3e01682f	0.12637399
221	0xbc3c5825	-0.011495625
222	0xbcc42487	-0.023943199
223	0x3d5239bd	0.051324595
224	0x3d226f19	0.039656732
225	0x3dceaea4	0.10091904
226	0x3cf0962e	0.029368486
227	0x3d74bf47	0.05975273
228	0x3d8c99b5	0.06865255
229	0x3e027f04	0.12743765
230	0x3cab4389	0.020906227
231	0xbc8531d0	-0.016259104
232	0xbc8752f2	-0.016519044
233	0x3d4228f7	0.04740235
234	0x3d01da19	0.031702135
235	0x3d9e272f	0.077223174
236	0xbd439052	-0.047745056
237	0x3e164dac	0.14678067
238	0x3e050a07	0.12992106
239	0xbcfb7d7d	-0.030699486
240	0x3d4de36c	0.050265715
241	0xbc9c4967	-0.01907797
242	0xbbba28b3	-0.0056811213
243	0x3da2cbc3	0.07949021
244	0x3aca501f	0.0015435255
245	0x3cbc47bf	0.02298343
246	0x3dabc6b5	0.0838751
247	0xbce4d2d8	-0.02793257
248	0x3ce6d8f6	0.028179627
249	0x3db01af5	0.08598892
250	0x3c407a48	0.011747904
251	0x3d035013	0.032058787
252	0x3aa7b956	0.0012796323
253	0x3c1e8537	0.009675316
254	0x3d7d1e3c	0.061796412
255	0xbcd1a7e4	-0.025592752

encoder.final.block.0.bias f4 [3]
0	0xbb0d480b	-0.0021557834
1	0xbcb0134b	-0.021493575
2	0xbd05d0aa	-0.0326697

decoder.initial.block.0.weight f4 [32, 3, 3, 3]
0	0x3ddf9003	0.1091614
1	0x3e1c75dd	0.15279336
2	0xbdbc1b16	-0.09184854
3	0x3dd78416	0.1052324
4	0x3e13bfa3	0.14428572
5	0x3deeee09	0.11666495
6	0x3df34ede	0.11880277
7	0x3e0b9a43	0.13633065
8	0x3bd81bc7	0.006595108
9	0x3c275cc7	0.010214991
10	0x3d0eba91	0.034845892
11	0x3e3af296	0.18256602
12	0xbd1878d4	-0.037224606
13	0x3e066e3d	0.1312799
14	0xbe1d4f10	-0.15362191
15	0xbdf3a267	-0.1189621
16	0x3e42fc67	0.19041596
17	0x3c8a75c0	0.01690185
18	0x3e15c192	0.14624622
19	0x3cbfcba3	0.023412531
20	0xbe097c28	-0.13426268
21	0x3e5abf78	0.21362102
22	0x3e44ccaa	0.19218698
23	0x3e4cfe37	0.2001885
24	0xbe39fc79	-0.18162717
25	0x3e2c9499	0.1685356
26	0xbe364cd6	-0.17802748
27	0xbe161bdb	-0.14659064
28	0x3e19539d	0.14973302
29	0xbe31404c	-0.17309684
30	0xbbee1386	-0.007265511
31	0xbe408133	-0.18799286
32	0x3dec893c	0.11549613
33	0xbdfc31ca	-0.12314184
34	0xbb75ba4b	-0.0037495072
35	0xbc4f60c5	-0.012657349
36	0xbe09647c	-0.13417238
37	0xbd3b3ef1	-0.045714322
38	0xbe0eff49	-0.13964571
39	0xbd7ed0f1	-0.06221098
40	0x3e2fdbad	0.17173643
41	0x3d2b04a8	0.041752487
42	0x3e340d53	0.17583208
43	0xbe4b466e	-0.19851086
44	0xbe267316	-0.1625484
45	0x3e1ce50f	0.15321754
46	0xbe38877d	-0.18020435
47	0x3d13902d	0.03602617
48	0xbdbbfd85	-0.091792144
49	0x3db57d36	0.08861773
50	0x3df72f5f	0.12069582
51	0x3e1f9d30	0.15587306
52	0x3ac42159	0.0014963552
53	0x3de9c2ec	0.114141315
54	0xbce26f8b	-0.027641078
55	0xbd8cf37d	-0.06882379
56	0x3ba3edb3	0.005002701
57	0xbc0e3101	-0.008678676
58	0xbe0fd8d7	-0.14047562
59	0xbb0af449	-0.0021202734
60	0x3db27313	0.08713355
61	0x392ac40f	0.00016285501
62	0xbbc6024a	-0.0060427533
63	0x3d48e34e	0.0490449
64	0x3d478183	0.048707496
65	0xbdfa26a8	-0.12214404
66	0x3e4b5b53	0.19859056
67	0xbe55b39a	-0.20869294
68	0x3d778034	0.060425
69	0xbdf6193a	-0.1201653
70	0xbde142dc	-0.109990805
71	0xbdac48f6	-0.08412354
72	0x3d201fa8	0.03909269
73	0x3dd99062	0.10623242
74	0x3d7d80a4	0.06189026
75	0xbdc1d115	-0.09463707
76	0x3dac446b	0.08411487
77	0xbd99c167	-0.07507592
78	0xbd54f32d	-0.051989723
79	0xbd19881e	-0.037483327
80	0x3e0bdc6c	0.13658303
81	0xbd4289bf	-0.047494646
82	0xbd48a6d0	-0.04898721
83	0x3cbb344c	0.022852086
84	0x3e1237bc	0.14279073
85	0x3e523719	0.2052883
86	0xbd969d5a	-0.07354231
87	0x3c81aa6c	0.015828334
88	0xbcff2c62	-0.031149093
89	0x3d160743	0.03662802
90	0xbe1818a5	-0.14853151
91	0xbcffa04c	-0.031204365
92	0x3d4ba9cc	0.049722478
93	0x3e0c4362	0.1369758
94	0xbe1f61bb	-0.15564625
95	0x3dd42702	0.10359003
96	0xbdd4e3a2	-0.1039498
97	0xbe3cb356	-0.18427786
98	0x3e3a604b	0.18200795
99	0x3dd0afe9	0.10189802
100	0xbd8b500b	-0.06802376
101	0xbd9fa150	-0.0779444
102	0xbe013d61	-0.1262107
103	0x3d8802ef	0.066411845
104	0xbd5c67ce	-0.053809933
105	0xbccebad3	-0.02523557
106	0xbd6d8978	-0.05799243
107	0xbd7e221b	-0.062044244
108	0x3e09a6a6	0.13442478
109	0x3c9aed44	0.018911965
110	0xbd1b088e	-0.037849955
111	0xbe61e1ce	-0.22058794
112	0xbc7be4c4	-0.015374366
113	0xbda3881e	-0.07984947
114	0xbe231e24	-0.15929466
115	0x3daeaddc	0.08529255
116	0xbdf0ceb2	-0.11758174
117	0xbe298391	-0.16554095
118	0x3e380ab3	0.17972831
119	0xbd7e2b17	-0.062052812
120	0x3d6b90df	0.057511207
121	0xbe39c302	-0.18140796
122	0xbda1f0e3	-0.079072736
123	0x3ddaa319	0.1067564
124	0x3e139f7b	0.14416306
125	0xbe28fbbb	-0.16502278
126	0x3e03f505	0.12886436
127	0x3c9e7f44	0.019347794
128	0xbdc64638	-0.09681362
129	0xbdeefa6f	-0.1166886
130	0x3d69ebc1	0.057109598
131	0x3d4c26b4	0.049841598
132	0xbe0cff03	-0.13769154
133	0x3e351455	0.17683537
134	0x3e31d8a5	0.173678
135	0x3b427af8	0.0029675346
136	0xbe12e037	-0.14343344
137	0xbdddbd81	-0.108271606
138	0xbe26cb56	-0.16288504
139	0xbcdf2a2c	-0.027241789
140	0x3dc541e8	0.09631711
141	0xb9a05948	-0.00030584098
142	0x3e11b06e	0.14227459
143	0x3e1e1914	0.15439254
144	0xbdfd74fe	-0.1237583
145	0x3d9ca4d1	0.07648624
146	0xbd671b70	-0.05642265
147	0xbe237117	-0.15961109
148	0x3df02b53	0.117270134
149	0xbe10a289	-0.14124502
150	0xbd8eab27	-0.069662385
151	0xbd3a4eff	-0.045485493
152	0x3cce54c5	0.025186906
153	0x3d8bb6b8	0.0682196
154	0x3a59ecb8	0.0008313167
155	0x3cfa11a9	0.030526
156	0xbbe24e5d	-0.0069063143
157	0xbdcab61f	-0.09898018
158	0xbdc2cc54	-0.09511629
159	0x3e3d6ba6	0.18498096
160	0x3dd5514f	0.10415899
161	0xbe050950	-0.12991834
162	0xbbf86870	-0.0075808093
163	0x3c282734	0.010263253
164	0x3d8143d1	0.06311763
165	0x3da0c7f0	0.07850635
166	0x3cf6a27a	0.030106772
167	0xbc8ef25b	-0.017449548
168	0xbe16d9c6	-0.14731511
169	0x3bab69ad	0.0052311034
170	0x3e19d43d	0.15022369
171	0xbe467d90	-0.19383836
172	0xbe560dfd	-0.20903774
173	0xbe1813c5	-0.14851291
174	0x3e355806	0.1770936
175	0x3e0088e7	0.12552224
176	0x3d2c9a46	0.042139314
177	0x3e412079	0.18860044
178	0x3d4b988c	0.049706027
179	0xbe20c713	-0.15700941
180	0x3da28a57	0.079365425
181	0x3c2be6a9	0.010492005
182	0x3d9c2692	0.07624544
183	0x3c0c367e	0.008557914
184	0x3e23833e	0.15968034
185	0xbe60d089	-0.2195455
186	0xbe4b187d	-0.1983356
187	0xbd5f22f9	-0.054476712
188	0xbdf41dfe	-0.11919783
189	0x3de701f9	0.11279673
190	0xbe632435	-0.2218178
191	0xbd687c95	-0.056759436
192	0xbe27a314	-0.16370803
193	0x3e29236c	0.16517419
194	0x3d93ae41	0.07210971
195	0x3d1bcb91	0.038035933
196	0x3e033bb4	0.12815744
197	0xbc7399f5	-0.014868249
198	0x3d82751f	0.06369995
199	0x3c4c317c	0.01246297
200	0xbe27a6fe	-0.16372296
201	0x3c03fcbc	0.008055862
202	0xbe0d27cb	-0.13784711
203	0xbe1d3788	-0.15353215
204	0x3de2fa0e	0.110828504
205	0xbe08add2	-0.13347557
206	0xbc834e88	-0.016028658
207	0xbd65b6a3	-0.05608238
208	0x3e425f69	0.18981709
209	0xbe281f15	-0.16418107
210	0x3e328e1f	0.17437027
211	0xbd61ee9a	-0.05515919
212	0x3c02752a	0.007962504
213	0xbd8336e6	-0.064069554
214	0x3da3ed08	0.080041945
215	0xbe00130b	-0.12507264
216	0xbe3c4574	-0.1838587
217	0x3df82f04	0.121183425
218	0x3cfbcd10	0.03073743
219	0xbd78cbb1	-0.06074113
220	0xbe38d9e5	-0.1805187
221	0x3df8f8fd	0.12156866
222	0xbdbda387	-0.09259706
223	0xbe396cae	-0.18107864
224	0x3c9b278f	0.018939761
225	0x3dd56da9	0.10421307
226	0x3da42ec0	0.08016729
227	0xbd8cc217	-0.06872957
228	0xbe3cda03	-0.1844254
229	0x3db6ac2b	0.08919557
230	0x3e2e5e52	0.17028168
231	0x3db7666b	0.089550816
232	0x3e2dbae8	0.1696583
233	0x3d133bf0	0.035945833
234	0xbd7ce9e2	-0.061746486
235	0xbc29d91b	-0.010366703
236	0xbdba5607	-0.0909844
237	0x3db1e0e9	0.08685476
238	0xbe473222	-0.19452718
239	0xbe390717	-0.18069111
240	0xbc86e1c7	-0.01646508
241	0x3db4f576	0.088358805
242	0x3e0ae744	0.13564783
243	0xbdea12e5	-0.11429385
244	0xbdfc1bb1	-0.12309969
245	0x3e446a75	0.19181235
246	0xbe1cd56d	-0.1531579
247	0x3e509d2e	0.2037246
248	0x3cda2e81	0.026633503
249	0xbd949c85	-0.07256416
250	0xbe0f5a85	-0.13999374
251	0xbe280643	-0.16408639
252	0xbd027988	-0.031854182
253	0x3c8bf4a9	0.017084436
254	0x3d351a14	0.044214323
255	0xbd908db0	-0.07058275

decoder.initial.block.0.bias f4 [32]
0	0xbdf4579d	-0.119307734
1	0xbd838e6a	-0.06423648
2	0xbd1ad63b	-0.037801962
3	0xbc002837	-0.007822088
4	0x3c06f03c	0.008235987
5	0x3db9427e	0.090458855
6	0x3da97525	0.08274297
7	0xbcdd42be	-0.027009364
8	0x3d613101	0.054978374
9	0xbc23b61c	-0.009992149
10	0xbd0d05c3	-0.034429323
11	0x3de84b50	0.1134249
12	0xbdf0ffed	-0.11767564
13	0xbdb3299f	-0.08748173
14	0x3e154dbc	0.14580435
15	0xbc7cd12d	-0.015430731
16	0xbc36a29a	-0.011147166
17	0xbe2ed108	-0.17071927
18	0xbe2cc20d	-0.168709
19	0xbcc52c7e	-0.024069067
20	0x3e256cba	0.16154757
21	0xbc990432	-0.018678758
22	0x3d01ff35	0.031737525
23	0xbe35732e	-0.17719719
24	0x3e069572	0.13142946
25	0x3dd21107	0.10257154
26	0xbdf9aeac	-0.12191519
27	0xbdf21a31	-0.11821402
28	0x3da101e4	0.07861689
29	0xbcd21994	-0.025646962
30	0x3d8f5e2e	0.07000385
31	0x3e0fe844	0.14053446

decoder.initial.block.2.weight f4 [32]
0	0x3f7a410c	0.97755504
1	0x3f813715	1.0094935
2	0x3f8436b8	1.0329199
3	0x3f81b243	1.0132526
4	0x3f82e212	1.0225241
5	0x3f80db35	1.0066897
6	0x3f8026e1	1.0011865
7	0x3f8228e7	1.0168732
8	0x3f78ac37	0.9713778
9	0x3f812fea	1.0092747
10	0x3f7c3292	0.98514664
11	0x3f7dd704	0.9915621
12	0x3f77dce6	0.9682144
13	0x3f77f8d7	0.96864074
14	0x3f78221c	0.96927047
15	0x3f7eb7fd	0.99499494
16	0x3f762f65	0.9616607
17	0x3f704a28	0.93863153
18	0x3f66d345	0.9016612
19	0x3f767f58	0.9628806
20	0x3f7e3c43	0.993107
21	0x3f8428ad	1.0324913
22	0x3f7ad291	0.9797755
23	0x3f7af729	0.98033386
24	0x3f7f4dcd	0.9972809
25	0x3f842763	1.032452
26	0x3f8229e5	1.0169035
27	0x3f728bbc	0.9474447
28	0x3f817c2a	1.0116017
29	0x3f76c963	0.9640104
30	0x3f83c289	1.0293742
31	0x3f7acbe2	0.9796735

decoder.initial.block.2.bias f4 [32]
0	0xbd5f1562	-0.05446375
1	0x3abd60e7	0.0014448435
2	0xbc557c83	-0.013030174
3	0xbd0922a1	-0.03348029
4	0xbcbfc508	-0.023409382
5	0x3c72f99d	0.01483002
6	0xbd941123	-0.07229831
7	0xbcfc1c99	-0.030775355
8	0x3d16185a	0.036644317
9	0xbc9b1a32	-0.01893339
10	0x3c0d4b23	0.008623871
11	0xbc7b9013	-0.015354174
12	0xbda47264	-0.08029631
13	0x3b8713c8	0.004122231
14	0xbb90216f	-0.004398517
15	0xbbcbbd40	-0.0062176287
16	0xbc83ddcf	-0.016096978
17	0xbca045ce	-0.019564535
18	0xbe09316c	-0.13397759
19	0x3b4a4b79	0.003086774
20	0x3b89f426	0.004210013
21	0x3cc2c6fd	0.023776526
22	0x3b59a491	0.0033209661
23	0xbd36511d	-0.04451095
24	0xbd8455a5	-0.06461648
25	0xba6fecfa	-0.0009152439
26	0xbc1882c9	-0.009308525
27	0xbcde0a3a	-0.027104486
28	0x3b4a0754	0.0030827122
29	0xbb8df183	-0.004331769
30	0x3c7a180e	0.015264524
31	0xbd1414c5	-0.03615262

decoder.initial.block.2.running_mean f4 [32]
0	0x3c212923	0.009836468
1	0x3e859951	0.26093534
2	0x3e68c243	0.22730355
3	0x3e5b5c44	0.21421915
4	0x3e967d15	0.29392305
5	0x3eddcf4b	0.43322214
6	0x3e95d839	0.29266527
7	0x3ea2a93a	0.31769735
8	0x3e61e42f	0.22059701
9	0x3eab9ba9	0.33517197
10	0x3c597634	0.013272811
11	0x3de146be	0.10999821
12	0x3c0d250d	0.008614791
13	0x3b1da0cc	0.0024052141
14	0x3c7edb83	0.015555265
15	0x3c882c7d	0.016622776
16	0x3d9adcf7	0.07561677
17	0x3bfc0239	0.0076906946
18	0x3a958329	0.0011406887
19	0x3c244422	0.01002601
20	0x3f961489	1.1725017
21	0x3e9cd6d4	0.3063265
22	0x3c8fe3b7	0.017564638
23	0x3bfb4584	0.007668199
24	0x3d81fbd1	0.06346858
25	0x3e17daa9	0.14829506
26	0x3e0b0a0e	0.13578054
27	0x3af1df21	0.0018453338
28	0x3e63a664	0.22231442
29	0x3c29c174	0.010361064
30	0x3ea6d36d	0.3258318
31	0x3ed4c3ac	0.41555536
