models/normal/ResidualSteganoGAN/9/epoch_4.pth (torch, 344660 bytes, 59 tensors)

encoder.initial.block.0.weight f4 [32, 3, 3, 3]
-0.16353907 -0.17413624 0.09292404 0.19413772 0.08954336 -0.12692639 0.13848819 -0.012285289
-0.012116765 0.04440203 0.09395056 0.11125272 -0.06093391 0.17197159 0.16564348 0.04219163
0.14483334 -0.038103018 0.18368322 0.05061805 -0.046754632 0.11248411 -0.084811695 0.056328118
-0.066833764 0.049863506 -0.06903911 0.0072095487 -0.111800015 -0.1814116 -0.17739086 0.092229225
0.116108105 -0.045607045 -0.10163324 0.15228756 -0.027996551 0.07064292 -0.15682559 0.09823712
0.08003997 -0.15455022 -0.123894334 0.16531369 -0.028980566 0.085204884 -0.03222407 0.17596383
-0.12565206 -0.08407142 0.14704174 -0.14024192 -0.014650153 -0.105694965 -0.16294636 -0.11278019
0.11601502 0.12589945 0.098967314 0.09306439 -0.005621744 0.13509372 -0.011814392 0.07640432
-0.030118933 0.13469543 -0.16056137 -0.14767033 -0.07213866 0.050016906 0.067394234 0.037143085
-0.14556408 -0.13054858 -0.053310376 0.1561139 -0.1695586 0.0043035937 -0.05231185 -0.15532303
-0.11916951 0.17193496 0.14251956 0.014062577 0.12152853 -0.18590486 -0.12913677 0.17431343
0.18097523 -0.121043615 0.19721362 -0.020607581 0.033469923 -0.08273408 0.08082406 0.0722594
0.13520294 0.12936577 0.03648482 -0.13756037 -0.08975223 -0.09945046 0.16602087 0.00026753682
-0.14648342 0.012190675 -0.0015004061 -0.08370377 -0.059514303 0.18845345 0.115526006 -0.0021624148
0.16395421 -0.17310852 0.04846926 -0.100695215 0.16828987 -0.16736908 0.04866714 0.13651179
0.04765483 -0.04752053 -0.038214367 0.19200473 -0.042487953 0.13826627 0.16623361 -0.16969003
-0.12943092 -0.15706451 -0.06082273 -0.0049752933 0.13086353 0.058868498 0.17634477 -0.1840572
-0.0051108054 -0.1356578 -0.1165332 0.1531152 0.08312715 0.1377086 -0.21511376 0.091994725
-0.014435478 0.101417415 0.007959913 -0.19163412 -0.0996156 -0.00854046 -0.049230933 0.016423197
0.08640629 -0.17334345 0.068513654 -0.15774423 0.026497494 -0.03681861 -0.17416443 -0.16900392
0.0023098611 -0.17252028 0.07143433 0.122203685 0.103824966 0.023599174 -0.1598237 0.07106669
0.014291665 0.12440642 0.084502414 0.095737904 -0.024265446 0.08464919 0.13473415 -0.023840044
-0.075011656 0.09830602 0.052461047 0.020659141 -0.12821977 0.02769662 0.09628332 0.035489213
0.10323863 0.060918745 -0.13132499 0.086631216 -0.022363454 0.029860085 0.100112185 -0.09151219
0.042696908 0.03263473 0.18121567 -0.13318048 0.058908872 -0.1270188 0.15934569 -0.0037220088
0.15303965 0.044684045 0.15131207 0.04729406 -0.08875025 0.10009329 -0.1340225 0.14788635
-0.1856414 0.07608226 -0.09870337 0.15524451 0.104955204 -0.03452516 -0.18463072 -0.058526553
0.17459579 0.014094765 0.07505133 -0.15821278 -0.099614814 0.021145673 -0.03668717 -0.057803966
0.1723931 0.18263485 -0.17572266 -0.048180457 -0.087104775 0.16026998 0.14676797 0.16573589
0.07877563 -0.022482209 0.12281287 0.13844022 0.09691112 -0.09444691 0.12220181 0.067884095
0.13832775 0.15285389 0.14194983 0.026979674 -0.068674855 0.11984546 0.112380736 -0.03591524
0.10089233 -0.14982435 0.052627277 0.11319151 -0.081776224 0.13100344 0.03241854 0.112709016
00000000: c976 27be c550 32be f64e be3d 0acc 463e
00000010: 8262 b73d fef8 01be d9cf 0d3e 3d48 49bc
00000020: 6585 46bc e7de 353d 2769 c03d 77d8 e33d
00000030: d695 79bd 5219 303e 729e 293e 21d1 2c3d
00000040: 314f 143e e911 1cbd 7417 3c3e df54 4f3d
00000050: c981 3fbd 125e e63d c1b1 adbd 50b8 663d
00000060: 24e0 88bd ad3d 4c3d 6064 8dbd 143e ec3b
00000070: 68f7 e4bd f6c3 39be f3a5 35be ade2 bc3d
00000080: 16ca ed3d 74ce 3abd 1725 d0bd 45f1 1b3e
00000090: 0659 e5bc 3cad 903d e396 20be 8b30 c93d
000000a0: ffeb a33d 6a42 1ebe 50bc fdbd fe47 293e
000000b0: a768 edbc e67f ae3d 63fd 03bd dd2f 343e
000000c0: efaa 00be a32d acbd 1c92 163e 949b 0fbe
000000d0: 3207 70bc 9a76 d8bd 69db 26be 4df9 e6bd
000000e0: 4899 ed3d c9eb 003e 60af ca3d 8b98 be3d
000000f0: 9b36 b8bb 0256 0a3e 2791 41bc de79 9c3d
00000100: fbbb f6bc 99ed 093e 336a 24be e436 17be
00000110: 6fbd 93bd 87de 4c3d fd05 8a3d 5923 183d
00000120: c00e 15be 87ae 05be fb5b 5abd 52dc 1f3e
00000130: c5a0 2dbe 2905 8d3b f344 56bd 000d 1fbe
00000140: 250f f4bd b80f 303e a6f0 113e b966 663c
00000150: f3e3 f83d d85d 3ebe 6e3c 04be 387f 323e
00000160: 9251 393e b7e5 f7bd 5ef2 493e 3bd1 a8bc
00000170: c217 093d 7c70 a9bd 1687 a53d bcfc 933d
00000180: a472 0a3e 7678 043e 1b71 153d a0dc 0cbe
00000190: 04d0 b7bd afac cbbd 6001 2a3e 2f44 8c39
000001a0: c0ff 15be 66bb 473c 46a9 c4ba e26c abbd
000001b0: 45c5 73bd f1f9 403e e698 ec3d 4db7 0dbb
000001c0: 9de3 273e 5c43 31be b487 463d 4b39 cebd
000001d0: 2e54 2c3e cd62 2bbe 3257 473d bfc9 0b3e
000001e0: b631 433d e3a4 42bd ab86 1cbd e39c 443e
000001f0: d907 2ebd ac95 0d3e 2539 2a3e 39c3 2dbe
00000200: 8a89 04be 85d5 20be 4121 79bd c907 a3bb
00000210: 1701 063e 1820 713d b993 343e 7e79 3cbe
00000220: 8b78 a7bb e1e9 0abe f5a8 eebd 3bca 1c3e
00000230: 913e aa3d 7c03 0d3e c846 5cbe bb67 bc3d
00000240: c882 6cbc efb3 cf3d 4c6a 023c bc3b 44be
00000250: 4403 ccbd 49ed 0bbc 60a6 49bd f189 863c
00000260: c8f5 b03d f280 31be e350 8c3d b487 21be
00000270: 4611 d93c 1ccf 16bd 2958 32be 5d0f 2dbe
00000280: 0a61 173b 28a9 30be 294c 923d ed45 fa3d
00000290: 2fa2 d43d 0e53 c13c d3a8 23be 6a8b 913d
000002a0: 9627 6a3c cbc8 fe3d 9a0f ad3d 3c12 c43d
000002b0: 54c8 c6bc 8e5c ad3d c0f7 093e 324c c3bc
000002c0: b69f 99bd ab54 c93d 65e1 563d 5c3d a93c
000002d0: 0b4c 03be 06e4 e23c 3030 c53d 235d 113d
000002e0: c66e d33d ef85 793d 0f7a 06be b56b b13d
000002f0: 9033 b7bc 239d f43c 9e07 cd3d be6a bbbd
00000300: f4e2 2e3d ffab 053d 9a90 393e 7760 08be
00000310: 6e4a 713d 3711 02be 842b 233e f2ec 73bb
00000320: 6db6 1c3e 9e06 373d 8df1 1a3e 6bb7 413d
00000330: b1c2 b5bd b6fd cc3d 323d 09be 856f 173e
00000340: c718 3ebe 04d1 9b3d fe24 cabd 6bf8 1e3e
00000350: c1f2 d63d 416a 0dbd d60f 3dbe 8ab9 6fbd
00000360: 3dc9 323e bbed 663c 83b4 993d 8802 22be
00000370: da02 ccbd b139 ad3c 4945 16bd dac3 6cbd
00000380: d187 303e a104 3b3e a4f0 33be df58 45bd
00000390: fd63 b2bd d01d 243e 584a 163e abb6 293e
000003a0: 1e55 a13d 9c2c b8bc 5085 fb3d 46c3 0d3e
000003b0: 5679 c63d 626d c1bd f144 fa3d d106 8b3d
000003c0: caa5 0d3e bb85 1c3e 4c5b 113e 7a04 dd3c
000003d0: 67a5 8cbd 8971 f53d df27 e63d dc1b 13bd
000003e0: a3a0 ce3d 8e6b 19be b38f 573d f3d0 e73d
000003f0: 4b7a a7bd c425 063e 4ec9 043d fcd3 e63d

encoder.initial.block.0.bias f4 [32]
-0.039136987 -0.16746134 0.15892114 0.056828864 0.15189232 0.20589635 0.09071382 0.16864294
-0.012742908 0.12281616 -0.08541923 0.14406782 0.088086754 -0.09944793 -0.030448256 0.080637306
-0.11932057 -0.023840178 -0.09944698 0.04306537 -0.10804489 0.019248156 0.18358836 -0.0010254984
0.18170434 -0.052307267 0.11332567 0.0946377 0.1198619 0.037671044 0.04973235 -0.13402583
00000000: 1b4e 20bd fc7a 2bbe 39bc 223e 62c5 683d
00000010: a989 1b3e 7ed6 523e 2bc8 b93d bcb0 2c3e
00000020: a1c7 50bc 0a87 fb3d 47f0 aebd 8486 133e
00000030: d466 b43d 5bab cbbd 9f6e f9bc 2c25 a53d
00000040: 585e f4bd 7a4c c3bc dcaa cbbd 5065 303d
00000050: a446 ddbd 4fae 9d3c 96fe 3b3e 046a 86ba
00000060: b410 3a3e 2540 56bd 4a17 e83d 69d1 c13d
00000070: 287a f53d f44c 1a3d 26b4 4b3d 113e 09be

encoder.initial.block.2.weight f4 [32]
1.0188154 1.0057447 0.91693014 0.96908444 1.0184717 0.9800681 1.0244154 0.98644996
1.019151 1.0196587 0.99681234 0.96372825 0.9950737 1.0177286 1.0234463 0.990139
1.0027008 1.0195106 1.0104357 0.9518587 1.0128293 0.982956 1.0183316 0.9867583
0.9668359 0.9989969 1.0262748 0.91844773 1.0196811 0.955452 1.021916 1.0004693
00000000: 8b68 823f 3ebc 803f efbb 6a3f eb15 783f
00000010: 485d 823f bee5 7a3f 0b20 833f fc87 7c3f
00000020: 8a73 823f 2d84 823f 182f 7f3f e5b6 763f
00000030: 26bd 7e3f ee44 823f 4a00 833f c079 7d3f
00000040: 8058 803f 537f 823f f555 813f 03ad 733f
00000050: 64a4 813f 01a3 7b3f b158 823f 319c 7c3f
00000060: 8f82 773f 43be 7f3f f95c 833f 641f 6b3f
00000070: e984 823f 8198 743f 25ce 823f 610f 803f

encoder.initial.block.2.bias f4 [32]
-0.029828202 0.014510037 0.026076552 0.006303863 -0.028351523 0.040267095 -0.02138864 -0.029973395
-0.03886657 -0.016634867 -0.0031763057 0.026787963 0.025656981 -0.010029368 -0.0172597 -0.0001669146
-0.025225153 0.02599898 -0.02692387 0.018036988 -0.019460721 -0.014927807 -0.018182306 -0.01248944
-0.008439777 0.034231056 -0.029458977 0.03975322 -0.021077901 0.033246756 -0.046258606 0.02969329
00000000: 465a f4bc 82bb 6d3c 7e9e d53c a390 ce3b
00000010: 7441 e8bc 1cef 243d 3b37 afbc c48a f5bc
00000020: 8d32 1fbd d845 88bc 9129 50bb 6e72 db3c
00000030: 972e d23c 3852 24bc 3764 8dbc cc05 2fb9
00000040: fba4 cebc d0fb d43c 738f dcbc 4ec2 933c
00000050: 176c 9fbc c393 74bc 0ff3 94bc 82a0 4cbc
00000060: fe46 0abc dd35 0c3d f453 f1bc 46d4 223d
00000070: 90ab acbc c02d 083d aa79 3dbd 583f f33c

encoder.initial.block.2.running_mean f4 [32]
0.3631571 -0.0035871724 0.048977695 0.31920832 0.43626305 0.010758646 0.52087426 0.37272167
0.61305153 0.5418327 -0.0053461953 0.12495785 -0.0046248767 0.4943971 0.38760486 0.19920768
0.20348448 -0.0074173524 0.34503675 -0.0022049842 0.3725651 0.5834451 0.8204931 0.35535917
0.42435628 -0.005261687 0.5788861 0.00989033 0.4750548 -0.0035946094 0.4229293 -0.005462182
00000000: baef b93e c416 6bbb d69c 483d 466f a33e
00000010: df5d df3e 0845 303c 0458 053f 60d5 be3e
00000020: f2f0 1c3f 8cb5 0a3f 232f afbb e7e9 ff3d
00000030: 478c 97bb 9e21 fd3e 2574 c63e 19fd 4b3e
00000040: 3c5e 503e 430d f3bb a8a8 b03e 7f81 10bb
00000050: dac0 be3e a85c 153f d60b 523f a3f1 b53e
00000060: 3a45 d93e 3b6a acbb e131 143f 0d0b 223c
00000070: 623a f33e 8a93 6bbb 308a d83e 1bfc b2bb

encoder.initial.block.2.running_var f4 [32]
0.03345611 8.877947e-07 0.0040308125 0.022378774 0.019134376 0.0011466002 0.03890927 0.012138507
0.08377471 0.03705022 4.602438e-06 0.00154565 6.2222e-05 0.07621616 0.03780879 0.0036423225
0.021283071 1.1048358e-05 0.041759454 2.1672224e-05 0.047303416 0.0690491 0.08248567 0.027705615
0.02017404 4.8850047e-06 0.045631777 0.0005434252 0.02920251 1.29498585e-05 0.033497006 3.6733088e-06
00000000: 4609 093d ca50 6e35 e814 843b b153 b73c
00000010: b2bf 9c3c 8549 963a 545f 1f3d 97e0 463c
00000020: 1392 ab3d f9c1 173d a46e 9a36 6897 ca3a
00000030: 2f7d 8238 3817 9c3d 64dd 1a3d 08b4 6e3b
00000040: d659 ae3c 565c 3937 f60b 2b3d bfcc b537
00000050: 3ac1 413d 9d69 8d3d 3fee a83d e3f6 e23c
00000060: 0744 a53c dfe9 a336 63e8 3a3d a674 0e3a
00000070: 1a3a ef3c 3843 5937 2834 093d f782 7636

encoder.block1.block.0.weight f4 [32, 41, 3, 3]
0.07306704 0.043377027 0.020837301 -0.010914722 -0.022884943 0.009805712 0.03355523 0.05534476
0.0035279759 0.0059137153 0.008277729 0.00017612096 -0.058707796 0.016988026 0.0017766047 -0.014590035
0.0072277538 0.031092921 0.012006121 -0.022331256 0.024263043 -0.007311584 0.03507012 -0.043083534
-0.006844086 0.03774835 -0.03557942 0.018207042 0.020232825 0.012043195 0.022210084 0.0012767521
-0.04921459 -0.010203016 -0.016496632 0.049437888 0.044043038 0.056288 -0.013451601 0.052525252
-0.01861161 0.014781117 -0.013602235 0.04379786 0.05047104 0.018706873 -0.024758514 -0.006957793
-0.04973564 -0.051609 0.011357817 0.008686488 -0.014708923 0.010866628 -0.018750746 -0.027495991
-0.013701615 0.021556757 0.019599525 0.04679182 0.033481237 0.04617292 0.003405928 -0.019530362
-0.016826555 0.034844644 0.048198905 -0.00360754 -0.02044269 0.028137429 0.0015287714 -0.011130905
0.06339962 0.033292517 -0.0063926415 0.013309681 0.0014906374 0.024286164 0.036706556 -0.014846816
-0.02982967 -0.03352613 -0.024841102 -0.015759332 0.00815685 -0.024333568 0.029564831 0.03474568
0.022097738 0.056101725 -0.027060863 0.023992466 0.021123273 0.016202644 -0.050734274 0.0025834753
-0.021285864 -0.013808901 0.03193069 -0.037620503 -0.0029489165 0.018295858 -0.040775236 -0.01060107
-0.039314922 0.0093636885 -0.020248238 0.03737614 -0.035139345 -0.018728616 -0.03300131 0.00296171
-0.057826597 -0.025441926 -0.033740867 0.024397653 -0.022985404 0.007838121 -0.012611355 0.03601574
0.042163514 0.028540704 -0.026163472 -0.012045856 1.2454163e-05 0.0033052738 0.06271217 0.014598171
-0.028414873 -0.034749232 0.033462312 0.058054876 0.058792915 0.038591277 0.04148545 -0.024597565
0.04658537 -0.010605467 0.027549136 0.039699957 0.04391028 -0.024822794 -0.001398998 0.021108443
-0.013276561 -0.028863488 0.03099544 0.04510936 0.0019002081 0.020382652 -0.011108095 -0.039665893
0.029689819 -0.050463054 0.016140306 -0.045310915 -0.050534878 -0.024254873 -0.033862647 -0.028376691
0.0021857596 0.01466861 0.026372734 0.039776634 -0.030829417 0.013176111 0.04081871 -0.010741533
0.0034368415 0.038677447 0.0269649 -0.047546037 0.012586138 0.019279733 -0.018411327 0.013144909
-0.0155893415 -0.019742928 -0.01594322 0.05453116 -0.035659675 0.0037679467 0.01495161 0.025861483
0.055463806 -0.015014182 0.04417646 -0.00951976 -0.025138289 -0.017999765 -0.026392542 -0.014511151
-0.021698238 0.031624362 -0.022762004 -0.016205123 0.046094306 0.06505631 -0.019901128 -0.03408205
-0.0010693121 -0.006760323 0.004796837 0.034744266 0.014500394 0.011597574 0.031621046 -0.013017555
-0.006639447 0.02560285 0.04319758 -0.02511314 -0.028453864 0.028636979 0.013561345 -0.006112684
-0.053952705 -0.007756486 -0.0025161211 0.005399528 0.054552637 0.010052838 -0.008862393 0.03680409
0.00932373 0.0111799855 0.02241371 0.030772896 -0.02507283 0.029845716 -0.05384373 -0.03403906
-0.056161992 0.041028295 -0.0061522187 0.0040271007 0.055029992 0.043126587 0.012447336 -0.0034472202
0.052012373 0.03473274 0.026395258 0.03169431 0.027219221 -0.012672052 -0.013473332 0.019608943
-0.0069607426 -0.042804047 0.014270185 0.041751046 0.009741957 -0.0035912227 0.037351966 0.04521472
00000000: 2ca4 953d 1cac 313d fdb2 aa3c aad3 32bc
00000010: 3479 bbbc 23a8 203c 3571 093d 30b1 623d
00000020: 9d35 673b d7c7 c13b 509f 073c 1cad 3839
00000030: 9677 70bd 792a 8b3c f6dc e83a 0b0b 6fbc
00000040: cbd6 ec3b 95b6 fe3c 52b5 443c 0af0 b6bc
00000050: 4ac3 c63c 0396 efbb b0a5 0f3d 5c78 30bd
00000060: 5b44 e0bb 049e 1a3d babb 11bd ef26 953c
00000070: 4fbf a53c d250 453c ecf1 b53c b158 a73a
00000080: 3d95 49bd 8d2a 27bc f223 87bc 627f 4a3d
00000090: 7966 343d 3f8e 663d 1b64 5cbc b824 573d
000000a0: 6077 98bc 802c 723c e9db 5ebc 6365 333d
000000b0: b9ba 4e3d 283f 993c 5ed2 cabc 33fe e3bb
000000c0: 99b7 4bbd f563 53bd 2316 3a3c c551 0e3c
000000d0: b2fd 70bc f109 323c 2a9b 99bc 463f e1bc
000000e0: bd7c 60bc cc97 b03c 2f8f a03c c8a8 3f3d
000000f0: 9f23 093d d11f 3d3d fd35 5f3b 23fe 9fbc
00000100: d8d7 89bc 42b9 0e3d 376c 453d 7a6c 6cbb
00000110: 6e77 a7bc 7780 e63c 0e61 c83a 665e 36bc
00000120: a9d7 813d bc5d 083d 5d79 d1bb d910 5a3c
00000130: 7e61 c33a c7f3 c63c 9d59 163d 0f40 73bc
00000140: 5a5d f4bc b252 09bd 917f cbbc b719 81bc
00000150: 4fa4 053c 3157 c7bc f231 f23c 7c51 0e3d
00000160: 5106 b53c ecca 653d beae ddbc d98b c43c
00000170: b70a ad3c 68bb 843c bece 4fbd 864f 293b
00000180: b15f aebc bb3e 62bc c1c9 023d f517 1abd
00000190: 9c42 41bb 32e1 953c ef03 27bd 1cb0 2dbc
000001a0: af08 21bd 286a 193c a2df a5bc b917 193d
000001b0: 46ee 0fbd c16c 99bc 622c 07bd 4019 423b
000001c0: 95db 6cbd 966b d0bc dd33 0abd 96dd c73c
000001d0: e34b bcbc 766b 003c db9f 4ebc 3e85 133d
000001e0: a6b3 2c3d 32ce e93c c754 d6bc fb5b 45bc
000001f0: 39f2 5037 4b9d 583b 3d6f 803d 2b2d 6f3c
00000200: 4fc6 e8bc 3655 0ebd c70f 093d f3ca 6d3d
00000210: d7d0 703d e311 1e3d a6ec 293d d580 c9bc
00000220: 4dd0 3e3d 8dc2 2dbc baae e13c 6c9c 223d
00000230: 44db 333d 2c59 cbbc 955e b7ba 9deb ac3c
00000240: ef85 59bc 1f73 ecbc 26ea fd3c 98c4 383d
00000250: 6710 f93a 85f9 a63c bafe 35bc b478 22bd
00000260: 1038 f33c 59b2 4ebd ad38 843c f097 39bd
00000270: a9fd 4ebd 28b2 c6bc 8fb3 0abd 3c76 e8bc
00000280: f63e 0f3b 9c54 703c a20b d83c d3ec 223d
00000290: f98d fcbc 9de0 573c 8531 273d 41fd 2fbc
000002a0: a23c 613b 3e6c 1e3d 7ee5 dc3c a2bf 42bd
000002b0: 1736 4e3c 88f0 9d3c 5ad3 96bc bf5d 573c
000002c0: 706a 7fbc ecbb a1bc 5b9b 82bc 115c 5f3d
000002d0: e10f 12bd a8ef 763b 99f7 743c 76db d33c
000002e0: 042e 633d 0bfe 75bc 60f2 343d c4f8 1bbc
000002f0: d0ee cdbc 3e74 93bc 2c35 d8bc 2ec0 6dbc
00000300: 81c0 b1bc 8c88 013d 6277 babc 9bc0 84bc
00000310: 62cd 3c3d 3e3c 853d b107 a3bc 9f99 0bbd
00000320: 2928 8cba b385 ddbb c92e 9d3b 0150 0e3d
00000330: 1093 6d3c c003 3e3c 1285 013d 9547 55bc
00000340: b88f d9bb 11bd d13c f2ef 303d 12ba cdbc
00000350: 1418 e9bc 1998 ea3c 6730 5e3c e94c c8bb
00000360: 83fd 5cbd 1f2a febb 82e5 24bb 86ee b03b
00000370: 9672 5f3d a9b4 243c 9233 11bc e3bf 163d
00000380: 8fc2 183c 422c 373c f59c b73c 7117 fc3c
00000390: 8965 cdbc 017f f43c 3e8b 5cbd 8b6c 0bbd
000003a0: 1e0a 66bd 490d 283d 8d98 c9bb c5f5 833b
000003b0: 2167 613d 81a5 303d e9ef 4b3c c2ea 61bb
000003c0: ed0a 553d eb43 0e3d de3a d83c e5d1 013d
000003d0: d8fa de3c 709e 4fbc 40bf 5cbc efa2 a03c
000003e0: f116 e4bb 4c53 2fbd 7ecd 693c 2503 2b3d
000003f0: bb9c 1f3c b85a 6bbb 60fe 183d 1233 393d

encoder.block1.block.0.bias f4 [32]
0.041009493 -0.036146212 0.047016717 0.015718754 -0.0026758898 0.028439859 -0.03195919 -0.004372517
-0.007697524 -0.024612376 0.021779567 -0.013907836 -0.012095476 -0.0026688785 0.005754785 -0.027273476
-0.039480675 0.007370446 0.012523863 0.007374155 0.004574613 0.008217577 -0.00461518 0.007516414
0.04915075 0.0015496571 0.014098247 0.03468413 -0.029656488 0.0051411623 0.021260649 -0.013022462
00000000: 92f9 273d 0d0e 14bd 9a94 403d 9ec4 803c
00000010: fb5d 2fbb b5fa e83c a4e7 02bd 5547 8fbb
00000020: 833b fcbb e59f c9bc 106b b23c b1dd 63bc
00000030: 1a2c 46bc 5ae8 2ebb a392 bc3b a06c dfbc
00000040: 7db6 21bd c883 f13b e430 4d3c e5a2 f13b
00000050: a3e6 953b 04a3 063c f03a 97bb 404c f63b
00000060: 4c52 493d dd1d cb3a 55fc 663c f210 0e3d
00000070: 2af2 f2bc 3277 a83b d02a ae3c 2a5c 55bc

encoder.block1.block.2.weight f4 [32]
0.9652387 0.9813266 0.9864069 1.0160843 0.9855645 0.99206585 1.0201927 0.9956041
1.019207 1.0404115 1.0342361 1.003428 0.9836283 0.976647 1.0104085 1.0236354
0.97406036 0.95913446 1.006332 0.97738606 1.0325418 1.0129395 1.0026306 0.9738215
0.98545045 0.9664028 1.007731 0.982247 0.98900056 1.0149938 0.97422445 1.0230796
00000000: e219 773f 3838 7b3f 2a85 7c3f 0d0f 823f
00000010: f44d 7c3f 07f8 7d3f ad95 823f e9df 7e3f
00000020: 6075 823f 342c 853f d961 843f 5470 803f
00000030: 10cf 7b3f 8a05 7a3f 1155 813f 7c06 833f
00000040: 055c 793f d689 753f 7dcf 803f f935 7a3f
00000050: 542a 843f 00a8 813f 3356 803f 5e4c 793f
00000060: 7b46 7c3f 2d66 773f 54fd 803f 8a74 7b3f
00000070: 242f 7d3f 51eb 813f c666 793f 46f4 823f

encoder.block1.block.2.bias f4 [32]
0.024156235 -0.023424134 -0.008885198 0.03188142 -0.022309583 -0.015543061 -0.014464937 0.0059427153
-0.023728404 0.011146215 -0.009191022 -0.009370585 -0.01746734 0.0052382937 -0.011447921 -0.015767893
0.038386766 -0.01455602 -0.0087049175 -0.03258475 0.0022815694 -0.009091502 -0.016956422 0.0144617325
0.026254794 0.011530162 0.02218759 0.034280796 -0.0070636147 -0.021918964 0.038685415 0.006875533
00000000: 4ce3 c53c f8e3 bfbc 3993 11bc 1896 023d
00000010: 96c2 b6bc 53a8 7ebc 58fe 6cbc 1cbb c23b
00000020: 1262 c2bc 9d9e 363c f195 16bc 1587 19bc
00000030: ab17 8fbc fea5 ab3b 1090 3bbc ab2b 81bc
00000040: 713b 1d3d 5f7c 6ebc 129f 0ebc 9677 05bd
00000050: 6286 153b 86f4 14bc 32e8 8abc e7f0 6c3c
00000060: 4b14 d73c 01e9 3c3c c0c2 b53c 056a 0c3d
00000070: e575 e7bb 668f b3bc 9974 1e3d 274c e13b

encoder.block1.block.2.running_mean f4 [32]
1.0887517 0.9781489 0.9849938 0.7142643 1.1637225 1.0635452 0.8430819 1.0585165
0.8939502 0.99111867 0.9187709 0.8599568 0.7432835 0.9898431 0.8244138 0.85924536
0.92642593 0.76685244 1.0436655 0.932145 1.0617834 1.0791227 0.8216964 1.0536139
0.9341988 0.95676774 0.85220253 0.9241063 1.4028163 1.0007843 0.7710918 0.8826997
00000000: 375c 8b3f f767 7a3f 8e28 7c3f 06da 363f
00000010: dcf4 943f 4022 883f 37d4 573f 787d 873f
00000020: ecd9 643f f4b9 7d3f 9234 6b3f 2126 5c3f
00000030: d447 3e3f 5b66 7d3f c80c 533f 81f7 5b3f
00000040: 402a 6d3f 7150 443f d596 853f 0ea1 6e3f
00000050: 85e8 873f b120 8a3f b25a 523f d2dc 863f
00000060: a727 6f3f bbee 743f f229 5a3f 3b92 6c3f
00000070: 7c8f b33f b319 803f 4666 453f 9cf8 613f

encoder.block1.block.2.running_var f4 [32]
2.289257 1.5420758 1.3553464 1.119796 2.1856184 1.715791 1.6779599 1.7065297
1.7501438 2.437329 1.865025 1.1491475 0.87086844 1.5423805 1.5288167 1.5911406
1.4699061 1.1133838 2.3373775 2.0684354 2.6068485 2.5159817 0.88024956 1.8776417
1.4011278 1.4987231 1.0527297 1.2441646 3.147687 2.2182922 1.1466762 1.9303048
00000000: 3083 1240 bd62 c53f fe7b ad3f 7a55 8f3f
00000010: 2ce1 0b40 0a9f db3f 64c7 d63f 916f da3f
00000020: b604 e03f 33fd 1b40 24b9 ee3f 4417 933f
00000030: 3cf1 5e3f b96c c53f 44b0 c33f 7faa cb3f
00000040: e225 bc3f 5c83 8e3f 9897 1540 3f61 0440
00000050: 9bd6 2640 d805 2140 0958 613f 9056 f03f
00000060: 2858 b33f 29d6 bf3f d9bf 863f c940 9f3f
00000070: b473 4940 80f8 0d40 49c6 923f 3a14 f73f

encoder.block2.block.0.weight f4 [32, 32, 3, 3]
-0.008968633 0.053532097 0.055924166 -0.0019277396 -0.015386281 -0.05580125 0.037346978 0.029419933
-0.015626388 -0.04473443 -0.046207067 -0.043984465 0.045742672 -0.056197558 0.034897678 -0.050741646
-0.014314211 0.003534265 -0.053051986 0.0037320578 0.027819553 -0.057370596 -0.038048685 -0.01401213
-0.045684066 -0.023207238 -0.004823536 -0.04044997 0.018612301 0.00971279 0.0078555485 0.0064070886
-0.0097910045 0.010925128 0.039757032 -0.012739645 0.041895278 -0.03533035 0.012393551 -0.0036744948
0.02661677 -0.04463237 -0.0514633 0.008337318 -0.056729227 0.049954016 0.047915492 0.03111462
-0.03004417 -0.03302953 0.020299088 0.04910792 -0.040496394 -0.02617794 0.018660804 -0.040549725
0.03955189 0.038022246 -0.032254484 0.050982624 -0.023912027 0.022891007 0.06839794 0.030416599
-0.05940253 -0.052792378 0.009978886 -0.03216713 0.037636068 -0.014763185 0.026118591 0.021252956
0.06367634 0.04854086 0.017060772 0.067285284 -0.015622098 -0.03263501 -0.035131995 -0.027348503
0.06312434 0.0052322 0.057136115 -0.01975284 0.01721136 0.030689433 -0.0048189466 0.005051621
0.024114398 -0.0128229465 0.056544922 -0.0038088495 0.064600125 -0.017065298 0.05714737 -0.0016316238
-0.033336375 0.020985842 0.050372906 0.017888695 -0.018412253 0.038500365 0.0019425321 -0.040499225
-0.025751686 -0.05002781 0.0053778393 -0.049907744 -0.05141302 -0.008382078 0.005370478 -0.050586846
-0.020328233 -0.041904703 -0.020615313 -0.034074403 -0.0021588681 0.010046935 -0.005418073 -0.06409851
-0.024029043 0.044985518 0.014283308 0.018922439 0.012686474 -0.028747614 0.037400205 0.034315273
0.0072392337 0.024527686 0.03513528 0.051439755 0.06859516 -0.001523142 -0.007860649 -0.03173225
0.030285122 -0.028320065 -0.050646696 -0.017162532 0.021908881 0.03445499 -0.0074612284 0.029425912
-0.033655077 -0.020229945 0.011907015 -0.011849277 -0.000795872 -0.036267713 0.044708498 -0.03864079
-0.045922544 -0.04580233 -0.024493724 0.0008787043 -0.012472512 -0.020262128 0.0074363505 -0.045331825
0.020507164 0.040311977 -0.028591538 -0.009728675 0.019941483 0.04654667 0.061937377 0.006330838
0.02361044 0.016637187 0.05505852 0.041748233 0.018782426 -0.03487736 0.017736005 0.019443111
-0.0369244 -0.032385595 0.025159907 -0.033003125 0.034031894 0.0050095515 -0.0073603345 0.021623243
-0.005121369 0.00902615 0.03972167 0.033082828 -0.0138016315 -0.0094548045 -0.011585589 0.0025216995
0.06596644 -0.05072463 0.021756742 0.06217456 -0.028454173 -0.0021036842 -0.010250173 -0.03546039
-0.0053265104 -0.01960399 -0.04714389 -0.05455163 -0.057533454 0.0053783013 0.005150751 -0.006709959
0.014479317 0.034007937 0.005146173 -0.021797918 -0.03512595 -0.02932234 0.03312375 0.013454767
-0.04438166 0.01505019 0.0028023443 -0.00801546 0.00900777 0.03458641 -0.02689202 -0.022454768
-0.064484656 0.034141082 0.024546778 0.019999892 0.044982046 -0.008340605 0.0058122366 0.039801452
-0.035331484 -0.04110079 0.033814482 0.013150394 -0.030234039 -0.038297705 -0.0032981564 -0.055363577
0.030898292 0.044212777 -0.052517448 0.008539733 0.029493216 -0.0041344706 -0.04360225 -0.009875147
-0.028846284 -0.031962577 -0.010468982 -0.02277754 -0.011885521 -0.022370784 0.0052173296 -0.010208056
00000000: 2cf1 12bc 7944 5b3d bd10 653d 35ac fcba
00000010: bd16 7cbc da8f 64bd 25f9 183d 1202 f13c
00000020: e902 80bc 733b 37bd 9f43 3dbd 0e29 34bd
00000030: ab5c 3b3d 692f 66bd def0 0e3d 79d6 4fbd
00000040: 2786 6abc 219f 673b 0a4d 59bd 8a95 743b
00000050: d5e5 e33c 6efd 6abd f0d8 1bbd 2293 65bc
00000060: 371f 3bbd 1b1d bebc c10e 9ebb deae 25bd
00000070: d378 983c 6522 1f3c 8fb4 003c 8ef2 d13b
00000080: 736a 20bc 4fff 323c 45d8 223d f2b9 50bc
00000090: 629a 2b3d 8fb6 10bd 520e 4b3c cbcf 70bb
000000a0: 6a0b da3c 6fd0 36bd 2ecb 52bd 3f99 083c
000000b0: e85c 68bd 959c 4c3d 0943 443d 16e4 fe3c
000000c0: 311f f6bc f949 07bd 464a a63c 6325 493d
000000d0: 8cdf 25bd 1f73 d6bc 8bde 983c 7817 26bd
000000e0: 2a01 223d 37bd 1b3d 471d 04bd 28d3 503d
000000f0: 28e3 c3bc ec85 bb3c 3814 8c3d 3b2c f93c
00000100: 1150 73bd d23c 58bd 7b7e 233c aec1 03bd
00000110: 4728 1a3d 49e1 71bc a8f6 d53c ae1a ae3c
00000120: be68 823d c8d2 463d 08c3 8b3c decc 893d
00000130: d4f3 7fbc 4aac 05bd 91e6 0fbd f809 e0bc
00000140: 5547 813d e072 ab3b 8f07 6a3d b5d0 a1bc
00000150: d7fe 8c3c 6868 fb3c 41e8 9dbb 1188 a53b
00000160: 8f8b c53c 5617 52bc a69b 673d e49d 79bb
00000170: 124d 843d 86cc 8bbc 5c13 6a3d 36dc d5ba
00000180: b98b 08bd 80ea ab3c d253 4e3d 508b 923c
00000190: 4bd5 96bc 8fb2 1d3d 909c fe3a 84e2 25bd
000001a0: 33f5 d2bc f6e9 4cbd 9638 b03b 106c 4cbd
000001b0: 7596 52bd fc54 09bc d6fa af3b 2734 4fbd
000001c0: 6587 a6bc 44a4 2bbd 72e1 a8bc 9a91 0bbd
000001d0: cc7b 0dbb e69b 243c 178a b1bb 1446 83bd
000001e0: 8ed8 c4bc bc42 383d 8904 6a3c 3b03 9b3c
000001f0: eeda 4f3c 1e80 ebbc f530 193d 2c8e 0c3d
00000200: 1837 ed3b 49ee c83c 03ea 0f3d 7eb2 523d
00000210: 9f7b 8c3d 2aa4 c7ba f4c9 00bc adf9 01bd
00000220: 8118 f83c 7bff e7bc e972 4fbd 7098 8cbc
00000230: 417a b33c ad20 0d3d 527d f4bb 9c0e f13c
00000240: e8d9 09bd 45b9 a5bc a415 433c 7823 42bc
00000250: 11a2 50ba 748d 14bd 4220 373d ce45 1ebd
00000260: 4719 3cbd 399b 3bbd 10a7 c8bc d958 663a
00000270: 8259 4cbc c3fc a5bc a1ac f33b ddad 39bd
00000280: a4fe a73c 2c1e 253d cd38 eabc 0565 1fbc
00000290: 525c a33c b9a7 3e3d 0cb2 7d3d eb72 cf3b
000002a0: ae6a c13c b64a 883c 0b85 613d 3200 2b3d
000002b0: 9add 993c 90db 0ebd 194b 913c 2947 9f3c
000002c0: 0a3e 17bd c2a6 04bd 261c ce3c 492e 07bd
000002d0: 0765 0b3d 2a27 a43b f62e f1bb 3a23 b13c
000002e0: 28d1 a7bb 6be2 133c 31b3 223d dc81 073d
000002f0: 3d20 62bc 53e8 1abc 7bd1 3dbc 1943 253b
00000300: 6a19 873d a1c4 4fbd 323b b23c c0aa 7e3d
00000310: ba18 e9bc f7dd 09bb 57f0 27bc ea3e 11bd
00000320: 028a aebb 8c98 a0bc f419 41bd 8871 5fbd
00000330: 33a8 6bbd 763c b03b a2c7 a83b 37df dbbb
00000340: a83a 6d3c e84b 0b3d 3aa1 a83b 8c91 b2bc
00000350: 3ae0 0fbd 6735 f0bc c5ac 073d 6271 5c3c
00000360: 8bc9 35bd 1295 763c 89a7 373b 4753 03bc
00000370: 5395 133c 7baa 0d3d a74c dcbc 10f3 b7bc
00000380: 8810 84bd 85d7 0b3d 5316 c93c d0d6 a33c
00000390: 183f 383d 08a7 08bc 9374 be3b d906 233d
000003a0: bfb7 10bd 4d59 28bd 0e81 0a3d c074 573c
000003b0: 60ad f7bc 0ede 1cbd e225 58bb ebc4 62bd
000003c0: 6a1e fd3c 7518 353d 891c 57bd 3cea 0b3c
000003d0: c29b f13c 747a 87bb 4698 32bd 5ecb 21bc
000003e0: 0b4f ecbc 31eb 02bd 1886 2bbc f797 babc
000003f0: 7dbb 42bc ef42 b7bc 22f6 aa3b b13f 27bc

encoder.block2.block.0.bias f4 [32]
-0.03058282 0.025006333 0.025314203 -0.013849402 -0.0112297 0.04161973 0.07140536 -0.013777652
0.095130995 0.033670556 -0.022437196 0.04169212 0.029220385 -0.031585954 0.017881416 -0.0065252134
0.025518699 0.04385752 -0.035101615 0.012229687 0.048057433 0.038376648 0.07318486 -0.0046978067
-0.03329703 0.056967806 0.0460358 0.038179304 -0.040187296 0.073243305 -0.041992858 0.04720816
00000000: d288 fabc 15da cc3c bb5f cf3c 9ae8 62bc
00000010: c7fc 37bc 7379 2a3d f93c 923d a9bb 61bc
00000020: 0ad4 c23d 23ea 093d 36ce b7bc 5bc5 2a3d
00000030: 975f ef3c 4660 01bd 0c7c 923c 75d1 d5bb
00000040: 970c d13c f1a3 333d b6c6 0fbd 065f 483c
00000050: dfd7 443d d530 1d3d f2e1 953d 0ff0 99bb
00000060: 7762 08bd 1357 693d 0990 3c3d e761 1c3d
00000070: 6f9b 24bd 9600 963d b400 2cbd 585d 413d

encoder.block2.block.2.weight f4 [32]
0.9855507 0.98098576 0.9637763 0.96957093 0.9716974 0.9729114 0.97388804 0.98355824
0.96889174 0.9791849 0.97486794 0.9665099 0.98086977 0.9748989 0.9972713 0.9748306
0.97294635 0.97954667 0.9831396 0.96458936 0.9650788 0.99409854 0.9714523 0.96940535
0.98199505 0.97708434 0.9670784 0.9711424 0.9802618 0.9632146 0.97566783 0.99187386
00000000: 0d4d 7c3f e221 7b3f 0bba 763f cd35 783f
00000010: 29c1 783f b910 793f ba50 793f 79ca 7b3f
00000020: 4a09 783f ddab 7a3f f290 793f 316d 773f
00000030: 481a 7b3f f992 793f 2c4d 7f3f 808e 793f
00000040: 0313 793f 92c3 7a3f 09af 7b3f 54ef 763f
00000050: 670f 773f 3e7d 7e3f 19b1 783f f32a 783f
00000060: 0764 7b3f 3322 7a3f 7392 773f ca9c 783f
00000070: 70f2 7a3f 3b95 763f 5ec5 793f 72eb 7d3f

encoder.block2.block.2.bias f4 [32]
0.020166881 0.038144857 -0.035562553 0.027909663 -0.005363478 0.008496603 0.055753507 -0.015863044
0.03461349 -0.013980968 -0.020964833 0.05016121 0.034351017 0.012086321 0.013668887 0.027020495
-0.020564506 -0.068503015 0.00032855564 0.056613736 0.056959677 0.0028427045 0.018201753 -0.012475786
-0.022962525 -0.014133992 -0.010553375 -0.033331912 -0.022626525 0.009654467 0.0052806903 0.009183881
00000000: 0435 a53c c83d 1c3d 0aaa 11bd cea2 e43c
00000010: 1dc0 afbb 5635 0b3c ca5d 643d 37f3 81bc
00000020: e0c6 0d3d 6e10 65bc 71be abbc d775 4d3d
00000030: a7b3 0c3d b405 463c 78f3 5f3c 165a dd3c
00000040: e576 a8bc 4f4b 8cbd fe41 ac39 cee3 673d
00000050: 8d4e 693d ab4c 3a3b d81b 953c 3d67 4cbc
00000060: e81b bcbc 4292 67bc 10e8 2cbc 0b87 08bd
00000070: 435b b9bc c52d 1e3c a409 ad3b fd77 163c

encoder.block2.block.2.running_mean f4 [32]
1.1315413 1.0845162 1.2405089 1.0934293 1.2055762 1.2316537 1.1037419 1.0558424
1.1622748 1.4720747 1.1047664 1.4327207 1.1475712 1.3261194 1.1880904 1.1964893
1.130745 1.3040478 0.9864572 1.1080301 1.4115621 1.3723402 1.2259985 1.2059953
1.1745671 1.1803854 1.3207431 1.4647884 1.4292785 1.2056677 1.1236718 1.2161235
00000000: 58d6 903f 6dd1 8a3f ffc8 9e3f 7ef5 8b3f
00000010: 5250 9a3f d4a6 9d3f 6a47 8d3f d825 873f
00000020: 6cc5 943f f26c bc3f fc68 8d3f 6463 b73f
00000030: 9de3 923f 48be a93f 5913 983f 9026 993f
00000040: 41bc 903f 0aeb a63f 7688 7c3f eed3 8d3f
00000050: 11ae b43f d8a8 af3f 85ed 9c3f 0e5e 9a3f
00000060: 3758 963f de16 973f 1c0e a93f 307e bb3f
00000070: 99f2 b63f 5253 9a3f 7ad4 8f3f efa9 9b3f

encoder.block2.block.2.running_var f4 [32]
3.002889 2.8189163 2.3898892 2.8224826 3.4637659 3.5676513 1.8280402 2.6611974
2.099993 3.2830312 2.945455 4.957494 1.9832639 2.7140038 3.3716934 3.343739
3.0127206 2.630188 2.3226569 2.9180677 4.7568154 2.8494856 3.5685112 2.2233946
3.2568684 2.125818 2.597641 3.3297267 4.8315253 3.453379 3.0106752 3.498197
00000000: 552f 4040 2069 3440 f2f3 1840 8ea3 3440
00000010: 57ae 5d40 6654 6440 39fd e93f 0f51 2a40
00000020: 4966 0640 2f1d 5240 5682 3c40 caa3 9e40
00000030: 97db fd3f 3db2 2d40 d3c9 5740 d2ff 5540
00000040: 6ad0 4040 0055 2840 69a6 1440 9fc1 3a40
00000050: d537 9840 f95d 3640 7d62 6440 194c 0e40
00000060: 8870 5040 670d 0840 c03f 2640 3e1a 5540
00000070: db9b 9a40 2904 5d40 e7ae 4040 76e2 5f40

encoder.final.block.0.weight f4 [3, 32, 3, 3]
0.032428745 0.041357577 0.026475687 0.029479107 0.054759845 0.040257946 0.008009631 0.0425698
0.021765945 0.029037839 0.018522335 0.014144807 -0.016922269 -0.054339714 0.020496745 0.0020681715
0.03236704 -0.0063397908 -0.014753838 -0.05359389 -0.001017617 0.047402 -0.045565344 0.025216997
-0.013740351 0.021133581 0.040577266 -0.031131921 0.016254252 0.008522138 0.027424881 0.0036850772
-0.04132908 0.033378694 0.0034472097 -0.018100338 0.04438552 -0.025791518 0.031853523 -0.026881006
0.0041264845 0.055907223 -0.046808228 0.031594917 -0.026651725 0.031149445 0.028633071 -0.035496835
-0.028073287 -0.04323672 0.015473906 0.00019104399 -0.039704572 -0.034855478 0.0041623414 -0.019331459
0.021798111 -0.008373858 0.02876242 -0.0379875 0.003954341 0.026116857 -0.038692676 -0.04929756
-0.027179567 0.004685339 -0.005674392 -0.041390497 0.02672664 -0.019491592 -0.03757009 0.01377874
-0.016596777 0.034192853 0.042357076 0.014425375 -0.042360533 -0.037709534 -0.0034048983 0.010927434
0.045655765 0.02294553 -0.02587323 -0.010703161 -0.006023266 0.052080255 -0.032045413 0.040395413
-0.0030779913 0.031136185 0.03694888 0.0495066 -0.048622556 -0.009556048 -0.029677214 -0.0012224449
0.044254895 -0.048758153 -0.042969495 0.04049451 0.044551883 0.034797776 -0.043068 -0.020605294
-0.0069123413 -0.005119048 0.045011204 0.026814248 0.036950372 -0.0064530275 0.004417879 -0.04070225
0.031327706 0.018506752 0.0031013046 -0.043502558 -0.014398848 0.010959863 0.01445998 -0.024653247
-0.00012871517 0.033858683 -0.021002078 0.030579232 0.0062797214 -0.015757183 -0.026487343 0.03222406
0.035480563 0.028505912 0.06521082 0.016867526 -0.03379924 -0.009755273 0.060912322 -0.017867949
0.047380496 -0.041426934 -0.027961882 0.04804609 -0.031182554 -0.028804354 0.039811872 -0.028252827
-0.0015291261 0.04464322 0.0105489325 -0.039101616 -0.049217157 0.016102908 -0.0013953602 -0.019156765
0.039272994 0.031395886 -0.012399595 0.01791872 0.039597448 -0.023395704 -0.03579451 -0.00793198
0.01772596 5.45686e-05 0.026186824 0.04545335 -0.042445928 0.00056872546 -0.013766975 -0.016375301
-0.014628158 -0.006615399 -0.0009859245 0.004251887 -0.0063640387 -0.018866038 0.017296616 -0.014666609
-0.020634336 0.03421444 -0.0035560965 -0.037771247 -0.055508528 0.001111239 0.013875319 0.015907528
0.03153773 -0.040434293 0.04533166 0.04853351 0.053380977 -0.010732717 -0.0016164512 -0.031974506
-0.036636543 0.038169686 0.031116389 0.006734368 -0.023237735 0.010703413 -0.045679964 -0.05455922
-0.023053087 0.051726706 -0.04077941 0.04655057 0.018886745 -0.004180278 -0.03371814 -0.0021417867
-0.03773238 0.04942207 -0.026139757 -0.0074523543 -0.018048966 0.014974215 -0.0049531134 -0.02961951
0.03538854 -0.0108044585 -0.006475541 0.052049845 0.05697049 0.023602195 0.030758284 -0.004875893
0.027643638 -0.021245321 0.037197374 0.0048146565 -0.033108305 0.04611847 -0.012534706 -0.010384687
0.039493386 -0.00080366776 -0.01816769 0.01282852 -0.04301305 0.04191331 -0.014856848 0.010253864
-0.02059819 -0.012216701 0.038448583 -0.02862865 -0.011852144 0.038417682 0.022895949 -0.042005975
0.040771864 -0.03246739 -0.057993196 -0.04712251 -0.0027852594 -0.059192784 -0.046847656 -0.031471983
00000000: 01d4 043d 9066 293d 8ae3 d83c 2b7e f13c
00000010: dc4b 603d 84e5 243d d43a 033c ac5d 2e3d
00000020: 7f4e b23c c3e0 ed3c 27bc 973c 9fbf 673c
00000030: 92a0 8abc 5293 5ebd cae8 a73c 298a 073b
00000040: 4d93 043d 05be cfbb 15ba 71bc 4485 5bbd
00000050: 8f61 85ba 9928 423d baa2 3abd e093 ce3c
00000060: 361f 61bc 5520 ad3c 5934 263d 5f08 ffbc
00000070: a327 853c 70a0 0b3c 25aa e03c 5681 713b
00000080: ae48 29bd 19b8 083d 95ea 613b 2947 94bc
00000090: 97cd 353d bc48 d3bc d778 023d 8e35 dcbc
000000a0: 7637 873b f9fe 643d fcb9 3fbd ac69 013d
000000b0: b854 dabc 1f2d ff3c e78f ea3c 2165 11bd
000000c0: f3f9 e5bc fd18 31bd 4486 7d3c fb52 4839
000000d0: 43a1 22bd 9ec4 0ebd 4064 883b 025d 9ebc
000000e0: f491 b23c 8232 09bc 2b9f eb3c c898 1bbd
000000f0: 6b93 813b 05f3 d53c 367c 1ebd 3dec 49bd
00000100: afa7 debc 7987 993b 40f0 b9bb 1589 29bd
00000110: d4f1 da3c d5ac 9fbc 18e3 19bd 39c0 613c
00000120: f7f5 87bc ce0d 0c3d 9d7e 2d3d 6858 6c3c
00000130: 3d82 2dbd 5075 1abd b724 5fbb fb08 333c
00000140: 8a01 3b3d 44f8 bb3c 19f4 d3bc 505c 2fbc
00000150: d15e c5bb 1b52 553d 0d42 03bd a975 253d
00000160: 20b8 49bb 5011 ff3c b557 173d 6fc7 4a3d
00000170: 7228 47bd f890 1cbc a11d f3bc 723a a0ba
00000180: 9f44 353d a1b6 47bd c800 30bd 92dd 253d
00000190: 097c 363d 1d88 0e3d 1268 30bd 6fcc a8bc
000001a0: ec80 e2bb b0bd a7bb ab5d 383d 8ea9 db3c
000001b0: 4659 173d eb73 d3bb dbc3 903b 67b7 26bd
000001c0: 7b51 003d 799b 973c 423f 4b3b bd2f 32bd
000001d0: 25e9 6bbc ff90 333c 8de9 6c3c 9bf5 c9bc
000001e0: b7f7 06b9 67af 0a3d 8d0c acbc 4c81 fa3c
000001f0: 1fc6 cd3b 3515 81bc fcfb d8bc 60fd 033d
00000200: 1154 113d 3b85 e93c 408d 853d c42d 8a3c
00000210: 1271 0abd 95d4 1fbc 337f 793d ce5f 92bc
00000220: 0d12 423d 4aaf 29bd 5110 e5bc facb 443d
00000230: 8e72 ffbc 1cf7 ebbc c611 233d 7972 e7bc
00000240: f56c c8ba cfdb 363d 6ed5 2c3c 0429 20bd
00000250: ee97 49bd 3fea 833c 85e4 b6ba a6ee 9cbc
00000260: b8dc 203d f998 003d ac27 4bbc 48ca 923c
00000270: ef30 223d 59a8 bfbc 449d 12bd 23f5 01bc
00000280: 0836 913c 97e0 6438 c085 d63c 4b2d 3a3d
00000290: c8db 2dbd 8516 153a e18e 61bc 7f25 86bc
000002a0: f1aa 6fbc fdc5 d8bb 233a 81ba 6a53 8b3b
000002b0: 6d89 d0bb f38c 9abc a2b1 8d3c 374c 70bc
000002c0: 5709 a9bc 7124 0c3d 660d 69bb 06b6 1abd
000002d0: e95c 63bd fea6 913a 4e55 633c 8150 823c
000002e0: b52d 013d 6e9e 25bd b1ad 393d 13cb 463d
000002f0: 03a6 5a3d 47d8 2fbc 1adf d3ba b3f7 02bd
00000300: 3310 16bd d157 1c3d cce7 fe3c f9ab dc3b
00000310: 105d bebc 5e5d 2f3c ea1a 3bbd 7d79 5fbd
00000320: d4d9 bcbc 62df 533d 5008 27bd cfab 3e3d
00000330: 60b8 9a3c b7fa 88bb 081c 0abd 385d 0cbb
00000340: 458d 1abd cc6e 4a3d 0b23 d6bc e132 f4bb
00000350: 6ddb 93bc 6956 753c ba4d a2bb 9da4 f2bc
00000360: 93f3 103d 2f05 31bc c630 d4bb 3832 553d
00000370: e359 693d 6459 c13c ccf8 fb3c f4c5 9fbb
00000380: e974 e23c ab0a aebc 465c 183d 44c4 9d3b
00000390: 939c 07bd b9e6 3c3d 5e5e 4dbc 8924 2abc
000003a0: d1c3 213d 3bad 52ba 68d4 94bc b62e 523c
000003b0: 742e 30bd 4aad 2b3d 236a 73bc d3ff 273c
000003c0: 89bd a8bc 8f28 48bc 437c 1d3d a186 eabc
000003d0: 7f2f 42bc dc5b 1d3d 4990 bb3c 750e 2cbd
000003e0: 6600 273d 87fc 04bd 468a 6dbd 8803 41bd
000003f0: e688 36bb 2274 72bd 54e3 3fbd c4e8 00bd

encoder.final.block.0.bias f4 [3]
-0.017308218 0.01690428 0.022560064
00000000: f7c9 8dbc d87a 8a3c e2cf b83c

decoder.initial.block.0.weight f4 [32, 3, 3, 3]
-0.069159165 0.012525259 0.14956234 0.051720295 0.082620926 0.109661244 0.033869434 -0.1391807
-0.07137768 -0.12532173 -0.018215694 0.103214264 0.10198589 0.16183579 -0.008941395 0.20465852
-0.16457975 0.033406347 -0.055893745 0.03787975 -0.039842024 0.10365246 0.17668346 -0.12999631
0.0058619184 0.009005983 0.037309933 -0.14717871 -0.0143670095 0.028207589 0.02313386 0.19245134
0.18938705 0.04945996 -0.15775749 -0.11722186 -0.018084843 0.134362 0.19843397 -0.12539776
-0.1069837 -0.04695033 0.008866202 0.15569542 0.082712024 0.008682612 0.010838012 -0.068889685
0.09616332 0.15127309 -0.005590656 0.05817327 0.07085784 -0.18493867 -0.069963954 0.03472296
0.06439084 -0.098937556 -0.069243595 0.11712014 0.058845714 -0.054848365 0.018128842 0.096451536
-0.13281515 -0.12694661 -0.1680449 -0.16806804 -0.07988164 -0.11133435 0.19460063 0.19523917
0.049914986 0.108853325 0.11535667 0.17832401 0.13762993 -0.14475743 -0.055720598 0.04324423
-0.14792602 0.12840949 -0.08918705 -0.16426569 0.026550172 0.08891722 0.014868009 -0.100723535
-0.026003502 0.10635431 -0.09797699 0.009740619 0.10902876 0.014678552 -0.04042695 0.08317055
0.1460726 -0.16814052 0.002560261 0.052792937 0.1325441 -0.06597792 -0.035953283 -0.19448268
0.123083875 -0.0010373413 0.09333505 -0.12010912 0.00087437144 0.08721748 0.09846761 0.07409674
-0.16912839 0.0718726 0.08249061 -0.054302115 0.15236026 0.20296998 -0.12893061 -0.04964387
-0.08228009 -0.09943487 0.1399736 0.13599873 -0.06172644 -0.17358553 -0.060876776 0.17196555
0.10377807 -0.15872456 -0.0024469427 0.04363187 0.0347766 0.19045666 0.038896088 0.021601522
-0.046622846 -0.013337825 0.108947255 -0.02001978 0.017698498 0.1609657 -0.24290867 0.11108031
-0.109759904 0.13631889 -0.006796949 -0.20496309 0.19040914 0.09025698 -0.17642456 0.11409386
-0.1738981 -0.13156895 0.04087087 0.0041636596 0.0031240974 0.0035335745 -0.019380255 0.06711359
0.13004924 -0.033474877 -0.11401945 0.14910619 -0.11171279 -0.17333874 -0.043781314 -0.09147393
-0.10353123 0.09045688 0.14410934 0.14283603 0.039472327 -0.04872621 -0.024554944 -0.110304154
0.034400124 0.025606604 -0.18178181 -0.17417943 -0.11749213 0.012558594 -0.13668723 0.056251172
0.039244227 -0.037396207 -0.13834032 0.15107559 -0.0780212 -0.020991847 0.0042584855 0.05933709
0.0016838614 0.043735873 0.053204108 -0.10540669 -0.012436488 -0.08639291 -0.12401903 0.098223336
-0.15495162 0.20420174 0.13195519 -0.089348264 -0.04271035 -0.011768988 0.17015302 -0.040863212
0.0737895 0.08654919 -0.1335712 0.048347272 0.0704786 -0.11865475 0.06004549 -0.17022349
-0.20274445 0.1300573 -0.055370256 0.008852969 0.03760897 0.009428137 -0.13767977 0.04222649
0.057694755 0.0307385 0.05469597 -0.094083734 -0.057132255 -0.16387919 -0.12200856 -0.029213483
-0.11824978 -0.02810949 -0.14620017 -0.018407201 -0.07713337 -0.09208135 -0.0064792274 -0.11628398
-0.024879068 0.0069753155 -0.12866846 -0.1962635 0.10451124 0.034874246 -0.008044127 -0.035813153
-0.1729901 -0.08787432 0.09097153 -0.07975993 -0.06918764 -0.17932995 -0.21662526 -0.018995652
00000000: 52a3 8dbd be36 4d3c df26 193e a9d8 533d
00000010: 2935 a93d 1396 e03d adba 0a3d 6385 0ebe
00000020: 762e 92bd 5754 00be 1439 95bc 0062 d33d
00000030: fadd d03d 48b8 253e ee7e 12bc 0192 513e
00000040: 9887 28be 18d5 083d d7f0 64bd cc27 1b3d
00000050: 6431 23bd be47 d43d 82ec 343e c11d 05be
00000060: 5615 c03b d58d 133c 4dd2 183d 04b6 16be
00000070: 9b63 6bbc 9a13 e73c 3983 bd3c f711 453e
00000080: aeee 413e 8796 4a3d 2e8b 21be 0412 f0bd
00000090: aa26 94bc 3196 093e 4632 4b3e 4568 00be
000000a0: 451a dbbd fd4e 40bd 8c43 113c 9f6e 1f3e
000000b0: ec64 a93d 8441 0e3c eb91 313c 0916 8dbd
000000c0: 46f1 c43d 55e7 1a3e d231 b7bb 1847 6e3d
000000d0: ea1d 913d 9060 3dbe 4349 8fbd aa39 0e3d
000000e0: 58df 833d c69f cabd 96cf 8dbd afdc ef3d
000000f0: 3408 713d aea8 60bd f082 943c 6288 c53d
00000100: b200 08be 4bfe 01be f613 2cbe 071a 2cbe
00000110: fc98 a3bd 4403 e4bd 6345 473e c7ec 473e
00000120: a873 4c3d 7eee de3d 1e40 ec3d 929a 363e
00000130: dcee 0c3e 4b3b 14be 483b 64bd dd20 313d
00000140: eb79 17be c77d 033e b3a7 b6bd 4435 28be
00000150: bf7f d93c 3b1a b63d f398 733c 2448 cebd
00000160: 4c05 d5bc 4ad0 d93d 29a8 c8bd 1e97 1f3c
00000170: 784a df3d 4f7e 703c bb96 25bd 5255 aa3d
00000180: 0e94 153e 072d 2cbe 0dca 273b 683d 583d
00000190: a4b9 073e 6f1f 87bd c043 13bd 7826 47be
000001a0: 6613 fc3d 66f7 87ba 7226 bf3d c5fb f5bd
000001b0: 1336 653a 149f b23d 63a9 c93d 08c0 973d
000001c0: fe2f 2dbe f131 933d d6f0 a83d e56b 5ebd
000001d0: 5404 1c3e 5dd7 4f3e 6306 04be 5f57 4bbd
000001e0: 7782 a8bd 82a4 cbbd 3d55 0f3e 4043 0b3e
000001f0: ddd4 7cbd 68c0 31be ed59 79bd bd17 303e
00000200: 9989 d43d b188 22be e35c 20bb 55b7 323d
00000210: e871 0e3d 1207 433e 8151 1f3d adf5 b03c
00000220: 99f7 3ebd e586 5abc bd1f df3d 8600 a4bc
00000230: 71fc 903c 31d4 243e 0dbd 78be 137e e33d
00000240: cdc9 e0bd 2e97 0b3e f1b8 debb d8e1 51be
00000250: 9dfa 423e a7d8 b83d a4a8 34be 0baa e93d
00000260: 5812 32be 03ba 06be 3768 273d 4f6f 883b
00000270: a8bd 4c3b 8b93 673b 57c3 9ebc da72 893d
00000280: a12b 053e f41c 09bd 0883 e9bd 4baf 183e
00000290: adc9 e4bd b67f 31be 0954 33bd af56 bbbd
000002a0: 2e08 d4bd 7541 b93d 6691 133e 9c43 123e
000002b0: bcad 213d 2295 47bd 7327 c9bc 25e7 e1bd
000002c0: 25e7 0c3d f1c4 d13c 0325 3abe 185c 32be
000002d0: b79f f0bd 90c2 4d3c bdf7 0bbe a167 663d
000002e0: 8ebe 203d c42c 19bd 16a9 0dbe 8fb3 1a3e
000002f0: 94c9 9fbd 18f7 abbc c48a 8b3b 730b 733d
00000300: 03b5 dc3a 6324 333d 8dec 593d 76df d7bd
00000310: 69c2 4bbc c4ee b0bd b0fd fdbd 5129 c93d
00000320: a3ab 1ebe 431a 513e 431f 073e 39fc b6bd
00000330: 0cf1 2ebd b7d2 40bc 983c 2e3e 2f60 27bd
00000340: f31e 973d b440 b13d e3c6 08be ca07 463d
00000350: 1657 903d 4301 f3bd 42f2 753d 114f 2ebe
00000360: 3e9c 4fbe be2d 053e eccb 62bd 0b0c 113c
00000370: dd0b 1a3d 7978 1a3c edfb 0cbe aff5 2c3d
00000380: 5651 6c3d 4fcf fb3c e208 603d f9ae c0bd
00000390: 8303 6abd f2cf 27be a0df f9bd 1d51 efbc
000003a0: f12c f2bd e045 e6bc 7fb5 15be b3ca 96bc
000003b0: 1af8 9dbd 2695 bcbd b34f d4bb 4c26 eebd
000003c0: 30cf cbbc 3091 e43b aac1 03be 4df9 48be
000003d0: fd09 d63d 4cd8 0e3d 84cb 03bc d0b0 12bd
000003e0: 5124 31be 74f7 b3bd 484f ba3d 2d59 a3bd
000003f0: 40b2 8dbd 45a2 37be 03d3 5dbe c59c 9bbc

decoder.initial.block.0.bias f4 [32]
-0.1281436 -0.10030243 0.11105442 0.09899988 -0.09146986 0.066824004 -0.040460378 0.13337956
-0.036819573 -0.007302151 -0.10947051 0.06584999 0.17439981 -0.063356966 0.05358123 -0.1256051
0.1750578 0.049641944 0.028358636 0.053110387 0.022527209 0.017240258 -0.11223649 -0.22731005
0.026310993 0.054905538 0.13153337 0.084609546 0.16577706 0.17804173 0.09260647 -0.124292046
00000000: 1338 03be 5c6b cdbd 8070 e33d 73c0 ca3d
00000010: 8d54 bbbd 06db 883d c8b9 25bd a794 083e
00000020: 1fd0 16bd e246 efbb 1332 e0bd 5cdc 863d
00000030: dd95 323e 4cc1 81bd fe77 5b3d a09e 00be
00000040: 5a42 333e 5a55 4b3d 5f50 e83c 478a 593d
00000050: fb8a b83c 713b 8d3c 3fdc e5bd f7c3 68be
00000060: 278a d73c a1e4 603d afb0 063e c547 ad3d
00000070: 76c1 293e 9250 363e 76a8 bd3d d48c febd

decoder.initial.block.2.weight f4 [32]
0.9511809 1.0056545 0.91243964 1.0326444 0.9559417 1.0102192 0.9672544 1.0407566
0.9558949 0.94929045 0.98859787 1.0318332 0.94465405 0.9767663 0.9879367 0.97701985
1.018579 0.99013907 0.99065125 1.014987 0.9494591 0.97537106 0.95850945 0.9746921
0.978139 1.0096159 0.9325734 0.9657566 0.95180595 0.914324 1.0111256 1.0112227
00000000: 9780 733f 49b9 803f a595 693f b12d 843f
00000010: 98b8 743f dd4e 813f fc9d 773f 8337 853f
00000020: 87b5 743f b304 733f c014 7d3f 1c13 843f
00000030: d9d4 713f 5b0d 7a3f 6be9 7c3f f91d 7a3f
00000040: cc60 823f c179 7d3f 529b 7d3f 18eb 813f
00000050: c00f 733f ebb1 793f e060 753f 6c85 793f
00000060: 5167 7a3f 183b 813f 21bd 6e3f d33b 773f
00000070: 8ea9 733f 2311 6a3f 906c 813f bf6f 813f

decoder.initial.block.2.bias f4 [32]
0.082152575 -0.13446234 -0.064177655 0.025959121 0.0011848264 -0.089347064 0.03491423 -0.017235667
-0.03975593 -0.05299651 0.04175931 -0.008531531 0.06512246 0.01325908 -0.043560203 -0.045368392
-0.09374759 0.000121091114 -0.039561566 0.015482825 -0.015149697 -0.006732835 0.08029413 0.039669268
0.015801212 -0.027641807 0.024835786 -0.0201019 -0.09926044 0.07037045 0.005709737 -0.031008396
00000000: 9c3f a83d 7fb0 09be 936f 83bd 39a8 d43c
00000010: 2d4c 9b3a 98fb b6bd 3902 0f3d d031 8dbc
00000020: 1dd7 22bd de12 59bd cf0b 2b3d d6c7 0bbc
00000030: ed5e 853d 9d3c 593c 2f6c 32bd 35d4 39bd
00000040: bdfe bfbd 4cf2 fd38 4f0b 22bd adab 7d3c
00000050: 6f36 78bc 1d9f dcbb 4071 a43d 3e7c 223d
00000060: 8b71 813c 1271 e2bc 6b74 cb3c bdac a4bc
00000070: 0f49 cbbd 621e 903d bf18 bb3b 5205 febc

decoder.initial.block.2.running_mean f4 [32]
0.15133649 0.119427 0.10272458 0.111553885 0.1775683 0.077327326 -0.0040254956 0.13293867
-0.0059616743 -0.008577313 -0.0043643685 0.092985556 0.08888999 0.10354775 0.07137166 0.21188325
0.17118287 0.06103557 0.2697015 0.059133068 0.02265723 0.024018697 0.073787674 -0.0035934309
0.027922299 0.1120787 0.060540162 0.13602717 0.14738473 0.04820353 0.50331426 0.35029206
00000000: f4f7 1a3e 2596 f43d 4461 d23d 5d76 e43d
00000010: 77d4 353e ca5d 9e3d 4ee8 83bb 1321 083e
00000020: 265a c3bb dc87 0cbc fa02 8fbb 366f be3d
00000030: f40b b63d d810 d43d 4e2b 923d ecf7 583e
00000040: 904a 2f3e 6f00 7a3d 5116 8a3e 8435 723d
00000050: a89b b93c dcc2 c43c fe1d 973d c47f 6bbb
00000060: 4ebd e43c 8489 e53d f6f8 773d b54a 0b3e
00000070: 06ec 163e 1171 453d 34d9 003f 7b59 b33e

decoder.initial.block.2.running_var f4 [32]
0.013265497 0.008230545 0.0012805995 0.0003558455 0.0138880955 0.0006983977 2.6724072e-06 0.0010931623
6.414618e-06 1.4516172e-05 2.327676e-06 0.0005725392 0.0021570246 0.005558612 0.0007553712 0.022588419
0.0010187938 0.0004842878 0.013297417 0.00026601055 0.0009885378 0.001193699 0.0048578456 6.470387e-07
0.0007820173 0.0012056609 0.0018083827 0.0025032924 0.0015819499 0.0024880278 0.0350393 0.04447166
00000000: 8757 593c 68d9 063c cad9 a73a c690 ba39
00000010: e58a 633c ad14 373a 9b57 3336 7148 8f3a
00000020: 263d d736 7c8a 7337 2b35 1c36 7516 163a
00000030: de5c 0d3b 0425 b63b 1a04 463a 590b b93c
00000040: 0c89 853a 02e8 fd39 69dd 593c 5577 8b39
00000050: d391 813a e475 9c3a 902e 9f3b 29b0 2d35
00000060: 4b00 4d3a 4407 9e3a 4107 ed3a 470e 243b
00000070: 6e59 cf3a 2e0e 233b 5e85 0f3d ea27 363d
