results/models/normal/BasicSteganoGAN/6/epoch_8.pth (torch, 330836 bytes, 59 tensors)

encoder.initial.block.0.weight f4 [32, 3, 3, 3]
00000000: 3f9e 96bd 49db 5d3d 6d10 d33d 5c8e c93d
00000010: 1473 b93c e081 1a3e 7a7f b9bd 02f8 8ebc
00000020: 538f a1bd eb14 143e 4f30 e5bd ff4b 03be
00000030: edc7 333c 139a 0ebe a109 ff3d 4683 f83d
00000040: 326e 253e e38c 17be f615 d83d 684b 0f3d
00000050: 5835 643d e288 153e eb9e dc3d 9545 e03d
00000060: 73bc 2dbe ff23 3a3d 7e1b 843c ac9e 67bd
00000070: eb23 d73a 32ee 04bd 64a7 f8bd 8e72 0b3e
00000080: d693 c1bd eb39 2d3e 9ac1 85bd 32f7 d6bd
00000090: cdad 613d 5e16 0b3e 4375 bc3d 3716 e7bd
000000a0: 3a31 1d3e 2dd4 af3d e1db 173d c0fe 1c3e
000000b0: 5fdb 41be ef28 4c3e 54fa 85bc d938 a03d
000000c0: 5458 b03d 3254 00be 130d aebc c0db 2abe
000000d0: 6232 e93c c155 043e d9e8 f6bc e5c6 203e
000000e0: 2c2b 21be 75fe 253d daac 1a3e 239a dc3c
000000f0: 093c 25be 378c e03d 102e 813d 4aa4 9dbc
00000100: addc 8d3d 8015 033e 52cc 8a3d ff55 6cbd
00000110: 4975 263e fb64 3dbd f901 df3b 38c5 1a3e
00000120: 46d2 8fbc 1882 22be 5418 62bd 86bf 573d
00000130: f6a8 e3bd faf4 423e 167a b3bb ab2d 0cbb
00000140: be71 27be bf25 dd3d c402 10be 2b57 53bd
00000150: d2f5 07bd 78b7 433e 17ce 663d 2fda 773d
00000160: 9866 393e a91a ecb8 b8aa e1bd 30a6 f2bd
00000170: a404 2e3e a5ca 023e cca4 b4bb d845 10be
00000180: 8cd3 01be ddb0 f33d 74f6 a13d 4758 24be
00000190: f5f1 c1bd 548f 863d 85ae 143d 7d4d 40bc
000001a0: 02be 313e 78f1 4b3d 03de ed3d 005a 643c
000001b0: 0c88 103e 19fc 38bd 0176 98bd 7994 39bd
000001c0: 7e71 2e3e b28d dfbd 58a4 c93d 56ba 143e
000001d0: 6dd9 c4bd cda2 73bd 44a8 313d 6ad9 96bd
000001e0: 0ff9 30be 824d be3c fbc2 993b 42bc 9a3c
000001f0: 9013 8dbd 24fd 3c3e 7f75 abbc d528 373e
00000200: 70ff 743e f009 203e c6de 06bc f67f 4ebd
00000210: 23c5 043e c595 5e3e bc5e 633e 2916 11be
00000220: cb53 3ebd 07cc a43c 736c 01be df88 dabd
00000230: 2a5c 873d 469d 0ebe 9546 eabd ea71 713e
00000240: 3e04 fcb9 d9e7 b3bd f4aa 263e b2c2 073e
00000250: 7308 b2bd 83ce 2f3e b76f 213e b80d 213e
00000260: de42 6b3d 239a 473e fd2f 9dbd e13a 863c
00000270: 5f9f 093e e2a6 f83d 19c6 423e 1edc c53d
00000280: 2ea4 203e 6a7b e83d 72c5 af3c 7883 3e3e
00000290: a3b6 c2bd 2dbc 22be 9236 d1bd c10a 2a3e
000002a0: e103 f3bd 2182 f4bd a792 00bd 8415 18bd
000002b0: 70a4 413e 6682 243e 5ca5 513d a0bb a53c
000002c0: 6d33 e8bd 96bc 6a3d 601b 853d 3269 9bbd
000002d0: a573 6bbd ca23 373e fa38 433c 645c ffbc
000002e0: 7782 38bd c79e 693d e71b 543e 0150 023e
000002f0: 75fe fb3a 3713 16bb 9cf8 8fbd 3d06 bf3d
00000300: d4f3 0abe e888 053e 9305 c93d a3eb 1abe
00000310: b1dc 16be c770 cebc 7104 133d 068d 873d
00000320: 17e1 ddbc 68b6 c63d 48ca c3bd dc85 bfbd
00000330: 80c1 4fbe c46c fd3c 79a9 f0bc dbce 45be
00000340: 6eb9 10bd 1abe 8abd 2941 073d e367 523d
00000350: e316 b4bd 9f77 28be 3467 253e 5078 3b3d
00000360: 1158 a1bd 133e bc3d cef6 d9bd d272 babd
00000370: 84ea e13d f036 0abe 9934 0fbd d252 26be
00000380: 78cc fbbc e524 82bc c3fa c23d e546 0fbe
00000390: 6b0f 1dbb f1e6 943c 6e5a 71be 34d8 043e
000003a0: ff19 ca3d ba27 a8bb 5de4 ca3d 2a7b 31bd
000003b0: 9fca 13be 7b6c 03be 9ec9 083c f57a c0bd
000003c0: 92ae 7f3d 8f6f 5b3d 0943 e8bb 2763 9e3d
000003d0: d0bb 253e 7769 1cbe 08fe 0cbe 415f 793d
000003e0: f32d 8e3d f89f 3abd 4664 133e 6780 1cbe
000003f0: 85cd d3bd 106d 1d3e 23b4 aabd ba63 c9bd
-0.07354402 0.054164205 0.10305867 0.09841606 0.022637881 0.15088606 -0.09057517 -0.017452244
-0.07888665 0.14461105 -0.11190855 -0.12821959 0.010972959 -0.13925962 0.124530084 0.121344134
0.16155317 -0.14799838 0.10551064 0.034984022 0.055714935 0.14602998 0.10772499 0.10950772
-0.16966419 0.045444485 0.01612639 -0.056547806 0.0016413903 -0.032453723 -0.12141302 0.13617918
-0.094520256 0.16916625 -0.06531067 -0.104963675 0.05509739 0.13582751 0.092020534 -0.11283534
0.1535081 0.08585391 0.037074927 0.15331554 -0.1893134 0.1993749 -0.016354717 0.07823343
0.08610597 -0.12532118 -0.021246469 -0.1668539 0.028466407 0.12923338 -0.030140327 0.15700872
-0.15739125 0.040525872 0.15105 0.026928967 -0.16136183 0.10964244 0.06307614 -0.019243378
0.06926856 0.1280117 0.06777252 -0.0576992 0.16255678 -0.04623888 0.006805655 0.15114295
-0.01755632 -0.1586994 -0.055198982 0.052672885 -0.11116211 0.19038764 -0.0054772003 -0.0021389525
-0.16351983 0.10798215 -0.14063555 -0.0515968 -0.033193417 0.19112957 0.056348886 0.06051081
0.18105543 -0.00011258323 -0.1101889 -0.11848104 0.16993958 0.12772615 -0.0055128094 -0.14089143
-0.12678355 0.11898968 0.07908335 -0.160493 -0.09469978 0.065703064 0.036299247 -0.011737225
0.17357638 0.04979083 0.11614611 0.013937473 0.14114398 -0.045162294 -0.074443825 -0.04530761
0.17035481 -0.10915698 0.09845799 0.14524207 -0.09611783 -0.05948143 0.04337336 -0.07365687
-0.17282508 0.023230318 0.004692433 0.018888596 -0.06888497 0.1845594 -0.02093005 0.1788667
0.23925567 0.15628791 -0.008231824 -0.050415 0.12965827 0.2173682 0.22204107 -0.1416861
-0.04646663 0.02011682 -0.12639026 -0.10670637 0.06609376 -0.13927183 -0.11439244 0.23578611
-0.00048068346 -0.08784456 0.16276151 0.13257864 -0.08693018 0.17168622 0.15765272 0.1572789
0.057436816 0.19492392 -0.07675169 0.016385498 0.13439701 0.12141205 0.19020881 0.09661125
0.1568763 0.11351664 0.021456454 0.18604839 -0.095074914 -0.15892096 -0.102154866 0.16605665
-0.11865974 -0.119388826 -0.03138986 -0.037129894 0.18910384 0.16065368 0.05118309 0.020231068
-0.11337934 0.057308756 0.06499362 -0.07588424 -0.057483334 0.17884746 0.01191544 -0.031171985
-0.045046296 0.057036187 0.20713769 0.12725832 0.0019225614 -0.0022899637 -0.0702984 0.09327362
-0.13569576 0.13040507 0.09815516 -0.15128951 -0.14732625 -0.02520026 0.035892908 0.06618695
-0.02708487 0.0970276 -0.095600665 -0.093517035 -0.20288658 0.030935653 -0.029377686 -0.1931719
-0.03533309 -0.0677454 0.033021126 0.051368605 -0.08793428 -0.16451882 0.1615265 0.045769036
-0.078781255 0.09191527 -0.106427774 -0.091039315 0.110310584 -0.1349752 -0.03496227 -0.16242531
-0.030737147 -0.015886733 0.09520485 -0.13991888 -0.0023965489 0.018176528 -0.23569652 0.129731
0.098682396 -0.005131689 0.09906838 -0.04333035 -0.14432763 -0.12834351 0.0083488505 -0.09398452
0.062422343 0.053573187 -0.0070880693 0.077337556 0.16184926 -0.15274607 -0.1376878 0.060881857
0.06942358 -0.045562714 0.1439372 -0.15283357 -0.10341934 0.15373635 -0.083351396 -0.098334745

encoder.initial.block.0.bias f4 [32]
00000000: 2ac5 35be 5341 0b3e dce9 843b 1b4e bbbb
00000010: 29f0 0dbe 5a44 ccbd 2d5a 503e 961c 143e
00000020: 6593 adbd 7abb d53d 4a85 14be 9bb6 0bbe
00000030: 6108 1ebe 601f 0c3e ac80 323e 281a a93a
00000040: 70a7 0d3e 488a 38be 8715 843d 0b3c 8a3e
00000050: 3f8d 703e ac2b 5b3e 6edf 4cbe 9c2c 1b3e
00000060: 5dd5 ce3c 5d89 51be f5f7 00bd 2fec fdb8
00000070: 99c1 a83e 6011 1b3d 310a 54b6 831b 4dbe
-0.17750993 0.13599138 0.0040561985 -0.005716098 -0.13861145 -0.099739745 0.203469 0.1446403
-0.08475379 0.10436149 -0.1450397 -0.13643877 -0.15432884 0.13683844 0.17431897 0.0012901472
0.13833404 -0.180215 0.064494185 0.26998934 0.23491381 0.21403378 -0.20007107 0.15153736
0.025248224 -0.20462556 -0.03148647 -0.00012107973 0.32960203 0.037858367 -3.1596394e-06 -0.20030026

encoder.initial.block.2.weight f4 [32]
00000000: 693b 7d3f f2f8 783f e86c 7d3f 4ae9 7d3f
00000010: d943 803f a60c 7b3f 5b6b 7a3f e892 793f
00000020: 8c1f 833f 4b76 813f 66d3 843f 5e24 803f
00000030: 0a9b 783f d129 833f d835 673f a483 773f
00000040: f60f 823f 112f 863f c950 7e3f 349e 7b3f
00000050: 64cb 7a3f b8bf 703f 31ab 7c3f 01ec 753f
00000060: b2b1 823f 473b 7c3f e37a 823f a3ec 733f
00000070: 71bc 713f 750b 7e3f 48d1 833f ae72 7e3f
0.9891878 0.9725486 0.989943 0.99184096 1.0020705 0.98066175 0.9782006 0.97489786
1.0244002 1.0114225 1.0377014 1.0011098 0.9711157 1.0247136 0.90316534 0.9668524
1.0161121 1.0483114 0.9934202 0.98288274 0.979666 0.9404254 0.9869872 0.9606324
1.0210478 0.9852795 1.0193752 0.95282954 0.94428164 0.9923623 1.0298243 0.9939374

encoder.initial.block.2.bias f4 [32]
00000000: 6fc6 2ebd f0b2 833c 6fc9 2ebd 214c 97bd
00000010: b7c4 9c3c 4da7 ccbc f2e5 113d 3e8c ff3c
00000020: 16b3 cc3c c3d4 35bd 72e7 8d3d 2e9b 513c
00000030: 3c06 85bc 8042 56bc 7387 fabb 04d5 0b3d
00000040: 8d1d 6dbd 867d 3b3c 11da 87bd 5bce 833c
00000050: 156d 553d 9fce 503d f1f9 42bc 2b52 71bb
00000060: a59e a0bd 438e 5fbd ca19 f53d 09c4 5a3d
00000070: fb2c b1bc 1d7d 04bd 6fb6 3dbd 791c 08bd
-0.04266971 0.016076535 -0.04267257 -0.07387567 0.01913677 -0.024982119 0.035619684 0.031194802
0.024987739 -0.04439236 0.0692891 0.012793345 -0.016238324 -0.013077378 -0.0076455413 0.034138694
-0.05788951 0.011443501 -0.0663339 0.016089609 0.05210598 0.0509783 -0.011900411 -0.0036822658
-0.07842759 -0.05457903 0.119678095 0.05340961 -0.021627894 -0.03234588 -0.04631656 -0.03323028

encoder.initial.block.2.running_mean f4 [32]
00000000: 2f03 0c3e 38ca a43e 03ff 433e 813e 7d3e
00000010: 57d1 ba3e b844 e13e 98b7 d53e 99e0 663c
00000020: 4e99 7ebb 53ea 043f e319 c4bb 984d adbb
00000030: 1656 4a3e 2e29 1c3f f1b1 1b3d da48 03bc
00000040: e566 0d3f 7dd1 8cbb 048a 6a3e f997 553e
00000050: d25d ad3d 1f02 f33d db1b 84bb b16c 943c
00000060: 43c1 fc3e e858 283e 0663 a6bb 5379 aabb
00000070: ac05 673e 080d b53e d64f 043f 0ded 943e
0.1367309 0.3218553 0.19140248 0.24730875 0.3648784 0.4399774 0.41741633 0.014091634
-0.00388487 0.5192005 -0.0059845312 -0.005288791 0.19759402 0.61000335 0.038011495 -0.008012975
0.5523513 -0.004297434 0.22904211 0.20858754 0.084651604 0.11865639 -0.004031641 0.018118234
0.49366197 0.16440165 -0.0050777225 -0.0052024513 0.22560757 0.35361505 0.5168432 0.29087105

encoder.initial.block.2.running_var f4 [32]
00000000: 6008 733c e1f1 3c3c 6f1e 2a3c b7e2 8d3c
00000010: 9c11 883d becf ba3d 2dbb a03c 9026 963a
00000020: 5cbe 3437 43cb 4b3d a0b6 b036 e5c2 9236
00000030: 727b cf3c 7f03 553d 2e89 4f3b 1519 7d37
00000040: ef53 5a3d a083 b737 8de8 0b3c d1c0 933b
00000050: 2221 c33b 7e5f 793b f0bf 9a37 62a0 c93a
00000060: 168e 553d 19e0 9c3c 38f1 b336 7931 ec36
00000070: c7b5 b13b 6878 e63c 6ec1 7f3d 104c 343d
0.01483354 0.011532278 0.0103832325 0.01732002 0.06643984 0.09121655 0.019620502 0.0011455584
1.0773158e-05 0.049754392 5.266469e-06 4.373828e-06 0.025327418 0.052005287 0.0031667459 1.5085815e-05
0.0533027 2.1876593e-05 0.008539331 0.0045090695 0.0059548775 0.0038051303 1.8447608e-05 0.0015382881
0.052137457 0.019149827 5.3626973e-06 7.0391075e-06 0.005423281 0.028133586 0.06244033 0.04401785

encoder.block1.block.0.weight f4 [32, 38, 3, 3]
00000000: f975 533c 9b42 5cbd 3600 583c 8300 943c
00000010: 786d 873c d7c4 56bd d208 27bd e3b3 803c
00000020: e61e 05bd 3829 4dbd fb90 c53b 4b00 09bd
00000030: 3818 57bc 377d 7fbd dee6 4cbc 7f70 08bd
00000040: 2351 a9bb 74cd 783c 2c37 e63c aeb2 37bd
00000050: 3e52 3abc 5254 f1bc 0364 62bd df74 9a3c
00000060: 4643 86bc 39b9 12bd f2ad 1ebb 566e 88bc
00000070: 3031 cebc 84c6 3dbc 457a be3b bf11 0bbd
00000080: f5bd ec3b 0251 6a3c ee4e 8bbc d6c2 9b3c
00000090: 3d21 6a3c 7e97 b03c 7596 1bbc 8830 cebc
000000a0: 9af6 a83b ac9e e3bb ef45 08bd 57fc 673d
000000b0: da52 1ebd e51d 5b3b ac42 b6bc affa 8f3c
000000c0: cf5d b83c 35a6 12bd e317 cb3c 2230 44bc
000000d0: aa8e 5f3c fc31 783b f9e8 8cbc cc91 583c
000000e0: 6fad a13c 19a6 1cbd f6f1 19bc 37ed 183d
000000f0: d377 0cbd f65a bdbc 9b75 c43c 877a d13b
00000100: c1ad 0e3d 9a27 a4bc 89a7 463c 9a2c fcbc
00000110: daac 343b 6cb4 97bc e123 d63c a2d3 d0bc
00000120: aa09 7a3b 578e 743c 1f7b 063b 1c1b 10bd
00000130: e654 4838 3c2a a6bb 9ee4 233c cc5f 113d
00000140: 1464 41bd 10d3 db3b 71c8 d23b ac72 d33c
00000150: 4572 07bd b426 e7bc fe2e 863c 4cd2 1a3d
00000160: 924b 9dbc e6ca 45bd 9137 4b3d bde1 2abd
00000170: 3398 0bbd a9d3 473c 1652 8c3c bcfb b93c
00000180: 84a1 1fbb ee2e bd3c de21 f4bc d699 1d3d
00000190: 14d4 a0bc 2608 98bc f3a6 fdbc 61ba 7a3d
000001a0: 8c48 e1bb 92ac 753d f336 95bc 85c8 323d
000001b0: 7efe 3fbd 2f7e 2bbd 8635 e6bb 87f9 0abc
000001c0: eaf0 2bbd 4935 c53a f9b8 21bd c283 47bd
000001d0: 6dec 033d 492d a43c f7ad f9bc b24a 2bbc
000001e0: 6eed 633c 287e 31bd 2dff 0dbd 14a2 6cbd
000001f0: faef 0b3d 6a92 26bc b783 313b e20d eabc
00000200: 1ca8 8fbd 27a9 31bd 56f4 0dbd c175 eebc
00000210: 0dc1 f8bc a0a0 e43c df46 c13c b956 383c
00000220: f66b b13c ae4d 3c3c 881a 13bd 8d3e 57ba
00000230: 3ffc 2cbd 47db 0f3d a4fc 3d3b 492c 79bc
00000240: 2bd2 f23a e38a 1a3d de97 ecbc 230e a33a
00000250: 821d 7a3c 5e7d d23c e4b7 28bd 81dc 76bd
00000260: 2e0a b0bb 9d57 9dbc 18e9 fc3c aea3 fd3c
00000270: 933f 3fbd f2ea 05bd a8f6 51bd 5a0d 15bd
00000280: 6a3b 8f3b 6ff9 5a3c 7bf6 f4bb cec0 0b3d
00000290: ae55 863d 8329 96bc 7885 e8bc 39c7 103d
000002a0: 2d23 3bbd 2b3d 06bd 2513 31bc 928e 9a3c
000002b0: 6924 11bd a34b 8ebc 5036 12bd 2692 533c
000002c0: c01b 68bd 01a4 223d 3128 b83c ad84 343d
000002d0: 2b8c 07bd e321 deba 2897 ffbc 4b7b 563c
000002e0: 3c06 4c3c 888a beba 4ba1 b33a b6be b13c
000002f0: ac73 063d df04 363d ce06 09bd 3719 153c
00000300: 1a66 31bd 450a 573d 789f be3c 3a1d 423d
00000310: ecaf 643b efdb a43c 7504 ddbc 7bbd fb3c
00000320: 586b 32bd 316e 1fbd 376f b03c b3fa 563c
00000330: 24d3 26bd edf9 013d dadf 77bc 867b 14bd
00000340: b0d9 aabc 0b73 3b3c cb65 5fbd 4118 093c
00000350: 1952 1abd 19ec 43bd 70c3 1a3d 2222 05bd
00000360: 01de 05bd aec6 8ebc 5850 2ebd d9ef 11bd
00000370: 9851 69bd 7e8c 85bc c621 59bd e1d1 743c
00000380: 604b 4abd 6139 43bd 1d62 ee3c bed9 903c
00000390: 555a 9cbc 5310 56bd 87a2 45bc a25c 07ba
000003a0: a7a9 9b39 55e7 4cbd ec14 053d 4fb1 713d
000003b0: fbd5 013d b323 30bd c171 103d 24bc 9b3c
000003c0: 29d3 273c 97f1 aabb 7e87 76bc ef87 123d
000003d0: 1e40 193c a39d 5f3c 11eb 763b c97f 2dbd
000003e0: 5222 153d 0444 75bb a47d 543c ecc9 a13c
000003f0: 922d c53c b6a1 053c 924a 273d 05e2 1b3d
0.012906545 -0.053774457 0.013183644 0.01806665 0.016531691 -0.052433815 -0.040779896 0.015710777
-0.03250017 -0.050088137 0.006029246 -0.033447545 -0.013128333 -0.062375274 -0.012506215 -0.03331041
-0.005167143 0.015185703 0.02810248 -0.044848137 -0.011372147 -0.029459152 -0.05527116 0.018854557
-0.0163895 -0.035821173 -0.0024212566 -0.016654175 -0.025169939 -0.011582974 0.0058129155 -0.03395247
0.007224793 0.01430154 -0.01700541 0.019013803 0.014290151 0.021556612 -0.009496321 -0.025169626
0.0051563503 -0.0069464054 -0.03326982 0.056637134 -0.038653232 0.0033434567 -0.022248589 0.01757559
0.022505669 -0.03580304 0.024791664 -0.011974366 0.013644854 0.003787159 -0.017200934 0.013218354
0.01973602 -0.03824434 -0.009396067 0.0373356 -0.03429396 -0.023114663 0.02398186 0.00639278
0.034833673 -0.020038415 0.012124904 -0.030782986 0.0027568848 -0.018518649 0.026140155 -0.02549154
0.0038152733 0.014926515 0.0020520163 -0.035182104 4.7762784e-05 -0.0050709527 0.010003237 0.03549175
-0.047214583 0.00670851 0.006432586 0.025811516 -0.03306796 -0.028216697 0.01637983 0.03779821
-0.019201074 -0.048289202 0.04961354 -0.041719187 -0.034080695 0.01219646 0.017128985 0.022703044
-0.0024357745 0.023093667 -0.029801305 0.038476788 -0.019632377 -0.018558573 -0.030963397 0.0612129
-0.0068751033 0.05997903 -0.018214678 0.04364826 -0.046873562 -0.041868385 -0.0070254235 -0.0084823435
-0.0419778 0.0015045787 -0.039483044 -0.04870964 0.032207895 0.020041125 -0.03047846 -0.0104548205
0.013911588 -0.043333203 -0.034667183 -0.057771757 0.034164406 -0.010166744 0.0027086565 -0.028571073
-0.07014486 -0.043374207 -0.034656845 -0.029108884 -0.030365491 0.027908623 0.023593364 0.011251145
0.021657925 0.01149313 -0.035913974 -0.000821092 -0.042232748 0.03512123 0.0028989697 -0.015208312
0.001852577 0.03773011 -0.02888101 0.0012440126 0.015265824 0.025694545 -0.041190997 -0.060268883
-0.0053723073 -0.019206816 0.030872867 0.030961838 -0.04669149 -0.032694764 -0.05126062 -0.036389686
0.0043710964 0.013365134 -0.007475672 0.03411942 0.06559311 -0.018330341 -0.028383955 0.035346244
-0.045687843 -0.032773178 -0.010807787 0.018866811 -0.035435114 -0.01737005 -0.035696328 0.0129132625
-0.05666709 0.039707188 0.022480102 0.044071842 -0.03309266 -0.0016947355 -0.031200007 0.013090919
0.012452658 -0.0014537135 0.0013704685 0.021697383 0.032825157 0.04443824 -0.033453755 0.00910025
-0.043310262 0.05250003 0.0232694 0.047391154 0.0034894897 0.020124404 -0.026979664 0.03073
-0.043559402 -0.038923446 0.021537406 0.013121295 -0.040728703 0.03173249 -0.015129054 -0.036250614
-0.020855755 0.011441003 -0.054540437 0.008367599 -0.03767595 -0.047832582 0.03778404 -0.032503255
-0.032682423 -0.017428722 -0.04255709 -0.035629127 -0.05696258 -0.016302343 -0.053010724 0.014942617
-0.04938829 -0.047662143 0.029099518 0.017681953 -0.019086042 -0.05226166 -0.012062675 -0.00051636447
0.00029690305 -0.050025303 0.032490656 0.059006985 0.03169821 -0.043002795 0.035264734 0.01901061
0.010243216 -0.005216788 -0.015046952 0.035774168 0.009353666 0.013648423 0.0037676732 -0.042358194
0.036409684 -0.0037424574 0.012969408 0.019749604 0.024069581 0.008156231 0.0408426 0.038057346

encoder.block1.block.0.bias f4 [32]
00000000: 3b85 843d 7c1d 0e3d bd27 a2bc 4057 99bd
00000010: db46 db3d 8ea2 fe3d e7ec c03a 8f63 8f3c
00000020: 4ba4 683d 5589 153e 9d52 5c3d 335b c5bb
00000030: 800f ba3d 5273 163d ed67 b9bc 2e86 2b3e
00000040: 3285 103c a2cf adbc 7ade 853d 35c5 913d
00000050: 9d0f 52bd 92c6 de3b cb38 333c e6e5 24bd
00000060: 54f8 043d 0df0 ba3c 96e7 bb3d abc4 aa3d
00000070: bc03 8a3b f09b 2b3e 426c df3c 206e 2fbd
0.06470724 0.034696087 -0.01979434 -0.07487345 0.10706874 0.124333486 0.001471904 0.017503528
0.056797307 0.1460317 0.053789724 -0.0060228347 0.09084988 0.03673107 -0.022632563 0.16750404
0.008820819 -0.021217171 0.06536575 0.071176924 -0.05128442 0.006798574 0.0109388335 -0.04025831
0.032463387 0.022819543 0.09175031 0.08338293 0.004211871 0.16758704 0.027273301 -0.042829633

encoder.block1.block.2.weight f4 [32]
00000000: 751a 803f fa81 813f 17f5 7d3f 59c5 803f
00000010: 5fa4 703f efb1 6c3f 1458 803f a879 7e3f
00000020: 05ba 7c3f 33f4 833f a0a5 783f e162 7b3f
00000030: ecc2 7f3f 674e 783f 1148 803f b26f 7a3f
00000040: 8486 813f 72d2 7c3f 4a76 813f 5037 7f3f
00000050: 795c 803f 47b9 813f 80fa 7e3f 51f3 7b3f
00000060: 9050 783f e759 7a3f 84e3 803f 4dc5 783f
00000070: ae14 813f cdd5 793f a9fc 803f 9187 823f
1.0008074 1.0117791 0.992021 1.0060226 0.9400081 0.92459005 1.0026879 0.9940438
0.98721343 1.0308899 0.97127724 0.9819775 0.999068 0.9699463 1.0021993 0.97826684
1.0119176 0.98758614 1.0114224 0.99693775 1.002822 1.0134667 0.9960098 0.98418146
0.9699793 0.9779343 1.0069432 0.9717606 1.0084436 0.9759186 1.0077106 1.0197622

encoder.block1.block.2.bias f4 [32]
00000000: 6662 fcbc 6380 0cbd 6079 44bd 0a26 3e3d
00000010: f091 1f3d f9ae a8bc 02d9 02bd 414a 403c
00000020: b2d1 f8bc a4a7 833d ca1f 9b3c 5596 31bd
00000030: 3d04 0a3d be52 513d 2528 e03c d237 2b3c
00000040: 0485 8cbb 1721 71bd 08c4 ed3c 80c7 593c
00000050: 6608 d7bc 3172 f43c 3923 223c 40d9 2a3d
00000060: e81b 4dbd dad3 e6bb af6f 93bb 1c05 e8bc
00000070: e8bd 00bc ba1f 7ebd a6e6 493c 6037 8bbd
-0.030808639 -0.034302127 -0.047967315 0.046422996 0.038957536 -0.020591246 -0.031945236 0.0117364535
-0.030373428 0.06428459 0.018936057 -0.04335626 0.03369545 0.0511043 0.027362892 0.01045032
-0.0042883176 -0.058869448 0.029024139 0.013292193 -0.026249122 0.029839607 0.009896093 0.041711092
-0.05007544 -0.0070442976 -0.0044993977 -0.028322749 -0.007857777 -0.062041976 0.012323057 -0.06797671

encoder.block1.block.2.running_mean f4 [32]
00000000: 8e68 8f3f 5ff0 813f 5e79 4d3f 92a9 173f
00000010: fb0e 893f 684f b73f e534 533f 4953 3d3f
00000020: 15d7 4e3f a0c1 6c3f 797f 883f f344 723f
00000030: 078a 3b3f a21f 233f 51cf c33e d91a 7b3f
00000040: d0b0 6b3f 2ac7 2e3f e025 0b3f 8b55 5c3f
00000050: cc70 2f3f a5a9 b53e c4b2 3b3f 9288 543e
00000060: 45f3 483f 2c51 6e3f 3d58 7c3f 0c39 603f
00000070: ca16 4d3f 6817 e43f 0b6a 033f 4aae 3a3f
1.1203783 1.015148 0.80263317 0.5924312 1.0707697 1.4321108 0.82502586 0.7395521
0.8079694 0.9248295 1.0663902 0.9463646 0.7325749 0.6372014 0.38244107 0.9808784
0.9206667 0.6827265 0.5435467 0.8606803 0.6853149 0.3548099 0.7331965 0.20755222
0.784962 0.9309261 0.9857214 0.87587047 0.801129 1.7819643 0.51333684 0.72922194

encoder.block1.block.2.running_var f4 [32]
00000000: 2e53 d53f 0ba7 983f 1d16 8c3f 9d22 7b3f
00000010: d990 763e 83c6 ad3e 7f49 893f af2f 753f
00000020: b933 5e3f e94a a53e a25e ce3f c650 893f
00000030: 23ae 703f f1c5 b43e 49d1 ff3e 981f 7a3e
00000040: cb98 c13f 4054 7b3f 36b2 ed3e 885d 933f
00000050: 124f 553f c444 023f 2f0b 643f 32b0 f83d
00000060: ddac 713f 48ca 883f 427a 903f fde2 333f
00000070: 8703 1e3f f3b2 073f 1f3e 423f 75ee 813f
1.666601 1.1925977 1.0944248 0.9809969 0.24078692 0.33940515 1.0725554 0.95775884
0.8679767 0.32283714 1.612263 1.0727775 0.9401571 0.35307267 0.4996436 0.24426115
1.5124754 0.9817543 0.46425027 1.1512918 0.83323777 0.5088618 0.89079565 0.121429816
0.94404393 1.0686731 1.128731 0.7026823 0.6172413 0.5300743 0.7587604 1.0150896

encoder.block2.block.0.weight f4 [32, 32, 3, 3]
00000000: 122b 943c db40 673c cfb1 23bd 04fc 5bbd
00000010: ffa2 37bc 3a0e 11bd 3c97 2bbd 3ae8 cb3b
00000020: 1779 e2bc 143f 5e3c cace 21bd f932 23bd
00000030: f373 a5bb 4921 0cbd a9c6 793b d851 3d3d
00000040: 3e6c 793c aab5 0cbd 01cb a0bc 8757 67bc
00000050: df90 403c 05a8 573c 6009 c8bd e602 89bd
00000060: 5b2c a5bc 2054 47bc f509 8a3c fbad 3b3c
00000070: 0aed 2cbd 5de5 88bc 325e 393d 6f49 2bbb
00000080: 7de8 56bd 6eb4 12bd c1c2 55bc 4733 05bd
00000090: 6711 823c 5d8a 2c3d de62 5b3c f647 f63c
000000a0: 6b37 2bbd 036b b7bc 0545 093d 22cb 6e3d
000000b0: ed0d e7bc fa6f 73bd 77b8 be3b 7e52 513a
000000c0: f8fe d93c dd1c 1dbd d053 343c c068 133d
000000d0: 60d4 afbc 60c6 7c3d b332 983c e250 08bd
000000e0: cf17 29bd 8305 3dbd 0994 1cbc 9758 31bd
000000f0: b54b 69bd d127 fd3c fe29 2dbd 1307 e0bc
00000100: d5d4 213d 9f7a 01bd dd75 7ebd b04e b43c
00000110: 6ae4 33bd f86f 303d 1465 4bbd 863c b9bc
00000120: 658f 0b3d e001 2fbb 8367 183c 5675 523d
00000130: bd3d 8fbd e35c 8dbc 5014 1c3c 5fb0 eabc
00000140: ace9 a13c 6bd7 62bd 1449 4dbd 0f21 5d3c
00000150: 6be3 de3b b845 723b 6ca1 103d 7c18 4cbd
00000160: 0ab4 293d b664 a63c a61e 86ba ccc9 27bd
00000170: b337 0b3d b2d2 b7ba 171a 20bd ea7a 2bbd
00000180: 596f 38bd 0150 68bd 2ef6 6abd da59 c63c
00000190: 307d 80bb ad2e acbc 3192 15bd a9cb 703c
000001a0: fb35 adbc e72d 293d 50e3 cd3c ef0e cf3c
000001b0: c430 63bb 6b4e d1bc 704a 8bba 0da7 21bd
000001c0: e536 3d3d 7fbf f4bb 3fc4 ce3c 5437 683c
000001d0: 01e6 a8bc 9d53 4e3d 55dd 31bc 5725 713b
000001e0: f20c 3a3c 8bd6 12bc e315 01bb 4e36 483c
000001f0: 6e49 233d 1541 4d3c f32a fbbb 1b2e 823d
00000200: 5b6e df3c c192 d9bc 9cf1 3b3d 0fd9 2e3d
00000210: a0f1 fe3c ba6f e1bc dd46 6f3c 0cbf 4abd
00000220: 9a7c 0bbd 5975 843a 9776 f93c 9df5 863a
00000230: 3df5 373d 2791 51bc 6be8 b3bc ce56 243d
00000240: feec 04bd 0206 3c3c 4a6c 8abb 175e bbbc
00000250: d0e8 dabc d18c ebbc 8170 b7bc c140 26bd
00000260: 4b0e ecbc 68be 503d fafb 39bd facd bf3c
00000270: c69e 01bd cceb 03bd ba73 a1bd 0fdc 243c
00000280: 8791 6e3c 22da 87bc d169 31bd 3dde 05bd
00000290: 77f7 6d3d 40ac 673c d6e7 e2bc fd63 c1bb
000002a0: 4ffc 8b3c 523a 173c 8254 193d 22eb c93c
000002b0: 71d8 413d 0da7 e93a 3a74 743c 949a 773d
000002c0: 613e d13b 2081 263c e6df 8cbc 9f9f 683d
000002d0: 30e0 493d 573b f0bc 66bd 553d bf40 123c
000002e0: 1c58 13bd 36bc b23c 4c83 dc3b 084b 6b3d
000002f0: 7cce a93c 7875 d3bc 78a3 803b 7a8f 12bd
00000300: a7c2 813c 32d4 2dbd ce67 8dbd 9f08 65bd
00000310: e523 3ebd fbef 013d 3d19 23bd d7da 783c
00000320: 71cb 12bd 5abe 5dbd 3311 adbc cc23 23bd
00000330: f9c1 12bd 08ac 3ebd 44f2 cd3a 13f7 c0bb
00000340: 5922 90bb c04d 083d d6e0 45bd f559 d53c
00000350: f72b c2bc e029 25bd f057 37bd 6cc1 d0bc
00000360: cd55 3ebd de99 06bd a6e4 07bc feae 8fbc
00000370: 6644 9bbc 27e2 a5bb 3258 91bd cede 3f3c
00000380: d80e 0a3d 44f1 3cbd 01ce 1abd 7db3 95bd
00000390: 5853 47bc 753a 1e3b 367b 99bd 38b2 88bb
000003a0: 23cc 3fbd 4676 3a3c a992 633c d701 75bd
000003b0: ef04 81bd 1928 633c 546b ce3c fc21 833c
000003c0: 6454 33bd b5ff f6bb 6445 f9bc c50f 01bd
000003d0: 9b8e 6fbc 8542 43bc 5eea b0bc 1fd1 c9bc
000003e0: a582 073c 892c ca3b cb2c 46bd 65a0 babc
000003f0: 3052 3d3d d9dd 153d 36ad 8bbc 9a9d 3d3a
0.018086944 0.014114584 -0.039964493 -0.053707138 -0.011208295 -0.035413958 -0.041892275 0.006222752
-0.02764563 0.013564844 -0.03950385 -0.039843533 -0.0050492226 -0.03421143 0.0038112795 0.04622063
0.015223561 -0.034352936 -0.01962805 -0.014119989 0.01175329 0.013162618 -0.09767413 -0.06690006
-0.020162752 -0.012166053 0.016850451 0.011455054 -0.042218246 -0.016710931 0.045255847 -0.00261363
-0.05246781 -0.035816602 -0.013046921 -0.032519605 0.015877439 0.04212414 0.013390271 0.03006361
-0.041800898 -0.022389894 0.033513088 0.05829919 -0.028204883 -0.05943296 0.0058203298 0.00079850096
0.026610836 -0.038357604 0.011006311 0.03598857 -0.021463573 0.061712623 0.018578863 -0.03328026
-0.04128247 -0.046147835 -0.009556779 -0.043297376 -0.056956965 0.030902775 -0.042276375 -0.027347123
0.039509613 -0.03161108 -0.062124122 0.022010177 -0.043919004 0.04307553 -0.049656942 -0.022611868
0.0340723 -0.0026703998 0.009302023 0.05138143 -0.069941975 -0.017256206 0.009526327 -0.028648553
0.019764744 -0.05538122 -0.05011852 0.013496651 0.0068020127 0.0036967825 0.035310194 -0.049828038
0.041431464 0.020311695 -0.0010232523 -0.040963933 0.033988666 -0.0014024584 -0.03908738 -0.041865267
-0.045028064 -0.056716923 -0.05736368 0.024212766 -0.0039211735 -0.02101835 -0.036516372 0.014696994
-0.021143904 0.04130354 0.025132805 0.025275676 -0.0034666518 -0.025550088 -0.0010627043 -0.039465953
0.04619493 -0.007469117 0.025240062 0.0141733475 -0.020617487 0.05037271 -0.010855992 0.0036795938
0.011355625 -0.008962284 -0.0019696883 0.0122199785 0.03986495 0.012527724 -0.007665032 0.0635645
0.027274301 -0.026559236 0.045884714 0.042687472 0.031121075 -0.027519096 0.0146042975 -0.049498603
-0.034054376 0.0010105773 0.030452056 0.0010296587 0.04491161 -0.012790955 -0.021961411 0.040121846
-0.032452576 0.011476042 -0.004224335 -0.022872014 -0.026722342 -0.02875367 -0.022392513 -0.040589098
-0.02881541 0.050962836 -0.04540632 0.023413647 -0.03164556 -0.032207295 -0.07883401 0.010062232
0.014561064 -0.016583506 -0.043313805 -0.032682646 0.05809733 0.014140189 -0.027698439 -0.005901812
0.017088084 0.009230213 0.03743411 0.024648253 0.047325555 0.0017826274 0.014920289 0.06045015
0.00638561 0.010162622 -0.017196607 0.05679285 0.049286067 -0.02932517 0.052182578 0.0089265695
-0.0359727 0.021818262 0.006729519 0.057444602 0.020728342 -0.02581285 0.003925737 -0.03578136
0.015839888 -0.042438693 -0.06904565 -0.055916425 -0.04642095 0.031723004 -0.03981899 0.015188894
-0.035838548 -0.05413661 -0.021126365 -0.03982906 -0.035829518 -0.04655078 0.001571246 -0.0058888285
-0.004398626 0.033277273 -0.048310123 0.026043871 -0.023702605 -0.04032314 -0.044761598 -0.025482856
-0.046468545 -0.032861583 -0.00829426 -0.017539497 -0.018953513 -0.00506236 -0.070969 0.011710836
0.033705562 -0.046128526 -0.037794117 -0.07309625 -0.012165867 0.002414373 -0.07494204 -0.004171636
-0.04682554 0.011380738 0.013889947 -0.059816208 -0.06299769 0.0138645405 0.025197662 0.016007416
-0.043781653 -0.007537807 -0.030428596 -0.03150918 -0.014621402 -0.011917715 -0.02159613 -0.02463585
0.008270894 0.00616986 -0.04838256 -0.02278156 0.04622096 0.036588524 -0.017050367 0.00072332623

encoder.block2.block.0.bias f4 [32]
00000000: eb62 aaba e688 8b3d 75c1 c3bc bb30 c4bb
00000010: a7b3 033c 0cd9 0ebd b763 8fbc 1611 08bd
00000020: 1d23 a03d e82e 4f3d d7e1 263d 06ec 1f3c
00000030: b1a3 8f3d aa84 a0bc 72bc a03b 3edb aabb
00000040: a8af 033c 7463 4f3a 5a2f 31bc 1034 8a3d
00000050: 8684 00bd 5971 c9bb 243e cb3d 62a2 e73c
00000060: 5b43 d73d 7789 abbc 070e 933d 6cfd 9b3c
00000070: 390c e63c 7bd3 8f3d 3b37 113d 79a8 393d
-0.001299945 0.06813221 -0.023895958 -0.0059872544 0.008038438 -0.03487496 -0.017503602 -0.03321942
0.07819197 0.050581843 0.04074272 0.009760862 0.070136435 -0.01959451 0.004905277 -0.005214124
0.008037485 0.0007911243 -0.010814512 0.067482114 -0.031376384 -0.0061475453 0.09923962 0.028275672
0.10510894 -0.020939572 0.0718041 0.01904174 0.028082 0.070227586 0.035453063 0.045326684

encoder.block2.block.2.weight f4 [32]
00000000: ca7b 783f 34c2 773f b4e2 7b3f 72b3 793f
00000010: f441 793f 0853 7b3f 2c6c 7c3f 6918 7d3f
00000020: 1b8c 7a3f 69ce 783f d3c1 793f feeb 793f
00000030: 3821 7b3f e757 7b3f a032 7a3f 4d10 793f
00000040: 9c34 7d3f f191 7a3f dd58 7b3f 7c9c 763f
00000050: 5a7a 7b3f d6a6 793f 6a73 783f df99 793f
00000060: 9585 783f fa20 7b3f e541 7a3f 0e34 7b3f
00000070: 8184 7b3f c8ba 783f 93f3 7b3f 1e47 7a3f
0.9706389 0.96780705 0.98392797 0.97539437 0.9736626 0.9817357 0.9860256 0.9886537
0.97870034 0.97189957 0.9756138 0.9762572 0.9809756 0.98181003 0.977335 0.972905
0.989084 0.9787894 0.9818247 0.96332526 0.9823357 0.97520196 0.9705111 0.97500414
0.9707883 0.98097193 0.977568 0.98126304 0.9824906 0.97160006 0.9841854 0.97764766

encoder.block2.block.2.bias f4 [32]
00000000: 7bcf 963d 819a 90bd 6d5e 9f3d 3860 95bd
00000010: 7381 8bbd cfab 85bd 5ba4 ad3d 67dc 883d
00000020: f9e4 86bd 6fd2 8b3d 5d43 88bd 6341 b7bd
00000030: e880 a2bd 10dd a53d d5d5 86bd 483b 9f3d
00000040: f687 863d 67bf 8dbd d635 7b3d 4887 ab3d
00000050: 492b 823d a3ee a73d 7a4d 983d 4c93 56bd
00000060: 410d a33d 56cc 8fbd d31b 8fbd 1ec7 9abd
00000070: 7ef4 953d a822 98bd fa35 8ebd 6c5a 94bd
0.073637925 -0.07060719 0.07781682 -0.07293743 -0.068118 -0.065269105 0.08478614 0.066826634
-0.06586642 0.068272464 -0.066534735 -0.089480184 -0.07934743 0.08098805 -0.06583754 0.07774979
0.06568901 -0.06921273 0.06133064 0.08375412 0.06355912 0.08199813 0.074366525 -0.052386567
0.07961512 -0.07021396 -0.06987729 -0.0755751 0.07322024 -0.07428485 -0.06943889 -0.07243809

encoder.block2.block.2.running_mean f4 [32]
00000000: 7fbe 8b3f 33a7 5c3f e421 8f3f 8afb 343f
00000010: 24d1 8e3f c363 ac3f 2019 583f f98f 803f
00000020: 0a56 283f c871 803f 134a 6e3f 7740 6c3f
00000030: 733b 413f cd79 a83f df13 303f e538 473f
00000040: dff7 893f 2fe3 403f 58d9 553f fcef 543f
00000050: 9139 353f 1f6a 463f 454a 543f 573d 583f
00000060: 72a8 9d3f cf37 523f b9cf 5d3f 64b5 923f
00000070: 9d2f 673f 344b 2f3f 7780 8e3f 6f10 893f
1.091751 0.86192626 1.1182218 0.7069632 1.1157575 1.3467945 0.8441334 1.0043937
0.65756285 1.0034723 0.9308178 0.92285866 0.7548134 1.3162171 0.6878032 0.7782119
1.0778769 0.75346655 0.83534765 0.8317869 0.70790964 0.7750568 0.82925826 0.844686
1.231703 0.8211641 0.86645085 1.1461606 0.9030703 0.68474126 1.1132954 1.070814

encoder.block2.block.2.running_var f4 [32]
00000000: b49b aa3f b147 d13f 14f4 4f40 8d70 af3f
00000010: 6499 b43f 19ac 1a40 10d1 d73f e1c0 2840
00000020: 2b88 863f 2be3 843f 3fbb 0540 f179 b53f
00000030: 15f8 513f dd5e eb3f cb6f 983f b69c 8c3f
00000040: d4a5 3640 e56c cb3f 4be0 8d3f 3f82 483f
00000050: 589e a73f 4070 873f e85b 903f f36c a23f
00000060: 5482 fb3f d67e f23f 33c8 d73f 5eb4 0e40
00000070: eda4 0540 1245 933f 8c35 da3f 5fa3 be3f
1.3328767 1.6350003 3.2492723 1.3706223 1.4109311 2.416754 1.6860676 2.6367724
1.0510305 1.0381826 2.0895536 1.4177839 0.8201917 1.8388325 1.1909117 1.0985324
2.8538713 1.5892607 1.1084074 0.7832374 1.3095198 1.0581131 1.1278048 1.2689499
1.9649148 1.8944957 1.6857971 2.2297587 2.0881913 1.1505454 1.7047591 1.4893607

encoder.final.block.0.weight f4 [3, 32, 3, 3]
00000000: 58a4 93bb f78d 2f3d 50c0 fbbc b4b5 aabb
00000010: f7cf a03b 8a90 b2bc 13f7 6b3c 1502 8b3d
00000020: 36da 2c3d 5229 c63b 3363 bb3c d0a0 07bd
00000030: b4ac 68bd 5500 dd3b 3844 a23c 20e7 fcbc
00000040: fffb 9b3b 91cf e1bc bf55 963d d1b2 82bb
00000050: 2f31 c5bc 9112 66bc 70fd 5c3d 9dfd 403c
00000060: 1fc0 a13d 89b2 643b 830f 1bbc 1631 a93b
00000070: c369 52bd fbcb d2bc 4f66 733c ec98 3abd
00000080: 4dcf 26bd d483 4bbd 9860 923c 022a e63c
00000090: fe84 64bd 1f5d e0bc 64a1 a63c 6fe5 3f3c
000000a0: 53b1 22bd 4c9a 823c 625b 3dbd b936 58bd
000000b0: 7ab1 053c 4ea1 a9bc 2480 8c3c 45b4 a7ba
000000c0: 9517 8f3c 74a2 60bd 6872 4abc 94b4 bb3c
000000d0: 836f a4bd 92b8 12bd 3771 1a3d 62b7 5c3d
000000e0: e502 893d 15ae 873d f47c 80bc 7af7 a13c
000000f0: 3925 253d de28 723d 2659 063d 8038 353c
00000100: ee75 6a3d 811b 6b3d 374f 66bb c0ef 0d3d
00000110: 6d3a 8d3d 6f39 213d 0d94 40bc e52c 763d
00000120: 9feb a63c 0bd9 86bd 2755 f83c ad75 8abd
00000130: 8157 a6bc 6cac 0d3d 8abc 243c f8aa ef3c
00000140: 1ee5 553c 50f7 5f3b ff19 82bc fe36 98bc
00000150: f9ee 793d 265f 2f3d 6c03 8b3b 5f54 15bc
00000160: 6650 fdbc d528 16bc ffad 25bd 33d7 4bbd
00000170: 5272 00bd e837 48bd dad1 b8bc 7a95 72bd
00000180: b863 083c 9be0 23bb d359 1dbd 8b81 0abc
00000190: 7a60 6abd 5275 b23c 3fa9 debc 8f26 7abd
000001a0: e386 69bd f9fb 31bd a76c 80b6 d13e 08bd
000001b0: 94bc 64bc 6576 933c a9bb 633b 5a45 84bd
000001c0: 9a0a 943c 3426 123d 0410 49bd bad6 58bd
000001d0: 8d6b a83a 3269 d83c 7709 8d3c ce19 e63b
000001e0: 325f a3bc 1591 793c 92a3 de3c 42b6 853d
000001f0: a9f7 a23c 87a2 883d 767e 7dbd d382 303c
00000200: 1f08 21bd 34c3 f4bb 3fd8 df3c 585a f0ba
00000210: 27b0 90bc 527b 113d 9b4f 69bb c1e7 2a3d
00000220: 0437 623d c3ad ebbb aafe 973c 5322 f73b
00000230: 370b dbbc 2b4a 3a3d 5d06 583d d8c4 9dbc
00000240: 0966 863d fead bf3b c8c6 9cbc d592 8c3d
00000250: cbdb 503d 097e 793d 72b6 75ba 135e a2bc
00000260: 0dc8 323d 655d 36bd 49a6 843b dda0 79bd
00000270: 5d87 b5bb 3a20 5abd 916d 493b 4f07 00bd
00000280: ce14 f43c 227e 78bd f3a7 62bc 7cd0 8d3c
00000290: 2eaa 3e3d 4044 53ba 9d78 6a3d d42f 7e3d
000002a0: e309 84bc 6265 ee3c a4ae 3f3d 4a13 3c3d
000002b0: 7811 5e3d 249e 94bc c786 eebb 0834 033c
000002c0: 116b b73b 8c9b 793d 1f86 093c 3597 103c
000002d0: a473 15bd 7354 b13c d67b 563d 2a9f 3f3d
000002e0: 5e90 65bc ed48 a83b 683e 363d b85b 9f3c
000002f0: b987 8e3d e0f9 853d 83b0 0b3d e3bd a73c
00000300: 2339 833c 5083 5c3d 6838 c9bb 9311 e33c
00000310: d5c3 ec3c a668 873c f3b2 693c 5c2d 553d
00000320: d638 fcb9 6733 87bc 3bd3 09bc 4157 1e3d
00000330: 2ac7 303c 35cb 223d 11e3 2f3d bada c6bc
00000340: 293b 9d3c 96c2 fcba b291 52bd 9087 50bd
00000350: 4510 893c b5c8 3dbd 4de0 903c e891 d9bc
00000360: fe68 4f3d 45c0 25bd 2399 4d3d dace c2bc
00000370: 426d 0cbd 371b 463b fa3f 90bc 0d9c 763d
00000380: f92c 773d c154 573c 0d4c 17bd ed94 15bd
00000390: 06ca 4ebd f0fe 273d caa3 4ebd bc0a 0dbd
000003a0: e55c a1bc 2bc1 a2bb d361 91bc 7c17 003d
000003b0: d0bb 193d 6d92 31bd 11ec a33c bee7 20bd
000003c0: 5b39 243c 9883 4abd 00bb 19bd 9e60 c63c
000003d0: 190e 503c 9804 72bd 4aee 6abc caf6 70bd
000003e0: 8375 3ebd 35a6 3c3c 0cf7 7fbd 2f28 60bd
000003f0: 6c3e f4bc 6916 cfbc 9cc9 8c3d cf21 c93c
-0.0045056753 0.042859998 -0.03073135 -0.005209649 0.004907604 -0.021797437 0.014402169 0.067875065
0.04220029 0.0060474062 0.02287445 -0.033112347 -0.056805328 0.0067444243 0.01980792 -0.030871928
0.004760265 -0.027564796 0.073405735 -0.0039886017 -0.024071304 -0.0140425125 0.053952634 0.011779216
0.07897972 0.0034896454 -0.0094641475 0.005163322 -0.051370393 -0.025732031 0.014855935 -0.045555994
-0.04072504 -0.049686268 0.017868325 0.028096203 -0.055790894 -0.027388154 0.020340629 0.011712416
-0.03971989 0.015942715 -0.046229728 -0.052786563 0.0081599895 -0.020706799 0.017150946 -0.0012794813
0.0174673 -0.054842427 -0.012356378 0.022913255 -0.08029082 -0.03582055 0.037705626 0.053885825
0.06690005 0.066250004 -0.015684582 0.019771326 0.0403187 0.059121005 0.032799862 0.011060834
0.057241373 0.057399277 -0.003514243 0.03465247 0.068959095 0.039361414 -0.011754048 0.06010141
0.020376025 -0.065843664 0.030314041 -0.06760726 -0.020305397 0.034588262 0.010054717 0.029256329
0.013055114 0.003417451 -0.015881537 -0.01858091 0.061018918 0.04281535 0.0042423513 -0.009114354
-0.030922126 -0.009165009 -0.04044914 -0.049765777 -0.031359024 -0.04888144 -0.022561003 -0.059224583
0.008324556 -0.0025005701 -0.03841574 -0.008453737 -0.057220913 0.021784458 -0.027180312 -0.06107193
-0.057013404 -0.04345319 -3.827346e-06 -0.03326303 -0.013960976 0.01800079 0.0034749305 -0.0645854
0.018071461 0.035680965 -0.04908754 -0.052939154 0.0012849435 0.026417349 0.017216427 0.007022119
-0.019942854 0.015232344 0.027177606 0.065289035 0.019893484 0.06671625 -0.06188818 0.010773378
-0.039314386 -0.007469559 0.027324794 -0.0018337471 -0.017662121 0.035517998 -0.0035600427 0.041724924
0.05522825 -0.007192345 0.01855405 0.0075419336 -0.026738746 0.04548089 0.052740443 -0.019258901
0.065624304 0.005849599 -0.019137755 0.068639435 0.05099086 0.060911212 -0.0009373195 -0.019820249
0.043647815 -0.04452266 0.004048143 -0.060944427 -0.005539818 -0.05325339 0.0030735473 -0.03125697
0.029795077 -0.060667165 -0.0138339875 0.017311327 0.046549015 -0.0008059181 0.057243932 0.06205733
-0.016117996 0.029101077 0.04679741 0.045916833 0.05421588 -0.018141814 -0.0072792503 0.008008011
0.00559748 0.060939357 0.008393793 0.008825113 -0.036487237 0.021646714 0.052364193 0.04678265
-0.014011471 0.0051356466 0.04449311 0.019452915 0.06959481 0.065418005 0.03410388 0.020476287
0.016018456 0.053836167 -0.0061407574 0.027718341 0.028901974 0.016529392 0.014263856 0.05204521
-0.00048107532 -0.016504003 -0.008412178 0.03865743 0.010789672 0.039744575 0.042941157 -0.024274219
0.019193249 -0.0019284065 -0.051408477 -0.050910532 0.01673139 -0.046333987 0.01768508 -0.026558831
0.050637238 -0.040466566 0.05019487 -0.023780275 -0.034283884 0.0030228624 -0.017608631 0.060207415
0.060345624 0.0131427655 -0.036937762 -0.03651898 -0.050485633 0.04101461 -0.05044917 -0.034434065
-0.019697616 -0.004966875 -0.017746842 0.031272396 0.037532628 -0.043352533 0.020010026 -0.039283507
0.01002344 -0.049441904 -0.037531853 0.024215993 0.012698674 -0.059086412 -0.014339039 -0.058829106
-0.046498787 0.011514236 -0.06249146 -0.054725822 -0.029814921 -0.02527924 0.068743914 0.024552254

encoder.final.block.0.bias f4 [3]
00000000: ddcf 0c3d 0c60 b73d 7604 5f3d
0.03437792 0.08953866 0.054447614

decoder.initial.block.0.weight f4 [32, 3, 3, 3]
00000000: 5679 4b3d 8332 91bd f806 4a3d 4ea7 c13d
00000010: 901a ce3d 413b 2a3d ba19 81bc 887b 44be
00000020: 0f89 943d a949 2dbc dc2d b5bd 5dfe 203d
00000030: db12 ce3d 768f ec3c cd25 803c 990e 58bd
00000040: 8e2b 2ebe 184a cdbc d241 50bb 38b6 fa3d
00000050: 4e4f a2bd 018d 15bd bad4 12be d01c 01be
00000060: 6bf8 18be 5e87 a1bd c84a 29bd c221 073e
00000070: 0219 023d c882 9a3d 1d9c f93c 7b86 c43d
00000080: 369d 7abe 3ae8 f0bd e1fa 2cbd 3c05 f93d
00000090: d28e a7bd 5df7 e2bc ddd6 f4bd 6e59 15be
000000a0: c9b2 133e 7e9f 553d 7879 373d 5c8d 1c3e
000000b0: 29d6 253e 9579 15be f549 273e 9fea bb39
000000c0: 7bb4 9bbd 920b 3cbe 3551 2c3e 42a1 a4bd
000000d0: 45f4 dc3d 41b4 0b3d c76d b2bc b833 493b
000000e0: bf93 483c 7201 8b3c 5571 9bbd 37ff 05be
000000f0: 3d51 d33d 74a4 cfbd bd34 f9bd aecf 0abe
00000100: 3c47 d03d 4914 b73c e953 a8bd ddc4 17be
00000110: cae4 87bd 1032 2b3e b3e7 a9bd 50a6 83bc
00000120: baf6 6fbd 56bf 053e 333a 0bbd 4974 bdbd
00000130: 9079 c2bd d510 d63d 1f8d 0abd 45b4 8d3c
00000140: 4450 f23d dfbf edbd 8aea adbc 50bf 413d
00000150: 7730 11be a94d debd e213 e4bd 72bb e93d
00000160: 99f1 11be 0205 f3bd 0823 43bd 274b 50bd
00000170: 9afc 7c3d 4a21 913d a781 99bd c6ab b83c
00000180: 29e8 02bd 0822 f0bd 4693 343e 7d47 01be
00000190: 6834 37bc 89f1 c13d b22e 87bd 1f77 c03d
000001a0: 0d3e 6ebd 23c9 143d 8eea 303e cf01 5ebe
000001b0: 02fb 28be 2446 333e 595e 96bd d3a3 90bd
000001c0: f1c7 b43d dcc1 d93d d327 0c3e 143e 1a3d
000001d0: 9b3d 2cbe a3a0 5b3e effe 34be a97c a63d
000001e0: 4499 bf3c be87 3cbe 0a75 a13d 1c7b 74bd
000001f0: 87fa e43d 5ce0 a83d 3bde 7ebd 07c6 0bbd
00000200: c120 fd3d b665 113e 6541 cebd d67b c9bb
00000210: 51c3 b8bd 0eea 483d 71e9 2abd 81da 13be
00000220: dedd fdbb db9e 8139 15f7 00be 7125 263d
00000230: 4a81 063e 79f9 643d 9d57 87bc 6be8 82bd
00000240: f761 efbd 71da 553d bb2b 053e 3748 a83c
00000250: e959 05be 668a 2cbe 1396 583c b27e 253e
00000260: 74f2 84bd c954 c73d daac 223e d2cd 38be
00000270: b0ba 72bc 3218 c8bd 65f7 6c3d 7049 52bd
00000280: 3a00 67bc b801 aabc 7bce dfbd f55e e63d
00000290: 2433 3abe f0de ae3c 16ec cbbd 7232 0e3e
000002a0: 4646 91bd 4804 103e 7f4e 8ebc 14f3 d2bc
000002b0: 4f9e b83d f8b2 d53d f65c edbd 7bea 97bc
000002c0: 6715 4cbd e09b 713d bcee 1bbe c8ac 123e
000002d0: 2093 dabd 8826 00bd 1184 063e 8ddf 943d
000002e0: b347 9a3d ff69 2abe 64d8 e5bb acb2 83bd
000002f0: 026b 8cbb 95f2 053e 842d 0bbe da4d 413e
00000300: 4446 e1bd af96 0abe 3429 fd3c 3818 09be
00000310: 577e 95bd 1677 4a3d aba4 0e3c a262 113e
00000320: 8d24 ebbd dd83 c1bd 3d24 2f3e 3e67 13be
00000330: b03a 543e 2bb7 b1bd c3b2 3abd 07a2 8cbd
00000340: 3664 99bd 64c1 fbbd 14e1 c7bc 518f abbd
00000350: 1408 0c3e e758 e43c 2499 18be e8b7 b53d
00000360: 90f7 a5bd 66f0 cfbc e8d1 2abe 70b4 953c
00000370: 8349 e13b 3ec9 e43d 63c2 6abd dc93 b43b
00000380: cef3 3d3d b9f8 98bd d692 0ebe bc76 65bd
00000390: 1960 a53d 535e 073c a858 053d 6756 ad3d
000003a0: 995e 043e af88 21be 6b19 b0bc ded2 dcbd
000003b0: 0f2d 5a3e f1d5 f2bd 6b76 9bbd 6c0d 13be
000003c0: 87e5 e43c b50d 22be 0f31 e4bd e0ac babd
000003d0: 94e9 90bd 0123 2cbd 4cfb 353e 2f9e c4bd
000003e0: 597d 5f3d 986c 9cbb 0f1f 46bd cfdf 5d3d
000003f0: b690 133d 1208 f5bd 5ca1 b2bd 98da ea3d
0.04967626 -0.070897125 0.049323052 0.09455739 0.1006366 0.041560415 -0.015759338 -0.19187748
0.07252704 -0.010576644 -0.088466376 0.03930508 0.1006219 0.028877001 0.015643025 -0.052748296
-0.17008802 -0.025059745 -0.0031777513 0.12241787 -0.079252824 -0.036511425 -0.14338961 -0.12608647
-0.14938514 -0.07887147 -0.041331083 0.13196471 0.03176213 0.07544476 0.030469948 0.095959626
-0.24474034 -0.11763044 -0.042231444 0.121592015 -0.08181538 -0.027705843 -0.119550444 -0.14584896
0.1442367 0.052154057 0.044793576 0.152883 0.16194977 -0.14597161 0.16336806 0.00035842226
-0.07602783 -0.18363789 0.16827853 -0.0803857 0.10788778 0.03410745 -0.021780862 0.0030700993
0.012242257 0.016968463 -0.07589976 -0.13085638 0.10318229 -0.10138789 -0.12168262 -0.13555786
0.10169837 0.02234854 -0.082191296 -0.14821191 -0.06635435 0.16718316 -0.08296146 -0.016070515
-0.058584906 0.1306127 -0.03399105 -0.09250695 -0.094958425 0.10452429 -0.03382599 0.017297873
0.11831716 -0.11608862 -0.021230001 0.04730159 -0.14178644 -0.10854656 -0.11136605 0.114127055
-0.14252318 -0.118661895 -0.04764083 -0.05085292 0.061764337 0.070864275 -0.07495432 0.022542845
-0.031959686 -0.11725241 0.17634305 -0.12624927 -0.011181928 0.09469897 -0.06600703 0.093977205
-0.058164645 0.03632463 0.17276976 -0.21680377 -0.16502002 0.17507225 -0.07342214 -0.07062497
0.08827198 0.10632679 0.13687067 0.03765686 -0.16820376 0.21447997 -0.17675374 0.08129246
0.023388512 -0.18411157 0.078836516 -0.05968772 0.11180597 0.08245918 -0.062223654 -0.0341244
0.12359763 0.14198956 -0.10071067 -0.0061487956 -0.09021629 0.049051337 -0.041726533 -0.14438821
-0.007747396 0.00024723154 -0.12594254 0.04056305 0.13135257 0.05590198 -0.01652127 -0.063919865
-0.11688607 0.052210275 0.13004963 0.020542247 -0.13022579 -0.1684967 0.013219374 0.16161612
-0.06491557 0.09732968 0.1588625 -0.18047264 -0.014815018 -0.0977024 0.05785312 -0.051339567
-0.014099175 -0.020752773 -0.10928055 0.1124858 -0.18183571 0.02134654 -0.09957139 0.13886431
-0.07093482 0.14064133 -0.017371414 -0.025750674 0.0901457 0.10434526 -0.115899965 -0.018544426
-0.0498251 0.058986545 -0.15227789 0.14323723 -0.10672593 -0.031286746 0.13136317 0.072692014
0.07533207 -0.16641997 -0.007014321 -0.06430563 -0.0042852173 0.13080819 -0.13591582 0.18877354
-0.1099973 -0.13534044 0.030903436 -0.13388145 -0.07299488 0.049429975 0.008706252 0.14197782
-0.11481581 -0.09448979 0.17103668 -0.14394853 0.20725513 -0.08677515 -0.045580637 -0.06866842
-0.07489817 -0.12292746 -0.024399318 -0.08376945 0.13674957 0.027874423 -0.14902169 0.08872968
-0.081038594 -0.025383186 -0.16681635 0.018274516 0.0068752184 0.111711964 -0.057314288 0.0055107903
0.04637509 -0.07469315 -0.13923201 -0.056021437 0.0807497 0.008262235 0.032555252 0.084637456
0.12926711 -0.15774797 -0.021496495 -0.10782407 0.21306251 -0.11857212 -0.07590946 -0.14360589
0.027941478 -0.15825541 -0.1114217 -0.091150045 -0.070758015 -0.04202557 0.17771643 -0.096004836
0.0545629 -0.0047736876 -0.048369464 0.05416852 0.03602668 -0.1196443 -0.08722183 0.11467475

decoder.initial.block.0.bias f4 [32]
00000000: 371c 76be 33bc abbd db43 22be 87ab 20be
00000010: f2bd 90bd 9460 96bd 8f8a 973d ac3b 423e
00000020: c675 d2bd 9a11 16be 0f86 a8bd d18f 0a3e
00000030: 26a8 3b3d c5c8 2abe 56a0 03bd 438f 1e3e
00000040: ca53 a4bd 6bfc 1e3e b021 343d d9bd a23d
00000050: cad0 9b3d 812e d93d 56ef 6abd 7471 da3d
00000060: 1a92 343e 1ec4 243e 8cd3 d8bd c091 463d
00000070: 2825 fd3d fea5 ba3d 9360 873d a1d6 153e
-0.240342 -0.083855055 -0.15846197 -0.15690432 -0.07067479 -0.073426396 0.07399475 0.18968076
-0.1027637 -0.14655152 -0.08228695 0.13531424 0.045814656 -0.1667815 -0.03213533 0.15484338
-0.08023794 0.15525977 0.04397744 0.07946367 0.07608183 0.10604573 -0.057357155 0.10666171
0.17633858 0.16090438 -0.10587224 0.04847884 0.123606026 0.09113692 0.06610217 0.14632656

decoder.initial.block.2.weight f4 [32]
00000000: 4dd9 723f edb7 743f 1f7d 6e3f 7226 703f
00000010: dec6 7d3f 10ee 673f e141 703f 330b 783f
00000020: 072c 6f3f 8745 713f b004 663f 63ff 7a3f
00000030: 9c40 683f b1bd 763f 037e 713f bdb5 853f
00000040: cd38 703f 0b40 863f 0084 813f 8a12 8a3f
00000050: 078e 6e3f 8857 5f3f 377e 803f 42b1 853f
00000060: 9347 6f3f 4b15 7b3f 869a 6b3f 9572 833f
00000070: 8673 843f 2a3b 823f 790c 843f f842 843f
0.94862825 0.9559315 0.9315967 0.9380866 0.9913157 0.9059763 0.93850523 0.9689209
0.93426555 0.94246715 0.898509 0.9804594 0.90723586 0.96383196 0.94332904 1.0446087
0.9383667 1.0488294 1.0118408 1.0786908 0.93185467 0.8724294 1.0038518 1.044472
0.9346859 0.98079365 0.9203266 1.0269343 1.0347755 1.0174305 1.0316306 1.0332937

decoder.initial.block.2.bias f4 [32]
00000000: d3ad 0d3e df9f b6bb 13a0 c93d 8198 fe3d
00000010: d4ad 803d c5bf ac3d 8d33 e9bc bd2a 283d
00000020: 1b98 eebc 65a2 083d 474e f53d 7e69 e13c
00000030: 8a75 bf3d a567 bd3c 41cd 853d bd97 a03d
00000040: 6d05 1d3e 6450 0d3e 494a a03d b62f 5d3c
00000050: ee2a 563d f7bc 0bbe 8719 c83c 9b8d 113d
00000060: 18a0 e73d 56e0 a73d 2c7d 29be 9704 853d
00000070: 520b 063d 792c b43d 99ba 14bc ec5b 833d
0.1383584 -0.0055732573 0.09844985 0.124314316 0.06283155 0.08435015 -0.028466964 0.041056383
-0.029125264 0.033357996 0.11977821 0.027516123 0.09348591 0.02312071 0.0653329 0.07841442
0.15334101 0.13800198 0.07826669 0.013500145 0.052287035 -0.13646303 0.024426235 0.035535436
0.11309832 0.081970856 -0.16551656 0.06495016 0.03272564 0.08797545 -0.0090776915 0.06414017

decoder.initial.block.2.running_mean f4 [32]
00000000: 0545 98bb 34c2 2c3d b330 7bbb efab 95bb
00000010: 13eb 0b3d 22b4 04bb 5ebd d23c 708e 333d
00000020: 4716 84bb 28f6 81bb 19c1 0abb 1c8e b33e
00000030: c9e4 893c 2d86 eb3c f0d6 433c 5061 433e
00000040: 4d7a fb3c aa6c 143e ab56 5b3d dc7b cd3d
00000050: 5f30 ce3c 990c 073d b33e a13e 59f0 f13d
00000060: dc47 3a3d 4ba0 2a3d 603a 80bb 9ec2 843d
00000070: 4d21 0c3e e33a f73d 7855 ca3e 3737 023e
-0.0046468996 0.042177394 -0.0038328588 -0.004567615 0.03415973 -0.002024897 0.025725063 0.04383701
-0.004030976 -0.0039661117 -0.0021172224 0.35069358 0.016832726 0.028750503 0.011953101 0.1908009
0.030697966 0.14494577 0.05354945 0.1003339 0.02516955 0.032971 0.31493148 0.11813421
0.045478687 0.041656774 -0.003913209 0.06482433 0.13684578 0.120717786 0.39518332 0.12716375

decoder.initial.block.2.running_var f4 [32]
00000000: 3346 0e36 6ad5 293b 648c 8c35 a54d e135
00000010: 72e0 ae3a 3969 ff34 69bb 3f3a f261 3a3b
00000020: 19bd 3a36 bab5 d935 f66a f534 422b 653c
00000030: 3696 303a aa14 fe3a 6553 c13a 7fa7 233b
00000040: 37bc dc3a 4cc0 8e3a 1bc1 c339 6b7b 803a
00000050: 9bd5 943a 7a91 f33a bd50 f23c b016 233a
00000060: 1e43 803b bb19 0e3b 1371 2936 688e fc39
00000070: d487 6e3a 3870 af3a e2da c93c 5ab9 803a
2.120051e-06 0.0025914558 1.0471672e-06 1.6786404e-06 0.0013342036 4.757401e-07 0.0007313998 0.0028439728
2.782623e-06 1.6220649e-06 4.571263e-07 0.013987364 0.00067362504 0.001938482 0.0014749585 0.0024971662
0.001684076 0.0010891049 0.00037337173 0.0009802406 0.0011355163 0.0018582784 0.029579515 0.0006221337
0.003914251 0.0021682817 2.524878e-06 0.00048171286 0.00090992195 0.0013384884 0.024640504 0.0009820864
