results/models/leaky/LeakyResidualSteganoGAN/1/epoch_16.pth (torch, 308383 bytes, 58 tensors)

encoder.initial.block.0.weight f4 [32, 3, 3, 3]
0	0xbdafc523	-0.08582523
1	0x3cf6be82	0.030120138
2	0x3e0a9502	0.13533404
3	0xbe221280	-0.1582737
4	0x3e624e57	0.22100197
5	0xbe31abd0	-0.17350698
6	0x3d1e2f02	0.03861905
7	0x3d856526	0.06513433
8	0x3e0f1071	0.13971116
9	0x3db63156	0.08896129
10	0xbc1aaef0	-0.009441122
11	0x3d93599f	0.07194828
12	0xbcd009b6	-0.025395256
13	0xbdd5ad51	-0.10433448
14	0x3d4fd1d0	0.050737202
15	0x3e090397	0.13380276
16	0xbdef4926	-0.11683874
17	0x3d5904c4	0.05298306
18	0xb987d480	-0.0002590753
19	0xbd45b36e	-0.04826682
20	0xbe1eb200	-0.15497589
21	0x3e38710e	0.18011877
22	0xbd35154f	-0.044209775
23	0x3e19e46a	0.1502854
24	0xbd2a2a2d	-0.04154413
25	0x3d6ef464	0.058338538
26	0xbe14c138	-0.14526832
27	0x3d611fdf	0.054962035
28	0xbe4121a3	-0.18860488
29	0x3cc59630	0.024119467
30	0x3dce4cd8	0.100732505
31	0xbd4ba5d1	-0.04971868
32	0x3d5d398f	0.05400997
33	0xbdf3ade1	-0.11898399
34	0xbe161440	-0.14656162
35	0xbd9ed8af	-0.07756173
36	0xbe3db949	-0.18527712
37	0x3dbf1433	0.093300246
38	0x3d959b8f	0.07305061
39	0x3d34c6c2	0.044134863
40	0x3d7b1bae	0.061305694
41	0x3defaf10	0.117033124
42	0x3e084287	0.13306628
43	0x3de01547	0.10941558
44	0xbe57d754	-0.21078235
45	0x3d29aeeb	0.04142658
46	0x3dd56783	0.10420134
47	0xbe0c139f	-0.1367936
48	0xbe16c3fd	-0.14723201
49	0xbe15a56b	-0.14613883
50	0xbcf2a605	-0.02962018
51	0x3d8265b1	0.06367052
52	0xbcc32379	-0.023820626
53	0x3d7d0628	0.06177345
54	0x3de3eb35	0.111288466
55	0xbb6fde43	-0.0036600984
56	0x3d392864	0.045204535
57	0x3e23c0f5	0.15991576
58	0x3d78817e	0.06067037
59	0x3db784f1	0.089609034
60	0xbe2d712d	-0.16937704
61	0x3d3f5ad5	0.046717484
62	0x3e034fb1	0.12823369
63	0x3ca17c59	0.019712614
64	0xbca956d1	-0.02067128
65	0xbcd6c362	-0.026216213
66	0x3d6a8782	0.057258137
67	0xbd03fcf1	-0.032223646
68	0x3d695cd3	0.05697329
69	0x3df53f4e	0.11974965
70	0x3dbc181d	0.09184287
71	0xbd470d56	-0.048596703
72	0xbe008bc4	-0.12553316
73	0x3e499e91	0.19689395
74	0x3dc39046	0.09549002
75	0xbe162f34	-0.14666444
76	0xbd8285d3	-0.06373181
77	0xbe192b79	-0.1495799
78	0x3e225916	0.15854296
79	0xbbb78617	-0.0056007016
80	0x3d2bc874	0.041939214
81	0xbdbf479f	-0.093398325
82	0xbdb00d50	-0.08596289
83	0xbe085f4f	-0.13317607
84	0x3ddee3fb	0.108833276
85	0xbd6139c2	-0.054986723
86	0x3c03fcbc	0.008055862
87	0xb9b3b3f7	-0.00034275625
88	0xbd89e59c	-0.06733248
89	0x3cc22dad	0.02370342
90	0xbd8020bd	-0.06256244
91	0x3e3293ec	0.1743924
92	0xbd1a0658	-0.037603706
93	0xbe88a30a	-0.2668689
94	0xbbe30904	-0.006928565
95	0xbd1df996	-0.0385681
96	0xbcb55ac0	-0.022138
97	0xbcaf8cf6	-0.02142952
98	0xbd7661e8	-0.060151964
99	0x3df2037d	0.118170716
100	0xbe08ace5	-0.13347204
101	0x3e1b2f07	0.15154658
102	0x3dc82830	0.0977329
103	0x3d15a2d5	0.03653224
104	0xbe0eea04	-0.13956457
105	0xbdfa3e50	-0.122189164
106	0x3cbfa339	0.02339326
107	0x3df8a441	0.12140704
108	0xbdab7e23	-0.08373668
109	0xbe0296b0	-0.12752795
110	0xbc5703d8	-0.013123475
111	0xbdf40ef4	-0.119169146
112	0xbd09e608	-0.03366664
113	0xbdaeddd3	-0.08538403
114	0x3cf60c88	0.030035272
115	0x3d2860f4	0.041108087
116	0x3e00bb50	0.12571454
117	0x3e0bc216	0.13648257
118	0xbd911bbf	-0.0708537
119	0xbc762a15	-0.015024682
120	0xbce27650	-0.027644306
121	0x3c84c230	0.016205877
122	0xbd921bb9	-0.07134194
123	0x3dee56b2	0.116376296
124	0xbe34ddfd	-0.17662807
125	0xbdf3a758	-0.11897153
126	0xbe0afa99	-0.13572158
127	0x3dc858f8	0.097825944
128	0xbd8ea13d	-0.069643475
129	0x3cd1519d	0.025551612
130	0x3d3f63e0	0.046726108
131	0x3e17f9f6	0.14841446
132	0xbdd6dea3	-0.10491683
133	0x3dc06900	0.09395027
134	0xbd7a12d9	-0.06105313
135	0xbd1a49f6	-0.03766819
136	0xbe1a056b	-0.1504113
137	0xbd9a218a	-0.07525928
138	0x3deaa1a0	0.11456609
139	0x3da47d20	0.08031678
140	0xbcd2418f	-0.025666026
141	0xbcfe7a98	-0.031064317
142	0xbd89f51c	-0.06736204
143	0x3dd7ae24	0.105312616
144	0x3ddd6233	0.10809746
145	0xbc7d189f	-0.015447765
146	0x3da19262	0.078892484
147	0xbdc99392	-0.098426
148	0x3e0f20e2	0.13977388
149	0x3d80aa7a	0.06282516
150	0xbe1b4e7d	-0.1516666
151	0x3d1a8c9a	0.037731744
152	0xbe48919c	-0.19586796
153	0xbbe45484	-0.006968083
154	0x3e06b802	0.13156131
155	0xbd9888e2	-0.07447983
156	0xbe05571b	-0.1302151
157	0xbe0c8320	-0.13721895
158	0xbc6eb1d8	-0.014568768
159	0x3e41d1ee	0.18927738
160	0xbd22cd08	-0.039746314
161	0x3d8629f3	0.0655097
162	0xbdb4e7cf	-0.088332765
163	0x3e0a181c	0.1348576
164	0x3ccc8e9a	0.024970341
165	0x3da3e04e	0.08001767
166	0x3e01d7a8	0.12679923
167	0xbcc02455	-0.023454824
168	0xbd0e9289	-0.034807716
169	0xbdc15263	-0.09439542
170	0x3e88154d	0.2657875
171	0xbe05e5cc	-0.13075942
172	0x3db92d24	0.09041813
173	0x3ddc6c57	0.10762852
174	0x3de81716	0.11332528
175	0x3d975bd6	0.07390563
176	0xbd5f5bcb	-0.0545309
177	0x3da81dcc	0.08208808
178	0xbd866dc3	-0.06563904
179	0x3dec66bb	0.11543032
180	0x3e4051da	0.18781224
181	0x3cf5d67b	0.030009499
182	0x3ce54c1c	0.027990393
183	0xbde27e8b	-0.110592924
184	0xbdeed184	-0.11661056
185	0x3e12c146	0.1433154
186	0xbb7856d7	-0.0037893557
187	0x3d88deea	0.066831425
188	0xbd876186	-0.06610398
189	0x3d6da63f	0.058019873
190	0x3e329281	0.174387
191	0x3da587e2	0.08082558
192	0x3d8d32ef	0.068944804
193	0xbd352455	-0.044224102
194	0x3dc3c514	0.09559074
195	0x3de9d084	0.11416724
196	0xbe4340ea	-0.19067731
197	0xbcfb26e3	-0.030658191
198	0xbe49106a	-0.19635168
199	0x3d0863c9	0.033298288
200	0xbe445c50	-0.1917584
201	0xbd81dd6f	-0.06341063
202	0xbbc13aca	-0.005896901
203	0x3dc03bad	0.09386382
204	0x3cd76098	0.026291177
205	0x3e102c6c	0.14079446
206	0x3d14b571	0.03630585
207	0x3e397eac	0.18114728
208	0xbe3af9fb	-0.18259422
209	0x3dc86d4f	0.09786474
210	0xbd9a3968	-0.075304806
211	0xbd1775dc	-0.036977634
212	0xbe310dda	-0.1729044
213	0xbe60b7db	-0.21945135
214	0xbb08b0f4	-0.0020857425
215	0xbdbea16d	-0.09308133
216	0x3db18679	0.08668227
217	0x3e02fa20	0.12790728
218	0x3cae5ae2	0.02128357
219	0x3ce3b50e	0.027796295
220	0xbe065ed9	-0.13122119
221	0xbdf664b9	-0.1203093
222	0xbdbb1200	-0.091342926
223	0x3e337a7b	0.17527191
224	0x3be0ac31	0.0068564643
225	0xbcfc3801	-0.030788423
226	0xbe25d18c	-0.16193217
227	0xbcf1e0bc	-0.029526107
228	0x3d6fec55	0.058574993
229	0x3e2e5f45	0.1702853
230	0x3defe680	0.11713886
231	0x3e510e22	0.20415547
232	0xbe483fa9	-0.19555534
233	0x3e0c6758	0.13711298
234	0xbc8f72c0	-0.017510772
235	0x3da69148	0.08133179
236	0x3d202de6	0.039106272
237	0xbd8fea36	-0.07027094
238	0xbcc2e2d4	-0.0237898
239	0xbc33e3e8	-0.01097963
240	0xbdd1b18a	-0.10238941
241	0x3d9f43f3	0.07776632
242	0xbdf5ac17	-0.11995714
243	0xbe0fdb1d	-0.14048429
244	0xbdcb0e3d	-0.09914825
245	0xbe2d8a7c	-0.16947359
246	0xbe3f9d1c	-0.18712276
247	0xbdbd0918	-0.0923025
248	0xbe07d560	-0.1326499
249	0xbcee1c0f	-0.029066114
250	0xbe08d050	-0.13360715
251	0x3d951711	0.0727979
252	0x3c2d4715	0.010576029
253	0xbcab7c17	-0.020933194
254	0xbd8d676e	-0.06904493
255	0xbe12e85e	-0.14346454

encoder.initial.block.0.bias f4 [32]
0	0x3dd75e9d	0.10516093
1	0x3e126257	0.14295326
2	0xbd34a659	-0.044103954
3	0x3d8ba910	0.068193555
4	0x3da5ef9a	0.08102341
5	0xbddb24e6	-0.10700397
6	0x3da8da54	0.08244768
7	0x3da347c7	0.07972675
8	0xbe10f388	-0.141554
9	0xbb2d3f25	-0.0026435342
10	0xbd659823	-0.056053292
11	0xbdb908c3	-0.09034874
12	0xbd99db0b	-0.07512482
13	0xbd31da78	-0.04342124
14	0xbe134554	-0.14381915
15	0x3c70032d	0.014649195
16	0xbe16f43d	-0.14741607
17	0x3de7853d	0.1130471
18	0x3e28a99f	0.16470955
19	0xbdd3c47d	-0.103402115
20	0x3e1ad814	0.1512149
21	0xbe38b949	-0.1803943
22	0xbdfe6fd9	-0.12423677
23	0x3db4b99d	0.088244654
24	0xbd3c9cb0	-0.046047866
25	0xbe009a12	-0.12558773
26	0x3e1aae96	0.15105662
27	0xbdac9454	-0.08426729
28	0x3dcdfe05	0.10058216
29	0xbdc1bab0	-0.09459436
30	0x3d48812a	0.048951305
31	0xbe1fa6dc	-0.15590996

encoder.initial.block.1.weight f4 [32]
0	0x3f777202	0.9665834
1	0x3f69f3ab	0.9138743
2	0x3f83cb96	1.0296504
3	0x3f849a54	1.0359597
4	0x3f80ffd8	1.0078077
5	0x3f7520bb	0.9575307
6	0x3f73475f	0.9503078
7	0x3f7070ae	0.93921936
8	0x3f7e7e96	0.99411905
9	0x3f7bf6b9	0.98423344
10	0x3f6942d4	0.91117597
11	0x3f707807	0.9393315
12	0x3f71e1f1	0.94485384
13	0x3f7ce1ef	0.9878225
14	0x3f7d8bdd	0.9904154
15	0x3f7a811f	0.97853273
16	0x3f675cb1	0.9037581
17	0x3f7f6814	0.99768186
18	0x3f783240	0.96951675
19	0x3f7dde52	0.9916736
20	0x3f75c375	0.9600137
21	0x3f81fee9	1.0155917
22	0x3f7d8410	0.99029636
23	0x3f77d8eb	0.96815366
24	0x3f7939ff	0.9735412
25	0x3f74569b	0.9544465
26	0x3f717b97	0.9432921
27	0x3f7df6e8	0.99204874
28	0x3f73d948	0.9525342
29	0x3f7d7d69	0.99019486
30	0x3f77fd7d	0.9687117
31	0x3f637286	0.88846624

encoder.initial.block.1.bias f4 [32]
0	0x3e8ab7a7	0.2709324
1	0x3defe69d	0.11713908
2	0x3b93ffcd	0.004516578
3	0x3dce65c5	0.10078005
4	0x3db3ce88	0.08779627
5	0x3e9658b3	0.29364547
6	0x3c29351e	0.0103276055
7	0x3da1b9b7	0.078967504
8	0x3ebd216f	0.3693957
9	0x3c56a0a4	0.013099823
10	0xbbb473ca	-0.005506967
11	0x3e167b16	0.14695391
12	0x3db0269b	0.086011134
13	0x3dfd6783	0.12373259
14	0x3ce0ce62	0.027442161
15	0x3dbcf4c6	0.09226374
16	0x3c9cf122	0.01915795
17	0x3da769db	0.08174487
18	0x3cc88f74	0.024482466
19	0x3e22546e	0.1585252
20	0x3e1278b0	0.14303851
21	0x3ce00f48	0.027351037
22	0x3dfbf0ee	0.12301813
23	0x3e8a3ff2	0.2700191
24	0xbad2b848	-0.0016076649
25	0x3e7e7b73	0.2485178
26	0x3df9f1ba	0.12204309
27	0x3e96098c	0.2930416
28	0xbb91ac7b	-0.00444561
29	0x3d2f89ef	0.042856153
30	0x3e58eb8b	0.21183603
31	0x3be67f7b	0.00703424

encoder.initial.block.1.running_mean f4 [32]
0	0x3e75794a	0.2397205
1	0x3bfaf26d	0.007658294
2	0x3e8195a1	0.2530947
3	0xbe13eb0d	-0.14445134
4	0xbdddf410	-0.10837567
5	0xbe2a2536	-0.16615757
6	0x3eeb1fc1	0.45922664
7	0xbd1befe9	-0.038070593
8	0xbd25f03e	-0.040512316
9	0xbf109d7b	-0.56490296
10	0xbe92ba7b	-0.28657898
11	0xbe2bdad4	-0.16782695
12	0x3d10de25	0.035368104
13	0x3d9d06e2	0.076673284
14	0xbef055d2	-0.46940476
15	0xbe2b7178	-0.16742504
16	0xbedf6abf	-0.43636128
17	0x3e81138d	0.2521023
18	0x3f14c892	0.58118546
19	0xbe6b3676	-0.22969994
20	0x3eaa39c8	0.3324721
21	0xbb90a685	-0.004414382
22	0xbea343ae	-0.31887573
23	0xbcb5807c	-0.022155993
24	0xbf1f01ae	-0.6211194
25	0xbe68a082	-0.22717479
26	0xbe14face	-0.145488
27	0xbe5f61be	-0.2181463
28	0x3ef43fe2	0.4770499
29	0xbeee99df	-0.4660177
30	0x3e620d3e	0.22075364
31	0x3cfe5816	0.031047862

encoder.initial.block.1.running_var f4 [32]
0	0x3b8d1ef5	0.004306669
1	0x3b91e174	0.004451925
2	0x3c9d9726	0.019237112
3	0x3c2f52d5	0.010700901
4	0x3c045aa7	0.008078254
5	0x3a62c7e9	0.0008651005
6	0x3ce9846a	0.028505523
7	0x3c0c485e	0.008562176
8	0x3b2a0b78	0.0025946777
9	0x3d8b4bdc	0.068015784
10	0x3cb6cd10	0.022314578
11	0x3afe1c74	0.0019387142
12	0x3b5ffafc	0.0034176698
13	0x3b6e1afd	0.0036332004
14	0x3cbe5e35	0.02323828
15	0x3bf4b118	0.0074674003
16	0x3c973e83	0.018462425
17	0x3b8b44c8	0.0042501427
18	0x3d13f001	0.036117557
19	0x3b730da0	0.0037086979
20	0x3c189c9f	0.009314685
21	0x3be05605	0.006846192
22	0x3c0e0613	0.00866844
23	0x3b314a3e	0.0027052308
24	0x3d861669	0.06547243
25	0x3b6aca32	0.0035826084
26	0x3cc667a9	0.02421935
27	0x3b8b4733	0.004250431
28	0x3d0738ef	0.03301328
29	0x3cf6c19b	0.030121615
30	0x3be77c31	0.0070643653
31	0x3c14e951	0.00908883

encoder.block1.block.0.weight f4 [32, 33, 3, 3]
0	0x3c10d334	0.008839417
1	0xbd6920f7	-0.056916203
2	0xbcd3bea9	-0.02584775
3	0xbd1879f4	-0.03722568
4	0x3c4ecfd8	0.012622796
5	0x3c1ebfba	0.009689266
6	0xbcb88404	-0.022523887
7	0xbc8b97fe	-0.017040249
8	0xbce5fe66	-0.028075408
9	0xbd73af23	-0.059493195
10	0xbcdfe454	-0.027330555
11	0xbc43e034	-0.01195531
12	0x3d69350c	0.056935355
13	0xbc89c8c7	-0.01681937
14	0x3d122574	0.03568025
15	0x3d133a2f	0.03594416
16	0xbc6f61a4	-0.014610682
17	0x3cb8c5f5	0.02255533
18	0x3c863dc5	0.016386876
19	0xbd90166e	-0.07035528
20	0xbcbe223d	-0.023209685
21	0xbcf9a137	-0.030472381
22	0xbdaffda3	-0.08593299
23	0x3ce2eb6b	0.027700147
24	0xbd1ef48c	-0.038807437
25	0xbd68f22f	-0.05687159
26	0xbb2aba92	-0.0026051146
27	0x3d70d03c	0.058792338
28	0xbd29925f	-0.041399356
29	0xbbfceb64	-0.0077184904
30	0x3d0cb64d	0.034353543
31	0x3b4e22ea	0.0031453916
32	0x3ce3e35b	0.027818372
33	0xbc828d57	-0.015936537
34	0x3cfd16f4	0.030894734
35	0x3ca74156	0.020416897
36	0x3d5b94f1	0.05360884
37	0x3c10fb24	0.008848939
38	0x3d36825e	0.04455792
39	0x3cba843d	0.022768134
40	0x3d8b71a4	0.068087846
41	0x3c1cb650	0.009564951
42	0x3ce48ec6	0.02790011
43	0xbd89b9a8	-0.06724864
44	0x3d43c81c	0.04779826
45	0x3c7988c7	0.015230364
46	0xbce67068	-0.028129771
47	0xbcc26f91	-0.02373484
48	0x3cbcc425	0.023042748
49	0xbb21803b	-0.0024643082
50	0x3bc39a2b	0.005969306
51	0x3c1dc63d	0.009629783
52	0x3c1c4c84	0.009539727
53	0x3c93a0ef	0.018021075
54	0x3a411371	0.0007365263
55	0xbc6b99f2	-0.014379965
56	0x3b15a0e8	0.0022831503
57	0xbb222c67	-0.0024745704
58	0xbd1f65ba	-0.038915373
59	0xbcbb490c	-0.02286198
60	0xbca4ebc0	-0.020131946
61	0x390c75e4	0.00013395358
62	0xbc34c2ac	-0.0110327415
63	0x3cb89745	0.022533068
64	0x3c4a8f7d	0.012363312
65	0x3d537431	0.05162448
66	0xbc0855f1	-0.008321271
67	0x3c9c4028	0.01907356
68	0xbd656e18	-0.056013197
69	0x3b72ebb1	0.0037066753
70	0x3ca4e36c	0.020127974
71	0xbd37cbc8	-0.044872075
72	0x3bd87f9c	0.006607009
73	0xbd1258cd	-0.03572922
74	0x3afb4cf5	0.0019172715
75	0xbd37a2fd	-0.044833172
76	0xbd0abed3	-0.03387339
77	0xbcaf1263	-0.021371072
78	0xbcbee2fb	-0.023301592
79	0x3d342651	0.043981854
80	0xbc446234	-0.011986304
81	0xbc4b480f	-0.012407317
82	0xbbf9b4b3	-0.007620418
83	0x3d04a025	0.03237929
84	0xbbf5aaf5	-0.0074971863
85	0x3d044555	0.032292683
86	0xbc81215b	-0.015762975
87	0x3cb5ec5f	0.022207437
88	0xbd3df143	-0.046372663
89	0xbca307ae	-0.019901123
90	0x3ce0a134	0.027420618
91	0x3d221e36	0.039579593
92	0x3ce2373e	0.027614232
93	0xbd40e8cd	-0.047097016
94	0x3d1ab582	0.037770756
95	0x3d0bccaa	0.03413073
96	0x3c9bed99	0.019034194
97	0x3cd23c6d	0.025663579
98	0x3d616a2d	0.055032898
99	0xbc8d6dd0	-0.017264277
100	0xbd8e2ce5	-0.06942157
101	0x3d061019	0.032730196
102	0x3c2ff52b	0.010739605
103	0xbd07aaaf	-0.03312176
104	0x3c076a8f	0.008265152
105	0x3cf00cac	0.029302917
106	0x3cb8b034	0.022544958
107	0xbd405f21	-0.046965722
108	0xbca93875	-0.020656804
109	0xbc868f00	-0.01642561
110	0x3ceff2b5	0.029290536
111	0xbd005592	-0.031331606
112	0xbb66d514	-0.003522222
113	0x3cd95ad8	0.026532575
114	0x3d2c09eb	0.042001646
115	0xbd1e095c	-0.038583145
116	0x3c22af3a	0.009929473
117	0x3bb78700	0.00560081
118	0xbc7e583b	-0.0155239655
119	0x3c4fa83c	0.012674388
120	0x3b93af45	0.0045069777
121	0xbb8e9fb4	-0.004352534
122	0x3cabdf58	0.020980522
123	0xbc8d508c	-0.017250322
124	0x3c74015c	0.014892902
125	0xbcadfe76	-0.0212395
126	0x3caafdb6	0.020872932
127	0x3cf2118a	0.029549379
128	0x3d2530d0	0.040329754
129	0xbca603d9	-0.020265507
130	0xbca24862	-0.019809905
131	0x3d33b33f	0.043872114
132	0xbc2c4d61	-0.010516495
133	0x3d11844d	0.035526562
134	0xbd02af0f	-0.03190523
135	0x3c27ef85	0.010249977
136	0xbcb152df	-0.021645961
137	0xbd06a704	-0.032874122
138	0xbd540b6f	-0.051768716
139	0x3dce306a	0.10067828
140	0xbd42d844	-0.04756953
141	0xbd14ffab	-0.036376636
142	0x3d945004	0.07241824
143	0xbce2d327	-0.027688576
144	0x3d322947	0.043496396
145	0xbc85e388	-0.016343847
146	0xbb8da24b	-0.0043223253
147	0x3a298177	0.000646613
148	0x3d0bcf13	0.03413303
149	0x3c0f3698	0.0087410435
150	0xbd170f6f	-0.036879953
151	0xbd33a0ee	-0.043854646
152	0x3c0b66f4	0.008508433
153	0x3c858e45	0.016303191
154	0x3c8fd608	0.017558113
155	0x3be27c88	0.006911818
156	0xbc9f674c	-0.019458435
157	0xbc69568c	-0.014241826
158	0xbb9299de	-0.004473909
159	0x3c605df4	0.013694275
160	0xbd31beed	-0.04339497
161	0xbd794511	-0.060856882
162	0xbd1172bb	-0.035509806
163	0x3b2f1361	0.0026714432
164	0xbcc20e45	-0.023688445
165	0xbcf9747c	-0.030451052
166	0xbc644af6	-0.013933888
167	0xbd7aa764	-0.061194792
168	0xbd49051c	-0.04907714
169	0x3c5d962d	0.013524574
170	0xbbe80a09	-0.0070812744
171	0x3d0f2d59	0.034955356
172	0x3cbf6024	0.023361273
173	0x3cc86ee1	0.024466934
174	0x3d083a33	0.033258628
175	0x3d460dd5	0.048353035
176	0xbd0c113e	-0.03419613
177	0x3d26b641	0.040701155
178	0x3d057e1a	0.032590963
179	0xbc4318b6	-0.011907747
180	0xbc09d8c6	-0.008413499
181	0xbca6bc8a	-0.020353574
182	0xbd2d0e9c	-0.04225026
183	0xbcefa669	-0.029254155
184	0x3bd221ec	0.006412735
185	0xbcbd7f15	-0.023131886
186	0x3cbe325a	0.023217369
187	0xbb9204c9	-0.004456137
188	0xbc17ec0a	-0.009272585
189	0xbd9b3264	-0.075779706
190	0xbd0f15f8	-0.03493306
191	0x3cadf211	0.02123359
192	0xbd6a9baa	-0.05727736
193	0xbda709ad	-0.081561424
194	0xbd595690	-0.053061068
195	0x3cd25201	0.025673868
196	0xbd3ed342	-0.04658819
197	0xbc5fd018	-0.013660453
198	0xbaa75cd4	-0.0012768754
199	0x3d1c3743	0.03813864
200	0x3c13b4ae	0.009015245
201	0xbcb79116	-0.02240805
202	0x3d98c83e	0.07460068
203	0xbca26d3e	-0.019827481
204	0xbce1ef88	-0.027580038
205	0x3da267db	0.07929965
206	0x3d451700	0.048117638
207	0xbcea4521	-0.028597416
208	0xbd2a7940	-0.04161954
209	0x3c47a5fc	0.01218557
210	0x3b853c9b	0.0040660626
211	0x3d8c1055	0.068390526
212	0xbd035c02	-0.032070167
213	0x3c2c11ec	0.01050232
214	0xbc0e4959	-0.00868448
215	0x3d19e750	0.037574112
216	0x3d0a244e	0.03372603
217	0x3b8313de	0.004000171
218	0x3d46736c	0.04844992
219	0xbcb3177e	-0.021861788
220	0x3d0c5a03	0.03426553
221	0x3bf08f62	0.0073413113
222	0x3d491525	0.04909243
223	0x3b98c077	0.0046616155
224	0x3cecae49	0.0288917
225	0xbbc5ada3	-0.006032662
226	0xbcd3766f	-0.02581331
227	0xbd032f89	-0.032027755
228	0x3c630e34	0.013858367
229	0x3d3289b1	0.043588344
230	0xbd7bab78	-0.061442822
231	0xbcd9030f	-0.026490716
232	0x3a23d55f	0.00062497513
233	0x3c57da65	0.013174628
234	0xbc59ff9f	-0.013305574
235	0x3d1ddae3	0.038538825
236	0x3d4023a3	0.046908986
237	0xbca91aa9	-0.020642595
238	0xbb6a9493	-0.0035794124
239	0x3d4f4dc6	0.05061128
240	0x3cd2a660	0.0257141
241	0xbd1245c1	-0.035711054
242	0x3d1bc11f	0.03802597
243	0xb941a48b	-0.00018467211
244	0xbd328cca	-0.0435913
245	0xbc536144	-0.012901608
246	0x3ca5646e	0.02018949
247	0x3d77fc7a	0.060543515
248	0x3c91ab59	0.0177819
249	0x3c2d7ef4	0.01058935
250	0x3cf3ce1a	0.029761363
251	0x3cfd9158	0.030953094
252	0xbbd36f95	-0.0064525106
253	0xbcd0cedd	-0.025489265
254	0xbccb5938	-0.024822816
255	0x3d03ee11	0.03220946

encoder.block1.block.0.bias f4 [32]
0	0xbd0cb60e	-0.03435331
1	0xbd20f863	-0.03929938
2	0xbd2bed93	-0.041974615
3	0x3abcba9b	0.0014398874
4	0x3b0fdd08	0.0021951813
5	0x3cae3ca2	0.021269146
6	0x3cd4893a	0.025944341
7	0xbca874aa	-0.020563442
8	0x3c0a6934	0.008447934
9	0x3be8f35f	0.00710909
10	0x3cbfb94b	0.023403784
11	0x3cb9b34e	0.022668507
12	0x3d6ac19a	0.05731354
13	0x3cb1ec16	0.02171902
14	0xbcbe685a	-0.023243118
15	0x3d38e362	0.045138724
16	0xbd13b3e6	-0.036060236
17	0x3d397391	0.04527623
18	0x3d5e33f0	0.05424875
19	0xbc0db0f7	-0.008648149
20	0x3c1fc9c3	0.009752694
21	0x3d524d49	0.051343236
22	0x3d4f3e65	0.050596613
23	0x3b4b8c72	0.0031059054
24	0xbb76824b	-0.0037614282
25	0x3cfd8507	0.030947221
26	0x3d1b3a63	0.03789748
27	0x3d5a3ff0	0.05328363
28	0x3d07c2ed	0.03314488
29	0x3d2e04bf	0.042484995
30	0xbd4c93ef	-0.049945768
31	0xbc2cff27	-0.01055888

encoder.block1.block.1.weight f4 [32]
0	0x3f7ec2e9	0.9951616
1	0x3f6efb30	0.9335203
2	0x3f8017d5	1.0007273
3	0x3f7eacd6	0.99482477
4	0x3f814a41	1.0100785
5	0x3f7da172	0.9907447
6	0x3f7ff168	0.9997773
7	0x3f7ba644	0.98300576
8	0x3f80866b	1.0041021
9	0x3f7a6c0b	0.9782111
10	0x3f7ce575	0.98787624
11	0x3f810c62	1.0081904
12	0x3f832565	1.0245787
13	0x3f832ae2	1.0247462
14	0x3f81b9b1	1.0134794
15	0x3f75d5bd	0.96029264
16	0x3f7e5421	0.9934712
17	0x3f7587fe	0.9591063
18	0x3f77ddbc	0.96822715
19	0x3f6ce430	0.92535686
20	0x3f72e70e	0.9488381
21	0x3f813aea	1.0096104
22	0x3f6ce354	0.92534375
23	0x3f74444e	0.95416725
24	0x3f7dcb2b	0.99138135
25	0x3f7f39f6	0.99697816
26	0x3f802ee3	1.0014309
27	0x3f7e8053	0.9941456
28	0x3f7dc9c0	0.9913597
29	0x3f7fcbb0	0.9992018
30	0x3f8040e4	1.0019803
31	0x3f6ded06	0.92939794

encoder.block1.block.1.bias f4 [32]
0	0x3db9bd45	0.090693034
1	0x3df714c4	0.120645076
2	0x3d0f3d7b	0.03497074
3	0x3d5dbde5	0.054136176
4	0xbcedc005	-0.029022226
5	0x3d69456b	0.056950968
6	0x3d3ea2ec	0.046542093
7	0x3dc5f134	0.096651465
8	0x3d3c1e0d	0.045927096
9	0xba104a5d	-0.0005504245
10	0x3df9de91	0.12200654
11	0x3d1d9036	0.03846761
12	0x3ce5795c	0.02801197
13	0x3c9f9b96	0.019483369
14	0x3dbe8312	0.093023434
15	0x3da63237	0.081150465
16	0x3d3b3b19	0.045710657
17	0x3d494be6	0.049144648
18	0x3b56fb60	0.003280364
19	0x3e2a860d	0.16652699
20	0x3dca4917	0.09877222
21	0x3db14450	0.08655608
22	0x3ce5ed8c	0.028067373
23	0x3cdc1068	0.026863292
24	0x3d79fa6c	0.061029837
25	0x3e19313f	0.14960192
26	0x3c5843e4	0.01319978
27	0x3d52f964	0.05150737
28	0x3dcd1aab	0.10014852
29	0x3d1685f8	0.036748856
30	0x3d251ed7	0.040312614
31	0x3d485bec	0.04891579

encoder.block1.block.1.running_mean f4 [32]
0	0x3dd2275e	0.10261415
1	0xbe54779b	-0.20748751
2	0x3ebd88d6	0.3701846
3	0xbd8f0f79	-0.06985373
4	0x3f201769	0.6253572
5	0x3f14cd3d	0.5812567
6	0x3e19c89d	0.15017934
7	0x3d45ac32	0.04825992
8	0x3dfccefa	0.12344165
9	0x3eb6cadf	0.35701653
10	0xbe59efb4	-0.21282846
11	0x3e0b1223	0.13581137
12	0x3e896f4e	0.2684273
13	0x3e8e6686	0.27812594
14	0x3d8fac97	0.07015341
15	0xbecdb220	-0.4017496
16	0x3e7adcf2	0.24498346
17	0x3edfa686	0.43681735
18	0x3e5bf293	0.21479253
19	0xbf770c36	-0.9650301
20	0x3d7e8437	0.06213781
21	0x3edadd82	0.42747122
22	0x3f1c46a4	0.6104529
23	0x3e915836	0.28387612
24	0x3f1f905f	0.6232967
25	0xbd8a78f5	-0.06761352
26	0x3e93b354	0.28847754
27	0x3e41795f	0.18893956
28	0xbdc22c0d	-0.09481058
29	0x3d590d95	0.05299147
30	0x3df2fae3	0.11864259
31	0xbe7710de	-0.24127528

encoder.block1.block.1.running_var f4 [32]
0	0x3fd12b54	1.6341348
1	0x3f8830ae	1.0639856
2	0x3f982914	1.1887536
3	0x3fd09937	1.6296757
4	0x3fde4b28	1.7366686
5	0x3f4c8403	0.79888934
6	0x3f5468a7	0.82972187
7	0x3f8acddd	1.0844074
8	0x3fe0be6b	1.7558111
9	0x4007e409	2.1232932
10	0x3fa4ff27	1.2890366
11	0x3f45f5d0	0.77328205
12	0x401d44eb	2.4573314
13	0x3fb2a120	1.3955421
14	0x3f7d5678	0.98960066
15	0x3fbd48cc	1.4787841
16	0x3fc814c0	1.5631332
17	0x3f19f3f9	0.601379
18	0x3fffac3f	1.997444
19	0x3f20a6cc	0.6275451
20	0x3f18ea4e	0.5973252
21	0x3f6fa0c1	0.93604666
22	0x3ee7c073	0.45264015
23	0x40087757	2.132284
24	0x3f7b08b3	0.9806015
25	0x3f5fd6f6	0.8743738
26	0x40081b01	2.1266482
27	0x3fcd01ed	1.6016213
28	0x3f82a48f	1.0206469
29	0x3fa6746b	1.3004278
30	0x3f954374	1.166121
31	0x3fd1a461	1.637829

encoder.block2.block.0.weight f4 [32, 32, 3, 3]
0	0xbd2f1b6e	-0.04275077
1	0x3c51f1ec	0.012814026
2	0xbb7c773b	-0.0038523215
3	0x3d3f070a	0.046637572
4	0x3cbbfc38	0.022947416
5	0x3d124e6f	0.03571933
6	0x3d22abbd	0.039714564
7	0xbc8d90f9	-0.017281042
8	0xbbc2f689	-0.0059497994
9	0xbc9454b2	-0.018106792
10	0x3c2b84d8	0.010468684
11	0xbcfdb8c6	-0.030971896
12	0xbc35d9b9	-0.011099272
13	0xbd38f87c	-0.04515885
14	0x3ba74024	0.0051040817
15	0xbc2c53fb	-0.010518069
16	0xbd540d84	-0.051770702
17	0x39c1c997	0.00036962025
18	0xbd494b67	-0.049144175
19	0xbbdc77af	-0.0067281346
20	0x3ca02e43	0.01955331
21	0xbc82fd3a	-0.015989888
22	0xbc43c057	-0.011947713
23	0xbd530f9a	-0.05152855
24	0x3b1b0fb3	0.002366048
25	0xbc142a51	-0.009043292
26	0xbd03297e	-0.032021992
27	0xbc7d88bc	-0.015474495
28	0xbd0677ab	-0.032828968
29	0xbd500bc7	-0.05079248
30	0xbd36738c	-0.044543788
31	0xbd856783	-0.06513884
32	0xbd3979e0	-0.045282245
33	0xbd0d6954	-0.034524277
34	0x3c3a7c23	0.011382136
35	0xbcf25612	-0.029582057
36	0xbccdbf6b	-0.02511569
37	0xbd094dc2	-0.03352142
38	0xbd51900c	-0.051162764
39	0x3c8c2d8c	0.017111562
40	0xbb735607	-0.0037130134
41	0x3c737657	0.014859757
42	0xbd8d8bed	-0.06911454
43	0xbba6faad	-0.005095801
44	0x3ca7c490	0.02047947
45	0x3d26db06	0.04073622
46	0xbd02fe24	-0.03198065
47	0x3c40d4f9	0.011769527
48	0x3c7b303f	0.015331327
49	0xbc09e77b	-0.008417006
50	0xbd14154c	-0.036153123
51	0xbb7a6c97	-0.0038211697
52	0xbca6af55	-0.020347277
53	0x3a79d734	0.0009530664
54	0xbbea2844	-0.0071459133
55	0xbd52ae6d	-0.051435877
56	0x3b7e3585	0.0038789224
57	0x3d4355ae	0.047689132
58	0x3dab02e4	0.08350161
59	0x3d0f1280	0.034929752
60	0x3d6576ec	0.056021616
61	0x3d28f24e	0.041246705
62	0x3d3ef9ee	0.04662507
63	0xbb0a185e	-0.0021071653
64	0xbaba4bb6	-0.0014213237
65	0x3bcb26dd	0.006199701
66	0xbd0d8074	-0.03454633
67	0x3bf2f6ea	0.0074146884
68	0x3ccd55e8	0.025065377
69	0x3a2c0d63	0.0006563274
70	0xbc8f95a9	-0.017527418
71	0xbcaace4f	-0.020850329
72	0x3d89e21a	0.067325786
73	0x3d266a76	0.040628873
74	0x3d0468df	0.032326575
75	0xbd1f7f92	-0.03894002
76	0x3d9ae158	0.07562512
77	0xbd172dd4	-0.03690894
78	0x3d236cec	0.039898798
79	0x3d48c84e	0.04901915
80	0x3d26b934	0.040703967
81	0xbd1d23d0	-0.03836423
82	0x3cb30fc7	0.02185811
83	0x3d52952f	0.051411804
84	0xbd1fbebf	-0.03900027
85	0xbc7dfdcc	-0.015502404
86	0xbcc7e7d4	-0.024402536
87	0x3da374c9	0.079812594
88	0x3bf6e9fa	0.0075352164
89	0xbcaebc62	-0.021330062
90	0x3dacbdbf	0.08434629
91	0xbc3aaab3	-0.011393237
92	0x3c33e16b	0.010979037
93	0x3b5b8101	0.003349364
94	0xbd86e1d8	-0.06586045
95	0x3c663553	0.014050799
96	0xbad84bbd	-0.0016502064
97	0xbc2b79d5	-0.010466059
98	0x3aeb9935	0.0017974736
99	0xbd1dd8b1	-0.03853673
100	0xbd012d94	-0.031537607
101	0xbcd21c61	-0.025648298
102	0x3c4f8e58	0.012668215
103	0xbd9c2190	-0.07623589
104	0x3c2f185f	0.010686963
105	0xbbeee2b8	-0.0072902106
106	0xbd4235d3	-0.047414612
107	0x3cdf253c	0.027239434
108	0xbc723fc9	-0.014785715
109	0x3d91476f	0.07093703
110	0x3da51001	0.08059693
111	0x3c90bcf4	0.017668225
112	0x3c8e77b9	0.017391073
113	0xbc81ed86	-0.01586033
114	0x3c59ade1	0.013286085
115	0xbcae9aa7	-0.021313978
116	0x3d800aab	0.06252035
117	0x3cab8168	0.02093573
118	0x3cd8bb0f	0.026456384
119	0xbcfcd3a6	-0.03086264
120	0x3d2d2b52	0.04227764
121	0x3d639611	0.055563036
122	0x3caee76d	0.021350587
123	0xbce75ecd	-0.028243447
124	0xbcaaf5b6	-0.020869117
125	0x3cf3f054	0.029777683
126	0x3c326042	0.010887207
127	0xbd4b8aab	-0.04969279
128	0xba0ef73f	-0.00054537127
129	0xbcc87bc4	-0.024473079
130	0xbd52fa97	-0.051508512
131	0xbd5cb8da	-0.053887226
132	0x3d82ec1e	0.06392692
133	0xbcf95d21	-0.030439915
134	0xbd926911	-0.07148946
135	0x3cacf28d	0.021111751
136	0x3d536c8b	0.051617187
137	0xbc612727	-0.013742245
138	0xbbaecf87	-0.005334798
139	0xbd08285a	-0.033241607
140	0xbd6fd1b4	-0.058549598
141	0xbd2eee67	-0.042707827
142	0x3d245adf	0.040125724
143	0xbb2a3137	-0.0025969276
144	0x3d053aaa	0.03252665
145	0x3cd97c1b	0.026548436
146	0x3cf6be00	0.030119896
147	0x3d80652f	0.06269299
148	0x3cd185b5	0.025576452
149	0x3cd13eef	0.025542704
150	0x3ceba9d1	0.028767498
151	0x3d1abd1f	0.037778016
152	0x3a34e732	0.0006900906
153	0xbcc913e0	-0.02454561
154	0x3c20eeac	0.009822529
155	0x3af17cc8	0.0018424029
156	0xba08f761	-0.00052248506
157	0xbd229ca5	-0.03970017
158	0xbd1003b2	-0.035159774
159	0xbc9482e6	-0.018128823
160	0x3aaf9098	0.0013394533
161	0x3cc1846c	0.023622714
162	0xbc686acf	-0.014185621
163	0xbd2d0562	-0.04224146
164	0xbd42b584	-0.047536388
165	0x3b80c604	0.0039298553
166	0xbd70112b	-0.058610123
167	0x3c0a01a2	0.008423241
168	0xbce5d282	-0.02805448
169	0x3aa84e85	0.0012840783
170	0xbccb6b0f	-0.024831323
171	0x3d2789aa	0.04090277
172	0xbcf331c6	-0.02968682
173	0x3c8d11e8	0.017220452
174	0xbceee9e3	-0.02916426
175	0xbcac0f2d	-0.02100333
176	0x3c70e140	0.014702141
177	0x3b0bdb03	0.0021340258
178	0xbcd94ad7	-0.026524944
179	0x3c25ff3e	0.010131655
180	0x3c3d817b	0.011566515
181	0xbc1aa2d3	-0.009438234
182	0xbd287298	-0.04112491
183	0xb90122cf	-0.00012315366
184	0x3d139c51	0.036037747
185	0xbc836d6a	-0.016043384
186	0x3d70997e	0.05874013
187	0xbb3b14d5	-0.0028546352
188	0x3bc18c69	0.005906631
189	0xbd2fadca	-0.042890348
190	0xbd7cd7c2	-0.0617292
191	0xbd1fe3e6	-0.0390357
192	0xbd13b073	-0.036056947
193	0x3d0e8a5f	0.03479993
194	0x3c8c6a71	0.017140599
195	0x3c10a0b1	0.008827374
196	0xbc79994e	-0.015234305
197	0xb8fc683f	-0.00012035714
198	0x3d308bcb	0.043102067
199	0xbc8cb22c	-0.017174803
200	0xbbcfe35f	-0.0063442434
201	0x3c935a3a	0.01798736
202	0xbc9dc7f3	-0.019260382
203	0x3caca872	0.021076415
204	0x3c9660b5	0.01835666
205	0xbcab95a4	-0.020945378
206	0xbd561bb6	-0.05227252
207	0x3d38aa39	0.045084212
208	0xbd80a6a6	-0.06281786
209	0xbaf5b8e5	-0.001874712
210	0x3bfecea4	0.0077760983
211	0xbc572433	-0.013131189
212	0x3d282a3e	0.04105591
213	0xbcf85f30	-0.030318826
214	0x3d2561c8	0.040376455
215	0x3c4f03bc	0.012635168
216	0xbd690978	-0.056893796
217	0xbd8e24f7	-0.06940644
218	0x3c8b036f	0.01696941
219	0xbd3bf68f	-0.045889433
220	0xbd854645	-0.065075435
221	0x3c5de6b4	0.013543773
222	0xbd7c2470	-0.061558187
223	0x3d0c5347	0.034259107
224	0xbd33c359	-0.04388747
225	0x3c9610de	0.01831859
226	0x3ccec400	0.025239944
227	0x3c00b5f8	0.007855885
228	0xbbf240de	-0.0073929867
229	0xbca7a617	-0.02046494
230	0x3cba2103	0.02272082
231	0x3d0ca175	0.034333665
232	0x3d20ddb8	0.039273947
233	0x3d2f3e6b	0.042784136
234	0xbb87497c	-0.004128633
235	0xbcfdbedf	-0.030974803
236	0x3cbd6946	0.023121487
237	0x3ce17e9c	0.027526192
238	0x3d9f98e6	0.07792835
239	0xbcc2ab42	-0.023763303
240	0xbce72bcb	-0.028219124
241	0x3c856515	0.016283551
242	0x3d4ed250	0.05049354
243	0x3c8dcc21	0.01730925
244	0xbc1f48dc	-0.009721961
245	0xbc5f9c10	-0.013648048
246	0x3c885b06	0.016644966
247	0xbd4fd786	-0.05074265
248	0xbcb379aa	-0.0219086
249	0xbb915e6b	-0.0044363043
250	0xbda2d8b3	-0.07951488
251	0x3d0ce56d	0.034398485
252	0xbcb19779	-0.021678673
253	0x3c510a9c	0.012758877
254	0x3cb86435	0.02250872
255	0xbd8d9264	-0.069126874

encoder.block2.block.0.bias f4 [32]
0	0x3c87a71e	0.01655918
1	0xba2a552e	-0.0006497678
2	0xbd35655c	-0.044286117
3	0x3cac0c41	0.021001937
4	0x3cc267a0	0.023731053
5	0x3c5a9180	0.013340354
6	0xbd61471a	-0.05499945
7	0x3d26f159	0.04075751
8	0x3d0d3b8c	0.034480616
9	0xbd082a06	-0.0332432
10	0xbc057983	-0.008146646
11	0x3d26219a	0.04055939
12	0xbd55d55e	-0.052205436
13	0x3b9b664e	0.0047424203
14	0x3cf06006	0.029342663
15	0x3ca99fab	0.020706018
16	0xbcc5da92	-0.024152074
17	0xbb8c29b0	-0.0042774305
18	0xbc97f976	-0.01855157
19	0x3d604b36	0.054759227
20	0x3d233957	0.039849605
21	0x3c9189db	0.01776593
22	0xbd4da8b1	-0.050209705
23	0x3d01c7d6	0.03168472
24	0x3d109d8c	0.0353065
25	0x3d5deecd	0.054182816
26	0x3cecafac	0.02889236
27	0x3c8b2a3b	0.01698791
28	0x3cf04d97	0.029333873
29	0x3cc9851d	0.024599606
30	0xbd63be39	-0.055601332
31	0xbc71e26a	-0.014763454

encoder.block2.block.1.weight f4 [32]
0	0x3f737e6a	0.9511477
1	0x3f707f48	0.93944216
2	0x3f71f931	0.9452086
3	0x3f75bbb1	0.9598952
4	0x3f76f82c	0.9647243
5	0x3f7a3174	0.9773171
6	0x3f798136	0.97462785
7	0x3f743755	0.9539693
8	0x3f7316bd	0.9495657
9	0x3f72959c	0.94759536
10	0x3f75fbc6	0.960873
11	0x3f74d1cd	0.9563263
12	0x3f71d065	0.9445861
13	0x3f6ee2bc	0.9331472
14	0x3f7356e2	0.9505445
15	0x3f767814	0.96276975
16	0x3f725429	0.9465967
17	0x3f7227da	0.9459206
18	0x3f706dcc	0.93917537
19	0x3f6d6b22	0.92741597
20	0x3f72896d	0.94740945
21	0x3f757383	0.9587938
22	0x3f75a13c	0.9594915
23	0x3f71c49f	0.94440645
24	0x3f7835d0	0.9695711
25	0x3f75d425	0.9602683
26	0x3f70b240	0.9402199
27	0x3f74fd9d	0.95699483
28	0x3f750747	0.9571423
29	0x3f7455a9	0.9544321
30	0x3f70cafc	0.9405973
31	0x3f73e575	0.95272

encoder.block2.block.1.bias f4 [32]
0	0xbd407603	-0.046987545
1	0xbcc68ec5	-0.024238
2	0xb879a083	-5.9515714e-05
3	0xbd15c60d	-0.03656583
4	0xbbb7935e	-0.0056022843
5	0xbc283c37	-0.010268263
6	0xbcdec6a7	-0.027194334
7	0xbd06a344	-0.032870546
8	0xbc81c1b6	-0.015839439
9	0xbc802ce5	-0.015646407
10	0xbca4caff	-0.020116327
11	0xbb5656d6	-0.0032705567
12	0x3bcc6c10	0.006238468
13	0xbc32b41c	-0.010907199
14	0xbc83e62d	-0.016100967
15	0xbc280109	-0.010254153
16	0xbd456349	-0.04819039
17	0xbc89a68a	-0.016803045
18	0xbc4d271a	-0.01252153
19	0xbc01aedf	-0.007915228
20	0xbcbf0bcd	-0.023321057
21	0xbce5909a	-0.028023053
22	0xbba11088	-0.0049153008
23	0xbc26ce25	-0.010180985
24	0xbc755bd1	-0.014975504
25	0xbc11c883	-0.008897903
26	0xbadeb0e6	-0.0016989976
27	0xbc595286	-0.013264304
28	0xbcff010b	-0.031128427
29	0xbc54670a	-0.01296402
30	0xbd236668	-0.039892584
31	0xbc74f1b4	-0.014950205

encoder.block2.block.1.running_mean f4 [32]
0	0xbdd86d55	-0.105677284
1	0xbe38a2b4	-0.18030816
2	0xbd81a82f	-0.063309066
3	0xbe831ce0	-0.25607967
4	0xbebc0090	-0.3671918
5	0xbe9d2842	-0.30694777
6	0xbe93075a	-0.28716546
7	0xbe9a14ce	-0.30093998
8	0xbe1d3112	-0.1535075
9	0xbf29226a	-0.66068137
10	0x3c5a07b5	0.013307502
11	0xbf472753	-0.7779438
12	0xbee378c7	-0.44428083
13	0x3ce3d37a	0.0278108
14	0xbe7c7dff	-0.24657439
15	0xbc69b0a4	-0.014263306
16	0xbd9d0519	-0.07666988
17	0xbdfe874d	-0.1242815
18	0xbf457be5	-0.77142173
19	0xbf2d754b	-0.677571
20	0xbed401c6	-0.41407603
21	0xbe95ae1b	-0.29234394
22	0xbe36c2ce	-0.1784775
23	0xbe34f3b4	-0.1767109
24	0xbd5269a0	-0.051370263
25	0xbe5ae582	-0.21376613
26	0xbf2c4940	-0.6729927
27	0xbf0a8e93	-0.541238
28	0xbee4044a	-0.44534522
29	0xbe86a76b	-0.26299605
30	0xbe943e38	-0.2895372
31	0xbec88b60	-0.39168835

encoder.block2.block.1.running_var f4 [32]
0	0x408fed73	4.4977355
1	0x40a4af04	5.146364
2	0x400f152e	2.2356677
3	0x40a08264	5.015917
4	0x408fc43d	4.492705
5	0x40ab28c5	5.3487267
6	0x40963527	4.6939883
7	0x40896019	4.2929807
8	0x40dab8d3	6.8350616
9	0x404c0ecd	3.1884034
10	0x409afd02	4.8433847
11	0x40a06658	5.012493
12	0x40b8b07b	5.771543
13	0x40bb6de0	5.8571625
14	0x4045097c	3.0787039
15	0x4045d077	3.0908487
16	0x40552603	3.330445
17	0x40892b66	4.2865477
18	0x40b6f527	5.717426
19	0x40b283ac	5.578573
20	0x40f5bf38	7.679592
21	0x40b28024	5.578142
22	0x40e86dbe	7.2633963
23	0x40ee348d	7.443915
24	0x408f3407	4.475101
25	0x409b57d6	4.854472
26	0x40938a0d	4.610602
27	0x40867598	4.2018547
28	0x409e5c2d	4.948752
29	0x4099b3d9	4.803204
30	0x408d7c99	4.4214597
31	0x40768559	3.851889

encoder.final.block.0.weight f4 [3, 32, 3, 3]
0	0x3bb05e7e	0.005382358
1	0x3cf56db7	0.029959543
2	0x3c6fc1c4	0.0146336
3	0x3d3755b6	0.044759475
4	0xbd0e1103	-0.034684192
5	0xba363395	-0.00069504353
6	0x3cfb6aae	0.030690517
7	0xbbb3320b	-0.005468612
8	0x3cf3b710	0.029750377
9	0xbc91e8fa	-0.017811287
10	0xbd4e7927	-0.05040851
11	0xbcb09193	-0.02155379
12	0x3cac85fd	0.021059984
13	0x3c9249b2	0.017857406
14	0xbc6f9ed3	-0.014625269
15	0x3cafe68d	0.02147224
16	0x3d5ee985	0.05442192
17	0x3cd6de00	0.026228905
18	0xbcc094b3	-0.023508405
19	0xbc8bc5af	-0.017062036
20	0xbc9c0f8b	-0.01905038
21	0x3c59767c	0.013272878
22	0x3cf05bd1	0.029340656
23	0xbd466ae9	-0.0484418
24	0x3ba05021	0.0048923646
25	0x3a2ee8b6	0.000667225
26	0xbbc402e9	-0.005981792
27	0x3ca2ffa1	0.019897284
28	0x3d36b715	0.044608194
29	0xbc9e13bd	-0.019296521
30	0x3cb9ef2a	0.02269705
31	0xbd306a37	-0.043070044
32	0xbcc668af	-0.024219839
33	0xbb3b0277	-0.0028535405
34	0xbc0f6248	-0.008751459
35	0x3d49f579	0.049306367
36	0x3cbba70b	0.0229068
37	0x3cb4e9e2	0.02208418
38	0xbc56b8ea	-0.01310561
39	0xbd3f5e22	-0.04672063
40	0x3c2c13b8	0.010502748
41	0xbc99106e	-0.018684592
42	0xbd58b1e6	-0.052904032
43	0xbcab686c	-0.020923816
44	0xbd20893c	-0.039193377
45	0xbabd064e	-0.0014421435
46	0xbadd0336	-0.0016861919
47	0x3c1a6da3	0.0094255535
48	0xbb808f7e	-0.0039233556
49	0x3d72397f	0.059136864
50	0xbc0bc616	-0.008531114
51	0x3a30fcdb	0.00067515456
52	0x3c6346aa	0.013871828
53	0xbcb078a6	-0.021541905
54	0xbd0bd091	-0.03413445
55	0x3cf9c1ef	0.030487983
56	0x3cc015df	0.023447929
57	0xbc839a7c	-0.016064875
58	0x3d35dcc5	0.044399995
59	0x3d338eb9	0.043837283
60	0x3d02bc0c	0.031917617
61	0x3d1554ca	0.036457814
62	0x3d44968d	0.04799514
63	0x3a6d8d62	0.00090619
64	0x3b18ece9	0.0023334569
65	0xbbb6405b	-0.005561871
66	0x3c1b5393	0.009480375
67	0xbd3ca91f	-0.046059724
68	0x3ac3997f	0.0014923065
69	0xbc83a5f4	-0.016070344
70	0xbbb31bbd	-0.005465953
71	0x3d1743c0	0.036929846
72	0x3d063610	0.0327664
73	0x3cdb00c6	0.026733767
74	0x3ca1dde2	0.019759122
75	0xbc38bf1a	-0.011276031
76	0xbbfe7888	-0.0077658333
77	0x3cacb298	0.021081254
78	0x3d08a8f7	0.033364262
79	0xbc51837d	-0.012787697
80	0xbd1c15e0	-0.0381068
81	0x3c5e87d5	0.01358219
82	0x3b83d71a	0.004023445
83	0xbce3d7bc	-0.027812831
84	0x3c98d6d4	0.018657126
85	0xbd06a00f	-0.032867488
86	0xbbddff99	-0.0067748544
87	0x3ca7532d	0.020425403
88	0x3cb31aac	0.021863304
89	0x3c71b52d	0.014752668
90	0xbd01288b	-0.031532805
91	0xbd033ad3	-0.03203852
92	0x3c3cc265	0.011520957
93	0xbc52cae7	-0.0128657585
94	0xbd4b6979	-0.049661133
95	0x3be16846	0.0068788854
96	0xbcdde4d8	-0.02708666
97	0x3c6606d0	0.01403971
98	0x3d1b8ade	0.03797423
99	0xbd20af7d	-0.03922986
100	0xbd059899	-0.03261623
101	0x3d2900cc	0.041260526
102	0xbd66f036	-0.056381427
103	0x3cd087bd	0.02545535
104	0x3b8af1b0	0.004240237
105	0x3c9546fa	0.01822232
106	0x3c99a157	0.01875369
107	0xbcac4ee3	-0.02103371
108	0xbd0dde45	-0.0346358
109	0xbd0e7e1d	-0.03478824
110	0xbd250255	-0.040285427
111	0x3be98cd6	0.0071273847
112	0xbd1ebfa9	-0.038757
113	0x3c816418	0.015794799
114	0x3d30146a	0.04298822
115	0x3d3da5bc	0.046300635
116	0x3ca65bce	0.020307448
117	0x3d006897	0.031349745
118	0x3d083149	0.033250127
119	0x3bba511f	0.00568594
120	0xbccb27ee	-0.024799313
121	0xbc2eb8e2	-0.010664197
122	0x3cc6408a	0.024200696
123	0xbd1cbd5d	-0.03826653
124	0x3d2069ca	0.03916339
125	0x3cabbe75	0.02096484
126	0xbce5a35e	-0.028032001
127	0x3d2e8af7	0.042612996
128	0xbcd5b737	-0.02608834
129	0xbcf72405	-0.030168543
130	0xbd19f6cd	-0.037588883
131	0x3b237b46	0.0024945303
132	0x3d18b0dc	0.03727804
133	0xbd17b5a6	-0.037038468
134	0xbd4e188e	-0.050316386
135	0xbb9af7e5	-0.0047292584
136	0x3d33eee0	0.04392898
137	0x3c855705	0.016276846
138	0x3c5d1794	0.013494391
139	0x3cbdb8a6	0.023159336
140	0xbce99c4e	-0.028516915
141	0xbb7e0c2d	-0.0038764582
142	0xbcfc68a9	-0.030811625
143	0x3ab435af	0.0013748909
144	0x3c9dc7f7	0.01926039
145	0xbd44e9db	-0.048074584
146	0x3d120499	0.035648916
147	0x3c94563e	0.01810753
148	0x3d46feb1	0.048582736
149	0x3c543ea1	0.012954385
150	0x3d275458	0.04085192
151	0xbc36c7ae	-0.011156006
152	0xbc8726e9	-0.016498046
153	0xbbdfd6ce	-0.0068310266
154	0x3d034f37	0.032057967
155	0x3c1392a3	0.009007129
156	0xbce1442b	-0.027498325
157	0xbd08c703	-0.033392917
158	0xbd06903a	-0.03285239
159	0x3d26d642	0.040731676
160	0x3ccb8343	0.024842864
161	0xbd0b653b	-0.034032088
162	0xbc98b2fd	-0.018640036
163	0xbc317295	-0.010830541
164	0xbd1cd5d7	-0.03828987
165	0xbcf48156	-0.029846828
166	0xbb76488e	-0.0037579867
167	0x3c77b7fc	0.015119549
168	0xbce9741c	-0.028497748
169	0x3d47cfc6	0.048782133
170	0xbcc87ffa	-0.024475086
171	0x3c1e6352	0.0096672345
172	0xbb508238	-0.0031815898
173	0xba808a42	-0.0009806829
174	0x3cbf38ca	0.023342509
175	0xbd1e37bb	-0.038627367
176	0x3d1066b6	0.035254203
177	0xbc0d9117	-0.008640549
178	0xbd28ff97	-0.041259374
179	0x3d31c52d	0.043400932
180	0x3ce767ca	0.028247733
181	0x3d15a428	0.036533505
182	0x3cb0d011	0.021583589
183	0xbcf4ffc3	-0.029907113
184	0xbd1a1489	-0.03761724
185	0x3d5679dd	0.05236231
186	0xbd2288d7	-0.039681282
187	0x3d2e8eff	0.04261684
188	0x3c6230a9	0.013805547
189	0xbc36ca15	-0.011156579
190	0xbc07b8cf	-0.008283808
191	0xbd2d8641	-0.042364363
192	0x3c044cdf	0.008074968
193	0x3cee59fe	0.029095646
194	0x3c04c4c6	0.008103555
195	0x3ca4339e	0.020044144
196	0x3cc2ad99	0.023764418
197	0xbcdb34b5	-0.026758531
198	0x3ca1ab67	0.019735051
199	0xbd1a9b03	-0.037745487
200	0xbcc00da7	-0.02344401
201	0xbd07d7d2	-0.033164807
202	0xbc9a1f57	-0.018813772
203	0xbbc4d31e	-0.0060066124
204	0xbd550aa7	-0.052012112
205	0xbd30e444	-0.04318644
206	0xbb86d18e	-0.0041143363
207	0xbb3bd7ef	-0.0028662642
208	0xbd30de99	-0.043181036
209	0x3d2e0405	0.042484302
210	0x3d273792	0.04082448
211	0x3bb57c52	0.005538502
212	0x3b87dd23	0.0041462346
213	0xbc9c00d8	-0.019043371
214	0xbcd183a0	-0.025575459
215	0xbcc8390c	-0.024441265
216	0x3c7316ad	0.014836949
217	0xbcc3eb53	-0.023915922
218	0xbbc08411	-0.0058751185
219	0xbb7a69a4	-0.003820994
220	0x3cde9c0c	0.027174018
221	0xbc977f5d	-0.018493349
222	0xbd0bb516	-0.034108244
223	0xbb933b01	-0.004493118
224	0xbd21691a	-0.039406873
225	0xbbae921c	-0.005327476
226	0xbcfed5da	-0.031107832
227	0x3c7805bc	0.015138086
228	0x3d04ca42	0.03241945
229	0xbca5bfba	-0.020233024
230	0xbd363005	-0.04447939
231	0x3c392cee	0.011302216
232	0x3d5138e3	0.051079642
233	0x3c1025df	0.008798092
234	0x3d01be98	0.031675905
235	0xbcc91100	-0.024544239
236	0x3cd7e672	0.026355002
237	0x3c6278dc	0.01382276
238	0x3d1f91a7	0.038957264
239	0xbd1e4497	-0.03863963
240	0xbcb453b1	-0.022012563
241	0x3bd63c2d	0.006537935
242	0xbb24bbd4	-0.0025136368
243	0x3cd9052d	0.026491726
244	0x3d52d84b	0.051475804
245	0x3c8da062	0.01728839
246	0x3c60e2ba	0.013725931
247	0x3c62791e	0.013822822
248	0xbd07ba36	-0.03313657
249	0xbbdf7d8a	-0.0068203853
250	0xbce9b9be	-0.028530952
251	0xbbe00753	-0.0068368106
252	0x3c818b48	0.015813485
253	0x3c2919a8	0.010321058
254	0x3ccbcf2a	0.024879057
255	0x3c458b9e	0.012057213

encoder.final.block.0.bias f4 [3]
0	0x3bf726d7	0.007542472
1	0xbb5ca529	-0.003366778
2	0xba1c3b93	-0.0005959805

decoder.initial.block.0.weight f4 [32, 3, 3, 3]
0	0xbd1da95d	-0.038491596
1	0x3e5c28d6	0.21499953
2	0xbd9dd089	-0.077057905
3	0xbcb08f19	-0.02155261
4	0x3b14923b	0.0022670168
5	0xbe084edf	-0.13311337
6	0x3e117ea2	0.14208463
7	0xbdeda8a6	-0.11604433
8	0xbbd0fbc3	-0.0063776686
9	0x3dad4ac9	0.0846153
10	0xbe0fda69	-0.1404816
11	0xbc801295	-0.01563386
12	0xbe25176a	-0.16122213
13	0x3e3384d8	0.17531145
14	0x3d9f5dcd	0.07781563
15	0xbe1bee99	-0.15227737
16	0x3de72f07	0.11288267
17	0x3d0a54cd	0.03377228
18	0xbd18afc2	-0.03727699
19	0xbdc51e1c	-0.096248835
20	0x3dc01359	0.0937869
21	0x3e385898	0.18002546
22	0xbe4da9a4	-0.20084244
23	0x3d53f64b	0.051748555
24	0x3cd755bf	0.026286004
25	0x3d14a210	0.036287367
26	0xbd9133c2	-0.0708995
27	0x3c882469	0.016618924
28	0xbd1e9df0	-0.03872484
29	0xbd4e4eed	-0.05036824
30	0x3e4adc9e	0.19810721
31	0xbe604618	-0.21901739
32	0x3dc497a1	0.095992334
33	0xbdf41d51	-0.11919654
34	0x3e1d572e	0.15365288
35	0xbd53f79d	-0.051749814
36	0xbdb2226d	-0.086979724
37	0x3dd0f447	0.10202842
38	0x3d9749bb	0.0738711
39	0xbdd4e5e5	-0.103954114
40	0x3df791c1	0.12088347
41	0xbdb6f3e0	-0.08933234
42	0x3d954a12	0.072895184
43	0xbde882fa	-0.11353107
44	0x3c9bf7f8	0.01903914
45	0x3d351cfe	0.044217102
46	0xbd1f8e04	-0.038953796
47	0xbcdd0556	-0.026980083
48	0xbe197163	-0.1498466
49	0x3dfde5f9	0.123973794
50	0x3c2e1660	0.010625452
51	0x3cbf2bee	0.023336377
52	0x3b1e74ec	0.0024178578
53	0x3b057086	0.0020361259
54	0xbd85a6c7	-0.06525951
55	0x3c9868ee	0.018604722
56	0x3da26b72	0.0793065
57	0x3d87da32	0.06633414
58	0x3bc934c8	0.006140325
59	0xbbd38369	-0.0064548743
60	0xbd2fe008	-0.042938262
61	0xbdadcb28	-0.084860146
62	0x3e0d8aa0	0.13822412
63	0x3e3fcd54	0.1873067
64	0xbd7f301a	-0.062301733
65	0x3c86907a	0.016426314
66	0x3db33f70	0.08752334
67	0xba8a96b2	-0.0010573475
68	0xbe0534fa	-0.1300849
69	0x3dce088b	0.10060223
70	0xbdeb695a	-0.114947036
71	0xbcac603a	-0.021041978
72	0xbd64acf7	-0.055829015
73	0x3dc7ffcb	0.097655855
74	0xbdd75d21	-0.1051581
75	0xbe549665	-0.20760496
76	0x3bce5ebf	0.0062979157
77	0x3e214ed4	0.15752727
78	0x3cd96991	0.026539596
79	0x3e3314f7	0.17488466
80	0xbdf0da2c	-0.11760363
81	0x3c5f2e5c	0.013621893
82	0xbe3bfffb	-0.18359368
83	0xbd1ec1f3	-0.038759183
84	0xbdb3d0e2	-0.087800756
85	0x3df8fabf	0.12157201
86	0x3d4f6de7	0.05064192
87	0x3c1b3ec1	0.009475411
88	0xbd8784a9	-0.066171
89	0xbcf4c454	-0.029878773
90	0x3d59d06c	0.053177282
91	0x3d5fa63b	0.05460189
92	0xbd18ea22	-0.03733266
93	0x3e1be271	0.152231
94	0xbc1497a9	-0.009069362
95	0x3d3952a0	0.045244813
96	0x3da093a1	0.07840658
97	0x3cb60e55	0.02222363
98	0xbe8f6273	-0.28004798
99	0x3d7342a1	0.059389714
100	0x3d29ba7a	0.041437604
101	0x3db8294d	0.089922525
102	0xbdd0c7c9	-0.10194356
103	0xbe237fbb	-0.15966694
104	0xbe1fc4b9	-0.15602387
105	0xbd194343	-0.03741766
106	0xbc4c6bcd	-0.012476874
107	0x3e4797c0	0.19491482
108	0xbd5e817a	-0.054322697
109	0x3d2cafbb	0.042159777
110	0x3cd4fe21	0.026000084
111	0x3e31b512	0.17354229
112	0x3d55e731	0.052222434
113	0xbdc69414	-0.096962124
114	0xbdc8571c	-0.0978224
115	0xbb91781d	-0.0044393674
116	0xbe604848	-0.21902573
117	0xbc9e524a	-0.019326348
118	0x3da754cb	0.0817047
119	0xbda38340	-0.07984018
120	0xbd0c1666	-0.03420105
121	0xbe57edd5	-0.2108682
122	0xbe46539e	-0.19367835
123	0xbe108416	-0.14112887
124	0xbe6c6ede	-0.23089167
125	0x3e43dd01	0.19127275
126	0xbddfd7d8	-0.10929841
127	0x3dfa7c04	0.12230685
128	0xbe3a4474	-0.18190175
129	0xbe3e0743	-0.18557458
130	0x3cdfb3be	0.027307387
131	0x3e1509e8	0.1455456
132	0x3e4f1f49	0.20226778
133	0x3e36adf9	0.17839803
134	0x3bda48c7	0.0066615078
135	0xbe113734	-0.14181215
136	0x3d20200f	0.039093073
137	0x3bf044c4	0.0073324163
138	0x3e5dbc97	0.21653973
139	0x3d8cc994	0.068743855
140	0xbe175b63	-0.14780955
141	0x3c96ebff	0.018423079
142	0x3c2b98f4	0.010473479
143	0xbd708532	-0.058720775
144	0x3de4f46b	0.111794315
145	0xbcadf0ab	-0.021232923
146	0x3d6c3a48	0.05767277
147	0xbe31ca1d	-0.17362256
148	0xbe34e7de	-0.17666575
149	0x3e11a6d2	0.14223793
150	0xbd37b4de	-0.044850223
151	0xbd40e527	-0.047093537
152	0x3e2faca4	0.17155701
153	0x3bfdbbd4	0.007743338
154	0xbc914cf7	-0.017736895
155	0xbd5ee3f3	-0.054416608
156	0xbcf90f8a	-0.030402917
157	0x3e082ecb	0.132991
158	0xbc2edacd	-0.010672283
159	0x3cc05388	0.02347733
160	0x3d2e51a1	0.042558316
161	0xbdce0793	-0.100600384
162	0xbd435e26	-0.04769721
163	0xbdbbc28c	-0.09167966
164	0x3dacbc10	0.084343076
165	0x3d9057ee	0.07048021
166	0x3da03ead	0.078244545
167	0x3dcd1d03	0.10015299
168	0xbd6063c0	-0.05478263
169	0x3c13e216	0.009026071
170	0xbd853d89	-0.065058775
171	0x3cf4dac2	0.029889468
172	0x3d95d5cf	0.073161714
173	0xbdd58c6d	-0.10427175
174	0x3dd9f7ca	0.10642965
175	0xbe7f0297	-0.24903332
176	0xbe40c1a7	-0.18823873
177	0xbb40754d	-0.0029366792
178	0x3d8f3e24	0.06994274
179	0x3d044b8b	0.032298606
180	0x3c5ffc5a	0.013671005
181	0x3c61cd8d	0.013781917
182	0x3c01fe86	0.007934218
183	0xbe347558	-0.17622888
184	0x3e3f4504	0.18678671
185	0x3da7fc33	0.082024
186	0x3d7dc3ab	0.06195418
187	0xbdb10d99	-0.08645172
188	0x3d149e99	0.036284063
189	0x3dab2eab	0.083585106
190	0xbcef21fe	-0.029191013
191	0x3d2f6e4c	0.042829797
192	0xbd88ed10	-0.06685841
193	0x3d71842a	0.058963932
194	0xbdcd2888	-0.10017496
195	0xbdcb0c75	-0.09914485
196	0x3ddae7fb	0.10688778
197	0xbc3258e7	-0.010885454
198	0xbe06b8ae	-0.13156387
199	0xbe0228b6	-0.12710842
200	0xbde150a7	-0.11001711
201	0x3e5295a1	0.20564891
202	0xbc806a28	-0.01567562
203	0x3e2017ac	0.1563403
204	0x3d4fcb02	0.050730713
205	0xbe7ea66c	-0.24868172
206	0x3e196eab	0.14983623
207	0x3d143348	0.036181718
208	0x3e0ba989	0.13638891
209	0x3d81891f	0.06324982
210	0xbe012c99	-0.12614669
211	0xbd2f1bab	-0.042750996
212	0xbd4c48c1	-0.04987407
213	0x3ce6c891	0.02817181
214	0x3e03b0d4	0.12860423
215	0xbe10c3e8	-0.14137232
216	0xbe1112d9	-0.14167346
217	0xbd28ab1c	-0.041178808
218	0x3d7b4f73	0.061355066
219	0x3d1102a3	0.035402905
220	0xbca07fa9	-0.019592123
221	0xbc387eb9	-0.011260682
222	0x3e09869c	0.13430256
223	0x3e1d3464	0.15352017
224	0xbd8bf202	-0.06833269
225	0xbe359392	-0.17732075
226	0x3d8b7005	0.068084754
227	0x3ded3f07	0.11584287
228	0x3d4c1bc6	0.049831174
229	0x3e34fdf7	0.17675005
230	0x3e1bf141	0.1522875
231	0xbe49452e	-0.19655296
232	0xbcf1c04b	-0.029510638
233	0xbd1a7db1	-0.037717525
234	0xbd48ed77	-0.04905459
235	0xbe5e9974	-0.21738225
236	0x3abe1081	0.0014500768
237	0xbe495ea3	-0.19665007
238	0xbcae5ec3	-0.02128542
239	0xbe589f6e	-0.21154568
240	0x3da995b3	0.08280506
241	0xbd99ce2c	-0.07510027
242	0xbdc154cf	-0.09440004
243	0xbda31f86	-0.07964997
244	0xbd99fe1b	-0.0751917
245	0x3e17ec19	0.14836158
246	0x3c01a377	0.007912508
247	0xbda27080	-0.07931614
248	0xbd2f6145	-0.042817373
249	0xbd484b30	-0.04889983
250	0x3d6c6f35	0.057723243
251	0x3d9de9c8	0.07710606
252	0x3e18ae23	0.14910178
253	0x3e12508f	0.14288543
254	0xbe6a214f	-0.22864269
255	0x3daa6934	0.08320847

decoder.initial.block.0.bias f4 [32]
0	0xbe04afc1	-0.1295767
1	0x3dba30eb	0.090913616
2	0x3d7f9b3b	0.0624039
3	0xbe3d2c7d	-0.18474002
4	0x3dcfe9de	0.101520285
5	0xbd97f3ad	-0.07419524
6	0x3e077baa	0.13230768
7	0x3defa89e	0.11702083
8	0x3d9c3f66	0.0762928
9	0x3daf570e	0.08561526
10	0xbde98d78	-0.11403936
11	0x3cd207f3	0.025638556
12	0xbce2fd61	-0.027708711
13	0xbe0379d4	-0.12839442
14	0xbdce2300	-0.100652695
15	0x3cb5e10b	0.022202035
16	0xbe27880c	-0.16360492
17	0x3da8eaaf	0.08247887
18	0x3d13965c	0.036032066
19	0x3d381856	0.044945084
20	0x3ccdee11	0.025137933
21	0x3c544d44	0.012957875
22	0x3d2ad130	0.041703403
23	0x3d970d92	0.07375635
24	0x3e31a303	0.1734734
25	0x3daccdc5	0.08437685
26	0x3d89ea01	0.06734086
27	0x3e021c1c	0.12706035
28	0xbae5ab3e	-0.0017522348
29	0x3deaeae0	0.1147058
30	0xbe18744b	-0.14888112
31	0xbdad2fe6	-0.084564015

decoder.initial.block.1.weight f4 [32]
0	0x3f751f2e	0.957507
1	0x3f72bd95	0.9482053
2	0x3f7c0821	0.98449904
3	0x3f790716	0.9727644
4	0x3f7b4b68	0.98161936
5	0x3f756c6c	0.95868564
6	0x3f684412	0.9072887
7	0x3f82945d	1.0201527
8	0x3f64c1d2	0.89358246
9	0x3f73d2a1	0.9524327
10	0x3f6a8a84	0.9161761
11	0x3f6b603b	0.9194371
12	0x3f73ae6e	0.95188034
13	0x3f74b379	0.95586354
14	0x3f6f775a	0.9354149
15	0x3f65133d	0.8948248
16	0x3f73e978	0.9527812
17	0x3f7772cf	0.9665956
18	0x3f7dbce7	0.9911637
19	0x3f6b1fcb	0.9184539
20	0x3f6fd31d	0.9368151
21	0x3f577298	0.8415923
22	0x3f707bdb	0.9393899
23	0x3f727b8f	0.94719785
24	0x3f7a8cd3	0.9787113
25	0x3f831a11	1.024233
26	0x3f6fbcf8	0.9364772
27	0x3f687ff3	0.90820235
28	0x3f69026f	0.9101934
29	0x3f6db692	0.92856705
30	0x3f763ed9	0.9618965
31	0x3f6c4bfc	0.9230344

decoder.initial.block.1.bias f4 [32]
0	0x3ec2a1fa	0.38014203
1	0x3ecf6da3	0.40513334
2	0x3e771a12	0.24131039
3	0x3e37dfea	0.1795651
4	0x3e017e32	0.12645796
5	0x3ec63a81	0.3871651
6	0x3ecb3387	0.3968775
7	0x3e36aa39	0.17838372
8	0x3dabaa47	0.08382087
9	0x3e8292b3	0.25502548
10	0x3e19e2e4	0.15027958
11	0x3e2dc6e9	0.1697041
12	0x3e47b466	0.1950241
13	0x3e09d362	0.13459542
14	0xbc422f84	-0.011852149
15	0x3f0b7ca9	0.5448709
16	0x3dd74d06	0.10512738
17	0x3de73d54	0.11290994
18	0x3e2b50bb	0.16730015
19	0x3e9bf472	0.30459934
20	0x3e02a3b7	0.12757765
21	0x3f0ffa8e	0.5624169
22	0x3e1a8418	0.15089452
23	0x3ead277d	0.3381919
24	0x3e0151c8	0.12628853
25	0x3e710935	0.23538668
26	0x3e3bd2f5	0.18342192
27	0x3efd8a42	0.49519545
28	0x3d1b7bde	0.037959926
29	0x3edc4a91	0.4302564
30	0xbd32efdb	-0.043685775
31	0x3d44e441	0.048069242

decoder.initial.block.1.running_mean f4 [32]
0	0xbe142a9d	-0.1446938
1	0x3da1404a	0.0787359
2	0x3e021abf	0.12705515
3	0xbe8d26ae	-0.27568573
4	0xbe2a363c	-0.16622251
5	0xbd815eb1	-0.06316889
6	0x3e002335	0.1251343
7	0x3dc04275	0.09387676
8	0xbe149d41	-0.14513113
9	0x3d82029f	0.06348156
10	0xbe37a5d6	-0.17934355
11	0x3bd39b32	0.0064577097
12	0x3c722ee7	0.01478169
13	0xbd40bccd	-0.047055054
14	0xbe914e82	-0.2838021
15	0x3cc08eda	0.023505617
16	0xbe7038a9	-0.23459114
17	0x3c82e10c	0.015976451
18	0xba577625	-0.0008219204
19	0x3dc53c83	0.09630682
20	0xbd68095e	-0.05664956
21	0x3c99425a	0.018708397
22	0x3d9ec51e	0.07752441
23	0x3d4f9f85	0.05068924
24	0x3c1eb208	0.009686001
25	0x3e01f643	0.12691598
26	0x3e141e4c	0.14464682
27	0x3e0d1c46	0.13780317
28	0x3db52203	0.08844378
29	0x3de37508	0.11106306
30	0x3e732adf	0.23746823
31	0xbca4554b	-0.020060202
