results/models/leaky/LeakyBasicSteganoGAN/3/epoch_24.pth (torch, 317599 bytes, 59 tensors)

encoder.initial.block.0.weight f4 [32, 3, 3, 3]
-0.057426784 0.12597854 0.06595177 0.07810682 0.032409247 -0.08251596 -0.15140788 0.13398963
0.00803386 0.09518008 0.03782024 0.03689861 0.045298368 0.13302875 0.2695605 0.12058675
-0.023250783 0.041486077 -0.17838289 0.006650559 -0.036621112 0.07169553 -0.07526759 0.085274965
0.06306465 -0.09308936 -0.008546761 -0.15185449 0.045922898 0.07204192 0.08144768 0.101376876
0.016916923 0.17331848 -0.1689713 -0.08132142 -0.1140214 0.030503124 -0.15510702 -0.074766345
-0.02428279 -0.07642415 -0.020487538 -0.007302916 -0.08520404 0.14663148 -0.17749768 0.16900067
0.23743892 0.16883162 0.055775188 0.2365091 0.018440107 0.13664685 0.10630281 0.12870175
-0.044769835 0.0961231 -0.026961783 0.043367118 0.1581322 -0.1136623 0.14402823 -0.09550658
0.020081578 -0.023057846 -0.019658005 0.06412623 0.018861936 -0.18983576 0.072072186 0.19269948
0.1432556 0.0066801156 0.022490758 0.13760096 0.038481735 -0.05436483 0.11845616 0.08531381
-0.12168311 -0.15897946 -0.12126489 0.04380757 -0.1358429 -0.030896345 0.14802699 0.07670399
-0.039272137 0.068459086 -0.015195131 0.121436946 0.11865558 -0.0027207138 0.03042034 -0.022540944
0.030068433 -0.02668855 0.053281713 0.07999627 0.20782702 0.27315912 0.19089015 0.2587385
0.061851945 0.21050607 -0.037641596 0.048458803 0.039823644 -0.069910236 0.026876163 0.09398484
-0.17561038 -0.14900267 -0.19035624 0.018459812 0.11264166 0.0012366575 -0.042681158 -0.05549959
0.14165099 0.071358226 0.00789273 0.0098100975 0.108462945 0.12981734 0.10269957 0.15579727
0.24292871 0.18002374 0.1493124 0.30189002 0.12055091 -0.051604945 0.17111093 0.08003386
-0.16084144 0.03454833 0.11070172 -0.1847171 -0.09439461 0.09273167 0.040993456 -0.13450663
-0.003664806 -0.11330734 0.0019277509 -0.18026121 0.12685104 -0.0748298 -0.10844945 0.019767316
0.120218866 -0.15338619 -0.1357733 0.08577993 0.12756807 0.04588362 0.13795398 -0.037699733
0.17038767 0.1473689 -0.17920813 -0.1830582 -0.08151418 -0.1776079 0.15040313 -0.07326642
-0.13710046 -0.09181477 -0.120374404 -0.13700089 -0.18623096 -0.16043612 0.0020338052 0.15574501
0.15277715 -0.11226727 0.12713753 -0.109853245 -0.024554115 0.073868506 0.0005828021 0.04634648
0.14299625 -0.1677558 0.13745098 -0.13828504 0.12789753 0.10209143 -0.06521867 -0.030705964
-0.16665076 0.1361528 -0.088727 -0.06212351 0.11831302 -0.14284164 -0.028810434 -0.07879135
-0.0072878473 0.1656737 0.051738296 0.09639812 -0.16842517 -0.050894167 -0.10891129 -0.08108357
0.08616324 -0.15370224 -0.098182864 0.20469393 0.12682721 -0.062600255 0.057426374 -0.21622834
0.105302565 0.10782822 -0.0123911835 0.009037509 0.07249841 0.0717645 0.09802073 0.17306468
0.02428856 -0.078797355 0.030790955 0.09067259 0.043013476 0.044547714 0.08557565 0.1396108
-0.12420657 -0.035412338 -0.12217044 -0.0015441786 0.08071067 -0.1657873 0.02238644 -0.13035585
-0.071439296 -0.1721881 0.07176015 0.10255608 0.073803425 -0.09468749 0.15095946 0.20918374
-0.13992101 0.11800544 0.21004479 -0.082114145 -0.056676805 -0.13224547 0.08205329 0.1687865
00000000: 5938 6bbd 8500 013e b911 873d 78f6 9f3d
00000010: 8fbf 043d 21fe a8bd ab0a 1bbe 9434 093e
00000020: 73a0 033c c6ed c23d 65e9 1a3d ff22 173d
00000030: c88a 393d b038 083e d503 8a3e 30f6 f63d
00000040: 6d78 bebc 4eed 293d 01aa 36be efec d93b
00000050: 0500 16bd 1bd5 923d e525 9abd a4a4 ae3d
00000060: 0a28 813d a2a5 bebd b707 0cbc be7f 1bbe
00000070: a619 3c3d b78a 933d 0bce a63d ae9e cf3d
00000080: 5c95 8a3c 667a 313e d006 2dbe d88b a6bd
00000090: 0d84 e9bd b0e1 f93c 60d4 1ebe 191f 99bd
000000a0: b4ec c6bc 4484 9cbd 7bd5 a7bc 4d4d efbb
000000b0: 757f aebd 9026 163e f4c1 35be 830e 2d3e
000000c0: 3023 733e 32e2 2c3e 8674 643d 712f 723e
000000d0: b50f 973c 27ed 0b3e 4ab5 d93d 64ca 033e
000000e0: 9360 37bd 30dc c43d f5de dcbc b8a1 313d
000000f0: 68ed 213e c8c7 e8bd 237c 133e f498 c3bd
00000100: 1f82 a43c cfe3 bcbc d309 a1bc 9d54 833d
00000110: 5984 9a3c 4e64 42be 959a 933d 0353 453e
00000120: 99b1 123e dfe4 da3b 8a3e b83c 44e7 0c3e
00000130: 069f 1d3d a8ad 5ebd 2599 f23d 02b9 ae3d
00000140: ff34 f9bd 83cb 22be ba59 f8bd 916f 333d
00000150: 671a 0bbe 551a fdbc 6394 173e fb16 9d3d
00000160: d2db 20bd 4734 8c3d 00f5 78bc efb3 f83d
00000170: b201 f33d 014e 32bb 1434 f93c c9a7 b8bc
00000180: 1352 f63c f2a1 dabc ed3d 5a3d 16d5 a33d
00000190: 9bd0 543e 83db 8b3e b578 433e 5f79 843e
000001a0: 7758 7d3d e78e 573e 132e 1abd bd7c 463d
000001b0: 1e1e 233d 192d 8fbd 662b dc3c 207b c03d
000001c0: 35d3 33be 2894 18be bfec 42be 0839 973c
000001d0: acb0 e63d 5717 a23a 70d2 2ebd 8a53 63bd
000001e0: f50c 113e 4324 923d 8250 013c 88ba 203c
000001f0: d221 de3d d6ee 043e 2754 d23d 5289 1f3e
00000200: 4ec2 783e 2558 383e 5ae5 183e 5491 9a3e
00000210: 65e3 f63d b55f 53bd b437 2f3e cbe8 a33d
00000220: 9eb3 24be 8d82 0d3d 95b7 e23d 7b26 3dbe
00000230: f651 c1bd 1aea bd3d c1e8 273d 1bbc 09be
00000240: 3e2d 70bb ae0d e8bd 96ac fc3a 6596 38be
00000250: 3de5 013e 5e40 99bd bf1a debd 11ef a13c
00000260: 4f35 f63d 4511 1dbe 2808 0bbe 63ad af3d
00000270: 34a1 023e 76f0 3b3d cf43 0d3e 096b 1abd
00000280: 1b7a 2e3e dfe7 163e 5682 37be 9c73 3bbe
00000290: e8f0 a6bd d8de 35be 4703 1a3e b40c 96bd
000002a0: 1064 0cbe 6209 bcbd db86 f6bd f649 0cbe
000002b0: 54b3 3ebe 5e49 24be 9749 053b 9f7b 1f3e
000002c0: 9d71 1c3e 62ec e5bd 5730 023e bdfa e0bd
000002d0: b625 c9bc 5f48 973d 30c7 183a ced5 3d3d
000002e0: 9c6d 123e 2dc8 2bbe f3bf 0c3e 989a 0dbe
000002f0: 92f7 023e 5015 d13d 5e91 85bd 138b fbbc
00000300: 7fa6 2abe a46b 0b3e 80b6 b5bd 3975 7ebd
00000310: 194e f23d 1445 12be dc03 ecbc 5c5d a1bd
00000320: e5ce eebb 5ea6 293e 89eb 533d 616c c53d
00000330: a677 2cbe 6776 50bd e20c dfbd 250f a6bd
00000340: 5a76 b03d 1f64 1dbe 1914 c9bd 499b 513e
00000350: fede 013e 9034 80bd eb37 6b3d f66a 5dbe
00000360: dfa8 d73d 0bd5 dc3d 6404 4bbc 0f12 143c
00000370: 0c7a 943d 44f9 923d 18bf c83d de37 313e
00000380: cdf8 c63c 8260 a1bd 503d fc3c 8db2 b93d
00000390: e62e 303d aa77 363d 4942 af3d 22f6 0e3e
000003a0: 0460 febd 870c 11bd 7f34 fabd 0966 caba
000003b0: a34b a53d 25c4 29be c463 b73c 017c 05be
000003c0: c44e 92bd 1452 30be fcf6 923d ec08 d23d
000003d0: 4026 973d 84eb c1bd 1e95 1a3e 4334 563e
000003e0: 7447 0fbe d6ac f13d fb15 573e 762b a8bd
000003f0: f025 68bd 5b6b 07be 8e0b a83d 5ed6 2c3e

encoder.initial.block.0.bias f4 [32]
0.0057252133 0.10282402 0.08611494 0.16787255 0.07086805 0.160557 -0.12649706 -0.17085186
-0.047476042 -0.1865314 -0.18623996 -0.10414741 -0.13663255 -0.050154965 -0.18233626 -0.038105194
0.101877615 0.03856332 -0.12822296 -0.101536125 -0.026997983 0.006150439 0.03952611 -0.081075884
-0.0013749588 0.07535205 -0.07472192 -0.008575105 0.16665697 -0.14039229 0.14636278 -0.008679018
00000000: 929a bb3b 6695 d23d 085d b03d c8e6 2b3e
00000010: 4523 913d 0e69 243e 7288 01be caf3 2ebe
00000020: 3d76 42bd 1602 3fbe b0b5 3ebe 3d4b d5bd
00000030: 67e9 0bbe 4b6f 4dbd 5bb6 3abe 3114 1cbd
00000040: 36a5 d03d 92f4 1d3d e14c 03be 2cf2 cfbd
00000050: e02a ddbc 9f89 c93b 21e6 213d 1d0b a6bd
00000060: f637 b4ba 2d52 9a3d ce07 99bd 997e 0cbc
00000070: 20a8 2a3e ffc2 0fbe 20e0 153e 7132 0ebc

encoder.initial.block.1.weight f4 [32]
1.0106527 0.9347077 0.97862697 1.0271841 1.0363748 0.95784616 0.95369786 0.96919394
0.9915385 0.96878237 0.98511356 0.93604213 0.91630626 0.9606406 0.99046534 0.9732824
0.98404866 0.98592776 0.9843552 0.9509378 0.9358007 0.9327345 0.994203 0.9837718
1.0054151 0.9786771 0.92786986 0.96579933 0.94830066 1.0047076 0.93874854 0.9640144
00000000: 115d 813f 0149 6f3f 4c87 7a3f c57a 833f
00000010: eea7 843f 6835 753f 8b25 743f 181d 783f
00000020: 78d5 7d3f 1f02 783f 6730 7c3f 75a0 6f3f
00000030: 0c93 6a3f 8bec 753f 238f 7d3f 0929 793f
00000040: 9dea 7b3f c365 7c3f b4fe 7b3f a970 733f
00000050: a290 6f3f b0c7 6e3f 1684 7e3f 78d8 7b3f
00000060: 71b1 803f 958a 7a3f e188 6d3f a03e 773f
00000070: d5c3 723f 429a 803f d351 703f a6c9 763f

encoder.initial.block.1.bias f4 [32]
0.0051693823 0.02724846 0.0006799079 -0.0033102306 -0.027013872 -0.0347495 -0.07732029 -0.008240604
0.010730567 -0.07002519 -0.10475257 -0.0088910125 -0.07759226 -0.27073216 -0.033737484 -0.09811128
-0.08736764 -0.033702873 0.023503885 -0.1375853 -0.050886296 -0.022818517 -0.0012256007 -0.062348142
-0.0005405764 0.032453943 -0.045705467 -0.015824193 -0.15984944 0.03313055 -0.10485967 -0.06902175
00000000: ec63 a93b 2a38 df3c d93b 323a 74f0 58bb
00000010: 324c ddbc 7e55 0ebd 1a5a 9ebd 9903 07bc
00000020: 43cf 2f3c 5e69 8fbd 8488 d6bd 9cab 11bc
00000030: b1e8 9ebd 689d 8abe 5130 0abd 91ee c8bd
00000040: ceed b2bd 060c 0abd 388b c03c 29e3 0cbe
00000050: 266e 50bd e6ed babc 56a4 a0ba c460 7fbd
00000060: 78b5 0dba 6dee 043d a835 3bbd bda1 81bc
00000070: 92af 23be e6b3 073d abc0 d6bd 465b 8dbd

encoder.initial.block.1.running_mean f4 [32]
0.32698303 0.28234118 0.46012565 0.680315 0.58115184 0.11438576 -0.5697411 -0.36155796
0.15293546 -0.0048008575 -0.6209904 -0.1057671 -0.29032853 -0.70042664 -0.16229008 -0.32195085
-0.5267442 -0.038667653 -0.084097244 -0.48396757 -0.17621209 0.032674562 0.71228534 -0.72416955
0.4473125 0.41544268 -0.05704027 0.32577175 -0.2310445 0.364452 -0.05932366 -0.48212254
00000000: 526a a73e 068f 903e 9795 eb3e 2029 2e3f
00000010: 5ec6 143f 1543 ea3d 8dda 11bf 201e b9be
00000020: 1d9b 1c3e 8350 9dbb 3af9 1ebf 6c9c d8bd
00000030: f1a5 94be 294f 33bf 5f2f 26be bed6 a4be
00000040: b5d8 06bf f961 1ebd 2d3b acbd 99ca f7be
00000050: f170 34be c3d5 053d 5558 363f 2d63 39bf
00000060: 2506 e53e e7b4 d43e 0fa3 69bd 8ecb a63e
00000070: ee96 6cbe 7499 ba3e 5efd 72bd c4d8 f6be

encoder.initial.block.1.running_var f4 [32]
0.020168236 0.01568833 0.026543625 0.07584179 0.080350764 0.0040459833 0.0365452 0.008123445
0.0110146655 0.010950154 0.042568333 0.0072045075 0.0061233356 0.08291041 0.005880527 0.021942638
0.08067832 0.0070823957 0.0047393595 0.03564038 0.008268888 0.0024819118 0.09548969 0.07820375
0.04870069 0.025660407 0.0058812113 0.021951305 0.036120795 0.052967604 0.010787123 0.058497675
00000000: db37 a53c d084 803c 0472 d93c f152 9b3d
00000010: f18e a43d 2b94 843b 6bb0 153d 3318 053c
00000020: db76 343c 4668 333c 225c 2e3d ca13 ec3b
00000030: 43a6 c83b efcc a93d 70b1 c03b 0cc1 b33c
00000040: ad3a a53d 7113 e83b a14c 9b3b a6fb 113d
00000050: 3b7a 073c 92a7 223b 1990 c33d 4a29 a03d
00000060: 607a 473d c635 d23c 2db7 c03b 39d3 b33c
00000070: 66f3 133d 8ff4 583d 79bc 303c 429b 6f3d

encoder.block1.block.0.weight f4 [32, 35, 3, 3]
-0.048516992 -0.080352075 -0.06658386 -0.06812663 -0.05734012 0.0056473045 -0.07960439 -0.10827363
0.006264656 0.006577202 0.011348414 -0.0032136228 0.013725419 -0.022274135 -0.046635814 0.0025713753
0.05657821 -0.0009373809 -0.011820615 -0.031055018 -0.07058696 -0.05720178 -0.09073106 -0.059339352
-0.0639997 -0.058526613 -0.050132718 0.024337498 -0.040888626 -0.036246836 -0.06047721 -0.028812971
-0.02943407 -0.04496009 -0.03824765 -0.023141446 -0.050914615 0.043537773 0.024450408 0.03571977
-0.047212526 0.038255516 -0.015887199 0.020141652 0.022602629 -0.057323854 -0.0057567265 -0.0076270984
-0.022967147 0.011277341 0.0019974676 0.014308149 -0.023199735 0.0011869586 0.007950029 0.02530796
0.0108377645 -0.04030824 -0.03916602 -0.00079454004 -0.059783127 -0.07232212 -0.049873043 0.009328321
0.01074321 -0.004977589 0.03626428 0.04481119 0.0123568475 0.017029058 -0.00016110617 -0.032259278
-0.052835856 -0.0600173 -0.024297774 -0.014303909 -0.012269711 -0.04550787 -0.017306374 -0.08321044
0.0021015126 -0.008665205 -0.040845405 -0.024158519 -0.023378253 -0.06289742 0.023735467 -0.032433905
-0.017027795 -0.022116886 0.012629524 -0.0072871693 -0.03698625 0.021104917 -0.012578799 0.035026908
-0.02216657 -0.047768958 0.030771445 -0.03507198 0.0110971555 0.011736898 -0.024189187 0.0047442513
0.02973149 -0.054041024 0.004960839 0.009183747 0.003792938 -0.058119364 -0.027378531 -0.047295853
0.004324876 -0.032209624 -0.0424662 0.00697492 -0.041061725 0.041161735 -0.030212412 0.0022222155
0.041785974 -0.04658794 -0.047485664 -0.022661446 0.027142342 -0.03393117 -0.033945598 0.016048454
-0.0074824 0.032504287 0.05960827 0.059113935 0.008744192 0.061465267 0.044938304 0.0035507767
-0.05768959 0.02189434 0.03529111 0.013372385 0.034179132 0.0047548935 -0.0057291742 -0.04190169
0.0061516254 -0.038594674 -0.015625812 -0.04932537 -0.019711662 -0.02508907 -0.020849653 -0.015134714
0.019251859 0.0029140338 -0.019579163 -0.010513466 0.01792255 0.0067823566 0.036470223 -0.045552295
-0.015555431 -0.036152773 0.00703265 -0.00080171897 0.016007254 0.012866687 0.035117637 0.039678268
-0.041109882 -0.029126653 -0.01940422 0.040476304 -0.019858705 0.03329721 0.0044888216 0.04537245
-0.04409233 0.041742288 -0.06258695 -0.0010649548 0.0016966662 -0.0099242 -0.0064518354 0.013301551
-0.020463454 -0.018251175 -0.03586337 0.02845061 0.0022361178 0.017850062 0.034353133 0.036771465
0.023282498 0.004814325 0.050989866 0.042055406 0.022607716 0.003209344 -0.023596993 0.0015509697
-0.0027587255 -0.028994339 -0.1008906 -0.015792564 -0.0163278 -0.039758317 -0.037244506 -0.04833376
0.04577307 0.06113538 -0.04411012 -0.03198986 -0.014615167 -0.004342134 0.04248143 0.0017756944
-0.05307546 -0.03639512 -0.053859975 -0.020528045 0.009848178 0.035646927 0.021921968 -0.041458484
-0.02597607 -0.04397141 -0.0069058826 -0.047872745 -0.07754407 -0.08040908 -0.061590336 -0.034849625
-0.02774048 0.037182283 -0.035266858 0.055588264 -0.00572075 0.008421862 0.07181399 0.030940482
0.023768406 0.087624185 0.055007774 -0.0030969654 -0.019501645 -0.05046473 -0.028700922 -0.008255539
-0.04781778 -0.025554659 -0.046562508 -0.076868005 0.02024852 0.014968642 0.027972832 0.04373511
00000000: c1b9 46bd a18f a4bd 1e5d 88bd f985 8bbd
00000010: 79dd 6abd 060d b93b a007 a3bd 91be ddbd
00000020: be47 cd3b 9285 d73b b3ee 393c a59b 52bb
00000030: 94e0 603c 3f78 b6bc 3205 3fbd 8584 283b
00000040: 8ebe 673d 91ba 75ba 41ab 41bc 1867 febc
00000050: e58f 90bd 6a4c 6abd 35d1 b9bd d20d 73bd
00000060: 4612 83bd 9ab9 6fbd f757 4dbd 6f5f c73c
00000070: d57a 27bd 9077 14bd f3b6 77bd 2e09 ecbc
00000080: b81f f1bc 1228 38bd 91a9 1cbd 2193 bdbc
00000090: d88b 50bd aa54 323d 394c c83c e54e 123d
000000a0: ec61 41bd d1b1 1c3d df25 82bc 1b00 a53c
000000b0: 2629 b93c 6bcc 6abd eca2 bcbb bdec f9bb
000000c0: 9925 bcbc 99c4 383c f2e7 023b ba6c 6a3c
000000d0: 5f0d bebc b993 9b3a d740 023c a452 cf3c
000000e0: e190 313c 411a 25bd 8c6c 20bd ae48 50ba
000000f0: 27df 74bd 9f1d 94bd ad47 4cbd d0d5 183c
00000100: 4a04 303c 0b1b a3bb db89 143d f08b 373d
00000110: 6074 4a3c 8680 8b3c 9cee 28b9 4e22 04bd
00000120: 696a 58bd b3d4 75bd 200c c7bc f15a 6abc
00000130: e606 49bc 7666 3abd 19c6 8dbc 3c6a aabd
00000140: 88b9 093b 81f8 0dbc 834d 27bd 16e8 c5bc
00000150: c083 bfbc 5dd0 80bd e270 c23c 6ad9 04bd
00000160: e07d 8bbc 792e b5bc 10ec 4e3c 35c9 eebb
00000170: e57e 17bd 38e4 ac3c 4f17 4ebc 6078 0f3d
00000180: ab96 b5bc 62a9 43bd 6614 fc3c a3a7 0fbd
00000190: d8d0 353c 1e4c 403c 6728 c6bc aa75 9b3b
000001a0: 748f f33c 1f5a 5dbd 898e a23b 6d77 163c
000001b0: f192 783b 920e 6ebd f148 e0bc 4cb9 41bd
000001c0: b0b7 8d3b 3dee 03bd 0af1 2dbd df8d e43b
000001d0: 5730 28bd 3599 283d 0580 f7bc 97a2 113b
000001e0: c527 2b3d ffd2 3ebd 5480 42bd 7fa4 b9bc
000001f0: 9e59 de3c 69fb 0abd 8a0a 0bbd 0c78 833c
00000200: ec2e f5bb 3723 053d cd27 743d 7421 723d
00000210: cd43 0f3c 01c3 7b3d 3a11 383d 26b4 683b
00000220: eb4b 6cbd c25b b33c 698d 103d d917 5b3c
00000230: 6bff 0b3d f0ce 9b3b ccbb bbbb 1ba1 2bbd
00000240: 9393 c93b 7315 1ebd b401 80bc 6609 4abd
00000250: 5a7a a1bc 9887 cdbc e4cc aabc 97f7 77bc
00000260: 13b6 9d3c 60f9 3e3b 7b64 a0bc ac40 2cbc
00000270: 50d2 923c 883e de3b cd61 153d 0b95 3abd
00000280: 35dc 7ebc ee14 14bd 2572 e63b 732a 52ba
00000290: a521 833c ccce 523c 83d7 0f3d ae85 223d
000002a0: d662 28bd 059b eebc 99f5 9ebc 7bca 253d
000002b0: b9ae a2bc a862 083d f716 933b 76d8 393d
000002c0: 299a 34bd f6f9 2a3d 962d 80bd f495 8bba
000002d0: ac62 de3a 1d99 22bc eb69 d3bb c0ee 593c
000002e0: f9a2 a7bc 7d83 95bc 78e5 12bd 4111 e93c
000002f0: d58b 123b 4b3a 923c dfb5 0c3d ad9d 163d
00000300: f0ba be3c 7cc1 9d3b c0da 503d 4a42 2c3d
00000310: d133 b93c dc53 523b 7b4e c1bc e849 cb3a
00000320: bccb 34bb 8985 edbc bb9f cebd 685f 81bc
00000330: e1c1 85bc 9ed9 22bd b28d 18bd 9ff9 45bd
00000340: 8b7c 3b3d 1869 7a3d d0ac 34bd cd07 03bd
00000350: 7474 6fbc 7648 8ebb 0201 2e3d 6bbe e83a
00000360: a765 59bd 0d13 15bd 479c 5cbd 6e2a a8bc
00000370: 415a 213c 8302 123d b395 b33c 5fd0 29bd
00000380: c4cb d4bc 5d1b 34bd be4a e2bb 3616 44bd
00000390: 6dcf 9ebd 84ad a4bd 2646 7cbd 7bbe 0ebd
000003a0: 0140 e3bc 734c 183d fb73 10bd 85b0 633d
000003b0: 2175 bbbb d9fb 093c 3713 933d e576 fd3c
000003c0: f6b5 c23c 4f74 b33d d54f 613d 75f6 4abb
000003d0: eac1 9fbc 1bb4 4ebd 321e ebbc 3e42 07bc
000003e0: 94dc 43bd 0158 d1bc 54b8 3ebd f96c 9dbd
000003f0: 39e0 a53c 093f 753c 4827 e53c 9623 333d

encoder.block1.block.0.bias f4 [32]
0.0059843427 -0.04315757 0.0073733106 0.030793319 0.030605327 -0.04581879 0.011638368 -0.030271083
0.04311466 0.044214096 -0.03569417 -0.012212829 0.026398517 -0.047831137 0.050061483 -0.00073382334
0.029053885 0.03219324 -0.04787911 -0.0030820488 0.008758821 0.0062290044 -0.04734764 0.017402863
0.0070938114 0.012932354 0.04578124 0.019341845 -0.01107076 -0.012299792 0.013271512 -0.04791282
00000000: 4e18 c43b fec5 30bd d09b f13b 4542 fc3c
00000010: 06b8 fa3c 7cac 3bbd daae 3e3c 10fb f7bc
00000020: ff98 303d d719 353d 0d34 12bd 5118 48bc
00000030: b441 d83c 95ea 43bd 450d 4d3d 0d5e 40ba
00000040: 6a02 ee3c 0fdd 033d e31c 44bd 33fc 49bb
00000050: 2881 0f3c ad1c cc3b 99ef 41bd 7390 8e3c
00000060: 3473 e83b 39e2 533c 1c85 3b3d ca72 9e3c
00000070: 2262 35bc 1185 49bc c270 593c 3c40 44bd

encoder.block1.block.1.weight f4 [32]
0.9744715 0.95209736 0.98496854 0.940731 1.0132473 0.99256116 0.9418767 0.9727274
0.9703455 0.9471362 0.9426164 0.9634206 0.9597736 0.9895282 0.9601287 0.99148226
0.99509454 0.9764534 0.96982604 0.9855438 0.9917995 1.0231204 0.93799716 1.0102464
0.9422691 0.96898603 0.9982833 0.9550463 1.0037696 0.97239685 0.9902657 0.99353576
00000000: f776 793f a7bc 733f e626 7c3f bfd3 703f
00000010: 16b2 813f 7d18 7e3f d51e 713f aa04 793f
00000020: 9068 783f 8577 723f 4f4f 713f bca2 763f
00000030: b9b3 753f b851 7d3f ffca 753f c8d1 7d3f
00000040: 84be 7e3f daf8 793f 8546 783f 994c 7c3f
00000050: 92e6 7d3f 9cf5 823f 9520 703f c14f 813f
00000060: 8c38 713f 780f 783f 7f8f 7f3f ea7d 743f
00000070: 867b 803f 00ef 783f 0e82 7d3f 5c58 7e3f

encoder.block1.block.1.bias f4 [32]
0.0018480774 -0.021827493 0.013672693 0.04422255 -0.061468594 -0.017251262 -0.020620279 -0.023850055
-0.0978549 -0.0077088918 0.020217057 0.0059911003 0.01565054 -0.04482795 -0.060438577 -0.002174839
-0.006116493 -0.080334164 -0.021299647 0.048885237 0.010449046 0.022291383 -0.06677521 0.0005995256
0.057890963 0.0009471726 0.05406886 -0.029028066 -0.042659257 -0.016702624 0.07779162 -0.021221
00000000: 303b f23a 92cf b2bc 6e03 603c b422 353d
00000010: 7ec6 7bbd 8552 8dbc dceb a8bc 3161 c3bc
00000020: 2668 c8bd df9a fcbb 3e9e a53c fe50 c43b
00000030: 9035 803c 839d 37bd 718e 77bd be87 0ebb
00000040: dd6c c8bb 3d86 a4bd 997c aebc e33b 483d
00000050: 7a32 2b3c 6b9c b63c 71c1 88bd 7b29 1d3a
00000060: 131f 6d3d ad4b 783a 4f77 5d3d 44cc edbc
00000070: 79bb 2ebd f1d3 88bc 3651 9f3d aad7 adbc

encoder.block1.block.1.running_mean f4 [32]
-1.203196 -0.32215843 0.024826469 -0.024432218 0.058621183 -0.91104615 -0.26399586 -0.062494855
0.49509263 1.030716 -0.4734308 -0.25765145 0.06504983 -0.05102532 0.18447031 0.03535527
0.10336238 -0.5747918 0.8057708 0.05267825 0.09789264 -0.6514375 -0.51864755 0.16962083
0.013975311 0.35021436 -1.4005971 -0.50899094 0.14549369 -0.4898692 1.0318137 -0.90747863
00000000: 5402 9abf f3f1 a4be e160 cb3c 1326 c8bc
00000010: c41c 703d 523a 69bf 772a 87be 9bfa 7fbd
00000020: c87c fd3e 80ee 833f 8665 f2be e4ea 83be
00000030: d838 853d edff 50bd c9e5 3c3e b0d0 103d
00000040: a8af d33d 8e25 13bf ff46 4e3f 26c5 573d
00000050: f07b c83d 9cc4 26bf 16c6 04bf 15b1 2d3e
00000060: b4f8 643c 4c4f b33e c446 b3bf 3b4d 02bf
00000070: 4cfc 143e 23d0 fabe 7912 843f 8550 68bf

encoder.block1.block.1.running_var f4 [32]
1.7924212 0.7398034 0.74394745 0.8804662 1.0459037 1.9452518 1.3993229 1.1523001
0.7865905 2.1997726 1.5455267 0.6123559 1.7560749 0.75598663 0.6135472 0.5784121
1.3486919 1.7853743 1.3207016 1.356316 0.7628364 1.3005756 1.1428916 0.9071325
1.2521443 0.96580964 2.8475735 1.2943298 0.89382863 2.750325 1.2044327 1.5602857
00000000: 0f6e e53f c163 3d3f 5773 3e3f 3c66 613f
00000010: 2ce0 853f 03fe f83f 031d b33f 927e 933f
00000020: ff5d 493f 13c9 0c40 d2d3 c53f 5bc3 1c3f
00000030: 10c7 e03f 5788 413f 6e11 1d3f d112 143f
00000040: f0a1 ac3f 2587 e43f c00c a93f c39b ad3f
00000050: 3f49 433f 4379 a63f 464a 923f d639 683f
00000060: 4446 a03f 4d3f 773f a53e 3640 99ac a53f
00000070: f4d1 643f 5305 3040 da2a 9a3f 71b7 c73f

encoder.block2.block.0.weight f4 [32, 32, 3, 3]
0.008146778 0.006137102 -0.007974201 -0.0066856714 -0.0008247401 -0.019427596 -0.021637445 0.05280967
0.042255633 0.020672692 -0.018109553 -0.020976007 -0.038708426 0.0070508327 0.022147087 0.016483404
-0.023759492 0.02804882 0.023545152 0.0038025565 0.008777102 -0.032403957 0.034287285 0.043283753
0.0030346299 -0.0014567284 0.029126026 -0.0070616095 -0.026439635 -0.0027890068 -0.037414793 0.0035429278
-0.04650858 0.014417236 -0.04961793 0.01304996 -0.042350434 -0.024043493 0.019154126 -0.031165693
0.042816017 -0.0214008 0.015018939 0.08135906 0.03139294 -0.014664862 0.015490764 -0.0424151
0.020418383 0.026480487 -0.0389401 -0.028087897 0.018612154 -0.040949114 -0.02862403 0.038397465
0.023087868 0.003843714 -0.040138014 -0.030304844 -0.032737996 -0.041167274 0.03836025 0.029494727
0.006068356 0.018361777 -0.03271768 0.0071400977 0.03323427 0.015951363 0.022504829 -0.04625338
0.0076516187 0.06048145 0.0036819696 0.036622394 0.08408036 0.094938606 0.05342251 0.07347448
0.055035483 -0.030318787 0.0087050395 -0.027637528 -0.014044879 0.03438599 0.030961297 -0.0039258134
0.047612403 0.043091435 0.013847489 -0.012683242 0.02194569 -0.010121017 -0.023511112 -0.044434994
-0.033555035 0.01171599 -0.065265514 -0.0077399793 0.046445187 0.06437427 0.010182382 0.0007118913
-0.01151537 0.015716633 0.081090815 0.07570806 -0.034050528 -0.0321237 0.053868204 -0.002059573
0.017854717 0.02046718 -0.03764605 -0.03713649 7.6246506e-05 0.025134305 -0.040379673 0.02585558
-0.058463138 -0.06324003 -0.06010977 0.014422625 -0.07023484 0.016889498 -0.010817364 -0.047988817
0.030782137 0.015593822 0.03272908 0.0106841065 -0.007281415 -0.02440818 -0.027571365 -0.034662228
-0.04082457 -0.0016966966 -0.028818673 -0.040790357 0.013957298 0.014950527 0.03797886 0.00946308
-0.043940652 -0.00841782 0.038859382 -0.02110044 0.101496466 -0.00870946 -0.066282906 0.03441268
0.021845443 -0.052398406 -0.024739075 -0.041730467 -0.08229513 -0.093430705 -0.05764436 -0.044636466
-0.09548059 0.015489715 -0.05340877 -0.04257763 -0.04361811 -0.052460387 -0.025485339 -0.055438474
-0.0076603577 -0.016996935 0.01896755 0.011223268 0.016286703 0.0018843514 -0.05114314 -0.033339553
-0.034375276 -0.008898052 0.0197569 0.045140125 0.010921449 0.0008767431 -0.0010424731 0.0725025
-0.023278512 -0.025381679 0.030425463 0.06444112 -0.025056148 -0.0048315926 0.010547267 0.03951222
0.004413473 0.041301712 -0.0022739538 -0.011103975 0.017585237 -0.0015721681 -0.02411293 -0.035326928
-0.008038635 -0.040357277 -0.02089732 0.04279495 0.04203719 -0.03909115 0.045450456 -0.020649495
0.021623513 -0.035210107 0.037944302 0.06377537 0.010370896 0.05625794 0.073645525 0.041980967
0.013058314 -0.034025937 0.013715574 -0.024724362 0.058982495 -0.00440737 0.014815605 -0.014670891
-0.0333133 0.021986976 0.031962495 0.017910497 -0.017034236 0.0036795926 -0.00073622225 0.04236725
0.009393472 -0.017503865 -0.047446262 -0.07071565 -0.066622846 -0.05400878 -0.055694506 -0.0034307002
-0.017730882 -0.031719256 -0.02542279 0.0122848 0.025224123 0.05063233 -0.05694944 -0.05060889
-0.03906411 -0.008175987 0.025845371 0.0026652506 -0.025924172 0.03987199 -0.058477793 -0.0096405195
00000000: 107a 053c be19 c93b 39a6 02bc 7a13 dbbb
00000010: 5f33 58ba 9f26 9fbc 0341 b1bc f44e 583d
00000020: 3e14 2d3d c759 a93c 7c5a 94bc e0d5 abbc
00000030: ba8c 1ebd ac0a e73b cf6d b53c 3408 873c
00000040: 44a3 c2bc a4c6 e53c c3e1 c03c 5034 793b
00000050: d6cd 0f3c 03ba 04bd d370 0c3d 4e4a 313d
00000060: a4e0 463b b2ef beba b499 ee3c 1365 e7bb
00000070: ef97 d8bc c5c7 36bb 4140 19bd 7730 683b
00000080: c87f 3ebd 4536 6c3c 2c3c 4bbd 80cf 553c
00000090: a677 2dbd dcf6 c4bc 1de9 9c3c 324f ffbc
000000a0: d95f 2f3d bb50 afbc ff11 763c 949f a63d
000000b0: e295 003d e444 70bc f9cc 7d3c 75bb 2dbd
000000c0: 7444 a73c 9bed d83c a87f 1fbd 9718 e6bc
000000d0: 8478 983c 42ba 27bd f17c eabc a946 1d3d
000000e0: c522 bd3c d2e6 7b3b c267 24bd dd41 f8bc
000000f0: 4718 06bd 049f 28bd a31f 1d3d ed9e f13c
00000100: 0fd9 c63b 706b 963c f902 06bd 7bf7 e93b
00000110: a820 083d 6fac 823c 0c5c b83c 2f74 3dbd
00000120: 6eba fa3b 66bb 773d 334d 713b 5d01 163d
00000130: 5332 ac3d 2c6f c23d 90d1 5a3d ca79 963d
00000140: e36c 613d 1b5f f8bc 959f 0e3c 1968 e2bc
00000150: 7e1c 66bc 53d8 0c3d 8ca2 fd3c 1ca4 80bb
00000160: 3905 433d a580 303d 94e0 623c 5fcd 4fbc
00000170: 73c7 b33c 9fd2 25bc 609a c0bc 7801 36bd
00000180: 0171 09bd 6cf4 3f3c eda9 85bd a79f fdbb
00000190: 4f3d 3e3d a8d6 833d 01d4 263c 379e 3a3a
000001a0: f6aa 3cbc 2bc0 803c f112 a63d d40c 9b3d
000001b0: 9178 0bbd 2494 03bd e8a4 5c3d e7f9 06bb
000001c0: 0e44 923c caaa a73c bf32 1abd 6f1c 18bd
000001d0: 88e6 9f38 75e6 cd3c 2865 25bd 15cf d33c
000001e0: 0b77 6fbd fd83 81bd aa35 76bd e04c 6c3c
000001f0: 49d7 8fbd d85b 8a3c 503b 31bc ec8f 44bd
00000200: d22a fc3c 3b7d 7f3c ee0e 063d 640c 2f3c
00000210: f098 eebb aaf3 c7bc 58dd e1bc fbf9 0dbd
00000220: aa37 27bd b163 deba 2315 ecbc ca13 27bd
00000230: 27ad 643c 0ef3 743c b98f 1b3d 090b 1b3c
00000240: 1dfb 33bd e5ea 09bc 042b 1f3d d4da acbc
00000250: 61dd cf3d 1fb2 0ebc 55bf 87bd 4ff4 0c3d
00000260: 37f5 b23c b69f 56bd 9aa9 cabc 91ed 2abd
00000270: 598a a8bd 9958 bfbd 7e1c 6cbd bad4 36bd
00000280: 548b c3bd 93c8 7d3c 28c3 5abd e265 2ebd
00000290: e7a8 32bd b4e0 56bd a1c6 d0bc 7413 63bd
000002a0: bd03 fbbb 283d 8bbc d661 9b3c cce1 373c
000002b0: b16b 853c 57fc f63a 787b 51bd 0e8f 08bd
000002c0: 17cd 0cbd 23c9 11bc 39d9 a13c dae4 383d
000002d0: e1ef 323c 3cd5 653a 98a3 88ba 317c 943d
000002e0: 94b2 bebc 3ded cfbc d23e f93c b5f9 833d
000002f0: 8d42 cdbc 5652 9ebb 72ce 2c3c 91d7 213d
00000300: e59e 903b fc2b 293d 9d06 15bb 72ed 35bc
00000310: ea0e 903c 3511 ceba 7b88 c5bc f8b2 10bd
00000320: 7bb4 03bc ac4d 25bd db30 abbc c249 2f3d
00000330: 302f 2c3d 0b1e 20bd 422a 3a3d 2129 a9bc
00000340: cb23 b13c 7938 10bd 7c6b 1b3d a99c 823d
00000350: b1ea 293c ba6e 663d 77d3 963d 3cf4 2b3d
00000360: 8af2 553c c85e 0bbd 49b7 603c bf8a cabc
00000370: a197 713d b36b 90bb 27bd 723c 2d5e 70bc
00000380: 8773 08bd 081e b43c 1beb 023d 09b9 923c
00000390: 628b 8bbc 5225 713b 0aff 40ba 4889 2d3d
000003a0: 14e7 193c 4464 8fbc 0357 42bd 5ed3 90bd
000003b0: 8f71 88bd 4f38 5dbd ec1f 64bd 99d5 60bb
000003c0: 5b40 91bc 0dec 01bd 7443 d0bc 3046 493c
000003d0: d2a2 ce3c d963 4f3d d143 69bd 444b 4fbd
000003e0: b001 20bd 93f4 05bc acb9 d33c 7cab 2e3b
000003f0: ee5e d4bc d050 233d 6986 6fbd 45f3 1dbc

encoder.block2.block.0.bias f4 [32]
0.038764153 0.039827503 0.027683664 0.0017672824 0.025555283 -0.039068498 0.038053535 0.047832526
-0.006443003 0.050435137 0.027465014 -0.024139483 -0.028858643 -0.023919024 -0.053356275 -0.002561228
-0.048539422 -0.0022337479 0.044702943 0.022834115 0.006493837 -0.029524116 0.024049127 0.050377063
-0.02387305 -0.0112233935 -0.053240124 0.033223327 0.040149987 0.005753582 0.019684732 -0.056287576
00000000: 29c7 1e3d 2a22 233d dac8 e23c 28a4 e73a
00000010: 5059 d13c 4a06 20bd 06de 1b3d 0aec 433d
00000020: d41f d3bb 1395 4e3d 4ffe e03c 2ac0 c5bc
00000030: f668 ecbc d4f1 c3bc 1c8c 5abd 46da 27bb
00000040: 46d1 46bd 1264 12bb 6f1a 373d 9c0e bb3c
00000050: 41ca d43b 8fdc f1bc ad02 c53c 2e58 4e3d
00000060: 6a91 c3bc 53e2 37bc 5112 5abd 2f15 083d
00000070: 5074 243d 8b88 bc3b e041 a13c cd8d 66bd

encoder.block2.block.1.weight f4 [32]
0.97426015 0.9692924 0.97261274 0.9584863 0.9325057 0.96404177 0.9598708 0.9384171
0.96349454 0.97064525 0.9608908 0.9572945 0.9617809 0.97509557 0.9653626 0.9542116
0.97790647 0.96115583 0.96869373 0.95988554 0.9466566 0.9535144 0.9550647 0.96502477
0.94634193 0.96438116 0.99357885 0.9557597 0.9820484 0.94353193 0.95744807 0.96806437
00000000: 1d69 793f 8c23 783f 26fd 783f 5c5f 753f
00000010: b2b8 6e3f 71cb 763f 18ba 753f 1a3c 703f
00000020: 94a7 763f 357c 783f f1fc 753f 4111 753f
00000030: 4637 763f dd9f 793f 0122 773f 3647 743f
00000040: 1458 7a3f 4f0e 763f 50fc 773f 0fbb 753f
00000050: 1658 723f 8519 743f 1f7f 743f dd0b 773f
00000060: 7743 723f afe1 763f 2f5b 7e3f abac 743f
00000070: 8667 7b3f 4f8b 713f 511b 753f 11d3 773f

encoder.block2.block.1.bias f4 [32]
0.11501036 -0.02572416 -0.04515827 -0.0517928 0.0040908526 -0.07028712 -0.008624496 -0.047227982
-0.021256495 -0.10947736 0.013543551 0.06363548 -0.045076165 0.121937744 0.088069454 0.09017292
-0.053219244 0.09355966 -0.052659813 0.1082997 0.08401681 0.100902826 -0.051026516 -0.066654176
0.017647108 0.11621348 -0.101763144 -0.06473924 -0.01710308 0.005701652 0.11005791 -0.033908695
00000000: 8d8a eb3d 79bb d2bc e1f7 38bd b024 54bd
00000010: 8f0c 863b b2f2 8fbd c24d 0dbc 2172 41bd
00000020: 1a22 aebc ab35 e0bd c5e5 5d3c 5253 823d
00000030: c9a1 38bd 7fba f93d c25d b43d 94ac b83d
00000040: 6cfc 59bd 359c bf3d d1b1 57bd 3ccc dd3d
00000050: 0111 ac3d 24a6 ce3d 2e01 51bd fc81 88bd
00000060: ab90 903c 5501 ee3d 3269 d0bd 0296 84bd
00000070: c21b 8cbc ecd4 ba3b 0b66 e13d d8e3 0abd

encoder.block2.block.1.running_mean f4 [32]
-0.008306997 -0.27462164 -0.3574841 -0.23340662 -0.3297133 -0.41502625 -0.074018046 -0.39725175
0.34338552 0.1719834 0.26859182 0.12438443 -0.113590896 -0.08808667 -0.22017163 -0.35066548
-0.12670031 -0.4235886 0.36695695 0.31971353 0.05545636 -0.3468872 -0.111321405 0.35364014
-0.81051576 -0.11120253 0.4610388 0.12015848 0.10871968 -0.15641312 0.5126616 -0.15386584
00000000: 121a 08bc 359b 8cbe 2808 b7be 2502 6fbe
00000010: 2fd0 a8be 527e d4be c696 97bd 9564 cbbe
00000020: 3ad0 af3e 6b1c 303e de84 893e 44bd fe3d
00000030: 58a2 e8bd c966 b4bd ac74 61be 6d8a b3be
00000040: babd 01be 9be0 d8be c8e1 bb3e 7eb1 a33e
00000050: 3526 633d 339b b1be 7afc e3bd 5210 b53e
00000060: f67d 4fbf 27be e3bd 470d ec3e a615 f63d
00000070: 6ca8 de3d c32a 20be ca3d 033f 028f 1dbe

encoder.block2.block.1.running_var f4 [32]
0.7131334 1.7565861 1.4189471 0.58432174 0.973579 1.5539253 1.3427565 0.94178087
1.8072399 2.1769502 1.3481859 2.1893198 1.7128074 1.1021825 1.211883 0.7622953
1.6219777 1.3938382 1.1886618 0.87741435 1.4946265 0.8434112 2.218794 1.5293797
0.7074658 1.5905262 2.0244915 1.3380982 1.1963967 1.1457926 0.9079338 1.4673918
00000000: e98f 363f d0d7 e03f 0fa0 b53f 1c96 153f
00000010: 793c 793f 06e7 c63f 72df ab3f 8d18 713f
00000020: a353 e73f 2753 0b40 5b91 ac3f d11d 0c40
00000030: 463d db3f 5114 8d3f fb1e 9b3f c925 433f
00000040: f79c cf3f 4a69 b23f 1226 983f 3a9e 603f
00000050: ec4f bf3f cce9 573f b900 0e40 b7c2 c33f
00000060: 7b1c 353f 5d96 cb3f 4591 0140 cd46 ab3f
00000070: 8723 993f 55a9 923f 596e 683f 7fd3 bb3f

encoder.final.block.0.weight f4 [3, 32, 3, 3]
0.02940758 -0.017435 0.029657973 -0.008720779 0.02743837 0.0020754784 -0.0023451184 0.050933827
-0.017764056 -0.03596703 -0.007025136 0.057205122 0.02385217 0.04882314 -0.030714665 -0.041013435
0.05832478 0.029774228 0.031320523 0.007284465 0.019304022 0.030499803 -0.036915302 -0.021063223
0.016899383 0.053476654 -0.0040024393 0.010650138 0.04071814 0.017192427 0.04848472 0.06755958
-0.009150622 0.015763205 0.03888861 0.0016719865 -0.046995323 -0.037157323 0.024147358 0.04533848
-0.024795186 -0.017378112 0.005719936 -0.029365817 0.018438192 -0.018732317 0.015587745 -0.05847253
-0.04477445 -0.041839235 -0.059744857 -0.014428133 -0.031550955 0.018290082 -0.020770429 -0.014515183
0.0020249719 -0.038814135 -0.033326082 -0.039663613 -0.013798297 -0.016182503 -0.02573257 -0.0052322852
0.0032733937 0.018965341 0.050791297 0.016821563 0.022387955 -0.041105572 -0.027231812 -0.024145534
0.034934837 0.023798056 0.030875742 0.0023545998 -0.04929512 0.0420766 0.03459815 -0.046035495
0.028361231 -0.059137 0.011940029 -0.069155104 0.008221344 -0.06545187 0.014550941 -0.005537549
-0.023533674 0.024836808 -0.03313837 -0.05350425 -0.02573229 0.05156509 -0.044039868 -0.003730896
-0.014174672 -0.052820407 -0.038748506 -0.047497 0.02136581 -0.020454606 0.020087646 -0.0069731907
-0.038779017 0.033239573 0.037559684 -0.017018884 0.011209333 -0.030037079 -0.025607442 0.03488214
0.0015167501 -0.0063831704 -0.005390873 -0.040493816 -0.011576068 0.022336945 0.021322481 0.05300828
0.05942702 -0.02108212 0.06939214 0.00019841584 0.028783621 0.063013464 0.048817217 -0.015097594
0.00020779723 -0.0035028001 0.025700467 0.06906245 -0.0013433981 0.03924822 0.017061915 -0.005292197
0.006061003 0.026484758 0.030653687 0.04612831 0.04416566 -0.022014376 0.02601001 -0.017680349
0.041269824 0.033038452 -0.053734247 0.030102134 -0.008377607 0.049795493 -0.025817303 0.017186498
0.029796217 0.04337172 -0.0096141035 0.029627774 0.025991285 0.024230916 0.038741305 0.02994795
-0.011251412 -0.029196173 -0.022554958 0.05429565 0.0012592681 0.04146203 -0.037730187 0.0153016085
0.035549197 -0.0051124445 0.026199026 -0.0523479 -0.047143295 -0.031018134 -0.047973607 -0.0052131154
0.016599547 -0.016320722 -0.04873927 -0.03293447 0.049916014 0.021474792 0.026357189 0.040907916
-0.026672773 0.012409039 0.018441234 0.049496714 -0.005583934 -0.021461181 -0.009581175 0.0357726
0.024228415 0.047556035 0.026923489 0.033580113 0.035267524 0.027158607 -0.026120171 0.028946552
-0.012299305 -0.03743603 0.011386664 -0.038286377 0.018826997 0.05847685 -0.001611527 -0.00180569
-0.0612515 -0.0434853 -0.064653635 -0.07515447 0.026978549 -0.027502373 -0.021503093 -0.01783899
0.035312716 -0.0015615232 -0.010445488 0.006822176 0.041954346 -0.009655799 0.019735534 0.011785573
0.023629945 0.03638757 -0.020383509 0.05277401 0.022339877 0.034950994 -0.018393178 0.03565044
-0.019816482 0.029161386 -0.08242562 -0.044050395 -0.025233926 -0.062403627 0.01009629 -0.05842639
-0.070083685 -0.043162096 -0.010055375 0.017470231 -0.046410028 0.0056855544 0.045820206 0.02054313
-0.017018994 0.02745335 -0.014713704 -0.01870602 0.011892943 0.0074650464 0.023564454 0.017903335
00000000: 2ae8 f03c d8d3 8ebc 47f5 f23c 99e1 0ebc
00000010: 6fc6 e03c c004 083b 8fb0 19bb fd9f 503d
00000020: ed85 91bc 2a52 13bd 1d33 e6bb eb4f 6a3d
00000030: a065 c33c c6fa 473d 529d fbbc b4fd 27bd
00000040: f7e5 6e3d 15e9 f33c f349 003d 85b2 ee3b
00000050: 7823 9e3c b9da f93c 8034 17bd c88c acbc
00000060: 9370 8a3c 560a 5b3d e526 83bb eb7d 2e3c
00000070: 10c8 263d 22d7 8c3c ea97 463d ad5c 8a3d
00000080: 7eec 15bc d621 813c aa49 1f3d 8f26 db3a
00000090: 2b7e 40bd 4732 18bd aed0 c53c d8b4 393d
000000a0: 461f cbbc 8b5c 8ebc 4d6e bb3b 9590 f0bc
000000b0: b10b 973c 8474 99bc be63 7f3c e480 6fbd
000000c0: 6a65 37bd 9e5f 2bbd 06b7 74bd fa63 6cbc
000000d0: 933b 01bd 15d5 953c bf26 aabc 17d1 6dbc
000000e0: 64b5 043b 92fb 1ebd ee80 08bd 5076 22bd
000000f0: 4112 62bc 2b91 84bc 1ccd d2bc 9773 abbb
00000100: 6f86 563b 345d 9b3c 890a 503d 60cd 893c
00000110: f266 b73c 515e 28bd 4015 dfbc dbcc c5bc
00000120: d517 0f3d 24f4 c23c 20ef fc3c a14f 1a3b
00000130: aee9 49bd 8358 2c3d cab6 0d3d b78f 3cbd
00000140: d055 e83c a439 72bd 1da0 433c 31a1 8dbd
00000150: d1b2 063c a10b 86bd 1267 6e3c 5474 b5bb
00000160: b1c9 c0bc 9076 cb3c 19bc 07bd 4627 5bbd
00000170: 86cc d2bc ea35 533d 2663 34bd 0c82 74bb
00000180: e23c 68bc 365a 58bd c1b6 1ebd 378c 42bd
00000190: 5a07 af3c 6b90 a7bc d98e a43c 5d7f e4bb
000001a0: bfd6 1ebd 3826 083d 2fd8 193d 306b 8bbc
000001b0: 5aa7 373c 5210 f6bc b3c6 d1bc 93e0 0e3d
000001c0: b0cd c63a ea29 d1bb eca5 b0bb d8dc 25bd
000001d0: 8ca9 3dbc f8fb b63c 7cac ae3c 361f 593d
000001e0: bf69 733d 69b4 acbc 771d 8e3d d90d 5039
000001f0: a1cb eb3c 340d 813d 90f4 473d e65b 77bc
00000200: 25e4 5939 3c8f 65bb c989 d23c 9d70 8d3d
00000210: f614 b0ba bec2 203d 6ec5 8b3c 2b6a adbb
00000220: 619b c63b 90f6 d83c 711d fb3c 0af1 3c3d
00000230: 0de7 343d 7e57 b4bc f212 d53c 61d6 90bc
00000240: 8c0a 293d 5453 073d 7118 5cbd c098 f63c
00000250: 3b42 09bc 5cf6 4b3d cf7e d3bc b3ca 8c3c
00000260: 3217 f43c 8ba6 313d 7984 1dbc f2b5 f23c
00000270: adeb d43c ea7f c63c 34af 1e3d 6755 f53c
00000280: d857 38bc d02c efbc 2dc5 b8bc 1e65 5e3d
00000290: 070e a53a 17d4 293d f88a 1abd 99b3 7a3c
000002a0: 099c 113d 4b86 a7bb 579f d63c c06a 56bd
000002b0: 5419 41bd be19 febc f97f 44bd c8d2 aabb
000002c0: c6fb 873c 09b3 85bc d4a2 47bd 4be6 06bd
000002d0: bc74 4c3d e7eb af3c 08eb d73c 0f8f 273d
000002e0: dc80 dabc 484f 4b3c 1212 973c 11bd 4a3d
000002f0: 6ff9 b6bb 5ccf afbc 5cfa 1cbc 4a86 123d
00000300: ab7a c63c 1eca 423d a68e dc3c 4d8b 093d
00000310: ae74 103d ba7b de3c f8f9 d5bc 5221 ed3c
00000320: 0683 49bc 8656 19bd 218f 3a3c 2dd2 1cbd
00000330: 133b 9a3c 6c85 6f3d e039 d3ba e7ac ecba
00000340: dae2 7abd a41d 32bd 2069 84bd 96ea 99bd
00000350: 1e02 dd3c a84c e1bc 4127 b0bc 1323 92bc
00000360: 11a4 103d 06ac ccba 8d23 2bbc 8f8c df3b
00000370: 52d8 2b3d 5b33 1ebc 6aac a13c 4718 413c
00000380: 9693 c13c 220b 153d 51fb a6bc 8f29 583d
00000390: 1e02 b73c c628 0f3d 4aad 96bc 3206 123d
000003a0: 2d56 a2bc dce3 ee3c c3ce a8bd 306e 34bd
000003b0: 61b7 cebc f29a 7fbd e96a 253c 8350 6fbd
000003c0: 0988 8fbd bdca 30bd 4dbf 24bc bb1d 8f3c
000003d0: 7118 3ebd e34d ba3b f8ad 3b3d 114a a83c
000003e0: 6b6b 8bbc d9e5 e03c bf11 71bc 5e3d 99bc
000003f0: 9eda 423c 599d f43b 3e0a c13c 04aa 923c

encoder.final.block.0.bias f4 [3]
0.06622305 0.08425971 0.030421993
00000000: f39f 873d 5b90 ac3d 8b37 f93c

decoder.initial.block.0.weight f4 [32, 3, 3, 3]
0.14606613 -0.17460726 0.052753564 0.04395144 0.15164948 -0.09089755 0.07695762 -0.21182498
0.068088986 -0.11241941 0.17640649 -0.034860678 -0.15886821 0.10739054 -0.18014604 -0.07280813
0.18151993 0.087955885 -0.027124159 -0.04783644 0.04716835 0.038252246 0.114628054 0.051895816
0.08672639 -0.11281431 -0.072722115 -0.120115265 0.071336046 0.05727619 0.15917492 -0.2546352
0.14503257 -0.074383505 -0.033761244 0.01016244 -0.14528884 0.0066996324 -0.21107176 -0.006626628
0.13146812 0.0019199359 0.015041837 0.11388861 0.07859965 0.07801362 0.118678994 0.05895719
0.17086169 -0.12394255 -0.22206914 -0.059394162 -0.15513897 0.0022985877 -0.08147467 0.11847827
-0.010704385 -0.1676695 -0.047049064 -0.003482219 0.0745033 0.11373897 -0.09282915 -0.07879319
0.116495974 -0.14911543 0.18423806 -0.20312394 -0.08332762 -0.1350691 0.08521617 0.13972221
-0.15468216 -0.050993178 -0.0949417 0.07887986 0.20724125 -0.017587977 -0.11176026 0.019231498
-0.03158948 -0.06406847 0.019019641 -0.026970081 -0.08462932 0.08026209 -0.025623044 0.102963895
-0.16292235 0.1059838 0.1602464 -0.12962379 -0.08795816 -0.13497555 0.18841884 0.027792672
-0.12849288 0.07606424 -0.1104257 -0.14010961 -0.16825221 0.03072309 0.106756486 -0.09532565
0.02406574 -0.0067725186 0.065562114 -0.1515647 0.022800738 0.15234683 -0.091713086 -0.08491952
-0.21294658 0.11161615 -0.041742515 0.073528156 0.052983742 0.023063723 -0.13043182 0.01577286
0.06817932 0.1408368 -0.1477178 0.16618954 -0.16137205 -0.01827855 -0.024417233 -0.021379976
0.04822689 -0.047653895 0.02091127 0.07162209 -0.12836282 0.10444725 -0.08758139 0.12681565
0.110587284 -0.16445343 0.1796917 -0.178109 0.0878384 -0.026471065 -0.13764714 0.012675289
-0.17821427 -0.1236433 0.046990518 0.015703052 -0.027117714 0.025572054 0.05171497 0.14960611
0.072072655 0.00826743 0.0494163 0.11842953 -0.14784867 0.20437305 -0.09067514 -0.034225322
-0.0020637913 -0.09575813 -0.028561905 -0.224458 0.004732646 -0.06747744 0.16642042 -0.1444124
0.09942178 0.124854 0.055379517 -0.0073825726 0.23023105 -0.0921728 -0.12262313 0.12344624
0.13198335 0.013528354 -0.23380032 -0.10267073 0.021605382 0.025018228 0.0028011117 0.044215113
-0.25969592 0.07762237 -0.0539911 0.06962152 -0.0010759019 0.062856875 -0.06530127 -0.019111237
0.01069749 0.15265942 0.03969808 0.010519762 -0.17336267 0.005128023 -0.07980933 0.10006922
-0.14431053 -0.12604983 0.11109236 -0.1395909 0.0056100776 0.08909439 0.09638886 0.024909144
-0.07050866 0.19420277 0.079055 -0.30358166 0.12970595 -0.041175608 0.043748904 -0.12140363
0.14253971 0.061154082 0.10039739 -0.17298841 -0.0078217285 -0.043113783 0.14845134 -0.16433062
-0.060398035 -0.04826364 -0.03546623 -0.1576343 0.00016479654 0.20405856 0.092539795 -0.20673352
0.1462572 0.03345319 -0.01668904 -0.12479065 -0.02477271 -0.15597364 0.1733785 -0.05215805
-0.011819938 0.11493689 0.08387409 -0.20418793 -0.035965323 -0.04581282 -0.17799826 0.20953625
-0.09876329 0.068129465 0.10737377 0.18453564 -0.1245578 -0.020450527 0.05560093 -0.17398806
00000000: 5c92 153e 3fcc 32be 1f14 583d 6d06 343d
00000010: 004a 1b3e 7f28 babd f59b 9d3d a6e8 58be
00000020: 3d72 8b3d 263c e6bd e7a3 343e 12ca 0ebd
00000030: 59ae 22be 92ef db3d 3478 38be 6e1c 95bd
00000040: 5ce0 393e 3722 b43d 7c33 debc 25f0 43bd
00000050: 9a33 413d 63ae 1c3d 1dc2 ea3d b590 543d
00000060: 9b9d b13d 300b e7bd 55ef 94bd fefe f5bd
00000070: a218 923d 709a 6a3d c0fe 223e 8c5f 82be
00000080: 6b83 143e 6156 98bd 3b49 0abd 5d80 263c
00000090: 99c6 14be 9788 db3b 3223 58be 2f24 d9bb
000000a0: 949f 063e 5ca6 fb3a 0972 763c 6e3e e93d
000000b0: daf8 a03d 9bc5 9f3d f90d f33d 187d 713d
000000c0: 5ef6 2e3e 97d5 fdbd 1866 63be 4b47 73bd
000000d0: c0dc 1ebe e7a3 163b 31dc a6bd bca4 f23d
000000e0: 7261 2fbc 8eb1 2bbe 85b6 40bd f135 64bb
000000f0: 3095 983d faef e83d 361d bebd 535e a1bd
00000100: 7195 ee3d b7b1 18be e7a8 3c3e b9ff 4fbe
00000110: aca7 aabd 8e4f 0abe d185 ae3d 5713 0f3e
00000120: 0065 1ebe 39de 50bd cb70 c2bd c48b a13d
00000130: 0d37 543e a914 90bc 90e2 e4bd 608b 9d3c
00000140: f863 01bd 5436 83bd 14cf 9b3c 5cf0 dcbc
00000150: 2352 adbd 7360 a43d 6be7 d1bc bcde d23d
00000160: 1ed5 26be 090e d93d a217 243e 19bc 04be
00000170: 6823 b4bd 0837 0abe def0 403e 75ad e33c
00000180: a393 03be 91c7 9b3d df26 e2bd e578 0fbe
00000190: 4f4a 2cbe fdae fb3c 25a3 da3d 183a c3bd
000001a0: 8425 c53c 01ec ddbb 6e45 863d c733 1bbe
000001b0: 9dc8 ba3c cf00 1c3e 12d4 bbbd 49ea adbd
000001c0: ab0e 5abe 0297 e43d 33fa 2abd ee95 963d
000001d0: 7b05 593d 22f0 bc3c eb8f 05be 1636 813c
000001e0: 99a1 8b3d 8637 103e 5643 17be 972d 2a3e
000001f0: b73e 25be e6bc 95bc a606 c8bc 0f25 afbc
00000200: 8f89 453d bb30 43bd 1d4e ab3c 9aae 923d
00000210: 8b71 03be 71e8 d53d df5d b3bd f6db 013e
00000220: 967b e23d 7b66 28be 1a01 383e 3562 36be
00000230: 9ee4 b33d d9d9 d8bc 5ff3 0cbe 04ac 4f3c
00000240: cd7d 36be b338 fdbd 2179 403d b0a3 803c
00000250: f825 debc 7c7c d13c 14d3 533d 5832 193e
00000260: d49a 933d 1d74 073c bf68 4a3d 2e8b f23d
00000270: a465 17be 2b47 513e e3b3 b9bd da2f 0cbd
00000280: ac40 07bb d71c c4bd a8fa e9bc 51d8 65be
00000290: 5014 9b3b 9d31 8abd 1d6a 2a3e d8e0 13be
000002a0: a59d cb3d 74b3 ff3d a2d5 623d 82e9 f1bb
000002b0: b0c1 6b3e 18c5 bcbd d621 fbbd 62d1 fc3d
000002c0: a526 073e 07a6 5d3c 5a69 6fbe 0845 d2bd
000002d0: c5fd b03c 07f3 cc3c db92 373b e81a 353d
000002e0: ddf6 84be 7af8 9e3d c625 5dbd ba95 8e3d
000002f0: 4705 8dba 1bbb 803d acbc 85bd 2b8f 9cbc
00000300: 8644 2f3c c052 1c3e 749a 223d 145b 2c3c
00000310: fc85 31be fa08 a83b 1373 a3bd 17f1 cc3d
00000320: 24c6 13be 3513 01be 6484 e33d ebf0 0ebe
00000330: bed4 b73b 1f77 b63d 8667 c53d 430e cc3c
00000340: d866 90bd 17dd 463e 96e7 a13d 0e6f 9bbe
00000350: a3d1 043e c1a7 28bd 0d32 333d 77a2 f8bd
00000360: eef5 113e b47c 7a3d 269d cd3d e023 31be
00000370: b526 00bc 1498 30bd a103 183e 4946 28be
00000380: ee63 77bd 18b0 45bd 0a45 11bd e36a 21be
00000390: 3ccd 2c39 baf4 503e 8185 bd3d f4b1 53be
000003a0: 73c4 153e 3606 093d 74b7 88bc 3e92 ffbd
000003b0: 23f0 cabc 8eb7 1fbe 228a 313e aea3 55bd
000003c0: 6aa8 41bc 0864 eb3d 2ec6 ab3d a416 51be
000003d0: 6050 13bd 39a6 3bbd 2d45 36be ac90 563e
000003e0: 6844 cabd 7687 8b3d c7e6 db3d e9f6 3c3e
000003f0: 2918 ffbd dd87 a7bc cdbd 633d ed29 32be

decoder.initial.block.0.bias f4 [32]
0.082380675 -0.18397819 0.14771968 -0.06708018 -0.14028104 -0.15331036 -0.15149814 -0.04886927
-0.11950444 0.16261487 0.08477554 0.1817947 -0.17644061 -0.11463528 -0.1005842 -0.13434799
0.16633964 -0.08276194 0.09742206 -0.011352261 -0.15347317 0.05061472 0.16773024 -0.009750721
0.02548874 -0.055985507 -0.1387093 0.09349441 0.09098676 -0.01896821 0.1161001 -0.1851555
00000000: 33b7 a83d c764 3cbe d443 173e 5561 89bd
00000010: d5a5 0fbe 64fd 1cbe 5422 1bbe 252b 48bd
00000020: bebe f4bd 8384 263e cc9e ad3d 6428 3a3e
00000030: d9ac 34be e7c5 eabd 17ff cdbd 8592 09be
00000040: f054 2a3e 187f a9bd 3885 c73d d5fe 39bc
00000050: 1228 1dbe 6151 4f3d 7ac1 2b3e 7dc1 1fbc
00000060: c3cd d03c 0f51 65bd d009 0ebe ff79 bf3d
00000070: 4457 ba3d 3863 9bbc e4c5 ed3d 6799 3dbe

decoder.initial.block.1.weight f4 [32]
0.9068938 0.945132 1.0337145 1.0668532 0.97680604 0.7093759 0.9647283 0.95270276
0.851628 0.90286046 1.0441861 1.0119615 0.92815083 0.9409223 0.8785429 0.8986326
0.9896155 0.8625012 0.83155465 0.988411 0.7123525 0.8980762 0.9069308 0.9883592
0.97219616 0.93115085 1.0654562 0.9237451 0.97066045 0.9209152 0.9515393 0.94224733
00000000: 312a 683f 2cf4 713f c250 843f a58e 883f
00000010: f60f 7a3f a999 353f 6ff8 763f 54e4 733f
00000020: 4b04 5a3f dd21 673f e4a7 853f f487 813f
00000030: 4b9b 6d3f 49e0 703f 30e8 603f c90c 663f
00000040: 7157 7d3f e1cc 5c3f c4e0 543f 8108 7d3f
00000050: bc5c 363f 52e8 653f 9e2c 683f 1c05 7d3f
00000060: d9e1 783f e75f 6e3f de60 883f 8f7a 6c3f
00000070: 347d 783f 19c1 6b3f 1498 733f 1f37 713f

decoder.initial.block.1.bias f4 [32]
0.31345928 0.33426875 0.31329897 0.11787701 0.579414 0.8591461 0.4365663 0.45123717
0.3391596 0.25741762 0.057743188 0.09798722 0.1424897 0.24335891 0.16300738 0.53396744
0.16203836 0.17515717 0.64567184 -0.030961238 0.6891013 0.16950059 0.13203186 0.07287567
0.22181961 0.2626572 0.20494244 0.33366963 0.16424122 0.06937716 0.20587511 0.38301978
00000000: bc7d a03e 4625 ab3e b968 a03e 8069 f13d
00000010: 7a54 143f 00f1 5b3f 9e85 df3e 8f08 e73e
00000020: 54a6 ad3e 3ecc 833e 1f84 6c3d 86ad c83d
00000030: d2e8 113e 1433 793e 68eb 263e 17b2 083f
00000040: 62ed 253e 675c 333e c04a 253f 6ca2 fdbc
00000050: f168 303f 9091 2d3e 5c33 073e d73f 953d
00000060: ae24 633e 017b 863e 6edc 513e bfd6 aa3e
00000070: da2e 283e 9d15 8e3d edd0 523e 2b1b c43e

decoder.initial.block.1.running_mean f4 [32]
0.1412729 -0.2622519 -0.014455915 -0.2869094 -0.1936652 -0.12967862 -0.21344389 -0.10130081
-0.11027954 0.15999728 0.32024857 0.31723368 -0.09867772 0.022572324 -0.060557198 -0.18682227
0.23521747 -0.024586586 0.057958946 0.10581919 -0.13313648 0.16532521 0.22859885 0.062824726
0.016950428 -0.12326916 -0.2783882 0.13789295 0.01442727 0.035209294 0.19470859 -0.23852812
00000000: d8a9 103e e245 86be 81d8 6cbc cae5 92be
00000010: 2c50 46be 79ca 04be 0991 5abe cd76 cfbd
00000020: 3dda e1bd 54d6 233e 9ff7 a33e 746c a23e
00000030: 8b17 cabd 98e9 b83c d30a 78bd 564e 3fbe
00000040: d9dc 703e cf69 c9bc 5c66 6d3d bbb7 d83d
00000050: ee54 08be 034b 293e d115 6a3e 40aa 803d
00000060: a0db 8a3c 8b74 fcbd e688 8ebe cf33 0d3e
00000070: 5b60 6c3c 9f37 103d b061 473e b740 74be

decoder.initial.block.1.running_var f4 [32]
0.0009516592 0.0017450113 0.005714496 0.0098422095 0.00066925195 0.00036595805 0.0010543128 0.00082721724
0.0011272772 0.007552793 0.010339521 0.0039093127 0.0013493898 0.0039609717 0.0009492198 0.0008167152
0.0016154904 0.004943908 0.00047851732 0.002813523 0.00044322002 0.003279882 0.0029851987 0.0012949674
0.003777024 0.0012228828 0.0034570114 0.0006816802 0.0022692094 0.0014697949 0.0016382698 0.0014295861
00000000: c578 793a ddb8 e43a ab40 bb3b 3841 213c
00000010: bd70 2f3a 0fde bf39 de30 8a3a 9cd9 583a
00000020: 25c1 933a 6b7d f73b 1867 293c b119 803b
00000030: 02de b03a 0acb 813b 10d5 783a d418 563a
00000040: ddbe d33a 8200 a23b 82e1 fa39 1563 383b
00000050: fc5f e839 4af3 563b 53a3 433b e5bb a93a
00000060: f387 773b 2349 a03a 078f 623b c9b2 323a
00000070: 04b7 143b 22a6 c03a 36bb d63a f360 bb3a
