results/models/long/BasicSteganoGAN/4/epoch_44.pth (torch, 322207 bytes, 59 tensors)

encoder.initial.block.0.weight f4 [32, 3, 3, 3]
000000 01 52 a7 3d 1c 6f a5 bd 3d eb b3 3d 52 55 cc 3b
       0.08169938 -0.08077833 0.087851025 0.006235757
000010 89 d1 8c bd fe c8 0b 3e d7 ac fd bd 8b 95 86 3d
       -0.06875903 0.13650891 -0.12386482 0.06571492
000020 a5 36 b0 bd 96 c5 c0 3d ca 57 c7 bd 0f b8 0f 3e
       -0.086041726 0.094126865 -0.09733541 0.14035057
000030 24 ee da 3d 2a f8 ee 3c 68 cd f3 bd 71 a3 a4 bd
       0.10689953 0.029171068 -0.119044125 -0.080389865
000040 04 b7 bf 3c 39 5e 10 3e aa 66 0b bd c0 ec 2e 3e
       0.023402698 0.14098443 -0.034033455 0.170825
000050 d4 46 ab bd 85 42 ed 3d a3 29 56 3e 13 f5 b6 3d
       -0.08363119 0.11584953 0.2091432 0.08933463
000060 c6 8d 18 3e 5a 94 9e 3e 89 98 98 3e 49 41 dc bd
       0.14897832 0.30972558 0.29803875 -0.1075464
000070 84 d5 0e bd d5 ae a4 bd 28 bb 36 3e 51 1e 2f be
       -0.034871593 -0.08041159 0.17844832 -0.17101409
000080 d4 ee 89 bc 33 91 9f bd 1c 62 7f bd f4 06 1c bd
       -0.016837515 -0.077913664 -0.062349424 -0.03809257
000090 8b 41 8d ba 9c d0 18 be fb ce cf bd 36 8b 00 3e
       -0.001077698 -0.14923328 -0.101469 0.12553105
0000a0 b9 cb 16 3e 7c 62 40 be 7c 27 22 be 5a 73 00 3d
       0.14726152 -0.18787569 -0.15835375 0.031360008
0000b0 5b c9 cf 3d b9 64 15 ba 5e f6 c7 3c 59 ac cd bd
       0.101458274 -0.0005698908 0.02440947 -0.10042638
0000c0 ba 59 8f 3d c3 62 4c be aa 51 27 be 4c 29 f7 3d
       0.06999536 -0.1995955 -0.16339746 0.12068424
0000d0 7c 35 e0 3d 6c ac 7b bd 0a 13 95 bd 5d da 4e 3d
       0.10947701 -0.06144373 -0.07279022 0.050501216
0000e0 63 c2 43 3e 14 cf c4 bc 45 07 b1 3d 50 8a ab 3c
       0.19117121 -0.024024524 0.08643965 0.020939976
0000f0 0b d7 03 bd 81 84 cd 3c 8a a4 64 bd 17 0e 11 bd
       -0.032187503 0.025087597 -0.05582098 -0.035413828
000100 2d 69 47 3d c8 10 02 be dc af a7 3a b8 8f 6f 3c
       0.048684288 -0.12701714 0.0012793499 0.014621668
000110 bb 25 39 3e 31 04 e1 3d d5 dd 16 3e be 60 41 3e
       0.180808 0.109871276 0.1473306 0.1888456
000120 5d c4 ff 3d d9 3b 86 bc ee c1 a7 3d 33 8f 39 bc
       0.12488625 -0.01638596 0.08191286 -0.011325645
000130 2e 19 17 3e ae e0 26 3e 2c 44 51 3e e0 76 79 3e
       0.14755699 0.16296646 0.20436162 0.24361753
000140 a1 54 ed bd a7 1d ef 3d bf 2a 05 be 70 02 ed 3c
       -0.11588407 0.116755776 -0.13004588 0.028931826
000150 8f b7 e1 3d fc 7c bc 3d da 55 2e be 6a 2b 2a be
       0.11021339 0.092035264 -0.17024937 -0.16618124
000160 b9 24 c4 3d 08 bb a5 3d 9d 6d d1 bd bc 73 46 3d
       0.09577317 0.08092314 -0.10225985 0.048450217
000170 de c6 9c 3d c7 3c 98 bd 58 07 28 3d 9d f4 c3 bd
       0.076551184 -0.07433467 0.04102263 -0.09568141
000180 d3 f5 ef 3d 4b 58 57 3d ff 3c 0a be 03 d6 4e 3d
       0.11716809 0.052574437 -0.1349983 0.050497066
000190 8c a2 df bd 8d 91 21 bc b7 35 f9 bd 5e 4f 32 be
       -0.10919675 -0.009861362 -0.121684484 -0.17413089
0001a0 4a ce 32 be a0 0d 9d bc 5b ef 3d be b1 d6 89 bd
       -0.17461506 -0.019171536 -0.18548338 -0.06730402
0001b0 b5 1a 08 bd 77 85 d7 bd 7e a1 02 3d 8d 81 42 3e
       -0.033228595 -0.10523503 0.031892292 0.18994732
0001c0 ab 62 ba bd b2 48 f3 3c 26 33 d1 bd 34 c8 03 be
       -0.09100851 0.02969775 -0.10214834 -0.1286934
0001d0 71 85 af bc 60 b1 41 bd fb e2 8e bd 6d 30 88 bd
       -0.021425935 -0.0472883 -0.06976887 -0.066498615
0001e0 84 1f c6 bb be 92 ab 3d 9b d3 ba 3d 44 66 15 bd
       -0.0060462374 0.08377598 0.09122392 -0.03647448
0001f0 93 8e 1d 3c ae 19 2a be 4e 76 89 3d 7e d5 37 3d
       0.009616512 -0.16611359 0.06712018 0.044881336
000200 af 06 05 3c f1 c4 0a be be c8 de 3d 49 94 76 3c
       0.008119269 -0.1355169 0.10878132 0.015050002
000210 6b 3d 2a bd 75 9b 19 be 3e 86 fb bd 74 5b 8f bd
       -0.04156248 -0.15000708 -0.12281464 -0.06999865
000220 8a db 06 3e 72 33 93 3d 65 f2 98 bd 81 24 48 3e
       0.13169685 0.07187547 -0.07468108 0.19545175
000230 f1 1d b2 bd 33 dd 55 3d 66 a7 84 bd 36 67 4f 3e
       -0.08697117 0.052212905 -0.06477241 0.20254216
000240 9f 6f 13 be 25 d1 c4 bd 96 df 11 3c 58 71 00 be
       -0.14398049 -0.09610204 0.008903405 -0.12543237
000250 b8 0c d4 bd 78 71 1d 3e fa 42 b9 3d e1 0d 3a 3e
       -0.103539884 0.15375316 0.09045978 0.18169357
000260 ef 3a 04 3e cc b4 8f 3c f1 f6 03 3e d2 f1 b6 3d
       0.12913106 0.017542265 0.1288717 0.08932842
000270 4f 41 31 be b7 cc 2f bd 2b 6d ff 3d ab 47 c4 3d
       -0.1731007 -0.04291984 0.12471994 0.09583982
000280 56 d3 26 3e fa c8 a7 3c ad ca dd 3c c6 c6 30 3e
       0.16291556 0.020481575 0.027074182 0.17263326
000290 1a e3 e8 bd 3e cb 05 bd ee 32 0a 3d f0 08 df bd
       -0.11371441 -0.03266453 0.033739977 -0.108903766
0002a0 08 54 97 bd 19 64 76 3d f3 74 bc bd 3d 13 36 3d
       -0.073890746 0.060154054 -0.09201994 0.04445194
0002b0 17 f1 6a 3e d9 c1 c4 bd e5 0f bb bd 3c 1e 20 3b
       0.22943531 -0.09607286 -0.09133891 0.0024432084
0002c0 a9 18 22 3e 24 f5 35 3e e7 81 2c 3d a0 be f9 bd
       0.1582972 0.17769295 0.042116072 -0.12194562
0002d0 73 09 9a 3d c8 86 8b 3e 2d 04 19 3e c6 e8 1e be
       0.075213335 0.27251267 0.14942999 -0.15518484
0002e0 36 72 ab 3d d1 54 f2 3d a8 34 90 3d ac 4c 55 3e
       0.083713934 0.11832584 0.070412934 0.20830029
0002f0 d3 1e dc 3d 73 43 50 3d 97 cf e0 bd 33 fb dc 3d
       0.10748067 0.050845575 -0.109770946 0.107901
000300 64 ef 2c 3e 2e 7c aa bd 8f e2 31 3e f1 64 03 3e
       0.16888195 -0.08324467 0.17371581 0.12831475
000310 06 4a e1 bc d1 f5 49 3d 6e 40 16 3e 47 4e e3 bd
       -0.027501117 0.049306694 0.14673015 -0.110989146
000320 a2 b5 1e 3e 13 b1 60 3d c3 b0 32 bc 1b 5b 4e bc
       0.15498975 0.05485637 -0.010906401 -0.012594963
000330 8c 82 b0 3a aa 73 2e be 4f e3 e8 bc f5 e5 3e 3e
       0.001346664 -0.1703631 -0.028428702 0.18642409
000340 ed 1f 86 3d da 42 3d 3d f1 b6 f8 bd 70 a4 d8 bc
       0.06549058 0.046206333 -0.12144268 -0.026445597
000350 99 bd ff bb ee 31 05 bd 15 f4 0a be 98 6c f3 3d
       -0.007804584 -0.03251832 -0.13569672 0.11885947
000360 97 58 d6 bd 83 4c 0b 3e 38 01 39 3c 84 00 c6 3c
       -0.10466116 0.13603406 0.0112917945 0.024170168
000370 07 0e 33 3d 0d b3 da 3c 5c 4b 02 3c 68 a3 6e 3d
       0.04371455 0.026696706 0.007952537 0.058261305
000380 9a a1 ed 3c e6 0a 87 bc c2 ec e1 3d 2b dc de bd
       0.029007722 -0.016484689 0.11031486 -0.108818375
000390 1a db 41 bd ab 38 a6 3d c0 d9 c1 bd 42 35 b5 3d
       -0.047328092 0.08116277 -0.09465361 0.08848049
0003a0 96 96 ed 3d c2 86 22 3e ae 85 b1 ba 53 04 8f bb
       0.116009876 0.15871719 -0.0013543868 -0.004364529
0003b0 47 23 c5 3d 07 6a 15 3e 0f 35 0b be 11 82 3d 3e
       0.09625869 0.14591227 -0.13594459 0.18506648
0003c0 86 2c 34 3d fb d5 74 bd 4c 07 31 bd 3e 33 b0 3d
       0.043987773 -0.05977438 -0.04321985 0.08603524
0003d0 3a 38 4a bd 1e 8e 2b 3d 69 78 3d 3e 34 59 09 3e
       -0.049370028 0.04188358 0.18502964 0.13412935
0003e0 4d 82 82 bd 70 87 10 3d 56 74 11 3d 7b 6f 8a 3d
       -0.06372509 0.035285413 0.035511337 0.067595445
0003f0 8b e6 20 3d bf db ab bd e8 be dc 3c fe 3f 4d 3d
       0.039282363 -0.083915226 0.0269465 0.050109856

encoder.initial.block.0.bias f4 [32]
000000 b0 84 a4 3a fa 59 6b be 1e bb 6e bd 88 00 4e be
       0.0012551751 -0.22983542 -0.058283918 -0.2011739
000010 b9 e6 3e 3e 75 d7 1e bb 4a 0f fe 3d b7 67 44 3d
       0.18642701 -0.002423731 0.1240526 0.047950473
000020 cc 6d 90 be 18 ca 26 3e 4b dc d5 3c 7b 79 68 3e
       -0.28208768 0.1628803 0.02610602 0.22702591
000030 32 c2 ca bd 3c 57 11 3e ce 98 30 be de f6 8d 3e
       -0.09900321 0.14193434 -0.1724579 0.27727407
000040 de fe 23 3e 68 58 76 bd 53 9f 23 3e 1e 8f 5d 3e
       0.16015193 -0.060142905 0.15978746 0.21636626
000050 e6 13 28 3e 60 6f 20 3e db 72 f2 bd 98 c4 1b 3e
       0.1641384 0.15667486 -0.11838313 0.15211713
000060 9e 40 85 3e 77 0b 4f be 0a 75 37 3e f9 ac 19 3e
       0.26025862 -0.20219217 0.1791574 0.1500739
000070 92 e0 a9 3d 26 95 12 be 1c 13 8d 3e 14 a5 34 3e
       0.082947865 -0.14314708 0.27553642 0.17641097

encoder.initial.block.2.weight f4 [32]
000000 5e 7b 76 3f 6a 2e 81 3f 60 fd 73 3f e2 e0 75 3f
       0.96281993 1.009229 0.95308495 0.9604627
000010 92 db 7a 3f 14 7b 73 3f a4 d6 64 3f 5e 04 6a 3f
       0.9799129 0.9510968 0.89390016 0.91412914
000020 19 95 7b 3f 25 af 6f 3f 3b 5c 76 3f 21 d7 73 3f
       0.9827438 0.93626624 0.9623448 0.95250136
000030 75 a0 78 3f c7 e1 6d 3f 2b 1e 84 3f 98 8b 71 3f
       0.9711984 0.92922634 1.0321707 0.9435363
000040 4e 0e 7a 3f 1f 83 7d 3f d7 36 7f 3f 54 01 65 3f
       0.9767808 0.990282 0.99693054 0.8945515
000050 c7 a2 66 3f 88 8c 56 3f 6f a8 7d 3f da 75 5b 3f
       0.9009213 0.83808184 0.99085134 0.857267
000060 db f7 69 3f 34 6a 7d 3f b2 a9 6f 3f fe e8 7b 3f
       0.9139382 0.9899018 0.9361831 0.9840239
000070 92 8d 7c 3f 6e 9d 7a 3f 31 b5 69 3f 77 c0 71 3f
       0.9865352 0.9789647 0.912921 0.94434303

encoder.initial.block.2.bias f4 [32]
000000 91 50 61 bc 40 35 27 3d 4d 6f bb bd 2b 7b d3 bd
       -0.013752119 0.040822268 -0.09152088 -0.10326227
000010 d4 ee a4 3d 29 e9 63 bd 0e 9b de 3d b7 ad b4 bd
       0.08053365 -0.05564228 0.10869418 -0.08822196
000020 43 54 78 bd ad 3b 98 bd 94 30 2a bd c0 43 df 3d
       -0.060627233 -0.07433257 -0.041550234 0.10901594
000030 fe 73 56 be 71 6e 3a be 61 56 f2 bd 72 91 76 bc
       -0.20942685 -0.18206193 -0.11832882 -0.015049325
000040 bb b5 9a bc e4 cc 03 bc 66 54 ad 3c b3 61 4f 3e
       -0.018885484 -0.008044455 0.021158408 0.20252113
000050 34 98 4e be 0c f3 3d 3d b1 57 8b be 76 02 82 3d
       -0.20175248 0.046374366 -0.2721534 0.06348126
000060 36 28 7e 3e 8c 76 22 be 7e 74 a6 bd ac 9a 4d be
       0.24820027 -0.15865535 -0.08127688 -0.20078534
000070 4e bb 47 bd 03 96 27 3c d2 56 df 3d 57 36 fc 3d
       -0.048762612 0.010228637 0.109052315 0.12315052

encoder.initial.block.2.running_mean f4 [32]
000000 af f6 2c 3f 28 9f c4 bb cb 61 26 3f a4 98 bc bb
       0.6756391 -0.006000418 0.6499297 -0.005755501
000010 c8 a6 da 3c e2 d5 cb 3e 86 ee 25 3f 61 74 9f 3e
       0.026690856 0.39811617 0.6481708 0.31143478
000020 a3 f7 ed 3d 7b ad e6 3e 14 98 16 3f 7e 53 5c 3d
       0.116194986 0.4505423 0.588258 0.05379056
000030 bb 11 08 3f b3 fa 02 3c 84 a6 b5 bb 36 d7 01 3f
       0.53152055 0.007994342 -0.005543532 0.5071901
000040 dd 2d ce 3c e3 26 b7 bb 45 20 19 3f 7b 7d f2 3e
       0.025168354 -0.0055893525 0.59814864 0.4736136
000050 4b 4c de 3e 02 f0 aa 3e 39 95 b0 bb 41 c7 43 3c
       0.43417582 0.33386236 -0.0053888825 0.011949361
000060 4e 9e b4 3d 67 6f a3 bb 39 e8 82 3c bf 55 44 3f
       0.08819257 -0.0049876454 0.015979873 0.7669334
000070 5c 38 2d 3f 0f 5c ae bb c3 e6 09 3f d7 a2 e2 3c
       0.6766412 -0.005321033 0.5386774 0.027665539

encoder.initial.block.2.running_var f4 [32]
000000 22 8e e4 3d a8 36 77 36 0e da f3 3d f4 f0 71 36
       0.11159922 3.6837682e-06 0.11906825 3.6052052e-06
000010 37 41 15 3b 0d 84 32 3d 9f 05 8d 3d 67 b3 a5 3c
       0.0022774467 0.043582965 0.06885838 0.020227147
000020 9a fa 55 3c 3e 00 c5 3c a9 db ae 3d f5 3e 87 3b
       0.013060236 0.024047967 0.085379906 0.004127378
000030 54 5e c0 3d 4e 9b 42 3a 31 05 76 36 a1 5d b2 3c
       0.09392992 0.0007423655 3.6659878e-06 0.021773161
000040 c8 24 e5 3a 2c ef c5 36 64 0e 4e 3d ac c1 9a 3c
       0.0017482275 5.898901e-06 0.050306693 0.018891178
000050 33 f8 b8 3c 24 59 23 3c be 4a 98 36 6b e1 84 3a
       0.022579288 0.009969983 4.538654e-06 0.001013798
000060 af c4 be 3b 5d 5f 31 36 6d b5 c3 3a da 4d b9 3d
       0.0058217864 2.6430564e-06 0.0014931388 0.09048052
000070 08 fc ae 3d 63 5f 80 36 cf c4 9f 3c 74 f8 04 3b
       0.08544165 3.8258017e-06 0.019503025 0.0020289691

encoder.block1.block.0.weight f4 [32, 36, 3, 3]
000000 13 49 b8 ba ba 60 3b 3d 93 78 a9 3c bb 5c be bc
       -0.0014059864 0.045746543 0.020687377 -0.023237577
000010 4b c0 7f 3d c8 47 90 3c 40 71 91 3d c0 b2 d8 3b
       0.062439244 0.017612353 0.07101679 0.0066131055
000020 a7 7a 5c 3c d1 d7 d8 bc db f6 79 3d 7d 76 2b 3c
       0.013456977 -0.026470097 0.061026435 0.0104652615
000030 a0 1d 87 3d 68 e1 33 3d 8a a6 7f 3a a8 27 39 3d
       0.065974474 0.043916136 0.0009752294 0.045203835
000040 80 c8 73 3d 5f d4 71 3d 11 9f f6 bc 7f 19 df 3c
       0.059517384 0.059040423 -0.030105146 0.027233837
000050 74 78 60 3c c9 63 36 bd 33 b4 8f 3c be e0 33 3c
       0.013700593 -0.044528756 0.01754198 0.010978876
000060 6c 7b bc bc 9c f6 20 3d 32 fa 92 bc 67 42 00 bd
       -0.02300807 0.039297685 -0.017941568 -0.031313326
000070 74 8c 4a bd 03 27 95 bc 02 00 06 3c 41 93 a5 3c
       -0.049450353 -0.018207079 0.008178713 0.020211818
000080 d3 03 32 bd 12 81 58 bd b9 28 05 3d b6 f2 f9 bc
       -0.04346068 -0.052857466 0.03250954 -0.030511241
000090 ca 86 05 bd bc 98 90 bd 15 01 61 bd 0a 09 20 bd
       -0.032599248 -0.07060382 -0.054932673 -0.03907112
0000a0 a8 00 33 3d 03 ee 0d 3c 66 e1 0d bd f2 97 12 bc
       0.043701798 0.008662703 -0.034638785 -0.008947359
0000b0 25 d6 39 bd 65 d5 9a 3c fc 11 18 3d b5 85 86 bc
       -0.04537024 0.018900583 0.037126526 -0.016421178
0000c0 66 82 b8 bc 2c 05 a1 3c 5f 2d 41 3d b2 26 cf 3b
       -0.022523116 0.019655786 0.04716241 0.0063217515
0000d0 4d a2 d7 3c 10 82 06 3d 84 15 6b bc a1 c9 43 3d
       0.026322508 0.03283888 -0.014348391 0.04779971
0000e0 67 0e 22 3d fd f5 c9 3c aa 21 30 bd be 24 b8 bc
       0.039564516 0.02465343 -0.043000855 -0.022478458
0000f0 8d 87 da bb ee 21 0a bd 23 a9 f3 ba 41 c1 0f 3c
       -0.006668991 -0.033723764 -0.0018589835 0.008774103
000100 40 d6 91 bb f8 16 5f 3d d0 1d 83 bc a7 3c 53 3c
       -0.0044505894 0.054465264 -0.016005427 0.012892879
000110 14 99 b3 3c d3 83 f2 3c 35 dd 06 3d a6 25 c3 bb
       0.02192358 0.029603874 0.032925803 -0.005955416
000120 02 7f 66 3d a9 ba 8c 3c 29 80 bb 3d c1 ef 59 3d
       0.056273468 0.01717885 0.09155304 0.053207163
000130 4e c6 a0 3c 64 17 30 3d 6b fe cd 3d 86 4f e5 3c
       0.019625809 0.042991057 0.10058292 0.027992021
000140 7e 8b 90 3d 77 e8 6e 3d 19 f8 c0 3c 44 73 70 3d
       0.07057856 0.058327165 0.023555802 0.058703676
000150 92 01 6b 3c eb 41 d4 bc 4d 02 5c 3d 57 6e e3 3b
       0.014343636 -0.025910338 0.05371313 0.006940644
000160 87 37 dc 3c 7a d7 c7 3c c1 97 d9 bc 36 7e 10 3d
       0.026881946 0.02439474 -0.02656162 0.035276614
000170 f9 cf 87 bb cb 8d b2 bc 1b 70 0c bd 12 a7 aa 3c
       -0.0041446653 -0.021796128 -0.0342866 0.020831618
000180 dd 46 63 bc a4 29 b8 3b 07 1d 5f 3d 1c f2 6b bc
       -0.013871876 0.0056201983 0.054471042 -0.014400985
000190 f2 e0 b2 3c c3 7a 54 bd 1a ac 11 3d 9b 73 42 3c
       0.021835778 -0.051874887 0.03556452 0.011868383
0001a0 35 b4 60 bc cc 84 11 bc 97 80 a7 bb 4c a0 b6 bc
       -0.01371484 -0.008881759 -0.0051117647 -0.022293232
0001b0 e5 8d 38 3b 13 7c bc 3c ef 56 a6 3d bd 77 89 bc
       0.0028160748 0.023008382 0.0812205 -0.016780728
0001c0 af a4 48 3d 89 ec bd 3d 6c 62 bd 3c 85 03 09 bc
       0.04898518 0.09273631 0.02311822 -0.0083626555
0001d0 94 c5 dc 3c 2a 88 ed 3b f9 a9 f8 3b fc fe 34 bd
       0.026949681 0.007248898 0.0075886217 -0.044188485
0001e0 09 5a 80 3d 4c eb b7 bb 9a 96 c2 bb d0 f9 5a 3d
       0.06267173 -0.0056127664 -0.0059383633 0.053460896
0001f0 e2 ae 8d 3d 31 a6 86 3c de 5a d5 3d d9 9d c0 3d
       0.06918122 0.016436668 0.10417722 0.09405107
000200 dd 05 ee 3c 6b d8 84 3d bf 09 59 3d f1 a8 50 bc
       0.02905553 0.06486591 0.05298781 -0.012735591
000210 34 52 25 3c 90 25 70 3d db 0a 75 3d 8c 83 cc 39
       0.0100903995 0.058629572 0.059824806 0.00039007922
000220 bc fb 33 3c 24 9c ea bc 49 8b c9 bb c5 f7 12 bd
       0.010985311 -0.028638907 -0.0061506373 -0.035880823
000230 60 e6 62 3d 29 bc c7 3b c0 3e 5b bb 9d 08 13 bd
       0.055395484 0.0060954285 -0.003345415 -0.035896886
000240 16 1c dc 3c f5 f8 78 3d 1a f9 64 3c 1d b3 93 3c
       0.026868861 0.0607843 0.013975406 0.018029744
000250 84 cd 91 bb 2e a7 54 3d 53 ea ea bc ce f5 04 bd
       -0.004449548 0.051917247 -0.028676188 -0.03246098
000260 61 57 ec bc d8 2b 0c bd fe b6 12 3d ab 11 e6 3d
       -0.02885026 -0.0342215 0.035819046 0.11233839
000270 6a df 91 3d 6f 2c 42 3d ba c9 a9 3d ab 44 6f 3d
       0.07122691 0.047405656 0.082904294 0.058415096
000280 57 9e f2 bc a7 3c 3e 3d 4f 42 59 3d 50 5f 60 3c
       -0.029616518 0.04644456 0.053041752 0.013694599
000290 4d fd cb bc 09 82 18 bd 2d bc ba 3c 1d 6c 86 3c
       -0.024901057 -0.037233386 0.022794807 0.016408974
0002a0 5a b9 3e bb 98 61 e6 bc d9 5f db b8 fe 71 5f 3b
       -0.0029102177 -0.028122708 -0.00010460587 0.0034095044
0002b0 59 75 05 3d 7a 3d ff 3c 1a d8 e1 3c d4 1f 22 3d
       0.032582615 0.031157244 0.027568866 0.039581135
0002c0 60 69 df 3a 37 57 ca bc a3 47 02 bd 28 6a e0 bc
       0.0017044954 -0.02469979 -0.0318066 -0.02739437
0002d0 d4 d6 17 3d c2 4d 69 bb 59 d8 6e 3c d9 7f 33 bd
       0.03707011 -0.0035599326 0.0145779485 -0.043823097
0002e0 79 b1 da bc a6 5d b4 bc c3 12 1f 3c 25 63 bd bc
       -0.026695954 -0.022017311 0.009709063 -0.023118565
0002f0 a8 3f 7b bc 97 cb d6 3b 17 ee 65 bd 76 f4 f1 bc
       -0.015335001 0.0065550315 -0.056135263 -0.029535513
000300 d5 89 cd bc 01 7b 36 3b 35 35 78 3c 48 16 a7 3c
       -0.025090137 0.0027844312 0.015149404 0.020396367
000310 11 98 34 3c ca 79 b0 bb 3b c0 2b bd 0d 47 23 bd
       0.011022584 -0.005385612 -0.041931372 -0.03986268
000320 31 3e 64 bd 9c 2f 04 bd b5 c8 80 bd f5 3f 99 3c
       -0.055723373 -0.032271966 -0.06288282 0.018707255
000330 99 4c 96 bc 9c 5d 47 bd a6 6b 26 3d bb 49 cd bc
       -0.018347071 -0.048673257 0.040630005 -0.025059571
000340 8c 6b d9 bc 14 99 f2 3c 93 6b 95 3b 6b 2c 81 3a
       -0.02654054 0.029614009 0.004559943 0.0009855157
000350 ea ec 1c 3d 79 4f 5e bc 5d 72 d8 3b 11 f7 02 bd
       0.038311876 -0.013568752 0.00660543 -0.031973902
000360 fd 20 0e bd c4 c6 9b bc e2 d8 98 bc 5e f3 bf bd
       -0.03469943 -0.019015677 -0.018658105 -0.093725905
000370 9f 70 00 bd 96 f4 82 bd ec 85 94 bd 32 06 44 bd
       -0.031357404 -0.06394307 -0.07252106 -0.04785747
000380 5c 36 f0 bd f6 b3 1d 3d 4d 2b e2 3c d5 73 82 bc
       -0.11729118 0.038501702 0.027608538 -0.015924374
000390 7c e0 74 3d 99 fd a6 3c 57 dd 85 bc 18 c2 2d bd
       0.059784397 0.020384597 -0.016340895 -0.04242143
0003a0 85 44 0e bb 47 80 3f bc 6d 0e 93 3d ae 50 80 3d
       -0.0021708321 -0.011688299 0.07180486 0.062653884
0003b0 18 2c 5d 3d 17 e9 3d 3d 29 c8 0e 3d a0 4b 35 3c
       0.05399713 0.04636487 0.034858856 0.011065394
0003c0 c2 ea 64 bd be 5c 4a bd 29 7f 42 bd 52 5c b1 3c
       -0.055887945 -0.049404852 -0.04748455 0.021650467
0003d0 89 4e d5 bc d9 1c ef 3b 43 00 34 3d 7e 0f cf 3b
       -0.026038425 0.00729714 0.043945562 0.0063189855
0003e0 05 57 02 3d bb 13 5b 3d f1 e2 06 bd fe b0 0a bd
       0.03182127 0.053485613 -0.032931272 -0.0338602
0003f0 68 12 46 3d 20 1b f8 3c 33 77 0e 3c 84 2e ee bb
       0.048357397 0.030286372 0.0086954115 -0.0072687287

encoder.block1.block.0.bias f4 [32]
000000 ca e9 44 3d 92 e1 20 3e fc d7 d2 bd 21 28 ad 3d
       0.04807452 0.15711048 -0.10295102 0.084549196
000010 8f 8d b8 3e d6 56 34 3e 38 5f 8e 3d a3 24 54 3d
       0.360455 0.1761125 0.06951755 0.051792752
000020 b3 25 15 3e 4f 62 30 3d 93 2e 60 bd d9 5d 39 3e
       0.14565162 0.043062504 -0.054731917 0.18102206
000030 f5 b9 03 bc 83 fe 94 bc c9 b4 39 be a5 2e df bd
       -0.008039941 -0.018187767 -0.1813537 -0.108975686
000040 01 00 99 3d 5b 52 af bd 4f 46 80 3c 9c 62 e5 3d
       0.07470704 -0.0856063 0.015658526 0.11200449
000050 d3 f0 8b bd 66 ec a6 3e e8 18 78 bd d4 7a 06 be
       -0.06833043 0.32602233 -0.060570627 -0.13132793
000060 15 08 2b bd 44 81 6f bd 5d a5 8a 3e fb 8b 3a 3d
       -0.041755755 -0.058472887 0.27079287 0.045543652
000070 23 a1 38 bd 89 4b 90 3e 3d a9 aa 3c 11 63 f5 3d
       -0.045075547 0.2818263 0.020832652 0.11981786

encoder.block1.block.2.weight f4 [32]
000000 bd a6 63 3f cc b3 64 3f dd 2b 63 3f 25 79 67 3f
       0.889263 0.8933685 0.88738805 0.90419227
000010 de 4b 65 3f 96 5e 67 3f 8e 81 69 3f 02 64 6d 3f
       0.8956889 0.903787 0.9121331 0.92730725
000020 9f 13 5f 3f 89 c4 64 3f 2e 52 63 3f 33 dc 5d 3f
       0.87139314 0.8936239 0.8879727 0.8666412
000030 75 c1 85 3f 49 41 7e 3f 7c 87 9a 3f 46 b5 77 3f
       1.0449663 0.9931837 1.2072597 0.96760976
000040 d3 95 63 3f 16 f5 7e 3f fc 4d 6b 3f ac 41 67 3f
       0.8890049 0.9959272 0.9191587 0.9033458
000050 7f fb 63 3f bd e9 47 3f b2 91 88 3f b6 eb 93 3f
       0.8905563 0.7809103 1.0669463 1.1556308
000060 35 77 75 3f 6d 56 8b 3f 77 e6 6a 3f 10 96 5f 3f
       0.9588502 1.088575 0.9175791 0.8733835
000070 49 8e 80 3f a8 7f 5f 3f 43 d5 63 3f e8 d3 62 3f
       1.0043422 0.8730416 0.88997287 0.88604593

encoder.block1.block.2.bias f4 [32]
000000 83 54 fb bc cf ee 3d 3c 48 b2 2b 3d 40 00 62 3d
       -0.030679947 0.011592581 0.04191807 0.05517602
000010 99 df 7a bd c7 2f b0 3c 4a 6c 90 bd 0a bf d4 bd
       -0.061248396 0.021507157 -0.070519045 -0.10388
000020 1f 41 df bc c2 a6 21 3d e5 40 2c bd 2a 96 0f bc
       -0.027252732 0.039465673 -0.042054076 -0.008763829
000030 fc 9e 05 be 40 20 ff 3d 69 fb 2a 3d 91 9a 98 bd
       -0.13048929 0.12457323 0.04174367 -0.07451356
000040 db a8 c0 3c db 02 52 3d 33 c9 4c 3d 28 90 c4 3c
       0.023518017 0.051272254 0.049996566 0.02399452
000050 68 a8 94 bd e0 77 f8 bd b4 3f c1 b9 6c 23 fc bc
       -0.072586834 -0.12132239 -0.0003685929 -0.03077861
000060 dc 13 3a 3d 63 8e c5 bc 13 34 8a 3d 3f b5 28 3c
       0.045429096 -0.024115747 0.067482136 0.010297119
000070 b3 39 c9 bc 38 19 b1 bd 1f b8 b0 3b 0b 32 ea 3c
       -0.024563646 -0.08647388 0.0053930427 0.028588315

encoder.block1.block.2.running_mean f4 [32]
000000 86 18 ea 3e 85 91 ef 3e 6a 7a d0 3e 28 2a 6e 3f
       0.45721835 0.4679071 0.40718395 0.93033075
000010 3d d0 8c 3f c5 cb 38 3f 42 c7 50 3f 2d 5f 4a 3f
       1.1001049 0.7218593 0.81554043 0.79051477
000020 68 6a 92 3f a8 3f 0b 3f b4 05 2c 3f 3a d3 d2 3e
       1.1438723 0.54394007 0.671962 0.41176778
000030 28 e0 17 3e f9 78 24 3e 5e c6 6e 3c 40 90 10 3f
       0.14831603 0.16061772 0.014573662 0.5647011
000040 7f cc 3b 3f a0 5e e4 3d 52 56 8e 3f c6 0e 73 3f
       0.7335891 0.11150861 1.1120093 0.9494442
000050 63 33 56 3e 35 f4 9f 3f 3e bb d3 3d 89 ba 81 3d
       0.2091804 1.2496401 0.10338448 0.06334407
000060 c3 3c 34 3f 81 f9 5a 3d e6 17 5d 3f 4b ce 87 3f
       0.70405215 0.0534606 0.8636459 1.0609831
000070 cc 22 10 3e b9 a1 41 3f 2e c3 9c 3f 90 e3 86 3f
       0.14075774 0.75637394 1.2247064 1.0538197

encoder.block1.block.2.running_var f4 [32]
000000 4d e7 ec 3e 87 25 e0 3e cb 4b e8 3e 7d 9d 22 3f
       0.46270218 0.4377863 0.45370325 0.6352156
000010 d6 3e 60 3e 45 22 38 3f 2b a6 36 3f d7 34 29 3f
       0.2189897 0.7192729 0.713473 0.6609625
000020 41 b5 c5 3f 81 56 fc 3e 8d 15 d3 3e c7 ef d9 3d
       1.5445939 0.49284747 0.4122738 0.10641437
000030 a1 66 b9 3d ed f4 ed 3d 02 d2 bc 3c 11 b6 83 3f
       0.09052778 0.116189815 0.023049358 1.0289937
000040 43 6f f4 3e ad c0 c2 3d d2 c8 20 3f 28 29 83 3f
       0.47741136 0.09509406 0.6280643 1.0246935
000050 a8 23 1f 3e a1 a3 88 3e 7a 82 c6 3d a6 e8 52 3d
       0.15540946 0.2668734 0.09692855 0.051491402
000060 bd 0f 8a 3f 8a 95 83 3d c9 d9 19 3f 94 62 c9 3f
       1.0786053 0.06425007 0.6009794 1.5733209
000070 a8 42 b3 3d ec ce e0 3d 78 53 d6 3f 62 fe 55 3f
       0.08752948 0.10976967 1.6744223 0.8359128

encoder.block2.block.0.weight f4 [32, 32, 3, 3]
000000 03 a4 5d bc 34 ad 99 3c 7a 41 4a 3c 47 fa cf bc
       -0.013527873 0.018759347 0.012344712 -0.025387896
000010 c9 a4 ee 3c 91 54 92 3c 39 6d 44 bc 9f e2 1b bc
       0.02913131 0.01786259 -0.011988931 -0.00951448
000020 f5 93 29 bc 7e 97 a9 3c 9f 95 0b bc 35 a7 49 3d
       -0.010350217 0.02070212 -0.008519559 0.049231727
000030 e8 bc c3 3b 34 5e 6b 3b 9c 87 d1 3c c0 de fb bc
       0.005973447 0.0035914304 0.025577359 -0.030745864
000040 44 31 4f bd d7 c4 f0 bc b9 76 c8 3b 5b fc 55 bd
       -0.050584093 -0.029390736 0.0061176685 -0.052242618
000050 ac 9a 45 3c c7 57 de bc 50 bf 1c 3c 4b 84 6a 3c
       0.012060802 -0.027141465 0.009567097 0.014313768
000060 a0 fc a8 3c 59 1b 0e bd 78 66 0f 3d 3f 5c bf bb
       0.020628273 -0.03469405 0.03500983 -0.005839854
000070 78 c4 df 3c f4 35 9d bb c7 91 40 3c f7 38 22 3b
       0.027315363 -0.0047976915 0.011753506 0.0024753192
000080 49 48 53 bd 5a ec 2a bd 1c cf 20 bc 45 73 6c bd
       -0.05158261 -0.04172931 -0.009815004 -0.057727117
000090 21 06 5c bc 33 4f 01 3d db 80 de bb 9d c0 38 bb
       -0.013429196 0.03156967 -0.006790263 -0.0028190978
0000a0 ec 5c 27 bd f5 58 64 3d 30 78 5d 3b b8 ab 2a bb
       -0.0408601 0.0557489 0.003379356 -0.0026042294
0000b0 86 a8 58 b9 54 86 0f bd 02 1f 39 bc 50 23 c4 3c
       -0.00020662145 -0.035040215 -0.011298897 0.02394262
0000c0 d4 8d 25 bd 11 4e 28 bd 80 dc 96 3b d0 00 08 bd
       -0.04041846 -0.041090075 0.0046039224 -0.0332039
0000d0 89 16 f5 3c 59 64 f4 3c f4 88 a0 bd 0a 1e c5 bc
       0.029917972 0.029833006 -0.07838622 -0.024062175
0000e0 72 8e ba bb 0b 15 4e bd ab e9 c8 3c 1b a0 42 3d
       -0.0056932503 -0.050313037 0.024525484 0.04751597
0000f0 6e d8 72 3c 89 2f db 3c 1a 75 1a 3d d1 8d 45 bc
       0.014822109 0.026756065 0.037709333 -0.012057737
000100 64 48 7f bd 4c cd 12 bd 65 1c 80 3c 04 c0 8a 3c
       -0.062324896 -0.035840318 0.01563854 0.016937263
000110 91 0e 2a 3d 8c 7d e9 bb 5f 84 00 bd 05 52 06 bc
       0.041517798 -0.007125562 -0.03137624 -0.008198266
000120 0c 5f 50 bc fd 90 cf bc fb 80 12 bd 32 6d 41 bd
       -0.012717973 -0.02533769 -0.035767537 -0.047223277
000130 f6 78 67 bc d3 e4 5d 3c 38 43 f3 bc b6 e3 6d bc
       -0.01412796 0.0135433255 -0.029695138 -0.014519623
000140 44 8a f6 3c 30 52 93 bd 70 c2 70 bd dc bd 34 bd
       0.030095227 -0.071934104 -0.05877918 -0.044126377
000150 bb c4 57 3d 87 25 a6 bc 71 e5 56 3d b3 20 80 3c
       0.05267785 -0.020281566 0.052464906 0.015640592
000160 a2 f7 68 3d 7e 18 0e bb 11 d9 79 bc b4 10 0c bc
       0.056876786 -0.002168208 -0.015249507 -0.008548904
000170 a8 62 86 3c 85 52 2b bd 1a 55 37 3c 2d 4e 38 3b
       0.016404465 -0.041826744 0.011189723 0.0028122768
000180 16 04 f0 bb 00 1a 14 3c 64 e5 78 3b 65 f2 29 bc
       -0.007324706 0.009039402 0.0037978524 -0.010372733
000190 74 c9 6c 3d 65 fa e7 3c 81 34 3e bd 20 ad c5 3c
       0.05780931 0.02831764 -0.04643679 0.024130404
0001a0 0c 71 71 3c 4b cd 8e 3d 52 ff 44 3d 5c 46 2a 3d
       0.014736425 0.0697275 0.048095055 0.041571006
0001b0 3e 3a 4a bc 1f ac 71 3d 5a 5f c5 bc 8b 92 13 bc
       -0.012342988 0.059002038 -0.024093319 -0.009007107
0001c0 64 93 bd 3d 7b 37 fa ba c5 30 97 3c d6 c0 69 3d
       0.09256628 -0.0019090021 0.018455872 0.05706867
0001d0 f8 1e c9 bc c5 4d cb 3c 4b 3f ab 3d 5f 4f cc 3c
       -0.0245509 0.024817357 0.083616816 0.02494019
0001e0 14 29 d3 3c 0b 7b 64 3d d1 4f b4 3c ba 50 21 3d
       0.025776424 0.055781405 0.022010716 0.039383627
0001f0 0a 9f be 3c 63 1d 06 3d ca fb 4d 3d 96 38 12 3d
       0.023269195 0.03274287 0.050288953 0.035698496
000200 a2 72 f5 3b 11 65 99 3d d8 e3 e9 3d 7a d6 bc 3d
       0.007490472 0.0748998 0.11420411 0.09220596
000210 4d 6b 88 3d 7b 56 b3 3d 3c c1 eb 3c 7b 7d 1e 3d
       0.06661091 0.08756729 0.028778665 0.038693886
000220 ed c9 25 bd 16 af 9c 3c bd 75 66 3d 39 2a f7 bb
       -0.040475775 0.019126456 0.056264628 -0.007542875
000230 a4 00 8c 3c 17 ff 5a bc a1 64 8e bc de e5 31 3d
       0.01709015 -0.013366482 -0.017381968 0.04343211
000240 03 15 45 bd 58 1d 48 ba 8b e3 8f bc b5 c5 71 3c
       -0.04811574 -0.0007633767 -0.017564556 0.01475661
000250 fe 4f de bb 89 ad 12 bd 47 d3 1b bd e4 a1 1f 3d
       -0.006784438 -0.035810027 -0.038043287 0.03897275
000260 77 4d 45 bd 5e 27 97 bd 1d 1f f2 3b 1a 16 f9 bd
       -0.04816958 -0.073805556 0.007388963 -0.12162419
000270 1d 82 4e bd cd c3 3c bc 7d aa 92 bd 28 7c 2b bd
       -0.050417054 -0.011521292 -0.07161424 -0.04186645
000280 63 f1 ae 3c cc 88 a5 bc b3 27 eb 3c f2 74 cd bc
       0.021355337 -0.020206831 0.028705454 -0.025080178
000290 0e 18 4c 3d a1 9f d4 bc 9e 98 60 bc c5 95 d1 3c
       0.049827628 -0.025955023 -0.013708262 0.025584111
0002a0 cc ff df 3c 05 48 88 bc 2d 06 23 3c c2 32 af 3c
       0.027343653 -0.016635904 0.009950203 0.021386508
0002b0 bd 8a 4b bd e4 3b 07 bd a9 f4 b5 bc bc ec 5a bd
       -0.049692858 -0.0330161 -0.02221139 -0.053448424
0002c0 de e7 e2 bc 84 5d 62 3c 1e dc 36 bc e7 1a b5 bc
       -0.027698454 0.013816241 -0.011160878 -0.022107555
0002d0 a6 42 4e 3c a9 ba ca bc 26 e9 7d 3b 33 ee 1d bb
       0.012589132 -0.02474721 0.0038743704 -0.0024098277
0002e0 cc 20 c6 bc e0 85 0c bd 5f a7 e7 bc 12 e1 75 3c
       -0.02418556 -0.03430736 -0.028278051 0.015007274
0002f0 44 c6 b9 39 67 8d 00 3d d1 f3 26 3d 89 9f a6 bc
       0.0003543367 0.03138485 0.040759865 -0.020339744
000300 46 a4 c4 3c 05 8e d0 3c f8 03 05 bc 1b 01 8a bd
       0.024004113 0.025458345 -0.008118622 -0.06738492
000310 78 e6 a4 ba be 46 24 bc 8d 52 0a 3d cc df 82 bc
       -0.0012580892 -0.010026632 0.033770133 -0.015975855
000320 3e 7a b1 3c 17 b1 4a bc 44 a7 ca 3c 5a 37 0d bd
       0.021664735 -0.012371323 0.024737962 -0.034476615
000330 30 fe 81 3c 02 5c e8 bc 79 bd 92 3c 99 f3 2e 3d
       0.015868276 -0.028364185 0.017912613 0.04271278
000340 f7 eb ef bc 4a a8 23 3d ca 94 88 3d 29 4e dc 3d
       -0.029287321 0.039955415 0.06669004 0.10757095
000350 f2 76 cb 3d 40 b2 54 3d 59 f8 94 ba 96 34 f9 bb
       0.099347964 0.051927805 -0.0011365517 -0.0076051457
000360 7d 3d f8 3c c3 b0 40 3d e7 73 ba 3c 7d 73 51 3d
       0.030302757 0.047043573 0.022760345 0.05113553
000370 cc d8 9a 3c 8b df b5 3b 2c cd 9e 3c f2 77 4e 3c
       0.018902205 0.00555033 0.019384943 0.012601839
000380 5e ab 13 bb a3 61 c9 3c d9 bf c6 3d 32 7f a4 3c
       -0.0022532563 0.02458269 0.09704561 0.020080183
000390 8b 7f 81 bc 50 ea 5a 3d bb 0a 09 bd 2c 3e aa 3c
       -0.015807888 0.053446114 -0.0334575 0.020781599
0003a0 8d 15 a0 3d 35 15 e2 3b fc 96 6c 3c 11 9d 1a 3d
       0.078166105 0.0068995007 0.014440294 0.037747446
0003b0 2b aa 33 bb 22 60 17 bd 48 26 e2 3c 52 af db bc
       -0.002741466 -0.036956914 0.027606145 -0.026816998
0003c0 8e 45 7a 3d f5 71 1f bd f9 da d8 3c 0e 1b 27 3c
       0.06110149 -0.038927037 0.026471602 0.010199321
0003d0 bb 41 46 bd 5a cb e8 3c 98 ea 25 3b d2 1d 2b bd
       -0.04840253 0.028417278 0.002531683 -0.041776486
0003e0 ff 21 f1 bc 6e b5 1a bd c1 45 34 3c 30 6e 1c bd
       -0.029435156 -0.03777068 0.011002959 -0.03819102
0003f0 d8 aa 25 bc e0 54 c1 3b f2 dd af bb 20 6d d0 3b
       -0.010111533 0.0059000105 -0.005367034 0.006360665

encoder.block2.block.0.bias f4 [32]
000000 80 ad 48 3d ef 2b a9 3d 79 6a 97 3d ec 68 b7 3d
       0.048993587 0.08260333 0.07393355 0.08955559
000010 00 a3 a0 3c 89 81 e8 3d db 02 93 3c e1 07 df 3a
       0.019608974 0.11352832 0.017945698 0.0017015898
000020 4f a2 8f 3d bc 13 dc 3d dc 46 b3 3d bc de 53 3e
       0.0701338 0.107459515 0.0875375 0.20690435
000030 d3 6f 13 3d ce ac 45 3d 85 ad 44 3d 8f ba 18 3e
       0.035995316 0.048260503 0.048017044 0.14914916
000040 4b 68 0e 3e 48 a3 cd 3d ef 4c 8f 3d 92 4e c9 3d
       0.13906972 0.10040909 0.06997096 0.09829439
000050 fb 95 81 3d ca b6 1c 3e 2d b5 af 3d 62 96 ce bc
       0.06327435 0.15304103 0.085794784 -0.025218192
000060 d8 51 26 3d ad 1a 07 bb 4f 64 4c bd e3 b8 9e 3c
       0.040605396 -0.0020615265 -0.04990035 0.01937527
000070 62 8b b2 3d dc 76 59 3d 30 20 7a 3c 2d 93 9f 3d
       0.087179914 0.05309187 0.015266463 0.077917434

encoder.block2.block.2.weight f4 [32]
000000 39 f4 83 3f 28 72 6f 3f 16 6b 78 3f 12 36 70 3f
       1.0308906 0.93533564 0.970384 0.93832505
000010 58 82 7a 3f d8 67 70 3f 9f 3c 77 3f db ba 93 3f
       0.9785514 0.93908453 0.96576875 1.1541399
000020 5b 86 83 3f 82 7c 7b 3f be 86 75 3f 64 2a 73 3f
       1.0275377 0.9823686 0.95908725 0.9498656
000030 2e 3e 81 3f 61 11 85 3f 4e 48 7b 3f 88 df 72 3f
       1.0097101 1.0395929 0.98157203 0.9487233
000040 13 ff 6f 3f 3d 8e 6c 3f ab 6e 79 3f 7d 8b 78 3f
       0.9374859 0.9240454 0.9743449 0.9708784
000050 63 95 7e 3f ea 5f 6c 3f 4c 7e 78 3f 08 91 75 3f
       0.99446696 0.92333853 0.97067714 0.95924425
000060 dc 6b 81 3f 0d 53 7f 3f 1d 48 82 3f 0b a0 6f 3f
       1.0111041 0.997361 1.0178257 0.9360358
000070 55 f4 6e 3f 67 0e 75 3f e1 f2 82 3f 4a 94 73 3f
       0.9334157 0.957251 1.0230371 0.95148146

encoder.block2.block.2.bias f4 [32]
000000 f5 64 15 bd fe 94 53 3d e1 c7 3a 3d 2e bc 11 3d
       -0.036473233 0.051655762 0.045600776 0.035579853
000010 b5 1b 3d bd 43 6c 38 3d 1d 44 ea bc 54 63 b1 3d
       -0.046169 0.04502512 -0.028596932 0.086615235
000020 a5 55 37 bd 4f e7 6b 3d 3e 2b f0 3c 99 91 fd 3c
       -0.04475941 0.05759364 0.029317494 0.030953215
000030 e4 57 4b 3d 47 35 42 3d d5 a9 1f bd b7 f5 22 3d
       0.049644366 0.04741409 -0.038980324 0.039785113
000040 f6 74 3a 3d 30 56 37 bd b7 f2 39 bd c4 09 fc 3c
       0.0455217 -0.04475993 -0.045397487 0.030766375
000050 2f f5 1f bd 31 a9 f6 3c 1f d9 f1 3c b6 ec 22 bd
       -0.039052185 0.030109974 0.029522477 -0.039776526
000060 9f 21 10 3d 15 96 76 bd d3 f7 1e bd 79 1e 46 3d
       0.035188314 -0.060201723 -0.038810562 0.048368905
000070 be b2 ef 3c e6 c1 3f bd 0b 35 54 bd 70 9b 09 3d
       0.029260036 -0.046815775 -0.0518084 0.033595502

encoder.block2.block.2.running_mean f4 [32]
000000 59 1c 48 3f 00 74 a9 3f e2 f1 0d 3f 8d 7e b4 3f
       0.78168255 1.3238525 0.5544721 1.410112
000010 97 b2 36 3f 86 9b 48 3f 1f 0e 08 3f f1 c0 2a 3f
       0.71366256 0.7836231 0.5314655 0.66700655
000020 94 2d 08 3f 4a 83 05 3f a6 d3 41 3f 7d bc 32 3f
       0.53194547 0.52153456 0.75713575 0.6981886
000030 45 b1 cf 3e fe 74 14 3f 35 96 e9 3e 5b 6b 3e 3f
       0.40564933 0.57991016 0.4562241 0.7438256
000040 9b 94 39 3f f2 59 6b 3f 32 b9 33 3f cc e6 e3 3e
       0.7249238 0.9193412 0.7020446 0.44512022
000050 25 ef 04 3f 16 60 44 3f 37 d9 2f 3f 58 63 28 3f
       0.51927406 0.76709116 0.6869082 0.65776587
000060 d9 87 01 3f 7a ae 11 3f ab 5c 14 3f 89 d8 e3 3e
       0.5059791 0.56906855 0.579539 0.4450114
000070 24 cd 8a 3f 8e a0 2c 3f 56 e3 11 3f 80 49 7a 3f
       1.0843854 0.67432487 0.5698751 0.977684

encoder.block2.block.2.running_var f4 [32]
000000 16 58 04 40 21 a8 1c 40 84 c2 83 3f 87 65 25 40
       2.0678763 2.4477618 1.0293736 2.5843217
000010 45 ff d8 3f 8c 12 82 3f 76 df ea 3e 18 53 0b 40
       1.6952902 1.016191 0.45873612 2.1769466
000020 09 9d 02 3f 22 09 1b 3f e1 73 f6 3f 6a c8 9c 3f
       0.51020867 0.6056081 1.9254113 1.2248662
000030 aa 37 46 3f d6 b9 9f 3f 03 ba 1a 3f ee f4 23 3f
       0.77428687 1.2478588 0.6044008 0.6404561
000040 4c 5c 59 3f fd b9 b2 3f d3 89 d6 3f 7c 0a a0 3f
       0.8490646 1.3963009 1.6760811 1.25032
000050 b2 a2 0f 3f 71 24 71 3f bc 27 a3 3f 2e 5a 2d 3f
       0.5610763 0.9419623 1.2746501 0.6771573
000060 11 9d 83 3f 4f 89 20 3f ae b6 a0 3f c8 0b ec 3e
       1.0282308 0.62709516 1.255575 0.46102738
000070 06 67 c7 3f cc 9a 1a 3f 42 4a 9d 3f 0e 30 90 3f
       1.5578315 0.6039245 1.2288287 1.1264665

encoder.final.block.0.weight f4 [3, 32, 3, 3]
000000 bf 1e 07 bc 1e 22 0d 3d 28 d4 8b bc 27 cc 91 bb
       -0.0082470765 0.034456365 -0.017068937 -0.0044493857
000010 20 6d aa bc 32 58 2b 3d 0f 4e fc bd 48 cf f2 bd
       -0.020803988 0.041832156 -0.12319576 -0.11855942
000020 1e a1 e8 bd 3d 2a 54 3d 97 77 00 3d a8 9a 8d bc
       -0.11358856 0.051798094 0.03136405 -0.01728566
000030 63 7a c5 bc c1 0f c1 3c f4 1d 4c 3b f9 b6 42 3d
       -0.02410621 0.023567082 0.0031145783 0.047537778
000040 9a 2a e0 ba 5f 01 2c 3d e7 66 6e 3b ba 62 4b 3d
       -0.001710254 0.041993495 0.0036377253 0.0496547
000050 51 26 af bb a3 17 ab bb 84 f9 ca 3c 96 4d 39 3d
       -0.005345144 -0.0052213236 0.024777181 0.045240007
000060 03 a0 6d 3d 51 30 67 3d 51 16 88 3c 5d 97 82 bc
       0.058013927 0.056442562 0.016612204 -0.015941316
000070 c1 08 c2 3c ca a3 77 bc 5a 63 75 bc a6 21 3f 3d
       0.023685815 -0.015114734 -0.014977301 0.04666295
000080 94 b5 6d 3d dd de 53 3d 07 e9 69 3d 82 b9 74 bc
       0.058034495 0.05172621 0.057106998 -0.014936807
000090 00 0a e4 bb 05 85 d6 bc 3f 53 9f bc 0d 20 cb 3b
       -0.0069592 -0.026186476 -0.019448875 0.006198889
0000a0 fa 48 a8 3a 2a 64 87 bd bc ec 92 bc 7c 6e e3 bc
       0.0012839132 -0.06610902 -0.01793515 -0.027762644
0000b0 6f d9 f2 bc fa f8 37 bc 76 8c 44 3d 1f 95 53 3d
       -0.029644696 -0.011228794 0.047985516 0.051655885
0000c0 c4 4b 1d 3d ef 4c 15 3d 77 2e 13 bd 7a 18 17 3d
       0.038402334 0.036450323 -0.035932984 0.036888577
0000d0 dc f2 6c 3b 5d 91 97 3c bf 36 8a bc c2 20 16 bd
       0.0036155498 0.018501932 -0.016871808 -0.036652334
0000e0 4a c2 75 bd c9 9b 38 bc 3c 8a 1a bc 6b 51 d2 3c
       -0.05999974 -0.011267611 -0.009432372 0.025673589
0000f0 95 62 0a 3c a0 46 fd 3c 28 26 2a 3d 0b 97 f3 ba
       0.008446355 0.030917466 0.041540295 -0.0018584443
000100 37 e0 71 3d 41 a9 e7 3c 0f 6e 96 3d b8 7a e4 3d
       0.05905172 0.028278949 0.07345211 0.11156219
000110 43 90 26 3d 4e 17 c8 bd fc ec 90 bd 87 ab a1 bd
       0.040664922 -0.0977007 -0.07076451 -0.07894044
000120 5b 37 9f 3c e6 3f 2a 3c 89 9e 7a 3c 76 b9 df bb
       0.019435575 0.010391211 0.015296587 -0.0068275286
000130 bf 19 17 3c c8 8b fb 3c 87 df b0 bd d3 d5 d1 bd
       0.009222447 0.030706301 -0.086363845 -0.10245862
000140 2d 30 53 bd 95 fd dd bc 27 6c 85 bd 6c ca 16 bc
       -0.051559616 -0.027098456 -0.06514769 -0.009203535
000150 cb 9c 18 3d 4f 40 0c 3d 1b 7b 6a 3d df ee 88 bb
       0.037258904 0.034241017 0.05724631 -0.0041788663
000160 6c 8d ca 3c c9 ce 31 3d aa 35 1f 3d 5c b2 aa 3c
       0.024725638 0.043410096 0.038869537 0.020837002
000170 37 ae e9 3b 2a 92 69 3d e8 cf fe 3b 34 96 a0 ba
       0.0071313637 0.05702416 0.007776249 -0.0012251795
000180 e8 36 5d 3d 88 3c 91 3b ad 0a 31 3d 48 01 17 3c
       0.05400744 0.0044322647 0.04322307 0.009216614
000190 50 c8 cf bb 9e 5f 88 3d 51 b4 32 bc bf da 35 3d
       -0.006341018 0.066588625 -0.010907249 0.044398066
0001a0 44 63 50 3d 0d 15 df 3b 20 ba 6d 3c 26 48 58 3c
       0.050875917 0.0068079294 0.014509708 0.013200795
0001b0 da 90 09 3d 75 f2 88 3d 30 51 7c bd 6f a3 91 3d
       0.033585407 0.0668687 -0.061600864 0.071112506
0001c0 9e f1 76 3d d5 b6 0f bd 7e 5a 6e 3d 89 61 34 3d
       0.060289018 -0.03508647 0.05819177 0.04403833
0001d0 81 cf 12 bd 40 af 53 bd 4a ce 26 3c 72 67 90 3c
       -0.035842422 -0.051680803 0.010181019 0.017627452
0001e0 69 8e 8d bc 4d c5 41 3d 7c 17 83 3d ba 5d 37 bd
       -0.01727982 0.0473073 0.06400964 -0.04476712
0001f0 48 de d6 3d 6c 9f 72 3d 70 84 60 bc ba 16 bf bc
       0.104916155 0.059234068 -0.013703451 -0.023326267
000200 77 6f 47 bd dd 8e 07 bd 85 38 ec bb cf 81 20 bd
       -0.048690286 -0.03309523 -0.007208886 -0.039186295
000210 ba 03 97 bd 5c 43 15 bd d5 f5 89 bd e7 36 e8 3b
       -0.07373758 -0.036441192 -0.06736342 0.007086623
000220 64 62 8e bb c8 4c 1e ba c8 f6 10 3d c4 7c 14 3d
       -0.004345225 -0.0006038663 0.0353916 0.0362518
000230 00 66 07 3d be f9 07 3d ec 68 32 3d c2 5d 7e 3d
       0.03305626 0.033197157 0.043557093 0.062101133
000240 ca f1 ef 3c 0c 46 36 3c 20 9e 8a bc 9f 02 74 3c
       0.029290099 0.011125099 -0.016921103 0.014893203
000250 39 25 42 3d 1a 6a 4d 3d 96 1e 98 3c 22 d8 04 3d
       0.04739878 0.050150014 0.018569272 0.032432683
000260 28 b3 cf 3c d7 df 00 3d 08 c4 43 3c fa f6 6e bd
       0.025353983 0.03146347 0.011948593 -0.058341004
000270 4d be 74 3c 67 ca 3d bd 02 aa 47 bd 5b 79 be bc
       0.014937949 -0.046335604 -0.048746116 -0.023251226
000280 1c e3 1d bd dd ba 68 bc e7 58 22 bd 60 20 36 bd
       -0.038546667 -0.014204708 -0.039635565 -0.04446447
000290 63 74 a1 bc 44 b4 d5 bc 42 6a 3c 3c d3 a5 6e bd
       -0.019708818 -0.026086934 0.011499943 -0.05826361
0002a0 52 0c 71 bd 4b 4e cb 3a 60 5c 92 bd 9a a4 16 3d
       -0.05884964 0.0015511004 -0.071465254 0.03677807
0002b0 9c e5 06 bb 1a 53 3d bb 42 e4 37 3d b1 00 61 3d
       -0.0020583635 -0.0028888644 0.044895418 0.0549323
0002c0 dd de 81 ba 4e 95 f2 3c 8c 82 1c 3d e3 aa 8b 3c
       -0.0009908337 0.02961221 0.038210437 0.017049259
0002d0 8d 38 34 3b 9b 13 b4 b9 15 91 41 3c d9 41 30 3b
       0.0027499527 -0.00034346883 0.011814375 0.0026894717
0002e0 16 0c 53 ba d4 03 00 3b 0c 7b 1a bd b8 98 b3 bd
       -0.0008050812 0.0019533532 -0.037715003 -0.08769363
0002f0 a9 83 a0 bd 71 85 8b bb 27 04 2a bd 53 73 2b 3c
       -0.07837612 -0.004257851 -0.041507866 0.010464507
000300 b6 41 35 3c bb f4 b1 3c 9d f1 a5 3c 29 17 97 3c
       0.01106303 0.021723142 0.020256812 0.01844366
000310 03 8f e5 3c 3a bb ad bc ad 1a 8f 3c 89 a8 8e 3b
       0.028022295 -0.02120744 0.017468775 0.004353587
000320 bf 61 83 3c b0 97 4b 3d e7 51 5d 3d 94 f8 a9 3c
       0.01603782 0.049705207 0.054033186 0.020748414
000330 31 e9 51 3d 09 6f 8a 3d cb 26 67 3c a4 fc 5a bd
       0.05124778 0.067594595 0.01410837 -0.053463593
000340 3f 05 f4 bc d9 eb 8f 3c b3 88 8f bd d7 29 66 3c
       -0.029787658 0.017568516 -0.07008495 0.014048061
000350 fb 33 25 bd 90 30 60 bd a1 63 f1 bc f5 75 16 bd
       -0.040332776 -0.054733813 -0.029466452 -0.036733586
000360 15 ff 95 3c ff 7f 88 bc 7a 3d 90 3a 90 aa 8b 3c
       0.01831011 -0.016662596 0.001100465 0.017049104
000370 b5 e5 56 3b 81 fb 96 3d e4 0e 3f bd ac 19 cb bc
       0.0032790725 0.07372189 -0.04664506 -0.024792515
000380 cb 2f 8d bd ec 17 27 bd ad 8f 0f bd d8 d5 bf bd
       -0.068938814 -0.040794298 -0.03504913 -0.09366959
000390 c7 a9 9c 3c e0 1a 29 3d e0 cc 25 bd 94 b3 05 3d
       0.019123925 0.041285396 -0.040478587 0.032641962
0003a0 8e a6 72 bc 33 64 9b bd be 1d 07 bc c4 8e 91 3c
       -0.014810218 -0.07587471 -0.008246837 0.017768271
0003b0 7b 45 a1 3b a5 45 0d bd 2e e5 f8 bc 68 6c 80 bd
       0.004921613 -0.034490246 -0.030382719 -0.06270677
0003c0 08 87 90 bd f0 9e 84 bd b7 61 cf bd 7e 46 4f 3d
       -0.07057005 -0.064756274 -0.101260595 0.050604336
0003d0 84 da 98 bc ca 23 ca 3c 7c 8e bf 3c 1d cc b9 3c
       -0.018658884 0.024675269 0.023383372 0.022680337
0003e0 d7 09 d2 3c 53 23 89 ba fa bb 9d bc a8 2a 98 3b
       0.025639458 -0.0010462798 -0.019254673 0.004643757
0003f0 b0 7f 11 3d 34 11 a1 3b db d3 7a 3d 90 e5 72 3c
       0.035522163 0.004915381 0.061237197 0.01482524

encoder.final.block.0.bias f4 [3]
000000 53 5e c0 3d 41 7a 9f 3d ca 2c 91 3d
       0.09392991 0.0778699 0.07088621

decoder.initial.block.0.weight f4 [32, 3, 3, 3]
000000 24 6e 70 bc 8c e8 d6 bd d4 15 dc bc ac 38 86 3c
       -0.014674697 -0.104935735 -0.026865877 0.016384445
000010 d1 da de 3d 11 85 67 3c 99 79 2a 3e 1e 7b 4a be
       0.1088158 0.014130847 0.16647948 -0.19773528
000020 19 fb 10 3e e5 9a fb 3c 1d 4e fa bd 9c 95 d6 3b
       0.14158286 0.030713508 -0.1222193 0.0065485965
000030 48 d9 30 3e e8 e8 13 be 19 96 e6 3d 02 65 0b be
       0.17270386 -0.14444315 0.112590976 -0.1361275
000040 ec 89 15 3e f8 e2 4a be fb f6 2b 3c 6b e6 c1 3d
       0.14603394 -0.19813144 0.010495896 0.09467777
000050 eb 10 a9 bd d7 d1 fa bc 66 d7 56 3d dd b6 f5 3d
       -0.0825518 -0.030617638 0.052451514 0.11997769
000060 8e 98 bf bd 46 6b ae bc 0b 2a 1a 3b b1 67 c0 3d
       -0.09355269 -0.021291386 0.0023523595 0.093947776
000070 e7 22 3d 3d 5c 01 05 3e a3 c2 2a be c7 cd d6 bd
       0.046175864 0.129888 -0.1667581 -0.10488468
000080 f5 b8 ce bd 2b 43 3b 3e 14 2c 58 bc 52 42 f7 bd
       -0.100938715 0.18287341 -0.013194103 -0.120731965
000090 a5 44 8b bd 3d c4 49 3d 31 66 25 be 93 ee 21 3e
       -0.06800202 0.049259413 -0.16152264 0.15813665
0000a0 f0 71 fa 3d e7 06 73 bc 36 30 87 bd c4 78 94 3d
       0.12228763 -0.014833189 -0.066009924 0.07249597
0000b0 0f 9d 21 3e 04 6c 92 3d 2d 03 20 bd 13 7f ee 3d
       0.1578257 0.071495086 -0.03906553 0.11645331
0000c0 52 b8 33 3d 1b ca e0 bd ad fc 05 bd 17 43 12 be
       0.043876953 -0.109760486 -0.032711674 -0.14283405
0000d0 59 61 b0 bd cd 32 33 3e b1 22 bc bd ee 18 83 3d
       -0.086123176 0.17499848 -0.09186304 0.06401239
0000e0 4c 58 2e 3d 2a fb aa 3d 2f 71 c7 bd f9 2e 39 3e
       0.042564675 0.08348687 -0.09738385 0.18084325
0000f0 37 a5 33 3e 9f f9 b3 bd 6b 3d 66 bd 46 34 32 be
       0.17543493 -0.08787846 -0.056210916 -0.17402753
000100 f0 99 8e bd 73 0a 75 3d e3 da fc bd e6 ed 00 be
       -0.06962955 0.05982442 -0.12346437 -0.12590751
000110 06 36 88 bc 26 bc a9 bd cf 24 cf bd d8 46 7a bd
       -0.016627323 -0.082878396 -0.101144426 -0.061102718
000120 99 3b e1 3c 57 ce 97 bd 03 2a a6 3d a7 cf 45 3e
       0.027494239 -0.07412403 0.08113482 0.19317494
000130 3c 82 3e bc 99 a1 c1 bd 26 d7 ce 3d c1 a4 89 3d
       -0.01162773 -0.094546504 0.1009963 0.067208774
000140 d6 88 0b be aa ad dd 3d 11 cd c9 3d 50 29 97 bd
       -0.13626418 0.108241394 0.098535664 -0.073809266
000150 61 bb 29 3e bf 6c a2 bd 19 6d e5 bd 61 d1 0e bd
       0.16575386 -0.07930898 -0.11202449 -0.034867648
000160 ed ee a0 3c ec 44 88 bc 4b 1f f6 3d e3 a3 34 bd
       0.019645179 -0.016634427 0.120176874 -0.044101607
000170 7c 67 0a be 65 e2 72 3e d4 c6 05 3d e3 35 04 bc
       -0.13516039 0.23719175 0.03266032 -0.008069488
000180 62 a5 42 bd db ad 86 bc 1e 65 24 3c 6a 79 85 bd
       -0.047521003 -0.016440323 0.010033874 -0.065172985
000190 19 72 66 3e 5a b5 88 3d a2 1f 27 bd 8f 4f 21 bd
       0.22504462 0.06675215 -0.04080165 -0.039382514
0001a0 11 17 23 bd 3a be c1 3d d4 b7 ff bd 39 b7 d6 3d
       -0.03981692 0.09460111 -0.12486234 0.10484166
0001b0 ee cc f1 bc 3d 78 21 3e 29 28 5e 3d b5 24 57 3c
       -0.029516663 0.15768524 0.05423752 0.01313131
0001c0 ae 84 e7 3d 84 66 de bd 06 d5 65 3d 23 11 0f be
       0.113046035 -0.10859397 0.056111358 -0.13971381
0001d0 34 1b 39 bd df e3 f8 3d 14 84 5f be 5f 45 93 bd
       -0.04519196 0.12152838 -0.21827728 -0.07190966
0001e0 9c a6 a2 3b ed 3e 3d bd 7d 5e d3 3d b0 1e 44 bd
       0.004963709 -0.04620259 0.103207566 -0.04788083
0001f0 cc b5 53 3e 89 12 a9 bd 8f b5 09 3d cc 7e 5b bd
       0.20674819 -0.082554884 0.033620413 -0.05358772
000200 54 79 db 3d f7 b1 59 3d 1f c1 08 be da 2e f6 3c
       0.10716501 0.053148236 -0.1335492 0.030051637
000210 da 98 7c bc 27 fc c5 bd 69 14 d2 3d 92 fa 96 3b
       -0.015417302 -0.09667235 0.10257799 0.004607507
000220 cc 30 1d bd 24 88 d6 3c ee 2e c7 bd f3 3b 1e bc
       -0.038376614 0.026187964 -0.09725748 -0.009657848
000230 ae 81 77 3d 88 76 09 3d a8 0e d6 3d 92 51 9a bd
       0.060426407 0.033560306 0.10452014 -0.075350896
000240 f4 31 8a 3b 58 2e 43 3e b1 44 9d bd dd ee 2a 3d
       0.0042173807 0.19060647 -0.076791175 0.041731704
000250 b4 5b 03 3d 70 f7 06 be 5e bb 3f bd 12 df f1 3c
       0.032069877 -0.13180327 -0.046809547 0.029525314
000260 e9 19 dc bc 87 1f 18 be a6 79 5b bd 51 cb 87 3d
       -0.026867824 -0.14855777 -0.05358281 0.066305764
000270 4b d9 3b 3e 50 90 f3 bd b5 8d cf 3d c0 dd 69 bc
       0.1834461 -0.1189276 0.1013445 -0.014274061
000280 fb ff f3 bd 8e c8 c0 3d b3 8c 16 3d d4 6d 10 be
       -0.11914059 0.09413253 0.036755275 -0.14104396
000290 3a bb 4d 3e a9 11 a2 3d 06 16 d4 bd ce 93 9b 3c
       0.20090953 0.07913525 -0.10355763 0.018991377
0002a0 32 e3 fa 3d 11 bc ba bd d2 0d 99 3c 44 dc 1e 3e
       0.12250365 -0.09117902 0.018683348 0.15513712
0002b0 4b 1a 52 be 22 f2 27 bd dd 58 ec 3d 0a 54 10 3e
       -0.20517842 -0.0410024 0.11540387 0.14094558
0002c0 7a 0d b7 3d 80 2e ec 3d e7 bb 02 3e d3 a8 62 bc
       0.08938117 0.11532307 0.12766992 -0.013834196
0002d0 14 cf dd 3d 81 f5 6b 3e ae 0b e2 bd f5 46 91 bc
       0.10830513 0.23042871 -0.11037384 -0.01773403
0002e0 2f a2 8e bc 2e 65 ab bd b8 5a dc 3d 15 df 14 be
       -0.01741132 -0.08368908 0.10759491 -0.14538224
0002f0 a8 34 70 bd be 1e 18 3d b4 34 a1 bd 36 b3 ad 3d
       -0.058643967 0.037138693 -0.078713804 0.084814474
000300 34 6c cd 3d 16 9b c7 bd 49 9c ad bc 87 0e 3d be
       0.10030404 -0.09746377 -0.021192687 -0.18462573
000310 76 11 38 bd c9 8f 8c bc f6 8f 85 bd 57 fc 3b 3d
       -0.044938527 -0.017158406 -0.06521599 0.045894947
000320 2e f9 92 bd e9 19 5f 3d 9e 40 27 3e 27 c4 42 3b
       -0.071764335 0.05446807 0.16333243 0.0029718967
000330 8c 9f 9b 3d 3f c8 c4 bc 9e ba d5 bd b4 c6 ca bd
       0.075987905 -0.024021266 -0.10435985 -0.09901181
000340 b3 83 57 3e 5c 6f eb bd fc 69 19 bc e7 6b 1c be
       0.21046333 -0.114958495 -0.009363648 -0.15275536
000350 f6 42 d3 3d 25 37 26 bd 41 d3 a4 bd 52 aa d0 3c
       0.10315506 -0.040579934 -0.08048106 0.02547184
000360 42 77 f7 bd db 5b eb bd 94 23 32 3c 8e 87 87 3d
       -0.120832935 -0.114921294 0.01087274 0.06617652
000370 71 cc d2 bd 77 d9 9e bd 44 43 82 3b 12 fc 3d 3e
       -0.102929 -0.07756322 0.003975304 0.18553188
000380 13 81 d7 3d 39 09 89 bd 98 c1 e2 bd e9 d9 37 3e
       0.10522666 -0.06691212 -0.11072081 0.1795422
000390 a6 91 8c bd 86 03 07 3d 97 b2 2f be 08 e4 1e be
       -0.06863718 0.032962345 -0.1715797 -0.15516675
0003a0 12 28 3b 3e 2e 3a 0f 3c 26 d8 74 bd 46 76 08 3e
       0.18277004 0.008741898 -0.059776448 0.13326368
0003b0 7d f4 d5 bd 73 73 c2 bc f0 5b 04 3d 93 d0 66 3e
       -0.10447023 -0.023736691 0.03231424 0.22540502
0003c0 cf 78 68 3b 5f 78 a7 bc 1e 47 3c be 19 51 bd 3d
       0.0035472398 -0.02044314 -0.18386504 0.09243984
0003d0 17 7c 5d 3c 05 f0 1a 3e 16 1d c8 3d 0b 82 15 bd
       0.013518355 0.15130623 0.09771173 -0.03650097
0003e0 29 6c d5 bd 5c 06 cf bd fd 3f 64 bc 4a 30 be bd
       -0.104210205 -0.10108635 -0.013931272 -0.09286554
0003f0 93 cf 2e 3c 44 e3 86 3e 55 d7 c2 3d 63 c0 a4 3b
       0.010669607 0.26345265 0.095137276 0.005027817

decoder.initial.block.0.bias f4 [32]
000000 66 29 e8 3d 7f b3 dc be 9f 03 c0 be fa d5 3d bd
       0.11336021 -0.43105695 -0.37502763 -0.046346642
000010 0f d9 f6 3c a5 f1 3d 3d 70 67 1f be 68 f2 1f 3e
       0.030132798 0.04637303 -0.15566802 0.15619814
000020 af dc aa be 75 36 00 bd a4 df 11 be f1 65 48 3e
       -0.33371493 -0.031301934 -0.14245468 0.19570138
000030 b3 27 32 3e 45 0e c0 3d bd 71 6e be 7b dc 12 be
       0.17397957 0.09377722 -0.23285575 -0.14341919
000040 1c 92 b7 3d 00 21 88 3c 2b e0 8c 3c 6e 8a cc 3c
       0.08963415 0.016617298 0.017196735 0.024968352
000050 46 01 9e 3d ff 86 75 3e 4c 15 6f 3d 5c 95 72 3d
       0.07715087 0.23977278 0.05836992 0.05922447
000060 03 f2 15 3e e6 86 82 3d 69 b1 f5 3d 75 7e 42 3e
       0.14643101 0.06373386 0.11996729 0.18993552
000070 07 3f 0e 3e 02 3b f8 3d 3d db 92 be 49 0b f4 3c
       0.1389123 0.1212063 -0.2868289 0.029790537

decoder.initial.block.2.weight f4 [32]
000000 e4 14 79 3f 50 6a 80 3f 4a 4a 67 3f da 88 68 3f
       0.972975 1.0032444 0.9034773 0.9083382
000010 47 e8 48 3f 32 ad 89 3f 26 cb 51 3f 72 fb 4a 3f
       0.7847943 1.075598 0.81950605 0.79289925
000020 9d 3c 68 3f 16 fe 60 3f f9 08 50 3f 5c 05 61 3f
       0.9071749 0.87887704 0.8126369 0.878988
000030 e4 0b 82 3f bd dd 52 3f d7 11 73 3f d5 8b 6c 3f
       1.0159879 0.82369596 0.94949096 0.92400867
000040 b3 63 8c 3f 5a 95 4f 3f cc 0d 65 3f bc 15 53 3f
       1.0967926 0.8108727 0.8947418 0.8245504
000050 3f f7 81 3f 72 6e 8a 3f f4 c7 75 3f 91 89 84 3f
       1.0153579 1.0814955 0.9600823 1.0354482
000060 b3 db 65 3f ff 5c 81 3f 13 23 85 3f c8 a2 56 3f
       0.8978836 1.0106505 1.0401329 0.83842134
000070 bd 93 7c 3f 28 76 55 3f 1c b5 79 3f 5e e1 7d 3f
       0.9866293 0.8338342 0.97541976 0.9917201
