results/models/archived/failed-long/ResidualSteganoGAN/3/epoch_16.pth (torch, 317599 bytes, 59 tensors)

encoder.initial.block.0.weight f4 [32, 3, 3, 3]
00000000: 9d37 f0bd 2381 f5bc 4d05 86bd af84 603d
00000010: b193 dbbd 590b fa3d 1c68 09be 564f 94bd
00000020: 3d40 4fbd 3c3c 103e f000 17be ec0c 2f3d
00000030: f66b 81bd 77da 093e 525b 0bbe 6443 51ba
00000040: c301 c33d d9ef 27be 4851 c7bd 4ed9 133e
00000050: 6ec1 9bbd 4af0 a8bd 7089 49bd 1aac d63c
00000060: 1514 2f3a 7971 d4bc d36c fbbc 5ff9 fc3a
00000070: 5334 4fbe aac1 ec3d 8f21 a8bd de55 febd
00000080: ae1a 913d e2fc 20be 7785 1f3e eb85 013d
00000090: 4c02 07be 4ce7 f7bc fc87 dd3d 50e8 553e
000000a0: 7dd7 213e 7612 54be 1a84 f03c 4404 14bd
000000b0: 5fd5 d0bc c5d3 17be 91e1 073e b7a7 70bd
000000c0: dac5 64bd 685d 0d3d ee1e ccbd 21e7 d8bd
000000d0: 73cd 0cbe 82af 543e 1e38 7dbc c7de 2cbd
000000e0: 291a 27be 8bd6 e83d b75c 2cbc d177 bd3d
000000f0: 5c78 c83d 064f 38bd 6acd a83d 78f7 b6bc
00000100: 81cc c1bc 17aa 403e e41a 133e af5a 9ebd
00000110: dd33 403c 2859 2fbd ac30 0f3e b577 17be
00000120: 389f a93d 0d01 aa3d 9c11 b1bd 047e d7bd
00000130: 781b 3f3c 5b15 0fbd 1820 003d 1943 1cbe
00000140: 35ba 0a3e b480 20bd e5cf 0c3e f9da 2b3e
00000150: 40bc dbbd 5c3c 503e 2114 d5bd 5cca 9cbd
00000160: a772 373e e9f0 b83b 3966 273e 9e9a 30bd
00000170: 25ac 143e f4d2 3f3e 05e7 2abe 0c52 3e3b
00000180: 2808 753c 6b7a 713d 594a ba3d e32c f33b
00000190: b76b b43d 4fd5 ae3d e679 97bb f739 573e
000001a0: 2bc1 b0bd f677 bd3d 2b2d 903c a44e 92bd
000001b0: 4457 01be 5ada 03be 3e54 e2bd 48de c1bc
000001c0: c25e d03c 1668 963d d5f8 53be 2f1a dfbd
000001d0: 6d36 923d 8eea 05be d3c1 bc3d e12c 01be
000001e0: 1f12 0fbe f7ef b83d fb0a 95bc 38e2 47be
000001f0: 3eb1 c0bd 5162 fd3a 6d39 713d f2c0 ab3d
00000200: fdf8 2bbe 5238 29bd 05da cfbd 7435 31be
00000210: a768 9abc f36e 043d 79ee 293e b7e2 c93c
00000220: 7460 54bd 55f0 0c3d 317f 5abd bded cbbd
00000230: c83b 08bd 1398 3a3d fe93 b3bd ab87 7ebd
00000240: 8dc3 66bd 67b9 523c 071b 57bc e80b 3d3d
00000250: 7814 1abe 0d74 24be 2f1c 8f3d f510 33be
00000260: 67e6 c43d 5135 99bd 7de7 203e 5964 01be
00000270: ccf5 08be f5a2 b4bd f640 f03d 1089 f9bd
00000280: 373a 3e3d bff3 343d c496 52bd 3f4c 703c
00000290: 44cf b2bc 7637 d8bc 2832 e13d f8ca 983d
000002a0: 4081 d43d 0187 1cbe 9a45 3d3d bc52 4b3d
000002b0: b16f 1cbe c444 02bc e679 d33d a112 54bd
000002c0: cdaf 38be b40b 0b3e 9e23 ac3d 2a0b c73d
000002d0: 94c4 513d c48b 39bd 42dd a6bd 445e d53d
000002e0: 9453 2fbe 35db 343e 855f 3bbe e40a 16bd
000002f0: 5bf0 1d3e d8cd 41be ede9 36be 7665 753c
00000300: 6f8b 573d 8515 ffbc bf72 5bbd 9e9b 8cba
00000310: f801 08be 7950 06be f44a f9bd a055 60be
00000320: 104e 2ebd a331 43be e60d 6fbd d104 8e3b
00000330: 9f6a 4cbe 7149 5fbc 08cb 7e3d a348 113d
00000340: 894f c73c 96a7 023d 9189 04bd 033a 0f3d
00000350: 3f83 b0bd 8f6c bf3d 2da4 f83d cfd9 44be
00000360: ad62 bf3d fbd7 99bd 01e9 3fbd 7bd6 4fbd
00000370: d383 16bb 710c 1dbe 2877 1e3e 32a2 7a3c
00000380: 95bc d4bb eb28 183e 9bd9 143e 6b44 1cbd
00000390: 4819 683d 5c14 c9bd aa35 193e 501e db3d
000003a0: ed1d 91bc 3ab8 253e 9227 e2bd 4088 473d
000003b0: 54fd 5d3e 1965 583d 7c1d e3bc 2949 503e
000003c0: 915f d53d b607 103e 343b 683e d94d b3bd
000003d0: 3d7a 093e e8c5 10bd 354f 193e 0cd7 803b
000003e0: e800 96bd fb9f 01be 2c8d 52bc 5cc8 873d
000003f0: 0848 173e 1908 76be f59e f83c b113 f13d
-0.117293574 -0.029968804 -0.0654398 0.054814037 -0.10721529 0.12209196 -0.13418621 -0.07241695
-0.05059837 0.14085478 -0.14746451 0.042736933 -0.0631942 0.13462244 -0.13609055 -0.0007982759
0.095218204 -0.16400088 -0.097323 0.14438364 -0.07605253 -0.082489565 -0.049203336 0.026205111
0.00066787127 -0.025933014 -0.03069154 0.0019300393 -0.20234804 0.11560376 -0.08209526 -0.124187216
0.07085167 -0.15721467 0.15578257 0.031621855 -0.1318447 -0.030261658 0.108169526 0.20889401
0.15804859 -0.20710167 0.029359866 -0.03613688 -0.025492368 -0.14826877 0.1326964 -0.058753695
-0.05585275 0.034512907 -0.09966837 -0.10590959 -0.13750248 0.20770076 -0.015455274 -0.042204645
-0.16318573 0.11369046 -0.010520152 0.09251369 0.09788582 -0.044997238 0.082423046 -0.0223348
-0.023657085 0.18814884 0.14365727 -0.0773214 0.011731115 -0.042809635 0.1398341 -0.14791758
0.08282322 0.08300982 -0.08645937 -0.105220824 0.011664264 -0.034932476 0.031280607 -0.1525997
0.13547595 -0.03918524 0.1375118 0.1678275 -0.10729265 0.20335525 -0.1040423 -0.076557845
0.1791483 0.005643953 0.16347589 -0.043116204 0.14518793 0.18732816 -0.1668969 0.0029040603
0.014955558 0.058954637 0.09096212 0.0074211224 0.088096075 0.08536779 -0.0046226857 0.21018206
-0.08630594 0.09251396 0.017599663 -0.07143906 -0.12630945 -0.12876263 -0.11051224 -0.023665562
0.025435809 0.073440716 -0.2070039 -0.10893666 0.07139287 -0.13077757 0.092166565 -0.12614776
-0.13971756 0.09030145 -0.018193712 -0.1951989 -0.09408806 0.0019331669 0.058892656 0.08386411
-0.167942 -0.041313477 -0.10149006 -0.17305547 -0.01884873 0.032332372 0.16594876 0.024644239
-0.051849797 0.034408886 -0.053343955 -0.09957454 -0.033260137 0.045555186 -0.08768462 -0.0621411
-0.056338836 0.012861586 -0.013129002 0.046153933 -0.1504687 -0.16059895 0.069877975 -0.17486937
0.09614258 -0.074808724 0.15713306 -0.12635936 -0.13375014 -0.08820144 0.1173114 -0.12184346
0.046442237 0.044177767 -0.051413313 0.014666616 -0.021827348 -0.026393633 0.10995895 0.07460588
0.10376215 -0.15285875 0.046208955 0.04963945 -0.15276982 -0.007950965 0.10325985 -0.05177558
-0.18035813 0.13578683 0.08405231 0.09718926 0.051212862 -0.045299307 -0.0814767 0.1041837
-0.17121726 0.17661746 -0.18298157 -0.03663148 0.1542372 -0.1892618 -0.17862673 0.014977803
0.05262321 -0.031138191 -0.053576227 -0.001072753 -0.13282001 -0.13116635 -0.12172499 -0.21907663
-0.042554915 -0.19061904 -0.058362864 0.0043340703 -0.19962548 -0.01362835 0.062205344 0.035469662
0.024329918 0.031898104 -0.032357756 0.034967434 -0.08618783 0.09346878 0.12140689 -0.19223712
0.09344993 -0.07511898 -0.04685307 -0.050741654 -0.0022966757 -0.15336777 0.15475142 0.015297459
-0.0064922073 0.14859359 0.14536135 -0.038151186 0.056664735 -0.09818336 0.14961877 0.10699141
-0.017714465 0.16183558 -0.11042704 0.048713923 0.21678668 0.05283079 -0.02772402 0.20340408
0.104186185 0.14065441 0.22678834 -0.08755083 0.13425536 -0.035344988 0.14971621 0.0039318856
-0.073243916 -0.12658684 -0.012851041 0.066300124 0.14773571 -0.24026527 0.030349234 0.11771334

encoder.initial.block.0.bias f4 [32]
00000000: 6a98 f63d 95ac 76be 37dd 013e fa14 ce3b
00000010: 7a11 2ebe 16d7 1c3e e5f1 553e 7732 98bd
00000020: 0733 17bd 3ddc d13d e481 cebd 5fc5 0dbe
00000030: ab2c 2f3e c332 fc3d 5ecf 73be bfc1 fb3c
00000040: 9207 b1bd 7bdc 273d ad8d 293d fda8 013e
00000050: d8f7 223e 3aa1 59bd 55f0 593e 3307 6c3d
00000060: 790f 233e 9057 39bd 5380 1abe cdca 4a3e
00000070: 87a5 18be a306 18be f75d 13be 5f5f bebd
0.120407894 -0.24089272 0.12682043 0.0062891217 -0.16998854 0.15316424 0.20893057 -0.074315004
-0.036913898 0.10247085 -0.100833684 -0.13844822 0.17106883 0.123143695 -0.23809573 0.030732034
-0.08644022 0.04098175 0.04139488 0.1266212 0.15914857 -0.053132273 0.21283086 0.057624053
0.15923871 -0.04524952 -0.15088014 0.19803925 -0.14906894 -0.14846282 -0.14391313 -0.09295534

encoder.initial.block.2.weight f4 [32]
00000000: 6199 663f c663 863f a123 7e3f 1f0b 813f
00000010: d93c 823f e0d9 603f d7f8 6f3f 89ad 823f
00000020: 4105 7a3f 084b 803f fb9a 753f 7638 803f
00000030: 1c5e 7c3f 6e82 7f3f c465 823f ef11 5f3f
00000040: 3ea6 743f b0dc 7b3f f812 803f 830c 753f
00000050: 878d 7b3f f22a 783f d63d 7c3f bfa2 823f
00000060: 542e 733f aeab 763f 08ff 753f 7578 7e3f
00000070: 413c 6c3f de97 823f a0bd 873f a872 853f
0.9007779 1.0499198 0.99273115 1.0081519 1.0174819 0.8783245 0.93739074 1.0209209
0.97664267 1.0022898 0.95939606 1.001723 0.985811 0.99808395 1.0187306 0.8713674
0.95566165 0.9838362 1.0005789 0.95722216 0.9826283 0.9694053 0.98531854 1.0205916
0.94992566 0.9635571 0.9609227 0.9940255 0.9227944 1.0202596 1.0604744 1.0425615

encoder.initial.block.2.bias f4 [32]
00000000: 3001 d93d 5e9a 833e dcd9 153d 71d4 a3bc
00000010: c273 0b3d 4cdb 373e b2eb 133d b050 343b
00000020: e6c7 c7bd 4d82 e7bd 8e28 563e 4ce2 2abd
00000030: 6dba 71bd 739f cd3d fbe7 8fbe 9601 7dbe
00000040: 24ad 7f3e 7847 5b3e aab4 903c 6bf0 9cbe
00000050: e1b7 283e 02fc 38bd e33b fcbc 9d44 14bc
00000060: c3a2 3bbd edbb 443e 9a5e aabe 927c d03d
00000070: ea1e 153d 87a4 02be 92a6 67be 41d8 c2bd
0.105959296 0.2570371 0.03658472 -0.01999876 0.034045942 0.17954749 0.03611345 0.0027513914
-0.097549245 -0.1130415 0.20913908 -0.04171972 -0.05901568 0.10040178 -0.28106675 -0.24707636
0.24968392 0.21413982 0.017664272 -0.30652174 0.16476394 -0.04516221 -0.030790275 -0.009049562
-0.04580952 0.19212313 -0.332753 0.1018001 0.036406435 -0.12758075 -0.22622135 -0.095139034

encoder.initial.block.2.running_mean f4 [32]
00000000: 0a83 c43b 8323 81bb dbca 753e 0fa3 043f
00000010: b649 ecbb 4cd6 253c d8a5 8d3e a034 ebbb
00000020: 7991 093f 600e 1d3e d076 0bbc 517c dabb
00000030: 96a9 683e 6e62 983e e3e3 9bbb 35b5 8abb
00000040: bbc7 bbbb 80f6 933e 18e0 de3e 064f ce3e
00000050: 2a19 7f3e 3c87 a0bb f430 833e f0d3 fa3e
00000060: 7d90 553e 9bd7 03bc 3669 b1bb cfb5 1f3c
00000070: 34e8 bebb 223c d6bb b147 a0bb 1cc5 5bbb
0.0059970664 -0.003941001 0.24003164 0.5181131 -0.0072109355 0.010121893 0.2766559 -0.0071779042
0.537376 0.15337515 -0.008512214 -0.0066676517 0.22720942 0.29762596 -0.004757391 -0.0042330273
-0.005730597 0.28899002 0.43530345 0.40294665 0.24911943 -0.0048989337 0.25623286 0.4898982
0.20855899 -0.00804701 -0.0054141534 0.009747936 -0.0058260206 -0.00653793 -0.004891359 -0.0033534234

encoder.initial.block.2.running_var f4 [32]
00000000: ea70 f639 7541 3e35 2641 643b 62eb 8a3d
00000010: 21c6 fd36 90fd 663a 3116 2a3b 2113 2937
00000020: 24b6 d03d 9113 803a 9740 7837 b250 e736
00000030: 69b5 b13a 2929 0a3c c20c 0c36 e88e 3537
00000040: b902 c236 3da3 783c c341 2a3d 3131 cf3c
00000050: 5881 623b 87bb ab36 c566 813a a70f 413d
00000060: 5ca9 963a b499 8237 65af a836 76b8 a43a
00000070: 198b a636 f8c8 e036 5881 4336 109a c735
0.00047004904 7.087577e-07 0.003482887 0.06783177 7.563053e-06 0.00088115875 0.0025953169 1.0077639e-05
0.101909906 0.0009771456 1.479699e-05 6.8937306e-06 0.0013558093 0.008432665 2.0869052e-06 1.0821714e-05
5.7819675e-06 0.015175638 0.04156662 0.025292011 0.0034561958 5.118028e-06 0.0009872547 0.047134068
0.0011494565 1.5568781e-05 5.0272088e-06 0.0012567181 4.9633786e-06 6.699116e-06 2.9132552e-06 1.4871493e-06

encoder.block1.block.0.weight f4 [32, 35, 3, 3]
00000000: 07a3 a9bb 27c2 7cbc 8e95 d8bc 2bd0 d93b
00000010: 9eee 18bd f8f9 85bd 7bb7 0dbd e10c bbbb
00000020: 9615 513b 72a6 f6bb a76c b03c 1424 013a
00000030: 0708 50bd fe06 793d a5cc ae3d 73ea 2b3d
00000040: ee0e d3bb a83c cb3c c924 6b3d 769a 203d
00000050: 8b46 9d3a 1155 823d 5846 663b 8fae f3bc
00000060: b2b0 f93c aaf8 373c c008 3c3d c317 0dbd
00000070: 27d9 4c3b 4738 5c3d 577f 683d fe1e e93a
00000080: 4bba 433c 4692 47bc c7d7 db3b 81cd bd3d
00000090: 1457 adbd 738f 72bd 4c2e eebc 2cbb 38bb
000000a0: 5d13 693d ca7f 053d 8871 1e3c 7f5a b0bc
000000b0: 2c6f 0a3d 99f5 383d a1ea 51b9 1906 793b
000000c0: b1b9 6bbc 58b1 8cbc 1120 043c aa63 533c
000000d0: e799 033c 32b0 94bc 6c33 6c3d 9bc6 953c
000000e0: 4b73 983c 0426 bdbc d80d e33c b90f d2bc
000000f0: 40e5 133d f7be a8bc 778d 103c e9e2 96bd
00000100: 607d cbbc 1f98 d8bc edeb 43bd 1ecf d33b
00000110: ebb1 8ebb 1a0b 74bc 2522 0cbd 68b2 e5ba
00000120: 781e 313d cb1b c23b 1f03 7cbc 5ebf f1bb
00000130: 461a 02bc d331 8d3d 0c1f 903b d2eb b43c
00000140: 905f 95bc f344 ee3b ee32 763d 5bd1 a43c
00000150: 6e1b 223d a240 3dbd 3838 213c 8568 243c
00000160: d68d 14bc b9a2 5c3d 14df 9dbc d0be 713c
00000170: 4462 0fbd 584d 80bd c38b 313d 0c76 f93b
00000180: 5f22 e33a 48e3 6d3c fd69 c2bb 6e31 98bd
00000190: 16dc 1cbc c470 92bd f800 4e3d 4dea a33d
000001a0: 68dd 3f3c b5f7 ec3c d9cd 1ebd 4963 cdbb
000001b0: f80d 60bc f23e 2e3c c45c a9bc f323 6dbd
000001c0: 6935 fe3c e175 583d e5b5 333d 0648 7d3d
000001d0: 94cc a93c 7c7f c93c f2e0 71bd fe06 c63c
000001e0: cfa3 0d3c 654b 2cbc b9be 833d 1548 263d
000001f0: a03a 813d 26b5 18bd 2655 d13c 2fe4 363d
00000200: 21a0 64bd 0dca 2e3d c1a7 6cbd 9e87 a03c
00000210: dc34 8cbc 17c9 6dbd 2a9e 373d 04f9 e3bc
00000220: ba78 143c 584f 9ebd b69f 59bd 9421 88bb
00000230: e7b7 09bd b44d 5a3c 7eb4 12bc e23e f0bc
00000240: a8af 27bc d4d4 16bd 7e42 3a3b f313 b437
00000250: 7292 f73c e6a7 c1bc 1167 86bc faea 363d
00000260: c60a 46bd 8a22 903c 4429 2fbc 4794 063d
00000270: 04ad 47bc 2219 b33d 30da 573d 31e1 683b
00000280: d955 dc3c 813c 273c 8ab5 863c 7cd3 873d
00000290: 7694 ae3d 2d0a 933c 262a 07bd 58ab e93c
000002a0: f086 a2bb 76d5 7e3d a2cb a83c 47d0 6cbd
000002b0: 6322 e13c 52d1 223d 3a21 0abc 1e63 ffbb
000002c0: d688 44bc 60e3 153d cadc a7bc 1616 093d
000002d0: ba59 f7bc ecf6 efbc 8de1 8c3c ccfb d63c
000002e0: 10d9 1bbc 3cd0 353d cc1c 323d 3228 303c
000002f0: 2ce1 aabc c1ee 103d 8620 f23b f202 e4bb
00000300: 20d9 9b3c f7e8 873c dbcf 7c3c d0a2 a2bc
00000310: 9cfc 9dbc c679 803d 6380 f4bc de50 c53c
00000320: 7cfb e13c bae4 323c b63c 653d 2d4b 84bc
00000330: fb57 b43c 08e6 493b de9e f83c c68c 0e3c
00000340: 5e94 963d f164 403d b7ae 373d 2910 973d
00000350: fae5 053c 3718 6fbc 3e7b 5cbc a7e1 c83b
00000360: f145 033d 10ae b0ba 728d ea3b 6a8f 99b9
00000370: d19f b93b f91b 18bc 17d2 0c3d 7b36 b3bc
00000380: cc34 f7ba 32fa 083d fa9f 143c ac11 6b3c
00000390: 4e38 9f3c 2f9f dabc 9dad 653d ba5a 013d
000003a0: 3502 a63c 5214 39bd 2d5d 373c e0cd 5a3c
000003b0: 26e7 41bc c9d3 6a3c 4c9e ce3b 9247 113d
000003c0: 5dcf 49bd 4c72 43bd 6278 2dbc cb1e 3abd
000003d0: e7f4 dabd c384 2abc 9b17 54bd d135 80bc
000003e0: b959 49bd 7217 97bd 271c 78bd 0df0 d7bc
000003f0: 074f 1c3d d614 573d 5e94 4e3c a06b 913b
-0.005176905 -0.015427149 -0.0264385 0.00664713 -0.037336938 -0.065418184 -0.03459881 -0.0057083224
0.0031903735 -0.007527166 0.021536184 0.00049263355 -0.050788905 0.060797684 0.085351266 0.041971635
-0.0064409887 0.024809197 0.057408128 0.039209805 0.0011999173 0.063638814 0.0035137143 -0.029746322
0.030479763 0.01122872 0.045906782 -0.03444649 0.0031257363 0.053764608 0.056762066 0.0017785726
0.011946271 -0.01218087 0.0067090723 0.092677124 -0.084638745 -0.059218835 -0.02907481 -0.0028187735
0.056903232 0.032592572 0.009670623 -0.021527527 0.033797428 0.045156095 -0.000200192 0.003799802
-0.014387534 -0.017174408 0.008064286 0.01290218 0.008032299 -0.018150423 0.057666227 0.018283179
0.018609663 -0.023089416 0.027716562 -0.025642263 0.0361073 -0.020598872 0.00882279 -0.073674984
-0.024840057 -0.026439724 -0.04783242 0.0064638993 -0.0043547056 -0.014895225 -0.03421225 -0.0017524483
0.043241948 0.0059237233 -0.0153816035 -0.007377549 -0.007940834 0.06894269 0.0043982323 0.022085104
-0.018234044 0.007271403 0.060107164 0.02011936 0.03957694 -0.046204217 0.009840064 0.010034685
-0.009067019 0.053866122 -0.019271411 0.014754966 -0.035005823 -0.06264752 0.043346178 0.0076129492
0.0017328969 0.01451952 -0.005933045 -0.07431303 -0.009573957 -0.071504146 0.050293893 0.08003674
0.011710502 0.02892671 -0.03877053 -0.006267939 -0.013675205 0.0106351245 -0.020674117 -0.057895612
0.031031327 0.052846793 0.04387464 0.061836265 0.020727433 0.024596922 -0.059052415 0.024173256
0.008645012 -0.010516022 0.06432862 0.040596087 0.0631001 -0.03728213 0.025553297 0.044651207
-0.055816773 0.04267316 -0.05777717 0.019595917 -0.017115049 -0.058053102 0.04482857 -0.0278287
0.009061987 -0.07729977 -0.053130828 -0.0041543934 -0.03362265 0.01332419 -0.0089541655 -0.02932686
-0.010234751 -0.036824062 0.002842098 2.1466962e-05 0.030221198 -0.02363963 -0.016406568 0.044657685
-0.048350118 0.017594595 -0.010690991 0.032856252 -0.012187246 0.08745028 0.052698314 0.0035534615
0.026896404 0.010207296 0.016443986 0.06632134 0.085244104 0.017949188 -0.03299918 0.028524086
-0.0049599335 0.06221529 0.020604912 -0.057815816 0.027482217 0.039750405 -0.008430773 -0.007793798
-0.011995515 0.036593795 -0.020491023 0.03346833 -0.030194152 -0.029292546 0.017197395 0.026243113
-0.009512201 0.04438804 0.043484494 0.010751771 -0.020859323 0.035383943 0.007389131 -0.006958359
0.019024432 0.016590578 0.015430416 -0.019853026 -0.019285493 0.062732264 -0.029846376 0.024086412
0.027585737 0.0109187905 0.0559661 -0.016149128 0.022014609 0.0030807275 0.030349191 0.008700555
0.073525175 0.046971265 0.044844355 0.07376129 0.0081725065 -0.014593176 -0.013457118 0.0061304155
0.032049123 -0.0013479609 0.007157975 -0.00029289286 0.0056648036 -0.009284013 0.034380045 -0.021876564
-0.0018860339 0.03344173 0.0090713445 0.014347475 0.019436028 -0.026687233 0.056073774 0.031580664
0.020264724 -0.045185395 0.011191648 0.0133547485 -0.011834895 0.01433272 0.0063054916 0.035468645
-0.049270023 -0.047716424 -0.0105877835 -0.045439523 -0.10691243 -0.010407629 -0.051780324 -0.015650662
-0.04915783 -0.07377519 -0.060573723 -0.026359582 0.038161304 0.052510105 0.012608616 0.0044378787

encoder.block1.block.0.bias f4 [32]
00000000: d28e cd3c f619 7b3e 9565 573e de2a 833e
00000010: 01a4 1f3c 23e1 893e 8014 f33d 4267 893e
00000020: 4900 e53d d3ab 873e 9cd5 7b3d a22c 203e
00000030: 508e 8938 d110 993e ab35 823e c304 a4bc
00000040: 52c5 e7bb b44a 483e 965c 733d 3cfc a33e
00000050: bee1 213e 7941 243e 1618 8a3d ea5a f7bb
00000060: e1ab 123d c517 eb3c e413 c6bc a6e6 653d
00000070: 3311 cf3c c1fc 4b3d 28bd 21bd 0022 aabb
0.025092516 0.24521622 0.21034844 0.25618643 0.009743691 0.26929578 0.118691444 0.26836592
0.11181695 0.2649828 0.06148301 0.15642026 6.559177e-05 0.29895642 0.2543157 -0.020021802
-0.007073083 0.19559747 0.05941447 0.32028377 0.1580877 0.16040601 0.06742875 -0.0075486796
0.035808448 0.028697858 -0.024179406 0.056128167 0.025276756 0.04980159 -0.039487034 -0.0051920414

encoder.block1.block.2.weight f4 [32]
00000000: 3e4e 7d3f 5963 7d3f 693c 743f 4813 753f
00000010: 355e 793f ed46 783f 682c 803f 267f 793f
00000020: 1b04 7d3f 6adf 763f 755c 873f 8d07 723f
00000030: 6531 813f e704 6f3f 5422 783f a376 783f
00000040: 3222 803f 3ce3 7c3f 7e6c 783f d22c 7a3f
00000050: c9c1 7c3f 640b 7b3f e6ee 7f3f 9d4f 803f
00000060: 1f83 803f 954c 7d3f caff 813f efdc 853f
00000070: b44e 803f 89f5 843f a0a0 813f feae 833f
0.98947513 0.9897972 0.9540468 0.95732546 0.97409374 0.96983224 1.0013552 0.9745964
0.9883439 0.9643465 1.0575091 0.9454277 1.0093199 0.93366855 0.9692738 0.97056025
1.0010436 0.9878423 0.97040546 0.9772464 0.9873319 0.98064256 0.99973905 1.0024296
1.0040015 0.9894498 1.0156186 1.0458049 1.0024018 1.0387431 1.0127144 1.0287778

encoder.block1.block.2.bias f4 [32]
00000000: d9ce 813d 38da 0ebd c750 8c3d 9931 0a3b
00000010: a7c2 77bd 3233 a4bd c889 143d a0d8 5c3c
00000020: 153b 25bd 5ded d4bc e8b3 623d 3fb9 b33d
00000030: c87e b03d c8e1 323d 373f d6bc 264a 5c3b
00000040: c2aa 003c af40 9b3d 2878 703d ba66 cbbc
00000050: 34ba ac3d 0215 23bc df75 db3d bc99 1c3d
00000060: 3156 b43d d2b6 d63c d59f e0bc ff89 8a3d
00000070: 2949 69bc 3c6b a53b 9342 113d 9659 3f3d
0.06338281 -0.03487608 0.068513446 0.0021086691 -0.06048837 -0.08017577 0.03626421 0.013479382
-0.04033955 -0.02599209 0.055347353 0.08775567 0.086179316 0.043672353 -0.02615319 0.0033613532
0.007853212 0.07580697 0.05870834 -0.024829257 0.08433953 -0.009953739 0.107158415 0.03823255
0.08805502 0.026210222 -0.027419964 0.06764602 -0.014238634 0.0050481837 0.03546388 0.046716295

encoder.block1.block.2.running_mean f4 [32]
00000000: 13b4 833f 91f3 993f acf5 8c3f bdf8 963f
00000010: 7bec 973f d7e2 8a3f 928b 553f 2a4b 9a3f
00000020: 97e2 893f fe7a 893f bff1 683f ef75 7a3f
00000030: 53e2 683f fb56 933f 768e 883f c864 853f
00000040: 12a1 683f 0515 833f a68a 843f e14d 9d3f
00000050: 5243 733f 5c83 7f3f 08f1 6b3f 50e3 543f
00000060: 66c9 4c3f a6ae 853f 38ce aa3f f2b2 3b3f
00000070: d2bb 7f3f 80e1 563f ca1b 723f 4fe5 5b3f
1.0289329 1.2027456 1.1012473 1.1794659 1.1869043 1.0850476 0.8341609 1.2054188
1.0772275 1.0740659 0.90993875 0.978362 0.90970343 1.1510919 1.0668476 1.0421381
0.90870774 1.024079 1.0354812 1.2289392 0.950246 0.99809813 0.9216466 0.8315935
0.7999481 1.0443923 1.3344183 0.73319924 0.99895966 0.83937836 0.9457365 0.8589677

encoder.block1.block.2.running_var f4 [32]
00000000: 213d e83f d500 273e 92bd 023e 650b 133e
00000010: 496b e13f a131 a63d e8d1 803f ba9f f83d
00000020: ec2f ad3f 73d6 ac3d 57a3 a23f 655a ed3d
00000030: 2782 cf3f a855 8d3d 2498 043e c7dc 0440
00000040: 545c d03f 5626 ab3e b0cd e93f 955e d53d
00000050: 9df9 383e e0df d83d d10f d13f 0bcc de3f
00000060: 80f6 bd3f 54ac f53f 3226 5e40 b7eb 9d3f
00000070: 9c35 df3f 90ef 973f 6e89 f13f 604c d43f
1.8143655 0.16308911 0.12767628 0.14359815 1.7610866 0.08114935 1.0064058 0.121398404
1.353025 0.084393404 1.2706097 0.11589507 1.6211594 0.06901103 0.12948662 2.0759752
1.6278176 0.33427685 1.8265896 0.10418431 0.1806397 0.10589576 1.6332952 1.7406019
1.4840851 1.9193215 3.4710813 1.233756 1.7438235 1.1869984 1.8870065 1.6585808

encoder.block2.block.0.weight f4 [32, 32, 3, 3]
00000000: b3ed fc3c ec3e c33c 4be1 b13d 1086 c1bc
00000010: aaff 053d 36f9 563d 1b03 bb3c a613 a83c
00000020: 3486 c63c 0748 96bc 60d9 75bd b497 06bd
00000030: fe67 63bd ee1a 67bd 377e 7bbd 4a84 f9bb
00000040: 41ff 293c 4e55 62bc dccb 75bc 9b1d cf3c
00000050: 147c 17bc 18e5 2d3d 627b b0bc 1b7b 2a3b
00000060: ae54 ee3b d48a 8cbc 196f 5dbb 0d36 b9bc
00000070: 276b 45bc 3877 87bc ec9e 603c fa66 20bd
00000080: 628b e8bb 25e9 60bd 5832 2ebd 045a 373c
00000090: 7300 6fbc 36a2 893c 56d7 293d b566 f93c
000000a0: f878 b23d b860 2f3c 37ac 843c 3211 2fbd
000000b0: 6a35 b83c 6e32 a7bc d345 5f3d 6ae1 0bbc
000000c0: fb9e 22bd 7436 83bc ec24 293d 47f1 263d
000000d0: 7e0d 0fbd 9369 b23c c620 d1bc 3ba6 3bbd
000000e0: d558 22bc abb1 313c 6f45 223c 5c91 b5bc
000000f0: 67a2 eabc 5a00 5abd a2c7 babc f9cb d83c
00000100: 4409 6ebd 17ab 23bd 3410 86bd e40e 003d
00000110: 3b75 95bc a5c3 6fbc 2f33 d93a b71a 4dbd
00000120: 3960 c03c e024 093d 2a3f c13c 58da 46bd
00000130: 7693 303c 6960 903b 13f1 babb 155b 983c
00000140: ab55 843c 746a 8a3d 8b63 4f3c b7c4 aebb
00000150: a296 913c 973a cd3c f7e3 303d c983 3e3d
00000160: f0fb 733d fb03 fabb eb10 40bd 7d00 edbc
00000170: 17e6 80ba 69e1 60bc fc82 22bd 8f56 b2bc
00000180: 8818 7dbd 51fc 9a3c ea5a 0cbd 4592 6c3d
00000190: a897 383c 8dcd bcbc a224 5a3d f85c 42bc
000001a0: d5f8 f13b a8ff fc3b 1a78 1abc eb52 233d
000001b0: 91ba 6d3c ebb6 363d 69da 7a3d e622 3c3d
000001c0: 3752 2a3d afc5 d33c b343 e03c 1ba6 85bc
000001d0: a2d7 bc3b 9496 a9bc d42e 92bb 1bc3 1b39
000001e0: 5f7d a13c 84a4 033d 5d61 aa3c 727b 3f3c
000001f0: befb ecbc 8881 193d df15 193c 1996 3aba
00000200: 8a40 513c c6c0 b4bc 8e9d 8ebc 9f4e ef3c
00000210: d382 00bd ea31 91bc 34d4 1fbd 7e44 b93d
00000220: 0034 16bc 87e6 8bbc 3ae7 e03b cb7a 9e3d
00000230: d88a 1e3c f162 873c ee5b 073d 0522 123c
00000240: 4274 a8bb e0ca 40bb ef5d 28bc ec96 793d
00000250: 1574 5a3d 19df ea3b f6b7 3abc 14d6 e9bb
00000260: 9fd0 b03c 08ae 983c d4b8 20bd 721b 12bc
00000270: cf87 143b 8380 4cbc 07a4 9cbc 2e23 2dbc
00000280: 4f96 17bd 8094 30bc 0d20 89bc 71cf 9d3c
00000290: b0c5 cb3b a777 943c 31ae 243d 10d8 cfbc
000002a0: d966 513a 08c6 913d bdd3 163a eb8d 96bc
000002b0: d515 85bb f5db 2a3d 356d a0bd 10d5 95bc
000002c0: e915 edbc e2d3 bd3c 2ada 21bd 0d49 f53c
000002d0: cff0 29bd 1521 b33b db12 9fbc 90bf f9bc
000002e0: 0d7c 013c 4ec4 9abc c436 15bd acc1 a93c
000002f0: 0700 3a3c 312e a63b 0c80 d03c e0f8 a9bb
00000300: 0f10 d8bc 876f 4b3d 0d79 ce3c 369e 093d
00000310: b8ab aebc d09e 9dbb d9ff 61bc 2346 953d
00000320: d4da e0bc fb81 273d e1d3 c63b bd43 373d
00000330: 4fa6 a63c cc43 75bc 4043 063d 360a c33c
00000340: 8f9b a0bc 1727 08bd b11a fc3b b802 aabc
00000350: e8e3 bfbc 35b7 0d3b c629 8ebd 0efc 3abd
00000360: 5768 fbbc eaa0 32bd 4fef c73c d095 7cbc
00000370: bb59 aebb 195e c23c 1cfd 9dbc 77cb 79bc
00000380: 86be 8cbc d497 603d 1a2c 923c e703 84bb
00000390: 218a 933d 5bd2 1d3c 7e62 f33c d4ec 1c3d
000003a0: 2faa 913d 3416 933d 517d e7bb b013 77bc
000003b0: 0890 b5bb 5007 783c 60d1 8cbc 7c76 49bc
000003c0: aa62 043d 8cd2 2d3c 134f 1fbd f372 07bd
000003d0: 886b f23c 8db7 11bb 944d 4bbd 054b 5a3c
000003e0: 5ac8 17bd 1be4 8ebc d762 51bc e7bf afbc
000003f0: 7c53 703d 3ac1 183b 1d3e f3bc 14cf 203d
0.030875063 0.023833714 0.08685549 -0.023623496 0.032714523 0.05248376 0.02282863 0.020517182
0.024233915 -0.018344892 -0.060021758 -0.03285952 -0.055519097 -0.056422167 -0.061399665 -0.007614647
0.010375799 -0.013814284 -0.015002217 0.025282672 -0.009245891 0.04245481 -0.021543209 0.0026013318
0.007273278 -0.017156042 -0.0033788143 -0.022608781 -0.012049473 -0.01653634 0.013709765 -0.039160706
-0.007096694 -0.054909844 -0.04252848 0.011190895 -0.014587509 0.016800981 0.041465126 0.030444482
0.08714479 0.010704212 0.0161954 -0.042741008 0.022486407 -0.020409789 0.05450995 -0.00853763
-0.039702397 -0.016017176 0.041294977 0.040757444 -0.034924977 0.021778857 -0.025528323 -0.045812827
-0.0099088745 0.010845582 0.00990425 -0.02216404 -0.028641893 -0.05322299 -0.02280027 0.02646445
-0.058114305 -0.039958086 -0.06546059 0.0312642 -0.018244376 -0.014634048 0.001657104 -0.050074305
0.023483383 0.033482432 0.02358969 -0.048548073 0.010777345 0.0044060242 -0.005705008 0.018598119
0.01615413 0.067585856 0.01265801 -0.005333509 0.017772023 0.025052352 0.043186154 0.0465124
0.05956644 -0.007629869 -0.046891134 -0.028930897 -0.0009834197 -0.013725617 -0.039675698 -0.02176979
-0.061790973 0.018919142 -0.03426639 0.05775668 0.011266626 -0.023047233 0.053257592 -0.011862986
0.0073843994 0.0077209063 -0.0094280485 0.039874 0.014509813 0.044608038 0.06124345 0.04593172
0.041582312 0.025851099 0.027376032 -0.016314557 0.00576301 -0.020701684 -0.0044611488 0.00014854634
0.019713102 0.032139316 0.02079838 0.0116871465 -0.028928634 0.037477046 0.009343593 -0.0007117703
0.012771735 -0.022064578 -0.017409112 0.029212294 -0.031374764 -0.017723996 -0.039020732 0.09046267
-0.009167671 -0.017077697 0.006863502 0.07738265 0.009676658 0.016526671 0.033046655 0.008919244
-0.005140812 -0.0029417798 -0.010276302 0.060934946 0.05333336 0.0071677086 -0.011396399 -0.007136116
0.021583853 0.018637672 -0.039238766 -0.008917676 0.0022663956 -0.012481811 -0.019121183 -0.0105674695
-0.03700858 -0.010777593 -0.016738916 0.019263955 0.0062186345 0.018123461 0.040205184 -0.025371581
0.0007988043 0.071178496 0.00057535974 -0.018378219 -0.0040614405 0.041713674 -0.078333296 -0.018290073
-0.028941112 0.023172323 -0.039514698 0.02994206 -0.04148942 0.00546659 -0.01941817 -0.030486852
0.007903111 -0.018892433 -0.03642918 0.020722233 0.011352546 0.0050714244 0.025451683 -0.005187139
-0.026374845 0.049666908 0.025204206 0.033598147 -0.021322116 -0.0048101917 -0.013793909 0.07288768
-0.027448095 0.040895443 0.0060677384 0.044742335 0.020342974 -0.014969777 0.03277898 0.02380858
-0.019605426 -0.033240404 0.0076936116 -0.02075325 -0.023424104 0.0021624092 -0.069415614 -0.045650534
-0.030689402 -0.04361049 0.024406103 -0.015416577 -0.0053207553 0.02372651 -0.019285731 -0.015246264
-0.017180692 0.054832295 0.017843295 -0.0040287855 0.072040804 0.009632672 0.02971005 0.038311794
0.07112538 0.07181969 -0.0070644994 -0.015080377 -0.0055408515 0.015138462 -0.017189682 -0.012296315
0.032320656 0.01060928 -0.03889377 -0.03306861 0.02959229 -0.002223465 -0.04963453 0.01332355
-0.037056305 -0.017442754 -0.012779913 -0.02145381 0.058673367 0.0023308531 -0.029692704 0.039259985

encoder.block2.block.0.bias f4 [32]
00000000: ecda 883d 8c65 ab3d e416 a43d 99aa 9d3d
00000010: da5d 2a3d 0207 9f3d fe22 c03d d6f7 d23d
00000020: a561 813d bf8f ba3d 35d2 943d 5a64 923d
00000030: 5183 df3d 7ef2 993d aca1 8b3d a89c 2b3d
00000040: d071 473d a195 b23c 46c4 443d 8448 8b3d
00000050: 5616 f33d e302 b53d 2011 cd3d b18f a93d
00000060: 9d48 583d 53b1 863d d65b b03d c4fa 753d
00000070: b1bb 873d ce8b e53c 8df4 cb3d 264c be3d
0.06682381 0.08368978 0.080121785 0.076985545 0.04159341 0.077650085 0.09381674 0.10301177
0.06317452 0.09109449 0.07266656 0.07148047 0.109137185 0.07516955 0.06817946 0.041897446
0.048692524 0.021799864 0.048038743 0.06800941 0.118694946 0.08838441 0.10013032 0.0827936
0.052803624 0.06576791 0.08611266 0.0600536 0.06627596 0.028020766 0.09958754 0.09291868

encoder.block2.block.2.weight f4 [32]
00000000: df41 6f3f 743a 763f 1b9e 743f 8a04 733f
00000010: e3bc 723f d651 763f 17af 753f cd47 763f
00000020: 748f 713f ab7b 773f fd82 743f f418 723f
00000030: c39a 6e3f 5624 753f 4650 713f 7646 723f
00000040: a7dd 733f a771 743f 53f1 753f b7d1 733f
00000050: 4e6a 6e3f 5552 763f fae0 723f ef35 6d3f
00000060: f4bd 743f f5fc 703f f23a 773f 5c8f 6f3f
00000070: 5577 703f 5c28 743f 21ea 713f b160 793f
0.93459886 0.9618294 0.9555375 0.949288 0.9481947 0.9621862 0.9597029 0.9620331
0.9435952 0.9667308 0.9551237 0.94569325 0.932049 0.9575857 0.9426311 0.94638765
0.9526009 0.9548592 0.96071357 0.95241874 0.9313096 0.9621938 0.94874537 0.9266042
0.95602345 0.9413598 0.9657432 0.93578124 0.93932086 0.95374084 0.9449788 0.97413164

encoder.block2.block.2.bias f4 [32]
00000000: c221 9c3c 7070 8a3d 178e b33c b03a 72bc
00000010: 0b66 fdbc a3b4 eebb 8516 abbc 3a2c 7e3c
00000020: 7151 b43c 8a91 bbba b2bd efbc d2e2 3dbd
00000030: 7aae 033d 594a cf3c b52b 1abd 326f bf3b
00000040: 0399 293d a69f 023c 1e06 a53c b242 9a3b
00000050: f24d 03bd 267b d23c a5da 4f3c dc8a 9dbb
00000060: 67b2 31bb 702c 663b 1d42 1d3b d47f 97bc
00000070: 1b9a dbbb 74ff 403c e989 23bb 0486 be3b
0.019059066 0.06759727 0.02191834 -0.0147845 -0.030932447 -0.007284717 -0.020884762 0.015513474
0.02201149 -0.0014310342 -0.029265258 -0.04635889 0.032148816 0.025304006 -0.03763934 0.005842113
0.04140569 0.0079726335 0.020144518 0.0047076577 -0.032056756 0.025693487 0.012686406 -0.004807813
-0.0027114393 0.0035121702 0.0023995705 -0.01849357 -0.0067017204 0.011779655 -0.0024954027 0.0058143158

encoder.block2.block.2.running_mean f4 [32]
00000000: 7e0d d13f 8e16 e73f f69c dc3f ec52 ff3f
00000010: 953c 0040 e408 e73f 5e78 d53f ed76 fb3f
00000020: d321 bd3f 453c e13f 370f f53f 2d28 e13f
00000030: 093c 0b40 9e09 0440 b5ff d53f 5c1a 0240
00000040: 8c91 0740 d125 e23f c3ed 0440 ff24 ec3f
00000050: 638e f13f 3999 da3f 69f5 ee3f 7962 0240
00000060: ee9f 0740 bfdc f53f 0f9d a83f 69e1 0240
00000070: cfc6 0c40 8a3d c43f f270 f83f 45bb f13f
1.6332242 1.8053758 1.7235401 1.9947181 2.0036976 1.8049588 1.6677358 1.9645668
1.4775947 1.7596518 1.9145268 1.7590386 2.1755393 2.063087 1.671866 2.0328588
2.1182585 1.7667791 2.0770118 1.844879 1.8871578 1.707801 1.8668643 2.0372603
2.1191363 1.9207991 1.317293 2.045008 2.1996343 1.533128 1.9409468 1.8885275

encoder.block2.block.2.running_var f4 [32]
00000000: cf85 b940 6655 e240 4a8c cf40 8cdc 0b41
00000010: 3b6c 0d41 7886 e340 b09d c140 6832 0641
00000020: 7e35 9640 4726 d840 bff6 0141 b63f d840
00000030: 42d3 2641 1f3c 1541 ed1a c240 4ad8 1141
00000040: 3300 1e41 5edf da40 47bc 1541 84e6 eb40
00000050: 69cc f740 14c7 cd40 a4c4 f140 336d 1041
00000060: f5a4 1e41 573b 0141 29cf 6e40 94f0 1241
00000070: 1fbe 2a41 0543 a540 e861 0341 5351 f740
5.797584 7.0729246 6.485875 8.741344 8.838923 7.1101646 6.050499 8.387306
4.69403 6.7546725 8.122741 6.757777 10.426577 9.327178 6.065787 9.115305
9.875049 6.8397665 9.358466 7.371889 7.7437024 6.4305515 7.555254 9.02666
9.915273 8.076987 3.731394 9.183735 10.671416 5.164431 8.211403 7.7286773

encoder.final.block.0.weight f4 [3, 32, 3, 3]
00000000: b8f4 e2bc c3ca fcba d225 83bb 5841 d03c
00000010: e5b2 b4bc 40a8 dfbc 1151 96bb 5c29 bf3b
00000020: 4d6d a83c 3f85 d139 da49 47bd 0602 a3bc
00000030: 956b 32bb d0ed 82bc 3c8e 10bc fea1 e3bc
00000040: b4a9 cbbc e4b5 84bb dc29 323c 592a 78bc
00000050: 8f41 48bc f2db d9bc 4a68 4c3d 99e6 1e3d
00000060: 7756 593c 15c5 b23c 90c9 173c c8f3 4e3c
00000070: 1ab9 49bc b311 883a d324 e03c 0dd4 97bc
00000080: f885 063d c236 bfbb ab79 063b e285 5e3c
00000090: 19ef 3c3d bc3b 0b3d f6e7 103d 5e96 dd3a
000000a0: c726 8b3c b102 3ebd 4f78 1c3d b648 cbbc
000000b0: a1ae a5bc 1ecc 143d 254d e3bc 7671 bcbc
000000c0: f325 d03c 72eb 5cbc 69c9 9f3c 8f42 c4bc
000000d0: 2012 be3c f628 433c cd45 f33c 6f11 973c
000000e0: dd32 993b e752 683b 80c4 79bb e9c1 e73b
000000f0: e477 8e3c 5540 5bbd f07d 0fbd fa11 f8bc
00000100: 4597 ebbc 7135 e83c b134 973b 6167 633d
00000110: f29f 273d af4d 213d 5b07 143d 49b6 31bc
00000120: 1cb9 b23b ae57 d2bb 0ce5 cfbc 8ed8 f6bb
00000130: 4522 013d f623 d5bb 1ab0 d63c e935 e13c
00000140: 6ad2 08bc fc46 65bb 1d26 04bd 89d5 5f3b
00000150: d364 17bd 515e 72bd 2bfe ae3c 9f87 b13c
00000160: 7502 df3a fb4c 0fbd 107f 79bc a308 7cbc
00000170: 2221 993c 7c4a e93c 5457 223c a0d2 dbbb
00000180: 3b31 733c b698 f0bb dd08 8d3c fff0 c83c
00000190: 72af fe3c 7e26 4e3c 7c28 563c b548 85bd
000001a0: 9cd0 d2bc 37da 3abb cab7 06bd cfeb 9d3b
000001b0: 832c 13bd 43bb a63b 425c e43b 1627 4a3c
000001c0: 3174 da3b afbb 5ebc fdc2 ebbc eaf2 2abc
000001d0: 0d88 84bc 3eda c6bc 0d95 783b 07a2 a8bc
000001e0: 1254 a5bc 9949 e3bb ef1b 34bd 8b19 4f3b
000001f0: 319d d1bc 372f d0bc 65e2 bb3c 6c05 e33c
00000200: 215d 24bd 3e84 c1bc 8752 2e3d 1543 f1bc
00000210: 4601 d43c 2716 70bc 4ebb 14bc 0fe1 423c
00000220: 98a3 443d a042 8fbb ebe5 60bb 3848 b23c
00000230: 6791 653c fa4e d4bb eae0 20bd 5274 6ebc
00000240: f2ed d1bc 2aa4 cb3a 9ba7 a6bc 2773 46bd
00000250: fe95 ba3c 4909 0abc 4e48 25bd c050 473d
00000260: 5a18 003c 65d6 a7bc 38cb b3bb 0b03 d6bb
00000270: c151 e4bb 40f7 123d 0269 373c 8e91 b43c
00000280: 88e3 e5bb e085 95bc ae5c 8fbb 8950 313d
00000290: d3f6 2dbd 02f5 c6bc 5ee4 8a3c 0076 9c3c
000002a0: 8e14 29bd bf2d e03a 16f8 963c 28bb 613c
000002b0: 30a7 053d 4197 ea3c fb31 54bd 89ba a1bb
000002c0: f899 213c c610 2c39 3fd3 81bc 1307 99bc
000002d0: e46e e33c 9156 91bc 1f2a dbbb b827 1c3c
000002e0: 7ddb 02bc dcbd 88bc 4f96 c1ba fca7 2a3d
000002f0: 07c3 ee3c 480a 8d3c 0da7 dbbc 9750 febb
00000300: 73d6 f63c 5344 e3bc 6ac9 2a3c a127 aa3c
00000310: 6637 613c b26f 89bc 3ba2 b1bc e52c 4f3b
00000320: 1b88 f6bc c908 4bbd 7140 9f3c 21ec cbbc
00000330: 9941 fdbc fd6b fcbc d041 e03c 4408 12bd
00000340: cc71 cb3c 80a6 cebb a7d3 c93c 97a1 4e3d
00000350: dbaa 32bd 8f9c 5abc cda8 003d cec1 e53c
00000360: 42aa c03b e101 bebc 85f1 983c 354b 193d
00000370: fbfb 12bd d922 103d 18f8 693c 6803 953c
00000380: f58d 863b abec ee3a 0465 3dbb fe80 cd3c
00000390: 1036 173b da8e bf3c 4bf6 aa3b 7eef 853c
000003a0: c3c2 b8bc 965b 87bc 78a5 d2bc f7e3 0dbb
000003b0: 945a 6c3c 7283 02ba 6414 27bd 6d05 703d
000003c0: f228 32bd 26f3 9c3c c38c 363b 934b 22bc
000003d0: 365d e83b 2d23 c93c 689b dabc 1a40 46bd
000003e0: ed6e 35bd ed19 653c c67b 643a 794c b83c
000003f0: 2415 e2bc d6de 01bd 2376 093b fc6a 1b3d
-0.027704582 -0.0019286502 -0.0040023113 0.025421783 -0.02205796 -0.027301908 -0.0045873006 0.005833788
0.020559931 0.00039962863 -0.048654415 -0.019898426 -0.0027224768 -0.015982538 -0.008822974 -0.027787205
-0.024861194 -0.0040500034 0.010874238 -0.015146815 -0.012222662 -0.026594136 0.049904145 0.038794134
0.013265244 0.021822492 0.009264365 0.012631364 -0.012312198 0.0010381251 0.02736131 -0.01853373
0.032842606 -0.005835385 0.0020519297 0.013581725 0.04612646 0.033992514 0.035377465 0.0016905775
0.016986264 -0.046389285 0.038200673 -0.024814945 -0.020224871 0.036327474 -0.027746746 -0.023003321
0.02540872 -0.013483869 0.01950522 -0.023957519 0.023202002 0.011911621 0.02969637 0.01844093
0.004675253 0.0035449804 -0.0038111508 0.0070726764 0.017391153 -0.05352815 -0.035032213 -0.03028201
-0.028758654 0.028345795 0.0046144356 0.05551851 0.04092402 0.039380725 0.036139827 -0.010846683
0.0054541957 -0.0064191436 -0.025377773 -0.0075331395 0.031526823 -0.006504531 0.026207019 0.027491527
-0.008350948 -0.0034984937 -0.03226291 0.0034154376 -0.036961388 -0.05917198 0.021361431 0.021671114
0.0017014282 -0.034985524 -0.015228048 -0.0153829185 0.018692557 0.0284779 0.009908516 -0.006708458
0.01484328 -0.0073424233 0.01721614 0.024528978 0.031089518 0.012582419 0.013071176 -0.065080084
-0.025734238 -0.0028511414 -0.03289012 0.0048193703 -0.03593112 0.0050882413 0.006969006 0.01233842
0.006666683 -0.013594552 -0.028779501 -0.010433892 -0.016178155 -0.024273988 0.0037930638 -0.020585073
-0.02018169 -0.0069362638 -0.043971952 0.0031600918 -0.02558765 -0.025413139 0.022935102 0.027712546
-0.040127877 -0.023622628 0.042559173 -0.029450933 0.025879513 -0.014653719 -0.00907786 0.011894478
0.048007578 -0.004371956 -0.003431673 0.021762952 0.014011717 -0.0064791413 -0.039276995 -0.0145541
-0.025626156 0.0015536596 -0.020343592 -0.04844966 0.0227766 -0.008425065 -0.04035216 0.048660994
0.007818306 -0.020487973 -0.005486872 -0.0065311245 -0.0069677536 0.035880327 0.011194469 0.022042062
-0.007015649 -0.018252313 -0.004375062 0.043289695 -0.042471718 -0.02428675 0.016954597 0.019099236
-0.041279368 0.0017103477 0.018428843 0.013777532 0.032630146 0.028636577 -0.051805478 -0.004935567
0.009863369 0.00016409447 -0.0158478 -0.018680131 0.027762838 -0.017741473 -0.006688371 0.009530954
-0.0079869 -0.016692095 -0.0014769527 0.04166411 0.02914573 0.017216817 -0.026813054 -0.007761072
0.030131554 -0.02774254 0.010423997 0.02077085 0.013746118 -0.016776893 -0.021683803 0.0031612453
-0.030094197 -0.049568925 0.019439908 -0.024892868 -0.030915068 -0.030813212 0.027375132 -0.035652414
0.024834536 -0.0063064694 0.024637057 0.050447073 -0.04361997 -0.013342991 0.03141098 0.028046515
0.0058796713 -0.023194255 0.018669853 0.03742524 -0.03588484 0.035189483 0.014280342 0.0181901
0.004106278 0.0018228492 -0.0028899321 0.025085922 0.0023072995 0.023383547 0.0052173487 0.01634955
-0.022553807 -0.016523164 -0.025713667 -0.002165077 0.014425892 -0.00049786933 -0.04079093 0.058598924
-0.04349608 0.019158911 0.0027854897 -0.009905714 0.0070911897 0.024552906 -0.026685432 -0.048400976
-0.04429524 0.013983232 0.00087159534 0.022497403 -0.027597971 -0.031706654 0.0020974956 0.037943825

encoder.final.block.0.bias f4 [3]
00000000: e7e0 a83c 1818 84b7 6e7c 8bbc
0.020615054 -1.5746846e-05 -0.017027106

decoder.initial.block.0.weight f4 [32, 3, 3, 3]
00000000: 6c79 383e 90fe 9f3d f43b 863d 7a7a 71bd
00000010: 0ceb 163e 85d4 0e3e 2c30 b63c 608d 5bbe
00000020: e920 acbd fa2e 9c3c 9c95 023c 8e36 303e
00000030: 5a48 2dbe 9e7e 963d 3900 d2ba 3b51 0cbe
00000040: 7404 ab3d 7393 0bbe c3a1 7b3d d305 433e
00000050: 1ee3 9dbd be21 22be ba0b 3f3d 54cd 0e3e
00000060: eb75 27bd cbd0 233e 1ac7 803d 4ec2 1ebd
00000070: 47a8 043d 3ab7 433e 56ca 85bd 7959 373e
00000080: 2c85 2d3e f208 083e 2b38 bc3d b242 293d
00000090: 3799 1e3e 1ed2 efbd b93c 5d3e a175 a63d
000000a0: 1ea4 6fbd 9932 2a3e 1214 9cbd f0fa 033e
000000b0: 0c7f 19be 2cd0 b2bd 5d06 0ebc c7d4 5f3d
000000c0: 7b84 03be 0a06 f53c d42a 35be 0515 a2bd
000000d0: a76b 403e cf0c 26bc b4c1 2cbd 38c5 8cbd
000000e0: 80e1 073d 69a9 2d3e 04e5 9b3d 5e27 363d
000000f0: 523f 733d ae98 10be 8c72 a1bd 198f bd3d
00000100: 2702 003e 535b d23c 2971 64be 2ab9 4d3d
00000110: baba 28be 6beb 993d ce36 fd3d f3fe 40be
00000120: 685d b13c f24e 40be c946 f03d 1376 4dbb
00000130: 3cef 97bd e17d c3b9 078e 17bd 2742 ad3d
00000140: fcfd 173e cc46 bdbd 3521 03be e849 da3d
00000150: a22a f6bb a495 11be 3199 3c3d c15b 883e
00000160: d502 a7bd 5317 b5bd 1c5d 88bd babe 183e
00000170: 9ee7 5c3e 28d1 a3bd 63c7 3b3e d9a7 dd3d
00000180: 4979 1bbd 81b0 c43d ad55 5d3c 6a04 743d
00000190: 27ee 36bd c975 c5bd e77b e53d 62c9 ddbd
000001a0: 494e 403e 0659 413e db2a 91bd 90de 28ba
000001b0: 1958 2fbd fb52 0c3e 2771 da3d f456 393d
000001c0: c4cb 7ebd 5868 a1bd 4c13 c33d 468e 29be
000001d0: dc51 093e 7a03 b63d 145f 1c3d 9264 10be
000001e0: 012d c7bd b34e e33d d32a 973d c6cd 1dbe
000001f0: 1b94 f3bd 8520 a1bc d657 883d 8241 b8bd
00000200: 4176 26be c1df c0bd 098e a53d 4848 20bc
00000210: 31a6 2dbe 3a08 f7bc 9de1 c5bd 697b 053e
00000220: 035b 44be 43c1 04be ab1f 183e a038 fb3d
00000230: 5a20 49bc 825a a83d 4b0b 2ebc 5d69 b23c
00000240: 567e 3fbd 1d8a 9f3d 3035 f6bd 43a3 653e
00000250: 2d2a a8bd 77ae f93d 9832 3bbe b5db 3a3e
00000260: 8e30 f9bc 8b2b 09be 1130 043e 93e3 413e
00000270: c542 263e c65b ecbd ba0e 01be 8219 5fbb
00000280: 4260 773d 0b15 d9bd cbc9 c5bd 6c10 f03d
00000290: 96e5 923d 29fd 403d 4bc0 083e 4521 2d3a
000002a0: 9cb4 ed3c d179 44be 01f5 0ebc 7af9 1abe
000002b0: 10e3 343b fd16 abbd 9a69 5dbd 605d 0bbe
000002c0: 0a86 11be a5c3 773d 4d76 4c3e f634 e63d
000002d0: c08f 753d 6491 123d 04be 96bd d099 a33d
000002e0: 2421 123e a2d4 853d f845 a33d 1bd0 62bd
000002f0: 8f23 4fbe e2af 153e e56f 36be f866 27be
00000300: 6aa7 823d 7823 433e 5844 62bd eed8 453d
00000310: 758c 1ebe c481 fa3b 5f64 d63d 5188 5ebd
00000320: 4d42 c33b f33b 2c3e df05 43bd 86d0 8ebc
00000330: b3c1 7abd 1999 91bc bcff c03b 10fb b0bd
00000340: 14aa a6bc db4b 033b 8e49 22be 077b 643d
00000350: 778d 183e 7434 bfbc e264 82bd 321a d83d
00000360: 2df7 a2bc a7b4 fabc 7caf 36bd dd43 1bbe
00000370: e6e0 233e 3e0b c83c 0790 4ebe daee 443e
00000380: c8e7 943d 3110 5cbe c76e e43d e295 153e
00000390: 33a2 64bc efae 2e3e 2b4a 07be 0c00 f8bd
000003a0: e1f3 59bd 068b fe3d 4b27 78bd 69af 7d3d
000003b0: 2798 113d fcfb 363c b36b a53b 41e3 a0bd
000003c0: 7d32 173e bde3 6a3b 7471 0abe 1fab a4bc
000003d0: bbe1 ef3d 139f 993d 65af 2ebd 689e cfbd
000003e0: 56f7 523e d8a3 0ebe ee59 90bc e8c5 15be
000003f0: e7bf e5bd 83da cd3c 946d 09be 0ccc acbc
0.18015069 0.07812226 0.06554404 -0.058954693 0.14738101 0.13948257 0.022239767 -0.21440649
-0.084047146 0.019065369 0.00797024 0.17208311 -0.16922131 0.07348369 -0.0016021795 -0.13702862
0.08350459 -0.13630466 0.061433565 0.1904519 -0.07709335 -0.15833184 0.046642043 0.13945514
-0.04088394 0.15997617 0.062879756 -0.038759522 0.032387044 0.19112864 -0.06532733 0.17905225
0.16945332 0.13284662 0.09190401 0.04132337 0.15488134 -0.117099985 0.21605195 0.08127905
-0.058506124 0.16620864 -0.076210156 0.12888694 -0.14989871 -0.08731112 -0.008668509 0.05464628
-0.12843506 0.029910106 -0.17692119 -0.079141654 0.18791066 -0.01013489 -0.042176917 -0.06873554
0.033174038 0.16959156 0.07612041 0.044471137 0.05938656 -0.14120743 -0.07883176 0.09255809
0.12500821 0.025678312 -0.22308792 0.050225414 -0.1647748 0.075156055 0.12363969 -0.18847255
0.021650985 -0.18780115 0.11732251 -0.0031350895 -0.07418677 -0.00037287085 -0.037000682 0.08459883
0.14842981 -0.09242019 -0.12805636 0.10658628 -0.0075124064 -0.1421724 0.046044532 0.26632503
-0.08154837 -0.08842339 -0.06658384 0.14916506 0.2157273 -0.07998878 0.18337779 0.1082303
-0.037957463 0.09603978 0.013509196 0.059574522 -0.044660714 -0.09641606 0.11205273 -0.10829426
0.18779863 0.18881616 -0.07088252 -0.0006441856 -0.042808626 0.1370353 0.10666113 0.04524894
-0.062206045 -0.0788123 0.09525165 -0.1655818 0.13410133 0.08887382 0.03817661 -0.14100865
-0.09725381 0.11098995 0.07381215 -0.15410528 -0.11893483 -0.019668827 0.066573784 -0.089968696
-0.16256048 -0.09417678 0.08083732 -0.009782858 -0.16957928 -0.03015529 -0.09662173 0.13035358
-0.19175343 -0.12964348 0.1485583 0.1226666 -0.01227578 0.08220388 -0.01062281 0.021778757
-0.046751343 0.07790015 -0.120218635 0.2242556 -0.082111694 0.1219148 -0.18281019 0.18247874
-0.03041866 -0.13395517 0.12908961 0.18934469 0.16236408 -0.11540942 -0.12603274 -0.0034042303
0.060394533 -0.10599717 -0.096576296 0.11721882 0.07172696 0.047116432 0.13354604 0.0006604384
0.029016785 -0.19187094 -0.008725406 -0.1513423 0.002760116 -0.08353994 -0.054055788 -0.13609838
-0.14211288 0.060489316 0.19967003 0.1124057 0.059951544 0.035783187 -0.07360461 0.07988322
0.14270455 0.06534697 0.0797233 -0.055374246 -0.20228408 0.14617875 -0.17816122 -0.16347873
0.06379588 0.19056499 -0.05524096 0.048302583 -0.15483268 0.007644864 0.10468363 -0.05432922
0.0059588314 0.16819744 -0.04761302 -0.017433416 -0.061219882 -0.017773198 0.005889861 -0.08641636
-0.020344771 0.0020034227 -0.15848371 0.05578139 0.14897715 -0.023340441 -0.06366898 0.10551871
-0.019893253 -0.03060372 -0.04460095 -0.15162607 0.1600376 0.024419423 -0.2017213 0.1923174
0.07270771 -0.21490552 0.111539416 0.14607957 -0.013954687 0.1705892 -0.13211887 -0.12109384
-0.053211097 0.1242886 -0.060584348 0.061934862 0.035545494 0.011168476 0.005048239 -0.07855845
0.14765354 0.003584131 -0.13519841 -0.020101128 0.117129765 0.07501044 -0.042647738 -0.101376355
0.20602164 -0.13929689 -0.017621007 -0.14626276 -0.11218243 0.025128609 -0.13420707 -0.02109339

decoder.initial.block.0.bias f4 [32]
00000000: fcd7 ca3d 3e8d 04be 9de6 413e 39bf acbd
00000010: ef10 45be 9d4a c2bc 474e 5b3e 3079 97be
00000020: cf16 c0bc 9654 823e 7a7d 363e a887 abbc
00000030: a2c4 a83d 3e2b 353e 4ed4 a6bc cafb 583e
00000040: c424 9f3d 16b2 323e ea6c 1e3e 0cb2 633e
00000050: dc66 2f3e 5a44 0bbe 70ac 703e 6e0a fcbd
00000060: 69ad eebc a433 2f3d 721d 44bd d477 143e
00000070: a86d 29be 1a50 62be bdb4 963d 1eba 643e
0.09904477 -0.12944505 0.18935628 -0.0843491 -0.19244741 -0.023717219 0.21416579 -0.29584646
-0.023448376 0.2545516 0.17821303 -0.02093871 0.0824063 0.17692277 -0.020364907 0.211898
0.07770684 0.17450747 0.15471235 0.22235888 0.17129081 -0.13600293 0.2350328 -0.12306677
-0.029135423 0.042773858 -0.047879644 0.14498836 -0.16545737 -0.22100869 0.07358692 0.22336623

decoder.initial.block.2.weight f4 [32]
00000000: d08a 713f 12e9 6a3f c8ad 823f de87 6b3f
00000010: 8169 663f 4d59 753f b200 843f 0c39 803f
00000020: 7634 683f 3596 7b3f ee30 823f ce53 753f
00000030: a5e0 853f dc5a 843f c7f1 6c3f 5741 7d3f
00000040: ba05 693f e0d7 7d3f 1e7e 7e3f 6704 773f
00000050: 61a1 883f 8fcc 703f 334a 553f fdf9 7b3f
00000060: 2e40 7a3f 6f15 753f d719 793f f046 883f
00000070: 591a 753f abdc 733f 23c4 773f dc90 803f
0.94352436 0.9176189 1.0209284 0.9200419 0.90004736 0.9583939 1.0312712 1.0017409
0.9070505 0.9827607 1.0171182 0.95831 1.0459181 1.0340228 0.9255642 0.98927826
0.91024363 0.99157524 0.9941119 0.9649109 1.0674249 0.9406213 0.83316344 0.98428327
0.9775418 0.9573583 0.97305053 1.0646648 0.9574333 0.9525859 0.96783656 1.0044208

decoder.initial.block.2.bias f4 [32]
00000000: f434 84bd 88f5 13bd f332 bbbc d3da 2dbe
00000010: 3a82 69be 53f4 92bd d6aa 9fbd 24de 7ebe
00000020: d3a7 1bbd 084a 9dbe a681 f4bd da00 5a3e
00000030: 9864 27be 44f4 ecbd a4a0 8ebd 5b66 c23d
00000040: f6d6 17bd 9dbe 3a3d c278 c2bc c2e7 debd
00000050: e564 5f3e cbc7 2bbe d5ab 0cbd 3ae8 5fbe
00000060: f358 043d 0500 04be 75b4 593e c70d 8abd
00000070: 495b a03c 3e2b 5fbe 8d97 c03d 0d30 27be
-0.064554125 -0.03612283 -0.022851443 -0.16978006 -0.22803584 -0.071755074 -0.07796256 -0.24889427
-0.038001847 -0.30720544 -0.11938791 0.21289387 -0.16346967 -0.115700275 -0.069642335 0.09492179
-0.037070237 0.04559194 -0.023739222 -0.10884048 0.21815832 -0.16775434 -0.03434356 -0.21865931
0.03231139 -0.12890632 0.21260245 -0.06740909 0.019574778 -0.2179384 0.09403906 -0.16326924

decoder.initial.block.2.running_mean f4 [32]
00000000: f03b b33e 923e 9a3e d08f 523e e5bf 533e
00000010: 8b85 85bb 6c0c 123e cac5 6f3e 0c0b 52bb
00000020: d24e 0d3c dc44 a43e 1707 493e 3cfb 213f
00000030: 128b ae3d d699 283e 4486 6f3c 9193 7d3e
00000040: 3d4c 9c3e a3c8 4a3e 17d8 323e c02f 4d3e
00000050: 3884 1c3e fb13 a1bb 690d a53d 9138 8a3e
00000060: 113d af3e 8f87 e43e e7e1 9c3e d6a4 0b3e
00000070: a49d 1c3f 8e55 3ebb 5891 843e 9b59 883e
0.35006666 0.30125862 0.20562673 0.2067867 -0.0040747575 0.14262551 0.23415294 -0.0032050041
0.008624749 0.32083786 0.19631611 0.6327398 0.08522619 0.16464934 0.014619414 0.24763323
0.30526915 0.198031 0.17465244 0.20037746 0.15284812 -0.004915712 0.080591984 0.26996282
0.34226277 0.44634673 0.306411 0.13637099 0.6117804 -0.0029042694 0.25892138 0.26630864

decoder.initial.block.2.running_var f4 [32]
00000000: 04a8 ab3c 07c9 203d a468 163a 1889 c93c
00000010: c4b9 fd35 cb77 063c 323b 883a c3c2 1434
00000020: de53 863a ef86 903b 5f36 3c3a bdd8 d43d
00000030: c801 4239 a683 f939 84ef f93a 05ef e53a
00000040: 103e 4f3c 56cf 9a3a 5ac4 2e3a 0bec 7c3a
00000050: 70c1 1e3a 8df1 6836 d021 c53b 5fdd 0e3d
00000060: b684 1c3d f67e 453d 80e3 0d3d e5c8 9439
00000070: 2faf 173e 2870 c934 1761 403c cd49 ea3a
0.02095414 0.039254215 0.00057376386 0.024601504 1.8904034e-06 0.008207272 0.0010393618 1.3854428e-07
0.0010248383 0.0044106166 0.0007179733 0.10392902 0.00018501945 0.00047591067 0.0019068574 0.0017542547
0.012649074 0.0011811059 0.0006666832 0.000964821 0.0006056046 3.4711295e-06 0.0060159937 0.034879085
0.0382125 0.048216783 0.03464079 0.00028378438 0.14812921 3.7520772e-07 0.011741898 0.0017874778
