models/leaky/LeakyBasicSteganoGAN/5/epoch_4.pth (torch, 326228 bytes, 59 tensors)

encoder.initial.block.0.weight f4 [32, 3, 3, 3]
0.073672004 -0.027550137 0.1022405 -0.06639111 0.12198853 -0.15430357 0.043580323 -0.022754231
-0.04324752 -0.12307492 0.028195154 -0.15410069 0.00073640695 -0.02742836 0.11657154 -0.06507095
-0.11326685 -0.11250029 -0.0992351 0.12563148 -0.052173585 0.07826658 0.004960964 0.1353539
-0.08561375 0.019413322 -0.013462228 -0.01693956 0.051636506 0.09994392 0.10013665 0.17871383
0.1888442 -0.065529935 -0.1003881 0.18182808 0.021245632 -0.16433814 -0.038417812 0.053971585
-0.014228308 -0.062975526 -0.029667893 0.116994575 0.0026812705 -0.08315701 0.03328415 -0.10762962
0.112116225 0.19734143 0.061830737 -0.05425034 0.059840865 -0.09290928 -0.1495171 0.1540504
0.15565878 0.139439 -0.04547192 -0.0037809177 0.11814083 -0.1758536 0.09595312 -0.17180896
-0.105803676 0.04970027 -0.022926062 -0.1658517 -0.0039792927 0.11690948 -0.14046362 -0.13252886
0.018949302 -0.09152523 0.15481326 -0.17219135 -0.054765962 -0.08453644 0.030092934 -0.11200742
-0.059657216 -0.19848335 -0.05205776 -0.014395654 0.14303088 0.14606985 0.087765664 0.14141057
-0.094738714 -0.1098995 0.0784194 -0.09287307 -0.028166061 -0.06882133 0.111297265 -0.11079149
-0.19528855 0.024375476 -0.15770522 0.14817022 -0.1970316 -0.052582037 -0.046174496 -0.170728
-0.1772217 0.025263494 -0.16526024 0.04085924 -0.0025567259 -0.01148515 0.036561348 -0.031974036
0.072440766 0.17581324 0.15153213 -0.097153485 0.1657289 0.07173284 0.12465808 0.093836546
-0.0676159 -0.11377133 0.20614995 0.08518321 0.040884677 0.002043778 -0.07351306 0.1341287
-0.10208406 0.10555642 -0.010307743 0.17068538 -0.04796341 0.0011572123 0.18061665 -0.116914004
-0.18753807 -0.17654344 0.11819799 -0.15662098 -0.045748543 -0.07596948 -0.10515315 -0.0022127028
-0.15520898 0.14828879 0.015660701 -0.08531525 0.17874584 0.15316316 0.091771595 -0.18976103
-0.1876079 0.06541535 0.14245467 0.06106071 -0.12688442 -0.08692249 0.08547419 -0.1180798
-0.1446077 0.027063854 -0.1657624 -0.013563699 0.07266098 0.026394496 -0.13817112 -0.09447883
-0.0956992 0.13635845 -0.07963678 -0.114441045 -0.1493199 -0.17539734 -0.15303211 0.13024905
-0.0790793 0.081842005 -0.10509259 -0.04906947 0.17615116 0.02186671 0.010040602 -0.05593083
0.070750594 -0.110327475 0.12607376 0.17666583 0.16315125 -0.16699244 -0.13155666 -0.02850945
-0.08810627 -0.063735634 -0.11649812 -0.041920662 0.14072815 0.039754163 0.09270341 0.0881721
0.018583456 0.10612677 -0.10785344 -0.18517645 -0.09414623 -0.19773024 0.018066602 -0.09959315
0.06992875 -0.09840498 0.17646267 -0.038604163 0.06684651 -0.20074233 -0.19236438 -0.10281829
0.1239706 -0.010253956 -0.17728247 -0.16261752 -0.12872992 -0.17577696 -0.15321413 0.13045032
0.12590796 -0.103154145 -0.15653676 -0.17156002 0.065324 0.08534613 0.07977763 0.008299226
-0.1505581 -0.11635233 -0.16098173 0.15593255 0.024086967 0.13038556 0.008823807 -0.09108861
-0.17612983 -0.18538602 -0.13709687 0.023056144 -0.028501825 -0.042021263 -0.07113197 0.16425636
-0.075656846 -0.07738014 -0.04665455 -0.058717642 -0.19742283 0.1326781 0.1641998 -0.082208104
00000000: 59e1 963d d3b0 e1bc 7863 d13d 10f8 87bd
00000010: 1fd5 f93d c101 1ebe 4881 323d 1567 babc
00000020: 5024 31bd b40e fcbd 86f9 e63c 92cc 1dbe
00000030: 6f0b 413a 71b1 e0bc 0fbd ee3d eb43 85bd
00000040: 73f8 e7bd 8d66 e6bd c63b cbbd 8aa5 003e
00000050: f8b3 55bd 3b4a a03d 958f a23b 369a 0a3e
00000060: 4356 afbd b008 9f3c ad90 5cbc d5c4 8abc
00000070: cd80 533d 66af cc3d 7214 cd3d c200 373e
00000080: 6060 413e 8f34 86bd 4798 cdbd 2431 3a3e
00000090: 520b ae3c 4248 28be ff5b 1dbd 4f11 5d3d
000000a0: d91d 69bc 50f9 80bd 150a f3bc da9a ef3d
000000b0: 41b8 2f3b 394e aabd f654 083d eb6c dcbd
000000c0: 319d e53d df13 4a3e 3a42 7d3d 9b35 5ebd
000000d0: b21b 753d 3847 bebd 031b 19be 63bf 1d3e
000000e0: 0465 1f3e 19c9 0e3e c440 3abd 46c9 77bb
000000f0: d2f3 f13d f712 34be 1283 c43d b0ee 2fbe
00000100: 99af d8bd 8392 4b3d 70cf bbbc 07d5 29be
00000110: ba64 82bb 3d6e ef3d b2d5 0fbe a5b5 07be
00000120: 913b 9b3c 9471 bbbd 5e87 1e3e ee52 30be
00000130: 4652 60bd 7121 adbd 7585 f63c 2564 e5bd
00000140: 205b 74bd 383f 4bbe 853a 55bd c0db 6bbc
00000150: b076 123e 5693 153e 7cbe b33d efcd 103e
00000160: 5f06 c2bd fd12 e1bd 5a9a a03d 3c34 bebd
00000170: 83bc e6bc 33f2 8cbd d2ef e33d a6e6 e2bd
00000180: b9f9 47be 14af c73c 7a7d 21be efb9 173e
00000190: a7c2 49be 4360 57bd 7821 3dbd 52d3 2ebe
000001a0: 9b79 35be 63f5 ce3c fb39 29be 055c 273d
000001b0: be8e 27bb 362c 3cbc 5ac1 153d 35f7 02bd
000001c0: d35b 943d 6308 343e 3d2b 1b3e 68f8 c6bd
000001d0: d6b4 293e abe8 923d bc4c ff3d 602d c03d
000001e0: 347a 8abd f100 e9bd f918 533e 8974 ae3d
000001f0: b176 273d e8f0 053b 048e 96bd 0959 093e
00000200: 7311 d1bd f72d d83d cfe1 28bc 26c8 2e3e
00000210: 4875 44bd 9aad 973a 92f3 383e 9c70 efbd
00000220: fb09 40be cec7 34be ca11 f23d 4061 20be
00000230: d362 3bbd e395 9bbd 895a d7bd fe02 11bb
00000240: 1aef 1ebe 04d9 173e df4a 803c c3b9 aebd
00000250: 2609 373e ced6 1c3e bff2 bb3d b750 42be
00000260: 491c 40be 7cf8 853d a3df 113e cc1a 7a3d
00000270: fded 01be 6b04 b2bd 180d af3d d2d3 f1bd
00000280: 0a14 14be 04b5 dd3c 9ebd 29be 473a 5ebc
00000290: 48cf 943d 4539 d83c bb7c 0dbe 1e7e c1bd
000002a0: f1fd c3bd 8da1 0b3e 9c18 a3bd 1160 eabd
000002b0: 51e7 18be 5c9b 33be 73b4 1cbe 0260 053e
000002c0: 54f4 a1bd c89c a73d c93a d7bd 12fd 48bd
000002d0: f860 343e d121 b33c 5681 243c ba17 65bd
000002e0: b0e5 903d 5ff3 e1bd 7b19 013e e3e7 343e
000002f0: 1f11 273e 1100 2bbe cab6 06be a68c e9bc
00000300: 0f71 b4bd d487 82bd 9196 eebd 00b5 2bbd
00000310: 0a1b 103e 43d5 223d 49db bd3d 9393 b43d
00000320: 553c 983c fe58 d93d 44e2 dcbd e59e 3dbe
00000330: bdcf c0bd cc79 4abe 6900 943c 7ef7 cbbd
00000340: ce36 8f3d 8d88 c9bd a1b2 343e 661f 1ebd
00000350: d3e6 883d 668f 4dbe 2bfb 44be 6592 d2bd
00000360: 4ce4 fd3d 3500 28bc 8989 35be 3585 26be
00000370: c7d1 03be e0fe 33be 2ae4 1cbe c594 053e
00000380: 04ee 003e 7b42 d3bd 2c4b 20be 6ead 2fbe
00000390: 97c8 853d f4c9 ae3d 7462 a33d 7af9 073c
000003a0: e72b 1abe 214a eebd 65d8 24be c8ac 1f3e
000003b0: 0852 c53c cb83 053e bb91 103c aa8c babd
000003c0: 615b 34be d5d5 3dbe 1f63 0cbe 3de0 bc3c
000003d0: a97c e9bc 7d1e 2cbd a3ad 91bd d232 283e
000003e0: faf1 9abd 7b79 9ebd d718 3fbd e981 70bd
000003f0: 3629 4abe c5dc 073e fe23 283e b95c a8bd

encoder.initial.block.0.bias f4 [32]
-0.032894284 -0.11314328 0.1647058 0.087418415 -0.17963918 -0.031356107 0.18035777 0.05644786
-0.09621065 0.03577398 0.061811324 0.028258761 -0.0019858424 -0.121437766 -0.17677717 -0.09840875
0.08725582 -0.0028713092 -0.17820255 0.14522894 0.014030567 -0.06292913 0.15439236 0.12762302
-0.0722543 -0.06547767 0.07531698 0.18647468 -0.068345405 0.18250577 -0.098072104 0.038462926
00000000: 28bc 06bd aab7 e7bd a3a8 283e 6d08 b33d
00000010: 55f3 37be 436f 00bd b5af 383e df35 673d
00000020: 170a c5bd bd87 123d df2d 7d3d eb7e e73c
00000030: e824 02bb 5db4 f8bd 1305 35be 878a c9bd
00000040: 2eb3 b23d 932c 3cbb bb7a 36be e5b6 143e
00000050: 77e0 653c fde0 80bd 0819 1e3e 9caf 023e
00000060: 10fa 93bd 2819 86bd ca3f 9a3d 38f3 3e3e
00000070: adf8 8bbd cbe2 3a3e 07da c8bd 4d8b 1d3d

encoder.initial.block.1.weight f4 [32]
0.98681694 0.9937822 0.9961875 0.9845886 1.0164583 1.0023085 0.9760635 1.0193186
1.0136247 1.0072497 1.0019081 0.9975906 1.0282122 0.9774192 1.0052629 1.0240834
0.99534386 0.9628709 0.99618936 1.0243683 0.9777491 1.0201855 1.0172216 1.0063958
0.9884209 0.9838927 0.989479 1.0141538 0.98874456 0.998356 1.0123827 0.97600245
00000000: 09a0 7c3f 8368 7e3f 2506 7f3f 000e 7c3f
00000010: 4e1b 823f a54b 803f 4cdf 793f 0879 823f
00000020: 74be 813f 8fed 803f 863e 803f 1962 7f3f
00000030: 759c 833f 2538 7a3f 74ac 803f 2a15 833f
00000040: dbce 7e3f b57e 763f 4406 7f3f 801e 833f
00000050: c44d 7a3f 7095 823f 5134 823f 94d1 803f
00000060: 2709 7d3f 64e0 7b3f 7f4e 7d3f cbcf 813f
00000070: 5d1e 7d3f 4294 7f3f c295 813f 4cdb 793f

encoder.initial.block.1.bias f4 [32]
0.010832591 -0.0020302644 0.007377427 -0.012440694 -0.0050962414 0.0013331188 0.00060641597 0.037922576
0.009382 0.031403765 0.012288881 0.002404991 -0.012847903 0.0074052196 -0.011442557 0.0031171127
0.0060023325 -0.030080128 -0.00927385 -0.020465843 0.0042233127 -0.027221486 -0.014819827 0.015733063
0.008362748 0.0060668853 0.008819212 -0.030062495 -0.0028142296 -0.012526905 0.032659676 0.0014620826
00000000: 2e7b 313c 2f0e 05bb 58be f13b 0dd4 4bbc
00000010: 5ffe a6bb 0bbc ae3a e3f7 1e3a b454 1b3d
00000020: f6b6 193c 3ca1 003d 4d57 493c 0e9d 1d3b
00000030: 0380 52bc 7ca7 f23b 9079 3bbc 7948 4c3b
00000040: 37af c43b 9a6a f6bc 59f1 17bc fca7 a7bc
00000050: b763 8a3b 98ff debc dcce 72bc a0e2 803c
00000060: e803 093c b9cc c63b 757e 103c 9f45 f6bc
00000070: f06e 38bb a63d 4dbc 27c6 053d 5aa3 bf3a

encoder.initial.block.1.running_mean f4 [32]
-0.16635713 0.16745438 -0.09859419 -0.31251025 0.35664633 -0.41775218 -0.010183989 -0.42577457
-0.653792 -0.32757226 0.49070916 -0.4088229 0.33779997 -0.036177818 0.22529775 0.2802057
-0.22708343 0.00089675054 -0.15217389 0.42457113 0.10887784 0.6588293 0.8976149 -0.4336181
-0.35529152 -0.2143439 -0.22940335 0.5831088 0.012545664 -0.31464434 -0.43930334 -0.24407297
00000000: 8659 2abe 2979 2b3e c0eb c9bd 5801 a0be
00000010: 599a b63e 9de3 d5be bfda 26bc 20ff d9be
00000020: ea5e 27bf 8db7 a7be 3b3e fb3e 3c51 d1be
00000030: 1ef4 ac3e 312f 14bd 74b4 663e 1f77 8f3e
00000040: 8f88 68be e913 6b3a 79d3 1bbe 6361 d93e
00000050: 58fb de3d 09a9 283f 17ca 653f 3103 debe
00000060: c5e8 b5be f87c 5bbe b6e8 6abe 9e46 153f
00000070: 548c 4d3c 1019 a1be 5eec e0be 44ee 79be

encoder.initial.block.1.running_var f4 [32]
0.00486399 0.019958412 0.027203143 0.04767981 0.06887838 0.03529 0.012631706 0.05590629
0.07398058 0.03333815 0.043110754 0.05107022 0.03692973 0.008170323 0.03732769 0.033210844
0.024413921 0.0031301107 0.004433544 0.035039745 0.006561857 0.12351225 0.13317735 0.07721585
0.021718474 0.012821497 0.025510728 0.044675622 0.004121316 0.05937349 0.028224848 0.019225469
00000000: 1b62 9f3b d37f a33c 20d9 de3c e84b 433d
00000010: 1c10 8d3d 3f8c 103d 37f5 4e3c fefd 643d
00000020: 2183 973d 958d 083d e794 303d 022f 513d
00000030: a143 173d d2dc 053c ebe4 183d 1808 083d
00000040: b4ff c73c 8b22 4d3b 4347 913b d685 0f3d
00000050: d904 d73b fef3 fc3d a55f 083e 5823 9e3d
00000060: f1ea b13c 4211 523c e0fb d03c c9fd 363d
00000070: 1b0c 873b 9e31 733d cc37 e73c bb7e 9d3c

encoder.block1.block.0.weight f4 [32, 37, 3, 3]
0.04879589 0.03714323 0.0029611187 0.053524137 -0.02486138 0.046255857 0.005478591 0.037217163
0.028262055 -0.019378342 -0.01468124 -0.031027049 0.015892744 -0.044304036 0.0075259684 0.035312627
-0.040532574 -0.029550204 -0.011469335 -0.04442848 -0.011671446 -0.017505689 -0.0070319083 -0.021521987
0.0025837377 -0.04572218 -0.040623862 -0.04477521 -0.026060445 -0.059152085 0.005596682 -0.040383983
-0.013959562 -0.042036988 -0.025183903 0.025995353 -0.00347529 0.04483959 0.050566364 0.014115455
0.035708003 -0.032665238 -0.026224224 -0.04661709 -0.03985382 0.03837524 0.015927212 0.03061972
0.00996847 -0.02302464 -0.009750594 0.018105082 -0.0642578 -0.008781314 0.028159197 -0.011179375
0.024508273 0.034847185 0.0046509607 0.016113343 -0.05589455 0.03383245 0.02535473 0.017644513
-0.08239886 -0.013429186 -0.08583286 -0.019636804 -0.04497872 -0.074287236 -0.013757191 0.033151515
0.0056504915 -0.05920896 -0.0025505112 -0.08202219 -0.039015196 0.003234648 -0.011351671 -0.034443054
-0.011873315 -0.03724522 -0.055833314 -0.0056196596 -0.0782263 -0.0079902 -0.02891983 0.041107893
-0.04292831 -0.054878194 -0.046438262 0.012066591 -0.034938477 0.0008244839 -0.024918184 -0.036507107
-0.019692296 0.0041807257 -0.015815098 -0.022285014 0.0079203835 -0.054522857 -0.008480918 -0.020941282
0.015927231 -0.04786792 0.020477144 0.02426033 -0.042353913 0.042031046 -0.0131388055 -0.027666688
0.04651808 0.009870165 0.048811607 0.023445906 0.027659917 0.009236892 -0.017396713 0.0111216195
0.044274837 0.029437287 -0.0416546 0.005826622 0.027341893 -0.028294003 0.02347088 -0.015796054
0.022467095 -0.010333709 0.023679372 0.027318358 -0.048531234 -0.020969246 0.00527488 -0.020238416
0.006206737 0.031619273 -0.015846396 0.02085097 -0.035291575 -0.03427448 -0.0505056 -0.012342064
-0.012281666 0.036196236 -0.042828333 -0.0022338368 -0.009670603 -0.04703039 -0.0078930035 0.04549703
0.0053039254 -0.0070979535 -0.034391563 -0.0047573005 0.017780775 0.025645524 0.021497866 -0.00031862347
0.0056841196 0.04446175 -0.012209499 -0.013999554 -0.027446656 0.035154417 -0.021925244 0.037032586
0.037811156 0.024565864 0.016614879 -0.019587105 0.03643809 -0.034135327 -0.018318042 -0.0020737664
0.035591934 -0.025491746 -0.027995689 -0.02308966 -0.029200068 0.03964395 0.055096198 -0.014638578
-0.031148367 0.0057817237 -0.00803228 -0.0019659637 0.039251193 -0.03353859 -0.002090156 -0.03100492
0.004907472 -0.035829104 0.005265236 0.009067233 -0.05280907 -0.011961014 -0.0035713776 0.0076755993
0.052054364 0.04554839 0.042737644 -0.0014619834 0.05045266 0.010975917 -0.02284725 0.003700653
-0.052301217 -0.07237065 0.020524211 -0.07751225 -0.070442185 -0.09337326 -0.06231531 -0.009857889
-0.056809004 0.035988506 -0.0055540465 0.027129717 -0.026627801 -0.00849343 -0.021600965 -0.047868617
-0.024276676 0.048853833 -0.05301616 0.041377883 0.02969871 0.009351551 0.010880751 -0.011536534
0.004551504 0.02713176 -0.057103124 -0.0633475 -0.042381473 -0.061776157 -0.022490965 0.018866472
-0.04633551 -0.03202457 -0.059180353 0.020808272 -0.0062761405 -0.006980532 -0.013260688 -0.043080956
-0.00847307 -0.04991478 -0.002730742 -0.037671782 0.0582843 -0.022305986 -0.051118627 0.009387427
00000000: 33de 473d 8023 183d 540f 423b 203c 5b3d
00000010: 18aa cbbc c876 3d3d c185 b33b 0671 183d
00000020: d385 e73c 54bf 9ebc 9589 70bc 702c febc
00000030: 8031 823c 2678 35bd 669c f63b f9a3 103d
00000040: 7c05 26bd 4513 f2bc e1e9 3bbc a3fa 35bd
00000050: 9839 3fbc 1768 8fbc ec6b e6bb e14e b0bc
00000060: ed53 293b 2e47 3bbd 3565 26bd 3666 37bd
00000070: b77c d5bc 7549 72bd 5f64 b73b ad69 25bd
00000080: a6b6 64bc fa2e 2cbd 794e cebc 35f4 d43c
00000090: b1c1 63bb b8a9 373d ad1e 4f3d 8244 673c
000000a0: 8e42 123d fccb 05bd 2fd4 d6bc 90f1 3ebd
000000b0: c23d 23bd 5b2f 1d3d c979 823c 35d6 fa3c
000000c0: cb52 233c 2b9e bcbc f5c0 1fbc 1c51 943c
000000d0: 9899 83bd 80df 0fbc 1eae e63c b329 37bc
000000e0: 93c5 c83c ecbb 0e3d 1667 983b 2100 843c
000000f0: aff1 64bd e593 0a3d b9b4 cf3c 3a8b 903c
00000100: bcc0 a8bd 1706 5cbc 23c9 afbd 5ddd a0bc
00000110: 9b3b 38bd e823 98bd d765 61bc e2c9 073d
00000120: c227 b93b 1885 72bd 7a26 27bb 40fb a7bd
00000130: 66ce 1fbd 63fc 533b 5cfc 39bc 2914 0dbd
00000140: 4b88 42bc 728e 18bd 79b1 64bd 1f25 b8bb
00000150: 1c35 a0bd 54e9 02bc 48e9 ecbc c060 283d
00000160: 98d5 2fbd f5c7 60bd 0c36 3ebd f3b2 453c
00000170: a61b 0fbd 2e22 583a 3821 ccbc 7a88 15bd
00000180: bd51 a1bc 78fe 883b aa8e 81bc 108f b6bc
00000190: 7fc4 013c 5c53 5fbd 8cf3 0abc 0d8d abbc
000001a0: d379 823c 2711 44bd afbf a73c 99bd c63c
000001b0: 4c7b 2dbd bf28 2c3d 2544 57bc 40a5 e2bc
000001c0: be89 3e3d 79b6 213c aeee 473d a111 c03c
000001d0: 0d97 e23c 5556 173c 8d83 8ebc 7437 363c
000001e0: 8859 353d 7726 f13c 049e 2abd 3fed be3b
000001f0: 1bfc df3c d3c8 e7bc 0146 c03c ba66 81bc
00000200: ea0c b83c b84e 29bc 3efb c13c c0ca df3c
00000210: b0c8 46bd b2c7 abbc e7d8 ac3b 09cb a5bc
00000220: e261 cb3b 3683 013d 4dd0 81bc a7cf aa3c
00000230: e68d 10bd 6663 0cbd f6de 4ebd 5e36 4abc
00000240: 0a39 49bc 8142 143d c36c 2fbd 9065 12bb
00000250: 7371 1ebc f0a2 40bd a851 01bc 185b 3a3d
00000260: 8dcc ad3b f395 e8bb 2bde 0cbd 21e3 9bbb
00000270: fda8 913c 9016 d23c 4b1c b03c eb0c a7b9
00000280: da41 ba3b 861d 363d 5a0a 48bc 635e 65bc
00000290: cfd7 e0bc 14fe 0f3d 929c b3bc 7baf 173d
000002a0: dfdf 1a3d 5a3e c93c ed1b 883c 2375 a0bc
000002b0: 1b40 153d 7cd1 0bbd b80f 96bc 07e8 07bb
000002c0: d9c8 113d 11d4 d0bc 3757 e5bc 8726 bdbc
000002d0: fb34 efbc b261 223d 8dac 613d a5d6 6fbc
000002e0: dc2a ffbc 9d74 bd3b d399 03bc 66d7 00bb
000002f0: dcc5 203d c35f 09bd 00fb 08bb 08fe fdbc
00000300: dcce a03b 8ac1 12bd 0088 ac3b bb8e 143c
00000310: 534e 58bd 21f8 43bc c60d 6abb 9883 fb3b
00000320: f536 553d f390 3a3d ab0d 2f3d 06a0 bfba
00000330: 73a7 4e3d 55d4 333c 282a bbbc a886 723b
00000340: cd39 56bd 1037 94bd 6422 a83c bebe 9ebd
00000350: fe43 90bd 7b3a bfbd 573e 7fbd fc82 21bc
00000360: 8fb0 68bd af68 133d b8fe b5bb 243f de3c
00000370: 8c22 dabc 0728 0bbc 82f4 b0bc e211 44bd
00000380: e1df c6bc f51a 483d 7927 59bd db7b 293d
00000390: b64a f33c 3f37 193c 2d45 323c bb03 3dbc
000003a0: c824 953b 6d43 de3c f7e4 69bd 56bc 81bd
000003b0: 3298 2dbd ff08 7dbd f93e b8bc dc8d 9a3c
000003c0: 4eca 3dbd 322c 03bd 1967 72bd 1c76 aa3c
000003d0: 15a8 cdbb f2bc e4bb 5b43 59bc a875 30bd
000003e0: a2d2 0abc 7173 4cbd 40f6 32bb ba4d 1abd
000003f0: 85bb 6e3d 0bbb b6bc c461 51bd b9cd 193c

encoder.block1.block.0.bias f4 [32]
0.026053742 0.046793997 -0.020631962 -0.042925783 0.001002024 -0.012257168 -0.024441881 0.016084014
-0.018295411 -0.048002895 0.00016313579 0.044961482 0.00699225 -0.012133623 0.01856427 -0.011782583
-0.052637875 0.04485242 0.043800004 0.04801123 -0.021150712 0.015001718 0.0033849033 -0.03443112
-0.010985958 -0.026135515 -0.029600248 -0.043729544 0.012670652 -0.03330086 0.0015524124 0.01449265
00000000: a86e d53c 10ab 3f3d 5c04 a9bc f2d2 2fbd
00000010: 5956 833a 4ad2 48bc 573a c8bc 9fc2 833c
00000020: 42e0 95bc af9e 44bd 6e0f 2b39 8829 383d
00000030: 3f1f e53b 1acc 46bc 1914 983c bc0b 41bc
00000040: d09a 57bd 2cb7 373d a267 333d 6ca7 443d
00000050: 4244 adbc c4c9 753c 41d5 5d3b a507 0dbd
00000060: 73fe 33bc 261a d6bc 387c f2bc c01d 33bd
00000070: 9198 4f3c 7c66 08bd 517a cb3a 9472 6d3c

encoder.block1.block.1.weight f4 [32]
1.0070843 0.9786967 0.985075 0.99990314 0.9724432 0.98045886 1.0164071 0.99137676
0.9621037 0.9793383 0.99593586 1.0138298 1.0143832 1.007047 1.0081943 0.98851305
0.9996399 0.9866345 0.98900783 0.9958419 0.9986123 1.007765 0.99102414 1.0019101
1.0002799 0.98732173 0.9956347 0.9867225 0.9939055 0.99360424 0.9949225 1.0051564
00000000: 23e8 803f de8b 7a3f e02d 7c3f a7f9 7f3f
00000010: 0af2 783f 5aff 7a3f a119 823f deca 7d3f
00000020: 6e4c 763f eab5 7a3f a7f5 7e3f 2dc5 813f
00000030: 4fd7 813f ebe6 803f 830c 813f 310f 7d3f
00000040: 67e8 7f3f 1494 7c3f 9e2f 7d3f 7fef 7e3f
00000050: 0ea5 7f3f 72fe 803f c2b3 7d3f 973e 803f
00000060: 2c09 803f 1ec1 7c3f eae1 7e3f d999 7c3f
00000070: 9770 7e3f d95c 7e3f 3eb3 7e3f f7a8 803f

encoder.block1.block.1.bias f4 [32]
0.017675366 0.016718782 0.011534174 -0.004200576 -0.0027619181 0.018393299 0.018041745 0.015392576
-0.001085974 -0.010056626 -0.006412899 -0.022040894 0.005457887 0.015584212 -0.0020715545 0.010855314
0.012750245 -0.018242877 -0.002661807 0.0024927128 0.015478265 0.0036819614 0.0036315536 -0.0069520976
-0.0013587803 0.018778004 -0.029223904 -0.00070378446 0.016295312 0.0066523445 0.00072361174 0.027369773
00000000: eecb 903c d4f5 883c d5f9 3c3c fca4 89bb
00000010: 4c01 35bb 8bad 963c 48cc 933c 2531 7c3c
00000020: 3e57 8eba 8cc4 24bc 4c23 d2bb 1b8f b4bc
00000030: 13d8 b23b ec54 7f3c ebc2 07bb 7dda 313c
00000040: 67e6 503c 1672 95bc b671 2ebb c85c 233b
00000050: 8c98 7d3c 104d 713b 5cff 6d3b 6cce e3bb
00000060: 1a19 b2ba 54d4 993c f866 efbc 2d7e 38ba
00000070: bf7d 853c e9fb d93b c3b0 3d3a 9336 e03c

encoder.block1.block.1.running_mean f4 [32]
-0.9608036 1.2114377 -0.7335088 -0.67204225 0.16609848 -0.2811808 -0.6791169 0.23685585
-0.6766542 0.07808266 -0.2393422 0.15285167 1.1602789 -0.7948476 -0.5517982 -0.09537298
0.8023531 0.9539111 0.3721317 -1.028021 -0.28851753 0.11187341 -0.99936646 0.13749051
0.051319435 -0.4947274 0.2793878 -0.17484722 -0.5495638 0.3614934 -0.019564647 -0.54028505
00000000: 3af7 75bf 6410 9b3f 3cc7 3bbf f60a 2cbf
00000010: b815 2a3e eef6 8fbe 9bda 2dbf 578a 723e
00000020: 3639 2dbf cde9 9f3d 1f16 75be 2685 1c3e
00000030: 0584 943f 227b 4bbf a642 0dbf e952 c3bd
00000040: 0367 4d3f 8533 743f 0c88 be3e 3196 83bf
00000050: 92b8 93be e31d e53d 7bd6 7fbf 50ca 0c3e
00000060: 5434 523d e94c fdbe eb0b 8f3e 260b 33be
00000070: 37b0 0cbf aa15 b93e 0a46 a0bc 1f50 0abf

encoder.block1.block.1.running_var f4 [32]
1.0911165 1.1935349 0.5487919 0.8236994 0.48474354 0.55238146 0.79431754 0.5404449
0.6330395 0.24500819 1.1097746 0.31885242 1.5265857 0.7210764 0.6601448 0.7282621
1.2266637 1.1631827 1.4963647 1.559623 0.9079095 0.44191816 0.49415308 0.3344448
0.72462225 0.5356273 0.3260942 0.5134804 0.93636775 1.133998 0.8243171 0.84356195
00000000: b5a9 8b3f c0c5 983f a07d 0c3f f7dd 523f
00000010: 4e30 f83e df68 0d3f 6558 4b3f 995a 0a3f
00000020: e00e 223f 6de3 7a3e 180d 8e3f a040 a33e
00000030: 2967 c33f 7798 383f 40ff 283f 636f 3a3f
00000040: 5103 9d3f 2ce3 943f e188 bf3f baa1 c73f
00000050: c26c 683f 1943 e23e a201 fd3e 593c ab3e
00000060: d880 393f df1e 093f d2f5 a63e 7473 033f
00000070: ccb5 6f3f d926 913f 7206 533f adf3 573f

encoder.block2.block.0.weight f4 [32, 32, 3, 3]
0.05627672 -0.023427997 0.054220803 0.037486035 0.0086288415 0.039788388 0.045434654 0.0310364
0.02022316 -0.0018957662 0.02394434 0.016724048 0.039184242 -0.022464417 0.015643004 -0.010704009
0.0076184194 0.053857047 -0.034031272 0.018914973 -0.004361196 0.03016866 -0.011027667 -0.036789723
-0.0006092594 -0.0045750057 -0.03575475 -0.014608572 -0.03312507 -0.049221728 0.05522019 -0.0036066964
-0.072043665 0.025574528 -0.01971221 -0.016348932 -0.022630464 -0.016189078 -0.003965841 0.026720757
0.026231438 0.0053595575 -0.007892864 0.03341047 0.051868837 0.026652748 0.04213482 -0.05420789
-0.054786067 0.006012201 -0.032429874 -0.004078349 0.039692763 -0.016711505 0.033276025 0.014363085
-0.015578829 -0.03770688 -0.030893646 0.022828052 -0.0020318374 -0.06048566 -0.019170642 0.017222917
0.0059091956 -0.03981042 -0.063921146 -0.0074351043 -0.053104546 -0.001975782 -0.046509314 -0.052478846
0.020887123 -0.033079408 0.029080559 -0.021955203 -0.045220975 0.041147992 -0.02401997 0.05723719
0.007215035 0.00022489042 -0.046984885 -0.0106471665 0.07484354 -0.0052695726 -0.00399787 -0.01467958
-0.04529118 0.033754922 0.009225061 0.03644823 -0.041223947 -0.044964638 -0.029542966 0.050189942
0.06617185 -0.008094288 -0.052609757 -0.01774197 -0.05103238 -0.008965501 0.015630806 -0.0055886144
-0.024823306 -0.010347414 -0.037783567 -0.008069991 -0.025481269 0.022696242 -0.013591355 0.038833436
0.06984973 0.062894344 -0.029952826 -0.039863985 0.022681134 0.031049658 -0.0004820101 0.04930371
-0.023584247 0.0066552134 0.0012484319 -0.017175643 0.038503386 -0.02411421 -0.00942596 -0.007113109
0.021001957 -0.028770361 -0.03281878 -0.043322675 -0.019070173 -0.027634466 0.038186148 0.0021730207
-0.051326774 0.020385725 0.042829387 -0.012358047 0.062499207 0.02394216 0.013236774 0.010355692
0.034540992 -0.04630793 0.032116126 0.021826683 -0.04410518 0.032325827 0.059699602 -0.0139178205
-0.027594773 0.049105022 -0.033827644 -0.08180323 -0.026338076 0.0403764 0.002183162 0.025953744
-0.008845307 0.006117843 -0.035000827 0.018402722 0.034237895 0.032860737 -0.004347515 0.055863578
-0.026664086 0.028371138 0.040842284 -0.059495136 0.027018167 -0.028957764 0.011056186 -0.050036926
-0.020240445 -0.002009176 -0.004340317 0.038995024 -0.02226439 -0.03630478 -0.060069796 -0.063144654
-0.019549089 -0.01599199 -0.034023724 -0.045135457 -0.040811554 -0.0029287268 -0.023632433 0.013974951
-0.054191835 -0.06572523 0.00014810695 0.017596742 -0.07386405 0.009568354 -0.037868448 -0.019841513
-0.017967759 -0.055337124 0.013743215 0.05604018 -0.033411812 -0.020114703 0.057069454 -0.06899444
-0.0024081152 -0.06437479 0.03797793 0.011645071 -0.049858656 0.040213067 -0.02284802 -0.021110732
-0.0014740914 -0.034008335 -0.05696816 -0.053196065 -0.025133388 0.017394206 0.015886184 0.01782015
-0.014789992 0.04766807 0.0052151387 0.037661225 0.0072386935 -0.043824356 0.014045699 0.020497752
-0.027302543 0.00910326 0.01667231 -0.029473072 -0.03033767 0.0135205 -0.027212849 -0.016945414
-0.044563472 -0.0115294885 -0.016385783 -0.034024496 0.012771465 0.034337748 -0.0058521153 -0.045169048
0.04031912 -0.00661826 -0.07414325 -0.022785168 0.038745582 0.052298877 0.056560103 0.026896164
00000000: 6b82 663d 12ec bfbc a216 5e3d f58a 193d
00000010: fc5f 0d3c 26f9 223d b019 3a3d 0c40 fe3c
00000020: 0aab a53c 5c7b f8ba ec26 c43c df00 893c
00000030: a87f 203d 4c07 b8bc c225 803c de5f 2fbc
00000040: efa3 f93b 3599 5c3d 6064 0bbd 93f3 9a3c
00000050: 5de8 8ebb 4424 f73c 63ad 34bc d2b0 16bd
00000060: b5b6 1fba eee9 95bb 9373 12bd cb58 6fbc
00000070: 27ae 07bd b99c 49bd 912e 623d 535e 6cbb
00000080: a18b 93bd ac81 d13c 807b a1bc 32ee 85bc
00000090: 8663 b9bc f59e 84bc e3f3 81bb 7de5 da3c
000000a0: 50e3 d63c 3a9f af3b 1251 01bc 6bd9 083d
000000b0: 6b74 543d dd56 da3c 9095 2c3d 1809 5ebd
000000c0: 5b67 60bd ff01 c53b 30d5 04bd aca3 85bb
000000d0: e194 223d 91e6 88bc 714c 083d 2553 6b3c
000000e0: 583e 7fbc 8872 1abd ac14 fdbc e501 bb3c
000000f0: 9328 05bb d0bf 77bd c00b 9dbc 1317 8d3c
00000100: eda1 c13b 4010 23bd 17e9 82bd 2da2 f3bb
00000110: 2784 59bd 1f7c 01bb 8d80 3ebd 0ff4 56bd
00000120: 791b ab3c 467e 07bd 5a3a ee3c 66db b3bc
00000130: a139 39bd cc8a 283d 87c5 c4bc 8b71 6a3d
00000140: 1a6c ec3b 90d0 6b39 3973 40bd 7471 2ebc
00000150: 9247 993d 61ac acbb 9000 83bb 9f82 70bc
00000160: 3f83 39bd 9a42 0a3d b624 173c bd4a 153d
00000170: 71da 28bd d72c 38bd 1704 f2bc f893 4d3d
00000180: 1b85 873d e89d 04bc 547d 57bd 9c57 91bc
00000190: 5407 51bd 09e4 12bc 2d0c 803c b220 b7bb
000001a0: 3f5a cbbc 3388 29bc f1c2 1abd ff37 04bc
000001b0: 18be d0bc 78ed b93c 46ae 5ebc cf0f 1f3d
000001c0: 600d 8f3d c0ce 803d a15f f5bc 6b48 23bd
000001d0: c9cd b93c da5b fe3c 4db6 fcb9 b0f2 493d
000001e0: c033 c1bc fa13 da3b 6ca2 a33a efb3 8cbc
000001f0: bab5 1d3d 2a8b c5bc 576f 1abc 1515 e9bb
00000200: 4c0c ac3c d2af ebbc fc6c 06bd 1e73 31bd
00000210: 0d39 9cbc ad61 e2bc 1469 1c3d 3d69 0e3b
00000220: 063c 52bd f7ff a63c de6d 2f3d 6879 4abc
00000230: 2bff 7f3d 5922 c43c 0edf 583c ecaa 293c
00000240: db7a 0d3d 62ad 3dbd 338c 033d dfcd b23c
00000250: a2a7 34bd 1668 043d 9287 743d 9207 64bc
00000260: 6f0e e2bc 5922 493d db8e 0abd 7488 a7bd
00000270: f3c2 d7bc b961 253d 6113 0f3b f29c d43c
00000280: e8eb 10bc 3078 c83b 075d 0fbd 4ec1 963c
00000290: 093d 0c3d fb98 063d 9975 8ebb 35d1 643d
000002a0: a46e dabc 976a e83c 3d4a 273d 2cb1 73bd
000002b0: 3455 dd3c d538 edbc 0125 353c 85f3 4cbd
000002c0: 4acf a5bc 61ac 03bb 3839 8ebb 3fb9 1f3d
000002d0: cf63 b6bc 52b4 14bd bf0b 76bd fc51 81bd
000002e0: 6925 a0bc a201 83bc 765c 0bbd f5df 38bd
000002f0: 042a 27bd e2ef 3fbb ce98 c1bc 31f7 643c
00000300: 42f8 5dbd f39a 86bd 284d 1b39 0b27 903c
00000310: 0946 97bd 96c4 1c3c f21b 1bbd ab8a a2bc
00000320: 1f31 93bc 2ea9 62bd 392b 613c 638a 653d
00000330: d3da 08bd 97c7 a4bc a9c1 693d f54c 8dbd
00000340: 78d1 1dbb eed6 83bd bf8e 1b3d f8ca 3e3c
00000350: 9738 4cbd 75b6 243d c52b bbbc 6af0 acbc
00000360: 4d36 c1ba 534c 0bbd 7257 69bd 1ee4 59bd
00000370: 89e4 cdbc 4b7e 8e3c be23 823c 90fb 913c
00000380: b951 72bc 983f 433d c1e3 aa3b a842 1a3d
00000390: 9032 ed3b 2b81 33bd ee1f 663c e7ea a73c
000003a0: 95a9 dfbc d725 153c 5e94 883c 8371 f1bc
000003b0: b586 f8bc 1685 5d3c 7bed debc 1cd1 8abc
000003c0: 3088 36bd 2ee6 3cbc 7a3b 86bc 455d 0bbd
000003d0: 683f 513c bda5 0c3d 1ac3 bfbb 2e03 39bd
000003e0: a925 253d fddd d8bb 6bd8 97bd f6a7 babc
000003f0: b0b3 1e3d 5937 563d 91ab 673d 5855 dc3c

encoder.block2.block.0.bias f4 [32]
-0.04652622 0.054698255 0.0035145495 0.030152794 0.023287011 0.012100431 0.031875048 0.04928492
0.053747687 0.01608948 0.0044853804 0.022928365 0.003216721 0.034460578 -0.048386376 -0.02732228
0.041928917 0.04532627 -0.014131376 -0.04176094 0.006147474 -0.04514512 0.049803667 0.038504593
0.041202463 -0.03149695 -0.04761499 -0.027438026 -0.0005568901 -0.019043742 -0.03510141 0.025598139
00000000: 4792 3ebd 470b 603d 5b54 663b fe02 f73c
00000010: 67c4 be3c e340 463c 698f 023d fcde 493d
00000020: 8926 5c3d 16ce 833c 19fa 923b 44d4 bb3c
00000030: 9fcf 523b 8926 0d3d cb30 46bd f9d2 dfbc
00000040: a8bd 2b3d 0aa8 393d 4987 67bc 850d 2bbd
00000050: c070 c93b 17ea 38bd eefe 4b3d feb6 1d3d
00000060: eac3 283d f202 01bd f007 43bd b6c5 e0bc
00000070: 43fc 11ba 9f01 9cbc 7fc6 0fbd 30b3 d13c

encoder.block2.block.1.weight f4 [32]
0.9754369 0.97337073 0.97714275 0.97907007 0.986875 0.977393 0.9907324 0.9847451
1.0021527 0.99110067 1.0028481 1.0036457 0.9739779 1.0002896 0.98534024 0.99163944
0.98918587 0.9880371 0.982568 0.99050814 0.9832691 0.9902222 1.004049 0.9922741
0.9952498 0.9963198 0.97371614 0.9815172 0.99973845 0.98487127 0.98508435 0.9755942
00000000: 3cb6 793f d32e 793f 0726 7a3f 56a4 7a3f
00000010: d7a3 7c3f 6d36 7a3f a3a0 7d3f 4118 7c3f
00000020: 8a46 803f c6b8 7d3f 545d 803f 7677 803f
00000030: 9e56 793f 7d09 803f 423f 7c3f 15dc 7d3f
00000040: 493b 7d3f 00f0 7c3f 9489 7b3f f191 7d3f
00000050: 86b7 7b3f 347f 7d3f ad84 803f ad05 7e3f
00000060: b1c8 7e3f d00e 7f3f 7645 793f b644 7b3f
00000070: dcee 7f3f 8620 7c3f 7d2e 7c3f 8bc0 793f

encoder.block2.block.1.bias f4 [32]
-0.009128026 -0.011104243 -0.004170001 0.01637502 0.0044912472 0.0001771174 -0.026038341 -0.029753061
-0.0065351613 -0.026511712 -0.0055734054 0.033169985 -0.015084373 0.03418902 0.0017441768 0.02979543
0.021955825 -0.011641519 0.020629482 0.0027079727 -0.0054458 0.0303145 0.0019673123 -0.017904483
0.01864199 0.0285654 -0.020719605 -0.031876728 -0.00021314928 -0.025566988 -0.0002974703 -0.0060018282
00000000: b78d 15bc 92ee 35bc 81a4 88bb e824 863c
00000010: 502b 933b 97b8 3939 5c4e d5bc b1bc f3bc
00000020: e824 d6bb 172f d9bc 1da1 b6bb 40dd 073d
00000030: 7224 77bc c909 0c3d dd9c e43a 8c15 f43c
00000040: b4dc b33c 12bc 3ebc 29ff a83c 3e78 313b
00000050: ae72 b2bb 1d56 f83c 06ee 003b 6cac 92bc
00000060: 16b7 983c fc01 ea3c 29bc a9bc 2c91 02bd
00000070: d380 5fb9 dc71 d1bc caf5 9bb9 fcaa c4bb

encoder.block2.block.1.running_mean f4 [32]
-0.45642468 -0.818006 -0.19700386 -0.7046913 0.2351685 -0.822377 -0.17243521 0.06755585
0.1728093 -0.34178582 0.064950384 -0.29498336 0.17239839 -0.303178 -0.12641199 0.6705811
-0.6788475 0.1120648 0.03643495 -0.2733984 -0.011815208 -0.4702421 -0.90301996 -0.48282626
-0.13160302 -0.7986658 0.16567263 -0.18195714 -0.0358949 -0.012135341 0.0017775375 -0.68070817
00000000: 7fb0 e9be d768 51bf 61bb 49be a666 34bf
00000010: 03d0 703e 4d87 52bf db92 30be b95a 8a3d
00000020: ecf4 303e 8dfe aebe b504 853d 0f08 97be
00000030: 3489 303e 263a 9bbe 2572 01be 34ab 2b3f
00000040: f3c8 2dbf 3b82 e53d d03c 153d e0fa 8bbe
00000050: 9394 41bc 93c3 f0be 512c 67bf 0135 f7be
00000060: f1c2 06be 5d75 4cbf 16a6 293e f952 3abe
00000070: 8806 13bd 4fd3 46bc 43fc e83a e442 2ebf

encoder.block2.block.1.running_var f4 [32]
0.74444705 0.88694125 0.5643625 0.2608173 0.5001681 0.3622426 0.8889647 0.810067
0.63543177 0.7043189 0.93386364 0.27295163 1.028821 0.3123133 0.57217324 0.6245577
0.44157526 0.6891661 0.2632648 1.1923205 0.5651591 0.56851137 0.34849778 0.5713452
0.2882304 0.37744457 1.0083004 0.5934047 0.94388473 0.5868497 0.70880216 0.8041442
00000000: 1594 3e3f 950e 633f 107a 103f d889 853e
00000010: 040b 003f dd77 b93e 3193 633f 8d60 4f3f
00000020: a8ab 223f 3e4e 343f b011 6f3f 51c0 8b3e
00000030: 68b0 833f 87e7 9f3e f279 123f 03e3 1f3f
00000040: 2716 e23e 316d 303f a5ca 863e f59d 983f
00000050: 44ae 103f f689 113f 4d6e b23e ae43 123f
00000060: ef92 933e 6a40 c13e fd0f 813f 5fe9 173f
00000070: 6ea2 713f c83b 163f 0f74 353f 65dc 4d3f

encoder.final.block.0.weight f4 [3, 32, 3, 3]
-0.051399194 -0.051693533 0.00801967 -0.025526391 0.04478924 0.051645737 0.040671505 -0.021752903
-0.035230838 -0.009045698 0.024003915 0.004261531 0.04289177 0.0066437754 0.054880306 -0.031298757
-0.036900256 0.016710486 0.043943815 -0.032414008 0.04273819 -0.023895318 0.0155502055 0.015818495
-0.008126278 -0.001601135 0.049145848 -0.039089352 0.023356618 -0.003027114 0.048676603 0.013078586
-0.019332217 0.044482496 -0.006150793 0.020148354 -0.045506895 -0.031061461 0.031873733 -0.006529388
-0.042911194 -0.018181803 -0.019240674 0.047582194 0.004837645 -0.020710194 0.047691982 -0.0336871
0.026943631 0.045824654 -0.04273509 -0.044862945 0.026300289 0.04119052 -0.007974259 -0.02804597
0.020008141 0.046573922 -0.028875066 0.048381362 -0.025540961 -0.05136575 -0.038116816 -0.019664925
0.0004108516 0.037015937 -0.018294843 0.019564826 -0.018284041 0.0398702 0.008703421 -0.006330828
0.0023155357 0.057788003 0.01301086 0.057971466 0.05932926 -0.00436595 0.0024528522 0.035725147
-0.008617522 0.029208915 0.030870346 -0.0345745 -0.029847158 0.046091933 0.051698044 -0.0067491294
0.014486583 -0.016953254 0.012285086 0.022109054 -0.00022368871 -0.014423624 -0.025933474 0.058452092
0.043778684 -0.0059299027 0.035171755 -0.014278092 0.04686153 0.0016421298 0.034918882 0.02750151
0.00524597 0.014892913 0.015146691 0.03443375 0.026990164 -0.006086865 0.02592781 0.009051469
-0.03296051 -0.029713314 0.016120242 0.038718287 -0.016657395 0.06041143 0.009081378 -0.036412064
-0.0015065656 -0.030313896 0.0060915546 -0.017899737 0.012526055 -0.028567618 -0.045164578 0.06322637
0.058700208 -0.0055602556 -0.01259125 0.012141017 -0.04322203 -0.05123696 -0.046334878 -0.034465577
0.0014621792 -0.037333876 0.021669779 0.007199602 -0.0051289336 -0.018750113 -0.046573855 -0.048988547
0.016395532 0.049817562 0.044156116 0.022768907 0.028024698 -0.018445095 0.024088359 0.05287878
0.058306664 -0.038374744 -0.014809734 0.054207124 0.065248944 0.0028400721 0.019765798 -0.005972537
0.035887767 0.039717596 -0.04606647 -0.03158015 0.048425257 0.028107038 -0.03321529 -0.02455893
0.020814547 -0.010912243 -0.005969252 -0.020464508 0.016075347 0.023557985 0.05186193 -0.0032277843
0.057072334 -0.044038 -0.010564332 -0.05157066 -0.04700668 -0.017141877 -0.04060882 0.010553381
0.007965199 0.03621239 0.003889417 -0.0034490754 -0.015171259 0.043969672 0.010345524 0.018382775
-0.03077992 0.060874764 0.05246647 0.024012098 -0.051774792 0.019797163 0.053127512 -0.028633364
0.047437042 -0.0044919485 0.064707726 0.008319908 0.04607343 0.0037348305 -0.012534692 0.047355644
-0.04550246 -0.03879071 -0.015688831 0.04138705 -0.0022863408 0.010726666 -0.028841307 0.011277998
-0.04334052 0.053250056 5.258776e-05 0.017228037 -0.052639566 0.016789872 0.031479515 -0.03420999
-0.027529659 -0.01970439 0.04959768 0.036678974 -0.019331167 0.03136275 -0.002518798 -0.015045852
-0.027808113 -0.045180976 0.046868484 -0.020943202 -0.022361415 -0.021800434 0.039722133 -0.0067948103
0.015230169 0.048643366 0.012592737 -0.031727206 -0.03688056 -0.0012422594 0.028465834 0.023911195
0.03769098 0.017425599 0.014112012 0.049680896 -0.005347966 -0.028392252 -0.036617942 -0.032599963
00000000: f687 52bd 99bc 53bd ef64 033c b91c d1bc
00000010: ec74 373d 7b8a 533d 2a97 263d 2533 b2bc
00000020: 364e 10bd 6834 14bc dca3 c43c 50a4 8b3b
00000030: 48af 2f3d 07b4 d93b 2cca 603d 2033 00bd
00000040: b924 17bd 6ee4 883c 6efe 333d 8dc4 04bd
00000050: 3e0e 2f3d 1dc0 c3bc 4ac6 7e3c ca95 813c
00000060: 1524 05bc 2ddd d1ba 284d 493d 281c 20bd
00000070: 6156 bf3c 8c62 46bb 1e61 473d 9147 563c
00000080: 995e 9ebc 4733 363d 978c c9bb 290e a53c
00000090: 7065 3abd 9b74 febc 088e 023d 7af4 d5bb
000000a0: a6c3 2fbd 01f2 94bc 9e9e 9dbc 8ce5 423d
000000b0: 1c85 9e3b 6da8 a9bc ab58 433d 7cfb 09bd
000000c0: e4b8 dc3c a2b2 3b3d fd0a 2fbd 35c2 37bd
000000d0: b473 d73c 64b7 283d 77a6 02bc a9c0 e5bc
000000e0: 1de8 a33c 4cc4 3e3d 678b ecbc 892b 463d
000000f0: 473b d1bc e564 52bd 6120 1cbd 5618 a1bc
00000100: 9167 d739 069e 173d 11df 95bc 6a46 a03c
00000110: 6ac8 95bc ef4e 233d cb98 0e3c d672 cfbb
00000120: 3ec0 173b 1db3 6c3d 812b 553c 7d73 6d3d
00000130: 3d03 733d 3e10 8fbb 08c0 203b 8854 123d
00000140: 8230 0dbc 8947 ef3c cfe3 fc3c fe9d 0dbd
00000150: 0782 f4bc e5ca 3c3d 54c1 533d cd27 ddbb
00000160: 2259 6d3c 8de1 8abc 6347 493c 0c1e b53c
00000170: fb8d 6ab9 1051 6cbc 7072 d4bc 766b 6f3d
00000180: 4751 333d a14f c2bb 4210 103d a9ee 69bc
00000190: e0f1 3f3d bc3c d73a 1a07 0f3d d94a e13c
000001a0: 63e6 ab3b 6801 743c d429 783c 670a 0d3d
000001b0: 7a1a dd3c 5374 c7bb 8f66 d43c 9d4c 143c
000001c0: 9a01 07bd 5669 f3bc 990e 843c 1197 1e3d
000001d0: 1775 88bc fa71 773d 0fca 143c d124 15bd
000001e0: f477 c5ba d954 f8bc aa9b c73b 78a2 92bc
000001f0: 153a 4d3c a306 eabc 7efe 38bd d47c 813d
00000200: a16f 703d ce32 b6bb 884b 4ebc 1eeb 463c
00000210: 9509 31bd d9dd 51bd a4c9 3dbd c72b 0dbd
00000220: 98a6 bf3a 68eb 18bd d284 b13c a4ea eb3b
00000230: 9d10 a8bb d699 99bc 3ac4 3ebd 37a8 48bd
00000240: ec4f 863c 800d 4c3d 0bdd 343d dc85 ba3c
00000250: 0d94 e53c 2b1a 97bc f354 c53c 6b97 583d
00000260: f8d2 6e3d d62e 1dbd 87a4 72bc 4a08 5e3d
00000270: 3da1 853d 8120 3a3b e2eb a13c 46b5 c3bb
00000280: 0dff 123d ebae 223d 32b0 3cbd 305a 01bd
00000290: 9059 463d bb40 e63c c20c 08bd cf2f c9bc
000002a0: 4583 aa3c 44c9 32bc b799 c3bb 2fa5 a7bc
000002b0: 72b0 833c adfc c03c 2d6d 543d 3c89 53bb
000002c0: aec4 693d 3161 34bd 0516 2dbc c23b 53bd
000002d0: 148a 40bd 1f6d 8cbc 6f55 26bd 17e8 2c3c
000002e0: 7780 023c 7153 143d 97e5 7e3b e209 62bb
000002f0: df90 78bc 8b19 343d 4680 293c 7997 963c
00000300: 2c26 fcbc d157 793d 15e7 563d 05b5 c43c
00000310: ce11 54bd a92d a23c 3c9c 593d 8490 eabc
00000320: 584d 423d 3231 93bb 7c85 843d 3950 083c
00000330: 7eb7 3c3d 0fc4 743b 4f5e 4dbc fef7 413d
00000340: ca60 3abd 02e3 1ebd dd85 80bc 7885 293d
00000350: 6fd6 15bb e6be 2f3c 9b44 ecbc 5ac7 383c
00000360: d485 31bd bb1c 5a3d ad91 5c38 d021 8d3c
00000370: 969c 57bd ea8a 893c aaf0 003d c61f 0cbd
00000380: e185 e1bc 1a6b a1bc f026 4b3d b13c 163d
00000390: 655c 9ebc 3a76 003d 6b12 25bb e182 76bc
000003a0: d7cd e3bc b00f 39bd 2bf9 3f3d 1491 abbc
000003b0: 492f b7bc d396 b2bc adb3 223d 00a7 debb
000003c0: f587 793c 443e 473d c451 4e3c 63f4 01bd
000003d0: 1210 17bd 4fd3 a2ba 2e31 e93c 69e1 c33c
000003e0: db61 1a3d 21c0 8e3c 1236 673c 327e 4b3d
000003f0: fe3d afbb de96 e8bc b2fc 15bd 8a87 05bd

encoder.final.block.0.bias f4 [3]
0.06536173 -0.03525046 -0.007869531
00000000: 5fdc 853d c962 10bd 35ef 00bc

decoder.initial.block.0.weight f4 [32, 3, 3, 3]
-0.07830919 0.05028021 -0.008047298 -0.13437222 -0.04052797 -0.15614864 -0.03180552 0.1761798
0.11000597 0.03864554 -0.09057926 -0.13074397 -0.008876606 0.13396688 0.029286241 0.1820443
0.037732 -0.14355327 -0.12191219 0.20507 0.14491713 -0.14585923 0.0021159952 -0.13200366
0.021246029 0.11643102 -0.2130172 0.23953293 -0.16144206 -0.12423775 -0.06853942 -0.12082111
0.13196698 -0.01069499 0.122223556 -0.108404845 -0.11311596 -0.1252979 0.04541393 -0.12241699
0.045871396 0.11966076 0.080332994 0.03126002 0.030800328 0.06722843 -0.19205624 0.14846155
-0.19651927 -0.08099485 -0.057122696 0.043730687 0.1689713 0.058469087 -0.026992304 0.032948945
0.10799143 -0.064188614 0.14060971 0.04260777 -0.010302436 -0.06724155 -0.14767712 -0.006252503
-0.11783476 -0.05531229 0.19807532 -0.19968148 0.07465678 -0.17013098 0.1315909 -0.08622677
-0.062083732 -0.1315722 0.07083436 -0.0018395605 -0.007099306 -0.16117851 0.10379002 -0.03999164
0.16141927 0.17026976 -0.19406708 0.13428733 0.0052182465 0.0131310485 0.15743974 -0.070623696
-0.109918065 -0.14418249 -0.112462506 0.035724547 -0.015438106 -0.13961214 0.14127384 -0.16958363
0.0010161636 0.08834107 0.09126261 -0.13633637 0.022844503 0.029084804 0.15475065 -0.21516715
-0.12112569 0.15675591 -0.059699263 0.0841206 -0.07276536 -0.03729379 -0.007067351 -0.1592331
-0.032783613 -0.123796105 0.056895148 -0.09711501 -0.07903604 0.21211256 -0.055413265 0.10886759
-0.14955647 0.025536042 -0.12756582 -0.02095338 0.03113009 0.10876077 -0.19850105 -0.14885032
0.044376336 0.16617908 -0.07460212 0.14532213 -0.15157093 0.09329985 -0.07820539 -0.08904475
0.09979526 0.10668038 -0.01618395 0.0046588033 -0.03131793 -0.16839573 0.015142997 0.067003466
0.051089656 -0.13050404 -0.11236159 0.078655384 -0.081061594 0.014308667 -0.043146096 0.14896217
-0.0851299 -0.10023031 0.24959162 -0.056493677 0.13395599 -0.15634403 -0.08616737 0.12501393
-0.14492446 0.017800307 -0.08716156 -0.13069504 -0.11693486 -0.005828421 0.23999727 -0.10115888
0.12588766 0.03440366 0.046603553 -0.039282944 0.09860229 0.07385347 -0.0013440442 -0.12900464
0.07493531 -0.111134864 0.11466665 0.047323465 0.11136762 0.054798495 -0.023662781 0.07568998
-0.11176339 -0.050205164 -0.02269044 -0.037361145 0.006710159 0.05280215 -0.097689204 -0.04430587
0.03878751 -0.16997406 0.050271645 0.24167015 0.0781964 -0.18598954 -0.007338308 0.13484608
0.048610773 -0.1272996 0.09073227 0.15583362 0.072084725 -0.032281876 -0.05579146 0.14182377
-0.11370183 -0.10250265 0.1453584 -0.028884618 -0.028259944 -0.1877209 0.07098806 0.10334595
-0.097316466 -0.084327675 0.032213606 0.004240062 0.12214108 0.092402734 0.063290395 0.037989102
-0.13790198 0.15051675 0.17502442 0.10988501 0.013511902 -0.0055468967 0.014921329 -0.19564208
-0.09739423 0.05068019 -0.19739595 -0.092657134 0.03271627 0.14585333 -0.14327359 0.16403347
0.11635603 0.14751051 -0.035900377 0.08481736 0.038655028 0.021221543 0.14713103 -0.035596173
-0.1576643 -0.029633256 -0.03817289 0.108000115 -0.089399435 -0.117104314 0.12734984 -0.1478308
00000000: 9260 a0bd 9ff2 4d3d d0d8 03bc df98 09be
00000010: a800 26bd 6ee5 1fbe 8146 02bd 7a68 343e
00000020: cf4a e13d c94a 1e3d 9e81 b9bd bfe1 05be
00000030: 2f6f 11bc 9d2e 093e b3e9 ef3c d269 3a3e
00000040: df8c 1a3d a1ff 12be 19ad f9bd dffd 513e
00000050: 2865 143e 1f5c 15be 82ac 0a3b f82b 07be
00000060: 270c ae3c 6373 ee3d 2e21 5abe 1f48 753e
00000070: 1151 25be 5d70 febd 655e 8cbd 0f71 f7bd
00000080: 5a22 073e 0a3a 2fbc 5850 fa3d 5c03 debd
00000090: 57a9 e7bd 184e 00be f503 3a3d c2b5 fabd
000000a0: a5e3 3b3d b310 f53d a085 a43d 820a 003d
000000b0: f850 fc3c 0faf 893d 64aa 44be 4e06 183e
000000c0: 593c 49be a1e0 a5bd 7df9 69bd f31e 333d
000000d0: d006 2d3e 487d 6f3d f71e ddbc 79f5 063d
000000e0: 9c2a dd3d 5275 83bd fefb 0f3e 7c85 2e3d
000000f0: 8ccb 28bc f0b5 89bd ac38 17be cce1 ccbb
00000100: 5a53 f1bd 248f 62bd 42d4 4a3e 4d79 4cbe
00000110: a7e5 983d d136 2ebe c4bf 063e a997 b0bd
00000120: 834b 7ebd ddba 06be 9b11 913d 681d f1ba
00000130: 4ca1 e8bb fb0b 25be dd8f d43d 46ce 23bd
00000140: 184b 253e 325b 2e3e 85b9 46be 9e82 093e
00000150: d3fd aa3b 9c23 573c e237 213e 28a3 90bd
00000160: b91c e1bd 93a4 13be be52 e6bd e753 123d
00000170: 1cf0 7cbc 7cf6 0ebe 17aa 103e 55a7 2dbe
00000180: cb30 853a 2aec b43d e4e7 ba3d c39b 0bbe
00000190: 6524 bb3c 4143 ee3c f476 1e3e c754 5cbe
000001a0: bf10 f8bd 9f84 203e 3787 74bd 6c47 ac3d
000001b0: 0106 95bd 60c1 18bd 3d95 e7bb 000e 23be
000001c0: 1c48 06bd d088 fdbd e30a 693d 3ce4 c6bd
000001d0: a6dd a1bd 0934 593e 05f9 62bd f9f5 de3d
000001e0: 5525 19be f630 d13c 9da0 02be 6ca6 abbc
000001f0: 8804 ff3c f7bd de3d dc43 4bbe 386c 18be
00000200: f6c3 353d d92a 2a3e ffc8 98bd 53cf 143e
00000210: 6935 1bbe fe13 bf3d 262a a0bd 185d b6bd
00000220: 7561 cc3d 3e7b da3d 3494 84bc e0a8 983b
00000230: 3b47 00bd ee6f 2cbe 551a 783c 1d39 893d
00000240: 6343 513d daa2 05be d51d e6bd 1316 a13d
00000250: 9f03 a6bd e66e 6a3c f6b9 30bd 8a89 183e
00000260: 9658 aebd 8c45 cdbd f294 7f3e ea65 67bd
00000270: c22b 093e a618 20be 8578 b0bd a703 003e
00000280: 1467 14be f3d1 913c c381 b2bd ecd4 05be
00000290: 8b7b efbd 57fc bebb d8c1 753e 632c cfbd
000002a0: b2e8 003e daea 0c3d 5ee3 3e3d 27e7 20bd
000002b0: ffef c93d 7d40 973d a42a b0ba cb19 04be
000002c0: af77 993d ad9a e3bd 59d6 ea3d 40d6 413d
000002d0: b514 e43d 6374 603d 73d8 c1bc 5903 9b3d
000002e0: 34e4 e4bd eea3 4dbd 4de1 b9bc 0008 19bd
000002f0: e5e0 db3b 1147 583d 4711 c8bd 127a 35bd
00000300: a7df 1e3d ae0d 2ebe a4e9 4d3d 6178 773e
00000310: 6f25 a03d 0b74 3ebe 3076 f0bb 1715 0a3e
00000320: 171c 473d d45a 02be d7d1 b93d d992 1f3e
00000330: 28a1 933d 003a 04bd 9685 64bd 403a 113e
00000340: 81dc e8bd e9ec d1bd d5d8 143e 6f9f ecbc
00000350: 6681 e7bc e839 40be 3062 913d 0ba7 d33d
00000360: db4d c7bd fdb3 acbd 6af2 033d 38f0 8a3b
00000370: 1a25 fa3d a53d bd3d 659e 813d 769a 1b3d
00000380: 2d36 0dbe 1021 1a3e 9a39 333e 640b e13d
00000390: 0661 5d3c bec2 b5bb 9778 743c 6656 48be
000003a0: a076 c7bd 0896 4f3d 2a22 4abe 06c3 bdbd
000003b0: 7f01 063d 935a 153e 50b6 12be 64f8 273e
000003c0: 124c ee3d ff0c 173e 460c 13bd b9b4 ad3d
000003d0: bc54 1e3d cdd8 ad3c 84a9 163e 4bcd 11bd
000003e0: c072 21be 71c1 f2bc 2d5b 1cbd 2a2f dd3d
000003f0: 0d17 b7bd 63d4 efbd ff67 023e f560 17be

decoder.initial.block.0.bias f4 [32]
-0.12847202 0.17256713 -0.1349012 -0.074014634 -0.12494707 0.00091341505 0.19016564 -0.021066962
-0.13401295 -0.06502738 0.0939787 -0.18786842 0.1678197 -0.1033723 0.08644496 -0.039108608
-0.041812014 -0.021501904 0.035619628 -0.08677475 -0.009772873 -0.0027194032 -0.00897216 0.16322984
-0.026499128 -0.18833946 0.028195156 0.15838896 0.06879884 -0.034116127 -0.07000057 0.10233569
00000000: 2b8e 03be 70b5 303e 8a23 0abe fc94 97bd
00000010: 40e4 ffbd 3f72 6f3a c8ba 423e 9f94 acbc
00000020: b13a 09be 132d 85bd e877 c03d 9460 40be
00000030: edd8 2b3e dbb4 d3bd 0e0a b13d 5930 20bd
00000040: 1343 2bbd c324 b0bc e3e5 113d f6b6 b1bd
00000050: 661e 20bc 0438 32bb f7ff 12bc b925 273e
00000060: b314 d9bc 0fdc 40be 87f9 e63c b730 223e
00000070: 68e6 8c3d 5abd 0bbd 755c 8fbd 6095 d13d

decoder.initial.block.1.weight f4 [32]
0.97545385 0.96791315 1.0283422 1.0128131 1.0276568 1.0053939 0.9856812 0.9650649
0.9831266 0.9952105 1.0027084 0.96242535 0.9829872 0.9915403 1.0223957 0.96151555
1.0165771 1.0014158 0.9849726 1.0032881 1.0316497 0.9769271 0.94254476 0.94672316
0.9048537 1.005696 1.0190053 0.9923107 0.99547124 1.006503 1.0118996 1.0151255
00000000: 58b7 793f 28c9 773f b8a0 833f dca3 813f
00000010: 428a 833f bfb0 803f 9a55 7c3f 7e0e 773f
00000020: 2fae 7b3f 1ec6 7e3f c058 803f 8261 763f
00000030: 0da5 7b3f 96d5 7d3f dddd 823f e225 763f
00000040: 331f 823f 652e 803f 2a27 7c3f bf6b 803f
00000050: 190d 843f e517 7a3f 9d4a 713f 735c 723f
00000060: 7ea4 673f a6ba 803f c46e 823f 1308 7e3f
00000070: 34d7 7e3f 17d5 803f ed85 813f a2ef 813f

decoder.initial.block.1.bias f4 [32]
0.07722289 0.10196023 0.06189012 0.07680161 0.019109834 0.052087057 0.07191212 0.053256266
0.024067089 0.0499932 0.052321818 0.07059964 0.05349885 0.088466935 0.10379865 0.08458691
0.015786648 0.08275739 0.018248057 0.03133413 0.02679067 0.050687872 0.12012963 0.095294096
0.20999491 0.024766313 -0.017322654 0.087695025 0.124782644 0.11348355 -0.00042736297 0.07445764
00000000: 0927 9e3d 86d0 d03d 7f80 7d3d 2a4a 9d3d
00000010: 3a8c 9c3c 3d59 553d a946 933d 3e23 5a3d
00000020: 5828 c53c abc5 4c3d 674f 563d 8b96 903d
00000030: 9c21 5b3d 272e b53d 6394 d43d e73b ad3d
00000040: 0053 813c b57c a93d f37c 953c 3758 003d
00000050: 1b78 db3c 169e 4f3d 8606 f63d 8d29 c33d
00000060: e808 573e b9e2 ca3c 3de8 8dbc 7399 b33d
00000070: 0b8e ff3d 106a e83d b00f e0b9 3f7d 983d

decoder.initial.block.1.running_mean f4 [32]
-0.21124473 0.10358739 -0.26867735 -0.1659158 -0.41022497 -0.087285675 0.25454646 0.09353204
0.041709773 0.041364346 0.28326046 -0.13453431 0.23119396 0.0012789721 -0.07269136 -0.14259228
0.26170978 0.08017717 0.20676573 0.047745377 -0.16087478 0.09892758 -0.029171027 0.11205014
-0.053598456 -0.39623025 -0.090765156 0.060257945 0.13568172 -0.10027991 0.06570833 0.23257528
00000000: 8a50 58be a025 d43d 1490 89be d5e5 29be
00000010: 0209 d2be d5c2 b2bd ea53 823e ba8d bf3d
00000020: ded7 2a3d a96d 293d 8407 913e 5dc3 09be
00000030: 1cbe 6c3e 2fa3 a73a 35df 94bd b603 12be
00000040: d3fe 853e ee33 a43d 65ba 533e a890 433d
00000050: 5cbc 24be 8b9a ca3d 14f8 eebc 8b7a e53d
00000060: 0e8a 5bbd b1de cabe 15e3 b9bd 09d1 763d
00000070: 26f0 0a3e 8e5f cdbd 1792 863d 3728 6e3e

decoder.initial.block.1.running_var f4 [32]
0.003571649 0.0042770626 0.004840198 0.002771247 0.018601542 0.002360132 0.001647731 0.0041076196
0.008561636 0.0028844904 0.010619633 0.0045250705 0.0029566756 0.0035459371 0.0083022 0.004232511
0.023016272 0.0031048812 0.008267472 0.0055976463 0.005638562 0.0036023208 0.003695025 0.0049573826
0.002989625 0.010642305 0.004560719 0.0035472326 0.0015569128 0.0032312754 0.0047117798 0.004142533
00000000: 5412 6a3b 9a26 8c3b 869a 9e3b cf9d 353b
00000010: 4362 983c 72ac 1a3b aef8 d73a 3699 863b
00000020: 1b46 0c3c b809 3d3b f8fd 2d3c 0b47 943b
00000030: c9c4 413b f462 683b f305 083c e0b0 8a3b
00000040: 9f8c bc3c 437b 4b3b 4a74 073c 766c b73b
00000050: b0c3 b83b ea14 6c3b 3c28 723b 8a71 a23b
00000060: 96ed 433b 105d 2e3c 1572 953b b078 683b
00000070: 5311 cc3a cec3 533b 4665 9a3b 16be 873b
