models/archived/norm-augmented/BasicSteganoGAN/5/epoch_16.pth (torch, 326815 bytes, 59 tensors)

encoder.initial.block.0.weight f4 [32, 3, 3, 3]
000000 90 e1 be bc 99 30 22 3d a3 a4 33 3e 36 73 bc 3d
       -0.023300916 0.039597128 0.17543273 0.09201662
000010 81 ec d1 3b ae cc 2b 3d 08 71 f5 3d e5 df 34 bd
       0.0064063673 0.041943245 0.119844496 -0.044158835
000020 46 83 5e 3d 41 7e 3a be fa b6 88 bd 54 20 4d 3b
       0.05432441 -0.18212225 -0.06675525 0.0031299787
000030 60 ae d0 bc b6 91 6a bd da 76 1f be a2 61 aa bd
       -0.025473773 -0.057267867 -0.15572682 -0.08319403
000040 b1 a0 fc 3d 23 dd cb 3a d4 27 fe bd 06 65 35 bd
       0.12335337 0.0015553575 -0.1240994 -0.044285797
000050 d7 2e ca bd fc aa b3 bd 28 e5 fc 3d 05 1d 36 be
       -0.09872215 -0.08772847 0.123483956 -0.17784508
000060 21 24 87 bd 5d 8f 96 bc 64 a5 bc 3d d1 a2 c8 bd
       -0.06598688 -0.018378908 0.09211233 -0.0979668
000070 ee 24 32 bb 87 aa ba bc be f1 11 bd 61 d0 bf 3d
       -0.0027182656 -0.022786392 -0.035630934 0.09365917
000080 84 ab a0 bd 02 f8 32 be 82 df 12 3e 94 82 33 be
       -0.07845214 -0.1747742 0.14343074 -0.1753028
000090 19 27 13 3e 37 99 6a bd ca d9 4d 3d 38 6d f6 bd
       0.14370383 -0.057275023 0.050256528 -0.120325506
0000a0 18 92 14 3e f0 64 3f 3d 22 fd 2a bd 0d ac ee bd
       0.14508855 0.04672712 -0.041745313 -0.1165391
0000b0 e9 d3 8f bb 9d 01 bb bc 37 ee 21 be c9 a7 38 be
       -0.0043892753 -0.022827918 -0.15813528 -0.18032755
0000c0 8a d8 00 bd 1b a4 c7 3c f9 e0 27 be 49 8a aa 3d
       -0.031456508 0.024370244 -0.16394414 0.08327157
0000d0 e7 5d 1b bd ae c2 2a 3e 78 e0 ca 3d c6 31 17 3e
       -0.03793135 0.16675827 0.09906095 0.14765081
0000e0 17 ce 23 be d7 55 32 3e f8 58 15 be 67 8a c8 bd
       -0.15996586 0.17415558 -0.1458472 -0.09792023
0000f0 f4 30 22 3e 2c 18 2b be 7a 2f f7 bc 95 c3 1b 3d
       0.15838987 -0.1670844 -0.030174006 0.03802832
000100 9e de a1 3d c6 5e 3b bc 7a 2c f2 bd 7f 1b 5b bd
       0.07903789 -0.01143617 -0.118248895 -0.05349302
000110 0f ea 0c be 99 a4 ca 3d 8c df ff 3d 7f f2 3a 3e
       -0.13761161 0.09894676 0.1249381 0.18256567
000120 10 0b df 3d b0 67 ce bc 40 9a fc bd 21 99 ea bd
       0.10890782 -0.025195926 -0.12334108 -0.11454988
000130 7a 5b 00 3e 95 73 00 3d 4d ba 35 3d b0 7b 1f 3e
       0.12534896 0.031360228 0.044367123 0.15574527
000140 87 bb 81 3d 0b 32 00 be f8 38 2e 3e a8 f7 03 be
       0.06334596 -0.1251909 0.1701392 -0.12887442
000150 35 b6 22 3e c5 17 79 bd b9 0d 45 bd ad b3 07 be
       0.15889819 -0.060813684 -0.04810879 -0.13252135
000160 14 e3 e7 bd a4 5f 18 bd ab ce 78 bc 6d 08 b7 bd
       -0.113226086 -0.037200585 -0.015185992 -0.08937154
000170 a0 1c 18 bb d0 98 32 3e 90 d7 23 bd ab 82 ab bd
       -0.0023210421 0.17441106 -0.0400005 -0.08374532
000180 c2 86 23 be a0 04 ba 3d 67 04 57 bd 03 63 33 3c
       -0.15969375 0.090829134 -0.052494433 0.010948899
000190 1e f9 0b 3e ac b8 62 bd 6e b2 e6 bd 7b af 01 bc
       0.1366925 -0.055351898 -0.112645015 -0.007915373
0001a0 7e 55 c9 3a ae 55 1c be 70 a8 06 be 0b e9 aa bd
       0.0015360562 -0.15267059 -0.13150191 -0.08345231
0001b0 b4 b4 8a bd 94 91 e9 3b 44 0a ef bc 39 96 ed 3d
       -0.06772748 0.00712795 -0.0291797 0.11600918
0001c0 64 da d6 3d 74 64 27 be c8 e3 7c 3d bf e7 96 bd
       0.104908735 -0.16346914 0.061740667 -0.07368421
0001d0 ca 88 f1 bd c7 06 ac 3b 1c 44 2e 3e 8a 23 a9 bd
       -0.117936686 0.0052498314 0.17018169 -0.08258732
0001e0 9a 4b 2f 3e 70 52 a8 bd d3 fc 0c 3e 6a 12 ab 3d
       0.17118683 -0.08218849 0.1376832 0.083531216
0001f0 28 46 e1 3d be a0 2f 3e 10 91 20 3d ca ea e0 bc
       0.10999709 0.17151162 0.039200842 -0.027455706
000200 55 70 45 bd 86 45 49 bd ec 5c 8f 3d c4 01 2d be
       -0.04820283 -0.04913857 0.07000145 -0.16895205
000210 d0 a2 59 3c 11 bd 89 bd bf e1 1c be ea 71 84 3d
       0.013283446 -0.06725515 -0.1532049 0.0646704
000220 08 9c f1 3d e2 ce 36 be 18 ab 25 be e9 79 dc bd
       0.11797339 -0.17852357 -0.16178548 -0.1076544
000230 f8 74 a5 bd f7 09 0c be a1 6b f3 3c db 5f ed bb
       -0.08078951 -0.13675676 0.029714407 -0.007244093
000240 40 24 e2 bd b2 2b a2 bd a9 eb 65 3d ab 8c a4 3d
       -0.110420704 -0.079184905 0.056132946 0.08034643
000250 08 db 3a 3d 5f e6 5f bc 3c c3 44 bd 1f ec 9a bd
       0.04561904 -0.013665765 -0.048037753 -0.07564568
000260 cb b6 96 bd 0a a9 32 be cd 6d 39 3e e3 ab e2 bd
       -0.07359084 -0.17447296 0.18108292 -0.11067941
000270 6e 7f 43 be 58 df b8 3c e4 6b b8 3d e2 ef 13 bd
       -0.1909158 0.022567436 0.090049535 -0.036117442
000280 17 9e d4 3d 63 8a 97 bc bd 62 f1 bd 55 71 72 3d
       0.10381716 -0.018498605 -0.11786411 0.059190113
000290 e5 ab 37 be 43 18 1a bd b0 8f fb 3d dc 4f 14 be
       -0.17936666 -0.037620794 0.122832656 -0.14483589
0002a0 be d7 42 be f0 7f 08 be 0b c4 68 3d 08 85 f7 3d
       -0.19027612 -0.13330054 0.056827586 0.120859206
0002b0 aa a7 a4 bd 8a 6a 46 3d 5d 81 94 3d 88 76 2f 3c
       -0.08039792 0.048441447 0.072512366 0.010709412
0002c0 36 e0 03 3e b5 d9 1b 3e 0a eb 2f bd 4c 4f 0a bb
       0.12878498 0.15219767 -0.04294876 -0.0021104394
0002d0 ab ec 8e bd d5 ec ed 3c 50 2c 14 be 89 6d a9 bd
       -0.069787346 0.029043594 -0.14470029 -0.08272845
0002e0 cd 8a 32 3e de 96 6e 3d 9f c7 04 be fa 84 1e be
       0.17435761 0.058249347 -0.12966774 -0.15480414
0002f0 a3 b0 f7 3d 41 a1 9f bc 11 26 d1 bb e8 bd 0d 3e
       0.12094238 -0.019486072 -0.0063827117 0.13841975
000300 2a b9 4c 3d d2 e6 26 bd e2 ae 43 3e 73 7a 3c be
       0.049981274 -0.04074747 0.19109681 -0.18406086
000310 ba 7f 9e 3d 3a 07 b9 3d 81 7c c0 bd 2c b0 d1 39
       0.07739206 0.090345815 -0.09398747 0.00039994845
000320 9c 68 1c be 1a 0d 4c be e6 28 c6 3c 3c 2a 06 3e
       -0.1527428 -0.19926873 0.024189424 0.13102049
000330 66 cc 74 3d 5c 65 b1 3d 97 6b 1d 3e cc cc 3a be
       0.059765242 0.08661911 0.15373074 -0.18242186
000340 0f 7b 39 be d1 5d 3e be d8 8f 4e be e2 64 31 3c
       -0.1811335 -0.18590476 -0.2017206 0.010827275
000350 00 2e 04 3e 07 04 e6 3d 57 0a 9a 3d a4 cc 8a 3d
       0.12908173 0.11231237 0.075215034 0.06777313
000360 f6 5a 7f bd 8a a2 88 bd 71 22 4e 3b cb 69 7f 3d
       -0.062342606 -0.06671627 0.0031453634 0.06235675
000370 19 2e aa 3d b3 12 b8 bd aa 32 2a be f9 b8 40 3e
       0.08309574 -0.089879416 -0.1662089 0.18820561
000380 b2 cf 2f 3e 84 f6 ab bd 28 f0 2a 3d 91 2a f6 3c
       0.17169073 -0.083966285 0.041732937 0.030049594
000390 0e 87 15 3e df 85 ae bd 6e 8f 3c bd f2 fc 8d bd
       0.146023 -0.08521628 -0.046035223 -0.06933011
0003a0 a8 5a ea 3d 73 05 54 3e ba 84 18 3e aa 5c 0a be
       0.114430726 0.20705204 0.14894381 -0.13511911
0003b0 f9 67 30 be 48 18 04 3e 03 19 8f 3d bb d4 d9 3c
       -0.17227162 0.12899888 0.069871925 0.026590696
0003c0 58 0c 5b 3e e8 0f eb bc b1 a0 82 bd dc 06 c5 3d
       0.21391428 -0.028694108 -0.06378306 0.09620449
0003d0 9b f6 57 be 87 be 73 3d e6 ab db 3d 53 3c be bd
       -0.21090166 0.059507873 0.107261464 -0.0928885
0003e0 ac b5 bb bc 1e 9c 1a bd 80 f3 fc bd 93 df 4f 3d
       -0.022913776 -0.03774654 -0.123511314 0.050750326
0003f0 68 c8 ad bd 55 7d a2 bb 44 9c 02 be 40 9c 2c be
       -0.0848549 -0.0049587884 -0.12754923 -0.1685648

encoder.initial.block.0.bias f4 [32]
000000 a8 69 49 bb b0 c0 22 be 0f c5 3d 3d 0c 03 b2 bd
       -0.0030733142 -0.15893817 0.046330508 -0.086919874
000010 c8 93 9f bd e3 a2 a8 bd db 95 16 3e 88 46 28 be
       -0.07791859 -0.08234193 0.14705603 -0.16433156
000020 b7 09 be bc f9 49 c6 3d 39 ce 1e 3e 08 ef 4a bd
       -0.023197992 0.09682078 0.15508355 -0.049544364
000030 02 cc 5d 3d a2 b4 45 3d 97 11 1f bd aa f4 b7 bd
       0.054149635 0.048267968 -0.038835134 -0.08982213
000040 fa b2 02 be 2a 1a e9 bd 48 40 c9 bd 57 c0 d4 3b
       -0.12763587 -0.113819435 -0.09826714 0.0064926553
000050 a8 44 a1 3d 70 54 ae bd bc cc 92 bd 00 f1 1e 3e
       0.07874423 -0.08512199 -0.07167956 0.15521622
000060 96 9c 01 be 35 2e 0c 3e 89 53 38 3e c0 b5 5b 3d
       -0.12657389 0.13689502 0.18000616 0.053640127
000070 6a ef 0e 3e 56 7d 2f be b5 24 22 bd a0 64 f5 3d
       0.13958517 -0.17137656 -0.039585788 0.11982083

encoder.initial.block.2.weight f4 [32]
000000 4b d4 79 3f c0 cb 79 3f fe 57 7e 3f a5 d8 7b 3f
       0.9758956 0.9757652 0.99353015 0.9837745
000010 1b bf 81 3f 1d 1e 7f 3f 91 34 7a 3f 7a 22 7d 3f
       1.0136446 0.99655324 0.9773646 0.9888073
000020 f0 dd 83 3f 07 48 7a 3f 85 ae 83 3f 91 e8 7d 3f
       1.0302105 0.97766155 1.0287634 0.99182993
000030 4d 0c 7e 3f 64 de 7e 3f fc f9 80 3f 0f bc 82 3f
       0.9923752 0.9955809 1.0076289 1.0213641
000040 24 0a 83 3f 6f bd 81 3f 09 9b 83 3f ae 05 7f 3f
       1.023747 1.0135936 1.0281688 0.9961804
000050 8e 73 7a 3f 1c 7c 7c 3f f2 05 80 3f 75 1d 7a 3f
       0.9783257 0.98626876 1.0001814 0.977012
000060 87 aa 80 3f c7 94 79 3f 49 f7 7a 3f c9 e0 7d 3f
       1.0052041 0.9749264 0.9803358 0.9917112
000070 0b 64 84 3f e2 96 80 3f 3b 2f 83 3f 9a 29 83 3f
       1.0343031 1.0046046 1.0248789 1.0247071

encoder.initial.block.2.bias f4 [32]
000000 aa ea 9c 3c c3 cc d4 3c 45 cc db bd f6 3f ab 3c
       0.019154865 0.025976544 -0.10732321 0.020904522
000010 b1 38 af bd 77 5f 95 3c d2 36 34 3d af ad dc bd
       -0.08555735 0.018233998 0.043997593 -0.10775315
000020 a0 67 94 3d 1e f9 5b bd 32 a0 b7 bd f8 fc b3 bd
       0.072463274 -0.053704374 -0.08966102 -0.08788484
000030 2e 48 37 bd 66 ab b1 bd 65 b2 ca 3d 18 71 51 bc
       -0.04474657 -0.0867527 0.09897307 -0.012783311
000040 64 3b a2 3b 7f 16 ca bd 88 65 d8 bd 83 d9 1a bd
       0.0049509276 -0.09867572 -0.105662405 -0.03780509
000050 bb ea 87 bd 23 63 9a bd f3 62 ff 3b b1 35 a6 3c
       -0.06636568 -0.0753844 0.007793778 0.020289274
000060 2c 42 95 bd 43 45 65 bd ee f3 ac 3a f5 48 97 3c
       -0.07288012 -0.055974256 0.0013195255 0.018467406
000070 86 ee 08 bc 1a 0e b6 bd e4 88 d7 bd 48 62 cf bc
       -0.00835765 -0.088894084 -0.10524157 -0.025315419

encoder.initial.block.2.running_mean f4 [32]
000000 46 37 c0 3e ec 52 eb 3e 4e 25 2d bb 65 c3 4a 3f
       0.3754217 0.45961702 -0.002641994 0.792044
000010 a3 74 c9 ba fa 91 38 3f 0e 86 fe 3e 24 5f 0f 3b
       -0.0015369843 0.7209774 0.4971165 0.0021876777
000020 1d 9c bf bb 1b b6 d7 3e ee d1 92 3a 17 2e 05 bc
       -0.0058474676 0.42131123 0.001120148 -0.008128664
000030 c3 b5 4f 3d da 0f 5d b9 32 b1 15 bc f9 a6 21 bc
       0.05071045 -0.00021082108 -0.009136485 -0.00986647
000040 2f 91 62 bc 26 d1 b5 b9 f0 2c d6 bb 73 65 21 3a
       -0.01382856 -0.00034678838 -0.0065361187 0.000615678
000050 45 93 e2 ba 8d de e9 39 cf 64 72 3f 0d b5 7a 3f
       -0.0017286321 0.00044607036 0.9468507 0.9793251
000060 bc 64 35 3a d3 f6 83 3d 52 55 5d 3e 96 b7 3f 3f
       0.00069196126 0.06443562 0.21614578 0.74889505
000070 cc a8 70 bb 5d a8 e8 bb 7c b5 18 bc 19 4b 4f bb
       -0.0036721705 -0.0071001486 -0.009320613 -0.0031630455

encoder.initial.block.2.running_var f4 [32]
000000 e4 ad 8e 3a 09 bc b2 3a 85 6c 8e 39 5e c2 7c 3b
       0.0010885564 0.0013636361 0.00027165204 0.0038568
000010 59 f2 c1 38 14 95 2a 3b c5 35 a0 3a 60 ae bf 3a
       9.248098e-05 0.00260288 0.0012223056 0.0014624111
000020 ec 9d f0 35 5d f9 4b 3a f6 e7 14 3a 68 eb a5 34
       1.7927355e-06 0.00077809935 0.0005680317 3.0904926e-07
000030 3f f6 c3 3a 41 34 bd 39 eb 4b db 33 30 f4 5f 34
       0.0014950706 0.0003608782 1.02117916e-07 2.0857328e-07
000040 13 27 25 35 37 d8 e0 39 c8 d5 4d 34 9e 1e 77 3a
       6.152415e-07 0.00042885702 1.9169886e-07 0.00094268646
000050 05 13 3e 39 d3 cf 32 3a 5c 56 1d 3b 17 c7 a3 3a
       0.00018126897 0.00068211294 0.0024007773 0.0012495246
000060 3b 4d 0c 3a 67 eb 50 3a c4 e2 dc 39 06 22 25 3b
       0.00053520844 0.0007969648 0.00042130623 0.0025197282
000070 95 cf 09 36 33 79 18 34 86 5b e3 34 3f 99 02 35
       2.053542e-06 1.4200195e-07 4.2348637e-07 4.8651776e-07

encoder.block1.block.0.weight f4 [32, 37, 3, 3]
000000 52 8f e0 bc b4 7f e5 bc 3c a4 7e 3d 74 ce c0 3c
       -0.02741209 -0.028014995 0.062168345 0.023535945
000010 61 aa 18 bd 1d 58 0e bd 64 66 80 3c e7 3a 95 bb
       -0.03727186 -0.034752 0.015673824 -0.004554141
000020 b5 3d 72 3c 5f 20 15 3d bc 1b 11 3d 78 ac 85 3c
       0.01478522 0.036407825 0.03542684 0.016317591
000030 07 c6 b2 3b 41 ad 3d bc 96 55 6e bd 52 27 12 bd
       0.0054557356 -0.0115769515 -0.05818709 -0.03568203
000040 86 b6 31 bd 14 85 2c 3d bc 59 93 bd ef 40 0c bd
       -0.04338696 0.0421191 -0.0719485 -0.034241613
000050 af a5 6d bd 8b 9c 76 bd 5d 4c 0a 3d 22 29 bc bd
       -0.058019336 -0.060207885 0.033764232 -0.09187533
000060 2f 85 4e 3d 39 27 7b 3d a4 69 01 3d b7 c1 ed bc
       0.050419983 0.061316703 0.031594887 -0.029023034
000070 d5 f6 26 bd 26 2e 81 3d 82 ad 54 3d c0 a1 09 3c
       -0.04076274 0.0630763 0.051923282 0.008400381
000080 28 32 39 ba a1 c0 11 3c 75 5e 18 bd dd 2d 86 3b
       -0.0007064664 0.008896024 -0.037199456 0.004094823
000090 c5 0c 4f bd 96 ce 79 3c 1a 86 c3 bd 7f 9f c3 bc
       -0.050549287 0.015247008 -0.09547062 -0.023879765
0000a0 87 1c c3 3c 72 10 a7 bd b1 e4 9e bd eb 28 40 bc
       0.023817314 -0.081574336 -0.07758463 -0.011728506
0000b0 f4 63 a0 bd 83 79 72 bc 46 04 19 bd ef 3e 8b 3b
       -0.078315645 -0.014799478 -0.03735759 0.0042494456
0000c0 33 c4 5e bb ef 69 6b bd 2d 59 a4 3b 76 b4 69 3c
       -0.0033991456 -0.057474073 0.0050155134 0.014264217
0000d0 4d 76 2e 3c 7c e7 97 3c d4 06 60 bc e5 87 9e 3c
       0.010648322 0.018542998 -0.013673503 0.019351909
0000e0 0d ab ca bb 3b c9 08 3d be 96 52 bd d4 ba b2 3c
       -0.0061849416 0.033395033 -0.05141329 0.021817602
0000f0 a4 51 1c 3b bb 74 75 3c 65 7f 47 3d 8f f7 d7 bc
       0.0023852373 0.014981444 0.048705477 -0.026363162
000100 f4 c1 b3 3c 8a fc 84 bd cb b9 ff ba 3a d7 15 3d
       0.02194307 -0.064934805 -0.0019510327 0.03658221
000110 0d bf 98 bd 8a 85 e1 3c c8 ea 4c bd 8d 79 a1 3c
       -0.07458315 0.027529497 -0.050028592 0.01971128
000120 26 12 36 bd 52 d4 83 3d 30 2e 1d bd 6e 7e 66 bc
       -0.0444509 0.06436981 -0.038374126 -0.014068229
000130 8a fc 55 bb fe f1 2e 3c 79 ef 64 3b e6 07 1d 3c
       -0.0032651746 0.010677813 0.0034932776 0.009584403
000140 36 c5 21 3d 0b 19 f4 3c 1e 6b 3f bc ff f5 30 3d
       0.039494716 0.029797098 -0.011683254 0.04320335
000150 4d e6 67 bd d1 d7 a5 bc ef 26 09 3c 67 20 5c bc
       -0.056616116 -0.02024451 0.008371099 -0.01343546
000160 a5 06 63 3d 76 c1 f6 bc eb e1 84 bd db 4c 7d 3d
       0.05542626 -0.030121546 -0.06488403 0.061840873
000170 9d 6a 36 bd fa df 9e bb 1a 3d 45 3d 6b 7d 91 bd
       -0.044535268 -0.0048484774 0.048153974 -0.07104
000180 1c 6b 2b bd 51 3d 5e 3b d3 d6 54 bc ad 56 a8 3b
       -0.041850194 0.003391106 -0.012990671 0.0051372857
000190 ae 43 8c 3c c1 60 66 bd cb f4 3e 3d e7 46 2a bd
       0.017122116 -0.056244615 0.04662017 -0.041571524
0001a0 f6 ea 4b bd f2 4c 2c bd fd 8e 21 3d 98 da d6 bc
       -0.049784623 -0.04206557 0.039443005 -0.02622728
0001b0 aa 1e 10 3c 73 ff 8e bc 54 3a d2 bc 2f 36 86 3d
       0.008796373 -0.017455792 -0.025662579 0.065533035
0001c0 a4 de af 3c 53 f9 7a 3d 88 96 d3 bc 63 a1 9e 3c
       0.021468468 0.06127293 -0.025828615 0.019364065
0001d0 58 2c 12 3d 07 52 85 bc 20 17 1d bc 5e 1c ae bd
       0.03568682 -0.016274465 -0.009588033 -0.08501504
0001e0 89 30 40 bd 1a ac b2 3c 13 6d 4e bc 4a e5 3a 3c
       -0.046921287 0.02181058 -0.0125992475 0.011407206
0001f0 1b c6 53 bd 5d 5b 42 bb 32 86 c0 bb 4f 35 3d bd
       -0.0517026 -0.0029656508 -0.0058753723 -0.046193417
000200 14 5b 57 3d 0a 28 51 3d 8d 20 7e 3d 2b a3 44 3c
       0.052577093 0.051063575 0.06204276 0.012001793
000210 93 1f 4b 3d 36 85 a8 3c 35 ce 16 bc d8 9c e0 bd
       0.04959066 0.020571332 -0.009204437 -0.109674156
000220 75 5d 76 bc 81 77 96 3c 0b e8 87 3c 33 e1 90 3b
       -0.01503693 0.01836753 0.016590139 0.004421377
000230 1d 2f 4b 3d d8 3a 30 bd 4a 73 be bc 0d 4f da bc
       0.049605478 -0.043024868 -0.023248333 -0.026649022
000240 32 88 1a bc 0c b9 9e bc af dc d2 3c 8d ba 03 3d
       -0.009431886 -0.019375347 0.025739996 0.03216033
000250 94 0a af bc 98 80 30 3d d4 46 01 3c 77 38 14 ba
       -0.021367349 0.043091387 0.007890422 -0.0005654166
000260 5f 34 28 bd 03 2b ec bc 29 a1 6f 3d c9 b1 92 bc
       -0.04106557 -0.028829103 0.058503304 -0.01790704
000270 01 62 7f 3d be 6b 80 3b c7 18 8c bc 03 4e 8e bd
       0.062349323 0.003919094 -0.017101659 -0.06948473
000280 ea d7 70 3d cd 89 c1 3b 02 be e3 bd 36 ef f4 bb
       0.05879966 0.0059063197 -0.111202255 -0.007474805
000290 ed 11 a6 bd b6 83 29 3b 05 86 e8 3c 52 df 1a bd
       -0.08108888 0.002586586 0.028384218 -0.03781063
0002a0 17 cd 37 bb fe 8a 01 3c ce 43 1e 3d ae f2 2f bd
       -0.0028045827 0.0079066735 0.038638882 -0.042956047
0002b0 35 d3 62 bd 0e 61 d8 bc 42 ff 53 3d dd 44 00 3d
       -0.055377204 -0.026413467 0.051757105 0.031315673
0002c0 84 7f 24 3d b7 6b d9 3b 2b 6c a4 3c cc 3c e7 bc
       0.04016067 0.006635155 0.02007111 -0.028227232
0002d0 4e 4b 1a bc 8e 74 08 3d 6b 5d 1b 3c 09 d2 cb bc
       -0.009417368 0.03331428 0.009482722 -0.024880426
0002e0 99 c9 1c 3d 64 3e 0a 3c 95 9a 82 3c 81 5a 1d 3d
       0.038278196 0.008437727 0.015942851 0.03841639
0002f0 1d c3 ac bb cf c4 83 bd df 97 03 3c 20 e6 b1 bc
       -0.0052722828 -0.06434023 0.008031814 -0.021716177
000300 c8 66 86 bb c9 4b 69 3d 9a a4 38 bb bc 12 14 3c
       -0.004101608 0.05695704 -0.0028174282 0.00903767
000310 63 d7 2a bc a6 7c 90 bd 7a 01 5c 3d 26 34 56 bd
       -0.010427329 -0.07055025 0.053712346 -0.052295826
000320 1f 87 5e 3d 3b 8b 8b 3d 92 d7 19 3d be eb 85 3c
       0.05432808 0.068136655 0.0375591 0.016347762
000330 a9 4c 06 bd 6f 09 e8 b9 e0 23 77 39 85 6e d8 3c
       -0.032787953 -0.00044257517 0.0002356912 0.026419887
000340 5e 2c 16 3b 64 57 20 3d ff 1d d3 bc a5 1b 9b bd
       0.0022914628 0.039145842 -0.02577114 -0.07573632
000350 87 b0 39 bd bd d7 85 3d 4b 0e 23 bd e3 97 59 3d
       -0.045334365 0.065352894 -0.039808553 0.053123366
000360 20 47 9c 3c 31 6e 47 bd 99 b8 ae bd bc a5 f2 3c
       0.019076884 -0.04868907 -0.08531303 0.029620044
000370 53 ec a4 3b 4f dc 40 3c 3f 8d 49 bd f8 3d 92 bd
       0.005033055 0.011771276 -0.04920697 -0.07140726
000380 79 3b 9c bc 3a c5 5c 3c 28 4e 84 3c 79 18 80 3c
       -0.019071328 0.013474757 0.016150549 0.01563667
000390 c3 cf 91 3c 46 d9 2b bb 21 4a 81 bc 64 d0 0a bd
       0.017799264 -0.0026222034 -0.015782418 -0.033890143
0003a0 42 7b 41 3c dc 3f 37 bd 76 d9 78 bc bd 16 ac bc
       0.011809172 -0.044738635 -0.0151885655 -0.021006936
0003b0 b7 e0 8b 3c 23 4a 18 bd 52 c9 c7 bc 10 58 99 bc
       0.017074926 -0.037180077 -0.02438799 -0.01871875
0003c0 67 38 01 3d 06 41 33 3d 7c 53 94 bc 81 24 42 bd
       0.03154793 0.043763183 -0.018106215 -0.047398094
0003d0 f9 54 b6 3b 97 60 09 3c bf e2 32 bd 9d 30 94 bd
       0.0055643287 0.008384845 -0.043673273 -0.07235835
0003e0 19 7c 86 bc df b5 3b 3d 93 e7 16 3d 97 b9 2a bd
       -0.016416596 0.045827743 0.03684194 -0.0416809
0003f0 d3 b9 b0 bd f7 4f d6 3c 9e 80 d1 bc 62 4d 05 3d
       -0.08629193 0.026161177 -0.025574025 0.0325445

encoder.block1.block.0.bias f4 [32]
000000 45 6a 91 3d 37 f6 9b bd b3 7f bb bc 39 de 8f bd
       0.071003474 -0.07615321 -0.02288804 -0.070248075
000010 e6 ab 8a bd a2 68 e4 3b fa 1d 2c bd e5 a4 a7 bc
       -0.06771068 0.006970481 -0.042020775 -0.02046437
000020 6d 13 00 bc b6 65 f0 bc 2b 02 81 bc 6a 22 96 3d
       -0.0078171315 -0.029345375 -0.015748104 0.07330783
000030 5f 73 0a bd e9 db b3 bd f0 95 e9 bb 40 f7 5e bd
       -0.033801433 -0.08782179 -0.0071284696 -0.054435015
000040 ce f0 d2 3c 07 65 88 bd 75 11 40 3d 1e a4 9a bd
       0.02574959 -0.066598944 0.04689165 -0.07550834
000050 48 34 77 bd d5 43 16 3d b7 6d 9f 3c 35 54 8e 3d
       -0.060352594 0.036685783 0.019461496 0.06949655
000060 5c a9 1b be 36 7a 94 3d 9a e3 79 bd cb 85 61 bc
       -0.15201324 0.072498724 -0.061008073 -0.013764809
000070 16 90 ab bd c1 7c 6a bc 8d 4e 11 bc c4 a1 fa bb
       -0.083770916 -0.01431197 -0.008868826 -0.0076486785

encoder.block1.block.2.weight f4 [32]
000000 6f 84 78 3f 04 b3 80 3f a4 6f 7c 3f e0 16 80 3f
       0.9707708 1.0054631 0.9860785 1.0006981
000010 6a 24 80 3f c4 49 79 3f ad 8a 7f 3f 37 d1 76 3f
       1.0011113 0.9737818 0.9982098 0.96412987
000020 cc 34 7f 3f f7 e6 79 3f 94 e4 7a 3f ed c0 7c 3f
       0.99689937 0.9761805 0.9800503 0.9873188
000030 32 c4 7e 3f 03 93 79 3f f3 57 7c 3f 65 76 80 3f
       0.9951812 0.9748995 0.985717 1.0036131
000040 64 58 78 3f a8 31 80 3f c8 31 79 3f 34 b3 7e 3f
       0.97009873 1.0015154 0.97341585 0.9949219
000050 23 2b 7f 3f 00 55 78 3f 40 99 78 3f f4 28 74 3f
       0.99675196 0.970047 0.9710884 0.9537499
000060 c4 86 86 3f 26 88 7a 3f 15 0c 83 3f 40 ed 76 3f
       1.0509877 0.97863996 1.0238062 0.96455765
000070 0b 8b 7e 3f 44 b5 82 3f bf 56 7a 3f 4d 23 79 3f
       0.9943091 1.0211568 0.97788614 0.9731949

encoder.block1.block.2.bias f4 [32]
000000 76 b0 7d bd 2f 15 3b bd 25 91 01 bd c4 5c 73 bd
       -0.061935864 -0.0456745 -0.03163256 -0.05941464
000010 80 f0 61 bd c9 33 9e 3c 6f 45 6d bd ee b6 61 bd
       -0.055161 0.019311802 -0.057927545 -0.055106096
000020 23 0f 95 bd 44 0f 72 bd d1 1a 6c bd 88 26 23 3d
       -0.07278278 -0.05909659 -0.05764276 0.03983167
000030 fd f7 18 bc 2a 77 61 bd 29 de 5b bd cf 7a f4 39
       -0.009336469 -0.055045284 -0.053678665 0.00046630806
000040 ac 96 ca bd bf 30 bf bb 5c 9c 63 bd ce d6 84 bd
       -0.0989202 -0.0058346684 -0.055569038 -0.06486283
000050 85 e4 8c bd 46 ec 2f bd 69 a6 4e 3c 96 1e 65 bd
       -0.06879524 -0.042949937 0.012612917 -0.055937372
000060 39 26 83 bd 07 bb f1 bc 5d 40 4a 3d bf b0 74 3d
       -0.06403775 -0.029508127 0.049377788 0.05973887
000070 db dd 12 bd c6 e5 a3 bd 8d 81 88 bd e2 4d b9 bb
       -0.03585611 -0.0800281 -0.06665335 -0.0056550363

encoder.block1.block.2.running_mean f4 [32]
000000 67 08 0d 3f 1e be 22 3c 7e 4c f4 3c 5b d1 29 3d
       0.55090946 0.009933023 0.02982163 0.041459423
000010 68 9c 34 3d f3 1b b4 3e d4 d0 7d 3d 9f b0 ae 3e
       0.044094473 0.35177574 0.061966732 0.34119126
000020 ac f2 45 3d 7e 1d b8 3c f7 34 8a 3e 64 00 f6 3e
       0.048327133 0.022475 0.26993534 0.48047173
000030 e3 21 2a 3d 50 2e 3b 3b 55 70 a6 3d ef c8 79 3c
       0.041536223 0.002856154 0.081268944 0.01524566
000040 26 27 3f 3f 81 fb 9e 3c 97 20 a9 3e 04 59 bb 3c
       0.7466911 0.019407036 0.33032677 0.022869594
000050 9d 0f c6 3c e0 59 0d 3f 6e a5 bd 3e ea 6c ad 3e
       0.024177367 0.55215263 0.37040275 0.33872157
000060 21 f0 d9 bb ed 05 ea 3e 05 4f 9e 3c bc b4 07 3f
       -0.00665094 0.45707646 0.019324789 0.53010154
000070 16 24 35 3d 28 82 ea 3a d8 ec da 3e ba 84 e7 3e
       0.044223867 0.0017891573 0.42758822 0.4521845

encoder.block1.block.2.running_var f4 [32]
000000 53 40 61 3f 3e c0 09 3d f9 2b 2c 3e f0 a1 52 3e
       0.87988776 0.033630602 0.16813649 0.20569587
000010 c9 4e 3e 3e f1 6c 89 3e 73 d7 68 3e a3 f5 aa 3e
       0.18584742 0.26840928 0.22738437 0.3339053
000020 d6 0f 2b 3e 3e c8 bc 3d 43 64 35 3d 32 9e 0b 3f
       0.1670526 0.09217881 0.04428507 0.5453826
000030 94 e3 4e 3e 28 a8 2e 3c 83 93 b3 3e 8e 4b 86 3d
       0.20204002 0.010660209 0.3507348 0.0655738
000040 63 0c 8a 3e 4a 38 cb 3d e8 75 19 3e 5b f9 2c 3e
       0.26962575 0.09922846 0.14986384 0.16891997
000050 98 4f d6 3d 41 97 db 3d e2 e0 9b 3e b7 c9 9d 3e
       0.104644 0.10722209 0.3044501 0.3081796
000060 b9 1b ed 3a 0a 24 a8 3d c4 a5 db 3d d2 5a 94 3e
       0.0018089927 0.08209999 0.10724977 0.2897554
000070 93 1b eb 3d 7f fb c9 3c b1 9e 7b 3e 81 53 a9 3e
       0.11479869 0.024656055 0.24572255 0.3307152

encoder.block2.block.0.weight f4 [32, 32, 3, 3]
000000 e4 04 91 bc 22 9f 8c bc f1 c8 24 3d 01 61 6e bd
       -0.017702527 -0.017165724 0.040230695 -0.05819798
000010 33 b0 2c 3d 20 37 be bc e8 ed c3 bb be 8e 18 3d
       0.042160224 -0.023219645 -0.0059792884 0.037245505
000020 f8 4b 04 3d 55 46 21 3c 9f fb 0b bd cf f6 05 bd
       0.032299012 0.009843429 -0.03417551 -0.03270608
000030 fa 53 83 3c 0c be 65 3d fc b7 04 3c 51 71 39 bd
       0.016031254 0.056089446 0.008100506 -0.045274083
000040 ff 43 dd bc f4 19 3d bd 49 57 1d 3d 66 51 d5 bc
       -0.027009962 -0.04616733 0.03841332 -0.02603979
000050 1a a8 ff 3c a1 55 f0 3c 66 96 2d bd e6 d0 b7 3c
       0.031208087 0.029337706 -0.04237976 0.022438478
000060 8d 3b 3c 3d ff 5b 94 bb 2d a2 39 3c c2 4a 5b bc
       0.04595523 -0.0045275684 0.01133017 -0.013384523
000070 83 61 e9 bc 4a 29 eb bc 9c 6e 9c 3d 1b 1c 82 3c
       -0.02848888 -0.028706212 0.076382846 0.015882542
000080 fe b2 37 bd f3 a8 6f 3d 39 e6 3c bd 66 ff ff 3b
       -0.044848435 0.058510732 -0.046117995 0.0078124283
000090 97 db 43 bd 2b 4a bb 3c 20 bd 1b bd e5 93 a9 3c
       -0.04781684 0.022862514 -0.03802216 0.020700404
0000a0 66 dd ac bb 3c 1b 00 bd ef 78 fb bc 61 5d 2e 39
       -0.005275416 -0.031275973 -0.030697314 0.0001662872
0000b0 3a 82 0c bd 2d bc 2c bd 0a 47 41 3b 61 3f 22 3d
       -0.03430388 -0.042171646 0.0029491805 0.039611224
0000c0 64 d6 9b bc f1 77 d2 bb 46 04 fe 3c b2 10 04 bd
       -0.019023128 -0.0064229895 0.031007897 -0.032242484
0000d0 01 3a ab bb ee c0 a5 3c 0b ac 9b 3c c8 ce e9 3c
       -0.0052254205 0.020233598 0.019002935 0.028540984
0000e0 e1 8d 94 3d 0d f4 15 bd d2 d8 d7 3c 51 dc a1 3c
       0.07253624 -0.036609698 0.026348505 0.019758375
0000f0 69 88 69 3c fb b3 87 3c 74 92 44 bd 2e 41 01 bc
       0.014253714 0.016565314 -0.04799123 -0.007889075
000100 77 81 4d bc b3 45 41 3d 94 36 f0 bb 13 6a 13 bd
       -0.012543074 0.04718561 -0.007330725 -0.035989832
000110 e5 a5 8c 3c 58 0b 1f bd 3a 7e 4d 3d 4b 80 3c bd
       0.017168948 -0.038829178 0.050169207 -0.046020787
000120 54 3c 7c bc dc 6b e4 3c 23 d9 6d 3d e5 d6 94 3c
       -0.015395243 0.027883463 0.058068406 0.018168876
000130 5c b8 43 3d 60 00 70 3d 09 5e 88 bc a8 32 c0 bb
       0.04778324 0.058594108 -0.016646402 -0.0058654137
000140 e7 7d 41 bd f5 f9 33 bd a4 70 db 3c 6a 8d 8a bb
       -0.04723921 -0.04393955 0.02678711 -0.0042282837
000150 be a6 6d bd d1 58 de 3c 45 e8 78 bc 66 f9 ea bc
       -0.058020346 0.02714196 -0.015192096 -0.028683376
000160 07 e4 0b 3c 18 4e 15 3c aa 27 ec bc 9c 9b 85 3c
       0.008538253 0.009112857 -0.028827507 0.016309552
000170 08 38 3a 3d ae 42 7f 3d 29 2b 29 3d 4e ea 0b 3d
       0.04546359 0.06231945 0.041300926 0.034158997
000180 6a 6b ce bc 53 c3 be bc 06 e8 a9 bb 70 3e 92 bd
       -0.025197703 -0.023286497 -0.00518513 -0.07140815
000190 da 91 2c 3d e3 ed 3b 3c fc db 85 3c d0 f2 9c bc
       0.042131282 0.011470291 0.016340248 -0.01915875
0001a0 f2 7b 15 bc c4 41 c5 3c a7 57 bf 3c 64 09 5d bd
       -0.009123789 0.024079211 0.023357226 -0.053964034
0001b0 3e d4 66 3c 84 c0 4e bc 9d 5c d9 3c c6 ad 13 bd
       0.014088688 -0.0126191415 0.02653342 -0.036054395
0001c0 00 b2 83 bc ce 3b 4f bd 28 23 2f bd 3a 6e 10 bb
       -0.016076088 -0.050594144 -0.042758137 -0.0022038356
0001d0 bd b1 1e ba 1c 0b 00 3c 0e d8 3a bd 8b 51 e2 3b
       -0.0006053707 0.007815149 -0.045616202 0.0069066933
0001e0 81 15 23 bc d2 f6 1a bc ff cc 88 3c 89 3e 87 bc
       -0.009953857 -0.009458261 0.016699312 -0.016509311
0001f0 3a 0c 64 3d f6 01 0f bc 94 21 1a bc 25 28 11 3d
       0.055675723 -0.008728495 -0.00940742 0.035438675
000200 ec fd 3e 3c 0d 1f 8a 3c b7 d7 68 bc b7 59 81 3b
       0.011657219 0.01686051 -0.014211587 0.0039474624
000210 30 fd f5 bc 77 f8 68 3d 18 a2 3f bc 11 dd f4 3c
       -0.030027956 0.05687758 -0.011696361 0.029890569
000220 af e6 97 bc 16 56 d8 bc 27 ff 82 bc c5 50 86 bc
       -0.018542616 -0.026408236 -0.015990807 -0.016395936
000230 68 78 38 bd 86 75 5f bd 00 ec 16 3d eb 8e 5c bb
       -0.045036703 -0.05455544 0.03684616 -0.0033654522
000240 47 87 15 3d 1b 6a be bc ef 55 0e bc a7 23 42 3a
       0.036505964 -0.023243954 -0.00868748 0.00074058253
000250 3b 5f 33 3d 99 90 c3 3c 76 ec 2f 3d a7 03 f8 bb
       0.04379199 0.02387266 0.042950116 -0.007568795
000260 c1 84 16 3d 5c 9b 2c 3d b3 8e aa bc 76 45 b9 bc
       0.036747698 0.04214035 -0.020819997 -0.02261613
000270 10 a8 00 3d 3f d0 02 bd d9 25 74 3c 87 06 23 bc
       0.031410277 -0.03193688 0.014901602 -0.009950287
000280 fb d5 83 3b 8b d3 5a bc 18 33 f0 3c 09 87 7f bd
       0.004023311 -0.0133561 0.029321238 -0.06238464
000290 1d de 3d 3c 8c dd 50 bd 6b 0d 45 bb 95 6d 28 bd
       0.0115886 -0.050992534 -0.0030067812 -0.04112013
0002a0 61 94 2e 3d 33 3c 60 bc 83 f5 76 bb e3 01 7c 3c
       0.042621974 -0.013686228 -0.0037682957 0.015381309
0002b0 37 b6 0a 3d 32 57 e9 bc 67 5a 4e bb 6d 20 66 3c
       0.03386518 -0.02848396 -0.003148699 0.014045817
0002c0 f7 47 a1 3c a0 e9 8e 3d 29 c2 97 3d 54 b4 a1 bc
       0.019687636 0.06978154 0.0741008 -0.019739307
0002d0 3e 9a 25 bd e9 93 0d 3c 3a 95 17 3d 87 dd 9e bc
       -0.0404303 0.008641222 0.037007548 -0.019392742
0002e0 d0 3a 33 bd 2c 5c d0 3c 48 b9 df 3c e9 2f 70 3c
       -0.04375726 0.025434576 0.027310029 0.01465986
0002f0 2f 75 42 3d af 85 85 3d 7d 44 4a 3d f4 3d 85 3d
       0.047475036 0.06519639 0.04938172 0.06505957
000300 2f 75 7e 3d 81 bf 86 3d 79 43 8a bd 20 94 2e bd
       0.062123474 0.06579495 -0.06751151 -0.04262173
000310 2a 3c d6 3c 45 3d 31 3d 55 d6 76 3d 67 e0 fd 3b
       0.026151735 0.04327132 0.060262997 0.007747698
000320 85 64 18 3c 2c d6 17 bc f0 70 bd 3c f3 24 0e 3d
       0.0093013095 -0.009267371 0.023125142 0.034703206
000330 5b 91 b0 bc 30 24 44 bc c5 5c 6c bc 36 e8 58 bd
       -0.021553686 -0.011971518 -0.014426415 -0.05295583
000340 d6 63 38 bc ca 6d db 3c 6c 53 45 ba 3a 6d da 3c
       -0.0112542715 0.02678575 -0.00075273844 0.026663411
000350 ad 0b cd 3c 77 a0 1c 3c 16 e2 bc 3c 01 78 d8 bb
       0.025029982 0.009559742 0.023057025 -0.0066061025
000360 76 0a 2e 3d 87 18 1d bb 0a c3 64 3d 4a 9a a0 bd
       0.042490445 -0.0023970918 0.055850066 -0.07841928
000370 db 43 35 bc d0 fd 3e 3d 96 31 45 3d ea 07 6e 3d
       -0.011063541 0.046628773 0.048142992 0.058113016
000380 7b ca 66 3c b3 00 00 37 8e 30 0d 3d b8 1a d0 3d
       0.014086361 7.629557e-06 0.034470133 0.10161346
000390 dc fb 16 3d 4f fe 67 bc ef 21 de 3c b3 21 83 bc
       0.036861286 -0.014159753 0.02711579 -0.01600728
0003a0 5d 13 52 3d 9e 75 14 bc 82 c2 f9 bc 5b e3 17 3d
       0.051287998 -0.009061245 -0.030488256 0.037082057
0003b0 0a 5b 1d bc 6b ed 13 bd 36 60 3b 3d 22 46 8e 3c
       -0.009604225 -0.03611509 0.04574605 0.017367426
0003c0 1e 24 26 3d 0c d7 7b bd c4 5c 5e 3c c6 b9 34 bc
       0.040561788 -0.06148438 0.013571922 -0.01103062
0003d0 fb 32 c3 bd d0 bf 8a bc e0 55 93 bd 1a d7 b0 bc
       -0.09531208 -0.016937166 -0.07194114 -0.021586943
0003e0 d9 bd a6 bd c1 e2 69 bd ab 35 76 bd 9d 74 07 3d
       -0.08141679 -0.057101015 -0.060109776 0.033070195
0003f0 f8 1a 06 bc bc c4 15 bd 18 f3 f6 bc 75 b4 4c 3c
       -0.008185141 -0.036564574 -0.030145213 0.012494196

encoder.block2.block.0.bias f4 [32]
000000 c3 54 8c bd 79 bc f3 bc f9 d7 67 bd 8a 3f da bd
       -0.068521045 -0.029752957 -0.056602452 -0.1065665
000010 35 e9 90 bd 37 90 81 bd a8 86 cc 3d 75 4c ed bc
       -0.07075731 -0.06326335 0.09986621 -0.028967122
000020 05 0a cc bd 79 46 b3 3d 9d 2d 32 bb 6d f0 c4 3d
       -0.099628486 0.08753676 -0.0027187832 0.0961617
000030 a5 98 9c bc dd 69 89 3c 0a 40 58 3d 88 96 c9 bd
       -0.019115755 0.016774112 0.052795447 -0.09843165
000040 13 cd 39 3d a6 59 88 3d 91 6e 93 3d 77 27 58 3d
       0.04536159 0.06657724 0.07198823 0.05277201
000050 09 a8 df 3c 85 4d 92 bc d4 64 8a bd ee 0f 02 be
       0.027301805 -0.01785923 -0.06757513 -0.12701389
000060 5b 9c a2 bd b8 67 74 3d ab 7a 0b bd 55 db ae 3d
       -0.07939979 0.059669226 -0.034052532 0.08537928
000070 43 e5 6f 3c 60 59 46 3d 0e 9d 9d bd 24 ca a3 bc
       0.014642063 0.04842508 -0.076959714 -0.01999385

encoder.block2.block.2.weight f4 [32]
000000 03 e3 85 3f 63 eb 85 3f d5 62 82 3f 99 24 85 3f
       1.0459903 1.0462459 1.0186411 1.0401794
000010 6e ff 84 3f 2b 27 86 3f fc 9e 85 3f 20 41 82 3f
       1.0390451 1.0480703 1.0439143 1.0176125
000020 32 35 85 3f b6 27 84 3f 7d cd 86 3f a6 5d 85 3f
       1.0406859 1.0324619 1.053146 1.0419204
000030 03 20 84 3f d8 e2 86 3f 3e e8 86 3f 9a 80 85 3f
       1.0322269 1.0537977 1.0539625 1.0429871
000040 0e 0a 85 3f a4 a4 84 3f fd ac 84 3f 11 0a 86 3f
       1.0393693 1.0362744 1.0365292 1.0471822
000050 1f 23 80 3f dc a4 83 3f df 75 82 3f 40 fb 83 3f
       1.0010718 1.0284686 1.0192221 1.031105
000060 5f 06 86 3f c6 f2 83 3f 04 fd 82 3f cb 9e 84 3f
       1.0470694 1.0308464 1.0233464 1.036096
000070 cb 02 85 3f cf e5 85 3f 17 25 85 3f 2e bb 82 3f
       1.0391477 1.0460757 1.0401944 1.0213373

encoder.block2.block.2.bias f4 [32]
000000 cd 2b f0 bd 7d 7a e2 bd 7e 60 8c 3b 67 93 d8 bd
       -0.11727104 -0.11058519 0.0042839637 -0.1057499
000010 70 8a ff bd 75 80 0c be ed d5 e3 bd da e0 c3 bd
       -0.12477577 -0.13720877 -0.111247875 -0.095643714
000020 bf c2 04 be a2 d8 e4 bd ca 41 c6 bd 56 62 f0 bd
       -0.12964915 -0.11174132 -0.09680517 -0.11737506
000030 f5 15 de bd 17 b1 02 be ba 69 e9 bd 37 66 e8 bd
       -0.10844032 -0.12762867 -0.11397119 -0.11347621
000040 f5 87 05 be 7b c2 06 be 15 bd d9 bd a7 60 01 be
       -0.13040145 -0.13160126 -0.10631768 -0.12634526
000050 18 31 c0 bd 4d 1d c7 bd 7c 2b f1 bd 6c 79 d3 bd
       -0.09384364 -0.097223856 -0.11775872 -0.10325894
000060 a3 18 dd bd 2c ff db bd 3e ae da bd 59 81 0a be
       -0.10795715 -0.107420295 -0.10677765 -0.13525905
000070 2a a8 c8 bd 5f 8c ed bd 3f 24 ea bd 93 ec f8 bd
       -0.097977 -0.11599039 -0.11432695 -0.12154498

encoder.block2.block.2.running_mean f4 [32]
000000 d2 22 6c 3d 71 ac 68 3d 23 ab 94 3d 2c f2 76 3d
       0.057650395 0.056805078 0.07259204 0.060289547
000010 f4 48 82 3d 95 b9 93 3d ed 1d b3 3e 12 c6 ca 3d
       0.06361571 0.07213131 0.3498377 0.0990106
000020 72 1f 94 3d d9 23 b3 3e 84 93 b5 3e e8 ba c8 3e
       0.0723256 0.34988287 0.35464108 0.39205098
000030 62 06 ad 3d 9a ef ba 3e 61 88 91 3e b7 1f 36 3d
       0.08448483 0.36510926 0.2842436 0.04446384
000040 65 51 a2 3e 63 b3 99 3e ee 52 98 3e af 86 b0 3e
       0.31702724 0.30019674 0.2975077 0.34477755
000050 f4 c1 94 3e 7c 7b a7 3d 22 b3 c1 3d 2c d6 1f 3d
       0.29054224 0.0817785 0.09457995 0.03902261
000060 2a 16 51 3d 62 47 9f 3e 28 58 02 3e e6 48 97 3e
       0.051046528 0.31109148 0.12728941 0.29547805
000070 ee 31 97 3e dd cb a1 3e 55 31 a4 3d d1 9a e2 3d
       0.2953028 0.31600848 0.08017222 0.11064685

encoder.block2.block.2.running_var f4 [32]
000000 1e 79 92 3e eb 60 bc 3e fc 69 cd 3e 2f 16 ab 3e
       0.2860803 0.36792693 0.40119922 0.33415362
000010 59 b2 ad 3e 05 87 de 3e b4 59 5a 3e 73 1c 38 3f
       0.3392513 0.43462387 0.21323282 0.7191841
000020 dd 75 11 3f 40 b4 17 3e d6 5d a6 3d d1 a2 92 3d
       0.5682047 0.14814854 0.081233665 0.07159961
000030 0a 74 07 3f 55 cc 51 3d df 18 b4 3e 6d 3b a6 3e
       0.52911437 0.051220257 0.35175225 0.32467213
000040 c0 0d dc 3d 8d db eb 3c 52 ff f4 3e 0f db e9 3d
       0.1074481 0.028791213 0.47851044 0.11418735
000050 86 e3 ad 3d 8b 87 3c 3f 14 59 43 3f 7f f6 48 3e
       0.08490662 0.7364432 0.763078 0.19625281
000060 8c 62 99 3e f1 36 4a 3e 4d fc 90 3f d8 9a b9 3d
       0.29957998 0.19747521 1.1326996 0.09062737
000070 d3 04 ff 3d 95 1e 6e 3d 66 28 e2 3e f4 ab 67 3f
       0.12452092 0.058134634 0.44171447 0.90496755

encoder.final.block.0.weight f4 [3, 32, 3, 3]
000000 9e 36 b3 3d ae 95 95 3d 82 a0 0f 3d 59 1f cb bc
       0.08750652 0.0730394 0.03506518 -0.024795221
000010 17 7b 99 3d e6 5b 85 3c 4e c3 96 bc 77 a0 58 bc
       0.07494181 0.016279172 -0.018403675 -0.013221852
000020 c0 a0 b2 3d 02 39 d4 3c fe 67 4f 3d 38 66 dc 3b
       0.08722067 0.02590609 0.050636284 0.0067260526
000030 f7 06 b9 3d a2 c8 86 3d b3 e1 43 3d 1e 64 df 3d
       0.090345316 0.065812364 0.047822665 0.10907768
000040 70 c1 9b 3c 1a 21 f2 3c 8e 35 0f bd c0 76 8a bd
       0.019013137 0.0295568 -0.034963183 -0.06760931
000050 a4 79 55 bd f3 54 d0 3b 01 7f 60 bd 4d 71 47 bd
       -0.05211796 0.006357783 -0.05480862 -0.048692036
000060 67 2b 45 3c 69 a4 66 bd fb 45 46 bc 79 c8 4e 3c
       0.012034274 -0.056309137 -0.012101646 0.012621039
000070 90 2a a5 3c 5f b4 81 3d 3f 32 96 3d cf bb 94 3d
       0.020161897 0.06333231 0.073338024 0.07262384
000080 ff 6c cf 3d 61 86 a2 3c 67 72 42 bc 9b 47 d0 bb
       0.10128211 0.019839467 -0.011868096 -0.0063561923
000090 fb b4 05 bc d3 80 08 bd 6a c5 80 3c 81 c3 51 3d
       -0.008160825 -0.03332598 0.015719134 0.051211838
0000a0 17 f3 89 3d 6c 4d dd b9 30 4a d9 3c ab 60 e9 bc
       0.06735819 -0.0004221009 0.026524633 -0.028488478
0000b0 7a f7 6a 3d 44 ea 04 3d ce 80 5d 3c b7 b1 1e bd
       0.05736492 0.032449976 0.013519479 -0.0387437
0000c0 07 6b b8 3d 7a 4d 41 3d 49 a1 5c 3d b2 62 7e bc
       0.09004789 0.047193028 0.05386475 -0.0155264605
0000d0 dc 48 8f 3d cf 89 6f 3d 7e 99 9e 3d 13 cc aa 3d
       0.06996319 0.058481034 0.0774412 0.08339705
0000e0 68 21 e8 3c ae b6 ba 3d 47 3f 7b 3d 16 b0 cb 3d
       0.028336242 0.09116875 0.061339643 0.09945695
0000f0 a9 01 68 3c dc db 2c bd 6d ca d2 bb a9 79 a4 3c
       0.014160552 -0.04220186 -0.0064328224 0.020077543
000100 79 15 f3 3c 13 17 bb bc a9 88 9e 3c b8 06 58 3d
       0.029673325 -0.022838151 0.019352274 0.052740782
000110 9f 98 96 3d 35 02 ac 3d 6c ac 12 bc 5f 99 13 3d
       0.07353329 0.083988585 -0.008952241 0.036034938
000120 bb 8a 5f 3d b2 8f d2 3d ce 51 73 3d 5b 14 a8 3d
       0.054575663 0.10281314 0.059404187 0.082070075
000130 40 d4 79 bc db f8 6d 3c 28 b8 82 3d 80 12 32 3d
       -0.015248358 0.014524664 0.06382781 0.043474674
000140 ff 81 ba bc fa 96 c9 3b 45 ca 11 3d 81 c2 b3 3d
       -0.022767065 0.006152031 0.03559329 0.08777333
000150 a0 6e 5b 3c 93 ec 7f 3d 65 e0 0d 3d 44 94 8c 3d
       0.013393074 0.062481474 0.034637827 0.06864217
000160 c3 72 91 3d ab 93 ae 3c f1 c6 a3 bc 73 6c 54 3d
       0.07101967 0.021310648 -0.019992324 0.051861238
000170 72 a6 08 bd d8 84 b9 3d f9 2b 91 3d c3 d7 25 3d
       -0.03336186 0.09058541 0.07088465 0.04048897
000180 1a b4 97 3c 54 0a 8e bb 05 65 6a 3d 3d 0a 08 bd
       0.018518496 -0.0043347273 0.057225246 -0.03321289
000190 78 25 90 3d b0 4d 36 3c f7 f6 8b 3b 00 49 d6 3c
       0.070383966 0.011126921 0.004271384 0.026157856
0001a0 01 52 e7 3d 72 f2 e0 3b aa 36 c6 bc 90 fb 45 bd
       0.11294938 0.0068648392 -0.024195988 -0.04833561
0001b0 aa d8 af 3d ec ca fb bb 07 1c 4d 3c 7e 0f 83 3d
       0.08586247 -0.0076841023 0.012518889 0.06399439
0001c0 b1 76 d5 3b ef 19 95 3a 19 28 c3 3d 22 59 32 3d
       0.0065143933 0.0011375527 0.095291324 0.043542035
0001d0 85 e5 da 3c 70 d4 92 bc b6 c3 b9 3d b4 96 ab 3c
       0.026720772 -0.017923564 0.09070532 0.020945884
0001e0 a1 09 99 bc 97 c5 63 bc fb 88 de 3b 90 c4 52 bc
       -0.01868135 -0.01390209 0.0067912317 -0.012864247
0001f0 0f 29 21 bb 90 20 8c 3d 99 74 1b 3d 18 e1 f5 3d
       -0.0024591123 0.06842148 0.037952993 0.12005824
000200 61 0b 8a 3d c6 d7 0c 3d ff 89 a3 3d 36 94 31 3c
       0.067404516 0.034385465 0.07985305 0.010838559
000210 a9 99 51 3d b6 ba 70 3d 5f bc 93 3d 33 35 89 3d
       0.051171932 0.05877181 0.07213663 0.066996
000220 0e a0 c1 3d 6e c3 3a 3d 77 f6 97 3d 6d a5 7a 3d
       0.09454356 0.045596533 0.07420056 0.06119292
000230 99 de b1 3d 24 d3 c5 3a b4 b0 54 3d 6f 0c ae 3c
       0.08685035 0.0015092832 0.05192633 0.021246163
000240 9e 6c 8a bd 25 72 3c bb 4f 8c 29 bb 54 15 cc bc
       -0.06758998 -0.002875456 -0.0025870984 -0.024912514
000250 96 8b 82 bd 1f 67 b8 3c a6 82 11 3d a4 bb 41 bd
       -0.0637428 0.02251011 0.035524987 -0.04729809
000260 14 df 43 3d 1c 06 2f 3d 26 24 06 bb 7b 70 fb 3c
       0.047820166 0.042730436 -0.0020468323 0.030693283
000270 91 fd fd 3b 9d 43 d6 3d 1e 68 27 3c d9 b3 91 3d
       0.0077511747 0.10462115 0.010217695 0.07114381
000280 05 5b 93 3d 73 89 20 bc 12 6f 94 3d b7 f8 0b bd
       0.07195095 -0.009798395 0.072477475 -0.03417274
000290 2a 56 34 bd e6 be 90 3d e4 ad 95 3d 29 66 9f 3d
       -0.044027485 0.07067661 0.07308558 0.077831574
0002a0 80 1a ab 3c 27 25 64 3d 6d 40 a2 3d e9 d9 fd bc
       0.02088666 0.055699494 0.079224445 -0.030987697
0002b0 fc 42 23 bd 55 53 46 3d 88 02 d2 3d c2 be e6 3d
       -0.039858803 0.048419315 0.10254389 0.11266853
0002c0 70 ed 3a 3d 42 16 9c 3b c9 50 c4 bb 2a 6f 6f bc
       0.045636594 0.0047633955 -0.0059910757 -0.014613906
0002d0 71 38 9a 3d 8b c4 2a 3c 3e 90 23 3d 1e 42 72 3d
       0.075302966 0.010422836 0.039932482 0.059145086
0002e0 f1 8d fd 3c 07 79 f5 3b 93 e5 45 3d 4f d2 18 bd
       0.030951472 0.007491234 0.048314642 -0.03730994
0002f0 ff e0 17 3d 58 36 97 3d 3f 9a 03 3d 43 bc 8d 3d
       0.037079807 0.07383412 0.032129522 0.06920674
000300 64 b4 a6 3d 4f f0 53 3d 5f 0f 34 bc e2 d4 1b bb
       0.081398755 0.051742848 -0.010989993 -0.002377801
000310 77 60 88 3d da 48 6a 3d ea b3 8b bc 5b ff 96 3c
       0.06659024 0.057198383 -0.017053563 0.01843231
000320 37 de 7b bc 85 48 31 3d 5a 74 06 bd 33 5a 84 3b
       -0.015372804 0.04328205 -0.032825805 0.004039073
000330 89 f9 9b 3d 92 64 9b 3d 72 af 10 3c a0 31 af 3d
       0.076159544 0.07587542 0.008830892 0.08554387
000340 ee 3d c1 3d 9b ee 33 3d e1 41 6b 3d 78 50 08 bd
       0.0943564 0.043928724 0.057435874 -0.033279866
000350 78 65 0e 3c ad 53 8a 3c 59 dd 09 bc 82 dc 96 3d
       0.008691184 0.016885603 -0.00841459 0.07366277
000360 25 fb 88 3d fd de b3 bc 6d 7e 2d bc 66 e8 9d 3d
       0.06688527 -0.021956915 -0.010589224 0.07710342
000370 24 88 b9 3d cf 15 ad 3c 2e a2 e4 3d 51 e1 30 3c
       0.0905917 0.021128563 0.11163746 0.010795907
000380 47 13 2c 3d 70 c7 4e 3d 92 65 81 3d 63 aa 9a 3d
       0.04201057 0.050483167 0.06318201 0.0755203
000390 81 fe 97 3c c0 15 b6 3d 3b 7c 2f 3d 02 06 b4 3d
       0.018553974 0.08890867 0.042843085 0.087902084
0003a0 fd 6f 14 3d c5 c4 69 3d bd bd 19 bb 1b 21 c0 3d
       0.036239613 0.05707242 -0.002345904 0.09381314
0003b0 f9 bf b5 3d 3f d3 bc 3b 1e ed 9a 3c a2 8d c8 3d
       0.088745065 0.005762487 0.018911894 0.09792639
0003c0 55 14 95 3d c7 57 35 3d dc 2b 03 3d 9e 8c a9 3d
       0.07279269 0.044273164 0.03202425 0.08278774
0003d0 1c 06 da b8 b2 99 c4 3c 94 77 8d 3d da 56 57 3d
       -0.00010396188 0.023999069 0.06907573 0.052573062
0003e0 c8 5d 0a bd 39 9a 77 3d c1 10 97 3d 18 68 30 3c
       -0.033780843 0.060449813 0.073762424 0.010767005
0003f0 57 61 b3 3d 52 1a 9c 3d 5d f5 9c 3d d8 37 99 bc
       0.087588005 0.07622208 0.07663987 -0.018703386

encoder.final.block.0.bias f4 [3]
000000 dd d4 bb bd 1a 65 7c bd 44 45 8d bd
       -0.0917146 -0.061619855 -0.06897977

decoder.initial.block.0.weight f4 [32, 3, 3, 3]
000000 d6 a3 0f be 72 45 76 3d 05 b3 20 be 78 48 81 3c
       -0.14027342 0.060124822 -0.1569329 0.015781626
000010 1d 8c f9 3d e7 3a 56 3d c3 52 a4 3d f4 11 10 be
       0.121849276 0.052302267 0.08023598 -0.14069349
000020 a5 72 29 3d 50 e2 29 3e 57 df 37 3d c0 4a 39 bd
       0.0413691 0.16590238 0.044890728 -0.045237303
000030 6d 75 59 3d e1 40 20 3d 33 48 9e 3d ce 99 0f 3d
       0.0530905 0.039124373 0.07728615 0.03505879
000040 c6 5f 07 3e ee 36 d4 3d 9e 8e a9 bd 3f 83 b6 bd
       0.13220128 0.103620395 -0.08279155 -0.08911752
000050 9f b9 e0 3d 02 c2 38 be 39 2b 4f 3d bd fe 74 bc
       0.109729044 -0.18042758 0.05057833 -0.014953312
000060 0d bc 93 bd 25 11 e3 3c 9b f8 42 3d ea 76 04 bd
       -0.07213602 0.027718136 0.04760037 -0.032339968
000070 71 25 5e be bc 4b 0e 3e c0 71 24 3d 4f be 23 be
       -0.2169397 0.13896078 0.040147543 -0.15990566
000080 a3 ab 5d bc da 60 54 3d 59 22 9b bd 5d 6d 1f be
       -0.013529691 0.051850177 -0.07574911 -0.15569063
000090 f7 9d 10 3e c3 06 2a 3e 6b de 08 3e 94 15 b3 3d
       0.14122759 0.16604142 0.13366096 0.0874435
0000a0 0b ea 8f bd b2 42 f6 bd 68 17 4c 3d d2 15 33 be
       -0.07027062 -0.1202444 0.04982701 -0.17488793
0000b0 0e ae b8 bd 1e 82 2b bd 32 a8 e6 bd 60 61 a1 bd
       -0.09017573 -0.041872136 -0.112625495 -0.07879901
0000c0 4b 30 0a 3e 8c 12 ee 3d 95 67 d3 3d 07 b8 85 bb
       0.13494985 0.11624631 0.10322491 -0.0040807757
0000d0 fd cb 4e 3d 4d 01 26 be b9 a9 e2 bc e5 12 be bd
       0.050487507 -0.16211434 -0.02766882 -0.092809476
0000e0 24 33 19 3e 1f aa 01 3e 33 78 ed bd d0 19 93 3d
       0.14960915 0.12662552 -0.11595192 0.07182658
0000f0 9a 40 c4 bd 3b 05 d1 3d 17 fb c4 3d c0 15 54 3d
       -0.09582634 0.10206076 0.09618204 0.051778555
000100 9d 21 9f bd 10 31 b0 bd a3 df 8b bc a1 4f 3c be
       -0.07770083 -0.08603108 -0.017074412 -0.18389751
000110 f6 59 25 be 4e 05 ee 3c d9 1c 66 3d 5b b7 cc bd
       -0.16147599 0.029055264 0.056179855 -0.0999591
000120 b9 5a e8 bc d4 d7 0f 3e 7c ca 13 3d 53 9c 66 3d
       -0.028363572 0.14047176 0.036081776 0.056301426
000130 14 4e 32 3d 27 fc e8 bd c3 52 fd 3d 68 27 32 be
       0.043531492 -0.11376219 0.12369301 -0.17397845
000140 43 54 be bd a9 66 1a 3d c0 fa 71 3c c9 91 50 bd
       -0.092934154 0.03769556 0.014769256 -0.05092028
000150 1b 5c d2 3d ec 1f 9e bd e9 74 55 bd 48 43 f8 3c
       0.10271474 -0.07720932 -0.052113447 0.03030552
000160 8f 35 32 bd 17 b6 c1 bd 6c b3 8d bd 93 83 07 3e
       -0.04350811 -0.09458559 -0.06918988 0.13233785
000170 a3 b7 93 3d e4 3b f2 bd 56 40 86 bd 7d c2 1c 3e
       0.0721276 -0.118278295 -0.0655524 0.15308566
000180 49 d7 41 bd 2c 30 9f 3c 1e 90 0e 3e 33 1b ab bd
       -0.047324453 0.01943215 0.13922164 -0.08354797
000190 de 6c a6 bd e3 44 24 be e3 5a fd 3d 56 f6 47 3c
       -0.081262335 -0.16041903 0.12370851 0.012204727
0001a0 37 db 12 3e 36 db 24 be 22 0a ef 3d b4 7d 50 3e
       0.14341436 -0.16099247 0.116718546 0.20360452
0001b0 bc d2 70 3d 65 b7 a7 3c d3 a2 04 ba 72 54 e4 3d
       0.058794722 0.020473192 -0.0005059663 0.11148919
0001c0 78 87 47 bd f8 30 d3 bd 29 66 91 3d 3b 51 19 3e
       -0.048713177 -0.103120744 0.07099564 0.14972393
0001d0 d9 a0 24 3d 96 2e a2 3d 1a 0a 25 3e f1 b9 3b 3e
       0.04019246 0.07919042 0.16117135 0.1833265
0001e0 ce 11 61 bd 2f 60 c0 3d 8d 31 0d 3e ca df a7 bd
       -0.05494862 0.093933456 0.13788433 -0.08196981
0001f0 75 5b 21 3e c0 79 5c 3d 3d 28 87 bd 83 a7 8e bd
       0.15757544 0.053827047 -0.06599472 -0.06965544
000200 15 fe 85 bc 90 ed ed bd af eb ce bd 4a eb 96 3d
       -0.016356507 -0.11617577 -0.10103547 0.073690966
000210 be 93 08 3e 24 14 fb bc 6e 74 f2 bc 4a a3 a2 bc
       0.13337609 -0.030649252 -0.029596534 -0.019853253
000220 87 74 3a 3e f2 9c 0a be 97 d7 e4 3d 83 24 12 be
       0.18208514 -0.13536432 0.11173933 -0.1427174
000230 4b 92 0a be 59 ed 1b be cb 16 b1 3d c7 cf 3c 3d
       -0.13532369 -0.1522726 0.086469255 0.04609659
000240 f6 9a 0c be 5a e6 83 bd 31 a5 e5 3d 32 0c 7a 3c
       -0.13730988 -0.064404204 0.112131484 0.015261697
000250 11 a9 19 bd 25 73 99 3b c6 3e 9e bc 8e 85 5f bd
       -0.03751475 0.0046829158 -0.019317042 -0.054570727
000260 ff f5 f2 3b 34 79 23 3e c9 9d 3a 3c 65 16 27 bd
       0.007414579 0.15964204 0.011390158 -0.04079284
000270 13 bb 14 3e 23 d5 1d 3c da ca 2f be dd 2c dc bd
       0.14524488 0.009633335 -0.17167225 -0.107507445
000280 6f db 0d 3e e8 d3 32 be 23 53 27 3d 88 46 ad 3d
       0.13853239 -0.17463648 0.04085077 0.084607184
000290 67 38 3a be 53 ba fc bd e8 cd c5 bd 04 71 68 bd
       -0.18185578 -0.12340226 -0.09658414 -0.056748405
0002a0 74 86 10 3e bc 2d 4d 3e 2f c2 4b be 6e 4f 8d 3d
       0.1411379 0.20036978 -0.19898294 0.06899916
0002b0 d2 53 b3 bd 8d df 43 3e fc 45 7c 3d ba fb 01 3e
       -0.08756222 0.19128247 0.06159018 0.12693682
0002c0 e7 be 59 3d ba de 27 3e 22 4d 8b 3d f4 b7 16 be
       0.053160574 0.16393557 0.06801821 -0.1471861
0002d0 e9 50 9e bd 73 c8 05 be 7a 4b 88 bd e8 e2 ec bd
       -0.07730276 -0.13064747 -0.06655021 -0.115667164
0002e0 c2 c4 10 be e4 54 e2 3c 09 40 ee 3d be bd 9b 3c
       -0.14137557 0.02762837 0.116333075 0.019011375
0002f0 04 9d eb 3c 5c 74 97 3d 6f 12 e9 3d 9a 18 49 3d
       0.028761394 0.07395241 0.11380469 0.049095728
000300 a8 66 5c 3e b8 f8 a4 bd 9a 82 4c 3d 00 97 f0 3d
       0.21523535 -0.08055252 0.04992924 0.11747551
000310 d2 80 a1 3d 5c 3c e3 bd a4 75 2e 3e 5b 6c f4 3c
       0.07885899 -0.11095497 0.17037064 0.029836824
000320 db be 32 be cc db 92 bd ce eb 8f bd 8d 18 53 39
       -0.17455618 -0.07170829 -0.07027398 0.00020131674
000330 2a ca 8d bc 80 84 31 3e f1 b7 29 bd 06 a3 20 be
       -0.017308313 0.17335701 -0.041435186 -0.15687189
000340 53 d2 c9 3d 2d 26 1e 3e 40 bc 0f 3e 5a d9 36 3e
       0.09854569 0.1544425 0.14036655 0.1785635
000350 b7 6a 18 3e 30 d0 46 3c 6b b8 1a 3e df c0 28 3e
       0.14884458 0.012134597 0.15109412 0.16479824
000360 b9 43 b2 bd bc ff 62 3d 38 69 1f be 11 97 06 3e
       -0.08704323 0.05541967 -0.15567482 0.13143565
000370 22 1b f7 bc f8 08 15 3e d5 60 16 3e ea 03 dd bd
       -0.030164305 0.14554203 0.14685376 -0.10791762
000380 30 82 c4 bd a8 99 94 3d 1e 08 cd bd b6 8c 4d 3e
       -0.09595144 0.0725587 -0.10011314 0.20073208
000390 d1 8d b5 3d b4 57 f0 bc 6c 99 0c 3d 61 fb 2d 3e
       0.0886494 -0.029338695 0.034326002 0.16990425
0003a0 b9 5d ec bb 64 7e 2e 3e e9 29 0f 3e 0d 3e e6 3c
       -0.007213321 0.17040402 0.13980831 0.02810576
0003b0 51 d8 c3 bc d0 4d 03 be a3 90 3b be 36 68 34 be
       -0.023906859 -0.12822652 -0.18316893 -0.17617878
0003c0 75 be bf 3c f7 a3 c8 bd 15 81 28 be 47 9b f4 bd
       0.023406247 -0.09796899 -0.16455491 -0.11943679
0003d0 0d 7d 35 be f9 85 be 3c 44 5b 7f bd 77 d5 d5 bc
       -0.17723484 0.023257243 -0.062342897 -0.026102765
0003e0 f7 63 e6 bd f2 cc 8b 3d 35 37 c4 bb 78 fa d0 bd
       -0.112495355 0.068261996 -0.0059880265 -0.10204023
0003f0 5e f9 d6 3d 55 3a bf bd ac 0d 02 3e b0 37 34 be
       0.10496782 -0.09337298 0.12700528 -0.17599368

decoder.initial.block.0.bias f4 [32]
000000 92 c2 a5 3d 32 b4 16 bd 98 1a a9 bc ef b7 43 be
       0.08093752 -0.03679294 -0.020642564 -0.19113134
000010 26 6b 14 3e 76 4f 45 be 3a b2 12 be f6 2a 0d be
       0.14493999 -0.19268593 -0.143258 -0.1378592
000020 2c 28 87 bd 72 4e 27 3d b9 0a 78 bd ff 48 2b be
       -0.06599459 0.040846296 -0.0605571 -0.16727065
000030 02 b7 fd 3d c4 da a6 3d 47 44 2e be 95 79 13 bd
       0.123884216 0.08147195 -0.17018233 -0.03600462
000040 f6 6a 5d 3d d3 47 16 3e 1c 6f 1c bb 95 fc 00 3e
       0.054057084 0.14675836 -0.0023869937 0.12596352
000050 38 a6 3f 3e a3 5f 24 3e cd d5 ce 3c c5 51 2f 3e
       0.18715751 0.16052108 0.025248433 0.17121036
000060 a8 84 27 be 3e 86 5f be 2d 18 8c 3d 3c 1d fa bd
       -0.16359198 -0.21828553 0.06840549 -0.12212607
000070 17 51 e6 bc 72 99 cc 3d ec 3f c2 bd dd 84 03 3d
       -0.028114839 0.09990205 -0.094848484 0.03210913

decoder.initial.block.2.weight f4 [32]
000000 72 de 80 3f 48 1a 7f 3f 95 3d 83 3f e7 1b 7c 3f
       1.0067885 0.99649477 1.0253168 0.98480076
000010 e4 9a 80 3f 4d b0 83 3f dd a6 75 3f 8d f5 7f 3f
       1.0047269 1.0288178 0.9595774 0.99984056
000020 ae d9 70 3f 3d 32 82 3f 0b 76 7d 3f 87 3e 7d 3f
       0.9408215 1.0171582 0.99008244 0.98923534
000030 a0 5d 79 3f fe 45 80 3f 4d a9 79 3f bd a5 82 3f
       0.97408485 1.002136 0.9752396 1.0206829
000040 c1 6d 7a 3f 66 f6 7d 3f c3 37 82 3f ba 65 7b 3f
       0.9782372 0.992041 1.0173267 0.982021
000050 f8 f2 7d 3f 34 32 7a 3f 6b 03 80 3f 65 ba 7d 3f
       0.99198866 0.97732854 1.0001043 0.9911254
000060 7e 6b 7b 3f c4 0c 83 3f 38 41 78 3f c5 c5 7c 3f
       0.98210895 1.0238271 0.96974516 0.9873927
000070 2b e3 80 3f 92 67 82 3f a2 11 84 3f 5e a5 81 3f
       1.0069326 1.0187857 1.0317881 1.0128591
