models/archived/augmented/ResidualSteganoGAN/8/epoch_32.pth (torch, 340639 bytes, 59 tensors)

encoder.initial.block.0.weight f4 [32, 3, 3, 3]
000000 9f 70 3d 3e b6 d5 52 be 29 e4 6b 3d 84 fc ae 3d
       0.18499993 -0.20589337 0.057590637 0.08544257
000010 12 c4 23 3e 98 4b b8 bd 5a 21 81 3c 55 f9 1c 3e
       0.15992764 -0.08998793 0.015762974 0.15329488
000020 02 ed 2a be 58 a8 fd 3d e7 6d 07 bd ba ce 8f bd
       -0.16691974 0.12385625 -0.033063795 -0.07021852
000030 13 ab f6 bd d1 ea cb bc 6b b9 e8 bd 54 12 01 be
       -0.120443486 -0.024892243 -0.11363491 -0.12604648
000040 13 81 22 be 27 75 3d 3e a0 3b 82 bd 74 eb bc bd
       -0.1586955 0.18501721 -0.06359029 -0.092245966
000050 16 65 09 3e 74 08 29 3e 59 9e 12 3d 1a 9d f5 bd
       0.13417467 0.16507131 0.035795543 -0.11992855
000060 a6 f1 43 3d f4 cd 11 3e dc d4 85 bd 8d 6b 2d 3e
       0.047837876 0.14238721 -0.0653474 0.16935559
000070 1c 73 31 bd f5 8b bd 3d 66 8a 30 3c da c4 c1 3e
       -0.043322667 0.0925521 0.010775184 0.37845498
000080 6e ee 48 3e 2c e8 3f bd 8d 7c f2 3c 43 fb 94 3d
       0.19622204 -0.046852276 0.029600406 0.07274487
000090 fa 9a a8 3d 1f 70 23 bd 7e fa d5 bd ce 98 30 3d
       0.082326844 -0.03990185 -0.10448168 0.043114476
0000a0 66 44 0c 3e 71 d4 15 3e 54 94 5b bd 68 de 02 ba
       0.13697967 0.14631821 -0.053608254 -0.00049922476
0000b0 cb 99 27 bd 17 85 01 3e 7b db 9b bc e9 c1 0a 3d
       -0.040918153 0.12648426 -0.019025555 0.033876333
0000c0 c3 37 0c be 66 0d 9e 3d 59 9a 8a 3d a6 ae 97 bc
       -0.13693146 0.07717399 0.06767721 -0.018515896
0000d0 d9 05 1f 3e 33 2d 9b 3b 1f ce 92 bc 28 9d 87 3d
       0.15529574 0.004735613 -0.017920552 0.06621772
0000e0 08 1f 81 bd ee 07 ba bd 05 9a a1 3d 00 f3 e1 3d
       -0.06304747 -0.09083544 0.07890705 0.11032677
0000f0 68 67 c9 3b c0 04 d1 3c 5e b1 b8 bd 08 97 10 be
       0.00614636 0.02551496 -0.09018205 -0.14120114
000100 35 3f 05 3e c9 43 b4 bd ef 93 53 3d c6 dd 17 bd
       0.13012393 -0.088019915 0.051654752 -0.037076734
000110 1d a5 13 be 3c ac 3f bd 37 b1 1b be 96 66 9c bd
       -0.14418454 -0.046795115 -0.15204321 -0.07636754
000120 45 f2 d0 bd 5e f4 a9 3d 7c 64 d8 bd f2 b9 5e bd
       -0.10202459 0.082985625 -0.10566041 -0.05437655
000130 7b 0c 86 3e 43 b4 23 be ad ac b6 bd 14 d7 4e 3e
       0.26181397 -0.15986733 -0.08919654 0.20199233
000140 f1 85 52 3d d2 f2 22 3e 43 44 b4 bd c0 0b 2f 3d
       0.051397268 0.15912941 -0.088020824 0.042735815
000150 31 5c 6b 3d 54 1d 55 bd b5 7f 92 3c 02 06 da bd
       0.057460967 -0.052029923 0.017883161 -0.10645677
000160 8a 60 03 be b9 25 e4 3c db 9b 81 bd 4a cf 7d 3d
       -0.12829795 0.027850019 -0.06328555 0.061965264
000170 54 d1 2b 3d 7d c0 3d be 42 62 e4 3d 48 9a 5e bd
       0.041947678 -0.1853046 0.11151554 -0.054346353
000180 25 2d cf bc 67 06 d1 3d 17 02 a6 3d b1 b1 02 be
       -0.025290081 0.10206299 0.08105867 -0.12763096
000190 43 7d e2 3d d7 e8 07 3e b4 fd bd bd 65 75 84 bd
       0.11059048 0.13272415 -0.09276906 -0.06467704
0001a0 8e f9 19 be f8 d0 d1 3d 78 fb c9 3d 45 d3 30 be
       -0.15036604 0.10244936 0.09862417 -0.17268093
0001b0 08 7b 39 3e 6e 2a 82 3c 3d 0e dd bd 28 11 19 be
       0.18113339 0.015889373 -0.10793731 -0.14947951
0001c0 7f 76 d5 3d 61 1b e0 3d e2 7d 9b bd 9d 2a 25 3e
       0.10422992 0.10942722 -0.075923696 0.16129537
0001d0 5a 03 cf bd 22 c6 54 3d 5f 22 1d be 35 d8 30 3d
       -0.10108061 0.051946767 -0.15345143 0.04317494
0001e0 7f d0 e7 bb 01 82 cf bd 5a 26 2d 3e e4 c1 05 be
       -0.007074415 -0.10132218 0.16909161 -0.13062245
0001f0 f4 c8 be 3d 2b c2 07 be 3c 3d 40 3e 09 2a 4c bd
       0.093156725 -0.13257663 0.18773359 -0.049844775
000200 f9 8d 3b 3e 79 8a 0c be f1 cb 50 bd 9f f9 16 be
       0.18315877 -0.13724698 -0.050975744 -0.1474366
000210 5b 8b fb 3b 9d 25 39 be 3f ba f4 3d ae 9c 95 3d
       0.0076765246 -0.18080755 0.11949586 0.07305275
000220 6b be 3b 3e 44 be 2b 3e ee 74 cd bd a1 68 1a bd
       0.18334357 0.167718 -0.10032068 -0.03769744
000230 22 45 43 3d d8 f7 09 3e 00 be f4 bc b1 9f 13 3e
       0.047673352 0.13473451 -0.029875755 0.14416386
000240 77 37 22 3e b2 5c 30 3e a9 28 0a 3e 80 a9 b3 bd
       0.1584147 0.1722286 0.13492073 -0.08772564
000250 53 29 37 be bf ba a9 3d ff e8 68 3d bb 1f 19 3e
       -0.17886858 0.08287572 0.056862827 0.1495351
000260 90 eb 96 3c 59 13 2a 3e 94 66 7f bd 3c 57 1f bd
       0.018422872 0.16608943 -0.062353685 -0.038901553
000270 f8 3b 0a 3e 26 91 af bd 18 2a fe bd f5 72 26 3e
       0.13499439 -0.08572607 -0.124103725 0.1625479
000280 5b 0b 7f 3d 99 44 29 3e 31 f0 bc bd f1 a1 99 3d
       0.06226669 0.16530074 -0.092255004 0.07501591
000290 32 ab 1e 3e d5 90 2d 3d 8d 71 0d be c1 26 0b be
       0.15494993 0.04237445 -0.13812847 -0.13589002
0002a0 c5 9d b5 3d ee ad 0a be ce f0 60 bc c6 1f cf bd
       0.08867983 -0.13542911 -0.013729287 -0.10113482
0002b0 42 7d f4 bd b0 44 3c be 5c f1 0b be 92 68 a5 bd
       -0.119379535 -0.18385577 -0.1366629 -0.08076586
0002c0 45 9a 03 3e 8b 0f 4c 3e c0 df 16 3e 5f 9b e2 3d
       0.12851818 0.19927804 0.14733791 0.11064791
0002d0 c2 d9 8d bd a8 d7 55 bd a5 78 23 be 55 28 8a bd
       -0.069263 -0.05220762 -0.15963991 -0.06745974
0002e0 6b 25 29 3d 2b 2e de 3d c2 4d 9a bd 2a 1e 14 bc
       0.04129545 0.108486496 -0.075343624 -0.009040395
0002f0 96 01 18 be fa da 55 bd f2 4a 0b bd 2a 14 23 3e
       -0.14844355 -0.052210785 -0.03400702 0.1592566
000300 fe fb 0a be a1 9b 17 3e 20 82 81 bd 12 b9 24 be
       -0.1357269 0.14805461 -0.063236475 -0.16086224
000310 06 9e 0b 3d d7 04 d2 3b 28 0d 2e bd 82 66 77 bd
       0.03408625 0.0064092684 -0.042493016 -0.060400493
000320 60 db 76 3d 62 15 0c 3e 7e b5 10 be e2 89 31 3d
       0.060267806 0.13680032 -0.14131734 0.043344386
000330 b8 c7 91 bd 12 a7 f0 3d d0 f9 f1 3c 14 4c 90 bd
       -0.071181715 0.11750616 0.029538065 -0.07045761
000340 b4 d6 91 bd e7 55 c3 3d 04 bf eb bc 65 49 b3 bd
       -0.071210295 0.09537869 -0.028777607 -0.08754233
000350 2c 08 da bd 54 85 21 bc 4e 11 73 3d d3 a5 0b 3e
       -0.1064609 -0.009858448 0.059342675 0.13637476
000360 ff cf f0 3d c5 ec 9e bd d6 e0 a7 3d 6d 20 ee bd
       0.11758422 -0.07760004 0.08197181 -0.116272785
000370 b7 94 8a 3d b0 3e ba 3d 9a f2 9a bd 3c 4a 90 3c
       0.06766646 0.09093988 -0.07565804 0.017613523
000380 20 9a 3e 3d bf de 0d bd 4a e3 2f 3e 3b 26 11 bd
       0.046533704 -0.034636255 0.17176548 -0.03543685
000390 2a 54 25 be 46 ff a6 3c f1 7f 8c bd bb 18 15 be
       -0.16145387 0.020385396 -0.068603404 -0.14560215
0003a0 c6 73 19 3e 17 66 c0 3c 98 ad bc bd 2e db c1 bd
       0.1498557 0.02348618 -0.09212798 -0.09465633
0003b0 1e 36 27 be 02 eb 1e be 8d 24 03 3d d8 c2 a8 3d
       -0.16329238 -0.15519336 0.03201728 0.082402885
0003c0 66 54 98 bd b3 2b 54 be ef 8d ac bd cc 86 f7 bd
       -0.07437973 -0.20719795 -0.08425509 -0.12086257
0003d0 03 73 02 3e fa b5 43 bd 13 2b 11 be 9c c6 3c 3e
       0.12739186 -0.04778097 -0.14176588 0.18435138
0003e0 28 2b 48 be 03 35 28 3d e2 f2 ab bd 83 7e 21 be
       -0.19547713 0.04106618 -0.083959356 -0.15770917
0003f0 ac da 29 3e 88 04 ac bd 6e 36 89 3d 9f d4 30 be
       0.16587323 -0.08399302 0.06699835 -0.17268609

encoder.initial.block.0.bias f4 [32]
000000 3a 3e ad ba 60 26 f3 bd 46 5e 22 3e 5b 45 3d be
       -0.0013217397 -0.11872554 0.15856275 -0.18483488
000010 38 dc 6c bd b6 3c 50 3b e1 9b dc 3d 46 be 2d be
       -0.057827204 0.0031774468 0.10771919 -0.16967115
000020 9b d1 95 3d ec b8 03 3c c0 2a c7 bb b3 d2 4f bd
       0.0731537 0.008039694 -0.0060780942 -0.050738048
000030 b1 3f 5c bd f3 08 37 3e e8 68 05 be 34 37 85 bd
       -0.05377168 0.17874508 -0.130283 -0.0650467
000040 2a 63 db bd ce 81 9c bd de 9b d0 bd 21 2e ea 3c
       -0.107122734 -0.07641946 -0.10185979 0.02858645
000050 76 dd 14 3e 49 c1 06 be 68 29 e3 3d 27 f9 59 bc
       0.14537606 -0.1315967 0.11091882 -0.013304031
000060 02 29 7e 3c 88 b7 de bd 84 d9 91 bd ad ce 23 be
       0.015512707 -0.108748496 -0.07121566 -0.1599681
000070 3b ad 18 be fa a5 43 3e ad a2 80 3d 37 9f 38 be
       -0.14909832 0.19106284 0.06281028 -0.18029486

encoder.initial.block.2.weight f4 [32]
000000 e7 b3 78 3f 7d ff 81 3f f5 85 7e 3f a5 64 80 3f
       0.9714951 1.0156094 0.9942315 1.0030714
000010 22 ff 77 3f 3f 5d 7c 3f b7 75 77 3f bf a3 80 3f
       0.96873677 0.9857978 0.96663994 1.0049971
000020 5a 88 75 3f 15 24 78 3f fa 79 7d 3f f8 ac 82 3f
       0.9591118 0.96930057 0.99014246 1.0209036
000030 44 32 81 3f e6 94 80 3f 23 ea 7f 3f 61 77 7d 3f
       1.0093465 1.004544 0.9996664 0.9901028
000040 f1 bf 81 3f 4c 8e 7f 3f b2 ce 80 3f 3e 92 7c 3f
       1.0136701 0.998265 1.0063078 0.9866065
000050 3c 5c 7f 3f 8f 5b 7f 3f ec 77 73 3f e5 f7 7a 3f
       0.99750113 0.9974908 0.9510486 0.9803451
000060 e0 ff 82 3f d0 27 80 3f 56 8d 7c 3f 70 79 7a 3f
       1.0234337 1.001215 0.9865316 0.9784155
000070 74 93 80 3f 38 a1 7f 3f ab 6f 7a 3f 51 e3 7b 3f
       1.0044999 0.99855375 0.9782664 0.9839373

encoder.initial.block.2.bias f4 [32]
000000 e8 fd 7f bd 9d db 99 3c 13 c4 a2 3c 9e 40 c9 bd
       -0.062498003 0.018781478 0.019868886 -0.09826778
000010 08 66 25 3d 08 22 2d bd 0f 3c 72 3d 40 1f 0e bd
       0.040380508 -0.042268783 0.059139308 -0.03469777
000020 ab a4 bd 3c 37 c5 2b 3c 18 5a 0f 3d 02 c1 98 bd
       0.023149809 0.010484031 0.03499803 -0.07458688
000030 c3 76 72 3c fb 08 81 bd fe 93 68 b9 cc 64 12 bc
       0.014798823 -0.06300541 -0.00022180376 -0.008935165
000040 0f e1 ce bd 96 88 2c bd c1 4f dd bc b3 92 10 bc
       -0.1010152 -0.042122446 -0.027015569 -0.008824038
000050 a4 5e 90 3c 6f 46 47 bd 57 25 60 3d 2a a9 15 3d
       0.017623253 -0.048651155 0.05472311 0.03653828
000060 77 71 93 3c 37 1f 05 3d c1 d8 85 bd 2c b2 8a 3c
       0.01799844 0.032500472 -0.06535483 0.016930662
000070 42 87 6f bd 8a b2 31 bd 97 0a 39 3d c8 67 69 3c
       -0.0584786 -0.04338316 0.045176115 0.014245935

encoder.initial.block.2.running_mean f4 [32]
000000 46 dc f2 39 2d 29 6a bc 73 1f 0b 3f 5e d8 6f 3a
       0.00046321953 -0.014292044 0.5434486 0.00091493677
000010 ec c7 2b 3d 65 3d 6d bc 4c 7a 39 3f 88 74 3e 3a
       0.041938707 -0.01447997 0.72452235 0.00072652893
000020 88 0c 40 3f 7f f9 57 3e d2 90 d5 bb 2f 19 47 3a
       0.7501912 0.21091269 -0.006517508 0.0007595
000030 85 53 87 3a ac c4 a4 3a 78 a8 9d 3e 0d 75 bb 3e
       0.0010324573 0.001257082 0.30792594 0.3661274
000040 66 be e4 3a 9c 29 ae bb 4f d1 14 3a 5a be 84 3e
       0.0017451763 -0.005315019 0.00056769414 0.25926477
000050 26 e8 0c 3f 87 d9 f9 39 ca 99 37 3e 71 60 f3 3e
       0.5504173 0.00047655051 0.1792976 0.47534516
000060 37 e6 4b bc 4b f4 d8 bb 7f 52 1a 3f 7f 70 87 3e
       -0.012445024 -0.006620919 0.6028213 0.26453015
000070 44 48 79 ba 02 30 7b 3a c8 f9 12 bc 71 7c 87 3e
       -0.00095093646 0.0009582044 -0.008970685 0.2646213

encoder.initial.block.2.running_var f4 [32]
000000 12 16 7a 39 90 33 08 34 65 86 0a 3b 15 1b 94 39
       0.0002385008 1.2684745e-07 0.0021137234 0.00028248937
000010 e9 80 28 3a c9 39 8a 35 df ec e0 3a ed 8d a7 39
       0.00064279005 1.0298619e-06 0.0017160437 0.00031958465
000020 cf 9b 1c 3b c0 5d 46 3a e3 00 51 34 2d 4e 9e 3a
       0.002389658 0.00075670704 1.9464964e-07 0.0012077742
000030 ac 4c 5c 3a 26 a9 82 3a e1 98 49 3a 99 0a 4b 3a
       0.0008403759 0.0009968623 0.0007690322 0.00077454146
000040 34 83 95 3a 64 05 71 34 57 7f 17 3a cd 7d 2d 3a
       0.00114069 2.2446835e-07 0.0005779168 0.0006618172
000050 da 00 e4 3a e8 ff 01 3a 4e 5a 18 3a 07 f9 a0 3a
       0.0017395273 0.00049590925 0.0005811796 0.0012281247
000060 c3 29 20 34 73 c1 43 34 ee 03 cb 3a 7d 3b d3 39
       1.4916354e-07 1.8231167e-07 0.0015488842 0.00040289378
000070 5d 7b 9d 3a d7 60 f8 39 09 89 6c 34 84 98 53 3a
       0.0012014915 0.00047374397 2.2029066e-07 0.0008071738

encoder.block1.block.0.weight f4 [32, 40, 3, 3]
000000 09 55 2c 3c 54 12 f5 3c 10 20 38 3d b1 77 ee 3c
       0.010518321 0.029915966 0.044952452 0.029109808
000010 c1 cd ea 3c 0c 69 91 3c 98 3f 70 bb ef 52 53 3c
       0.028662564 0.017750286 -0.0036658999 0.012898191
000020 3d d8 ad 3c 0d da a0 bc c5 c4 1c bd 37 ea 34 3d
       0.021221275 -0.019635225 -0.03827359 0.044168677
000030 95 04 ae bc bf ea fd 3c 79 49 d7 3b 3a 32 64 bd
       -0.02124242 0.030995725 0.006570038 -0.055711962
000040 e5 48 20 bd 1f 3a 82 3c 1f b8 f4 bc 83 92 a4 bc
       -0.039132018 0.015896855 -0.029872952 -0.020089393
000050 81 b9 7f bd 76 52 f7 bc b1 a5 30 3c 5e 47 75 bc
       -0.06243277 -0.030190688 0.010781691 -0.014970629
000060 de 79 cc 3c cd 58 20 3d 05 e2 42 3d b0 8e 79 3c
       0.024960455 0.039147187 0.04757883 0.015231773
000070 66 e0 78 3d 1a 2c 1d 3d 7c 05 1b bd 3a 52 a1 bb
       0.060760878 0.038372137 -0.037847027 -0.0049231322
000080 96 e1 4e 3d 0e 3a a4 3d 0b 0d db bc 18 9c fa 3c
       0.050508104 0.080188856 -0.026739618 0.03059201
000090 87 9c fd bc 7c 34 1f 3b 6a fd f0 bc 67 cd a9 bc
       -0.030958427 0.0024292758 -0.029417712 -0.020727826
0000a0 30 5b c5 bc fb f0 0d bd 33 9c 90 3b f9 68 51 3c
       -0.024091333 -0.034653645 0.0044131516 0.012781375
0000b0 96 38 71 bc a3 47 b1 bc 78 bc 99 3d df a0 d8 3c
       -0.014722964 -0.021640604 0.07506651 0.026443897
0000c0 3d 77 41 3c 0a 17 c9 3c c4 f0 55 3c 5b d7 3d bc
       0.011808214 0.024547119 0.013057891 -0.011586989
0000d0 ef c8 35 3c 02 81 36 3d d3 9a 05 3d 35 e0 9f bd
       0.01109527 0.044556625 0.032618355 -0.07806436
0000e0 68 e2 cb 3c a1 ef f6 3c 82 90 bb 3c 78 73 f8 3c
       0.024888232 0.03014356 0.022896055 0.030328497
0000f0 63 33 15 bd fa c9 8c 3c 33 57 32 bd 9e ea ab 3d
       -0.03642596 0.017186154 -0.04354019 0.08394359
000100 d8 db 59 3d c2 65 43 3d f7 f5 bd b9 62 b6 ca 3c
       0.053188175 0.047704466 -0.00036232147 0.02474517
000110 ad d4 8b bd bb 4a a4 3c 98 62 75 3a 6c 2c 10 3d
       -0.06827674 0.020055166 0.00093607 0.035198614
000120 ad 27 03 3d 08 55 7a 3c df e7 54 ba 78 5b e8 bb
       0.03202026 0.015279062 -0.00081217097 -0.007090982
000130 45 19 b2 bc 48 5d 19 3d 0c ec f9 3c ee 98 4e bb
       -0.021740565 0.037442476 0.030508064 -0.0031524259
000140 0b 3f a5 bc 68 bd d3 3b d8 21 f3 3c d4 01 c4 b9
       -0.020171663 0.006461788 0.029679224 -0.00037385395
000150 2b ec 85 3c a0 53 2b 3d c4 2f 22 3d 22 4b f6 3b
       0.016347965 0.041827798 0.039596334 0.0075162807
000160 f7 d1 cb 3c f2 c8 1c bd 35 ad 3a 3d 97 6c c4 bc
       0.024880392 -0.038277574 0.04557534 -0.02397756
000170 e2 44 b9 bb 13 47 6f 3c b6 e7 0c bd de 8c e8 3c
       -0.0056539634 0.014604348 -0.034400664 0.028387483
000180 ae 0e 12 bd 6c 70 8f 3c e6 74 88 3b af 7c bc 3c
       -0.03565853 0.017509662 0.004164326 0.023008673
000190 e0 39 22 3d d8 d3 c5 3b de 71 78 3b 59 81 77 3d
       0.039605975 0.0060372166 0.0037909667 0.06042609
0001a0 48 86 12 bd 3d 40 9f 3c 73 6d b3 3c 9c 54 79 3d
       -0.03577259 0.01943981 0.021902775 0.060871705
0001b0 8b 8c 76 3d ee b1 05 bd 8f a4 f8 3c 9e 2b da 3a
       0.060192626 -0.03264039 0.030351905 0.0016645079
0001c0 d1 2f cf bb e8 c6 1b bd ee dc 49 3d 90 8c 33 bd
       -0.006322839 -0.03803149 0.04928296 -0.043835223
0001d0 90 17 30 bd 91 65 8d bd 32 bc 84 3c bc ec 25 3d
       -0.04299122 -0.06904138 0.01620302 0.04050897
0001e0 a7 18 1f 3b 6f 41 f3 3c 54 62 4d 3c e3 c6 f7 bb
       0.0024276169 0.029694287 0.01253565 -0.007561551
0001f0 33 e6 bf 3c 3f 72 49 3d 49 71 8f bc 24 8a 75 bd
       0.023425197 0.04918122 -0.017510073 -0.059946194
000200 21 9b 75 bd 27 70 43 bd 7b 0d 88 bc f3 75 cb 3c
       -0.059962396 -0.04771438 -0.01660799 0.024836516
000210 60 e0 71 3c 32 75 46 bd af 83 08 bd ab c1 79 bc
       0.014762968 -0.04845161 -0.03332871 -0.015243928
000220 44 44 2a bd 72 7b 2b bd 4a 5b 8c bc 4f ee 0c bd
       -0.04156901 -0.041865773 -0.017133374 -0.034406956
000230 67 64 52 bd a0 7a dc 3b 2c d7 01 bd 02 ef 1a bd
       -0.051365282 0.006728485 -0.031699345 -0.03782559
000240 cc 3f 9c 3d f2 e0 0f 3d 9d 3c 5d 3d f1 d8 8a 3d
       0.07629356 0.035126634 0.054012883 0.067796595
000250 51 76 0c bd 3a 6f 63 bd 5c 1c ac bb 71 91 d9 bc
       -0.034292523 -0.055525996 -0.005252404 -0.02655861
000260 db b2 8d 3c 64 14 43 3d b6 e7 3c 3c 90 29 0b bc
       0.017297199 0.047626868 0.011529854 -0.008493796
000270 33 92 5c 3d 9d 98 63 3d 2f 91 78 3b d5 cb d5 3c
       0.053850364 0.055565465 0.0037928333 0.026098171
000280 37 b1 06 bd 41 be 5c bc 60 62 28 3d 4d 5e 1b 3d
       -0.03288385 -0.013473094 0.041109443 0.03793173
000290 90 50 74 3d 1c 93 8b bc 7b 4d 6c bc 00 9e e1 bc
       0.059647143 -0.01703792 -0.01442277 -0.02754116
0002a0 6c 90 17 3c 24 52 38 3d 72 4b be ba 96 bc dd bc
       0.009250741 0.04500021 -0.0014518334 -0.027067464
0002b0 2c 86 6f bd 4a 2e 65 bc a1 fa 0c bc 01 7c 62 bc
       -0.058477566 -0.013988087 -0.008604676 -0.01382351
0002c0 c5 f6 31 bd 53 86 27 3d 5f ca 4f 3d b7 4e d4 3a
       -0.04344823 0.040899586 0.050730105 0.0016197775
0002d0 78 ef a9 3c 6b 3d 78 bb 62 10 04 3d 38 20 d4 3c
       0.02074407 -0.0037878405 0.032242186 0.02589427
0002e0 c2 ae 2e 3c 95 68 c9 3c 34 74 b3 3b 3a a1 40 bd
       0.010661783 0.024586001 0.005476499 -0.047028758
0002f0 bc 25 84 bc e0 8e 5c 3d c7 c0 8e 3c 18 c2 dd bc
       -0.016131274 0.053847194 0.017425908 -0.02707009
000300 7e 72 bf bb fb 7a 68 bd db 9b 31 bd 46 4c 1a bd
       -0.005842506 -0.05675791 -0.043361526 -0.037670396
000310 9c b9 a1 3c 53 08 16 3b 20 54 8b 3c 49 79 a9 3b
       0.019741826 0.0022893145 0.017007887 0.005171929
000320 92 e3 31 bd 7c fc 30 bd 05 f3 31 bc 84 39 17 bd
       -0.04342992 -0.043209538 -0.010861163 -0.036920086
000330 40 b3 33 bc 79 9b 09 3d f9 1c db bc cd a0 58 bd
       -0.0109680295 0.033595536 -0.026747214 -0.052887727
000340 8a 97 ae 3c 4d 2c 00 3d 9a 37 33 bd fc e0 55 bc
       0.021312494 0.03129225 -0.043754198 -0.013054129
000350 75 d9 9c 3c 6e c9 12 bc 1f d2 8d bc f4 ef 51 3d
       0.01914666 -0.008959157 -0.017312108 0.051254228
000360 52 88 fb bb 8c 36 19 bc 2d 94 2e 3d 3f eb 03 bd
       -0.0076761628 -0.009351384 0.04262178 -0.03220677
000370 bd be 08 3d 86 05 cd bc 9d 0d 5c bc 1d 68 40 3c
       0.033385027 -0.025027048 -0.01343098 0.011743573
000380 de c6 ef bc 82 ad b3 3b bc b5 e6 3c 21 d0 4b bd
       -0.029269632 0.00548333 0.02816283 -0.049759034
000390 f5 d0 97 bc 9c 92 6e bd 72 f3 6e bd b9 4c ec 3c
       -0.018532256 -0.058245286 -0.058337636 0.028845178
0003a0 0a 59 5c 3b 0c 73 2f bc 3a be bb 3c a3 20 59 bd
       0.0033622407 -0.010708582 0.022917856 -0.05300964
0003b0 d5 68 5f bd 9a 50 35 3d 40 2f 3e bd 15 f5 60 3c
       -0.054543335 0.04426632 -0.04643178 0.013730307
0003c0 cd 7d ae bc fb 82 54 bd 1f 2c 17 3d 45 bf 3a ba
       -0.02130022 -0.051882725 0.03690731 -0.00071238383
0003d0 b4 8d 9f bc 26 93 45 bc 87 c6 39 bd fd 74 c2 bc
       -0.019476749 -0.012059009 -0.045355346 -0.023737425
0003e0 96 56 8f bc ff 77 16 3d b7 fe 03 bd da 65 03 3c
       -0.017497342 0.03673553 -0.032225337 0.008019889
0003f0 d6 cb 39 3d c9 8e a1 bc 67 97 6f bb ac 36 83 39
       0.04536041 -0.019721406 -0.0036558749 0.00025027

encoder.block1.block.0.bias f4 [32]
000000 5e f5 9a bb fe 39 46 bd 8c 76 e8 bb e3 74 6e bc
       -0.004728957 -0.04839515 -0.00709421 -0.014554235
000010 a0 26 a4 3d 89 b9 eb 3d bf 23 77 bd 60 0c f8 3b
       0.0801518 0.115099974 -0.060336825 0.0075698346
000020 59 0c a4 bd 33 9e 9a bd 4b d7 29 bd 5e 52 93 3c
       -0.08010168 -0.07549705 -0.041465085 0.017983612
000030 73 73 5e bd 57 c9 a8 bd 68 77 a7 3d fc 32 2a bd
       -0.05430932 -0.082415275 0.08177072 -0.04155253
000040 95 46 b7 bc a3 78 55 bd ae c1 8e bd e4 fe 6d bd
       -0.022372523 -0.052117 -0.06970535 -0.05810441
000050 6a 7e 08 bd f5 1f f4 bc 7a 0a 82 3c 72 ed e6 3b
       -0.033323683 -0.029800395 0.015874136 0.0070473487
000060 88 9e 17 3d cb 04 72 bd f3 d1 dd bc 48 32 67 bd
       0.03701642 -0.059086602 -0.02707765 -0.056444436
000070 ab 05 37 3c f5 63 8c 3c 9b 1d 69 bd de 22 b5 bc
       0.011170785 0.017137507 -0.056913 -0.022111353

encoder.block1.block.2.weight f4 [32]
000000 be 97 78 3f d2 d5 7d 3f 8c de 7b 3f f5 75 7e 3f
       0.9710654 0.9915439 0.98386455 0.9939874
000010 06 33 73 3f 7f 02 78 3f fe dc 7d 3f 9d b7 72 3f
       0.9499973 0.9687881 0.9916533 0.9481142
000020 09 9d 78 3f 26 31 7f 3f ec 72 7d 3f 39 1e 78 3f
       0.97114617 0.9968437 0.9900348 0.96921116
000030 fd c1 7d 3f c6 46 7e 3f 44 1b 74 3f a1 7b 7e 3f
       0.9912413 0.9932674 0.95354104 0.9940739
000040 04 5d 7c 3f 57 26 80 3f dc dc 7a 3f 25 0e 76 3f
       0.9857943 1.00117 0.97993255 0.9611533
000050 8f 74 7b 3f c3 12 7d 3f 83 e1 76 3f e5 8e 76 3f
       0.9822473 0.98856753 0.96437854 0.9631179
000060 20 16 6e 3f 1e b9 7c 3f ca 48 7b 3f 1a 48 7b 3f
       0.9300251 0.98719966 0.9815794 0.98156893
000070 53 ba 73 3f ce 95 73 3f c9 c9 77 3f 2f d4 7b 3f
       0.95206183 0.9515046 0.96792275 0.9837064

encoder.block1.block.2.bias f4 [32]
000000 a3 9b 29 3c c9 94 ad bc b5 64 be bb 2c 7d a7 bb
       0.010352048 -0.02118911 -0.005810345 -0.005111357
000010 ac 42 62 3b 5b a3 3a 3d 48 8a 2c 3a cb 05 1c bb
       0.0034524603 0.045565944 0.0006581885 -0.0023807164
000020 4a 2e bd bc ea ac cc bc a3 d0 4d 3c e4 5a 81 3d
       -0.023093361 -0.024984796 0.01256195 0.06316164
000030 a8 41 6e 3d 16 18 f1 3c 73 48 5a 3d fd f0 d5 bc
       0.058168083 0.02943043 0.05329175 -0.026115889
000040 49 02 24 bc e0 20 15 bd f6 54 bf 3c 8f e8 5c bc
       -0.01001031 -0.036408305 0.023355942 -0.013483181
000050 9a b9 0c bd f5 44 19 3d 43 41 b3 bb 05 5c 84 bc
       -0.03435669 0.03741928 -0.0054704263 -0.01615716
000060 01 bd 50 bc 96 38 b4 3c df 7a 48 ba 17 59 17 bb
       -0.012740375 0.021999639 -0.0007647704 -0.0023093873
000070 b1 8c ca bc 9a 81 8d 3a dc 73 6d bd e0 2e c7 bc
       -0.02472529 0.001079607 -0.05797182 -0.024314344

encoder.block1.block.2.running_mean f4 [32]
000000 da da af 3d 1f 5b 02 3d 30 d0 b9 3d a7 7b 4c 3d
       0.085866645 0.03182518 0.09072912 0.04992261
000010 ba dc 92 3e 07 75 91 3e ad f3 9b 3d 77 32 49 3e
       0.28684026 0.28409597 0.07614837 0.19648157
000020 78 34 65 3d 6c b5 46 3d 2f 0e 43 3d 2e 1b 77 3e
       0.05595824 0.04851286 0.04762095 0.24131462
000030 4f ea 6b 3d 49 c9 1c 3d 05 e2 92 3e 17 ee 3a 3d
       0.0575965 0.038277898 0.28688064 0.045637216
000040 5d 1c b4 3d 8f 89 f6 3c ff 8c f1 3d 8f 51 89 3d
       0.08794472 0.03009489 0.11794471 0.06705009
000050 ff a6 86 3d 1c f4 cd 3d c0 45 78 3d 09 f4 73 3e
       0.06574821 0.10056326 0.060613394 0.23823561
000060 9a c4 07 3f dc b4 6f 3d 07 d8 71 3d cd 26 84 3d
       0.53034365 0.05852209 0.05904391 0.06452713
000070 f3 66 8a 3e a8 c9 75 3e b3 19 93 3c da 1e 1a 3d
       0.2703167 0.24002707 0.01795659 0.03762708

encoder.block1.block.2.running_var f4 [32]
000000 6f a8 14 3f 59 3b 90 3e cb 46 83 3f 00 d1 a3 3e
       0.5806951 0.2817028 1.0255979 0.31995392
000010 54 54 cc 3f 52 d1 62 3f 7a 74 f8 3e dd 4d 3c 3f
       1.5963235 0.8860065 0.48526365 0.7355631
000020 e6 e6 b1 3e cb 28 19 3f 29 63 9b 3e 1e 47 46 3f
       0.34746474 0.5982787 0.3034909 0.77452266
000030 1b 24 bb 3e ee 68 99 3e c0 1a 9c 3f 22 f9 9c 3e
       0.36550984 0.29962867 1.2195663 0.30658823
000040 0d e8 d1 3e 27 40 12 3e f2 e0 49 3f 11 30 b9 3e
       0.40997353 0.14282285 0.78858864 0.36169484
000050 53 fa 2a 3f 94 78 f8 3e 6c ab cc 3e 55 7b 48 3f
       0.66788214 0.48529494 0.39974535 0.7831319
000060 81 60 e0 3e a2 93 43 3f b9 15 a8 3e 05 d9 c2 3e
       0.43823627 0.76397145 0.32829073 0.38056198
000070 02 9b 61 3f eb aa 24 3f 8d 70 e3 3d 56 78 77 3e
       0.8812715 0.643233 0.11105452 0.24166998

encoder.block2.block.0.weight f4 [32, 32, 3, 3]
000000 6c a1 3d 3c 06 25 52 bc a3 86 70 3d 66 e5 7f bc
       0.0115741305 -0.01282621 0.05872215 -0.015618658
000010 66 5b c3 bc 74 33 25 bc 06 97 d2 bb 5d c7 64 3c
       -0.023847293 -0.010083068 -0.006426695 0.013963548
000020 36 42 b7 bc d0 9a b1 bb a0 bb 0b 3d 88 eb 8b 3d
       -0.022370439 -0.0054200664 0.03411448 0.068320334
000030 a7 1a da 3c 79 26 bf 3c 3b 92 70 3b 54 e5 3c bd
       0.026624037 0.023333775 0.0036708254 -0.04611714
000040 f5 f1 42 3d 4a bc 80 bc 2f ef f8 3c a0 b9 54 3d
       0.04759403 -0.015714783 0.03038749 0.05193484
000050 ca 30 87 bc 47 b0 a3 3b 93 e3 21 3d 30 7c c3 3c
       -0.016502757 0.004995379 0.039523672 0.023862928
000060 8a c4 82 bd dd e3 16 3d 0f fd 94 bb ce 6a e2 3c
       -0.06385143 0.0368384 -0.0045467685 0.027638819
000070 0e fc 33 bd 9d 6f 5a 3d ab cf 5b bd 81 d8 61 3b
       -0.04394155 0.0533291 -0.053664844 0.0034461322
000080 44 13 69 3d ab 41 45 bc ac 56 55 bd fe 97 d2 bc
       0.05690314 -0.012039582 -0.05208461 -0.025707241
000090 86 4d b8 3c 6c 8b 1c bd 34 fa 95 3d aa be c1 3c
       0.022497904 -0.0382189 0.07323113 0.023650486
0000a0 95 a3 1d bc f4 3a 3d bd e1 d7 d1 3c 71 a4 5a 3d
       -0.0096215205 -0.0461988 0.025615634 0.05337948
0000b0 1b 50 79 3c ae e5 94 bc b1 cb 86 3d b8 68 66 bb
       0.015216853 -0.018175926 0.0658182 -0.0035157632
0000c0 32 02 d3 3b 98 e4 67 3c c6 2c 21 3a 67 a7 1a 3d
       0.0064394707 0.014153622 0.00061483344 0.037757304
0000d0 c6 4a 8e bc 67 4e 32 3d ae d3 ac bc 34 7e 4a 3d
       -0.01736964 0.0435318 -0.02109703 0.049436763
0000e0 f4 c4 3b bd 07 8c 64 bd 0a 68 0d 3d ab da 90 3c
       -0.045842126 -0.055797603 0.034523048 0.017682394
0000f0 24 d1 a6 bc a8 6c a7 3c b5 97 2e 3c 48 63 10 bc
       -0.020363398 0.020437554 0.010656287 -0.008812733
000100 42 b1 97 bc 4e f1 a7 3b 5a 10 aa 3c 52 aa b2 bc
       -0.01851714 0.0051252013 0.02075975 -0.02180973
000110 85 06 30 3d 46 e8 48 bd 35 39 3a bd d6 f3 81 3d
       0.042974968 -0.04904964 -0.045464713 0.06345336
000120 c8 7b fb bc 8c d8 04 3c 6f 91 ce bc 8a 64 d2 3b
       -0.030698672 0.008108269 -0.025215833 0.0064206766
000130 76 1c ef 3c de 46 f6 bc fe e8 49 3d 6b 93 a6 3c
       0.029188376 -0.030063089 0.049294464 0.020333966
000140 a2 30 5a bc 9a d0 86 3d 0d cd 4d 3d e2 a4 84 bc
       -0.013317259 0.06582756 0.05024438 -0.016191904
000150 21 21 8d 3c 69 7b 28 bd 5c 25 a3 3b cc 3e ed bc
       0.017227711 -0.041133318 0.004978819 -0.028960608
000160 da e2 e3 bc 09 a7 33 bd 70 f5 df 3c e2 9a 81 3b
       -0.027818132 -0.04386047 0.027338713 0.003955231
000170 3d 27 77 3d 98 5e c6 bb 99 7b 7c bd 08 61 51 3d
       0.060340155 -0.006053757 -0.06164131 0.051117927
000180 19 f8 97 bc c4 b8 f2 b9 2f b7 a2 bc df b2 52 3d
       -0.01855092 -0.00046295498 -0.01986274 0.051440116
000190 90 21 e9 3b 2c 66 0b 39 83 5c 98 bc f4 24 0b 3d
       0.0071145967 0.00013294135 -0.0185988 0.033970788
0001a0 76 05 d9 bc e2 1c 96 bb 86 28 2d bb 5e 86 0d bd
       -0.026491862 -0.00458108 -0.002642186 -0.03455197
0001b0 4c 87 b5 3b 5e 3e 52 bd 46 5a e2 3a 6b 26 87 bc
       0.0055398103 -0.05132901 0.0017269335 -0.016497811
0001c0 c6 c8 a1 bd 28 6f c8 bc 88 c4 90 bd 5a e3 85 bd
       -0.078996226 -0.024467066 -0.07068735 -0.065375045
0001d0 ce 47 03 bd 04 c6 cd 3c 92 7d 03 3d ef a1 49 3b
       -0.0320509 0.025118835 0.032102175 0.0030766686
0001e0 46 2b 4f bd f0 27 cf 3b 6a ab 47 bc 01 39 07 3d
       -0.05057838 0.0063218996 -0.012186864 0.033013348
0001f0 a8 d2 c5 3c 1f 68 6c ba 50 81 57 bd c1 4a f2 bc
       0.0241483 -0.0009018201 -0.052613556 -0.029576661
000200 3b 71 bf 3c 8c 24 16 bc 9d ce 27 3d 94 6d e0 bc
       0.023369422 -0.009163987 0.040968526 -0.027396
000210 f3 cb 7a 3a ea ed aa 3b 63 50 0f 3c a6 75 8b bc
       0.0009567134 0.00521635 0.008747193 -0.017023873
000220 46 5f 78 3d 07 89 a5 bc 2e 94 28 3d 3d 9f 84 3d
       0.060637735 -0.020206941 0.04115694 0.06475685
000230 65 f1 70 3d 88 a1 84 bd 37 8e 47 bd 3e ef 56 3d
       0.05882396 -0.06476122 -0.04871961 0.052474253
000240 a8 55 96 3c fc 23 85 3d 76 af 5b 3d 02 1d 94 3c
       0.018351391 0.06501004 0.05363413 0.018080238
000250 e0 01 9e bc d2 70 5a bb e0 59 33 3c 50 96 a8 3c
       -0.019288003 -0.0033331406 0.010946721 0.020579487
000260 f9 df 83 3d 93 91 1b bd c9 62 70 bc 0a fd 39 3d
       0.06439204 -0.037980627 -0.01467199 0.045407332
000270 a0 66 27 bd eb 1c ea bc b7 f7 31 3d 6d 7d 2c 3d
       -0.040869355 -0.028578242 0.04344913 0.042111803
000280 f9 6a 75 3d 18 01 74 3d 1a 85 09 bc 14 3b 85 3d
       0.05991647 0.059571356 -0.00839355 0.06505409
000290 96 74 a9 bb 56 a7 e1 3c 52 ea 9b 3b 78 e3 76 3d
       -0.005171369 0.027545612 0.004758158 0.060275525
0002a0 90 f1 05 bd 8f 3e 10 bc 1b 63 54 bd b4 5e 58 3c
       -0.032701075 -0.008803978 -0.051852327 0.013206173
0002b0 e7 ae 3c bd f1 c8 eb bc 4b 7e 78 3c 91 6c fe 3a
       -0.046065237 -0.02878234 0.015166829 0.0019411017
0002c0 27 28 57 bc e4 06 75 bd 49 73 4d ba 2c e4 3e 3d
       -0.013132132 -0.059821025 -0.0007837308 0.04660432
0002d0 ef 6e 3a bd 95 ff 09 bd 95 94 71 3d 0e 27 08 3d
       -0.04551595 -0.033691008 0.05897959 0.03324037
0002e0 a1 21 80 bd c5 7b 81 bd 6c ea 32 bd 7b 8d 28 bd
       -0.06256414 -0.06322435 -0.043680593 -0.04115055
0002f0 71 b2 e4 3c 94 4d ff 3c 7c 06 8b bc ff d3 f3 bb
       0.027917119 0.031164922 -0.016970865 -0.0074410434
000300 b1 1b 61 bd a4 95 b4 bc 76 13 f0 3c 19 47 dc 3c
       -0.05495805 -0.02204401 0.029306155 0.02688937
000310 47 cc fd 3c a8 87 3a 3d 19 32 3a 3d da cf 79 3d
       0.030981196 0.045539528 0.045457933 0.06098924
000320 2c 8f b0 bc 1c c4 54 bd 4b 5a 98 3c e0 dc cc 3c
       -0.021552645 -0.051944837 0.018597743 0.025007665
000330 d4 bd 0f bd 33 16 5f bd bf 23 22 bd c4 bf 8d bc
       -0.035093144 -0.05446453 -0.03958487 -0.017303355
000340 a6 3b 67 3d c8 1c 1c bd d3 09 45 3d e3 2f 0a 3d
       0.05645337 -0.038113385 0.048105072 0.033737075
000350 56 fd 01 3d 5e 46 a0 3c 25 c6 a4 3c f3 44 f6 bc
       0.03173574 0.019564804 0.020114014 -0.030062174
000360 4f 76 a9 3c 93 53 c6 bb 2b 25 6e 3c c1 20 20 3d
       0.020686297 -0.0060524433 0.014535229 0.039093737
000370 77 23 83 3d 51 04 30 3d 88 03 9a bc 9c 9d 55 bd
       0.06403249 0.042972866 -0.018800512 -0.05215226
000380 ea f6 62 3c 44 a4 07 3d 61 df 55 3d 8b b5 af 3b
       0.013852814 0.03311564 0.052214984 0.005362218
000390 6b b3 2b bd 5b 58 37 bd ff db 14 bd c3 49 8a bd
       -0.041919153 -0.044761997 -0.036342617 -0.0675235
0003a0 61 3a f2 3c b8 b9 02 bd 15 11 6a 3d 13 8f a2 bc
       0.029568853 -0.031915396 0.057145197 -0.019843614
0003b0 63 67 9a bc f0 c0 8c 3b 1c 2d 2c bd 09 96 64 3d
       -0.018848127 0.004295461 -0.042035207 0.055807147
0003c0 7f 25 7c bc 1a fd c5 3c 6c 02 32 3c 32 81 ef 3c
       -0.015389799 0.02416854 0.010864835 0.02923641
0003d0 16 9b 4e 3d 2a af 7f bc 16 14 fd bc de d5 67 3d
       0.05044087 -0.015605727 -0.030893367 0.056600444
0003e0 13 35 42 3c fc 60 13 bc 97 2a 3f 3b 8c 20 8c bd
       0.011853474 -0.008995291 0.0029169673 -0.06842145
0003f0 e3 66 27 bc 33 a2 b6 3c 84 ca 15 3d ae 31 eb bb
       -0.010217401 0.02229414 0.036570087 -0.007177553

encoder.block2.block.0.bias f4 [32]
000000 0e ca ad bc 53 2f 48 bd dd 0e 36 bd 14 6b e9 bc
       -0.021214511 -0.048873257 -0.04444777 -0.028493442
000010 28 d4 81 3d 12 5c ab bc e8 94 22 3d 7e 16 99 3d
       0.06339294 -0.020917926 0.03969279 0.07474993
000020 28 23 7b 3d b8 f8 3f 3d c5 1d be bc ea 4a 86 3d
       0.061312824 0.046868056 -0.023207555 0.065572575
000030 b9 20 bd 3d 44 0a 3b 3d 71 bd 3e 3c 88 ab 7c bc
       0.09234757 0.045664087 0.011641846 -0.015421756
000040 7d fa 4e 3c 2a c5 39 3d a5 c0 5e 3d da be 31 3c
       0.012632963 0.045354046 0.05438294 0.010848725
000050 65 fa 57 bc ef 0b 2b bc ed 9f 8b bb e4 fc 0b 3d
       -0.013182257 -0.010439857 -0.004261008 0.034176722
000060 dc 69 12 3d 8d f4 07 3d 88 05 0f 3c 66 d4 92 3d
       0.035745487 0.033192206 0.008729346 0.07169418
000070 a2 9d ce 3c a4 9b 43 bd f9 b2 51 3d b8 55 c2 3c
       0.02522165 -0.047755852 0.051196072 0.023722515

encoder.block2.block.2.weight f4 [32]
000000 b5 2c 75 3f a3 08 72 3f 0c 73 75 3f 7d cf 70 3f
       0.9577134 0.9454443 0.9587867 0.940666
000010 2c 24 72 3f 83 19 6f 3f ea 97 72 3f 26 6d 70 3f
       0.94586444 0.933983 0.9476305 0.9391655
000020 87 43 72 3f 8d 94 73 3f eb 34 75 3f a7 56 6f 3f
       0.9463429 0.95148546 0.9578387 0.93491596
000030 99 ba 70 3f 94 27 74 3f 5f fe 71 3f 82 a6 73 3f
       0.94034725 0.9537289 0.94528764 0.95175946
000040 2b 37 70 3f bc c5 74 3f 67 7b 70 3f ae 56 75 3f
       0.9383418 0.9561422 0.939383 0.9583539
000050 f7 42 72 3f 55 80 72 3f 8c 1d 75 3f 34 3f 74 3f
       0.9463343 0.9472707 0.9574821 0.9540894
000060 0d 7a 71 3f fb 93 73 3f d7 3a 75 3f 73 e1 71 3f
       0.9432686 0.95147675 0.9579291 0.94484633
000070 43 8c 71 3f a3 94 74 3f 58 34 72 3f a6 6d 72 3f
       0.9435465 0.955393 0.9461112 0.9469856

encoder.block2.block.2.bias f4 [32]
000000 8e c1 43 bb 05 6e 9e bc 31 85 aa 3b e5 05 63 bb
       -0.0029870006 -0.01933957 0.005203866 -0.0034640965
000010 e5 27 8f 3c d1 02 b9 3b 06 75 20 3a e7 fa 03 bb
       0.017475078 0.0056460877 0.00061209535 -0.0020138563
000020 05 f2 5b bb 26 43 0d 3c 0e 77 44 3b 34 c4 59 3a
       -0.0033561003 0.0086219665 0.0029978189 0.00083071296
000030 0b 59 56 bc a6 97 85 3c d3 7d 0e bc 78 c5 a3 3b
       -0.013082753 0.016307663 -0.008696991 0.0049979053
000040 bb 49 48 3b c1 d1 b4 3b 09 c1 eb 3b 69 7e 13 bb
       0.0030561525 0.0055181687 0.0071946424 -0.0022505766
000050 56 bc 7a 3b 99 db 40 3c ef 62 7c 3b c9 62 9e 3b
       0.003825923 0.011771106 0.0038511117 0.0048335535
000060 21 bc b4 bc 33 f4 95 3b 49 c6 b4 3b 16 8f a5 bb
       -0.022062363 0.00457623 0.0055168015 -0.0050524576
000070 fa a5 fc 3b f8 30 3c bb b2 90 a2 bc 9e 4d 2a 3b
       0.0077102156 -0.002871571 -0.019844387 0.0025986205

encoder.block2.block.2.running_mean f4 [32]
000000 03 1c d2 3d cc 67 0a 3e b9 bb 27 3e 4a 2b 28 3e
       0.10259249 0.13516158 0.16380204 0.16422763
000010 79 48 fe 3d 2a cb 14 3e 23 8c 40 3e 75 4c 20 3e
       0.12416167 0.14530626 0.18803458 0.15654166
000020 d5 c0 55 3e fe 61 34 3e 8b a9 0d 3e ac 81 89 3e
       0.20874341 0.17615506 0.13834207 0.26856744
000030 0c ab 3e 3e ee b8 21 3e 7b 55 33 3e 43 89 0c 3e
       0.18619937 0.15793201 0.17513077 0.13724236
000040 94 0f 24 3e 3c 15 6b 3e 6d 2c 24 3e 9b 65 b4 3d
       0.16021568 0.22957319 0.16032572 0.08808442
000050 e2 c8 14 3e 55 dd 16 3e 46 63 fc 3d 02 57 f3 3d
       0.14529756 0.14732869 0.123236224 0.1188183
000060 ba 8b 4a 3e cc cb 14 3e bb 76 3d 3e 71 43 2e 3e
       0.19779864 0.14530867 0.18502323 0.17017914
000070 cb ea 16 3e 78 55 05 3e 9d a5 32 3e 43 b8 6a 3e
       0.14738004 0.13020885 0.17445989 0.22921853

encoder.block2.block.2.running_var f4 [32]
000000 88 4b 82 3f 03 0b 80 3f d2 12 9f 3f 34 25 ad 3f
       1.01793 1.000336 1.2427619 1.3526978
000010 4b 0e cd 3e 27 0a 63 3f b7 44 c3 3f 4f 11 57 3f
       0.40049967 0.88687366 1.5255345 0.84010786
000020 22 ff bd 3f 91 f7 34 3f bd 7e 9e 3f eb c1 06 40
       1.4843485 0.70690256 1.2382427 2.1055858
000030 75 fd 4b 3f a4 74 5d 3f df 03 87 3f b8 f1 89 3f
       0.7968362 0.86506104 1.0548056 1.0776892
000040 6f f3 87 3f 4c 69 fa 3f 73 d2 72 3f 10 16 8c 3f
       1.0621165 1.9563384 0.9485237 1.0944233
000050 e5 04 7c 3f 8e 71 5b 3f c5 21 5f 3f dc d7 a5 3f
       0.9844497 0.85720146 0.87160903 1.29565
000060 b5 a7 aa 3f 1f e0 8b 3f 01 70 cf 3f cf 16 49 3f
       1.333243 1.0927771 1.6206056 0.7855043
000070 67 e4 86 3f 7f 36 a5 3f b8 b4 30 3f 68 83 fc 3f
       1.0538453 1.2907256 0.69025755 1.9727602

encoder.final.block.0.weight f4 [3, 32, 3, 3]
000000 9c 8b 99 bc 8d 0a f2 bb 9f 5e d4 bc 8b 97 29 3b
       -0.018743329 -0.0073865117 -0.025924025 0.002587768
000010 69 18 53 3d 64 f4 1d 3d 67 a1 cc bc aa 90 f9 3c
       0.05153695 0.038563147 -0.024979306 0.030464489
000020 9f 5f 3a bd 0d 33 3e bc 29 4c 40 3d ee 4a aa 3b
       -0.045501348 -0.011608851 0.046947632 0.0051969206
000030 49 b8 0d bd 5e 0c 39 3d 6a f8 31 3c 11 71 28 bd
       -0.034599576 0.04517781 0.010862449 -0.041123454
000040 20 1a 47 3c f8 7a 17 bc 8b b1 f8 3c 8f 53 56 bd
       0.012152225 -0.009245627 0.030358097 -0.05232578
000050 7c 8e 7c bc f2 1b 58 bd 42 1b 43 3d f7 0c a8 3c
       -0.01541483 -0.052761026 0.047633417 0.020513995
000060 77 1e 25 3c 81 61 a5 3c ac 5b 6c 3c 11 ca 29 3d
       0.010078064 0.020188095 0.014426153 0.04145247
000070 e0 46 01 3c c7 b0 db bb 17 31 af 3c 4e 4d e4 3c
       0.007890433 -0.006704423 0.021385713 0.027868893
000080 0f ae 50 bd 24 e9 e8 3c 51 eb 92 bc f7 53 29 bc
       -0.050947245 0.028431483 -0.017934473 -0.01033496
000090 5a 67 b0 ba c5 a9 79 bc 16 66 e1 bb 26 3b 17 bd
       -0.0013458536 -0.01523823 -0.0068786247 -0.036921643
0000a0 60 40 29 3d 3f 20 ee 3c d0 0c cb bc 8e 96 d3 3a
       0.04132116 0.02906811 -0.024786383 0.0016142891
0000b0 ba e0 a7 bc 34 08 15 bc 30 a4 e8 3c 26 23 0e bd
       -0.0204929 -0.009096194 0.028398603 -0.03470149
0000c0 aa d9 b5 3c 5b 9b 6f bc 69 09 aa 3b 93 09 81 3c
       0.022198517 -0.014624442 0.00518911 0.015751636
0000d0 82 fb 52 bd e8 95 ec b9 bb 89 21 bd 5d 3a 2c bd
       -0.051509388 -0.00045125117 -0.03943799 -0.042047847
0000e0 a3 8b 9c bb 61 ac 90 3c 21 56 30 bc 23 6d 65 bc
       -0.004777388 0.017660322 -0.010762722 -0.014003071
0000f0 5b f4 3b 3d da 71 09 3d da 29 87 bc ea 08 6a bc
       0.045887332 0.033555843 -0.016499449 -0.014284352
000100 16 7c 89 3c 52 2c 21 3c ec a6 01 bd 6e 1d 17 3d
       0.016782802 0.009837227 -0.03165333 0.0368933
000110 42 13 19 3b 4c 4e 10 3d f5 3f 02 bd 10 4a e5 3c
       0.0023357426 0.03523092 -0.031799275 0.027989417
000120 ee 65 f8 3b 2c 73 1e 3d 60 fd 0b 3d 19 d9 12 bd
       0.0075805103 0.038684055 0.034177184 -0.03585157
000130 44 ff 0e bd e6 d0 e2 bc 4a 22 12 3d bf 21 20 3d
       -0.03491141 -0.027687501 0.03567723 0.039094683
000140 9a 17 3d 3d e5 63 d8 bc e3 11 38 bc d6 7b 88 bc
       0.046165086 -0.02641482 -0.011234733 -0.016660612
000150 57 c2 03 3d 75 99 65 bd 6c 5f 1b bc ae c8 da 3c
       0.03216776 -0.05605455 -0.0094832 0.02670702
000160 9a d4 11 3b 4f 0f 83 3b 20 96 2d 3d 6a 6e 36 bb
       0.0022251965 0.0039996277 0.0423795 -0.0027836808
000170 d9 16 89 bc 8e fc 08 bd 4c e6 64 bc cb 62 04 3d
       -0.016734527 -0.03344398 -0.013970923 0.03232078
000180 b0 67 c3 bc bc 74 d9 bc 97 79 00 3d 93 9c 13 bd
       -0.023853153 -0.026544921 0.031365957 -0.036037993
000190 ca 28 bb bc 99 84 47 3d fe fc 4b 3d e9 cf 35 bd
       -0.022846598 0.04871044 0.04980182 -0.04438773
0001a0 38 36 b4 3c c2 35 5d 3d 01 e5 4b bd af 22 fe bb
       0.02199851 0.054006346 -0.049778942 -0.0077555995
0001b0 e6 59 29 3d 56 3f f0 3c 68 7a 1f bc 8d 51 b2 3c
       0.0413455 0.029327076 -0.009733774 0.021767402
0001c0 7d 8c 4c bd ee 61 7b bc 7a d0 51 bb c7 06 c5 bc
       -0.049938668 -0.0153431725 -0.003201513 -0.024051083
0001d0 4b fd f6 3c 2f b3 17 bd eb cb d5 bc 26 f9 6f 3c
       0.030150076 -0.037036117 -0.026098212 0.014646804
0001e0 4a 43 b9 bc 8b 21 11 3c 52 2c 4b bd 25 cc 39 bc
       -0.022615094 0.008858095 -0.049602814 -0.011340176
0001f0 47 93 e1 bc 80 03 6e bc d3 80 28 3d b3 c2 e5 bc
       -0.027536048 -0.014527202 0.04113848 -0.028046941
000200 20 6e 14 3b df e7 03 3a 5a 26 20 3d a1 b2 1c bd
       0.0022648647 0.0005031805 0.039099075 -0.03825629
000210 a1 ba e3 39 cf 02 09 3d bc a8 10 3d 65 5c 7d bc
       0.00043435863 0.033449944 0.035317168 -0.015463923
000220 0d 7d 74 3c 71 0d 39 bd e5 ab 87 3c a9 48 93 bc
       0.014922393 -0.045178834 0.016561458 -0.017978983
000230 ae 4d 69 3d 09 71 5f 3c 9a bb b4 bb e4 22 73 bc
       0.056958847 0.0136377895 -0.005515528 -0.014839862
000240 77 f7 da 3c 4f f4 2b bd 93 90 d4 3c 0f e7 3f bc
       0.026729329 -0.041981038 0.025947845 -0.0117128035
000250 53 1b f0 3b a1 ef 3a bd a4 7e ab ba 9f 80 1f 3b
       0.007327476 -0.045638684 -0.0013084006 0.0024338139
000260 10 08 0a 3d 1a 88 33 bd 28 bc 39 3c 87 96 22 3d
       0.033699095 -0.04383097 0.011336364 0.039694335
000270 a4 ba 34 bd 3a f7 d8 3c 41 6d 53 bc c6 a2 1e bd
       -0.044123307 0.026485074 -0.012904466 -0.03872945
000280 61 4d 45 bd f2 83 15 bd 9a bb 46 3d 7f 5e 5f bd
       -0.048169497 -0.036502786 0.048518755 -0.054533478
000290 0d 6d d4 3c a7 31 9b bc 76 b8 04 ba cf 26 c1 bc
       0.025930906 -0.018944575 -0.0005062887 -0.023578076
0002a0 a4 91 cc 3b 31 af 13 3d a7 d8 9c 3c a4 4b 09 3c
       0.0062429477 0.036055747 0.019146277 0.008379851
0002b0 63 3a c5 3c 8a 7c 95 3b e8 c9 09 bd 13 23 91 bb
       0.024075693 0.0045619654 -0.03363982 -0.00442923
0002c0 74 a5 56 3d 71 23 e3 3c 74 e3 f7 3c 87 44 38 bb
       0.052403882 0.02772686 0.030259825 -0.0028117017
0002d0 6f 56 3c 3c 2f e8 45 bd 64 73 1d 3d 6b e0 7a 3c
       0.011495217 -0.04831713 0.038440123 0.0153122945
0002e0 49 90 b5 3b b7 37 b2 39 d1 fe c1 3c 26 6d d0 bc
       0.005540882 0.00033992316 0.023681076 -0.025442671
0002f0 fe 59 a8 bc 0c 12 c9 bc 5f b9 4f bc 92 04 1c bc
       -0.020550724 -0.024544738 -0.012678473 -0.009522574
000300 8a cc 3c 3c 43 8f cd 3b 40 6b a4 bc 7f 88 65 bc
       0.011523375 0.0062731816 -0.020070672 -0.014009594
000310 f4 49 ac bc cb 31 21 bd a0 d2 d5 bc bb a4 12 bd
       -0.021031357 -0.039354127 -0.02610141 -0.03580163
000320 d8 50 3c 3c 2f 89 10 3d 89 bd 1c bd d7 b8 5d bd
       0.011493884 0.03528708 -0.038266692 -0.054131355
000330 a2 2d 67 3c 9e bf 35 3d 00 d6 33 bc b0 bb 8e bb
       0.014110001 0.044372194 -0.010976315 -0.00435587
000340 24 f0 02 bd 3b 40 de 3c b0 b5 86 3c 58 93 76 bc
       -0.031967297 0.027130237 0.016444057 -0.015049778
000350 1b e6 11 bd 69 2b 0e 3d 35 d4 29 3d 7b bc 02 3d
       -0.035619836 0.034709368 0.041462142 0.03191803
000360 7e 2e 76 3c 33 84 e8 3b 73 63 12 3d 2c f6 23 bd
       0.015025733 0.0070958375 0.035739373 -0.04002969
000370 34 77 c9 bc 78 1b 20 3a 7e b6 45 3c 9d ac 1e bc
       -0.024592973 0.0006107609 0.012067435 -0.009684709
000380 59 d9 e4 3c ac 88 28 bc b2 5c 7a 3c f0 ad cc bc
       0.02793567 -0.010286491 0.015280889 -0.024985284
000390 aa 5f c0 3c fc b4 97 3c cb ad 33 bd 64 6d 8a ba
       0.023483116 0.018518917 -0.043866914 -0.0010561165
0003a0 88 90 e4 3b 1b 56 14 3c 1c 88 f8 3c ce 6a 42 3c
       0.0069752373 0.009053732 0.03033834 0.0118662845
0003b0 42 42 46 bd 71 e9 f7 bc f8 38 ad bc 8f 41 fb bc
       -0.048403032 -0.03026268 -0.021145329 -0.03067091
0003c0 83 b8 35 bd 09 05 23 bd 1d e9 eb bc 62 8d 07 bc
       -0.044365417 -0.039799724 -0.02879768 -0.008273454
0003d0 eb 85 53 3c e5 8c af bb bb 1e 0f bc 38 1e 29 3d
       0.0129103465 -0.005357372 -0.008735354 0.041288584
0003e0 62 6f d0 3c 1b 6a 0c bd ac 4b d3 3c 94 5b e2 3c
       0.025443736 -0.034280878 0.02579292 0.027631558
0003f0 45 73 1e bd e0 b8 37 bd 06 8d dd 3b 68 4f 10 bd
       -0.03868415 -0.044854045 0.006761196 -0.035231978

encoder.final.block.0.bias f4 [3]
000000 46 a5 9c 3b b0 ac 13 3b 80 91 78 bc
       0.0047804443 0.002253335 -0.015171409

decoder.initial.block.0.weight f4 [32, 3, 3, 3]
000000 9f 78 25 3e 9f c4 93 3c a5 5b ce bc a2 05 7c bd
       0.16159295 0.018038092 -0.025190184 -0.06152881
000010 52 1e ab bd a1 4b b4 bd 9b 91 8c 3d 8f 69 d7 3d
       -0.083553925 -0.088034876 0.068637095 0.105181806
000020 a7 e1 4b be 5f 8f 36 be 61 d7 58 be 90 fd f6 3d
       -0.19910298 -0.17828129 -0.2117591 0.12060082
000030 7d 13 3b 3e da 86 1b 3d ee 2d f1 bc 77 2d 49 3e
       0.18269153 0.0379704 -0.029440846 0.1964625
000040 0d 2f ff 3d bd 60 4c 3c a5 4d c5 3d ba b9 80 3d
       0.12460146 0.012474236 0.0963395 0.062854245
000050 51 6d 23 be e8 a6 9d bd 3f 56 4c 3d 2f 32 e5 bd
       -0.1595967 -0.076978505 0.04988694 -0.111912124
000060 d4 3b 17 3e ef 1c 10 3e d7 15 11 be 6e ce 0c be
       0.14768916 0.14073537 -0.14168487 -0.13750622
000070 16 e6 93 bd ef 5d 19 be 8f ea c4 3d 04 61 63 3d
       -0.0722162 -0.14977239 0.09615051 0.055512443
000080 b6 9d e4 3d 78 d8 46 bd cb 5d 31 3e 65 33 fc bd
       0.111628935 -0.048546284 0.17320935 -0.1231449
000090 88 34 e6 3d 83 a4 ed 3c a6 d6 31 be f7 b8 33 3e
       0.11240488 0.02900911 -0.17367038 0.17551027
0000a0 34 72 0d 3e a1 a4 ba bd e3 dd 26 be 8a bb 48 3e
       0.13813096 -0.09113432 -0.1629558 0.1960279
0000b0 cf 35 28 be 5b c0 8a 3d 68 16 47 bd c1 33 e9 bd
       -0.16426776 0.0677497 -0.048605353 -0.113868244
0000c0 bd 3e 07 3e 2e 28 25 3e 27 74 56 bb 12 da 1a 3d
       0.13207527 0.16128609 -0.003272304 0.037805624
0000d0 e9 34 fb bd 76 3c ff bc 5e 73 0c bd ef 0c 9a 3d
       -0.12265951 -0.03115676 -0.03428971 0.07521998
0000e0 d3 d2 ad 3d 9c 11 cb bb 1d 9a 66 be b0 b4 10 3e
       0.08487477 -0.0061971676 -0.22519727 0.14131427
0000f0 85 fa e9 bc ee 7f 97 bd b8 4a 34 be ad 7c 0a be
       -0.02856184 -0.073974475 -0.17606628 -0.13524123
000100 d1 22 a1 bd 3c f9 92 3d f9 fd be bd 93 e3 28 be
       -0.07867969 0.07176444 -0.09325785 -0.16493063
000110 9b ba 03 bd dd 1a 0f 3e 88 f3 ed bc 5b 94 82 bd
       -0.032160383 0.13975091 -0.029046789 -0.06375953
000120 bb b1 8b bd 32 3b c8 bd ac 7d 95 bd bd 3e c3 bd
       -0.06821009 -0.097769156 -0.07299361 -0.09533451
000130 8b 12 b1 3a b8 9d b5 bc 3d 12 0d 3e b6 4c 4d be
       0.0013509555 -0.022169933 0.13776489 -0.20048794
000140 32 eb 7e 3d 16 ce 40 bb 88 80 2a 3e cf 18 63 3d
       0.06223602 -0.0029419712 0.16650593 0.05544358
000150 b4 76 0c bd 19 b6 83 bd 07 90 5e 3c 6b 72 0d be
       -0.03429289 -0.06431217 0.0135841435 -0.13813178
000160 84 9c 0f be 4d 49 ff 3d 69 b9 26 3d 20 52 0b 3e
       -0.1402455 0.12465153 0.040704165 0.13605547
000170 e8 ad c7 3d aa 4a 1a 3d 8e 46 22 be cb 04 0a 3c
       0.09749967 0.03766886 -0.15847227 0.008423994
000180 af 6d e8 b9 b1 07 15 be 69 c5 9a 3b fb aa a6 bc
       -0.0004433221 -0.14553715 0.00472324 -0.020345202
000190 24 c3 d4 bd 3e 06 63 bd 5c 0e 11 3e 00 9a 76 bd
       -0.103887826 -0.055425875 0.14165634 -0.06020546
0001a0 33 99 97 3d 94 b5 e2 bc 9c e1 09 bb b6 15 3f be
       0.07402267 -0.027674474 -0.0021039015 -0.18660626
0001b0 b1 31 98 3d 38 ba 07 be 72 ad 2e bc bb 0a 5e bb
       0.07431353 -0.1325463 -0.01066147 -0.0033880908
0001c0 ef 0d 07 be a8 69 97 bd 6f 59 04 be bd 12 c9 bd
       -0.13188909 -0.07393199 -0.12924741 -0.09818027
0001d0 a6 86 cc bb 07 19 28 bc fb 8b 1b bd 9d ff 00 be
       -0.0062416373 -0.010259873 -0.037975293 -0.12597509
0001e0 3d cb 14 be 6c a8 43 3e 6f 98 bb bd 0d 18 e1 3c
       -0.14530654 0.19107217 -0.09159934 0.027477289
0001f0 9c 54 7b 3d 98 d8 93 bc 4d 55 f7 3d 51 2f 89 3d
       0.061359987 -0.018047616 0.12076817 0.06698478
000200 69 20 31 bd 82 c6 d9 bd 89 e1 ca 3d 9f 65 2b 3e
       -0.0432438 -0.106335655 0.09906299 0.16737984
000210 5b fb 24 3e 35 44 be bc 3f c9 0d be 3e 7e 8d bd
       0.1611151 -0.023225883 -0.138463 -0.069088444
000220 1c 38 c8 3d 8f 4a 17 bd fe b1 50 3e 8f ab 51 be
       0.09776327 -0.03693634 0.20380399 -0.204756
000230 a1 b7 a2 ba cb e5 05 3e 93 c5 c2 bd 86 5d 00 bd
       -0.0012414345 0.1307594 -0.095103405 -0.03133919
000240 67 aa 63 3c ac 22 35 bd 3d e0 7e 3d 1d 4d 07 be
       0.013895608 -0.04422252 0.06222557 -0.1321301
000250 28 20 ab bc 78 f9 b7 bd 02 33 14 be fb 40 1a be
       -0.020889357 -0.08983129 -0.14472583 -0.1506385
000260 df 72 84 bd d9 b2 d8 bc 05 19 02 be 92 55 f0 bd
       -0.064672224 -0.026452469 -0.12704857 -0.11735071
000270 a5 7e 2f be 2b 98 e8 bd 23 86 c1 3d 4f 2e 45 3e
       -0.17138155 -0.11357149 0.09449413 0.19255947
000280 c8 2a 7a bc db 95 34 bd 56 09 c8 bc 78 b0 18 be
       -0.015268989 -0.044088226 -0.024418514 -0.14911067
000290 52 28 43 be 94 ae 4d be eb 51 24 be bf 49 00 be
       -0.1905835 -0.20086128 -0.16046874 -0.12528132
0002a0 b0 88 91 3d cc d4 b1 bd f6 a4 8f 3d 78 d1 0f 3e
       0.07106149 -0.08683166 0.07013886 0.1404475
0002b0 6c 1f 8f bd c5 fd 00 be 9a 77 ac 3b a0 10 fd 3d
       -0.06988415 -0.12596805 0.005263281 0.123566866
0002c0 fd 2a 12 be 0e 6a c2 3c 75 10 22 3e e5 ed 32 3d
       -0.14274211 0.023732211 0.1582659 0.043683905
0002d0 c4 37 58 3d 99 d7 f0 3c 31 32 1c 3e 76 fe 6d 3c
       0.052787557 0.02939968 0.15253522 0.014526
0002e0 4f a5 20 bd 44 a3 f2 3d 07 9e 33 3e 8a 9d 13 3e
       -0.03922015 0.11847547 0.17540751 0.14415565
0002f0 4a 29 bc bd 8c f9 7f 3d f6 09 4b 3d 8a 87 fe 3d
       -0.09187563 0.062493846 0.049570046 0.12428196
000300 52 22 05 3b 3e dd 2e 3e e4 eb 9e 3c 85 fb 2b 3e
       0.0020314646 0.17076585 0.01939959 0.16795166
000310 d9 c5 d9 3c 8b 24 32 bd 87 ed df bd 79 eb 29 be
       0.026583599 -0.04349188 -0.109339766 -0.16593732
000320 80 a8 1e be 4c 2d 3d be 22 fe ae 3d af 64 b3 bc
       -0.15493965 -0.1847431 0.08544566 -0.021898596
000330 90 63 ad 3d 25 39 93 3c ab 9e 19 3d a4 de b4 bd
       0.08466256 0.017971585 0.037504833 -0.08831528
000340 ec de ee bd c8 46 0c be 9d 0e 6b bd e6 e6 0e 3e
       -0.11663613 -0.13698876 -0.057386983 0.13955268
000350 a9 5c 17 3e 3a 28 24 3d 2d 42 54 bd 53 5e 28 be
       0.14781441 0.040077426 -0.051820923 -0.16442232
000360 05 2e af 3d 04 c9 a4 bd 44 fb ef 3d 44 fe b3 3d
       0.085536994 -0.08046153 0.11717847 0.08788732
000370 c7 39 40 3e af 72 54 be ed eb 4c bc 57 c7 70 3d
       0.1877204 -0.20746873 -0.012507421 0.058783855
000380 1a 34 00 3d 3b 43 ee 3b b4 6a d1 bd 7e 5d 0b be
       0.031299688 0.007271198 -0.1022543 -0.13609883
000390 7d 8e b3 3d a5 7e 26 3e 23 a4 1f be 9c 6b 92 bc
       0.08767412 0.16259249 -0.15589957 -0.017873578
0003a0 e5 f4 3d bd ad 1a 37 bc 63 4b 8f 3d 71 f1 21 be
       -0.046376128 -0.011175794 0.06996801 -0.15814759
0003b0 1b 67 a7 bd ec eb 1c be 56 24 ef bd c0 86 05 3d
       -0.08173963 -0.15324372 -0.116768524 0.03259921
0003c0 e8 e8 8e bd ed 80 08 3d b1 0f 91 3c 83 79 5a 3e
       -0.06978017 0.03332608 0.017707678 0.21335416
0003d0 21 a2 44 be 7d 0b 14 3e cb 7d 19 3c ed 2a 7d 3b
       -0.19202472 0.14457507 0.00936837 0.0038630322
0003e0 de c5 9b bd 6d 7f 0e 3d 47 02 1b 3e 18 7a 38 3d
       -0.076060995 0.03478949 0.15137587 0.045038313
0003f0 6c 5e d7 bc f1 cb ff 3d 5d 5e 41 bd 6f 77 e7 bd
       -0.026290141 0.124900706 -0.047209132 -0.11302077

decoder.initial.block.0.bias f4 [32]
000000 b7 ff 0a be a0 fb 5f 3d 4e 74 fe 3d 10 3c ec bd
       -0.1357411 0.054683328 0.12424527 -0.115348935
000010 e0 8a 8a 3d 37 f9 04 bd e6 a9 8f bd e8 ce 37 bd
       0.067647696 -0.032464232 -0.070148274 -0.044875056
000020 61 88 ff bd fd 47 bc bd 1d 2a 0c be f3 43 40 be
       -0.12477184 -0.09193418 -0.1368794 -0.1877592
000030 eb fa 09 be 15 f0 9e bd 06 11 69 bc 3b 5c 11 be
       -0.13474624 -0.07760636 -0.01422525 -0.1419534
000040 17 29 dd bd 30 94 83 bd 07 4a ae bd fb 62 c5 bc
       -0.10798853 -0.06424749 -0.08510213 -0.02409505
000050 c0 72 22 3e a6 5d 82 3d 6e 08 4a 3d 98 2b a4 bd
       0.15864086 0.06365518 0.049324445 -0.08016127
000060 5f 3c 31 be b8 e1 d0 bc 4a fa 38 be f7 f5 10 3e
       -0.17308186 -0.025498256 -0.18064228 0.14156328
000070 26 1b fd 3c 43 f3 f4 3d a8 5f a6 bc f1 82 45 3d
       0.030896734 0.11960461 -0.020309284 0.04822058
