models/normal/DenseSteganoGAN/9/epoch_4.pth (torch, 399764 bytes, 59 tensors)

encoder.initial.block.0.weight f4 [32, 3, 3, 3]
00000000: 60df d83d 8aa5 0b3e 171c ce3d 6ce7 9ebd
00000010: e275 3a3e 3dd2 17bd 7799 b03d 1930 48bd
00000020: 6c11 1ebe 9e92 d23c b02b e33d 439b f6bd
00000030: 16df e1bd 792b c4bd 3f5d 4b3e 1855 fa3d
00000040: 0d36 4a3e 6b31 5dbd 86f8 313e 2560 3c3e
00000050: 0559 453e 4b29 ec3c cd5d 473e 5ba9 dcbd
00000060: ea68 eabd f1bb 95bd f5fe f6bd a2b5 03be
00000070: 9730 df3d 49b6 243c 47b9 453e 2e94 9bbc
00000080: 5bdb a4bc ea47 ee3d 7973 853d b1d6 873d
00000090: 1f43 cc3c 3b04 643e 5734 2a3e 8ea5 d0bd
000000a0: 8cff 6fbb afcc 2c3e abc4 2b3d f8d9 f43d
000000b0: eb83 763c 2901 2cbc 3173 1fbe 799d a2bd
000000c0: 7f63 0fbe f5c8 303d c466 563e e1a0 203e
000000d0: 8a08 013d e0df db3d 03e7 683d 7ad9 52bd
000000e0: 0edc 093d 4644 04be 18fb 393e 8f9a 503e
000000f0: e9bd e4bb bf98 f2bd 3eaa 053e f0c4 063e
00000100: 9a7d 90bd 8d97 5a3e 72fd f83d fcb5 b73d
00000110: 5892 e0bd 84a6 c33d d792 893d 0e6c 133e
00000120: 5542 e6bd 3286 1c3c 35e9 dbbd e5c7 433c
00000130: c748 113e ad3e e53d 2e5a 033e 5f7c 4f3e
00000140: 3f58 183d fd83 a8bd 1bf2 6fbd 1df6 d9bd
00000150: 1e2e 59bc ba29 e53d 0335 7c3c 51f3 6dbd
00000160: 8961 26be 4166 e33c f795 db3d 15cb 2fbe
00000170: 133c 0dbe 7477 09bc 1a0b 15be 60ee ddbd
00000180: 215f 4fbd a56f 043e f2a4 043e 9182 82bc
00000190: 1f09 2dbe d45b 2bbd 5236 23be a8c2 94bd
000001a0: 9410 e8bd 10b8 0e3d 05ed 8bbd 992e 60be
000001b0: afbe 093e 58f7 5abd a327 59be e257 c3bd
000001c0: 9ff8 58be d4c1 d63d 2294 3cbd e621 e0bd
000001d0: f7b6 fd3d fa59 45bc 6efc 4fbe ff9d 29be
000001e0: 404f c63d 2641 44be 9231 a53d bb65 43be
000001f0: f91a 8b3d a9a3 abbd be1b 24be 602a 2e3e
00000200: 6b26 c83c 3ef3 1bbd 4296 813d d892 4abe
00000210: 2e4d 8a3d 45ac 14be 8211 2bbe 1a79 02bc
00000220: b184 b3bd e916 183e d2d8 ffbd 3090 a03d
00000230: d618 10bd bd9c 8ebb 1227 c53d de66 05be
00000240: 3606 04be 9793 2d3d 0796 06be b0c9 17be
00000250: 3ad5 35bc 10c9 42be 8125 2f3d 2c4b 2c3e
00000260: 7398 09bd fa9e f3bc dbf3 0cbe d120 e9bd
00000270: 4135 08be 8c9d 15bd 92b4 c13d 2c94 7d3c
00000280: 86d2 22be f42a 143e fae3 a8bd 0991 13be
00000290: 8d65 763d a5ca 2a3e ffca 2c3e 8776 0d3c
000002a0: efeb 3c3e ea79 bb39 9e5e c43c 9111 96bd
000002b0: 6af9 f3bc 4a90 c6bd dd74 6d3d 6490 4f3e
000002c0: 6c6c 073e 7d66 d03d 6eae 163e decb c9bd
000002d0: 330c 93bd 64ca d5bd d2a2 0e3e 6cfd 99bd
000002e0: f121 0ebe 9454 1a3c 11bd 983c 37e9 113e
000002f0: 7271 f03d 54f4 a3bd 5ef4 30bd 922b edbd
00000300: 1531 293e c86f 78bd 18fd 20be ef8a 41bc
00000310: b2c4 4e3e 06f1 3abd 290b f1bc 20d1 a83d
00000320: a648 c4bc b5e3 333e 3862 6d3d b464 90bd
00000330: da23 c73d 4a41 153e 3df9 8a3d 4371 ee3c
00000340: d9d5 8ebd 52db 423e 417f a33d 0162 adbd
00000350: dc06 babd 33b4 67bd 52c4 033e 4d09 0d3e
00000360: b956 ce3d ae6a 9f3c 5223 193e 7184 2a3d
00000370: 9f06 a13d 0577 b53d 21be 1f3e f137 e1bd
00000380: 498d 18be 37b1 0abe 9e5f bcbc 353d 1d3e
00000390: 97c2 e23d f2b8 0abe b906 013e 728a 343e
000003a0: 9878 df3d 22bb ba3d 8fab 0b3e fdd1 4f3e
000003b0: df26 003d 654e 73bd 9225 383e cba8 05be
000003c0: d167 d4bd 2546 9a3d 5759 c9bd d600 2ebe
000003d0: 209f aabd 4ebf 1a3e fee9 6c3d 6b6c 183d
000003e0: 4a60 af3d cf44 77bd e738 3abd 1ec3 bfbd
000003f0: 0c7a a3bc 6b3f 2c3e b9c9 f9bd fb23 b9bd
0.105894804 0.13637367 0.100639515 -0.07758984 0.18209031 -0.037065733 0.08623021 -0.048873994
-0.15436333 0.025704678 0.11092317 -0.120413326 -0.110288784 -0.09578604 0.1985979 0.122232616
0.19747181 -0.054002207 0.1737996 0.18396051 0.1927224 0.028828284 0.19469376 -0.107744895
-0.11445792 -0.073112376 -0.12060348 -0.12862256 0.1089794 0.010053226 0.19308959 -0.018991556
-0.020124128 0.1163481 0.06516165 0.06632746 0.02493435 0.22267239 0.16621529 -0.10187827
-0.0036620824 0.16874956 0.041935604 0.11955637 0.0150461 -0.0104983235 -0.15571286 -0.07940192
-0.14002798 0.043160398 0.2093764 0.1568637 0.031502284 0.1073606 0.056860935 -0.051476933
0.033657126 -0.12916669 0.18162191 0.2037146 -0.006980647 -0.1184554 0.13053223 0.13161063
-0.070552066 0.21346875 0.12157716 0.08970258 -0.10965413 0.09553245 0.067174606 0.14396688
-0.112431206 0.009553479 -0.1073784 0.011949514 0.14187919 0.11193595 0.1282737 0.20262288
0.037193533 -0.082283 -0.0585805 -0.106426455 -0.013255624 0.11189599 0.015393498 -0.058093373
-0.16248144 0.02775872 0.10721963 -0.17167313 -0.13792448 -0.008390296 -0.14555016 -0.10836482
-0.05062783 0.12933214 0.12953547 -0.0159314 -0.1689801 -0.04183562 -0.1593869 -0.0726369
-0.11331287 0.034843504 -0.06832317 -0.21892776 0.13451646 -0.05345854 -0.21206526 -0.09538247
-0.21188591 0.104861885 -0.046039708 -0.109439656 0.123884134 -0.012045378 -0.20311138 -0.16564177
0.096830845 -0.19165477 0.080660954 -0.19081776 0.06792254 -0.08380825 -0.16026208 0.17008352
0.024432382 -0.03807377 0.063274875 -0.19782579 0.06753002 -0.1451884 -0.16705897 -0.007963443
-0.08765543 0.1485249 -0.12492527 0.078400016 -0.035179935 -0.0043521808 0.09626593 -0.13027522
-0.12892994 0.04237708 -0.13143168 -0.14823031 -0.0110982 -0.19022012 0.042760376 0.16825551
-0.033592653 -0.029738892 -0.13764898 -0.11383212 -0.13301565 -0.0365272 0.09458269 0.015477221
-0.15900621 0.1446951 -0.08246608 -0.14410795 0.06015544 0.16678865 0.16874312 0.008634216
0.18449377 0.00035758252 0.023970898 -0.07327569 -0.029782016 -0.0969549 0.057972778 0.20269924
0.13224953 0.10175798 0.14714977 -0.09853338 -0.07180061 -0.104389936 0.13929299 -0.075190395
-0.13880135 0.009419579 0.018644841 0.1424912 0.11740388 -0.08005586 -0.043201797 -0.11580576
0.1652263 -0.060653478 -0.15721548 -0.0118129095 0.20192221 -0.045640014 -0.029424267 0.082430124
-0.023960423 0.17567332 0.057954997 -0.070504576 0.09723635 0.14575687 0.0678582 0.029106742
-0.06974382 0.19028977 0.07983256 -0.084659584 -0.090833396 -0.056568336 0.12867859 0.13773079
0.10075135 0.019460049 0.1495488 0.041630212 0.07862591 0.08860592 0.15599872 -0.10996998
-0.14897646 -0.13544165 -0.022994813 0.1535538 0.11072271 -0.13547114 0.1260022 0.17630938
0.10911673 0.09117724 0.13639663 0.20294948 0.03128707 -0.059400935 0.17983082 -0.1305267
-0.10371364 0.0753291 -0.09831493 -0.16992506 -0.08331132 0.1511204 0.05784034 0.03721277
0.085632876 -0.060368355 -0.045464423 -0.093633875 -0.019955657 0.16821067 -0.12196679 -0.09040066

encoder.initial.block.0.bias f4 [32]
00000000: b911 8b3c 24e2 0dbe a9b3 c8bc 5a19 4d3d
00000010: cead bcbc fe45 f1bd 1f47 873d c52b 453e
00000020: 296e 65bc b403 f9bd cf64 0dbe c223 d1bd
00000030: b773 1abe 3f82 f33d c56d 583e 6241 9c3b
00000040: e2e4 883b aed3 6c3e 0e08 9dbd 8140 b43d
00000050: 9bd4 b13d c34c e63d ea14 1ebe f028 863e
00000060: 4ccf 04bd 41b4 3f3e bb71 f1bd 7482 ebbd
00000070: 06a4 533e 95b2 afbd db74 bcbd 84c9 b9bd
0.016976224 -0.13855797 -0.024499731 0.050073005 -0.023032095 -0.11780928 0.06605362 0.19254978
-0.014003315 -0.121589094 -0.13807987 -0.102118984 -0.15083204 0.11890077 0.21135624 0.0047685364
0.0041776756 0.23127624 -0.07667552 0.08801366 0.086831294 0.1124511 -0.15437666 0.26203108
-0.032424256 0.18721105 -0.117892705 -0.11499491 0.20668039 -0.08578984 -0.09201976 -0.09071639

encoder.initial.block.2.weight f4 [32]
00000000: 2577 7b3f ef93 7d3f c684 813f d715 753f
00000010: fbd9 7c3f a494 7d3f c75f 7a3f 34b3 703f
00000020: 3713 7e3f 0e03 7b3f 8b61 7e3f a858 773f
00000030: d29d 7b3f af50 6b3f 065e 733f 3baf 6d3f
00000040: 3f76 703f e456 6f3f 8d58 7e3f e5d4 793f
00000050: e98f 783f 46bd 723f 8c57 7d3f 3e0e 6d3f
00000060: f277 783f b3c6 7e3f 657e 7e3f 1118 7f3f
00000070: a182 713f c526 7f3f ef45 773f 7fc8 803f
0.98228675 0.99053854 1.0118644 0.9573645 0.9877011 0.9905493 0.97802395 0.9402344
0.9924807 0.98051536 0.9936759 0.96619654 0.9828769 0.9191999 0.95065343 0.92845505
0.9393043 0.9349196 0.9935387 0.97590476 0.9709459 0.9482006 0.9896171 0.92599857
0.9705802 0.9952194 0.9941161 0.996461 0.9433995 0.9966853 0.96591085 1.0061187

encoder.initial.block.2.bias f4 [32]
00000000: 9463 6b3b e5b9 31bc 609f 69bc 8cc0 8ebc
00000010: 4fce a3bc 13b7 c63b 33b2 983c 2caa 8fbc
00000020: 068d df3c 9425 8d3c fe69 d2bc 8aac 8cbb
00000030: f998 173d 59ff c03c 48c8 e23c a3d4 a93c
00000040: dc02 d83c 165f a03c 5080 c1bc 0a37 3dbc
00000050: f26d 9fbb 082e 703c a1ae fc3c 8a85 29bc
00000060: 9e74 bfbc e721 de3b 3480 1f3a cbdd 6a3c
00000070: 9aa3 3c3c f7bc e03b af9a 83bb c039 4fbc
0.0035917507 -0.010847543 -0.014259189 -0.017425798 -0.019995837 0.0060643046 0.01863966 -0.017537199
0.027288925 0.017229833 -0.025685307 -0.004293029 0.03701112 0.02355926 0.027683392 0.020731276
0.026368551 0.01957659 -0.023620754 -0.011548767 -0.0048654014 0.014659412 0.030844988 -0.01034678
-0.023371037 0.006778944 0.00060844724 0.014335106 0.011513615 0.006858464 -0.0040162425 -0.012648046

encoder.initial.block.2.running_mean f4 [32]
00000000: 5867 cb3e bb2f bb3e c6c8 0d3f f287 a1bb
00000010: f28c bdbb 4344 93bb f47c c53e 8964 e33e
00000020: 1d86 dd3e a6d0 44bb ccb8 d03e 33cb 70bb
00000030: 0a4e a9bb 0dbb b63d e1ec 293c b698 1a3e
00000040: 0598 0e3e 81f3 103e aa8b ed3e 7c93 023f
00000050: 223d c33e ef11 5c3b 2a11 c2bb 7241 223e
00000060: 89c8 b93e 3354 063f 6d18 f63e 8bd7 b8bb
00000070: 0c64 023e 0f22 b1bb 55fd a4bb d0b1 ff3e
0.39727283 0.36559853 0.5538448 -0.004929536 -0.0057846243 -0.0044942214 0.38571894 0.4441264
0.43266383 -0.003003159 0.4076599 -0.003674221 -0.0051667737 0.08922396 0.010371418 0.15097317
0.13925178 0.1415539 0.46395618 0.51006293 0.38132578 0.0033580025 -0.0059224563 0.15845278
0.3628581 0.5247223 0.4806551 -0.005640929 0.12733477 -0.0054056714 -0.0050350823 0.49940348

encoder.initial.block.2.running_var f4 [32]
00000000: 4a61 163d b86c 603d ab54 9d3d e3a8 a437
00000010: 5cf6 ea36 90fb 3436 b741 de3c 52bc 993c
00000020: 45ac 3a3d b884 5a35 cffd 893d 8899 f035
00000030: 61cb 5f36 73c9 1d3b 5aea a53a b708 353c
00000040: e197 0e3c a058 583b b456 873d e0b3 403d
00000050: a44f b53c 88c2 9339 3cba 9e36 e338 dd3b
00000060: 4164 193d 3984 dc3c 5cb2 a33d 9076 a236
00000070: 292c 4a3b 8d49 a636 4431 8b36 6610 a63d
0.036713876 0.054791182 0.07682165 1.9628967e-05 7.0024234e-06 2.6968519e-06 0.027130945 0.018766556
0.045574445 8.140446e-07 0.06737863 1.7926077e-06 3.3347972e-06 0.0024076372 0.0012658343 0.011049441
0.008703203 0.003301181 0.06608334 0.047046542 0.022132702 0.00028182962 4.7304475e-06 0.006751166
0.037449125 0.026918517 0.07993004 4.8417787e-06 0.0030849075 4.955748e-06 4.148258e-06 0.081085965

encoder.block1.block.0.weight f4 [32, 41, 3, 3]
00000000: 0a41 6b3d 2cad 59bc ff4a 98bc 258a 343d
00000010: 0d50 ac3c 7574 f1bc b41a 1b3d 8305 7a3d
00000020: f03e babc 81c8 d63c eb15 403c df24 e63c
00000030: a52e 983a 2f63 5e3d 3f19 1abd 0539 1fbd
00000040: 004a 6abc 92f7 ddba ed9f 66bc 85d4 6b3d
00000050: ec73 fe3c 7a1c 6a3d 751a 953c 4e4a 223d
00000060: b1e9 76bc 6ecd da3c bf7b 783c 78ef 80bc
00000070: 2cb3 47bd 0462 fd3c 41f0 5ebc 0bbd 283c
00000080: 3ad9 72bd 1a2b 9cbc a245 aabc 07b0 dabc
00000090: ab13 7fbd b616 3dbc 15d3 c03c fc8a 9dbc
000000a0: b4ef 82bd 0773 613c eca5 7fbd 343d c53b
000000b0: a0a1 73bd ace0 df3c c3bc 84bd df22 093c
000000c0: 96bc 7ebc e4c6 e43c 6602 753c 017e 023d
000000d0: 03ff 6abd a79c 14bc c979 87bc 12a0 cebc
000000e0: 960f 3d3c 4fd0 5cbc 468c 093d f3a1 b6ba
000000f0: 03ea 26bc 851d 993c 4e43 443d ced5 b0bc
00000100: 5436 093c 1129 0dbd 832b 863c 32b3 a5bc
00000110: ea9c 17bd 0fc7 2abc 71e5 c9bb 3a86 a6bc
00000120: 5d93 8c3d 8f11 883d 092f d83c ac88 013d
00000130: 5427 8d3d 61e1 e4bc f836 703c 6af8 a1bc
00000140: d541 1dbd 510b 96bb 60eb 1a39 7c18 10bd
00000150: f958 443d 845f 7abb 5363 4e3d eb54 d1bc
00000160: 028a edbb c3b8 b33b 67b1 dcbc b5e2 efbc
00000170: f5d2 433d 8203 383d 55de 2e3d 22b3 623d
00000180: e9dc 363d c8b0 683d ed5d f23b eb7b f5bc
00000190: 33b8 733a c107 343d bd72 54bc c96f 31bc
000001a0: 0ff9 0cbc 8888 273c f260 a3bb 118b 52bd
000001b0: f3bf 8b3c 4384 63bd ba1d 8abc ee63 2f3c
000001c0: c357 053b d0f2 99bb 70ef 6bbd 6224 a1bc
000001d0: db50 0a3d a473 f63c ca32 b8bc 74c0 973c
000001e0: c285 c4bc ab89 57bc ac27 483c 86af 88bc
000001f0: 45cc e1bb 7a8d 8bbc 3c2b 92bc 9ded 243d
00000200: b50c ccbc d64b 023d 2380 343c 7f6d 903c
00000210: 08b4 da3c 3e8d b8bc 1b9e 05bb ec60 2abc
00000220: a528 323d 6624 cdbb 3e8f 86bc f1a5 39bc
00000230: a9ac 6c3c 44fd 94ba 999e 113d b5e6 03bc
00000240: 3737 be3c 9295 9b3c 8817 78bb 8c05 6b3c
00000250: ed84 8c3c 0257 d5bb cd7d 19bd e80c 1f3d
00000260: d328 59bc 636c 97bc e28a f53c 743c fbbb
00000270: 82da d3bc f1a9 aabb e2ab 563b aa3e 803c
00000280: 7abd ffbc d0b4 473c 2bc3 423d 5660 093d
00000290: ee71 8e3a b658 043d 6810 b3bc 1816 f33c
000002a0: 7151 e2bc 06c8 1c3d 82c4 dc3c 33fd 3c3d
000002b0: d222 7e3c e23a 09bd ca3c c7bb 8057 3c3d
000002c0: b661 1ebc e5c6 09bd 0b2d e6bb 8a78 2f3d
000002d0: b896 5f3b 3ce9 7f3d 76b7 e13c a005 003c
000002e0: 1337 05bd e473 4f3d d2dd af3c 3741 20bd
000002f0: 8fa9 253d 9014 a5bb 77e2 26ba 5458 82bc
00000300: 823f 73bc f13f 13bd 94cc 293d 5817 bdbc
00000310: 5090 88bc ae53 2b3d b63c 04bd 5b03 e33c
00000320: 21e5 a33b ee8a 3ebd 6fe7 8e3c 19b9 92bc
00000330: ecad 8abd 54c3 6cbd 0d0a 963b 9f68 c03c
00000340: 1172 b1bc 64e8 1fbc 7bed 043d 1c3b f0bc
00000350: f240 cd3b e597 2fbd 7555 a6bc 1952 c3bc
00000360: 3714 18bd 6d25 febc 1ee0 c0bc 0553 02bd
00000370: b214 083d 3e8c 6a3d fd9d 67bc 294d 4f3d
00000380: 4a49 2abd c515 513d a87c 2b3b 866a 69bc
00000390: db56 0d3d b2d4 733c 65bd 503d 1f9b 0bbc
000003a0: 0444 88bc 1e45 293c cb33 f33c 4970 153d
000003b0: 61b2 753c bf37 3c3d dad0 a53a 648a d7bc
000003c0: 1b19 80bc 9173 743d db2f 683b 7722 1e3c
000003d0: 7aed eeba 4c42 b33c 4f17 5f3c a18f 42bd
000003e0: 2819 c8bc b0be d13c 843f fbbb a328 40bd
000003f0: 9490 19bd c18d 18bd 74a8 28bd 7a87 41bd
0.057435073 -0.013285916 -0.018590448 0.044077057 0.021034265 -0.029474476 0.037867263 0.061040413
-0.022735089 0.026218655 0.011723976 0.028093753 0.0011610581 0.054293808 -0.037621733 -0.038872737
-0.01429987 -0.0016934744 -0.014076215 0.05757572 0.031061135 0.057156064 0.018201092 0.039621644
-0.015070365 0.026709285 0.015166222 -0.015739188 -0.048754856 0.030930527 -0.013607086 0.010298978
-0.059289195 -0.019063521 -0.020785157 -0.026695265 -0.062274616 -0.011541059 0.023538152 -0.019231312
-0.06393376 0.013760335 -0.062414095 0.006019259 -0.05948031 0.027328812 -0.06481316 0.00837013
-0.015547892 0.02792687 0.014954185 0.031858448 -0.057372104 -0.009070552 -0.016537564 -0.025222812
0.0115393605 -0.013477399 0.03358104 -0.0013933763 -0.010187629 0.018690834 0.04791575 -0.021586325
0.008374769 -0.034462992 0.01637817 -0.020227049 -0.03701488 -0.010423436 -0.0061613848 -0.020327676
0.06864045 0.06643974 0.026389616 0.03162448 0.06892267 -0.0279395 0.014661543 -0.019771773
-0.03839286 -0.0045789857 0.00014774268 -0.0351796 0.047936413 -0.0038203904 0.05038769 -0.025553187
-0.007249118 0.005484672 -0.02694006 -0.029282907 0.047808606 0.04492522 0.0426925 0.055346616
0.04464427 0.056809217 0.0073964507 -0.029966315 0.0009297162 0.043952707 -0.012966809 -0.010829874
-0.008604302 0.010225423 -0.004985922 -0.051402155 0.017059302 -0.055546056 -0.016859878 0.010704977
0.00203465 -0.004698135 -0.057601392 -0.019670669 0.033768516 0.030084439 -0.022485156 0.018524386
-0.023989562 -0.013155381 0.01221649 -0.016685259 -0.006890806 -0.017035235 -0.017842881 0.04026567
-0.024908403 0.031810604 0.011016878 0.017630337 0.026697174 -0.022528287 -0.0020388428 -0.010399085
0.043495793 -0.0062604425 -0.016425725 -0.011331067 0.014445462 -0.0011366983 0.03555164 -0.00805061
0.023219688 0.01899222 -0.0037855823 0.014344584 0.017153228 -0.0065106163 -0.03747349 0.038830668
-0.013254362 -0.0184843 0.029973451 -0.0076671187 -0.025861029 -0.005208247 0.0032756259 0.01565488
-0.03121828 0.012189105 0.047549408 0.03353914 0.0010867694 0.032311164 -0.021858409 0.029673621
-0.027626725 0.038276695 0.026949171 0.046139907 0.0155112315 -0.03350342 -0.0060802447 0.045981884
-0.009666851 -0.033636946 -0.0070244125 0.042839564 0.0034116935 0.06247829 0.027553301 0.007813841
-0.032523226 0.05064763 0.021468077 -0.039124694 0.040444907 -0.0050378516 -0.00063661434 -0.015911259
-0.014846684 -0.03594965 0.041454867 -0.02308242 -0.016670376 0.04182785 -0.03228446 0.027711561
0.0050016795 -0.046519212 0.01744434 -0.017910527 -0.06771454 -0.057803467 0.004578835 0.023487387
-0.021660836 -0.009759996 0.03245304 -0.02932506 0.0062638456 -0.042869467 -0.020304421 -0.023842858
-0.037128653 -0.031023705 -0.023544367 -0.031817455 0.03322286 0.05726265 -0.014136788 0.050610695
-0.0415738 0.05104615 0.002616683 -0.014246589 0.03450666 0.0148822535 0.05096187 -0.0085208705
-0.016633995 0.01033142 0.029687783 0.036484037 0.014996142 0.0459516 0.0012650744 -0.026311107
-0.015636971 0.059680525 0.0035428915 0.009651772 -0.0018228733 0.021882199 0.013616397 -0.047500256
-0.024426058 0.025603622 -0.0076674838 -0.046913754 -0.037491396 -0.037244562 -0.041176274 -0.04724834

encoder.block1.block.0.bias f4 [32]
00000000: 0131 003d fe04 dcbc fd07 f93c 9ba2 373c
00000010: 5ff7 1a3d 297b 1abd 814b efbc 6017 693d
00000020: d4b1 043d a0d0 9fbc 59d9 873c 00f0 2a3d
00000030: db70 f3bc e272 a3bc c55b 633c 68f5 4bbc
00000040: dbea 963c bc12 ffbc 9f2e a43c 248a 3a3d
00000050: 1c77 3ebc 46f7 9ebc 519b 08bd 4efa 5dbc
00000060: c3a5 deba 77cd 353c 05af 363d 63a1 c03d
00000070: 5bc9 c2bb 64da 04bc e07e 0dbd a7c0 143d
0.031296734 -0.02685785 0.030399317 0.011208202 0.037833568 -0.03771511 -0.029210808 0.056907058
0.032396153 -0.01950866 0.016583132 0.041732788 -0.0297169 -0.019952241 0.01387686 -0.012448646
0.018422535 -0.031136863 0.020041762 0.045541897 -0.011625078 -0.019405019 -0.033351246 -0.013548447
-0.0016986657 0.01109635 0.044600505 0.09405782 -0.0059444136 -0.008108709 -0.034544826 0.03631654

encoder.block1.block.2.weight f4 [32]
00000000: 1ff8 7a3f e370 7b3f 112b 7c3f 0c95 783f
00000010: 36d3 793f 5ace 7b3f 1a58 7a3f cda8 743f
00000020: 7c6d 7c3f 052e 793f 8927 743f a868 753f
00000030: c143 763f c496 7a3f b58d 7b3f d55f 7a3f
00000040: 01e7 783f 36d8 7a3f af33 7a3f f575 7b3f
00000050: 092d 793f 223e 7a3f 2cc8 7b3f dc13 7b3f
00000060: 20ab 733f 47ab 763f 2f48 7a3f b8cd 753f
00000070: 0cd6 783f 7d06 7b3f 295f 793f a6e9 7c3f
0.9803485 0.98219126 0.98503214 0.9710243 0.9758791 0.9836174 0.9779068 0.9557007
0.9860456 0.97335845 0.95372826 0.9586282 0.96197134 0.978863 0.982631 0.9780248
0.97227484 0.9798616 0.9773511 0.98226863 0.97334343 0.9775106 0.98352313 0.9807718
0.9518299 0.963551 0.97766393 0.96017027 0.9720161 0.98056775 0.9741083 0.9879402

encoder.block1.block.2.bias f4 [32]
00000000: 64d9 c73c 78ce b43c 7b48 4a39 ad79 b0bb
00000010: fe03 e93c df5b 5f3b 7a13 0f3d 9e9b 9f3c
00000020: 28b4 a4bc f6dd 39bb 8e13 c33b baa6 eb3b
00000030: 9388 7f3c c056 043c 7781 783c 1e69 c5bb
00000040: def7 0b3d bd8e 863b 9527 983b a117 f23a
00000050: beb0 093d bd5e 863b c08b e83b c59e 7aba
00000060: 7148 adbb a322 693c a164 31bc 978b a5bc
00000070: 97b3 063c a1ed a339 1657 db3a e5cc 443c
0.024395652 0.022071108 0.00019291222 -0.0053855986 0.028444286 0.003408186 0.034930684 0.019483384
-0.020105436 -0.0028361059 0.005953259 0.007191506 0.015596527 0.008077323 0.015167586 -0.006024494
0.03417193 0.004106371 0.0046433904 0.0018470177 0.03361582 0.004100649 0.0070967376 -0.00095604017
-0.0052881767 0.014229449 -0.010827214 -0.020208163 0.0082215285 0.0003126683 0.0016734328 0.012011741

encoder.block1.block.2.running_mean f4 [32]
00000000: 6427 783f 7bb1 813f 4a04 913f 65c3 8a3f
00000010: 7464 8f3f 6a85 833f 6467 943f ca2d 9f3f
00000020: 366d b73f bf45 883f a58f 7e3f 7d9d 923f
00000030: a348 6b3f 0020 863f 5e6a 8c3f 6616 843f
00000040: 90af 9f3f abf0 8a3f a36d 7a3f 5d72 8a3f
00000050: 823d 613f db8f 853f 1783 8c3f 7f60 853f
00000060: 2063 8b3f 59b7 853f 8060 623f 3ea8 aa3f
00000070: e9a3 963f 91d2 7d3f 6c44 5d3f 50d3 843f
0.96935105 1.0132288 1.1329434 1.084088 1.1202531 1.027509 1.1594052 1.2435849
1.4330204 1.0646285 0.99437934 1.1454312 0.9190771 1.0478516 1.0969961 1.0319335
1.2475452 1.0854696 0.9782354 1.0816151 0.8798448 1.0434526 1.0977505 1.0420073
1.0889626 1.0446578 0.884285 1.3332593 1.1768771 0.99149424 0.8643253 1.0376987

encoder.block1.block.2.running_var f4 [32]
00000000: f900 f63f 1fcf 0540 c658 2140 d2e6 0e40
00000010: 2994 0f40 e888 0940 1691 1040 b0fe 9b3e
00000020: b16e 6c40 3b20 0f40 08a7 f23e e3d9 1040
00000030: e6ea b53f 0350 0440 8e46 1840 028a fe3f
00000040: da90 2940 9c33 1340 eba2 e43f b919 1840
00000050: 4ff1 af3f 3646 0340 ffff 1140 dc6f 0040
00000060: 70dc 563e e265 0240 2009 af3f 2553 a83e
00000070: a45d 1740 e2f7 fa3f 9549 b03f c906 0840
1.9219047 2.0907667 2.5210433 2.2328382 2.243418 2.148981 2.2588553 0.3046775
3.694256 2.2363422 0.4739306 2.2632987 1.421231 2.0673835 2.3793063 1.9885867
2.649466 2.300025 1.7862219 2.37657 1.3745517 2.0511603 2.2812498 2.0068274
0.20982528 2.0374684 1.367466 0.32875934 2.3650904 1.9606898 1.3772455 2.1254141

encoder.block2.block.0.weight f4 [32, 73, 3, 3]
00000000: 558e aa3c d695 2cbd 6f60 e0bc 5eb5 ec3c
00000010: b0c5 bcbb 6b55 e9bb dd8b 113c 9524 88bb
00000020: 9e83 1bbd f8d7 193c 7ee0 7fbb b73e cc3c
00000030: ce5b 3c3c 6e61 b7bc 25e2 68bc 5a22 12bd
00000040: 1cd0 b1bb 49ff 51bc 3b2f 393b bcaf 0abc
00000050: 231f ebba 402c 9c3c 7f5b 04bd ba9a a9bc
00000060: a108 463c 1460 22bc d94e 003c 5b75 48bc
00000070: 2a4c 173d 3f28 e53c 52ce 133d fbfd 4c3c
00000080: ee67 77bc d52d d73c 8fb0 0eba 7128 d73a
00000090: 6941 603d d6b2 2fbd 13c6 c93b 7011 2d3d
000000a0: 2313 c4bc a314 e3bb 5b89 01bd 158e edbc
000000b0: 1020 3b3d b502 1bbc 1af7 ab3c fb7c a1bb
000000c0: 1ffa 0e3d 2883 283d 314d 87bc 54f2 d7bc
000000d0: ec35 01bd 5dfc 3fbd e1d2 75bc b070 9fbc
000000e0: 49ed 9e3c 5a19 3d3c bd05 96bb 99d3 153d
000000f0: f7d8 773b e404 21bc d374 05bd b86c 53bb
00000100: 1771 b53c f860 4ebc e7be 1cbd d77c f9bc
00000110: 04df 26bb 921d b2ba d920 4f3c 553f 23bc
00000120: 75d9 8d3b c18e ebbc 3867 7b3c 11ab e4bb
00000130: 2480 fbbc 5148 53bc f628 0bbc b2cc ed3b
00000140: 4173 16bd 5a95 adbc 41b9 b6bc 217d 30bd
00000150: 35ab 8c3c a2a1 c23c 2980 1c3c dbd2 5c3c
00000160: 5aa1 64bc ec49 ae3b e4e0 54bb 8d24 053d
00000170: e084 27bc 22a7 db3b 9d9d 8339 5103 7fbc
00000180: fc47 2abd cf13 1bbd a965 30bd f5d2 19bc
00000190: de01 3c3b 2335 bdbc cf48 e93c 70de 8fbc
000001a0: fe30 163d 2173 023d 46b3 333d 5d35 68bc
000001b0: e093 23bc b1d6 8ebb 94df 9f3c b0af 103d
000001c0: 870b d4bb 5c22 62bc 7f47 7dbc 795a 133d
000001d0: ec00 ec3c 7c54 d83c 295b c4bc c923 ec3c
000001e0: a1b8 1abc d637 f63c d790 1abd fbe4 193d
000001f0: a1a4 0a3b 26fb 2e3d 2dce 89b9 f485 b0bb
00000200: 0dae 06bd 4543 253d 7618 203c ddd5 93bc
00000210: ef75 dbbc a39f 903c c42c a53c c0b1 1fbd
00000220: 2c0b 073d f626 7bbc 01b8 52bc 0cd8 29bd
00000230: 3590 e3bb eb19 eb3c 23cc 203a e235 8ebc
00000240: b735 08bd 4f6a cbbc bd10 243b 4e76 7c3c
00000250: eb90 6bbc c39d 113c e7fb 823b bbbc c23c
00000260: fb8e 103a 3443 013b 9bf9 643c 380e 6cbc
00000270: 0a6a 2ebc 8627 b4bc a485 213b 906d 7a3c
00000280: 5b98 c4bb ac64 653c d734 8fba f244 3bbd
00000290: e964 f3bc 30ca 81bc be4f dcbc 5394 edbc
000002a0: 8b15 ef3c 5b17 05bd ac90 093c 0bf3 01bc
000002b0: 5a60 72bc a14d 09bd 2ea4 7cbc d97b 9a3c
000002c0: f64f 19bd 8005 ad3a c2f3 b23a 8118 b1bc
000002d0: 209e cfbc 5d12 34bc 0385 ad3c b8e9 5bbc
000002e0: d0e1 c1bc b042 f53c 22b3 0abd ba4d 863c
000002f0: dd8f ff3c 3d6c 1bbc 175f c33c 2bd3 71bc
00000300: dc94 6ebc d157 6d3c 6429 47bd eef2 e73b
00000310: 81ee 213c 8dc0 de3c 803d 1d3d 9c80 e4bc
00000320: bdd8 bebc 704d cb3c 6248 de3c 4bc6 aebc
00000330: bc83 fc3c 9c07 92bc 9f80 293d caba 78bb
00000340: e522 113d 6d5c 2c3d 6b4e 0dbc f092 e3ba
00000350: dde1 95bc 439d b83c fab9 aa3c b7a6 473d
00000360: 240a 353c 0d01 aebc 9313 663b bc5f e6bb
00000370: 20a4 c93c 54cc 2cbd 9e9f 1f3d 85c0 d7bc
00000380: 8bb1 c5bc f154 08bd d1dc 09bd e1b5 4d3c
00000390: 041f f13b c728 f4bc 10f0 ddbb 4ae6 28bb
000003a0: c390 e3bc cc50 473c cbe6 e5bc d475 07bd
000003b0: 12ae 19bd 1344 40bd 960a b73c 3f20 77bb
000003c0: c3f1 733b cc3d a2bc fa8f 9fbb 9c00 533d
000003d0: f6c4 e73c 8f79 6f3d 1c76 58bc a3db 9d3c
000003e0: be99 c6bb 6b0c 1c3d bd4b 7abc a4b3 d5bb
000003f0: 3153 f33c 19f9 363d 2a9d 463c 6258 d43c
0.020819822 -0.042135082 -0.027389733 0.028895076 -0.005760871 -0.0071207783 0.008883444 -0.0041547515
-0.037967317 0.00938987 -0.003904372 0.024932249 0.011496497 -0.022385325 -0.014214073 -0.03567729
-0.00542642 -0.012817212 0.0028256911 -0.00846475 -0.0017938357 0.019064069 -0.03231382 -0.020703662
0.012087018 -0.009910602 0.007831299 -0.012235011 0.03693787 0.027973292 0.036085434 0.012511726
-0.015100462 0.026266972 -0.00054431794 0.0016415251 0.05474988 -0.04289516 0.0061576455 0.042252958
-0.023934906 -0.0069299503 -0.031625133 -0.028998414 0.045684874 -0.009461095 0.02099185 -0.004928229
0.034906503 0.041140705 -0.0165163 -0.026360668 -0.031545565 -0.04687153 -0.015003891 -0.019462913
0.019400256 0.011541689 -0.004578321 0.03657875 0.003781853 -0.009827826 -0.032582115 -0.0032260846
0.022148652 -0.012596361 -0.038267996 -0.030455036 -0.0025462518 -0.0013589135 0.012642109 -0.00996383
0.0043289014 -0.028754594 0.0153444335 -0.0069784005 -0.03070075 -0.01289566 -0.008493653 0.0072570676
-0.03673101 -0.02118938 -0.022305133 -0.043088082 0.017171482 0.023758713 0.00955204 0.013478006
-0.013954485 0.005318871 -0.0032482678 0.03250556 -0.010224551 0.0067032734 0.00025103698 -0.015564756
-0.041572556 -0.037860688 -0.0430657 -0.009388675 0.0028687636 -0.023096627 0.0284771 -0.017562121
0.036667816 0.031848077 0.04387214 -0.014172879 -0.009983987 -0.0043590893 0.01951579 0.0353238
-0.0064711007 -0.013802137 -0.0154589405 0.035974953 0.028809033 0.026407473 -0.02396925 0.028825657
-0.009443433 0.030055922 -0.037735786 0.03757189 0.0021155255 0.042719983 -0.0002628429 -0.005387062
-0.03288083 0.040347356 0.009771457 -0.018046314 -0.026789634 0.017654246 0.020162947 -0.038987875
0.03296964 -0.015329113 -0.012861253 -0.041465804 -0.006944681 0.028698882 0.00061339344 -0.017359678
-0.03325435 -0.024830965 0.002503439 0.015409065 -0.014377813 0.008887711 0.0039973143 0.023771634
0.000551447 0.0019723894 0.013975526 -0.014407687 -0.010645399 -0.021991502 0.0024646306 0.015284911
-0.0059996075 0.014001053 -0.0010925782 -0.04572005 -0.029711204 -0.01584348 -0.026893493 -0.02900139
0.029185077 -0.032492977 0.008396309 -0.007931481 -0.01479348 -0.0335213 -0.015420003 0.018857883
-0.037429772 0.0013200492 0.0013652968 -0.02161813 -0.025343955 -0.010990706 0.021181589 -0.013422422
-0.023667246 0.029939026 -0.03386224 0.016394485 0.031196529 -0.009486255 0.023849053 -0.014759819
-0.014561858 0.014486269 -0.048623458 0.00707852 0.009883524 0.027191425 0.03838873 -0.027893357
-0.023296708 0.024817199 0.027134124 -0.021334788 0.030824535 -0.017825894 0.04138243 -0.0037953132
0.03543367 0.04208033 -0.008624653 -0.0017362516 -0.018296177 0.022535926 0.020840634 0.048742976
0.011049781 -0.021240735 0.0035106882 -0.0070304554 0.024614394 -0.04218705 0.038970582 -0.026336918
-0.02413251 -0.03328413 -0.033657853 0.01255557 0.0073584337 -0.0298046 -0.0067730024 -0.0025772029
-0.027778989 0.01216526 -0.028064152 -0.033071354 -0.037519522 -0.04693992 0.022343915 -0.003770843
0.0037222959 -0.019804858 -0.0048694583 0.051514253 0.02829216 0.058465537 -0.013211753 0.01926977
-0.006060808 0.03809778 -0.0152768465 -0.006521659 0.029702755 0.04467115 0.012122432 0.02592105

encoder.block2.block.0.bias f4 [32]
00000000: be9c 213d 9e62 e43c 7391 b6bc 439d be3d
00000010: ea2e 323d e47e 4a3d ddf5 283d 76b9 0f3d
00000020: 112b be3b 7031 0e3d e51e 04bb 05d9 5abc
00000030: 1562 a939 c364 e73c e40c 093c 8191 8d3d
00000040: f1d8 f73c 106a 323c 8eeb 39bc fee7 173d
00000050: d347 8e3a 2557 a33b e8f2 463c df35 3c3d
00000060: 3c37 1ebc 9fca 023d 3999 0b3a 5ed9 4c3d
00000070: 7821 44bc 4c18 41bc af72 f73b cf43 b63d
0.03945612 0.027879056 -0.022286152 0.09307339 0.043501772 0.04943742 0.0412501 0.03508898
0.0058034738 0.034715116 -0.0020160016 -0.013357406 0.0003230727 0.02824629 0.00836489 0.06912518
0.030254813 0.010889545 -0.0113476645 0.03708648 0.0010855146 0.0049847537 0.012142874 0.045949813
-0.009656724 0.031931516 0.0005325261 0.050011985 -0.01197087 -0.011785578 0.007551513 0.08899652

encoder.block2.block.2.weight f4 [32]
00000000: 8494 7c3f 0432 7a3f a9c5 7c3f 2458 763f
00000010: 79a0 7c3f 40f8 7a3f a6cd 7b3f 1a65 7a3f
00000020: f0a7 783f 727d 793f d297 7b3f 930f 7c3f
00000030: f29d 773f 8ecb 7d3f e6e1 7c3f f3bf 7a3f
00000040: 1649 7b3f 193a 7c3f 2382 7c3f f7a9 7c3f
00000050: 290a 7d3f 9776 7b3f 6c21 7b3f 21e8 7c3f
00000060: 8be7 793f 687b 7c3f a828 7b3f e0ad 783f
00000070: a028 7b3f f1a4 7b3f 543f 773f 1c51 7c3f
0.98664117 0.9773257 0.98739105 0.9622824 0.9868236 0.9803505 0.9836067 0.9781052
0.9713125 0.9745704 0.98278534 0.98461264 0.9672538 0.99138725 0.98782194 0.9794914
0.98158395 0.9852615 0.9863607 0.98696846 0.9884363 0.9822783 0.9809787 0.987917
0.9761893 0.98625803 0.9810891 0.9714031 0.98108864 0.98298556 0.96581006 0.98561263

encoder.block2.block.2.bias f4 [32]
00000000: 61e0 c23b 236d 113c 1de9 93bc fb14 183d
00000010: 9c14 b8ba 099d c93c d88a 993a 358b 083c
00000020: e3ab 5d3c 65db 903b ad0c 8ebb 130c 2e3b
00000030: 2cd3 aebc 6d00 a93c 40d2 bd3a e951 4c3c
00000040: f8ae b9b9 bdc5 e03b c4be 87bc bd0a 143c
00000050: 7a02 14bc 0621 043c a9f6 283c 7db0 3638
00000060: 4dbb e93b 0539 313c 5c0c f03c fbc4 a8bc
00000070: c12e e7bb 497b 6dbb 2b94 92bb 7fb9 08bb
0.005947158 0.008876118 -0.018055493 0.037129384 -0.0014044228 0.024611013 0.0011714352 0.008333971
0.0135297505 0.004420685 -0.004335007 0.002655749 -0.021340929 0.020630086 0.0014482215 0.012470701
-0.00035416312 0.0068595097 -0.016570456 0.009035763 -0.009033794 0.008064514 0.010312715 4.355655e-05
0.0071329237 0.010816817 0.029302768 -0.02060174 -0.007055134 -0.0036236814 -0.0044732294 -0.0020862517

encoder.block2.block.2.running_mean f4 [32]
00000000: ac99 a43f bfcf 813f c16d 983f 039c 733f
00000010: f41b b03f 7b39 933f 4dc1 933f 66b5 9e3f
00000020: 1ce6 a23f 3990 843f 3032 953f 3afc 713f
00000030: e050 8d3f 1f26 8e3f 0062 943f 82ba 9d3f
00000040: 2335 973f ff56 a93f 7709 b33f 6800 ae3f
00000050: 89df aa3f af50 933f dce8 ac3f 2401 8d3f
00000060: 1a41 883f c2f6 a33f 6d63 553f 68f7 2f3f
00000070: 6020 ae3f 1920 8e3f 9f57 7d3f 3bc9 7a3f
1.2859397 1.0141524 1.1908494 0.9515993 1.3758531 1.1501917 1.1543366 1.2399108
1.2726474 1.0356513 1.1655941 0.9452549 1.1040306 1.1105384 1.1592407 1.2322543
1.1813091 1.3229674 1.3987263 1.3593874 1.3349468 1.1508998 1.3508563 1.1015973
1.0644867 1.280968 0.83354837 0.68736887 1.360363 1.1103545 0.98961824 0.97963303

encoder.block2.block.2.running_var f4 [32]
00000000: b0b1 3740 b967 f23f 1f6f 2840 18ef 613e
00000010: b124 5440 7717 053f f768 2840 2d96 3d40
00000020: fb09 5340 29f4 de3f 7d8d 1540 0f2c de3f
00000030: b3d6 1a40 4bb8 1a40 9eb9 2040 6889 243f
00000040: 5aa1 1240 b470 5140 87ce 7840 48a1 5040
00000050: aa64 6b40 6670 2140 81ba 4b40 c1f6 1b40
00000060: d16f 0f40 65df 4840 887e b13f b763 473f
00000070: 8f5b 7140 43ce 1740 3c1c cd3f ec4f b93e
2.8702202 1.8937904 2.6317823 0.22063863 3.3147395 0.5198893 2.6314065 2.962291
3.2974842 1.7418262 2.3367608 1.7357196 2.4193542 2.4174984 2.5113292 0.64272165
2.291098 3.2725039 3.8876054 3.2598438 3.678019 2.5224853 3.1832583 2.4369357
2.2411997 3.138635 1.3866739 0.7788653 3.7712133 2.3719642 1.6024241 0.36193788

encoder.final.block.0.weight f4 [3, 105, 3, 3]
00000000: a5dc d83c dad0 77bc d77d 7bbc ba59 953b
00000010: 4216 0bbc 56ae 703c 124b 5f3c 8c79 d43c
00000020: 1ca5 5f3c 3704 993c 3fe4 243c 1d12 93bb
00000030: 9f1d fc3b 9060 c13b 0694 fc3b b6db 50bc
00000040: 95c7 a93c 0c9b 8f3c de05 093c 37aa a13c
00000050: 5222 14bc c834 823c 15ab 3dbc 2dfb 6cbc
00000060: 9fb7 52bc 5d9d 853c 1b54 03bc 1693 e63b
00000070: 93c6 f8bb a0c0 a1ba cf5b 18bc bec3 cbbb
00000080: 8f27 463c 3704 8a3b 7f32 3b3c 0f2b 023c
00000090: c93e 86bc d4f5 2d3c 6c37 1a3c 86c1 303a
000000a0: f390 0dbc 41ee 873b 4a10 82ba 0275 b83c
000000b0: a3b6 15bb 13a4 debb edc7 7e3b ee00 bebb
000000c0: d03e 12bc 837c 1b3c 14b8 9d3b 9af2 febb
000000d0: 6805 9ebc c338 a4bb 5f33 94bc eaf0 fb3c
000000e0: 461f ecbc 8555 debb 61d0 b2bb 4d0a 11bc
000000f0: 023b 46bc d959 c93c 268b 77bc 3343 cb3c
00000100: 51e5 5dbc 5cd3 3d3b b534 59bc 6258 02bc
00000110: 6de5 a0bb 50d9 f2bb c6bc e73c 9625 8cbb
00000120: 8140 0dbc b163 5f3c 081e 8a3c 72f1 d83c
00000130: 3744 8e3c b34b 67bc 0c52 f0bc 68bb 6cbc
00000140: 269b e8bc 2143 ae3c 2673 78bc 50d3 67bb
00000150: 529a 9ebc ccc4 bc3b 238c 753b e16e 82bc
00000160: a893 c43b 8b37 9c3c 85bc b2bc 1dda 14bc
00000170: c92a 51bc 5ddb 743c 7f81 53bc ec59 55bc
00000180: 1cd5 4b3c fd08 36bc 71ec 383c 6ae3 b0bb
00000190: 17f1 9c3b bca6 f83b 171c 073c 0c55 cc3b
000001a0: b78d 0abc d66f 843b c06d acbb 2806 57bb
000001b0: c109 e4bb b796 2abc e417 433c f680 14bc
000001c0: ae6a 8fbc 332f 95bc 4cc8 e7bb 27fb d63c
000001d0: 0eda d33c 1db7 5a3c 7e0f 98bb e9fb adbb
000001e0: 9f90 15bc e9c2 82bb 86d8 253c 8890 b53b
000001f0: 1bde 983b e56f 3abc 7fc1 babb 5bac 10bb
00000200: b812 173b 1674 b53b f22f 943c 5a20 67bc
00000210: 295a d53b 0e74 94bb d9e7 8a37 66cf 3c3c
00000220: 1fa8 50b9 1b92 3ebc 904d 9cbb a9eb dc3b
00000230: 223f 59bc e5a9 5bbb da69 863c d428 d1ba
00000240: 1bc9 15bc 449c ecba 4cb4 e93b 479c b5bb
00000250: 87e0 c23b 2714 5b3b e079 c03a b326 1bbc
00000260: 5514 03bc 78f9 7ebc a7e0 2ebb d78c 343c
00000270: 72e1 663c d07c 043b 9202 aebc 09a5 803a
00000280: cb20 94bb aa06 8d3c 0dcc d3bc 296b a5bb
00000290: 065a d53c ded6 d3bc 89c3 b7bc e0ea 12bb
000002a0: 5357 9639 750a 9dbc 9681 cd3c 7724 723c
000002b0: b6e9 61b9 f84f 23bb abd7 19bc 82e0 0ebc
000002c0: d4cb 6fbc 2ce0 1dbc e906 b03c 3ba2 983c
000002d0: 7064 2bbb da57 503c d930 0e3c 6655 a83c
000002e0: cff3 783b 527a 7cbc ee9b c8bc 25da af3b
000002f0: e778 673b 8f81 063c 244c 1fbc c08b 573c
00000300: dd98 35bc 726d 9f3c 7548 10bc 8223 51bc
00000310: 5ce4 5d3b 3340 84ba 7695 63bb d563 abb9
00000320: f4b3 963c 8bd1 823b d2f1 503c 8727 9cbc
00000330: 53db 8fba 8dc8 46bc 6172 5abc ff61 4db8
00000340: fafa eebb dfb7 2f3b 1784 07bc 5026 0abb
00000350: afef 0f3c ea94 ef3b d39f e3ba b6cf b4bb
00000360: 159b 4ebb 5277 c33b 600f fd3a cc55 923a
00000370: 6533 04bd a1a7 f73b 762b d4bc 837d 323c
00000380: 90ca 4b3c 157b c7bc cf9d 203c 0325 9d3c
00000390: 8845 b93c a587 85ba 59bf 943c d0f1 bbbc
000003a0: 1a86 853b 24da bb3c 4f2e 51ba daa7 8dbb
000003b0: 6dbd 85bc 1bab 45bc c4b6 72bc 3d03 3b3c
000003c0: 4e37 a33c d98b d53b 2139 af3c 1ff2 6dbb
000003d0: 6b03 79bc d7c1 8fbc 8654 c3bb 5164 b2bc
000003e0: 9ec1 b03b 1e5f 2f3c 0b81 7abc d449 7abc
000003f0: 222d be3b 2352 893c 9dd8 43bb 2ffd 7ebc
0.026472399 -0.015125478 -0.015349827 0.0045578154 -0.008489193 0.014690002 0.013628738 0.025936864
0.013650205 0.018678768 0.010064184 -0.0044882433 0.007693961 0.0059014037 0.0077080755 -0.012747696
0.020725051 0.017529987 0.008363215 0.019734485 -0.009041386 0.015894309 -0.011576434 -0.014464182
-0.0128611615 0.016310388 -0.008015658 0.007036577 -0.0075920313 -0.0012340732 -0.009299233 -0.0062184026
0.012094392 0.004211928 0.011425613 0.007944836 -0.01638736 0.010617692 0.009412628 0.00067427044
-0.008640516 0.004148275 -0.0009923067 0.022516731 -0.0022844456 -0.0067944615 0.003887649 -0.0057984507
-0.0089261085 0.009490135 0.0048132036 -0.007780385 -0.019289687 -0.0050116493 -0.018090902 0.030754525
-0.028823506 -0.006785097 -0.0054569696 -0.008852554 -0.0120990295 0.024578976 -0.015108859 0.024812317
-0.013543443 0.0028965091 -0.013257195 -0.007955642 -0.004910162 -0.0074111596 0.028288256 -0.0042769415
-0.008621336 0.013634608 0.016860023 0.026482318 0.017366512 -0.014117169 -0.029335998 -0.014448978
-0.028394293 0.021272244 -0.015164172 -0.0035373755 -0.019360695 0.0057607647 0.0037467561 -0.015922012
0.0059990473 0.019069454 -0.021818409 -0.009085205 -0.012766548 0.014944878 -0.012909292 -0.013021927
0.012440946 -0.011110541 0.011286841 -0.0053982036 0.0047894823 0.0075882357 0.008246443 0.0062357243
-0.008456639 0.004041652 -0.0052621067 -0.0032810066 -0.0069591706 -0.01041191 0.011907551 -0.00906395
-0.017506924 -0.018210983 -0.007073438 0.026242806 0.025860813 0.013349322 -0.0046405187 -0.005309571
-0.009128719 -0.0039905203 0.010122424 0.005540911 0.004665149 -0.011379217 -0.005699336 -0.0022075388
0.0023051929 0.00553752 0.018089268 -0.014106834 0.006510992 -0.0045304364 1.6558844e-05 0.011524057
-0.00019899056 -0.011631514 -0.0047699884 0.00674196 -0.013259681 -0.0033518013 0.016407896 -0.0015957602
-0.009142186 -0.0018051942 0.0071320888 -0.0055423114 0.005947176 0.003342876 0.0014684759 -0.009469676
-0.008000453 -0.015562408 -0.0026684196 0.011019907 0.014091836 0.0020215996 -0.02124146 0.0009814809
-0.004520511 0.017215092 -0.025854135 -0.005048175 0.026043903 -0.025859293 -0.022432106 -0.0022417828
0.0002867529 -0.019170025 0.025086205 0.014779202 -0.00021544736 -0.0024919491 -0.009389798 -0.008720519
-0.014635999 -0.009635966 0.02148767 0.018632045 -0.0026152395 0.012716258 0.008678638 0.020548534
0.0037987118 -0.015410023 -0.024488416 0.005366581 0.0035319866 0.0082096 -0.009722743 0.013155878
-0.011083809 0.019461367 -0.008806338 -0.012764813 0.0033858037 -0.0010089934 -0.0034726537 -0.00032690042
0.018396355 0.0039922646 0.012752967 -0.019061817 -0.0010975398 -0.012132776 -0.013332934 -4.8967075e-05
-0.0072931023 0.0026812477 -0.008271239 -0.0021079965 0.008785172 0.007311453 -0.0017366357 -0.005517925
-0.0031525542 0.005965152 0.001930695 0.0011164485 -0.032275576 0.0075578247 -0.02589963 0.010894182
0.012438431 -0.024350682 0.0098032495 0.019182688 0.022616163 -0.001018752 0.018157648 -0.022942454
0.004074824 0.022931166 -0.0007979618 -0.004322988 -0.016325677 -0.0120647205 -0.0148140825 0.011414346
0.019923832 0.0065169153 0.021389546 -0.0036307645 -0.015198569 -0.017548485 -0.0059610037 -0.02177635
0.0053941747 0.01070383 -0.015289555 -0.015276391 0.00580372 0.016762799 -0.002988375 -0.015563293

encoder.final.block.0.bias f4 [3]
00000000: a335 2d3d 6ace 1bbc 688a 093d
0.04228748 -0.009509662 0.03357926

decoder.initial.block.0.weight f4 [32, 3, 3, 3]
00000000: 0078 6abd a2dc 203e ca97 cebd cfb8 83bd
00000010: 0e5b b83d eb2d 29be 6c6d bf3d e50e 0b3e
00000020: 5f08 bcbd 06b7 a6bd 63f7 15be 3a2f 09be
00000030: 7bc8 933d feea c13d bdce 3e3e af3e aebd
00000040: 5ed5 87bc 5f09 a43d 4727 a33d 057a 0f3e
00000050: bd00 d93c d506 b1bd 00fb 05bd c927 1b3d
00000060: 5614 3b3d d240 0abe c70c 9abc ca62 febd
00000070: 5298 6f3d 77c7 8cbc ed3c e0bd 6e46 1cbe
00000080: aeb3 ca3d ec91 f6bc 807b 2d3e bb2d 1d3e
00000090: 87c5 b43b 1bfa 31be 60a2 123e 69ee 373e
000000a0: b48f 88bc 8f55 e8bc d83d a63d 2ada bf3d
000000b0: 4f55 fb3d 8b13 b23c ab3c 253e c55a 043e
000000c0: 7774 163d 1b46 41be c196 4bbd 57fa 283d
000000d0: 15b8 28be 20fc c43c dddf b4bd f11a 763c
000000e0: 7869 3f3d 7b45 2b3e d548 33be c3ff 073d
000000f0: 58b4 3bbd d0f4 403c c6af 1c3a 8242 193e
00000100: f599 99bd 6099 d03c ae24 1dbe b820 2e3e
00000110: b0c0 ecba 7dfe bdbd 1eb0 063e 0f5a 0cbe
00000120: 06bc 1fbe 9ae5 b73d d725 37be 4d5f bdbd
00000130: f730 213e be89 f53d 18b3 763c 4913 0c3d
00000140: 0d76 0c3d fa32 083e c6f2 853d 6afc e0bc
00000150: 0ff6 363e d04b d13d 56a4 86bd 6329 a8bd
00000160: f870 09be c746 a1bd 1bbf 88bb b906 01bd
00000170: cbf6 c3bd 3e10 6f3e 3d2a cfbc cbf7 a9bc
00000180: 195d 53bb 7030 94bd 2121 0dbe b6ff 1bbe
00000190: 4232 b83d 4804 1b3e 85d8 1b3c 6ddd bf3d
000001a0: 8135 96bd 9bdc 893d 41b9 a1bd e5ae f6bc
000001b0: f63e e93d b892 0a3d 8086 9bbd 3860 d13c
000001c0: 6e05 14be d6cf f93d 4136 a3bc 2446 5abc
000001d0: b5ee 0dbe 9851 26bc ed72 c1bd 90a3 d1bd
000001e0: 3934 56bc 438d ed3d 0021 813d 80df ad3d
000001f0: 7da9 633d 2b41 6dbd 3d2c dabd c5e9 e0bc
00000200: 9ce9 ba3d 7372 34bd 5073 143d fc05 873d
00000210: c65e dcbd 8aa7 ab3d 6b21 a1bd 5e11 44bc
00000220: 8535 2ebe 323d d4bd 1e7a 963d 02e1 d1bd
00000230: 20bb 353b 2fea 743c 5b5e 303e cad6 fc3d
00000240: 0d8b b0bd be39 e8bd d628 a43d 922e 003e
00000250: ba53 97bc d8f8 193e 4f57 b3bd ab22 22be
00000260: a8a6 0a3e 3838 74bd 3bd4 f6bd 9595 fabd
00000270: 9308 2aba c7c5 393e 84bc 2cbe d393 283e
00000280: 7c70 203b 1126 e63d 85f2 d7bd cd6b 873d
00000290: afaf a2bd 0933 20be 6051 363e 0e4d e73d
000002a0: a12c bfbd 6b4e e7bd eb3b 8b3d 9252 15bc
000002b0: a163 db3d b69b ba3c 04f4 1d3d af22 f63c
000002c0: 9e4a 07bd 22a0 4abd aa34 463e 3c38 32be
000002d0: 7e67 38bd 33c7 823d f56e 01be e5c6 873d
000002e0: fefc 33be 9caf f2bd 6521 b03d 4959 173e
000002f0: d0ab ab3d 42b1 5bbd bcbf 06be c79c d3bd
00000300: a6dd ffbd 223d b33c 5cf2 113e 56fc c5bd
00000310: fa94 8abd 34dc b53a 306d 1cbe d608 f5bd
00000320: 3e79 f1bd 652a a0bd 7b7d 433e bced e5bc
00000330: de3c c53d abaa 7bbd 2f83 ac3c f0fd 643c
00000340: de01 323e 1b16 293c 1cf2 d73d 75de 30bd
00000350: 3592 113e e16b bebc 3ddb d8bd 0acc 9bbd
00000360: 6e5b e33d 3cf7 1e3e b69f 353e 7646 283d
00000370: bda5 a63a 9bbc 18be b4eb 95bd f0e2 a53d
00000380: 8e5f fabd 7a54 883d 9082 bd3d 9e40 3d3d
00000390: 8306 d5bd 40cb acbc 3ed9 173e 324d 8b3d
000003a0: d88f 0ebe 9789 553e ffc3 b33d 39f9 24be
000003b0: b177 543e 5568 053d 2eb2 a5bd ab1a 0abe
000003c0: 6f82 d83c 61e9 863c 33f9 12bc 345f 0c3e
000003d0: c598 f63d ce43 863c 056b 95bd 41dd 3dbd
000003e0: 307b 973d 3d48 b9bc 97cd 36be b869 a8bc
000003f0: 3954 bc3d 0fd7 aebd a24d fbbd 1156 d33b
-0.057243347 0.15709165 -0.10087545 -0.06431734 0.09001742 -0.16521423 0.093470424 0.135799
-0.09181284 -0.08140378 -0.14645152 -0.13396922 0.07215973 0.09468649 0.18633552 -0.0850805
-0.016581234 0.080096 0.07966476 0.1401139 0.02648961 -0.08643881 -0.032710075 0.03787974
0.04567369 -0.1350129 -0.01880492 -0.12421186 0.058494873 -0.017184956 -0.10949121 -0.15261242
0.098975524 -0.030098878 0.16941643 0.15349476 0.005516711 -0.17380564 0.14319754 0.1796204
-0.016670085 -0.02836111 0.081172645 0.09367783 0.12272131 0.021737834 0.16136424 0.12925251
0.036732163 -0.188744 -0.049704317 0.041254368 -0.16476472 0.024046004 -0.08831761 0.015021072
0.046731442 0.16725723 -0.17508252 0.033202898 -0.045826286 0.011777118 0.000597712 0.14966777
-0.07500068 0.02546376 -0.15346023 0.17004669 -0.0018062796 -0.092770554 0.13153121 -0.1370623
-0.15599069 0.0897934 -0.17885529 -0.09246693 0.15741335 0.11989163 0.015057348 0.03419808
0.03429227 0.13300696 0.06540446 -0.02746411 0.17867301 0.10219538 -0.06574313 -0.08211019
-0.13422 -0.07874828 -0.004173172 -0.03150055 -0.095685564 0.2334604 -0.025288695 -0.02074804
-0.0032251535 -0.07235801 -0.13782169 -0.15234265 0.08993961 0.15138352 0.0095120715 0.093684055
-0.07334424 0.0673153 -0.078966625 -0.030112693 0.11388962 0.03383133 -0.07594013 0.025558576
-0.14455196 0.12197845 -0.019923331 -0.013322387 -0.13860591 -0.010151289 -0.094457485 -0.10236275
-0.013073974 0.11599209 0.063051224 0.08489895 0.05558156 -0.057923477 -0.10652969 -0.02745522
0.09126589 -0.04405446 0.036242783 0.06592938 -0.10760264 0.08381565 -0.07867702 -0.011967031
-0.17012604 -0.103632346 0.07347511 -0.10247995 0.0027729943 0.014948412 0.17223494 0.12345655
-0.08620272 -0.113391384 0.08015601 0.12517765 -0.018472541 0.15036333 -0.08756887 -0.15833537
0.13540137 -0.059623927 -0.120521985 -0.12235562 -0.0006486263 0.18141852 -0.16868788 0.1646264
0.0024481108 0.11237729 -0.10544304 0.06612358 -0.07943665 -0.15644468 0.1780448 0.11293994
-0.09334684 -0.11294254 0.06798538 -0.009113925 0.10712362 0.022779327 0.03856279 0.030045835
-0.033030145 -0.04946912 0.19356027 -0.17404264 -0.045020573 0.063856505 -0.12639983 0.06629733
-0.17576978 -0.11849901 0.086001195 0.14780153 0.0838238 -0.053635843 -0.13159078 -0.10332637
-0.12493448 0.021879736 0.14252609 -0.0966727 -0.06766696 0.001387483 -0.15276027 -0.11964576
-0.11790703 -0.07820586 0.19090836 -0.028067462 0.0963075 -0.06144206 0.021058647 0.013976559
0.17383525 0.010320212 0.105442256 -0.0431809 0.1421593 -0.0232448 -0.105886914 -0.07607277
0.11101423 0.15524 0.17736706 0.04108282 0.0012714189 -0.14915697 -0.073203474 0.080999255
-0.12225257 0.066567376 0.092534184 0.046204202 -0.10401633 -0.02109301 0.14828965 0.06801833
-0.1392206 0.20853268 0.08777618 -0.16110696 0.20748784 0.032570202 -0.08090626 -0.13486736
0.026429383 0.016468706 -0.008970547 0.13708192 0.12040857 0.016389754 -0.07295803 -0.046353582
0.07396543 -0.022617454 -0.17851864 -0.020558223 0.09195752 -0.08537113 -0.12270667 0.006449469

decoder.initial.block.0.bias f4 [32]
00000000: 9a9f c23d 6650 213e e909 d23d a08b d5bc
00000010: e7b0 413e d20c 893c 105c 1e3e 4269 4dbe
00000020: 94e2 123d edb9 fe3d e5a3 453e 77f2 5d3e
00000030: 95ca c23d d976 003e 6967 d93d b2df 813d
00000040: 48e6 c23d f2f3 1d3e a5f2 653e 0a60 99bd
00000050: 9c6d 333e 59d3 23bd c42a c4bd 837f 3a3e
00000060: b418 1e3e 0a2c 18be 0161 073e 134d 263e
00000070: 895d e63d 7bf2 debd c53c 173e 490f c43d
0.09503098 0.15753326 0.102557965 -0.026067555 0.18915139 0.016729746 0.15464807 -0.20059684
0.035860613 0.12437806 0.19300802 0.21674524 0.09511296 0.12545337 0.10615427 0.063414946
0.09516579 0.15425089 0.22455843 -0.07489021 0.17522281 -0.03999648 -0.095784694 0.18212704
0.15439111 -0.1486055 0.13220598 0.16240339 0.11248309 -0.10886093 0.14769275 0.09573228

decoder.initial.block.2.weight f4 [32]
00000000: a274 873f 7d7c 7b3f d591 833f ea98 643f
00000010: 138d 703f c371 743f c2ed 853f c457 793f
00000020: 78a8 803f 28ac 7c3f c435 6f3f d785 853f
00000030: 3fbb 813f a44a 873f 16bb 663f ddac 743f
00000040: 4d90 7c3f a700 7f3f 229b 7f3f a4fd 7c3f
00000050: b5cf 593f afe6 7d3f 3532 793f 1ebe 623f
00000060: a9ce 623f 745a 7a3f 8be6 7b3f 3146 803f
00000070: c337 753f fbca 7d3f 9d79 693f ef9f 843f
1.0582469 0.9823683 1.027888 0.8929583 0.9396526 0.95486087 1.0463183 0.97399545
1.0051413 0.9870019 0.93441415 1.043147 1.0135268 1.0569654 0.9012922 0.9557627
0.98657686 0.9961037 0.9984609 0.98824525 0.8508256 0.9918012 0.97342235 0.88571346
0.8859659 0.9779427 0.98398656 1.0021421 0.9578821 0.9913785 0.9120119 1.0361308

decoder.initial.block.2.bias f4 [32]
00000000: b881 b93d d44a 6fbd 90cf c3bc 7249 4ebd
00000010: 3f85 0e3d 43cf 3cbd d090 713c 5d0e 213d
00000020: 0ce7 e8bd 346d a2bd f058 923d 2aae a3bd
00000030: 3e4f d53c a522 593d e373 a4ba f27e 6cbd
00000040: 2128 11bd de97 f03d 9224 f63d 44a4 8dbd
00000050: dab5 a03c 729b 453d 44c1 cfbd 498d afbd
00000060: 22d6 d43d 83c3 533d 6932 1cbb 507d df3d
00000070: 8381 05bd 93e7 233d 24df 6cbd b140 d8bd
0.09057945 -0.05842097 -0.023902684 -0.05036301 0.034795042 -0.046096098 0.014743999 0.03932034
-0.11372194 -0.07930985 0.0714587 -0.079922035 0.026038762 0.053011555 -0.0012546744 -0.057738252
-0.03543866 0.11747716 0.12018694 -0.06916097 0.019617964 0.048243947 -0.10144284 -0.0857187
0.10392405 0.051700126 -0.0023833758 0.10912573 -0.032594215 0.04001577 -0.05782999 -0.10559214

decoder.initial.block.2.running_mean f4 [32]
00000000: ca42 d63d 5999 b23e 4d55 d73d b765 333c
00000010: fd50 063e af9e 083d 1e71 183e 992c 82bb
00000020: bd0e 8c3e 671c 003e b0d3 153e e549 523e
00000030: 0680 db3d f854 053e 4515 b13d 7c3f 173e
00000040: 1add 9f3d f298 3b3e f935 6e3e 7b6d 063e
00000050: 0e9e 6f3d cc55 803e ec03 9a3e 627e dd3d
00000060: 06ee 073e 64dd d0bb 5790 093e 044e ff3e
00000070: af26 ba3d 793f f83e eaab 073e f4eb dc3d
0.10461958 0.3488262 0.10514317 0.010949544 0.13116832 0.033354457 0.14886901 -0.0039726016
0.27354994 0.12510835 0.14631534 0.20536001 0.10717778 0.13020694 0.08646635 0.14770311
0.07805844 0.18320063 0.23262776 0.13127701 0.058500342 0.25065458 0.30081117 0.10815121
0.13274392 -0.006374048 0.13433968 0.4986421 0.090894096 0.48485926 0.13249174 0.10787192

decoder.initial.block.2.running_var f4 [32]
00000000: 5dbc 133a 09ba 1b3c b13c 253a fccd a83a
00000010: bc34 8e3a 5fe5 033b b4f7 723a 3a94 9f35
00000020: 8834 693c 9552 853a c703 803b 2341 9d3a
00000030: f979 1e3a 4774 003a e7d0 ac3a e579 933b
00000040: 6a12 b43a 5f1b 783b c567 d23a b5e2 133c
00000050: 759a 373b a64a b13c 8e15 103d fe95 1d3b
00000060: 4471 e53a e667 b736 a114 bb3a d9fe ef3c
00000070: 277e b33a 3c70 a23d 14bf bc3b 0df5 7b3a
0.00056356733 0.009504803 0.0006303294 0.0012878771 0.0010849456 0.002012573 0.0009268478 1.1889563e-06
0.014233716 0.0010171706 0.0039067003 0.0011997562 0.0006045397 0.0004900139 0.0013184816 0.004500615
0.0013738398 0.0037858111 0.0016052654 0.009026219 0.0028015648 0.02164204 0.035176806 0.00240457
0.0017505069 5.4659204e-06 0.0014273116 0.029296326 0.0013694213 0.07931563 0.005760083 0.00096114055
