results/models/normal/ResidualSteganoGAN/6/epoch_8.pth (torch, 330836 bytes, 59 tensors)

encoder.initial.block.0.weight f4 [32, 3, 3, 3]
00000000: df2e 843d 4e23 b2bd f8be 94bd b912 72bd
00000010: d377 31bd 1f20 b13d a24c a33d a95d 4bbe
00000020: b6c7 153e fc75 f2bd e70a 523e 3862 033e
00000030: 5d22 8d3d c8ad bfbd 93ea e7bd d6b2 fe3d
00000040: 7ed3 8fbc c902 f53d 80f5 97bd 61f1 1bbe
00000050: 8f24 073e 488b 9fbc cd94 21be f67c 253e
00000060: b870 39be cbbf 363e 5397 9d3d c8a6 eabd
00000070: fa93 493e c47b 0f3e 75b2 82bc 811b a5bc
00000080: aea2 2c3e 0397 5d3d 81e4 54bd 14c0 a8bd
00000090: 1920 0a3d 40bb 89bd e378 70ba be54 4e3e
000000a0: 174e 1bbe 1f26 24be 4823 2e3e b72f d73d
000000b0: d8be 3b3e 6355 95bd 4d1a 463e b349 e3bd
000000c0: 49f7 3f3e 216f e2bd b488 113d 3e96 933d
000000d0: c94e 763d 748f 473e e550 b3bd d7e5 4f3e
000000e0: 4817 673d 7a14 583d 06bf 74bc c724 1f3e
000000f0: b185 d3bd d644 be3d f12b 2cbe e8f8 263e
00000100: fce7 1bbe 35a4 393d 9626 b8bd 7ec5 bfbd
00000110: 7dbe 543e 7be5 83bd 1ff2 103e ddc5 0e3d
00000120: 64c0 ca3d a22d 663d 97ce 323e 68a3 b13d
00000130: 0e5e 3ebe 5556 5cbe 2d65 90bd 4161 dd3b
00000140: a9c1 9e3d 8d5d 943d 99da 8e3d 3b44 0ebe
00000150: b745 cfbd f432 51be e624 063e 9bff a83d
00000160: d86d e9bd 98fb 1d3e bdaf 94bd d34f 44bc
00000170: 5b8c b5bd b27b 57be aba1 16be 97d1 a8bb
00000180: 57ff 313e 0b5a 1f3d 3267 27bd 65b7 0abe
00000190: 78a1 9dbd f480 cf3d 6ff8 553e 5a0f 573d
000001a0: cbd7 40bd d4b0 fcbd e01c 91bd 4c05 e7bd
000001b0: 9b39 753d 1bb1 ab3d 0e09 03be cc26 f03d
000001c0: d544 74bd faeb 203e 3a9e ddbd b60d 06be
000001d0: a266 d13c 77ac c1bd 7863 e9bd 76ac 31be
000001e0: 6753 57bb b624 64be 3282 0a3e 6d37 01be
000001f0: 8889 013e 8ede 8cbd 3176 2b3d d3eb ae3d
00000200: 5ad9 8ebd e129 b6bd 1379 9f3c 0bf4 b1bd
00000210: 96d1 3cbe 176d 363e ebfe 95bd 1829 50bc
00000220: 67e8 22bd 569d 35be ab8a 2a3d 2dc3 463d
00000230: 9e43 d9bd 981b b53b cce7 d6bd df4b 45bd
00000240: 6a0f 5f3d 35e2 063e e8cf c4bd 3df9 13be
00000250: 22c0 26bd ccee 20be 671b 06be 3556 223e
00000260: cb39 fcbd 6618 b93c 224b 20be bb8e 3bbe
00000270: b2f7 debd 8cf2 0f3e f977 003d d139 f33d
00000280: dd5b 713c 4d53 9d3c 0d67 db3c fa41 89bd
00000290: 3caf 44be 34ff b33d 1fea dfbd b0a1 43be
000002a0: 7281 d13d 0d18 c0bd 2115 1dbe d8fe 0a3e
000002b0: 1b6b 77bd b10a 3e3e 10cf 6fbe 73dc 6ebd
000002c0: d217 19be cc3d 703d b1ec adbd 4223 07be
000002d0: d015 32be 80b3 3e3d ce2f 36be 4d6b 8c3d
000002e0: 94e1 c9bd b7af 363e 690b 023e 1cf5 52bd
000002f0: d7a0 033e 0638 bcbd 757c b0bd 7cea 403e
00000300: c668 073d b9e1 293e baf8 053e 3af9 25bd
00000310: 4f5b 2a3e d12e ab3b c2d1 bcbc 7e3b 313e
00000320: d7d9 613d f396 083d 682e 0fbe 43de 07be
00000330: 0197 81bd ee93 d13d 4f7f a53d 8b3c 2b3e
00000340: 03eb 9d3b afa1 593d a2a7 62bd 6efc d83c
00000350: 2d4a fc3c d68c 0f3d 5118 ac3d d31a fb3d
00000360: f945 933d b17b cd3d d803 563c 6cf2 c33d
00000370: 8d4c fcbd bc3b fb3d 5293 07be 08cd 293e
00000380: 0610 14be 4956 c4bc f39d 0e3e b836 7cbd
00000390: d18a 1cbe cf00 453c db62 89bd cf30 4a3d
000003a0: 2a6f 0fbe 4e19 3c3e d451 c93d 1e80 13be
000003b0: 5f7b 343c 3810 433e a7e7 97ba fadb c63b
000003c0: 646d 2fbd 45df eebc 3b9d 4abc 0257 56be
000003d0: a72a 373a a410 1ebe c1d1 8dbd 91dd f63a
000003e0: 85aa a03d e77c 863d 68d9 d73d ff17 2cbe
000003f0: ede5 273e fc1b 3dbe b72a 69be dfd5 69bc
0.064542525 -0.0869814 -0.07262987 -0.059099887 -0.043327164 0.08648705 0.07973601 -0.19859947
0.14626965 -0.1183891 0.20511971 0.12830436 0.0689132 -0.09359318 -0.11324038 0.12436454
-0.017556902 0.11963422 -0.07419872 -0.15228797 0.1319754 -0.019475594 -0.15779419 0.1616095
-0.18109405 0.178466 0.076948784 -0.11457592 0.19685355 0.14012057 -0.015954236 -0.020154716
0.16858932 0.054099094 -0.05197573 -0.08239761 0.033722017 -0.06725168 -0.0009173287 0.20149514
-0.15166508 -0.16030167 0.17005646 0.10507148 0.1833452 -0.07291677 0.1934597 -0.110980414
0.18746676 -0.110563524 0.03553076 0.07206391 0.06013373 0.19488317 -0.08755664 0.2030252
0.056418687 0.052753903 -0.014938122 0.15541373 -0.10328234 0.09290473 -0.16813637 0.16305888
-0.15225214 0.045322616 -0.08991735 -0.093638405 0.2077579 -0.06440254 0.14154862 0.034856666
0.09899977 0.056195863 0.1746162 0.086737454 -0.18590567 -0.21517308 -0.07050548 0.0067559783
0.077517815 0.07244406 0.06975288 -0.13893215 -0.10120719 -0.20429593 0.13100013 0.08251878
-0.11397904 0.15428007 -0.07260082 -0.011981922 -0.08864661 -0.2104328 -0.14710109 -0.005151938
0.1738256 0.03890423 -0.0408699 -0.13546522 -0.07696813 0.10132018 0.20895551 0.052504875
-0.047080796 -0.12338415 -0.070855856 -0.11280307 0.05986939 0.083833896 -0.12796423 0.1172615
-0.059635956 0.15715018 -0.10821195 -0.13091168 0.025561634 -0.09456723 -0.11395925 -0.17350945
-0.0032856108 -0.22279629 0.13526228 -0.126188 0.1265012 -0.068783864 0.041860763 0.08541074
-0.0697505 -0.088947065 0.019466912 -0.086891256 -0.18439326 0.17815052 -0.07324012 -0.01270511
-0.039772417 -0.177358 0.04163615 0.048525978 -0.106086 0.005526971 -0.104934305 -0.04816806
0.05445806 0.13172229 -0.096099675 -0.14450546 -0.040710576 -0.15716094 -0.1309639 0.15853198
-0.12315711 0.022594642 -0.15653661 -0.18316166 -0.10887088 0.14057368 0.031364415 0.11876262
0.014731375 0.01920476 0.026782537 -0.06702037 -0.19207472 0.087889105 -0.10933327 -0.19104648
0.10229768 -0.09379587 -0.15340091 0.13573778 -0.060404878 0.18558766 -0.23418832 -0.058315706
-0.14950493 0.058652684 -0.08492411 -0.13197044 -0.17391133 0.046557903 -0.17791674 0.068564035
-0.09857479 0.17840467 0.12699665 -0.051503286 0.12854324 -0.09190373 -0.08617488 0.18839449
0.033058904 0.16590013 0.13083163 -0.040520884 0.16636394 0.005224087 -0.02304924 0.1730785
0.05513939 0.03334708 -0.13982546 -0.1326838 -0.0632763 0.102332935 0.08080923 0.16722314
0.0048192753 0.05313271 -0.05533565 0.026487555 0.030797089 0.03504642 0.084030755 0.12260976
0.071910806 0.10033358 0.01306244 0.09567723 -0.123192884 0.12267253 -0.13239792 0.1658212
-0.14459237 -0.023966925 0.1392744 -0.06157562 -0.1528733 0.012024119 -0.06708308 0.049362954
-0.1400725 0.18369028 0.098300606 -0.14404342 0.011015742 0.19049156 -0.0011589424 0.0060687037
-0.042828932 -0.029159198 -0.012366588 -0.20931628 0.00069872517 -0.15436035 -0.06924773 0.0018834342
0.07845024 0.06566792 0.10539514 -0.16806029 0.16396303 -0.18467706 -0.227702 -0.014272182

encoder.initial.block.0.bias f4 [32]
00000000: 55b1 803e 42a6 31bd 4b11 353d 628a 5abe
00000010: a9ca 35be 24c4 cdbd 9a94 38be acdf 44bc
00000020: e332 aa3d 0099 18bc 492c 0d3d 7cac 433e
00000030: 0825 dc3d b863 363e 973c 91bd 3513 2cbe
00000040: 94c6 97bb f0be 90bc 3ecf febd 62e6 e03d
00000050: 119d b83c b43c 16be 4e95 8dbd 20ec 35be
00000060: 0db7 1a3e d101 b0bd 0950 a6bc 446a 4fbe
00000070: 6570 a0bd 05b2 86bd ecdc 2f3e 6e74 883d
0.25135294 -0.043371446 0.044205945 -0.21341851 -0.1775309 -0.100471765 -0.18025437 -0.012016218
0.08310487 -0.009313822 0.03446606 0.19108766 0.10749251 0.17811477 -0.07091635 -0.16804202
-0.0046318267 -0.017669171 -0.12441872 0.10981442 0.022535833 -0.14671594 -0.06913243 -0.17765856
0.15108891 -0.085940965 -0.020301836 -0.20255381 -0.078339376 -0.06576923 0.17174119 0.06662832

encoder.initial.block.2.weight f4 [32]
00000000: abd9 703f aeb0 7f3f c495 7e3f 9419 8e3f
00000010: 11ec 823f e949 843f 0409 7d3f 58c1 813f
00000020: e965 813f 74dd 803f 1720 823f 544c 813f
00000030: 4bf8 793f d42c 7b3f c19a 813f 8aee 823f
00000040: 563e 813f a847 7c3f f9f6 803f f1df 773f
00000050: fc25 833f f4d6 7e3f 6122 803f d3e7 893f
00000060: 199e 823f bc36 833f 82fa 7c3f b155 7b3f
00000070: a9df 803f e335 823f 833e 7b3f 9cf0 773f
0.94082135 0.99878967 0.99447274 1.1101556 1.0228292 1.0335056 0.9884188 1.0137129
1.0109226 1.0067582 1.0166043 1.0101418 0.9764449 0.9811528 1.0125352 1.0229046
1.0097148 0.9854684 1.007537 0.9682608 1.0245967 0.9954674 1.0010492 1.0773872
1.0204498 1.0251079 0.98819745 0.9817763 1.0068256 1.0172695 0.9814226 0.96851516

encoder.initial.block.2.bias f4 [32]
00000000: 07ed c8bc 6f7c babc 60e2 a93d 09af 21bd
00000010: 1724 57bd 61c6 d6bc e5f6 60bd c1a0 b0bc
00000020: 9919 df3c 09a7 043d 96fa 98bc c1b3 97bc
00000030: a043 2cbd cc24 1f3d 7cff 8c3c ed81 01bc
00000040: db4c debc 17d0 1dba 82be 913b d42b 2ebd
00000050: 86c6 59bc 1594 53bd edc7 e5bc ba7e 99bd
00000060: b677 a0bc a25f 60ba 3b9f 1fbd f1f0 0ebd
00000070: 236b fd3b 66df 0dbd 0ee7 c83c 5090 14bd
-0.024527086 -0.022764413 0.08295131 -0.039473567 -0.052524652 -0.026217641 -0.054922957 -0.021561028
0.027233886 0.03238586 -0.018674176 -0.01851833 -0.04205668 0.03885345 0.017211668 -0.007904512
-0.027136257 -0.00060200825 0.004447759 -0.042522267 -0.013291961 -0.051654894 -0.028049434 -0.07494874
-0.019588333 -0.0008559172 -0.038970213 -0.03489775 0.007733719 -0.034636877 0.024524238 -0.03627044

encoder.initial.block.2.running_mean f4 [32]
00000000: 0cdb aa3e b3ee d63e de3b 743e 69f9 9fbb
00000010: 254e a0bb b4a5 a3bb 6ff2 c9bb 8d40 e83e
00000020: 3c0d 2f3e 40ae d9bb c6cc 4d3e 3103 bc3e
00000030: 82f8 463e 92aa 0d3f 13b3 083f 06a6 a6bb
00000040: ba21 29bc 2379 ad3e e6f0 adbb 6335 743e
00000050: 5489 d33e 4566 aebb 251b 093f ff52 98bb
00000060: 162a af3e f20c ccbb 5937 b7bb d4de dbbb
00000070: 0f27 3d3f d005 9abb e96c 053c 2dc7 573e
0.33370245 0.41978988 0.23850963 -0.004882027 -0.004892128 -0.0049941186 -0.0061629335 0.45361748
0.17094892 -0.0066430867 0.20097646 0.36721185 0.19430736 0.55338395 0.53398246 -0.0050857095
-0.010322982 0.33881482 -0.0053082583 0.2384849 0.4131571 -0.00532225 0.53557044 -0.004648566
0.34211797 -0.006227129 -0.0055913148 -0.006709913 0.73887724 -0.0047004 0.008143642 0.21072073

encoder.initial.block.2.running_var f4 [32]
00000000: aaa9 883b 08dd 713d 16a9 323c bd8e 1436
00000010: 661d 3b36 1afc 8a36 f993 a436 f15d 6e3d
00000020: 3931 203b 8881 4737 515c f33b 2d61 1b3c
00000030: d374 3d3b b367 103d f813 bd3d 8fa7 4c36
00000040: fc95 ef37 b2a5 103d 16b8 8f36 10f8 a83b
00000050: d226 223d c074 8336 277b cb3d 9753 0e36
00000060: 5085 223c bef3 f436 1722 fe36 fdf4 c436
00000070: 6003 2d3e 7648 8f36 56c0 833a 1e76 de3b
0.004170616 0.059048682 0.010904571 2.2136803e-06 2.7882284e-06 4.142069e-06 4.904807e-06 0.05819506
0.0024443401 1.1891483e-05 0.0074267765 0.009483618 0.0028908744 0.035255145 0.09232324 3.04959e-06
2.8560862e-05 0.03531427 4.2831625e-06 0.0051565245 0.039587803 3.9176957e-06 0.09935599 2.1208305e-06
0.0099194795 7.300142e-06 7.5737585e-06 5.8697756e-06 0.16895819 4.2701677e-06 0.0010051827 0.006788983

encoder.block1.block.0.weight f4 [32, 38, 3, 3]
00000000: b15a 43bc 11e0 ff3c 5b64 e13b 158d 22bc
00000010: aa1f a1bd dae2 173d b49f c0bc 8e5d 833b
00000020: 9958 8bba cf2b ea3a 6d2e 2a3c 2509 3a3d
00000030: a8cf cc3c 04ad d7bc 746b c9bb 0c39 453d
00000040: 03e0 a43b 999c 5b3b 3041 103d 9265 0e3d
00000050: f9c1 ad3c f0c0 63bc 29e3 f03c 0748 66bc
00000060: b439 c13c 61bd 16bb eda4 123d 646f cdbc
00000070: cf2d b73c 4216 463d fc99 86bd f3c0 29bd
00000080: 4c8c 573d ce42 9d3d 3ec1 da3c 907a d9bd
00000090: a06e 8c3c de55 103d 5b30 26bb da23 cdbc
000000a0: 39ff 2bbc 771e e83c f919 a4bb 8277 2abc
000000b0: 40ee 153d 481e c33c 3b1f a93c a784 453c
000000c0: 1523 8dbd f103 41bd dbba 483b 2dea 0c3d
000000d0: dfff f1bc deb3 45bb 9d7c 113d 813c 063d
000000e0: 06da 883b a793 9b3b 0805 0dbd 94c8 9fb9
000000f0: 0b50 88bb dfbd 323d 8d2e 183c 1609 493d
00000100: 1e75 2ebd f4ef 573d e456 a7bc 0e97 69bc
00000110: ac47 713d 7f2a 06bc a85d fabc c6c6 0abc
00000120: 9bbf 023d 1d1b 833b 2890 273d ed66 153c
00000130: 79cf d5bc 372c 453b d0bf 183d 0a1b 843c
00000140: d45e d33c 998d 033c ceea 66bd 96ec d3ba
00000150: 5fad 213d 0bfc 05bd b0bc 893c 66ae f53c
00000160: 348b 23bd ebf6 fc3c 6478 ddbb 01b0 bc3c
00000170: 64d6 5e3c 23d4 8e3d 1e50 803d f311 adbb
00000180: d74d 8b3d 24a6 003d 9840 353d 8878 953c
00000190: f4a6 583d dd72 3f3c 387d f03c 5bdd 92bd
000001a0: d7cd ad3c fe7e dd3a 3a7b d33c 8d40 3c3d
000001b0: 4a89 44bd 2173 113d 9ebe ae3c f1a6 663d
000001c0: b958 a2bc df48 d73c 0114 bdbc 6626 8d3c
000001d0: 7afa eabc d6fe 65bb e6f9 a63c 7e7e dcbb
000001e0: 3c39 f0bc 2b79 0c3d ba5f 343d 0a3a 14bd
000001f0: e554 8b3d d8cb 073d e12d a53c 4647 21bc
00000200: d7b4 843b 3cf8 6fbd 9cae 3bbb ccdd 523d
00000210: 0d2a c73c 5cbb c83c 0a08 9a3b f318 febc
00000220: 5ad6 87bd 2463 fb3b 4413 853d 8656 bdbc
00000230: 2581 f43c 87cb 793d 1be5 6c3d 79e7 06bd
00000240: 0d0b f43c ecc4 c23c 96c8 62bc 0834 903b
00000250: afa1 33bd 31cd 363d 7eb7 853c 7233 283b
00000260: 240f da3c 7677 103d b74c 35bd 3390 893c
00000270: 95ba b5bc e24f bd3c 7f5c 193c 8688 d03c
00000280: d60b 07bc 1cf0 7abc 7c34 7c3c dbaa 563d
00000290: 9dbf 433c d9fd 9fbb a70f b9bc d0f6 e93c
000002a0: f716 4ebd fa3f 643b 9de7 18bc a261 4d3c
000002b0: 3d50 143d e12f bd3c 35c3 b8bb 6a48 66bc
000002c0: 62fe 54bb 5029 463c 527b 20bc e7ad 94bc
000002d0: 494a 69bb 6d7c a73c 1455 593d aa7a 67bd
000002e0: a621 8f3d 3e0b 89bc 9872 253d 392e 1a3d
000002f0: 1daa e63c c2f2 d83c ee82 e3bc d29d 713c
00000300: a6f5 7bbd dc7f 5ebc e0e9 a63c bb39 3f3b
00000310: 8172 b7bc cc27 3e3d fc90 c6bc 64de 543d
00000320: a6ff b33b 48eb 003d c02a 273c 5c33 513c
00000330: 3bfc 4c3d a5ff 0d3b 8908 153d 29f3 123d
00000340: c035 da3c 2812 633c 8df7 a0bb c7a0 ea3d
00000350: df8f 3ebd fb9d e1bb 28c4 81bc dda8 3ebc
00000360: 8f6c 3c3c d830 363c f1b0 d33c 009b 3c3d
00000370: 5754 c9bc 5618 3c3c 8585 423d 06ef 073c
00000380: ed1b 423d 87f5 89bb bf74 233d 9158 1ebc
00000390: 4c00 20bd 839b d93c ef98 9d3d 7868 873d
000003a0: c2f7 6e3d 16ad 5e3c 447e 41bd daea 9d3b
000003b0: 52d7 5b3d 1f9c 853d 740c c2bc ee72 88bb
000003c0: b460 993b 3cdd 4c3c 2c7e c93c 35da 0dbd
000003d0: 051e 8b3c 4bcc 4a3d 443f bebc b001 193d
000003e0: 3f81 94bc e49a 3c3d 9c70 243d 513e f73c
000003f0: 5531 3b3d d50a 643c af4d 293d 3de6 323d
-0.011923478 0.031234773 0.0068784184 -0.009921332 -0.078673676 0.037081577 -0.023513652 0.0040089553
-0.0010631263 0.0017865839 0.010387045 0.045418877 0.025001362 -0.026327617 -0.0061468426 0.048150107
0.005031587 0.0033510088 0.035218418 0.034764834 0.021210657 -0.01390098 0.029405193 -0.014055259
0.023587085 -0.0023001062 0.035801817 -0.02507753 0.02236071 0.04836107 -0.06572339 -0.041443776
0.052624032 0.076787576 0.026703473 -0.1061908 0.017142594 0.03523814 -0.0025358412 -0.02504151
-0.010497862 0.02833484 -0.005007979 -0.010404469 0.036604166 0.02381815 0.020644775 0.012055553
-0.06891457 -0.0471229 0.0030628953 0.034403015 -0.029540954 -0.0030167024 0.03551923 0.032772545
0.004176381 0.004747826 -0.034428626 -0.00030476286 -0.0041599325 0.043638106 0.009288442 0.04908093
-0.04259216 0.05271907 -0.020427175 -0.014257206 0.058906242 -0.008188843 -0.030562237 -0.008470243
0.03192101 0.004001035 0.040908962 0.009118778 -0.026099907 0.0030086169 0.0372923 0.016126174
0.025802054 0.008029365 -0.05637627 -0.001616853 0.03947198 -0.03271107 0.016813606 0.029990386
-0.039927676 0.030879458 -0.0067587364 0.023033144 0.013600919 0.069740556 0.06265281 -0.0052816807
0.06801956 0.031408444 0.044251055 0.01824595 0.052893594 0.0116851 0.029356584 -0.071711265
0.021216316 0.0016898809 0.025815595 0.045959998 -0.04798249 0.035510186 0.021331128 0.05631155
-0.019817697 0.026279865 -0.023080828 0.017230224 -0.02868389 -0.003509452 0.020382833 -0.006728946
-0.029324166 0.034295242 0.044036604 -0.036188163 0.06803302 0.033153385 0.020163478 -0.009843653
0.004049878 -0.058586344 -0.002863801 0.051481053 0.024312044 0.024503402 0.0047006654 -0.031017756
-0.06632681 0.0076717306 0.06497815 -0.023112547 0.029846737 0.060985114 0.05783568 -0.032935593
0.029790426 0.02377554 -0.013841769 0.004400734 -0.043855365 0.04462928 0.016322847 0.002566543
0.026618548 0.035270177 -0.044262614 0.016792392 -0.022183696 0.02310938 0.009360432 0.025455724
-0.008242568 -0.015316036 0.015393373 0.052409034 0.01194754 -0.004882556 -0.022590471 0.028560072
-0.05031487 0.0034828172 -0.009332565 0.0125354845 0.036209334 0.02309412 -0.005638505 -0.014055351
-0.0032500257 0.012094811 -0.009795027 -0.01814933 -0.0035597256 0.020445073 0.053059652 -0.056513466
0.0698884 -0.016728994 0.04039249 0.037641738 0.028157288 0.026482943 -0.027772393 0.0147471
-0.061513565 -0.013580289 0.020375192 0.0029178697 -0.022393467 0.046424672 -0.024239056 0.0519699
0.005493122 0.03147438 0.0102030635 0.012768593 0.050045233 0.0021667269 0.036385093 0.035876427
0.026636958 0.013859309 -0.004912323 0.11456447 -0.046523925 -0.006885288 -0.015840605 -0.01163694
0.011500492 0.011120044 0.025841208 0.046046257 -0.02457635 0.0114804115 0.047490615 0.008296734
0.047389913 -0.0042101773 0.03990626 -0.009664671 -0.039062783 0.026563412 0.076951854 0.06611723
0.05834175 0.013591072 -0.047239557 0.0048192563 0.053672142 0.06523918 -0.023687579 -0.0041640913
0.0046807174 0.012503918 0.024596296 -0.034631927 0.016982088 0.049511235 -0.023223527 0.037355125
-0.018128036 0.046046153 0.040146455 0.030181082 0.045701344 0.013918598 0.04133385 0.043676604

encoder.block1.block.0.bias f4 [32]
00000000: 8206 6e3d 91f6 553b eb2f 933c 86d9 723d
00000010: a594 6bba 11ba 803d 1e9f 80bc b998 27bc
00000020: 9935 433c 8d5f ddba b422 fc3b 0bfe 493c
00000030: ed8f b03d 0a98 4a3d 6455 833d caf0 c13d
00000040: 71ff cc3d a469 0d3c 68c4 3e3d e594 5dbc
00000050: ab34 53bc 12e0 1d3d 36e4 c33d 08f2 1f3d
00000060: 3620 153c 3052 683c 7425 043d 265e c63c
00000070: 6530 0e3d 2c32 2f3c d364 cf3c 21ba 263d
0.058111675 0.0032648186 0.017967185 0.059289478 -0.00089866883 0.06285489 -0.015700873 -0.010229283
0.011914634 -0.0016889438 0.0076945666 0.012328635 0.08621202 0.049461402 0.06412771 0.09469755
0.10009659 0.008631144 0.046574026 -0.013524269 -0.012890975 0.03854377 0.09565012 0.03904918
0.009101918 0.014179751 0.03226228 0.024214815 0.03471412 0.010693114 0.025316631 0.04070485

encoder.block1.block.2.weight f4 [32]
00000000: 3085 833f 96ce 813f 7103 7c3f 4b60 803f
00000010: a219 843f ecec 813f 88cd 793f 3064 813f
00000020: 5947 7a3f ed04 833f 7c8f 793f aa1a 833f
00000030: 18a6 823f a2a3 823f a744 803f 2c8c 7c3f
00000040: aeb6 823f 7868 773f 5aa0 823f 3223 7a3f
00000050: 8790 7a3f 9399 7f3f d408 7a3f 9298 833f
00000060: 7652 7b3f fd66 7f3f f014 793f a755 603f
00000070: 1125 7f3f decd 773f 1024 823f 499b 813f
1.0275021 1.014117 0.9844275 1.0029386 1.0320323 1.0150428 0.9757924 1.01087
0.9776512 1.0235878 0.97484565 1.0242512 1.0206938 1.0206187 1.0020951 0.98651385
1.0212 0.9664378 1.0205185 0.97709954 0.9787678 0.9984371 0.9766972 1.0280936
0.981727 0.9976652 0.97297573 0.87630695 0.99665934 0.96798503 1.0167255 1.0125514

encoder.block1.block.2.bias f4 [32]
00000000: c9c1 73bd 058d efbc aac1 6fba f93e 49bc
00000010: 0b30 843d 8a1f e53c 10be 8bbc f172 2a3d
00000020: 426b 69bc f9e5 273d c254 f53c 55ec e2bc
00000030: ce2b b13c 6403 b5bb 39b5 ee3c cd4a 3ebc
00000040: 0d8a 423d a51f 0e3d d6d1 7d3c fe01 a73b
00000050: 8442 72bc ce9e e63b 52fa be3a c394 34bd
00000060: d4ff 61bd c8e7 7aba 1786 8b3b df9c bcbd
00000070: 43aa ce3c 201e 6ebd a466 d4bc 1171 8e3b
-0.05951098 -0.029242048 -0.00091459847 -0.01228308 0.06454476 0.02796914 -0.017058402 0.041613523
-0.014246764 0.040990803 0.029947642 -0.027700583 0.021627333 -0.005524086 0.029139148 -0.011614514
0.047494937 0.034698147 0.015491923 0.005096673 -0.014786366 0.007037974 0.0014570451 -0.044087183
-0.055175617 -0.0009571281 0.004257928 -0.09209608 0.025227671 -0.0581342 -0.02592785 0.0043469747

encoder.block1.block.2.running_mean f4 [32]
00000000: a60a 573f 6988 943f 1c8d 853f faae 303f
00000010: 9c7f 2d3f 6eef fd3e 678b 443f 4b6f 123f
00000020: 9c14 283f 55a6 433f 483b 563f b54c 2d3f
00000030: 3319 573f ca09 a03f f9fd 513f 4452 273f
00000040: 81fd 463f 8ab2 263f 570d 083f 0f7e 103f
00000050: f118 e73e 3002 2c3f ad51 573f 8004 833f
00000060: f4ac 213f 2c2b 753f c790 313f 88fd 463a
00000070: 5fc4 2f3f 15d4 3b3f 98c5 193f 01f2 293f
0.84000623 1.1604129 1.0433688 0.69016993 0.6777284 0.49596733 0.7677521 0.5720107
0.6565645 0.7642568 0.83684206 0.6769517 0.84022826 1.2502987 0.82028157 0.653599
0.77730566 0.6511618 0.53145355 0.5644235 0.45136216 0.6719084 0.84109 1.0235748
0.6315453 0.95769 0.6936154 0.00075908797 0.68659014 0.73370486 0.6006713 0.66384894

encoder.block1.block.2.running_var f4 [32]
00000000: e3be 713f f8ff 0f40 7ccb ba3f c258 e23d
00000010: 231a ff3e ca15 763e 7004 8d3f 2373 173f
00000020: 0be0 3c3e 3467 733f 830d 853f bd7b 083f
00000030: f46e 843f 759c 2d40 9af8 2c3e 6146 2b3e
00000040: 17a7 333e c973 893e ef58 0b3f 426a 103f
00000050: a3ba 803e 23f9 083f 60ae fd3d 397a d43f
00000060: 9f70 0c3f 75a1 ba3f 520f fb3d af91 323c
00000070: 06d0 8d3e 34b1 263f 6800 963e cee5 e03e
0.94431895 2.249998 1.4593349 0.110520855 0.49824628 0.2403175 1.1016979 0.5916006
0.1844484 0.9507935 1.0394748 0.5331381 1.034636 2.7126744 0.16891709 0.16726066
0.17544208 0.2684615 0.54432577 0.56412137 0.25142393 0.5350515 0.12386775 1.6599799
0.54859346 1.4580523 0.122587815 0.0108989915 0.27697772 0.6511414 0.29297185 0.43925327

encoder.block2.block.0.weight f4 [32, 32, 3, 3]
00000000: dd73 73bb 73f8 b23d ee93 273d 761c f7bb
00000010: f956 aa3c 22f2 d1bc eb9c 24bd e552 1f3c
00000020: cf46 0fbd 2a03 aebc a487 21bd d2c1 9fbc
00000030: e2a5 b1bb 44a3 af3d 93fa 073d 3d38 d6bc
00000040: 79cc 0bbd 969b 373d d31a 103c 8345 843c
00000050: d7ba ba3c 32e0 453c 9bed 023c ecbd b33c
00000060: 3192 373d 522d 4c3c 4bc1 573d ccae 7bbd
00000070: a633 41bd fe2b f33c e726 f0bc a305 5c3c
00000080: 767e c3bc 97cd c5bb 5367 393c b7b6 a03c
00000090: dbbc 073d c28a 9d3d 7e5e 233d 5e5f 80bc
000000a0: ba89 733d 09c2 323d 9004 e6bc b51b aa3b
000000b0: 0874 713d bdd5 89bd 372d 27bd 2d38 a0bc
000000c0: 14f7 41bd 827f 89bb 0604 84bd fdec 573b
000000d0: 4f42 803c c1a8 a5bb 8fe8 dabc bc8c 38bc
000000e0: b2a9 36bd d64d bb3c a214 a83c 009e 113d
000000f0: aa1b f93b a9ec 2b3c 6e1d c0bc 476b 9a3b
00000100: 022a 8bbd dc32 27bc 6e69 06bc d632 51bd
00000110: 21f4 d7bc db29 8bbb 9ce6 0abd 92bd 0f3d
00000120: 60db 23bd 7028 65bd eb59 5cbc 0149 08bd
00000130: 47d8 6d3c eb89 a9bb 752c 46bd f7dd 3bbc
00000140: 637b 583a f200 353d d336 4dbc f374 5e3d
00000150: 459a 9abc dff4 513d 7871 45bd 110d 9d3d
00000160: b6fa d23c 7e9b 8c3d 54fa a83c 9103 ed3c
00000170: d7dc 9abc 3a48 3fbd 48f3 29bd 1196 b33c
00000180: c3a7 b4bc 41f5 973d 7b82 313b aa22 243d
00000190: ebfc 2fbd fa73 ee3c 5eda 863d 4338 c73c
000001a0: 3e35 3d3c 6188 eebc 33fe bcbc adbf 343d
000001b0: a9f7 743c fa7b 093d 713d 4fbc 43c6 263d
000001c0: c116 433d 4253 d03c 5c7b 5d3d 9418 9abc
000001d0: e2ec 093b 039f 39bd bec5 7d3d 5c2a 423d
000001e0: 6209 cbbc fd4e 42bc 8720 6c3d a54f 893d
000001f0: 6098 8d3c ddc5 043d 1700 77bc a3f7 f33b
00000200: 5042 e3bb da68 2fbc 22a7 b6bc dc24 32bc
00000210: 4af2 4e3b 9b08 86bb 0f65 9f3c 6bae 73bc
00000220: 3c4a d2bc d1db e43a 9c27 3bbc 8afa 0dbd
00000230: d265 09bd 4017 6abc 72ce b0bc f47d 53bc
00000240: ec83 2dbd cd2e 16bd ce82 1cbc 3cf8 acbc
00000250: c0b3 ecbc d385 36bc c550 933c bf44 00bd
00000260: b7de cebb 3dee 833c 7519 04bc 4d27 773c
00000270: 0fb2 eabb b9a3 bd3c cf4c f5b9 fdf9 dcbc
00000280: ce99 e93c e02b 2bbd f5e6 66bd f375 a6bc
00000290: bf61 2fbd cd54 68bd 1c54 c53c d466 81bd
000002a0: 1062 8abd ec15 50bd 63f8 a33c 2237 a2bc
000002b0: bb09 883c f18d a73c 95d0 b9bc b08c 77bd
000002c0: 1139 963b 8bd9 d23c c1ef bdba f825 75bd
000002d0: 6fb7 2d3c 2dd8 a9bb c8c3 6bbd 2b9e 0c3c
000002e0: 96c0 79bd 5e79 81bc 1e80 f5bc 38ea f53c
000002f0: 0c0f 2a3b aabc 943d bbcd 8b3b 63f1 293d
00000300: d3f8 ad3d 69e3 2fbd 198c 2e3d 4e2a 583c
00000310: 9a46 cf3b 7715 fe3c f12a 253b 5669 e63c
00000320: c14b 893a fa2e d439 fcf5 d8bc 77ae f4bc
00000330: 0b98 87bd 1fc5 123c 5279 2fbd b203 9fbb
00000340: 518e 013d a977 cd3b c8bf 5a3d ea2d 7a3c
00000350: 5a75 873d c360 a13d 47b1 c9bc 8245 833c
00000360: 9151 823c 62f6 3fbc 3ffb d43c d6cb 9e3c
00000370: 14ae 703c 3219 23bd dde5 cfba 96b7 4dbd
00000380: b9c5 85bd 7051 2c3c 3435 bb3c 32a3 a2bb
00000390: 683b 053b db7e 933c ca3b 813c 0040 713d
000003a0: 5ab1 853d 8a7d 133d 6f43 f4bc 4ea8 2b3c
000003b0: 7faf 46bd 6624 043d 26cf 8ebd 7f8e 2ebd
000003c0: d15d 9ebc 61be 00bb 5dba 90bc 2edb 8a3b
000003d0: dd81 37bd f4b4 47bc 7a03 803c 6e8c 183d
000003e0: 8604 ca3a 1b93 bb3c 281d 0cbd 6cae b4bc
000003f0: b14d 373c 622a 8bbb bc45 01bd fd40 2bbd
-0.0037147917 0.08738794 0.04091256 -0.0075412346 0.020793425 -0.025628153 -0.04018871 0.009724353
-0.034979638 -0.021241743 -0.039435998 -0.0195016 -0.005421386 0.08576062 0.03319795 -0.026149863
-0.034130547 0.044826113 0.008795458 0.016146427 0.02279417 0.012077378 0.00799122 0.021941148
0.044817153 0.012461977 0.052674573 -0.061445996 -0.047168396 0.029684063 -0.029315425 0.013429078
-0.023864012 -0.006036471 0.011316138 0.019618375 0.03313909 0.076924816 0.039885037 -0.015670475
0.05945752 0.043642078 -0.028078347 0.005191291 0.058948547 -0.067302205 -0.040814605 -0.019558037
-0.047354773 -0.0041961083 -0.0644608 0.0032947653 0.015656618 -0.0050555174 -0.02672222 -0.011264022
-0.044595428 0.022864264 0.020517651 0.03555107 0.0076021748 0.010493436 -0.023451533 0.0047124955
-0.06795122 -0.010204997 -0.008203847 -0.05107387 -0.026361527 -0.004246933 -0.033911332 0.035092898
-0.040004134 -0.055946767 -0.0134491725 -0.033272747 0.014516897 -0.005173912 -0.04838224 -0.011466495
0.0008258132 0.044190355 -0.012525278 0.05431075 -0.01887239 0.051258918 -0.048203915 0.07668508
0.025754314 0.06865595 0.020627178 0.028932365 -0.018904133 -0.04669974 -0.041491777 0.021922143
-0.022052651 0.07419825 0.002708583 0.04007212 -0.04296581 0.029108036 0.06584619 0.02431882
0.011548338 -0.029117765 -0.02307043 0.04412811 0.014951625 0.0335655 -0.012648926 0.04071642
0.04762912 0.025430325 0.054072723 -0.018810548 0.0021045734 -0.04531766 0.06195616 0.04740368
-0.024784748 -0.011859653 0.057648208 0.06704644 0.017284572 0.03241526 -0.015075705 0.007445292
-0.0069353953 -0.010706151 -0.022296492 -0.010873046 0.003157752 -0.0040903813 0.019457368 -0.014873127
-0.025670163 0.001746053 -0.011423018 -0.03466276 -0.03354437 -0.01428777 -0.021582816 -0.0129084475
-0.04236214 -0.036665726 -0.009552671 -0.021114461 -0.028894305 -0.011140305 0.01798285 -0.03131556
-0.006313171 0.016104812 -0.00806271 0.015085054 -0.0071623395 0.023149358 -0.00046787268 -0.026974672
0.028515723 -0.04178989 -0.0563726 -0.020319914 -0.042817827 -0.056721497 0.024087958 -0.06318441
-0.06756985 -0.050802156 0.020015901 -0.01980168 0.016606202 0.020453425 -0.022682467 -0.060436904
0.0045844396 0.025738498 -0.0014491008 -0.059850663 0.010602816 -0.005183241 -0.05755976 0.008582632
-0.06097468 -0.015804943 -0.029968318 0.03001891 0.002594891 0.07262547 0.0042664683 0.04148997
0.08494725 -0.042941485 0.042614076 0.01319368 0.006325555 0.031016095 0.0025202597 0.0281264
0.0010474847 0.0004047079 -0.026484482 -0.029868348 -0.06620797 0.00895813 -0.04284031 -0.0048527354
0.031629864 0.006270368 0.053405553 0.015269736 0.0661418 0.07879784 -0.024620665 0.016024355
0.015908035 -0.011716457 0.02599871 0.019384306 0.014689941 -0.03981895 -0.0015861351 -0.05022391
-0.06531853 0.010517463 0.022852518 -0.004963302 0.0020329598 0.018004825 0.01577558 0.058898926
0.06527968 0.036008395 -0.029817311 0.010477139 -0.04850721 0.032261275 -0.06973104 -0.042616364
-0.019331845 -0.0019644725 -0.01766699 0.004237554 -0.04480158 -0.012189139 0.015626658 0.0372433
0.0015412725 0.022897294 -0.034207493 -0.022055827 0.011187957 -0.004246996 -0.031560645 -0.041810025

encoder.block2.block.0.bias f4 [32]
00000000: fd9a 3e3c 20ea 103d d33e 383c e52a 0a3c
00000010: 5525 963d 33d2 513d aa02 18ba a5c8 903d
00000020: 71fa 993d 872b a73d 68d3 503c b29f 093d
00000030: 20af 8f3c b200 683d ee58 023d eb47 783c
00000040: a4c0 4a3c df5f 92bb ac7e 993c 53de 88ba
00000050: 6f6a a83d d928 5d3c c065 bb3c e423 a83d
00000060: fb7d 55bc 202e 5f3d 36c1 80bb da87 773d
00000070: e60a ed3c 3a83 80bc 9acd 393d 3f38 633d
0.011633632 0.03537953 0.011245447 0.008433078 0.07331339 0.051225852 -0.0005798737 0.0706952
0.07518471 0.08162599 0.012745716 0.033599563 0.01753956 0.056641288 0.03182309 0.015153865
0.012375031 -0.004466995 0.01873716 -0.0010442234 0.082234256 0.013498508 0.022875667 0.082099706
-0.013030524 0.054487348 -0.0039292825 0.060432293 0.02893586 -0.015687574 0.045362093 0.055473562

encoder.block2.block.2.weight f4 [32]
00000000: ae4e 7a3f 25e2 753f 0957 773f 691c 783f
00000010: 6186 783f e91c 753f 3f5e 773f e55c 783f
00000020: e967 793f 41b1 6f3f 3197 773f 6bf7 703f
00000030: 7d17 793f 0b1b 793f 62e0 763f f70a 793f
00000040: fa76 7a3f 4976 793f bcb9 773f f7af 7a3f
00000050: 3813 763f 8500 793f bd3b 7a3f 9753 793f
00000060: 3f44 723f 0ab2 753f 8f5e 7b3f b25c 7c3f
00000070: 270a 763f 381e 783f 04f7 753f 101b 753f
0.97776306 0.96048194 0.9661718 0.9691835 0.97080046 0.9574724 0.96628183 0.97016746
0.9742418 0.93629843 0.96715075 0.9412753 0.97301465 0.9730689 0.9643613 0.97282356
0.97837794 0.97446114 0.96767783 0.9792475 0.96123075 0.9726642 0.97747403 0.9739317
0.94635385 0.9597479 0.9819116 0.9857894 0.9610924 0.9692111 0.9608004 0.9574442

encoder.block2.block.2.bias f4 [32]
00000000: ae70 fdbb 7760 dabb d338 9ebb 7139 91bb
00000010: 94ee 46bd 65c5 1fbc c685 433b f24d cd3c
00000020: 1ecb 193d 5ef2 7dbb cc21 033c f6be 8abb
00000030: c4d0 01bc 34e0 7eba 7c20 cc3c 473f 243d
00000040: 23e1 c03c 1aaf 56bc 0446 d03c c1ae 5fbc
00000050: 4c1a b0bc 680f 46bb 1622 fbbb 7213 9abc
00000060: 06c6 343d 3186 3cbc 8629 a43c 9205 373c
00000070: f02a b2bb 76fc 243b 0124 97bc a9d4 313d
-0.0077343797 -0.0066643315 -0.0048285513 -0.0044318964 -0.04856737 -0.009751652 0.0029834374 0.025061581
0.037547223 -0.0038749198 0.008003663 -0.00423419 -0.007923309 -0.000972274 0.024917834 0.04009941
0.023544854 -0.013103271 0.025424011 -0.013652504 -0.021496914 -0.0030221585 -0.0076639755 -0.0188081
0.044134162 -0.011506603 0.020039331 0.011170762 -0.0054372475 0.0025174893 -0.018449785 0.0434157

encoder.block2.block.2.running_mean f4 [32]
00000000: 332c d43f e412 e83f c70f ed3f a095 dc3f
00000010: b2ae da3f de99 e03f 31ca e93f b6e7 fb3f
00000020: ab79 e23f 3dbd 6b3f 91ec d73f 5c3f f73f
00000030: 3288 dc3f cf57 b43f f0dc bf3f a989 cd3f
00000040: 0f3a d63f 25f9 f13f ab98 bb3f 1a25 e33f
00000050: 7193 c43f 9219 f83f 9b43 d83f a258 e13f
00000060: 8f89 e73f ef9c ec3f c284 d63f acd9 d23f
00000070: 922e f83f cb40 e23f 3755 ea3f 6890 d93f
1.6575989 1.8130765 1.852044 1.7233162 1.7084563 1.7546957 1.8264829 1.9680088
1.769338 0.9208563 1.6869069 1.9316211 1.7229064 1.4089297 1.49893 1.6057636
1.6736468 1.8904158 1.4655966 1.7745697 1.5357496 1.9382803 1.6895632 1.7605174
1.8088855 1.8485392 1.6759264 1.6472678 1.9389212 1.7676023 1.8307256 1.6997194

encoder.block2.block.2.running_var f4 [32]
00000000: 967a b140 6c3d d540 77c6 cf40 5b31 bf40
00000010: 14bc bb40 2fa3 ba40 4657 cb40 d66f f840
00000020: 6982 bd40 9c55 d33f c5e2 b840 ed4f e140
00000030: 17c2 be40 e703 6f40 2fa1 8840 b3d7 a540
00000040: c264 b340 c20e e640 9910 8240 4d3d cc40
00000050: 1bc5 8f40 154b e540 0d20 b740 76b0 c840
00000060: 940b d340 8bb2 d040 73e1 b440 ab38 ae40
00000070: 0e27 f240 ce75 c840 4548 d840 2051 b940
5.546214 6.663748 6.4929767 5.974775 5.8667088 5.83242 6.3544035 7.763652
5.922169 1.6510501 5.777682 7.0410066 5.9611926 3.7346132 4.2696757 5.1825805
5.6060495 7.1893015 4.064526 6.382483 4.4928107 7.1654153 5.7226624 6.2715406
6.5951633 6.521795 5.6525207 5.4444175 7.5672674 6.2643805 6.758822 5.791153

encoder.final.block.0.weight f4 [3, 32, 3, 3]
00000000: acce 2fbd 3685 e0bc 9e44 7dbb 7c05 f83c
00000010: 67dd 3bbd 03d5 c33c 39a6 043d 9e40 23bd
00000020: 7f94 9b3b ed04 053d 0a9a 243d cc7d 0e3d
00000030: 036c 453d a3b0 1cbd fc8e 07bd 1177 c23c
00000040: cea3 35bd e1b7 283d c4df 80bc a0df 253d
00000050: c800 50bc 307e 813c aed2 ddbc 2794 093d
00000060: d434 033d dac6 21bd 7903 303b 8c3a 8b3c
00000070: a327 073d 59e4 a73c edaf 4c3d 6fc7 583d
00000080: 70c1 a83b e57b d83c c9eb b6bc ead3 3dbd
00000090: d88f 13bc 5930 b7bc 12cf af3b 3256 8e3c
000000a0: 440b 1c3d 54b7 06bd 57bd 113c b6e8 503c
000000b0: 478f 62bc 787b 32bc 0ae7 f03c b681 fe3a
000000c0: 5b64 8ebc ed19 963c 195b 26bd 8ef1 293d
000000d0: 6279 4ebc 4dea bd3c 361a 27bd 54e6 84bc
000000e0: 76f8 6ebc 84f5 d13b d5a8 1fbb 030d 2ebd
000000f0: fa47 01bd 4631 173d 4a5d c13c 1270 8e3b
00000100: 5dc5 043c 2e9a 923c 7cc5 ddbc 2555 e43a
00000110: 09c2 32bd 7f8b 19bd be04 f23c 9840 42bd
00000120: 96f6 9fbc f20b e23c 25b6 413d c874 acbb
00000130: e771 24bd 03e1 4b3c 6b6c 3dbc 913a 723c
00000140: e7e7 0a3b 5289 b33b 1adf 243a 8bbc 98bb
00000150: 3b19 603a 5c3a ffbc 0f5c c63b f086 323b
00000160: cbe0 20bb 4288 32ba 9996 1dbd bd33 3dbd
00000170: be80 0c3c cf51 3d3d cbd0 3f3c cc9f 42bb
00000180: ce0c f43a b8ca 083d 4ab1 92bc 3da1 273d
00000190: ca94 bcbc fdcf f6ba 09e1 06bd 22da 0a3d
000001a0: cf21 8ebc 30a3 d2bc a938 19bc 2648 fe3b
000001b0: ca2f 91bc 0fb0 2d3c 24ef 9e3c 3d7b b5bc
000001c0: 7c75 5fbc 7489 0a3b a740 183d 8086 333d
000001d0: 91b6 c73b db33 8a3c 78d9 90bc 1049 aabb
000001e0: 9465 e3bc 1e36 bcbb 6a73 c33b 8cfa 90bb
000001f0: fcc0 cabc 591c f5bc 31db 6c3c f596 ebbc
00000200: f04e 24bd bb4a 983c 0da2 3bbd bf57 733b
00000210: f76d fa3b 7e40 a0bc c0b7 bdbc cf2f 29bd
00000220: f507 1fbd a8f1 1b3c af53 2fbc 74bf 973c
00000230: 0929 4abd 1a36 d6bc 46ed 1e3d 513e 053d
00000240: 6a0a ed3c 4fc2 73bd 9fc7 a93b 0706 86bb
00000250: 877d dabc 5262 343d 08dc 893c 1060 40bc
00000260: 888a 05bd f41a b93c cdcd e3bb ea38 1bbd
00000270: c899 5a3d fde8 52bd 4d17 b6ba 17a9 25bd
00000280: 44bc 043d c0e4 e2bc 258c 03bc 69dd ea3b
00000290: 956c ad3b c852 8dbc f545 1c3d 7784 9ebc
000002a0: 78a8 453b ea59 df3b c1f2 e0bc 2213 5b3c
000002b0: 7e79 263d 3de9 ec3c 0d72 05bd 91a1 0c3d
000002c0: 7815 ed3c cc8e f9bc 7327 803c cdc9 3e3d
000002d0: 2564 0dbd 490b f2bc 3628 f53b 00c1 0b3d
000002e0: 65c3 443d eb12 573d e0d4 8d3c 445a 473c
000002f0: ba2d 263c 3038 1a3d 38af 10bd 68e0 af3c
00000300: e0a5 973c b6b5 f63c 6532 96bc f084 83bb
00000310: 2e04 33bc 3d0f 913c a829 21bc a76a 273d
00000320: 3738 cfbc d260 073d b228 0e3d 8e0b 36bc
00000330: 9df8 26bd 8954 14bd 79f9 a43c 60fd d4bc
00000340: 2f53 763c c3c8 16bd c9ba 00bd 975b 4c3d
00000350: 7aee 03bd a0fc 643c 34dc d7bb 3fe1 f13c
00000360: 7126 0bbd b1dc ce3c 90ec 10bc 595a 05bd
00000370: c1ee a93c 28a0 b73c cd52 a93c 3a72 6dbc
00000380: c974 91bb 4e9e 1d3d 0953 983c ecce d2bb
00000390: 5e43 22bd fc49 0f3d a807 923c 259b 04bc
000003a0: 3e76 e73c 0274 5839 25e4 e6bc e286 3fbd
000003b0: 2140 13bd 234b 3dbd 99fc 40bd b4c1 eb3b
000003c0: b431 1fbd e3db 4b3d 5861 d2bc 975c c63b
000003d0: fb99 39bd 4e2f d2bc f7d8 25bd 2861 2fbd
000003e0: cdb2 9abb a86c 19bd 4b1d debc 0c86 e73c
000003f0: c03b 1b3d fb28 1c3d 33de 1cbd 0757 063d
-0.042921707 -0.02740727 -0.0038645635 0.030276053 -0.045865443 0.023905283 0.032385085 -0.039856546
0.0047479267 0.0324754 0.040185966 0.034787938 0.04819871 -0.03825439 -0.033095345 0.023738416
-0.04434567 0.041190986 -0.0157317 0.04049647 -0.012695499 0.015807241 -0.027077999 0.033588555
0.032032803 -0.03949628 0.0026857539 0.01699569 0.032996785 0.020494627 0.049972463 0.05292457
0.0051500127 0.026426265 -0.022329228 -0.046344675 -0.009006463 -0.022361921 0.005365261 0.017375086
0.03809668 -0.03288968 0.00889524 0.012750795 -0.013828105 -0.010893695 0.029407043 0.0019417319
-0.017381838 0.01832291 -0.04061422 0.04149013 -0.012602182 0.023183012 -0.04079648 -0.01622311
-0.014585605 0.0064074416 -0.0024362106 -0.042492878 -0.031562783 0.036912225 0.023604054 0.004346856
0.008103696 0.017895784 -0.027071707 0.0017420395 -0.043642078 -0.03748655 0.029543277 -0.047424883
-0.019526761 0.027593587 0.047292847 -0.005262945 -0.04014769 0.012443784 -0.011561493 0.014784471
0.0021195353 0.0054790163 0.0006289348 -0.004661148 0.00085486815 -0.031155758 0.0060534547 0.0027241074
-0.002454805 -0.0006810465 -0.0384737 -0.04619192 0.008575616 0.046220597 0.011707495 -0.0029697297
0.0018619539 0.033396453 -0.017906804 0.040925253 -0.023020167 -0.0018830296 -0.032929454 0.033899434
-0.017350106 -0.02571258 -0.009351888 0.0077600656 -0.017722983 0.010601058 0.01940114 -0.022153491
-0.01363885 0.0021139057 0.037171032 0.04382944 0.0060947617 0.01687043 -0.017681822 -0.005196698
-0.027758397 -0.005743756 0.005964686 -0.0044243988 -0.024750225 -0.029920744 0.014456556 -0.028758505
-0.040114343 0.018590322 -0.04580884 0.0037131158 0.0076425034 -0.019562002 -0.023158908 -0.04130536
-0.038825948 0.009518065 -0.010701104 0.01852391 -0.04935554 -0.026148845 0.0388005 0.032530133
0.02893563 -0.05951148 0.0051812674 -0.004090074 -0.026671184 0.044039078 0.016828552 -0.011741653
-0.032602817 0.02259586 -0.0069520236 -0.037896074 0.053369313 -0.051491726 -0.0013892442 -0.04044446
0.032406107 -0.027696967 -0.0080290185 0.0071675074 0.005292485 -0.017251387 0.038152654 -0.019350274
0.003016023 0.0068161385 -0.027459504 0.013371261 0.040643208 0.02891981 -0.03257947 0.03433377
0.028940901 -0.030463599 0.01564381 0.04657917 -0.034519333 -0.029546397 0.0074816 0.034119606
0.048037905 0.052508276 0.01731342 0.012167517 0.010142738 0.03765124 -0.03532335 0.02146931
0.018511713 0.030115943 -0.018334577 -0.00401365 -0.0109262895 0.017707461 -0.009836592 0.040873196
-0.02529536 0.03305132 0.03470678 -0.011111153 -0.04076444 -0.03621343 0.02013849 -0.025999725
0.015034481 -0.036812555 -0.031428132 0.049892034 -0.03220985 0.013976246 -0.0065875296 0.029526351
-0.033972207 0.025251718 -0.008845463 -0.032556865 0.02074373 0.022415236 0.020669365 -0.014492566
-0.0044389707 0.03848105 0.018594282 -0.0064333584 -0.039615028 0.034982666 0.017825916 -0.00809363
0.028254624 0.00020642582 -0.02818496 -0.046759494 -0.03594983 -0.046214234 -0.047115896 0.007194722
-0.03886576 0.049770247 -0.025681183 0.006053518 -0.045312863 -0.025657322 -0.040490117 -0.042817265
-0.0047210217 -0.03745714 -0.027113577 0.02826216 0.03789878 0.03812502 -0.038297843 0.03279784

encoder.final.block.0.bias f4 [3]
00000000: 9117 bd3c f362 553b 33c8 b7b9
0.023082526 0.00325602 -0.0003505364

decoder.initial.block.0.weight f4 [32, 3, 3, 3]
00000000: 6157 bdbd 3f95 073e a886 303d 0ade 693d
00000010: bbca 53bd 5b4c 41bd c8d6 0c3e e6ed 2dbe
00000020: a6ba 393d 2793 23bd 2e92 40be 000f 06be
00000030: 84da 973d 4d79 d63d fa7c 423e 1284 9abd
00000040: 7032 013e 91e6 84bd 0516 413e 6356 1b3e
00000050: 5486 d4bd a44c ebbd 21a8 d5bc 4bc0 1e3d
00000060: 6f41 ccbd b487 05bd ec60 04bd b706 0f3e
00000070: 2fc9 a63d 5a30 16be 61f7 bfbc b847 c1bd
00000080: 44ce a63d d7fa a13d d252 ce3c b511 313c
00000090: d36f 813d ea3f 10be a599 aabd c09e e93d
000000a0: 538f 303e 3a70 023e de22 32be fcf2 69bd
000000b0: ea09 9fbc dc4f 193e 7685 543e affc 433b
000000c0: 208b 3a3e c0fc 043e 9d39 103e a53e 0fbe
000000d0: 4ec1 56be 4632 2dbe 5744 34be db40 303e
000000e0: dfb5 96bd b7a6 9a3d ee84 ec3c d7af c63d
000000f0: e568 133e c508 df3d 046d 12be 4d97 ea3c
00000100: d628 8c3d 066b 8d3d b187 2d3e da43 edbd
00000110: 99b8 603e 8fae 39bd 032b 08bd a7f5 c7bd
00000120: 7c14 853d 7a14 88bd 3f8a bdbc 4c37 3cbe
00000130: 7996 28be 42a7 033e b2ca d73d de91 143d
00000140: 2d51 263e 7e4b d13c 2724 0abe 9930 3a3e
00000150: 51b6 d23b 8369 c6bd d8a0 9cbd b6e0 97bd
00000160: fba0 cebd 6ae9 abbd 59cb c53d 3905 babd
00000170: 5ab7 203e b32f 373d a6a6 f6bd f128 c5bd
00000180: 4d72 c73d b57d 203e 1718 4e3e 5a13 38bd
00000190: dd93 c5bd fcf1 11be 8fef 97bd 4fa0 463d
000001a0: 7d92 0b3e eae7 4b3d 0278 c4bd 8743 9cbd
000001b0: 3f6f a03d 8766 c93c 203d 0bbd 1b47 18bc
000001c0: 6fe3 3fbd f714 7e3d 9626 1cbe 1119 15bd
000001d0: de13 093d 5c08 06be 9833 6ebd f110 67bd
000001e0: 837c 4abc 06c7 80bc 8558 8bbd c251 413e
000001f0: a8c9 63b8 ac29 3f3d e68f 863d 52eb 19bd
00000200: 2619 debb 03a8 26be cc35 c9bc 31c7 783d
00000210: d631 fa3d ba3a 043e b8b5 3abe a129 413d
00000220: 9e12 2b3e 13d6 13be 72d9 b4bd 1057 0abe
00000230: df1c 843d 1f8a 523d b2dc 1cbd 576e 2e3e
00000240: 79a7 143e 8391 033e 5c42 7abd 01d5 8d3d
00000250: e12a 5e3d 536e 7fbd ca28 393d 3498 3bbe
00000260: efbb 45be b0f8 f03d a89d 30bc 2e8e 083e
00000270: 8dd2 043e 625f a0bd ecb4 35bd dd31 4ebc
00000280: 491f f63d ccdc c43d 0a36 f03d 8a4c d43d
00000290: 4e18 af3d 7b42 36be 2cd2 5ebd 643e d33d
000002a0: f578 6f3d 7cb5 9cbd 089a eabd 733d dc3c
000002b0: bf00 b0bd 1ccc 91bd ac73 29be cecf 773d
000002c0: 2852 3abe 12ff 263e 7725 423e 5ecc 04bc
000002d0: 3f65 63bd e365 943d e68f 3ebd b7b9 df3c
000002e0: a644 253e 6b67 be3a 31bf bebd 81e0 29be
000002f0: 476c 093e 3b77 aa3a ba3d 00be d050 0abd
00000300: 42d6 c8bd cb73 01bd 0579 933d 2844 0bbe
00000310: a0fe e23d 09c0 1fbe 17e2 2bbe 4ee2 eebd
00000320: 6fe4 3ebe d7db febd 2c0a 543e 13a6 d5bd
00000330: 9c80 c73d f0ba bebd 2ea6 87bd 1b9f fd3d
00000340: 07e6 3cbd 9779 433e 0808 00be f2ac 1cbe
00000350: faf2 df3d b5d2 873d bf61 a5bd 4e41 3e3e
00000360: be57 71bd aba8 523d ebcd cd3d d8f1 65bd
00000370: 79d4 ca3d 59db 8c3c d9c8 9bbd e1af 623d
00000380: c748 0e3d 05ff fe3d b756 b7bd 5448 0bbd
00000390: c6ce a6bd bea4 0e3e 7301 103d 6e78 1b3e
000003a0: e61e 3dbe 4b56 b13d 301b 5bbd 1b9f 983d
000003b0: 5316 76bd 03ca b43b db6b f9bc b603 a33d
000003c0: 5ef1 903d e70d e93d dea2 32be 1615 1f3d
000003d0: de23 e6bd aa28 35be fed9 0dbd c32c babd
000003e0: 1816 203e df53 78bc b016 e33d ed63 cc3d
000003f0: e9ae 663d 5f08 e13d b86a d8bb c842 303d
-0.09245182 0.13240527 0.04309717 0.05709652 -0.05170701 -0.04719196 0.13753808 -0.16985282
0.045344017 -0.039935257 -0.18805763 -0.1309166 0.074147254 0.10472355 0.18992987 -0.07544722
0.12616897 -0.064892896 0.18856056 0.15169673 -0.103771836 -0.114892274 -0.026081147 0.038757604
-0.09973418 -0.03260012 -0.032318994 0.13967405 0.081438415 -0.14666882 -0.02343339 -0.094375074
0.08144811 0.07909172 0.025185976 0.010807444 0.06320157 -0.14086881 -0.083300866 0.11407232
0.17242174 0.12738124 -0.17396113 -0.057116494 -0.019413907 0.1497187 0.20754036 0.002990525
0.18217134 0.12987041 0.14084478 -0.1398874 -0.20972177 -0.16913709 -0.17604195 0.1721224
-0.07358908 0.075513296 0.02887198 0.097015075 0.14395483 0.108903445 -0.14299399 0.028636599
0.06843726 0.06905179 0.16946293 -0.11585207 0.21945418 -0.045332488 -0.033244144 -0.09763651
0.06498048 -0.066445306 -0.02313721 -0.18380469 -0.16463651 0.12856773 0.10536708 0.036271922
0.16241904 0.025548693 -0.13490354 0.18182601 0.006430425 -0.096880935 -0.07647866 -0.07415907
-0.10089298 -0.083941296 0.09657926 -0.090830274 0.15694943 0.044723224 -0.120435044 -0.096269496
0.09738598 0.15672953 0.20126377 -0.04494033 -0.09647343 -0.14252466 -0.07418739 0.048492726
0.136301 0.049781717 -0.09593202 -0.07630067 0.078337185 0.024585022 -0.03399384 -0.009294297
-0.046847757 0.062031712 -0.15249094 -0.03640086 0.033466212 -0.13089126 -0.058154672 -0.05641264
-0.0123587875 -0.015719902 -0.06803993 0.18878844 -5.4308824e-05 0.0466706 0.06570415 -0.037577935
-0.0067779003 -0.16275029 -0.024561785 0.06073684 0.12216537 0.12913027 -0.18233383 0.04715884
0.1670632 -0.14437132 -0.08830537 -0.13509774 0.06450819 0.051401254 -0.03829641 0.17034279
0.14517011 0.12848477 -0.06109844 0.06925393 0.05424011 -0.062361073 0.045204915 -0.1831978
-0.19309972 0.117661834 -0.010779776 0.13335487 0.12970944 -0.07830693 -0.044361994 -0.0125851305
0.12017686 0.09612426 0.11729057 0.10366161 0.085495576 -0.17798798 -0.054399654 0.103146344
0.058464963 -0.07651803 -0.114551604 0.02688477 -0.08593892 -0.07119009 -0.16548032 0.060500912
-0.18195403 0.16308239 0.18959604 -0.008105366 -0.055516478 0.07245996 -0.04652395 0.027310235
0.16139469 0.001452667 -0.093138106 -0.16589548 0.13420211 0.0013005504 -0.12523547 -0.033768475
-0.098064914 -0.03160457 0.07200817 -0.13600218 0.11083722 -0.156006 -0.16785465 -0.11664258
-0.18641828 -0.12444275 0.20707005 -0.10432067 0.09741327 -0.09312999 -0.06623493 0.123838626
-0.04611781 0.19089352 -0.12503064 -0.15300348 0.10935016 0.06631986 -0.08075284 0.185796
-0.058921568 0.051430386 0.10049041 -0.056138843 0.09903807 0.017194437 -0.07606668 0.055343512
0.034737375 0.12450985 -0.089520864 -0.034004524 -0.08144908 0.13930032 0.035157632 0.15182659
-0.18468818 0.08659037 -0.053492725 0.07452222 -0.060079884 0.0055172457 -0.030446937 0.07959692
0.07077287 0.11379605 -0.17444941 0.03883847 -0.1123731 -0.17691293 -0.03463172 -0.09090569
0.15633428 -0.015156715 0.11088312 0.09979997 0.05631915 0.10987925 -0.0066045187 0.043032438

decoder.initial.block.0.bias f4 [32]
00000000: 0adf 223e a1b8 89bd bfbd 61bd 8c44 753e
00000010: 72f1 393e c98d 87bd a36b 203e 662c 44be
00000020: bd6c 103e b79a 43be 6501 86bc 15f3 fc3d
00000030: c37d 023e 36d7 cf3d d58b 903c 35ab 76be
00000040: ca74 e63d db44 b33d 6ac7 3abe 7514 383e
00000050: e270 12be fae6 593d e4e1 103e 0e6a 76bd
00000060: e6ab c0bd 4780 75be 5e74 a6bd 94a6 553e
00000070: 1700 af3d c002 cb3d 278f acbd 74b8 3b3e
0.15905395 -0.06724668 -0.055112597 0.2395193 0.1815851 -0.0661884 0.1566606 -0.19157562
0.1410398 -0.19101988 -0.016358087 0.12351052 0.12743287 0.1014847 0.017644802 -0.24088748
0.112527445 0.087533675 -0.18240133 0.17976554 -0.14300874 0.053198792 0.1414867 -0.060159735
-0.09407787 -0.23974715 -0.08127664 0.20864326 0.08544939 0.09912634 -0.08425742 0.18332082

decoder.initial.block.2.weight f4 [32]
00000000: fee0 793f ac07 723f bc31 7d3f bb2f 653f
00000010: c376 6a3f 8799 723f df8e 883f 440e 803f
00000020: 5513 7d3f 0c8f 783f 9a70 763f d78b 843f
00000030: b262 833f ac62 7c3f 6e2f 7e3f 4d3f 813f
00000040: 7b1b 883f 18f1 843f c478 783f 9a9a 783f
00000050: 19c3 723f 88e1 753f 7309 853f bdda 703f
00000060: 03b6 6c3f 46bf 7f3f 8d34 733f 02d0 573f
00000070: 66d6 783f dc7e 7b3f 38e9 733f f1cf 863f
0.97608936 0.94542956 0.98904014 0.89525956 0.91587466 0.94765514 1.0668601 1.0004354
0.98857623 0.9709327 0.96265566 1.0355176 1.0264494 0.9858806 0.9929112 1.0097443
1.0633386 1.0386076 0.97059274 0.97110903 0.94828945 0.9604726 1.0393509 0.9408377
0.9246523 0.99901235 0.9500206 0.8430177 0.97202146 0.9824045 0.9527774 1.0532209

decoder.initial.block.2.bias f4 [32]
00000000: 8654 debc 3796 dbbd d5e0 b23c a259 70be
00000010: b8d7 62be f8f9 e9bd 8c83 ee3d dc0a 2b3d
00000020: a6c0 80bc 3beb 05bd 6cc3 bfbc e10a eb3b
00000030: 5bfb aabc cb6e 6cbd bc5d 02bd 534d 24be
00000040: d9ce e4bd 38e3 b93d 9b15 b7bd c413 d2bd
00000050: 61c8 c0bd 4a6d 49bd 3377 933b 4a9e a23d
00000060: c89f 3a3d c2e7 46bd af50 e4bd 0da4 0bbd
00000070: 744e f03c df45 5cbd 02fb 053e b241 1abe
-0.027139913 -0.107220106 0.021835724 -0.23471692 -0.22152603 -0.11424631 0.11646184 0.041758403
-0.015716862 -0.032695036 -0.023408614 0.0071729277 -0.020871809 -0.057722848 -0.031827673 -0.16045122
-0.111722656 0.09076542 -0.08939668 -0.10257676 -0.09413219 -0.04917649 0.0045002936 0.079403475
0.045562536 -0.048560865 -0.11148202 -0.034091998 0.029334284 -0.05377757 0.13084033 -0.15064123

decoder.initial.block.2.running_mean f4 [32]
00000000: 6be4 303e 7284 0d3e 517e 573e 2c55 163e
00000010: 65b0 a43d c6c5 113e 65ca 233e e178 b0bb
00000020: 9cc7 9b3e 2c93 5ebb 3a1a 733c f0fe 0b3e
00000030: c8b2 fb3d a29d df3d 0224 ca3e aa2d 82bb
00000040: 211a f73d db79 b63d 155b 70bb 8360 583e
00000050: 116e 98bb 12d6 893e 19bb 183e cea9 6e3e
00000060: 80fb 3f3d c4c2 a5bb b75d 823d 9e29 6a3d
00000070: 39df 163f 1ef9 fe3d 266d 0cbc 18e0 333e
0.17274635 0.13820055 0.2104428 0.14680928 0.08041457 0.14235601 0.15995176 -0.0053855036
0.30425727 -0.0033962233 0.014837796 0.1367147 0.12289959 0.10918738 0.39480597 -0.0039727287
0.120655306 0.08909961 -0.0036675383 0.21130566 -0.004651793 0.26921135 0.14915122 0.23306963
0.04687071 -0.0050586183 0.06365531 0.057168595 0.5893436 0.12449859 -0.008570945 0.17565954

decoder.initial.block.2.running_var f4 [32]
00000000: 0e68 e439 10d7 593c a689 8b3c ade8 723b
00000010: f5d6 2e3b 25e4 5e3c c3b9 eb39 9c0b 4d36
00000020: ae87 e03b f86f 5c35 9e79 023b 7442 ff39
00000030: d70f 113a 2637 2e3a c7e9 1e3d 68a7 4335
00000040: 0750 be39 71b5 2d39 613b c235 388c b23a
00000050: 6953 6b36 3f71 593c d202 c739 6dbc ad3c
00000060: 8bdd 543b 6a1a 0036 d74f 623b b7f9 733b
00000070: d905 853d 6083 213a 2cf3 8537 d1e9 c539
0.00043565076 0.013295904 0.01703341 0.0037064955 0.0026678417 0.013604199 0.00044961096 3.0554138e-06
0.006852112 8.211932e-07 0.0019908915 0.00048686902 0.00055336714 0.0006645791 0.038797166 7.288677e-07
0.0003629925 0.00016566158 1.4471408e-06 0.0013622111 3.506628e-06 0.013271629 0.0003795834 0.021208012
0.0032480683 1.9088861e-06 0.0034532452 0.00372277 0.06495256 0.0006161239 1.5968071e-05 0.00037748975
