models/ResidualSteganoGAN/11/epoch_12.pth (torch, 354463 bytes, 59 tensors)

encoder.initial.block.0.weight f4 [32, 3, 3, 3]
0.1557171 -0.024675023 0.034655876 0.18288904 -0.11415797 -0.031292826 0.11112914 0.19338074
-0.19244374 0.116586484 0.14263749 -0.05126088 -0.045257673 0.00090045336 -0.14323182 0.07714448
0.09525226 0.1341565 -0.0404225 0.15373299 0.06126777 0.04702197 0.05173407 -0.11202294
0.014631634 -0.15571593 -0.16646342 0.00019700058 0.013826184 0.027512431 -0.039168518 0.20963195
0.13292947 -0.18025964 0.021226246 -0.18853496 -0.16791975 0.19810529 -0.10009477 0.049763095
-0.029358244 -0.07644923 -0.05966538 0.018861819 0.011151911 0.18563168 0.124693505 -0.081731714
0.07597191 0.23208371 -0.112306096 0.00077828666 0.031158084 0.07756262 0.08777013 0.11635391
0.12103163 0.12714908 0.14925832 -0.19586545 0.018325021 0.081990294 0.0017634123 -0.078675784
0.07975522 0.042085465 0.10249519 0.085442655 0.05373847 -0.08525987 -0.18047935 -0.11373836
0.13008957 0.08912916 -0.07932796 -0.08339047 0.011198037 -0.06262024 -0.075182475 -0.01981197
0.05556998 -0.07471403 -0.13039015 -0.12971903 -0.022073912 0.07728645 0.07693054 0.15275295
0.08624716 -0.12617935 -0.08076685 0.061354432 -0.0568511 0.08651234 0.14590105 0.0412181
-0.18122718 -0.12572236 0.052290436 0.15069483 0.09446237 -0.08367859 -0.07098935 -0.1343267
0.051160503 -0.09361581 0.102441564 -0.049062155 -0.098947294 0.09155163 -0.06100677 -0.115445234
-0.11859676 -0.14630373 -0.0041180267 -0.089290604 0.077773504 0.06756127 -0.032338616 -0.002761059
0.08742667 -0.048663877 0.16508776 -0.11765156 0.0003702738 -0.17903319 0.123088084 0.08156326
-0.10713145 -0.13659857 -0.044639032 0.10836289 -0.04451291 0.16445687 -0.09500957 0.0031137047
-0.026800184 -0.15395641 -0.025134718 0.10300118 -0.09989154 -0.18423216 0.13433096 0.022109576
-0.092326716 -0.006245185 0.13221839 -0.16301982 -0.032307234 -0.187837 0.1411808 0.09395515
0.007669138 -0.10707643 -0.03455849 0.16980651 -0.0006846394 0.15973507 0.08894697 0.0024941051
0.030887682 -0.17826691 -0.009717225 0.10031578 0.14909652 0.056773756 0.16002646 -0.026676081
0.05481832 -0.07798467 0.14021625 -0.12757656 0.059946056 0.068609856 -0.07707536 -0.0059567583
-0.050589234 0.15748635 -0.124916784 -0.1773579 0.18400331 0.056876056 0.15443999 0.18213934
-0.032079633 -0.009226077 0.044116627 0.083669655 0.028919155 -0.03938698 0.17977145 0.17626153
0.0920995 0.06807853 0.14501269 0.13650101 0.092174076 0.10709734 0.006464771 -0.012217159
0.06580082 -0.17055517 -0.047158014 0.004738541 0.19835448 -0.09388427 -0.03431806 -0.09993672
0.14343087 -0.01212156 0.020514403 -0.19026884 0.16162746 0.09864959 0.05075241 0.13258903
-0.018310374 0.060529783 -0.165669 0.14770412 0.07588606 -0.043628614 0.013863895 0.029622126
0.09976605 -0.13113719 -0.10307686 0.10695329 -0.14366584 -0.050668444 -0.07544941 0.11520156
-0.039155066 -0.0842928 -0.04320525 0.058863267 0.06614176 -0.13230087 0.07247862 -0.018045388
0.07484131 0.013894841 0.0060071163 -0.15572047 0.115916885 0.03646926 0.0688144 -0.050020117
-0.13904013 -0.0171954 -0.061648566 0.025210327 0.03588236 0.155291 -0.17448515 -0.13842501
00000000: 4e74 1f3e 4623 cabc 52f3 0d3d 4447 3b3e
00000010: a7cb e9bd e82c 00bd ad97 e33d 9a05 463e
00000020: f90f 45be e5c4 ee3d 900f 123e eef6 51bd
00000030: 1c60 39bd 670c 6c3a 5dab 12be edfd 9d3d
00000040: 9e13 c33d 5260 093e 1092 25bd 2e6c 1d3e
00000050: eaf3 7a3d 1c9a 403d 1be7 533d 486c e5bd
00000060: 85b9 6f3c ff73 1fbe 6375 2abe f191 4e39
00000070: 3887 623c c061 e13c 2b6f 20bd c2a9 563e
00000080: aa1e 083e fc95 38be aae2 ad3c 4f0f 41be
00000090: 28f3 2bbe 1ddc 4a3e 7dfe ccbd 63d4 4b3d
000000a0: b380 f0bc 6a91 9cbd af63 74bd 1a84 9a3c
000000b0: 81b6 363c 3b16 3e3e 4f5f ff3d f562 a7bd
000000c0: 2997 9b3d 5aa7 6d3e bd00 e6bd ef05 4c3a
000000d0: 3d3f ff3c 27d9 9e3d d3c0 b33d f54a ee3d
000000e0: 6edf f73d 5e33 023e 2cd7 183e f490 48be
000000f0: 5b1e 963c 87ea a73d 4c22 e73a c520 a1bd
00000100: b456 a33d cf61 2c3d 00e9 d13d 8ffc ae3d
00000110: df1c 5c3d ba9c aebd 94cf 38be a8ef e8bd
00000120: 3336 053e 5989 b63d b376 a2bd 9fc8 aabd
00000130: f977 373c 0a3f 80bd 45f9 99bd b64c a2bc
00000140: 599d 633d ab03 99bd ff84 05be 11d5 04be
00000150: 59d4 b4bc 5c48 9e3d c28d 9d3d 456b 1c3e
00000160: 5aa2 b03d 2935 01be 1769 a5bd c94e 7b3d
00000170: b3dc 68bd 622d b13d 1667 153e 4fd4 283d
00000180: 9e93 39be 5dbd 00be 7f2e 563d bf4f 1a3e
00000190: 7d75 c13d ae5f abbd dd62 91bd f08c 09be
000001a0: ad8d 513d a5b9 bfbd e2cc d13d 66f5 48bd
000001b0: e1a4 cabd 6c7f bb3d 3ce2 79bd 8d6e ecbd
000001c0: dce2 f2bd a5d0 15be 83f0 86bb fedd b6bd
000001d0: b747 9f3d 905d 8a3d 7f75 04bd e2f2 34bb
000001e0: c10c b33d c653 47bd c40c 293e 4df3 f0bd
000001f0: 4f21 c239 7a54 37be 9b15 fc3d a30a a73d
00000200: bc67 dbbd 7fe0 0bbe 6bd7 36bd 5ded dd3d
00000210: 2b53 36bd 6267 283e 6194 c2bd 4c0f 4c3b
00000220: 0f8c dbbc c0a6 1dbe 53e7 cdbc 48f2 d23d
00000230: f093 ccbd 5ba7 3cbe 0e8e 093e 241f b53c
00000240: ca15 bdbd 69a4 ccbb 4264 073e abee 26be
00000250: 9754 04bd 5858 40be b391 103e 8f6b c03d
00000260: 644d fb3b e34a dbbd 348d 0dbd c2e1 2d3e
00000270: 5f79 33ba 9791 233e d429 b63d 2474 233b
00000280: 2a08 fd3c 9a8b 36be ff34 1fbc 5c72 cd3d
00000290: c2ac 183e 998b 683d fadd 233e cc87 dabc
000002a0: 2d89 603d 6db6 9fbd d994 0f3e 6ea3 02be
000002b0: ff89 753d 5383 8c3d b0d9 9dbd e930 c3bb
000002c0: a836 4fbd 1a44 213e 5fd4 ffbd 4f9d 35be
000002d0: 5d6b 3c3e def6 683d 8425 1e3e bc82 3a3e
000002e0: ef65 03bd f928 17bc a3b3 343d ff5a ab3d
000002f0: dde7 ec3c 3e54 21bd 0216 383e e77d 343e
00000300: aa9e bc3d c26c 8b3d 357e 143e ecc6 0b3e
00000310: c3c5 bc3d da55 db3d 6ed6 d33b 7b2a 48bc
00000320: 95c2 863d 04a6 2ebe c328 41bd c345 9b3b
00000330: 701d 4b3e 6546 c0bd 1891 0cbd a0ab ccbd
00000340: 8bdf 123e 8299 46bc d20d a83c d6d5 42be
00000350: ab81 253e cc08 ca3d c2e1 4f3d 6bc5 073e
00000360: a3ff 95bc 14ee 773d 22a5 29be c03f 173e
00000370: 276a 9b3d ebb3 32bd 6425 633c 1aaa f23c
00000380: 2552 cc3d d448 06be f619 d3bd 540a db3d
00000390: 231d 13be b789 4fbd 3885 9abd ccee eb3d
000003a0: 1061 20bd b4a1 acbd fdf7 30bd 9c1a 713d
000003b0: 5575 873d e179 07be ac6f 943d ecd3 93bc
000003c0: 6746 993d 30a7 633c 58d7 c43b 3075 1fbe
000003d0: d565 ed3d ca60 153d 90ee 8c3d e5e1 4cbd
000003e0: 8960 0ebe 5edd 8cbc 3583 7cbd e385 ce3c
000003f0: 62f9 123d 9b04 1f3e 3cac 32be 49bf 0dbe

encoder.initial.block.0.bias f4 [32]
-0.1688585 -0.073126905 0.14583524 0.07256544 -0.17023094 0.1934448 0.17282659 0.111535296
0.07101414 0.069638945 -0.107802235 0.0615353 -0.13378553 -0.07875581 0.07161225 0.040130477
-0.07850711 0.0303948 -0.08707888 -0.0043747346 0.18203916 -0.008022763 -0.05060181 -0.12234251
0.1587284 0.07346121 0.026799481 0.06977085 -0.08611539 -0.13602889 -0.11673997 0.061357982
00000000: 3ee9 2cbe 8fc3 95bd d555 153e 309d 943d
00000010: 0551 2ebe 6516 463e 74f9 303e 9e6c e43d
00000020: dd6f 913d dd9e 8e3d 6bc7 dcbd 700c 7c3d
00000030: 13ff 08be ba4a a1bd 71a9 923d db5f 243d
00000040: 56c8 a0bd 84fe f83c 6956 b2bd ef59 8fbb
00000050: 7968 3a3e e871 03bc d843 4fbd b68e fabd
00000060: b389 223e d572 963d 968a db3c 05e4 8e3d
00000070: 445d b0bd 284b 0bbe 5e15 efbd 8252 7b3d

encoder.initial.block.2.weight f4 [32]
1.01265 1.0103885 1.0333999 1.0077494 1.0086373 1.0145943 1.0180398 1.0053163
1.0167733 1.0171031 1.005954 1.0078183 1.0188595 1.0099293 0.9992475 1.036903
0.9984694 1.0347086 1.0115223 1.0158443 1.0121455 1.0109707 1.0095729 1.0247489
1.0134363 1.0194707 1.0257945 0.989412 1.0171094 1.0159881 0.9981334 1.025193
00000000: 849e 813f 6954 813f 7346 843f effd 803f
00000010: 071b 813f 3ade 813f 214f 823f 34ae 803f
00000020: a125 823f 6f30 823f 1ac3 803f 3100 813f
00000030: fd69 823f 5d45 813f afce 7f3f 3db9 843f
00000040: b19b 7f3f 5571 843f 9079 813f 3007 823f
00000050: fc8d 813f 7d67 813f af39 813f f92a 833f
00000060: 48b8 813f 047e 823f 3c4d 833f 1b4a 7d3f
00000070: a430 823f e60b 823f ac85 7f3f 8639 833f

encoder.initial.block.2.bias f4 [32]
-0.045545597 0.033782758 -0.03672674 -0.022671357 0.04602048 0.0016266769 0.0030643826 -0.043738924
-0.012763045 0.0055179414 -0.03199071 0.0046745446 0.025050087 -0.011181317 -0.002617929 0.036527585
0.02572183 0.014517969 -0.028895753 -0.01734546 -0.021491468 0.012894779 -0.0074419444 -0.049469437
-0.012408907 -0.041127205 -0.0038240342 0.04695158 0.003473933 -0.014055392 -0.034642864 -0.0382866
00000000: 058e 3abd ca5f 0a3d c76e 16bd 48b9 b9bc
00000010: f97f 3c3d 3836 d53a cfd3 483b 9627 33bd
00000020: 171c 51bc d9cf b43b b108 03bd ec2c 993b
00000030: d735 cd3c d831 37bc 8f91 2bbb f39d 153d
00000040: 96b6 d23c c7dc 6d3c c9b6 ecbc 1118 8ebc
00000050: e00e b0bc a044 533c 8edb f3bb 77a0 4abd
00000060: ba4e 4bbc 0075 28bd a69c 7abb 4d50 403d
00000070: edaa 633b 9648 66bc ade5 0dbd 69d2 1cbd

encoder.initial.block.2.running_mean f4 [32]
-0.006606755 -0.0044874973 -0.0015514989 0.25006202 0.30122444 0.3941766 -0.00782463 -0.010592102
0.17723967 0.33038557 0.2843273 0.053348094 0.5943332 -0.0050540734 0.23177122 -0.007817562
-0.00807697 -0.0043027806 0.2872941 0.18279234 -0.007181153 0.34385043 -0.016570434 -0.002302609
0.99965113 -0.007786574 0.00029011598 0.62112087 0.46551466 0.09901158 -0.0015169192 -0.0010215839
00000000: 7a7d d8bb db0b 93bb aa5b cbba 2108 803e
00000010: 173a 9a3e 84d1 c93e e032 00bc 7f8a 2dbc
00000020: 517e 353e 4c28 a93e 5993 913e 8883 5a3d
00000030: 3826 183f a49c a5bb 6f55 6d3e 3b15 00bc
00000040: 4555 04bc 57fe 8cbb 3618 933e ea2d 3b3e
00000050: e14f ebbb 2a0d b03e b8be 87bc 5ee7 16bb
00000060: 23e9 7f3f 8426 ffbb b51a 9839 c701 1f3f
00000070: f057 ee3e 95c6 ca3d 5dd3 c6ba abe6 85ba

encoder.initial.block.2.running_var f4 [32]
6.5644525e-07 5.508382e-08 0.00021377845 0.00040439292 0.00047880333 0.00046567613 6.0800204e-07 4.7554755e-07
0.0002790349 0.00016744719 0.00027093213 0.00015709942 0.0011363687 6.3002346e-07 0.00030703488 6.297689e-08
2.1265268e-07 6.768513e-05 0.0006762945 0.0006038114 0.00014425212 0.0006467602 3.0671808e-07 0.00017510485
0.0015159539 2.610068e-07 0.00034824247 0.00074138126 0.00076668605 0.00026313477 6.008415e-05 0.00039051755
00000000: 9336 3035 4d95 6c33 b729 6039 b304 d439
00000010: e507 fb39 fe25 f439 9535 2335 c24e ff34
00000020: 6e4b 9239 c394 2f39 e50b 8e39 0ebb 2439
00000030: 35f2 943a e21e 2935 86f9 a039 e93d 8733
00000040: 8655 6434 2df2 8d38 5b49 313a 1949 1e3a
00000050: 6242 1739 588b 293a 03ab a434 5a9c 3739
00000060: f9b2 c63a 8020 8c34 5094 b639 4159 423a
00000070: 6efb 483a 5af5 8939 dd02 7c38 61be cc39

encoder.block1.block.0.weight f4 [32, 43, 3, 3]
0.014435862 0.046422113 0.04359834 0.024237368 0.012376584 -0.016021637 -0.008326243 0.0037632308
0.01897492 0.025979409 0.011514805 -1.482592e-05 -0.034951434 -0.036368124 -0.053199887 0.044317566
-0.049750205 -0.035141733 -0.026311 0.04492907 0.03279052 0.05601077 -0.018504795 0.0007812726
0.05493216 0.056229204 0.023976728 -0.024283584 0.023517592 -0.012958783 0.03166079 -0.0031354243
0.013421999 -0.01797733 0.0035415657 0.03497656 0.045632094 -0.0009655618 0.04075593 -0.061017197
-0.06884273 0.029100075 -0.04753731 -0.032348275 -0.043782458 -0.042514842 -0.036030706 0.040850326
0.04401268 -0.010456431 -0.017849527 -0.034299985 0.007610936 -0.0055396366 -0.0068459837 0.006422974
-0.020941135 -0.038401272 -0.031480417 0.019497994 0.046385802 0.0069548613 -0.032374363 -0.04424301
-0.011303364 0.028500892 0.058612652 0.021812452 0.08086047 0.031915743 0.01689553 -0.019540196
-0.018193226 -0.0013686923 -0.036776185 -0.009413815 0.05244866 0.034267265 0.01690248 -0.011871362
-0.0006660465 0.038904727 -0.025574185 -0.03534487 0.013776011 -0.030324576 -0.00952585 0.053386535
0.042212024 -0.025204742 -0.010790281 0.014139879 0.0076220986 0.042429205 0.010653931 0.06262282
-0.041515253 -0.0020648327 -0.03454953 0.0100249285 0.03298296 0.00394521 0.008732929 -0.04065575
-0.038034167 0.035840664 0.05768444 0.011271264 0.016604746 -0.017494656 0.021857716 -0.00023685505
0.0025706252 -0.020780588 -0.043578006 0.0317731 0.014143428 -0.012056156 0.022303017 -0.0030906857
0.007305402 -0.017566964 0.0016321852 0.014633657 0.017068584 -0.017684795 -0.018110212 -0.0137104215
-0.03534059 0.057114843 -0.00917282 0.050008927 0.014501527 0.005614211 -0.00649066 0.013546853
0.017315017 0.015863022 0.029225497 0.060943056 0.053833902 -0.0176342 0.02115198 0.016394624
0.0057040774 0.021334698 -0.037981942 -0.03158651 -0.010216092 -0.046647377 -0.011941687 0.054679267
0.010318272 -0.013883624 0.033480745 -0.03580306 -0.0071192225 0.01043409 0.031927217 0.018776271
0.04336198 -0.038174886 -0.025830016 -0.021448335 -0.02448595 -0.031370368 0.040163063 0.020158846
0.025553972 -0.040648017 -0.040870063 -0.034571562 0.033635598 0.022071829 0.025672646 -0.0033405726
-0.020528313 0.005864802 -0.039348576 0.03745816 0.020393128 -0.034352347 4.3673404e-06 0.026330084
0.051125623 -0.0043328637 -0.0022119428 -0.026943423 -0.037290346 0.025798911 -0.0070389058 -0.011810589
-0.021749245 -0.058258157 -0.020482872 -0.016104857 -0.004483157 0.053816088 -0.023947285 0.033439312
-0.02781183 -0.030810108 0.012946131 -0.006680013 -0.010082719 -0.039858215 -0.032634802 0.022641491
0.0006837361 -0.018178778 -0.032867335 -0.029137982 -0.039578505 -0.029297968 -0.032970663 -0.026979186
0.045435045 -0.007959639 0.036716573 -0.055355676 -0.06180929 -0.05566484 -0.0178747 -0.039299086
-0.013146786 0.041049898 0.04092566 -0.03944175 0.03506595 -0.015008714 -0.008421368 -0.036206193
-0.0238145 -0.02565316 -0.022417972 -0.02245138 0.038585182 0.048405737 0.057719838 -0.022108793
-0.0332255 -0.014365925 -0.0028035745 -0.006220314 0.003145737 -0.04427124 0.02374246 -0.07101131
-0.028585806 -0.03830929 -0.04680061 -0.007824444 0.015090617 0.028415168 -0.044969484 0.014675825
00000000: 6584 6c3c 1d25 3e3d 2c94 323d 728d c63c
00000010: 28c7 4a3c cf3f 83bc cb6a 08bc 89a0 763b
00000020: 4b71 9b3c c5d2 d43c 98a8 3c3c d7bc 78b7
00000030: 3c29 0fbd bef6 14bd 20e8 59bd 5686 353d
00000040: dfc6 4bbd c7f0 0fbd 2b8a d7bc 8b07 383d
00000050: 5a4f 063d 8d6b 653d 5e97 97bc 51ce 4c3a
00000060: 8b00 613d 9850 663d d86a c43c 5eee c6bc
00000070: f7a7 c03c 1351 54bc bfae 013d b17b 4dbb
00000080: f2e7 5b3c 3245 93bc 9d19 683b 9543 0f3d
00000090: b8e8 3a3d c11d 7dba b1ef 263d 2bed 79bd
000000a0: 6bfd 8cbd 4863 ee3c 7bb6 42bd a07f 04bd
000000b0: 3c55 33bd 0b24 2ebd ef94 13bd ac52 273d
000000c0: a446 343d 7351 2bbc 2c39 92bc 247e 0cbd
000000d0: 2965 f93b d785 b5bb 4654 e0bb d077 d23b
000000e0: be8c abbc a74a 1dbd 9cf1 00bd 42ba 9f3c
000000f0: 0aff 3d3d 9be5 e33b fb9a 04bd 2938 35bd
00000100: bf31 39bc b47a e93c d213 703d 07b0 b23c
00000110: 2d9a a53d 15ba 023d 7f68 8a3c c312 a0bc
00000120: f609 95bc b165 b3ba a0a2 16bd 673c 1abc
00000130: 68d4 563d d55b 0c3d 1277 8a3c 1a80 42bc
00000140: a099 2eba 905a 1f3d f480 d1bc c8c5 10bd
00000150: c7b4 613c 3f6b f8bc 5012 1cbc d7ab 5a3d
00000160: 84e6 2c3d 2d7a cebc b8c9 30bc f3aa 673c
00000170: ccc2 f93b 3fca 2d3d d38d 2e3c 6540 803d
00000180: e60b 2abd 2552 07bb cf83 0dbd 993f 243c
00000190: 2419 073d d246 813b 8f14 0f3c a586 26bd
000001a0: b7c9 1bbd a9cd 123d 8546 6c3d 1cab 383c
000001b0: ad06 883c f450 8fbc f40e b33c 4b5c 78b9
000001c0: ef77 283b 0d3c aabc da7e 32bd 8324 023d
000001d0: d6b9 673c 2f87 45bc d1b4 b63c 1a8d 4abb
000001e0: 2762 ef3b 98e8 8fbc 0cef d53a 02c2 6f3c
000001f0: 6ad3 8b3c b4df 90bc de5b 94bc ada1 60bc
00000200: 4bc1 10bd 41f1 693d 9849 16bc 29d6 4c3d
00000210: d097 6d3c 6af7 b73b 9aaf d4bb 9ff3 5d3c
00000220: 39d8 8d3c 2bf3 813c 4f6a ef3c 6d9f 793d
00000230: f080 5c3d 9975 90bc eb46 ad3c 054e 863c
00000240: 45e9 ba3b 1bc6 ae3c f492 1bbd db60 01bd
00000250: 6561 27bc 5211 3fbd 11a7 43bc 5ef7 5f3d
00000260: f80d 293c 2478 63bc 1b23 093d 3ba6 12bd
00000270: 5e48 e9bb bff3 2a3c 1dc6 023d b2d0 993c
00000280: 559c 313d 455d 1cbd 7899 d3bc 6bb4 afbc
00000290: c296 c8bc 377e 00bd 0682 243d 2a24 a53c
000002a0: 9056 d13c 897e 26bd 5e67 27bd e99a 0dbd
000002b0: 7bc5 093d fbcf b43c 714f d23c 82ed 5abb
000002c0: fe2a a8bc 862d c03b f92b 21bd ba6d 193d
000002d0: 7d0f a73c 0cb5 0cbd 2b8b 9236 30b2 d73c
000002e0: 1a69 513d b2fa 8dbb 3ef6 10bb 74b8 dcbc
000002f0: c3bd 18bd 3d58 d33c 9fa6 e6bb 3381 41bc
00000300: 792b b2bc 1ba0 6ebd b2cb a7bc 55ee 83bc
00000310: 72e7 92bb 426e 5c3d 192d c4bc a9f7 083d
00000320: a3d5 e3bc 7b65 fcbc 021c 543c 03e4 dabb
00000330: fd31 25bc 5e42 23bd 12ac 05bd a67a b93c
00000340: c13c 333a a9eb 94bc e69f 06bd c7b2 eebc
00000350: 121d 22bd 4b02 f0bc 3f0c 07bd 7403 ddbc
00000360: 191a 3a3d 2569 02bc 1e64 163d a2bc 62bd
00000370: bd2b 7dbd d100 64bd f66d 92bc 14f8 20bd
00000380: 9e65 57bc f023 283d aaa1 273d ac8d 21bd
00000390: 50a1 0f3d 1ce7 75bc c7f9 09bc f24c 14bd
000003a0: a016 c3bc 9326 d2bc e5a5 b7bc f5eb b7bc
000003b0: 7f0b 1e3d 1845 463d a36b 6c3d 801d b5bc
000003c0: 7617 08bd 0f5f 6bbc 2dbc 37bb c7d3 cbbb
000003d0: b628 4e3b c255 35bd 8c7f c23c 616e 91bd
000003e0: c82c eabc 34ea 1cbd ffb1 3fbd 1932 00bc
000003f0: a33e 773c edc6 e83c ec31 38bd df72 703c

encoder.block1.block.0.bias f4 [32]
0.029874459 -0.0153531 0.030121064 -0.03184168 0.051309865 -0.0054263384 -0.033321995 -0.058673847
0.045730695 -0.03861149 0.09439815 0.04371644 -0.038122494 -0.04706398 0.048302982 0.032378025
0.024732618 0.044886697 -0.013378544 -0.03702736 -0.04568098 -0.013835843 -0.020632306 0.039945174
-0.032472886 -0.063154906 -0.05031186 -0.059082896 0.07576073 0.007430791 -0.014167123 -0.0551773
00000000: 48bb f43c 928b 7bbc 73c0 f63c 6c6c 02bd
00000010: 4b2a 523d 6dcf b1bb a57c 08bd fd53 70bd
00000020: 1c50 3b3d 1527 1ebd d153 c13d 0310 333d
00000030: 5526 1cbd 29c6 40bd 59d9 453d d29e 043d
00000040: 0f9c ca3c 1ddb 373d ae31 5bbc 00aa 17bd
00000050: fb1b 3bbd bbaf 62bc 1505 a9bc 8d9d 233d
00000060: 4a02 05bd 5c57 81bd cf13 4ebd e800 72bd
00000070: 7128 9b3d fe7d f33b 381d 68bc 9801 62bd

encoder.block1.block.2.weight f4 [32]
0.99288213 0.9992379 0.95779294 0.97856414 0.9694353 1.0018657 1.0088569 0.99726486
0.9589524 1.0116339 0.97701824 0.95549643 0.9848275 1.0011072 0.98200417 1.0045336
1.0029949 0.97510046 1.0089647 1.0050007 0.9958724 1.0036916 0.99969 0.98808306
0.9981114 0.9923988 0.9849385 0.9839913 0.9542612 0.986316 0.9936136 1.0058489
00000000: 862d 7e3f 0ece 7f3f eb31 753f 2e83 7a3f
00000010: e92c 783f 233d 803f 3922 813f c04c 7f3f
00000020: e87d 753f 387d 813f de1d 7a3f 6a9b 743f
00000030: a81d 7c3f 4824 803f a064 7b3f 8f94 803f
00000040: 2362 803f 2fa0 793f c125 813f dda3 803f
00000050: 7ef1 7e3f f778 803f afeb 7f3f 03f3 7c3f
00000060: 3b84 7f3f d90d 7e3f ee24 7c3f dbe6 7b3f
00000070: 764a 743f 357f 7c3f 765d 7e3f a8bf 803f

encoder.block1.block.2.bias f4 [32]
-0.022644028 -0.033062942 -0.032793287 0.006682599 0.031158203 -0.012905892 -0.024855519 -0.019709444
-0.009458481 0.013026865 0.005474855 -0.011441756 -0.022194678 -0.02491812 -0.0065116966 0.015763527
-0.018692125 -0.018806249 -0.022715779 -0.0032373506 -0.022136176 -0.00273443 -0.011108941 -0.020788025
-0.014042885 -0.025332524 -0.018709827 -0.013675402 0.016338708 -0.030790377 -0.028741354 5.5027915e-05
00000000: f87f b9bc 026d 07bd 4152 06bd b4f9 da3b
00000010: 7d3f ff3c 3c73 53bc cd9d cbbc b375 a1bc
00000020: bff7 1abc a26e 553c 6a66 b33b 3476 3bbc
00000030: 9dd1 b5bc 1621 ccbc 1260 d5bb 8322 813c
00000040: 3a20 99bc 900f 9abc 7116 babc bb29 54bb
00000050: ed56 b5bc 1f34 33bb 4702 36bc a64b aabc
00000060: 2114 66bc 2786 cfbc 5a45 99bc cb0e 60bc
00000070: c1d8 853c 1a3c fcbc fd72 ebbc c6cd 6638

encoder.block1.block.2.running_mean f4 [32]
0.072436646 0.03634501 0.2179318 0.058029015 0.16404592 0.04500918 0.06326817 0.029220277
0.2354828 0.06273288 0.22229825 0.21169348 0.044570476 0.058384042 0.17713198 0.04079489
0.05697162 0.19079992 0.06103754 0.044785917 0.041443426 0.05162687 0.044545162 0.17742984
0.018034192 0.038800918 0.051032297 0.048988346 0.16521947 0.05181803 0.041059896 0.07601545
00000000: aa59 943d 81de 143d 8429 5f3e d5af 6d3d
00000010: a7fb 273e 8c5b 383d be92 813d 5d5f ef3c
00000020: 6722 713e 197a 803d 27a2 633e 2dc6 583e
00000030: 888f 363d 1b24 6f3d 1662 353e 8b18 273d
00000040: 135b 693d 0e61 433e 8002 7a3d 7071 373d
00000050: 95c0 293d b276 533d fd74 363d 2bb0 353e
00000060: 71bc 933c b6ed 1e3d 3e07 513d 01a8 483d
00000070: 4b2f 293e 253f 543d 6c2e 283d fdad 9b3d

encoder.block1.block.2.running_var f4 [32]
0.5173727 0.2996125 0.97782326 0.31259787 0.8986541 0.41011938 0.48716798 0.4498455
1.1271572 0.40129834 1.2581915 1.0631163 0.3138393 0.52258325 1.2919718 0.2995013
0.29441673 1.4402143 0.38053763 0.30237803 0.29094592 0.5118174 0.6411487 1.1440053
0.17924015 0.331677 0.31904206 0.3197871 0.8297504 0.36745244 0.39548057 0.51240015
00000000: 8a72 043f cf66 993e a052 7a3f d40c a03e
00000010: 320e 663f 2bfb d13e 156e f93e 2652 e63e
00000020: b046 903f fa76 cd3e 6b0c a13f 3214 883f
00000030: 8baf a03e 04c8 053f 555f a53f 3c58 993e
00000040: cabd 963e f158 b83f d4d5 c23e 4bd1 9a3e
00000050: ddf6 943e 7706 033f 5222 243f c46e 923f
00000060: bb8a 373e 91d1 a93e 7b59 a33e 23bb a33e
00000070: 866a 543f ba22 bc3e 6e7c ca3e a82c 033f

encoder.block2.block.0.weight f4 [32, 32, 3, 3]
-0.014922665 -0.013840249 0.045506 -0.0068361633 -0.027492065 -0.0034980576 0.019221894 0.009935803
-0.048288148 -0.014512815 0.04580877 0.032285947 0.03575627 0.0011194346 0.03716874 0.03330922
0.03774481 0.03081514 0.0467555 -0.027931824 -0.055071563 0.021584196 0.033988602 -0.040361453
0.048549928 -0.012206361 0.0052653216 -0.053719796 -0.017981106 -0.043916155 0.040489055 0.01721313
0.031722672 0.04256609 0.044956118 -0.0049387366 0.047514208 0.02537288 -0.013312344 0.017020132
-0.021255456 -0.021544185 -0.017292202 -0.033045836 0.028592777 -0.042922117 -0.021866616 0.0023724076
0.056873806 0.021432456 -0.020272896 -0.003925353 0.034472726 -0.024360636 0.058608983 0.019588264
-0.0121717565 -0.005318598 0.016743828 -0.053705074 -0.0047201216 0.011606169 -0.0047480296 0.008219821
0.044865888 0.010586975 0.046283364 -0.059997253 -0.05096341 0.0010182596 -0.0441678 0.02359659
0.036692113 -0.05138704 0.020569645 -0.018079702 0.031224972 -0.0008384833 0.0670069 0.04082734
0.032632858 0.06064056 0.024277132 0.03723383 0.055586103 0.035190932 0.010070327 0.039241422
0.013833214 0.047793392 -0.042297084 0.047461465 -0.03180449 0.04592354 -0.02661597 0.026647773
0.016816558 -0.044116158 0.018683773 0.020507794 0.03777701 -0.027664293 0.004612943 0.021566838
-0.03982486 0.005799239 0.030896306 0.029224059 -0.017479427 -0.031796258 0.045518097 0.03805777
-0.028638609 -0.026410758 -0.015339247 0.04103723 0.019932825 -0.03321282 -0.015660444 -0.030086488
0.050733812 0.030671578 -0.034185503 0.04736402 0.0101304 0.059712924 -0.017480955 -0.012186929
0.0381279 -0.025063341 -0.03788367 -0.026064346 -0.023014124 -0.012379522 0.0075155594 0.0106405355
0.06094313 0.009805225 0.02671099 -0.04251085 0.040253032 -0.018860953 0.04310557 0.026431117
-0.017903406 0.058614146 -0.030522423 0.03812205 -0.03315612 -0.025440982 0.060785044 -0.052085165
-0.056951456 -0.053381864 0.0019367748 0.02168349 -0.036633197 0.0020798335 0.061558116 0.051976804
0.01470722 0.008681446 -0.045157976 0.05467701 0.006677097 0.031618606 -0.023481185 0.0033078147
0.065565914 0.04221999 -0.016178345 0.03907858 0.027096085 -0.039336324 -0.011190389 0.017773582
-0.019064732 0.032324214 -0.0023431217 0.04822155 -0.04914942 -0.039034653 0.031583093 0.010964433
-0.03422222 -0.0029348615 0.037327554 -0.02513887 0.006933494 0.008721693 -0.015972067 0.030842751
-0.023885176 0.01595976 0.052391123 -0.022304138 -0.032810237 -0.005682349 -0.055155598 -0.037064895
0.050414708 0.031261113 0.02921583 0.013251971 0.012247538 0.039067455 -0.037452318 0.049097713
0.02397103 -0.019705435 0.060759295 -0.032978136 0.047991514 -0.04186279 0.024175737 -0.037536327
0.01050878 -0.029042738 0.0011709147 -0.0408631 -0.031094298 -0.029066425 0.03478246 0.024124106
0.026254464 -0.035613485 -0.017261488 0.026070924 -0.049039546 0.034485072 0.057889313 -0.0023997005
0.0053342297 -0.007751008 0.062322814 -0.029593075 0.02966036 -0.018866902 -0.023008563 -0.01938049
-0.030111868 -0.039484877 -0.026001781 -0.022718234 0.02512473 -0.031718176 -0.03603667 -0.0017830004
-0.018956326 0.019892734 -0.029283423 0.015328692 0.03604352 -0.0072353394 -0.039456263 -0.012328475
00000000: 327e 74bc 36c2 62bc 8064 3a3d e501 e0bb
00000010: 0a37 e1bc ab3f 65bb 3c77 9d3c c7c9 223c
00000020: cbc9 45bd 28c7 6dbc faa1 3b3d 453e 043d
00000030: 2b75 123d feb9 923a 403e 183d 406f 083d
00000040: 4d9a 1a3d 0870 fc3c b282 3f3d 48d1 e4bc
00000050: b892 61bd 57d1 b03c a237 0b3d 0d52 25bd
00000060: 4adc 463d 30fd 47bc b888 ac3b 4a09 5cbd
00000070: 1d4d 93bc 6de1 33bd dad7 253d 8d02 8d3c
00000080: a2ef 013d c859 2e3d e823 383d 20d5 a1bb
00000090: 429e 423d c9da cf3c 051c 5abc ce6d 8b3c
000000a0: ec1f aebc 6e7d b0bc 60a8 8dbc 125b 07bd
000000b0: 663b ea3c 1acf 2fbd 9e21 b3bc 657a 1b3b
000000c0: 82f4 683d 1e93 af3c 5813 a6bc 3fa0 80bb
000000d0: 4633 0d3d f58f c7bc f90f 703d 9177 a03c
000000e0: 0c6c 47bc a247 aebb 5a2a 893c daf9 5bbd
000000f0: 40ab 9abb cd27 3e3c 5c95 9bbb 6eac 063c
00000100: 4bc5 373d fe74 2d3c a093 3d3d aebf 75bd
00000110: 02bf 50bd 1f77 853a 4ce9 34bd a34d c13c
00000120: 784a 163d 387b 52bd ac81 a83c e21b 94bc
00000130: 83cb ff3c a9cd 5bba ea3a 893d 923a 273d
00000140: 08aa 053d 3c62 783d d6e0 c63c 8082 183d
00000150: 41ae 633d 5e24 103d 03fe 243c 9dbb 203d
00000160: b4a4 623c 01c3 433d b53f 2dbd f466 423d
00000170: 6d45 02bd 521a 3c3d bc09 dabc 6e4c da3c
00000180: e1c2 893c 25b3 34bd b60e 993c f6ff a73c
00000190: 11bc 1a3d 3aa0 e2bc 2c28 973b f0ac b03c
000001a0: 641f 23bd 8b07 be3b 401a fd3c 4b67 ef3c
000001b0: 0431 8fbc cb3c 02bd 2f71 3a3d 77e2 1b3d
000001c0: 849b eabc 605b d8bc 7751 7bbc a816 283d
000001d0: 2a4a a33c 2a0a 08bd 554a 80bc f077 f6bc
000001e0: 42ce 4f3d f642 fb3c 1906 0cbd c600 423d
000001f0: faf9 253c 8a95 743d 3834 8fbc afab 47bc
00000200: 002c 1c3d a351 cdbc e82b 1bbd e584 d5bc
00000210: 1e88 bcbc 7bd3 4abc 1545 f63b a455 2e3c
00000220: 819f 793d 18a6 203c 02d1 da3c db1f 2ebd
00000230: 5de0 243d 4982 9abc 778f 303d 1286 d83c
00000240: 2aaa 92bc 6315 703d 290a fabc de25 1c3d
00000250: b6ce 07bd 9b69 d0bc bdf9 783d 4157 55bd
00000260: ee45 69bd f1a6 5abd 61db fd3a 93a1 b13c
00000270: b10c 16bd d14d 083b 5d24 7c3d a1e5 543d
00000280: 8df6 703c a03c 0e3c 92f7 38bd 00f5 5f3d
00000290: 8dcb da3b 8382 013d 9d5b c0bc ecc7 583b
000002a0: 6c47 863d deee 2c3d 7388 84bc dc10 203d
000002b0: 9cf8 dd3c 201f 21bd e557 37bc e799 913c
000002c0: a42d 9cbc 6566 043d 0f8f 19bb f683 453d
000002d0: e750 49bd cde2 1fbd 465d 013d 2aa4 333c
000002e0: 992c 0cbd ce56 40bb c7e4 183d 08f0 cdbc
000002f0: 5d32 e33b 6fe5 0e3c dad7 82bc f0a9 fc3c
00000300: d8aa c3bc 0bbe 823c 1398 563d 2bb7 b6bc
00000310: 0764 06bd 0033 babb d6ea 61bd 5cd1 17bd
00000320: a77f 4e3d a70b 003d 0956 ef3c cc1e 593c
00000330: e6a9 483c 3205 203d 9a67 19bd af1a 493d
00000340: e55e c43c 4b6d a1bc bdde 783d 1514 07bd
00000350: c092 443d 5178 2bbd 320c c63c b1bf 19bd
00000360: 052d 2c3c 09eb edbc 6179 993a 1160 27bd
00000370: 78b9 febc b61c eebc 0e78 0e3d eb9f c53c
00000380: 9a13 d73c 72df 11bd f767 8dbc b192 d53c
00000390: b1dd 48bd 3840 0d3d 581d 6d3d 4b44 1dbb
000003a0: c3ca ae3b 2bfc fdbb 3546 7f3d 2d6d f2bc
000003b0: 49fa f23c c38e 9abc 747c bcbc d5c3 9ebc
000003c0: 2aad f6bc e5ba 21bd b001 d5bc 971b babc
000003d0: 61d2 cd3c ebea 01bd 309b 13bd 91b3 e9ba
000003e0: 4c4a 9bbc 16f6 a23c cae3 efbc 3225 7b3c
000003f0: 5fa2 133d 6d16 edbb e49c 21bd 5ffd 49bc

encoder.block2.block.0.bias f4 [32]
-0.05297355 -0.01979214 -0.01929015 0.057624564 0.039321084 -0.04230719 0.008890652 0.06473512
-0.04914931 0.03501827 -0.04087387 0.08820874 -0.012156681 0.08888203 -0.003470988 -0.013571649
0.055371687 0.008073496 -0.07026873 0.020712733 0.014944015 -0.00040730857 0.012905915 0.05165544
-0.04933802 -0.058862805 -0.03412719 0.0670532 0.02036473 -0.047597192 -0.0123974085 -1.2512729e-05
00000000: cbfa 58bd 2023 a2bc 6006 9ebc bc07 6c3d
00000010: 250f 213d 4e4a 2dbd 19aa 113c d993 843d
00000020: c950 49bd 516f 0f3d 5c6b 27bd c9a6 b43d
00000030: d12c 47bc c807 b63d 8479 63bb 9f5b 5ebc
00000040: 6ccd 623d b246 043c 0de9 8fbd c0ad a93c
00000050: bed7 743c 088c d5b9 5573 533c a894 533d
00000060: aa16 4abd 201a 71bd f4c8 0bbd 3053 893d
00000070: efd3 a63c 46f5 42bd 801e 4bbc c3ed 51b7

encoder.block2.block.2.weight f4 [32]
0.9740215 0.9743182 0.97808623 0.9686785 0.96823233 0.98323643 0.96878624 0.96475506
0.97273624 0.97025543 0.97786415 0.96375704 0.9701874 0.96763885 0.9772506 0.97277105
0.97058445 0.980774 0.97774065 0.9775831 0.9661677 0.9695966 0.9729141 0.97243714
0.9781369 0.97101945 0.97595364 0.96595925 0.98076695 0.9738418 0.97402984 0.97002405
00000000: 7959 793f eb6c 793f dc63 7a3f 50fb 773f
00000010: 13de 773f 62b5 7b3f 6002 783f 30fa 763f
00000020: 3e05 793f a962 783f 4e55 7a3f c8b8 763f
00000030: 345e 783f 2eb7 773f 182d 7a3f 8607 793f
00000040: 3978 783f 0114 7b3f 364d 7a3f e342 7a3f
00000050: c456 773f 7c37 783f e610 793f a4f1 783f
00000060: 2e67 7a3f bb94 783f 19d8 793f 1b49 773f
00000070: 8b13 7b3f b24d 793f 055a 793f 7f53 783f

encoder.block2.block.2.bias f4 [32]
0.0022829056 0.0003705151 -0.0022799538 -0.00041177362 0.0046143057 0.0031142284 -0.0065526534 -0.0018960183
0.0058685965 0.0011538931 0.002840611 -0.0072752377 0.0076435693 -0.00035533693 -0.0035312844 -0.0029019916
0.018217854 0.000822211 0.0034201692 0.0030597276 0.0033634978 -0.008058442 0.006697196 0.006513609
-0.007519337 -0.00032992868 -0.005131476 -0.01043589 -0.0036952323 0.008608899 0.0015127426 0.0050123674
00000000: cd9c 153b b241 c239 476b 15bb 52e3 d7b9
00000010: 9a33 973b 1518 4c3b a4b7 d6bb d183 f8ba
00000020: 5b4d c03b 3a3e 973a 8b29 3a3b 1e65 eebb
00000030: e876 fa3b 844c bab9 1f6d 67bb 572f 3ebb
00000040: 9c3d 953c a589 573a eb24 603b b685 483b
00000050: 216e 5c3b 8e07 04bc 2774 db3b 1d70 d53b
00000060: c564 f6bb 47fa acb9 f125 a8bb 4cfb 2abc
00000070: b62b 72bb 570c 0d3c 3847 c63a c93e a43b

encoder.block2.block.2.running_mean f4 [32]
0.08877833 0.08957412 0.13141781 0.107863 0.1288667 0.080738276 0.11311978 0.13674761
0.13491574 0.12527864 0.10793433 0.12760562 0.08492278 0.12753081 0.08385998 0.11245044
0.12927045 0.1528688 0.10055965 0.12839654 0.119434744 0.08042772 0.11040596 0.10774105
0.10606531 0.07912279 0.1040463 0.14782208 0.13824674 0.09068827 0.09315855 0.12443226
00000000: 6ad1 b53d a372 b73d 6492 063e 47e7 dc3d
00000010: a2f5 033e 1c5a a53d 58ab e73d 9107 0c3e
00000020: 5a27 0a3e 0b49 003e ad0c dd3d 0cab 023e
00000030: ffeb ad3d 7097 023e c8be ab3d 6b4c e63d
00000040: 795f 043e a489 1c3e 38f2 cd3d 627a 033e
00000050: 349a f43d 4ab7 a43d 851c e23d 57a7 dc3d
00000060: c538 d93d 210b a23d 3a16 d53d ac5e 173e
00000070: 8e90 0d3e c6ba b93d e9c9 be3d 57d6 fe3d

encoder.block2.block.2.running_var f4 [32]
0.84403735 0.83783257 1.2603554 0.4789604 0.8828261 0.84988624 0.7436284 0.5569187
1.0082606 1.0438241 1.0186429 1.0490154 0.45617732 0.7426573 1.3465439 1.2457381
1.091768 1.183529 1.5336031 1.0269972 0.36616558 0.5957674 1.0773861 0.7103406
0.8549861 0.72713006 0.8649318 0.7227432 0.97724545 0.74576855 0.92657506 0.32789183
00000000: d512 583f 327c 563f 5353 a13f 4c3a f53e
00000010: e400 623f 2592 593f 6e5e 3e3f 3992 0e3f
00000020: af0e 813f 079c 853f e462 823f 2346 863f
00000030: 1390 e93e ca1e 3e3f 8d5b ac3f 5974 9f3f
00000040: 0ebf 8b3f e17d 973f 1b4d c43f a574 833f
00000050: 0e7a bb3e 3684 183f cae7 893f e2d8 353f
00000060: 5ee0 5a3f 3225 3a3f 2c6c 5d3f b305 393f
00000070: c22c 7a3f b0ea 3e3f 0634 6d3f 70e1 a73e

encoder.final.block.0.weight f4 [3, 32, 3, 3]
0.0033861126 -0.043926876 0.03040152 0.04517806 -0.0129495 -0.05192598 0.028985955 -0.0042365543
0.025654454 0.00762281 0.050004914 0.029804926 0.049958773 -0.05704851 -0.031126479 -0.023239441
-0.016670536 0.04478399 0.02206865 -0.03114399 0.010250435 0.03887763 0.032133184 0.0020631456
0.0004019272 -0.016782794 0.044273127 0.045052085 0.04497755 -0.022092946 -0.04791487 -0.026204646
0.044839 0.002426902 0.016361974 -0.033426676 -0.025987979 -0.023180205 -0.040417776 -0.035344064
0.009975534 0.046171453 0.014402355 -0.038906727 -0.029634835 -0.03839708 0.0043961955 -0.05543482
-0.056103747 -0.03512476 -0.030959418 -0.030416207 0.03727161 -0.0063709645 -0.016935136 0.0028197756
0.019649575 -0.0026727626 0.024176074 0.041520473 0.040643435 -0.052878287 -0.036752056 0.004976381
0.0018134783 0.006259101 0.05410768 -0.035734612 -0.015602009 -0.049512 -0.03356046 0.002174746
6.662337e-05 -0.039787345 -0.01596589 0.03604036 0.015818067 0.03386399 -0.005564327 -0.05012576
0.004015587 0.04577561 -0.016313914 -0.0022289413 -0.040738158 -0.036505714 -0.042721085 -0.04969098
0.010971645 0.0377184 0.050663434 -0.03020624 -0.02029837 0.03647863 -0.03931417 -0.033565693
0.0127392365 -0.047764957 -0.054888114 -0.046826728 0.029474702 -0.01308824 -0.020526608 0.014380986
-0.029119868 0.032722488 0.036272187 -0.028855337 0.022265673 0.034985032 -0.009130171 0.006449332
0.01902504 -0.023303699 0.029264344 0.048921533 -0.004034341 -0.03627959 0.04392729 -0.026457509
0.029565463 0.009067075 0.013602213 0.03140844 -0.0071944483 -0.020887567 -0.056844816 -0.012451786
-0.0066080643 0.02808379 0.035316195 -0.04099731 -0.0064172316 0.007021788 -0.0051450785 0.020270187
0.022093304 0.026215658 -0.03498352 0.041036546 -0.02369365 -0.034110047 0.036800493 -0.009040952
0.038810648 0.043195188 -0.007835086 -0.020845803 -0.03599368 -0.054831155 -0.042575527 0.0108577
0.021678789 -0.02362218 0.028093845 0.0038822698 -0.0036418445 0.04552163 0.024957102 0.024855694
0.031860553 0.03566068 -0.036450673 0.016778614 0.009532107 -0.054697856 -0.039143305 -0.009691173
0.020601647 0.048126403 0.04598717 -0.00027530396 0.027648866 0.020125894 0.035782475 -0.009108965
0.038443908 -0.016106004 -0.034666307 -0.05151329 0.043612175 -0.0021113981 -0.015310528 0.016582036
0.050919358 0.019432796 -0.032192476 -0.014493683 0.011190373 -0.040602107 -0.0034300704 -0.0002811636
0.029175147 -0.03956269 -0.039235123 0.048730373 -0.03356755 -0.0446599 0.022752015 -0.0007023597
0.008911952 0.0054833363 0.031007271 0.044813436 -0.012566645 0.037604835 -0.0005976405 0.00745887
0.018892175 0.007126447 -0.017269 0.04195836 0.04371953 0.024567474 0.02338978 0.019720221
-0.017208245 -0.036651626 -0.03551302 -0.027117245 0.046779096 -0.04947676 -0.03120427 0.019068737
0.01980308 0.040494487 0.034084093 -0.019217594 -0.014958297 -0.008111482 0.03089873 -0.045830876
0.028898105 0.033336975 -0.0196835 -0.0062910905 0.0016458133 -0.056358118 -0.001942822 0.012086645
-0.015076022 -0.05299776 -0.03375662 0.015074936 0.0039248075 -0.010544571 0.028501345 -0.059578497
-0.043796632 0.005612386 0.036430027 0.033119075 0.045752022 -0.0019268364 -0.0072496883 0.009474627
00000000: 8be9 5d3b abec 33bd 9c0c f93c a10c 393d
00000010: 242a 54bc 56b0 54bd f473 ed3c cbd2 8abb
00000020: 4a29 d23c c4c8 f93b f4d1 4c3d 7629 f43c
00000030: 92a1 4c3d b3ab 69bd f5fc febc a460 bebc
00000040: a690 88bc 6b6f 373d 50c9 b43c ae21 ffbc
00000050: 71f1 273c 263e 1f3d 169e 033d d735 073b
00000060: c1b9 d239 127c 89bc bd57 353d 8988 383d
00000070: 613a 383d 44fc b4bc 6242 44bd 20ab d6bc
00000080: 19a9 373d a90c 1f3b 8c09 863c 69ea 08bd
00000090: bee4 d4bc 6ae4 bdbc 1c8d 25bd f0c4 10bd
000000a0: 6c70 233c 471e 3d3d dbf7 6b3c a95c 1fbd
000000b0: c1c4 f2bc 4246 1dbd f60d 903b 9f0f 63bd
000000c0: 0bcd 65bd fbde 0fbd 9b9e fdbc 692b f9bc
000000d0: 1eaa 183d 86c3 d0bb 8ebb 8abc fccb 383b
000000e0: 25f8 a03c 8429 2fbb e70c c63c 5f11 2a3d
000000f0: bb79 263d e796 58bd 5389 16bd e910 a33b
00000100: 3cb2 ed3a 2519 cd3b 04a0 5d3d 755e 12bd
00000110: 929f 7fbc 18cd 4abd b176 09bd 2f86 0e3b
00000120: 26b8 8b38 0ef8 22bd e6ca 82bc 0e9f 133d
00000130: e494 813c f8b4 0a3d f554 b6bb ab50 4dbd
00000140: 2f95 833b 357f 3b3d c2a4 85bc 6e13 12bb
00000150: 0edd 26bd 0487 15bd 4efc 2ebd c588 4bbd
00000160: 6ac2 333c 9c7e 1a3d 7684 4f3d 1473 f7bc
00000170: c448 a6bc 9e6a 153d e507 21bd 2e7c 09bd
00000180: 3bb8 503c 30a5 43bd 5cd2 60bd 62cd 3fbd
00000190: ee74 f13c 0f70 56bc 6b27 a8bc 3a9e 6b3c
000001a0: ca8c eebc 0408 063d 2592 143d 0762 ecbc
000001b0: 8066 b63c 774c 0f3d b696 15bc eb54 d33b
000001c0: 67da 9b3c 66e7 bebc c7bb ef3c f261 483d
000001d0: 8132 84bb e899 14bd 1aed 333d 6bbd d8bc
000001e0: 4533 f23c 128e 143c d1db 5e3c 23a6 003d
000001f0: 68bf ebbb 671c abbc 1cd6 68bd 9302 4cbc
00000200: 7688 d8bb fa0f e63c b7a7 103d ccec 27bd
00000210: a447 d2bb 0717 e63b 0c98 a8bb aa0d a63c
00000220: 04fd b43c 38c2 d63c e14a 0fbd f015 283d
00000230: 2f19 c2bc fab6 0bbd 1dbc 163d 8020 14bc
00000240: eaf7 1e3d 70ed 303d bc5e 00bc d1c4 aabc
00000250: 1c6e 13bd a296 60bd ad63 2ebd 7fe4 313c
00000260: b797 b13c 4d83 c1bc 1025 e63c ae6d 7e3b
00000270: 03ac 6ebb e474 3a3d d672 cc3c 2b9e cb3c
00000280: 3680 023d ef10 123d 4d4d 15bd 4e73 893c
00000290: 8e2c 1c3c dc0a 60bd bb54 20bd bac7 1ebc
000002a0: c9c4 a83c 3120 453d 0b5d 3c3d ac56 90b9
000002b0: e07f e23c 0fdf a43c a590 123d c53d 15bc
000002c0: 5c77 1d3d bdf0 83bc 42fe 0dbd 99ff 52bd
000002d0: aea2 323d 625f 0abb 02d9 7abc 0dd7 873c
000002e0: d190 503d 8731 9f3c 42dc 03bd ea76 6dbc
000002f0: d457 373c 654e 26bd 08cb 60bb 2469 93b9
00000300: b800 ef3c 7d0c 22bd 02b5 20bd 8099 473d
00000310: 217e 09bd 4ded 36bd 6f62 ba3c 901e 38ba
00000320: 7003 123c 8fad b33b f602 fe3c 4b8e 373d
00000330: 54e4 4dbc 8707 1a3d faaa 1cba 8969 f43b
00000340: c3c3 9a3c f884 e93b b877 8dbc 87dc 2b3d
00000350: 4013 333d ba41 c93c ed9b bf3c 4d8c a13c
00000360: 4ef8 8cbc 0420 16bd 1a76 11bd fc24 debc
00000370: 709b 3f3d 25a8 4abd 19a0 ffbc 0a36 9c3c
00000380: 123a a23c 8cdd 253d c39b 0b3d 376e 9dbc
00000390: a513 75bc 05e6 04bc 551f fd3c 28b9 3bbd
000003a0: b8bb ec3c 5a8c 083d 4b3f a1bc 7e25 cebb
000003b0: 55b8 d73a c5d7 66bd 4aa6 feba 1007 463c
000003c0: 6b01 77bc 2e14 59bd 6244 0abd ddfc 763c
000003d0: ac9b 803b 23c3 2cbc a77b e93c 9508 74bd
000003e0: 1964 33bd 1be8 b73b a737 153d dea7 073d
000003f0: 7966 3b3d e78d fcba cb8e edbb 773b 1b3c

encoder.final.block.0.bias f4 [3]
-0.040655408 -0.025311219 0.0014413181
00000000: 4986 26bd 7959 cfbc 9cea bc3a

decoder.initial.block.0.weight f4 [32, 3, 3, 3]
0.036704503 0.14190692 -0.08562098 0.051639505 -0.00012507293 0.15114361 0.17560491 0.12055032
0.13911346 -0.18716648 -0.0943466 -0.007954705 -0.16943549 0.06083881 -0.0040248893 -0.15044536
0.09511764 0.09521553 -0.17270614 0.04185452 -0.06764512 0.117293164 0.014522291 0.14354901
-0.13906623 0.040418256 -0.18841757 0.15787241 -0.061610907 -0.15978678 -0.009417859 -0.044070695
0.20724387 -0.083504885 0.048599653 -0.07728467 0.074225806 -0.19150884 -0.10514036 -0.044684183
-0.0046626567 -0.06343264 -0.10296824 -0.0066465666 0.04874833 0.09151053 -0.012884494 -0.07623675
-0.07741942 0.037999414 -0.10699082 -0.12242893 0.1572994 -0.04392842 0.09861953 0.037430245
-0.002959755 0.056143373 -0.13530836 -0.13987222 -0.13667102 0.18593785 -0.021469602 -0.072642416
-0.06367954 0.030146746 0.01153547 0.076589204 0.048992958 -0.14137822 0.12519294 -0.18519497
0.097015195 0.07626248 -0.04776664 0.03942921 -0.15487765 -0.11006421 -0.011277136 0.14112273
-0.07307123 -0.04234199 -0.114284635 -0.09787086 0.1663687 -0.04476603 0.14612296 -0.072376676
0.11485774 0.027683027 -0.11967984 -0.0069682375 0.11501399 0.13225289 0.118840575 -0.033957176
0.18501301 0.17134957 -0.12058456 -0.01586085 -0.18244083 -0.011703065 -0.13637315 -0.13112827
-0.13084424 0.1853984 -0.14532414 -0.10487564 0.053676106 0.056050427 -0.045060173 -0.15390332
-0.12220651 -0.18698572 0.03120084 0.11250451 -0.06365462 0.16145222 0.13814275 -0.008148474
0.12840761 0.038690843 0.0635524 -0.053828727 0.14588092 0.09613665 -0.09410719 0.08209253
-0.030784316 -0.13502996 -0.022040593 0.0001657235 0.08122891 -0.10254883 -0.11788114 0.10622254
0.024996245 -0.11372603 -0.025322376 0.17016384 -0.09304115 0.15370195 0.13748126 -0.004008511
-0.07060231 0.014180828 -0.17057866 0.041194893 -0.017925464 -0.0791261 -0.09135305 -0.106851004
-0.19482245 0.18272981 0.007431652 -0.002808167 -0.07329725 -0.11572792 0.13136375 0.13699403
0.09967805 0.072538674 -0.00017957069 0.118647315 0.06656306 -0.032058313 -0.0475177 0.1307928
-0.12319349 -0.09278169 -0.02402526 -0.17734897 -0.1337044 0.116746865 0.10579693 -0.18685398
0.030778678 -0.11811943 -0.1862105 0.020446 0.0333809 0.08143526 0.02439342 0.17075793
0.10435342 0.085081056 -0.040894657 0.070523255 0.1223396 -0.04633045 0.12142031 -0.083920255
0.10085613 -0.18384206 -0.18940896 -0.08975342 0.12913616 0.17187844 -0.07370358 -0.19255407
0.14911921 -0.030141078 0.18047996 -0.13483457 0.09688288 -0.05839999 -0.075513035 -0.1441418
-0.09461465 -0.15763403 0.042580485 0.11677188 0.057060968 0.08205516 0.11526064 -0.048499476
0.0369695 -0.14885649 0.07102932 -0.17579404 0.19036333 0.037013173 0.0294077 0.13961542
-0.058248386 -0.2014369 3.2418113e-05 0.16152015 -0.089709595 -0.15603484 0.004257078 -0.055620085
-0.1501723 0.13149899 0.11755375 -0.038191427 0.032901093 0.07463187 -0.11497416 0.03306015
-0.08729794 -0.07837432 0.041603517 -0.1813113 0.04129922 0.119658455 -0.06968617 0.19559853
-0.12765284 0.19049367 -0.14826465 -0.0645466 0.13136916 -0.16143297 0.15531549 0.008019684
00000000: 7657 163d 0c50 113e 0d5a afbd f283 533d
00000010: 0226 03b9 64c5 1a3e c6d1 333e 16e3 f63d
00000020: c273 0e3e 92a8 3fbe ca38 c1bd 7354 02bc
00000030: 7f80 2dbe 1e32 793d 38e3 83bb 590e 1abe
00000040: 0acd c23d 5c00 c33d e1d9 30be a56f 2b3d
00000050: 8689 8abd 6637 f03d e7ee 6d3c 83fe 123e
00000060: 6167 0ebe 9d8d 253d 89f0 40be 4ea9 213e
00000070: b85b 7cbd 259f 23be 5d4d 1abc 7983 34bd
00000080: bd37 543e 9c04 abbd 6e10 473d 6d47 9ebd
00000090: b303 983d e51a 44be d453 d7bd c306 37bd
000000a0: 33c9 98bb f9e8 81bd 03e1 d2bd 71cb d9bb
000000b0: 54ac 473d df69 bb3d 7c19 53bc 0322 9cbd
000000c0: 138e 9ebd 46a5 1b3d 011e dbbd 05bc fabd
000000d0: 1813 213e 49ee 33bd 09f9 c93d 7550 193d
000000e0: 73f8 41bb 98f6 653d 468e 0abe aa3a 0fbe
000000f0: 7df3 0bbe 7e66 3e3e 05e1 afbc 8cc5 94bd
00000100: 6b6a 82bd 4ff6 f63c 45ff 3c3c cdda 9c3d
00000110: d7ac 483d 74c5 10be 9432 003e c0a3 3dbe
00000120: e7af c63d 812f 9c3d f4a6 43bd 8680 213d
00000130: 3f98 1ebe 5869 e1bd bdc3 38bc 7a82 103e
00000140: 5ea6 95bd cb6e 2dbd 100e eabd 8470 c8bd
00000150: 8e5c 2a3e 965c 37bd 42a1 153e 393a 94bd
00000160: 893a eb3d 84c7 e23c b41a f5bd d055 e4bb
00000170: 748c eb3d 4d6d 073e b062 f33d ae16 0bbd
00000180: 0d74 3d3e 4376 2f3e 0af5 f6bd 9dee 81bc
00000190: c5d1 3abe 36be 3fbc 67a5 0bbe 7d46 06be
000001a0: 08fc 05be 14d9 3d3e dacf 14be 0ac9 d6bd
000001b0: 7adb 5b3d 2295 653d 0491 38bd d598 1dbe
000001c0: 6847 fabd 2f79 3fbe e798 ff3c c468 e63d
000001d0: 5a5d 82bd bb53 253e 4b75 0d3e 2d81 05bc
000001e0: 497d 033e 4a7a 1e3d c327 823d 837b 5cbd
000001f0: cf61 153e 4be3 c43d 45bb c0bd 2120 a83d
00000200: 642f fcbc 4b45 0abe 798e b4bc 10c6 2d39
00000210: 585b a63d 1f05 d2bd ab6b f1bd 348b d93d
00000220: edc4 cc3c 31e9 e8bd df70 cfbc 6e3f 2e3e
00000230: 5c8c bebd 0b64 1d3e e3c7 0c3e d459 83bb
00000240: f297 90bd b456 683c 2cac 2ebe fabb 283d
00000250: 6cd8 92bc dd0c a2bd 4f17 bbbd b3d4 dabd
00000260: 897f 47be 861d 3b3e 3785 f33b 3909 38bb
00000270: de1c 96bd c202 edbd 3884 063e 2a48 0c3e
00000280: 0124 cc3d 288f 943d 244b 3cb9 5dfd f23d
00000290: 3752 883d 944f 03bd eba1 42bd 8cee 053e
000002a0: de4c fcbd 5404 bebd 9fd0 c4bc f89a 35be
000002b0: cee9 08be fb18 ef3d 10ac d83d a656 3fbe
000002c0: 9123 fc3c 9ae8 f1bd f7ad 3ebe 5f7e a73c
000002d0: 69ba 083d 88c7 a63d b6d4 c73c 2bdb 2e3e
000002e0: 3fb7 d53d fa3e ae3d 2881 27bd 7f6e 903d
000002f0: 2f8d fa3d ffc4 3dbd 36ab f83d 62de abbd
00000300: a98d ce3d 1841 3cbe 6cf4 41be a4d0 b7bd
00000310: 453c 043e e700 303e e7f1 96bd e52c 45be
00000320: b5b2 183e 6cea f6bc bdcf 383e 1312 0abe
00000330: 886a c63d d434 6fbd 94a6 9abd e899 13be
00000340: 53c5 c1bd d16a 21be e068 2e3d 1826 ef3d
00000350: c3b8 693d 890c a83d c50d ec3d 63a7 46bd
00000360: 556d 173d d66d 18be d277 913d 5a03 34be
00000370: 9bee 423e 209b 173d 6be8 f03c 58f7 0e3e
00000380: dc95 6ebd 7a45 4ebe aff8 0738 8a65 253e
00000390: aab9 b7bd 99c7 1fbe f57e 8b3b e3d1 63bd
000003a0: c4c6 19be aca7 063e 05c0 f03d 9d6e 1cbd
000003b0: 4cc3 063d 98d8 983d 9377 ebbd 146a 073d
000003c0: 43c9 b2bd b782 a0bd 7368 2a3d aba9 39be
000003d0: 5f29 293d 7e0f f53d 9fb7 8ebd fb4a 483e
000003e0: 6db7 02be c610 433e b0d2 17be 0231 84bd
000003f0: a385 063e af4e 25be 060b 1f3e fe64 033c

decoder.initial.block.0.bias f4 [32]
0.1572318 -0.1656658 -0.07176029 -0.13479857 0.11216204 0.111368574 0.1035021 -0.13351403
-0.11551071 0.15180668 -0.038375333 -0.13746367 -0.001689551 0.073957406 0.098098144 -0.045948904
-0.054523434 0.17423502 -0.053694133 0.13631895 -0.13357331 0.018423095 -0.056317225 0.116839625
0.15176754 0.075208575 0.12960532 0.07449273 0.05385046 0.15147275 -0.017880658 0.06335892
00000000: 5f01 213e 4ca4 29be 0ff7 92bd a308 0abe
00000010: 36b5 e53d 3515 e43d e9f8 d33d e7b7 08be
00000020: e190 ecbd 3673 1b3e 742f 1dbd 47c3 0cbe
00000030: ed73 ddba fb76 973d aee7 c83d eb34 3cbd
00000040: f753 5fbd aa6a 323e 61ee 5bbd 3297 0b3e
00000050: 71c7 08be 08ec 963c e4ac 66bd 9d49 ef3d
00000060: f368 1b3e f406 9a3d 42b7 043e a58f 983d
00000070: 4d92 5c3d ac1b 1b3e 757a 92bc 52c2 813d

decoder.initial.block.2.weight f4 [32]
1.0268291 0.9801641 1.0080564 0.977101 0.9705904 1.0569662 1.1006383 1.0002326
1.0191445 1.0425782 0.973378 1.0056455 1.0351783 0.9873838 0.98473907 1.014734
0.9739023 0.96843696 1.0244583 1.0125476 1.0043328 0.9929765 1.0476394 1.0021249
1.0201076 0.98217356 0.99985856 0.98291063 1.0036045 1.0185459 1.0441816 1.0197308
00000000: 236f 833f 09ec 7a3f fe07 813f 4b23 7a3f
00000010: 9d78 783f ab4a 873f b7e1 8c3f 9f07 803f
00000020: 5473 823f 3473 853f 4d2f 793f feb8 803f
00000030: b980 843f 2fc5 7c3f dc17 7c3f cee2 813f
00000040: a951 793f 7ceb 773f 7321 833f 299b 813f
00000050: fa8d 803f b533 7e3f 0c19 863f a145 803f
00000060: e392 823f ba6f 7b3f bbf6 7f3f 08a0 7b3f
00000070: 1d76 803f b65f 823f bea7 853f 8a86 823f

decoder.initial.block.2.bias f4 [32]
0.01359575 -0.064311296 0.029185493 0.1284367 0.051396616 0.03201296 -0.0015118063 -0.035946526
0.0066628354 -0.08726459 0.095418476 -0.06300071 -0.10026683 -0.0966579 0.074641675 0.04634399
-0.04147667 0.020902146 -0.008510923 0.011699951 0.046981443 0.04786152 -0.016429493 -0.038755283
0.015353258 0.09797796 0.029884554 -0.019635033 -0.10585022 0.017574122 -0.06466074 0.03216545
00000000: b5c0 5e3c a4b5 83bd 6a16 ef3c e984 033e
00000010: 4285 523d 0620 033d cd27 c6ba aa3c 13bd
00000020: ea53 da3b c7b7 b2bd c36a c33d 8406 81bd
00000030: b258 cdbd 94f4 c5bd bcdd 983d 32d3 3d3d
00000040: 71e3 29bd fa3a ab3c 6671 0bbc 27b1 3f3c
00000050: 9d6f 403d 710a 443d 2597 86bc dcbd 1ebd
00000060: 3b8c 7b3c aba8 c83d 74d0 f43c a6d9 a0bc
00000070: 00c8 d8bd 9bf7 8f3c da6c 84bd ebbf 033d

decoder.initial.block.2.running_mean f4 [32]
0.00086649833 0.41390905 0.2054165 0.0033222274 0.05050962 0.0020957151 0.0022627618 0.11170953
0.14447671 0.080984145 0.1919403 -0.012348362 -0.015123369 -0.004550096 1.3172104 0.13306849
0.33869806 0.06763829 0.0072382437 0.5877012 0.36011758 0.6092373 8.193718e-05 0.0016291256
0.24082439 0.0065089045 0.061949268 0.7414 -0.015184771 0.014962537 0.1842815 0.6063702
00000000: b825 633a e3eb d33e b458 523e bab9 593b
00000010: 2de3 4e3d 4458 093b d84a 143b f7c7 e43d
00000020: b4f1 133e 04db a53d ff8b 443e c950 4abc
00000030: 02c8 77bc f918 95bb 5a9a a83f 1b43 083e
00000040: d569 ad3e f285 8a3d ca2e ed3b 9673 163f
00000050: 5561 b83e faf6 1b3f b0d5 ab38 6288 d53a
00000060: ab9a 763e a648 d53b 84be 7d3d 64cc 3d3f
00000070: 8cc9 78bc 6e25 753c 4ab4 3c3e 143b 1b3f

decoder.initial.block.2.running_var f4 [32]
0.00016842708 0.00066687586 0.00021478391 0.00031033996 0.00042683948 0.00043225283 0.0008417733 0.00047612368
0.0005341284 0.00011311429 0.0001591935 8.2990745e-08 4.4791076e-07 1.4290568e-07 0.0015650513 0.00016731607
0.00045071542 0.00021122767 0.0014333235 0.00084783416 0.0010917238 0.0010334969 5.3135605e-06 0.0007516937
0.00032590763 0.0001661713 0.00027386466 0.0003437283 3.6837073e-07 0.0004574501 0.00044472964 0.0021673562
00000000: cd9b 3039 48d1 2e3a 9e37 6139 20b5 a239
00000010: 6dc9 df39 fe9f e239 73aa 5c3a 3da0 f939
00000020: c004 0c3a c637 ed38 2eed 2639 a538 b233
00000030: 6378 f034 9d71 1934 6822 cd3a 9171 2f39
00000040: 004e ec39 ff7c 5d39 5bde bb3a 3041 5e3a
00000050: 2c18 8f3a 6776 873a 234b b236 4f0d 453a
00000060: 95de aa39 453e 2e39 7e95 8f39 6e36 b439
00000070: 7dc4 c534 ead5 ef39 9a2a e939 340a 0e3b
