results/models/archived/norm-normal/DenseSteganoGAN/4/epoch_16.pth (torch, 370975 bytes, 59 tensors)

encoder.initial.block.0.weight f4 [32, 3, 3, 3]
000000 ad 86 a2 3b 46 47 2d be 55 5b 2a 3e 66 e9 35 be
       0.0049599023 -0.1692172 0.16636403 -0.17764816
000010 82 45 83 bb 57 62 25 3d c9 f7 13 bd f0 47 ed 3d
       -0.0040060887 0.040376987 -0.03612498 0.115859866
000020 a0 f7 21 be cb e0 b0 bb 1b 21 48 be d2 97 48 be
       -0.15817118 -0.005397891 -0.19543879 -0.19589165
000030 2a bb 06 3d 0f bd b6 3c f5 c8 d1 bc 93 6e 18 be
       0.032893337 0.022306947 -0.02560852 -0.1488593
000040 8d c3 fd 3c d4 c8 2b be 86 24 ac 3c 26 4f 24 bc
       0.030977035 -0.16775829 0.02101351 -0.010028636
000050 f1 27 ff 3c 56 0e 60 bd 52 e4 1c 3c 31 15 04 3e
       0.031146975 -0.05470117 0.00957592 0.12898709
000060 e3 41 03 3e 5f 78 3f 3d 95 7d bf bd 0f 61 4a bd
       0.12818103 0.046745654 -0.09350125 -0.04940897
000070 6e 70 32 3e 11 5d f6 3d 11 ca e8 3c ef 82 81 bc
       0.17425701 0.1202947 0.028416665 -0.015809504
000080 3b d2 33 3d 45 51 d7 bd 87 fb 7a 3d 8e c2 9f bd
       0.043901663 -0.10513548 0.06127503 -0.0780078
000090 24 c0 f4 3d c5 0c b9 bb 96 d3 0b be eb 22 1f bd
       0.119507104 -0.005647274 -0.13654932 -0.03885166
0000a0 ac c3 68 bd e8 00 5b bd 1e a6 32 be 09 f7 f2 bd
       -0.056827232 -0.05346766 -0.17446181 -0.118635245
0000b0 85 db 73 bc f2 62 20 be 6f f4 22 be 13 db d6 3d
       -0.0148838805 -0.15662745 -0.15913557 0.10491004
0000c0 2b 3b 04 bd 3a 3e 63 3d 66 fc ab bb aa e2 03 be
       -0.03228299 0.055479266 -0.005248594 -0.12879434
0000d0 3e a9 cf 3c 8b 86 4a bd af 9a 75 bd d4 20 14 be
       0.025349256 -0.049444716 -0.05996197 -0.14465648
0000e0 94 10 1a 3e 25 9f bf bd 78 cf 97 bd f4 44 57 3d
       0.15045387 -0.09356526 -0.074126184 0.052555993
0000f0 28 ac 87 bd d0 43 1e be d3 43 64 3d 8d 64 9d bd
       -0.06624633 -0.15455556 0.055728745 -0.07685194
000100 ef 27 99 bd 1b e4 9e bd 9d fc d9 bd 90 13 89 3c
       -0.0747832 -0.077583514 -0.10643885 0.016732961
000110 d1 4b d0 bd 5f 5f c5 bc bd 66 9e bd 1d b2 9d 3d
       -0.10170711 -0.024093328 -0.077344395 0.07699988
000120 a4 41 76 3d db bc 97 3d 62 c4 27 3e 35 9c 14 be
       0.060121194 0.07409068 0.16383508 -0.14512713
000130 4c 31 56 bd 9f a7 36 bd 8c e9 a0 bd 60 13 f2 3d
       -0.052293107 -0.04459345 -0.078570455 0.11820102
000140 7d 2b 0f 3d 0a e2 1b 3e b6 be 68 3d ec 0c 0c bb
       0.034953583 0.15222946 0.0568225 -0.0021370007
000150 e2 76 0e 3e f7 53 c4 bd 98 c7 00 bc 07 73 3c 3e
       0.13912538 -0.095863275 -0.007860087 0.18403254
000160 91 56 5c 3d 23 f0 f2 bb 83 07 bc 3d 83 7b 20 be
       0.053793494 -0.0074138804 0.0918112 -0.15672116
000170 89 91 f0 3d 04 73 f4 3d 77 92 a2 3d 3f 3b 9c bd
       0.11746509 0.11936 0.07938092 -0.07628488
000180 ed 10 25 3e 33 0d e0 3d f5 99 b8 3c 8a 57 1e 3e
       0.16119738 0.109400176 0.02253435 0.15463081
000190 b8 e3 8e 3b 78 72 d6 bd 4d 4c 17 3e 07 33 09 be
       0.0043606423 -0.10471052 0.147752 -0.13398372
0001a0 26 79 cd 3d 38 b0 f7 3c 41 43 1b 3e c3 79 9e 3c
       0.10032873 0.030235395 0.15162374 0.01934517
0001b0 5a 98 fd 3d 6e 2a 2e 3e 52 1c ba 3c c1 5e b2 3d
       0.123825744 0.17008373 0.022718582 0.08709479
0001c0 03 26 e9 3b db f5 80 bd b1 3b 65 3d d6 95 3a 3e
       0.007115127 -0.06296893 0.05596513 0.1822122
0001d0 b3 65 d9 bd ad 0b 4b 3c d2 e0 9d bd ae dd 7f bc
       -0.10615101 0.01239292 -0.07708897 -0.015616817
0001e0 b3 28 52 bc 68 21 fa b9 40 f6 36 be da 69 2e 3e
       -0.012827086 -0.00047708605 -0.17867374 0.17032567
0001f0 f6 34 01 3d b7 37 8c bd 96 90 18 3e b7 10 ab bd
       0.031544648 -0.06846564 0.14898905 -0.083527975
000200 17 e8 93 3d e1 a4 d1 bd 99 97 31 be 72 84 08 be
       0.07222002 -0.10236526 -0.17342986 -0.13331774
000210 59 5a 20 be 22 1b da bd 4f f3 c9 3d 92 b9 9f 3c
       -0.15659465 -0.106497064 0.098608606 0.019497667
000220 a7 d2 9a 3d cc 0f 45 3e 67 8d 02 3e c0 61 91 bc
       0.0755971 0.19244307 0.12749253 -0.017746806
000230 d3 29 a8 3d 20 8f 25 bd e6 ce 1d be 5a 10 1c bd
       0.08211102 -0.040419698 -0.15410957 -0.03810153
000240 91 82 16 3d 2b 93 17 3e 58 e8 6c bd 98 ce cb bd
       0.03674561 0.14802234 -0.057838768 -0.09951514
000250 4c d0 55 bd 08 54 c3 bd 15 88 07 be 89 a7 1c 3e
       -0.0522006 -0.09537512 -0.13235505 0.15298285
000260 3e e2 59 bd 39 3d e9 3d a8 96 63 bd 7d a7 00 3d
       -0.053194277 0.113886304 -0.0555636 0.03140973
000270 1d 97 0c bd 83 28 38 3e 08 ed b9 bb d8 3b 32 3d
       -0.0343238 0.17984204 -0.0056740083 0.043514103
000280 42 45 fe 3c 1c c9 14 be 76 52 2e bd 49 d0 9b 3d
       0.031038884 -0.14529842 -0.04255911 0.076080866
000290 17 60 8b 3d 34 32 b0 3d 14 4f 7d 3d ec e2 07 be
       0.06805437 0.086033255 0.061842993 -0.13270158
0002a0 8f 7e 0a bc 49 52 d2 bd 61 81 34 3e 57 6a 19 be
       -0.0084530255 -0.10269601 0.17627479 -0.14981972
0002b0 db 42 5b 3d 8c 2e 0d 3e 69 fc 99 3d 31 63 1c 3d
       0.053530555 0.13787287 0.075188465 0.038180534
0002c0 0a 00 e6 bc e8 f0 4a bc e1 df b5 3d 97 fe 0a 3e
       -0.02807619 -0.012386538 0.08880592 0.13573681
0002d0 32 d0 29 3e 8d 0a 02 3e 76 95 75 bd c0 a5 f8 3d
       0.16583326 0.12699337 -0.05995699 0.12140989
0002e0 82 ca d2 bc b6 d5 17 3c e3 e5 20 3e 43 f0 0d 3e
       -0.025731329 0.009267261 0.15712695 0.13861184
0002f0 83 e7 2e be 00 a2 29 bd 32 c5 b2 3d eb 9c 34 bd
       -0.17080502 -0.04141426 0.08729018 -0.04409496
000300 13 ba 9f bd 6c 2e 32 3e 5d 03 16 be 7f 12 d9 bd
       -0.07799163 0.17400521 -0.1464972 -0.10599231
000310 38 e4 0b 3e f1 1c 18 be e2 33 46 be f9 9a 50 3c
       0.13661277 -0.1485479 -0.19355729 0.012732261
000320 ea 90 d1 3d f4 53 2d 3d 40 b6 c4 3b 3c 82 aa bd
       0.10232718 0.042316392 0.006003171 -0.083256215
000330 40 b3 29 bd e1 4e b4 bc 87 9f 3e 3e e5 46 04 3e
       -0.04143071 -0.022010269 0.18615542 0.12917669
000340 4e 47 fc bb 3c ae db bd 0e 44 8b bc c0 ec fd bc
       -0.00769893 -0.10726592 -0.017000224 -0.03099668
000350 15 22 d2 3d 17 81 a1 bd d3 ab a8 bd e2 69 19 be
       0.10260407 -0.0788595 -0.08235898 -0.14981797
000360 2c 59 c4 3d 21 ef d0 3d b9 83 36 3d 24 05 a9 3d
       0.09587321 0.1020186 0.044559214 0.082529336
000370 5c 1b 1f 3e 7a 5c 42 3e 9a c5 5d bc b7 cd 30 be
       0.1553778 0.1898059 -0.013535881 -0.17265974
000380 a5 31 2e 3d 83 a7 b9 bd ae c6 04 bb 7e 41 12 be
       0.042527813 -0.090651534 -0.0020260024 -0.14282796
000390 86 12 82 3d 2e 85 ea bc b9 e5 b5 bd 53 3f 18 be
       0.06351189 -0.028627958 -0.08881707 -0.14867906
0003a0 7e 51 18 be 0b b6 d6 3c 1c 86 10 be b8 fc 33 be
       -0.14874837 0.026209852 -0.14113659 -0.17576873
0003b0 5a 9b d9 bd c5 d5 f2 b9 29 bb 64 3b 75 c5 41 3e
       -0.10625334 -0.00046317108 0.0034901595 0.1892298
0003c0 5f 5b 5c bd 23 fd 1b 3e fb 6b 33 3e dd bc f1 bc
       -0.053798076 0.15233283 0.1752166 -0.029509002
0003d0 29 05 d2 bd df a4 09 3e 78 8e c8 3d 36 b9 cf bc
       -0.102548905 0.134418 0.09792799 -0.02535687
0003e0 09 fe e8 3d b0 d2 2d 3e d2 f1 15 be cc 03 f8 3d
       0.11376578 0.16974902 -0.14643028 0.12110099
0003f0 fc be b1 bc 75 1c 49 3e 92 4c ce 3d 9f 56 37 3e
       -0.021697514 0.19639762 0.100731984 0.17904137

encoder.initial.block.0.bias f4 [32]
000000 21 1d 43 be 0c 5a ea bd 19 74 01 be 14 1c d4 bd
       -0.1905408 -0.11442956 -0.12641944 -0.10356918
000010 99 84 0c bc 0e 70 ba bd 39 76 f7 3d 22 4a 2f 3e
       -0.008576536 -0.09103404 0.12083096 0.17118123
000020 5e ba 8c 3c f1 ac 03 3e e6 59 3c 3e c7 3e aa bd
       0.01717871 0.1285894 0.18393669 -0.08312755
000030 a7 00 d9 bc 7f 00 67 3d 61 09 15 3e 94 c1 76 bd
       -0.026489569 0.056396957 0.14554359 -0.060243204
000040 a4 13 d9 3d 20 f3 3a 3d 41 1f e9 3d 1d d7 57 3c
       0.10599449 0.04564202 0.11382914 0.013173846
000050 8d 89 43 bd c2 e5 3a be 9f 9f d9 bc eb ba 46 3e
       -0.0477386 -0.18251708 -0.026565371 0.19407241
000060 80 62 d8 3d be 3d 27 3e 9a f6 e8 3d da 34 01 be
       0.105656624 0.16332147 0.113751605 -0.12617818
000070 17 1e 04 3e e3 98 85 3d ae af 1c bd c3 1e 20 be
       0.12902103 0.065233015 -0.03825348 -0.15636735

encoder.initial.block.2.weight f4 [32]
000000 5b cd 7c 3f 8c 02 7e 3f b3 96 7f 3f 82 6c 7c 3f
       0.9875085 0.99222636 0.99839324 0.9860307
000010 e2 f8 7b 3f b5 38 7e 3f 10 a3 7c 3f 94 39 7f 3f
       0.9842664 0.9930528 0.98686314 0.9969723
000020 54 52 7d 3f 44 6e 80 3f 03 63 7f 3f 6f d9 7f 3f
       0.9895375 1.003365 0.99760455 0.9994115
000030 95 26 7d 3f 00 9e 7a 3f ff 0f 7d 3f f4 36 7c 3f
       0.98886997 0.9789734 0.98852533 0.9852135
000040 2b 48 7e 3f 7f 83 7d 3f 71 5d 7c 3f 26 50 7e 3f
       0.9932887 0.9902877 0.9858008 0.99341047
000050 00 72 7d 3f f4 fc 7d 3f b7 44 7b 3f 9a 44 7c 3f
       0.99002075 0.992141 0.98151726 0.9854218
000060 ff eb 7a 3f 3e 4a 7a 3f d3 6d 7e 3f 0d 80 7c 3f
       0.9801635 0.97769535 0.9938633 0.9863289
000070 f9 77 7c 3f 25 49 7d 3f c5 fa 7f 3f 9f 2c 7e 3f
       0.98620564 0.98939735 0.9999202 0.99286836

encoder.initial.block.2.bias f4 [32]
000000 f6 6c c5 bc 51 4c 0f 3c cd 71 93 bc 33 9e ad bc
       -0.024099808 0.008746223 -0.0179986 -0.0211936
000010 08 1f 95 bb 6d 14 2d bd ff 04 d4 3c ec 6c 8f 3c
       -0.0045508184 -0.042255808 0.025881289 0.017507993
000020 b3 a1 30 bd fd fd ce bc 5a 49 a1 ba d5 8d 8a bc
       -0.04312296 -0.025267595 -0.0012305186 -0.016913334
000030 8c 93 19 bd cd 87 ea 3b 8d 6b 64 3b 7c f2 2e 3d
       -0.037494227 0.007157302 0.0034854144 0.04271172
000040 b8 e5 05 bd 20 4f c0 bc db 7c b4 3c e9 50 8a bd
       -0.03268978 -0.02347523 0.022032192 -0.06753714
000050 72 71 88 3c c9 f8 8a bb 2d 9b 43 bd cc 4a 52 3c
       0.016655657 -0.0042410833 -0.04775541 0.012835216
000060 cd 0f 75 3c d8 59 38 bd b6 87 0c bd 4e bd c7 bb
       0.0149573805 -0.045007557 -0.03430911 -0.006095565
000070 7d 2f 18 3a 6f e4 2c 3d 05 a0 52 bc 85 d7 ee bc
       0.0005805416 0.04221004 -0.012855534 -0.029155502

encoder.initial.block.2.running_mean f4 [32]
000000 cc 2b ef 3e 68 d6 06 3f bb f2 04 3f e1 0a 66 bc
       0.46713102 0.5267091 0.5193288 -0.01404068
000010 9a a5 b4 3d bd 3c 42 bb aa 4d 0c bc 02 2b 11 3f
       0.088206485 -0.0029638254 -0.008563438 0.5670625
000020 d5 67 16 3c 7c 6c 21 bb 70 68 7b 3e 60 8f 09 3a
       0.009180029 -0.0024631312 0.24551558 0.00052475
000030 07 06 17 3a 3e 93 a3 3e 3c 90 eb 3e c5 0e 40 3f
       0.0005761091 0.31948274 0.4600848 0.75022537
000040 b3 49 45 ba fc 67 64 ba bf ef 2a 3f 31 62 d9 b8
       -0.00075259357 -0.00087130046 0.66772074 -0.00010365656
000050 7a 59 af 3e f2 f5 21 3f 41 c4 1b bc a5 f6 24 3f
       0.34247953 0.6326591 -0.00950724 0.6443885
000060 57 f3 14 bc 74 46 3a bb 07 43 f9 ba 04 c7 b8 3e
       -0.00909122 -0.002842334 -0.0019017168 0.36089337
000070 39 b0 f0 3e d6 fa c5 bb 27 56 79 39 3a 44 02 bc
       0.47009447 -0.006041865 0.00023778585 -0.007950837

encoder.initial.block.2.running_var f4 [32]
000000 09 20 5e 3a 5f 8b b5 3a 7b 1b 49 3a c6 ff 13 35
       0.00084734015 0.001385074 0.00076716364 5.5133967e-07
000010 2a 1d 2d 3a 59 a5 a2 38 d8 17 03 34 ca 0c 41 3a
       0.0006603772 7.7555604e-05 1.2209e-07 0.00073642714
000020 1c 85 60 39 6a 43 9d 39 75 c6 b5 3a 14 a1 5d 39
       0.00021411892 0.000299956 0.0013868349 0.00021136209
000030 16 db 7d 39 2f e1 24 3a 39 49 72 3a e8 9b c5 3a
       0.00024209576 0.00062896585 0.00092424784 0.0015076371
000040 1d 43 cd 39 e8 4e 8c 38 57 b2 69 3a 0e 82 e1 39
       0.0003915065 6.690418e-05 0.00089148193 0.00043012243
000050 d0 b6 39 3a 24 54 f5 3a bc 91 87 33 64 54 d4 3a
       0.0007084431 0.0018717092 6.312936e-08 0.0016199467
000060 19 24 98 34 6c e9 d5 38 42 82 96 39 fd 0d 4e 3a
       2.833847e-07 0.0001020011 0.0002870728 0.0007860361
000070 64 d1 ba 39 98 23 2d 34 11 cc e5 38 a5 64 d6 34
       0.00035632693 1.612483e-07 0.00010957581 3.9933835e-07

encoder.block1.block.0.weight f4 [32, 36, 3, 3]
000000 3c 03 2a 3d a9 ee e5 bc fd 8c 2d 3d 93 60 55 3d
       0.04150699 -0.028067904 0.042370785 0.052094053
000010 af a3 ab 3b d0 e0 9d 3c 1f bd 82 3c e4 81 49 bd
       0.0052380185 0.019272238 0.01595932 -0.04919614
000020 c4 fe 66 bd e5 c1 05 bd bb b5 80 3c 7c 61 0a bd
       -0.056395307 -0.032655615 0.015711656 -0.033784375
000030 1a d8 0e 3c 13 38 11 3d 00 d1 22 3b ff 09 6e bc
       0.008718515 0.035453867 0.0024843812 -0.01452875
000040 a8 28 2f bd a4 6a 47 bd 6b 5e 06 3b 45 b7 1c 3d
       -0.042763382 -0.048685685 0.0020503055 0.038260717
000050 7d fe a3 bc 6e d5 a5 bb 79 8b 12 bd 70 df 31 bd
       -0.02001881 -0.005060843 -0.035777543 -0.043425977
000060 82 99 a2 bc 85 72 2f 3c 1b 77 90 bb 4b 58 5d 3c
       -0.019848589 0.010708456 -0.0044087297 0.01350982
000070 a3 90 39 bd 80 3b c3 3c 58 0a 67 ba 25 a2 4e 3c
       -0.045303952 0.023832083 -0.0008813492 0.0126119
000080 aa 8a 6c bc e4 56 d9 bb 23 a8 69 3c 1f 0e 7f 3d
       -0.014437357 -0.0066326726 0.014261278 0.062269326
000090 68 eb d0 3b d1 23 52 3c af 55 f0 3c 57 61 98 3c
       0.006375719 0.012825922 0.029337732 0.018601103
0000a0 97 34 84 bc bb 85 27 bd 2c da 4c 3d 53 fd d1 3b
       -0.016138358 -0.04089902 0.050012752 0.0064083724
0000b0 3e df 09 3d da 7d 2a 3b 6a 8c 71 3b 89 95 a6 3b
       0.033660166 0.0026014955 0.0036857375 0.005083744
0000c0 ee d2 54 3d 02 9f 1a bc 93 6a 85 3c d6 70 89 bc
       0.05195897 -0.0094373245 0.01628617 -0.016777437
0000d0 d4 7d 82 3d 80 09 19 3d a5 dd 26 bd 41 49 85 3c
       0.06371656 0.037362576 -0.04073872 0.016270282
0000e0 2b 8c 89 3c 75 5e d0 bc ac c4 50 bd 4e 37 ee 3c
       0.01679047 -0.025435666 -0.05096881 0.029079106
0000f0 d4 77 ef 3c 11 00 10 3b 19 6a bb bc 1d 00 d7 3b
       0.029231943 0.0021972696 -0.02287774 0.006561293
000100 04 ad a2 bc 7a 17 4b bd 0e ef 3f 3d 00 40 2b bd
       -0.01985789 -0.049582936 0.04685884 -0.041809082
000110 0f b8 06 bd 50 1b 1c bc 34 cd 00 bd cb 5b 53 bd
       -0.032890376 -0.009527996 -0.031445697 -0.051601212
000120 6f c4 19 3d dc 6e 0f 3b 34 29 67 bc 0c 42 4f bd
       0.03754085 0.0021886146 -0.014108945 -0.050600097
000130 31 a4 6f bb c8 4b 24 3d 25 d2 42 bd 10 aa cb 3c
       -0.0036566372 0.040111333 -0.04756369 0.024861366
000140 c2 72 11 bd fe f3 30 3d e4 ac f4 3c ba bd b9 3c
       -0.035509832 0.04320144 0.029867597 0.022673476
000150 d7 76 16 3c fe 16 2f 3d 91 91 31 bd fc 32 de 3c
       0.009183607 0.042746536 -0.043351714 0.02712392
000160 9b 2e ea 3c c6 b7 12 bd 2d f0 56 3d 77 e5 66 3d
       0.028586676 -0.03581979 0.052475143 0.05637118
000170 57 00 82 bc 0c d8 fd bc ce 3c 29 3d 92 3a a2 3c
       -0.015869303 -0.030986808 0.041317753 0.01980332
000180 a2 ce 6c 3c 4b 58 b7 3c a6 2b 16 3d d9 33 73 3b
       0.014453562 0.022380969 0.03666272 0.003710976
000190 21 ab 6e 3d 12 23 e1 bb 0c 00 27 bd 25 ab 45 3d
       0.05826867 -0.006870636 -0.04077153 0.04825892
0001a0 27 d4 5b 3c f7 62 4d 3d 09 2e b7 3c 5a 02 2f 3c
       0.01341728 0.05014321 0.022360818 0.010681713
0001b0 ea 6a a1 3d e9 4f 36 bd 3f 9b 8e 3c e3 f9 3c bb
       0.0788172 -0.044509802 0.017408011 -0.0028835468
0001c0 97 54 28 3c 0f ae 0e 3d 90 0a 23 bd c6 fc 57 3d
       0.010274074 0.034833964 -0.039804995 0.052731298
0001d0 85 7d df bc f1 58 c6 bc 74 83 ac 3c 86 b9 ca bc
       -0.027281532 -0.024212332 0.021058775 -0.024746668
0001e0 36 f2 34 3d de 5f 4a 3d f8 c2 72 bc 66 d7 f1 bc
       0.044176303 0.049407832 -0.014816992 -0.029521655
0001f0 45 8e 3e bc b2 4d 26 bd 66 8d 20 3c f8 3d 12 3d
       -0.011630599 -0.04060144 0.009799337 0.03570363
000200 78 58 b1 bc 97 d6 3d 3d 00 71 a3 bc d2 85 14 bd
       -0.02164863 0.046347227 -0.019951344 -0.036260433
000210 bf 30 70 bc 8c 21 14 bc 0a f1 01 bd 27 ca 32 3c
       -0.0146600595 -0.009041201 -0.031724013 0.010912455
000220 d9 55 16 3c 72 74 83 bc 11 3a fa bc 89 62 1b 3d
       0.009175741 -0.016046736 -0.030545266 0.037935767
000230 66 e9 1e 3b c6 3f fc bc 15 95 0f bd 14 58 07 bd
       0.0024248003 -0.030792128 -0.035054285 -0.033042982
000240 27 e6 6b 3d cf 2e fe 3c 3f f3 e3 bc 0d 72 04 3d
       0.057592537 0.03102818 -0.02782595 0.03233533
000250 f0 73 0b 3c 7d 5e 44 3d 0c 8c 63 3d 7b 15 c4 3c
       0.008511528 0.047941674 0.05555348 0.023936024
000260 93 4c c6 bc a9 24 fd 3c 53 b9 ea bc 9c a7 90 3b
       -0.024206435 0.03090127 -0.028652823 0.004414512
000270 e1 d2 a6 3c aa 61 0c 3c 73 0f a5 bc b1 2a 82 3b
       0.020364227 0.008568207 -0.020148968 0.0039723744
000280 05 46 38 3d 25 43 78 3d a2 b8 4d 3d 13 2b 6b bd
       0.04498865 0.06061091 0.050224908 -0.057414126
000290 ad 9c 4a bd 1b 07 07 3d b3 0c 61 3c 75 1d 64 bd
       -0.049465824 0.03296576 0.013735938 -0.055692155
0002a0 b3 6e 4d bd dd 9d 8d 3c 86 24 08 bd 4e e6 ab 3d
       -0.0501544 0.01728719 -0.033237956 0.083935365
0002b0 91 0e 11 3d 2c 81 8a 3d a5 fa 9d bb b0 a6 cf bc
       0.035414282 0.06762919 -0.004821139 -0.025348037
0002c0 94 50 c2 3c 66 71 49 bc 33 68 35 3c ab 70 1a 3d
       0.023720063 -0.012295103 0.011072206 0.037705105
0002d0 38 45 e2 3c 66 8e c6 3c e4 ad e2 bc 83 3a 1f 3d
       0.027620897 0.024237823 -0.027670808 0.03887416
0002e0 fd a4 e4 bc c2 a1 fd bc c5 15 95 3c 8b 34 a7 3b
       -0.027910704 -0.030960921 0.018198857 0.005102699
0002f0 67 0c 2b bd 11 0e 3b 3d 8c c3 22 bd 12 2f 03 3d
       -0.041759875 0.04566771 -0.03973727 0.03202731
000300 cf a2 e3 3c 33 85 06 bd 45 6f 2c 3d 6a c8 38 3c
       0.027787594 -0.032841872 0.042098302 0.011278251
000310 3c eb 8b 3c 4b 2a 0f 3c 13 1b 93 3d 32 e9 c1 3c
       0.017079942 0.008738111 0.07182898 0.023670767
000320 91 1c f7 bb 2c 25 ea bc a7 65 0f bd 4d 47 0e bd
       -0.007541247 -0.028582178 -0.035009053 -0.034735966
000330 96 cf 0a bd f1 12 5b 3d 34 8b 37 3d 83 13 95 3c
       -0.033889376 0.05348486 0.04481049 0.01819778
000340 0b 25 e9 3c 3a 7e 18 3c 32 ed 69 bd 86 26 aa 3b
       0.028460046 0.0093074385 -0.057110973 0.0051925806
000350 f5 87 2b bd 54 72 34 3d 46 8a cc bc fc d7 99 bb
       -0.041877706 0.044054344 -0.024968278 -0.004694937
000360 78 8e 28 bb 67 c0 f3 3c 06 e4 e9 ba 2a f4 02 3d
       -0.0025719684 0.02975483 -0.0017844446 0.031971134
000370 f3 2c 33 bd 82 a4 ff bb 59 bf 35 bd 36 93 a1 bc
       -0.04374404 -0.0078015933 -0.044371936 -0.019723516
000380 fc f8 58 3c bb c3 50 bb 43 8f 18 bc 70 a4 f8 3c
       0.013242956 -0.0031854946 -0.0093115 0.030351847
000390 9f 3d 34 bd 86 5d 6f 3c 03 2e 07 bd 04 cf 0d 3d
       -0.04400408 0.0146097 -0.033002865 0.034621254
0003a0 c1 9a 55 3d ab a1 cd bc 74 a5 06 3d 5c e1 a4 3c
       0.052149538 -0.025101503 0.032872632 0.020126991
0003b0 72 62 aa 3c 86 0a 9e 3c 5d b4 b5 3c fa 38 d7 bc
       0.020798896 0.019292127 0.02218073 -0.026272286
0003c0 68 95 b2 bb ab cf 87 3c a1 fb a1 bc 1e 4f 1b 3c
       -0.0054499395 0.016578516 -0.019773306 0.009479312
0003d0 78 88 c5 3c c3 01 a1 bc c2 2d 61 3d e7 b8 00 3d
       0.024112925 -0.01965416 0.05497528 0.031426337
0003e0 4c d5 76 3d f4 70 20 bd 77 76 d7 bc 57 80 9d bc
       0.06026201 -0.03917022 -0.026301606 -0.019226236
0003f0 a8 73 30 bc 63 d9 d8 3c be 69 ae 39 ce 2e ed bc
       -0.010769762 0.026470846 0.0003326665 -0.028952982

encoder.block1.block.0.bias f4 [32]
000000 2a 71 e1 bc 5c a4 4e 3c 20 79 1f bd 71 c4 8c 3d
       -0.027519781 0.0126124285 -0.038933873 0.06873406
000010 cc 16 fe 3c 6b d8 1e 3d af 51 f0 3b c3 bd 85 bd
       0.03101673 0.03878061 0.007333956 -0.06530335
000020 a4 8f 91 3b 2e ce 2b 3d ff 5c 22 3b 47 08 21 ba
       0.004442172 0.041944675 0.0024774668 -0.0006142896
000030 3c be 48 bd 6c ea 1c bd 9e 2a 86 bd 11 75 d2 3c
       -0.049009547 -0.0383095 -0.06551097 0.025690587
000040 75 d5 b0 bc 6c 47 b9 3c de d7 96 3c 84 07 5d bc
       -0.02158616 0.022617064 0.01841348 -0.013490561
000050 de 60 83 3d bd a2 fa bb 50 84 7a bd e3 4e a6 3d
       0.0641496 -0.0076487944 -0.06116134 0.08120515
000060 9c cc 5b 3d 68 fe 4f bb 91 7c 08 bc 8c e8 4e bc
       0.053661928 -0.0031737331 -0.00833048 -0.012628686
000070 50 77 ce 3c 1b 7f 22 3d 9b bf b6 3c 75 83 49 bd
       0.025203377 0.039672 0.022308161 -0.049197633

encoder.block1.block.2.weight f4 [32]
000000 e9 fb 79 3f 5b 13 7a 3f 41 1c 7a 3f 71 e9 77 3f
       0.9765001 0.97685784 0.9769936 0.9684058
000010 8d b8 79 3f 1a 7d 78 3f 72 60 7a 3f a4 56 79 3f
       0.9754723 0.9706589 0.97803414 0.9739783
000020 77 41 7b 3f 41 8b 78 3f 9f 4a 7b 3f c3 ff 79 3f
       0.98146766 0.97087485 0.9816074 0.97655886
000030 bd 4c 7a 3f 02 9a 7a 3f 0e 95 7a 3f 85 49 74 3f
       0.97773343 0.9789125 0.9788369 0.9542468
000040 4c 4e 7c 3f 7c ea 78 3f 47 26 79 3f 70 7f 7a 3f
       0.9855697 0.97232795 0.9732403 0.97850704
000050 ca a7 75 3f 74 ac 75 3f dd ea 79 3f 93 05 78 3f
       0.9595915 0.9596627 0.97624 0.96883506
000060 45 23 77 3f 14 73 78 3f 83 47 78 3f 37 f9 76 3f
       0.9653819 0.97050595 0.9698412 0.9647402
000070 ef ee 77 3f dd bb 78 3f 7c 30 78 3f ea 12 7b 3f
       0.9684896 0.97161657 0.9694898 0.98075736

encoder.block1.block.2.bias f4 [32]
000000 6b 64 24 3c d3 7e 94 3c f2 c0 4d 3c 74 ba 6c 3c
       0.010033707 0.01812688 0.012558209 0.014448751
000010 a0 c6 22 bc 31 68 da 3b fb 63 30 3c f0 f1 08 3c
       -0.009935051 0.0066652526 0.010766025 0.008358464
000020 e8 ae 3b 3c 2f 31 bc 3c 58 d3 cb ba 13 26 5f 39
       0.011455275 0.022972671 -0.0015550656 0.00021281121
000030 5e 80 54 3b ee 5e 0c bc 64 3e 9f bc 9b 9d 0e bc
       0.0032425146 -0.008567555 -0.01943893 -0.008704568
000040 e6 42 23 3b 32 95 06 bd 5e 69 d2 3b 79 eb d4 3c
       0.00249117 -0.032857127 0.006421252 0.025991188
000050 1d d4 43 3c d0 0f 9a ba a3 f6 9e 3c 2b 6f f8 3b
       0.011952427 -0.001175398 0.019404715 0.0075816116
000060 86 8d ae ba ae e3 03 bc 44 40 7e bc 37 5d 94 ba
       -0.0013317324 -0.008049889 -0.015518252 -0.0011319284
000070 9e 4c e3 3a 12 7d 9c bb 36 0a b3 3c ff 24 3f 3b
       0.0017341559 -0.0047756517 0.021855455 0.0029166338

encoder.block1.block.2.running_mean f4 [32]
000000 17 8c 54 3d c4 71 77 3d 26 20 f8 3c 71 98 47 3e
       0.051891413 0.06041123 0.030288767 0.19491746
000010 5b 5a 9d 3d 1e ff 70 3e 7d fa 1a 3d 96 22 6e 3d
       0.076832496 0.2353482 0.03783654 0.058138452
000020 80 cd 6e 3d e7 06 69 3e 29 cd 31 3d 68 cb fb 3c
       0.05830145 0.2275654 0.043408547 0.03073664
000030 b2 07 67 3d 74 d0 db 3c 76 3c 2a 3d 34 61 67 3e
       0.056403823 0.026832797 0.041561566 0.22595674
000040 7d d4 0d 3d 67 e2 98 3e e7 4e 54 3e 23 bb 60 3d
       0.034626473 0.2986023 0.20733224 0.054865967
000050 07 57 87 3e 1d 8e 4f 3e 16 a3 39 3d 5a 13 94 3e
       0.26433584 0.20269056 0.045321546 0.28921014
000060 ea 7e 7d 3e 92 8f 55 3e a2 6a 6d 3e ce 0a 64 3e
       0.24755445 0.20855549 0.23185208 0.22269747
000070 5a 3f a8 3e 02 4e 3f 3e 2b 4a 7c 3e 24 13 a9 3d
       0.32860833 0.18682101 0.24637668 0.08255604

encoder.block1.block.2.running_var f4 [32]
000000 6c 15 d0 3e 5b a7 a6 3e 05 ce 9d 3e ef 60 fc 3e
       0.40641344 0.32549557 0.30821243 0.49292704
000010 32 c3 21 3f 42 b0 d8 3e 72 7f aa 3e eb c1 c0 3e
       0.6318847 0.42321974 0.33300358 0.37647948
000020 cb f2 b5 3e 29 2f 17 3f 9c 3f 6d 3e a7 b4 52 3e
       0.355368 0.59056336 0.23168796 0.20576726
000030 ac 63 9a 3e fd f9 29 3e 42 a9 72 3e e6 a7 ee 3e
       0.3015417 0.16599269 0.23697379 0.4661247
000040 ed 56 7f 3e 16 ad c4 3f 78 46 86 3f 2a ea ac 3e
       0.24935503 1.5365322 1.0490255 0.33772403
000050 0d 01 e0 3e 8f c3 b1 3e b0 23 8f 3e 73 c7 13 3f
       0.43750802 0.34719512 0.27956915 0.5772621
000060 a8 f1 0d 3f 9c 07 fd 3e 95 5c e1 3e 99 7e 09 3f
       0.55446863 0.49419868 0.44015947 0.537088
000070 91 f4 25 3f da 8b ce 3e 77 f0 18 3f 52 bf 01 3f
       0.64826304 0.40341073 0.5974192 0.50682557

encoder.block2.block.0.weight f4 [32, 68, 3, 3]
000000 56 5f 38 3c 24 3b 1b 3d 6b aa 3a bc b5 7f a9 bc
       0.011253199 0.037898198 -0.01139317 -0.020690778
000010 ab 0a 2a bd aa 51 0d bd d7 d5 2f bd bf 69 ed bc
       -0.04151408 -0.03450171 -0.042928543 -0.028981088
000020 57 08 99 bb eb 0c ad bc 75 ff 06 3d 67 77 a7 3b
       -0.0046701836 -0.021124324 0.032958467 0.0051106694
000030 e5 22 04 bd be ce 00 bb 16 ff c0 3c 28 19 23 bd
       -0.03225984 -0.0019654478 0.023559134 -0.039818913
000040 10 88 7f 3c 94 03 21 bc 0f f7 88 3c 8c ad 74 bc
       0.015596405 -0.009827513 0.01671937 -0.014933955
000050 68 41 07 3d 45 0f c9 bc f4 f6 8a ba e4 c4 27 3d
       0.03302136 -0.024543414 -0.0010602162 0.040959254
000060 a7 7b 54 3c 63 25 6d bc 60 23 fb 3a 24 f8 2f 3c
       0.012968934 -0.014474246 0.0019160323 0.010740314
000070 91 7a 40 bc 50 34 8e 3b f2 b5 f7 3c 83 1d 09 3d
       -0.011747972 0.004339732 0.030238125 0.03347541
000080 8e 5c b6 bb 9e 97 0c 3d 74 7e 0a 3d 16 e6 68 bc
       -0.0055652326 0.03432428 0.033812 -0.014215013
000090 d0 7e 2b 3d 56 cd 03 bc 39 b6 02 bb 91 47 91 bc
       0.041868985 -0.008044561 -0.001994504 -0.01773432
0000a0 f4 d1 3b 3c dd cf 45 bc 4a 07 a4 3c 4e 89 a9 bc
       0.011463631 -0.012073484 0.020023007 -0.020695355
0000b0 ea 51 0d 3d 6a 1a 01 3d 2b 0e f3 3b b9 2c f8 3c
       0.034501947 0.03151933 0.0074174604 0.030294763
0000c0 de b7 c3 bc a2 05 c7 bc 7c 71 e8 bc 1e 2f b3 3c
       -0.023891386 -0.024294678 -0.028374426 0.021873053
0000d0 6f 7a 4b 3a 7c 34 28 bd 64 cf e3 bb 02 a8 0c 3d
       0.00077620795 -0.041065678 -0.006952213 0.034339912
0000e0 99 0f 19 bd a2 d6 47 bc 6c cc 66 3c fa 38 da 3c
       -0.03736839 -0.012197169 0.014086824 0.026638497
0000f0 f7 f9 0f bc dc aa 47 3c 86 09 18 3d 94 fc a5 bb
       -0.008787624 0.012186732 0.037118457 -0.00506551
000100 e2 27 98 3b 19 7c 03 bc 1e 49 ed 3c 30 fe fb bc
       0.0046434263 -0.008025193 0.028965529 -0.030760854
000110 d8 df 66 3c b2 1a a5 bc 0b a2 70 bc b2 1c a7 3c
       0.014091454 -0.02015433 -0.014687072 0.020399425
000120 7b 64 0f bd 44 4d f9 3c d9 8a d8 bc a7 6c 14 bd
       -0.035007935 0.030432351 -0.026433395 -0.03623643
000130 d2 8a 14 3d 58 7d 4d bc 67 63 82 3c f6 83 2f bb
       0.036265202 -0.012542091 0.01591654 -0.0026781536
000140 a6 bf 0e bd f6 12 85 3b 26 86 a4 3c df aa bd bc
       -0.03485074 0.004061098 0.020083498 -0.023152767
000150 b9 7d b5 3c 33 19 ac 3c 2e 1d 80 bc 8c 1c 19 3a
       0.022154676 0.02100811 -0.015638914 0.00058407406
000160 df 8f 02 bd 22 ad c2 3c bd 7c fc bc d3 ae 85 bb
       -0.031875487 0.023764197 -0.030821199 -0.0040796786
000170 58 a8 46 3b 78 d8 54 3c e5 d6 ca 3c 98 e7 08 3d
       0.0030312743 0.012991063 0.024760673 0.03342399
000180 6d 6d 00 3c 20 66 90 bc 6d 59 08 3d 53 e8 53 3c
       0.007838589 -0.017626822 0.033288408 0.012933808
000190 85 7f 20 bd dc 6c c5 bc 69 06 0c 3d b8 77 00 3d
       -0.039184112 -0.02409976 0.0341858 0.031364173
0001a0 85 b3 06 bc af 31 83 3c 87 e6 7e 3c 4f b3 1d bd
       -0.008221512 0.016014902 0.015557892 -0.03850108
0001b0 ce bf ee bc 6d b4 5a 3c bf d5 b3 bc 7a 09 fd 3c
       -0.029144194 0.013348681 -0.021952508 0.030888308
0001c0 f9 a2 c5 3c ca 16 00 bd 4c f3 17 3d 1f 27 e0 bc
       0.024125563 -0.031271733 0.03709726 -0.027362404
0001d0 6a c2 ef bc d6 83 de 3c cc 44 92 bc 1f da 00 bc
       -0.029267509 0.027162474 -0.01785507 -0.007864504
0001e0 18 52 c9 3c 00 87 a0 bc 15 34 ee bb 96 68 6d 3c
       0.024575278 -0.019595623 -0.0072693923 0.014490267
0001f0 73 4b fa bc 7f 8e e2 3b c1 25 aa 3c 6e 7a 5c 3c
       -0.030553555 0.0069139595 0.020769956 0.013456924
000200 cf 92 fe bb 57 17 1b bd ca 45 26 bc 14 6a ec 3c
       -0.007768966 -0.037864055 -0.010148475 0.028859176
000210 e1 b4 22 3b c8 bc 33 3c c6 20 b4 bc 42 20 19 3d
       0.002482705 0.010970302 -0.021988284 0.03738428
000220 93 1a d9 3c 8f 60 22 bd e1 f3 fa 3a cb d3 33 bd
       0.02650193 -0.039642867 0.0019146168 -0.043903153
000230 be 06 ee bc d4 a3 de 3c 6f 65 5c bc dc d4 91 bc
       -0.02905595 0.027177729 -0.013451918 -0.017801695
000240 43 0d 10 bd 8b 9d 54 bb 47 72 24 3d 7c 36 0b 3d
       -0.035168897 -0.0032442536 0.040148046 0.033987507
000250 e5 aa 28 3a 34 87 39 3d 9a e5 ca 3c ea 52 24 bc
       0.00064341567 0.045294955 0.024767686 -0.010029534
000260 2e 20 a2 bc b1 81 a9 ba 6a c3 cc bc bf 4c 56 bc
       -0.019790735 -0.0012932328 -0.024995524 -0.013079821
000270 e7 c3 c9 bc ef 62 2f bd 9b cb aa 3b 52 d4 09 3d
       -0.024629546 -0.04281896 0.00521226 0.03364975
000280 cf 12 04 bd f0 3b df bc 6f e1 8d bc 6e bd 3a bc
       -0.0322445 -0.02725026 -0.01731941 -0.011397703
000290 c7 bf 44 3c 1b 4a 12 bb 54 5b 06 bc ec 70 ff bc
       0.012008614 -0.0022322002 -0.008200485 -0.031181775
0002a0 c3 15 db bc 51 3b 13 bc 75 16 eb 3c 2f 87 98 3c
       -0.026743775 -0.00898631 0.028697232 0.018619148
0002b0 75 b5 c5 bc 1b aa bd bc 3e 7f 0e 3d 66 18 8e 3b
       -0.024134377 -0.023152402 0.034789316 0.0043364046
0002c0 39 13 e7 bc bc 71 75 3c 41 1e 78 bc 32 93 9c 39
       -0.028207408 0.01498073 -0.015143932 0.00029864308
0002d0 df f6 ce ba 99 0d ff bc e4 28 1f bd 60 31 ca bc
       -0.0015790126 -0.031134414 -0.038857356 -0.024681747
0002e0 52 02 21 bc c1 bb 70 bc 77 23 8a 3c 75 5f 9f 3c
       -0.009827213 -0.0146932015 0.016862614 0.019454697
0002f0 51 59 f6 3c 7d 93 c7 bc 90 f3 80 bc 7e 3e cb ba
       0.030071886 -0.02436232 -0.01574114 -0.0015506295
000300 1d c3 0e bd 38 7b ae bc 09 f0 b3 bc f1 16 c4 bb
       -0.034854043 -0.02129899 -0.021965044 -0.00598418
000310 b2 02 b0 3c c1 04 1c bc 9e 6d 98 3c 94 f4 a3 3b
       0.02148566 -0.009522618 0.018606957 0.005003521
000320 47 e3 a1 3c 62 a6 e6 3b c1 ff 05 bd df 55 59 3c
       0.019761695 0.0070388773 -0.03271461 0.013265102
000330 e4 13 57 bd 92 27 23 bd 1b f8 04 3d 5e 03 1d 3d
       -0.052509204 -0.03983266 0.032463174 0.03833329
000340 fc 36 c4 3c bd b7 ca 3c b1 66 9a bc 16 a0 04 bd
       0.023952 0.024745816 -0.018847795 -0.032379232
000350 3f 3f d5 bc fb f9 66 bc e7 1f 17 bc dd e4 d7 3c
       -0.026031135 -0.014097686 -0.009223915 0.026354248
000360 f3 67 c3 3b 8a 90 c5 3b c2 6b 8e 3c 83 a6 39 3c
       0.0059633194 0.0060291933 0.017385367 0.011331203
000370 ca a9 91 3c e6 12 60 bc 21 1a d5 bb 0d 7c 6e 3c
       0.017781157 -0.013676381 -0.006503359 0.014555943
000380 2a 45 35 bc da e8 c7 3c 49 af fe bc a7 e7 a1 bc
       -0.011063853 0.024403024 -0.031089442 -0.01976378
000390 5d 16 0b 3d 19 ca 2c 3d 63 35 1a 3d de 38 87 bc
       0.033956874 0.042184923 0.03764857 -0.016506609
0003a0 6c d7 82 bc 76 6b 2b 3d 3c 64 8a bc cb 3b 91 3c
       -0.015971862 0.04185053 -0.016893499 0.017728707
0003b0 79 b6 01 3d 3a 3a a9 3c a9 77 73 3c 8f eb be 3c
       0.03166816 0.020657647 0.014860072 0.023305682
0003c0 88 b2 b7 3c 82 24 19 bd 90 a7 06 3d 8e a5 88 3c
       0.022423998 -0.037388332 0.032874644 0.016680505
0003d0 03 8a c5 3b 89 5b 9c bc 54 ba 10 bd 07 67 bf 3c
       0.006028415 -0.019086616 -0.035333946 0.023364557
0003e0 cb 1e 99 b8 2c f7 ab 3b bf 74 0b 3d 07 23 82 3c
       -7.301344e-05 0.005247971 0.034046885 0.015885843
0003f0 e6 12 43 bb e3 4f 09 bd 50 92 12 bd 4f df 30 3c
       -0.0029765903 -0.03352345 -0.035784066 0.010795428

encoder.block2.block.0.bias f4 [32]
000000 b6 4e d3 3b 70 4a bd 3c 00 0d 69 3b bf ff bd bc
       0.006448592 0.023106784 0.0035560727 -0.023193238
000010 f8 87 6e 3b b4 3a 28 bd 11 24 3a 3e 76 cf 9d 3d
       0.0036396962 -0.04107161 0.1817782 0.07705586
000020 a3 7f 76 3b 62 8f 46 3b 99 b2 83 3d 85 7d 3f bc
       0.0037612699 0.0030297865 0.06430549 -0.011687641
000030 a3 15 51 bd 17 1e 76 3d 33 ff 53 3d cc b7 c6 3d
       -0.051046025 0.06008729 0.05175705 0.09703025
000040 97 69 5b bd f4 f0 2f 3d a3 a7 99 3d ca 55 03 bd
       -0.053567495 0.0429544 0.07502677 -0.032064237
000050 0d 98 ed ba f5 7d db ba d7 e5 30 3c c7 e5 49 bd
       -0.001812698 -0.0016745912 0.010796986 -0.0492914
000060 00 cd 12 3d 75 76 81 bc d1 f4 39 3d 10 72 02 3d
       0.035840034 -0.015803555 0.04539949 0.03184706
000070 6a 80 9a bc b1 ba 0e 3d 99 54 a5 ba c0 4e 54 bd
       -0.01886006 0.03484601 -0.0012613713 -0.051832914

encoder.block2.block.2.weight f4 [32]
000000 d3 ca 78 3f 50 d1 77 3f f0 85 76 3f d4 2b 79 3f
       0.97184485 0.9680376 0.9629812 0.973325
000010 48 52 78 3f 94 2f 78 3f 37 b4 78 3f b1 cc 77 3f
       0.9700055 0.969476 0.97149986 0.9679671
000020 0a 39 79 3f 38 f4 78 3f 86 68 78 3f 5e 7c 7a 3f
       0.9735266 0.9724765 0.9703449 0.9784602
000030 1b 1f 78 3f 34 a0 79 3f c7 d2 77 3f 53 a7 77 3f
       0.96922463 0.97510076 0.96805996 0.9673969
000040 45 05 7a 3f 1f 99 7a 3f e0 42 78 3f 0e 68 79 3f
       0.9766429 0.97889894 0.96977043 0.974244
000050 4b 9f 75 3f 58 68 77 3f 26 9d 79 3f b1 1d 79 3f
       0.95946187 0.9664359 0.97505414 0.9731093
000060 e4 44 79 3f d9 a6 78 3f dd ab 78 3f 71 a3 78 3f
       0.97370744 0.9712959 0.9713724 0.9712439
000070 db 6e 7a 3f 77 01 76 3f 0b 9d 79 3f 2b 62 79 3f
       0.978254 0.96095985 0.97505254 0.9741542

encoder.block2.block.2.bias f4 [32]
000000 e0 35 8f bb 8b 94 0c bc f6 9e 54 3b 67 4c 9e 3b
       -0.004370436 -0.008580337 0.003244338 0.004830885
000010 72 ed 65 b9 9d ea fc bb d6 09 98 38 b6 8e ea ba
       -0.00021927597 -0.007718398 7.249757e-05 -0.0017895314
000020 54 31 60 bb af 2f d1 ba 98 92 13 bb 85 f0 be bb
       -0.003420909 -0.0015959645 -0.0022517797 -0.005827012
000030 d9 26 91 3b 88 f9 85 bb 8d 2d c8 3a 0c 21 40 3b
       0.00442968 -0.0040885843 0.0015272364 0.0029316572
000040 46 d0 9c 3a 5f 32 2d 3b 68 d5 84 3b 27 ca 90 bb
       0.0011963926 0.0026427729 0.0040537603 -0.0044186297
000050 db 18 02 3c 82 37 bf bb f4 42 b8 3b 93 d1 f0 b9
       0.007940496 -0.0058354745 0.005623216 -0.00045932512
000060 eb 44 fb ba 2d 7c ad bb 1a e8 09 bb 81 a2 a2 3b
       -0.001917032 -0.005294344 -0.0021042884 0.0049632196
000070 17 15 b2 bb 65 87 97 bb 2b 51 87 bb 69 d6 c8 3b
       -0.005434643 -0.0046242946 -0.004129549 0.0061290753

encoder.block2.block.2.running_mean f4 [32]
000000 82 2d 30 3e 52 93 84 3e 61 68 7f 3e 4f e4 af 3d
       0.1720486 0.25893646 0.24942161 0.08588468
000010 c5 75 f8 3d 82 84 f9 3d a0 10 f2 3e 74 0e b8 3e
       0.12131838 0.12183477 0.4727831 0.35948527
000020 b0 4c ff 3d 99 5e 5f 3e cc 1c a2 3e be 9f 99 3d
       0.12465799 0.2181343 0.31662595 0.075011715
000030 55 ef c4 3d 4f 34 87 3e a6 d0 8d 3e 4e f4 88 3e
       0.096159615 0.26407096 0.2769825 0.2674889
000040 b4 91 81 3d 51 c1 3d 3e 5b ba c8 3e ed 2f ad 3d
       0.06326619 0.18530776 0.39204678 0.08456407
000050 a3 0c eb 3d 6a 1c 8a 3d 9d 5b 61 3e 6a 36 b7 3d
       0.1147702 0.06743701 0.22007604 0.089459255
000060 c5 3b 4a 3e 35 c1 26 3e 3f 20 6a 3e 3f a0 5f 3e
       0.19749363 0.1628464 0.22863863 0.21838473
000070 69 ac 71 3e 86 47 e3 3e c2 05 20 3e 78 58 82 3d
       0.23600926 0.44390506 0.15627196 0.0636453

encoder.block2.block.2.running_var f4 [32]
000000 87 00 ea 3f 9f db 89 3f e4 de 4f 3f 0e 37 4d 3f
       1.8281411 1.0770148 0.8119948 0.8016213
000010 0b 52 b7 3f 32 61 8b 3f 9c 44 e7 3f d6 92 a7 3f
       1.4321913 1.0889037 1.8067813 1.3091686
000020 89 5e ad 3f 8b 3d d9 3f fc 49 ba 3f e4 f0 51 3f
       1.3544475 1.6971906 1.4553828 0.82008195
000030 53 eb 8e 3f 07 fa b3 3f 28 c7 41 3f 88 95 c0 3f
       1.1165565 1.4060677 0.75694513 1.5045633
000040 8d a8 3e 3f 7b 61 6f 3f ee 3c 9a 3f 36 4b 73 3f
       0.7447594 0.9350812 1.2049844 0.9503664
000050 c7 17 35 3e 6e 2b 62 3f 16 b5 6f 3f 66 4a 5d 3f
       0.17684852 0.8834752 0.9363569 0.8644165
000060 d7 c4 93 3f 3b 3a b7 3f 44 22 85 3f f8 21 bb 3f
       1.1544446 1.4314646 1.0401082 1.4619741
000070 92 51 6a 3f c2 21 fa 3f d9 86 fb 3f 10 ee 21 3f
       0.91530716 1.9541552 1.9650527 0.6325388

encoder.final.block.0.weight f4 [3, 100, 3, 3]
000000 ab 66 42 3c 33 2b 56 bb 89 92 91 3c 17 a4 b0 3b
       0.011865298 -0.0032679557 0.017770069 0.005390655
000010 d9 ed 4c bc c5 f9 ed bc da bc 37 3c 9a f6 00 3d
       -0.012507879 -0.029049763 0.011214459 0.031485178
000020 63 0b 3c 3b 68 5f aa 3c 39 27 f5 3c 47 ff 38 3c
       0.002869331 0.020797446 0.02992593 0.011291332
000030 ba bf bf bc 56 8e d5 bc 52 ce 40 3c c9 b9 fc bc
       -0.023406852 -0.026068848 0.011767941 -0.030850308
000040 a6 cc a0 bc 60 2b 0a 38 58 48 5c 3c 14 c2 84 3b
       -0.019628834 3.294216e-05 0.0134449825 0.004051456
000050 01 20 94 3c 9e cf 65 3c 5a 85 72 bb 11 82 ad bc
       0.018081667 0.014026551 -0.0037005753 -0.021180185
000060 1e fb f9 3a e2 20 b7 3c b3 7a 9c 3c 8f 37 ca 3b
       0.0019072031 0.022354547 0.019101476 0.006171174
000070 23 21 88 3c 00 a7 a1 ba b5 8c 48 bc ce 7a 9d bb
       0.016617363 -0.0012333095 -0.012240578 -0.004805899
000080 92 13 d4 3c c5 f1 c0 3b 34 90 a3 bc a4 5c 92 3a
       0.025888238 0.005888196 -0.019966222 0.0011166525
000090 b3 5b ab 3b 0f 5c 07 bb f1 17 6a 3c e1 a3 b7 bc
       0.0052294373 -0.0020654236 0.014287935 -0.02241701
0000a0 d2 92 91 b9 f0 a9 c9 3a 94 5a 30 3b dc a2 9e bc
       -0.00027765945 0.0015385728 0.0026909458 -0.019364767
0000b0 25 60 be bb 4c 6e b9 3c 69 67 10 bb 0f d4 24 bc
       -0.005809801 0.022635601 -0.0022034294 -0.010060324
0000c0 b9 83 b5 3c 20 e7 44 3c 32 48 9e bc aa 85 d6 bb
       0.022157537 0.012017995 -0.019321535 -0.0065466957
0000d0 6e 96 a4 bc 66 8e a8 3b 9b 75 9b 3c 54 e9 6b 3c
       -0.020091262 0.0051439283 0.018976977 0.0143988915
0000e0 5f 03 95 3c ff 1e bc bc 82 3a d2 3c 47 93 88 b9
       0.018190084 -0.022963999 0.025662664 -0.00026049672
0000f0 ba 24 2f 3c ca 05 d9 bc 1d 48 60 ba 08 d9 f2 bc
       0.010689909 -0.026492018 -0.00085556676 -0.029644504
000100 e4 54 3c ba a1 8d 23 3b 06 e6 fd 3b 03 95 03 bc
       -0.00071842805 0.0024956244 0.007748368 -0.008031133
000110 77 af 9c 3b 0d d8 e7 bc b2 6a f0 bb 7e 3b 2c 3c
       0.004781659 -0.028301263 -0.007336938 0.010512231
000120 2d df 4b 3a 96 fa d0 3c 27 51 b9 ba 74 fd 6c 3c
       0.0007777091 0.025510114 -0.0014138565 0.014464725
000130 ac d8 4d 3c 87 0f ec 3b a7 42 91 bb 69 75 04 3c
       0.012563866 0.0072039994 -0.0044329944 0.008084633
000140 37 7a c7 bc d6 85 3b 3c f5 62 ca b9 46 e3 32 bc
       -0.024350269 0.011445483 -0.0003860217 -0.010918444
000150 a5 bd 45 3d de 53 b7 bc af 68 8f 3c a2 0d ea ba
       0.048276562 -0.022378858 0.017505972 -0.0017856846
000160 a4 98 d0 3a 74 f6 cc bc bc c7 40 bc 57 4d 22 3a
       0.0015914631 -0.025019862 -0.01176637 0.0006191334
000170 08 aa ab 3c ba a9 30 3c 37 d4 5d bc 28 6b f0 bb
       0.0209551 0.0107826535 -0.0135393655 -0.007336993
000180 4d e8 1f bc 41 a8 48 3c 6a 3c b1 bc d1 c3 26 3c
       -0.009759975 0.012247146 -0.021635253 0.010178522
000190 d5 6b ac bb e8 cc 10 3c f9 25 7c 3c d7 f4 be bc
       -0.005261878 0.008837916 0.015389913 -0.023310108
0001a0 de 59 eb 3b b1 d7 00 bc 08 79 f2 3c 14 27 94 bc
       0.007182344 -0.007863925 0.029598728 -0.01808504
0001b0 3c a4 2c 3d c7 5e 08 3d 33 bf 68 bc c6 60 3f 3b
       0.042148814 0.03329351 -0.014205742 0.0029201969
0001c0 cd 0d 88 3c 62 0f b2 3c e5 38 9d 3c cc 98 11 bc
       0.016608143 0.02173585 0.019192168 -0.008886527
0001d0 85 a5 aa 3c 0e 83 3f bb 81 c0 77 bc 21 05 20 3c
       0.020830879 -0.0029222402 -0.01512158 0.009766848
0001e0 7a a9 a2 bc 61 b9 52 3c f2 86 8d bc f1 45 c6 bb
       -0.019856203 0.012861581 -0.017276261 -0.006050818
0001f0 ad e0 ef 3b 84 fc 5d 3c e2 67 04 bc dd 62 6c 3b
       0.0073204846 0.013548974 -0.008081408 0.003606967
000200 09 bd 06 bb 39 ff 7b 3b d1 23 06 3a f5 1c 0f bc
       -0.002055945 0.0038451685 0.00051170314 -0.008734931
000210 32 1c 97 3c 4c dd e6 3b a3 17 bd 3c d3 cf 8c 3c
       0.018446062 0.0070454236 0.02308256 0.017188942
000220 e4 ff ae 3c 9d 3c 84 b9 43 c0 b1 bc 57 a9 fb 3c
       0.021362253 -0.00025222162 -0.021698123 0.030720396
000230 81 48 0b 3c 19 bb 97 3c 84 c0 fa bc 91 f6 35 3c
       0.008501173 0.018521832 -0.030609377 0.011106149
000240 58 d2 5a 3c 75 40 28 3c 0a 25 8c bc 64 74 1d bc
       0.013355814 0.010269274 -0.017107505 -0.009610269
000250 5c c8 1f 3c 07 88 a7 39 c7 9c 07 bd 19 21 f3 3c
       0.009752359 0.0003195407 -0.0331085 0.029678868
000260 a4 4e 27 3b d7 82 8b bc cb 75 f4 3c 58 50 ba bb
       0.0025529051 -0.017030163 0.029841324 -0.0056858473
000270 86 70 e1 bc 24 18 b7 3c 16 72 39 bb 71 1a bb bc
       -0.027519476 0.022350378 -0.002829676 -0.022839757
000280 ba 62 19 3c 11 ca 13 bc 08 7f 19 3c b8 eb ad ba
       0.009361917 -0.009020344 0.0093686655 -0.0013269102
000290 dc ca 46 3c e6 9d d2 3c ea 5e f6 3b d8 64 aa 3c
       0.012133326 0.025710057 0.007518639 0.02080004
0002a0 7f bf 7c bb 6d 96 9d bb 84 7b af bb ea a5 18 3d
       -0.003856629 -0.004809192 -0.0053553004 0.037267603
0002b0 b2 d5 27 bc f1 10 6e 3b 49 11 2b 3b 3e d4 64 bc
       -0.01024382 0.0036326016 0.0026102832 -0.013966618
0002c0 63 58 7a bc cc 6f ef bc 28 39 72 3b dd 37 53 3c
       -0.015279862 -0.029228114 0.0036960337 0.012891737
0002d0 f6 6e 39 3c c8 8a 63 3c 0c 4c 87 bc 05 18 83 bb
       0.011317959 0.0138880685 -0.016515754 -0.004000666
0002e0 15 c9 dd 3c 3f de 89 3c 17 00 e6 3a 50 13 e1 3c
       0.027073422 0.016829608 0.0017547634 0.02747503
0002f0 a0 6f 41 bb b8 df 4d bc c8 f0 c9 bc c0 78 68 3a
       -0.0029515997 -0.012565546 -0.024650946 0.0008868091
000300 6f 65 00 3c ef fe ce 3c 16 d8 4f bc 5d cb 8d 3a
       0.007836684 0.025268046 -0.012685796 0.0010818053
000310 28 8b ba 3c 8e f5 de 3c aa 27 cb 3b d9 ac 9c 3c
       0.022771433 0.027216699 0.0061997967 0.019125389
000320 46 63 8b 3a 29 7b b6 3b 67 08 e8 3b 2c 1f 91 bc
       0.0010634444 0.005568881 0.0070810798 -0.01771506
000330 19 2e 81 bc 55 4e 8a 3c 2b 96 5d 3c 68 99 ea bc
       -0.015769051 0.016883055 0.013524572 -0.028637603
000340 06 86 b0 3c 2d 99 b7 bc 10 26 48 bb a3 e7 e9 bc
       0.021548282 -0.022411907 -0.0030540265 -0.028552836
000350 73 f3 ea 3c 93 de f2 3a cd c9 05 bb 95 35 ef bb
       0.028680539 0.0018529467 -0.0020414472 -0.0073000886
000360 14 3c b5 bc 85 6f 9f 3c ea 0e cb 3b da 0a 6c bc
       -0.022123374 0.019462356 0.0061968463 -0.014406884
000370 85 c0 c0 3c 51 f0 af 3c 33 ad b5 bb d9 64 86 bc
       0.0235293 0.021476896 -0.0055443286 -0.01640551
000380 da 69 54 3b 5c a8 0f ba e0 a2 8c bb cd 99 f3 bc
       0.0032411725 -0.00054801046 -0.004291877 -0.029736424
000390 32 8c ac bc 9b c3 f6 bc 5b 23 d5 3c 2a f4 7e 3c
       -0.021062944 -0.030122569 0.026017835 0.015561143
0003a0 dd 6d 98 3c 91 44 2f bb 0d a6 a4 bc 0e 7a 5f bb
       0.018607074 -0.002674375 -0.02009871 -0.003409985
0003b0 69 cf 95 3b 50 c9 83 bc 27 94 05 3c 13 28 79 bc
       0.0045718444 -0.016087204 0.008152998 -0.015207308
0003c0 15 28 3a 3c 5e 9f 9d bc 35 65 ab bb 6d 22 3e bc
       0.011362095 -0.019241031 -0.0052305707 -0.011604887
0003d0 64 04 2a bc a2 8d 33 3c 20 ae 9b bc 55 52 bf bc
       -0.010377023 0.010959061 -0.019003928 -0.023354689
0003e0 9a 9c 22 bb 41 e5 93 bc 35 d1 48 3c ff c0 88 3c
       -0.002481258 -0.018053653 0.01225691 0.01669359
0003f0 42 77 87 3c 97 fb 01 bd 37 8e b3 3c 54 4c bf bc
       0.016536359 -0.031734075 0.0219184 -0.023351826

encoder.final.block.0.bias f4 [3]
000000 ca d1 78 bc 9e 55 21 3c 6a cd 86 3c
       -0.015186736 0.009847073 0.016455371

decoder.initial.block.0.weight f4 [32, 3, 3, 3]
000000 06 c3 52 3d 64 26 c0 bd ed 08 ba bd 24 ac 73 bd
       0.05145552 -0.093823224 -0.09083734 -0.059490338
000010 40 9c fb 3d a2 c5 d4 bd 1f bd 37 be 40 72 8f 3d
       0.12285662 -0.10389258 -0.17943238 0.07004213
000020 cf 5e 20 ba a7 4d ba bd dd 08 00 bd ca e7 82 3d
       -0.0006117643 -0.09096842 -0.031258453 0.063918665
000030 93 29 08 3c 4c 5c 24 3e 45 28 bb bd a1 7f 51 3e
       0.008310693 0.16050833 -0.0913854 0.20458843
000040 42 ad 1c bc d4 25 18 be 60 5a cd 3d 27 bc 0a 3e
       -0.009562792 -0.1485818 0.10027003 0.13548337
000050 5e 0c ee bc 39 f7 6e be b7 8e 64 3d 09 f9 2f 3e
       -0.029058632 -0.23336495 0.055800166 0.17184843
000060 5b f3 13 3e 3a 41 1d bd cc 95 01 be d3 4a 8d 3d
       0.14448301 -0.038392283 -0.12654799 0.06899037
000070 d6 ad 75 bd 6e 8a 05 be 37 3c fe 3d 73 3f 4a be
       -0.059980236 -0.13041088 0.12413829 -0.19750766
000080 ef 45 e1 3d 4b 9a db 3d bc 3e a0 3a 9a 87 49 3e
       0.10999667 0.107227884 0.0012225728 0.19680634
000090 f9 c4 43 bd 4f 26 fe 3d fa 73 e8 bd a7 91 43 3e
       -0.04779527 0.124096505 -0.11350246 0.1909853
0000a0 69 68 73 3d 31 8d 9e bb 4b a5 0a 3c 66 dc d2 bd
       0.059425745 -0.0048386087 0.0084622605 -0.10295944
0000b0 e6 01 a3 bd b2 83 d8 3d 69 0b 2f 3d 6a d2 5e bc
       -0.079593465 0.10571994 0.04273549 -0.013599971
0000c0 6f 2e da 3c e0 e8 20 3e dc 09 27 bd 23 44 07 3e
       0.02663347 0.15713835 -0.040780887 0.13209586
0000d0 23 45 03 be 09 c5 99 3d 97 c6 9f bd 83 c0 0e bc
       -0.12819342 0.075082846 -0.0780155 -0.008712891
0000e0 c9 10 9b bd 98 40 af 3c 9a 4c 34 be b7 98 d1 3c
       -0.07571561 0.021393105 -0.17607346 0.025585515
0000f0 6e 03 e8 bc ca 90 d0 3d 0b 98 cf bd 2a c0 6e 3b
       -0.028321948 0.10183866 -0.10136422 0.0036430457
000100 ef 41 0b 3d 4b b2 e3 3d 28 d0 91 bd 86 0c 87 ba
       0.033998426 0.11117991 -0.07119781 -0.0010303415
000110 1e ae d3 bd f1 64 94 bd a4 c0 49 be b8 a7 c2 3a
       -0.103359446 -0.072458155 -0.19702393 0.001485101
000120 1a a1 22 be 0c f8 4c 3e dd 69 a1 3d 4b d5 d5 bc
       -0.15881768 0.20016497 0.0788152 -0.026102683
000130 74 21 11 3e 78 1a bc bd 3d 6b 28 3d 0f aa d5 bd
       0.14172918 -0.09184736 0.041117895 -0.10432827
000140 d7 e8 0c 3e f9 9b 37 3e b9 5a b6 bd a7 69 a7 3d
       0.13760696 0.17930593 -0.08904023 0.081744485
000150 5d b2 4a 3e 41 3d a7 3d 7b 34 da bd 65 6e 2a 3e
       0.19794603 0.0816598 -0.10654541 0.16643675
000160 94 df c7 3d 74 85 dd bd 30 21 36 3d f0 0d 54 bd
       0.09759441 -0.1081647 0.044465244 -0.051771104
000170 67 bf 8f bd 40 f0 13 3e b9 7e c7 3d 66 33 40 3d
       -0.07018929 0.14447117 0.09740967 0.046924017
000180 5f 8d 2c 3e ed c6 0f 3e f9 71 84 3d e8 a4 18 3e
       0.16850804 0.14040728 0.06467051 0.14906657
000190 08 a7 4b 3e 5b 62 b5 3d 83 d4 ec bd 46 60 7f 3d
       0.19887936 0.088566504 -0.11563971 0.062347673
0001a0 54 4c aa bd c8 f4 aa 3d 47 ee 15 3d 5c 37 9f 3b
       -0.0831534 0.083474696 0.036604192 0.0048588943
0001b0 8f 7b a8 3d e9 61 54 3d f3 7e 95 bd 11 e5 26 bd
       0.08226692 0.051851187 -0.07299604 -0.0407458
0001c0 13 9d 85 3d 5c 7f f1 bd 3d b7 c1 3d 53 1b b3 3d
       0.065241 -0.1179187 0.09458778 0.08745446
0001d0 ee b5 fa bd 23 ee b2 bd d7 92 70 bd ba 24 92 3d
       -0.122417316 -0.08736827 -0.058733787 0.07135911
0001e0 a3 1b 29 be 90 4a 25 be 10 d3 23 3e 2d 67 8b bd
       -0.16514449 -0.16141725 0.15998483 -0.068067886
0001f0 c4 ff 4d bd aa ba 30 3d cc 2c 08 3c 7d 2f 04 3e
       -0.050292745 0.043146767 0.008311462 0.1290874
000200 e0 b6 d6 3b 41 38 8c bd 32 1d dc 3d e4 13 32 bd
       0.006552562 -0.06846667 0.10747756 -0.043476
000210 fd b8 e7 3d ab f5 2f be 7e e4 2c 3c 29 cf 20 be
       0.113145806 -0.17183559 0.010552524 -0.15704025
000220 a5 5d 12 3e d2 90 b6 bd 52 c6 54 be db 78 65 bc
       0.14293535 -0.08914341 -0.20778778 -0.014005865
000230 eb de 0a 3e 35 b5 e6 bc 7b ad 95 3d 32 95 18 3e
       0.13561599 -0.028162578 0.073084794 0.14900663
000240 ac 91 a5 bd 48 04 10 be 6f 6a 1d 3b ed a0 0e 3e
       -0.08084425 -0.14064133 0.0024019738 0.13928576
000250 82 91 72 3d 0e 54 14 3e 7a a0 25 3e 41 a9 8a bd
       0.0592208 0.1448519 0.16174498 -0.06770564
000260 14 dc 8e 3d 13 eb d7 3d f9 e6 cb 3d 92 07 49 3e
       0.0697557 0.10542884 0.09956164 0.19631794
000270 47 b8 42 3e ad 46 08 3b 84 a2 bb 3b 73 37 d2 bd
       0.19015609 0.002079408 0.0057261605 -0.10264482
000280 02 45 5f 3d 01 a7 0c 3d 25 87 d5 3c c8 3b ef ba
       0.05450917 0.034338955 0.026065418 -0.0018252069
000290 94 63 e9 3d d6 fe a9 bc 25 8f 37 3d 40 bf 24 3e
       0.11395946 -0.020751398 0.044814248 0.16088581
0002a0 57 b9 ed 3d 82 2c 15 be 55 fd 15 3e 6d f7 11 be
       0.116076164 -0.1456776 0.1464742 -0.14254542
0002b0 46 21 86 bd 5d 9d 0c bd a2 fc bb bd 67 ba cf bd
       -0.06549315 -0.03432976 -0.09179045 -0.10142975
0002c0 fc 87 54 bd ec 75 98 3d 7f 46 39 be 23 6c c1 bd
       -0.051887497 0.07444367 -0.18093298 -0.094444536
0002d0 6b b8 e2 3d 29 37 8e 3d b5 8f 88 bd 28 e4 85 3d
       0.11070331 0.06944115 -0.06668035 0.06537658
0002e0 dd 5b e4 3d 45 8e e1 b8 9c 46 15 be 44 7d d6 bc
       0.11150334 -0.00010755336 -0.14577717 -0.026182778
0002f0 ef f6 8e bd 49 ab b6 3d a4 f1 49 bc 26 d4 12 bd
       -0.069806926 0.08919389 -0.012325678 -0.03584685
000300 a6 c0 e9 bd 2c b4 d9 3d 9b da 05 3e 21 71 be 39
       -0.11413698 0.10630068 0.13071673 0.00036323912
000310 17 ea b8 bd 4d 1f d4 bd 83 78 46 3e 99 11 b4 3d
       -0.09029024 -0.10357533 0.19381909 0.08792419
000320 a3 c5 cc bc 93 5a 90 bd 48 0b 07 be ce b6 e1 bc
       -0.024996584 -0.07048526 -0.13187897 -0.027552988
000330 87 bb 10 3e 69 ea 31 be 51 38 13 bd 09 f4 fe 3d
       0.14134036 -0.17374577 -0.03594238 0.1244889
000340 2e 06 84 3d c4 2c 7d bd 75 22 2a 3d 00 95 dd 3a
       0.06446491 -0.06181027 0.041536767 0.0016905367
000350 13 3f 3b be f5 09 19 3d 1a ed 9e 3d 86 27 f0 bd
       -0.1828578 0.03736301 0.07760067 -0.117262885
000360 c2 aa 53 3e 79 32 24 be c0 0c 3f 3d 05 f9 aa 3d
       0.20670608 -0.16034879 0.04664302 0.08348278
000370 64 84 4e be 34 71 87 bd 59 66 32 3d b7 8a 82 bd
       -0.2016769 -0.06613389 0.043554638 -0.06374114
000380 f7 3a 24 be 7c 2b 0f 3e 56 14 d6 3d a1 ea 98 3d
       -0.16038118 0.13981432 0.104530975 0.07466627
000390 11 a4 e1 3d 0e ed d4 bd 88 a1 49 be 28 32 0e 3e
       0.11017621 -0.10396777 -0.19690526 0.1388632
0003a0 67 d5 aa 3d bd 26 da 3d 5e ca b3 3d a0 b3 77 3c
       0.083414845 0.1065192 0.08778833 0.0151185095
0003b0 fb 8c 49 bd 88 64 21 3e a9 b0 0f be 67 31 0e 3e
       -0.049206715 0.15761006 -0.14032234 0.13886033
0003c0 1e 13 7d bd b4 cd af bd c8 67 de 3d 52 71 e5 3d
       -0.06178581 -0.08584157 0.108596385 0.11203255
0003d0 15 09 47 3d 58 2b cd 3c b2 3d 61 bc 31 20 54 be
       0.048592646 0.025045082 -0.013747619 -0.20715405
0003e0 15 60 9d 3d a0 94 60 bc f6 6b ef 3d 7e 4d af 3d
       0.07684342 -0.01370731 0.11690514 0.08559702
0003f0 cc 41 74 3c 27 9b 1d be 2b e1 89 bd 54 dc 0c be
       0.014908265 -0.15391217 -0.067324005 -0.13755924

decoder.initial.block.0.bias f4 [32]
000000 be e8 8b 3d 15 4f a1 bd 65 a6 9f 3d 67 24 a1 3d
       0.068315014 -0.07876412 0.07795409 0.07868271
000010 0d 12 80 3d 8e e7 02 bd 4f d5 42 be f5 46 c3 bd
       0.06253443 -0.03195911 -0.19026683 -0.09535018
000020 a4 d7 18 be 4c 90 c2 3d 6f b2 00 3d 1a a0 2b 3e
       -0.1492601 0.09500179 0.031420168 0.16760293
000030 40 ed 7d 3b 33 16 16 be 49 db 43 be cc 46 9a 3c
       0.0038746148 -0.14656906 -0.1912662 0.018832587
000040 00 0f af 3b 7b a0 3f 3d ca 36 09 be 00 f0 07 bd
       0.0053423643 0.046783905 -0.13399807 -0.033187866
000050 1d 8a 12 bd be e0 01 bd 10 2d 29 be c7 6d 09 3e
       -0.035776246 -0.03170847 -0.16521096 0.13420783
000060 7b 57 4a 3e 2d 37 19 be c6 ba 14 be 83 b4 95 3d
       0.19759934 -0.14962454 -0.14524373 0.073098205
000070 c3 fd 57 3d ea 17 86 bc bc 3d 39 bd fd 23 e7 3d
       0.05273224 -0.016368825 -0.04522489 0.11286161
