models/long/DenseSteganoGAN/1/epoch_28.pth (torch, 353375 bytes, 58 tensors)

encoder.initial.block.0.weight f4 [32, 3, 3, 3]
000000 0b c4 76 3b 04 00 9e bd c2 da f7 3b 56 0e 53 be
       0.0037653472 -0.07714847 0.0075639198 -0.20610937
000010 fe 27 de 3d 9a 54 5b bd 70 98 9d 3d 19 fc 54 be
       0.10847472 -0.05354748 0.07695091 -0.20799293
000020 ad 57 6d 3d 2d 18 0f be 53 b8 b6 bb 32 12 8c bd
       0.057944942 -0.13974066 -0.0055761724 -0.06839408
000030 db 47 b1 3c ff f2 10 bd c3 84 1a be 14 6f 1e be
       0.021640709 -0.03538799 -0.15089707 -0.1547206
000040 45 b2 eb 3c 6e 82 3d be e0 77 73 bc 0d a9 69 bd
       0.028771529 -0.18506786 -0.014860123 -0.057045985
000050 33 23 cd 3b 90 b4 06 be d2 b7 d0 bd b9 aa 02 bd
       0.0062602996 -0.13154817 -0.10191311 -0.031901095
000060 96 33 f3 bd 62 cf d4 3b f9 88 97 3c ed f4 b4 bd
       -0.118750736 0.0064944485 0.01849793 -0.088357784
000070 fc 16 45 3d 38 ff 56 bc 13 f7 e1 bd c8 a3 8a bd
       0.048117623 -0.013122372 -0.11033454 -0.0676952
000080 49 98 29 bd 61 fe 90 3d 1c 67 9a bc 84 97 a0 bd
       -0.041404996 0.07079769 -0.018847995 -0.07841399
000090 90 79 d9 3d a2 db 59 be d8 4c a4 3d 90 de 1b be
       0.10618889 -0.2127519 0.08022469 -0.1522162
0000a0 19 2b c9 3d 78 06 02 ba 91 8e 22 be 37 85 51 bd
       0.09822673 -0.00049600704 -0.15874697 -0.051152434
0000b0 7d 6c b9 bc e2 34 7a bd 87 90 99 3d 36 72 e0 bd
       -0.022634739 -0.06108559 0.074982695 -0.10959284
0000c0 66 ca f3 3d 01 39 33 be a4 f3 43 bd ff 84 b3 3c
       0.11903839 -0.17502214 -0.047839776 0.021914003
0000d0 78 ec 56 bd dd e2 01 3d 9b 0e cb 3d d0 05 3f 3e
       -0.052471608 0.031710494 0.09914895 0.18654561
0000e0 35 d3 6e bc 03 37 15 3e 63 21 4c 3c a3 93 b9 3d
       -0.014576723 0.14571767 0.012459132 0.090613626
0000f0 39 24 f3 3b 40 aa 19 3e 34 7b 9a 3d b0 8e d2 bd
       0.0074200896 0.15006351 0.075430304 -0.10281122
000100 e7 6c 19 3e ff 49 5b 3e 65 64 82 bc 58 5c dc 3d
       0.14982949 0.21414946 -0.015917012 0.10759801
000110 4f eb 1a 3e 42 4b 07 3e 84 5b 6f bd 2a 39 19 3e
       0.15128826 0.13212302 -0.058436885 0.14963213
000120 a1 86 3a 3e c3 c3 ab bd 4e 58 93 bc 91 2c 05 3c
       0.1821542 -0.08386948 -0.017986443 0.008128301
000130 e7 df e2 3d 1a c5 07 3c 41 e6 d8 bd f9 b5 a9 3d
       0.11077862 0.008286739 -0.105907924 0.08286662
000140 25 49 7b 3d 75 66 c2 3d 42 85 99 bd c9 1a 1a 3e
       0.061349053 0.094921984 -0.0749612 0.1504928
000150 55 c5 6b bd 77 05 4a 3e b6 9f 5a 3d 66 88 9e bd
       -0.057561237 0.19728647 0.05337497 -0.0774086
000160 fd 20 82 3e 07 aa 4a bd 8f f4 33 3e 10 9d 19 3e
       0.25415793 -0.049478557 0.1757376 0.15001321
000170 fb f5 ce 3d ff 04 fb 3d fb 96 6b bd 87 2c 65 bd
       0.10105511 0.12256812 -0.057517033 -0.055950668
000180 b6 b3 43 3e 27 c6 46 3d 4b 4b 61 3c 3e 62 d5 3d
       0.19111523 0.048528817 0.013750861 0.10419129
000190 90 4a a5 3c 43 b9 e7 3c e1 1d 4d 3e 6c b4 04 3e
       0.020177156 0.028286582 0.20030929 0.1295945
0001a0 c2 35 53 3e 7d 19 21 3e 52 0d 02 be 4f d1 4e bc
       0.20625976 0.1573238 -0.12700394 -0.012623145
0001b0 19 5d aa bc 47 eb e6 bc b7 39 50 3d 19 65 3e 3e
       -0.020796346 -0.02818836 0.05083629 0.18593253
0001c0 d2 bb b8 bc ae 1f 8b 3c 46 64 4e 3d 44 36 05 bd
       -0.022550497 0.01698288 0.050388597 -0.032522455
0001d0 66 c9 d1 3d b4 f2 f0 3c 99 d6 48 3e 73 29 9d bb
       0.10243492 0.029412605 0.19613113 -0.004796201
0001e0 f5 78 45 bd 69 08 5c 3e 48 ba 27 3e cc c3 9d 3d
       -0.048211057 0.21487583 0.16379654 0.07703361
0001f0 4b 1b ae 3d b4 bb 06 3c be bf 0c 3e c3 f1 a5 bc
       0.085012995 0.008223463 0.13745019 -0.020256883
000200 0b 74 97 bd 86 1a 80 3d 0f 01 ba 3d 69 71 d4 3d
       -0.0739518 0.06255059 0.09082233 0.10373194
000210 c5 49 f9 3d 09 09 44 3d ef cf 34 3c b2 07 12 bd
       0.121722735 0.04786018 0.011035903 -0.03565187
000220 dd c7 dd bb 0b 83 fe bd 04 60 0c be 58 51 05 3d
       -0.0067682103 -0.12427338 -0.13708502 0.03254828
000230 57 91 2f 3d 46 bd 10 be 17 c3 26 be c0 71 85 3c
       0.042863216 -0.14134702 -0.16285358 0.016289592
000240 4c 3e 2a bd 89 b4 92 3d cd cd ce bc c6 00 85 3d
       -0.041563317 0.071633406 -0.025244618 0.06494288
000250 85 37 e3 3d a8 ee e4 bd a6 35 21 3e 8d 45 e0 bd
       0.11094574 -0.111783326 0.15743122 -0.10950766
000260 39 2d 6f bc 7e 7b 29 bd 7a 4e ff 3d a7 5b 02 be
       -0.014598184 -0.041377537 0.1246614 -0.12730275
000270 50 a6 ba bd e1 02 a0 bd ea a7 01 be 3f d5 95 bd
       -0.09113753 -0.07813049 -0.1266171 -0.07316064
000280 7b f1 b8 bc 9b bc df 3d b4 8f 05 be 15 fd 5c bc
       -0.022576084 0.109246455 -0.130431 -0.013488074
000290 00 13 d1 ba fb 09 87 3d bf c2 cb bd 21 8d 30 bd
       -0.0015951097 0.065937005 -0.09949254 -0.04310334
0002a0 c0 27 9c bd d6 f7 73 3d 5b 37 91 bd 7d c8 c4 3d
       -0.07624769 0.059562527 -0.07090636 0.096085526
0002b0 b9 05 2b be f7 1d 72 3d bb 2a b0 bd 7c 8b 97 bc
       -0.16701402 0.059110608 -0.086019 -0.018499129
0002c0 6a c1 73 bc 9e 9d 37 3d 52 49 2e be 69 3b 6e bc
       -0.0148776565 0.04482805 -0.17020157 -0.014540532
0002d0 0f 0d 1f 3d bd 23 0b 3d 5f 6d a5 bd 87 09 04 be
       0.038830813 0.03396963 -0.080775015 -0.1289426
0002e0 1d af 3d bd b1 48 40 bd c2 3d 65 bd cb 58 39 3d
       -0.04630958 -0.046944324 -0.0559671 0.045250695
0002f0 31 b3 c0 3b 99 b5 e9 3d ff 23 9e bd ec 56 75 bd
       0.0058807363 0.1141159 -0.077217095 -0.05989735
000300 d3 e7 26 be 8e d7 32 be d5 e3 8f 3d 13 93 08 bb
       -0.16299371 -0.1746504 0.070258774 -0.0020839616
000310 bf 79 29 3a 16 a0 9c 3d 1b 1d e3 3c 25 9e df bd
       0.000646498 0.076477215 0.02772384 -0.109188356
000320 8d a3 90 3d e8 3c 14 3e 81 6d ed 3d 99 51 26 bb
       0.07062445 0.14476359 0.11593152 -0.0025378226
000330 a1 a7 26 bd 09 8f b7 3d 85 eb e6 bd 8a b7 43 be
       -0.040687207 0.08962829 -0.112753905 -0.19112983
000340 63 3f 3c 3e 19 b1 e0 bc a0 c7 ae bd ae a1 5c bd
       0.18383555 -0.027428197 -0.08534169 -0.053865127
000350 02 e5 7c bd b1 a0 71 3d 8b 7a 9d bd c1 d9 7b ba
       -0.061741836 0.058991138 -0.07689389 -0.0009607338
000360 66 04 7f 3d 34 e0 95 3d 6e a5 1d bd 1b 05 37 bd
       0.062260054 0.07318154 -0.038487844 -0.044682603
000370 32 da 5d 3e 28 9d b9 bd eb 66 d6 bc 7f c3 59 3d
       0.21665266 -0.09063178 -0.026172122 0.053164955
000380 e3 3c 0f 3e 48 7b 3e 3d 28 ab 04 3e 41 90 3d 3e
       0.1398807 0.04650429 0.12955916 0.1851206
000390 48 45 c2 3d a0 9d 29 3e 87 1d 32 3e 20 73 f4 bd
       0.094858706 0.16564035 0.17394076 -0.11936021
0003a0 33 0c f3 3d 9a df a6 bd 14 bb c8 3c 57 bf 95 3d
       0.11867561 -0.08148117 0.024503268 0.07311886
0003b0 09 eb a9 bd a7 45 fb bd 36 08 0f be 17 27 ec 3d
       -0.082967825 -0.122691445 -0.13967976 0.11530893
0003c0 18 aa f7 3d c8 50 ea bd 0b a6 a2 3c 51 46 03 3d
       0.1209299 -0.11441189 0.019854566 0.03204948
0003d0 6f f9 d1 3d b2 af d8 bd 21 cb ef 3b 6f ed 14 3e
       0.10252654 -0.10580386 0.007317916 0.14543699
0003e0 8d c1 48 3e 1f 8f 55 3c 5f e3 1c 3e bb 24 ed 3d
       0.19605084 0.013034611 0.1532111 0.115792714
0003f0 74 32 80 bd 52 de 14 bd c2 d8 9f bc 19 a0 4b 3c
       -0.06259623 -0.036344834 -0.019512538 0.012428307

encoder.initial.block.0.bias f4 [32]
000000 b9 64 e6 bc ee f9 6e 3e 15 34 6c 3d be 70 64 bd
       -0.0281242 0.23337528 0.057666857 -0.05577158
000010 f2 27 a9 3c 06 88 41 be 0b 1d 72 3e 0f 6b 5c be
       0.02064893 -0.18899545 0.23643892 -0.21525215
000020 4e 8b 06 3e 59 f2 5f bd 8f b9 b9 3e cf 7b 7d be
       0.13139078 -0.05467448 0.36274382 -0.2475426
000030 65 60 37 be 3e ea 30 3d 2a 9e ee 3d ba 34 dc bb
       -0.17907865 0.04319214 0.11651261 -0.0067201527
000040 39 d9 4b 3d 07 a2 aa bd f4 41 03 be 23 7c 20 3c
       0.049767707 -0.083316855 -0.12818128 0.0097952215
000050 20 c4 2b be 0b 6a 23 be ef 7c 83 bc 5c 02 69 3e
       -0.16774035 -0.15958421 -0.016050784 0.22754806
000060 d0 ef c7 bd 68 10 5e be 81 d7 49 3e 68 05 12 3e
       -0.097625375 -0.21685946 0.19711114 0.14259875
000070 6a a2 60 3d e7 1b 0f be 63 69 1e be f7 b2 ae bd
       0.05484239 -0.13975488 -0.1546989 -0.085302286

encoder.initial.block.2.weight f4 [32]
000000 c8 a3 7a 3f 95 43 48 3f 64 d2 75 3f 77 3e 6c 3f
       0.9790616 0.7822812 0.96024156 0.92282814
000010 7e 34 6f 3f f8 6b 76 3f f0 1b 16 3f a0 93 81 3f
       0.9343947 0.962585 0.5863638 1.0123177
000020 d3 5b 60 3f dc e7 6d 3f ec ec 4d 3f 07 9b 75 3f
       0.8764011 0.92931914 0.8043964 0.9593968
000030 0f 0c 71 3f 79 38 73 3f 04 a6 6d 3f 14 00 78 3f
       0.94159025 0.95008045 0.92831445 0.9687512
000040 48 3e 6f 3f 16 ee 7c 3f f5 a3 6b 3f 56 a6 70 3f
       0.9345441 0.9880079 0.92047054 0.9400381
000050 8e 21 80 3f 3b b7 7d 3f 36 b3 77 3f e2 fb 44 3f
       1.001024 0.9910771 0.9675783 0.7694684
000060 ab 58 60 3f b8 2e 81 3f 71 5d 68 3f 5f 43 67 3f
       0.87635297 1.0092382 0.9076758 0.90337175
000070 0e d0 73 3f 8d ca 79 3f f0 b0 77 3f a3 38 74 3f
       0.9523934 0.9757469 0.9675436 0.9539892

encoder.initial.block.2.bias f4 [32]
000000 26 08 13 3c 17 89 84 bc 37 34 ce bb f9 07 15 3d
       0.008974111 -0.01617865 -0.0062928456 0.036384556
000010 7b e6 29 3d a0 0c 2a 3b e9 72 2c bd 1f f3 07 3c
       0.04147957 0.0025947466 -0.042101774 0.008297711
000020 61 e6 02 3a c2 c3 96 3c fa 24 01 bd 2e 07 1a bc
       0.00049934356 0.018403891 -0.031529404 -0.009401126
000030 40 c9 81 bb e9 fc c0 b9 61 58 4a 3d 78 c4 e9 3b
       -0.0039607584 -0.00036809527 0.04940069 0.0071340166
000040 bb 69 b1 3c a5 58 9d bc 4e 37 d4 3c ed 78 cb bc
       0.021656862 -0.019207308 0.025905278 -0.024837935
000050 3d 6a 1d bc 48 cc bb bc e6 dc 4e ba 24 28 5b 3c
       -0.009607849 -0.022924557 -0.0007891193 0.0133762695
000060 c4 63 20 3d 6b 3f 1a bd 57 b1 e5 3c d4 98 f7 3c
       0.039157644 -0.037658136 0.028038664 0.030224241
000070 e2 b9 bc 3c 32 da 2a bc f0 14 24 3d 69 9c e0 bb
       0.023037855 -0.010427998 0.04005903 -0.006854583

encoder.initial.block.2.running_mean f4 [32]
000000 0d 25 ba bb f3 87 20 3d 77 e2 42 3f f0 c8 29 3f
       -0.0056806863 0.03919215 0.7612681 0.6632223
000010 24 e5 18 3f 2a 16 9d bb b8 22 26 3d e3 23 50 bb
       0.5972464 -0.004793902 0.040560454 -0.0031759671
000020 28 be 09 3f fc 2c 2a 3f 10 5c 5e 3e be 65 79 bb
       0.5380578 0.6647489 0.21714807 -0.0038055028
000030 eb 56 a8 bb 81 a3 38 3f 8b 08 36 3f ba a0 23 3f
       -0.0051373146 0.7212449 0.71106786 0.63917124
000040 fe 32 2b 3f a1 da 78 bb 82 e5 3b bb 18 6e 49 3f
       0.6687468 -0.003797211 -0.0028670733 0.78683615
000050 26 63 3e bb 17 d6 93 bb 8e 0b 36 3f 92 8b 1d 3d
       -0.0029050796 -0.0045116055 0.7111138 0.038463183
000060 a6 62 22 3f e9 fb 81 bb 74 5e 3b 3f 6c e3 43 3f
       0.63431776 -0.0039667976 0.73191 0.76518893
000070 f0 9e 68 3f f9 17 4f bb dd 19 75 bb ca 55 ca bb
       0.9086752 -0.0031599982 -0.003739945 -0.0061747776

encoder.initial.block.2.running_var f4 [32]
000000 2d e9 e9 36 44 2a 55 3b c9 a6 e6 3d 09 86 ff 3d
       6.9710863e-06 0.0032526413 0.112622805 0.12476737
000010 e2 24 a5 3d 06 dd 0c 36 bd 90 5c 3b 59 fb b9 34
       0.080636755 2.0990278e-06 0.0033655607 3.4641815e-07
000020 48 ea 1b 3d 2b 0a 00 3e 0e 30 a0 3b c0 42 06 35
       0.038065225 0.12503879 0.004888541 5.0016024e-07
000030 8c be 34 36 4b 69 d4 3d 14 67 a3 3d e0 99 c4 3d
       2.6933003e-06 0.103716455 0.07978645 0.09599662
000040 c0 96 b3 3d ea 4b 0d 36 73 84 49 35 71 b0 17 3e
       0.08768988 2.1054825e-06 7.5071074e-07 0.14813401
000050 80 b7 c9 34 e7 43 05 36 c8 07 fe 3d 08 bc 4b 3b
       3.757268e-07 1.9858069e-06 0.12403828 0.0031087417
000060 32 a1 03 3e e2 4e 6c 35 4d 2c 8d 3d 1b 12 b8 3d
       0.1285446 8.803164e-07 0.06893215 0.08987828
000070 86 d8 30 3e d0 79 52 35 fa ac 9b 35 40 76 e3 36
       0.17270097 7.8408357e-07 1.1598743e-06 6.7788933e-06

encoder.block1.block.0.weight f4 [32, 33, 3, 3]
000000 97 f4 b6 bc 4e 49 70 3b 41 74 d0 bd d3 e2 9c bc
       -0.022333426 0.0036664787 -0.10178424 -0.019151127
000010 e8 ab 9a 3b c7 57 71 bd f2 f1 8a bd f1 b3 80 bc
       0.0047202 -0.0589216 -0.06784429 -0.015710803
000020 b6 c0 e1 3c bf 59 fe 3b 3d fa 13 3d c8 09 01 bc
       0.027557712 0.0077621634 0.036127318 -0.007875867
000030 2d a0 12 3d 61 89 0d 3d 0c 8f 0b bd 49 31 cc bb
       0.035797287 0.034554843 -0.034071967 -0.006231461
000040 af cb 44 b9 b8 da d5 bc a3 5e aa 3b 7d 91 6b 3d
       -0.00018767895 -0.02610527 0.00519927 0.057511795
000050 e5 c1 4b 3d 7c c6 b6 3c 81 ec e8 3b bc 35 e4 3c
       0.04974546 0.022311442 0.0071082716 0.027857654
000060 27 35 13 3d c9 46 b9 3d df 69 71 3d f2 e7 33 3d
       0.035939362 0.09046704 0.058938857 0.043922372
000070 26 18 e5 bc eb 32 c0 bc 4d 29 19 bd 5f 8e 2e 3d
       -0.027965616 -0.02346178 -0.037392903 0.042616244
000080 21 5c 70 3d 14 ea b3 3b 77 bb ee 3c 00 05 bb bc
       0.05868161 0.005490551 0.029142125 -0.022829533
000090 8c 27 96 bc 9b b2 59 3d 3b bd 1e 3c 61 4c 33 3d
       -0.018329404 0.053148847 0.009688671 0.043774012
0000a0 b5 4c 2b bc 43 fd 85 bb 19 86 2a bb 60 a7 32 bc
       -0.0104553 -0.004089029 -0.002601987 -0.010904163
0000b0 bb 7c 8b 3d 3b bf 2a bd aa a3 70 bd 36 3b 8e bc
       0.068109 -0.041686278 -0.058749832 -0.017362218
0000c0 dc 83 03 b7 57 11 c1 3c 45 b4 a3 bd dc 5f 6b 3b
       -7.838909e-06 0.023567839 -0.07993368 0.003591529
0000d0 f9 ec 32 bb ad 6f 58 bd 11 6f 3c bb aa 26 63 bd
       -0.0027301891 -0.052840877 -0.0028752724 -0.055456795
0000e0 76 ed 1e bd 54 68 65 3c d0 e8 21 bd 1f f9 45 bc
       -0.03880068 0.014001925 -0.039528668 -0.012083321
0000f0 78 d4 af bb c4 6d c1 3b b6 ff e0 bc f0 11 3f 3d
       -0.0053659044 0.0059029777 -0.027465682 0.046647966
000100 0d 5c d0 3c 5c 1b 12 3d 33 aa 14 3e 61 54 ff bc
       0.025434518 0.035670623 0.14518051 -0.031168165
000110 95 78 2a 3c 5e ff be bc fb cf 98 bd d7 d3 a0 3a
       0.010404726 -0.023315128 -0.07461544 0.0012270164
000120 7d ab c7 3c a8 81 e3 bc 72 87 9d 3c 13 3f 4f bd
       0.024373764 -0.027771786 0.019229624 -0.05059726
000130 26 84 0e 3d 81 26 34 3d eb aa ed 3c 02 f4 3e bd
       0.034793995 0.043982033 0.029012164 -0.046619423
000140 ba a9 c3 bc 5a ba 75 3c a9 7c 30 bc 4d ba 2f 3d
       -0.023884643 0.014998043 -0.010771909 0.04290228
000150 82 2e 06 3d ef c6 fa bc f2 b4 97 3d 16 d5 f7 3c
       0.032759197 -0.030612437 0.074075595 0.030252974
000160 50 4a 3b 3d 0b 3f 8c 3d a3 6d f0 bc db 0a f7 bc
       0.045725167 0.06847962 -0.029349154 -0.030156543
000170 83 15 41 3c 60 74 89 bc 5f be b4 39 75 c9 59 bc
       0.011784914 -0.016779125 0.00034474113 -0.01329266
000180 6d 87 1b bd ae 82 66 3c a0 32 ed bc b9 02 1d 3c
       -0.03797095 0.014069242 -0.028954804 0.009583169
000190 3c 4d 4b bd d4 64 1a bb 49 59 c4 3c a6 51 9f bc
       -0.049634203 -0.0023558633 0.023968356 -0.019448113
0001a0 df 41 34 3d 61 37 23 3d a0 50 da bc 39 34 39 3c
       0.044008132 0.039847735 -0.026649773 0.011303955
0001b0 c9 cf 0f 3d a7 a9 7e 3d 53 c4 18 3d e1 28 9a bd
       0.03511027 0.06217351 0.037296604 -0.07527328
0001c0 f8 bd 98 3c 4d 64 aa bc d7 93 1d bd 2f 75 99 3c
       0.018645272 -0.02079978 -0.03847107 0.018732635
0001d0 14 97 b4 bb 79 22 a5 3d 51 93 e9 3b 96 04 87 3b
       -0.005511174 0.08063216 0.007128157 0.0041204197
0001e0 d1 d6 a2 bc 3c d6 b0 3c 5a 7f 98 3c 4d 6a aa 3c
       -0.019877823 0.02158653 0.018615413 0.020802641
0001f0 50 0d 80 3c 87 f1 eb 3c 70 0c 64 bc ee 40 04 3c
       0.015631348 0.028801693 -0.013918981 0.008072121
000200 ee 07 53 3d f1 5f 8d 3c 2d fc 62 3d 51 e5 07 3d
       0.051521234 0.017257662 0.055416275 0.033177678
000210 71 6a 63 bc f2 79 9f 3c 5e 4b 84 3c 68 88 6b 3d
       -0.013880358 0.019467328 0.01614922 0.057503134
000220 2b 4a 87 3d fa 50 2d bc 85 02 2a 3d 84 ff 42 3d
       0.06605943 -0.010578388 0.04150631 0.04760696
000230 3a 13 a7 3d bb c7 eb 3c c9 d4 cf b9 1b 23 f4 3c
       0.08157964 0.028781762 -0.00039640654 0.029801896
000240 23 27 09 3d ad 79 bf 3d fe f5 3c 3d c4 92 96 3c
       0.03348459 0.0934938 0.046133034 0.01838053
000250 a5 41 90 3d ac 52 46 bd a4 c2 d2 3c e8 96 39 3d
       0.07043771 -0.048418686 0.025727578 0.04530993
000260 57 c1 fd bc 29 9c bb bc b0 d0 c8 bc e3 65 02 bd
       -0.03097598 -0.022901611 -0.024513572 -0.031835448
000270 3e 4e 19 ba 28 6d c1 ba ec 80 2d bc aa 13 f7 bc
       -0.0005848146 -0.0014757263 -0.010589819 -0.030160744
000280 9e 46 a4 bc 0e ee 70 bd 75 d3 64 bd 5d b8 8b bc
       -0.020053204 -0.058820777 -0.055865724 -0.017055685
000290 33 b9 e0 3c 8c 6b 66 bd ef 76 1e 3d c6 75 65 3b
       0.02743206 -0.05625491 0.038687643 0.0035012825
0002a0 3f 0c 82 bd 6b 32 f2 bc 23 c8 91 3c 7f 56 34 3c
       -0.06349992 -0.029565057 0.017795628 0.01100695
0002b0 3e 6f 48 3d b3 ad 55 3d 3e f3 4f 3d a4 fd a9 3c
       0.048934214 0.052167606 0.050769083 0.020750828
0002c0 fb a5 58 3d 3d 5b d6 3c e3 6b 46 bd 18 cb 0a 3b
       0.052892666 0.026166553 -0.048442733 0.0021178182
0002d0 78 30 4b bd de a3 71 3d 88 75 90 bd 50 c9 bf bc
       -0.04960677 0.058994167 -0.07053667 -0.023411423
0002e0 ea 8a 1b 3c a1 12 88 3d f9 bf a6 bd 81 fa 43 bd
       0.009493569 0.06644178 -0.08142085 -0.04784632
0002f0 1d cd eb 3c b1 49 71 3c f0 40 cc 3a 83 b3 ef 3c
       0.02878433 0.014727042 0.0015583318 0.029260403
000300 55 88 b6 bd a8 d8 98 bd 60 8d 0b bd 0e a6 29 3c
       -0.08912722 -0.07463199 -0.034070373 0.010354532
000310 dc b8 e2 ba 0c a9 39 bd 23 67 98 bb 7f 30 c1 3c
       -0.0017297524 -0.04532723 -0.0046509667 0.023582695
000320 7d 64 15 bc 3b 37 fa 3c fc 9a a7 3b 67 1c e5 3b
       -0.009118197 0.030543914 0.005114911 0.006991911
000330 1d f2 ae 3d 8f 4e 77 3d 77 6e 62 3d 7a 12 25 bd
       0.08542273 0.060377654 0.05528113 -0.040300824
000340 cd 52 75 bb 10 df 01 bd f5 b5 2d bd eb 70 42 bc
       -0.0037433386 -0.03170687 -0.042409856 -0.011867742
000350 c0 d0 06 bd 16 53 03 bd 78 19 ac bc 9f 5b dd bc
       -0.032913923 -0.03206166 -0.021008238 -0.027021227
000360 2f f3 a4 bc 36 32 96 ba 73 de da bb c1 80 1b 3b
       -0.02013549 -0.0011459056 -0.00667935 0.0023727866
000370 dd cb b5 3c ef 0c e0 3c 69 1f a1 bc a6 09 f4 bc
       0.022191936 0.027349917 -0.019668298 -0.029789757
000380 9b 36 2c 3d 55 5d f6 bc 09 49 61 3d 59 3d 0d bc
       0.042044263 -0.030073801 0.055001292 -0.008620583
000390 bc d1 f3 bb 3e c2 0d bd 90 4e e8 3c c5 ce 17 bd
       -0.007440774 -0.034609072 0.028357774 -0.037062425
0003a0 10 4d 89 bc 43 fc 1b 3c ce 5e 74 3d c3 1d 0a bd
       -0.01676038 0.009520593 0.059660725 -0.03371979
0003b0 16 be 16 3c 80 f2 1e 3d 56 a5 8a 3c 05 24 bf 3c
       0.009200593 0.038805485 0.016924541 0.023332605
0003c0 1c 0e 87 b9 66 c1 28 3d 73 d9 10 3c 33 2f 09 3d
       -0.0002575972 0.041200064 0.008840906 0.03349228
0003d0 1d 79 3d 3d f7 6a 13 bc d9 24 4b 3d 75 75 50 3a
       0.04625808 -0.00899767 0.049595688 0.0007952073
0003e0 b3 d2 2b 3d ae c3 2b 3c 81 8e a0 3c 87 13 75 bc
       0.041948985 0.010483665 0.019599201 -0.014958269
0003f0 7c 5a b1 3c 27 e9 1e 3c 10 7b 3b bb 9c d6 71 3d
       0.021649592 0.009699143 -0.0028607287 0.059042558

encoder.block1.block.0.bias f4 [32]
000000 cc f3 d5 bb fa 18 17 bc 35 c1 c8 bc c2 82 7b bc
       -0.006529307 -0.0092222635 -0.02450619 -0.015350999
000010 df fb ff 3c 67 1c ad bb 97 5e 0b 3d e9 3e 13 3d
       0.031248031 -0.005282927 0.034025755 0.035948668
000020 05 4d 1c 3d 60 87 fb bb 7d f4 b4 3c 62 c2 a7 bc
       0.03815939 -0.00767605 0.022089237 -0.020478431
000030 21 d8 ea 3b 77 80 c3 bc 2a 2d 07 3d 55 9d 21 3c
       0.007166878 -0.023864968 0.033002056 0.009864171
000040 32 ea a4 bc 24 11 fa 3c aa e4 5a bc e9 d2 a3 bc
       -0.020131204 0.030525751 -0.013360182 -0.01999803
000050 76 33 fc 3c 7b 40 37 3d 78 49 82 bc 3b b1 11 bd
       0.030786257 0.044739228 -0.015904173 -0.03556941
000060 a5 cf 4d 3d 8f 90 e9 bb d7 51 02 3d 9c 6b 44 3a
       0.050246853 -0.0071278284 0.03181633 0.00074928417
000070 f2 ae 5f 3d e8 c1 d2 3c 05 74 2f 3b 35 25 18 bc
       0.0546102 0.025727227 0.0026772034 -0.009286215

encoder.block1.block.2.weight f4 [32]
000000 48 2d 74 3f 1b 5d 70 3f de 0b 73 3f e9 42 6d 3f
       0.95381594 0.9389207 0.9493998 0.9268022
000010 5b c9 6e 3f aa c7 71 3f 0c 2f 74 3f 2d be 69 3f
       0.93275994 0.9444529 0.9538429 0.9130581
000020 29 46 71 3f fb 6a 62 3f bd 83 74 3f 9c af 6d 3f
       0.9424768 0.8844449 0.95513517 0.92846084
000030 ac 98 73 3f 12 ab 71 3f 65 97 71 3f c2 4e 72 3f
       0.95154834 0.9440166 0.94371635 0.94651425
000040 ee ba 6c 3f 6a 7b 68 3f 84 08 6b 3f e0 91 6e 3f
       0.9247273 0.90813315 0.9180987 0.9319134
000050 ab 25 66 3f 30 51 6f 3f e0 b6 74 3f 68 9b 6e 3f
       0.89901227 0.9348326 0.95591545 0.9320588
000060 28 08 74 3f 34 c2 75 3f 08 b2 73 3f 5c 16 6c 3f
       0.95324945 0.95999455 0.9519353 0.9222162
000070 da d7 73 3f 89 39 6d 3f 69 5a 6f 3f 69 bf 71 3f
       0.9525124 0.92665917 0.9349733 0.94432694

encoder.block1.block.2.bias f4 [32]
000000 6a 6d 0a 3d 3e c3 f1 bb e5 8a 90 3b f1 98 90 3c
       0.03379575 -0.007378011 0.004411089 0.017651053
000010 de a5 86 3c 5a 0f 2a 3d 53 2e c5 bb 67 13 c0 3b
       0.016436514 0.041518547 -0.006017485 0.005861688
000020 94 3b 50 3d 21 a1 55 3c f1 61 32 bc 2b 05 49 3d
       0.050838068 0.013038904 -0.010887609 0.049077194
000030 52 e4 93 bb e6 02 50 bb fd 6f a0 3b 35 00 d9 bb
       -0.004513302 -0.003174001 0.0048961625 -0.006622339
000040 b0 f2 35 3d b5 bf 60 bc 03 e4 60 bc 0e 7a 1a 3d
       0.044420898 -0.0137175815 -0.013726237 0.037714057
000050 c1 d5 cc 3b b4 1e d0 bb 76 23 d0 bc f0 f9 44 bb
       0.0062510674 -0.0063513163 -0.025407534 -0.00300562
000060 0c e6 07 3c b2 9b 39 3c b4 e2 a9 bb 87 4c dc bb
       0.008294594 0.011328625 -0.005184496 -0.00672299
000070 3b 8c 0e 3b 41 0d 2a 3c 2b 92 ef 3b c6 cb 0c 3c
       0.0021751064 0.010379137 0.0073111258 0.008593505

encoder.block1.block.2.running_mean f4 [32]
000000 4c c4 af 3f 76 40 b2 3f 31 af a7 3f 08 ba cf 3f
       1.373178 1.3925922 1.3100339 1.6228647
000010 bb 23 bf 3f 55 24 c4 3f 4d 2e b8 3f d6 34 c4 3f
       1.4932779 1.5323588 1.438913 1.5328624
000020 f8 ad 99 3f 96 25 a4 3f 5b f4 a6 3f d1 19 84 3f
       1.2006216 1.282397 1.3043321 1.0320379
000030 73 0d b5 3f 5b d4 ba 3f 8b bd a0 3f 05 ea 99 3f
       1.4144729 1.4596056 1.2557844 1.2024542
000040 81 3a b1 3f 1e eb 94 3f a4 2d ad 3f 87 78 aa 3f
       1.3845979 1.1634252 1.3529553 1.3318032
000050 f8 58 93 3f 2c 51 b2 3f 87 69 ba 3f 08 57 8a 3f
       1.1511526 1.3931022 1.4563454 1.080781
000060 a2 4c b1 3f 0e a8 b9 3f d7 3f a7 3f 30 28 a9 3f
       1.3851511 1.4504411 1.3066357 1.3215389
000070 db ec ac 3f a2 f4 af 3f cc 56 cd 3f ab fe c3 3f
       1.3509783 1.3746531 1.6042113 1.5312093

encoder.block1.block.2.running_var f4 [32]
000000 af 67 88 40 c2 1f 8b 40 d4 16 75 40 02 6e be 40
       4.2626567 4.3476267 3.8295183 5.9509287
000010 92 5a 9f 40 e7 4e a7 40 e6 a6 8a 40 d4 d9 a8 40
       4.979806 5.2283816 4.3328733 5.2765903
000020 6b a0 4c 40 62 99 6a 40 52 51 62 40 b7 1c 19 40
       3.1972911 3.6656117 3.5362134 2.3923776
000030 7f 8e 8d 40 31 12 98 40 26 80 62 40 61 ad 41 40
       4.4236445 4.7522206 3.5390716 3.0262072
000040 f1 40 82 40 0e 42 36 40 4b d0 81 40 63 7e 7e 40
       4.0704274 2.8477817 4.0566764 3.976464
000050 b6 8b 3e 40 c7 81 8b 40 81 ca 8c 40 bf 9d 1b 40
       2.9772773 4.359592 4.3997197 2.431503
000060 6b d4 7d 40 34 a3 98 40 49 d6 66 40 49 17 6a 40
       3.96609 4.7699223 3.606829 3.6576712
000070 6b 6c 74 40 88 b7 87 40 35 16 b8 40 f4 a1 9d 40
       3.8191173 4.2411537 5.752711 4.9260197

encoder.block2.block.0.weight f4 [32, 65, 3, 3]
000000 80 b8 93 3b 19 30 a4 3c db 2a 70 bb f5 ea 0c 3d
       0.004508078 0.020042466 -0.0036646638 0.03440376
000010 d0 b6 8f bc 42 89 20 3d dc 92 94 3c a7 c0 5d 3d
       -0.017543226 0.0391934 0.018136434 0.054138806
000020 33 e5 4e bc b9 15 9b bb 61 3a 22 3d 89 fc 94 3c
       -0.012627888 -0.004732814 0.039606456 0.018186824
000030 7d 0b 9a 3b 54 ae de 3b c1 92 59 3b 78 93 db 3c
       0.0047010765 0.006795684 0.0033199044 0.026803717
000040 8c 51 0b 3c 86 78 20 3c 6c a2 18 bc f7 e4 ad bc
       0.008503329 0.00979436 -0.009316068 -0.021227343
000050 9a 4c e9 3c 7b b4 67 3c 52 72 c8 bb 0b 6d cd bc
       0.02847891 0.014142151 -0.0061171437 -0.02507641
000060 98 1d 03 3c 9a e9 73 bb 8b 0b 24 bd d8 01 db 3c
       0.008002661 -0.0037218095 -0.04005007 0.026734278
000070 ed d9 00 bb 89 b5 78 bd 3a 27 86 bb e7 a5 69 3c
       -0.0019661144 -0.06072 -0.0040940316 0.014260746
000080 69 b0 86 3c 76 84 b6 3c 1b 69 b4 bc e0 c2 34 bd
       0.01644154 0.02227996 -0.022022774 -0.04413116
000090 13 eb 2e bd e4 3b 5e bd 17 58 55 bd 6d ef ae 3c
       -0.042704653 -0.054256335 -0.052085962 0.021354401
0000a0 63 06 38 3b 95 dd 06 bd 65 06 71 3c 33 54 52 bd
       0.0028079979 -0.03292616 0.014710997 -0.05134983
0000b0 6e 23 0b 3c 7c 13 8d bc 10 0a a0 3c 41 25 43 3c
       0.008492334 -0.017221205 0.019536048 0.0119107375
0000c0 d1 3b 6e 3d ee c3 66 bc 5e 8d f0 3c 8f 6a 1e bb
       0.058162514 -0.014084799 0.029364284 -0.00241724
0000d0 12 94 a4 39 4a 7e b8 3c ed 19 3f 3a 59 20 72 3c
       0.0003139084 0.022521157 0.0007289935 0.01477822
0000e0 68 87 c9 3c 68 d4 47 bc 82 32 82 3c b9 9e 27 3d
       0.0246007 -0.012196638 0.015893225 0.040922854
0000f0 d0 db 5d bc 04 cd af 3c b5 35 6d bc d9 9d 0a bd
       -0.013541177 0.021460064 -0.014478137 -0.03384194
000100 18 a8 d0 3b 04 f8 64 bc af a8 49 3d 07 5c c7 3c
       0.0063676946 -0.013975147 0.049233135 0.024335874
000110 e7 7d 0d 3d b8 ef 2b 3c 37 8f 07 3d d1 3e 31 3d
       0.034543898 0.010494165 0.033095565 0.043272797
000120 b1 d3 95 3c 16 12 33 bd a6 09 9a bb 06 5a b0 3c
       0.018289419 -0.04371842 -0.004700857 0.021527302
000130 bf 9d 55 bd b1 b4 a0 bc 87 16 17 bd 12 e4 a6 3c
       -0.05215239 -0.01961741 -0.036886718 0.020372424
000140 4a b3 79 bc ee 52 1e bd bb 24 c6 ba 45 13 2a bc
       -0.0152405 -0.038653307 -0.0015117148 -0.010380571
000150 4f 9a 75 bd f8 93 65 bb 9b 3d 2f bd 05 ba 73 bc
       -0.059961613 -0.0035030823 -0.04278336 -0.0148758935
000160 ce c1 a5 3c 2d f1 ac bb 0e a1 f3 3c 57 03 3e 3d
       0.020234015 -0.005277774 0.029739883 0.046389904
000170 96 14 59 3c 26 5b 54 3c c2 75 48 3c 1d ef a0 bc
       0.013249537 0.012961185 0.012235107 -0.019645268
000180 2e 2c eb 3c 12 40 2d 3b 16 6e 03 3d 81 13 67 3d
       0.02870759 0.0026435894 0.032087408 0.056415085
000190 15 9f 02 bc 09 58 26 3d 16 77 eb 3c e2 30 31 3d
       -0.007972498 0.0406113 0.028743308 0.04325951
0001a0 a1 ea c2 bc cf 0d 8a 3c 89 c8 19 3b e1 c5 7d bc
       -0.02379352 0.016852288 0.0023465476 -0.015489073
0001b0 a0 4b c1 3b 73 33 b4 bc f4 2c 2f 3d 6b de 44 3d
       0.005898908 -0.02199719 0.04276748 0.048063677
0001c0 03 05 da bc 96 85 14 3d b3 a4 1b 3d d1 4f 40 bb
       -0.026613718 0.03626021 0.037998866 -0.002934445
0001d0 e5 53 51 bd f2 b5 e7 bc 62 51 12 bd 9c 47 98 3c
       -0.0511054 -0.028285 -0.035722144 0.018588834
0001e0 64 93 2a bd 46 3c 39 3c 29 ca 03 bd fc a7 1c bd
       -0.04164447 0.011305874 -0.032175217 -0.03824614
0001f0 e3 8b 0a 3c 9f 27 3f bd d5 78 ba 3b 2a df 43 bd
       0.008456203 -0.046668645 0.005690674 -0.047820248
000200 27 07 f3 3c ca 6b 29 bd bb 88 6e bd d9 6a 4a 3c
       0.029666496 -0.04136256 -0.058235865 0.012354576
000210 99 14 01 bc a5 73 a6 bc c0 2b 1a bd 83 47 cf bc
       -0.007878446 -0.020318815 -0.03763938 -0.025302654
000220 f5 a2 50 bb e4 a5 e9 3b 79 ad 5d bd 74 87 9c 3b
       -0.0031835411 0.0071303714 -0.054120515 0.0047768895
000230 2a c5 fb bc f3 49 38 bd 4b 14 c4 bc 0e be 08 bd
       -0.030733664 -0.0449924 -0.023935458 -0.033384375
000240 26 76 22 3d af 89 bd bc 9b 6b 04 bd 98 e8 c0 3a
       0.039663456 -0.023136942 -0.032329183 0.0014717756
000250 95 63 35 bd 6b f0 63 3c c9 be 5a 3c d3 cf 0b bc
       -0.044284422 0.013912301 0.013351151 -0.008533436
000260 04 01 ca bc 1d 37 2d 3b fe 42 5e 3c 93 0c a0 3c
       -0.024658687 0.0026430555 0.013565777 0.019537246
000270 f9 b2 4b 3d e1 7f 8c 3d f6 99 9c 3d c9 95 44 3c
       0.04973123 0.068603285 0.07646553 0.011998602
000280 4b d7 21 bc 8c 12 e0 3c 12 8a 31 bd f4 a3 75 bc
       -0.00987799 0.027352594 -0.043344565 -0.014992703
000290 ab 91 0f bb a1 a9 0a 3c 2b c1 91 3c f7 db 6e 3c
       -0.0021906893 0.008463294 0.017792305 0.014578811
0002a0 73 85 9f 3b e6 a7 e7 3c 42 dd 16 bc 6d 86 5a 3b
       0.0048682033 0.028278302 -0.009208025 0.0033344284
0002b0 c1 72 46 bd 99 54 29 bd 00 34 49 bd f2 ea 05 3b
       -0.04844928 -0.041340444 -0.049121857 0.0020434228
0002c0 ea 49 83 bc 6c 9a 26 bc 8f 5e b5 3c f6 ba 78 bc
       -0.016026456 -0.010168653 0.022139816 -0.015181294
0002d0 ae 77 1b bd 33 aa d4 bb 56 25 b5 bc a0 a4 5a 3d
       -0.037955932 -0.006490016 -0.02211253 0.053379655
0002e0 d2 9c 7d bd 1b 7a ff 3c c3 af 90 3c dc 07 87 3c
       -0.061917134 0.031186154 0.017661935 0.01648324
0002f0 8d b7 e2 bc b2 6a dc 3c f9 97 6c 3d 0a 2f a8 3c
       -0.027675414 0.026906345 0.05776212 0.020530242
000300 3e 6d 12 bb 2a 92 0b 3d c9 6f 6b 3c ec 08 2f 3d
       -0.0022342945 0.03407494 0.014369913 0.042733118
000310 34 e7 c9 3c 40 93 b5 bc d5 51 8d bb 08 7c 04 3d
       0.024646379 -0.02216494 -0.0043127337 0.032344848
000320 a1 cc 96 bc 5c cf 14 bc 65 bb 4a bc c4 79 07 bc
       -0.018408122 -0.009082641 -0.01237378 -0.008268777
000330 d2 cc b4 3a c0 26 9b bc 47 ab 16 3c 86 91 1a bc
       0.0013793951 -0.018939376 0.009196109 -0.00943411
000340 53 54 13 3d 46 64 e9 3c 1b 73 cc 3c ef 97 5e bc
       0.03596909 0.028490197 0.02495723 -0.0135860285
000350 51 f1 91 3c 0c 22 5e bc e1 ee f5 3c c9 41 3d 3d
       0.017815264 -0.013557922 0.030021133 0.046205316
000360 8f 4c b4 bc 8c d7 a7 3c 55 de 09 3c 89 31 9b 3c
       -0.022009162 0.020488523 0.0084148245 0.018944519
000370 80 79 a5 bc a3 c8 60 3c a2 be 87 bc f0 72 31 bd
       -0.020199537 0.0137197105 -0.016570393 -0.043322504
000380 cd 2a 80 3c 17 77 74 3c 8e 25 bb ba a1 a1 b3 3c
       0.015645409 0.014920971 -0.001427816 0.021927657
000390 7a db 35 bc 97 83 05 bd 4b 15 d2 3d 19 9c a1 bc
       -0.011099691 -0.032596197 0.102579676 -0.019727753
0003a0 6e ed 3a 3d f3 b9 b2 3c 55 85 b0 bb 56 15 5a bd
       0.045636587 0.021817183 -0.005386988 -0.053243004
0003b0 02 94 e1 3c 54 89 39 3c 05 28 82 bd 9e b5 b3 39
       0.027536396 0.0113242455 -0.06355289 0.00034276856
0003c0 b4 d9 79 bc 68 c4 00 bc b0 c6 01 bd b9 cc 17 bc
       -0.015249658 -0.007859327 -0.031683624 -0.009265118
0003d0 61 74 a4 bc 7e 53 44 bb 24 c1 7f bc df a0 6d 3c
       -0.020075025 -0.0029956992 -0.015610013 0.014503687
0003e0 6a 2d 82 3b e7 f9 88 bc 69 22 0c bd 84 6e 02 bd
       0.003972699 -0.016720725 -0.034212504 -0.031843677
0003f0 a1 41 12 bd 5e fe 40 bd e9 72 4d bc fc 98 3b bc
       -0.03570712 -0.047117583 -0.012539604 -0.011450049

encoder.block2.block.0.bias f4 [32]
000000 b6 80 25 3d 5a 8e 12 3c 27 47 5b 3d f8 1e 46 3d
       0.04040595 0.008945072 0.053534653 0.048369378
000010 63 fb 81 3d f5 f5 9e 3a ad 5b 52 3d 1c 10 68 3c
       0.06346776 0.0012127744 0.05135696 0.014163997
000020 a5 69 c2 3d 97 51 5d 3d 98 55 0d 3d 02 b9 00 3b
       0.09492806 0.05403289 0.034505457 0.0019641523
000030 93 1d 90 3d f7 38 d4 3c 0e ba a6 3c 66 24 b1 3c
       0.07036891 0.02590607 0.02035239 0.021623801
000040 43 10 02 3c bb bd fa 3c f2 de 95 3d 68 f4 0e 3d
       0.007938447 0.030608049 0.07317914 0.034901053
000050 72 07 ac 3c f7 5a f7 bb cb 7f ce 3d 2d 10 18 3d
       0.020999644 -0.0075486857 0.10082968 0.0371248
000060 9b 34 22 bb d7 75 a1 3b 9b 66 ce bb 73 7f 0b 3d
       -0.0024750594 0.0049273777 -0.0062988526 0.034057092
000070 23 38 32 3d c3 a5 23 bc 79 fb 42 3d 61 21 f1 3c
       0.043510567 -0.009988251 0.047603104 0.029434862

encoder.block2.block.2.weight f4 [32]
000000 a8 7c 75 3f 5b 66 74 3f d4 b7 73 3f 9a f1 6f 3f
       0.95893335 0.9546868 0.95202374 0.9372803
000010 31 1f 71 3f 9a 8b 74 3f 8a 94 73 3f 8b 71 76 3f
       0.9418822 0.95525515 0.9514853 0.96267
000020 5c c7 69 3f e5 dd 68 3f 23 43 74 3f 60 6e 70 3f
       0.91319823 0.90963584 0.9541494 0.9391842
000030 ae d2 72 3f a8 24 75 3f c5 79 75 3f d4 ce 73 3f
       0.9485272 0.9575906 0.9588893 0.9523747
000040 f4 74 73 3f 71 1b 76 3f e6 1c 6f 3f 36 f4 74 3f
       0.9510033 0.9613562 0.9340347 0.95685136
000050 ab 99 71 3f 87 75 71 3f 67 e6 71 3f 1d 5d 72 3f
       0.94375104 0.9431996 0.9449219 0.9467333
000060 96 ee 74 3f 6e e8 72 3f 08 37 75 3f 3e ea 73 3f
       0.95676553 0.9488591 0.95787096 0.952793
000070 2b f9 75 3f 12 32 70 3f 47 60 74 3f 2d 8e 71 3f
       0.96083325 0.938264 0.9545941 0.9435757

encoder.block2.block.2.bias f4 [32]
000000 70 74 7f 3c 7c cd 33 3d 39 b1 48 39 44 64 0a 3d
       0.015591726 0.043897137 0.00019139507 0.033787027
000010 3e 4c 1d bc 09 b7 d6 3b 74 be cc 3c 3e c7 ad bb
       -0.009600697 0.006552581 0.024993159 -0.0053032925
000020 88 aa 08 bc 7e d6 3e 3d 2d bf d7 bb 3f 90 89 bc
       -0.008341439 0.046591274 -0.006584069 -0.016792415
000030 45 d6 73 bb 0c 63 43 bb 15 72 c9 bc 5c 96 14 3b
       -0.0037206572 -0.0029813675 -0.024590531 0.002267263
000040 6c 6c 02 3d d9 d9 ad bb 94 78 36 3d bf e2 89 3a
       0.03184168 -0.0053055105 0.044548586 0.0010519846
000050 b3 9a 45 bc 1f 59 1b bb 8f c9 b1 3c a5 c2 5e bb
       -0.012060809 -0.0023704243 0.021702556 -0.003399053
000060 3c 2e 4c bb e9 9a 02 bd d8 83 fe 3b 25 03 67 bc
       -0.0031155488 -0.031886015 0.007767182 -0.014099871
000070 72 0b 63 3b c4 ce ac 3b 61 45 43 ba cb 09 7c 3a
       0.0034644273 0.005273672 -0.0007448998 0.00096144964

encoder.block2.block.2.running_mean f4 [32]
000000 32 43 ed 3f d0 94 e2 3f 4a 43 d0 3f 07 db d6 3f
       1.8536131 1.7701664 1.6270535 1.6785592
000010 f9 cc 14 40 6e a9 f0 3f 3d c7 07 40 12 35 df 3f
       2.3250105 1.8801706 2.1215355 1.7438071
000020 c9 d4 8f 3f 47 6a 95 3f 0e 67 b4 3f 89 f0 e4 3f
       1.1236812 1.1673058 1.409395 1.7885906
000030 5b 0e ee 3f ee bd db 3f 0d a3 d8 3f 17 d5 eb 3f
       1.8598131 1.7167337 1.6924759 1.8424405
000040 51 b0 c8 3f f8 d8 07 40 11 75 03 40 78 66 05 40
       1.5678807 2.1226177 2.0540202 2.0843792
000050 63 b9 c6 3f 9f 23 c0 3f 87 d3 c4 3f 67 29 01 40
       1.5525326 1.5010871 1.5377053 2.018152
000060 d2 14 d5 3f 40 eb ee 3f ab a6 fd 3f b3 32 0a 40
       1.6646979 1.8665543 1.9816488 2.1593444
000070 5f c7 ca 3f d8 39 b3 3f 51 fa f5 3f 05 16 f1 3f
       1.5842093 1.4002028 1.9217016 1.8834845

encoder.block2.block.2.running_var f4 [32]
000000 00 57 e0 40 a7 50 db 40 6a 68 aa 40 6c 45 c4 40
       7.01062 6.8535953 5.325246 6.1334743
000010 9a 45 3e 41 34 84 e4 40 9a 3a 1d 41 95 f3 d6 40
       11.891993 7.141138 9.826807 6.717234
000020 ec 9d 31 40 6c 2b 34 40 bb 17 8f 40 59 d6 cd 40
       2.7752638 2.8151503 4.471647 6.4324155
000030 89 5e df 40 59 57 bf 40 cc 65 bc 40 cf 83 f0 40
       6.98029 5.9794126 5.8874264 7.51609
000040 f4 d7 9f 40 97 ee 1e 41 53 4b 14 41 9b 15 19 41
       4.9951115 9.933249 9.26839 9.567775
000050 fe af 9b 40 1c ea 91 40 77 5b a6 40 1d df 0f 41
       4.8652334 4.559828 5.198665 8.991971
000060 de 3c b4 40 c9 3d f4 40 bb db fd 40 9d 3f 24 41
       5.63243 7.632542 7.9330726 10.265531
000070 56 cb a1 40 e4 60 7d 40 a7 3f 03 41 ac e7 e5 40
       5.0560713 3.9590387 8.20304 7.1845303

encoder.final.block.0.weight f4 [3, 97, 3, 3]
000000 5d 9d 2a bc f3 b4 19 3d b1 b5 66 bb 28 ae 8c bc
       -0.010413495 0.037526082 -0.0035203511 -0.017172888
000010 f4 e2 33 bc e2 31 f1 3c 42 ed e1 3c 61 88 1f 3b
       -0.010979403 0.029442731 0.027578954 0.0024342763
000020 5b ec a0 3b d6 54 e5 ba cf e0 96 b8 7a 3b 9a 3b
       0.0049109883 -0.0017496597 -7.194431e-05 0.004706797
000030 d6 57 5a 3b 03 43 79 3b f7 d4 a5 3b 3d ae 2c ba
       0.0033316514 0.0038034327 0.005060788 -0.0006587243
000040 fb d5 f4 3a 86 3b 67 bb 79 ae 2d 3c 39 fe 22 bc
       0.0018679494 -0.0035283281 0.01060068 -0.009948307
000050 a0 fd ba b7 17 2a 81 bc 7f 15 89 bc 45 27 af bc
       -2.2291031e-05 -0.01576714 -0.016733883 -0.02138103
000060 35 f3 b3 b8 0d e7 a1 bb c6 2e 37 3c b9 59 4f bc
       -8.580686e-05 -0.0049408735 0.011180585 -0.012655669
000070 53 26 97 3b 51 9e fb bb 90 bd 94 3c 01 f1 35 bc
       0.004612723 -0.007678785 0.018156797 -0.011104823
000080 fb 32 0a b7 f8 ae ea 3b fb 1a 3d 3c f2 5f 2d 3c
       -8.237311e-06 0.007161971 0.011542077 0.010581957
000090 27 be 9e ba 1b df 4a 3b 5e b0 b5 bc dc 60 12 bc
       -0.0012111113 0.0030955735 -0.022178825 -0.008934226
0000a0 ba f0 5e 3c 5a ac ab bc ec 77 8b 3c 2e e1 43 bc
       0.013607198 -0.020956207 0.017024957 -0.0119555425
0000b0 c4 4b 3b 3c 7b af 30 bc 66 d3 ea 3c 7b f3 4d bc
       0.011431638 -0.010784025 0.028665256 -0.012570257
0000c0 c8 8f 0a bc b3 1f 1c bc c2 b6 9b 3c c1 be 03 bc
       -0.008457132 -0.009529042 0.019008044 -0.008041085
0000d0 74 2e e8 3b 6d fa 4d 3b b5 18 35 ba 6e ca c0 3b
       0.007085616 0.0031429783 -0.00069082837 0.0058835065
0000e0 de 31 68 ba 00 d9 12 ba a6 34 1a ba 44 c1 18 bc
       -0.00088575284 -0.00056017935 -0.0005882479 -0.009323422
0000f0 27 1e 49 3b c8 70 8b ba f9 1c 26 3b a4 ad 97 3b
       0.0030688138 -0.001063847 0.002534686 0.004628854
000100 43 a6 60 3c 0a 5f 36 bc 2d ab 85 bc c7 ca d0 3c
       0.013711515 -0.0111310575 -0.016316975 0.025487317
000110 c6 3e 2b 3d 02 45 5b b9 ae ee 10 3b 64 77 1c bd
       0.041807912 -0.00020911175 0.002211492 -0.038199797
000120 dd 1e 96 ba 1d b9 b0 39 ab 6b 5f bc 29 13 07 3b
       -0.001145329 0.00033707256 -0.01363651 0.0020610786
000130 f2 88 45 bc 34 0b 81 3c 65 d4 da 3b 9b d5 f5 bb
       -0.012056576 0.015752412 0.0066781514 -0.0075022704
000140 40 d3 5b 39 c4 7d b1 bb 9b 22 db 3c 70 00 05 bc
       0.00020964164 -0.0054166038 0.0267499 -0.00811778
000150 e2 6f 81 3b 7f 6b ad 3c 66 fb 9d bc 6a 51 19 bc
       0.003950105 0.021169422 -0.019284915 -0.0093577895
000160 a0 72 b1 bb 7b f1 8f 3a f2 e4 7c bb 98 a6 42 3c
       -0.0054152757 0.0010982001 -0.003858861 0.011880539
000170 28 8d 1d ba e2 90 da bb 6b 55 32 3c c9 0b f2 ba
       -0.00060101086 -0.0066701034 0.010884623 -0.0018466647
000180 9e 99 3b b9 17 ea 1d 3b 89 45 a8 bb 3f 98 bc ba
       -0.00017890937 0.0024095827 -0.0051352424 -0.0014388635
000190 37 7a 98 bb 7d d3 34 bc 2c 1f 20 3a e3 10 18 bd
       -0.004653241 -0.011036751 0.00061081606 -0.03712548
0001a0 42 ea 0b 3c e4 d1 9f 3b 63 79 66 3c 79 9c 48 3c
       0.008539738 0.004877316 0.014067027 0.012244337
0001b0 fc 8d ba bb 8e 65 99 bc 1f 6b 5a 3c ab c2 76 3c
       -0.0056931954 -0.018725183 0.013331204 0.015061061
0001c0 73 4c 0f 3b 32 d8 48 bc 89 65 1a bc dc 52 31 3c
       0.0021865636 -0.012258576 -0.009423622 0.010822978
0001d0 f2 60 89 3c 8c 35 aa 3b 03 f3 f2 3b 84 11 62 3c
       0.01676986 0.0051943716 0.007414223 0.013798121
0001e0 83 58 ae 3c d1 6b 80 3c ab 17 4b 3c e9 4d 8b bc
       0.02128244 0.01567641 0.01239578 -0.017004924
0001f0 7f ce c2 ba 82 5f 33 ba 60 86 6f 3b bf 19 32 3c
       -0.0014862566 -0.000684254 0.00365486 0.010870396
000200 be 77 ac 3c ce 01 9d bc ee 53 69 bc ff ec b1 3c
       0.021053191 -0.0191659 -0.014241202 0.021719454
000210 1e cd 87 bb 5a a1 87 bc 5e 88 13 bc 3f 88 34 3c
       -0.004144325 -0.01655643 -0.00900468 0.011018812
000220 53 9e 78 bb ff c3 2f 3c 2a 6b 83 3b a5 d4 97 3c
       -0.0037936165 0.010727881 0.0040105777 0.018534014
000230 86 52 92 bc e0 63 cb 3c 1e c9 4a 3c e3 f9 6f bc
       -0.017861616 0.024827898 0.012377052 -0.01464698
000240 f7 09 fb 3b a4 a8 e0 bc 7b e7 5f bc ce 8b 30 bc
       0.0076611 -0.027424164 -0.013666029 -0.01077552
000250 2b fd b7 3b 0c a1 d2 bc 77 32 22 3b 07 7d 12 3d
       0.005614897 -0.025711559 0.0024749318 0.035763767
000260 2c b6 83 bc c7 53 9b 3c ef 1c 9e bc f4 c5 73 bb
       -0.016078077 0.018960847 -0.019300906 -0.0037196847
000270 4a 50 cb 3c 76 4f a8 bc 12 57 b9 bc bf 26 0f 3c
       0.024818558 -0.020545702 -0.022624526 0.008737265
000280 88 ca 8c bc 9f 0a 0d 3c be a4 60 bb f1 c0 17 bc
       -0.017186418 0.008608489 -0.0034277881 -0.009262309
000290 05 d0 4d bb b6 8f 11 bc 5b 4d 96 b9 9e 68 48 3c
       -0.0031404507 -0.008884361 -0.00028667864 0.012231974
0002a0 6d ed d9 3a 2e fa aa bb 7a 5d e6 bb ae db 59 3c
       0.0016626545 -0.005217812 -0.0070301862 0.013297005
0002b0 60 a5 90 3a 43 e5 03 bc 99 9f 7c bc 12 9f 31 bc
       0.0011035614 -0.008050266 -0.01541891 -0.010841148
0002c0 52 97 ca 3c 53 23 22 bc 78 bb 3e bc cd be 8f 3a
       0.024730358 -0.009896117 -0.011641376 0.0010966897
0002d0 85 42 ee 3b 8a f0 f6 3c d0 c5 26 3b 19 62 de bc
       0.0072711133 0.030143995 0.0025447495 -0.027146386
0002e0 9e d8 eb bc 24 cd 1f 3b 70 88 23 3c 3c 89 c5 bc
       -0.028789815 0.0024383748 0.00998126 -0.02411329
0002f0 8c 04 ba 3c 33 d7 4d bb 07 89 de 3c 56 1d 9e bb
       0.022707246 -0.0031408786 0.02716495 -0.0048252745
000300 a5 d4 89 3c ac 48 80 bc fb 99 42 bc 47 e4 57 3a
       0.01682503 -0.015659653 -0.011877532 0.0008235615
000310 5e bc 35 39 49 22 34 bc 39 9b 92 3b cc 33 9a 3b
       0.00017331677 -0.010994502 0.0044740704 0.0047058817
000320 7f 02 38 bb d3 84 dd 3b ea 96 e2 bc f9 01 5d bb
       -0.002807766 0.0067602186 -0.027659852 -0.00337231
000330 51 73 83 bb 29 1c f7 3b 02 d1 6f 3c 36 3e 5f 3b
       -0.0040115495 0.0075411987 0.014637234 0.003406418
000340 cf 26 c5 bb b8 e1 24 bb 40 44 93 bb e5 42 06 bb
       -0.0060165892 -0.0025158953 -0.00449422 -0.002048665
000350 8e 7d 7a 3b b8 c6 9f b7 c4 5b 11 bb 67 8a c8 ba
       0.003822181 -1.9046813e-05 -0.002217994 -0.0015300036
000360 a7 41 95 ba de 06 c0 3a c7 95 62 3b f6 f2 ef bb
       -0.0011387364 0.0014650484 0.0034574138 -0.0073226644
000370 ac bd 0d 3c 7c cf a8 3b 10 e0 5c 3b a4 87 9c bb
       0.008651178 0.005151687 0.0033702888 -0.004776912
000380 03 39 bc 39 7a 1d 64 bb d3 5d 0c 3c 53 ac 95 bb
       0.0003590063 -0.0034807608 0.008567291 -0.004567662
000390 c2 e1 c0 bc b3 74 e7 3c 14 d5 89 bc 2c 79 7a 3b
       -0.02354515 0.028253889 -0.016825236 0.0038219197
0003a0 cf bf 9f 3b 97 6d 99 bc 9e 30 0e bc 8b e2 45 bc
       0.0048751603 -0.018729014 -0.008678583 -0.012077938
0003b0 0d 17 8a 3c 27 b4 90 3a d0 02 8d 3c 43 1e 4a bc
       0.016856695 0.0011040018 0.017213255 -0.0123363165
0003c0 82 7a 0e 3c 64 21 74 3b 68 df 6b bc d8 21 09 3b
       0.0086962 0.0037251348 -0.014396526 0.0020924713
0003d0 4e 7d 1c 3a ab 3c a8 bb 37 dd c6 bb e8 f4 b1 3b
       0.00059695996 -0.0051341853 -0.0060688513 0.0054308064
0003e0 49 bd 17 3c 03 dc 5b 3a 4f 28 33 3c b7 15 99 bb
       0.009261438 0.00083869713 0.010934903 -0.004671778
0003f0 23 e5 4a bc b4 52 30 3b cc 30 2d 3c f7 1c d9 3a
       -0.012383732 0.0026904764 0.010570716 0.0016564418

encoder.final.block.0.bias f4 [3]
000000 52 17 0c 3b 85 6a 66 3b b6 c5 e0 bb
       0.0021376205 0.0035158705 -0.0068595065

decoder.initial.block.0.weight f4 [32, 3, 3, 3]
000000 9c c5 0a be 6e 1e a4 bc b1 d8 c5 bd c1 ae b3 3d
       -0.13551944 -0.020034041 -0.09660471 0.08773566
000010 2f f4 0c be f7 39 ec bb 81 b6 cb bc 56 b8 22 3e
       -0.13765024 -0.0072090584 -0.024867298 0.15890631
000020 69 29 2c 3e 0d be 41 be fe bf b5 3d 53 3a 13 be
       0.16812672 -0.18920155 0.0887451 -0.14377718
000030 61 f1 1c 3e 0e 1d b7 bd b9 e3 cd bd df 9f df 3d
       0.15326454 -0.089410886 -0.100532 0.10919165
000040 26 a3 c8 3d d5 c8 c2 3d 64 7b 8a 3c f9 f7 97 bd
       0.09796743 0.09510962 0.01690454 -0.07420344
000050 b2 22 11 bd fd bf 95 bd 5c ff fe bc 1d 07 58 bd
       -0.03543348 -0.073120095 -0.031127624 -0.05274116
000060 4e 92 90 3d 53 04 20 bc 21 0f 3f 3e 7a 93 b3 bc
       0.070591554 -0.009766656 0.18658115 -0.021920908
000070 96 2c d4 bd 4d b8 df bd bb 90 41 3e 4f bd 83 bd
       -0.103600666 -0.109238245 0.18902867 -0.06432592
000080 6e 02 18 be 10 c5 05 3d 8e 3b 82 3c 0a c0 8d 3d
       -0.14844677 0.032658637 0.015897539 0.06921394
000090 88 62 9a bd fc ca e1 bd 2d 07 21 3e 5d 3c a3 bd
       -0.075383246 -0.11025044 0.15725394 -0.07970498
0000a0 39 89 fc 3d dd 0c b8 3d 7d 51 fe bc fc d8 1a be
       0.12330861 0.089868285 -0.031044716 -0.15121835
0000b0 bb 6d 01 3e fa 21 2a 3e b2 04 22 be 13 ef 54 3d
       0.12639515 0.16614524 -0.15822104 0.05198581
0000c0 73 b9 fd 3c 87 9b 36 bd 5a 93 86 3d ae 7b e3 bd
       0.030972218 -0.044581916 0.06571074 -0.111075744
0000d0 6f f4 d7 3b a2 75 26 be e0 9f 09 bd 83 4f 41 bd
       0.006590418 -0.16255811 -0.033599734 -0.04719497
0000e0 34 de 7d bd 5b ad f7 3d 5a 5b 46 3e f5 53 07 bd
       -0.061979488 0.12093612 0.19370785 -0.033039052
0000f0 03 84 b8 bd 86 b6 d8 bd d9 df 11 3d 8e b6 2a 3d
       -0.09009554 -0.105816886 0.03561387 0.041678004
000100 d2 23 dd bc 8a ba bf bd dc 0d 0a be 2f a7 8f bd
       -0.02699462 -0.093617514 -0.1348185 -0.070143096
000110 64 28 58 bd 73 8f a8 3d db bf 87 3d de 27 d6 3d
       -0.052772895 0.08230486 0.066283904 0.10456823
000120 29 26 5e 3d 21 ef 7f 3d 4b ec b8 3d 6b ee 5c bd
       0.05423561 0.06248391 0.09029444 -0.05393831
000130 71 b4 79 bd db d2 68 3d 1a 23 42 bd 4f 10 81 bc
       -0.060963098 0.056841712 -0.047396757 -0.015754847
000140 96 cd 7f bd 83 ba 7e bd b3 57 79 bd 55 b3 ba 3d
       -0.06245192 -0.06218959 -0.060874652 0.09116236
000150 ee 3c 04 3e b0 8b fb bd fd 29 38 3d 7e 75 f3 bd
       0.12913868 -0.12282503 0.04496192 -0.11887644
000160 0a 33 0a 3e f9 53 bf bc 62 40 be 3b 69 ee 3e 3e
       0.13496032 -0.023355471 0.005806015 0.18645634
000170 72 11 3d be 43 d7 ae bc ad 4f 18 be 44 cc d2 3d
       -0.18463686 -0.02134288 -0.14874144 0.10292867
000180 9b 86 fc 3d a1 c1 16 bd 79 3b 1e 3c f7 76 7b 3d
       0.123303615 -0.036805753 0.009657734 0.06139275
000190 b9 74 12 be eb aa db 3d 7f 10 8f bd c7 e3 79 3e
       -0.14302339 0.107259594 -0.06985568 0.24403296
0001a0 8b 56 13 be d1 45 68 3b 3f 11 d5 bd 15 2b 19 3d
       -0.14388482 0.0035442004 -0.1040368 0.0373946
0001b0 9c 60 ed 3d b5 c8 7a 3d 03 2b fc bd 2d 38 ad bd
       0.115906924 0.061226565 -0.12312891 -0.0845798
0001c0 14 7f 80 3d 0d 34 ee bd 6f f1 ae b9 63 63 19 be
       0.06274238 -0.11631022 -0.00033367748 -0.1497932
0001d0 78 4b 4d 3e cd 16 30 be 7c f0 ea bc 9b 06 4d 3e
       0.2004832 -0.17196198 -0.028679125 0.20022051
0001e0 fe 19 07 bd bc 45 b7 bd 50 4a 56 bd 5b be b3 bd
       -0.032983772 -0.08948848 -0.052316964 -0.08776542
0001f0 c6 c8 18 3e c3 fc 59 bd ae 7e c8 3d a8 10 12 3d
       0.14920339 -0.053219568 0.09789787 0.035660416
000200 a5 f6 27 be 7c 9c 11 3e d3 81 d2 3d c6 5f f8 bd
       -0.16402681 0.1421985 0.10278668 -0.12127642
000210 47 19 27 3c f7 03 df bd 6a a8 f9 3c 77 88 b9 bd
       0.010198898 -0.10889428 0.030475814 -0.09059232
000220 55 35 a7 bc c5 1f c9 bd 96 d3 6a bd 8e 94 e7 3d
       -0.020411173 -0.09820513 -0.05733069 0.113076314
000230 e7 87 af 3c 8a c0 60 3d 69 85 ec 3d 75 90 b1 bd
       0.021427108 0.05487112 0.115488835 -0.08670131
000240 f3 4d 3a 3e 77 5e cf bd 07 68 2e be 78 3c 68 bd
       0.18193798 -0.101254396 -0.17031871 -0.056698292
000250 02 c4 6a 3c 94 9d b1 bd 8a d0 c9 bc b3 92 0c 3e
       0.0143289585 -0.08672634 -0.024635572 0.13727836
000260 49 c8 b6 3d 66 f6 31 3d 00 90 1b 3d 57 7f 33 bd
       0.0892492 0.043447874 0.037979126 -0.043822613
000270 00 d7 79 bd 4a 31 09 be b7 a5 13 3e bc 6a 04 be
       -0.060996056 -0.13397709 0.14418684 -0.12931341
000280 18 57 88 bd 2b c8 15 be a7 4b 56 3d 2f 4b b3 3d
       -0.06657237 -0.1462714 0.05231824 0.087545745
000290 c5 38 2c 3d 1c ed 04 be 8c b9 7b 3d 3e c8 06 3d
       0.042046327 -0.12981075 0.06145625 0.03290581
0002a0 4a 02 b4 bd 5d bf dd 3c f4 8f 9c bd 73 eb 69 be
       -0.08789499 0.027068788 -0.076446444 -0.22843723
0002b0 01 fd a6 3d 7f 20 ff 3d f6 b1 e0 3d 60 9f 3a bd
       0.081537254 0.1245737 0.10971443 -0.045562148
0002c0 34 eb a5 3d 1c 2c eb 3d 7d f5 56 bc 28 0a cc bd
       0.08101502 0.114830226 -0.013120052 -0.09962875
0002d0 ed 9f 32 3e e6 7e a3 3b ed b2 51 be d8 8b 3b bc
       0.1744382 0.0049894927 -0.20478411 -0.011446916
0002e0 b6 54 2c be c9 2f 05 3d 3c 45 a0 3d 58 7d 40 bd
       -0.1682919 0.032516275 0.078257054 -0.046994537
0002f0 0e 5f ee 3d b4 84 9d bc d0 6d 28 3e c6 57 b7 3d
       0.11639224 -0.019228317 0.1644814 0.08952288
000300 71 18 02 3e 9e f6 97 bd 62 88 d5 bd 1c ff c3 3d
       0.12704636 -0.07420085 -0.104264036 0.095701426
000310 4d 7b 01 be d6 7c ef bc 68 d9 8c bd 71 34 d8 3d
       -0.12644692 -0.029234331 -0.068774045 0.105568774
000320 96 30 39 3d 36 ab c5 3d e6 45 ea bc 42 b8 c5 bd
       0.04521235 0.096517965 -0.028597783 -0.09654285
000330 b7 48 2b be f7 27 4f 3e 89 45 9f bd a6 c8 da bd
       -0.16726957 0.20230089 -0.07776935 -0.10682802
000340 0f 67 4f be 42 65 96 3c 85 a8 64 3d 91 d6 d4 bd
       -0.20254157 0.01835883 0.055824775 -0.10392488
000350 e8 44 18 3e bf 62 0c 3e 9e bc 59 bd e4 9e 1d 3e
       0.14870036 0.13709544 -0.053158395 0.15392643
000360 47 1a 08 3e a3 15 c7 bd 33 63 2f be 07 44 14 3e
       0.13291274 -0.09720924 -0.17127685 0.14479075
000370 75 d7 fe bd 8e 90 88 bb 13 cc 93 3b 2d 6b 45 bb
       -0.12443439 -0.004167623 0.0045104115 -0.0030123696
000380 22 86 a2 3d 43 8b 29 3d 80 3c 00 3e 61 5f e9 3d
       0.0793574 0.041392576 0.12523079 0.11395145
000390 7c 23 bc bd 23 1b 3c 3e 95 14 4e 3e 29 ef b5 3d
       -0.091864556 0.18369727 0.20125039 0.08883507
0003a0 46 af fa 3d 1f 48 71 bd 4d d2 53 bd a9 29 d2 bd
       0.12240462 -0.05890667 -0.05171423 -0.10261852
0003b0 d1 50 18 3e 97 4f cf bd 47 c7 8a bd 5f 06 16 be
       0.14874579 -0.101226024 -0.067762904 -0.14650868
0003c0 cd 4d 0d 3d 28 02 ee bd df 71 81 3d 52 21 0a bd
       0.034498025 -0.11621505 0.06320547 -0.033723183
0003d0 0b 24 f9 bd 39 3f bd 3d 69 34 36 3d 83 d5 d8 bc
       -0.12165078 0.092405744 0.044483576 -0.026468998
0003e0 45 bb 34 be 49 ee 2c be fa cd 32 3e b7 fe 44 3e
       -0.17649563 -0.16887774 0.17461386 0.19237791
0003f0 9a aa f0 3c ef 47 28 3e 88 c4 d1 3d ce 63 e1 bd
       0.029378224 0.1643369 0.102425635 -0.11005364

decoder.initial.block.0.bias f4 [32]
000000 c7 e1 df b7 69 1e 63 be 90 c7 6d 3e 1a df cd 3d
       -2.6688807e-05 -0.2217957 0.23220658 0.10052319
000010 8f ed a4 3e 9b 1f 82 be e3 64 62 3e 9a 1a 8f 3e
       0.32212493 -0.25414738 0.22108798 0.27949983
000020 b1 a8 39 3e 6c 9a b1 3e 9b c1 4a 3e a5 db 28 3e
       0.18130757 0.34688127 0.19800417 0.16490038
000030 6e 30 15 3e 8a c4 a1 3e 38 46 a1 3d 67 6c 5b 3e
       0.14569256 0.3159526 0.07874721 0.21428071
000040 c1 da 1c 3d 20 5b 19 3e 8a 36 c4 3d 1c e4 9c 3d
       0.038294557 0.14976168 0.09580715 0.07660696
000050 93 7c 48 3e 3b 2b 29 3e 3a 2d 25 3e 56 86 83 be
       0.19578771 0.16520397 0.16130534 -0.25688428
000060 4f 25 9e 3e 9c cf ec 3d e5 be 4b 3e be c3 63 3e
       0.3088784 0.11563036 0.19897039 0.22242638
000070 25 fe 28 3e 9f a0 1b be 2c 90 53 3e 60 ca 4d 3e
       0.16503198 -0.15197991 0.20660466 0.20096731
