results/models/long/BasicSteganoGAN/5/epoch_44.pth (torch, 326815 bytes, 59 tensors)

encoder.initial.block.0.weight f4 [32, 3, 3, 3]
0	0x3d4a3452	0.049366303
1	0xbddc6612	-0.10761656
2	0x3cc0dd50	0.02354303
3	0x3d00a25a	0.03140483
4	0xbd2b3d34	-0.041806415
5	0xbd0c22d9	-0.03421292
6	0x3e2a2ca3	0.1661859
7	0x3d281644	0.04103686
8	0x39ae68cf	0.00033265955
9	0x3dfd0d3e	0.12356041
10	0x3d33de52	0.043913193
11	0xbd8311b7	-0.06399863
12	0xbc977b64	-0.018491454
13	0x3c540c4e	0.012942387
14	0x3dc2f473	0.09519281
15	0x3de7f40b	0.113258444
16	0x3ca2c719	0.019870328
17	0x3d953a49	0.07286508
18	0x3d7042df	0.058657523
19	0x3d60c07f	0.05487108
20	0x3d82cefb	0.06387135
21	0x3cc561b1	0.024094434
22	0xbd505d3c	-0.050870165
23	0xbe3934e6	-0.18086585
24	0x3e5915b6	0.21199688
25	0x3dd40a5c	0.103535384
26	0x3d74350c	0.059620902
27	0x3d49643a	0.04916785
28	0x3daa60cb	0.08319243
29	0xbd3b0d2d	-0.045666862
30	0x3e0ffb22	0.14060643
31	0x3d940aeb	0.07228645
32	0x3c87b8bd	0.016567582
33	0x3e01bf30	0.12670588
34	0xbe3cf3b6	-0.18452343
35	0x3da5eab3	0.08101406
36	0xbd3ab2c6	-0.045580648
37	0xbc59e255	-0.013298591
38	0x3e1048b6	0.14090237
39	0x3d30b815	0.043144304
40	0x3e3f9d05	0.18712242
41	0xbcf35dc0	-0.02970779
42	0xbcc8c486	-0.024507772
43	0x3e5b24b1	0.21400715
44	0x3e146b46	0.14494047
45	0x3ccfe647	0.02537836
46	0x3e1fff65	0.15624769
47	0xbd3f6e6f	-0.046736177
48	0xbd52643d	-0.051365126
49	0x3d9007b0	0.07032716
50	0x3e4c8aec	0.1997487
51	0xbd7159a2	-0.05892337
52	0x3e53886c	0.2065751
53	0x3d5c25b6	0.0537469
54	0xbcc9b63f	-0.024623035
55	0xbd89ad27	-0.06722479
56	0x3dabb101	0.0838337
57	0xbe0d12f5	-0.13776763
58	0x3c4d8b2c	0.012545388
59	0xbd6d7e16	-0.057981573
60	0xbd0e7c50	-0.034786522
61	0xbc8f20a9	-0.017471628
62	0x3d6b08ba	0.05738137
63	0x3c1ca804	0.009561542
64	0xbcc67c9e	-0.024229344
65	0xbe0d213f	-0.13782214
66	0x3e1a8264	0.15088803
67	0xbd0d417f	-0.03448629
68	0x3d136954	0.03598912
69	0x3d503b32	0.050837703
70	0xbd7e7231	-0.06212062
71	0xbe2a78a8	-0.16647589
72	0xbdd957e9	-0.10612471
73	0x3dc64de1	0.09682823
74	0xbda70217	-0.081546955
75	0xbd257edf	-0.040404197
76	0xbdf26956	-0.118364975
77	0xbdc86af7	-0.09786027
78	0xbd100d33	-0.035168838
79	0x3d813ff7	0.063110285
80	0x3db48f97	0.0881645
81	0x3d6cc8ab	0.05780856
82	0x3e1209a2	0.14261487
83	0xbd7cc9bb	-0.061715823
84	0x3e238a31	0.15970685
85	0x3e4411ac	0.19147366
86	0x3db194e5	0.086709775
87	0x3e51a0bf	0.20471476
88	0x3e096844	0.1341868
89	0xbdad9643	-0.08475926
90	0x3c94ae6a	0.018149573
91	0x3e5aa270	0.21351027
92	0x3db6c962	0.089251295
93	0x3deb2eb6	0.11483519
94	0xbd6ba147	-0.057526853
95	0xbd6f6173	-0.058442544
96	0x3d988488	0.07447153
97	0x3d409be2	0.04702366
98	0x3c12342c	0.008923572
99	0xbe20cfb9	-0.1570424
100	0xbcd61be2	-0.026136342
101	0xbb2d5037	-0.0026445517
102	0xbd8b4769	-0.0680073
103	0x3e26e6bf	0.1629896
104	0x3ddfc564	0.10926321
105	0xbe2ad204	-0.16681677
106	0x3d03f61e	0.032217138
107	0x3db0f54a	0.08640535
108	0xbdf83329	-0.12119133
109	0x3df2c660	0.11854243
110	0x3d49f26b	0.049303453
111	0x3ddf81b3	0.1091341
112	0x3e143c4d	0.14476128
113	0xbd63acc1	-0.055584673
114	0x3d44ce02	0.048048027
115	0xbc407ac9	-0.011748024
116	0x3d32a9b6	0.04361888
117	0x3e2674e2	0.16255525
118	0xbe0872f5	-0.13325103
119	0x3e2bef76	0.16790566
120	0x3dc64e6f	0.09682929
121	0x3e3c2ae0	0.1837573
122	0xbdee6499	-0.11640281
123	0xbdb49319	-0.08817119
124	0xbdb8d68d	-0.09025297
125	0x3dca8245	0.09888128
126	0x3d6b7f1c	0.057494268
127	0x3e0bbc00	0.13645935
128	0x3de81c79	0.11333556
129	0xbd59ed71	-0.053204957
130	0xbe2ea1b1	-0.17053868
131	0x3d99b5dd	0.07505391
132	0x3d2e0bff	0.04249191
133	0xbd4c06b1	-0.04981107
134	0xbd853391	-0.06503976
135	0xbda33d76	-0.07970707
136	0x3d87a3da	0.06623049
137	0xbb788764	-0.0037922496
138	0x3d2dc231	0.042421523
139	0x3dcf2eeb	0.10116371
140	0x3d1f8a87	0.03895047
141	0xbd9f354e	-0.07773839
142	0xbdebcbf6	-0.11513512
143	0xbe270415	-0.16310151
144	0xbcf4fc21	-0.02990538
145	0x3b7f9851	0.00390007
146	0xbd9c9a10	-0.076465726
147	0xbd85d89c	-0.065354556
148	0x3e1dc930	0.15408778
149	0xbe1d3dde	-0.15355632
150	0x3d880af2	0.06642713
151	0x3d7e8e3a	0.062147357
152	0xbc5f7ba8	-0.013640322
153	0x3d5e950f	0.054341372
154	0x3e2a48c8	0.16629326
155	0xbdd1e869	-0.10249407
156	0xbd1bf6bf	-0.038077112
157	0x3dbcb4c5	0.092141666
158	0x3e20cfa7	0.15704213
159	0xbde5134b	-0.111853205
160	0xbd3015fa	-0.04298971
161	0xbce7c81a	-0.028293658
162	0xbdc8103c	-0.097687215
163	0xbdd8e6de	-0.105909094
164	0xbd4873c4	-0.048938528
165	0x3caff2c2	0.02147806
166	0xbde7ae49	-0.11312539
167	0x3dc6b185	0.09701828
168	0x3dc00b51	0.093771584
169	0xbd4d455e	-0.05011498
170	0xbc86b8ff	-0.016445635
171	0xbdec0fbe	-0.1152644
172	0x3dbe025f	0.09277796
173	0xbe1bc691	-0.15212466
174	0xbcd17c93	-0.025572097
175	0x3df52e6a	0.119717434
176	0x3d14c536	0.036320888
177	0xbdc6f8fc	-0.09715459
178	0x3c7b7133	0.015346813
179	0xbd68cf4c	-0.05683832
180	0xbe08ba50	-0.13352323
181	0xbe05e935	-0.13077243
182	0xbdb278e3	-0.087144636
183	0x3e3e0d82	0.1855984
184	0xbda2acf2	-0.07943143
185	0xb806e1cd	-3.2158383e-05
186	0xbd9ec566	-0.077524945
187	0x3db6bb88	0.089224875
188	0x3b4f9005	0.0031671536
189	0x3d815fa1	0.06317068
190	0x3d3923eb	0.04520027
191	0xbe30a228	-0.17249358
192	0xbe1bcf92	-0.152159
193	0xbe321808	-0.1739198
194	0xbd42b37e	-0.04753446
195	0xbe031f93	-0.12805013
196	0x3d457b0a	0.048213042
197	0xbca1ba88	-0.019742265
198	0x3d493895	0.049126226
199	0xbd307e85	-0.04308941
200	0x3db3533c	0.0875611
201	0xbe1bc874	-0.15213186
202	0x3d6276ef	0.055289205
203	0x3d41c757	0.047309246
204	0xbe285469	-0.1643845
205	0x3d97aab2	0.074056044
206	0xbd9c423d	-0.076298214
207	0x3dfb51ff	0.12271499
208	0xbe30c9ea	-0.17264524
209	0xbe2253ad	-0.15852232
210	0xbe43de38	-0.19127738
211	0xbd252b1a	-0.040324308
212	0xbe407bab	-0.18797176
213	0x3d925a89	0.071461745
214	0x3da02705	0.078199424
215	0x3d87bbee	0.066276416
216	0xbdaa39da	-0.083118156
217	0x3d583364	0.052783385
218	0xbdaef267	-0.08542328
219	0xbd456c57	-0.048199024
220	0x3cec40f0	0.028839558
221	0xbd786041	-0.06063867
222	0x3d9d9180	0.076937675
223	0x3e0e751a	0.13911858
224	0x3d658f2b	0.05604474
225	0x3d838c48	0.06423241
226	0x3e03ea4d	0.12882347
227	0xbe03eed4	-0.12884074
228	0x3e0e9437	0.13923727
229	0xbe191b81	-0.14951898
230	0x3dadfa4e	0.084950075
231	0xba7afe55	-0.00095746416
232	0x3e02508e	0.12726042
233	0x3c828454	0.01593224
234	0x3e0125e7	0.12612115
235	0xbdb880b4	-0.09008923
236	0x3d39ff52	0.045409508
237	0x3d268470	0.040653646
238	0x3e4c072b	0.1992461
239	0xbd523b9e	-0.051326387
240	0x3e4762b7	0.1947125
241	0xbb90f7d5	-0.004424075
242	0x3db124e6	0.08649616
243	0xbd253d4b	-0.040341657
244	0x3e2eae75	0.17058738
245	0xbdca9581	-0.09891797
246	0x3d778b3f	0.06043553
247	0x3e48688e	0.19571134
248	0xbda94502	-0.08265115
249	0x3e5550a9	0.2083155
250	0x3dd392e9	0.10330755
251	0x3e04d1ca	0.12970653
252	0x3e204962	0.15652993
253	0x3d921892	0.07133593
254	0xbddd55f3	-0.10807409
255	0x3de7c198	0.11316222

encoder.initial.block.0.bias f4 [32]
0	0xbd9d8352	-0.07691063
1	0x3de1a29e	0.11017345
2	0x3e4e85f4	0.20168287
3	0x3da0d921	0.07853914
4	0xbe62ff15	-0.22167619
5	0x3e99d538	0.30045485
6	0x3e2cdd17	0.16881214
7	0xbe280bb2	-0.16410711
8	0xbe4b721a	-0.19867745
9	0xbe5bc5ef	-0.21462224
10	0x3a1d0fe7	0.00059914443
11	0x3dee00c1	0.116212375
12	0xbe43d874	-0.19125539
13	0x3e9403e3	0.28909215
14	0x3e1373a6	0.14399585
15	0x3e916f11	0.2840505
16	0xbd9bd662	-0.0760925
17	0xbe092b27	-0.13395368
18	0xbd43eadc	-0.0478314
19	0x3e900a67	0.28132936
20	0xbe05b1a7	-0.1305605
21	0x3e944831	0.28961328
22	0xbd95abb2	-0.07308139
23	0xbe5931bb	-0.21210377
24	0x3da0e727	0.07856589
25	0xbe342f69	-0.1759621
26	0x3de5756c	0.11204037
27	0x3e255b71	0.16148163
28	0x3f1d81f4	0.6152642
29	0x3ea167d4	0.31524527
30	0x3e0f0ad5	0.13968976
31	0xbe2f1b9f	-0.1710038

encoder.initial.block.2.weight f4 [32]
0	0x3f7bcdaa	0.98360693
1	0x3f79cd63	0.9757902
2	0x3f6a4597	0.91512436
3	0x3f6fd4a1	0.9368382
4	0x3f710c8d	0.94159776
5	0x3f55592c	0.8333919
6	0x3f7d7a40	0.99014664
7	0x3f831e85	1.0243689
8	0x3f6ad8a7	0.91736835
9	0x3f667ebb	0.90037125
10	0x3f6a1f95	0.9145444
11	0x3f73fac3	0.95304507
12	0x3f7bbdf1	0.983367
13	0x3f729094	0.9475186
14	0x3f6fc5e7	0.9366135
15	0x3f5f0b51	0.8712664
16	0x3f75e244	0.9604838
17	0x3f72716b	0.9470431
18	0x3f5c215b	0.85988396
19	0x3f6c0d4a	0.9220778
20	0x3f77c12b	0.96779126
21	0x3f722b9d	0.945978
22	0x3f735167	0.95046085
23	0x3f815710	1.0104694
24	0x3f787176	0.9704813
25	0x3f80e820	1.0070839
26	0x3f772989	0.9654775
27	0x3f78b506	0.9715122
28	0x3f678906	0.90443456
29	0x3f55dded	0.83541757
30	0x3f792be3	0.9733259
31	0x3f882fcc	1.0639586

encoder.initial.block.2.bias f4 [32]
0	0xbdb044d1	-0.08606876
1	0xbd9bb7c4	-0.0760341
2	0x3dc7616f	0.09735381
3	0xbc867097	-0.016411109
4	0x3e0ffda3	0.14061598
5	0x3dc91366	0.09818153
6	0x3e6230e0	0.22088957
7	0xbd3d8479	-0.046268914
8	0x3e43fff9	0.19140615
9	0x3e2c8d79	0.16850843
10	0x3e1be28f	0.15223144
11	0x3bdb93e1	0.006700978
12	0xbcb5929f	-0.022164641
13	0xbbfb4868	-0.0076685436
14	0xbe5244b7	-0.20534025
15	0x3e04c839	0.12967004
16	0x3d1c6a26	0.03818717
17	0xbe90ca0d	-0.28279153
18	0x3d0ce5e1	0.034398917
19	0xbce7c26b	-0.028290948
20	0xbdacf7a3	-0.084456705
21	0x3e4cf603	0.20015721
22	0xbdb8fbbd	-0.0903239
23	0xba09dcec	-0.0005259055
24	0x3e86dbf9	0.263397
25	0xbdc32ada	-0.09529658
26	0x3c5182a8	0.0127874985
27	0xbde223c5	-0.11041979
28	0x3d603a2c	0.054742977
29	0xbe86511b	-0.26233754
30	0xbe5a66ee	-0.21328327
31	0xbe0c2c58	-0.13688791

encoder.initial.block.2.running_mean f4 [32]
0	0x3e9c727b	0.30556092
1	0x3f46d7fe	0.7767333
2	0x3d11a902	0.03556157
3	0x3f2b7501	0.6697541
4	0x3e07d900	0.13266373
5	0x3e7b535c	0.24543518
6	0x3cb848c8	0.022495642
7	0xbbd242c4	-0.0064166505
8	0x3e542dfc	0.20720667
9	0x3eb0a1c0	0.34498405
10	0x3ee677e6	0.4501335
11	0x3ed1e798	0.40997005
12	0xbbab2696	-0.0052231057
13	0x3f1b9c7a	0.6078564
14	0x3f246742	0.6422006
15	0x3db3230c	0.08746919
16	0x3ed23c97	0.4106185
17	0x3eb6e451	0.35721067
18	0x3eab438f	0.3344998
19	0x3f1cc0ae	0.61231506
20	0xbb8a9dd6	-0.0042302413
21	0x3db05e03	0.08611681
22	0x3ece06d2	0.40239578
23	0xbbc52e43	-0.0060174777
24	0x3f1c19b9	0.6097675
25	0xbbb52175	-0.00552767
26	0x3f17a9ca	0.5924345
27	0x3f29bc2c	0.6630275
28	0x3ed47c24	0.41500962
29	0x3e45d60a	0.1931993
30	0x3f45b918	0.77235556
31	0xbbbc109a	-0.0057392837

encoder.initial.block.2.running_var f4 [32]
0	0x3d15ab79	0.036540482
1	0x3ddc06f9	0.107435174
2	0x3b1e4d75	0.0024155055
3	0x3d9ef3f8	0.07761377
4	0x3c6fe1ee	0.014641268
5	0x3b30ccc5	0.002697752
6	0x3ad3e060	0.0016164891
7	0x36b7952e	5.471192e-06
8	0x3d057c86	0.032589458
9	0x3d763aaa	0.06011454
10	0x3d48157f	0.048848625
11	0x3ccc63fa	0.024950016
12	0x365a76a9	3.25536e-06
13	0x3cf915ea	0.030405957
14	0x3d739686	0.059469722
15	0x3bd45444	0.006479772
16	0x3d77de5a	0.060514785
17	0x3d6e6b86	0.05820801
18	0x3d3789e1	0.044809226
19	0x3d1cb69f	0.0382601
20	0x375a357a	1.30062635e-05
21	0x3bce87a6	0.0063027916
22	0x3d8579c7	0.06517368
23	0x36803389	3.8206967e-06
24	0x3d894643	0.067028545
25	0x366dd33c	3.5438707e-06
26	0x3d6e2132	0.058137126
27	0x3d923c77	0.07140439
28	0x3c3bd539	0.01146441
29	0x3bd2fb06	0.0064386157
30	0x3db8a7d6	0.09016387
31	0x3691704d	4.3344103e-06

encoder.block1.block.0.weight f4 [32, 37, 3, 3]
0	0xbd12a005	-0.035797138
1	0xbda0e25d	-0.07855675
2	0xbcc3b864	-0.023891635
3	0xbcfa0972	-0.030522082
4	0xbd3f0b35	-0.046641547
5	0x3c51039a	0.012757206
6	0xbb892fa7	-0.004186589
7	0xbbccf024	-0.006254213
8	0x3d090811	0.03345496
9	0xbd1ef973	-0.038812112
10	0xbbeb3b18	-0.0071786754
11	0x3cf40dd0	0.029791743
12	0xbd7569d5	-0.059915382
13	0xbcf15e3e	-0.029463883
14	0xbccfb97c	-0.025357
15	0xbb958b15	-0.004563699
16	0xbcc7961f	-0.024363576
17	0x3d0ed61a	0.034872152
18	0xbc1a4b33	-0.009417343
19	0xbcdd9ec2	-0.02705324
20	0xbd52787d	-0.051384438
21	0xbd01f306	-0.031725906
22	0xbd3c3196	-0.045945726
23	0xbd24824d	-0.040163327
24	0xbcf7515c	-0.030190162
25	0xba49ef61	-0.0007703212
26	0x3c547210	0.012966648
27	0xbcbce3c5	-0.023057828
28	0x3d6645cf	0.05621892
29	0xbc5f1799	-0.013616466
30	0xbcc8c066	-0.024505805
31	0x3cd70e62	0.026251975
32	0x3b8ac4d2	0.0042348886
33	0x3dd30a9d	0.10304759
34	0xbb7fa4ce	-0.0039008143
35	0x3d1b329e	0.03789007
36	0x3d1dbc27	0.038509514
37	0xbd08cf47	-0.0334008
38	0xbd86ac80	-0.065758705
39	0xbbd422d8	-0.0064738803
40	0xbd2a68a6	-0.041603707
41	0x39aa57b8	0.00032490282
42	0x3c487651	0.01223524
43	0xbce8a924	-0.028400965
44	0x3d1563bc	0.036472067
45	0x3d0936e6	0.03349962
46	0x3b6f12ae	0.003647964
47	0x3c78ebea	0.015192965
48	0x3d748ee3	0.05970658
49	0xbc8dedc3	-0.017325288
50	0x3d2ea218	0.042635053
51	0x3c482f33	0.012218284
52	0x3cac75cc	0.021052264
53	0x3cc55c42	0.024091844
54	0x3d4f3409	0.050586734
55	0x3d1f42b9	0.03888199
56	0x3c8974e4	0.01677937
57	0x3d1611cb	0.036638062
58	0x3c96c9a5	0.018406698
59	0x3d7bd92a	0.0614864
60	0xbceefd1c	-0.029173426
61	0xbb582581	-0.0032981338
62	0x3d57eee3	0.052718055
63	0x3c9597d6	0.018260878
64	0xbae6b685	-0.0017602002
65	0xbcb7654a	-0.022387166
66	0xba6fb053	-0.0009143401
67	0x3cec6a56	0.028859299
68	0xbd90eb8f	-0.07076179
69	0xbcbb82c8	-0.02288951
70	0xbd4f0490	-0.05054146
71	0xbdab961f	-0.08378243
72	0x3b06e79d	0.002058483
73	0xbaee2bf0	-0.0018171053
74	0xbc2104a8	-0.00982777
75	0x3d271b7c	0.040797696
76	0xbce08e45	-0.02741159
77	0x3c7b144f	0.015324666
78	0xbca8879f	-0.020572482
79	0xbd19f4f4	-0.03758712
80	0xbd0357fb	-0.032066327
81	0xbd1bdfb8	-0.03805515
82	0xbca52a46	-0.02016176
83	0xbcd35258	-0.0257961
84	0x3ba271da	0.00495742
85	0xbc94483a	-0.018100847
86	0xbcd293e7	-0.025705291
87	0x3d06631a	0.032809354
88	0xbcaa9b8b	-0.020826122
89	0xbc200996	-0.00976791
90	0x3cce30b9	0.025169717
91	0xbc0f1dfc	-0.008735176
92	0xbc49708b	-0.012294899
93	0x3d0a2905	0.033730526
94	0xbc212034	-0.009834338
95	0xbd698c50	-0.057018578
96	0xbd05cbeb	-0.032665174
97	0x3b46c6f1	0.003033098
98	0x3cd2782d	0.02569207
99	0x3c5389b1	0.012911246
100	0xbc1cb3a8	-0.009564318
101	0x3ca01e2c	0.019545637
102	0x3d4c3d92	0.049863406
103	0x3d019ff7	0.031646695
104	0x3b934a72	0.0044949586
105	0x3d4133ca	0.04716853
106	0xbba1dbf2	-0.0049395496
107	0xbbcce361	-0.0062526916
108	0xbbc3aec7	-0.005971763
109	0x3d27dbbd	0.040981043
110	0x3c5c05bd	0.0134291025
111	0x3c13cc1a	0.00902083
112	0xbd484706	-0.04889586
113	0xbc84b74a	-0.01620068
114	0xbcc8f244	-0.024529584
115	0x3c187d92	0.009307282
116	0x3cf13bb2	0.02944741
117	0x3cf92d28	0.03041704
118	0x3ac6a75e	0.001515608
119	0x3b1f491b	0.002430505
120	0xbd189daf	-0.037259754
121	0x3cdab18c	0.02669599
122	0x3ceb0e3d	0.028693313
123	0x3bce3f67	0.0062941792
124	0x3d148149	0.03625611
125	0x3ca3287d	0.019916767
126	0x3d20fcfd	0.03930377
127	0x3c0b30a8	0.008495487
128	0xbc243e82	-0.010024669
129	0xbdb654f4	-0.08902922
130	0xbc472268	-0.012154199
131	0xbdcf2a7a	-0.10115524
132	0xb9b8be59	-0.00035237035
133	0xbc3e3b59	-0.011610829
134	0xbc972950	-0.018452317
135	0x3d40520f	0.046953257
136	0x3d3e40a9	0.046448383
137	0x3c52d012	0.012866991
138	0x3d7336c9	0.05937842
139	0x3cbe30a5	0.023216555
140	0x3d3f0072	0.046631284
141	0xbc583a71	-0.013197527
142	0xbb8184c0	-0.0039525926
143	0xbce1b0ef	-0.027550189
144	0x3d08a1d1	0.033357445
145	0xbd254042	-0.040344484
146	0x3d17077b	0.03687237
147	0xbcc370e9	-0.02385755
148	0xbd95e2a3	-0.07318618
149	0xba9cf62f	-0.0011975224
150	0xbd30f840	-0.0432055
151	0x3b9abff0	0.0047225878
152	0xbd2bf4b7	-0.041981425
153	0xbdb7e237	-0.08978694
154	0xbd09734a	-0.033557214
155	0x3b051091	0.0020304064
156	0xbd12c6f8	-0.035834283
157	0x3c0165fd	0.007897851
158	0xbd6a5f94	-0.057220057
159	0x3d46e6bc	0.04855989
160	0xbd3a7a06	-0.045526527
161	0x3caa35a6	0.020777535
162	0x3aadde4a	0.00132651
163	0xbccee752	-0.025256786
164	0xbc9b2860	-0.01894015
165	0xbd44ead7	-0.048075523
166	0xbd041ff3	-0.03225703
167	0x3c06d495	0.008229394
168	0xbc89456b	-0.016756734
169	0x3ccd2266	0.025040817
170	0x3c1e1830	0.009649321
171	0x3c60b5ad	0.01371519
172	0x3b5b11e3	0.003342741
173	0xbc1b5c7d	-0.0094825
174	0xbbafb8bb	-0.0053625978
175	0xbc768162	-0.015045496
176	0x3b16d997	0.0023017877
177	0xba8d1cb4	-0.0010766
178	0xbc1e81aa	-0.009674469
179	0xbc673e1e	-0.014113931
180	0xbc1f7337	-0.009732059
181	0x3d1f1644	0.038839594
182	0x3d84edbd	0.064906575
183	0xbcc95478	-0.02457641
184	0x3d111164	0.035416976
185	0xbc220b00	-0.009890318
186	0x3be41985	0.00696105
187	0x3d04d0b8	0.032425612
188	0x3cb378bb	0.021908155
189	0x3d003418	0.03129968
190	0x3cf1e3da	0.029527593
191	0x3ce882e1	0.02838272
192	0x3c7ab677	0.015302292
193	0x3c5002a1	0.012695939
194	0x3c87e9db	0.016591003
195	0x3baf2bdc	0.0053458046
196	0xbc94e7a8	-0.018176869
197	0xbc3f3749	-0.011670896
198	0xbdd02801	-0.1016388
199	0xbb43b172	-0.0029860404
200	0xbdaeefe9	-0.08541853
201	0xbd9451b3	-0.072421454
202	0xbcc02007	-0.023452772
203	0xbd81f82a	-0.06346162
204	0xbcb96d35	-0.022635082
205	0xb9ef3d6d	-0.00045631398
206	0xbcab939c	-0.02094441
207	0x3d4bffa5	0.04980435
208	0xbc800904	-0.015629299
209	0x3ca717a0	0.020397007
210	0x3d562a1c	0.052286252
211	0x3cc29b74	0.023755766
212	0x3d44d990	0.048059046
213	0xbd529c3f	-0.05141854
214	0x3bf63c1e	0.0075144907
215	0xbd560743	-0.05225302
216	0x3cbb1456	0.022836845
217	0xbd4eb7bf	-0.050468203
218	0xbcd3da55	-0.025860945
219	0xbd4126e2	-0.047156222
220	0x3c2e7ab0	0.010649368
221	0xbd1fd7f8	-0.039024323
222	0x3d8ab00d	0.0677186
223	0x3d32afe5	0.043624777
224	0x3cb07c38	0.021543607
225	0x3d2965d1	0.041356865
226	0x3dd5aa87	0.10432916
227	0xbd7cad7e	-0.061688893
228	0xbc1114ff	-0.0088551035
229	0xbdd799c7	-0.105273776
230	0xbd5c3407	-0.053760555
231	0xbdb36a57	-0.08760517
232	0xbd7992ed	-0.060931135
233	0xbd72ac2d	-0.05924623
234	0x3d5da9dd	0.054117072
235	0xbad3a350	-0.0016146693
236	0x3d049cc3	0.032376062
237	0xbd51ab47	-0.051188733
238	0xbce69f49	-0.028152125
239	0x3c19ac8e	0.009379519
240	0xbb87c4ee	-0.004143349
241	0x3d50b535	0.050954062
242	0x3ce7668b	0.028247138
243	0xbd155f9c	-0.036468133
244	0xbde7f8af	-0.113267295
245	0x3c104753	0.0088060675
246	0xbd3641cf	-0.044496354
247	0xbd5def7c	-0.05418347
248	0xbdd37a56	-0.10326068
249	0xbd5bec9c	-0.053692445
250	0xbd2c5880	-0.042076588
251	0x3bd9b686	0.006644073
252	0x3d6da40e	0.058017783
253	0x3d27ff21	0.041014794
254	0x3b0a2e16	0.0021084598
255	0x3c72524a	0.014790127

encoder.block1.block.0.bias f4 [32]
0	0x3c82a2f9	0.015946852
1	0xbdb148fc	-0.08656499
2	0xbc4194e6	-0.011815285
3	0xbcddd726	-0.02708013
4	0xbde071e3	-0.10959222
5	0xbdada17b	-0.084780656
6	0xbd8129b5	-0.06306783
7	0x3e8bedc4	0.27329838
8	0x3ece9e08	0.40354943
9	0x3e0a5ef9	0.13512792
10	0xbb6f04ec	-0.003647144
11	0xbd862566	-0.06550102
12	0x3dd7e094	0.10540882
13	0xbd928495	-0.07154194
14	0xbbd2d47f	-0.006434023
15	0x3dfc7dea	0.12328704
16	0x3d02e114	0.031952932
17	0xbc76dfd4	-0.015068013
18	0x3d4d41e5	0.05011167
19	0xbd09a66c	-0.033605978
20	0xbd74ee07	-0.059797313
21	0x3e567f0e	0.20946905
22	0x3ee4a455	0.44656625
23	0xbcb89ca1	-0.022535624
24	0x3e3b6b72	0.18302706
25	0xbe5cd873	-0.21566944
26	0x3d5ca341	0.05386663
27	0x3a067001	0.0005128384
28	0x3d4d33a7	0.050098088
29	0x3ebf8ebe	0.3741359
30	0x3e8d8fd2	0.2764879
31	0x3ebd3ea0	0.36961842

encoder.block1.block.2.weight f4 [32]
0	0x3f646f43	0.8923227
1	0x3f6bf0ea	0.9216448
2	0x3f623cbf	0.8837394
3	0x3f5ef8de	0.8709849
4	0x3f6fdd59	0.93697125
5	0x3f9506b6	1.1642673
6	0x3f6605f0	0.8985281
7	0x3f67a9c7	0.90493435
8	0x3f57e449	0.8433271
9	0x3f630de9	0.886931
10	0x3f934cfc	1.1507869
11	0x3f6a6b11	0.9156962
12	0x3f6c70f7	0.9235987
13	0x3f6f4a00	0.9347229
14	0x3f702a64	0.9381468
15	0x3f727d95	0.9472287
16	0x3f6712f6	0.9026331
17	0x3f5dd890	0.86658573
18	0x3f698c18	0.9122939
19	0x3f92002a	1.14063
20	0x3f70824a	0.93948805
21	0x3f5e739c	0.86895156
22	0x3f6e1395	0.9299863
23	0x3f6a339d	0.91485006
24	0x3f5aceae	0.8547162
25	0x3f8d953b	1.1061167
26	0x3f69a33d	0.91264707
27	0x3f70419d	0.9385012
28	0x3f62748a	0.88459074
29	0x3f690903	0.91029376
30	0x3f5b3e65	0.8564208
31	0x3f6dd2bb	0.92899674

encoder.block1.block.2.bias f4 [32]
0	0xbc84da56	-0.016217392
1	0x3bd4a60a	0.00648952
2	0x3e91d3b9	0.28481844
3	0xbd1440e3	-0.036194693
4	0xbe00e103	-0.12585835
5	0x3d5976e0	0.053091884
6	0xbd1b5e2e	-0.037931614
7	0x3eaee68c	0.34160268
8	0xbbc24919	-0.005929124
9	0x3dac3a92	0.08409609
10	0x3cb4365b	0.021998575
11	0xbde3bc67	-0.11119919
12	0xbddf4102	-0.10901071
13	0x3c898321	0.01678616
14	0xbc8a8e47	-0.016913546
15	0x3d8fb3b7	0.070167
16	0x3cf61534	0.030039407
17	0x3c5d82f1	0.013519988
18	0x3dc4c6fa	0.09608264
19	0x3d7e0bab	0.062022846
20	0x3cedf7f5	0.0290489
21	0x3d9b422a	0.07580979
22	0x3dd1e4c4	0.10248712
23	0xbe0d2592	-0.13783863
24	0x3e991ced	0.2990488
25	0x3db0a4fb	0.086252175
26	0xbd120c9d	-0.03565656
27	0xbc6b54b2	-0.014363455
28	0x3de6f71e	0.112776026
29	0x3cb782a9	0.02240117
30	0xbdd1eb81	-0.10249997
31	0x3dd47294	0.103734165

encoder.block1.block.2.running_mean f4 [32]
0	0x3f62d3eb	0.8860461
1	0x3e91a52d	0.28446332
2	0x3e9f4c13	0.31112728
3	0x3f577cc9	0.8417478
4	0x3ed6f287	0.4198191
5	0x3caef424	0.02135665
6	0x3ed986fd	0.424858
7	0x3ef5d151	0.48011258
8	0x3fc5e2fb	1.5459894
9	0x3f46ac65	0.77606803
10	0x3d8d01d2	0.06885113
11	0x3ebc9c1e	0.36837858
12	0x3f4e4efa	0.8058926
13	0x3f224a52	0.63394654
14	0x3ec25807	0.37957785
15	0x3f2c1270	0.67215633
16	0x3ed4cffc	0.4156493
17	0x3eefdd28	0.46848416
18	0x3f59eb60	0.8512478
19	0x3dcb682c	0.099319786
20	0x3f3ba2e7	0.73295444
21	0x3f3ad972	0.72988045
22	0x3faaf886	1.3357093
23	0x3eed1608	0.4630587
24	0x3f35d703	0.71031207
25	0x3d801b1d	0.062551714
26	0x3f3cf463	0.73810405
27	0x3f1b01b4	0.60549474
28	0x3f4e0893	0.80481833
29	0x3fac50d6	1.3462169
30	0x3fded932	1.7410033
31	0x3fb91ec6	1.4462516

encoder.block1.block.2.running_var f4 [32]
0	0x3f860293	1.0469536
1	0x3e530c31	0.2061012
2	0x3e801b85	0.25020996
3	0x3f13853b	0.5762517
4	0x3f2aa072	0.6665107
5	0x3c7d9f60	0.0154798925
6	0x3ea2be3e	0.31785768
7	0x3e9cdc51	0.30636838
8	0x3eaa134b	0.33217844
9	0x3f3b9dcd	0.7328766
10	0x3d1bf029	0.03807083
11	0x3e7ddd31	0.24791409
12	0x3f4c4a94	0.798013
13	0x3f51ce04	0.8195498
14	0x3f106a16	0.56411874
15	0x3f41dda8	0.75728846
16	0x3e407031	0.18792798
17	0x3e935a73	0.28779945
18	0x3f2f1687	0.6839375
19	0x3d5e0f17	0.05421361
20	0x3f81ab5d	1.0130421
21	0x3e1a737e	0.1508312
22	0x3e5f534b	0.21809117
23	0x3ee3e882	0.44513327
24	0x3eae77d4	0.34075797
25	0x3d340288	0.043947726
26	0x3f3b0393	0.7305233
27	0x3f31f24d	0.69510347
28	0x3f483382	0.78203595
29	0x3eaf11da	0.34193307
30	0x3f0b482f	0.5440702
31	0x3f520f50	0.82054615

encoder.block2.block.0.weight f4 [32, 32, 3, 3]
0	0x3acafee7	0.0015487344
1	0x3ce5420a	0.027985591
2	0x3cd3da74	0.025861003
3	0xbc5716ae	-0.013127966
4	0xbd97f921	-0.074205644
5	0xbd2e28df	-0.042519446
6	0x3ae4ca41	0.0017455296
7	0xb997dc6b	-0.00028965189
8	0x3ca31910	0.019909412
9	0xbc1c88c6	-0.009554094
10	0x3b8c7e7f	0.0042875404
11	0x3b5aefff	0.003340721
12	0xbd31bb1e	-0.04339134
13	0xbd6eb8da	-0.058281757
14	0xbc167748	-0.009183712
15	0xbc39577b	-0.011312361
16	0xbba79412	-0.005114087
17	0xbd2f78d4	-0.04283984
18	0x3c8abd4a	0.016935963
19	0x3c825b1f	0.01591259
20	0x3ce0d547	0.027445449
21	0x3cc9900e	0.024604823
22	0x3d304e31	0.04304332
23	0xbd06d97d	-0.032922257
24	0xbd567797	-0.052360144
25	0x3d45014c	0.04809694
26	0x3cee9551	0.029123934
27	0xbbcd8ec9	-0.006273125
28	0xbc1781ca	-0.009247253
29	0xbd97c0ca	-0.074098185
30	0xbcab3ad0	-0.020902067
31	0x3b9e01e7	0.004822004
32	0x3d3287f3	0.043586683
33	0xbc265e24	-0.010154281
34	0xbb1cb2bc	-0.0023910245
35	0xbc45de19	-0.012076878
36	0xbd107b80	-0.03527403
37	0xbd2f63c2	-0.042819746
38	0x3d330c56	0.043712936
39	0x3b34b438	0.002757324
40	0x3cabef54	0.020988144
41	0xbd372166	-0.044709586
42	0xbd66fc2f	-0.056392845
43	0xbd82d8fd	-0.063890435
44	0xbd82d6d1	-0.06388629
45	0x3ac83fdf	0.0015277824
46	0x3cdde029	0.027084427
47	0xbd5d3fbf	-0.05401587
48	0x3cfbe017	0.030746503
49	0x3d791102	0.060807236
50	0xbb099d2d	-0.0020998225
51	0xbdc3653c	-0.09540793
52	0xbd3ec00c	-0.04656987
53	0xbe088c75	-0.1333483
54	0xbca315e3	-0.019907897
55	0xbc3a968e	-0.011388434
56	0xbcc32909	-0.023823278
57	0xbd1cfa2f	-0.03832453
58	0x3cbd36be	0.023097392
59	0x3b46b5e1	0.003032081
60	0x3bc7d5bb	0.0060984767
61	0xbbca5319	-0.006174457
62	0x3b6e1c3d	0.003633275
63	0xbcd0154d	-0.025400782
64	0x3beb4097	0.0071793306
65	0x3ba2a031	0.004962944
66	0xbd1c711b	-0.038193803
67	0xbd2937b2	-0.04131288
68	0x3c21c332	0.009873198
69	0xbbed8c71	-0.007249408
70	0x3c87aa53	0.01656071
71	0x3d4588b3	0.04822607
72	0x3c458da2	0.012057694
73	0xbc6a938e	-0.014317406
74	0x3cb68081	0.022278072
75	0xbc13ff50	-0.009033039
76	0xbd1b490e	-0.037911467
77	0xbd2942b5	-0.041323382
78	0xb8e17784	-0.000107510976
79	0xbc9faa45	-0.01949037
80	0xbcb8543d	-0.022501105
81	0x3ca15b9f	0.019697009
82	0x3c641e2c	0.013923209
83	0xbd0a7196	-0.03379973
84	0xbc5787f3	-0.013154971
85	0xbcfd06ed	-0.030887092
86	0xbce7aa0c	-0.028279327
87	0x3d0da411	0.034580294
88	0xbc858e1c	-0.016303115
89	0xb9532cdc	-0.0002013924
90	0xbd1d58a2	-0.038414605
91	0xbd411c74	-0.047146276
92	0xbd7aa7bd	-0.061195124
93	0x3ddb8620	0.10718942
94	0x3e1597c8	0.14608681
95	0x3d3dad93	0.04630811
96	0xbd329377	-0.043597665
97	0xbd0906cd	-0.03345375
98	0xbd8513c7	-0.06497913
99	0x3cfaf486	0.030634176
100	0x3d1e80b6	0.038696967
101	0x3c1ccf80	0.009570956
102	0xbc565479	-0.013081663
103	0x3d951889	0.0728007
104	0x3d66882b	0.056282204
105	0x3cde7301	0.027154448
106	0x3aedd272	0.0018144383
107	0x3c3ccc8b	0.011523376
108	0x3c0ae6f4	0.008477915
109	0xbcd420b7	-0.025894506
110	0xbcaf67f0	-0.021411866
111	0xbc938ae4	-0.018010564
112	0xbd2dd7f9	-0.042442296
113	0xbd37b1c0	-0.04484725
114	0xbc5e78b6	-0.013578584
115	0x3c63ec75	0.013911356
116	0x3ce728e3	0.028217738
117	0x3d3f9ef6	0.046782456
118	0xbd0f31b8	-0.034959525
119	0xbd52b005	-0.051437397
120	0x3cd81045	0.026374945
121	0xbcbeadbc	-0.023276202
122	0xbc45911e	-0.012058524
123	0xbcd54cee	-0.02603766
124	0xbce7610f	-0.028244523
125	0x3c376a46	0.011194771
126	0xbb1800d7	-0.002319386
127	0x3c31d247	0.010853357
128	0x3d42f978	0.047601193
129	0x3d161857	0.036644306
130	0x3bb18adc	0.0054181647
131	0x3c185086	0.009296542
132	0x3d356d48	0.04429367
133	0xbcc1aa08	-0.023640648
134	0x3d1f19e0	0.038843036
135	0x3c82690d	0.015919233
136	0xbd41b5db	-0.04729257
137	0x3c5ae9ee	0.013361437
138	0xbd2fdca9	-0.042935047
139	0xbc9de65f	-0.019274889
140	0xbd20fe5e	-0.039305083
141	0x3cc3428d	0.023835445
142	0x3c1966b1	0.009362862
143	0x3c8d900f	0.017280607
144	0x3b0c373a	0.0021395222
145	0xbc809781	-0.015697243
146	0x3d02287e	0.031776898
147	0x3d5f3894	0.054497316
148	0x3d9f5eb0	0.07781732
149	0x3ca6875d	0.020328218
150	0xb9f2b2c5	-0.0004629103
151	0x3ce29584	0.027659185
152	0xbc0459af	-0.008078023
153	0x3d4685d9	0.04846749
154	0xbc543b3b	-0.012953575
155	0x390ddab1	0.00013528277
156	0xbbbed916	-0.0058242185
157	0x3bab5d4a	0.005229627
158	0x3aedd0b3	0.0018143862
159	0xbcaee06c	-0.021347247
160	0x3cd6543c	0.026163213
161	0x3b8fbdd7	0.0043866443
162	0x3cdef883	0.027218109
163	0x3c21543e	0.009846745
164	0xbbd07556	-0.006361644
165	0xbb3fdcad	-0.002927582
166	0x3ddd08d7	0.10792702
167	0x3c2143c2	0.009842815
168	0x3cedabf7	0.029012663
169	0x3cc0ad5c	0.023520164
170	0x3c8382b4	0.016053535
171	0xbd7bb03a	-0.06144736
172	0x3d8168c5	0.06318811
173	0xbd9725f6	-0.07380287
174	0xbbaafd67	-0.005218196
175	0x3dc3d512	0.09562124
176	0x3d8a19ff	0.067432396
177	0xbd9ca43d	-0.076485135
178	0x3a80d30d	0.0009828523
179	0xbd8e21bc	-0.06940028
180	0xbb90e7a2	-0.004422144
181	0xbd60a150	-0.05484134
182	0x3cbb5fd8	0.02287285
183	0xbd580e40	-0.052747965
184	0xbc329232	-0.0108991135
185	0xbd15759f	-0.036489125
186	0xba8aed31	-0.0010599253
187	0xbd3f4ef7	-0.046706166
188	0x3c2d699d	0.010584262
189	0xbc22b2ad	-0.009930295
190	0x3c2a424e	0.010391785
191	0xbd5e2fc9	-0.05424479
192	0x3cc14445	0.023592124
193	0x3cddc14c	0.02706971
194	0x3c94f959	0.018185304
195	0x3c9dc7a0	0.019260228
196	0xbd25f351	-0.040515248
197	0xbb86b36d	-0.0041107447
198	0xba59d370	-0.00083094
199	0x3da26ba3	0.07930686
200	0x3d4d02e3	0.05005158
201	0x3cc6fff1	0.024291964
202	0x3d48e7a6	0.049049042
203	0x3cccb244	0.024987347
204	0x3d42b0bd	0.047531832
205	0x3d43e9bf	0.04783034
206	0x3cd4ddb5	0.025984624
207	0x3d1753ba	0.036945082
208	0xbc220dfa	-0.009891028
209	0x3d47c436	0.048771106
210	0xbb140ec4	-0.0022591809
211	0x3d95e96e	0.07319914
212	0x3cb67e8a	0.022277135
213	0x3c59bdfa	0.013289923
214	0xbb8444f6	-0.004036541
215	0xbc8d070f	-0.01721528
216	0x3d227d56	0.03967031
217	0xbd5660d2	-0.05233843
218	0x3d06fe3a	0.032957293
219	0x38a2165d	7.7289274e-05
220	0xbb84025b	-0.004028601
221	0xbd267167	-0.040635493
222	0x3b22f6f9	0.0024866445
223	0x3b171c0b	0.0023057486
224	0x3c853c53	0.016264116
225	0xbbd455e8	-0.0064799674
226	0x3c06bc8f	0.008223667
227	0xbce11f4c	-0.027480744
228	0xbcf722fb	-0.030168047
229	0x3b9b0260	0.0047305077
230	0x3d446e83	0.047956955
231	0xbde4d197	-0.111727886
232	0xbd4fa746	-0.050696634
233	0xbdada312	-0.08478369
234	0xbbaad8fb	-0.0052138544
235	0x3cbb2fcf	0.022849945
236	0xbd0d495f	-0.0344938
237	0x3b8cf791	0.004301973
238	0x3d0fdcf0	0.03512281
239	0x3d27eabe	0.040995352
240	0x3cb31fd4	0.021865763
241	0xbb7ccdec	-0.0038574887
242	0xbd91458c	-0.07093343
243	0x3b91d6c0	0.004450649
244	0xbc163786	-0.009168511
245	0x3cbd88d9	0.023136543
246	0x3d290a7b	0.04126976
247	0x3d9d6ec2	0.07687141
248	0x3cd8dc1d	0.026472146
249	0x3b224ef3	0.0024766296
250	0x3b25f940	0.0025325567
251	0xbc45a4df	-0.012063234
252	0x3ccc9d87	0.024977459
253	0xbd0f1686	-0.03493359
254	0x3cccef96	0.025016587
255	0x3d4b4680	0.04962778

encoder.block2.block.0.bias f4 [32]
0	0x3c99692d	0.01872691
1	0x3d50a6c8	0.050940305
2	0x3c987b4e	0.018613484
3	0xbda4db73	-0.08049669
4	0x3d725a00	0.059167862
5	0x3d3f65b8	0.046727866
6	0xba810141	-0.0009842293
7	0x3cf3e9fc	0.029774658
8	0xb967d2de	-0.00022108431
9	0xbd3a3218	-0.04545793
10	0x3dda72cb	0.10666426
11	0xba77b04e	-0.00094485737
12	0xbd6f48ea	-0.058419146
13	0xba69571e	-0.0008901226
14	0x3c11e54c	0.008904766
15	0x3da8abd9	0.08235902
16	0x3cee04a2	0.029054943
17	0x3de7d0b0	0.11319101
18	0x3d207b41	0.039180044
19	0x3dc1d937	0.094652586
20	0x3d49caa6	0.049265526
21	0x3d448b2a	0.04798428
22	0xbcdb37af	-0.02675995
23	0x3dc3cc9b	0.0956051
24	0x3d1d8eeb	0.038466375
25	0x3d6a2e48	0.057173043
26	0x3c2570f1	0.010097728
27	0x3d81bd0b	0.06334885
28	0xbd54996a	-0.05190412
29	0x3d581a51	0.052759472
30	0x3da6f2d7	0.08151787
31	0x3d8b0cb0	0.06789529

encoder.block2.block.2.weight f4 [32]
0	0x3f77e1a1	0.9682866
1	0x3f71dd2c	0.94478106
2	0x3f849675	1.0358416
3	0x3f721765	0.9456695
4	0x3f80f529	1.0074817
5	0x3f7457ef	0.95446676
6	0x3f90ef3a	1.1323006
7	0x3f6d3467	0.92658085
8	0x3f7ecf76	0.9953531
9	0x3f73ce40	0.9523659
10	0x3f73f09e	0.9528903
11	0x3f7d3b25	0.9891837
12	0x3f8aef65	1.0854307
13	0x3f8391d1	1.0278875
14	0x3f798297	0.9746489
15	0x3f742e90	0.9538355
16	0x3f73dd2d	0.9525936
17	0x3f736968	0.9508271
18	0x3f77031b	0.96489114
19	0x3f74bc89	0.9560018
20	0x3f765421	0.9622212
21	0x3f72ee9c	0.9489534
22	0x3f86d29e	1.0533025
23	0x3f75d98b	0.9603507
24	0x3f758f0a	0.95921385
25	0x3f78cd84	0.9718859
26	0x3f89fc83	1.0780185
27	0x3f75bb96	0.9598936
28	0x3f6ed4a9	0.93293244
29	0x3f76bcae	0.9638165
30	0x3f710d4b	0.9416091
31	0x3f77fe58	0.9687247

encoder.block2.block.2.bias f4 [32]
0	0xbd4cbbfa	-0.049983956
1	0x3d73cecd	0.059523392
2	0xbd424a67	-0.047434237
3	0xbd52e681	-0.051489357
4	0xbd701468	-0.05861321
5	0x3d8408ab	0.06446966
6	0xbd792808	-0.060829192
7	0xbd3d8a99	-0.046274755
8	0xbd34110d	-0.043961573
9	0xbd4915cb	-0.04909305
10	0x3d4b2404	0.049594894
11	0xbd40cf15	-0.04707249
12	0xbd269acb	-0.040674966
13	0x3d65e0c1	0.056122545
14	0xbd7ac9ea	-0.061227717
15	0x3d33d86a	0.04390756
16	0x3d2558dc	0.040367946
17	0x3d5a9e82	0.05337382
18	0x3d3074fb	0.04308031
19	0x3d35b1e4	0.044359103
20	0xbd335b10	-0.043788016
21	0x3d3a6bd0	0.045512974
22	0xbd818c15	-0.06325547
23	0x3d5b9977	0.053613152
24	0xbd21ecfa	-0.03953264
25	0x3d27e587	0.04099038
26	0xbd193fa6	-0.037414216
27	0x3d3d8e9d	0.046278585
28	0xbd4bbbdb	-0.0497397
29	0x3d338cae	0.043835334
30	0x3d4dc0d9	0.050232742
31	0x3d790fda	0.060806133

encoder.block2.block.2.running_mean f4 [32]
0	0x3f182077	0.5942454
1	0x3f25a170	0.6469946
2	0x3ef081ba	0.46973974
3	0x3f28332a	0.6570307
4	0x3ec10a4a	0.37703162
5	0x3fbec141	1.4902726
6	0x3f06be3d	0.5263403
7	0x3f3f6c85	0.7477496
8	0x3f61af23	0.8815786
9	0x3f06c614	0.52645993
10	0x3f624b38	0.88396025
11	0x3f262050	0.64893055
12	0x3f146e4e	0.5798081
13	0x3ee50710	0.4473195
14	0x3f5aa3cf	0.854062
15	0x3f6dd255	0.92899066
16	0x3f406e07	0.7516789
17	0x3f339f59	0.7016502
18	0x3ef7f880	0.48431778
19	0x3f949995	1.160937
20	0x3f0a4431	0.540103
21	0x3f203701	0.6258393
22	0x3f66678d	0.90001756
23	0x3f621788	0.88317156
24	0x3ef7e25d	0.4841489
25	0x3f273d90	0.6532831
26	0x3f1f8be0	0.6232281
27	0x3f9a9a96	1.2078426
28	0x3f2d0f58	0.6760154
29	0x3f475f3d	0.778797
30	0x3f1ee75f	0.62071794
31	0x3efdd045	0.4957296

encoder.block2.block.2.running_var f4 [32]
0	0x3f4056cc	0.7513244
1	0x3f9beda3	1.2181896
2	0x3f0eb713	0.557481
3	0x3f1b10cf	0.6057252
4	0x3eaf2f86	0.34215945
5	0x408467a1	4.13765
6	0x3f65358f	0.8953485
7	0x3f62f0cc	0.88648677
8	0x3fd59d2a	1.6688588
9	0x3ee05d71	0.4382129
10	0x3fad44f4	1.3536668
11	0x3f79b400	0.97540283
12	0x3f83b114	1.0288415
13	0x3f139e94	0.57663846
14	0x3fc56a48	1.542306
15	0x3fb7fbe4	1.4373746
16	0x3f4c5e3f	0.7983131
17	0x3f31003d	0.6914099
18	0x3f0c3b60	0.547781
19	0x4031785e	2.7729716
20	0x3f383ab4	0.71964574
21	0x3f564b89	0.8370901
22	0x400c710a	2.1943994
23	0x3fbb4683	1.4630893
24	0x3f04928e	0.51786125
25	0x3f27ee3c	0.6559789
26	0x3f8df4d4	1.1090341
27	0x4027d301	2.6222537
28	0x3f3673a4	0.71270204
29	0x3fca9625	1.582707
30	0x3f5db568	0.8660493
31	0x3f183080	0.59449005

encoder.final.block.0.weight f4 [3, 32, 3, 3]
0	0xbda4e6d3	-0.08051839
1	0xbd804e7b	-0.06264969
2	0xbd9a2442	-0.07526447
3	0xbd128d49	-0.03577927
4	0xbd549067	-0.051895525
5	0xbd2b957b	-0.041890603
6	0xbcdad6e0	-0.026713789
7	0xbaa884c2	-0.0012856948
8	0xbd0c50a3	-0.03425659
9	0xbab89752	-0.0014083183
10	0x3cbf6611	0.023364099
11	0x3c173fb7	0.009231499
12	0x3d9d7415	0.076881565
13	0x3c4e4b80	0.012591243
14	0x3c51263c	0.012765463
15	0x3d06686c	0.03281443
16	0x3d514c32	0.051098056
17	0x3c42ec62	0.011897178
18	0x3c9eeb5d	0.01939934
19	0x3cea1eb6	0.028579097
20	0x3cbf3e8c	0.023345254
21	0xbcbf196a	-0.023327548
22	0x3bf1d6a5	0.007380324
23	0xbca24371	-0.01980755
24	0xbdecb065	-0.11557082
25	0xbd459a14	-0.048242643
26	0xbdc71de5	-0.09722499
27	0x3d316fbc	0.04331945
28	0xbc2c49e4	-0.010515664
29	0x3cdf628e	0.027268674
30	0xbc8b51bb	-0.017006746
31	0xbc078111	-0.008270518
32	0xbc2baf98	-0.0104788765
33	0x3ca18b02	0.019719604
34	0xbcad98a3	-0.021190947
35	0x3d63800c	0.055542037
36	0x3cb4dab5	0.022076944
37	0x3c0da4e6	0.008645272
38	0xbd0c753c	-0.03429149
39	0x3d0fe7d3	0.035133194
40	0x3bd35f41	0.006450564
41	0xbc87e393	-0.016588008
42	0xbd2f6f15	-0.042830545
43	0xbd9b68b4	-0.0758833
44	0xbdc825e4	-0.09772852
45	0x3d13713b	0.035996657
46	0x3cac4e6e	0.021033492
47	0x3d842639	0.06452603
48	0x3b9b8a95	0.004746745
49	0xbb35a023	-0.0027713857
50	0xbc0ed58a	-0.008717904
51	0x3d000e65	0.031263728
52	0x3d2d602b	0.04232804
53	0x3abc2cf4	0.0014356659
54	0xbd3f9c6c	-0.046780035
55	0xbd561610	-0.052267134
56	0xbdacc8c7	-0.08436733
57	0x3d43329f	0.047655698
58	0x3d2f0179	0.042726014
59	0xbd015fae	-0.031585388
60	0x3d86bd6f	0.065791
61	0x3d05472c	0.032538578
62	0xbc9801b0	-0.018555492
63	0x3bc0b6d1	0.0058811684
64	0x3c38c036	0.011276295
65	0xbc91e238	-0.017808065
66	0xbd2111cd	-0.039323617
67	0xbcd7b8f4	-0.02633331
68	0xbd3fcbe7	-0.046825316
69	0xbd045795	-0.032310087
70	0xbd221952	-0.03957493
71	0xbc5cbddf	-0.013473003
72	0xbd0727fc	-0.032997116
73	0x3d00bee8	0.031432062
74	0xbd2f5b50	-0.04281169
75	0xbd881760	-0.066450834
76	0x3c672238	0.0141072795
77	0xbcbdbafe	-0.023160454
78	0xbdc4f502	-0.09617044
79	0xb97fec4a	-0.0002440672
80	0xbd1e005e	-0.03857457
81	0xbd010c17	-0.03150567
82	0xbc66840e	-0.01406957
83	0x3cc6455b	0.024202993
84	0xbd9129dc	-0.07088062
85	0xbd7981b2	-0.060914703
86	0x3c9291f8	0.017891869
87	0x3c9f467f	0.019442795
88	0x3be15278	0.006876286
89	0x3c168f40	0.009189427
90	0x3ceda73b	0.029010406
91	0xbcf60e12	-0.030036006
92	0xbafc6029	-0.0019254732
93	0x3c82e57f	0.015978573
94	0x3c0acf25	0.008472239
95	0x3be6e4b2	0.0070463056
96	0xba683c6b	-0.00088591006
97	0x3ca8b24f	0.020592837
98	0x3c5e5430	0.013569877
99	0xbd9f3b12	-0.07774939
100	0xbd766167	-0.060151484
101	0x3c087979	0.008329743
102	0xbbf14f2d	-0.007364175
103	0x3d078507	0.03308585
104	0xbd055ea2	-0.032560952
105	0xbd224aaf	-0.039622005
106	0xbd5eee17	-0.05442628
107	0xbd03527d	-0.03206109
108	0x3d4792c4	0.04872395
109	0x3d1cc519	0.038273904
110	0x3c1990f0	0.009372935
111	0x3d5ab01b	0.053390604
112	0x3d08b092	0.033371516
113	0xbcb89efa	-0.022536743
114	0xbd67a0da	-0.056549884
115	0xbdc351ca	-0.095370844
116	0xbdb77b83	-0.08959105
117	0x3c39489a	0.0113088135
118	0x3d029506	0.0318804
119	0x3cd83712	0.026393447
120	0x3b38f159	0.0028220026
121	0x39cca4dd	0.00039032745
122	0x3c8cb463	0.017175859
123	0xbdab207e	-0.08355807
124	0xbc97a517	-0.018511338
125	0xbd7fe84d	-0.0624774
126	0xbdab4676	-0.08363049
127	0xbd973ecf	-0.07385027
128	0xbc9cfec3	-0.019164449
129	0xbcb8100a	-0.022468586
130	0x3beed300	0.0072883368
131	0xbca46db1	-0.020071836
132	0x3cd47246	0.025933396
133	0x3c5398ef	0.01291488
134	0xbb1cb23c	-0.0023909947
135	0x3d14e70a	0.03635315
136	0x3cdbeece	0.02684727
137	0x3d87b935	0.06627122
138	0x3c8c7965	0.01714773
139	0xbd195b0d	-0.03744035
140	0x3d5ef8e3	0.054436576
141	0xbbf86865	-0.007580804
142	0x3c9d9eaf	0.019240705
143	0x3cb811bd	0.022469396
144	0xbc967903	-0.01836825
145	0x3d6b6647	0.057470586
146	0x3d2d0e71	0.0422501
147	0x3b9d85ba	0.004807201
148	0x3d24d6fd	0.04024409
149	0x3d6bab38	0.057536334
150	0x3d36015f	0.0444349
151	0x3b9c2cb9	0.0047660735
152	0x3cbdb13d	0.023155803
153	0xbb0c0b28	-0.0021368954
154	0x3d10ccff	0.03535175
155	0x3c954869	0.018223004
156	0x3d5de0e0	0.054169536
157	0x3c833542	0.016016606
158	0x3d3f6bcf	0.046733674
159	0x3d688fe5	0.056777854
160	0x3d59bf34	0.05316086
161	0x3d1eef84	0.03880264
162	0x3cdb9f4f	0.026809363
163	0x3d141bef	0.036159452
164	0xbd2b1b5e	-0.041774146
165	0x3d4f0347	0.050540235
166	0x3d813ead	0.063107826
167	0x3d51e040	0.051239252
168	0x3d72c1cd	0.059266854
169	0x3d89d34a	0.06729753
170	0xbbed5fe4	-0.007244097
171	0x3d59d51e	0.05318176
172	0xbc9c90dc	-0.019112043
173	0xbc12d8f7	-0.008962861
174	0x3d7dd80e	0.061973624
175	0x3d352774	0.04422708
176	0x3d2c25f7	0.042028394
177	0x3d0f2d1d	0.034955133
178	0xbcb9f5b7	-0.022700174
179	0x3cabeaa2	0.020985905
180	0xbd54fa33	-0.05199642
181	0xbc6f17be	-0.014593063
182	0xbd5ba9dc	-0.053628787
183	0xbd3541fb	-0.044252377
184	0xbd2380d9	-0.0399178
185	0xbd2ae35a	-0.041720726
186	0xbc9663de	-0.018358167
187	0x3a07df52	0.00051831186
188	0xbd377ffd	-0.044799794
189	0xbcfd98f2	-0.03095672
190	0x3c675b63	0.014120909
191	0xbca651a2	-0.020302597
192	0x3cfd383c	0.030910604
193	0x3cc1bd5f	0.02364987
194	0xbcd1345e	-0.025537666
195	0xbc170d8f	-0.009219541
196	0x3d7550c0	0.059891462
197	0x3d0969a4	0.033548012
198	0xbda62d34	-0.081140906
199	0xbb76ee0e	-0.0037678513
200	0x3d4a7f37	0.049437728
201	0xbbda66ba	-0.006665078
202	0xbb154645	-0.002277748
203	0x3c52026f	0.012817963
204	0xbded2169	-0.11578638
205	0xbdac8ad0	-0.08424914
206	0xbcec6847	-0.028858317
207	0x3d5f8bbc	0.05457662
208	0x39f6989a	0.00047034473
209	0xbcab966a	-0.020945746
210	0x3cad5669	0.021159368
211	0x3b365d7a	0.0027826712
212	0x3ca21b8c	0.019788526
213	0x3d8af52c	0.06785044
214	0xbbab422e	-0.005226395
215	0x3d4ad6f3	0.049521398
216	0xbc2c8c99	-0.010531568
217	0x3cf694e4	0.030100293
218	0xbce47dd9	-0.02789204
219	0xbd53d6b9	-0.051718447
220	0x3bbc5276	0.005747135
221	0x3c9c2e8d	0.019065166
222	0xbd82b205	-0.06381611
223	0xbd0228a9	-0.031777058
224	0x3c136b81	0.008997799
225	0x3c337832	0.01095395
226	0x3d343843	0.043998968
227	0x3cc16c66	0.023611259
228	0x3ccbb0af	0.024864523
229	0x3d8106a6	0.06300096
230	0x3d310267	0.04321518
231	0x3d261837	0.040550437
232	0x3d2e7438	0.042591304
233	0x3c90c9b5	0.017674306
234	0xbc89f154	-0.016838707
235	0x3c1d4ceb	0.009600858
236	0x3bd18ab8	0.0063947104
237	0xbd5ef87b	-0.05443619
238	0x3d93e7da	0.072219566
239	0x3cda4aeb	0.026647052
240	0xbe20a017	-0.1568607
241	0xbd289924	-0.04116167
242	0xbdbbe3a5	-0.09174279
243	0x3caa5a2f	0.020794956
244	0x3cc492bd	0.023995752
245	0x3c9409a6	0.018071007
246	0x3d3fdca3	0.046841275
247	0xbd0b1595	-0.03395613
248	0x3d15baac	0.036554977
249	0x3c90c96a	0.017674167
250	0x3d6a97d3	0.057273697
251	0x3c777bb3	0.015105176
252	0xbca72488	-0.020403162
253	0xbc13d37b	-0.009022589
254	0xbc721041	-0.014774383
255	0xbccb2f03	-0.02480269

encoder.final.block.0.bias f4 [3]
0	0x3d8e578b	0.06950291
1	0x3cd9f138	0.02660428
2	0xbc313666	-0.010816192

decoder.initial.block.0.weight f4 [32, 3, 3, 3]
0	0xbe0ca32b	-0.13734119
1	0xbe4d193a	-0.20029154
2	0x3e10f59c	0.14156193
3	0x3c923f93	0.01785258
4	0x3e5d77b7	0.21627699
5	0x3e13379c	0.14376682
6	0xbd95cb7f	-0.073142044
7	0xbdae4bfc	-0.085105866
8	0x3b954485	0.0045552873
9	0x3d078436	0.03308507
10	0xba5cb309	-0.00084190123
11	0xbe25c7f9	-0.16189565
12	0xbd7b4647	-0.06134632
13	0xbe1cc429	-0.15309204
14	0x3da36b05	0.07979397
15	0x3dbd388b	0.092393
16	0xbb7f884d	-0.0038991154
17	0xbcf66fbd	-0.030082578
18	0x3dcb5867	0.09928971
19	0x3e1651ad	0.14679594
20	0x3c033c4b	0.00800998
21	0x3d1bb6e2	0.038016208
22	0xbcb1a83c	-0.021686666
23	0xbe32f1d1	-0.17475058
24	0xbc827efb	-0.01592969
25	0xbd790c54	-0.060802773
26	0xbdc4c0ae	-0.09607063
27	0x3df4826a	0.11938937
28	0x3e0a61fc	0.1351394
29	0xbe5e830f	-0.21729682
30	0xbd93f728	-0.07224876
31	0xbe1a01c4	-0.15039736
32	0x3c8fd04a	0.017555375
33	0xbaf52f8a	-0.0018706184
34	0x3dc58e3f	0.09646272
35	0x3dcbe165	0.099551
36	0x3d72c8c7	0.059273507
37	0x3d113a89	0.035456214
38	0x3dcf63bb	0.10126444
39	0x3b64d239	0.0034915342
40	0xbe3a49b2	-0.18192175
41	0x3bd3ab81	0.006459654
42	0x3d800a3a	0.062519506
43	0xbde38414	-0.11109176
44	0x3cb15556	0.021647137
45	0xbe1fd72c	-0.15609425
46	0x3d987e12	0.07445921
47	0xbe2796d4	-0.1636613
48	0x3cfc3783	0.030788189
49	0x3dc5729e	0.09641002
50	0x3e4239fe	0.18967435
51	0xbc93c695	-0.018039027
52	0x3dcd003b	0.100098096
53	0xbdcb1474	-0.099160105
54	0x3dbb0675	0.09132091
55	0xbe02e2d9	-0.12781848
56	0x3e4dfd8a	0.20116249
57	0xbde60232	-0.112308875
58	0xbce62b07	-0.028096689
59	0xbddd3d4e	-0.108027086
60	0xbc67b435	-0.014142086
61	0x3e065b2d	0.13120718
62	0xbd6db312	-0.058032103
63	0xbdf42663	-0.11921384
64	0x3e10ffd0	0.14160085
65	0xbe045692	-0.12923649
66	0x3c803bc4	0.015653498
67	0x3db5fe14	0.08886352
68	0x3dd465ba	0.10370965
69	0x3d2725d0	0.040807545
70	0xbe59603c	-0.21228117
71	0x3e496311	0.19666697
72	0x3d4a0f44	0.049330965
73	0x3d10ce12	0.035352774
74	0x3d2c54c7	0.042073037
75	0xbd673336	-0.056445323
76	0xbccb7743	-0.024837142
77	0x3d01320d	0.031541873
78	0x3d2b62c5	0.04184224
79	0x3e2b0ca5	0.16704042
80	0xbe2c9de5	-0.16857107
81	0x3d63e465	0.055637736
82	0xbd95306b	-0.072846256
83	0x3da6d536	0.081461355
84	0xbd62bd95	-0.05535658
85	0xbd9fb029	-0.07797272
86	0xbe3e6934	-0.1859482
87	0x3d7cd6a4	0.061728135
88	0x3d6b9290	0.05751282
89	0x3e0b8547	0.1362506
90	0xbc208b26	-0.009798801
91	0xbd5ec726	-0.05438914
92	0x3d205b3d	0.03914951
93	0x3e0b7937	0.13620459
94	0xbe2adb21	-0.16685154
95	0xbdc32c62	-0.0952995
96	0x3b9f97a6	0.004870373
97	0x3d0490c4	0.03236462
98	0x3df192a4	0.117955476
99	0xbcf13185	-0.029442558
100	0x3c42e262	0.011894794
101	0x3ce69f3f	0.028152106
102	0xbda8d9a3	-0.08244636
103	0x3d0ff458	0.035145134
104	0xbe447293	-0.19184332
105	0x3d473588	0.048635036
106	0x3df13ed2	0.1177956
107	0x3d78b324	0.060717717
108	0xbd56c09c	-0.05242978
109	0xbdab101f	-0.08352684
110	0x3e2060e5	0.15661962
111	0x3e003582	0.12520412
112	0xbe0cffe2	-0.13769487
113	0xbd49875d	-0.049201358
114	0xbc241596	-0.010014912
115	0x3cd1b57e	0.025599238
116	0x3ce28af0	0.027654141
117	0x3d2074dd	0.03917395
118	0xbd737727	-0.059439804
119	0xbdaf5a56	-0.08562152
120	0xbe345f29	-0.17614426
121	0x3da01c4b	0.078178965
122	0x3e094402	0.13404849
123	0x3e33e0eb	0.17566268
124	0xbe3d9559	-0.18514003
125	0x3d86ebe3	0.065879606
126	0xbd222692	-0.039587565
127	0x3dce7a63	0.10081937
128	0xbd0d1793	-0.03444631
129	0x3d0b50ce	0.03401261
130	0x3e4c044a	0.19923511
131	0xbe448875	-0.19192679
132	0xbdc23296	-0.09482305
133	0x3db99eaa	0.09063466
134	0xbd8cc5f9	-0.06873698
135	0xbdc5046e	-0.096199855
136	0x3e077703	0.13228993
137	0xbe210b2a	-0.15726915
138	0x3b50b6b1	0.0031847174
139	0x3e08552f	0.13313745
140	0x3e27bc7f	0.163805
141	0xbe1dbf0c	-0.1540491
142	0xbce44d31	-0.027868839
143	0x3e03eee4	0.12884098
144	0xbcc69508	-0.024240986
145	0x3ba383ab	0.0049900613
146	0xba06ffe5	-0.00051498256
147	0x3dd906e2	0.10597016
148	0x3beecae2	0.007287369
149	0xbddf5633	-0.10905113
150	0x3e5cfb88	0.21580327
151	0xbe1b7632	-0.15181807
152	0x3e160b66	0.14652786
153	0x3e5a3fc5	0.21313389
154	0x3d985194	0.07437435
155	0x3d9fb56b	0.077982746
156	0x3c928cc3	0.017889386
157	0xbe50ee48	-0.20403397
158	0x3c8545fb	0.01626872
159	0x3ce77592	0.028254304
160	0x3e057976	0.13034615
161	0xbcf5be84	-0.029998071
162	0xbbb837d2	-0.0056218887
163	0x3db54934	0.08851853
164	0x3df0f29f	0.11765026
165	0x3c7aacd8	0.015299998
166	0x3d3f86ce	0.04675942
167	0xbe1ddf87	-0.154173
168	0x3e2aa1ca	0.1666328
169	0x3d8b3dc8	0.06798893
170	0x3e1bc123	0.15210395
171	0x3d2a1f15	0.04153355
172	0x3e1446f6	0.14480194
173	0x3cd08034	0.025451757
174	0xbcea55a1	-0.028605284
175	0xbe5e4e2f	-0.21709512
176	0x3d982db8	0.07430595
177	0xbd7618c8	-0.060082227
178	0x3e49b286	0.19697008
179	0xbd8bc278	-0.06824201
180	0xbc61ec10	-0.013789192
181	0x3d82d7dd	0.06388829
182	0xbe34b96c	-0.17648858
183	0x3c0bbb43	0.008528533
184	0xbd070a6b	-0.03296892
185	0x3debf96f	0.11522185
186	0x3e2ddf4c	0.16979712
187	0xbe1cbc11	-0.15306117
188	0x3d013c07	0.031551387
189	0xbc40587d	-0.011739847
190	0x3d9db752	0.07700981
191	0x3d79db66	0.06100025
192	0xbd20b42a	-0.039234318
193	0xbe749b9d	-0.23887487
194	0x3db07d5d	0.08617661
195	0xbd32b629	-0.043630753
196	0x3e0db1a2	0.13837293
197	0x3de52a75	0.11189739
198	0xbde26371	-0.11054123
199	0xbda33948	-0.0796991
200	0x3e4654de	0.19368312
201	0xbd3953ef	-0.04524606
202	0xbca415bd	-0.020029897
203	0xbd452739	-0.04813311
204	0xbdc87b5a	-0.097891524
205	0xbe13b524	-0.14424568
206	0xbd18352a	-0.037160076
207	0xbe0ecbb3	-0.13944893
208	0x3e2eb856	0.17062506
209	0x3defd95d	0.11711381
210	0x3bde6227	0.006786603
211	0x3dc283d6	0.09497802
212	0x3cfe9606	0.031077396
213	0xbcada2a2	-0.021195713
214	0x3e074f3d	0.13213821
215	0x3c9fb728	0.019496515
216	0x3e14ffc4	0.14550692
217	0xbbdabf8a	-0.0066756653
218	0x3cd664db	0.026171139
219	0xbd8d5a67	-0.069020085
220	0x3d0c72ac	0.034289047
221	0xbc69c3ff	-0.0142679205
222	0xbe329086	-0.17437944
223	0x3dc287a5	0.094985284
224	0xbc8cfa30	-0.017209142
225	0xbe272db9	-0.16326036
226	0xbd5dac13	-0.05411918
227	0x3e0367e8	0.12832606
228	0x3e43c394	0.19117576
229	0x3c9adebf	0.018905042
230	0xbe4b7d90	-0.19872117
231	0x3da75b7e	0.081717476
232	0xbe4cf5ba	-0.20015612
233	0x3d94b685	0.07261375
234	0xbd28ed79	-0.041242097
235	0xbde61427	-0.112343125
236	0x3d69ece6	0.05711069
237	0x3dc9cf33	0.09853973
238	0xbdba3eff	-0.09094047
239	0xbd6ec719	-0.058295343
240	0xbc82c2ab	-0.015961966
241	0x3e057595	0.13033135
242	0xbe18b753	-0.14913683
243	0xbe54451e	-0.20729491
244	0x3d028589	0.03186563
245	0x3e1639ef	0.14670537
246	0x3ded7cf3	0.11596098
247	0x3dcb5589	0.09928424
248	0xbd2b2d57	-0.041791286
249	0xbd3b90d5	-0.04579242
250	0x3d19b698	0.03752765
251	0xbd8c0a84	-0.06837943
252	0xbd2f115f	-0.042741176
253	0xbe550c41	-0.20805456
254	0xbdb9d84b	-0.09074458
255	0x3dd8f2ee	0.1059321

decoder.initial.block.0.bias f4 [32]
0	0xbe5e6113	-0.21716718
1	0x3e020a00	0.12699127
2	0x3e05bc18	0.13060033
3	0x3c7b76e0	0.015348166
4	0x3db00b99	0.08595962
5	0x3e34d7c6	0.17660436
6	0xbe178a79	-0.14798917
7	0x3c94f3c7	0.018182648
8	0xbe8b096d	-0.2715563
9	0xbdc13ff6	-0.09436028
10	0x3d5fa208	0.054597884
11	0x3e992e6b	0.29918227
12	0x3d9937f4	0.07481375
13	0xbde1a73b	-0.11018225
14	0x3e5e2883	0.21695141
15	0x3e83676c	0.25664842
16	0x3e401896	0.18759379
17	0xbea79ecc	-0.3273834
18	0x3ca47b15	0.020078221
19	0xbe976016	-0.29565495
20	0xbdf58f06	-0.1199017
21	0xbd9ed856	-0.077561066
22	0xbece6454	-0.4031092
23	0x3e2b11e9	0.16706051
24	0x3e0e65fe	0.13906094
25	0xbec8751f	-0.39151856
26	0xbe4718a6	-0.19442996
27	0x3e24faab	0.16111247
28	0x3da5ea0a	0.0810128
29	0x3dc381cd	0.09546242
30	0x3e20aa90	0.15690064
31	0x3e07f2cc	0.13276213

decoder.initial.block.2.weight f4 [32]
0	0x3f66bd3f	0.90132517
1	0x3f778431	0.96686083
2	0x3f715cd9	0.942823
3	0x3f642b0e	0.89128196
4	0x3f8830a5	1.0639845
5	0x3f7c2783	0.9849779
6	0x3f61b030	0.88159466
7	0x3f5951d4	0.84890485
8	0x3f85831e	1.0430639
9	0x3f682db4	0.9069474
10	0x3f5027d4	0.8131077
11	0x3f804ccb	1.0023435
12	0x3f889fd7	1.0673779
13	0x3f53546c	0.8255069
14	0x3f4aa9a6	0.7916511
15	0x3f6b51e1	0.9192181
16	0x3f813f45	1.0097433
17	0x3f79cf2e	0.97581756
18	0x3f52a75d	0.82286626
19	0x3f71ed2a	0.9450251
20	0x3f6ca310	0.92436314
21	0x3f5534f3	0.8328392
22	0x3f72824c	0.9473007
23	0x3f7a8af0	0.9786825
24	0x3f707a63	0.9393675
25	0x3f7153e3	0.94268626
26	0x3f661c0d	0.8988655
27	0x3f838453	1.0274757
28	0x3f7d2621	0.98886305
29	0x3f886bb6	1.0657871
30	0x3f805d18	1.002841
31	0x3f8688d7	1.051051

decoder.initial.block.2.bias f4 [32]
0	0x3e855484	0.26041043
1	0x3d63b23a	0.055589892
2	0x3d971ceb	0.073785625
3	0xbbd8c14c	-0.0066148397
4	0x3d49a3d1	0.049228493
5	0xbc8f8b01	-0.017522337
6	0x3dd1e666	0.10249023
7	0x3d0886e8	0.03333178
8	0xbc22b70a	-0.009931335
9	0xbd22e3bf	-0.039767977
10	0x3d018be2	0.031627543
11	0x3da83ddd	0.082149245
12	0xbe2505da	-0.16115513
13	0xbd595601	-0.053060535
14	0x3ddd923b	0.10818907
15	0x3dcd1a1a	0.10014744
16	0xbb5f26b8	-0.0034050178
17	0xbdba4442	-0.090950504
18	0xbd135ce8	-0.035977274
19	0xbdb1ccf9	-0.086816736
20	0x3e8607a8	0.26177716
21	0xbe79d544	-0.2439776
22	0xbe5c6294	-0.2152198
23	0xbd783e90	-0.06060654
24	0xbd3f8570	-0.046758115
25	0x3e41e8e3	0.18936495
26	0xbe44e0d4	-0.1922639
27	0xbd638f9a	-0.05555687
28	0xba0fe385	-0.000548892
29	0x3d3801a0	0.044923425
30	0x3d98daeb	0.0746363
31	0x3b715386	0.0036823465

decoder.initial.block.2.running_mean f4 [32]
0	0xbb55c44f	-0.003261823
1	0x3e2399df	0.15976666
2	0x3e639719	0.22225608
3	0x3cd3d1ae	0.025856819
4	0x3da1f445	0.07907919
5	0x3ee7244f	0.4514489
6	0x3e17e3e3	0.14833026
7	0x3da7a4f7	0.081857614
8	0xbb800d12	-0.003907808
9	0x3db29c2a	0.08721192
10	0x3cba9680	0.022776842
11	0x3eb295f0	0.34880018
12	0x3dad3108	0.084566176
13	0x3dded82e	0.10881077
14	0x3d6bf322	0.057604916
15	0x3d852302	0.06500818
16	0x3e2ead8f	0.17058395
17	0xbb9444a6	-0.004524785
18	0x3cdada49	0.026715415
19	0xbb8ca4a7	-0.004292089
20	0xbaeda99c	-0.0018132213
21	0xbafc8576	-0.0019265849
22	0xbbad0b3a	-0.0052808793
23	0x3e301fcd	0.17199631
24	0x3e1c2e55	0.1525205
25	0xbb9445df	-0.004524931
26	0x3e00352d	0.12520285
27	0x3e262f59	0.16228999
28	0x3db505af	0.08838975
29	0x3dd3efa0	0.10348439
30	0x3e3823ca	0.17982402
31	0x3e19ffe7	0.15039025
