models/archived/augmented/ResidualSteganoGAN/2/epoch_28.pth (torch, 312991 bytes, 59 tensors)

encoder.initial.block.0.weight f4 [32, 3, 3, 3]
0	0xbe450d35	-0.1924332
1	0xbd6e4dd4	-0.05817969
2	0xbd2e9fe8	-0.042632967
3	0xbca4d3d5	-0.02012054
4	0x3d4366c9	0.047705445
5	0x3e0d3181	0.13788415
6	0xbddf27ef	-0.108962886
7	0xbd73acca	-0.059490956
8	0x3e0f5274	0.13996297
9	0xbc8e42e1	-0.017365875
10	0xbe435452	-0.19075134
11	0xbb0b566d	-0.002126123
12	0xbe16dd13	-0.1473277
13	0xbe257dc5	-0.16161259
14	0x3cd13c23	0.02554137
15	0xbc046eea	-0.008083085
16	0x3e0a3046	0.13494977
17	0xbe3a18c8	-0.18173516
18	0xbdc307ad	-0.095229484
19	0x3d16ec68	0.03684655
20	0xbde0e90b	-0.109819494
21	0xbd82582f	-0.06364476
22	0x3d4b3255	0.049608547
23	0x3d738bf3	0.059459638
24	0x3d9436f0	0.07237041
25	0x3b002fcc	0.001955974
26	0x3e1a908f	0.15094207
27	0x3ddc04e5	0.10743121
28	0xbe028b91	-0.12748553
29	0x3d4f9e45	0.050688047
30	0xbe1f39b2	-0.15549353
31	0xbdcb33fd	-0.09922025
32	0xbe3d6606	-0.1849595
33	0x3d8da682	0.069165245
34	0xbb27eaf6	-0.0025622225
35	0x3bc471ef	0.0059950273
36	0xbca0aa44	-0.019612439
37	0x3d1605a1	0.036626462
38	0x3c89dac4	0.016827948
39	0xbc84f4ed	-0.016230071
40	0xbe0f75be	-0.14009759
41	0x3d3c814b	0.04602174
42	0x3d4addd3	0.049527954
43	0x3d83fa07	0.06444173
44	0xbe514c01	-0.2043915
45	0x3db8ebd8	0.090293586
46	0x3d35934f	0.044329938
47	0xbdd1f9b7	-0.102527075
48	0xbe421360	-0.18952703
49	0x3d131e0f	0.035917338
50	0x3dab4c29	0.08364136
51	0xbcae8b2a	-0.021306593
52	0x3e0721de	0.13196513
53	0xbcfd4365	-0.030915925
54	0xbd4f8f74	-0.050673917
55	0x3c082d3a	0.008311564
56	0xbe3e5f29	-0.18590988
57	0xbcefeacd	-0.029286766
58	0x3e3abd87	0.18236361
59	0xbc896778	-0.01677297
60	0x3e3ee740	0.18642902
61	0xbcbcb863	-0.023037141
62	0x3dd2c5cc	0.10291633
63	0x3dabd9be	0.083911404
64	0xbe33296a	-0.17496267
65	0xbdad4f41	-0.08462382
66	0x3e1dab62	0.15397409
67	0x3ec54784	0.38531125
68	0x3e356086	0.17712602
69	0x3dce2e6a	0.100674465
70	0x3de3cda0	0.11123204
71	0xbe1c329b	-0.1525368
72	0xbde82e01	-0.113368995
73	0x3e1250a0	0.14288568
74	0x3ce132c2	0.027490024
75	0xbdcc977f	-0.09989833
76	0x3f15642f	0.58355993
77	0x3e180e71	0.14849259
78	0x3d0c5523	0.03426088
79	0x3e002d19	0.12517203
80	0x3da6f44e	0.08152066
81	0x3dc4ab4f	0.09602987
82	0x3e3fcc1a	0.18730202
83	0xbd2046fc	-0.039130196
84	0xbd0e4163	-0.034730326
85	0x3e1aff99	0.15136565
86	0xbe22674d	-0.15859719
87	0xbda921af	-0.08258378
88	0x3dead256	0.114659
89	0xbdd90839	-0.105972715
90	0xbe1b8f5a	-0.15191403
91	0xbd726fc1	-0.059188608
92	0x3d9cae7c	0.07650468
93	0xbdc46081	-0.09588719
94	0xbdbdba5b	-0.0926406
95	0xbd9af6b1	-0.07566584
96	0x3cf7c920	0.030247271
97	0xbb2587d6	-0.0025257966
98	0xbbbea846	-0.0058183996
99	0x3dc08814	0.09400955
100	0x3d10423f	0.035219427
101	0x3d944361	0.07239414
102	0xbd8f88ea	-0.07008536
103	0xbe1ad515	-0.15120347
104	0xbd03104e	-0.03199797
105	0xbc9588cc	-0.018253706
106	0x3bc95619	0.006144297
107	0xbdabaa0f	-0.083820455
108	0x3df66361	0.12030674
109	0xbe017970	-0.12643981
110	0x3e2d534a	0.16926304
111	0x3dbd90c5	0.09256128
112	0x3e128fee	0.14312717
113	0xbe09aedf	-0.13445614
114	0x3cc65f1e	0.024215277
115	0xbe4835bc	-0.19551748
116	0x3d2ec175	0.042664964
117	0xbbcba0c6	-0.006214234
118	0x3e16cdb1	0.14726903
119	0xbda0535a	-0.07828398
120	0xbd55f41e	-0.05223476
121	0x394b89c9	0.00019410918
122	0x3e1ab1eb	0.15106933
123	0x3e11a900	0.14224625
124	0xbc1b7298	-0.0094877705
125	0xbd933339	-0.07187504
126	0xbe325b4c	-0.1741764
127	0x3d898c9c	0.06716272
128	0x3e28b2c5	0.16474445
129	0x3e0c61fd	0.13709255
130	0xbe51f246	-0.20502576
131	0xbdbe28f5	-0.09285156
132	0xbc805cad	-0.015669191
133	0x3dd504b6	0.10401289
134	0x3d43c7e3	0.04779805
135	0xbe3d36c0	-0.18477917
136	0x3e39ca37	0.18143545
137	0x3df5cac9	0.12001569
138	0x3dd42de6	0.10360317
139	0x3e9c6a8a	0.30550033
140	0x3e14bda8	0.14525473
141	0xbdadbf95	-0.08483807
142	0x3d6747f0	0.05646509
143	0x3d393e79	0.045225594
144	0xbe008f4d	-0.12554665
145	0x3dca51a2	0.098788515
146	0xbdb12595	-0.08649746
147	0x3d0bff31	0.034178916
148	0x3d05d11e	0.032670133
149	0x3dfc9a29	0.12334091
150	0xbdca5d79	-0.0988111
151	0x3e2ab9cb	0.16672437
152	0xbd217a4c	-0.039423272
153	0x3bc755b9	0.006083217
154	0x3df1def9	0.11810107
155	0xbd0b4513	-0.03400142
156	0x3e45afb3	0.19305305
157	0xbdca94d3	-0.09891667
158	0x3de34920	0.11097932
159	0x3e392f8c	0.18084544
160	0xbe16a1b9	-0.1471013
161	0x3e152822	0.1456609
162	0x3d840470	0.06446159
163	0xbe2139e2	-0.15744737
164	0xbdcae721	-0.099073656
165	0x3a22c250	0.00062087644
166	0x3d22b154	0.039719895
167	0x3e255a39	0.16147698
168	0xbc7d58e6	-0.01546309
169	0xbdf2e31a	-0.118597224
170	0x3d9bca2f	0.07606923
171	0xbdbcf6d5	-0.09226767
172	0x3d94c536	0.072641775
173	0x3b904e02	0.0044038305
174	0xbdcbaa8c	-0.099446386
175	0xbd8c51bc	-0.06851527
176	0x3df9dec4	0.12200692
177	0xbdcd36f3	-0.10020246
178	0x3d47cd85	0.048779983
179	0xbd73455f	-0.05939233
180	0xbdf77176	-0.12082188
181	0xbe1d96be	-0.15389535
182	0x3dac5c57	0.0841605
183	0xbc13a4df	-0.009011476
184	0x3e4ba5cb	0.19887464
185	0xbdc7a88a	-0.09748943
186	0x3adb11d9	0.0016713693
187	0xbe107d6f	-0.14110349
188	0x3c44bfd7	0.012008629
189	0x3c98c1e7	0.018647147
190	0xbd31c747	-0.043402936
191	0xbe43ea01	-0.19132234
192	0x3dece5bf	0.11567258
193	0x3f110328	0.5664544
194	0x3df69c49	0.12041528
195	0x3d286345	0.041110296
196	0x3e04aac0	0.12955761
197	0xbe0785ea	-0.13234678
198	0xbcbdf023	-0.023185795
199	0x3d32a2a5	0.04361214
200	0x3c8135c9	0.015772717
201	0xbe038381	-0.12843134
202	0x3f57fd64	0.8437102
203	0xbdf6e80b	-0.120559774
204	0xbe104ce9	-0.14091839
205	0x3dd5c434	0.104378134
206	0x3d954cec	0.07290062
207	0xbe102118	-0.14075124
208	0x3dedb7fc	0.11607358
209	0x3d619a06	0.05507853
210	0x3e1c7172	0.15277651
211	0x3ef58820	0.47955418
212	0x3dd24000	0.10266113
213	0xbcadd41b	-0.021219304
214	0xbd50f139	-0.051011298
215	0xbd85796a	-0.065172985
216	0xbd4790a3	-0.04872192
217	0x3c08055e	0.008302061
218	0xbdc71bac	-0.09722075
219	0xbdcf12b9	-0.10110993
220	0xbe38ef66	-0.18060073
221	0xbdd52a3c	-0.10408446
222	0x3c56d186	0.013111478
223	0x3e34a2e0	0.17640257
224	0x3dae5eca	0.08514173
225	0x3d701ce0	0.058621287
226	0x3d662115	0.056183893
227	0x3e1722eb	0.14759414
228	0x3e2ef346	0.17084989
229	0xbdff5b2a	-0.1246856
230	0x3e0dd723	0.138516
231	0xbe0ed3fd	-0.13948055
232	0x3d79f376	0.061023198
233	0x3b4d46f0	0.00313228
234	0x3c87378b	0.016505977
235	0x3e175861	0.14779808
236	0x3e1210e9	0.14264263
237	0xbe3ea317	-0.18616901
238	0x3c2b8d42	0.01047069
239	0xbdd45131	-0.103670485
240	0xbbf2a55c	-0.0074049663
241	0xbceb4415	-0.028718987
242	0xbda63004	-0.08114627
243	0xbe1c2db5	-0.15251811
244	0x3e465d4c	0.19371527
245	0xbd43085a	-0.047615387
246	0xbcf7476b	-0.030185422
247	0xbd96ba92	-0.07359804
248	0x3de31738	0.11088413
249	0x3d1eb427	0.038746025
250	0xbde984d7	-0.1140229
251	0x3dacf37b	0.08444878
252	0xbe072df9	-0.13201131
253	0xbd4be91a	-0.04978285
254	0xbe15e9a0	-0.14639902
255	0x3c06e33d	0.008232889

encoder.initial.block.0.bias f4 [32]
0	0x3e3d4bff	0.18486021
1	0xbe133911	-0.14377238
2	0xbdfde344	-0.12396863
3	0xbd90faa5	-0.07079057
4	0x3dcc0701	0.099622734
5	0x3e3797af	0.17928956
6	0xbd3916c1	-0.045187715
7	0xbe030a94	-0.12797004
8	0xbd300c6d	-0.0429806
9	0x3d59c55c	0.053166732
10	0xbe1d48b8	-0.15359771
11	0xbd2bba6a	-0.041925825
12	0x3c9da9fd	0.019246096
13	0xbd6990d1	-0.057022873
14	0xbd8588eb	-0.06520256
15	0xbdb0aae0	-0.08626342
16	0xbd249785	-0.040183563
17	0xbe3e1836	-0.18563923
18	0xbdcb8bb7	-0.09938758
19	0xbde4ac27	-0.11165648
20	0xbdb2fc7e	-0.08739565
21	0x3c7cf792	0.015439885
22	0xbdfb1f63	-0.12261846
23	0x3e319c4d	0.1734478
24	0x3cbd335b	0.023095777
25	0xbe2dc4cf	-0.16969608
26	0xbd45d18a	-0.048295535
27	0x3afee5c4	0.0019447138
28	0x3ddee77a	0.108839944
29	0x3e000da8	0.1250521
30	0xbe051c97	-0.12999187
31	0xbd814a1d	-0.06312964

encoder.initial.block.2.weight f4 [32]
0	0x3f7f2b22	0.9967519
1	0x3f7ee405	0.9956668
2	0x3f7c01cb	0.98440236
3	0x3f7e8ac3	0.99430484
4	0x3f78ade3	0.9714033
5	0x3f796d2b	0.974322
6	0x3f7d958f	0.99056333
7	0x3f8d6202	1.1045535
8	0x3f7e010e	0.9922036
9	0x3f767e36	0.9628633
10	0x3f771f77	0.96532387
11	0x3f7e29ac	0.99282336
12	0x3f7b28a2	0.98108876
13	0x3f7bc750	0.98351
14	0x3f7b3a11	0.9813548
15	0x3f778c06	0.96698034
16	0x3f7c21fb	0.9848935
17	0x3f7a1644	0.97690225
18	0x3f7c9d76	0.98677766
19	0x3f7f6d13	0.9977581
20	0x3f768b2a	0.963061
21	0x3f7acd96	0.9796995
22	0x3f7e7dc9	0.9941068
23	0x3f815e5d	1.0106922
24	0x3f7d290c	0.9889076
25	0x3f7aa61c	0.9790971
26	0x3f79c372	0.9756385
27	0x3f7fc4a8	0.9990945
28	0x3f7cca2e	0.98746
29	0x3f7f955d	0.99837285
30	0x3f7e2ffc	0.9929197
31	0x3f758ee8	0.9592118

encoder.initial.block.2.bias f4 [32]
0	0x3c5f307a	0.013622398
1	0xbc0b87fb	-0.008516307
2	0xbd0e7531	-0.03477973
3	0xbca5ba25	-0.020230362
4	0xbbdf4b74	-0.0068144146
5	0xbb9ccf9f	-0.0047854926
6	0x3c6f2cb8	0.014598064
7	0x3d72a747	0.05924156
8	0x3a6c9b8d	0.00090258644
9	0xbd4a0c5f	-0.049328204
10	0xbca433ab	-0.020044168
11	0xbcb1d479	-0.02170776
12	0x3d1db99c	0.03850709
13	0xbcc51c1a	-0.024061251
14	0xbc90dbfe	-0.017683025
15	0xbceaaa82	-0.028645758
16	0x3ce01b8a	0.027356882
17	0x3c12dad7	0.008963308
18	0xbd1ec884	-0.038765445
19	0x3cb96375	0.022630433
20	0xbc16fdbc	-0.009215768
21	0x3c5f429e	0.013626723
22	0x3d26e1a1	0.04074252
23	0x3c49b58e	0.012311352
24	0x3c54d3b3	0.012989926
25	0x3cd0372c	0.025416933
26	0xbd81521a	-0.06314488
27	0xbcdef5ba	-0.02721678
28	0x3c817757	0.015803976
29	0x3a14a6bc	0.00056705973
30	0x3b825012	0.0039768303
31	0x3cad2399	0.021135138

encoder.initial.block.2.running_mean f4 [32]
0	0x3f47fee5	0.78123313
1	0x3ea193e8	0.31558156
2	0xbc9530f6	-0.018211823
3	0x3ea56362	0.32302386
4	0xbb3bebb0	-0.0028674416
5	0xbc312bc2	-0.010813655
6	0x3eca696e	0.3953356
7	0xbca776e1	-0.020442428
8	0x3a9e5e2b	0.0012082508
9	0xbafb1eb7	-0.0019158934
10	0xbb78270e	-0.0037865075
11	0xba1c8f39	-0.00059722696
12	0x3e8af5a9	0.2714055
13	0x3f53942f	0.82647985
14	0x3f3b4453	0.7315113
15	0x3dd1324f	0.10214674
16	0x3eadf213	0.3397375
17	0xbc365390	-0.011128321
18	0xbc0343db	-0.0080117835
19	0x3f03730a	0.5134741
20	0x3e945428	0.28970456
21	0x3f06d72a	0.52672064
22	0xbb78d593	-0.0037969097
23	0x3ed49340	0.41518593
24	0x3dfa4699	0.12220497
25	0xbbcb576e	-0.006205491
26	0xbabcc84a	-0.0014402953
27	0x3ab56c89	0.001384155
28	0x3ec2a9ab	0.3802007
29	0x3f1fb636	0.62387407
30	0xbc30a7b7	-0.010782174
31	0xbbf75dfd	-0.007549046

encoder.initial.block.2.running_var f4 [32]
0	0x3b6b32ef	0.0035888513
1	0x39e800de	0.00044251134
2	0x3483663e	2.4475042e-07
3	0x3a95a045	0.0011415562
4	0x35fc2be5	1.8788238e-06
5	0x3409a6f6	1.281986e-07
6	0x3aee2956	0.0018170278
7	0x32df1eeb	2.5974677e-08
8	0x3a2496c9	0.0006278572
9	0x37eb4ee5	2.8050921e-05
10	0x350f459e	5.337296e-07
11	0x3a24921f	0.0006277877
12	0x3a6ef13d	0.0009114927
13	0x3b880266	0.0041506765
14	0x3b083f51	0.0020789693
15	0x3985fa81	0.00025554377
16	0x3a8214b4	0.0009924383
17	0x334c9023	4.7628543e-08
18	0x33fe6201	1.18456235e-07
19	0x3b1a2777	0.0023522058
20	0x39862f91	0.0002559391
21	0x3ad834ac	0.001649519
22	0x33a9856b	7.893944e-08
23	0x3a678440	0.00088316575
24	0x3a6fa88a	0.0009142241
25	0x3467501e	2.1542698e-07
26	0x3388513e	6.3477714e-08
27	0x39983dcc	0.00029037741
28	0x3a18241b	0.000580372
29	0x3b183c17	0.0023229176
30	0x34ecb4df	4.4090027e-07
31	0x34ac15ef	3.2053455e-07

encoder.block1.block.0.weight f4 [32, 34, 3, 3]
0	0x3c1821c2	0.009285392
1	0x3ca449ad	0.020054663
2	0x3d0c6050	0.03427154
3	0x3d08aef0	0.03336996
4	0x3c358527	0.011079109
5	0x3c76589f	0.015035777
6	0x3d4e6e0e	0.050397925
7	0x3c8506a4	0.016238518
8	0x3d3ee10b	0.046601336
9	0xbd39e637	-0.045385566
10	0xbb82f7f3	-0.003996843
11	0xbd6ef8c8	-0.058342725
12	0xbc16ab7d	-0.009196159
13	0xbcdf4e9d	-0.027259165
14	0xbd8488c5	-0.06471399
15	0x3d16f10d	0.036850978
16	0xbc466c75	-0.012110819
17	0xbc457533	-0.012051868
18	0x3bbb4130	0.005714558
19	0x3d28f450	0.04124862
20	0x3d3cfdc9	0.046140466
21	0x3bbfb095	0.0058499076
22	0x3c0760ed	0.008262855
23	0x3d73979a	0.05947075
24	0x3d89ada7	0.06722575
25	0x3d86637e	0.065619454
26	0x3d712c92	0.058880396
27	0xbcca5aba	-0.024701465
28	0xbcb8df16	-0.022567313
29	0xbd542b71	-0.05179924
30	0xbc9bee11	-0.019034417
31	0xbd280837	-0.04102346
32	0xbcc85581	-0.024454834
33	0xbc203f86	-0.00978077
34	0x3c845fed	0.016159022
35	0xbd8fb16c	-0.070162624
36	0x3d0eb9e6	0.034845255
37	0xbd558c0d	-0.052135516
38	0xbd3d1a7c	-0.046167836
39	0xbd32d08a	-0.04365591
40	0xbd07b1da	-0.033128597
41	0x3d271e87	0.040800598
42	0x3c987aef	0.018613307
43	0xbb8060cb	-0.0039177886
44	0xbcf1b528	-0.029505327
45	0x3d41fade	0.047358386
46	0x3c3dcc63	0.011584374
47	0x3b332354	0.002733429
48	0x3d70b6dd	0.058768142
49	0x3b5cf4e7	0.003371531
50	0xbd4a8e92	-0.049452372
51	0x3cb921b1	0.022599073
52	0x3ba18981	0.004929722
53	0xbbf33e52	-0.0074232006
54	0x3c343a26	0.011000192
55	0xbb6cad68	-0.00361141
56	0x3c7ac4a0	0.015305668
57	0x3d10083a	0.035164095
58	0x3d61debe	0.055144064
59	0x3cb92b6e	0.022603717
60	0xbcfe97be	-0.031078216
61	0xbd535bfb	-0.05160139
62	0x3d143743	0.036185514
63	0xbd03d6c2	-0.03218723
64	0xbca6e199	-0.020371245
65	0xbbbb223a	-0.0057108672
66	0x3d096673	0.03354497
67	0x3d296006	0.04135134
68	0xbc1b907d	-0.009494898
69	0x3cf947d1	0.030429753
70	0xbcc71fe3	-0.024307197
71	0x3d184816	0.03717812
72	0x3ce70f80	0.028205633
73	0x3d499839	0.049217436
74	0xbc73178e	-0.014837159
75	0xbbb12665	-0.0054061883
76	0xbbc3364c	-0.0059574004
77	0x3d8b0776	0.067885324
78	0x3cd08bd2	0.025457297
79	0xbd1ae5ea	-0.03781692
80	0xbcfadb02	-0.03062201
81	0xbc0af77e	-0.008481858
82	0xbd5ff78c	-0.05467944
83	0xbd78f938	-0.06078455
84	0x3c8c4347	0.017121924
85	0xbc0f6518	-0.00875213
86	0xbc8c0232	-0.01709089
87	0x3c444a1a	0.011980558
88	0x3cca230b	0.024674913
89	0xbc6d6af9	-0.014490836
90	0xbc9d68c7	-0.019215
91	0x3c9320d6	0.017959993
92	0x3c659053	0.01401146
93	0x3c8d3850	0.017238766
94	0xbd59395d	-0.05303322
95	0x3c527df1	0.01284741
96	0x399bafdc	0.0002969493
97	0xbc6321af	-0.013863011
98	0x3c59a1f3	0.013283241
99	0x3d332faa	0.043746628
100	0xbd48efa9	-0.049056683
101	0x3c80d7cd	0.015727902
102	0x3d259eeb	0.04043476
103	0xbd67462e	-0.056463413
104	0x3ce21447	0.02759756
105	0xbce88106	-0.028381836
106	0x3d42a721	0.047522668
107	0x3d569184	0.05238487
108	0xbbd60749	-0.00653163
109	0xbc587226	-0.013210809
110	0xbd398bdb	-0.045299392
111	0x3c5ab71c	0.013349321
112	0x3c13c8d5	0.00902005
113	0xbc81aa8c	-0.015828393
114	0xbd380d7d	-0.04493474
115	0xbd5d4ec6	-0.054030202
116	0x3b29e39a	0.0025923015
117	0xbd2f0daf	-0.04273766
118	0xbbc36c61	-0.0059638475
119	0xbd3a0c81	-0.04542208
120	0x3da119e2	0.07866265
121	0x3cd32de3	0.025778716
122	0xbd5393e5	-0.051654715
123	0x3d503cca	0.050839223
124	0x3ca8c358	0.02060096
125	0x3cf15203	0.029458052
126	0xbd3d06ce	-0.046149068
127	0x3c56472c	0.013078492
128	0xbcf18d69	-0.029486375
129	0x3d353848	0.044243127
130	0x3d32ec8f	0.04368263
131	0xbc955469	-0.018228726
132	0xbccc5d8b	-0.024946949
133	0x3c54665a	0.012963856
134	0xbd9a863e	-0.07545136
135	0xbbc6ff38	-0.006072905
136	0xbc012a92	-0.007883685
137	0xbcb5df8d	-0.022201324
138	0xbd9d843c	-0.07691237
139	0xbd94b3b9	-0.07260842
140	0x3d601781	0.054709915
141	0x3c7f4e3a	0.0155826155
142	0xbcaac067	-0.020843698
143	0x3c4bcd30	0.012439057
144	0x3b2b02e4	0.0026094252
145	0xbcac2a79	-0.021016346
146	0xbd21daf6	-0.039515458
147	0x3d865ecb	0.06561049
148	0x3d376c7a	0.044781186
149	0x3b8cb810	0.004294403
150	0xbd846182	-0.06463911
151	0xbcc4e18c	-0.02403333
152	0x3c9a6028	0.018844679
153	0xbc46c5d5	-0.012132128
154	0xbaba8b38	-0.0014232164
155	0xba67337e	-0.00088196236
156	0x3ca7ecf7	0.020498736
157	0xbcf4ed8c	-0.029898427
158	0x3d604439	0.054752562
159	0x3d8536ac	0.065045685
160	0x3aa9a2b2	0.0012942164
161	0x3d9ee08b	0.07757672
162	0xbd546f60	-0.051864028
163	0xbd26e41f	-0.040744897
164	0xbc56e10a	-0.013115177
165	0x3cd419b9	0.025891172
166	0xbcb37ef5	-0.021911124
167	0xbccb87e6	-0.024845075
168	0xbd685d1a	-0.056729414
169	0xbd7d8ea2	-0.061903603
170	0xbd377ef2	-0.0447988
171	0x3cf85dcf	0.030318169
172	0x3bd0fca0	0.0063777715
173	0x3d1ebfb4	0.03875704
174	0x3d8f3491	0.06992448
175	0x3c774455	0.015091975
176	0xbd817c08	-0.06322485
177	0xbcd21557	-0.025644941
178	0xbd7d1953	-0.06179173
179	0xbdef9493	-0.1169826
180	0xbd14c101	-0.036316875
181	0x3ca74e88	0.020423189
182	0xbd71d978	-0.059045285
183	0x3bb72729	0.005589385
184	0xbcf585e6	-0.029971074
185	0xbcee3eda	-0.029082704
186	0x3c80f112	0.015739951
187	0x3cf8bbec	0.030363046
188	0x3d5083ad	0.050906826
189	0x3b1fccd3	0.002438356
190	0xbc94c26f	-0.01815912
191	0x3d08ef87	0.033431556
192	0xbd950fdc	-0.072784156
193	0x3cbb3cfd	0.02285623
194	0xbd76d1df	-0.060258742
195	0x3cc5494a	0.024082799
196	0xb9345f12	-0.00017201554
197	0xbd029b39	-0.031886313
198	0xbcb1751c	-0.021662287
199	0x3cb6a61b	0.022296002
200	0x3d0da711	0.034583155
201	0xbd924a63	-0.071430944
202	0xbb106944	-0.00220354
203	0xbd004f84	-0.031325832
204	0x3d120535	0.035649497
205	0x3d8224b8	0.0635466
206	0x3d371974	0.04470201
207	0x3cf09ddc	0.029372148
208	0xbd06c2c2	-0.03290058
209	0x3d0de8ef	0.03464597
210	0x3bb9bc80	0.005668223
211	0x3ce2ead6	0.02769987
212	0xbba456d8	-0.0050152354
213	0xbc8d02b3	-0.017213201
214	0xbb38add7	-0.0028179788
215	0x3d631d63	0.055447947
216	0xbc4b8204	-0.012421135
217	0xbc927bc4	-0.017881282
218	0x3c89b7fb	0.016811362
219	0xbc96a24a	-0.018387932
220	0xbd1d527f	-0.038408753
221	0xbd249028	-0.04017654
222	0xbd579bca	-0.052638806
223	0xbd3fba3d	-0.04680847
224	0x3aad4263	0.0013218637
225	0x3bc81e05	0.006107094
226	0xbb4ad40c	-0.0030949144
227	0x3baaf2a3	0.005216913
228	0x3c93a70c	0.01802399
229	0xbd32c287	-0.043642547
230	0xbd53ee03	-0.051740658
231	0x3c3365d8	0.010949574
232	0x3d5ad2d9	0.053423736
233	0xbcc995b2	-0.024607513
234	0xbd5826ad	-0.05277126
235	0x3c5dcc6f	0.01353751
236	0x3c6e342e	0.014538808
237	0x3d02c03a	0.031921603
238	0xbd6fb1e2	-0.05851925
239	0x3d120e82	0.035658367
240	0xbd41d0c8	-0.04731825
241	0x3c3eb0b4	0.011638809
242	0xbd13c3d2	-0.03607542
243	0xbd22ded0	-0.03976327
244	0xbd902e85	-0.07040123
245	0x3cf8f7a3	0.03039152
246	0xbcf9691e	-0.030445632
247	0x3c9d4d02	0.01920176
248	0x3d1555d9	0.036458824
249	0x3ceb94ab	0.028757414
250	0xbc86351f	-0.016382752
251	0xbcd731e1	-0.026268901
252	0x3d0c4ff0	0.03425592
253	0x3cfad845	0.030620703
254	0x3cff0cfa	0.031134117
255	0xbb93f57e	-0.004515349

encoder.block1.block.0.bias f4 [32]
0	0x3d70afc0	0.05876136
1	0xbc8a08d8	-0.01684992
2	0x3d954bf4	0.072898775
3	0x3d95e344	0.07318738
4	0xbd829902	-0.0637684
5	0xbc6591cd	-0.014011812
6	0xbb2c233d	-0.002626612
7	0x3ccb44d0	0.024813086
8	0x3d88cd16	0.06679742
9	0x3b8611ca	0.004091476
10	0xbd400943	-0.046883833
11	0x3a704dfe	0.0009166895
12	0x3d247f75	0.040160615
13	0xbd43f282	-0.047838695
14	0xbac9166f	-0.0015341769
15	0xbd99b055	-0.07504336
16	0xbbd2ac5b	-0.006429238
17	0xbb710ee4	-0.0036782557
18	0x3cfbb0c6	0.03072394
19	0x3c1bcc0a	0.009509096
20	0xbcead708	-0.028666988
21	0xbd14051d	-0.03613769
22	0xbbeb58db	-0.0071822233
23	0x3ad9ce77	0.0016617317
24	0x3caafc50	0.020872265
25	0xbd52d0a1	-0.051468495
26	0x3c852ea1	0.016257586
27	0xbd63be3f	-0.055601355
28	0xbc356a56	-0.011072716
29	0xbce31a17	-0.027722402
30	0x3dbac299	0.09119148
31	0xbcb00cbf	-0.021490453

encoder.block1.block.2.weight f4 [32]
0	0x3f7292de	0.9475535
1	0x3f7eeb36	0.99577653
2	0x3f78b777	0.97154945
3	0x3f7a0d02	0.976761
4	0x3f7b3ef6	0.98142946
5	0x3f7957ea	0.9739977
6	0x3f7c413f	0.9853706
7	0x3f7a40d1	0.9775515
8	0x3f744746	0.95421255
9	0x3f7ab4a6	0.979319
10	0x3f7b4fdd	0.98168737
11	0x3f7bd330	0.9836912
12	0x3f793a0a	0.97354186
13	0x3f7cd84c	0.9876754
14	0x3f77bd41	0.96773154
15	0x3f7ac55d	0.979574
16	0x3f797a5d	0.97452337
17	0x3f7cedb9	0.98800236
18	0x3f7775ed	0.96664315
19	0x3f7c9c97	0.9867644
20	0x3f79ae59	0.9753166
21	0x3f77d8f3	0.96815413
22	0x3f780676	0.9688486
23	0x3f77eaa1	0.9684239
24	0x3f787ece	0.9706849
25	0x3f803a54	1.00178
26	0x3f7f3653	0.9969227
27	0x3f78f46a	0.97247946
28	0x3f7e1913	0.9925701
29	0x3f782faa	0.9694773
30	0x3f7822be	0.9692801
31	0x3f802bde	1.0013387

encoder.block1.block.2.bias f4 [32]
0	0xbca64de5	-0.020300815
1	0xbc3e770f	-0.0116250655
2	0x3bb6796d	0.0055686743
3	0xbc6222b7	-0.013802222
4	0x3d355d88	0.04427865
5	0x3cb89ca2	0.022535626
6	0xbcebbbda	-0.028776098
7	0x3c375a81	0.011191011
8	0xbb856c48	-0.004071746
9	0x3bf845e5	0.0075766915
10	0x3c8236a2	0.015895192
11	0x3d1bd05e	0.03804051
12	0x3a9fb157	0.0012183589
13	0x3b98e113	0.004665503
14	0xbbd90999	-0.0066234586
15	0xbd52a785	-0.05142929
16	0xbcf7d0a1	-0.03025085
17	0x3b8ef48a	0.0043626474
18	0x3d4ad624	0.049520627
19	0xbb61e7f6	-0.0034470535
20	0x3d558c0c	0.052135512
21	0xbc3be51b	-0.011468197
22	0xbbe44a6a	-0.0069668787
23	0x3d49abc2	0.049236067
24	0x3cd784cf	0.026308445
25	0x3cae46c7	0.021273984
26	0xbb7f9d4a	-0.0039003664
27	0x3afc2a74	0.0019238726
28	0xbd26ab48	-0.04069069
29	0xbd1306c7	-0.035895135
30	0x3c89445d	0.016756231
31	0x3cab6b99	0.02092533

encoder.block1.block.2.running_mean f4 [32]
0	0x3e56722b	0.20941989
1	0x3d754499	0.059879873
2	0x3e1955a7	0.1497408
3	0x3e19bb48	0.15012848
4	0x3d816c17	0.063194446
5	0x3d8f316c	0.06991848
6	0x3d84b45e	0.06479715
7	0x3e7dad13	0.24773054
8	0x3e35a15b	0.17737333
9	0x3d2aeb6e	0.04172843
10	0x3d4dcbcb	0.05024318
11	0x3dc2dab3	0.0951437
12	0x3e2c9d20	0.16856813
13	0x3d36c752	0.04462368
14	0x3d88cb6e	0.06679426
15	0x3d08a9b7	0.033364978
16	0x3d89ce36	0.06728785
17	0x3d86114e	0.06546269
18	0x3e492bd7	0.1964563
19	0x3d95bca3	0.0731137
20	0x3d4a100c	0.04933171
21	0x3e37b476	0.17939934
22	0x3d822b0a	0.06355865
23	0x3d91b05c	0.07113716
24	0x3e160412	0.1464999
25	0x3d07b768	0.033133894
26	0x3d6c6bcf	0.05772
27	0x3da0395d	0.07823441
28	0x3d545788	0.05184129
29	0x3d25e877	0.0405049
30	0x3e3bb8e0	0.18332243
31	0x3da8decc	0.0824562

encoder.block1.block.2.running_var f4 [32]
0	0x3f09959d	0.53743917
1	0x3eb2b59c	0.34904182
2	0x3f23544c	0.638005
3	0x3ed4fda8	0.41599774
4	0x3eacc37c	0.33742893
5	0x3e87c2ef	0.2651591
6	0x3f1f10c9	0.6213499
7	0x3fdda69f	1.7316474
8	0x3f5177be	0.8182334
9	0x3e3a4d24	0.1819349
10	0x3eab8e36	0.33506936
11	0x3f2fc5e3	0.68661326
12	0x3f01423d	0.50491697
13	0x3e4a38bd	0.19748206
14	0x3ede8a6e	0.43464988
15	0x3e49716c	0.19672173
16	0x3ecb39d4	0.39692557
17	0x3e991e0c	0.29905736
18	0x3edbc36f	0.42922541
19	0x3f2094cb	0.6272704
20	0x3e5de7f6	0.21670517
21	0x3edf91aa	0.4366582
22	0x3e7eb863	0.24875025
23	0x3e8912d9	0.26772192
24	0x3f0c722b	0.54861706
25	0x3e5cdefe	0.2156944
26	0x3eda15b3	0.4259468
27	0x3f845cff	1.034088
28	0x3ec4b579	0.38419703
29	0x3e23e91b	0.16006891
30	0x3f38dbe5	0.7221053
31	0x3f41df21	0.7573109

encoder.block2.block.0.weight f4 [32, 32, 3, 3]
0	0x3c491c87	0.012274868
1	0x3d5c6049	0.053802762
2	0xbc5bdda4	-0.013419542
3	0x3cb8305c	0.022483997
4	0x3c7de084	0.015495423
5	0xbd22e6bb	-0.039770823
6	0x3d1e8f47	0.03871086
7	0x3c4b2a60	0.01240024
8	0xbd0125f3	-0.03153033
9	0xbd103266	-0.035204314
10	0xbce2b358	-0.027673408
11	0x3c40d160	0.011768669
12	0x3cf16640	0.029467702
13	0x3cbe7426	0.023248743
14	0x3d93141a	0.071815684
15	0xbd0a2ec9	-0.033736024
16	0x3be3f55b	0.006956739
17	0xbcfe6ef6	-0.03105877
18	0xbd0f8cf6	-0.03504654
19	0x3d24b013	0.04020698
20	0x3ca7e140	0.02049315
21	0x3c859095	0.016304294
22	0x3d8f29ae	0.06990372
23	0xbcc370ee	-0.02385756
24	0x3cd720bd	0.026260728
25	0x3ca82e10	0.020529777
26	0x3d00295a	0.031289436
27	0x3d1d66f3	0.03842826
28	0xbd3f0c20	-0.046642423
29	0x3cb347c5	0.021884808
30	0x3b185886	0.0023246123
31	0xbcdbfd8a	-0.026854295
32	0xbd2ebfc0	-0.042663336
33	0xbda722f2	-0.08160962
34	0x3c71491d	0.014726904
35	0xbcdd4cf8	-0.02701424
36	0x3c360040	0.011108458
37	0x3cd25296	0.025674146
38	0x3d494aaf	0.04914349
39	0xbc3b8987	-0.011446363
40	0xbcc3a2ac	-0.023881279
41	0x3d4c3beb	0.04986183
42	0xb9dbabb4	-0.00041898864
43	0x3d717136	0.058945857
44	0x3c8bba82	0.017056707
45	0x3d0754ac	0.033039734
46	0x3d57c61f	0.052679177
47	0x3c01771a	0.007901931
48	0xbcea2e2c	-0.02858647
49	0x3cf203a7	0.029542757
50	0x3c92114d	0.017830515
51	0x3d00e6aa	0.03146998
52	0xbd4795f8	-0.048727006
53	0x3be97e19	0.0071256277
54	0x3c703280	0.014660478
55	0x3c161163	0.009159419
56	0x3cceb37a	0.025232065
57	0xbd54ddab	-0.05196921
58	0xbc9163f0	-0.01774785
59	0xbd538249	-0.05163792
60	0xbcdb2ec4	-0.026755698
61	0x3cf34888	0.029697672
62	0xbd0e25ea	-0.034704126
63	0xbb6910ba	-0.0035562948
64	0xbcfdc839	-0.030979263
65	0x3d3a0e9f	0.0454241
66	0xbb9dc606	-0.004814866
67	0xbcbcd4b6	-0.023050647
68	0x3c2a27f9	0.010385507
69	0x3d2c9d97	0.042142477
70	0x3d811c49	0.06304223
71	0x3d5615f8	0.052267045
72	0x3c65815a	0.014007891
73	0xbcde884e	-0.027164605
74	0x3cad8c68	0.021185115
75	0xbd0e1a15	-0.034692843
76	0xbd03e5e0	-0.032201648
77	0x3d0165e9	0.03159133
78	0x3ce917ad	0.028453672
79	0xbc39faa5	-0.011351262
80	0x3d3c49ab	0.045968693
81	0xbd41bcb9	-0.04729912
82	0x3c901c1e	0.017591532
83	0x3d6ad6bb	0.05733369
84	0xbd426a27	-0.047464516
85	0xbd1b58c1	-0.03792644
86	0xbc97b926	-0.018520903
87	0x3cc3bedb	0.023894718
88	0xbd21fa80	-0.039545536
89	0xbcdae4f6	-0.026720505
90	0xbbaad675	-0.0052135536
91	0xbd61b532	-0.055104442
92	0xbccff45e	-0.025385078
93	0xbc96ed71	-0.018423768
94	0xbd2a1e51	-0.04153282
95	0xbd3aceb9	-0.045607302
96	0xbc8ba955	-0.017048517
97	0x3d58c3f8	0.052921265
98	0xbcbe759e	-0.023249444
99	0x3c509dd0	0.012732938
100	0xbd7f3d42	-0.06231428
101	0x3c0c8223	0.008575949
102	0x3d14122f	0.036150154
103	0xbcb10408	-0.021608368
104	0x3d6c9bf0	0.0577659
105	0xbd4a0ab7	-0.049326625
106	0x3c9871e7	0.018609
107	0xbd548245	-0.051882047
108	0xbd82f428	-0.06394225
109	0xbc6a195e	-0.014288275
110	0x3bd9c003	0.006645204
111	0x3d276271	0.040865365
112	0xbc86b2b8	-0.016442642
113	0xbccc3c65	-0.024931142
114	0x3ca401d5	0.020020405
115	0xbdb01219	-0.08597202
116	0x3cdadac4	0.026715644
117	0x3b9ba95f	0.004750415
118	0x3b0759a7	0.0020652802
119	0x3d08ce81	0.033400062
120	0x3cf65359	0.03006904
121	0xbd91b753	-0.071150444
122	0x3c884e17	0.016638799
123	0x3cb18a49	0.021672385
124	0xbc9bd70a	-0.019023437
125	0x3c80c118	0.015717074
126	0xbd5f9ab1	-0.054590885
127	0x3d491139	0.04908869
128	0xbc942e1d	-0.018088395
129	0x3d8aa494	0.06769672
130	0x3d172a5c	0.03690563
131	0x3c812f5f	0.015769659
132	0xbaa34111	-0.0012455304
133	0x3b8208c2	0.003968329
134	0xbda9fdff	-0.08300399
135	0x3d0a106f	0.03370708
136	0xbcd680a2	-0.026184384
137	0xbc5154ea	-0.012776593
138	0x3d5a41d1	0.053285424
139	0x3cea8368	0.028627113
140	0x3c744570	0.014909133
141	0x3ccd5636	0.025065523
142	0xbceed3a9	-0.029153662
143	0x3d34f759	0.0441812
144	0x3cc55854	0.02408997
145	0x3d543d78	0.051816434
146	0xbc6b9616	-0.014379045
147	0xbc7f7c65	-0.015593623
148	0xbbbbb7d8	-0.005728703
149	0x3a5dce59	0.0008461229
150	0x3d770f74	0.06031747
151	0x3d8feab1	0.07027186
152	0x3cf1310e	0.029442336
153	0x3d623f25	0.055236
154	0x3d609352	0.054827996
155	0x3d5e0706	0.054205917
156	0xbd421041	-0.047378782
157	0xbbfda61f	-0.0077407504
158	0x3ad29392	0.0016065708
159	0x3d5c4356	0.053775154
160	0xbb8224ce	-0.0039716726
161	0xbd0bca47	-0.034128454
162	0xbd0daee5	-0.03459062
163	0x3c2d4334	0.0105751045
164	0x3cd8c936	0.026463132
165	0xbd244540	-0.040105104
166	0x3cc07fc4	0.023498423
167	0x3d455a43	0.048181783
168	0xbc92598a	-0.017864961
169	0x3d28358f	0.041066702
170	0xbcdf4565	-0.02725477
171	0x3c934017	0.017974896
172	0x3be65988	0.007029716
173	0x3c54ec85	0.012995844
174	0xbd15f5b0	-0.03661126
175	0xbca0855b	-0.019594839
176	0x3cd942cf	0.026521115
177	0x3d618730	0.055060565
178	0xbcd7c914	-0.026340999
179	0x3ceaeb95	0.028676787
180	0x3d2d5a38	0.042322367
181	0x3d058081	0.032593254
182	0xbd410c3f	-0.04713082
183	0x3cf79497	0.03022222
184	0x3d178328	0.036990315
185	0xbd5bba3f	-0.053644415
186	0xbd317d57	-0.043332424
187	0xbd28afeb	-0.041183393
188	0x3bf32a3d	0.0074208067
189	0x3c982433	0.018571949
190	0x3c956261	0.018235387
191	0xbc9db219	-0.019249963
192	0x3b94750d	0.004530555
193	0x3cd8052d	0.026369656
194	0xbc3442d9	-0.011002266
195	0x3bda7b37	0.0066675204
196	0x3a889cd7	0.0010422718
197	0xbb8bdb4f	-0.004268087
198	0x3c9f2baa	0.01943
199	0xbbe21456	-0.006899397
200	0x3c867c06	0.01641656
201	0x3c13654d	0.00899632
202	0xbca92152	-0.020645771
203	0xbcefcd19	-0.029272603
204	0xbd7a7966	-0.06115093
205	0xbce3f773	-0.027827954
206	0x3cbe627e	0.023240324
207	0xbae0bfd6	-0.0017147015
208	0xbc80b3ea	-0.01571079
209	0xbca07747	-0.019588126
210	0x3d940e5a	0.072293
211	0x3c5bbb45	0.013411348
212	0x3d62b030	0.055343807
213	0xbd7a644b	-0.061130803
214	0xbcd2404d	-0.025665427
215	0xbd89c1c7	-0.06726413
216	0xbd510e79	-0.051039193
217	0xbbf2a9f0	-0.007405512
218	0xbd30f2b9	-0.04320023
219	0xbd8d2d7b	-0.0689344
220	0xbd703b48	-0.058650285
221	0x3b7bcc6f	0.0038421412
222	0xbda8449b	-0.082162105
223	0xbc8b00ea	-0.01696821
224	0x3bf68b88	0.0075239576
225	0x3c878d41	0.016546847
226	0x3a346d71	0.0006882763
227	0x3d6edd5b	0.05831657
228	0x3d174f69	0.036940966
229	0x3b6f4e0b	0.0036515023
230	0xbcb5c980	-0.02219081
231	0xbd8204ff	-0.06348609
232	0xbd8d7cb9	-0.069085546
233	0xbbd4bec5	-0.006492468
234	0xbd5dc69e	-0.054144494
235	0xbd5204c3	-0.051274072
236	0x3d249033	0.04017658
237	0x3d0f88bb	0.035042506
238	0x3d816719	0.063184924
239	0x3d21fc15	0.039547045
240	0x3cba7808	0.022762313
241	0xbcedb81e	-0.029018458
242	0x3d8bf88d	0.06834517
243	0x3b0a3370	0.0021087788
244	0xbcf72fb7	-0.03017412
245	0xbcd97fe0	-0.026550233
246	0xbba3a144	-0.0049935896
247	0xbba351c1	-0.004984111
248	0x3c76cb70	0.015063152
249	0x3d80a963	0.06282308
250	0x3d64a0d3	0.055817436
251	0xbb94a376	-0.0045360876
252	0xbd26985e	-0.040672652
253	0x3cb0fef3	0.021605944
254	0x3d9d900f	0.076934926
255	0xbca49ae2	-0.020093385

encoder.block2.block.0.bias f4 [32]
0	0xbcfd28ab	-0.030903181
1	0xbb9688ba	-0.004593936
2	0xbceb3569	-0.028711991
3	0x3d226aaf	0.039652523
4	0x3d82db58	0.06389493
5	0x3da2d8df	0.07951521
6	0x3bcfeeef	0.006345622
7	0xbc8afc2a	-0.016965944
8	0x3c8323fc	0.01600837
9	0x3db61e70	0.08892524
10	0x3c480f15	0.012210627
11	0x3daba7f6	0.083816454
12	0x3cb133f2	0.021631215
13	0xbbb965bc	-0.0056578796
14	0x3d4bdf67	0.0497736
15	0x3d35d2c3	0.04439045
16	0x3c954551	0.01822153
17	0x3d91ccf5	0.071191706
18	0x3d9ee975	0.07759372
19	0x3ce787a2	0.028262917
20	0x3c6819e5	0.01416633
21	0xbb923c67	-0.004462767
22	0x3ca90866	0.020633887
23	0x3c13ae83	0.009013775
24	0x3d9f1575	0.077677645
25	0x3b9879f3	0.0046532094
26	0x3d16a273	0.036776017
27	0xbd4efc50	-0.050533593
28	0x3b63bc64	0.003474974
29	0x3d4e449d	0.050358403
30	0x3d171015	0.03688057
31	0xbc7a24c6	-0.0152675565

encoder.block2.block.2.weight f4 [32]
0	0x3f757c1a	0.9589249
1	0x3f74f236	0.95682085
2	0x3f74bc53	0.9559986
3	0x3f6dde98	0.92917776
4	0x3f71f2b2	0.9451095
5	0x3f74820f	0.95510954
6	0x3f73cc86	0.95233953
7	0x3f71c829	0.94446045
8	0x3f72f36b	0.94902676
9	0x3f73884a	0.95129836
10	0x3f72d321	0.9485341
11	0x3f7521fb	0.95754975
12	0x3f75dea0	0.96042824
13	0x3f734c6b	0.9503848
14	0x3f76cae9	0.96403366
15	0x3f760316	0.9609846
16	0x3f732e10	0.9499216
17	0x3f6d42c9	0.9268003
18	0x3f6f1e57	0.9340567
19	0x3f765313	0.9622051
20	0x3f76fac3	0.9647638
21	0x3f7540d1	0.95802027
22	0x3f73904e	0.95142066
23	0x3f74d989	0.9564443
24	0x3f752b50	0.95769215
25	0x3f751590	0.95736027
26	0x3f75be40	0.95993423
27	0x3f74fe96	0.9570097
28	0x3f752180	0.9575424
29	0x3f737b31	0.9510985
30	0x3f7222cd	0.9458435
31	0x3f754f50	0.95824146

encoder.block2.block.2.bias f4 [32]
0	0xbc8329b5	-0.016011098
1	0x3cac6fea	0.021049459
2	0xbbc87c0e	-0.006118304
3	0xbc9d2e61	-0.019187154
4	0x3b8954d1	0.004191019
5	0x3c9f4997	0.01944427
6	0x3cb1c55f	0.02170056
7	0xbb847d76	-0.0040432764
8	0x3cebc7e3	0.028781837
9	0x3b9cdb29	0.004786868
10	0x3c9a57db	0.01884072
11	0x3bdf0684	0.0068061966
12	0xbca8407b	-0.02053856
13	0xbc311d8a	-0.010810265
14	0xbc3f9fcc	-0.011695813
15	0xbc06f7e4	-0.008237813
16	0xbc8937c0	-0.016750216
17	0x3c6835da	0.014172995
18	0xbbe88381	-0.0070957546
19	0xbbcd54e4	-0.0062662233
20	0x3c26e064	0.010185335
21	0x3c6923b6	0.014229706
22	0xbca9136c	-0.020639144
23	0x3c40072d	0.011720461
24	0x3c81f941	0.015865924
25	0xba957772	-0.0011403395
26	0x3c413527	0.011792458
27	0xbc51106a	-0.012760261
28	0xbc4efa89	-0.012632974
29	0x3c61f714	0.013791818
30	0xbc10b117	-0.008831284
31	0x3ba134a6	0.0049196063

encoder.block2.block.2.running_mean f4 [32]
0	0x3dde702a	0.10861237
1	0x3e47b603	0.19503026
2	0x3db3fa5b	0.08787986
3	0x3e301fc6	0.1719962
4	0x3e369ba7	0.17832814
5	0x3e41041b	0.18849222
6	0x3dd85e66	0.1056488
7	0x3ded6d46	0.11593108
8	0x3e28fac9	0.16501917
9	0x3e2614ff	0.16218947
10	0x3df9a3b0	0.12189424
11	0x3e380346	0.17969999
12	0x3e133287	0.14374743
13	0x3deabaaa	0.114613846
14	0x3e3906d3	0.1806901
15	0x3e330bad	0.17484923
16	0x3e2150b6	0.15753445
17	0x3e397a0f	0.18112968
18	0x3e13b965	0.14426191
19	0x3e12d65e	0.14339587
20	0x3e18750a	0.14888397
21	0x3e0d7be0	0.13816786
22	0x3e180635	0.14846118
23	0x3df5dcc1	0.12004996
24	0x3e1f4b21	0.15556003
25	0x3e33585b	0.17514174
26	0x3dd61526	0.104532525
27	0x3ddf886c	0.10914692
28	0x3de0e4df	0.10981154
29	0x3e33f727	0.1757475
30	0x3df5bdc9	0.11999089
31	0x3df28e8a	0.118435934

encoder.block2.block.2.running_var f4 [32]
0	0x3fa0ef35	1.2573
1	0x3fe6fa80	1.8045197
2	0x3f55b8c8	0.8348508
3	0x3f1a7bd1	0.6034518
4	0x3f5b2de6	0.8561691
5	0x3f9385b4	1.1525178
6	0x3f8aa266	1.083081
7	0x3f522807	0.82092327
8	0x3f90dd96	1.1317623
9	0x3f90cdb8	1.131278
10	0x3f051e03	0.5199892
11	0x3faac04e	1.3339937
12	0x3fb282cf	1.394617
13	0x3f32c145	0.69826156
14	0x3f957b7c	1.167831
15	0x3f955374	1.1666093
16	0x3f815726	1.010472
17	0x3f5e0138	0.8672061
18	0x3f90a11e	1.1299169
19	0x3fc39a3a	1.5281441
20	0x3fe2c99e	1.7717779
21	0x3fa65bff	1.2996825
22	0x3fa33991	1.2751943
23	0x3fe15aea	1.760587
24	0x3f861b7e	1.047714
25	0x3fb31aa7	1.3992509
26	0x3f1df965	0.6170867
27	0x3fcdabc7	1.6068047
28	0x3f20ac64	0.6276305
29	0x3fa3bd00	1.2792053
30	0x3f4cd8b5	0.8001817
31	0x3f9fcbbe	1.2484052

encoder.final.block.0.weight f4 [3, 32, 3, 3]
0	0x3c984c65	0.018591115
1	0xbcc38227	-0.023865772
2	0xbd5f24e4	-0.05447854
3	0xbc4f0b41	-0.0126369605
4	0x3bc00da1	0.0058609997
5	0xbd4ae336	-0.04953309
6	0x3a7a1cc5	0.000954103
7	0xbcbcb3cd	-0.023034954
8	0xbd1b10e2	-0.037857898
9	0x3cb81cd1	0.022474678
10	0xbd3b952b	-0.045796555
11	0x3cec7385	0.028863678
12	0x3d08b8be	0.03337931
13	0xbb45926f	-0.0030147096
14	0x3c2d40d4	0.010574538
15	0xbd3a2f7d	-0.045455445
16	0xbd094181	-0.033509735
17	0x3ce588e2	0.028019372
18	0xbc0cb64a	-0.008588383
19	0x3cb4ff92	0.022094522
20	0xbc725a4d	-0.014792037
21	0x3aa33a56	0.0012453299
22	0xbc93b0dc	-0.018028669
23	0xbd1cec44	-0.038311258
24	0xbd0c1d64	-0.034207717
25	0x3d392cec	0.045208856
26	0xbc611263	-0.013737294
27	0x3d3e80b4	0.04650946
28	0xbd499654	-0.04921563
29	0x3d270dc4	0.040784612
30	0xbc864131	-0.016388508
31	0x3b60579b	0.0034231904
32	0xbcb93dd1	-0.022612484
33	0xbc9b8939	-0.018986331
34	0xbcf2fe0b	-0.029662153
35	0xbc914226	-0.017731737
36	0xbcfe0a76	-0.031010848
37	0x3d16b892	0.036797114
38	0xbd2be390	-0.041965067
39	0xb9ccea37	-0.00039084416
40	0x3c6af605	0.014340882
41	0x3d3f267e	0.04666757
42	0xbd1cb640	-0.038259745
43	0x3d316681	0.043310646
44	0xbd5fd782	-0.054648884
45	0x3caea87d	0.021320576
46	0xbceff920	-0.029293597
47	0xbcfbbcdb	-0.030729702
48	0x3d387845	0.045036573
49	0xbd469b78	-0.04848811
50	0x3d3d1168	0.046159178
51	0xbc1f2d59	-0.009715402
52	0x3c951af8	0.018201336
53	0x3d1ba13f	0.037995573
54	0xbd210cc4	-0.039318815
55	0xbd30e7f9	-0.043189976
56	0x3c764468	0.015030958
57	0xbac3f0c6	-0.0014949075
58	0xbd1fc1bc	-0.03900312
59	0x3cfdc4f8	0.030977711
60	0x3d240223	0.0400411
61	0x3c62e4a2	0.013848456
62	0xbd65be24	-0.056089535
63	0xbca65421	-0.020303788
64	0xbd257f5d	-0.040404666
65	0xbd02280c	-0.031776473
66	0xbc88728f	-0.016656188
67	0x3c1e4d28	0.00966195
68	0x3b12025f	0.0022279245
69	0xbd48b609	-0.049001727
70	0x3d048560	0.03235376
71	0xbbccd4d8	-0.006250959
72	0x3b967e92	0.004592725
73	0xbd26013a	-0.040528513
74	0xbc3fc393	-0.011704343
75	0xbd658963	-0.056039225
76	0x3d12292f	0.035683807
77	0x3d25baf0	0.04046148
78	0xbc1797a0	-0.009252459
79	0xbcd2c720	-0.025729716
80	0x3d2167c0	0.039405584
81	0x3ca1df61	0.019759836
82	0x3cbbfd08	0.022947803
83	0x3cddc705	0.027072439
84	0x3c95334f	0.018212942
85	0x3d2aa8d1	0.041664902
86	0xbb6a4312	-0.0035745543
87	0xbcf82924	-0.030293055
88	0xbd299959	-0.04140601
89	0x3d068724	0.032843724
90	0x3d40c4a3	0.047062527
91	0x3d054a3a	0.03254149
92	0xbc16eda2	-0.0092119295
93	0xbaef9b25	-0.001828049
94	0x3ca371af	0.01995167
95	0xbc59ec7b	-0.01330101
96	0x3ce30de3	0.027716583
97	0x3d01c814	0.03168495
98	0x3ceade1a	0.02867036
99	0xbcdf41cc	-0.027253054
100	0xbd472908	-0.048623115
101	0x3d5bff02	0.05370999
102	0x3c6d4b1c	0.0144832395
103	0x3cbc93f3	0.023019766
104	0xbbbcca1f	-0.0057613994
105	0xbc30b2db	-0.01078483
106	0xbd457b62	-0.04821337
107	0x3aaf34dc	0.0013367194
108	0x3ba6fdc0	0.0050961673
109	0x3cc7e70c	0.024402164
110	0xba7f04b2	-0.00097281777
111	0x3d1577ed	0.036491323
112	0xbd62ca42	-0.05536867
113	0xbbf3f99b	-0.007445527
114	0x3d06b9e1	0.03289211
115	0xbd1699db	-0.03676782
116	0x3b72e2bf	0.003706142
117	0x3c3348f2	0.0109426845
118	0xbd421586	-0.047383808
119	0x3bc47f6c	0.005996635
120	0xbbb48c94	-0.0055099223
121	0xbc0e783a	-0.008695656
122	0x3d170d96	0.03687819
123	0xbbe98ec3	-0.007127614
124	0xbc2e8aeb	-0.010653238
125	0xbd45ad99	-0.04826126
126	0xbccbe367	-0.024888707
127	0x3d36cd94	0.04462965
128	0xbc649ff9	-0.013954156
129	0xbd5a09e8	-0.053232104
130	0x3b91cd21	0.004449502
131	0x3c129f74	0.008949149
132	0xbd0a4e81	-0.033766273
133	0xbd27091d	-0.040780175
134	0xbccbc815	-0.02487568
135	0xbc97b7c4	-0.018520243
136	0xbcca04bb	-0.024660459
137	0xbd297038	-0.041366786
138	0xbc981abd	-0.018567437
139	0xbcab783f	-0.020931361
140	0xbc9e2c64	-0.019308276
141	0x3b5ffe7f	0.003417879
142	0xbbd37f14	-0.006454358
143	0x3b566e7d	0.0032719665
144	0x3d398b08	0.045298606
145	0xbd24d8fa	-0.040245987
146	0xbd3dc554	-0.046330765
147	0xbd53bc27	-0.051693108
148	0xbc3fbe11	-0.01170303
149	0x3c95b0eb	0.018272838
150	0x3c1f1517	0.009709618
151	0x3c043dca	0.008071372
152	0x3c0fff3c	0.00878888
153	0xbcb426a6	-0.021991085
154	0xbca326e4	-0.019916005
155	0xbad3b7f1	-0.0016152841
156	0xbc83700b	-0.016044637
157	0x3d2fb143	0.04289366
158	0x3d30d09a	0.043167688
159	0x39c3ef7e	0.00037371734
160	0xbc95d92f	-0.018292038
161	0x3c934ca5	0.017980883
162	0xb9a206ae	-0.00030904025
163	0x3d36ba61	0.04461134
164	0x3d210318	0.03930959
165	0x3cb06d32	0.021536443
166	0xbd39c349	-0.045352254
167	0xbcecca32	-0.028905008
168	0x3cdc2090	0.026870996
169	0x3b3eb178	0.002909748
170	0xbcf1ecc4	-0.029531844
171	0xbd46e86c	-0.0485615
172	0x3c3a46f8	0.011369459
173	0xbc34fad5	-0.011046131
174	0x3c6dd997	0.0145172095
175	0x3c8689b3	0.016423082
176	0x3c2358ca	0.009969899
177	0x3c9f8c4c	0.019476078
178	0xbc2486b6	-0.010041883
179	0x3c5a1412	0.013310449
180	0x3cd89710	0.02643922
181	0x3d3dc864	0.046333686
182	0x3d23a8dd	0.039955962
183	0x3c256455	0.010094722
184	0x3d202cad	0.039105106
185	0x3c5990fe	0.013279198
186	0x3d16e62a	0.036840595
187	0x3c348f23	0.011020455
188	0x3c497cb5	0.012297799
189	0x3c6afd61	0.014342637
190	0x3d395469	0.045246515
191	0x3cde0f9a	0.027107049
192	0x3c54e0a7	0.012993014
193	0xbc9355ba	-0.017985214
194	0x3a8ee86d	0.0010903009
195	0xbc7d379a	-0.015455151
196	0x3ca1d17e	0.019753214
197	0xbbccd54d	-0.0062510134
198	0x3c713f4b	0.014724563
199	0x3d282584	0.041051403
200	0x3c0338e7	0.008009172
201	0xbd23a2d2	-0.0399502
202	0xbb91c065	-0.004447984
203	0x3d5ff7c3	0.054679643
204	0xbd5b197e	-0.053491108
205	0x3d0f00c9	0.03491286
206	0xbca6b897	-0.020351691
207	0x3c18fb62	0.009337278
208	0x3cf0114a	0.029305119
209	0x3d1f0dd1	0.038831536
210	0xbd57522a	-0.052568592
211	0x3d37792c	0.044793293
212	0xbd064a06	-0.032785438
213	0xbd0812a7	-0.033220913
214	0x3b95a7e4	0.0045671333
215	0x3d305b16	0.043055616
216	0xbcf18be0	-0.029485643
217	0xbc7612a9	-0.015019097
218	0x3d0e82b6	0.034792624
219	0x3d120d92	0.035657473
220	0x3ca0f4f1	0.019648047
221	0xbd3ff2f1	-0.046862546
222	0x3cc0b1be	0.023522254
223	0x3d0afb72	0.033931203
224	0xbd1cedd6	-0.038312756
225	0xbcbb4a62	-0.022862617
226	0x3d3d7980	0.04625845
227	0xbcc4cbdf	-0.024022995
228	0x3c99888d	0.01874187
229	0x3c06c20a	0.008224973
230	0xbd453efa	-0.048155762
231	0xbcd30988	-0.02576138
232	0x3d08e056	0.03341707
233	0xbd182eeb	-0.03715412
234	0x3cee3558	0.02907817
235	0x3c1868e0	0.009302348
236	0xbc255de6	-0.010093188
237	0xba0cfe1c	-0.00053784414
238	0x3d00a881	0.031410698
239	0xbc0b56b1	-0.008504556
240	0xbc924224	-0.017853804
241	0x3c9e4b0b	0.019322893
242	0xbcc2d31c	-0.023782305
243	0xbd172b9a	-0.036906816
244	0x3c508074	0.012725938
245	0x3cc5a25f	0.024125276
246	0xbd2840a9	-0.04107729
247	0xbc645d27	-0.013938225
248	0x3c69e9dc	0.014276948
249	0xbcbe457b	-0.02322649
250	0x3c9f9f9a	0.019485284
251	0x3d412816	0.04715737
252	0xba9624af	-0.0011455024
253	0xbd1c5ef5	-0.038176496
254	0x3d42bd14	0.0475436
255	0xbd21213c	-0.039338335

encoder.final.block.0.bias f4 [3]
0	0xbcfb4125	-0.030670712
1	0xbc87bf10	-0.016570598
2	0x3c8d34e2	0.01723713

decoder.initial.block.0.weight f4 [32, 3, 3, 3]
0	0xbe3eb655	-0.18624242
1	0x3cc0749f	0.02349311
2	0xbe4691b9	-0.19391526
3	0xbd7f5390	-0.06233555
4	0x3e00839c	0.12550205
5	0x3e0d228c	0.1378271
6	0x3aba0bd3	0.0014194198
7	0x3cc668fd	0.024219984
8	0x3e29e64c	0.16591758
9	0x3d1ee6e0	0.0387944
10	0x3cb18c8b	0.021673461
11	0xbde47c3d	-0.11156509
12	0xbdae60b2	-0.08514537
13	0x3e113b5d	0.14182802
14	0xbe028035	-0.1274422
15	0x3df1c272	0.118046656
16	0xbd34c16c	-0.044129774
17	0xbdfff34e	-0.124975786
18	0x3d98514b	0.074373804
19	0xbde89db0	-0.113582015
20	0xbccffd8e	-0.025389459
21	0x3e16c2b4	0.14722711
22	0xbe0f3f4f	-0.13988994
23	0x3e084866	0.13308868
24	0x3debe89a	0.115189746
25	0x3e0e5c29	0.13902344
26	0x3d50e093	0.05099542
27	0xbe21de9e	-0.15807578
28	0x3da2dd2e	0.07952343
29	0xbdaf3eb4	-0.085568815
30	0xbd711ed4	-0.05886729
31	0x3e17a5d5	0.14809354
32	0xbc517978	-0.012785308
33	0x3da79825	0.08183316
34	0x3d65a57f	0.056066032
35	0x3cfdc3d5	0.030977169
36	0x3daecd65	0.0853527
37	0x3bdaeafd	0.006680845
38	0xbe203ffd	-0.1564941
39	0xbcc73588	-0.024317518
40	0x3e179ceb	0.14805953
41	0xbdcc8c0f	-0.099876516
42	0x3e33a3a3	0.17542891
43	0xbe369cc4	-0.17833239
44	0xbd9a8cdd	-0.07546399
45	0xbdf3ee92	-0.11910738
46	0x3d099401	0.033588413
47	0xbd99e3cf	-0.07514154
48	0x3e1737f5	0.1476744
49	0x3d876ca9	0.06612522
50	0x3da86aea	0.08223517
51	0x3e11f9fa	0.14255515
52	0x3da7a3b0	0.08185518
53	0xbda262dc	-0.07929012
54	0xbd05a8f0	-0.032631814
55	0x3dbea802	0.09309389
56	0xbd9fedec	-0.07809052
57	0x3d8d9e28	0.069149315
58	0x3e352ac6	0.17692098
59	0x3cc9eec8	0.024649993
60	0x3bdf214a	0.0068093883
61	0xbe033e11	-0.12816645
62	0xbddb0b1f	-0.106954806
63	0xbe369001	-0.1782837
64	0xbd78895d	-0.060677875
65	0x3e3af043	0.18255715
66	0x3c955195	0.018227378
67	0x3e043c47	0.12913619
68	0x3e3a4aa3	0.18192534
69	0xbdd7a5ee	-0.105296955
70	0xbdf68c09	-0.12038428
71	0xbe03d6f7	-0.12874971
72	0x3ddb402b	0.107055984
73	0x3db77ccc	0.0895935
74	0xbe11ab42	-0.14225486
75	0xbd327498	-0.043568224
76	0xbcca62fe	-0.024705406
77	0xbc5af5b8	-0.013364248
78	0x3dd4e51f	0.10395264
79	0xbd0b2b17	-0.03397664
80	0x3dca194b	0.098681055
81	0x3dcd0391	0.10010446
82	0xbdc35f54	-0.09539667
83	0x3e056162	0.1302543
84	0xbd5af5ba	-0.053457
85	0x3da8104b	0.08206233
86	0xbc22ef21	-0.009944708
87	0x3d41721a	0.047227956
88	0x3cba6bec	0.02275654
89	0xbccb257f	-0.024798153
90	0xbdc679bf	-0.0969119
91	0x3e27b62f	0.16378091
92	0xbd3b9417	-0.045795526
93	0xbdbf63e1	-0.09345222
94	0xbd271b42	-0.04079748
95	0x3e21ff06	0.1581994
96	0xbda2e043	-0.07952931
97	0xbe43e6e1	-0.19131042
98	0xbe117b20	-0.14207125
99	0xbd653ce9	-0.05596629
100	0xbd9880f2	-0.07446469
101	0x3cc9ca2b	0.024632534
102	0x3e212fa2	0.15740827
103	0xbd622ccc	-0.055218503
104	0xbd80ca46	-0.062885806
105	0x3e0b8442	0.13624671
106	0x3e27a7bb	0.16372578
107	0xbe0cc347	-0.13746367
108	0xbe0d604f	-0.1380627
109	0xbe6a603e	-0.22888276
110	0x3cfeabdb	0.031087806
111	0x3e368c66	0.17826995
112	0x3d50c4d7	0.05096897
113	0xbc48d399	-0.01225748
114	0xbe3b630b	-0.182995
115	0x3e17bf21	0.14819004
116	0x3e08af97	0.13348232
117	0x3db57572	0.088602915
118	0xbb8394bc	-0.0040155333
119	0xbdc028fb	-0.093828164
120	0xbb2b3ad2	-0.002612759
121	0x3cee74ce	0.029108431
122	0x3dc9736f	0.0983647
123	0xbdc0b65a	-0.09409781
124	0xbdc0d622	-0.094158426
125	0xbdf55a1b	-0.11980077
126	0x3e09a71f	0.13442658
127	0x3d8ba0ce	0.068177804
128	0x3e24d74f	0.16097759
129	0x3e09156f	0.13387083
130	0xbe2ccaaa	-0.16874185
131	0xbcb0e161	-0.021591844
132	0xbb766570	-0.0037597083
133	0x3e21e6d0	0.15810704
134	0xbe473620	-0.19454241
135	0x3b70b19c	0.0036726957
136	0xbe0aa999	-0.13541259
137	0x3dd3dd57	0.103449516
138	0xbca14621	-0.01968676
139	0x3e116353	0.14198045
140	0x3cc42b59	0.023946451
141	0x3e3ad961	0.18246986
142	0xbe1fccee	-0.15605518
143	0x3c584118	0.013199113
144	0xbe56e4c0	-0.20985699
145	0xbd1c70fd	-0.03819369
146	0xbd497838	-0.049186915
147	0xbe4a11cc	-0.19733351
148	0x3d80ecbc	0.062951535
149	0x3d8ad41b	0.06778737
150	0x3c95af0e	0.01827195
151	0xbd03148d	-0.03200202
152	0xbe0d6df3	-0.13811474
153	0x3e0016a1	0.12508632
154	0x3d277085	0.04087879
155	0x3d1bef59	0.038070057
156	0x3d282de8	0.041059405
157	0xbd0f46ac	-0.034979507
158	0x3e1ea458	0.1549238
159	0x3cf3c5f7	0.029757483
160	0x3d82c9ea	0.06386168
161	0x3d909263	0.07059171
162	0xbd4a9712	-0.049460478
163	0xbdd68574	-0.10474673
164	0x3dfcaf44	0.12338117
165	0xbc91c0b4	-0.017792083
166	0x3e148662	0.14504388
167	0xbe54f13e	-0.20795152
168	0xbd8b1cb9	-0.06792588
169	0xbd8095cb	-0.06278571
170	0x3c3fd4d9	0.011708462
171	0x3d50b6e5	0.05095567
172	0xbdfbde24	-0.12298229
173	0xbd24e6c4	-0.040259138
174	0x3c1ea0cf	0.009681894
175	0x3e07a82d	0.13247748
176	0xbe08b3d8	-0.13349855
177	0x3da72891	0.08162034
178	0xbe24488a	-0.16043296
179	0xbc351b5f	-0.011053889
180	0xbaac6335	-0.0013152125
181	0xbcef84c8	-0.02923812
182	0xbdbd38ae	-0.092393264
183	0xbe15a45f	-0.14613484
184	0xbe2d35bf	-0.16915034
185	0x3e04e333	0.12977295
186	0x3ddeb946	0.10875182
187	0x3e3c98a3	0.18417601
188	0x3d2666aa	0.04062525
189	0x3e1f332a	0.15546861
190	0x3e2c1cac	0.16807812
191	0xbdf77461	-0.120827444
192	0x3e3013ff	0.17195128
193	0x3e1b1c28	0.1514746
194	0xbe276570	-0.16347289
195	0xbd2bfcc5	-0.041989107
196	0xbb22c23f	-0.0024835018
197	0x3ca27260	0.019829929
198	0xbd17b921	-0.037041787
199	0x3d1af74b	0.037833493
200	0x3ddb941e	0.107216105
201	0xbde6adb0	-0.11263597
202	0x3e366c13	0.17814665
203	0x3ccd22e7	0.025041057
204	0xbe039843	-0.12851052
205	0xbdcdb48f	-0.100442044
206	0xbe3a71fb	-0.18207543
207	0xbd11fe19	-0.035642717
208	0x3dc223ac	0.0947946
209	0xbdf3f4fe	-0.11911963
210	0xbd4f8476	-0.050663434
211	0x3e002f2c	0.12517995
212	0xbc1a8df8	-0.009433262
213	0xbd1f43a8	-0.03888288
214	0xbdbc057d	-0.09180734
215	0x3e1bc2c6	0.15211019
216	0x3d937cbf	0.07201528
217	0xbe1612a0	-0.14655542
218	0xbd3ae856	-0.04563173
219	0xbe358a6f	-0.1772859
220	0xbe3edc99	-0.18638839
221	0xbd30f7aa	-0.04320494
222	0x3daca64b	0.08430155
223	0x3db5a278	0.08868879
224	0x3ceb68f1	0.028736563
225	0x3d7aad81	0.061200622
226	0xbe251b9d	-0.16123815
227	0x3dbc9a84	0.09209159
228	0x3d3a1863	0.045433413
229	0xbe2c5a5c	-0.16831344
230	0x3d9302ab	0.07178243
231	0x3df078c5	0.11741785
232	0xbd64568d	-0.055746604
233	0xbddebc6a	-0.10875781
234	0x3d962f9c	0.073332995
235	0x3e11c536	0.14235386
236	0xbd9cc559	-0.076548286
237	0xbe0d5f08	-0.13805783
238	0x3d9692b7	0.073522024
239	0x3df5766e	0.11985479
240	0xbd263801	-0.040580753
241	0xbe3d0352	-0.18458298
242	0x3c1f6a5f	0.009729951
243	0x3dd8b486	0.10581307
244	0x3cea7b4a	0.028623242
245	0x3e1b8452	0.15187195
246	0x3e056d7c	0.13030046
247	0xbb9354ee	-0.0044962084
248	0xbe082cf6	-0.13298401
249	0xbce66cf6	-0.028128128
250	0xbe252628	-0.16127837
251	0x3e587408	0.21138012
252	0x3d8fefc7	0.07028156
253	0x3e3933ae	0.1808612
254	0xbe1c0e76	-0.15239891
255	0xbda639fa	-0.08116527

decoder.initial.block.0.bias f4 [32]
0	0xbd0d8065	-0.034546275
1	0x3d6006ec	0.0546941
2	0x3e2b9ab9	0.16758241
3	0xbd2136f9	-0.039359067
4	0x3e040b9f	0.12895058
5	0x3e0001c7	0.12500678
6	0xbdcb2483	-0.099190734
7	0xbd435dd6	-0.04769691
8	0x3e3325f2	0.17494944
9	0x3c13b8aa	0.009016195
10	0xbdde6419	-0.10858936
11	0x3d43ab60	0.047770858
12	0xbdc3dfb1	-0.0956415
13	0x3e109e11	0.14122798
14	0xbd06e4e3	-0.032933127
15	0x3c46516e	0.012104375
16	0xbde3b445	-0.11118368
17	0x3da44203	0.08020403
18	0xbd8a09bb	-0.06740137
19	0x3e15d0bc	0.14630407
20	0xbd89c13f	-0.06726312
21	0x3e2646aa	0.16237894
22	0x3e43e596	0.19130549
23	0x3d8053c3	0.06265976
24	0x3e074932	0.13211516
25	0xbe08b98f	-0.13352035
26	0xbb6d233c	-0.0036184331
27	0xbe014175	-0.12622626
28	0x3d18fef1	0.037352506
29	0x3d7f9c8b	0.06240515
30	0xbdc048f6	-0.09388916
31	0xbe074bb5	-0.13212474

decoder.initial.block.2.weight f4 [32]
0	0x3f782ace	0.96940315
1	0x3f73b543	0.9519846
2	0x3f7c6cd0	0.98603535
3	0x3f7bfebf	0.98435587
4	0x3f7e10f9	0.9924465
5	0x3f676010	0.90380955
6	0x3f81a3bd	1.0128094
7	0x3f7e47c4	0.99328256
8	0x3f837edb	1.0273088
9	0x3f7ca983	0.98696154
10	0x3f826092	1.0185721
11	0x3f8424af	1.0323695
12	0x3f82efd5	1.0229441
13	0x3f829193	1.0200676
14	0x3f7fd204	0.99929833
15	0x3f7bc3bc	0.9834554
16	0x3f7e2489	0.992745
17	0x3f7a7aa6	0.97843397
18	0x3f747e44	0.95505166
19	0x3f7ac612	0.9795848
20	0x3f7f2a3f	0.9967384
21	0x3f7a57c4	0.9779017
22	0x3f7d762b	0.99008435
23	0x3f80d309	1.0064403
24	0x3f772894	0.9654629
25	0x3f827dfb	1.0194696
26	0x3f818f09	1.0121776
27	0x3f7b6f3e	0.9821662
28	0x3f8008b8	1.0002661
29	0x3f79c3e3	0.97564524
30	0x3f7f7a6b	0.9979617
31	0x3f7610c8	0.96119356

decoder.initial.block.2.bias f4 [32]
0	0xbd4c9048	-0.049942285
1	0xbd176ae9	-0.03696719
2	0x3d5e873b	0.054328185
3	0xb8dcc76b	-0.00010527562
4	0xbd0d0e65	-0.034437556
5	0xbd50378a	-0.050834216
6	0x3d318ae9	0.043345366
7	0xbd27b331	-0.040942375
8	0xbd0d5c4c	-0.03451185
9	0x3cf7d132	0.03025112
10	0xbd978193	-0.07397761
11	0x3a49040a	0.00076681434
12	0xbd497d2e	-0.049191646
13	0x3b306578	0.002691595
14	0xbd285f0f	-0.04110628
15	0x3d0c4612	0.03424651
16	0xbd035ec2	-0.03207279
17	0x3d3fa163	0.04678477
18	0xbd1df2f9	-0.038561795
19	0xbd655867	-0.05599251
20	0x3d824dbc	0.06362483
21	0xbdb72235	-0.08942071
22	0xbd31e038	-0.043426722
23	0x3cb1d7cc	0.021709345
24	0xbdaf0197	-0.08545225
25	0xbc130850	-0.00897415
26	0xbbd28afe	-0.0064252606
27	0xbdad91a5	-0.08475045
28	0x3d4a4736	0.04938432
29	0xbd806061	-0.06268383
30	0x3d7f9fb9	0.062408183
31	0xbd813caa	-0.06310399

decoder.initial.block.2.running_mean f4 [32]
0	0xbaf15001	-0.0018410684
1	0xbaa09261	-0.0012250656
2	0x3dafb0ed	0.08578668
3	0x3d22242a	0.03958527
4	0x3da7a30e	0.08185397
5	0x3a46845d	0.0007572824
6	0x3e99d035	0.30041662
7	0xbad58a4d	-0.0016291827
8	0x3f20d4ec	0.62824893
9	0x3f37eef4	0.7184899
10	0xbaf00140	-0.0018310919
11	0x3efaab58	0.4895885
12	0xba8f98b0	-0.0010955539
13	0x3d82ed71	0.063929446
14	0x3d37ebd2	0.04490263
15	0x3d6eb7fb	0.058280926
16	0x3e646370	0.22303557
17	0x3f108b0d	0.56462175
18	0x3a8f23d0	0.0010920707
19	0xbafbe9c0	-0.0019219443
20	0x3e262a5b	0.16227095
21	0xbacfe77e	-0.0015861837
22	0xbb444350	-0.0029947348
23	0x3e2c88a4	0.16849
24	0xbbd55fa2	-0.0065116445
25	0x3d82afd5	0.063811935
26	0x3da00ec9	0.0781532
27	0xbb23893e	-0.002495363
28	0x3e4eed24	0.2020765
29	0x3b6763f5	0.0035307382
30	0x3e0d6433	0.13807754
31	0xbb7bb42a	-0.0038406947
