models/DenseSteganoGAN/6/epoch_44.pth (torch, 382751 bytes, 59 tensors)

encoder.initial.block.0.weight f4 [32, 3, 3, 3]
00000000: 51dc 5d3c 24b5 a73c 33ef 7ebd 9bd1 bc3c
00000010: a7a7 01bd e034 3e3d e910 063e d3af d73d
00000020: eccd 343e f261 173e 717d e4bd 6282 f23c
00000030: 9de4 173e 0dc9 2f3e 2c6e 5f3d a995 143e
00000040: 93d5 0f3d 70cd 513d 8fbc 1b3e f61c 333e
00000050: 13f8 a8bd b69d 133e f968 7e3d 3294 56bd
00000060: 20bd 933d 20a9 f8bd 80dc 903d 5604 bf3d
00000070: 0570 f23d 67b1 9ebd f454 4ebe 7fca 76bd
00000080: f0e6 8eb9 8079 4f3d 966f 03be 97b9 c2bd
00000090: f898 03bd ad4e 44be 8e5e 083e 83c3 c53d
000000a0: 6406 a73d 0044 eabd aab7 eabd baf0 8bbd
000000b0: 0ade 0abd 5f67 253d e68d 9e3d b857 e9bd
000000c0: 3673 02bd 6b51 f63c 5e33 1dbd cd74 50bd
000000d0: a09a 043e 2c50 ac3d 0a0d b53d 1bcd 03be
000000e0: fce5 703a 2726 123c cba1 6ebc f3f9 aa3d
000000f0: 7a79 1abe fd35 173e 7ead 13be 92b7 b43d
00000100: a0b6 94bd 6722 29be ea45 0fbe e01a 5cbe
00000110: 3cba a5bc da80 063e 440c d9bd 0ffd b23d
00000120: ad24 753d 1a14 c13d 6d46 c3bb 061b 3abe
00000130: 3b49 4b3e b446 033e 3c1a 7dbd dc53 1dbd
00000140: 1ad7 bdbd 4bec febd f298 b0bc 24e9 fa3d
00000150: e744 a73c b15c 71be 2ad3 653d 5886 713d
00000160: c5f1 8fbd 1b0f 293e fa97 a13c bd21 64bc
00000170: 28f1 433c a2ba 39bd b176 6fbe ec22 963d
00000180: e6ac 813d c812 5dbc 71ed 1b3e 09ec 0dbe
00000190: 535b 093e 2d81 903d 3775 4dbd d8c9 63be
000001a0: ef43 ec3d f44f c1bd a973 82bd e95c 0e3e
000001b0: d503 353e 4059 0e3e 0baa df3d 2897 713c
000001c0: 2201 1dbd f4c0 803d 03f5 2b3e 361c 0e3e
000001d0: 982a 44bd d782 2a3e 6740 4b3e a999 a9bc
000001e0: 7d8c 043e 7478 bb3d 3daf 1f3e d000 193e
000001f0: 4e4e b13d b085 f43d 5626 af3d e284 373d
00000200: 7f01 173e 5b69 543d d4ad 17bd 7384 503e
00000210: 2ed6 24bd f5c4 bb3c 3232 d03d 258e d5bd
00000220: bf99 e2bd 9d7c 05be 8a17 383e 119e 96bd
00000230: e2be 46bd ddc3 4dbe 5281 07be 1be1 f23d
00000240: a947 aa3d 27ca 26be fb28 d13d 5785 71be
00000250: d3b7 ae3c 1714 2cbe dd73 0c3e dd04 003d
00000260: e90e 42bd 35e8 a33d 9fa1 16be e859 db3d
00000270: 5493 1a3d 897a 983c 82ab 5ebc 764c 9e3a
00000280: 4910 81bb a94e 03be 72f2 a93d 10eb 0a3e
00000290: df75 fc3d 35da 76bc 1251 263e cdfa 203e
000002a0: 1f6a 00bd 5478 283e dbfb fdbc ea87 da3d
000002b0: b16a 563e fe54 d6bd a9e0 833d 6e03 01be
000002c0: 297f 88bc 7f68 c23d 112e f83d 168f f33c
000002d0: fca7 833a 643e 6039 f492 a83d 2091 aabd
000002e0: 79eb 793e bdcb 903d 86b7 03bd 4a2b be3d
000002f0: cdff df3d b1fc e1bc 801d d3bd 9559 a0bd
00000300: 5843 e0bd 90a4 c03d d20b 43be 37fe 06be
00000310: 2bd5 983b ccd8 383e 3496 163d 81ed f9bc
00000320: 6e06 543d 31c1 20be 982a d33c 274d fcbd
00000330: 20f7 06be 00e6 1cbd da20 3abe 8244 9bbd
00000340: 2180 e23c 247c e4bd f606 18be 3cb8 f73d
00000350: 9d2e b0bc 94cc 563e 9acc 63be c6f2 113e
00000360: f781 3b3e d0c9 9cbd d857 b8bd 3907 85bc
00000370: e01e 3a3e d989 033e 5447 813d dd0f 073e
00000380: aa1b fa3d 7730 a4bc 7409 583e 5daa b13d
00000390: bbe9 1f3e ec3f a13d 28da 1b3e 715b 613e
000003a0: 7597 e23d 5574 31bd 90a3 523e fe97 91bd
000003b0: 65c1 ec3d f6c3 f83d 4614 b73c 36d7 6a3b
000003c0: e54d c2bd a5c7 443e 9f46 183c 0268 60bd
000003d0: af0f 0e3d 247a 313e 7f50 c93d 3d22 d23d
000003e0: 9002 e93c c645 b2bb a054 e23d a778 22bc
000003f0: a526 d73d 05fb 283e ee95 91bd efae a73d
0.013541297 0.020472117 -0.062239837 0.023049166 -0.031654026 0.046437144 0.13092388 0.10531583
0.17656678 0.14783457 -0.111567385 0.029603187 0.14833303 0.17166539 0.054548427 0.14510216
0.03511579 0.05122131 0.15208648 0.17491516 -0.082504414 0.1441563 0.06211183 -0.052387424
0.07213807 -0.12141633 0.07073307 0.09326999 0.11837772 -0.077486806 -0.20149595 -0.06025171
-0.00027256412 0.05065298 -0.12835535 -0.09508055 -0.032128304 -0.19170637 0.1331732 0.096564315
0.08155516 -0.11438751 -0.114608124 -0.06833024 -0.03390316 0.040381785 0.07741909 -0.11393684
-0.031848155 0.03006812 -0.038379066 -0.05089264 0.1294961 0.08413729 0.08840378 -0.1287121
0.0009189544 0.008920229 -0.014564942 0.08348455 -0.15085402 0.14766689 -0.14421651 0.08824076
-0.072613955 -0.1651703 -0.13991514 -0.21494627 -0.020230405 0.1313509 -0.105980426 0.08739673
0.05984943 0.09427662 -0.005959323 -0.18174371 0.19852154 0.1281994 -0.061792597 -0.038410053
-0.09269543 -0.12447413 -0.021557305 0.12251499 0.020418597 -0.23570515 0.056109585 0.05896601
-0.07028536 0.16509669 0.019725788 -0.013924059 0.011959352 -0.045344003 -0.23385121 0.073308796
0.06331806 -0.013493247 0.15227295 -0.13859572 0.13413744 0.07055888 -0.050160613 -0.22244966
0.11536395 -0.09439078 -0.06369717 0.1390263 0.17677243 0.13901234 0.10921105 0.014745511
-0.03833116 0.06286803 0.16792683 0.13877949 -0.047892183 0.16651474 0.19848786 -0.020703154
0.12944217 0.09153834 0.15594192 0.14941716 0.086575136 0.11939561 0.08552234 0.04480446
0.14746664 0.051858287 -0.03703101 0.20363025 -0.04024332 0.022921065 0.10165824 -0.104275025
-0.11064481 -0.13035817 0.1797773 -0.073543675 -0.048521884 -0.20094247 -0.13232926 0.11859342
0.08314449 -0.16288052 0.102128945 -0.23586021 0.021327889 -0.16804539 0.13716073 0.031254638
-0.0473775 0.08003274 -0.14710091 0.10710508 0.03773816 0.018613117 -0.013590695 0.001207723
-0.003938709 -0.12822975 0.08298196 0.13566232 0.123271696 -0.015066673 0.16241863 0.15720673
-0.031351205 0.16452152 -0.031003883 0.10670455 0.20939137 -0.1046543 0.06439335 -0.12598965
-0.016662197 0.09492587 0.121181615 0.029731315 0.001004457 0.00021385547 0.08231154 -0.08328462
0.24406232 0.0707011 -0.032157443 0.092856005 0.10937462 -0.027586313 -0.10308361 -0.078295864
-0.10950345 0.09406388 -0.19047478 -0.13182913 0.0046640835 0.18051451 0.03676434 -0.030508759
0.051763944 -0.15698697 0.025777146 -0.12319403 -0.13180208 -0.038305283 -0.18176594 -0.07581426
0.027648987 -0.111564904 -0.14846405 0.12095687 -0.021506602 0.20976478 -0.22246018 0.14252767
0.18311296 -0.0765568 -0.0900113 -0.016238796 0.1817584 0.12845553 0.06312433 0.13189645
0.12212308 -0.020042641 0.21097356 0.08675072 0.15616505 0.0787352 0.15219939 0.22007538
0.110640444 -0.043323833 0.20570207 -0.07109068 0.115603246 0.121467516 0.022348534 0.0035833842
-0.094875135 0.19216783 0.009294181 -0.05478669 0.034682926 0.17331749 0.098298065 0.10260437
0.028443605 -0.0054404465 0.11051297 -0.009916461 0.10505418 0.16502006 -0.07108675 0.08187663

encoder.initial.block.0.bias f4 [32]
00000000: 2145 eb3d aa4d 2fbe 9a95 61be 27ba 853e
00000010: 73c7 5abc 4a5b cebd 49dd ad3d e734 febd
00000020: 2d08 233d 8d5e 84bd 4eb5 dd3d eef6 66be
00000030: 5776 143e 54b4 36be f6cb 60be 72ce 85be
00000040: bb4c d6bc 1cb1 1b3e 2c20 0a3d c95f b83e
00000050: 0227 56be 54a9 673d b51c 1f3d 86e4 673d
00000060: d997 1e3e 2149 83be e859 a33c 761e 29be
00000070: f2cc aa3d 98db 363e db16 463e 228c 5fbe
0.11487795 -0.1711947 -0.22029725 0.26118585 -0.013353216 -0.10076006 0.084894724 -0.12412434
0.03980272 -0.06463347 0.10825597 -0.22555134 0.14498268 -0.17842227 -0.21952805 -0.26134068
-0.026159635 0.1520428 0.033722088 0.36010578 -0.20913318 0.05655797 0.038845737 0.05661442
0.15487613 -0.2564173 0.019940332 -0.16515526 0.083398715 0.17857206 0.19344656 -0.218308

encoder.initial.block.2.weight f4 [32]
00000000: efb3 6e3f 66c6 7c3f be32 743f c623 043f
00000010: 569d 733f 4477 723f 9279 6b3f 3d69 753f
00000020: a515 733f 96a5 6a3f 62de 6e3f 9917 653f
00000030: 9fcf 6e3f 3d78 7f3f 433b 843f 0761 813f
00000040: 9a1a 703f 7c6e 6c3f 6e2b 5f3f 013b 113f
00000050: 31a6 6d3f d794 6b3f 2245 6e3f d174 5c3f
00000060: 1491 593f c7a6 853f fabd 6d3f 020d 793f
00000070: 9fdd 6a3f 72de 243f 99f2 103f 5445 7b3f
0.93243307 0.9874023 0.95389926 0.51617086 0.9516195 0.94713235 0.91982377 0.95863706
0.949549 0.91658914 0.9330808 0.8948913 0.93285555 0.99792844 1.0330585 1.0107735
0.9379059 0.92356086 0.87175643 0.5673066 0.9283171 0.92023987 0.9307424 0.8611575
0.84986997 1.0441521 0.92868006 0.97285473 0.91744417 0.64401925 0.56620175 0.9815266

encoder.initial.block.2.bias f4 [32]
00000000: f075 b93c 5231 693a a551 4ebc 0f1c 9c3d
00000010: e6f4 40bd fd06 093c d884 ee3c e033 f93c
00000020: 7a05 583c 685f ecbc 62a2 7a3a a9a6 35bd
00000030: 5f5f 92bc 5790 a73c e383 b0b9 23ba 9b3b
00000040: b782 633c 5756 0f3a d452 893b 6127 0bbd
00000050: c1ec 373d 94db 6e3b 5ddb 463c 9903 213c
00000060: 8dac 023c 9d82 15bc ec86 b33b 3461 66bc
00000070: d616 433c 0c33 75bc 2773 463c 9022 a9bc
0.022639245 0.0008895594 -0.012592708 0.07622539 -0.047108553 0.008363483 0.02911608 0.030420244
0.013184899 -0.028854087 0.000956094 -0.044348393 -0.017867742 0.020454569 -0.000336676 0.004752414
0.013886145 0.0005467883 0.004190782 -0.0339731 0.04490352 0.0036446797 0.012137261 0.009827518
0.00797571 -0.009125379 0.0054787304 -0.014061261 0.0119073 -0.014965784 0.012112415 -0.020646363

encoder.initial.block.2.running_mean f4 [32]
00000000: 125f 4c3f e9cd 78bb 99f5 89bb 74d1 553e
00000010: 729f 883f 408c 9cbb 9add 523f c656 bfbb
00000020: 0ca4 7c3f d037 0d3f 038f 4c3f 16db 80bb
00000030: b300 663f 64bf 59bb fbfe 74bb 5028 83bb
00000040: 2490 7d3f 702a 813f 0d3c 713f 832d 983e
00000050: 7770 94bb 8ffd 313f efcd 253f f470 1b3f
00000060: 9dbc 503f d1c4 82bb 918d 3d3f 0a6a 9dbb
00000070: 5d77 3f3f c9bb 433c 6d0d 5c3c ef5d 82bb
0.79832566 -0.003796453 -0.0042101857 0.20880681 1.0673659 -0.0047774613 0.8236939 -0.0058392016
0.98687816 0.5516329 0.7990572 -0.003932367 0.89844817 -0.003322565 -0.0037383426 -0.0040026084
0.99048066 1.0091076 0.94232255 0.29722223 -0.0045300084 0.69527525 0.64767355 0.6071923
0.815378 -0.0039907475 0.7404414 -0.0048039006 0.7479151 0.011946627 0.013430935 -0.003978483

encoder.initial.block.2.running_var f4 [32]
00000000: 90cc ca3d 745c 7435 1733 6635 fd4a bc3b
00000010: f2b2 743e aed4 3d36 f3ad e33d 5bd2 8e36
00000020: 748a 3d3e fc2a 9e3d 9d47 c83d fa70 3835
00000030: bb7e f33d 658a 0335 783b 0b35 dd4f d934
00000040: ce9b 563e 2523 1d3e 5e03 313e 9760 fa3a
00000050: 60b7 a535 a9a4 ac3d d23f 9b3d 88c9 803d
00000060: cdfa b73d a786 e634 7c6a da3d 4510 0636
00000070: 74ea ba3d 4a63 923a 0773 ad3a c048 4335
0.099022985 9.103162e-07 8.575602e-07 0.005746244 0.23896387 2.828699e-06 0.111171626 4.2564184e-06
0.18509847 0.07723042 0.09779284 6.8709744e-07 0.11889406 4.9002693e-07 5.1868074e-07 4.0477508e-07
0.20957872 0.15345438 0.1728644 0.0019102272 1.2346827e-06 0.08429844 0.07580532 0.06288439
0.08983383 4.293881e-07 0.106648415 1.9977026e-06 0.0912675 0.0011168506 0.0013233133 7.2749026e-07

encoder.block1.block.0.weight f4 [32, 38, 3, 3]
00000000: 5d57 9d3d b560 483b e119 0b3d 1d2d 1c3d
00000010: f856 483c d972 a13c c515 783d be31 963d
00000020: 0618 bf3c 9acb 14bd d691 51bb da43 f9bc
00000030: 209c 213c 00dc 36bd 6f1b 053c bac6 263c
00000040: 879e 59bd 8ed1 7fbd e677 b53c 7e53 9fbd
00000050: 89d3 22bd 6f85 18bd 075f 06bb ba05 09bd
00000060: 48e2 8ebd a6e5 21bd 4d31 79bc 4480 a7bc
00000070: f045 223c 8587 cbbb 0b55 683b 5a72 6fba
00000080: 45b1 0abc ae1b 4dbd 6310 663c ce65 77bb
00000090: 1f86 2d3d 2f39 3f3c 7a54 233d 9c41 873d
000000a0: 0325 ad3c 364f 45bb 0693 303d 1c2a 553d
000000b0: 317c 043d 2a48 bdbc d522 5abd 28af 16bd
000000c0: f78e f3bc ec66 49bd 9084 dfbc c397 b538
000000d0: 2c9f 983b fa8b 1cbd 3dfd b43c 426c d23c
000000e0: a8d2 58bd 6d09 153d e441 c13c 6596 4a3d
000000f0: fa2b 443b b302 243c 760c 4c3d a41b 73bd
00000100: 101e 69bd 66d9 8abd 551a b339 b52f ccbd
00000110: 2456 45bd 9a40 35bd afbb a7bd bc47 03bd
00000120: d331 e7ba f46f 4a3d 1ec0 473d e0c8 523d
00000130: 4625 383d a8ee 87bb 647e 9cbc 0abb 103c
00000140: 4106 573d 5cd0 153d 5fb9 f43c 6e88 933d
00000150: c0a5 5f3d 5431 093d ba5a f2bc ac36 a03d
00000160: 1026 533d 1c50 083d 299d 873d 9e40 9fbb
00000170: e94e 953d 4454 3c3c 967d 7ebc 8868 533d
00000180: 3ad9 af3d 85c4 113c dc1f 8a3d acbb c5bc
00000190: 6602 d1bb ecd1 8f39 67a4 183d 371d 83bc
000001a0: fd3c a23c 70b5 47bd f1f9 243d 6c63 48bd
000001b0: 5dc7 db3b 9d96 7e3d afeb a63d 7ff7 5fbc
000001c0: b9ef 8e3d 85a7 1b3d 0fb9 ce3c 463e dd3c
000001d0: 26de 503c e3f3 223d 6c2c 0e3c 1f67 dd3c
000001e0: f9e5 99bd 1ad2 2ebd 636b cabd 68ce 86bc
000001f0: 75dd 2abd 2c64 d8bc 95b1 c9bc d886 263d
00000200: e58b 8b3c 1a37 753d 18a3 5bbc 2166 7a3d
00000210: 5b46 fabc e3d2 b63d 2f56 0ebb e6ea 67bc
00000220: f590 ddbc 119d 70bd 87be f7bc 7aa4 4bba
00000230: 3d14 e83c a951 b0bb 8515 7abd 08a5 ae3b
00000240: 89c0 6a3d 37b2 a73d a95d 0c3d efec 723d
00000250: 2651 c73c ba88 0d3d be79 b23d c199 a0bc
00000260: 9b78 ed3c bda1 c73a baaa 233d 43e1 3b3a
00000270: 0bcb 423d ec14 293c b4ed 9d3c ffa3 06bd
00000280: b4ea 573d a0e1 d9bc d608 503d 96d7 04bd
00000290: 936a 9d3c 4116 b5bb 68a8 3d3a c26e 6e3d
000002a0: d772 873d dae5 47bb f182 da3c 436f d4ba
000002b0: d825 31bd 0be6 2e3c f231 bebc 97eb 70bc
000002c0: b02d ddbc 32b3 c53c 570d 1fbc 0215 f93b
000002d0: 4592 39bd ac75 043c 790c 22bd d6dd 69bc
000002e0: c5bb 07bd b495 22bc c1b2 5cbd 66a6 13bd
000002f0: a561 d4bd a745 f9b9 c75c 373c 0076 48bc
00000300: 9221 20bd fbd4 2d3d c9c9 cc3c a9de 1dbd
00000310: 7748 febc 2c84 a23c 24e1 3c3d f828 0f3d
00000320: b2a4 063c e627 333c 74e7 143d 9b08 b03d
00000330: 9d8c 0b3d 6053 f43c dadf 85b8 dc83 e7bc
00000340: afae 673d bf5c d63c 2a1d 37bc 0349 813a
00000350: 1e85 643c 582e 273c 2990 dc3c b9bb 103c
00000360: b223 eebc ed2d 6b3c 2ae2 e1bc 3534 383d
00000370: e2ec 4e3d 8578 b43c 5a0d debb 6a58 853c
00000380: 825a 2c3d ca49 31bc 1c76 213d c83e 993c
00000390: 056a 623c a2c4 9e3d afb9 953c 4a72 eebc
000003a0: 7d41 e7bb 247b 863d 66fc a73c d389 7b3d
000003b0: 8a84 ea3a d311 ecbb 1518 c1bb 1014 bc3c
000003c0: 895d 9a3c d792 023d 2536 693d 0e57 27bc
000003d0: bb95 2cbd b16d 77bd f69b 29bc 76ab dd3c
000003e0: 0ff4 c4bc 25b2 9fbb d43e e6bc a24e d839
000003f0: 0005 733b 9678 873c dfcf 9a3c 54bc d63c
0.07682679 0.003057522 0.033960227 0.03812896 0.012227766 0.019708084 0.060567636 0.07333706
0.023326885 -0.036326982 -0.0031977794 -0.030427862 0.009863883 -0.044643402 0.008124216 0.010179216
-0.0531297 -0.062455706 0.022151899 -0.07779597 -0.039752517 -0.037236627 -0.0020503418 -0.033452727
-0.069767535 -0.03952565 -0.015209508 -0.020446904 0.00990437 -0.0062112235 0.003545108 -0.0009134166
-0.008465116 -0.050075226 0.014041993 -0.003774989 0.042364236 0.0116713485 0.039875485 0.06604311
0.021135813 -0.0030107028 0.043108962 0.05204211 0.032345 -0.0231057 -0.053255875 -0.036788136
-0.029731257 -0.04917042 -0.02728489 8.6590204e-05 0.0046576466 -0.03821943 0.02209341 0.025686387
-0.052935272 0.036385942 0.02359099 0.049459834 0.0029933439 0.010010409 0.04981657 -0.059352532
-0.056913435 -0.06779747 0.0003416116 -0.09970037 -0.048177853 -0.044251062 -0.08190095 -0.032050833
-0.001763875 0.049423173 0.0487672 0.0514611 0.04495742 -0.004148323 -0.019103236 0.008833656
0.0524962 0.03657566 0.029873548 0.07203756 0.05460143 0.03349431 -0.029584277 0.07822928
0.05154997 0.033279523 0.06621773 -0.004859998 0.072904415 0.0114947 -0.015532872 0.05161336
0.085863546 0.008896952 0.06744358 -0.02413734 -0.0063784597 0.0002743149 0.03726616 -0.016005142
0.019804472 -0.048757017 0.040277425 -0.04892294 0.0067071156 0.062155355 0.08150422 -0.0136698475
0.06979317 0.038001556 0.025234727 0.027007233 0.012748277 0.03978337 0.008677583 0.027026711
-0.07514567 -0.042680837 -0.09883764 -0.016455844 -0.041715104 -0.026414953 -0.02462081 0.04065594
0.01703448 0.059867002 -0.013405584 0.061132554 -0.030551126 0.08926942 -0.002171885 -0.014155125
-0.02704666 -0.05874354 -0.030242218 -0.00077683444 0.028329963 -0.0053808284 -0.06105568 0.005329732
0.057312522 0.08188289 0.03426901 0.05930799 0.024330687 0.03455422 0.08714627 -0.019604566
0.028988173 0.0015230697 0.03995774 0.00071670505 0.047556918 0.01031993 0.019278385 -0.032871243
0.052714065 -0.026596844 0.050789677 -0.03243216 0.019215858 -0.0055263345 0.00072348723 0.058211096
0.06613701 -0.0030501992 0.026673766 -0.0016207475 -0.04324898 0.010674964 -0.023217175 -0.0147046065
-0.026999325 0.024133299 -0.00970777 0.0076013813 -0.04530551 0.008084696 -0.039562676 -0.014274081
-0.033138055 -0.009923387 -0.05388141 -0.03604736 -0.10370187 -0.00047544876 0.011191553 -0.012235165
-0.039094515 0.042439442 0.024998562 -0.038542423 -0.031040413 0.019838415 0.04611315 0.03495118
0.008217977 0.0109348055 0.036353543 0.08595391 0.034069646 0.029824913 -6.38363e-05 -0.028261118
0.056563076 0.026167272 -0.011176387 0.0009863678 0.013947753 0.01020392 0.02692421 0.008833819
-0.029069755 0.014354211 -0.027573664 0.044971664 0.050518878 0.022030124 -0.006776494 0.01627751
0.042078502 -0.010820815 0.03941928 0.018706694 0.013819222 0.077523485 0.018277017 -0.029107232
-0.0070573674 0.06566456 0.020506095 0.061410736 0.0017892283 -0.0072042732 -0.0058927634 0.022958785
0.01884343 0.03187832 0.056936402 -0.010213627 -0.04213498 -0.060407344 -0.010352125 0.027059298
-0.024042157 -0.0048735314 -0.02810613 0.00041257316 0.0037081838 0.016536992 0.018897949 0.026212849

encoder.block1.block.0.bias f4 [32]
00000000: 5113 503b b670 80bc c34f dc3c a0a8 653c
00000010: d1eb cf3c df17 afbc e726 9c3c 3dcc 823c
00000020: 7572 80bc 2797 adba 4023 cbba 5cda d33c
00000030: 60ef 863c 5395 8bbc 5c0c 943b 9479 78bc
00000040: 9165 093d 528f cf3c 4998 01bd 0c56 103d
00000050: 501f 593d f62e 15bc 5799 b3bc e742 4e3c
00000060: 1ab6 603b f84f 8cbc f6ec f0bc eb68 36be
00000070: a7a9 86bc ed1a 1eba a74a 37bc 8509 293d
0.0031749795 -0.015678745 0.026893502 0.014017254 0.025381 -0.021373687 0.019061519 0.015966529
-0.015679577 -0.00132439 -0.0015498176 0.025860958 0.016471565 -0.017038977 0.004518075 -0.015165705
0.033544127 0.025336895 -0.03163937 0.03523831 0.053008378 -0.009105435 -0.021923704 0.012589193
0.0034288228 -0.017127976 -0.029409867 -0.1781346 -0.016438318 -0.0006031234 -0.011187232 0.041268844

encoder.block1.block.2.weight f4 [32]
00000000: c43d 6e3f c5d9 723f 168d 663f e045 6f3f
00000010: 3723 713f e207 6a3f cdf9 6d3f 0014 653f
00000020: 1800 6c3f e4be 5a3f b6cc 683f c109 713f
00000030: 2d54 6a3f 8301 6a3f 3d1c 723f 6cf9 653f
00000040: e60f 663f 1ed0 633f 27f0 6d3f 4db3 703f
00000050: ff45 703f 4fbf 6b3f 05b7 6c3f aabb 703f
00000060: 4119 6e3f 43e8 6a3f d0f9 623f 4d8a ab3e
00000070: 115e 6d3f 0153 6f3f 1e0e 6b3f d4b8 6e3f
0.93062997 0.9486354 0.9005903 0.93465996 0.9419436 0.9141828 0.9295929 0.8948364
0.92187643 0.85447526 0.90937364 0.9415551 0.9153469 0.91408557 0.9457434 0.8983371
0.8986801 0.88989437 0.9294457 0.9402359 0.93856806 0.9208879 0.92466766 0.9403635
0.93007284 0.91760653 0.88662434 0.33503953 0.9272166 0.9348603 0.91818416 0.93250775

encoder.block1.block.2.bias f4 [32]
00000000: 3b5e 0a3c 1df0 f03c 6e59 0ebd af35 863c
00000010: e2b5 7c3a 6331 063b 3647 05bc 3b0b c73c
00000020: 5289 253d ff99 1d3c 1f8c 0a3d 5dcd f1b9
00000030: 19a7 a93c 19ac c33c 4641 f73b 2a29 613c
00000040: 4967 023c 9682 b53c e1fb 5f3a 3187 ed3c
00000050: 63b5 cdba fb54 7e3d 53e8 2dbc be45 ab3c
00000060: 89e2 66bd bfd5 443d 7be5 3dbc 3838 5fbc
00000070: 7821 ea3b 29f1 333c 04b1 d83c 74e0 413a
0.008445318 0.02941137 -0.034753256 0.01638302 0.000964014 0.0020476214 -0.008134654 0.024297347
0.040414162 0.009619235 0.033825036 -0.0004612011 0.020709561 0.023885773 0.007545623 0.013742724
0.007959195 0.022156995 0.0008544308 0.028995128 -0.0015694316 0.062092762 -0.010614472 0.02090728
-0.056368385 0.048055407 -0.011590357 -0.013624243 0.007145103 0.01098279 0.026451595 0.0007395812

encoder.block1.block.2.running_mean f4 [32]
00000000: 9852 d13f c4be d73f 40aa c83f d81a cc3f
00000010: d6ef cd3f 28cc d43f 3db5 c63f 0a41 c83f
00000020: 0dc5 bd3f bed1 d43f c82f d13f 7ef5 bc3f
00000030: 4698 e73f da52 d63f 8f4a c63f d97f ca3f
00000040: 951c cb3f 1c32 ca3f 0ef7 e13f 77c1 e53f
00000050: a320 c33f eaef c83f 481d bb3f 8163 d53f
00000060: 442f a63f 1758 d13f 1061 b63f 7751 23bc
00000070: bf54 cf3f 35dc d23f dc48 ca3f e557 a03f
1.6353331 1.6855092 1.5676956 1.5945692 1.6088817 1.6624804 1.552406 1.5644848
1.482576 1.6626508 1.6342707 1.4762418 1.8093345 1.6744034 1.5491503 1.5820266
1.5868098 1.5796542 1.765352 1.7949666 1.5244335 1.5698216 1.4618311 1.6670991
1.2983174 1.6355008 1.4248371 -0.009968153 1.6197737 1.6473452 1.5803485 1.2526823

encoder.block1.block.2.running_var f4 [32]
00000000: 1ca2 be40 ebf8 b640 d44c 9e40 7c17 b540
00000010: bad0 b840 b115 b240 34d3 ab40 283b ae40
00000020: abe9 9c40 d124 c540 d47f ab40 c677 8c40
00000030: 055d d240 ff0c c840 0f45 ab40 8b2c a140
00000040: 2f6e a240 45ea a040 7082 de40 4889 cf40
00000050: 4a39 a540 ac91 9e40 6b47 8940 41ff b240
00000060: 5b10 7040 9b27 ac40 1ce6 9040 70e5 3136
00000070: a805 bb40 10d0 ae40 32ef a040 630b 4a40
5.9572887 5.7178855 4.9468784 5.6591167 5.7754793 5.565148 5.3695316 5.444721
4.903524 6.160744 5.359354 4.389621 6.573855 6.2515864 5.35218 5.0366874
5.07595 5.0285974 6.9534225 6.485508 5.1632433 4.955282 4.289968 5.593659
3.7509983 5.3798347 4.5280895 2.6508606e-06 5.8444405 5.4628983 5.0291986 3.156945

encoder.block2.block.0.weight f4 [32, 70, 3, 3]
00000000: 6434 313c b9b9 aebc 68d0 c73b cc82 debc
00000010: c1a1 c4bc 8792 b1bc 4018 19bd 6368 3f3b
00000020: 7286 a1bc 616b 243d b4e8 803d 49ca 143d
00000030: 7b93 d2bc 6065 c93c 0255 fe3b 72f5 ca3c
00000040: f739 c2bd b4ce 153d 431b 46bc 93c4 96bd
00000050: 2112 56bd 712f 80bb 07d2 f53c 8526 a0bc
00000060: c81d ce3b e5c4 e03b c73b d63b f613 0cbd
00000070: 56aa 633b a2b8 ad3b 5e4a 9e3b 4749 713c
00000080: 945a a6bc ee6d b5bc 9afb 26bc 9a74 103c
00000090: 9fb7 cfbc 7d26 f6bc e0f1 81bb 6dca 20bd
000000a0: a6d2 c4bc f0af cdbc 69b0 dbbb 8683 f0bc
000000b0: dde9 99bd f76b a63c d797 1d3d 7ddc eb3b
000000c0: 1a99 e23c 463a 833c 98ab 21bd 1c80 afbc
000000d0: 00b3 3f3d 79e2 d23c dac2 90bd 2774 143c
000000e0: c9af 91bb 5e28 a1bc 89f5 49bd 4652 7dba
000000f0: 3847 2abd f627 f638 8318 c0bc 9b20 b43c
00000100: e462 31ba 0943 01bc 502c 19bc 3190 043c
00000110: d7a6 0ebd 3449 de3c 3d5e 443d ca76 7d3d
00000120: 5e3e 20bd fbdb 22bd 5e30 c4bc 634f 6bbd
00000130: a835 66bd e3b5 4abd 618f a73a a81c 24bd
00000140: fcaa d7bb c853 6cbd db52 28bd 2d6f 443b
00000150: 009d 083d f819 d3bc 54cb c5bc 081a 0f3d
00000160: b53d 7ebd 1cba 573d c554 fbbc 50ac 03bd
00000170: 9b6b f83c 171f e63c ccf0 5ebc 1c96 67bc
00000180: 37c4 60bb 66a6 fcbc 7153 e5bc f879 fcbc
00000190: b4b4 843d bae7 36bc 40c5 4c3b 500f 853b
000001a0: 3bcf a43c e427 b6bc 09ed febc 463e 9c3c
000001b0: c5ec 223c d41a b8bc 0eaa 1fbd f0c5 d7bc
000001c0: c201 863c bdf8 53bd 16c2 28bd 986c e2bb
000001d0: e56f 23bd e88b 0ebd 4202 59bd fc03 843d
000001e0: 3fd6 d03c 9442 493c 7a56 2e3c 166e b13d
000001f0: f459 363d 7cd2 a43c 177f 113d 3812 09bd
00000200: 4656 30bd 7cbf 96bc 70bb 6ebc 43a3 58bc
00000210: 14e8 6abd e1e0 233d 4914 7dba ed75 873d
00000220: d322 c03c 9e14 15bc 63de 9fbc 85d9 063d
00000230: 9d3a 863d 9067 b8bc 3a00 1bbc 2a6c 693c
00000240: 53b4 48bd 02a9 623c 7c86 afbc 9d48 a2ba
00000250: 30f7 cfbc b409 b2bc 3ac2 67bd cad0 323d
00000260: 1d6b 8a3c 1a33 7fbc e4bd c5bc 44fe 993c
00000270: 72f9 b53b e1ee 76bd a03a cc3c 69c7 0f3c
00000280: 74a5 6e3c 80ff fa3c dcda 9a3b 321b febb
00000290: f2f1 3abd e3cd 6b3b 2ff5 dcbd fcb0 bebb
000002a0: 8ff7 33bd 324e 2abd 124b 5a3c b90b 7c3c
000002b0: daf6 5ebc 6cf3 04bd 6e35 fb3b 5120 853c
000002c0: eb7f 143d ae8d 173d daae 23bd 0ad0 61bb
000002d0: d138 df3c 8f0d 583d 21bd 5b3c 1cad 383c
000002e0: e6fe 533c f930 423d d1b4 c73c 61df a33c
000002f0: fbb1 343d 3feb 5a3c ceda be3c 1839 63bc
00000300: 93db 443c 9cd1 403c 58bd 31bd 84b6 bcbc
00000310: fbd5 81bc 31f2 bdbb 1a48 b0bc bcf8 863c
00000320: 25ec 79bd beff abbc 40b8 2fbd 0989 c0bc
00000330: 1177 d3bb 680f 51bd 9c45 5bbc f3fd 59bd
00000340: 99f1 1e3d 1ab1 b5bc 79be a73b 6582 2dbc
00000350: b97d c3bc 6e7a 853c ff52 14bd 44ac aabb
00000360: d32e 6c3b 706b 57bd 0148 20bd b716 113d
00000370: 3d73 e83c 71b8 bbbc 13e6 c6bc 33e0 0cbc
00000380: 3309 8d3c c672 cc3b 9b1a 7abb 498b 0e3c
00000390: f8d7 28bc ddab 753d 8050 09bc ff21 e0bc
000003a0: 1ceb 9dbc d0e9 913d 161e d9bc 812d 0f3c
000003b0: 6020 f4bc b010 0bbd 7cb8 3dbd a7e5 0fbd
000003c0: b787 dcbc e839 893b 3ee3 eabc 496a d0bc
000003d0: fc89 313d bef0 3bbb 8e12 9d3d bd1a 383d
000003e0: d87d 683d 78ec 2e3d 4920 193c e938 983c
000003f0: ddc1 573c 7e6b d73a 8dfd 14bc ea9d 13bd
0.010815714 -0.021328794 0.006097842 -0.027161978 -0.024002912 -0.021676315 -0.037376642 0.0029206506
-0.019717429 0.040141467 0.062943846 0.036325727 -0.02570509 0.024584472 0.0077615986 0.02477524
-0.09483712 0.03657408 -0.012091461 -0.07361712 -0.052263383 -0.0039119055 0.030007375 -0.019549618
0.0062901713 0.006859409 0.0065378877 -0.034198724 0.003473898 0.005301551 0.0048306426 0.014726943
-0.020306863 -0.022147145 -0.010191822 0.0088168625 -0.025356112 -0.03004765 -0.0039656013 -0.03925555
-0.024026226 -0.025108308 -0.0067043793 -0.02935959 -0.07515309 0.020315154 0.038474884 0.007197915
0.027660895 0.016018998 -0.039470285 -0.021423392 0.046801567 0.025742756 -0.07068415 0.009060896
-0.004446004 -0.019672569 -0.049306426 -0.0009663444 -0.041571826 0.000117376374 -0.023449188 0.021988204
-0.000676675 -0.007889518 -0.009348944 0.008091019 -0.03482708 0.027134515 0.047941435 0.061880864
-0.039121978 -0.03976057 -0.023948845 -0.057448756 -0.056203514 -0.049489867 0.0012783819 -0.04006639
-0.006581662 -0.057697088 -0.041094642 0.0029973492 0.033352852 -0.025769219 -0.024144806 0.034936935
-0.062070567 0.052667722 -0.03068007 -0.032146752 0.030324748 0.028090997 -0.013607215 -0.01413491
-0.003429664 -0.030841064 -0.02799389 -0.030819878 0.06479779 -0.011163646 0.00312455 0.0040606633
0.020118346 -0.022235818 -0.031118887 0.019072663 0.009944146 -0.02247373 -0.038980536 -0.026339501
0.01635826 -0.051750887 -0.04120072 -0.006909918 -0.039901633 -0.034801394 -0.05298067 0.064460725
0.025492785 0.01228394 0.010640735 0.08663575 0.04451938 0.020119898 0.035521593 -0.03346464
-0.043051027 -0.018401854 -0.014571056 -0.013222518 -0.057350233 0.040009383 -0.0009654207 0.066142894
0.023454105 -0.009099154 -0.019515222 0.032922287 0.06554148 -0.02251032 -0.009460503 0.01424698
-0.049000096 0.01383424 -0.021426432 -0.001238126 -0.025386423 -0.021733142 -0.056581713 0.043656148
0.016896779 -0.015576148 -0.024138398 0.018798001 0.005553418 -0.060286406 0.024930298 0.00877557
0.014565814 0.03063941 0.004725797 -0.007754707 -0.045640893 0.0035980872 -0.107889526 -0.005819438
-0.043937262 -0.04157848 0.013323562 0.015383654 -0.013608659 -0.032458708 0.0076662814 0.016250761
0.036254805 0.03700035 -0.039961673 -0.0034456276 0.027248772 0.052747305 0.013411791 0.011271741
0.0129391905 0.047409985 0.024378212 0.020003976 0.044115048 0.013361751 0.023297694 -0.013868593
0.012015241 0.011768725 -0.043393463 -0.023036249 -0.015849104 -0.0057966937 -0.021518756 0.016476028
-0.06101622 -0.02099597 -0.042900324 -0.023502843 -0.006453403 -0.051040083 -0.013383295 -0.0532207
0.038804624 -0.022179175 0.0051191417 -0.0105901705 -0.02386366 0.01629373 -0.036211964 -0.005208524
0.0036038652 -0.052592695 -0.03913117 0.035422053 0.028375262 -0.022915097 -0.02427963 -0.008598375
0.0172163 0.006239268 -0.003816283 0.0087002 -0.010305397 0.059978355 -0.008381009 -0.02735996
-0.019277148 0.07124674 -0.026503604 0.008738876 -0.029800594 -0.03395146 -0.046318516 -0.035131123
-0.026920183 0.004187811 -0.02867281 -0.025441306 0.043344483 -0.002867743 0.07669555 0.044947375
0.05676064 0.042705983 0.009346076 0.018581824 0.013168779 0.0016435233 -0.009093654 -0.03603927

encoder.block2.block.0.bias f4 [32]
00000000: bc7b 073d 2926 d93b 34b7 223d 4148 25ba
00000010: 2cb0 7d3d dcc8 2abb 9ac2 153d 5821 ab3b
00000020: fc51 efbb dba1 633d d935 a13b 9939 02bc
00000030: 1f30 033c cfb6 c63c 3751 f53c 5b13 2d3d
00000040: 6b3e 0b3c 6537 7d3c 9de1 a03b 747d 22bb
00000050: 1c48 293d ef75 c93c 11f7 933c 0599 87bb
00000060: 67f8 9f3c 9ece 733d 7ddb 3b3d 7da3 e63c
00000070: efc0 0dbc a05a ff3c ff2a b9bb 2732 0d3d
0.033076987 0.0066268635 0.039725497 -0.0006305017 0.06193559 -0.0026059663 0.03656254 0.0052224807
-0.0073034745 0.05557428 0.004919749 -0.007948303 0.008007078 0.024257092 0.029945953 0.042254787
0.008498768 0.015455102 0.0049097077 -0.0024794014 0.041328534 0.024592368 0.018062146 -0.0041381144
0.019527627 0.059523217 0.045863617 0.02815413 -0.008651956 0.031171143 -0.0056508775 0.034471657

encoder.block2.block.2.weight f4 [32]
00000000: 5e23 6f3f 74ed 713f e41f 6c3f 5f6f 6d3f
00000010: 72fa 713f bbfe 713f afff 693f 972d 6f3f
00000020: 5130 713f 7bfc 713f 6c9f 6e3f 8105 6d3f
00000030: f690 713f dbcb 713f be4b 703f 95d3 6d3f
00000040: df2f 6f3f eb36 713f ca7e 6e3f 3910 743f
00000050: 5bd1 693f 144c 6d3f 61de 713f 61f2 703f
00000060: 9059 723f 0917 713f 679a 6d3f 9ad2 6c3f
00000070: 3dc3 6f3f c042 6c3f 70a0 6e3f 5ac5 6d3f
0.9341334 0.9450295 0.9223616 0.92748064 0.94522774 0.9452931 0.9140577 0.9342894
0.9421435 0.9452588 0.9321201 0.92586523 0.9436182 0.94451684 0.93865573 0.92900974
0.9343242 0.94224423 0.93162215 0.95337254 0.91335076 0.9269421 0.9447995 0.9411984
0.9466791 0.94175774 0.92813724 0.9250885 0.93657285 0.9228935 0.9321356 0.9287926

encoder.block2.block.2.bias f4 [32]
00000000: 37c2 e53b ce33 a5bc 6a52 473d df12 893c
00000010: e988 313b 5d3d a1bc b894 cdba 0f3c 64bc
00000020: a657 dbba 4d63 9dba f53f 2dba 9555 b83c
00000030: da32 b63b 8d24 c83b 1818 603d 6ca7 383c
00000040: 00bb 153b fb1c 323c e17a f339 3736 013b
00000050: 602e 80bb 10a4 1339 384c adbb 55fb 313c
00000060: 2741 8bb9 7b3f 5b3c 5738 9bbb 71d1 7c3c
00000070: 8692 45bb d957 003c ada0 0a3a 75c3 453c
0.0070116776 -0.020166304 0.04866258 0.016732631 0.0027089661 -0.01968258 -0.001568458 -0.013930335
-0.0016734495 -0.0012007743 -0.00066089566 0.022501746 0.005560261 0.006107873 0.054710478 0.011270385
0.0022847056 0.010871167 0.00046440124 0.0019716152 -0.0039117783 0.0001408013 -0.005288627 0.010863145
-0.00026560688 0.013381834 -0.004736941 0.015430794 -0.003014715 0.0078334445 0.0005288225 0.012070526

encoder.block2.block.2.running_mean f4 [32]
00000000: 7589 0740 3c79 2440 9614 0140 ec4f 1b40
00000010: 18d5 1540 63a1 0c40 0fe4 d23f f214 1440
00000020: 5603 f73f 7388 0840 bea2 fb3f d7e3 0a40
00000030: 91bf ef3f d462 2e40 efe2 ec3f 95be 0440
00000040: f817 3040 dbfb c73f cb1b 1f40 cc04 1b40
00000050: 8a09 0e40 0120 1240 ce68 fc3f 9fc1 2140
00000060: 05e3 2240 4655 1c40 e574 0540 c970 0e40
00000070: a468 e93f b88d 2240 b831 2040 7cbe e53f
2.1177647 2.5698996 2.0168815 2.426753 2.3411312 2.1973503 1.6475848 2.3137784
1.9297893 2.1333282 1.965904 2.1701562 1.8730336 2.724782 1.8506755 2.0741322
2.751463 1.5623735 2.4860713 2.4221678 2.2193322 2.2832034 1.9719484 2.5274427
2.5451062 2.4427047 2.0852597 2.2256339 1.8235059 2.5398998 2.5030346 1.7948756

encoder.block2.block.2.running_var f4 [32]
00000000: 7a8a 0c41 ffdb 4e41 0d59 ff40 8989 5041
00000010: a4b6 2b41 6ac5 2a41 a130 c040 f3db 2741
00000020: 55ba 0241 6db8 0e41 33f2 0841 70f6 1241
00000030: e4e5 f840 1e27 6841 1a36 f140 b32d 1741
00000040: 65c6 6d41 2139 af40 6185 4041 c1c1 4f41
00000050: f313 1a41 ee05 2341 a616 f340 9727 6241
00000060: 6c5d 4a41 826e 3a41 0353 1941 d658 1b41
00000070: 285e cf40 b767 4a41 449b 5d41 f394 e440
8.783808 12.92871 7.9796205 13.033578 10.73209 10.673197 6.005936 10.491199
8.170491 8.920026 8.559131 9.185165 7.778063 14.50955 7.537854 9.448657
14.860936 5.4757237 12.032563 12.984803 9.62987 10.188948 7.5965147 14.1346655
12.647808 11.651979 9.582767 9.709188 6.4802437 12.650321 13.850407 7.1431823

encoder.final.block.0.weight f4 [3, 102, 3, 3]
00000000: c43f 42bc dfc3 5fba 21e7 df38 8222 cabc
00000010: 1f54 ba3c b48b 943c 5484 a63b 6726 27bc
00000020: 0b7d c6bb 2645 ea3b 724f c13b 0916 1ebd
00000030: 0d6f 82bc 7464 e2ba 15f0 2a3d 43af b6bc
00000040: c4c0 06bd ed3c b7bc e81e 963c 03b4 aebc
00000050: d720 89bb e56c 123c 70d8 e0ba 252b dabc
00000060: 3951 083c 4a59 193c 9cda 89bc 62fc 9abb
00000070: bbd2 26bb d49b bf3a 880c babb 8ec3 053c
00000080: 195e 01bc 321a 963a b767 c4ba 9b18 7b3b
00000090: 6681 5d3c 23e5 9d3b 843e 15bc 8704 433b
000000a0: d952 623a 0ef5 d6bb 85d9 8d3b 2f69 d33b
000000b0: 9a7c da3c 5522 b7bc 52e8 c03c 8083 8e3c
000000c0: 872d 99bb d645 7b3c aa19 3cbc 0280 f7bb
000000d0: b80b bebc 20c6 00ba e2c0 7f3c d81e b8bc
000000e0: 977f 9abb 6ac8 5dbc 5b5c e03c f350 313c
000000f0: 7778 f0ba 481e 4cbc 0117 19bb 6dee e4bc
00000100: 9be7 8bbb 816b 54bc fa58 5b3a 8444 8e3b
00000110: 8878 6d3c 483e 7e3b eeb9 ff3c 769e 753a
00000120: 60a7 5dbc 150d e83b 49fb 81bc 13d0 ad3c
00000130: d99c ccbc bc94 663b 05ff 6cbc ee03 853c
00000140: d267 a2bc d220 893c 96e2 603a f918 07bc
00000150: 66ba e63b ebb2 0c3c 07cf bebb 00ef 813c
00000160: 5c99 d13b 87b5 223a dd1e 8dbc 73e1 f83b
00000170: 28e9 993b a725 923c 00de 803c 5175 15bc
00000180: aed7 5abc 5445 b2bb 6c9e 80bc b2cb ef3b
00000190: 563d 67b9 7e7d 993b 5c73 8dbc ccb9 913c
000001a0: eb5f 853b 387d 78bc 2a1d d83b 2741 273c
000001b0: 27dd c93b 1999 b03b 0f11 a13a 8eb4 853c
000001c0: 7c7a 96bc cbc2 4bbc b9f0 55bb 70c6 a53c
000001d0: a158 df3b 4a25 d83c 0f49 33bc 37b7 8439
000001e0: 8b0e 74bc 9132 7e3b dc63 6f3c c37e 453c
000001f0: 070c 373c 8e4f 3f3b 335b 9f3c 9b94 5b3d
00000200: 8bf3 0dbb 0cb1 d43c fa4f 5cbd 804c e5bc
00000210: 9ed9 e2bc 4c8f 213d 41c2 4e3a c1f3 653c
00000220: 4f27 81bd 70c8 733c a3d4 133d 5c6b b9bc
00000230: f1b1 093b beeb 12bc 3b9c 5abc 51f9 353c
00000240: 19ac 5d3c c76e 30bc 9aff 443c 4be5 a8ba
00000250: 4ca8 84bb 15d4 043c 7adc 6cbb 1e38 303b
00000260: 1ace 253b e984 033c c515 9e3b f1f2 083a
00000270: baf9 2a3c 4ab9 6fbc 318b 043c 636d d3bb
00000280: cf65 123c 318e 04bd e58b 743c c058 bcbc
00000290: 6542 013c 6c4c 6939 a13a 1a3b cc13 08bc
000002a0: 4b54 a3bb 00d5 943c 6aa7 32bc 1f64 5ebb
000002b0: e3bc 173c 88f8 3abb 85a0 333b fe62 03bc
000002c0: a85e 373b 277c 0aba 6ce1 64bb d93e aa3a
000002d0: 232b 133c f49f 27bc 32dd 91bc c1a2 cebb
000002e0: 0baa 0c3b 6c66 a6bc b6af da3b d91e ca3a
000002f0: 3c65 773c 08c5 9abc ecfb 95bb 9d39 b43b
00000300: 66b7 b03b 2d43 51bc 9935 043b 4e5c d2bb
00000310: fbc0 4dba 0c1d 273c 7cff 2b3c dd85 acbb
00000320: 7d5e 0abc a5d3 1c3b ab11 e3bb 2393 703b
00000330: 9ba7 35bc ec4b 503c b1bb e53b dc1a 80bc
00000340: e3d9 2e3c 8d98 593a 2e43 5e3c 877c 14ba
00000350: 19f5 a13a 2125 b93b 498f b4bb 647d ed3b
00000360: c147 70bb 6daa 883c e5c8 e83b 7be9 31bc
00000370: 48cd a3bb 585f a1bb 8544 fbb9 aa6f 97bc
00000380: 8b67 573c 445f 3b3b 5b32 01bd f909 fe3c
00000390: d589 d9bb a0d3 143d 34c7 85bc 5876 8fbb
000003a0: 3312 ab3c 48fa c13c 8cae 2fbc c1e3 4bbb
000003b0: cb49 493c 8388 b6bc 99aa 34bb d90b 78bc
000003c0: f3db 973a 406c 463c da00 143c b37f af3c
000003d0: 9c8c 2abd d8d8 fd3b 70a4 a33b a924 f7bc
000003e0: 1c62 3c3d 1ff5 d6bb ae55 e23c 6465 36bc
000003f0: 8f13 9bbb 6988 57ba ff9e a83a 56fa 5cbc
-0.011856023 -0.0008535962 0.0001067652 -0.024674658 0.02274519 0.018133022 0.0050816927 -0.010202027
-0.0060573868 0.0071493564 0.005899363 -0.038595233 -0.015922094 -0.0017272369 0.041732866 -0.022300368
-0.03289868 -0.022367919 0.018325284 -0.02132607 -0.004184823 0.008937095 -0.0017154347 -0.026631901
0.008320146 0.009359667 -0.016827874 -0.0047297934 -0.0025455195 0.0014618584 -0.0056777634 0.0081643
-0.00789597 0.0011451899 -0.0014984523 0.0038314227 0.0135196205 0.004818575 -0.009109143 0.0029757337
0.0008633561 -0.0065599745 0.004328909 0.006451748 0.026670743 -0.022355238 0.023548279 0.017396688
-0.0046746167 0.015336474 -0.011480728 -0.0075531015 -0.023198947 -0.00049123354 0.015609952 -0.022475645
-0.004714917 -0.013536552 0.027387789 0.010822522 -0.0018346448 -0.0124583915 -0.0023359659 -0.027945722
-0.004269553 -0.012965084 0.00083674456 0.004341664 0.014494069 0.0038794447 0.031216588 0.0009369621
-0.013528675 0.0070816376 -0.015866892 0.021217382 -0.024977135 0.0035183867 -0.014465098 0.016237225
-0.019824896 0.016739283 0.0008578686 -0.0082457 0.0070412634 0.008587579 -0.0058230194 0.015861034
0.0063964557 0.0006206859 -0.01722663 0.007595235 0.004696984 0.01784022 0.015730858 -0.009122209
-0.013357086 -0.0054403935 -0.015700541 0.0073179835 -0.00022052726 0.0046841493 -0.017266922 0.01778879
0.004070272 -0.015166573 0.0065952735 0.010208405 0.0061603966 0.0053893444 0.0012288409 0.016321447
-0.018368952 -0.012436579 -0.0032644703 0.020236224 0.0068159853 0.026384968 -0.0109427115 0.00025313508
-0.014896045 0.0038787464 0.014611211 0.012054148 0.011172301 0.0029191705 0.019452667 0.053608518
-0.0021660055 0.025963329 -0.05378721 -0.02799058 -0.027691659 0.0394433 0.00078872225 0.014035166
-0.06306326 0.014879331 0.036091458 -0.0226342 0.0021010602 -0.008967338 -0.013342912 0.011106805
0.013529801 -0.010768599 0.012023831 -0.0012885717 -0.004048383 0.008107205 -0.0036142156 0.0026888917
0.0025299848 0.008027294 0.0048243725 0.00052241894 0.010435516 -0.014631579 0.008089826 -0.006452249
0.008935406 -0.032362167 0.014925932 -0.022991538 0.007889365 0.00022249081 0.002353348 -0.008305501
-0.0049844137 0.018167973 -0.010904172 -0.0033934189 0.009261343 -0.0028529484 0.002740891 -0.008019207
0.0027980004 -0.00052827824 -0.00349244 0.0012988701 0.008982453 -0.010231007 -0.01780567 -0.006306023
0.0021463658 -0.02031251 0.0066737784 0.001542057 0.01509982 -0.01889278 -0.0045771506 0.005500032
0.0053929565 -0.012772364 0.0020173548 -0.006419695 -0.0007848886 0.010199796 0.010497924 -0.005264981
-0.008445379 0.002392986 -0.0069295964 0.0036708794 -0.011087324 0.012713414 0.0070109 -0.015637808
0.010672065 0.0008300625 0.013565822 -0.0005664308 0.001235637 0.005650178 -0.005510245 0.0072476137
-0.0036663862 0.016682828 0.0071040266 -0.010858889 -0.0049988367 -0.004924696 -0.00047925502 -0.018485863
0.013147245 0.0028590718 -0.031542163 0.031010615 -0.0066387453 0.036334634 -0.016330339 -0.0043781213
0.020882702 0.023678914 -0.010722768 -0.0031111094 0.01228566 -0.02228189 -0.0027567504 -0.015139543
0.0011585936 0.01211077 0.009033406 0.021423196 -0.041638 0.007746797 0.0049939677 -0.030168848
0.045992002 -0.0065599824 0.027628746 -0.011132572 -0.004732556 -0.0008221926 0.0012864767 -0.013487419

encoder.final.block.0.bias f4 [3]
00000000: 2e2e 61bb 15c2 133b a6a9 4f3c
-0.00343598 0.0022546102 0.012674725

decoder.initial.block.0.weight f4 [32, 3, 3, 3]
00000000: 60e8 e43d 9f71 4e3e 1e4f 36be d9ce 2cbd
00000010: 6b54 04be c534 c73c 8048 01bd 88ed e7bd
00000020: b2a1 1f3e d833 7c3d f1c9 c4bd a5ac d5bb
00000030: 58a2 a73d ca29 33be f52d 16bb ac06 97bb
00000040: b58e 9a3c 6024 e03d 1a3c 003d 0bd0 333d
00000050: 3cc9 31be ef84 99bd ab5b 5a3d 000b 113e
00000060: c0a2 05be ca4d 89bc 0137 083e f7f6 133d
00000070: bf0d ae3c cea5 a5bd cdcc 8f3c b35a 223e
00000080: 8cbb 07be 2847 b83d dc1b 433d e07b 1ebe
00000090: 890d 963c e488 43bd 70e1 eebd 79eb 3a3e
000000a0: 7fb0 81bc abaa 4c3c dbc2 dfbd a796 0bbe
000000b0: 69be d73d c091 a5bd ec98 05be ed7f dabd
000000c0: 8b45 05be af05 cc3d 5597 b93d 88b6 96bc
000000d0: ad2a 3c3e e918 56bd e1ad 3e3d 6a48 003e
000000e0: 8205 873d 76e7 ff3d 0383 143e 4d1f f5bd
000000f0: d395 a7bc ff76 da3d 9ea3 21bd 1a06 98bd
00000100: 8901 65be 2033 283d 367e b43c 94db 263e
00000110: 6d2e c0bd 1231 303e 673d 5abd 42e0 5c3d
00000120: f1f7 1a3c e4f3 903d 6aa4 b9bc 8993 e13c
00000130: 9fb4 07be 75f1 433e ad8e 95bd 36df 693d
00000140: 9a63 0b3e a38c 2d3d 9501 f93d 4326 07be
00000150: db7a 0ebe f8f7 3c3e 0bd6 1bbe 0a6c 393d
00000160: c8dc 0dbd 6867 ea3d 121a 86ba 55a7 863b
00000170: ad71 5d3e 45e8 31bd 6d77 e8bd 4297 0a3e
00000180: 90e0 f7bd 701d 0cbe 5eb8 c03c b709 c2bd
00000190: ed34 5bbd 4303 9abc 9542 143e 2627 16be
000001a0: 1f4d e9bd 69c0 ad3d 60f2 483e 687e af3c
000001b0: f653 01be 6583 663c 98ae be3d d422 b13d
000001c0: 9ba8 edbd 554e debc 4e01 28bd de3e 87bd
000001d0: ddbf 503e fa1c cd3d c539 3b3e df29 d8bc
000001e0: b09c 4cbd 2004 25bd 2389 c1bd 877c ecbd
000001f0: df5d 0c3e 5fb1 f9bd 4783 953d 6408 42be
00000200: 0a0d 17bd f775 76bd f690 163e e125 033e
00000210: ab3d c33d 4ea6 e5bc 7238 c4bd 80a0 58be
00000220: 4768 713c 16c9 de3c 81ca 5dbd 117a f8bd
00000230: 4a94 ed3d 9097 ba3d ffd1 92bd daf3 da3c
00000240: a1da b13c e4f8 d4bc 8314 31bc 8dc4 41be
00000250: a145 69bd d618 c9bc 96b7 863d 6d50 45bd
00000260: 1fcc 4f3d 8c06 333e c48f 2e3e b092 ecbd
00000270: 3cd2 f0bd b3d5 203e 876c cfbd 386e ec3d
00000280: 4e36 95bd 4a18 e5bd fba8 ac3c d6bb 5a3d
00000290: 9c74 803d bd43 c4bd 3b5b 1b3e be3b 2ebd
000002a0: ee6b 25be e6df 523c e854 773c 6f52 943d
000002b0: beb4 8abd 5489 a9bd a039 123e 8f37 30bd
000002c0: 0f42 66bd 1d81 2b3e d2e5 89bd dbf9 88bd
000002d0: 7609 1f3d 1266 17bd 8777 8cbb 5017 6abe
000002e0: ccf0 033d 1e4e 4e3d 57ba 083e e716 d9bd
000002f0: f6a5 063e 7ccc 19bd 4f0f b03b 08b5 9b3c
00000300: b4b7 033e 8b92 0a3e 9f17 fc3d a70b 42be
00000310: 5fb0 a13d 2fe4 41be 27ac cc3d 582a 24bd
00000320: 1249 053d c064 97bd 9381 7e3d 4a02 61be
00000330: 96f8 e2bc 0fd2 a33d 3e8c 5c3d 65fc d2bc
00000340: 1882 2f3c 30d8 bcbd 958b 143d 51ce 91bd
00000350: e26f fd3d e5e0 443e 3bb9 2bbe 05b5 1d3c
00000360: 6258 fabc f83f 083e 22ed 833c 935e 0b3e
00000370: a8ac 66bc 9948 08be 304a f3bd 9c6c 36be
00000380: 242e c13d 9b44 893d 65db edbd a826 2abe
00000390: c75b 883d c8be 81bc efde bc3d 070f f0bc
000003a0: 809d 21be af3b 253e 9dd8 173d 4c43 5ebd
000003b0: ee38 bfbd f32a f8bd dc43 333d b6fb 433e
000003c0: c2c6 313e b59c b6bd ac0a a9bd 244f 84bd
000003d0: d90a a63d 0be5 23be f4c0 3a3e 7f3c 0ebd
000003e0: cfa6 a33d 79a5 24be 6cea dbbd b1d9 3a3e
000003f0: 7ba0 d9bc 1fae e93a 4653 9f3d 4583 23bd
0.111771345 0.2016053 -0.17803618 -0.042189453 -0.12922828 0.024317155 -0.031563282 -0.11324602
0.15589026 0.06157288 -0.0960883 -0.006520825 0.081852615 -0.1749641 -0.0022915576 -0.0046089496
0.018866876 0.10944438 0.031307317 0.043899577 -0.17361921 -0.07496058 0.053310078 0.14164352
-0.13050365 -0.016760726 0.13302232 0.036124196 0.021246789 -0.08088265 0.017553711 0.15854912
-0.13255137 0.08997947 0.04763399 -0.15476942 0.018317001 -0.04773797 -0.116640925 0.18253888
-0.01583123 0.012491862 -0.109258376 -0.13631688 0.10534365 -0.0808444 -0.13046616 -0.10668931
-0.1301481 0.099620216 0.090620674 -0.018397585 0.18375655 -0.05226985 0.046552543 0.12527624
0.065928474 0.124953195 0.14503102 -0.11968861 -0.020457184 0.10667228 -0.039462678 -0.07423039
-0.22363867 0.04106438 0.022032838 0.162947 -0.09383855 0.17206219 -0.053281214 0.053924806
0.009458528 0.070777684 -0.022661407 0.02753617 -0.13252495 0.19135077 -0.07302604 0.057097636
0.13612214 0.04237045 0.12158505 -0.1319819 -0.13914053 0.18453968 -0.1521837 0.04526905
-0.03463438 0.114455044 -0.0010231158 0.004109303 0.21625395 -0.0434344 -0.11350904 0.13534263
-0.12103379 -0.13683105 0.023525413 -0.09474509 -0.05351727 -0.018800383 0.14478524 -0.14663371
-0.11391663 0.08483965 0.19623709 0.02142258 -0.12629685 0.014069413 0.09310645 0.08649221
-0.116044246 -0.027136961 -0.04101687 -0.06603788 0.2038569 0.100152925 0.18283756 -0.026387153
-0.049954116 -0.040287137 -0.09449985 -0.11547189 0.13707684 -0.12192034 0.0730043 -0.18948513
-0.03687767 -0.060171094 0.14703736 0.12807418 0.095332466 -0.028033402 -0.095810786 -0.21154976
0.014734334 0.027195495 -0.0541482 -0.12132657 0.116005495 0.091109395 -0.0716896 0.026727606
0.021710696 -0.025997587 -0.010808113 -0.18922634 -0.05695117 -0.024547976 0.06577985 -0.048172403
0.050731774 0.17482966 0.1704703 -0.11551416 -0.11758849 0.1570652 -0.10128122 0.1154446
-0.072857484 -0.111862734 0.02107667 0.05340179 0.062722415 -0.095832326 0.1517152 -0.042537443
-0.16154453 0.012870764 0.015095927 0.072422855 -0.06772755 -0.082781464 0.14279795 -0.043021735
-0.056215342 0.16748472 -0.06733288 -0.06688281 0.038827382 -0.036962576 -0.0042867097 -0.22860456
0.032212064 0.050367467 0.13352333 -0.106000714 0.13149247 -0.037548527 0.0053729187 0.01900722
0.12863046 0.13532464 0.12309193 -0.18949758 0.07894968 -0.18934701 0.09993773 -0.040079445
0.03254039 -0.073922634 0.06213529 -0.2197353 -0.027706426 0.0799905 0.053844683 -0.025755117
0.010712169 -0.09220922 0.03626593 -0.0711943 0.123748556 0.19226415 -0.16769879 0.009625678
-0.030559722 0.13305652 0.016104285 0.13610296 -0.01407925 -0.13308944 -0.118793845 -0.17814869
0.09432629 0.067025386 -0.11614112 -0.16616309 0.0665813 -0.015838042 0.09222209 -0.02930404
-0.15782738 0.16136049 0.037071813 -0.054263398 -0.0933703 -0.12117567 0.043765888 0.19138989
0.17360976 -0.08916608 -0.082539886 -0.064604074 0.08107538 -0.16005342 0.18237668 -0.034725662
0.079908006 -0.16078748 -0.10738072 0.18247105 -0.02656578 0.0017828381 0.07779555 -0.03992011

decoder.initial.block.0.bias f4 [32]
00000000: ec73 c23c 37aa 523e 0cfe 303d f341 5a3e
00000010: 8dd6 103e e9ff 84be 5e7f c93d 7d38 fc3d
00000020: a098 79be 2551 f43d 93d0 713c 0fd5 3f3d
00000030: 3d26 833e 409b 913e 6147 a63e 2f56 a2bd
00000040: e014 a33d 1efc 6cbd c580 cbbd 9f77 503e
00000050: 6161 a1bd 87a2 733e d191 5a3c 5b76 c13d
00000060: 7625 d4be c374 c33d 48d4 f03d bfe9 613e
00000070: bc7f f83c e96b a2be 4425 0a3d ec8d e23d
0.023736916 0.20572744 0.043211028 0.2131422 0.14144345 -0.25976494 0.098387465 0.12315462
-0.24374628 0.119295396 0.014759201 0.046834048 0.2561511 0.2843876 0.32476333 -0.079265945
0.07962966 -0.057857625 -0.0993667 0.20358132 -0.07879902 0.23792468 0.013340429 0.09446403
-0.4143483 0.09543755 0.117592394 0.22061823 0.030334346 -0.31722954 0.033726946 0.11062226

decoder.initial.block.2.weight f4 [32]
00000000: 3c5b 503f 1c0b 4a3f 193e 6c3f 0881 833f
00000010: 0e8f 7b3f d772 753f 96dc 853f 7ebb 663f
00000020: a509 7c3f 32f2 7e3f 1465 7d3f 6901 673f
00000030: e0e0 6e3f 7daa 783f 010d 623f 1c30 523f
00000040: 85fa 793f 7f6e 653f bc1a 533f 6b1b 863f
00000050: 644d 583f a61c 783f edee 6e3f 4a6b 7c3f
00000060: 75dd 853f 50b1 673f 9856 403f 0ddf 833f
00000070: 59eb 6a3f 7785 8c3f e5d7 613f ff5e 7b3f
0.8138921 0.789232 0.92282254 1.0273752 0.9826516 0.95878357 1.0457942 0.9012984
0.98452216 0.9958831 0.9898236 0.90236527 0.9331188 0.97135144 0.8830109 0.8210466
0.9764789 0.8962173 0.8246267 1.0477117 0.8449309 0.96918714 0.9333332 0.9860121
1.0458208 0.9050493 0.7513213 1.0302445 0.9176536 1.097823 0.88220054 0.9819183

decoder.initial.block.2.bias f4 [32]
00000000: 6010 1c3d 1db5 a4be 0816 963e eda4 153e
00000010: 94a1 3cbe 2f12 24be 000f 143e c1de 4a3e
00000020: a9e8 27be f4a8 7cbd 7df2 213b d3f3 44be
00000030: 1e0c 9d3d f09b 13be bbec 04be 8beb 8d3e
00000040: 8fd2 8f3d 759a a33e 6c38 8c3c e2c2 ba3a
00000050: 1360 aebe 3329 dfbc bc00 e4bc 2166 023e
00000060: d68c a1bd fc86 34be 717c 76bc 52a0 34be
00000070: 203a e2bd 16eb bb3e a056 033d 4423 d1bb
0.038101554 -0.32169428 0.29313684 0.14613695 -0.18421012 -0.16022561 0.14458847 0.19811536
-0.16397347 -0.061684564 0.0024711185 -0.19233637 0.07668327 -0.14414954 -0.1298093 0.27718768
0.07022583 0.3195378 0.017116748 0.0014248753 -0.34057674 -0.027241325 -0.027832381 0.12734272
-0.078881904 -0.17629617 -0.015044318 -0.17639282 -0.11046243 0.36702794 0.032065034 -0.006382378

decoder.initial.block.2.running_mean f4 [32]
00000000: 687d d13c 3105 d53d 5635 bc3e d454 6a3e
00000010: 77c6 1b3e a33a 86bb 0fb9 e13d 9557 1b3e
00000020: d14d 5abb ddea 003e 5652 f03c 6fe4 f03d
00000030: 18d0 973e 0444 8b3e b4cc d23e d063 a7bb
00000040: cdee 9c3d 1a1d 203e b18b 1c3e b0fa 5c3e
00000050: 55fd a73e 333e 813e 9890 073d cfa9 cf3d
00000060: 1cb2 9cbb c967 163e 4a42 433c 4860 733e
00000070: e75a 1b3d b4c2 74bb 438b cc3e c2dd dc3d
0.025572494 0.10401381 0.36759442 0.22883922 0.15212427 -0.0040963455 0.11021625 0.15170129
-0.0033310542 0.12589593 0.029336136 0.1176232 0.2965095 0.2720033 0.411718 -0.005108334
0.07662735 0.15636101 0.15287663 0.21580005 0.32810465 0.25242767 0.03309688 0.1013981
-0.0047819745 0.14688028 0.01191766 0.23767197 0.037928488 -0.0037347497 0.39949998 0.107844844

decoder.initial.block.2.running_var f4 [32]
00000000: 590d 483a 8b0a 813b 56e0 af3c 9e40 d339
00000010: 32c9 6b39 e4fe 0935 6a4e 5f39 9880 2e3a
00000020: a509 8434 dc79 f438 3cf7 403b 4ce5 203b
00000030: d77c a13a 6d6d fd3a 7344 993b 03d9 7336
00000040: 899a b238 0960 1f3c dafa 363c 1d91 8439
00000050: 752d 053d 4ee5 b039 b3ec 7f3b 1ce9 3039
00000060: 45ec d534 8722 833a 95d6 6d3a f5dc d339
00000070: 6071 e93a e1c7 4034 975c e63c 6ed1 0f39
0.00076313835 0.0039380244 0.021469276 0.000402932 0.00022486298 5.140739e-07 0.00021296149 0.0006656735
2.4593933e-07 0.00011657525 0.0029444238 0.0024550734 0.001232053 0.001933498 0.0046773492 3.633614e-06
8.516486e-05 0.009727486 0.011168206 0.0002528512 0.032514054 0.0003374018 0.0039050996 0.00016871508
3.984625e-07 0.0010004797 0.0009072808 0.00040409682 0.0017810278 1.7954109e-07 0.028120322 0.00013715561
