models/long/ResidualSteganoGAN/5/epoch_4.pth (torch, 326228 bytes, 59 tensors)

encoder.initial.block.0.weight f4 [32, 3, 3, 3]
-0.07103451 -0.13756625 0.07114447 -0.099390455 -0.13622166 -0.05731101 -0.06188342 -0.05267101
0.04218662 -0.13711567 -0.11006221 -0.04765298 0.052768517 0.11116647 -0.1353001 -0.057729565
-0.16651991 0.11537954 0.08319446 0.069146484 -0.14748178 0.12316702 0.12605155 -0.13888429
0.12035472 -0.047263023 -0.050728895 0.08048289 0.0066206646 -0.1431217 -0.14484863 -0.14360435
-0.093793936 -0.1762053 -0.16837114 -0.1748627 0.081784636 -0.10410455 0.07228218 0.04155028
-0.042014595 -0.14824866 -0.11673327 -0.04316902 0.00044666964 -0.18210293 -0.018843183 0.14428194
-0.073967434 -0.17649828 0.046037383 0.077514015 -0.14411052 0.027714174 -0.1564646 -0.10414757
-0.053194582 -0.1270745 0.12718807 -0.136339 0.026490146 -0.059322804 0.046914857 0.017761115
-0.13829418 -0.09301799 0.00534515 -0.20324683 0.040110685 0.0545717 -0.094589554 -0.068383224
0.12195921 -0.103735805 0.049972408 0.07318926 0.11255939 0.05824376 -0.14438301 0.15380624
-0.14651838 0.11904545 0.1456181 0.04345647 0.04498209 0.018008143 -0.1800839 0.06385413
0.17350063 -0.053540472 -0.14421399 0.09457272 0.009373615 -0.1688408 -0.16735241 0.12770763
0.009856876 -0.14231661 -0.11135245 0.18008934 -0.1472027 -0.07513966 0.18586677 -0.032602124
0.011839367 -0.013831475 0.16760182 -0.010041444 -0.24209285 -0.17971708 -0.14405791 0.032529365
-0.14773858 0.17739105 0.053433098 -0.03678786 0.013736332 -0.06839763 0.068176396 -0.20018777
-0.17523964 -0.10991985 0.03721622 -0.12513798 0.0072930134 -0.032409467 -0.16595949 0.03187495
-0.115722 -0.12764153 0.14049584 -0.09223237 0.03510896 0.06292528 0.1283617 -0.016747897
0.10781026 -0.087276444 -0.04014531 0.017957669 0.080768056 -0.046149418 0.045372855 0.16961356
0.05742004 0.059320632 0.1467099 0.0781273 0.0785017 0.038223427 -0.105460644 -0.06495289
0.17644395 -0.026387747 0.12831199 0.09110446 0.031598475 0.004063214 0.16498993 -0.05854621
-0.033933755 -0.15229918 0.12988107 -0.019024137 -0.16331932 -0.11148158 -0.10732978 0.13853817
-0.1140912 -0.077378765 -0.21054326 -0.089525834 0.0072271656 0.020579426 -0.08781253 0.062332127
-0.07878644 0.09104672 -0.04676197 0.14067863 -0.16129093 -0.09267565 0.121992216 -0.0022746397
0.1555228 -0.14113615 0.01641585 -0.15449347 0.10189524 0.032690153 0.11214652 0.064631924
0.1147443 -0.11731783 -0.0042805593 0.019967547 -0.015257463 -0.023774171 0.17888921 0.1258135
-0.07023806 0.06633987 0.17679752 0.13565 -0.084540255 0.0036091667 0.016495004 -0.005013747
-0.13275002 0.14698564 -0.121423684 0.19843462 -0.16572389 0.1426536 -0.015846975 -0.12845878
0.08323579 0.049186528 -0.04205221 -0.033613276 -0.14775617 -0.026625726 0.11892961 0.11161423
0.15198669 -0.10107541 -0.07618353 -0.12731531 -0.041838665 0.15439685 0.058784872 -0.17155966
0.18870245 -0.20093812 0.20581414 -0.110958464 -0.06452413 -0.021205438 0.045693565 0.0508005
0.113922484 -0.18297116 0.15960474 0.1252092 -0.101060964 0.1429885 -0.14037597 0.015390767
-0.032593384 0.13335672 -0.06756561 -0.12637547 -0.1089178 -0.16355814 -0.060859818 0.07757053
00000000: 8b7a 91bd 2bde 0cbe 31b4 913d 398d cbbd
00000010: b17d 0bbe f3be 6abd 7879 7dbd 8fbd 57bd
00000020: e1cb 2c3d 0d68 0cbe 4c68 e1bd c52f 43bd
00000030: cd23 583d 3fab e33d 1c8c 0abe d675 6cbd
00000040: 3284 2abe 1c4c ec3d db61 aa3d ac9c 8d3d
00000050: 7705 17be fe3e fc3d a813 013e af37 0ebe
00000060: 897c f63d df96 41bd 1ac9 4fbd 37d4 a43d
00000070: 29f2 d83b 7f8e 12be 3353 14be 050d 13be
00000080: 0917 c0bd 2a6f 34be 7c69 2cbe 350f 33be
00000090: b47e a73d c434 d5bd ae08 943d a030 2a3d
000000a0: 7f17 2cbd 7fce 17be da11 efbd 00d2 30bd
000000b0: fc2e ea39 3179 3abe 055d 9abc a5be 133e
000000c0: 3d7c 97bd f7bb 34be b291 3c3d abbf 9e3d
000000d0: b591 13be d608 e33c 4238 20be 524b d5bd
000000e0: 90e2 59bd d11f 02be 973d 023e 739c 0bbe
000000f0: dd01 d93c 78fc 72bd cb29 403d c27f 913c
00000100: fd9c 0dbe 3780 bebd 5e26 af3b f01f 50be
00000110: 1a4b 243d 9386 5f3d 2bb8 c1bd 810c 8cbd
00000120: c0c5 f93d 7073 d4bd deaf 4c3d 40e4 953d
00000130: 8a85 e63d 0291 6e3d 24d9 13be 627f 1d3e
00000140: ea08 16be 1ace f33d e91c 153e 69ff 313d
00000150: 243f 383d d085 933c ea67 38be f4c5 823d
00000160: 26aa 313e 414d 5bbd d5ac 13be 58af c13d
00000170: ca93 193c 9ae4 2cbe 6e5e 2bbe cac5 023e
00000180: bc7e 213c 72bb 11be c10c e4bd 5769 383e
00000190: 4ebc 16be d2e2 99bd dc53 3e3e ce89 05bd
000001a0: e8f9 413c 699d 62bc d09f 2b3e de84 24bc
000001b0: 30e7 77be c107 38be eb83 13be 833d 053d
000001c0: c848 17be 00a6 353e aadc 5a3d deae 16bd
000001d0: 5a0e 613c 0e14 8cbd 11a0 8b3d 06fe 4cbe
000001e0: 0572 33be a91d e1bd 0970 183d 2c24 00be
000001f0: 3bfa ee3b cabf 04bd 49f1 29be 4f8f 023d
00000200: a8ff ecbd 76b4 02be 24de 0f3e 53e4 bcbd
00000210: 6ace 0f3d f8de 803d 4071 033e e332 89bc
00000220: a0cb dc3d febd b2bd 696f 24bd f61b 933c
00000230: b969 a53d 2c07 3dbd e3d8 393d 2daf 2d3e
00000240: 4731 6b3d 31fa 723d 1f3b 163e 3501 a03d
00000250: 80c5 a03d 2b90 1c3d c0fb d7bd 0506 85bd
00000260: b9ad 343e 1e2b d8bc 3864 033e fa94 ba3d
00000270: 676d 013d b624 853b 1ff3 283e 27ce 6fbd
00000280: 1ffe 0abd 51f4 1bbe 8bff 043e 82d8 9bbc
00000290: 2e3d 27be 7450 e4bd b7cf dbbd f3dc 0d3e
000002a0: a6a8 e9bd c278 9ebd a798 57be 5259 b7bd
000002b0: dcd1 ec3b 2f96 a83c 0ed7 b3bd f94f 7f3d
000002c0: c95a a1bd b476 ba3d 7b89 3fbd 0f0e 103e
000002d0: 7329 25be bbcc bdbd 0ed7 f93d 1f12 15bb
000002e0: 5e41 1f3e ff85 10be 887a 863c 8933 1ebe
000002f0: 74ae d03d 1ce6 053d 13ad e53d be5d 843d
00000300: 0fff ea3d 5544 f0bd ef43 8cbb fb92 a33c
00000310: 70fa 79bc 0dc2 c2bc bc2e 373e 41d5 003e
00000320: f9d8 8fbd 33dd 873d 690a 353e d5e7 0a3e
00000330: 7123 adbd c587 6c3b 8820 873c 5c4a a4bb
00000340: 9fef 07be 6783 163e fbac f8bd 7232 4b3e
00000350: 86b3 29be c913 123e 84d1 81bc b38a 03be
00000360: 8777 aa3d d077 493d f03e 2cbd 13ae 09bd
00000370: 654d 17be 321e dabc 5e91 f33d 0096 e43d
00000380: 66a2 1b3e a000 cfbd 1c06 9cbd f25e 02be
00000390: 055f 2bbd 351a 1e3e 68c8 703d 56ad 2fbe
000003a0: 373b 413e b9c2 4dbe f1c0 523e 313e e3bd
000003b0: 3a25 84bd 07b7 adbc 2d29 3b3d 2f14 503d
000003c0: 3150 e93d cb5c 3bbe 6d6f 233e d736 003e
000003d0: 0df9 cebd 946b 123e b8be 0fbe 8e29 7c3c
000003e0: a480 05bd aa8e 083e d75f 8abd 9268 01be
000003f0: 4c10 dfbd c97b 27be 2548 79bd 4cdd 9e3d

encoder.initial.block.0.bias f4 [32]
0.14677009 0.10600746 0.1640296 0.18604076 -0.018795777 0.062476784 0.04166785 -0.12183003
0.15359041 0.19176176 0.055564754 0.22746374 0.041844595 0.075622156 0.064146355 -0.0099050235
-0.19176203 -0.04890751 0.15736629 -0.01432539 -0.19775285 -0.17139047 0.12308554 -0.05215173
-0.044656005 0.04250438 -0.10488603 0.16253099 0.17971182 -0.14253156 0.19135298 0.18437381
00000000: e64a 163e 701a d93d 60f7 273e 7881 3e3e
00000010: 9af9 99bc a8e7 7f3d e8ab 2a3d 0682 f9bd
00000020: ce46 1d3e 325d 443e de97 633d 41ec 683e
00000030: 3d65 2b3d cadf 9a3d 2a5f 833d ae48 22bc
00000040: 445d 44be 3e53 48bd a124 213e 0ab5 6abc
00000050: b97f 4abe fc80 2fbe 4614 fc3d 0d9d 55bd
00000060: 37e9 36bd 1319 2e3d 7dce d6bd 866e 263e
00000070: 6006 383e cbf3 11be 09f2 433e 7dcc 3c3e

encoder.initial.block.2.weight f4 [32]
0.93870103 0.9490441 0.97446865 1.0206795 0.91402423 1.0123547 0.93542546 1.0114495
1.0171257 0.9303708 0.9374777 0.9865083 1.0217488 0.960489 0.9471846 1.0106649
1.0045025 0.9880118 0.9339092 1.0194674 0.9983796 0.980475 0.9499339 1.013344
0.98333186 1.0252683 1.010687 1.0260465 0.9837392 0.97853816 0.98295087 1.0297723
00000000: b64e 703f 8ef4 723f c776 793f a0a5 823f
00000010: 7efd 693f d794 813f 0b78 6f3f 2d77 813f
00000020: 2d31 823f c82c 6e3f 8afe 6f3f cf8b 7c3f
00000030: aac8 823f 9be2 753f b17a 723f 785d 813f
00000040: 8a93 803f 57ee 7c3f ac14 6f3f e87d 823f
00000050: ce95 7f3f 6900 7b3f de2e 733f 42b5 813f
00000060: a3bb 7b3f fe3b 833f 315e 813f 7e55 833f
00000070: 55d6 7b3f 7a81 7a3f aba2 7b3f 94cf 833f

encoder.initial.block.2.bias f4 [32]
-0.00094780343 0.005259975 -0.005401262 0.023592344 -0.0023936357 -0.018440112 -0.020964252 0.021560796
0.0015936032 0.0454517 -0.02276485 0.011527182 -0.003533931 -0.007429562 -0.018142378 -0.0072813747
-0.038249925 -0.0088898195 -0.005641856 -0.0066533815 -0.000970247 -0.02765241 -0.0024228746 -0.010125269
-0.016575435 -0.007920739 0.018531779 0.000623098 0.012935143 0.022571407 -0.003502982 0.025059953
00000000: 0376 78ba de5b ac3b 12fd b0bb bb44 c13c
00000010: 8bde 1cbb b80f 97bc 39bd abbc 44a0 b03c
00000020: 73e0 d03a 902b 3a3d 5a7d babc 81dc 3c3c
00000030: 8699 67bb af73 f3bb 539f 94bc 9998 eebb
00000040: f4ab 1cbd 9ba6 11bc 52df b8bb 9c04 dabb
00000050: 2d58 7eba 4f87 e2bc 17c9 1ebb 75e4 25bc
00000060: 35c9 87bc fdc5 01bc f5cf 973c 6657 233a
00000070: eced 533c ace7 b83c 4992 65bb 884a cd3c

encoder.initial.block.2.running_mean f4 [32]
0.005608895 -0.005095926 0.007899974 0.25310192 -0.005834623 0.4658178 -0.0024340143 0.20306121
0.21969424 0.050660305 -0.0042746277 0.20346977 0.58896875 -0.0042949286 -0.0043876986 0.38319966
-0.0050918544 -0.0047252937 0.0036668077 0.35180843 -0.0052472404 -0.0041757096 0.002374252 -0.005632698
-0.0050253808 0.33135834 0.1763769 0.22802286 0.008470261 0.25760522 0.005363629 0.48924917
00000000: d2ca b73b bafb a6bb e46e 013c 9396 813e
00000010: 5d30 bfbb ac7f ee3e fc83 1fbb 47ef 4f3e
00000020: 87f7 603e 2e81 4f3d 2d12 8cbb 615a 503e
00000030: a8c6 163f 79bc 8cbb afc6 8fbb bf32 c43e
00000040: 92d9 a6bb a3d6 9abb d34e 703b 3c20 b43e
00000050: 0bf1 abbb 64d4 88bb 5799 1b3b 7f92 b8bb
00000060: f3ab a4bb cda7 a93e 259c 343e d37e 693e
00000070: d9c6 0a3c d5e4 833e 62c1 af3b de7e fa3e

encoder.initial.block.2.running_var f4 [32]
0.00056371966 8.696994e-05 0.0007498967 0.0026640673 5.5717305e-06 0.025518093 1.310797e-05 0.013511796
0.0022057535 0.0023081088 2.1491196e-05 0.0008525238 0.045391645 6.309765e-05 2.6449941e-05 0.033500347
1.9356605e-06 3.0421802e-06 0.00054857024 0.021316256 1.9078104e-06 1.2916889e-06 0.000335212 4.908983e-06
3.7550933e-06 0.013112438 0.009662514 0.001002704 0.0008631377 0.023074897 0.0008679305 0.015338878
00000000: 96c6 133a a263 b638 b794 443a a297 2e3b
00000010: cdf4 ba36 520b d13c 4dea 5b37 9460 5d3c
00000020: 678e 103b a443 173b fe47 b437 e77b 5f3a
00000030: 97ec 393d 4b53 8438 d1e0 dd37 a937 093d
00000040: 65e6 0136 4228 4c36 edcd 0f3a 6e9f ae3c
00000050: ef07 0036 185e ad35 65bf af39 d8b7 a436
00000060: 0300 7c36 8dd5 563c 854f 1e3c 2a6d 833a
00000070: 3144 623a 9107 bd3c d485 633a eb4f 7b3c

encoder.block1.block.0.weight f4 [32, 37, 3, 3]
0.029973058 0.00528977 -0.002987605 -0.048691772 0.00640871 0.01760249 -0.038870294 0.016284537
0.013990964 -0.03597469 0.0038193245 -0.031014558 0.010523558 -0.024662059 0.04806732 -0.046004903
-0.044525135 0.009945371 -0.043180715 -0.050430898 -0.00936578 -0.011222864 -0.055425923 -0.028586114
-0.036776226 0.019210635 -0.021827888 0.020635152 0.043939207 0.006126627 0.061428882 -0.005295582
-0.03699938 0.07712162 -0.025494395 0.048325766 -0.045876246 0.016449867 -0.053499542 -0.04509685
0.00087759376 -0.041298307 -0.054052792 0.03761922 -0.008686696 -0.005941125 -0.013391655 0.035594277
0.0018730691 0.03389081 -0.01903504 0.054460242 -0.012695082 0.01609608 -0.0260596 -0.026929647
0.0016258883 -0.015774269 -0.03685521 0.03333989 -0.009798894 -0.05142294 0.027294299 0.05592322
0.001490431 0.029278636 0.054377645 0.031022523 0.012780498 0.053750526 0.015846213 -0.018677978
-0.013386004 -0.023958331 -0.0114248255 0.018337127 0.017829603 0.022840764 0.031827666 0.0062195486
0.018785028 0.002454363 -0.018971214 -0.031684946 -0.042705957 -0.021498507 -0.023379209 0.0038996614
-0.0021440857 -0.018197156 -0.016385445 -0.015703706 -0.04338754 0.028109092 -0.019560205 -0.036172707
-0.008319444 -0.014503093 0.02842951 -0.013626357 -0.024018833 -0.018561523 -0.036621045 -0.027174907
-0.012157362 0.04941658 0.017355902 0.0071650837 -0.031757556 -0.018075043 -0.03021469 -0.02705946
0.03693024 0.0014216695 0.008952462 -0.018034674 0.04458731 0.01089673 -0.07123485 -0.036920886
0.009780769 0.00944344 -0.025490535 0.0022551941 -0.0014300747 -0.02918201 0.0020309945 -0.045352224
-0.0073861782 -0.04626877 -0.044004414 -0.055174492 -0.05687459 0.001920259 -0.040478468 -0.0070344303
-0.009998879 0.049650706 0.03760628 -0.009358741 -0.021329373 -0.005406199 -0.04300726 0.039551213
-0.048227493 0.022887366 -0.06557627 -0.032328688 -0.014952334 -0.01932579 -0.0018428318 0.048890118
-0.044000357 -0.010655453 -0.00557002 -0.06029249 -0.062644415 -0.033596203 0.00029409418 -0.007931643
-0.031974662 0.0016873002 0.008446238 0.033674575 -0.042335145 -0.040312957 -0.05899075 0.0029418292
0.038538046 -0.03242124 -0.045549776 -0.009395391 -0.026442463 -0.030467756 0.028349718 0.02437349
0.029527575 -0.030625975 -0.016185576 -0.05404745 -0.07630623 0.004125017 -0.06280576 0.038221978
0.03325384 -0.024673859 0.014829437 -0.024493925 0.027654147 0.033729248 0.021241512 0.029237151
-0.017328715 -0.044993363 0.009851597 0.0020266501 0.035399295 -0.030873287 0.011706653 0.002226718
-0.0051279836 -0.03991029 -0.040938206 0.031065961 -0.0033753132 -0.040507894 0.018851873 -0.0005227786
-0.010919266 -0.04521141 0.026808597 -0.009059344 -0.036830734 -0.0553786 -0.038603704 -0.034344193
-0.04407677 -0.002444154 -0.050623126 -0.0012291758 0.034393974 0.022100855 -0.0016526245 0.03958393
-0.029441193 -0.017637469 -0.0038475583 -0.035258505 -0.021913355 -0.009395317 0.011624553 0.03470489
-0.014163678 0.030400686 -0.024906592 -0.016696857 0.012768405 0.057694267 0.015568813 -0.014204487
-0.011603263 0.03929043 -0.00047761254 0.045938816 -0.012180225 -0.0027049768 -0.015901333 0.03210606
0.05163135 -0.036988553 4.1751864e-05 -0.023925062 0.043115698 -0.025130825 -0.02233221 0.021105725
00000000: 0f8a f53c cf55 ad3b b2cb 43bb 0671 47bd
00000010: 2800 d23b 1933 903c 7536 1fbd 2667 853c
00000020: 5b3a 653c 325a 13bd a24d 7a3b 3e12 febc
00000030: 006b 2c3c 1608 cabc 3de2 443d a36f 3cbd
00000040: fd5f 36bd e9f1 223c 43de 30bd a190 4ebd
00000050: ee72 19bc 1ae0 37bc 4b06 63bd 6d2d eabc
00000060: aba2 16bd 9f5f 9d3c 66d0 b2bc 0d0b a93c
00000070: 99f9 333d dfc1 c83b da9c 7b3d 9086 adbb
00000080: a98c 17bd f1f1 9d3d 9fd9 d0bc 3df1 453d
00000090: bbe8 3bbd dfc1 863c 5622 5bbd 79b7 38bd
000000a0: 520e 663a 6a28 29bd 7666 5dbd 9c16 1a3d
000000b0: a552 0ebc c5ad c2bb ac68 5bbc 4ecb 113d
000000c0: c581 f53a 17d1 0a3d 5fef 9bbc b411 5f3d
000000d0: 09ff 4fbc eddb 833c f17a d5bc 909b dcbc
000000e0: c21b d53a 0a39 81bc 7df5 16bd 698f 083d
000000f0: 8a8b 20bc dca0 52bd 4b98 df3c bf0f 653d
00000100: 915a c33a c0d9 ef3c 18bb 5e3d f222 fe3c
00000110: 4b65 513c 8329 5c3d ebcf 813c 8f02 99bc
00000120: f850 5bbc 4344 c4bc 312f 3bbc be37 963c
00000130: 630f 923c 8e1c bb3c ba5d 023d 5bcd cb3b
00000140: 0fe3 993c 61d9 203b 8569 9bbc 13c8 01bd
00000150: 71ec 2ebd a31d b0bc c185 bfbc 7691 7f3b
00000160: ca83 0cbb 3412 95bc c53a 86bc 0fa5 80bc
00000170: 22b7 31bd 0a45 e63c b93c a0bc d529 14bd
00000180: 474e 08bc 629e 6dbc 01e5 e83c 1541 5fbc
00000190: 25c3 c4bc 560e 98bc f3ff 15bd e99d debc
000001a0: ac2f 47bc 0a69 4a3d f72d 8e3c 14c9 ea3b
000001b0: 3614 02bd 1d12 94bc cc84 f7bc cdab ddbc
000001c0: 2a44 173d 5057 ba3a 59ad 123c 74bd 93bc
000001d0: 2fa1 363d 3388 323c 94e3 91bd 5b3a 17bd
000001e0: 853f 203c a8b8 1a3c 87d1 d0bc e1cb 133b
000001f0: 5871 bbba 1c0f efbc 6f1a 053b 41c3 39bd
00000200: c107 f2bb 5284 3dbd f93d 34bd a6fe 61bd
00000210: 55f5 68bd 33b1 fb3a c0cc 25bd 1481 e6bb
00000220: 57d2 23bc 8a5e 4b3d 0b09 1a3d 6855 19bc
00000230: f0ba aebc 7c26 b1bb 6128 30bd 7400 223d
00000240: 318a 45bd 497e bb3c da4c 86bd 166b 04bd
00000250: a2fa 74bc 1f51 9ebc 2d8b f1ba 0141 483d
00000260: b839 34bd 3694 2ebc b784 b6bb 42f5 76bd
00000270: b74b 80bd 2c9c 09bd a730 9a39 b9f3 01bc
00000280: ddf7 02bd 6628 dd3a 1762 0a3c 5aee 093d
00000290: 9e67 2dbd 331f 25bd 49a0 71bd b4cb 403b
000002a0: 12da 1d3d 22cc 04bd 6792 3abd 20ef 19bc
000002b0: dd9d d8bc 8497 f9bc ab3d e83c eaaa c73c
000002c0: d0e3 f13c 53e3 fabc 9d97 84bc dc60 5dbd
000002d0: 7146 9cbd 272b 873b 4ea0 80bd a68e 1c3d
000002e0: 2e35 083d d520 cabc 2bf7 723c 7ca7 c8bc
000002f0: f38a e23c ae27 0a3d ae02 ae3c c082 ef3c
00000300: f3f4 8dbc f64a 38bd 9868 213c 8cd1 043b
00000310: dafe 103d fae9 fcbc 43cd 3f3c 21ee 113b
00000320: a508 a8bb f978 23bd d2ae 27bd 0b7e fe3c
00000330: 5c34 5dbb 9beb 25bd 3e6f 9a3c 140b 09ba
00000340: b9e6 32bc 992f 39bd b49d db3c a56d 14bc
00000350: d3db 16bd acd4 62bd eb1e 1ebd 7fac 0cbd
00000360: d889 34bd 192e 20bb 325a 4fbd 4c1c a1ba
00000370: b2e0 0c3d da0c b53c e09c d8ba c222 223d
00000380: a82e f1bc 747c 90bc 5127 7cbb 396b 10bd
00000390: a383 b3bc d1ee 19bc e974 3e3c b726 0e3d
000003a0: c50e 68bc dc0a f93c e908 ccbc d9c7 88bc
000003b0: 9232 513c d350 6c3d 5614 7f3c f0b9 68bc
000003c0: 9d1b 3ebc 00ef 203d 1268 fab9 572a 3c3d
000003d0: 918f 47bc fb45 31bb 8343 82bc a581 033d
000003e0: 657b 533d 4f81 17bd b91e 2f38 7efe c3bc
000003f0: 169a 303d 29df cdbc 0af2 b6bc eae5 ac3c

encoder.block1.block.0.bias f4 [32]
0.06679488 -0.022571407 0.015035138 0.0035083862 0.025013315 0.056372162 0.011259983 -0.040434062
-0.03802547 -0.03633577 0.044847462 0.040241905 0.095719576 0.06782839 0.05845838 0.040935945
-0.018675277 -0.0085935835 0.059787057 0.07960933 -0.017371414 0.015337722 -0.04846686 0.030392438
0.0482345 0.0018887485 0.007425984 0.0012846977 0.042028893 0.04526421 -0.049483586 0.069072954
00000000: c1cb 883d ace7 b8bc f155 763c f4ec 653b
00000010: b9e8 cc3c 7fe6 663d cb7b 383c 309e 25bd
00000020: 98c0 1bbd d1d4 14bd f9b1 373d b2d4 243d
00000030: a008 c43d 9ce9 8a3d 0e72 6f3d 73ac 273d
00000040: e5fc 98bc 1acc 0cbc 46e3 743d 370a a33d
00000050: 7f4e 8ebc 124b 7b3c 3085 46bd 90f9 f83c
00000060: 8a91 453d e28f f73a ab55 f33b 4d63 a83a
00000070: 7d26 2c3d f766 393d 4daf 4abd 1f76 8d3d

encoder.block1.block.2.weight f4 [32]
0.97914857 0.9748174 0.9971459 0.9885864 1.0082942 1.0046219 1.0168761 1.0089927
0.9833927 0.9843604 1.0096383 0.9776938 0.9755752 1.0200796 1.0203612 0.9875172
0.99140555 1.0008415 1.0343561 0.98799384 0.9860363 0.9676556 0.97917724 0.98340285
1.0037389 0.97787607 1.0133053 1.0240617 0.9641799 1.0190079 1.0104706 0.99142104
00000000: 7ba9 7a3f a28d 793f f444 7f3f 0014 7d3f
00000010: c90f 813f 7397 803f ff28 823f ac26 813f
00000020: a0bf 7b3f 0bff 7b3f d43b 813f 244a 7a3f
00000030: 4cbf 793f f891 823f 329b 823f edcd 7c3f
00000040: c1cc 7d3f 931b 803f c865 843f 2aed 7c3f
00000050: e06c 7c3f 47b8 773f 5cab 7a3f 4ac0 7b3f
00000060: 847a 803f 1656 7a3f fdb3 813f 7414 833f
00000070: 7ed4 763f da6e 823f 1a57 813f c5cd 7d3f

encoder.block1.block.2.bias f4 [32]
0.017719772 0.05754487 -0.021040458 -0.032838337 -0.026848478 0.019110529 0.031931564 0.032247405
0.06208902 0.006918673 -0.014908828 0.03744763 -0.03761951 -0.029458528 0.018275034 0.07679626
0.025285363 -0.05005831 -0.022857437 -0.012033743 0.0019793296 -0.06770675 0.0026450763 -0.015801702
0.04775199 0.06004292 -0.04207383 -0.03691308 0.057584014 0.010765138 -0.021282824 0.06802752
00000000: 0e29 913c 2bb4 6b3d 0a5d acbc 7e81 06bd
00000010: 57f1 dbbc af8d 9c3c acca 023d db15 043d
00000020: 0e51 7e3d 09b6 e23b 2844 74bc b062 193d
00000030: ea16 1abd 0353 f1bc 86b5 953c 5c47 9d3d
00000040: 4023 cf3c f109 4dbd 853f bbbc 2d29 45bc
00000050: a4b7 013b d6a9 8abd 0459 2d3b 9272 81bc
00000060: 9797 433d 91ef 753d 9c55 2cbd 2b32 17bd
00000070: 37dd 6b3d 4360 303c 5159 aebc 0352 8b3d

encoder.block1.block.2.running_mean f4 [32]
0.77277136 0.792568 0.62883735 0.6549339 0.5606371 0.76195776 0.7184878 0.7291908
0.7700898 0.767906 0.6582386 0.7723523 0.5802274 0.7642664 0.67461026 0.65723324
0.8549437 0.5907721 0.7131995 0.5952615 0.83991456 0.81742316 0.6727854 0.7269471
0.6070672 0.74526465 0.6973757 0.55580646 0.66488546 0.64229596 0.92138106 0.75880015
00000000: 58d4 453f bde5 4a3f 7cfb 203f c0a9 273f
00000010: ea85 0f3f aa0f 433f d1ee 373f 40ac 3a3f
00000020: 9b24 453f 7d95 443f 5382 283f e1b8 453f
00000030: c889 143f f6a6 433f 42b3 2c3f 7040 283f
00000040: 97dd 5a3f d73c 173f 3e94 363f 0f63 183f
00000050: a404 573f a542 513f aa3b 2c3f 3519 3a3f
00000060: c268 1b3f aac9 3e3f 3787 323f 5549 0e3f
00000070: ef35 2a3f 826d 243f a1df 6b3f ba40 423f

encoder.block1.block.2.running_var f4 [32]
0.9504783 1.2883949 0.73323023 0.4715256 0.33032933 1.8398187 1.0026746 1.8337456
1.877322 1.1843292 0.74750483 0.9565878 0.70475745 0.90698266 0.8682887 0.7222635
1.2322738 0.8174735 1.0505524 0.8721127 1.2367715 0.9541958 0.7865265 0.9571729
0.5116547 1.8293977 1.2733338 0.93209034 1.8292029 0.96479684 1.4745138 1.5538442
00000000: 8c52 733f 20ea a43f fab4 3b3f ce6b f13e
00000010: ed20 a93e 2e7f eb3f a457 803f 2db8 ea3f
00000020: 164c f03f 1998 973f 7a5c 3f3f f0e2 743f
00000030: fc6a 343f 0430 683f 2b48 5e3f 43e6 383f
00000040: 26bb 9d3f f145 513f 8078 863f c742 5f3f
00000050: 874e 9e3f 2d46 743f cd59 493f 4809 753f
00000060: cdfb 023f b429 ea3f 9afc a23f 799d 6e3f
00000070: 5223 ea3f edfc 763f debc bc3f 5ee4 c63f

encoder.block2.block.0.weight f4 [32, 32, 3, 3]
0.032715697 -0.019804591 -0.03079285 0.02322021 -0.014326547 0.026207967 -0.023975158 0.020096391
0.033348337 0.006319087 0.03204556 0.004638017 -0.016403878 0.05385681 0.048165996 -0.017280146
-0.05089172 -0.007855874 0.030361457 0.01000471 0.013356425 -0.003017092 -0.027151415 0.039085936
-0.047579493 -0.032744203 -0.053088743 -0.007204541 0.044053156 0.05762057 -0.04756912 0.007286708
-0.031846497 -0.035937082 -0.0304844 0.04008543 0.027407287 0.054493953 0.029997408 0.058594335
0.008399141 0.05250537 -0.031911477 0.04830211 -0.03047437 -0.0073388694 0.025751732 -0.00985332
0.016113065 0.027420435 0.02721496 -0.011412164 -0.018063845 -0.016044822 0.0144654475 0.04994623
-0.0002349619 0.03899173 0.022046454 0.03405693 0.045149326 0.0040732534 0.01923231 7.913896e-05
-0.028536962 0.031609308 -0.04942084 -0.049071442 0.022448245 -0.032116476 -0.031896275 -0.042131484
0.00065513485 -0.03696683 -0.035778753 0.038528815 0.006542808 -0.01145139 -0.011357652 -0.041816495
0.013595418 0.052182928 -0.013070316 0.060135048 0.040175226 0.0633068 -0.020792035 -0.0005412227
0.049288467 -0.029189263 -0.0088581145 0.011819818 0.00677799 0.052216087 -0.025093865 -0.030353991
0.04322253 -0.0446964 0.04444843 -0.015407596 0.06307784 0.037802674 -0.009629929 0.056144617
0.053325698 0.043178234 0.064018846 0.03367756 -0.01954746 -0.031908475 0.00090988073 0.0075017367
-0.011967499 -0.017765252 -0.022158686 -0.010226372 -0.082177445 0.077603936 0.066699184 0.04858939
-0.033550654 -0.0029393267 -0.039190143 -0.009593871 0.010361632 -0.0065412065 0.021563992 0.034981534
-0.016321048 0.0009456031 -0.020287521 -0.010323408 0.02276752 -0.02220569 0.018793814 0.021526648
0.015325356 0.020538457 0.06287026 0.027941786 -0.036107495 0.03168365 0.05759008 0.014020506
-0.009475236 -0.009341005 -0.038163535 -0.009429198 0.055834994 -0.043542396 0.012648615 0.016317124
-0.030848293 0.0057225158 -0.019719642 -0.01650004 -0.071414195 -0.042699277 0.007825398 0.0017354946
0.03581294 0.021147363 -0.0508349 0.033451904 -0.059898436 0.023253126 0.0063162036 -0.029834537
-0.045326144 -0.03390861 -0.0005801219 -0.038639963 -0.011920327 -0.04293192 -0.054657254 0.017454712
0.0015850358 0.0014498547 0.035215706 0.011095469 0.054673024 -0.028202746 0.0027304639 0.029577577
0.045413554 -0.009296588 0.008629837 0.05410695 0.03754161 0.009487491 0.07193742 -0.027049052
-0.036191337 -0.03100369 -0.007730217 -0.013690974 -0.033824544 0.031214818 0.005424845 0.04592376
0.04809793 -0.0064590694 0.039942987 0.042276934 -0.016765084 -0.038295444 0.023893185 0.018026572
-0.013183031 -0.04194387 0.018540705 -0.04043824 -0.028462263 0.024242971 0.018279789 -0.010917741
-0.019443117 0.00065322313 0.04384253 0.038701028 -0.051509008 0.04008919 0.04929095 0.021257084
-0.022273902 0.037291445 -0.053168833 -0.0009143589 0.02206628 0.03814506 0.029909348 -0.052098975
-0.026773456 -0.029881652 -0.024678316 0.0026415994 -0.028886 -0.038735252 0.028105114 0.026286483
0.0023172891 0.01338082 -0.058854252 -0.05362444 -0.052388232 0.038283713 0.042102735 0.01619572
-0.0659535 0.032205712 -0.005898172 -0.062459007 0.043573145 0.030651875 0.029229034 -0.019359892
00000000: e500 063d 3d3d a2bc 4941 fcbc 4f38 be3c
00000010: e5b9 6abc 17b2 d63c 8d67 c4bc 30a1 a43c
00000020: 4498 083d 5810 cf3b 3542 033d 82fa 973b
00000030: 6d61 86bc f598 5c3d b549 453d 188f 8dbc
00000040: d673 50bd ecb5 00bc 97b8 f83c ccea 233c
00000050: e8d4 5a3c 67ba 45bb a56c debc 9318 203d
00000060: b7e2 42bd c91e 06bd 9573 59bd 1214 ecbb
00000070: 1571 343d 8c03 6c3d d6d7 42bd 56c5 ee3b
00000080: 7971 02bd c332 13bd 6cba f9bc 9f30 243d
00000090: 3f85 e03c 0d35 5f3d 20bd f53c 9d00 703d
000000a0: 8d9c 093c df0f 573d 9cb5 02bd 6fd8 453d
000000b0: 63a5 f9bc e67a f0bb 4cf5 d23c d26f 21bc
000000c0: 8cff 833c d2a0 e03c e8f1 de3c 16fa 3abc
000000d0: a1fa 93bc 6e70 83bc 7c00 6d3c 6b94 4c3d
000000e0: 1b60 76b9 cbb5 1f3d c49a b43c 487f 0b3d
000000f0: 80ee 383d ed78 853b 148d 9d3c 68f7 a538
00000100: 59c6 e9bc c378 013d 826d 4abd 23ff 48bd
00000110: 62e5 b73c 918c 03bd aba5 02bd 1092 2cbd
00000120: 5bbd 2b3a 886a 17bd be8c 12bd 64d0 1d3d
00000130: 0d65 d63b 9c9e 3bbc 7215 3abc c647 2bbd
00000140: 51bf 5e3c c4bd 553d e124 56bc 2b50 763d
00000150: c78e 243d ffa6 813d 0f54 aabc d7e0 0dba
00000160: b4e2 493d 521e efbc a021 11bc e9a7 413c
00000170: e719 de3b 89e0 553d a691 cdbc efa8 f8bc
00000180: 1c0a 313d 9313 37bd 8f0f 363d 2470 7cbc
00000190: f42e 813d fad6 1a3d dac6 1dbc e6f7 653d
000001a0: 0c6c 5a3d a9db 303d 501c 833d 7bf1 093d
000001b0: ff21 a0bc 76b2 02bd 1085 6e3a 21d1 f53b
000001c0: 5413 44bc 6f88 91bc 2286 b5bc 838c 27bc
000001d0: a64c a8bd d0ee 9e3d 9599 883d ab05 473d
000001e0: 696c 09bd b8a1 40bb d885 20bd 9d2f 1dbc
000001f0: d6c3 293c 9e57 d6bb f8a6 b03c cc48 0f3d
00000200: b8b3 85bc 5ae2 773a 0432 a6bc 8323 29bc
00000210: f382 ba3c b5e8 b5bc 7cf5 993c a758 b03c
00000220: 3417 7b3c 4440 a83c 1fc2 803d 2ce6 e43c
00000230: 74e5 13bd b7c6 013d 93e3 6b3d 44b6 653c
00000240: 053e 1bbc 040b 19bc 5e51 1cbd ec7c 1abc
00000250: 3cb3 643d 8359 32bd 233c 4f3c 7dab 853c
00000260: 8fb5 fcbc f183 bb3b 168b a1bc 182b 87bc
00000270: 9b41 92bd 70e5 2ebd 1936 003c 8979 e33a
00000280: 97b0 123d 3c3d ad3c 4238 50bd dd04 093d
00000290: 1058 75bd 577d be3c 28f8 ce3b 8f67 f4bc
000002a0: e8a7 39bd c1e3 0abd 5213 18ba f044 1ebd
000002b0: 7a4d 43bc 62d9 2fbd 49e0 5fbd 2ffd 8e3c
000002c0: fac0 cf3a 0d09 be3a 583e 103d c5c9 353c
000002d0: d2f0 5f3d 7209 e7bc 95f1 323b ad4c f23c
000002e0: 9003 3a3d b750 18bc 2964 0d3c 409f 5d3d
000002f0: 3bc5 193d 6c71 1b3c ed53 933d f995 ddbc
00000300: 5e3d 14bd 73fb fdbc c34d fdbb 1b50 60bc
00000310: 9b8b 0abd 38b6 ff3c e6c2 b13b 8d1a 3c3d
00000320: 5602 453d 9aa6 d3bb 429b 233d 942a 2d3d
00000330: ee56 89bc afdb 1cbd a4bb c33c 76ac 933c
00000340: a4fd 57bc 56cd 2bbd ade2 973c 91a2 25bd
00000350: b129 e9bc 3299 c63c 7fbf 953c 53e0 32bc
00000360: 2c47 9fbc 103d 2b3a 3a94 333d f884 1e3d
00000370: 1cfb 52bd 9034 243d 4fe5 493d 5623 ae3c
00000380: c277 b6bc eabe 183d 90c7 59bd 96b1 6fba
00000390: 58c4 b43c ff3d 1c3d 7304 f53c bc65 55bd
000003a0: 0254 dbbc 5eca f4bc 2e2a cabc af1e 2d3b
000003b0: 55a2 ecbc dba8 1ebd b23c e63c c056 d73c
000003c0: a9dd 173b 3a3b 5b3c 2811 71bd 4da5 5bbd
000003d0: 0b95 56bd 62cf 1c3d eb73 2c3d e3ac 843c
000003e0: a112 87bd 23ea 033d 7445 c1bb 04d5 7fbd
000003f0: c179 323d a419 fb3c ba71 ef3c a398 9ebc

encoder.block2.block.0.bias f4 [32]
0.11294692 0.06406767 -0.015118642 0.061036803 0.07365242 0.093969904 -0.0026941532 0.093838535
-0.038077485 -0.024531601 0.047647666 0.10550173 0.11191172 0.054872926 0.07430735 0.0640813
0.004722908 0.019281363 0.014814753 0.04075018 0.092741325 -0.020303717 0.063032724 0.031088844
0.08641538 0.011705247 0.06130657 0.043985438 0.070719175 0.025132611 -0.011033431 0.039692003
00000000: b750 e73d e935 833d 2eb4 77bc ba01 7a3d
00000010: 14d7 963d 4b73 c03d 6490 30bb 6b2e c03d
00000020: 23f7 1bbd 7ff6 c8bc 332a 433d 4b11 d83d
00000030: f931 e53d 6fc2 603d 742e 983d 0e3d 833d
00000040: a0c2 9a3b f3f3 9d3c 94b9 723c a9e9 263d
00000050: 2aef bd3d fb53 a6bc 4d17 813d 08ae fe3c
00000060: 8cfa b03d 5dc7 3f3c 991c 7b3d 132a 343d
00000070: 37d5 903d e8e2 cd3c 90c5 34bc 1594 223d

encoder.block2.block.2.weight f4 [32]
0.9699115 0.98860794 0.97923017 0.98255634 0.9752855 0.94882905 0.9806774 0.9640315
0.9735559 0.985866 0.9835503 0.9694268 0.94310963 0.9750162 0.9746583 0.98931986
0.9713189 0.9780969 0.95353687 0.97554845 0.9732261 0.9710733 0.9723552 0.9732178
0.9711936 0.9765644 0.9812744 0.96677405 0.9730285 0.97600543 0.97345686 0.9692555
00000000: 1f4c 783f 6915 7d3f d4ae 7a3f d088 7b3f
00000010: 4fac 793f 76e6 723f ad0d 7b3f c5ca 763f
00000020: f63a 793f b761 7c3f f4c9 7b3f 5b2c 783f
00000030: a26f 713f a99a 793f 3583 793f 1144 7d3f
00000040: 5ba8 783f 8f64 7a3f fe1a 743f 8bbd 793f
00000050: 5825 793f 4398 783f 45ec 783f cd24 793f
00000060: 25a0 783f 2000 7a3f cd34 7b3f 817e 773f
00000070: 6518 793f 7edb 793f 7834 793f 2121 783f

encoder.block2.block.2.bias f4 [32]
-0.03051081 -0.0047317287 0.033468075 -0.0018250953 -0.02395096 0.0351106 -0.029741129 0.032039553
0.016233705 -0.030264508 0.01504486 -0.050386626 0.07212379 0.0057470896 0.007971359 0.010309292
-0.0017728119 0.039237868 -0.022505863 0.03292757 -0.032844014 0.011983144 0.07170228 -0.028947785
0.017764231 -0.0027567372 -0.026555967 0.040134534 0.029177252 -0.005281092 0.024461508 -0.027012771
00000000: cef1 f9bc 9e0c 9bbb d215 093d 0938 efba
00000010: ce34 c4bc 22d0 0f3d aba3 f3bc e83b 033d
00000020: 8cfc 843c 46ed f7bc b77e 763c 3562 4ebd
00000030: a3b5 933d 1552 bc3b 4e9a 023c 4ee8 283c
00000040: b25d e8ba e3b7 203d 375e b8bc 0fdf 063d
00000050: 7287 06bd f354 443c a5d8 923d e823 edbc
00000060: 4b86 913c 60aa 34bb e68b d9bc 1c64 243d
00000070: 2205 ef3c 030d adbb 8063 c83c e349 ddbc

encoder.block2.block.2.running_mean f4 [32]
1.1357601 1.2709669 1.1297337 1.2370019 1.2796569 1.0189346 1.2631227 1.2411801
1.2508782 1.0681216 1.3372748 1.1014444 1.0151399 1.1008956 0.9668342 1.4988064
0.8283642 1.165116 1.0997375 1.1408004 1.3463882 1.1906472 1.0920589 1.159862
1.3872331 1.0826635 1.2468755 1.1135181 1.2538592 1.1341499 1.2188593 1.3971989
00000000: 9660 913f 0baf a23f 1d9b 903f 1456 9e3f
00000010: cccb a33f 736c 823f 01ae a13f fdde 9e3f
00000020: c71c a03f 35b8 883f d22b ab3f 21fc 8c3f
00000030: 1bf0 813f 26ea 8c3f 7282 773f e3d8 bf3f
00000040: ad0f 543f 8522 953f 33c4 8c3f bf05 923f
00000050: 7356 ac3f 2167 983f 96c8 8b3f 5c76 943f
00000060: db90 b13f b894 8a3f 9e99 9f3f c387 8e3f
00000070: 757e a03f d32b 913f 9503 9c3f 6ad7 b23f

encoder.block2.block.2.running_var f4 [32]
2.6624765 3.4781666 2.6024497 3.239035 3.6780536 2.2612844 3.337033 3.122756
3.3710537 2.5190444 3.6505265 2.4316115 2.0773604 2.5041237 1.8796475 4.9533825
1.4261464 2.7475867 2.386885 2.8404834 4.06178 3.4282544 2.6282773 2.7986405
4.337476 2.374194 3.1550574 2.7219634 3.6669137 2.8103244 3.0344915 4.3138504
00000000: 0466 2a40 489a 5e40 898e 2640 594c 4f40
00000010: 3b65 6b40 e2b8 1040 f391 5540 3cdb 4740
00000020: 58bf 5740 0638 2140 3aa2 6940 869f 1b40
00000030: 79f3 0440 9043 2040 4a98 f03f 1c82 9e40
00000040: f78b b63f 76d8 2f40 b9c2 1840 7bca 3540
00000050: 1afa 8140 8568 5b40 b235 2840 ed1c 3340
00000060: 9acc 8a40 cbf2 1740 76ec 4940 a634 2e40
00000070: b7ae 6a40 5bdc 3340 1c35 4240 100b 8a40

encoder.final.block.0.weight f4 [3, 32, 3, 3]
-0.03300199 0.015817823 0.010734431 -0.03654326 -0.044928037 0.028343048 -0.025288686 -0.018110327
0.043103438 0.0413333 0.0077957953 0.010934846 -0.028131617 0.034569964 -0.032380052 -0.01778921
-0.015190135 -0.048834525 0.0044787666 0.057335064 0.039571296 0.044018216 0.002077205 -0.005635701
-0.012341468 0.01376782 -0.009097328 0.03860594 -0.0015020851 -0.035947043 0.016590323 0.0030558752
-0.00919821 -0.0021699604 0.040804923 0.015916169 -0.02480673 -0.022868013 0.049069025 0.012345938
-0.038349245 -0.021714535 0.0303982 -0.015055878 0.045378245 -0.020404868 -0.0098685995 -0.020516051
0.042149246 0.04134668 -0.015042006 -0.007394602 -0.02474557 0.029529711 -0.009021103 0.03232928
-0.014262909 -0.017470406 -0.014946902 0.007140444 0.0055476753 0.036849175 -0.036488794 0.022860756
0.02207922 -0.044097368 0.000492778 -0.00028858992 0.031865902 0.022509554 -0.011055842 0.0027396202
0.00521671 -0.031381443 0.027672129 -0.038337987 0.010036675 -0.012896919 0.035001736 0.031299394
0.049481545 0.00078307727 -0.026762268 -0.008932848 -0.03575919 -0.028317891 0.0049708593 0.003167249
-0.05660317 -0.01925472 -0.0072130235 0.050113413 0.028441647 -0.008876441 0.027844137 0.05781271
0.049502786 -0.019803835 -0.01912743 0.0038545637 0.00498341 -0.023398608 0.045051366 -0.002434054
0.0070741656 0.032402404 -0.026392117 0.0056618648 0.03698851 -0.024014136 0.013894179 -0.017826375
-0.022025669 -0.04084248 -0.016921256 0.041570738 0.010864836 0.032106895 -0.030579654 0.033915285
0.023236372 0.043414813 0.023156883 -0.03485712 -0.03028237 0.025468701 0.021177648 0.010092365
-0.020227568 -0.010435891 -0.002891189 -0.0013506614 0.023232594 0.0148381 -0.035247363 0.0062055704
-0.034641635 0.025541494 0.035547413 -0.026163492 0.016954083 -0.036953345 -0.043988425 0.029477179
0.042487353 -0.033800405 -0.017324934 -0.032612834 0.0063742907 -0.031885855 -0.011530012 -0.025336368
-0.0062377416 0.005484467 -0.030686906 -0.043587692 -0.007879449 0.03682641 0.016500939 0.030556826
0.04831211 0.04948008 -0.014015202 0.028740468 -0.01878601 -0.00096923293 -0.03571596 0.026779214
-0.021955509 0.04646348 -0.021678993 0.035407636 -0.02324579 0.0006383125 -0.009897521 -0.042308826
-0.020735964 0.042036716 -0.027449409 -0.0149042 -0.01186527 -0.01414165 0.03415009 0.0076659555
-0.04974695 0.02429274 0.0031535304 0.0050366237 -0.023148369 0.035237465 0.01324699 0.025451599
0.028308786 -0.027260687 0.017629186 -0.015165512 -0.040437117 -0.015804386 -0.03960665 0.0078005376
0.006129111 0.04511382 -0.016972968 -0.028689057 0.021885522 0.01320511 0.023762293 -0.009011015
-0.031694885 -0.0011821815 -0.05081321 -0.019957408 0.0385846 0.046211272 0.036541123 -0.006251715
-0.035187304 0.03775277 -0.0528903 -0.03504389 0.060498845 -0.031573765 -0.040056616 0.044803247
-0.0020255747 -0.017829683 -0.056210455 0.0029476776 0.014826656 -0.02802882 -0.0059025916 -0.04216408
0.039090965 -0.012249076 -0.0022547334 -0.04842015 0.057254177 0.009851558 -0.0272157 -0.024179883
-0.052910972 -0.03670424 -0.017419241 0.033816703 0.05205553 -0.022049412 -0.029880902 0.042190343
0.0219743 -0.042676352 0.038457207 -0.03478917 0.0041557373 0.040902864 -0.0301441 -0.016512109
00000000: 182d 07bd 6194 813c 78df 2f3c 63ae 15bd
00000010: 7606 38bd ae2f e83c 382a cfbc 1c5c 94bc
00000020: 3b8d 303d 1b4d 293d df73 ff3b 1128 333c
00000030: 4774 e6bc 3c99 0d3d f2a0 04bd adba 91bc
00000040: 0be0 78bc b606 48bd 9ec2 923b 2cd8 6a3d
00000050: 8315 223d 724c 343d b821 083b b0ab b8bb
00000060: de33 4abc 6c92 613c f60c 15bc 4321 1e3d
00000070: 9de1 c4ba 353d 13bd 6ee8 873c 1445 483b
00000080: 17b4 16bc e535 0ebb 1023 273d a062 823c
00000090: 7c37 cbbc b355 bbbc 9afc 483d 9e46 4a3c
000000a0: 1914 1dbd aee2 b1bc a505 f93c eeac 76bc
000000b0: 8ade 393d 1c28 a7bc e8af 21bc 4711 a8bc
000000c0: b0a4 2c3d 235b 293d bf72 76bc 6b4e f2bb
000000d0: 39b7 cabc 4be8 f13c 40cd 13bc b56b 043d
000000e0: faae 69bc 191e 8fbc dae3 74bc 63fa e93b
000000f0: 46c9 b53b 29ef 163d 4675 15bd 7b46 bb3c
00000100: 7bdf b43c 719f 34bd c62d 013a e24d 97b9
00000110: d285 023d f565 b83c 9023 35bc 338b 333b
00000120: eff0 aa3b d489 00bd a9b0 e23c 4b08 1dbd
00000130: de70 243c 994d 53bc fb5d 0f3d cb33 003d
00000140: 29ad 4a3d 6d47 4d3a 8b3c dbbc 155b 12bc
00000150: 3a78 12bd ecfa e7bc 97e2 a23b 9f91 4f3b
00000160: bad8 67bd 13bc 9dbc 3a5b ecbb b943 4d3d
00000170: 75fe e83c 7e6e 11bc 6319 e43c 05cd 6c3d
00000180: 6fc3 4a3d a73b a2bc 21b1 9cbc d99c 7c3b
00000190: df4b a33b 70ae bfbc c887 383d a684 1fbb
000001a0: 67ce e73b 62b8 043d 4834 d8bc 2a87 b93b
000001b0: 4481 173d 4bb9 c4bc 69a4 633c 9e08 92bc
000001c0: 2d6f b4bc 724a 27bd 729e 8abc 1446 2a3d
000001d0: 6d02 323c 8582 033d 2f82 fabc c1ea 0a3d
000001e0: 345a be3c bbd3 313d 81b3 bd3c 57c6 0ebd
000001f0: bc12 f8bc bda3 d03c bf7c ad3c 725a 253c
00000200: 49b4 a5bc 4dfb 2abc 1a7a 3dbb ad08 b1ba
00000210: 4852 be3c 811b 733c 8a5f 10bd 1958 cb3b
00000220: 63e4 0dbd 653c d13c 2a9a 113d d254 d6bc
00000230: 4ae3 8a3c 645c 17bd 352d 34bd 207a f13c
00000240: 3807 2e3d 4b72 0abd 05ed 8dbc 0995 05bd
00000250: 6ddf d03b be9a 02bd 60e8 3cbc 378e cfbc
00000260: f865 ccbb 0bb7 b33b 1b63 fbbc 0289 32bd
00000270: ce18 01bc 4ad7 163d fa2c 873c 4f52 fa3c
00000280: ebe2 453d a0ab 4a3d 05a0 65bc 2171 eb3c
00000290: 1ee5 99bc 1f14 7eba e64a 12bd 1560 db3c
000002a0: 0adc b3bc 7d50 3e3d 2598 b1bc 9907 113d
000002b0: f46d bebc 6d54 273a 3629 22bc 054c 2dbd
000002c0: 78de a9bc b12e 2c3d 95dd e0bc bf30 74bc
000002d0: 8d66 42bc 61b2 67bc f7e0 0b3d b232 fb3b
000002e0: 75c3 4bbd 9101 c73c 76ab 4e3b 430a a53b
000002f0: a6a1 bdbc 2955 103d e709 593c df7f d03c
00000300: d4e7 e73c ce51 dfbc 156b 903c c578 78bc
00000310: 64a1 25bd 3378 81bc 953a 22bd a79b ff3b
00000320: b6d6 c83b 45c9 383d e50a 8bbc 5005 ebbc
00000330: 4449 b33c 3f5a 583c 24a9 c23c f0a2 13bc
00000340: 7fd2 01bd 6ef3 9aba 8321 50bd b87d a3bc
00000350: e30a 1e3d 0848 3d3d 25ac 153d 30db ccbb
00000360: 9020 10bd a6a2 1a3d 80a3 58bd 2f8a 0fbd
00000370: a3cd 773d 7e53 01bd 6812 24bd 9c83 373d
00000380: 81bf 04bb 8e0f 92bc ef3c 66bd d32d 413b
00000390: 81eb 723c b29c e5bc 876a c1bb 3eb4 2cbd
000003a0: d91d 203d 59b0 48bc 26c4 13bb 3554 46bd
000003b0: 5b83 6a3d 6e68 213c 76f3 debc e414 c6bc
000003c0: 2db9 58bd 2f57 16bd ccb2 8ebc 6283 0a3d
000003d0: 2e38 553d f8a0 b4bc cbc8 f4bc c8cf 2c3d
000003e0: 7203 b43c 66cd 2ebd 4e85 1d3d 177f 0ebd
000003f0: da2c 883b c389 273d c2f0 f6bc 6744 87bc

encoder.final.block.0.bias f4 [3]
-0.023217263 0.019982636 -0.012743749
00000000: 2132 bebc a0b2 a33c 28cb 50bc

decoder.initial.block.0.weight f4 [32, 3, 3, 3]
-0.10831518 -0.08446095 -0.060453814 -0.08654091 -0.12504339 -0.0022556218 0.19310702 0.19547682
0.09724494 0.010736027 0.028370028 0.099684834 0.020394588 -0.009107455 -0.033420216 -0.14461656
0.14217338 -0.15076119 0.03251487 0.119341254 0.11774534 0.10661666 -0.1645232 -0.12445798
0.041088287 0.026590692 -0.13623329 -0.0048191794 0.18399881 -0.04586313 -0.106257804 0.098459795
0.07791328 0.021801254 -0.11318249 -0.18223841 0.122095086 -0.18367401 0.10415929 0.061275363
-0.19580165 -0.13262375 0.13363534 -0.043167144 -0.11817182 -0.16086546 -0.020283163 -0.15901662
0.08150099 0.044926286 -0.0055204057 0.035111878 0.091913834 -0.07247907 0.13698368 -0.17342074
-0.20587553 0.116458654 -0.15333855 0.19940716 0.16800895 0.07485236 0.1120598 0.117199466
-0.013616664 -0.11696351 -0.04789278 -0.14406222 0.14729476 -0.20280953 0.02993088 -0.13110586
-0.041276406 -0.16996373 0.04591149 -0.028915191 0.11688171 -0.053291194 0.1802285 0.15244582
0.07330521 0.12736638 -0.075695045 0.0102593 -0.15278628 -0.14691721 0.040145185 0.062018756
-0.01268821 -0.07581812 -0.054711986 0.11245488 -0.15060557 0.15587962 -0.05130832 0.16752583
0.15763885 0.16652808 0.06306535 -0.027471708 -0.10635071 0.15929523 0.07082715 -0.16888408
-0.12633315 0.09799661 0.0054247146 -0.18474711 0.03845583 -0.07450829 -0.041883655 -0.020089101
-0.082467146 0.099122934 -0.17702492 0.20493563 0.18180683 0.15541513 0.010626096 -0.121384166
0.19449636 -0.082622774 -0.16912833 -0.040321138 0.027351657 -0.10719645 0.06673212 -0.019789765
0.17185065 0.048573162 -0.08824607 0.023251584 0.020529654 -0.11817793 -0.029491547 0.12778078
0.031552095 0.02169633 0.17123042 0.019737033 -0.10543028 -0.19673243 -0.060255993 0.2006211
-0.016307741 -0.051720034 0.0637662 0.020306434 -0.13132463 0.15776983 0.00027965038 0.19672266
-0.011365405 -0.16209541 -0.13099822 0.14228407 0.05536356 0.10146603 0.1332268 0.17005157
-0.051363923 -0.20357977 -0.11423893 0.0956362 0.046549007 0.11729288 -0.20718603 -0.036361665
0.13641378 0.062271453 -0.06996231 0.031897195 0.004656253 0.026146628 0.021238303 0.12440378
-0.14625469 -0.16365446 0.033955004 0.004289146 0.025827633 -0.16544497 -0.036625374 -0.019239979
0.13474302 0.1611819 0.055154726 -0.18314077 0.06763592 -0.075469956 0.114117384 0.12809978
-0.033727303 0.040411152 0.048877284 -0.09934526 0.07377724 -0.050552193 -0.16843447 0.0963844
0.06598239 0.21633731 0.023374466 -0.0004548349 0.06328854 -0.009150994 0.082479276 -0.11105687
0.1585828 -0.0057848343 0.017261237 0.14681047 -0.048326254 0.01892306 0.080702394 -0.088300094
-0.037072957 0.13050197 -0.15034834 -0.12771055 -0.073772766 0.082386635 -0.119401135 0.1334935
0.014514085 -0.15144514 -0.116274014 -0.01239727 -0.0886391 -0.13854943 -0.029409094 -0.110099494
-0.11966408 0.12649517 0.10830808 -0.005080182 0.13489202 -0.024125785 0.025066832 -0.14868762
0.11184815 0.025719495 0.058529884 -0.042438533 0.015193485 0.110943936 -0.16915856 0.04004865
0.040634602 -0.0982011 0.17737915 -0.13646114 0.116849646 0.16517043 0.10001034 -0.0038581279
00000000: 59d4 ddbd ddf9 acbd 6b9e 77bd 5c3c b1bd
00000010: 600b 00be 0ed3 13bb d9bd 453e 132b 483e
00000020: 5b28 c73d 29e6 2f3c 4368 e83c 9027 cc3d
00000030: 8d12 a73c 6f37 15bc a3e3 08bd 5d16 14be
00000040: e695 113e 2461 1abe 502e 053d 3069 f43d
00000050: 7824 f13d d659 da3d c578 28be d3e3 febd
00000060: 314c 283d b9d4 d93c bd80 0bbe 35ea 9dbb
00000070: 2f6a 3c3e fada 3bbd b19d d9bd 4aa5 c93d
00000080: ff90 9f3d 8b98 b23c 39cc e7bd b59c 3abe
00000090: fd0c fa3d 0a15 3cbe 7751 d53d e0fb 7a3d
000000a0: 3a80 48be 85ce 07be b4d7 083e 08d0 30bd
000000b0: 1104 f2bd eab9 24be e028 a6bc 41d5 22be
000000c0: fee9 a63d a004 383d 85e4 b4bb 79d1 0f3d
000000d0: 523d bc3d e86f 94bd 7345 0c3e 3595 31be
000000e0: 09d1 52be e081 ee3d c804 1dbe 6431 4c3e
000000f0: 8a0a 2c3e 324c 993d 9c7f e53d 4606 f03d
00000100: 6e18 5fbc 918a efbd 382b 44bd 0c85 13be
00000110: 70d4 163e 4dad 4fbe 9b31 f53c 9d40 06be
00000120: 7311 29bd f90a 2ebe b00d 3c3d 8ddf ecbc
00000130: ae5f ef3d de47 5abd d28d 383e c21a 1c3e
00000140: 0b21 963d 556c 023e 0106 9bbd 9f16 283c
00000150: 0274 1cbe 7771 16be 476f 243d 6107 7e3d
00000160: 36e2 4fbc 8846 9bbd ad19 60bd be4e e63d
00000170: 5938 1abe e89e 1f3e ac28 52bd e48b 2b3e
00000180: 146c 213e 5686 2a3e 6828 813d 590c e1bc
00000190: 67ce d9bd 4a1e 233e d30d 913d f3ef 2cbe
000001a0: 7a5d 01be 72b2 c83d cec1 b13b 592e 3dbe
000001b0: dc83 1d3d cd97 98bd 328e 2bbd e691 a4bc
000001c0: 89e4 a8bd f700 cb3d 0546 35be a5da 513e
000001d0: 922b 3a3e 2525 1f3e 1419 2e3c 4398 f8bd
000001e0: 0e2a 473e 2136 a9bd fa2f 2dbe c727 25bd
000001f0: 9510 e03c d089 dbbd daaa 883d 251e a2bc
00000200: 9ef9 2f3e a7f4 463d 5bba b4bd 1b7a be3c
00000210: ce2d a83c 4507 f2bd 4298 f1bc f7d8 023e
00000220: c53c 013d 80bc b13c 0757 2f3e 8faf a13c
00000230: d5eb d7bd 3a74 49be fdce 76bd 9e6f 4d3e
00000240: d097 85bc 63d8 53bd da97 823d ae59 a63c
00000250: f779 06be 6a8e 213e 0a9e 9239 aa71 493e
00000260: f735 3abc 57fc 25be 6624 06be eab2 113e
00000270: e6c4 623d 6ccd cf3d 9b6c 083e 0022 2e3e
00000280: fa62 52bd 3777 50be 1af6 e9bd e9dc c33d
00000290: 2caa 3e3d 4037 f03d 9328 54be f8ef 14bd
000002a0: 0eb0 0b3e 5a10 7f3d 6648 8fbd a2a6 023d
000002b0: 7b93 983b 7431 d63c f3fb ad3c 69c7 fe3d
000002c0: cac3 15be 0995 27be 6714 0b3d f78b 8c3b
000002d0: 7994 d33c 686a 29be 7d04 16bd 299d 9dbc
000002e0: 13fa 093e de0c 253e ece9 613d 4189 3bbe
000002f0: b484 8a3d fe8f 9abd 60b6 e93d 972c 033e
00000300: a425 0abd 2a86 253d 8c33 483d 8775 cbbd
00000310: 8618 973d d10f 4fbd 167a 2cbe 2f65 c53d
00000320: c621 873d 8787 5d3e cf7b bf3c e876 eeb9
00000330: 6c9d 813d 0dee 15bc e5ea a83d c971 e3bd
00000340: 8863 223e b58e bdbb 7067 8d3c 7c55 163e
00000350: c0f1 45bd 8804 9b3c 4c47 a53d aed6 b4bd
00000360: d0d9 17bd 4fa2 053e eaf4 19be 8ec6 02be
00000370: 2d16 97bd 53ba a83d 9588 f4bd 85b2 083e
00000380: 7ccc 6d3c 6f14 1bbe 1221 eebd eb1d 4bbc
00000390: 6b88 b5bd e7df 0dbe 57eb f0bc d87b e1bd
000003a0: 7112 f5bd f387 013e a0d0 dd3d a877 a6bb
000003b0: 2221 0a3e 70a3 c5bc f558 cd3c 9141 18be
000003c0: a510 e53d b1b1 d23c 08bd 6f3d 07d4 2dbd
000003d0: 18ee 783c 9336 e33d e737 2dbe 0e0a 243d
000003e0: 7870 263d a91d c9bd e1a2 353e 78bc 0bbe
000003f0: de4e ef3d 7022 293e 39d2 cc3d a5d8 7cbb

decoder.initial.block.0.bias f4 [32]
0.028049849 -0.1889764 0.2021554 0.12992997 0.057577055 0.028353786 0.070345215 0.07641278
0.13055794 -0.08772117 0.09313863 0.07137868 -0.06645899 0.023445347 0.16454183 0.10103493
0.1753606 -0.01800598 0.04723056 0.13157475 -0.18048422 0.16323881 0.090758644 0.2562762
0.18195291 -0.03571981 0.023461405 0.07745643 -0.2130608 0.08866111 0.13003731 0.17080525
00000000: ccc8 e53c 0883 41be d301 4f3e 5d0c 053e
00000010: ebd5 6b3d 3346 e83c 2711 903d 4e7e 9c3d
00000020: fbb0 053e 28a7 b3bd 77bf be3d fc2e 923d
00000030: a71b 88bd 7510 c03c a77d 283e 67eb ce3d
00000040: bb91 333e 4781 93bc d574 413d 88bb 063e
00000050: dbd0 38be 1328 273e abdf b93d a236 833e
00000060: dd51 3a3e ef4e 12bd 2232 c03c 7aa1 9e3d
00000070: 9c2c 5abe f593 b53d 8028 053e 92e7 2e3e

decoder.initial.block.2.weight f4 [32]
0.97002816 0.9941762 0.9972974 1.0067679 0.9989594 0.99744 1.0539631 0.99749357
0.8875254 0.953909 1.0010527 0.98132926 0.981315 0.9390278 1.0087992 1.0226758
1.0610114 0.93985605 0.96174985 0.9487325 0.9794619 1.0159816 1.0172358 0.972254
1.0143758 0.9814129 1.0078975 0.88695496 0.9769055 0.8466234 1.0287546 1.0027037
00000000: c453 783f 5582 7e3f e24e 7f3f c5dd 803f
00000010: cebb 7f3f 3a58 7f3f 43e8 863f bd5b 7f3f
00000020: dd34 633f 6133 743f 7f22 803f 6538 7b3f
00000030: 7637 7b3f 2064 703f 5520 813f 0ae7 823f
00000040: 39cf 873f 689a 703f 3d35 763f 22e0 723f
00000050: 04be 7a3f af0b 823f c834 823f a3e5 783f
00000060: 11d7 813f e03d 7b3f c902 813f 7b0f 633f
00000070: 7b16 7a3f 50bc 583f 3bae 833f 9858 803f

decoder.initial.block.2.bias f4 [32]
-0.0358904 0.048627697 0.00393992 0.030614572 0.112214774 0.02420279 0.027879607 -0.011742455
-0.07163979 0.07129022 0.03491168 0.0043775328 -0.046126734 0.009099977 -0.07855043 -0.027029676
0.060399413 -0.00599374 0.054482307 -0.020046972 -0.022306198 0.0033626861 0.0046877577 0.0825502
-0.002216621 0.034008004 -0.08653714 0.012393284 0.11549348 0.049651783 -0.05238889 -0.023237364
00000000: d001 13bd d62d 473d 721a 813b 69cb fa3c
00000010: dcd0 e53d ee44 c63c c663 e43c 6d63 40bc
00000020: e2b7 92bd 9b00 923d 8dff 0e3d 6871 8f3b
00000030: 63ef 3cbd 1218 153c 0cdf a0bd 576d ddbc
00000040: 6065 773d 2367 c4bb d728 5f3d 8c39 a4bc
00000050: 7dbb b6bc 8360 5c3b c39b 993b 1410 a93d
00000060: bb44 11bb fa4b 0b3d 623a b1bd 330d 4b3c
00000070: d887 ec3d ab5f 4b3d bc95 56bd 495c bebc

decoder.initial.block.2.running_mean f4 [32]
0.03218908 -0.0041767 0.2867133 0.16649531 0.09088118 0.26585177 0.072917305 0.40214142
0.010812227 0.20282196 0.6167966 0.14555827 0.2018133 0.02569061 0.17928372 0.114396304
0.18845975 0.009799689 0.15227194 0.22390994 -0.0037491042 0.18035756 0.10207523 0.26741493
0.19917326 0.31772316 0.2542619 0.031986803 -0.0044324575 0.00734587 0.13843998 0.20898442
00000000: b2d8 033d b3dc 88bb 16cc 923e bf7d 2a3e
00000010: e91f ba3d b91d 883e ab55 953d 7be5 cd3e
00000020: c425 313c 8fb0 4f3e 62e6 1d3f 3a0d 153e
00000030: 25a8 4e3e 1d75 d23c 2796 373e 9c48 ea3d
00000040: 98fb 403e e08e 203c 2ded 1b3e a648 653e
00000050: 88b3 75bb a7af 383e d10c d13d 9cea 883e
00000060: 13f4 4b3e 9cac a23e 9e2e 823e 9804 033d
00000070: 263e 91bb a0b5 f03b 36c3 0d3e 0300 563e

decoder.initial.block.2.running_var f4 [32]
0.00084138 9.450703e-07 0.004988322 0.0022288158 0.0012179317 0.008683934 0.00031097987 0.01699213
0.00073365326 0.01383325 0.042469807 0.001611553 0.011346097 0.0016966255 0.0010703471 0.00071752095
0.0010224596 0.00091076153 0.005770677 0.007267452 6.6258815e-07 0.0008994249 0.00066846615 0.006266414
0.0012887997 0.018497933 0.008045213 0.002159387 1.0456251e-06 0.00038332058 0.00066488556 0.0018432138
00000000: 0e90 5c3a bdb0 7d35 1475 a33b 5311 123b
00000010: 02a3 9f3a 0f47 0e3c 030b a339 1433 8b3c
00000020: a352 403a dba4 623c d2f4 2d3d bf3a d33a
00000030: fbe4 393c 4e61 de3a e44a 8c3a 0418 3c3a
00000040: 0d04 863a 2cc0 6e3a f217 bd3b ce23 ee3b
00000050: b6dc 3135 62c7 6b3a 013c 2f3a 7e56 cd3b
00000060: f1ec a83a fa88 973c 12d0 033c 8184 0d3b
00000070: 6857 8c35 6bf8 c839 b74b 2e3a fe97 f13a
