models/leaky/LeakyBasicSteganoGAN/6/epoch_8.pth (torch, 330836 bytes, 59 tensors)

encoder.initial.block.0.weight f4 [32, 3, 3, 3]
0	0xbdd9d481	-0.10636235
1	0x3e2c3707	0.16817866
2	0x3d9a2475	0.07526485
3	0xbdeba6cd	-0.11506424
4	0x3e09742a	0.1342322
5	0x3b0026e1	0.0019554424
6	0x3e128126	0.14307079
7	0x3e06a754	0.13149768
8	0xbde0be82	-0.109738365
9	0x3da09402	0.0784073
10	0xbc6d0f5a	-0.014468992
11	0xbe1e74a3	-0.15474181
12	0xbc874459	-0.016512083
13	0xbd6ae2df	-0.057345267
14	0x3dcb2da4	0.09920815
15	0xbddf3f39	-0.10900731
16	0x3cc305f9	0.023806559
17	0xbd1963f5	-0.037448842
18	0xbd66aa5e	-0.05631482
19	0xbe17c1bc	-0.14819998
20	0xbe68767f	-0.22701453
21	0xbcedf8d0	-0.029049307
22	0xbe27e1ef	-0.1639478
23	0xbe008e8a	-0.12554374
24	0xbcf1c47c	-0.029512636
25	0x3c947434	0.018121816
26	0xbd322bb3	-0.043498706
27	0x3b3b39cc	0.0028568385
28	0x3e335073	0.17511158
29	0x3dbed31d	0.093176104
30	0xbd9a9703	-0.075483344
31	0x3c3bd3fb	0.011464114
32	0xbe1eab08	-0.1549493
33	0x3e167dbe	0.14696404
34	0x3e348bea	0.17631498
35	0x3e539433	0.20662002
36	0xbcf2fc49	-0.029661315
37	0x3e315d3e	0.17320725
38	0x3de921c4	0.113833934
39	0xbe22ad2a	-0.1588637
40	0x3dd830a5	0.10556153
41	0xbda188e6	-0.078874394
42	0x3dce0234	0.10059014
43	0x3cf23109	0.029564397
44	0x3b97f1ba	0.0046369703
45	0xbdb00e35	-0.0859646
46	0x3c982c5a	0.018575836
47	0x3dc8687b	0.09785553
48	0x3c90fd28	0.01769884
49	0x3e25ab57	0.16178642
50	0x3deae1d6	0.11468856
51	0xbe132579	-0.14369763
52	0xbced4ab0	-0.028966278
53	0xbe01d740	-0.12679768
54	0xbe10896d	-0.14114924
55	0x3e202c81	0.15641977
56	0xbe1dde34	-0.15416795
57	0x3bee307c	0.0072689634
58	0x3e266ef4	0.16253263
59	0x3e1e6995	0.15469964
60	0xbe0b5004	-0.13604742
61	0xbdf46925	-0.11934117
62	0x3d94e4b0	0.07270181
63	0x3e6690f4	0.22516233
64	0x3c8ffee4	0.017577596
65	0xbc71d2c1	-0.01475972
66	0x3e715c6a	0.2357041
67	0x3de87737	0.113508634
68	0x3e475b2e	0.19468376
69	0xbd80eeda	-0.06295557
70	0xbc67199d	-0.014105228
71	0x3d7da8fe	0.06192874
72	0x3e538d01	0.20659257
73	0xbdec6fe3	-0.11544778
74	0x3e490e9e	0.19634482
75	0xbc6e5539	-0.014546686
76	0xbcd9d6f8	-0.026591763
77	0x3e381c27	0.1797949
78	0x3e1b5059	0.15167369
79	0xbdb94f40	-0.09048319
80	0x3e01ad56	0.12663779
81	0xbd2c28ca	-0.042031087
82	0xbc82e789	-0.015979545
83	0x3e2226b1	0.15835072
84	0x3df7d682	0.12101461
85	0x3d2a0d3c	0.041516528
86	0x3dfa43f8	0.12219995
87	0x3ddceb68	0.10787088
88	0xbda0f6f9	-0.07859606
89	0x3d91f0e0	0.071260214
90	0xbd7da9f5	-0.06192966
91	0xbe091022	-0.1338506
92	0x3cf66936	0.030079465
93	0x3cb7321a	0.022362757
94	0x3da123a2	0.078681245
95	0xbd31b0fa	-0.04338167
96	0x3dc802e7	0.097661786
97	0xbd404d52	-0.04694874
98	0xbe13b146	-0.14423093
99	0xbc978a12	-0.018498454
100	0xbe4218de	-0.18954799
101	0xbdf4f60b	-0.119609915
102	0x3d039367	0.032122996
103	0x3e176f90	0.14788651
104	0xbe20ce54	-0.15703708
105	0x3db71a28	0.08940536
106	0xbe0e5b41	-0.13901998
107	0x3d5ef612	0.05443389
108	0xbe006a01	-0.12540437
109	0xbcc7fd88	-0.024412885
110	0x3e090e20	0.13384295
111	0x3def7841	0.116928585
112	0xbdfce66e	-0.123486385
113	0xbe22e609	-0.15908064
114	0xbd32b891	-0.043633047
115	0x3cd23457	0.025659723
116	0xbb5a7b8e	-0.0033337804
117	0x3e3c0e8a	0.18364921
118	0x3e3c02da	0.18360463
119	0xbcb150ee	-0.021645036
120	0xbd07f3ea	-0.0331916
121	0xbb102f5c	-0.0022000885
122	0xbdbcfd72	-0.09228028
123	0xbd8be2a1	-0.068303354
124	0x3d237d22	0.039914258
125	0x3e2a20d2	0.16614082
126	0x3e39c58b	0.18141763
127	0xbd90f08a	-0.07077129
128	0x3dc5f928	0.096666634
129	0x3e769f5e	0.24084231
130	0x3e454697	0.19265209
131	0x3e0cbc2d	0.13743658
132	0x3c782aba	0.015146906
133	0x3e5627a6	0.20913562
134	0x3e37d49e	0.17952201
135	0xbe12876a	-0.14309469
136	0x3e20b8ff	0.1569557
137	0x3d71c941	0.05902982
138	0x3d1dff47	0.03857353
139	0xbe14c14b	-0.1452686
140	0x3dbe56e9	0.092939205
141	0x3dd11abf	0.102101795
142	0x3e0ef643	0.13961129
143	0xbe0fc92e	-0.14041588
144	0xbd4a0a67	-0.049326327
145	0x3e4edd33	0.20201568
146	0x3d2723e2	0.040805705
147	0xbde199f0	-0.110156894
148	0x3e2ae178	0.16687572
149	0x3dd0bd56	0.10192363
150	0x3ddd0c1e	0.10793327
151	0xbd8bd93b	-0.06828543
152	0xbe1d6ae1	-0.15372802
153	0x3e23a344	0.1598025
154	0x3de0f9ee	0.1098517
155	0x3d9552fe	0.0729122
156	0x3e234e42	0.15947822
157	0x3e1090f3	0.14117794
158	0xbd993be9	-0.0748213
159	0xbcfc09fa	-0.030766476
160	0xbcd581dc	-0.026062898
161	0x3d1dceb8	0.03852722
162	0x3d8c3618	0.06846255
163	0xbe049cb0	-0.12950397
164	0x3dbc9045	0.09207205
165	0xbe27a83f	-0.16372775
166	0xbc69cf97	-0.014270685
167	0xbe1df1cf	-0.15424274
168	0xbca1bba3	-0.019742792
169	0xbb02b2b3	-0.0019942939
170	0x3e0527f3	0.1300352
171	0xbd8938d8	-0.06700295
172	0xbe135818	-0.14389074
173	0xbe15b1b9	-0.14618577
174	0x3c9751c2	0.018471602
175	0xbe110d9f	-0.14165352
176	0xbd4fd658	-0.050741524
177	0xbca31c79	-0.019911038
178	0xbc9b8d57	-0.018988295
179	0x3e033aeb	0.12815444
180	0xbe196c4d	-0.1498272
181	0xbe4f2862	-0.20230249
182	0x3dcc38ec	0.099717945
183	0x3d27bf42	0.040953882
184	0xbdc59d78	-0.096491754
185	0xbe2be217	-0.16785465
186	0xbb141ff5	-0.0022602056
187	0xbe40af52	-0.1881688
188	0xbca650e2	-0.02030224
189	0xbe33fe66	-0.17577514
190	0xbd98adeb	-0.07455047
191	0xbdc23486	-0.09482674
192	0x3e29447f	0.16530035
193	0xbd4ffbcd	-0.050777245
194	0x3e117075	0.14203055
195	0xbcfcd97a	-0.03086542
196	0x3dfa7ea8	0.12231189
197	0xbc81d681	-0.015849354
198	0xbd5742d5	-0.05255397
199	0x3e00813a	0.12549296
200	0xbdba4c2e	-0.09096561
201	0xbbd82f9c	-0.0065974724
202	0xbd14b2de	-0.036303394
203	0x3dd323aa	0.10309537
204	0x3e0a6d4c	0.13518256
205	0x3d2810da	0.041031696
206	0x3dd6f512	0.10495962
207	0x3e43c44a	0.19117847
208	0x3e4acd6a	0.19804922
209	0x3e5ca823	0.21548514
210	0xbd5b860d	-0.053594638
211	0x3c09b07b	0.008403893
212	0x3e49a440	0.19691563
213	0x3e3fd105	0.18732078
214	0xbd134bc5	-0.03596093
215	0x3cdcfc00	0.026975632
216	0xbdf471fa	-0.11935802
217	0xbd82f9db	-0.063953124
218	0x3d453916	0.048150145
219	0xbd6049e0	-0.054757953
220	0x3e33d212	0.17560604
221	0xbe088ad3	-0.13334207
222	0xbd201c5a	-0.03908954
223	0xbd77a65f	-0.0604614
224	0xbdd39b21	-0.10332323
225	0xbd35ed48	-0.044415742
226	0x3c8569f0	0.016285866
227	0x3d4b5f0a	0.049651183
228	0x3d119dde	0.035550945
229	0x3ddc7e3c	0.10766265
230	0x3e5ee8cf	0.21768497
231	0x3e286372	0.16444185
232	0x3e231c46	0.15928754
233	0x3deb5591	0.1149093
234	0x3d52ca16	0.051462255
235	0x3e050021	0.1298833
236	0xbca79240	-0.02045548
237	0x3e18a847	0.14907943
238	0x3e2dd969	0.16977467
239	0xbd9b3362	-0.0757816
240	0x3db7bf2d	0.08972011
241	0x3e0f991d	0.14023252
242	0xbe08396b	-0.13303153
243	0xbd28ee3d	-0.041242827
244	0xbdb74e1a	-0.089504436
245	0xbcc28133	-0.023743248
246	0x3e3e45d1	0.1858132
247	0x3e0e408d	0.13891812
248	0x3e3361ec	0.17517823
249	0x3da8f185	0.08249191
250	0x3df65fb3	0.12029972
251	0xbd0f13ad	-0.034930874
252	0xbde05821	-0.10954309
253	0xbcbe89db	-0.023259094
254	0xbe231954	-0.1592763
255	0x3dbfd451	0.09366668

encoder.initial.block.0.bias f4 [32]
0	0x3e0608d9	0.13089313
1	0x3e0f31f5	0.13983901
2	0x3d26eaae	0.04075115
3	0xbd9ec39e	-0.07752155
4	0xbe28f0e4	-0.16498142
5	0x3e38b3e3	0.18037371
6	0x3e0766b6	0.13222775
7	0x3d856cb0	0.06514871
8	0xbe30aecb	-0.17254178
9	0x3d1320c1	0.03591991
10	0x3c7c0e7e	0.015384315
11	0xbe270be0	-0.16313124
12	0x3df5576a	0.119795635
13	0xbd46418d	-0.048402358
14	0x3dc1e13c	0.09466788
15	0xbb331a0a	-0.0027328753
16	0x3e374ec6	0.17901143
17	0xbe049d9c	-0.12950748
18	0xbd424a21	-0.047433976
19	0xbe0dbf8b	-0.13842599
20	0xbe3d4f90	-0.18487382
21	0x3e0d3077	0.13788019
22	0xbdbc0173	-0.09179964
23	0xbe256b45	-0.16154201
24	0xbd14a7f8	-0.036293
25	0x3daad9b9	0.083423086
26	0x3d31d1b1	0.043412868
27	0x3df40bc5	0.11916307
28	0xbe17d168	-0.14825976
29	0x3e0e1d61	0.13878395
30	0x3d39c321	0.045352105
31	0xbe1b975b	-0.15194456

encoder.initial.block.1.weight f4 [32]
0	0x3f80dd16	1.006747
1	0x3f7e58ca	0.9935423
2	0x3f818775	1.0119463
3	0x3f816b83	1.0110935
4	0x3f81d095	1.0141779
5	0x3f7bb0a0	0.98316383
6	0x3f843757	1.0329388
7	0x3f80c5b9	1.006034
8	0x3f821d1c	1.0165133
9	0x3f7eb36d	0.9949253
10	0x3f76063e	0.96103275
11	0x3f822223	1.0166668
12	0x3f80d1c2	1.0064013
13	0x3f8107f8	1.0080557
14	0x3f7ace98	0.9797149
15	0x3f7b2609	0.9810491
16	0x3f7fbc19	0.9989639
17	0x3f81109a	1.0083191
18	0x3f7ea859	0.9947563
19	0x3f818dd8	1.0121412
20	0x3f7e89da	0.99429095
21	0x3f839af8	1.0281668
22	0x3f7fc9f8	0.99917555
23	0x3f782c25	0.9694236
24	0x3f7d0be3	0.9884626
25	0x3f7ada20	0.9798908
26	0x3f7cda61	0.9877072
27	0x3f801465	1.0006224
28	0x3f7a00bc	0.9765737
29	0x3f7d75f6	0.9900812
30	0x3f7759d0	0.9662142
31	0x3f768b55	0.96306354

encoder.initial.block.1.bias f4 [32]
0	0x3c0b9ab4	0.008520771
1	0x3c2943ba	0.010331089
2	0xbcfe8003	-0.0310669
3	0x3c7a8791	0.015291111
4	0xbcc4615a	-0.023972202
5	0xbd2552c9	-0.040362153
6	0xbb7246ce	-0.0036968472
7	0xbcf71cc5	-0.030165086
8	0xbd0106bd	-0.031500567
9	0xbd10689b	-0.03525601
10	0xbc9b91bb	-0.018990388
11	0xbb8dbc90	-0.004325457
12	0xbc03129f	-0.008000045
13	0x3c2abcb9	0.010420972
14	0xbbdbea7d	-0.006711303
15	0x3bf5e101	0.007503629
16	0xbc4ca5b9	-0.012490683
17	0x3bb5a5b7	0.0055434364
18	0xba8d64e4	-0.0010787514
19	0x39963a13	0.00028653498
20	0xbaea395a	-0.0017869875
21	0xbb278028	-0.0025558565
22	0xbc23e1b9	-0.010002547
23	0x3aea7e3b	0.0017890403
24	0x3bda0eb0	0.006654583
25	0x3c21fda3	0.009887132
26	0x3cfedc88	0.031111017
27	0xbc1e563f	-0.009664117
28	0x3cf07c25	0.029356072
29	0xbc8c3fce	-0.017120268
30	0xbc737ebc	-0.014861759
31	0xbbc40dc5	-0.005983087

encoder.initial.block.1.running_mean f4 [32]
0	0xbddbf7ee	-0.10740648
1	0x3f0a9101	0.5412751
2	0x3f1b1bfa	0.60589564
3	0xbd3dd09a	-0.046341516
4	0x3eb320b3	0.34985885
5	0x3f130ef7	0.5744471
6	0xbed64337	-0.41848156
7	0x3f0fcc1f	0.5617084
8	0x3e52e54e	0.20595285
9	0x3e700a4e	0.23441431
10	0x3d0edfb7	0.03488132
11	0xbf0a85c8	-0.54110384
12	0x3f33b89f	0.70203584
13	0x3f17451c	0.5908983
14	0x3dd8c5f6	0.10584633
15	0xbd9de215	-0.07709137
16	0x3edc4d73	0.4302784
17	0xbf030d1d	-0.51191884
18	0x3f05ff86	0.5234302
19	0x3e7210a2	0.23639157
20	0xbf11fe1e	-0.5702838
21	0xbe8f9fc8	-0.2805159
22	0x3eb2e68b	0.34941515
23	0xbe09b822	-0.13449147
24	0xbedbb16f	-0.4290881
25	0x3e8cb053	0.27478275
26	0xbe1e23f9	-0.1544341
27	0x3f4f9014	0.8107922
28	0xbc25455c	-0.010087337
29	0x3ed7d002	0.42150885
30	0x3d6f326d	0.0583977
31	0x3ddcf0a4	0.10788086

encoder.initial.block.1.running_var f4 [32]
0	0x3cd3a4f9	0.025835501
1	0x3d1e8be8	0.038707644
2	0x3dade0f4	0.08490172
3	0x3bc24621	0.00592877
4	0x3daa8294	0.08325687
5	0x3d2b2603	0.041784298
6	0x3da1c0af	0.078980796
7	0x3d8e916c	0.06961331
8	0x3d3fc84e	0.046821885
9	0x3c86f5a5	0.016474554
10	0x3bf20226	0.00738551
11	0x3d0aa385	0.03384735
12	0x3da7e81f	0.081985705
13	0x3dcac775	0.09901325
14	0x3bc88d16	0.0061203344
15	0x3c050c97	0.008120677
16	0x3c8a640e	0.016893413
17	0x3d1df8b8	0.038567275
18	0x3da236a2	0.07920577
19	0x3d0b246e	0.03397029
20	0x3d15b232	0.036546893
21	0x3d2f7ea6	0.04284539
22	0x3d3ae382	0.045627125
23	0x3c1d14ef	0.0095875105
24	0x3d232bfa	0.03983686
25	0x3c597ee7	0.013274885
26	0x3c3969e8	0.011316754
27	0x3de97639	0.11399502
28	0x3be31ca2	0.0069309035
29	0x3ccb9873	0.024852967
30	0x3acfc50d	0.0015851572
31	0x3ca9b5fc	0.02071666

encoder.block1.block.0.weight f4 [32, 38, 3, 3]
0	0xbc8c0804	-0.017093666
1	0xbc37273b	-0.011178787
2	0x3d031eff	0.032011982
3	0x3d2e5b28	0.042567402
4	0xbd340325	-0.04394831
5	0x3c76ad03	0.015055898
6	0xbcb35427	-0.021890713
7	0xbd45ad69	-0.04826108
8	0x3c3541a1	0.01106301
9	0xbd4d1487	-0.050068405
10	0xbd0aa195	-0.033845503
11	0x3c8d704e	0.017265465
12	0xbbbaff50	-0.005706705
13	0x3d784b50	0.0606187
14	0x3d583f5b	0.052794795
15	0xbb6b6749	-0.0035919717
16	0x3b6f8907	0.003655018
17	0x3cd83d0f	0.026396303
18	0x3bcb4706	0.006203535
19	0x3cd7ef35	0.02635918
20	0xbc16fc47	-0.009215421
21	0x3d4fc815	0.050727922
22	0x3c9c373a	0.019069303
23	0x3d7ca462	0.061680205
24	0xbcc0ec64	-0.02355022
25	0xbd1c81b8	-0.038209647
26	0xbc91196b	-0.017712316
27	0x3cd11a4a	0.02552523
28	0x3cb730a0	0.022362053
29	0xbc8d5f07	-0.017257227
30	0xba25a7b3	-0.00063192396
31	0x3c83479c	0.016025357
32	0x3c78f9a0	0.015196234
33	0xbd5031f1	-0.050828878
34	0xbbf29d7e	-0.0074040284
35	0x3c9f4537	0.019442184
36	0x3cb82748	0.022479668
37	0xbd22ea78	-0.039774388
38	0x3d64d9ef	0.0558719
39	0x3d76300d	0.06010442
40	0x3c8b4742	0.017001752
41	0x3cc07584	0.023493536
42	0xbc2f772f	-0.010709568
43	0x3cabc32d	0.02096709
44	0x3c8807f6	0.016605359
45	0xbd06583d	-0.032798994
46	0xbba747f8	-0.005105015
47	0x3bfa53ca	0.007639383
48	0xbbf735f5	-0.007544274
49	0x3d24d02a	0.040237583
50	0x3d51f3ee	0.05125802
51	0xbc3353bc	-0.010945257
52	0x3d041d86	0.03225472
53	0x3ccb71db	0.024834564
54	0xbc8fd03f	-0.017555354
55	0xbb26474c	-0.0025372086
56	0xbd49fda5	-0.04931416
57	0xbca694f9	-0.020334708
58	0x3bce181b	0.0062894947
59	0x3caef624	0.021357603
60	0xbc6f076f	-0.014589175
61	0xbce667bf	-0.028125642
62	0x3d0de731	0.03464431
63	0xbd18ec87	-0.037334945
64	0xba9093d5	-0.0011030386
65	0x3baa5477	0.0051980573
66	0x3d2980ed	0.04138272
67	0x3cb86c6f	0.022512643
68	0xbbbf0cff	-0.0058304067
69	0x3d6a70dd	0.05723654
70	0x3d5ffac9	0.054682527
71	0xbd1e8ef9	-0.038710568
72	0x3d037a5e	0.03209912
73	0xbc2eff1f	-0.010680943
74	0xbd0ff08f	-0.035141524
75	0xbc40d661	-0.011769862
76	0x3bed73c7	0.0072464678
77	0x3d6d97a2	0.058005936
78	0x3d30af47	0.043135908
79	0xbc595244	-0.013264243
80	0xbc55ab7b	-0.013041372
81	0x3b5f324e	0.0034057084
82	0x3d90d11f	0.07071137
83	0xbca4bede	-0.020110544
84	0xbc3fd06c	-0.0117074065
85	0xbba1d41a	-0.0049386146
86	0x3bde00ae	0.0067749834
87	0xbc66062b	-0.0140395565
88	0xbc97b440	-0.018518567
89	0x3d1c5b9e	0.03817331
90	0xbc9e3c88	-0.019315973
91	0x3d39d026	0.04536452
92	0x3d4279ab	0.047479313
93	0x3c98b6b8	0.018641815
94	0xbd51d23b	-0.051225882
95	0x3c2ea543	0.010659519
96	0xbca471f6	-0.020073872
97	0xbc5f0601	-0.013612271
98	0xba394d23	-0.0007068684
99	0xbd81ee30	-0.06344259
100	0xbc86804c	-0.016418599
101	0x3c2feaf6	0.010737171
102	0x3cf372cc	0.029717825
103	0x3caf084b	0.02136626
104	0x3d00a65b	0.03140865
105	0xbd327203	-0.04356576
106	0xbccbb883	-0.024868255
107	0xbd565b52	-0.052333184
108	0xbd0e99c1	-0.0348146
109	0x3b9e46a0	0.0048301965
110	0xbd6ceec7	-0.057844903
111	0x3c88d1a6	0.01670153
112	0x3d4a7514	0.04942806
113	0xbc848b0a	-0.01617958
114	0x3d28e699	0.04123554
115	0x3c38f13f	0.011287986
116	0x3ca732ce	0.020409968
117	0xbc977b89	-0.018491523
118	0xbcfbe950	-0.0307509
119	0x3c9c0782	0.019046549
120	0x3d8e9920	0.069628
121	0x3ca7d125	0.02048547
122	0xbd06b84d	-0.032890607
123	0x3ab75467	0.0013986946
124	0x3d8cf6e1	0.06883026
125	0xbc0f36d4	-0.008741099
126	0x3cfc2d65	0.030783365
127	0xbd04de0b	-0.03243832
128	0x3ca12012	0.019668613
129	0xbb7d708e	-0.0038671824
130	0x3cd69ca5	0.02619774
131	0xbaf943ba	-0.0019017376
132	0x3bf4f782	0.0074757943
133	0x3b83d910	0.0040236786
134	0xbc07bd30	-0.008284852
135	0x3cdd2adb	0.026997974
136	0x3cf609d2	0.03003398
137	0xbce7d80e	-0.028301265
138	0x3cc1032a	0.023561079
139	0xbca47db6	-0.020079475
140	0xbd7839e7	-0.060602095
141	0x3c1bf98f	0.009519949
142	0xbd3f8737	-0.04675981
143	0xbd070d2e	-0.032971554
144	0xbd20b773	-0.03923745
145	0xbcc5ac1e	-0.024129923
146	0x3d827126	0.063692376
147	0xbd303ab7	-0.043024745
148	0xbccb20f4	-0.024795987
149	0x3d429ee1	0.0475148
150	0xbc080c1a	-0.0083036665
151	0x3c145a5c	0.0090547465
152	0x3d999a59	0.075001426
153	0xbd882f81	-0.06649686
154	0x3d01d7c0	0.031699896
155	0xbc984446	-0.018587243
156	0x3c8ffc25	0.017576287
157	0x3d0fcfef	0.03511041
158	0xbd4109ab	-0.04712836
159	0xbb79d60b	-0.0038121964
160	0xbcebf04a	-0.028801102
161	0xbd77b9b9	-0.060479853
162	0x3d43a4be	0.047764532
163	0x3ca6cc92	0.020361219
164	0x3d0482b7	0.032351222
165	0x3d18c006	0.037292503
166	0x3bab226c	0.0052226093
167	0x3cbdd2ab	0.023171743
168	0x3d3dbe81	0.046324257
169	0x3d3c1eb2	0.04592771
170	0xbbd64dc2	-0.006540031
171	0x3c471d3b	0.012152965
172	0x3d8c9326	0.06864004
173	0xbc531f8b	-0.012885938
174	0xbc27d8e6	-0.010244584
175	0x3d76b762	0.06023348
176	0x3d03095a	0.03199134
177	0xbb7b1949	-0.0038314632
178	0x3ba42462	0.00500922
179	0x3c294d0e	0.010333313
180	0x3d0d6b64	0.034526244
181	0x3d10f07c	0.035385594
182	0xbd2354ab	-0.039875668
183	0xbcdfd291	-0.027322086
184	0x3be544f1	0.006996744
185	0x3c367f87	0.011138803
186	0xbc62f76b	-0.013852934
187	0x3c3343fd	0.010941503
188	0xbc45946e	-0.012059314
189	0x3b991321	0.00467147
190	0x3c2bbbbb	0.01048177
191	0xbd5ba896	-0.053627573
192	0x3c3b9668	0.011449434
193	0x3d0ecbdf	0.034862395
194	0xbd332245	-0.043733854
195	0x3c2698ed	0.010168296
196	0xbd2913f7	-0.041278806
197	0x3d4b0986	0.04956963
198	0x3d2a5633	0.041586112
199	0xbd021479	-0.031757805
200	0x3d4a29ed	0.04935639
201	0x3c866992	0.016407762
202	0x3d15627d	0.03647088
203	0xbc7794b8	-0.015111141
204	0x3d7d3676	0.061819516
205	0x3ac681b2	0.0015144853
206	0xbc35b024	-0.0110893585
207	0xbbff038a	-0.0077824043
208	0xbd1f83c6	-0.03894403
209	0xbd5da319	-0.05411062
210	0xbb5712f6	-0.0032817698
211	0x3c4e5a50	0.012594774
212	0xbc99c7d8	-0.01877205
213	0x3d26fe8c	0.0407701
214	0x3d7498d8	0.059716076
215	0xbc319a51	-0.010840015
216	0x3d0992ec	0.03358738
217	0xbd61cf00	-0.05512905
218	0x3c72a1f3	0.0148091195
219	0xbd0b9f27	-0.034087326
220	0xbd083af2	-0.03325934
221	0x3ce99941	0.02851546
222	0x3c3d5cda	0.011557782
223	0xbd2d1736	-0.042258464
224	0x3c858c8b	0.016302368
225	0x3ca6b31c	0.020349078
226	0xbcb990be	-0.022652026
227	0xbd3c07c5	-0.045905847
228	0x3d8f63ab	0.07001432
229	0x3d26d269	0.040728007
230	0xbd11ce04	-0.035596862
231	0x3d3176a6	0.043326043
232	0xbc3510fc	-0.011051413
233	0xbcd09aa8	-0.02546437
234	0xbc7bcf25	-0.015369211
235	0xbd4ba2cc	-0.049715802
236	0x3b621e8c	0.003450307
237	0x3c482488	0.012215741
238	0xbd5b6c53	-0.053570103
239	0xbb8da884	-0.004323067
240	0x3cebc0a3	0.02877838
241	0xbd8b4eac	-0.06802115
242	0xbd6e7456	-0.058216415
243	0xbcdceb12	-0.026967559
244	0xbb4bdc60	-0.0031106696
245	0x3c336bde	0.0109510105
246	0xbd1d53fd	-0.038410176
247	0x3d135a5e	0.035974853
248	0xbc869c4e	-0.016431954
249	0xbc8a326d	-0.016869748
250	0x3bf5b4aa	0.0074983435
251	0xbc53b327	-0.012921131
252	0x3c0cbbd4	0.008589704
253	0xbc8dcc9e	-0.017309483
254	0x3b180404	0.0023195753
255	0xbcd3d81e	-0.025859889

encoder.block1.block.0.bias f4 [32]
0	0xbcb0649b	-0.021532347
1	0x3c497cd7	0.012297831
2	0x3cec4a53	0.028844034
3	0xbba9f9a2	-0.0051872293
4	0x3bbd7f87	0.0057830247
5	0xbbee91a8	-0.007280547
6	0x3c4a87b9	0.01236146
7	0xbd19de60	-0.03756559
8	0xbd50b8c0	-0.05095744
9	0xbbedfe85	-0.007263007
10	0xbcc781fe	-0.024353977
11	0x3d06e2d0	0.03293115
12	0x3d591c05	0.053005237
13	0x3bb33871	0.005469375
14	0xbd282330	-0.041049182
15	0x3c7f87ac	0.015596312
16	0x3cc31619	0.023814248
17	0xbd217640	-0.039419413
18	0xbd04de84	-0.03243877
19	0xbd1ea484	-0.038731113
20	0x3c9fe39a	0.019517709
21	0xbcc2cc65	-0.023779104
22	0xbc1c2e14	-0.00953247
23	0xbb4e70b6	-0.0031500286
24	0x3c563a1d	0.013075379
25	0x3cf13727	0.029445244
26	0x3b1fd45f	0.0024388058
27	0xbc2ca672	-0.0105377305
28	0x3c888791	0.016666206
29	0x3d5b1ab9	0.05349228
30	0xbd218a1b	-0.03943835
31	0xbd1300b2	-0.035889335

encoder.block1.block.1.weight f4 [32]
0	0x3f8044fc	1.0021052
1	0x3f80d4ff	1.0065001
2	0x3f7eb9dd	0.99502355
3	0x3f80ccb2	1.0062468
4	0x3f7a76d5	0.97837573
5	0x3f800445	1.0001303
6	0x3f7c59c3	0.98574466
7	0x3f7b0149	0.98048836
8	0x3f7fe033	0.99951476
9	0x3f805683	1.0026401
10	0x3f7dcdb6	0.99142015
11	0x3f79af13	0.9753277
12	0x3f785aae	0.97013366
13	0x3f7a3640	0.9773903
14	0x3f7e9b00	0.9945526
15	0x3f773016	0.9655775
16	0x3f80dd17	1.0067471
17	0x3f7e6e93	0.9938747
18	0x3f7f96c6	0.99839437
19	0x3f81a898	1.0129576
20	0x3f80f65a	1.007518
21	0x3f7f9990	0.9984369
22	0x3f7cffe7	0.98827976
23	0x3f7ef9aa	0.9959971
24	0x3f7c7680	0.98618317
25	0x3f7eed8e	0.9958123
26	0x3f7963ba	0.97417796
27	0x3f7c36b5	0.98520976
28	0x3f789219	0.9709793
29	0x3f7f7649	0.99789864
30	0x3f7ef907	0.99598736
31	0x3f7618cb	0.9613158

encoder.block1.block.1.bias f4 [32]
0	0x3bfda0a0	0.0077400953
1	0x3d12adcc	0.035810277
2	0xb934b326	-0.00017232876
3	0x3d063ac3	0.032770883
4	0x3a2adb03	0.00065176206
5	0x3b80fe37	0.003936555
6	0x3c8799f6	0.016552906
7	0xbb4a94cf	-0.003091145
8	0x3c77fc37	0.015135816
9	0x3b4ea722	0.0031532724
10	0xbbf7f24e	-0.0075667268
11	0x3ce8c4d2	0.028414164
12	0x3acdb9e9	0.0015695664
13	0x3cd10680	0.025515795
14	0x3c069537	0.0082142865
15	0x3c7df48c	0.015500199
16	0x3c7bada6	0.015361225
17	0x3c6af0ab	0.014339606
18	0xbcdcba91	-0.02694443
19	0x3b4579f2	0.00301325
20	0xbcf7dd14	-0.030256785
21	0x3ceb804c	0.0287477
22	0xbd40c587	-0.047063377
23	0x3a1f8dbd	0.00060864893
24	0xbcc80501	-0.024416449
25	0x3c8aff65	0.016967485
26	0xbca4becf	-0.020110516
27	0xbc431226	-0.011906182
28	0xbbebd42c	-0.0071969237
29	0x3b4fcf64	0.0031709308
30	0x3af0fcfa	0.001838594
31	0x3cbb8caa	0.022894222

encoder.block1.block.1.running_mean f4 [32]
0	0x3e8ceb53	0.27523288
1	0x3f579b44	0.8422129
2	0xbf75711b	-0.9587571
3	0xbf33f0f5	-0.70289546
4	0x3dac5958	0.084154785
5	0x3e95782a	0.2919324
6	0x3eb8a773	0.36065254
7	0xbf655629	-0.89584595
8	0xbf8380e8	-1.0273714
9	0xbf80c17c	-1.0059047
10	0xb9616340	-0.00021494646
11	0xbe5469c0	-0.20743465
12	0xbe4216b2	-0.1895397
13	0x3e998cec	0.29990327
14	0xbed35c8c	-0.41281545
15	0xbe7aac09	-0.24479689
16	0xbf56586c	-0.8372867
17	0xbf13bafa	-0.5770718
18	0x3f4e38bd	0.80555326
19	0x3c41a933	0.011820125
20	0xbcde77cc	-0.027156733
21	0xbf63cc0d	-0.8898323
22	0x3f8317d4	1.0241647
23	0x3d34d00d	0.044143725
24	0x3e518285	0.20459945
25	0x3ececf51	0.40392545
26	0x3f1c1778	0.6097331
27	0xbee76822	-0.45196635
28	0x3e014e56	0.12627539
29	0x3c2d7555	0.010587056
30	0xbf3e2895	-0.74280673
31	0xbeaff2d8	-0.34364963

encoder.block1.block.1.running_var f4 [32]
0	0x3f92a4bb	1.1456522
1	0x3faac979	1.3342735
2	0x3f993ace	1.1971071
3	0x3f254081	0.6455155
4	0x3ee5424b	0.4477714
5	0x3f65380d	0.8953865
6	0x3f688b29	0.9083734
7	0x3f74db3a	0.95647013
8	0x3f629a20	0.88516426
9	0x3f868a77	1.0511006
10	0x3f57ee88	0.84348345
11	0x3f173614	0.5906689
12	0x3f2ae0fa	0.66749537
13	0x3f51f7f8	0.82018995
14	0x3f87033c	1.0547862
15	0x3f173b63	0.5907499
16	0x3fb3ffb5	1.406241
17	0x3f835adc	1.0262103
18	0x3f43c1ec	0.76467776
19	0x3e61f7bf	0.22067164
20	0x3edbf720	0.4296198
21	0x401627d0	2.34618
22	0x3ee2227f	0.44166943
23	0x3f1d514a	0.6145216
24	0x3f172642	0.5904275
25	0x3fceab31	1.6145993
26	0x3f43e1a8	0.765162
27	0x3f9135d0	1.1344547
28	0x3f79a1a5	0.97512275
29	0x3efc6b78	0.49300742
30	0x3f5d06ea	0.86338675
31	0x3f468a06	0.7755436

encoder.block2.block.0.weight f4 [32, 32, 3, 3]
0	0xbd2376cc	-0.039908215
1	0x3ca782d5	0.020448128
2	0x3c647a05	0.013945107
3	0x3d3ab7ed	0.04558556
4	0x3d277a75	0.04088827
5	0xbc77699e	-0.015100865
6	0x3d11dbf2	0.035610147
7	0x3d5e1841	0.05422235
8	0x3cf70783	0.030154949
9	0xbb8c1c59	-0.0042758402
10	0x3d87f59c	0.06638643
11	0xbd17ac45	-0.037029523
12	0xbcd6bb3c	-0.026212327
13	0x3da99afe	0.082815155
14	0x3d2af0c5	0.041733522
15	0x3d89dff6	0.0673217
16	0x3c3022ca	0.010750482
17	0x3d720572	0.059087224
18	0x3b813cc6	0.0039440123
19	0x3c813b1d	0.015775258
20	0xbd9175e0	-0.07102561
21	0xbd53f4cf	-0.05174714
22	0xbb04d7ab	-0.002027015
23	0xbd0cc0de	-0.03436362
24	0xbc900035	-0.017578224
25	0xbcbf63db	-0.023363044
26	0xbd1c983e	-0.038231127
27	0xbd4807e0	-0.048835635
28	0xbd593ffc	-0.053039536
29	0x3c634746	0.013871973
30	0xbd072126	-0.032990597
31	0xbc2933b5	-0.010327269
32	0xbd642cac	-0.055706665
33	0xbd48b49f	-0.04900038
34	0xbbcb18d4	-0.006198028
35	0xbc4eb0d7	-0.012615404
36	0x3d2585e8	0.040410906
37	0x3ca89323	0.020577973
38	0xbd2cff07	-0.0422354
39	0x3cfeb192	0.031090531
40	0x3d28bec8	0.04119757
41	0x3c0fbc03	0.008772853
42	0xbc877437	-0.016534908
43	0x3cd6c70f	0.026217965
44	0xbcdd8523	-0.027041024
45	0xbc0eadf6	-0.008708468
46	0xbd6c9ad9	-0.05776486
47	0x3c781d60	0.015143722
48	0xbd4b142c	-0.049579784
49	0x3c4c4135	0.012466718
50	0xbd460786	-0.04834702
51	0x3c331fcb	0.010932873
52	0x3cbedf21	0.023299756
53	0x3d3f5eac	0.046721146
54	0xbd02d6a8	-0.031942993
55	0xbd03c468	-0.03216973
56	0x3d46c637	0.048528876
57	0x3d3fc601	0.04681969
58	0x3ca6a631	0.020342918
59	0x3cd6cd98	0.026221082
60	0x3be7bf44	0.007072361
61	0x3bd25fe5	0.006420123
62	0x3d6213da	0.055194713
63	0xbc4d4f1b	-0.012531067
64	0x3cd6bea9	0.02621396
65	0x3bfab720	0.0076512247
66	0x3cc20255	0.023682753
67	0xbc6afbc2	-0.01434225
68	0xbd1a62fb	-0.03769205
69	0x3bbf1a4c	0.0058319923
70	0x3d4aa36b	0.049472254
71	0xbcdc50e3	-0.026894039
72	0xbd4cd7bb	-0.050010424
73	0x3c989298	0.018624589
74	0xbd5b80f3	-0.053589772
75	0xbc191295	-0.009342809
76	0x3ca35363	0.019937223
77	0xbd696ccf	-0.056988534
78	0xbda3abb8	-0.07991737
79	0xbd948bc5	-0.072532214
80	0xbd98b1f0	-0.07455814
81	0x3cc94f0b	0.024573823
82	0x3cbfaef4	0.023398854
83	0xbd144b5d	-0.036204685
84	0xbb90dbb6	-0.004420723
85	0x3d372e92	0.044722147
86	0xbc35781b	-0.011075999
87	0xbd10f801	-0.035392765
88	0x3cb2321c	0.02175241
89	0xbc53ac9d	-0.012919572
90	0xbb56e20e	-0.0032788548
91	0x3d115b9f	0.035487767
92	0x3c0685f1	0.008210645
93	0x3d669ed9	0.056303833
94	0x3d346dee	0.04405015
95	0x3d5f1b39	0.05446932
96	0x3d6bc393	0.05755956
97	0xbba079f9	-0.004897353
98	0xbd2a0f3d	-0.04151844
99	0xbca1c5e5	-0.019747684
100	0x3c2efea3	0.010680827
101	0xbc23856f	-0.0099805435
102	0xbb7c3258	-0.0038482156
103	0x3d36e03f	0.04464745
104	0x3c87aa7d	0.016560787
105	0x3cc2d37b	0.023782482
106	0x3b5e183d	0.003388896
107	0xbc4732df	-0.012158125
108	0x3b706ed2	0.0036687148
109	0x3caa5dcf	0.020796685
110	0x3cebc6d2	0.028781328
111	0x3d5202b3	0.051272105
112	0x3cf1f972	0.02953789
113	0x3ba06858	0.0048952512
114	0xbc88a599	-0.016680526
115	0xbd1fb1af	-0.03898781
116	0xbd3b5b1b	-0.04574118
117	0x3d8279d4	0.06370893
118	0xbd05dd30	-0.032681644
119	0x3ca39e0c	0.019972824
120	0xbcdc88e2	-0.02692074
121	0x3cb37e17	0.02191071
122	0xbd1d46ea	-0.038397707
123	0x3cda0a6f	0.026616303
124	0x3d36b069	0.04460183
125	0x3cdbafbc	0.026817195
126	0xbd302dcb	-0.04301242
127	0xbd7aae8f	-0.06120163
128	0x3ac772c6	0.00152167
129	0x3d19d8fe	0.037560456
130	0xbcac2c11	-0.021017106
131	0xbd80cff5	-0.06289665
132	0x3b5a10cc	0.0033274172
133	0xbd8fd4ed	-0.07023034
134	0xbd38139b	-0.044940572
135	0x3bd8990e	0.0066100424
136	0x3ce7a7f4	0.028278328
137	0x3d49f4ff	0.049305912
138	0x3c9cdbb5	0.019147733
139	0x3c86be5c	0.016448192
140	0x3d1fc475	0.039005715
141	0x3d1f7253	0.038927387
142	0x3cf56012	0.029953036
143	0x3c9903b7	0.01867853
144	0xbd4d1af8	-0.050074548
145	0xbc7212fa	-0.014775032
146	0xbd1778c7	-0.036980417
147	0xbd811767	-0.06303292
148	0x3c666b51	0.014063672
149	0xbd4b346a	-0.049610533
150	0xbc48f17e	-0.0122646075
151	0xbce30bd7	-0.027715607
152	0xbc830cb3	-0.015997266
153	0xbc7b066a	-0.015321353
154	0x3cdc195b	0.02686756
155	0xba87bd62	-0.0010356123
156	0x3d5f9c84	0.054592624
157	0x3d1b3a7d	0.037897576
158	0xbcaa701b	-0.02080541
159	0xbc9758d9	-0.018474983
160	0x3c9691f5	0.018380145
161	0x3d54fab4	0.0519969
162	0x3c3a6e4e	0.011378838
163	0x3bc71dcb	0.0060765496
164	0x3d1869d1	0.03721029
165	0xbc39e27e	-0.011345504
166	0x3d1d5f21	0.0384208
167	0x3ac72632	0.0015193878
168	0xbd2918a5	-0.04128327
169	0xbc56ec50	-0.013117865
170	0x3d6de69e	0.05808126
171	0x3c6fea3b	0.014643247
172	0x3d254392	0.040347643
173	0xbc01379d	-0.007886794
174	0xbd0559ce	-0.032556348
175	0xbd50e98d	-0.05100398
176	0x3c7b56da	0.015340531
177	0xbca70828	-0.020389631
178	0x3d71103b	0.05885337
179	0x3ca19586	0.019724619
180	0x3c045623	0.008077177
181	0xbd0c21d0	-0.034211934
182	0x3cde6ab2	0.027150486
183	0xbd1f20fe	-0.038849823
184	0xbc99371b	-0.018703034
185	0xbce64074	-0.028106906
186	0xbd17494f	-0.036935147
187	0x3bb92253	0.0056498437
188	0x3d469176	0.048478566
189	0xbd04d7a7	-0.032432225
190	0xbc118ed3	-0.00888415
191	0xbcc43634	-0.023951627
192	0xbc83a3e2	-0.016069356
193	0xbcb0e6a5	-0.021594355
194	0xbd16d807	-0.036827113
195	0x3cb6c43d	0.02231037
196	0x3d3aab6a	0.04557363
197	0xbc488fac	-0.012241285
198	0x3d910cbe	0.070825085
199	0x3d7d8bcc	0.0619009
200	0xbb1e3e82	-0.0024146144
201	0x3d2920df	0.041291114
202	0x3d5ff587	0.054677512
203	0x3d808b79	0.06276602
204	0x3d6adb34	0.057337955
205	0x3caadc90	0.020857126
206	0xbcb5b9b0	-0.02218327
207	0x3d25f76e	0.04051917
208	0xbbbd2885	-0.0057726526
209	0xbd09cc11	-0.03364188
210	0xbd46c681	-0.04852915
211	0x3d4f22fe	0.05057048
212	0x3d417568	0.047231108
213	0x3d77125c	0.060320243
214	0xbd0581b6	-0.032594405
215	0x3c8b0a66	0.016972732
216	0x3d3e12ac	0.046404526
217	0x3c913b72	0.017728541
218	0x3c6c3e6b	0.0144191785
219	0xbd631525	-0.055440087
220	0xbd38cd0f	-0.045117434
221	0x3c8ac3cb	0.016939064
222	0xbd3fd14f	-0.04683047
223	0x3d10921a	0.035295583
224	0xbcf80e20	-0.030280173
225	0x3d357cfa	0.04430864
226	0x3c0d06ea	0.0086076055
227	0x3d4cb7d7	0.04998001
228	0x3d4fda12	0.050745077
229	0xbd2cd544	-0.042195573
230	0xbb8be577	-0.0042692977
231	0x3a3b8e4a	0.00071546866
232	0xbd28aa67	-0.041178133
233	0x3d3692c5	0.044573564
234	0x3d6fd2db	0.058550697
235	0x3d881ab0	0.06645715
236	0xbbb0c9b6	-0.0053951396
237	0x3c11152b	0.0088551445
238	0xbce85ea2	-0.028365437
239	0x3d96cf5e	0.07363771
240	0x3ba44301	0.0050128703
241	0x3c6bbe31	0.014388607
242	0xbc8a6cd1	-0.01689759
243	0xbc8e10cc	-0.017341994
244	0x3bef1a26	0.0072968183
245	0x3cbc7e6d	0.023009503
246	0xbb8ec82b	-0.004357358
247	0x3c8b68d2	0.017017756
248	0x3d00de2c	0.03146188
249	0x3d26a042	0.040680178
250	0xbd3912a1	-0.04518378
251	0xbd4c3d08	-0.04986289
252	0xbcd5e5ae	-0.026110496
253	0xbceaf81a	-0.028682757
254	0xbd509784	-0.050925747
255	0xbbf718a1	-0.007540778

encoder.block2.block.0.bias f4 [32]
0	0x3bfadf4f	0.007656015
1	0xbbfa912f	-0.0076467018
2	0x3caa264e	0.020770218
3	0xbd554339	-0.05206606
4	0x3c2f3d7a	0.0106958095
5	0x3b9a7cf7	0.004714604
6	0x3d35d414	0.044391707
7	0x3d1a60e7	0.03769007
8	0xbd176dc3	-0.03696991
9	0x3d31354f	0.04326373
10	0xbd5373ad	-0.05162399
11	0xbd102d08	-0.035199195
12	0xbd1546ab	-0.036444347
13	0x3cc6ae1d	0.024252946
14	0xbcc5d162	-0.024147693
15	0xbc237bbf	-0.009978234
16	0x3d5166db	0.05112348
17	0xbc532e12	-0.012889402
18	0x3d6edea0	0.05831778
19	0x3ca7c78b	0.020480892
20	0x3d268423	0.04065336
21	0x3d564545	0.052312154
22	0x3c1bfbfb	0.009520526
23	0x3b3a6dfc	0.0028446903
24	0x3b97c4be	0.004631608
25	0x3c87fd47	0.016600264
26	0x3c8491d5	0.01618282
27	0xbd5f704a	-0.054550447
28	0x3d16abfa	0.036785103
29	0x3cc9ebdf	0.024648605
30	0xbc9ccfc0	-0.019142032
31	0x3cba0687	0.02270819

encoder.block2.block.1.weight f4 [32]
0	0x3f7b8f04	0.982651
1	0x3f7bb40c	0.98321605
2	0x3f7bfa2e	0.9842862
3	0x3f7e6c99	0.99384457
4	0x3f8027cb	1.0012144
5	0x3f7b69ca	0.98208296
6	0x3f7e1f5e	0.9926661
7	0x3f7983c4	0.97466683
8	0x3f7d4a37	0.9894137
9	0x3f7e9e29	0.99460083
10	0x3f7c8fb1	0.98656756
11	0x3f796910	0.9742594
12	0x3f7c2e7e	0.9850844
13	0x3f7deb36	0.9918703
14	0x3f7543e7	0.95806736
15	0x3f79b9ad	0.97548944
16	0x3f78b46c	0.971503
17	0x3f77085a	0.9649712
18	0x3f7ca159	0.98683697
19	0x3f784a10	0.9698801
20	0x3f766aa7	0.9625649
21	0x3f7916e1	0.97300535
22	0x3f7cc99e	0.98745143
23	0x3f783991	0.9696284
24	0x3f7bd9d2	0.9837924
25	0x3f7e6430	0.99371624
26	0x3f7d011b	0.9882981
27	0x3f7d4456	0.989324
28	0x3f763261	0.9617062
29	0x3f79cefc	0.9758146
30	0x3f8037cc	1.0017028
31	0x3f7b9532	0.9827453

encoder.block2.block.1.bias f4 [32]
0	0x3d49ec45	0.04929759
1	0x3d12d81e	0.035850637
2	0x3d374ccf	0.044750985
3	0x3a8a323b	0.0010543534
4	0xbca5d70a	-0.02024414
5	0xbcd504cb	-0.026003262
6	0x3d77ad1a	0.060467817
7	0x3cec9353	0.028878843
8	0x3c6094ec	0.013707381
9	0xbcfcf203	-0.030877119
10	0xbc4c8677	-0.012483231
11	0x3c99c048	0.018768445
12	0x3c2019aa	0.009771744
13	0x3d764efb	0.060133915
14	0xbc5b65a2	-0.01339093
15	0xbceb4185	-0.028717766
16	0x3bc64b30	0.0060514435
17	0x3cbdfd5a	0.023192097
18	0x3d8f201e	0.06988548
19	0xbca24895	-0.01981
20	0xbb9bf7c4	-0.0047597606
21	0xbcd0c445	-0.025484214
22	0xbcf778bb	-0.030208936
23	0xbce89aee	-0.028394189
24	0x3cc93119	0.024559544
25	0xbd219442	-0.03944803
26	0x3afa2c52	0.0019086695
27	0x3c5a5b28	0.013327397
28	0x3c852bdf	0.01625627
29	0x3c54008c	0.0129395835
30	0xbcb1cc6a	-0.021703918
31	0x3d3f0570	0.046636045

encoder.block2.block.1.running_mean f4 [32]
0	0x3e97b5f5	0.2963101
1	0x3e976216	0.2956702
2	0xbf0cff92	-0.5507747
3	0xbee7084b	-0.45123515
4	0x3d1e9169	0.038712893
5	0xbedbdba9	-0.42941025
6	0xbe942e5b	-0.28941616
7	0xbdc55701	-0.09635735
8	0xbe7e4a89	-0.2483312
9	0x3f1fd6e2	0.6243726
10	0xbf6670b7	-0.9001574
11	0xbe164e62	-0.14678338
12	0xbf3a79f6	-0.7284235
13	0xbe865322	-0.262353
14	0xbf3d28b3	-0.7389023
15	0xbe2b134f	-0.16706584
16	0xbe2f16b0	-0.17098498
17	0x3ed93353	0.4242197
18	0xbe8daeb2	-0.27672344
19	0xbec890ef	-0.39173076
20	0xbea8d498	-0.32974696
21	0x3de15e08	0.11004263
22	0x3e83b41b	0.25723347
23	0x3ee5aef4	0.4486004
24	0xbe8b7e53	-0.27244815
25	0xbd481f85	-0.048858184
26	0x3e016154	0.12634784
27	0x3dcef348	0.10104996
28	0xbe4c63f6	-0.19960007
29	0xbeaf19fa	-0.34199506
30	0x3e527b3a	0.2055482
31	0x3e32b282	0.17450908

encoder.block2.block.1.running_var f4 [32]
0	0x3f55a8e3	0.83460826
1	0x3f1b9bbc	0.60784507
2	0x3ec9624c	0.39332807
3	0x3fa343e0	1.2755089
4	0x3fc3a509	1.528474
5	0x3f32048b	0.6953818
6	0x3ef4bde7	0.47801134
7	0x3f7a66c4	0.9781306
8	0x3ed2de95	0.41185442
9	0x3f2d39cb	0.6766631
10	0x3f20352b	0.6258113
11	0x3f677c5a	0.9042412
12	0x3ec642df	0.38722894
13	0x3edb5578	0.42838645
14	0x3f4e4bd0	0.8058443
15	0x3f28990b	0.65858525
16	0x3fa6d706	1.303437
17	0x3ecb361c	0.3968972
18	0x3eb79116	0.3585288
19	0x3f5c3951	0.8602496
20	0x3eec87a9	0.4619725
21	0x3f2b6bc0	0.6696129
22	0x3f1622a5	0.58646613
23	0x3f3bb3ef	0.7332143
24	0x3f21c673	0.63193434
25	0x3f353e60	0.707983
26	0x3f54b3b7	0.83086723
27	0x3f6799ce	0.9046906
28	0x3f0c8327	0.5488762
29	0x3f987d69	1.1913272
30	0x3f62686c	0.88440585
31	0x3f56b16f	0.8386449

encoder.final.block.0.weight f4 [3, 32, 3, 3]
0	0xbd080648	-0.033209115
1	0x3b5bf6d8	0.0033563878
2	0xbc9e3dd6	-0.019316595
3	0x3cad3da1	0.021147551
4	0xbc0dcc81	-0.008654715
5	0xbd241480	-0.040058613
6	0xbcc87541	-0.024469974
7	0xbd1c08e5	-0.03809442
8	0x3a2f79cb	0.0006693869
9	0xbc98a456	-0.018633049
10	0xbb94e8a4	-0.0045443345
11	0xbd2c50cc	-0.04206924
12	0xbcba9a56	-0.022778671
13	0x3bfa73fb	0.0076432205
14	0x3c213674	0.009839643
15	0xbd31eb1c	-0.04343711
16	0xbc4a3512	-0.0123417545
17	0x3c72b0ff	0.014812707
18	0x3d17f4c6	0.03709867
19	0x3d33d2f5	0.043902356
20	0x3d38465b	0.04498897
21	0xbc354543	-0.011063877
22	0x3c85426f	0.01626703
23	0x3d2abbc6	0.04168298
24	0xbd3ffbc3	-0.046870958
25	0x3c030cb0	0.00799863
26	0x3c4974b2	0.012295889
27	0x3d245de6	0.04012861
28	0xbc1d4ccb	-0.009600828
29	0x3a563af7	0.00081722386
30	0xbd0901a9	-0.03344885
31	0xbcaf7d7f	-0.021422146
32	0x3b077500	0.0020669103
33	0x3c6174a4	0.013760719
34	0xbd1bc844	-0.038032785
35	0xbc40843e	-0.011750279
36	0x3d44372c	0.04790418
37	0xbd369a44	-0.044580713
38	0xbbc1ec6c	-0.0059180763
39	0x3d6dd5e8	0.058065325
40	0xbcf72d2a	-0.030172903
41	0xbc16d130	-0.009205148
42	0xbc373223	-0.011181387
43	0xbca46d40	-0.020071626
44	0x3c4cfa69	0.012510874
45	0xbd2b426a	-0.041811384
46	0xbc660287	-0.0140386885
47	0x3c89814b	0.016785285
48	0xbd313b34	-0.04326935
49	0x3d5ed957	0.05440649
50	0x3d5cccae	0.053906135
51	0xbc8dd292	-0.017312322
52	0xbc100bff	-0.008791923
53	0x3cb757ee	0.022380795
54	0x3d2c8f96	0.04212912
55	0xbd5a5a65	-0.053308863
56	0x3d68e482	0.056858547
57	0xbd01eed6	-0.031721912
58	0x3d7ae77b	0.061255913
59	0xbc6e639f	-0.014550119
60	0x3c557a1b	0.0130296005
61	0x3d25a319	0.040438745
62	0x3d52dcbb	0.051480036
63	0xbd065b8a	-0.032802142
64	0x3c045822	0.008077653
65	0xbd353148	-0.04423645
66	0xbbfba3c7	-0.007679436
67	0xbc737f33	-0.01486187
68	0x3d4e9458	0.05043444
69	0xbc9c580e	-0.019084956
70	0xbcd4fd4c	-0.025999688
71	0xba879e7d	-0.0010346916
72	0x3c3e2d69	0.011607506
73	0xbd11fa55	-0.035639126
74	0x3cb6d3ea	0.022317845
75	0x3cb55348	0.022134438
76	0x3d827a81	0.06371022
77	0xbbad5fcf	-0.0052909623
78	0x3cb3e0b4	0.021957733
79	0xbc40c64a	-0.011766026
80	0x3d19cefc	0.03755091
81	0xbd70be6d	-0.058775354
82	0xbd58f088	-0.052963763
83	0x3d0646ec	0.03278248
84	0xbd718488	-0.058964282
85	0xbc903e10	-0.017607719
86	0xbccfef02	-0.025382522
87	0xbc9784ad	-0.018495882
88	0xbcdd79e7	-0.027035667
89	0x3c6a674c	0.014306854
90	0x3d48ccc0	0.04902339
91	0xbc323ed3	-0.010879236
92	0xbc43123c	-0.011906203
93	0xbc8c3f65	-0.017120073
94	0x3d2e6db7	0.0425851
95	0x3d39eb80	0.045390606
96	0x3d5ad4d8	0.05342564
97	0x3d5c2a42	0.053751238
98	0xbbb37d23	-0.005477564
99	0x3c8f8733	0.017520523
100	0x3b8ae62b	0.004238864
101	0x3d6de3c5	0.058078546
102	0xbd0eff72	-0.03491158
103	0x3c2f4648	0.010697909
104	0x3be15074	0.006876046
105	0x3ce6b942	0.02816451
106	0x3d0ea700	0.034827232
107	0xbca89564	-0.020579048
108	0x3d141ad3	0.036158394
109	0x3cefbf3e	0.029265996
110	0xbc1a5606	-0.009419924
111	0xbc833250	-0.016015202
112	0x3c0f7d00	0.00875783
113	0xbc3e39e1	-0.011610479
114	0x3d2bab23	0.041911256
115	0x3cb08278	0.021546587
116	0x3d10887c	0.03528641
117	0x3c213384	0.009838942
118	0xbbb797ce	-0.0056028133
119	0x3c8114dc	0.015757017
120	0x3ce7e296	0.028306287
121	0xbcdc2d2a	-0.026877005
122	0x3d69430d	0.05694871
123	0x3ce906b8	0.028445587
124	0x3c955ddf	0.018233238
125	0x3cff0179	0.031128632
126	0xba6f9903	-0.0009139927
127	0x3d1f52f0	0.038897455
128	0xbbdf7325	-0.006819146
129	0xbc4d5d0c	-0.012534391
130	0x3caa2ccb	0.020773312
131	0x3c2dd3cf	0.010609581
132	0xbd285046	-0.04109218
133	0x3c854332	0.016267393
134	0x3cfad150	0.030617386
135	0xbd017544	-0.031605974
136	0x3d2203dd	0.039554466
137	0x3d3461a4	0.04403843
138	0x3d0d3d1a	0.0344821
139	0xbadd28c1	-0.0016873108
140	0xbd4a06ea	-0.049323
141	0x3d51639c	0.051120386
142	0x3d6aac6b	0.057293337
143	0xbbdd373a	-0.0067509683
144	0xbcfd6bca	-0.030935187
145	0x3d0b6f76	0.034041844
146	0xbd296d0f	-0.041363772
147	0x3d132328	0.0359222
148	0x3cee8310	0.02911523
149	0x3ca11982	0.019665483
150	0xbd126643	-0.035742056
151	0x3d473f06	0.04864409
152	0xbbec1164	-0.0072042216
153	0xbcdbbbbd	-0.026822919
154	0x3d0da62e	0.03458231
155	0xbcaedd1b	-0.021345666
156	0xbc73c4de	-0.01487848
157	0xbccf20f1	-0.025284262
158	0x3ca237ec	0.019802056
159	0x3c77885a	0.015108192
160	0xbd4c2ee6	-0.049849413
161	0xbcf408fd	-0.029789442
162	0x3cf8bfad	0.030364836
163	0x3c39f4f9	0.01134991
164	0x3c8b9bec	0.017042123
165	0x3d20004f	0.039062794
166	0x3cf39f1e	0.029738959
167	0xbbf98f6b	-0.0076159737
168	0xbd0d823d	-0.034548033
169	0xbcf8e231	-0.030381294
170	0xbd329c7f	-0.043606278
171	0x3a09c674	0.0005255707
172	0xbd26357f	-0.04057836
173	0xbd2cccf9	-0.042187665
174	0x3d5e9e12	0.054349966
175	0x3bc6372f	0.006049059
176	0x3d0d492f	0.03449362
177	0x3d496298	0.049166292
178	0x3ca858b6	0.020550113
179	0xbc55cd3a	-0.013049418
180	0x3d09807e	0.033569805
181	0x3c80f2e2	0.015740816
182	0xbd1a7264	-0.037706748
183	0xbcf9fd3a	-0.030516256
184	0xbd39bda5	-0.045346875
185	0xbd34a4e3	-0.04410256
186	0x3cefeecf	0.029288677
187	0x3cdf8630	0.027285665
188	0xbcdd34be	-0.027002688
189	0x3d14e324	0.03634943
190	0x3b42a539	0.002970053
191	0xbd60e293	-0.054903578
192	0xbd24a3aa	-0.040195145
193	0x3d0ca5c4	0.034337774
194	0x3d525c40	0.051357508
195	0x3c9ba92d	0.019001568
196	0x3cb1a307	0.021684183
197	0xbd134151	-0.035950962
198	0xbcd98ad3	-0.026555454
199	0xbc58785d	-0.013212291
200	0x3d43ff5c	0.04785095
201	0xbada7776	-0.0016667682
202	0x3d67acc2	0.05656124
203	0xbccd8b04	-0.025090702
204	0x3d6fec3e	0.058574907
205	0x3b5a5f7c	0.0033321073
206	0x3d6c1706	0.057639144
207	0x3cb189c3	0.021672135
208	0x3d225042	0.03962732
209	0xbcfc4cc8	-0.03079833
210	0x3d3a8a47	0.045542028
211	0x3a03fbd0	0.00050347764
212	0xbd6a5d4c	-0.05721788
213	0xbcdb150f	-0.02674344
214	0x3d568c69	0.05238
215	0xbbd9ce6a	-0.006646921
216	0xbbbcea66	-0.005765247
217	0xbc07bfab	-0.008285443
218	0xbd2ec917	-0.042672243
219	0xbcc9f3d1	-0.024652394
220	0xbd2bf369	-0.04198018
221	0xbcdd3624	-0.027003355
222	0x3c67cafb	0.014147515
223	0xbd365146	-0.044511102
224	0x3cd9ebf0	0.026601762
225	0xb88b96a0	-6.6560926e-05
226	0xbca806a1	-0.020510973
227	0x3d251f25	0.040312905
228	0xbc70e51c	-0.014703061
229	0x3d6f5c41	0.05843759
230	0x3d657d67	0.056027796
231	0xbccf8e38	-0.02533637
232	0xbc34731e	-0.011013774
233	0xbbd6075b	-0.0065316386
234	0x3ce51da2	0.027968232
235	0xbd038ad3	-0.032114815
236	0x3d71767f	0.058950897
237	0x3d38852d	0.04504888
238	0x3d32e863	0.043678652
239	0xbc604ec2	-0.013690652
240	0x3d08cb20	0.03339684
241	0x3d432dc6	0.047651075
242	0xbd087efb	-0.033324223
243	0x3d0839e2	0.033258326
244	0x3c6d6ca3	0.014491233
245	0x3d697e48	0.057005197
246	0x3cab65f4	0.020922638
247	0xbd4cb7db	-0.049980026
248	0xbd4c41dd	-0.0498675
249	0xbcdc6b47	-0.026906623
250	0x3d21659a	0.039403535
251	0x3d81b221	0.063328035
252	0x3d1b4ce0	0.03791511
253	0xbcc07e27	-0.023497654
254	0xbc185816	-0.009298345
255	0xbb8f06d6	-0.0043648286

encoder.final.block.0.bias f4 [3]
0	0x3d0388f8	0.032113045
1	0xbc5dfc00	-0.013548851
2	0x3cf608cb	0.03003349

decoder.initial.block.0.weight f4 [32, 3, 3, 3]
0	0x3a9cfabe	0.0011976582
1	0x3d784b67	0.060618784
2	0xbd4324e4	-0.047642604
3	0xbdcb146c	-0.099160045
4	0xbdaeb677	-0.08530896
5	0x3d870ab6	0.0659384
6	0xbdaf3802	-0.085556045
7	0xbd1620f5	-0.036652524
8	0x3df5da21	0.120044954
9	0x3dc5e18d	0.09662161
10	0xbe1d11af	-0.15338777
11	0x3df39c14	0.11895004
12	0xbd08f436	-0.033436023
13	0x3e0c755a	0.13716641
14	0xbe36f94a	-0.17868534
15	0x3e24eb27	0.16105329
16	0xbe3a6735	-0.18203433
17	0x3dcca822	0.09993006
18	0xbe03dd9d	-0.12877508
19	0x3d899436	0.06717722
20	0xbe3fc512	-0.1872752
21	0x3df2cc04	0.11855319
22	0x3e2f5094	0.17120582
23	0x3d13b0da	0.03605733
24	0xbe0945b1	-0.13405491
25	0xbdcda848	-0.10041863
26	0x3c1393b5	0.009007384
27	0x3d3fc4e9	0.046818648
28	0xbc38460e	-0.011247171
29	0x3bb46e0c	0.0055062827
30	0x3e48f628	0.19625151
31	0xbe10bfe4	-0.141357
32	0xbe159b87	-0.1461011
33	0xbdcd1eec	-0.100156635
34	0x3e4f6d99	0.20256652
35	0xbdadc75a	-0.08485289
36	0x3d6ca135	0.057770927
37	0xbe30ed8c	-0.17278117
38	0xbe3130ef	-0.17303823
39	0xbd1ea5aa	-0.03873221
40	0x3cffe6b6	0.031237941
41	0xbd51ca51	-0.051218335
42	0x3e0f4195	0.13989861
43	0x3dfc0378	0.12305349
44	0x3de66e44	0.112515
45	0x3cff8536	0.03119145
46	0xbd8aa24e	-0.067692384
47	0xbe0a7499	-0.13521041
48	0x3d388ed6	0.045058094
49	0x3e31bd77	0.17357431
50	0xbe2a7c89	-0.16649069
51	0x3a05f0ec	0.00051094475
52	0x3d51f96e	0.051263265
53	0x3d932fe4	0.07186869
54	0x3d4377cd	0.047721673
55	0xbe244e82	-0.16045573
56	0x3e3847a4	0.17996079
57	0x3db57a90	0.088612676
58	0x3d822f1d	0.063566424
59	0xbda737f9	-0.08164973
60	0xbd965c11	-0.07341779
61	0x3d0f2bbf	0.03495383
62	0xbd832fc0	-0.06405592
63	0x3ddacbdf	0.106834166
64	0x3d3dd023	0.046341073
65	0xbe23f549	-0.16011538
66	0xbd36016a	-0.044434942
67	0xbdce4e39	-0.100735135
68	0x3cd2276d	0.025653565
69	0x3b422296	0.0029622666
70	0x3de855f9	0.11344523
71	0x3dcbd861	0.099533804
72	0xbe206591	-0.15663745
73	0x3e4809e1	0.19535019
74	0x3d9d86e4	0.07691744
75	0x3e3d1dfa	0.18468466
76	0x3d54d5ab	0.051961582
77	0xbc80b748	-0.015712395
78	0xbe064133	-0.13110809
79	0xbe0f3055	-0.13983281
80	0xbd4ebb47	-0.05047157
81	0xbcf805aa	-0.030276138
82	0x3cc50c26	0.024053644
83	0xbd6454be	-0.05574488
84	0x3c9dee36	0.019278627
85	0x3e921722	0.28533274
86	0x3c8ff479	0.017572628
87	0xbdbd3d16	-0.09240167
88	0xbcb53226	-0.02211864
89	0xbb9fa64b	-0.0048721186
90	0xbe1d974b	-0.15389745
91	0x3cb5b752	0.02218214
92	0x3cbe7043	0.02324689
93	0x3e5a42d1	0.21314551
94	0xbe41517a	-0.18878737
95	0xbb0e2eb3	-0.0021695315
96	0x3d63a9ac	0.055581734
97	0x3d0b7ed7	0.03405651
98	0xbdd9db5a	-0.10637541
99	0x3dd9a8a8	0.10627872
100	0x3d067eac	0.032835647
101	0x3e042c2e	0.12907478
102	0x3ced27e3	0.028949684
103	0xbe328938	-0.17435157
104	0xbdb805e4	-0.089854985
105	0xbdb2904e	-0.0871893
106	0x3e096689	0.1341802
107	0x3dc62bd1	0.09676326
108	0xbe05f8bb	-0.13083164
109	0x3df62132	0.1201805
110	0xbd7c6b22	-0.061625607
111	0xbd9905b1	-0.07471789
112	0x3e47ac85	0.19499405
113	0x3dd6de8d	0.10491667
114	0xbddcb4bc	-0.1077666
115	0xbc43447b	-0.0119181825
116	0x3c86dacd	0.016461754
117	0x3e330590	0.1748259
118	0xbe66d0e9	-0.2254063
119	0x3e2f048a	0.17091575
120	0xbde8837a	-0.11353202
121	0xbe0de886	-0.13858232
122	0x3d9c5e4b	0.076351725
123	0xbe2274d0	-0.15864873
124	0x3d77b3b3	0.06047411
125	0x3da338ac	0.07969794
126	0xbcfa55b1	-0.030558439
127	0x3d8853dc	0.0665662
128	0x3daff21f	0.08591103
129	0x3c01562a	0.007894078
130	0xbe56ecc2	-0.20988753
131	0x3e40a91d	0.18814512
132	0xbd98962a	-0.074505165
133	0xbd9c2742	-0.07624675
134	0x3d960a24	0.07326153
135	0xbca3a7ee	-0.019977536
136	0x3dbc67f5	0.09199516
137	0xbe0f24d1	-0.13978888
138	0xbe26466c	-0.16237801
139	0x3e2e82bb	0.17042057
140	0xbdb0c0c7	-0.08630519
141	0xbd63f3bc	-0.055652365
142	0x3d0a9b3c	0.03383945
143	0x3e106a8f	0.14103149
144	0x3d59c8ee	0.053170137
145	0xbc418d1c	-0.011813428
146	0xbc7d98d5	-0.0154783325
147	0xbe433588	-0.1906339
148	0x3e20fdf2	0.15721872
149	0xbc4ed889	-0.012624868
150	0xbdf1d070	-0.118073344
151	0x3c9ec106	0.01937915
152	0x3e087fc9	0.13329996
153	0x3dea3995	0.11436764
154	0x3e37117b	0.17877762
155	0xbe0bf8f6	-0.1366919
156	0xbe0f9ced	-0.14024706
157	0x3e4c3eae	0.19945785
158	0xbc138e18	-0.009006046
159	0xbe32d040	-0.17462254
160	0xbdc9adaa	-0.09847577
161	0x3dadf304	0.08493617
162	0x3e085c97	0.1331657
163	0x3de3ab5c	0.111166686
164	0xbd0f75db	-0.035024505
165	0xbdf06799	-0.1173851
166	0x3c672026	0.014106786
167	0xbc83b4af	-0.016077368
168	0xbd5e48b6	-0.05426856
169	0xbd69e41a	-0.0571023
170	0x3c6eeb3f	0.014582454
171	0xbe0f6991	-0.14005114
172	0xbe18a64b	-0.14907186
173	0x3c42142a	0.011845628
174	0x3db1ab91	0.08675302
175	0x3df52cb5	0.11971418
176	0xbdb2f6bd	-0.08738468
177	0xbdfa8cc9	-0.12233884
178	0x3e41222a	0.18860689
179	0x3ce84169	0.028351502
180	0xbd9de6fb	-0.07710072
181	0x3d817e5f	0.063229315
182	0x3d80291b	0.0625784
183	0xbe0b241d	-0.13587995
184	0x3cfab552	0.030604038
185	0x3d34c65d	0.044134486
186	0xbbda2a56	-0.006657879
187	0x3dd559a1	0.10417486
188	0xbe1308ef	-0.14358877
189	0xbe2f7870	-0.17135787
190	0x3e64ce7c	0.22344393
191	0xbdca5616	-0.09879701
192	0x3e01e15b	0.12683623
193	0xbbfab2cf	-0.00765071
194	0xbc8a4baa	-0.016881783
195	0xbda93cf3	-0.08263578
196	0xbe112dec	-0.14177674
197	0x3e031c49	0.12803759
198	0x3d44c922	0.048043378
199	0x3db427dd	0.08796666
200	0x39f500d6	0.00046730664
201	0xbd4a970b	-0.049460452
202	0xbc694f01	-0.014240027
203	0xbe06445a	-0.13112012
204	0x3bb5eb57	0.0055517363
205	0x3e0823a4	0.13294846
206	0xbdc42c8b	-0.095788084
207	0x3c9366c4	0.017993338
208	0xbe679a73	-0.22617511
209	0x3ca0fc73	0.019651627
210	0xbd46288a	-0.048378505
211	0xbd3c7a19	-0.04601488
212	0x3de76ff2	0.11300649
213	0x3cb6f872	0.022335265
214	0xbd7ce427	-0.06174102
215	0x3dd4790a	0.10374649
216	0xbe34ef9b	-0.17669527
217	0xbd406e92	-0.046980448
218	0x3e1395fd	0.14412685
219	0xbd72f242	-0.059313066
220	0xbdc13a17	-0.09434908
221	0x3db1e66a	0.08686526
222	0x3da21035	0.079132475
223	0x3dc85d25	0.09783391
224	0xbc7922a0	-0.015206009
225	0xbe0a8a9b	-0.13529436
226	0x3e251944	0.1612292
227	0xbd00af3b	-0.031417113
228	0x3e2fe9bf	0.17179011
229	0xbc12f9a1	-0.008970649
230	0xbe15267e	-0.14565465
231	0xbdbecec5	-0.09316782
232	0x3d992d15	0.07479302
233	0xbd8d7900	-0.069078445
234	0xbb3a2a6a	-0.0028406628
235	0x3cb5620b	0.022141477
236	0xbdaa9fd0	-0.08331263
237	0xbd32fa2c	-0.043695614
238	0xbe1aaeb7	-0.15105711
239	0x3da5b6dd	0.08091519
240	0xbd1eb635	-0.038747985
241	0x3e1e9cc8	0.15489495
242	0xbbc7fd8f	-0.0061032246
243	0xbd2886e7	-0.041144278
244	0xbc8b904a	-0.017036576
245	0xbd32e3c6	-0.043674253
246	0xbce8de38	-0.028426275
247	0x3e40cb70	0.18827605
248	0xbcf6f90c	-0.030148052
249	0xbd2f7cff	-0.042843815
250	0xbda7c68b	-0.08192166
251	0xbc0089be	-0.00784534
252	0x3dc79950	0.09746039
253	0xbdaa3308	-0.08310515
254	0xbb96e010	-0.004604347
255	0x3e32d0c5	0.17462452

decoder.initial.block.0.bias f4 [32]
0	0xbe3f95e7	-0.18709527
1	0x3e34beb3	0.17650871
2	0x3df56833	0.11982765
3	0x3e21663e	0.15761659
4	0xbc86121e	-0.01636606
5	0x3e1d498a	0.15360084
6	0xbdf469d5	-0.11934248
7	0x3e06205e	0.13098285
8	0x3e0270e9	0.12738384
9	0xbd61707b	-0.05503891
10	0x3d06abc7	0.032878663
11	0xbd296984	-0.041360393
12	0x3e3e2ee3	0.18572573
13	0x3df3e9ba	0.11909814
14	0xbd97f9b4	-0.07420674
15	0xbe42c035	-0.19018634
16	0xbe1044b6	-0.14088711
17	0x3d418d61	0.04725397
18	0xbdbc279d	-0.09187243
19	0x3b9118a4	0.004427986
20	0xbde5f852	-0.11229004
21	0x3d9c4cb0	0.076318145
22	0x3db94147	0.09045654
23	0xbb0ca368	-0.0021459702
24	0xbddff501	-0.10935403
25	0xbe0c9e9d	-0.13732381
26	0x3e1b5a5e	0.15171191
27	0xbe181bcb	-0.14854352
28	0xbd1344d0	-0.035954297
29	0xbe082bc2	-0.13297942
30	0x3df48d28	0.11940986
31	0xbe191d62	-0.14952615

decoder.initial.block.1.weight f4 [32]
0	0x3f6d718b	0.9275138
1	0x3f7671b3	0.9626724
2	0x3f77cfdc	0.96801543
3	0x3f7e79e1	0.9940472
4	0x3f745fdf	0.9545879
5	0x3f7ad63d	0.9798315
6	0x3f74abcc	0.9557464
7	0x3f7f0f05	0.99632293
8	0x3f7889b6	0.9708513
9	0x3f847f14	1.0351281
10	0x3f7b18ab	0.98084515
11	0x3f782079	0.9692455
12	0x3f809f92	1.0048697
13	0x3f796a00	0.9742737
14	0x3f7a4e07	0.9777531
15	0x3f788308	0.9707494
16	0x3f7f3584	0.99691033
17	0x3f82e189	1.0225078
18	0x3f724e90	0.94651127
19	0x3f78dd7b	0.9721295
20	0x3f7e3b75	0.99309474
21	0x3f64269c	0.89121413
22	0x3f82c5e8	1.0216646
23	0x3f756e7f	0.9587173
24	0x3f790bef	0.97283834
25	0x3f7b306d	0.98120767
26	0x3f83517b	1.0259241
27	0x3f7580f0	0.9589987
28	0x3f7ee09b	0.9956147
29	0x3f7c69ee	0.98599136
30	0x3f6e14b8	0.93000364
31	0x3f737058	0.950933

decoder.initial.block.1.bias f4 [32]
0	0x3e29a40f	0.1656649
1	0x3e56541e	0.20930526
2	0x3e455fe1	0.19274856
3	0x3e26a903	0.1627541
4	0x3e80aab8	0.25130248
5	0x3e2afdf8	0.16698444
6	0x3e04a6fa	0.12954322
7	0x3e694203	0.22779088
8	0x3de76690	0.11298859
9	0x3db1326b	0.086521946
10	0x3da6e6fb	0.08149525
11	0x3e1180b0	0.14209247
12	0x3e1a05c9	0.1504127
13	0x3d8af737	0.06785434
14	0x3e7c5b82	0.24644282
15	0x3de3160d	0.1108819
16	0x3d9b8e4c	0.075955
17	0x3d9082c4	0.070561916
18	0x3e1cec51	0.15324523
19	0x3db3a309	0.08771331
20	0x3d508cf5	0.050915677
21	0x3e1fa54d	0.15590401
22	0x3d8b26cc	0.06794509
23	0x3dc9c6dc	0.098523825
24	0x3e0ec1c1	0.13941099
25	0x3d3f2369	0.04666463
26	0x3d27653a	0.04086802
27	0x3e87ff36	0.26561898
28	0x3bb63b26	0.0055612503
29	0x3e6f4325	0.23365457
30	0x3dfe06b6	0.12403624
31	0x3d8fec7c	0.07027528

decoder.initial.block.1.running_mean f4 [32]
0	0xbe8c5516	-0.27408665
1	0x3e3390e9	0.17535748
2	0x3e3f577f	0.18685721
3	0x3e83bf51	0.257319
4	0xbc52c7ac	-0.012864988
5	0x3e1f761d	0.155724
6	0xbe360f49	-0.17779268
7	0x3d69a36e	0.057040624
8	0x3d8f24d3	0.069894455
9	0xbe23a2c3	-0.15980057
10	0xbdaeb73d	-0.08531044
11	0x3c6add43	0.0143349795
12	0x3ad81082	0.0016484412
13	0x3e5fee99	0.21868362
14	0xbb9f718e	-0.0048658317
15	0xbe855bee	-0.260467
16	0xbe794009	-0.24340834
17	0x3e16abce	0.14713976
18	0xbc9d4eac	-0.019202553
19	0xbdc31d05	-0.095270194
20	0x3d483aca	0.04888419
21	0x3b04cc77	0.0020263472
22	0x3e6be4b7	0.23036467
23	0x3dbb6984	0.09150985
24	0xbe5aff85	-0.21386535
25	0xbc1494ea	-0.009068707
26	0xbdec86c4	-0.11549142
27	0xbe197263	-0.14985041
28	0xbeaec0c4	-0.34131444
29	0xbe556d01	-0.20842363
30	0x3d341c4b	0.043972295
31	0xbd593117	-0.05302533
