models/archived/failed-long/ResidualSteganoGAN/3/epoch_8.pth (torch, 317012 bytes, 59 tensors)

encoder.initial.block.0.weight f4 [32, 3, 3, 3]
000000 dd 34 e3 bd 7c 29 0b bd 09 4a 79 bd 3e 3e 8b 3d
       -0.11094067 -0.03397511 -0.06086162 0.06798981
000010 2e 69 fc bd 37 da 0a 3e 43 b8 11 be 74 1c 8f bd
       -0.12324749 0.13559805 -0.14230447 -0.06987849
000020 68 df 44 bd 9f c0 20 3e 50 80 11 be 5d 12 4e 3d
       -0.04806462 0.15698479 -0.14209104 0.05031048
000030 1f 56 51 bd 58 0b 00 3e ee ae 08 be 47 69 93 bb
       -0.051107522 0.12504327 -0.1334798 -0.004498634
000040 52 a6 d0 3d c6 63 2a be 0e 99 c8 bd 6f 8f 18 3e
       0.10187973 -0.16639623 -0.09794818 0.14898466
000050 48 db 99 bd 87 00 a9 bd 73 c7 70 bd e6 73 d5 3c
       -0.07512528 -0.08252054 -0.05878396 0.026056241
000060 43 be 0b bc 07 5d e1 bc a3 d4 1e bd b5 1c 23 bc
       -0.008529249 -0.02751018 -0.038777005 -0.009955575
000070 44 98 46 be 64 fb e3 3d ea 87 90 bd ed e3 e9 bd
       -0.19394022 0.11131933 -0.070571736 -0.114204265
000080 99 6e 8f 3d 8a b7 23 be a1 ad 1a 3e fa 77 f4 3c
       0.07003517 -0.15987983 0.15105297 0.029842366
000090 e2 d8 09 be 81 1a a3 bc 59 55 f8 3d 5b 6d 40 3e
       -0.1346164 -0.019910099 0.12125654 0.18791716
0000a0 e1 eb 1b 3e 1b 95 5c be 70 47 13 3d 1a 17 13 bd
       0.152267 -0.21541254 0.0359568 -0.035910703
0000b0 ca 71 b6 bc a5 b0 1f be 25 7f 06 3e 45 08 80 bd
       -0.022271056 -0.15594728 0.1313444 -0.06251577
0000c0 9a a0 65 bd 72 18 b0 3c 51 2b f4 bd 89 e2 ed bd
       -0.056061365 0.021496031 -0.119223244 -0.11615474
0000d0 f4 fc 10 be a6 57 42 3e 37 30 03 bc 1d 28 a8 bc
       -0.14158994 0.18978748 -0.008007101 -0.02052694
0000e0 11 b5 1f be 63 d1 f4 3d e3 9d 8d bc 32 32 cf 3d
       -0.15596415 0.11954 -0.0172872 0.10116996
0000f0 b0 21 d4 3d 46 0c 19 bd 86 87 bb 3d 0c 97 ea bc
       0.10357988 -0.03736522 0.091567084 -0.028636478
000100 d1 f3 b8 bb 78 c3 4d 3e 08 7c 15 3e 48 a2 9c bd
       -0.0056442996 0.20094097 0.14598095 -0.0764814
000110 b0 83 98 3c 9f 02 df bc a4 07 10 3e 63 1a 0a be
       0.018617481 -0.02722293 0.14065415 -0.13486628
000120 b8 63 9c 3d 65 d8 b2 3d 8b 5a ae bd e8 4f e5 bd
       0.07636207 0.0873268 -0.085133635 -0.111968815
000130 fb da 05 bb ec c2 23 bd 74 3a f8 3c e5 98 19 be
       -0.0020424712 -0.039980814 0.03030131 -0.14999731
000140 0a f9 0b 3e e6 20 4d bd 18 c1 08 3e 0b c1 1a 3e
       0.1366922 -0.050080203 0.1335491 0.15112703
000150 36 33 ee bd 56 ce 43 3e 2e 01 02 be b3 06 a5 bd
       -0.116308615 0.1912168 -0.12695763 -0.080579184
000160 3a 79 35 3e e9 84 5f 3a e2 e2 27 3e 25 1c ca bc
       0.17722026 0.000852658 0.16395143 -0.024671623
000170 24 da 13 3e 6d c2 36 3e f6 8f 22 be 29 f9 62 bc
       0.14438683 0.17847605 -0.15875229 -0.01385335
000180 57 4a 53 3b 4a ae 38 3d d2 c5 a5 3d 2a 9f 94 3c
       0.0032240355 0.04508809 0.08094372 0.018142302
000190 3e ed de 3d c1 f1 cc 3d 1c 14 5d 3b 29 48 65 3e
       0.10885094 0.100070484 0.003373391 0.22390808
0001a0 a3 ed ad bd 07 33 c7 3d 42 d8 bd 3c ea 3a 8f bd
       -0.08492591 0.097265296 0.023174409 -0.06993659
0001b0 9e 3a ed bd 1a 88 e9 bd 99 a7 cf bd 2d c3 14 bc
       -0.11583446 -0.114029124 -0.101393886 -0.009079737
0001c0 10 c5 26 3d e2 9d a4 3d 6d d4 49 be d3 c0 c9 bd
       0.040715277 0.08037926 -0.1970994 -0.098512314
0001d0 8e 34 b6 3d f8 eb f7 bd 5c de d9 3d da d8 ec bd
       0.08896743 -0.12105554 0.10638115 -0.11564799
0001e0 23 49 0b be ca 35 c0 3d c1 a1 54 bc 93 70 43 be
       -0.13602118 0.093852594 -0.012978018 -0.19085912
0001f0 7c ee af bd 9b 56 72 3c 33 a4 5c 3d 1e d5 b3 3d
       -0.08590409 0.014791156 0.05386753 0.08780883
000200 ce e9 33 be 08 2e 25 bd 52 15 d1 bd 8b 59 36 be
       -0.17569658 -0.040327102 -0.10209145 -0.17807595
000210 54 87 cd bc 55 98 dd 3c 70 62 27 3e ca 15 e0 3c
       -0.025088944 0.027050177 0.16346145 0.02735414
000220 d2 f3 fc bc aa 9a 2d 3d a1 1f 28 bd 28 b4 bd bd
       -0.030877981 0.042383827 -0.04104579 -0.09262878
000230 0f 1a f1 bc 6d 63 6e 3d 6e a4 b2 bd d3 9f 60 bd
       -0.029431371 0.05820029 -0.08722769 -0.05483992
000240 7b 68 8b bd 96 60 de 3c 3f 71 58 bc bf 65 3c 3d
       -0.068070374 0.027145665 -0.013210594 0.04599547
000250 ca 15 18 be 9e 35 24 be e3 49 7b 3d 65 18 38 be
       -0.14852062 -0.16036078 0.06134976 -0.17978056
000260 85 be e3 3d 22 9e d1 bd 6a e4 2a 3e d6 12 0b be
       0.11120323 -0.102352396 0.16688696 -0.13581404
000270 b2 28 22 be f9 bf b8 bd 04 6f f5 3d 7d 58 1e be
       -0.15835837 -0.09020991 0.11984065 -0.15463443
000280 ec 9b 1d 3d 5c d3 70 3d 23 d2 cb bc 1b c7 a3 3c
       0.038478777 0.058795318 -0.024880474 0.019992402
000290 e3 91 8b bc 4a f1 90 bb dc 6c f5 3d 5a 07 9c 3d
       -0.017037338 -0.004423295 0.11983654 0.0761859
0002a0 68 bc 10 3e f7 ec 08 be 30 2b 96 3d 56 b5 6d 3d
       0.14134371 -0.13371645 0.07332456 0.058034264
0002b0 37 eb 1e be ea 14 62 bc 36 dd 05 3e 7e bd 22 bd
       -0.15519415 -0.013798932 0.13072667 -0.039731495
0002c0 61 4f 2f be 5e 63 21 3e c8 97 a5 3d 91 0d e1 3d
       -0.17120124 0.15760562 0.080855906 0.10988916
0002d0 ec 52 60 3d 1c a9 6d bd b9 ce d5 bd a8 b2 ce 3d
       0.05476658 -0.058022603 -0.1043982 0.1009267
0002e0 9e bf 24 be 19 2c 1f 3e 6c bf 31 be 23 4a 2c bd
       -0.16088721 0.15544166 -0.17358178 -0.04206289
0002f0 fb f5 20 3e 61 48 37 be 40 86 30 be 05 b9 e8 3c
       0.15718834 -0.17898704 -0.17238712 0.028408537
000300 6e d0 6d 3d 26 08 c0 bc d0 1b 2e bd 31 7b 42 3c
       0.058060102 -0.023441385 -0.042506993 0.011870191
000310 60 c9 fc bd 5e ba f8 bd e5 d0 f4 bd 0d 33 5d be
       -0.12343097 -0.12144922 -0.11953906 -0.21601506
000320 55 e8 07 bd 4d 07 43 be a1 fa 4f bd f7 06 48 3c
       -0.033180553 -0.19045754 -0.050776128 0.012208692
000330 ed e5 50 be d4 aa 07 bc d7 20 7f 3d 2b 49 21 3d
       -0.2040021 -0.008280475 0.062287178 0.03937642
000340 d2 b5 e8 3c 36 33 0a 3d dd 8f f8 bc bb c2 35 3d
       0.028407011 0.033740245 -0.030342037 0.044375163
000350 ad 3c b1 bd 11 ee c3 3d bd 72 00 3e 2e 8f 47 be
       -0.08654151 0.09566892 0.12543769 -0.19488212
000360 4f d7 b7 3d 1e e7 a8 bd 94 19 73 bd ca 2d 50 bd
       0.08976614 -0.08247207 -0.059350565 -0.050824918
000370 c4 ce a0 bb ee 24 1c be f9 d1 21 3e 29 51 44 3c
       -0.004907461 -0.15248463 0.15802754 0.011982241
000380 80 ab fd bb 65 c9 1f 3e 43 45 08 3e de 76 11 bd
       -0.0077413917 0.1560417 0.13307671 -0.03551375
000390 db 2f 49 3d 3c 62 d4 bd c0 f0 13 3e d4 66 d1 3d
       0.049117904 -0.10370299 0.14447308 0.10224691
0003a0 34 d3 fe bc ea 3b 25 3e 9c 47 ef bd 1e 44 28 3d
       -0.031106569 0.16136137 -0.1168358 0.041080587
0003b0 7a e6 48 3e 0e fd 4a 3d b8 c7 05 bd c5 11 57 3e
       0.1961917 0.049557738 -0.03266117 0.21002872
0003c0 c5 0e b3 3d 26 34 13 3e 9b 98 68 3e 4e be be bd
       0.087430514 0.14375362 0.22714464 -0.093136415
0003d0 9e 57 00 3e 6c c8 11 bd 56 57 1d 3e 38 9c 0f 3a
       0.12533423 -0.035591528 0.15365347 0.00054782955
0003e0 75 dc 97 bd 71 6f 00 be 62 f3 77 bc f9 e5 95 3d
       -0.07415096 -0.12542512 -0.015133711 0.073192544
0003f0 c8 4b 1f 3e 6d 47 72 be 59 e3 0f 3d fb 7c 05 3e
       0.15556252 -0.2366006 0.035128925 0.13035958

encoder.initial.block.0.bias f4 [32]
000000 e1 c8 e4 3d ae 73 57 be 4d 70 f5 3d 23 ae ae bb
       0.11171127 -0.21040222 0.1198431 -0.0053308173
000010 c4 c6 29 be 92 79 06 3e 50 44 be 3d 58 92 56 bd
       -0.1657973 0.13132313 0.09290373 -0.052385658
000020 b7 0f 89 bd 42 f5 6d 3d 5d 57 c5 bd 3a 18 03 be
       -0.066924505 0.058095224 -0.09635804 -0.1280221
000030 5a 59 13 3e cc 55 91 3d 86 27 59 be f3 43 58 3d
       0.14389554 0.070964426 -0.21206483 0.052799176
000040 be f3 6a bd 31 5b 3c bc 7b 32 d0 bc 09 59 9a 3d
       -0.057361357 -0.011496351 -0.025414696 0.07536513
000050 d8 3f cd 3d 3f 91 53 bd a7 73 40 3e f6 c8 dc 3c
       0.10021943 -0.05165219 0.18794118 0.026951294
000060 dd 11 d6 3d 78 13 09 bd 0c c3 f5 bd d8 35 37 3e
       0.10452626 -0.033465832 -0.12000093 0.17891634
000070 7b aa 01 be 8e ef 05 be 55 63 f0 bd 5f 39 8c bd
       -0.1266269 -0.13079664 -0.11737696 -0.0684688

encoder.initial.block.2.weight f4 [32]
000000 2e 6f 6d 3f 2e 4d 85 3f a6 27 81 3f 40 5d 82 3f
       0.9274777 1.0414178 1.0090225 1.0184708
000010 b5 35 83 3f 7b c9 65 3f fb e8 74 3f 92 6e 83 3f
       1.0250765 0.8976056 0.95668 1.0268118
000020 54 28 7d 3f 54 11 83 3f 01 d5 76 3f d2 36 81 3f
       0.9888966 1.0239663 0.9641877 1.0094855
000030 20 2e 80 3f cb 1c 81 3f a9 05 82 3f f7 02 63 3f
       1.0014076 1.0086912 1.0157977 0.886764
000040 ab f5 75 3f 8c 92 7e 3f 45 fb 82 3f f0 27 7a 3f
       0.96077985 0.9944236 1.0232931 0.9771719
000050 7b f2 7f 3f cf 21 7a 3f 16 65 7f 3f 4c f6 83 3f
       0.9997937 0.9770784 0.9976362 1.0309539
000060 34 c8 77 3f c6 45 78 3f 1c ca 77 3f 51 3a 80 3f
       0.9678986 0.96981466 0.9679277 1.0017797
000070 f5 98 6d 3f a8 6f 83 3f ab d8 87 3f ef ff 84 3f
       0.9281152 1.026845 1.0612997 1.0390605

encoder.initial.block.2.bias f4 [32]
000000 c9 e2 3d 3d 2f 93 02 3e c3 3a 62 3c 12 16 7e 3c
       0.046358857 0.12751459 0.013807955 0.015508192
000010 34 1a f3 3c 6c e3 d8 3d 47 80 7a bb 21 7e 88 3c
       0.02967558 0.10590252 -0.0038223432 0.016661705
000020 8c 65 ea bc 08 dd 51 bd 44 93 d2 3d 45 c6 d4 bc
       -0.028612874 -0.051236182 0.10281995 -0.025973449
000030 ee d6 6b bc d8 2d 63 3d 5d 3b 09 be 36 c8 df bd
       -0.014394505 0.055463642 -0.13401552 -0.10926859
000040 55 3c fe 3d 6f 38 f6 3d 1a e5 06 3d 23 2e 2e be
       0.12413851 0.120224826 0.032933332 -0.17009787
000050 ec 2b b7 3d a4 b5 72 bc d0 8d 45 bc a6 d5 e8 3b
       0.08943924 -0.014813814 -0.0120577365 0.007105547
000060 d7 20 cc bc 17 35 fb 3d 98 04 23 be 48 f9 3c 3d
       -0.024918003 0.122659855 -0.15919721 0.04613617
000070 ef dd c6 3c 2b 67 55 bd 16 2a f1 bd f1 e0 29 bd
       0.024275748 -0.05210034 -0.117756054 -0.041474286

encoder.initial.block.2.running_mean f4 [32]
000000 10 52 c4 3b 56 ea 7b bb 71 a1 8e 3e e1 44 ee 3e
       0.005991228 -0.0038439236 0.27857545 0.46536925
000010 47 0f cd bb b1 de 01 3c a6 7a 7d 3e 35 57 c8 bb
       -0.0062579247 0.007926629 0.24753818 -0.0061139115
000020 e6 45 e6 3e 7d b8 09 3e 7b e3 f2 bb 0f 7d bf bb
       0.44975203 0.13449283 -0.0074123717 -0.0058437656
000030 fe df 5d 3e 81 d1 9e 3e 47 7b 9e bb 5b 88 4b bb
       0.21667477 0.31019214 -0.004836473 -0.0031056616
000040 71 45 97 bb 05 0d 95 3e 12 ab ba 3e 33 59 b0 3e
       -0.0046164324 0.29111496 0.3645864 0.34443054
000050 a2 db 83 3e f9 60 88 bb fb 4f 77 3e 3d 0c eb 3e
       0.25753504 -0.0041619507 0.24151604 0.45907775
000060 51 22 36 3e 50 66 d2 bb 6c 59 c3 bb 17 18 1f 3c
       0.17786528 -0.006420888 -0.0059615877 0.009710333
000070 7a 8a a5 bb 34 18 c1 bb 79 08 8b bb 01 d4 75 bb
       -0.005051908 -0.005892778 -0.0042429534 -0.0037510397

encoder.initial.block.2.running_var f4 [32]
000000 1f f2 cb 39 aa 36 65 35 c3 7f c3 3b a2 cb 58 3d
       0.00038899572 8.5388695e-07 0.005966158 0.052928574
000010 4a d7 a3 36 86 31 1a 3a 23 cb f1 3b 1e ea ed 36
       4.8828415e-06 0.00058820134 0.007378952 7.0904052e-06
000020 9b 00 92 3d 6c 4d c8 3a 35 07 27 37 28 c5 a7 36
       0.07129022 0.0015281863 9.955654e-06 4.99994e-06
000030 65 62 e6 3a 12 3e 5e 3c 0c 0a 23 36 d5 c1 3c 38
       0.0017576931 0.013564603 2.429474e-06 4.5003213e-05
000040 50 39 7b 36 cf 64 b3 3c 05 34 15 3d 87 b2 a6 3c
       3.7435275e-06 0.021898655 0.036426563 0.0203488
000050 1b 2b e7 3b 75 74 5e 36 c3 92 89 3a 96 fd 32 3d
       0.007054699 3.3148365e-06 0.0010496009 0.04369887
000060 97 c9 f6 3a f2 33 18 37 78 1e da 36 69 d0 84 3a
       0.0018828389 9.0720005e-06 6.5004533e-06 0.0010132912
000070 79 64 6e 36 95 18 aa 36 90 99 10 36 e4 d3 14 36
       3.5523246e-06 5.0692565e-06 2.1547057e-06 2.2177055e-06

encoder.block1.block.0.weight f4 [32, 35, 3, 3]
000000 25 d3 bb 3c 70 b4 a0 3c f6 33 1e bc d0 2f 09 3d
       0.02292783 0.01961729 -0.009655943 0.033492863
000010 2f 90 d0 bc d8 ca 4a bd 68 83 29 bc 40 f7 ad 3c
       -0.025459377 -0.049509853 -0.010346271 0.021236062
000020 d3 21 2b 3d f5 47 f3 3c c2 0e ee 3c cb 7e cd 3c
       0.041780304 0.029697398 0.029059771 0.025084874
000030 eb c2 ff bc 93 cf 55 3d d8 b0 92 3d 6c 7e 5f 3d
       -0.031220874 0.05219991 0.071626365 0.054563925
000040 96 ac be bc 73 7e 22 3d ec 78 1e 3d 26 21 e1 3c
       -0.023275655 0.039671373 0.03868954 0.027481627
000050 dd 2f d5 ba 51 11 87 3d 72 cf c4 bb 94 54 97 bc
       -0.0016264875 0.065951 -0.0060061747 -0.018472947
000060 ec c8 9e 3c 48 09 d5 bb 08 e9 37 3d 8e 88 26 bd
       0.019382916 -0.0065013506 0.04489997 -0.040657572
000070 28 13 3c ba fe 9e 80 3d ef e5 7b 3d 51 f6 00 3b
       -0.00071744854 0.06280325 0.06149858 0.0019678066
000080 1b ce fb 3b 4b ea d0 bc ac 90 c7 3b 50 8c a5 3d
       0.007684482 -0.025502345 0.0060902443 0.08083403
000090 bd 9f 95 bd 9a 1d 6f bd 0f 9f b4 bc af 06 62 3c
       -0.07305858 -0.05837784 -0.022048501 0.013795539
0000a0 20 05 55 3d e0 80 1d 3d ae 19 a3 3c 12 b9 06 bd
       0.05200684 0.038452983 0.019909706 -0.03289134
0000b0 5d ab 12 3d 2d af 04 3d 02 09 8b 3a a4 5f 7f bc
       0.035807956 0.032393623 0.0010607543 -0.015586767
0000c0 2f 3d 17 bd 1a 0e 46 bd 6a eb 37 3c 5e 84 81 3c
       -0.036923584 -0.048353292 0.011225561 0.015810188
0000d0 d2 3e 62 3c 18 78 10 bc 02 f3 3d 3d f4 78 9b 3c
       0.013808923 -0.008817695 0.04637433 0.018978573
0000e0 42 9f b1 3c ad 4f 03 bd fa f4 2f 3d da 55 d7 bc
       0.021682385 -0.032058407 0.042958237 -0.026286054
0000f0 2d 75 28 3d 18 c3 20 bd c7 95 0b 3c c9 32 52 bd
       0.041127373 -0.039248556 0.008519596 -0.051317964
000100 d2 ca df bc 74 3d ec bc f9 88 29 bd 2b 29 b0 bb
       -0.027318392 -0.028837897 -0.041390393 -0.0053760014
000110 10 bc 31 bc 80 8e da bb 4e 1b cd bc e2 5c b7 bb
       -0.01084806 -0.0066698194 -0.025037434 -0.0055957893
000120 70 11 32 3d d8 1d e9 3b 32 95 8f bc 24 1f 4b bc
       0.04347366 0.0071141534 -0.017527197 -0.012397561
000130 2d e3 c9 bb 85 c6 83 3d 47 8e 2d bb 83 ce 8b 3b
       -0.0061611147 0.06434349 -0.002648251 0.0042665615
000140 0c a8 a8 bc e1 65 1b 3c d1 8e 27 3d a0 80 da 3b
       -0.020587943 0.009484739 0.040907685 0.0066681653
000150 d9 74 1f 3d 49 bd 5f bd 10 fb 35 3d 8b 74 3c 3b
       0.038929794 -0.054623876 0.044428885 0.0028755988
000160 78 af 8c bc 94 62 6f 3d c1 bc 0b bc e4 c0 50 3c
       -0.017173514 0.05844362 -0.008528889 0.012741301
000170 4a 31 21 bd 91 b0 30 bd db 1d 22 3d 9d 4d eb ba
       -0.039353646 -0.043137137 0.039579254 -0.0017952208
000180 02 31 4f 3b 8b 7c 17 3c 0b c4 9f bb 66 9d 8b bd
       0.0031614904 0.009246002 -0.004875665 -0.06817131
000190 d7 65 69 bb cc fe 84 bd 50 98 53 3d de 71 9f 3d
       -0.003561368 -0.06493911 0.05165893 0.0778539
0001a0 73 25 67 3a a5 b0 ac 3c b3 fd 22 bd 9c 1c d0 bb
       0.0008817531 0.021080324 -0.039792728 -0.0063510668
0001b0 48 cd 22 bc eb e6 f7 3a 29 ad 9f 3b ef 3d 5d bd
       -0.009936638 0.0018913423 0.004872937 -0.054014143
0001c0 0c f0 86 3c 12 ac 3c 3d b1 a1 37 3d b0 59 7d 3d
       0.016471885 0.046062537 0.044831935 0.06185311
0001d0 bc e3 51 3c a9 8c a5 3c c2 b3 70 bd 7d 6e fe 3b
       0.012810644 0.020208674 -0.05876518 0.007764636
0001e0 d0 0a 6b bc 54 12 07 bd f9 b1 40 3d e7 5a f0 3c
       -0.01434584 -0.032976463 0.047044728 0.02934022
0001f0 99 26 81 3d 8b de 61 bc e2 eb 0e 3d e9 09 0a 3d
       0.0630619 -0.013785969 0.034892924 0.033700857
000200 8b 09 0d bd 79 cc ec 3c 24 83 56 bd 0c c7 18 3d
       -0.03443293 0.028906094 -0.05237116 0.0372992
000210 8f 94 53 bc 57 ba 04 bd d9 f2 52 3d f9 20 30 bc
       -0.012913837 -0.03240427 0.05150113 -0.010750049
000220 39 cd e1 3c 27 60 74 bd 17 42 1c bd ee 21 06 bb
       0.027563678 -0.05966201 -0.038148966 -0.0020467
000230 a7 a3 0a bd a2 31 8b 3c af 69 f0 bb 83 95 f6 bc
       -0.033847477 0.01699144 -0.007336817 -0.03010059
000240 53 56 8d 3b 7d 7e 8b bc 43 c2 6c 3c 8e 62 92 3c
       0.004313269 -0.017028088 0.0144506125 0.01786926
000250 ef d1 0c 3d 5a 80 8f bc c0 ee 7a 3a f3 52 62 3d
       0.034379896 -0.017517257 0.00095723197 0.055254888
000260 73 11 34 bd bd 1e db 3b 52 93 53 bb 6f 11 93 3c
       -0.043961953 0.006687014 -0.0032283855 0.017952649
000270 c5 48 50 bc a5 ec a7 3d 88 18 4b 3d 7b a7 1e 3b
       -0.012712662 0.08199433 0.04958394 0.0024208713
000280 82 a7 b0 bb 4e 68 f2 3b 4a 48 81 bb 08 64 72 3d
       -0.0053910622 0.007397688 -0.003945385 0.05917743
000290 6c 07 7c 3d dd 12 6a 3c 99 2b 0d bd df 5a d3 3c
       0.061530516 0.014286724 -0.034465406 0.025800167
0002a0 e3 ee ac bc 1f e0 5d 3d 59 70 1b 3d bb e6 3f bd
       -0.021110004 0.054168817 0.03794894 -0.0468509
0002b0 c2 ca e8 3c 24 b6 0e 3d 68 b5 42 bc 4a 1e 88 bc
       0.028416995 0.03484167 -0.011884071 -0.016616005
0002c0 ec 6e cb bc 62 56 11 3d 40 41 9f bc 4b 63 38 3d
       -0.024833165 0.03548277 -0.019440293 0.04501657
0002d0 19 13 97 bc 65 23 f4 bc 0b 9f 90 bc 85 a9 7a bb
       -0.018441724 -0.029802034 -0.017653963 -0.0038248014
0002e0 db 46 ff bc 83 e0 00 3d 03 51 59 3d 88 c5 01 3c
       -0.031161716 0.03146411 0.053055774 0.00792063
0002f0 1e 18 93 bc f3 cd 06 3d 02 d1 a1 3b a1 23 79 ba
       -0.017955836 0.032911252 0.0049382458 -0.00095039053
000300 27 d3 21 3c ca 46 52 3c bf 5f 63 bb bf d5 5c bc
       0.009877003 0.01283426 -0.003469452 -0.013478695
000310 29 26 cb bc 11 7b 69 3d 50 9d b2 bc 0b 90 c9 3c
       -0.02479847 0.05700213 -0.021803528 0.024604818
000320 9b 2d 26 3d c1 65 a2 3c 1f d7 86 3d 16 08 af bc
       0.040570837 0.01982391 0.06584 -0.02136616
000330 3c 79 b1 3c fd 82 73 bc 8e e9 12 3d 93 ec 56 ba
       0.021664254 -0.014862773 0.035867266 -0.00081987045
000340 9f 2e 82 3d 5e 98 78 3d ce 1a 0a 3d 7f 1d 82 3d
       0.063565485 0.060692184 0.03371697 0.06353282
000350 86 51 26 39 ef c7 9e bc 59 df d2 bc d0 1b 98 3c
       0.00015861363 -0.019382445 -0.025741266 0.01856795
000360 fc cd a5 3c ca 1e ad bc 3f 0f ae 3b 1d d7 37 bc
       0.020239823 -0.021132845 0.005311876 -0.011220721
000370 28 27 29 3c d9 54 8e bb 8d 3d 22 3d 25 92 d5 bb
       0.010324277 -0.0043436107 0.03960948 -0.006517666
000380 f5 6e 50 bc ce 9a 3f 3d fc e0 c9 3b eb 32 8b 3b
       -0.012721767 0.046778493 0.0061608534 0.0042480133
000390 78 1a 00 3d de db 05 bd 10 2b 63 3d 1d 58 33 3d
       0.031275243 -0.032680385 0.05546099 0.043785203
0003a0 ee bf ee 3c 5f ee 2a bd cc 04 23 3c ca f7 74 b9
       0.029144254 -0.041731235 0.009949874 -0.00023361962
0003b0 b4 fe ad b8 92 7d 03 3c 7d c3 f0 ba 0c 59 0b 3d
       -8.296725e-05 0.008025544 -0.0018368807 0.03402047
0003c0 e2 98 42 bd 6b 62 38 bd 20 45 69 ba 29 83 ce bc
       -0.04750908 -0.045015734 -0.0008898545 -0.025209026
0003d0 ad e0 a0 bd 96 ab 6c 3c 0c 16 73 bc 1c 0e 61 bb
       -0.078553535 0.014445206 -0.014836799 -0.0034340685
0003e0 20 c5 35 bd bd 0c 85 bd 80 f2 45 bd 9d 78 c7 bb
       -0.044377446 -0.0649657 -0.04832697 -0.0060873763
0003f0 0b 66 e0 3c df 46 2f 3d 71 fa 44 3c 75 44 d1 3a
       0.027392408 0.042792197 0.0120226005 0.0015965836

encoder.block1.block.0.bias f4 [32]
000000 e5 ea 1d 3d 41 db c6 3d 73 46 b1 3d 72 eb f2 3d
       0.03855409 0.09709788 0.08656015 0.11861314
000010 16 8e 8a bc fb c8 1d 3e 42 8f d8 3d d3 4b e0 3d
       -0.016913455 0.15408699 0.10574199 0.10951962
000020 54 cb a9 3d 2f 4e fd 3d 0a c6 06 3d 3f ea 98 3d
       0.08290735 0.12368428 0.03290371 0.07466554
000030 17 c0 c5 3c 5d 9b 2e 3e 22 a8 eb 3d fa 8e d0 bb
       0.024139447 0.17051454 0.11506678 -0.0063647004
000040 05 d1 3d 3c 17 60 05 3e 11 c0 40 3d f1 ae 1d 3e
       0.011585479 0.13024937 0.04705817 0.15398766
000050 e3 45 31 3d 8e e7 0e 3d c8 37 a5 3d 5e b8 e1 bb
       0.04327954 0.034888797 0.0806728 -0.0068884334
000060 3b f9 18 3d 37 14 7f 3d 0f 61 89 bc 3c 03 77 3d
       0.03734706 0.062275138 -0.016769914 0.06030582
000070 cb 71 0b 3d 65 14 29 3d 47 32 dd bc 62 f4 15 bc
       0.03404407 0.041279215 -0.027001513 -0.009152504

encoder.block1.block.2.weight f4 [32]
000000 08 3a 7d 3f 8a 7f 82 3f e8 62 7b 3f 77 f7 7d 3f
       0.98916674 1.0195172 0.98197794 0.99205726
000010 b3 e1 7b 3f 52 cc 79 3f 8f 0e 7f 3f af 3f 7f 3f
       0.98391265 0.97577393 0.9963159 0.9970655
000020 d7 84 7e 3f 01 c3 78 3f 3c 7c 85 3f 23 72 7c 3f
       0.9942145 0.9717255 1.0428538 0.9861166
000030 04 6e 80 3f 3e d7 6e 3f 34 01 81 3f 65 88 77 3f
       1.0033574 0.93297184 1.0078492 0.96692497
000040 a1 fc 7e 3f 80 d3 82 3f 22 be 78 3f 9c 40 7b 3f
       0.9960423 1.0220795 0.9716512 0.9814546
000050 47 88 82 3f e7 49 82 3f 04 ba 7f 3f 19 76 7c 3f
       1.0197839 1.0178803 0.9989321 0.986177
000060 6f 31 7e 3f 3d 9b 7e 3f 5a 02 81 3f b9 06 85 3f
       0.9929418 0.99455625 1.0078843 1.0392677
000070 a8 b5 80 3f aa 76 83 3f b5 97 80 3f 6d b7 81 3f
       1.0055437 1.0270588 1.0046297 1.0134102

encoder.block1.block.2.bias f4 [32]
000000 d2 13 6d 3d 9a 9e 1b bd f6 7c 60 3d ac 00 98 3a
       0.05788023 -0.03799305 0.054806672 0.001159688
000010 f6 e9 29 bd b8 40 88 bd 94 df d5 3c 07 28 0f 3c
       -0.04148289 -0.06652969 0.026107587 0.008737571
000020 e3 3f cf bc 4d ca c5 bc e5 b5 46 3d 03 f5 9b 3d
       -0.025299018 -0.024144316 0.048513312 0.07615092
000030 eb c2 a0 3d ac 60 02 3d 24 8a ce bc db b7 e7 3b
       0.07849678 0.031830475 -0.025212355 0.007071478
000040 82 ed 86 3c 4b 27 82 3d 5c 5f 6a 3d 6f d3 ad bc
       0.016470674 0.06355151 0.057219848 -0.021218983
000050 17 0d a2 3d b5 07 0c bc 42 f8 bd 3d 22 5b 05 3d
       0.07912653 -0.008546759 0.09275867 0.032557614
000060 b3 31 a2 3d 97 03 d5 3c c8 bb b1 bc d8 d6 58 3d
       0.079196356 0.026002688 -0.021695986 0.052939266
000070 6f 58 9c bb 1c 23 31 3c 99 56 f8 3c d1 9e 34 3d
       -0.0047712843 0.010811593 0.03031473 0.04409677

encoder.block1.block.2.running_mean f4 [32]
000000 59 8a 4f 3f 89 0a 24 3f c5 9c 0b 3f 1d a6 23 3f
       0.81070477 0.64078575 0.54536086 0.63925344
000010 85 b8 6a 3f 83 8e 36 3f d0 04 33 3f 28 f5 33 3f
       0.91687804 0.71311206 0.6992922 0.70295954
000020 f9 b9 52 3f ea 1d 2c 3f be 5f 40 3f fa ab 02 3f
       0.8231502 0.67233145 0.7514609 0.51043665
000030 a3 ce 47 3f 24 ad 42 3f 08 f6 14 3f b9 fd 5b 3f
       0.7804968 0.7604544 0.58187914 0.85934025
000040 15 90 5f 3f cd 5a 24 3f c7 0b 48 3f d6 c7 4d 3f
       0.87329227 0.6420105 0.7814297 0.8038305
000050 3c a7 0a 3f 6c 8a 07 3f 09 22 4c 3f 3e 9b 44 3f
       0.5416143 0.5294559 0.79739434 0.7679938
000060 e0 56 31 3f cf 5b 53 3f fa c3 8f 3f 62 e5 17 3f
       0.69273186 0.82561964 1.1231682 0.59334385
000070 06 9d 4a 3f 37 8d 33 3f 17 95 6d 3f e6 5c 4c 3f
       0.7914585 0.7013735 0.9280562 0.7982925

encoder.block1.block.2.running_var f4 [32]
000000 5a 3c 8d 3f e9 b0 84 3e 4e ca 5f 3e 3b 0c 87 3e
       1.1034043 0.25916222 0.21854517 0.2637652
000010 c3 4b a3 3f a6 b7 7c 3d 6f 0e 30 3f 6c e6 42 3e
       1.2757496 0.06169858 0.68772024 0.19033211
000020 4e fe 86 3f 72 d9 96 3d 5b 95 8e 3f 03 ea 92 3e
       1.0546358 0.07365693 1.113933 0.28694162
000030 2e 69 9b 3f f4 af 5d 3d 54 cb 9e 3e ab f0 b0 3f
       1.2141473 0.05412288 0.31014502 1.3823446
000040 57 30 bc 3f 6a e1 dd 3e eb 52 84 3f 48 54 ea 3d
       1.4702252 0.4333604 1.0337805 0.114418566
000050 11 dc a5 3e 2c 61 9b 3e 30 34 93 3f a6 6b af 3f
       0.3239446 0.30347574 1.1500301 1.3704727
000060 15 be 94 3f 58 c6 94 3f 87 a0 1e 40 91 d6 46 3f
       1.1620508 1.162303 2.4785478 0.7767115
000070 f5 d5 88 3f b8 05 89 3f 62 5d e1 3f dd 08 b3 3f
       1.0690295 1.070487 1.7606623 1.398708

encoder.block2.block.0.weight f4 [32, 32, 3, 3]
000000 fe a4 29 3d a2 fd af 3c 1b 6b a2 3d 89 06 bf bc
       0.041417114 0.021483246 0.07930585 -0.023318546
000010 c6 55 e9 3c ad 69 8c 3d 33 c1 85 3c 52 af 86 3c
       0.028483283 0.068560936 0.016327476 0.016441021
000020 5c c2 a4 3c 73 38 96 bc 25 27 6c bd ad 88 0e bd
       0.020112209 -0.018337464 -0.05765452 -0.034798313
000030 fe 87 3a bd 91 89 4c bd 93 35 5d bd 66 f3 eb bb
       -0.04553985 -0.04993588 -0.05400617 -0.007200646
000040 a4 93 b3 3b 6d 2e e3 bc 85 37 c3 ba 40 40 8c 3c
       0.0054802466 -0.027732098 -0.0014893865 0.01712048
000050 8f e2 4e 3b 26 c9 17 3d fb 5f c3 bc 2c 11 3f 3b
       0.0031568145 0.037057064 -0.023849478 0.0029154522
000060 b6 43 e0 3b b5 af 23 bc 73 2e 92 bc 35 c0 ca bc
       0.0068440093 -0.009990622 -0.017844414 -0.024749855
000070 44 8b 8d bc fa bd c4 bc 15 10 43 3c 93 82 62 bd
       -0.017278321 -0.02401637 0.01190569 -0.055300307
000080 01 24 cd bc a6 95 84 bd ed c6 0b bd 69 8a 2f 3c
       -0.025041582 -0.06473856 -0.034125257 0.010714152
000090 36 61 b1 bc 54 3f fe 3c f4 f1 81 3d 05 9c 08 3d
       -0.0216528 0.031036057 0.06344977 0.033351917
0000a0 04 13 a9 3d 28 a3 a5 3c 33 b4 d4 3c 22 d5 2f bd
       0.0825558 0.0202194 0.025964832 -0.04292787
0000b0 e2 e8 e9 3c 56 b5 cc bb 7f 5e 5d 3d 69 2b ee bb
       0.02855343 -0.006247203 0.054045197 -0.0072683585
0000c0 86 32 09 bd 85 9b 1e bc 05 1b 1d 3d 24 42 11 3d
       -0.03349545 -0.009680633 0.038355846 0.035463467
0000d0 8e aa 21 bd 2a de 5d 3c d1 37 ba bc 24 f4 5d bd
       -0.039469294 0.013541738 -0.022731693 -0.05418791
0000e0 13 a2 89 ba ca e7 3e 3c af be 4a 3c 1a c5 d5 bc
       -0.0010500572 0.0116519425 0.012374564 -0.026094962
0000f0 d0 cc ec bc 3b fb 48 bd 56 8d 65 bc 81 3e 43 3c
       -0.028906256 -0.049067717 -0.014010748 0.011916758
000100 2c 51 72 bd 87 02 7b bd 61 a8 71 bd 1e 60 84 3c
       -0.059159443 -0.061281707 -0.05899847 0.016159113
000110 3a e8 77 bc 45 c0 0b bc 11 3e b5 ba 6f 08 21 bd
       -0.015131051 -0.008529727 -0.0013827701 -0.039314684
000120 4d c5 e9 3c b1 4c 3d 3d 13 ce 7b 3c 8a 7a 2d bd
       0.028536463 0.046215717 0.015368956 -0.04235319
000130 06 3d 88 3b 87 b5 b4 3b ca bb 8d 3c ac bb cf 3c
       0.004157665 0.005514804 0.017301459 0.025358044
000140 55 93 84 3c d1 29 99 3d 2d 9d ff 3b 50 0b b5 3b
       0.016183535 0.07478679 0.0078007192 0.00552503
000150 c1 6e 94 ba c7 71 1d 3d 41 ae c9 3c d8 37 5a 3d
       -0.0011324511 0.038438585 0.024619224 0.053275913
000160 6a 78 35 3d 8c 3b 80 3b d4 39 5f bd 5a 08 26 bd
       0.04430429 0.0039133485 -0.05449851 -0.04053531
000170 c6 e6 d3 3b 4c 75 98 bc 19 7f d4 bc 24 df 64 bc
       0.0064667193 -0.018610619 -0.025939511 -0.0139692165
000180 72 5b 5d bd 81 62 f2 3c 90 58 f5 bc 60 01 5c 3d
       -0.054042287 0.029587986 -0.029949456 0.05371225
000190 30 e4 9c 3b 58 29 56 bc d7 8b 39 3d b7 2c 03 bc
       0.0047879443 -0.013071381 0.045299377 -0.008006266
0001a0 de 5a 78 3a 2d ec 17 ba e7 66 50 bc bb a9 3b 3d
       0.00094739895 -0.0005795386 -0.012719846 0.045816164
0001b0 8d 10 7c 3b 9e 9a f2 3c 32 3a 2e 3d c4 38 3f 3d
       0.0038462013 0.029614743 0.042535968 0.046684995
0001c0 74 b3 fb 3c 85 05 c9 3c cf 6b 10 3d ce 39 c8 bc
       0.030725218 0.024538765 0.035259064 -0.024441626
0001d0 7d 08 b0 bb 5c 25 0b bd bc 32 27 bc c1 1e 42 bc
       -0.0053721056 -0.033971176 -0.010204967 -0.011848153
0001e0 91 a6 a9 3c 97 d0 de 3c e8 f1 8a 3c e2 e8 54 3c
       0.020709308 0.027199073 0.016961053 0.012994977
0001f0 d6 b9 04 bd 5c 65 24 3d 39 60 5d bb 7d 57 4b ba
       -0.03240379 0.040135726 -0.0033779277 -0.0007756872
000200 e9 44 d0 3c e4 b9 eb bc 2b 08 a8 bc 3a e1 bf 3c
       0.025423484 -0.028775163 -0.020511707 0.023422826
000210 a1 dd db bc c0 b2 03 bd 82 be 22 bd df 14 a8 3d
       -0.02683908 -0.03215289 -0.039732464 0.08207106
000220 f9 2d b2 bb 17 1b cb bc 6b c6 da b8 1a 75 85 3d
       -0.0054376093 -0.02479319 -0.00010432008 0.06516476
000230 c6 20 73 3b 98 df c4 3a c0 e9 2d 3d d4 28 45 ba
       0.0037098392 0.0015020249 0.04245925 -0.00075210375
000240 4f 34 0f bc c8 7a a8 bb 97 f8 93 bc 3f 20 7d 3d
       -0.008740499 -0.00514159 -0.018062873 0.06179833
000250 ee 7d 14 3d 9b d1 f4 bb 98 35 99 3b 53 70 89 bc
       0.03625291 -0.007471276 0.0046755783 -0.016777193
000260 b2 fa e3 3c 0e df b5 3c 5d c7 06 bb 88 31 80 bb
       0.027829502 0.022201087 -0.0020565607 -0.0039121546
000270 80 30 fd bb d8 28 81 bc 07 b3 fc bc 7b 9c 75 3c
       -0.007726729 -0.015766546 -0.030847086 0.014990921
000280 df 70 2d bd 2a b3 4d bc 28 e5 98 bc 17 57 b2 3b
       -0.04234397 -0.012554923 -0.018663958 0.005442511
000290 29 29 93 b9 20 bc 9d 3c 0c b2 22 3d 79 80 bf bc
       -0.00028068692 0.019254744 0.03972058 -0.02337669
0002a0 4d 5b 3d bc d5 e3 86 3d b7 cf 58 bc 91 3f 90 bc
       -0.011557412 0.06586424 -0.013233117 -0.017608436
0002b0 06 45 27 bc 2e 32 2a 3d 58 e9 9d bd 47 5d ac bc
       -0.010209328 0.04155176 -0.077105224 -0.021040572
0002c0 eb 82 68 bc db a7 7d 3c 12 a2 fe bc ae f7 f8 3c
       -0.0141913695 0.015481914 -0.03108314 0.03039154
0002d0 3d ed 8c bc b7 ee 96 3b 15 3c 61 bc e7 65 ed bc
       -0.017202968 0.0046060937 -0.013747235 -0.028979255
0002e0 45 b5 a4 3a 2d ef de bc e0 f1 0e bd 36 be 1b 3b
       0.001256623 -0.027213657 -0.03489864 0.0023764498
0002f0 ee 1d a4 3c 4d 28 fc 3a ee 0b 85 3c 4f 65 9a 3c
       0.020033803 0.0019238085 0.01624104 0.018847136
000300 02 72 34 bd 53 12 49 3d 0f a4 b3 3c d1 58 ec 3c
       -0.04405404 0.04908974 0.021928815 0.028850945
000310 02 0b db bc 8e ed 82 bc 33 05 a7 bc b6 62 9c 3d
       -0.026738647 -0.015982416 -0.020388221 0.07636015
000320 f5 53 0d bd 9c 1a 1d 3d ea 8a 42 bc 51 d5 d1 3c
       -0.034503896 0.038355455 -0.01187394 0.025614413
000330 27 f3 82 3c 26 a6 84 bc 8d 63 e8 3c a4 37 32 3d
       0.015985085 -0.016192507 0.028367782 0.043510094
000340 b8 19 02 bc f5 4b 05 bd 9d cc 22 3b d9 22 12 bd
       -0.007940702 -0.03254314 0.0024841197 -0.035677765
000350 ea 51 6b bc e6 a6 c4 bb c6 3c 95 bd 87 93 47 bd
       -0.014362792 -0.006001341 -0.07286982 -0.048724677
000360 32 4d 1a bd 41 d2 17 bd d7 40 c5 3b eb 31 89 bc
       -0.037671275 -0.037065748 0.0060196924 -0.016747436
000370 8f dc 18 bc f2 bc 10 3d 3f 64 e4 bc 68 c2 84 bc
       -0.009329929 0.035336442 -0.027879832 -0.016205981
000380 4d 94 8d bc 4a b2 81 3d d4 7c d0 3b 4a 76 4d bc
       -0.01728263 0.06332834 0.006362537 -0.012540409
000390 15 fc b4 3d a0 76 15 bb 18 54 c8 3c 75 ac 21 3d
       0.08837143 -0.0022806302 0.024454162 0.03947111
0003a0 6b 87 86 3d 3a 64 82 3d 89 18 08 bb 44 a3 af bc
       0.06568798 0.06366773 -0.0020766577 -0.021440156
0003b0 9c 66 c4 bc 9c 67 4c 3c 00 99 df bc 54 d0 80 bc
       -0.02397471 0.012475874 -0.027294636 -0.015724339
0003c0 b3 f7 01 3d 1f c2 ed 3b de 54 45 bd 05 cd 0b bd
       0.031730365 0.007255807 -0.04817664 -0.03413107
0003d0 20 50 52 3d b8 82 83 3c 6e 46 2f bd 2f 63 15 3d
       0.051345944 0.016053542 -0.042791776 0.036471542
0003e0 4d 50 5c bd 69 ff d7 bc 77 0c 66 bc fc f2 c4 bc
       -0.05378752 -0.026366906 -0.014041058 -0.024041645
0003f0 d7 4e 68 3d c3 ae 21 ba 58 4a ca bc 24 b0 73 3d
       0.056715813 -0.0006167704 -0.024693653 0.059494153

encoder.block2.block.0.bias f4 [32]
000000 ae fe 2b 3d 63 84 5e 3d 58 dd 79 3d a0 1c 51 3d
       0.04199093 0.054325473 0.061002105 0.05105269
000010 8a e6 07 3d 6f bb 2d 3d 6a 75 b2 3d 0e 61 91 3d
       0.033178844 0.04241508 0.08713801 0.0709859
000020 cc ff 2d 3d 91 e7 8a 3d d1 44 06 3d c3 43 58 3d
       0.042480275 0.06782449 0.032780472 0.052798998
000030 6f 19 de 3d 07 a4 6b 3d 8a 08 67 3d 75 22 13 3d
       0.10844695 0.057529476 0.056404628 0.035921533
000040 02 08 75 3c db d6 8d 3c ac 49 e6 3c 3d af 56 3d
       0.0149555225 0.017314365 0.028111301 0.052413214
000050 74 17 e8 3d 40 66 83 3d 80 ed c1 3d 3f 56 77 3d
       0.11332598 0.06415987 0.09469128 0.060384985
000060 d9 bd 46 3d 0b 49 8e 3d c9 9f 98 3d 85 42 44 3d
       0.048520897 0.069475256 0.074523516 0.047915
000070 30 dc e7 3c 1b 41 89 3c b3 4a bc 3d aa 19 bd 3d
       0.028303236 0.016754678 0.09193935 0.09233411

encoder.block2.block.2.weight f4 [32]
000000 2a 14 72 3f e4 ec 78 3f ea 13 77 3f 50 2e 76 3f
       0.9456202 0.97236466 0.9651476 0.9616442
000010 90 31 75 3f 12 28 78 3f 9c 09 77 3f ee dd 78 3f
       0.9577875 0.9693614 0.9649904 0.9721364
000020 82 52 73 3f 2e 64 79 3f 8d d6 76 3f b5 69 74 3f
       0.9504777 0.9741849 0.9642113 0.95473796
000030 4b ab 72 3f 64 7f 78 3f 9a 30 74 3f d0 49 75 3f
       0.9479262 0.9706938 0.9538666 0.95815754
000040 1d cf 77 3f cd c4 76 3f 21 b7 78 3f c3 00 76 3f
       0.96800405 0.96394044 0.9715443 0.9609491
000050 dc 12 71 3f 6c 71 78 3f ec 1b 75 3f f5 4c 72 3f
       0.941694 0.9704807 0.9574573 0.9464868
000060 99 fb 77 3f 46 2c 74 3f b6 e3 77 3f 8f 15 73 3f
       0.9686828 0.95380056 0.96831834 0.9495477
000070 10 ea 74 3f d8 c3 76 3f 00 50 75 3f 6e 28 7a 3f
       0.9566965 0.96392584 0.95825195 0.9771794

encoder.block2.block.2.bias f4 [32]
000000 55 ab bf 3c a5 bb 2c 3d 50 6d d6 3c 78 a5 ae bb
       0.023397127 0.04217114 0.026175171 -0.005329784
000010 f4 a3 9b bc d9 8e 55 bc 23 c1 6d bc 77 12 87 3c
       -0.018999077 -0.013034546 -0.014511379 0.016488297
000020 e8 21 96 3c 89 3a c8 ba bb c5 53 bc a1 fb 31 bd
       0.018326715 -0.0015276234 -0.012925561 -0.043452863
000030 54 c6 08 3d b2 2e ec 3b 70 df 58 bd 75 a2 87 3a
       0.033392265 0.007207715 -0.05294746 0.0010348099
000040 2e 1e f2 3c ac 60 25 3c 56 f4 af 3a 36 d3 77 3c
       0.029555406 0.010093849 0.0013424258 0.01512604
000050 ae 92 14 bd 30 52 fa 3c 0d 8c 3f 3c 9d 28 21 3b
       -0.036272697 0.030556768 0.011691106 0.0024590858
000060 ed ef 02 3c 35 94 22 3c e9 06 7f 3c 28 36 4d bc
       0.007991773 0.009923031 0.015565612 -0.012525119
000070 64 ec 6c bc 5d 93 12 3d ce d8 6d 3c 98 50 21 bb
       -0.014460657 0.035785068 0.014517022 -0.0024614688

encoder.block2.block.2.running_mean f4 [32]
000000 79 26 c6 3f 3c a8 cc 3f 57 84 b4 3f c4 c3 d7 3f
       1.5480491 1.5988841 1.4102887 1.6856618
000010 8e 34 dd 3f 80 e7 c1 3f 6d 29 c6 3f 63 87 e3 3f
       1.7281663 1.5148773 1.5481392 1.7775692
000020 bc f1 af 3f e9 48 c3 3f 91 c6 cc 3f aa fa da 3f
       1.3745646 1.5256625 1.5998098 1.7107747
000030 68 f5 ea 3f 43 c5 e9 3f 44 b1 c1 3f 13 ea d4 3f
       1.8356142 1.8263324 1.5132222 1.6633934
000040 db 72 f0 3f 6c 30 bc 3f 0b 0b e0 3f 8a a1 d2 3f
       1.8785051 1.4702277 1.750337 1.6455548
000050 20 d2 d4 3f 94 f7 ba 3f 5e 6c d1 3f da 1f ed 3f
       1.6626625 1.4606805 1.6361196 1.8525345
000060 dc 3f e7 3f 2c 19 cf 3f 6f 5b a4 3f 4a 32 da 3f
       1.8066363 1.6179557 1.2840403 1.7046597
000070 3d 9b ed 3f 40 d0 ac 3f 90 a9 e6 3f 42 98 ec 3f
       1.8563 1.3501053 1.8020496 1.8483965

encoder.block2.block.2.running_var f4 [32]
000000 f4 b2 9d 40 2b 14 a8 40 b3 87 87 40 d4 cf c4 40
       4.928095 5.252462 4.235315 6.1503696
000010 cf c7 ce 40 48 ff 98 40 da 91 9d 40 55 0d cf 40
       6.4618907 4.7811623 4.924054 6.4703774
000020 cb 93 77 40 9f e7 9f 40 2c 9c b3 40 65 f5 c0 40
       3.8683956 4.997024 5.612814 6.0299554
000030 47 39 ec 40 cb de e6 40 31 40 9c 40 dc 98 bf 40
       7.381992 7.2146964 4.882836 5.9874096
000040 e3 2e f5 40 90 26 96 40 52 48 d2 40 42 22 b1 40
       7.6619735 4.6922073 6.571328 5.535432
000050 ce bf bf 40 9d 65 93 40 c6 d5 af 40 84 ad e2 40
       5.9921637 4.606154 5.4948454 7.083681
000060 12 51 e3 40 23 df b3 40 ca 3a 58 40 62 82 c9 40
       7.1036463 5.6209884 3.3785882 6.297166
000070 03 e3 ed 40 9f fc 7c 40 e6 90 d5 40 7e ad e0 40
       7.4339614 3.9529188 6.673938 7.0211782

encoder.final.block.0.weight f4 [3, 32, 3, 3]
000000 11 b4 01 bd d4 b3 ad ba 43 f9 c1 bb 83 15 03 3d
       -0.031665865 -0.0013252445 -0.005919607 0.032002937
000010 6f 76 bc bc 81 39 c8 bc 3b 57 23 bb 84 72 b6 3b
       -0.023005692 -0.024441482 -0.002492382 0.0055678505
000020 d0 ee c0 3c 0b 46 0a bb 7b 47 49 bd a2 e1 40 bc
       0.023551375 -0.0021098878 -0.049140435 -0.011772545
000030 06 1c ac bb d0 f3 97 bc 87 31 37 bc f6 93 f0 bc
       -0.005252364 -0.018548876 -0.011181242 -0.029367428
000040 2f 5d f6 bc 8f b1 2d bb b9 3d 04 3c 14 5f 6d bc
       -0.03007373 -0.0026503538 0.008071356 -0.014488
000050 ff 06 8e bc 1d 8c 00 bd bc 1f 3d 3d 51 4b 19 3d
       -0.01733732 -0.031383622 0.046172842 0.037425343
000060 f4 81 71 3c 9a 94 92 3c 55 ee 43 3c 3d 20 72 3c
       0.014740456 0.017893124 0.011958678 0.014778194
000070 5b 71 72 bc 03 c5 15 3b a9 f8 d6 3c 99 24 87 bc
       -0.014797534 0.0022853024 0.026241617 -0.016496943
000080 75 65 0f 3d 0b 20 0e bc 0b c2 cb 3b 52 0d 2e 3c
       0.035008866 -0.008674632 0.0062182 0.010623293
000090 4a 04 1d 3d 18 56 06 3d 54 fd 01 3d 2f b1 82 3b
       0.03833417 0.03279695 0.031735733 0.003988407
0000a0 c5 63 30 3c 4b 39 36 bd dc 08 12 3d a0 a1 ca bc
       0.010765974 -0.044488233 0.03565298 -0.024735272
0000b0 f9 95 a1 bc 69 94 3f 3d d8 cd f6 bc d4 d5 dc bc
       -0.019724833 0.046772394 -0.03012745 -0.02695743
0000c0 e7 8c 81 3c e3 61 a3 bc b5 92 aa 3c 85 7c d7 bc
       0.015814258 -0.019944137 0.020821908 -0.026304493
0000d0 2b 6b 83 3c 2b 3c 84 3b a8 75 13 3d 3f 5c b4 3c
       0.016042313 0.004035493 0.036000878 0.022016643
0000e0 de d2 62 ba 32 85 47 3b 90 04 ff bb 85 d9 89 ba
       -0.00086526375 0.003044438 -0.0077825263 -0.0010517096
0000f0 f4 b8 88 3c 0b cd 43 bd 6b 55 f2 bc ff a6 07 bd
       0.016689755 -0.047802966 -0.029581746 -0.033118244
000100 05 aa e6 bc e8 10 cf 3c 5d f4 80 3a 19 54 4e 3d
       -0.028157244 0.025276616 0.0009838451 0.05037317
000110 75 02 2c 3d 3d dd 2c 3d 00 f1 35 3d e0 ef 0c bc
       0.04199453 0.042203177 0.04441929 -0.0086021125
000120 05 a5 a0 bb 58 84 39 bc 2c 67 b1 bc b8 3c a6 bb
       -0.0049024844 -0.011323057 -0.021655641 -0.005073156
000130 c8 43 09 3d 4a 90 ca bb c1 5a bf 3c f8 4c ca 3c
       0.033511907 -0.0061817514 0.023358705 0.024694905
000140 b0 55 29 bc 87 b7 75 bb 3e 41 0e bd 24 79 51 3b
       -0.010335371 -0.0037493424 -0.03473019 0.0031963075
000150 51 5f 20 bd 35 f4 65 bd 43 aa c1 3c 12 a5 c2 3c
       -0.0391534 -0.056141097 0.023640757 0.023760352
000160 4c 1f 45 bb c1 9d 22 bd 59 9e 89 bc 15 b6 8e bc
       -0.003007847 -0.039701227 -0.016799139 -0.017420808
000170 ed 90 84 3c 55 8c c1 3c c9 28 fd 3b 85 df f4 bb
       0.016182387 0.023626486 0.0077258092 -0.0074729347
000180 c3 4d b0 3c a8 9d 04 bc 8d bf ab 3c 8f e0 9c 3c
       0.021521455 -0.008094229 0.020965362 0.019150047
000190 5a 17 10 3d 52 40 ba 3b 05 bf 8e 3c c8 ff 66 bd
       0.03517852 0.005683937 0.01742507 -0.056396276
0001a0 61 bd b4 bc 81 6c 9c bb 08 c4 15 bd ae c1 15 3c
       -0.02206296 -0.004773677 -0.036563903 0.009140415
0001b0 b5 04 0f bd 27 21 42 3a f8 fb e4 3b de 65 3d 3c
       -0.0349166 0.0007405453 0.006988045 0.011559932
0001c0 18 dc 20 3c eb 04 02 bc f2 55 d5 bc 7f 1c 56 bc
       0.009818099 -0.007935743 -0.026041958 -0.013068317
0001d0 9f 5b 9c bc 89 e2 cb bc a4 64 04 3c 02 8e c0 bc
       -0.019086657 -0.024888294 0.008080635 -0.023505215
0001e0 e1 9d ad bc 24 82 ad bb 84 29 25 bd 32 44 c2 3b
       -0.021193447 -0.005295055 -0.040322796 0.0059285397
0001f0 04 f2 99 bc ec 1f e3 bc cb d2 ce 3c 7d ab de 3c
       -0.01879216 -0.027725182 0.025246998 0.027181381
000200 88 1b 2b bd b2 2a bf bc 3c c4 28 3d 72 56 02 bd
       -0.041774303 -0.023335788 0.04120277 -0.031820722
000210 76 36 dc 3c 8a 93 46 bc 41 c2 34 bc 9d a9 37 3c
       0.026881438 -0.012120137 -0.011032642 0.011209873
000220 32 0a 3f 3d a5 21 4e bc 37 62 a2 ba d4 d5 bb 3c
       0.046640582 -0.012581264 -0.001238889 0.02292911
000230 11 c2 84 3c 9f 71 e8 bb f3 dc 10 bd 9c 8f 95 bc
       0.01620582 -0.007093623 -0.035366964 -0.018256955
000240 14 2d d7 bc 84 7a 80 ba c9 9d a1 bc a1 8e 4a bd
       -0.026266612 -0.0009802138 -0.019728558 -0.049452428
000250 dd f1 a7 3c 69 44 42 bc 73 4d 3b bd 68 7b 53 3d
       0.020501072 -0.011857131 -0.04572816 0.05163136
000260 d7 ac 05 3c 5d 81 96 bc 48 e9 5c bc d2 72 1e bc
       0.008158884 -0.018372232 -0.013483353 -0.00967093
000270 ec 72 96 bb d0 22 1c 3d f4 e5 0a 3c d5 0f bb 3c
       -0.0045913365 0.038119137 0.008477677 0.022834698
000280 1d 33 2f bc 9e 76 77 bc f5 13 7d 37 1e 23 39 3d
       -0.010693339 -0.015103964 1.5084622e-05 0.045199506
000290 76 c5 1d bd 1b 94 f3 bc 79 4d 90 3c 9b f1 8c 3c
       -0.03851839 -0.029733708 0.017615067 0.01720505
0002a0 a4 29 22 bd 99 b6 53 3a 1a ef bb 3c 9d 7b a5 3c
       -0.039590493 0.00080762204 0.022941161 0.020200545
0002b0 fa 28 ec 3c 01 06 0c 3d 65 fc 5c bd b0 6e c4 3b
       0.028828133 0.034185413 -0.05395164 0.0059946403
0002c0 62 d5 12 3c 17 0b c3 bb 11 b1 92 bc 90 7b 6f bc
       0.008962007 -0.0059522497 -0.017906697 -0.014616862
0002d0 70 75 dc 3c 01 b7 52 bc c3 69 ae bb a7 b0 91 3c
       0.026911467 -0.012861014 -0.0053226664 0.01778443
0002e0 10 6e dc bb 9e 7a 8f bc 3d 87 09 bc d7 7d 0e 3d
       -0.0067269877 -0.017514523 -0.00839406 0.03478798
0002f0 a7 50 02 3d d4 d9 95 3c e7 6d b3 bc f4 e2 7f bb
       0.031815197 0.018292345 -0.021902991 -0.0039045187
000300 e0 ab f7 3c 3a 22 ef bc 62 6d 50 3c db c6 b5 3c
       0.030233324 -0.029191125 0.012721391 0.022189548
000310 c0 cb 85 3c f9 0c 9e bc ff 2d b5 bc 79 de 6a ba
       0.016332507 -0.019293295 -0.02211666 -0.00089595426
000320 0b 79 df bc f0 6e 37 bd d5 40 85 3c 8b 7d ec bc
       -0.027279397 -0.044783533 0.016266266 -0.028868457
000330 7c d4 14 bd e1 3c 05 bd 57 01 f1 3c 8b d2 14 bd
       -0.036335453 -0.03252876 0.029419584 -0.036333602
000340 c0 ab ae 3c eb 2a 12 bc ee d6 f4 3c b3 55 42 3d
       0.021322131 -0.008921365 0.029887643 0.04744501
000350 fb 03 41 bd c4 79 62 bc 92 03 c8 3c ea ea de 3c
       -0.047122937 -0.0138229765 0.024415765 0.027211625
000360 09 e7 44 3c 0e 06 cb bc 57 5a 94 3c b0 ff 1a 3d
       0.012017974 -0.02478316 0.018109484 0.0378415
000370 7f 7d 2c bd 8a 43 11 3d ca b4 44 3c 53 db ab 3c
       -0.04211187 0.0354648 0.012005994 0.020978605
000380 80 e6 02 3c cd 30 57 3b f3 50 01 bb a0 b7 cf 3c
       0.007989526 0.0032835484 -0.0019732087 0.025356114
000390 04 02 41 3b 19 c4 d8 3c 69 70 fc 3b bb 7d 88 3c
       0.0029450664 0.026460694 0.00770383 0.016661515
0003a0 8a 99 fe bc 1a ff 9f bc c8 56 be bc 88 0a 94 ba
       -0.031079073 -0.019530822 -0.02323474 -0.0011294642
0003b0 52 ab 8c 3c 3f 62 41 ba 80 3c 04 bd 49 f4 3f 3d
       0.017171536 -0.00073770055 -0.03228426 0.046863828
0003c0 90 c9 05 bd a3 c9 ac 3c 08 ec 12 3b f8 a5 48 bc
       -0.032662928 0.021092242 0.0022418518 -0.012246601
0003d0 87 c4 31 3c 51 d2 de 3c 87 c0 f4 bc 07 c7 29 bd
       0.010850078 0.027199896 -0.02987696 -0.041449573
0003e0 5c 27 34 bd 12 3f a1 3c be 40 23 3b 4d 0b c5 3c
       -0.04398285 0.019683395 0.0024910416 0.02405324
0003f0 87 6f de bc 35 5d 13 bd 2d 36 ae 3b c9 d8 18 3d
       -0.02715279 -0.03597756 0.005316517 0.037316117

encoder.final.block.0.bias f4 [3]
000000 5a 6e 0b 3c 24 dd dc 39 ff 96 66 bc
       0.008510197 0.00042126433 -0.014074086

decoder.initial.block.0.weight f4 [32, 3, 3, 3]
000000 6f 02 30 3e 95 d0 89 3d b3 eb a6 3d 23 8e 63 bd
       0.17188428 0.06729237 0.08150425 -0.055555474
000010 0a 1f 1f 3e 7a 98 10 3e ae f1 75 3c b4 7f 5b be
       0.15539184 0.14120665 0.015011234 -0.21435434
000020 b4 94 a3 bd 03 e8 a3 3c 4d d2 d4 3c ca e4 40 3e
       -0.07987347 0.020008093 0.025979185 0.18837276
000030 64 2f 2a be 91 f3 a7 3d 95 00 39 bb c0 45 12 be
       -0.1661964 0.082007535 -0.0028229107 -0.1428442
000040 c2 a4 a7 3d a6 28 0a be 45 48 92 3d 6d 56 4f 3e
       0.08185722 -0.13492069 0.071426906 0.20247813
000050 ac 4c 60 bd 59 ca 18 be 51 91 7c 3d f5 c0 13 3e
       -0.05476062 -0.1492094 0.061662022 0.14429076
000060 1d e7 22 bd 74 5d 21 3e ca 1e 60 3d 49 a2 15 bd
       -0.039771188 0.15758306 0.054716863 -0.03653172
000070 7f 7c d5 3c 34 72 58 3e c8 14 bd bd 07 79 22 3e
       0.02606034 0.21137315 -0.09232479 0.15866481
000080 db 66 23 3e 5d c2 04 3e 20 41 b8 3d b7 0b 54 3d
       0.15957205 0.12964769 0.089967966 0.051768985
000090 f6 25 27 3e e8 3f fc bd 2e 85 69 3e 69 41 63 3d
       0.16323075 -0.12316877 0.2280471 0.0554823
0000a0 5d b1 97 bd 47 bf 30 3e 30 6e 90 bd d0 56 13 3e
       -0.07406876 0.17260467 -0.070522666 0.14388585
0000b0 2d 93 01 be 0c 6a 9c bd 61 71 3d bb 1c 59 8a 3d
       -0.126538 -0.07637414 -0.002890669 0.067552775
0000c0 fb 4d 14 be 4e 0d f4 3c 01 ea 23 be 36 f6 ad bd
       -0.14482872 0.0297915 -0.16007234 -0.08494227
0000d0 0c ef 4c 3e cf fe fc 3b 2d 1e 1b bd 7c 64 97 bd
       0.20013064 0.0077208052 -0.037870575 -0.07392213
0000e0 b0 b0 db 3c 91 3f 30 3e d8 1a 9b 3d c9 0e 40 3d
       0.02681765 0.17211749 0.075734794 0.0468891
0000f0 67 96 92 3d 04 4c 0e be 68 1a bb bd 64 08 bc 3d
       0.07157593 -0.13896185 -0.09135896 0.09181288
000100 7a 49 ed 3d 17 5d dd 3c 4a 9a 5e be 4b ab 30 3d
       0.1158628 0.027021928 -0.21738544 0.043132108
000110 42 8e 25 be 39 da ae 3d 84 3b 01 3e 91 4f 45 be
       -0.16167548 0.085377164 0.1262036 -0.19268633
000120 89 57 ba 3c fc 90 44 be 74 39 f1 3d 65 57 06 bc
       0.022746818 -0.19195932 0.117785364 -0.008199547
000130 be 82 9b bd 29 97 d4 3b 8c 8d d4 bc 88 95 ae 3d
       -0.075932965 0.0064877463 -0.025946401 0.085246146
000140 6a 8c 18 3e 4a 1e c6 bd cb cc 01 be 23 9b b4 3d
       0.14897314 -0.09673746 -0.12675779 0.088186525
000150 b7 a3 a3 bc cc bb 17 be 2d 9a 16 3d 4c c0 84 3e
       -0.019975526 -0.14817733 0.036768127 0.2592796
000160 ae 21 c6 bd df 5c b5 bd 3d 03 76 bd cd 5f 2b 3e
       -0.09674393 -0.088556044 -0.060061682 0.16735764
000170 6d 0e 53 3e cf d7 9f bd f6 c9 45 3e 6e ad da 3d
       0.20610972 -0.07804834 0.19315323 0.1067761
000180 eb 81 d7 bc 20 db d1 3d 64 b0 c9 3c c8 12 82 3d
       -0.026307067 0.10246873 0.024620242 0.063512385
000190 63 d4 26 bd ac 8e f0 bd 16 45 d8 3d 1d 1d ea bd
       -0.04072989 -0.117459625 0.10560052 -0.11431334
0001a0 2b 9b 33 3e 5e ed 44 3e 3b 7b a8 bd 2e b4 7f bb
       0.1753966 0.19231173 -0.08226629 -0.0039017308
0001b0 20 26 41 bd 5f 32 05 3e d5 59 e2 3d 7a fb 5a 3d
       -0.0471555 0.13007496 0.1105229 0.053462483
0001c0 0e 50 77 bd 9e e8 9d bd 74 b4 ba 3d 16 0a 31 be
       -0.06037908 -0.07710384 0.0911645 -0.17289004
0001d0 31 37 04 3e 04 2a 89 3d 1c 95 ab 3c 1c 10 15 be
       0.12911679 0.06697467 0.020945124 -0.14556926
0001e0 0a 78 cf bd 69 0c e2 3d af 18 a2 3d 05 ea 2f be
       -0.101303175 0.11037523 0.07914864 -0.17179115
0001f0 00 ba 11 be ee 1e 03 bd 7b d0 25 3d 08 43 d4 bd
       -0.1423111 -0.03201192 0.040482026 -0.10364348
000200 0a 5e 2a be 35 06 c3 bd 3d 14 a3 3d 6c 4e b1 bb
       -0.16637436 -0.09522668 0.079628445 -0.00541096
000210 ef 2d 24 be ca b3 e6 bc 50 10 c7 bd 57 44 18 3e
       -0.16033147 -0.028161902 -0.09719908 0.1486982
000220 68 34 3b be ef 83 02 be e2 67 0e 3e 83 2b e8 3d
       -0.1828171 -0.12745641 0.13906816 0.11336424
000230 e6 ab a0 bc 05 7f b0 3d 86 c8 a2 ba a1 6e c7 3c
       -0.019613218 0.08617977 -0.001241938 0.024344744
000240 99 ac d7 bc 9c 3a b9 3d fc 76 ee bd 64 9e 5d 3e
       -0.026327418 0.09044382 -0.11643788 0.21642452
000250 7f 41 bd bd 0f df ea 3d 68 d3 33 be 12 f2 49 3e
       -0.09241008 0.11468326 -0.17561114 0.19721249
000260 e3 5f 36 bc 91 01 ee bd 06 30 11 3e 84 73 44 3e
       -0.01113126 -0.116213925 0.14178476 0.1918469
000270 36 d1 1d 3e 62 66 04 be e9 e3 09 be 4a c0 26 3c
       0.15411839 -0.12929681 -0.13465847 0.010177681
000280 f7 40 8a 3d be 4b cd bd 3f 6a d3 bd a2 f0 01 3e
       0.06750672 -0.10024212 -0.10322999 0.1268945
000290 fe d4 a4 3d db 2d 66 3d 24 14 08 3e d8 41 52 3a
       0.080484375 0.056196075 0.13288933 0.0008020676
0002a0 ea 84 0c 3d 2b b7 3e be 47 28 22 bc 3f fa 22 be
       0.034306444 -0.1862456 -0.009897298 -0.15915774
0002b0 3e 8c 45 bb f8 71 b8 bd 90 69 84 bd 93 3f 0b be
       -0.0030143405 -0.09006113 -0.06465447 -0.1359847
0002c0 5e 71 15 be e7 fe 6e 3d 7d d2 41 3e db 0b c7 3d
       -0.14594027 0.058348563 0.18927951 0.09719058
0002d0 d7 3f 84 3d b2 99 40 3d e6 cb a0 bd 6c 01 b0 3d
       0.06457489 0.047021575 -0.078513905 0.08594021
0002e0 0b 68 16 3e b0 22 84 3d 11 4b ba 3d 32 79 38 bd
       0.14688127 0.064519286 0.09096349 -0.045037456
0002f0 4a 6c 4d be ad 82 18 3e 5b 64 36 be d0 e2 24 be
       -0.2006084 0.14893599 -0.1781172 -0.16102147
000300 34 fc 8e 3d 52 7e 3c 3e a0 d8 73 bd 0f 6f 4f 3d
       0.06981698 0.18407562 -0.05953276 0.050643023
000310 78 6c 20 be 35 23 d4 3b 74 d4 d8 3d 34 69 69 bd
       -0.15666378 0.0064739236 0.10587397 -0.056985095
000320 12 7c bc 3b 3a 2c 2a 3e 69 7d 52 bd 6f af aa bc
       0.005752095 0.16618434 -0.05138913 -0.020835606
000330 e6 48 77 bd d2 14 b2 bc 3f 0f bb 3b ad 88 b8 bd
       -0.060372256 -0.021738444 0.0057086046 -0.09010444
000340 c7 53 ee bc 11 39 14 bc a0 91 26 be e6 0b 39 3d
       -0.029092683 -0.009046809 -0.16266489 0.045177363
000350 36 c9 0d 3e 5f 4c df bc 19 1d 96 bd a5 af c6 3d
       0.13846287 -0.027258096 -0.07329769 0.0970147
000360 84 be 7b bc 8f 13 1d bd 09 6b 59 bd c9 0d 17 be
       -0.015365247 -0.03834873 -0.053080592 -0.14751352
000370 08 19 1a 3e cf 71 37 3c 5a ef 49 be 8a df 48 3e
       0.15048611 0.011196568 -0.19720212 0.19616523
000380 71 a1 a3 3d 21 79 53 be ad f0 eb 3d 64 86 1c 3e
       0.07989777 -0.20651676 0.11520515 0.15285641
000390 06 88 b8 bb ce 56 28 3e 4f b2 10 be 48 a9 e9 bd
       -0.0056314496 0.16439363 -0.1413052 -0.11409241
0003a0 7b d6 58 bd 70 92 05 3e ae dc 5d bd 44 e7 80 3d
       -0.05293892 0.13044143 -0.054165535 0.062941104
0003b0 22 16 20 3d 22 5a 87 3c ec eb ca bb 63 03 c4 bd
       0.039083607 0.01652247 -0.006192675 -0.095709585
0003c0 8f 14 20 3e b6 66 12 ba 92 6b 12 be e1 32 d2 bc
       0.15632842 -0.0005584763 -0.14298847 -0.025659027
0003d0 ea a9 eb 3d de 57 99 3d 87 ec 5f bd 9a 3e c3 bd
       0.11507018 0.074874625 -0.05466893 -0.09533425
0003e0 72 49 5a 3e 0a 54 10 be a9 e0 b2 bc 20 7f 0b be
       0.2131708 -0.14094558 -0.021835642 -0.13622713
0003f0 0a 66 e3 bd ee 86 f1 3c fe 47 ef bd 99 1c d0 bc
       -0.11103447 0.029483285 -0.11683653 -0.025404261

decoder.initial.block.0.bias f4 [32]
000000 41 b5 68 3d bf c1 d9 bd ed b2 4e 3e b1 24 85 bd
       0.056813482 -0.10632657 0.20185442 -0.06501139
000010 de a7 2a be 8f 81 35 bd ef ce 35 3e 5b 82 80 be
       -0.16665599 -0.04431301 0.1775472 -0.25099453
000020 2b cc df bc 4e 08 24 3e 29 02 fa 3d d5 72 93 bd
       -0.027319035 0.16018793 0.12207443 -0.07199637
000030 98 af f4 3d 61 22 22 3e 07 a6 86 bc 27 54 23 3e
       0.11947554 0.15833427 -0.01643659 0.1595007
000040 0b 55 40 3d e6 8e 0a 3e 39 a7 0e 3e 71 82 24 3e
       0.046956103 0.13531074 0.13930978 0.16065384
000050 c2 8b 28 3e 66 9a d9 bd d3 f4 72 3e 1f 14 01 be
       0.16459563 -0.10625152 0.23726206 -0.12605332
000060 e2 66 40 bd b3 0f a8 bb 97 ee 50 bd 96 6f 17 3e
       -0.046973117 -0.0051288246 -0.051008787 0.1478866
000070 19 0e 00 be 32 ce 47 be 04 5a 47 3d 2b 31 50 3e
       -0.12505378 -0.19512251 0.04866983 0.20331256

decoder.initial.block.2.weight f4 [32]
000000 95 1d 76 3f 5b 7e 71 3f 5c c8 81 3f d4 91 70 3f
       0.9613889 0.9433343 1.013927 0.93972516
000010 62 19 68 3f a6 ea 79 3f 1d e9 84 3f fb 23 7c 3f
       0.9066373 0.9762367 1.038364 0.984924
000020 d6 9a 69 3f bf 3a 7b 3f 8a f7 81 3f 66 0b 78 3f
       0.91251886 0.98136514 1.0153668 0.9689239
000030 7a 4b 86 3f e4 db 84 3f b2 6a 69 3f 3c 93 7d 3f
       1.0491784 1.0379605 0.9117843 0.99052787
000040 66 bc 6f 3f 4a d1 7f 3f 95 8e 7d 3f bf 27 77 3f
       0.9364685 0.99928725 0.9904569 0.9654502
000050 d4 49 88 3f 30 9d 73 3f d1 9e 5a 3f 7b f4 7e 3f
       1.064753 0.95161724 0.85398585 0.995918
000060 96 01 80 3f ca bb 78 3f 24 98 7b 3f 7e be 88 3f
       1.0000484 0.97161543 0.98279023 1.0683134
000070 04 50 7c 3f b8 80 74 3f 29 78 7d 3f 59 f4 80 3f
       0.98559594 0.9550891 0.99011475 1.0074569
