models/archived/failed-long/BasicSteganoGAN/6/epoch_16.pth (torch, 331423 bytes, 59 tensors)

encoder.initial.block.0.weight f4 [32, 3, 3, 3]
0	0x3d0ba144	0.03408934
1	0x3d580845	0.05274226
2	0xbe077060	-0.13226461
3	0x3d4dcfb4	0.05024691
4	0xbce5f1ff	-0.028069494
5	0x3c8674d6	0.016413134
6	0xbbdc829f	-0.0067294384
7	0x3d4fa91f	0.050698396
8	0xbd15bfa7	-0.036559727
9	0xbd76f951	-0.06029636
10	0x3d55792d	0.052117515
11	0x3d92c7a2	0.07166983
12	0xbdd2de6d	-0.102963306
13	0xbe24d8d9	-0.16098346
14	0xbc4fa4f4	-0.012673605
15	0xbe185e6a	-0.14879766
16	0x3d2642b1	0.040590946
17	0x3dd145a3	0.1021836
18	0x3e2ae617	0.16689335
19	0xbd941245	-0.07230047
20	0x3d9d7cf4	0.076898485
21	0xbde9d4e3	-0.11417558
22	0xbccf70a5	-0.025322268
23	0xbe2ef58c	-0.17085856
24	0xbcf006cd	-0.029300118
25	0xbdf711b5	-0.12063924
26	0x3df1f133	0.11813583
27	0xbde0b277	-0.109715395
28	0x3c497747	0.012296504
29	0x3dfe720e	0.12424098
30	0xbe170c32	-0.14750746
31	0x3da1e384	0.07904723
32	0x3dc847d6	0.097793266
33	0xbe49eec2	-0.19719985
34	0xbd57092b	-0.052498978
35	0x3da1bf04	0.078977615
36	0x3ca9ecf1	0.020742865
37	0x3e24d3e2	0.16096452
38	0x3e15d21d	0.14630933
39	0xbbbb1a31	-0.0057099094
40	0x3ccec865	0.02524204
41	0x3e42abd4	0.1901086
42	0x3e11471b	0.14187281
43	0x3e2a5c89	0.16636862
44	0x3e0fb168	0.14032519
45	0x3e357d56	0.17723593
46	0x3d698f85	0.057021637
47	0x3cbf7637	0.023371799
48	0x3d3a3fb6	0.045470916
49	0xbd6d08ac	-0.0578696
50	0x3d2254d0	0.039631665
51	0xbe3c0f4c	-0.1836521
52	0xbd915581	-0.07096387
53	0x3c794f84	0.015216712
54	0xbdbe330e	-0.09287082
55	0x3c5a6df0	0.013331875
56	0xbd82fced	-0.06395898
57	0x3e292207	0.16516887
58	0x3df6c094	0.1204845
59	0xbe3fd756	-0.18734488
60	0xbd82801c	-0.06372091
61	0xbe02a20a	-0.12757125
62	0xbe2ef029	-0.17083801
63	0xbe25535c	-0.1614508
64	0xbcd7fe07	-0.026366247
65	0xbdb2a92e	-0.08723675
66	0x3d1c4f7e	0.038161747
67	0xbe06181a	-0.13095132
68	0x3ce47173	0.027886128
69	0x3ce225b1	0.027605863
70	0xbdbce20b	-0.09222802
71	0xbd826795	-0.06367413
72	0xbe383a89	-0.1799108
73	0xbcd3cf08	-0.025855556
74	0xbd497127	-0.049180176
75	0xbdae28be	-0.08503865
76	0x3da9184f	0.082565896
77	0x3e05e2ae	0.13074753
78	0x3dfb163d	0.12260101
79	0x3e2e7998	0.17038572
80	0xbe2e41a4	-0.17017227
81	0x3dd92c57	0.1060416
82	0xbdd34f9d	-0.103179194
83	0xbd6b9910	-0.05751902
84	0xbdac4656	-0.08411853
85	0x3e16c6da	0.14724293
86	0x3e159ea2	0.14611295
87	0x3e09a847	0.13443099
88	0xbe44266e	-0.19155285
89	0xbdc1720f	-0.09445583
90	0xbe3c722c	-0.18402928
91	0xbdb8a759	-0.09016294
92	0xbc32486c	-0.0108815245
93	0x3bf50091	0.007476874
94	0xbd5d0cb8	-0.053967208
95	0x3dfcd7a7	0.1234582
96	0x3e09340f	0.13398765
97	0xbd8baedd	-0.06820462
98	0xbddf5b43	-0.10906079
99	0xbd926cde	-0.07149671
100	0x3e1371ae	0.14398834
101	0xbd53284d	-0.051552106
102	0xbe5d9e33	-0.2164238
103	0xbe5c79a2	-0.21530774
104	0xbe40b07e	-0.18817326
105	0xbe54e441	-0.20790197
106	0x3e1b3430	0.15156627
107	0xbc3aeb3b	-0.011408622
108	0x3df715ee	0.1206473
109	0xbe38ceb2	-0.18047598
110	0xbe0113b3	-0.12605171
111	0x3d7e82e0	0.06213653
112	0x3e151b6d	0.14561243
113	0xbe3e6a6a	-0.18595281
114	0x3dd4b004	0.10385135
115	0x3d7eebf0	0.062236726
116	0xbdac734f	-0.08420431
117	0xbd03e9dc	-0.032205448
118	0x3da5bf77	0.0809316
119	0x3dffc0b8	0.1248793
120	0xbdfca114	-0.12335411
121	0xbd3fc010	-0.046814024
122	0xbe28507b	-0.16436951
123	0x3dfa25a9	0.12214214
124	0x3e082ff5	0.13299544
125	0xbc9002d2	-0.01757947
126	0x3cc3298e	0.023823526
127	0x3e44bb45	0.19212063
128	0x3e3c1f0c	0.18371218
129	0x3b23a3d5	0.0024969478
130	0x3ca5fe0b	0.020262739
131	0xbd1883b8	-0.03723499
132	0x3e388da0	0.18022776
133	0xbd015201	-0.031572346
134	0xbd8791ca	-0.06619604
135	0xbe178894	-0.14798194
136	0x3d653d72	0.055966802
137	0xbd843910	-0.06456196
138	0x3d6722a9	0.05642954
139	0xbe1f4d79	-0.15556897
140	0x3e2ca42e	0.16859505
141	0xbbaf91f1	-0.0053579737
142	0x3d76c55c	0.06024681
143	0xbdda83ab	-0.10669645
144	0x3d24fa2d	0.04027765
145	0xbe09b925	-0.13449533
146	0xbc0c068f	-0.008546486
147	0x3e1143a1	0.14185955
148	0xbe675563	-0.22591166
149	0xbe12372b	-0.14278857
150	0x3e1ef8c7	0.15524589
151	0xbd253597	-0.04033431
152	0x3c09e843	0.008417192
153	0xbe5a21a0	-0.2130189
154	0x3ceb9381	0.028756859
155	0xbc3ea2ce	-0.011635495
156	0xbe113039	-0.14178552
157	0xbe2bcb1f	-0.16776703
158	0xbad706f4	-0.001640527
159	0x3d63e596	0.055638872
160	0xbc667525	-0.014066015
161	0x3c138976	0.009004941
162	0xbe1b4244	-0.15161997
163	0x3da9b70e	0.08286868
164	0xbda4b33b	-0.08041998
165	0xbe5bcab1	-0.2146404
166	0xbd1ddb0a	-0.03853897
167	0xbc489707	-0.012243039
168	0xbd610ef6	-0.05494591
169	0x3d661d43	0.05618025
170	0x3ca415ac	0.020029865
171	0x3d857399	0.06516189
172	0x3dc90ddb	0.09817096
173	0xbc835de1	-0.016035976
174	0xbe22cd91	-0.1589873
175	0xbd0bd4e9	-0.034138594
176	0xbdf75863	-0.12077405
177	0xbdffcb23	-0.12489917
178	0x3dd93efd	0.10607717
179	0x3c5aee26	0.013362443
180	0xbe74b20e	-0.23896047
181	0x3dba189c	0.09086725
182	0x3e002a1f	0.12516068
183	0xbe310171	-0.17285706
184	0xbda12996	-0.0786926
185	0xb9859d46	-0.00025484915
186	0xbd5d3ed3	-0.054014992
187	0xbc292a96	-0.010325095
188	0x3d2f935f	0.042865153
189	0x3cf51c0a	0.029920597
190	0xbd54b032	-0.051925845
191	0x3d87ecfd	0.06636999
192	0xbe2f634b	-0.17127721
193	0xbde5eddc	-0.11227009
194	0x3e33b913	0.17551069
195	0x3dcc41be	0.09973477
196	0x3c114513	0.008866566
197	0xbe1410a5	-0.14459474
198	0xbd30c83f	-0.04315972
199	0x3d732faa	0.059371628
200	0xbe1c6754	-0.15273792
201	0x3d946084	0.072449714
202	0x3d95f939	0.07322926
203	0x3dd34efd	0.103178
204	0x3d31e663	0.043432605
205	0x3e06481e	0.13113448
206	0x3cac6d50	0.021048218
207	0x3ccdb443	0.02511037
208	0x3e3d2927	0.1847273
209	0x3e0a9e26	0.13536891
210	0xbd8b2c21	-0.06795526
211	0x3d8595c7	0.065227084
212	0xbca83a26	-0.02053554
213	0x3e2d8518	0.16945302
214	0x3de06596	0.10956876
215	0x3d86f42d	0.065895416
216	0x3de1a441	0.11017657
217	0xbd57bca8	-0.05267015
218	0xbce4a704	-0.02791167
219	0x3c9739b7	0.018460138
220	0x3b05d277	0.0020419636
221	0x3da0fb1e	0.07860397
222	0x3cae36af	0.02126631
223	0xbe393182	-0.18085292
224	0x3d9028d8	0.0703904
225	0x3ce6a5fe	0.028155323
226	0xbd939203	-0.07205584
227	0x3dc321dc	0.095279425
228	0xbdc39e11	-0.09551633
229	0xbdc3b64a	-0.09556253
230	0xbcdc624f	-0.026902346
231	0xbdc2673a	-0.09492345
232	0xbe5224fd	-0.20521922
233	0xbe2000bc	-0.1562528
234	0xbdd8d9db	-0.10588428
235	0xbdafc8ad	-0.08583198
236	0xbdeaa522	-0.11457278
237	0xbbca400a	-0.006172185
238	0xbcd41e56	-0.025893372
239	0xbe1de9e3	-0.15421252
240	0xbced1d71	-0.028944703
241	0xbdba9678	-0.09110731
242	0xbc0dce8e	-0.0086552035
243	0x3e17022e	0.14746925
244	0x3da93b2b	0.082632385
245	0x3e2e597d	0.17026325
246	0xbde29d6b	-0.11065181
247	0xbd192dcb	-0.037397187
248	0xbc769851	-0.0150509635
249	0x3dd84bd0	0.10561335
250	0x3e0ddb88	0.13853276
251	0x3e406cb4	0.18791467
252	0x3d938b39	0.07204289
253	0x3d20cd27	0.03925815
254	0x3d248fe9	0.040176306
255	0xbe067a5a	-0.13132611

encoder.initial.block.0.bias f4 [32]
0	0x3e5bf2a7	0.21479283
1	0x3e148332	0.14503172
2	0xbe883d2b	-0.26609167
3	0xbe105cc1	-0.14097883
4	0x3e3ed19d	0.18634649
5	0xbe5e52aa	-0.21711221
6	0xbdc5a723	-0.096510194
7	0x3d70e1aa	0.05880896
8	0xbd514632	-0.051092334
9	0xbd16d235	-0.036821563
10	0x3e199c4a	0.15001026
11	0x3e463da4	0.19359452
12	0x3e2dc51c	0.16969723
13	0xbe0c312b	-0.13690631
14	0xbe182a0e	-0.14859793
15	0x3e027f0f	0.12743782
16	0x3e14416a	0.14478078
17	0xbdd154b0	-0.10221231
18	0x3e39419b	0.18091433
19	0xbe4b56a7	-0.19857274
20	0xbddb64a5	-0.10712556
21	0x3d495994	0.049157694
22	0xbddff3c5	-0.10935167
23	0x3e3c4aa2	0.18387845
24	0x3d87bcf6	0.06627838
25	0x3e594fe8	0.21221888
26	0x3e7311de	0.23737285
27	0x3e504f00	0.20342636
28	0x3def04e9	0.116708584
29	0xbda323c7	-0.07965808
30	0xbcb531da	-0.022118498
31	0xbdb6641f	-0.08905815

encoder.initial.block.2.weight f4 [32]
0	0x3f604752	0.87608826
1	0x3f7d79c4	0.99013925
2	0x3f858a16	1.0432765
3	0x3f83b209	1.0288707
4	0x3f77256a	0.96541464
5	0x3f8649bd	1.0491253
6	0x3f86f869	1.0544559
7	0x3f7d75cb	0.9900786
8	0x3f770664	0.96494126
9	0x3f7f86e8	0.99815226
10	0x3f77baef	0.96769613
11	0x3f775111	0.9660807
12	0x3f75d50b	0.960282
13	0x3f7e7d59	0.99410015
14	0x3f7d54e7	0.98957676
15	0x3f4c85ba	0.7989155
16	0x3f75fff8	0.960937
17	0x3f74d292	0.95633805
18	0x3f806664	1.0031247
19	0x3f76cf0e	0.9640969
20	0x3f82c45d	1.0216175
21	0x3f7f33f8	0.99688673
22	0x3f6b909b	0.92017525
23	0x3f783701	0.9695893
24	0x3f6ffd21	0.9374562
25	0x3f60bd85	0.87789184
26	0x3f7e08ba	0.99232066
27	0x3f848d76	1.035567
28	0x3f80f691	1.0075246
29	0x3f8a8198	1.0820799
30	0x3f7419ac	0.9535167
31	0x3f84dc36	1.0379703

encoder.initial.block.2.bias f4 [32]
0	0x3b4ff325	0.0031730619
1	0x3e084970	0.13309264
2	0x3cfa221d	0.030533845
3	0x3dcd15b4	0.10013905
4	0x3dea6944	0.11445859
5	0x3dc60f9d	0.09670947
6	0x3dc7074f	0.09718191
7	0xbd7d7eab	-0.061888378
8	0x3bf14eb9	0.007364121
9	0x3da29949	0.07939393
10	0x3d974259	0.07385702
11	0x3d2aeaad	0.04172771
12	0x3cc38f8f	0.023872165
13	0xbd9d665a	-0.07685538
14	0xbd4a659a	-0.0494133
15	0x3cd19cd3	0.025587475
16	0x3b7e183c	0.003877177
17	0x3d8e6d97	0.06954496
18	0x3cd93c56	0.026518028
19	0x392da862	0.00016561293
20	0x3d9cad85	0.07650284
21	0x3d3c1fdb	0.045928817
22	0xbd67f57d	-0.0566306
23	0xbd0a83d1	-0.033817116
24	0x3d5ff4c7	0.054676797
25	0x3d1bf68f	0.038076933
26	0x3d8355a1	0.06412817
27	0xbdc90d39	-0.09816975
28	0x3dbed60f	0.09318172
29	0xbb78bdde	-0.0037954967
30	0xbd83c23e	-0.06433533
31	0x3ce2c335	0.027680973

encoder.initial.block.2.running_mean f4 [32]
0	0x3da4904a	0.080353335
1	0x3f05364f	0.52035993
2	0xbbcd02b2	-0.006256425
3	0xbba15050	-0.004922904
4	0x3eb7856b	0.35843977
5	0xbbadd1fb	-0.0053045726
6	0xbb8ca3b0	-0.004291974
7	0x3ec99959	0.39374807
8	0xbbab89be	-0.005234926
9	0x3eb3b47c	0.35098636
10	0x3e9eed79	0.31040552
11	0x3d1abeac	0.037779495
12	0x3f013bdf	0.5048198
13	0xbb942227	-0.004520673
14	0x3e42e49b	0.19032519
15	0x3ce7b0c0	0.028282523
16	0x3d2e946a	0.042622007
17	0x3e8be0da	0.27319986
18	0x3f2611b7	0.6487078
19	0x3e20aed8	0.15691698
20	0xbb99cde7	-0.004693735
21	0x3f0b601b	0.5444352
22	0x3e450e3e	0.19243714
23	0x3f12cb40	0.57341385
24	0x3eac687a	0.3367346
25	0x3d6967f2	0.056983896
26	0x3d8b4890	0.068009496
27	0x3ccf4e2e	0.025305834
28	0x3eeae4fa	0.4587782
29	0xbbb01ae2	-0.0053742984
30	0x3ed45512	0.41471153
31	0xbb9e5110	-0.0048314407

encoder.initial.block.2.running_var f4 [32]
0	0x3b59f256	0.0033256016
1	0x3d0f0e4c	0.034925744
2	0x3643f47b	2.919957e-06
3	0x3658395b	3.2219893e-06
4	0x3c44cfc0	0.012012422
5	0x36299bdf	2.5273691e-06
6	0x374b4f8d	1.2118265e-05
7	0x3cf898f7	0.030346377
8	0x36b620b0	5.427828e-06
9	0x3d0e77c9	0.034782205
10	0x3c01a590	0.007913008
11	0x3add56de	0.001688685
12	0x3cda7e94	0.026671685
13	0x3811fe87	3.480774e-05
14	0x3caec699	0.021334933
15	0x3aacdb80	0.0013187975
16	0x3ab5c39f	0.0013867504
17	0x3ce3c21b	0.027802518
18	0x3d4f743b	0.050647955
19	0x3c9c3091	0.019066127
20	0x36478aa9	2.9734022e-06
21	0x3d69b655	0.05705865
22	0x3ca70bdf	0.020391403
23	0x3d2647f2	0.040595956
24	0x3ca180da	0.019714762
25	0x3b5a6659	0.0033325164
26	0x3b59a770	0.0033211373
27	0x3ab2e1ba	0.0013647594
28	0x3d0a902a	0.03382889
29	0x38054f0f	3.17833e-05
30	0x3d310690	0.04321915
31	0x3667a901	3.4520056e-06

encoder.block1.block.0.weight f4 [32, 38, 3, 3]
0	0xbc75324a	-0.014965603
1	0xbd051b28	-0.0324966
2	0x3cf91e9a	0.0304101
3	0xbd3be486	-0.045872234
4	0x3d42de41	0.04757524
5	0xbd2c8358	-0.042117447
6	0x3a7c09d0	0.0009614499
7	0xbd0d798d	-0.034539748
8	0x3d258b79	0.040416215
9	0x3d4c634b	0.04989938
10	0x3d7823c3	0.06058098
11	0xbd1fe91f	-0.03904068
12	0x3c98e0ed	0.01866194
13	0xbba8ac19	-0.0051474688
14	0x3d49e0f2	0.04928679
15	0xbcc8acf3	-0.024496531
16	0x3d6177d3	0.055045914
17	0x3b8578a8	0.0040732212
18	0xbcb49c23	-0.022047108
19	0x3cbd5b12	0.023114715
20	0x3cfd7084	0.03093744
21	0x3b1373b3	0.0022499382
22	0xbd1788c2	-0.036995657
23	0xbc959e99	-0.018264102
24	0x3b84c609	0.004051928
25	0x3d442687	0.047888305
26	0x3d6136bc	0.05498384
27	0xbcfd8cef	-0.030950991
28	0x3ce2a2e8	0.02766557
29	0x3d100a5d	0.035166133
30	0x3d585f5d	0.05282532
31	0x3c49630b	0.01229168
32	0x3b82ed17	0.0039955485
33	0x3d5b17ae	0.05348938
34	0xbc69073c	-0.014222916
35	0x3ba588b0	0.005051695
36	0x3c860ebe	0.016364451
37	0xbc8a7638	-0.016902074
38	0xbd4315af	-0.0476281
39	0x3c426f87	0.0118674105
40	0x3cc2cb4d	0.023778582
41	0x3cb864df	0.022509037
42	0xbd09a48d	-0.033604193
43	0x3bba8ff1	0.0056934287
44	0xb9add66e	-0.00033156894
45	0x3c0acd6b	0.008471827
46	0xbb421912	-0.0029616994
47	0x3d32f8be	0.04369425
48	0x3c8970da	0.016777445
49	0x3d833f41	0.06408549
50	0x3d409cd3	0.04702456
51	0x3d04e468	0.032444388
52	0xbcce8c55	-0.0252134
53	0x3cd7665f	0.026293932
54	0xbd50027c	-0.05078362
55	0x3d8c2207	0.06842428
56	0x3ccb0915	0.024784604
57	0xbc863f4a	-0.0163876
58	0x3d0c6cf6	0.0342836
59	0xbce8605f	-0.028366266
60	0x3ce9dc13	0.028547322
61	0x3d9c20a0	0.0762341
62	0x3c94db3a	0.018170942
63	0x3d3bfff6	0.0458984
64	0x3d09acd7	0.0336121
65	0x3ce61252	0.028084908
66	0x3cc722bb	0.024308553
67	0xbbcfd438	-0.006342437
68	0x3d6b0357	0.057376232
69	0xbd150af0	-0.036387384
70	0x3cfca706	0.030841362
71	0x3d478081	0.048706535
72	0xbd2ebbd3	-0.042659592
73	0x3d0aaf0b	0.03385834
74	0xbd1d496f	-0.03840011
75	0x3d54d4fc	0.05196093
76	0xbc33c687	-0.010972626
77	0x3bed0cf4	0.00723421
78	0x3b1ea2be	0.0024205889
79	0x3cc1c8e2	0.023655359
80	0xbb39f478	-0.0028374474
81	0x3d256ad6	0.04038509
82	0x3d0cc33c	0.034365878
83	0x3d4c7159	0.049912784
84	0xbcc63a13	-0.024197614
85	0x3d256c3b	0.04038642
86	0x3c90763f	0.01763451
87	0x3c319838	0.010839514
88	0x3cec642b	0.028856358
89	0x3cc6c7b1	0.024265142
90	0x39ac1906	0.0003282504
91	0x3b6de85e	0.0036301832
92	0x3c1cc5c7	0.009568638
93	0xbcadfbb4	-0.021238185
94	0x3bd57fe6	0.006515491
95	0xbd248727	-0.040167954
96	0xbc98b933	-0.018642997
97	0x3d1dda0e	0.03853803
98	0xbc9f23be	-0.019426223
99	0xbd33f1a1	-0.043931607
100	0xbba16d08	-0.0049263276
101	0xbca84f3f	-0.0205456
102	0xbd49a955	-0.049233753
103	0xbd3ddfd9	-0.046356056
104	0xbc8df399	-0.01732807
105	0xbd3b92fe	-0.04579448
106	0x37de619f	2.650992e-05
107	0xbc9103dd	-0.017702037
108	0x3d05ab99	0.03263435
109	0x3ced3f47	0.028960837
110	0x3d0b6c12	0.03403861
111	0x3d098693	0.033575606
112	0xbc1f6110	-0.009727731
113	0x3d3ed465	0.046589274
114	0xbd2b86e4	-0.04187669
115	0x3cf74725	0.030185292
116	0xbc852899	-0.01625471
117	0x3d8dbf95	0.06921307
118	0x3d3cff67	0.04614201
119	0x3cd65d84	0.026167639
120	0xbc15df52	-0.009147482
121	0x3d2b8e57	0.041883793
122	0x3d3a46dd	0.045477737
123	0xbcc661e5	-0.024216602
124	0x3d5d98f5	0.05410095
125	0x3c20d219	0.009815716
126	0x3d086257	0.03329691
127	0xbc36de29	-0.011161366
128	0x3bab7678	0.0052326284
129	0xbc48f38f	-0.0122651
130	0x3d1d496b	0.038400095
131	0x3d66d1b8	0.056352347
132	0x3d600cd5	0.054699738
133	0x3cb731ef	0.022362677
134	0x3cbe3ee5	0.02322335
135	0xbc46b75a	-0.012128675
136	0x3cc7eb56	0.02440421
137	0xbbe8dd77	-0.007106479
138	0xbab0b879	-0.0013482712
139	0xbbb439ad	-0.0055000396
140	0xbcb7b732	-0.022426222
141	0x3c1a3b88	0.009413607
142	0xbbd7f7a4	-0.0065908004
143	0x3cbaf27f	0.02282071
144	0xbc6d9c8f	-0.0145026585
145	0xbd6d6a21	-0.05796254
146	0x3a9c70a7	0.0011935428
147	0xbcfa6463	-0.030565446
148	0xbbd4ac80	-0.00649029
149	0xbbb29f9b	-0.0054511554
150	0xbb905eab	-0.0044058166
151	0xbd0dba4a	-0.034601487
152	0xbc4de45d	-0.012566653
153	0xbce88bd6	-0.028386991
154	0xbc59ba17	-0.013288996
155	0xbcfe530b	-0.031045457
156	0x3bb69353	0.0055717616
157	0xbd2b3d04	-0.041806236
158	0x3c1c88b9	0.009554082
159	0xbcd4d364	-0.025979705
160	0x3c6081e1	0.013702841
161	0xbcf7039a	-0.030153085
162	0xbca22c8a	-0.019796629
163	0xbd04a258	-0.032381386
164	0x3d4e1fce	0.0503233
165	0xbc1a9a72	-0.009436237
166	0x3cd4a6cc	0.025958441
167	0x3c12a45e	0.008950321
168	0x3d5dcd04	0.054150596
169	0xbd1a5f0d	-0.037688304
170	0x3d2d80a3	0.042359006
171	0x3c138fcd	0.009006453
172	0x3d8d0baf	0.06886994
173	0x3c735fe4	0.014854405
174	0x3c299ad8	0.010351859
175	0x3ccfa38d	0.025346542
176	0x3d2fce2d	0.042921234
177	0x3badcbb8	0.005303826
178	0xbd1dfdd2	-0.03857214
179	0xbb9d77c2	-0.004805536
180	0x3c12fd8a	0.008971581
181	0x3d65a794	0.056068018
182	0x3d043304	0.032275215
183	0x3d0cefae	0.034408264
184	0x3c963943	0.018337851
185	0xbd1ae500	-0.037816048
186	0x3a9a044f	0.0011750552
187	0x3c8bc7db	0.017063072
188	0xbc627cbb	-0.013823683
189	0xbc8cc376	-0.017183047
190	0xbca6ca9d	-0.020360285
191	0xbc1ed97f	-0.00969541
192	0x3d3127d2	0.043250866
193	0x3ca1e94b	0.019764563
194	0xbc41412b	-0.011795322
195	0x3d6aafe1	0.057296637
196	0x3c363104	0.011120085
197	0xbbc9d346	-0.006159219
198	0xbd0fca23	-0.035104882
199	0xbc24ae58	-0.010051332
200	0x3c30185a	0.010747993
201	0xbb73d54e	-0.0037205997
202	0x3d236807	0.03989413
203	0xbbfe68aa	-0.007763942
204	0x3ccf3bcc	0.025297068
205	0x39ea729d	0.00044717352
206	0x3b57283e	0.0032830383
207	0x3c0db8b7	0.0086499965
208	0x3bcfe8d4	0.006344894
209	0x3c4e52ca	0.012592981
210	0x3c06ce13	0.008227843
211	0x3ca6d5c9	0.020365613
212	0x3ce95939	0.028484927
213	0xbbcb68c0	-0.0062075555
214	0xbd1767ee	-0.03696435
215	0xbd25584f	-0.04036742
216	0xbb99f0c6	-0.004697892
217	0x3cae99a1	0.02131349
218	0x3d20b8f7	0.039238896
219	0xbc90e443	-0.017686969
220	0x3d13d587	0.036092307
221	0x3cb493ec	0.02204319
222	0xbd50e8ee	-0.05100339
223	0x3a2a1f42	0.0006489643
224	0xbb1ffa83	-0.0024410791
225	0x3c2f91e5	0.010715936
226	0x3d041bdf	0.032253142
227	0x3cfb51f7	0.030678732
228	0x3c8a697b	0.016896
229	0xba852b21	-0.0010159948
230	0x3be098fa	0.0068541737
231	0x3c5c1060	0.0134316385
232	0xbc542a40	-0.012949526
233	0x3c23f929	0.010008135
234	0xbd14d2a2	-0.036333688
235	0x3bbd54aa	0.005777915
236	0xbcc3745d	-0.023859197
237	0xbccbd161	-0.024880113
238	0xbd5554cb	-0.052082818
239	0xbdb3da69	-0.08781893
240	0x3c96a201	0.018387796
241	0x3aeaa572	0.001790209
242	0xbd48c2a6	-0.049013756
243	0x3d891200	0.06692886
244	0x3dda9092	0.10672106
245	0x3dd50c1d	0.10402701
246	0x3ba5a841	0.005055458
247	0x3c66d972	0.014089929
248	0x3c8767dd	0.016529018
249	0xbc87f066	-0.016594123
250	0xbd395956	-0.045251213
251	0xbd03353e	-0.032033198
252	0x3d9f14ed	0.07767663
253	0xbca727a1	-0.020404639
254	0xba14f0ca	-0.00056816323
255	0x3cf89294	0.030343331

encoder.block1.block.0.bias f4 [32]
0	0xbd4a4067	-0.049377825
1	0x3c7101e0	0.01470992
2	0x3e02fe02	0.12792209
3	0x3c9cfc9e	0.019163426
4	0x3de37f10	0.111082196
5	0x3d82de8c	0.06390104
6	0x3df68f61	0.12039066
7	0x3d4efdd0	0.050535023
8	0x3dc1f96c	0.094714016
9	0x3caa0060	0.020752132
10	0x3b8eb3fd	0.0043549524
11	0xbba3b081	-0.004995406
12	0xbc50c812	-0.012743013
13	0x3d89fe08	0.06737906
14	0x3da22df2	0.079189196
15	0xbcb87ae6	-0.02251954
16	0x3c9ff0d8	0.019524023
17	0x3d5aef71	0.053451005
18	0xbdd51c06	-0.10405736
19	0x3d04c72c	0.032416508
20	0x3c3ffc5e	0.011717884
21	0x3e514d46	0.20439634
22	0x3da35c63	0.07976606
23	0xbdedc378	-0.11609548
24	0x3d071bcf	0.032985505
25	0x3c658c37	0.014010481
26	0x3d62b190	0.055345118
27	0x3bb43338	0.00549927
28	0x3d29dc86	0.041470073
29	0x3d2ce3ba	0.042209364
30	0x3d069c20	0.032863736
31	0xbd174fb0	-0.03694123

encoder.block1.block.2.weight f4 [32]
0	0x3f74cf2a	0.9562861
1	0x3f7f9d3f	0.99849313
2	0x3f79481c	0.97375655
3	0x3f7a23bd	0.9771078
4	0x3f756477	0.9585642
5	0x3f77831b	0.96684426
6	0x3f77c386	0.9678272
7	0x3f7469a2	0.9547368
8	0x3f80b88a	1.0056317
9	0x3f7b5a97	0.98185104
10	0x3f7c0f63	0.9846098
11	0x3f6d8694	0.92783475
12	0x3f7c1d0b	0.98481816
13	0x3f750722	0.9571401
14	0x3f736bce	0.9508637
15	0x3f794150	0.97365284
16	0x3f6c10e1	0.92213255
17	0x3f74588c	0.9544761
18	0x3f89b2e3	1.0757717
19	0x3f74dba3	0.9564764
20	0x3f87e923	1.0618023
21	0x3f794cb6	0.97382677
22	0x3f80339b	1.0015749
23	0x3f8d8916	1.105746
24	0x3f79785e	0.9744929
25	0x3f783b15	0.9696515
26	0x3f72c84b	0.9483687
27	0x3f83a58d	1.0284897
28	0x3f76d8d6	0.96424615
29	0x3f744bd0	0.9542818
30	0x3f7100db	0.9414193
31	0x3f7992aa	0.97489417

encoder.block1.block.2.bias f4 [32]
0	0x3c183115	0.009289046
1	0x3cdb1456	0.026743095
2	0x3cd0bf63	0.025481885
3	0x3a550230	0.0008125631
4	0x3ca97372	0.020684931
5	0x3b633636	0.0034669763
6	0x3cf94c0e	0.030431774
7	0xbd1070ee	-0.03526395
8	0xbca833dd	-0.020532543
9	0x3ce5d46a	0.028055388
10	0x3df60acc	0.12013778
11	0x3d60c07c	0.054871067
12	0xbd625636	-0.055258
13	0x3de3eaef	0.111287944
14	0x3dd46bc5	0.10372118
15	0x3c1f6cf9	0.009730571
16	0xbca33d52	-0.0199267
17	0x3d15646f	0.036472734
18	0xbd246635	-0.040136535
19	0x3cdb9d11	0.026808294
20	0x3d48bcd9	0.049008224
21	0x3cdc156e	0.026865687
22	0x3deb3b5a	0.1148593
23	0x3ccd8c30	0.02509126
24	0x3cb7c96a	0.022434909
25	0x3b49b7b5	0.0030779664
26	0x3d30077e	0.042975895
27	0x3d39debd	0.045378435
28	0x3c9e4c8d	0.019323612
29	0x3d09f895	0.033684332
30	0x3c90a4f6	0.017656785
31	0xbba436ff	-0.005011439

encoder.block1.block.2.running_mean f4 [32]
0	0x3ef94fe8	0.48693776
1	0x3eba47a0	0.3638277
2	0x3f138596	0.5762571
3	0x3f868c9b	1.0511659
4	0x3ea32eda	0.31871682
5	0x3f5bca0b	0.8585517
6	0x3f2cde70	0.6752691
7	0x3ed83f95	0.4223601
8	0x3ebd8d7b	0.37022004
9	0x3ea4a185	0.3215448
10	0x3ee1fd67	0.44138643
11	0x3efbb211	0.4915929
12	0x3f24e4ab	0.6441142
13	0x3efb7672	0.49113804
14	0x3f1d45f4	0.61434865
15	0x3f1c8ac1	0.6114922
16	0x3f2691c4	0.6506617
17	0x3f4df945	0.8045848
18	0x3d64fb9e	0.055904023
19	0x3f3d38a5	0.7391456
20	0x3dee00a5	0.11621217
21	0x3f62a480	0.8853226
22	0x3ead5704	0.3385545
23	0x3df794c2	0.1208892
24	0x3e95ff43	0.29296312
25	0x3ec93e64	0.39305413
26	0x3f36654c	0.71248317
27	0x3ec5e744	0.38653004
28	0x3f73d4e1	0.952467
29	0x3f14f14b	0.58180684
30	0x3f264dd4	0.64962506
31	0x3efa6524	0.4890529

encoder.block1.block.2.running_var f4 [32]
0	0x3f160cd9	0.58613354
1	0x3efc24b7	0.4924676
2	0x3e6600c6	0.22461233
3	0x3fe37095	1.7768732
4	0x3e14ba9a	0.14524308
5	0x3f4814fa	0.7815701
6	0x3ed025db	0.4065388
7	0x3e9acc5a	0.30234033
8	0x3dff10c5	0.124543704
9	0x3e74e6bb	0.23916142
10	0x3ef6703e	0.4813251
11	0x3f0a767b	0.54087037
12	0x3f88fa17	1.0701321
13	0x3eb7f1b2	0.35926586
14	0x3f2650e8	0.64967203
15	0x3f33371f	0.70005983
16	0x3f01ec27	0.50750965
17	0x3ef3a9cf	0.4759049
18	0x3d9f7cb1	0.07787455
19	0x3f758a16	0.9591383
20	0x3e1ff55a	0.15620938
21	0x3e3e91cb	0.18610303
22	0x3eb34abc	0.35017955
23	0x3e228edf	0.15874813
24	0x3e563658	0.20919168
25	0x3ec800f3	0.39063224
26	0x3f4616cb	0.7737853
27	0x3e5db56d	0.2165124
28	0x3fa70dca	1.3051083
29	0x3e3c54ca	0.1839172
30	0x3f403e0f	0.75094694
31	0x3f38cc3c	0.72186637

encoder.block2.block.0.weight f4 [32, 32, 3, 3]
0	0x3cb5a060	0.0221712
1	0x3b1c2075	0.0023823057
2	0x3cb238cd	0.0217556
3	0x3ba29108	0.0049611367
4	0x3ae5b4ad	0.0017525159
5	0xbc4d5247	-0.0125318235
6	0xbbf79414	-0.007555494
7	0xbac4e18b	-0.001502083
8	0x3c805bc8	0.015668765
9	0xbc4ba84b	-0.012430261
10	0x3c15971f	0.009130268
11	0xb9b4b86f	-0.0003446969
12	0x3c90f3de	0.01769441
13	0x3ce105b7	0.027468545
14	0xbcbebdfb	-0.02328395
15	0x3b97ed35	0.0046364316
16	0xbc2893b3	-0.0102891205
17	0xbc920785	-0.017825851
18	0x3d54b1b1	0.051927272
19	0x3cc8ca0d	0.024510408
20	0x3cbff681	0.023432972
21	0x3c93e900	0.018055439
22	0xbd668f76	-0.05628916
23	0xbce47dc0	-0.027891994
24	0xbc7db9a0	-0.015486151
25	0xbd086697	-0.033300962
26	0xbcbb8058	-0.022888348
27	0xbc11835f	-0.008881419
28	0x3d81065b	0.0630004
29	0x3d7c70fb	0.061631184
30	0xbcbe8b61	-0.02325982
31	0x3d8578ab	0.06517156
32	0xbd11de92	-0.03561265
33	0x3d21eee3	0.03953446
34	0x3d5b9d61	0.053616885
35	0x3b8bf0d7	0.0042706537
36	0x3be5d5e1	0.0070140217
37	0x3cb7e0e2	0.0224461
38	0x3d567bad	0.05236404
39	0x3d353db5	0.0442483
40	0x3c640e9a	0.013919497
41	0x3d8c5962	0.06852986
42	0xbd2a2e66	-0.041548155
43	0xbccdf452	-0.025140915
44	0xbd8ca81a	-0.06868
45	0xbca11305	-0.01966239
46	0xbd31e8f7	-0.043435063
47	0x3b6075d5	0.003424992
48	0x3be79fe7	0.0070686224
49	0x3bf31631	0.007418417
50	0xbc32dd88	-0.010917075
51	0x3bcd616f	0.0062677185
52	0xbcb50a91	-0.022099765
53	0xbc2af809	-0.010435113
54	0x3c074b5b	0.008257712
55	0xbd96b917	-0.07359522
56	0xbcf004e1	-0.029299201
57	0x3c5226de	0.0128266495
58	0x3d554ce6	0.05207529
59	0x3c98c9c9	0.018650906
60	0xbd38f65d	-0.045156825
61	0x3cd1cbff	0.025609968
62	0xbaf633eb	-0.0018783783
63	0xbd2c810f	-0.042115267
64	0xbd939a0c	-0.072071165
65	0x3c47f1a3	0.012203607
66	0x3c145b61	0.00905499
67	0xbd585c93	-0.05282266
68	0xbc2bef3e	-0.0104940515
69	0xbc3cb0b7	-0.0115167415
70	0xbcc31409	-0.023813264
71	0xbd2d60b1	-0.04232854
72	0xbb9c510a	-0.004770403
73	0xbd508f67	-0.05091801
74	0xbca43dfd	-0.02004909
75	0xbcda6811	-0.02666095
76	0xbd55921f	-0.052141305
77	0x3ba7371b	0.0051030046
78	0xbc8f9918	-0.017529055
79	0xbc8752c9	-0.016518967
80	0xbc4999f0	-0.012304768
81	0xbd09a472	-0.033604093
82	0x3a898a49	0.0010493483
83	0x3d4194b6	0.047260962
84	0x3d1a0cfa	0.03761003
85	0x3da9966b	0.08280643
86	0xbbb158a8	-0.00541218
87	0xbc9115bb	-0.017710557
88	0x3d3075a7	0.043080952
89	0xbccc183a	-0.024913896
90	0x3caaa751	0.020831736
91	0xbc19c91f	-0.00938633
92	0x3c9bf1e3	0.019036239
93	0x3c881c68	0.016615108
94	0x3b8ceed9	0.004300934
95	0x3d49c005	0.04925539
96	0x3d4a3e25	0.049375672
97	0xbd43bddc	-0.047788486
98	0x3ca9b5fa	0.020716656
99	0x3cf455df	0.029826103
100	0xbd2138d4	-0.039360836
101	0xbc3ecbed	-0.011645299
102	0x3ccd6be4	0.02507586
103	0xbd61aa62	-0.05509413
104	0x3c2d309f	0.010570674
105	0xbbf097f1	-0.0073423316
106	0xbce8fe57	-0.028441591
107	0x3c0cc0b4	0.008590866
108	0xb805c2f6	-3.1891243e-05
109	0xbd80b21a	-0.0628397
110	0xbbd1d301	-0.0064033275
111	0x3c9ddc33	0.019270038
112	0xbd2647b9	-0.040595744
113	0x3c959ebb	0.018264165
114	0x3c884b8f	0.016637592
115	0xbd4bbe49	-0.049742017
116	0xbd0e845c	-0.034794196
117	0x3d4f158f	0.05055767
118	0xbd96e565	-0.07367972
119	0x3d0a0459	0.033695552
120	0x3b8eef36	0.0043620123
121	0xbcd01e9c	-0.02540522
122	0x3ceed2cd	0.029153252
123	0x3d0255ea	0.031820215
124	0xbc1309b8	-0.008974485
125	0xba385d08	-0.00070329057
126	0x3c3d6ed7	0.011562071
127	0xbc8eda7e	-0.01743817
128	0xbd3d0bd6	-0.046153866
129	0x3d57f82a	0.052726902
130	0xbcaeda47	-0.021344317
131	0x3b0fe837	0.002195848
132	0xbcfac047	-0.030609263
133	0x3c71f804	0.014768604
134	0xbc4a1431	-0.012333916
135	0xbd15a116	-0.036530577
136	0x3d2130a6	0.039353035
137	0xbbf09468	-0.00734191
138	0xbd9050a7	-0.07046633
139	0x3b882ebb	0.0041559613
140	0x3cedb883	0.029018646
141	0xbcdfedf1	-0.027335139
142	0xbc8b6922	-0.017017905
143	0xbccf360e	-0.02529433
144	0xbc71f1ca	-0.01476712
145	0x3d059e9c	0.032621965
146	0xbd89c63a	-0.06727262
147	0x3c9796ed	0.018504584
148	0xbd4d5bbf	-0.050136324
149	0xbaf69b08	-0.0018814513
150	0xbd522b63	-0.051310908
151	0x3c016655	0.007897933
152	0xbd2514c9	-0.040303025
153	0x3c5f92d1	0.013645844
154	0xbba1b279	-0.0049346057
155	0xbc7ae278	-0.015312783
156	0xbd40e6ed	-0.047095228
157	0x3ca53d7f	0.020170925
158	0xbd03f283	-0.0322137
159	0x3d279aa6	0.04091897
160	0x3ad92881	0.0016567857
161	0x3ca75670	0.020426959
162	0x3ce6a3a0	0.028154194
163	0x3d8a798e	0.06761466
164	0x3b9f52fa	0.0048621865
165	0x3ba551b8	0.005045142
166	0x3d3fb1c9	0.04680041
167	0x3cd67679	0.026179539
168	0xbd13347f	-0.035938736
169	0x3ac62749	0.0015117909
170	0xbd3d8867	-0.04627266
171	0xbbf1c90d	-0.0073787034
172	0x3c3a9daa	0.011390129
173	0xbcdf212d	-0.0272375
174	0x3d5fdb8e	0.054652743
175	0xbce750b1	-0.028236719
176	0x3c21a58b	0.009866129
177	0xbcb1a378	-0.021684393
178	0xbbbbe082	-0.0057335505
179	0xbc0a3b73	-0.008437025
180	0xbd38349a	-0.04497204
181	0x3d6ff54f	0.058583554
182	0xbdd255a0	-0.10270238
183	0xbd2107e6	-0.039314173
184	0x3d06e85b	0.032936435
185	0xbdac7281	-0.084202774
186	0x3cc25de3	0.02372641
187	0x3d522b96	0.051311098
188	0xbba83219	-0.005132925
189	0x3d1b51cb	0.0379198
190	0x3b8cf290	0.0043013766
191	0xbc9d734b	-0.019220015
192	0xbae224af	-0.0017253364
193	0xbd1c219d	-0.038117994
194	0xbc903b8d	-0.017606521
195	0xbbe8d801	-0.007105828
196	0xbc99994a	-0.018749852
197	0x3ab7824f	0.0014000627
198	0x3c375037	0.011188558
199	0xbd2f771a	-0.042838193
200	0xbd339daa	-0.043851532
201	0x3cab6194	0.020920552
202	0x3d251812	0.04030616
203	0xbb3c8fa0	-0.002877213
204	0x3d1c73d1	0.03819639
205	0x3cdab0a1	0.026695551
206	0x3be755e3	0.007059799
207	0xbc0136c8	-0.007886596
208	0x3c01d3b9	0.007924014
209	0xbd848165	-0.064699925
210	0x3d5d3a64	0.054010764
211	0xbc968a65	-0.018376539
212	0xbcc4fc6b	-0.024046144
213	0xbdcba100	-0.09942818
214	0xbd32e4c6	-0.043675207
215	0xbdd1a76b	-0.102370106
216	0xbd3cea6d	-0.046122003
217	0x3c4fcd72	0.012683259
218	0x3c3cb13b	0.011516864
219	0x39fcc9a0	0.00048215408
220	0xbcc4981b	-0.02399831
221	0xbcd4fa15	-0.025998155
222	0xbd0e8a6b	-0.034799974
223	0x3cc79d44	0.024366982
224	0x3c448fda	0.0119971875
225	0x3cbc5e9e	0.022994336
226	0xbcc36152	-0.023850117
227	0xbc3b872c	-0.011445802
228	0xbcd264ca	-0.025682826
229	0x3ce58571	0.028017731
230	0xbca76543	-0.020434028
231	0x3ce8111f	0.028328476
232	0xbbb6c32c	-0.0055774655
233	0xbcf1e1ac	-0.029526554
234	0x3c8e0261	0.017335119
235	0xbc07568f	-0.008260383
236	0x3d1603d2	0.036624737
237	0xbd10b261	-0.035326365
238	0xbd7b88ef	-0.061409887
239	0xbd3d9082	-0.04628039
240	0x3d1f6512	0.038914748
241	0x3bf40efd	0.007448076
242	0x3cf6b99c	0.030117802
243	0xbd0025d9	-0.031286094
244	0x3cacddf6	0.021101933
245	0xbd716eae	-0.058943443
246	0xbcd4a675	-0.02595828
247	0x3c54d02c	0.012989085
248	0xbd7cbec5	-0.06170537
249	0x3c61d39b	0.013783361
250	0x3d972099	0.073792644
251	0xbcc18199	-0.023621367
252	0x3d1c50f8	0.038163155
253	0xbbbefe5b	-0.0058286614
254	0x3cf53815	0.029933969
255	0x3d04e0d3	0.03244097

encoder.block2.block.0.bias f4 [32]
0	0x3ce2b549	0.027674334
1	0xbc45c2b3	-0.012070346
2	0x3d7052d0	0.058672726
3	0x3da7016a	0.081545666
4	0x3d3393f4	0.04384227
5	0x3a210ade	0.0006143282
6	0xbc0626f8	-0.008188002
7	0x3dbbbcee	0.09166895
8	0x3bf42a05	0.007451298
9	0xbcbbc0eb	-0.022919139
10	0x3c93b857	0.018032236
11	0xbccd35da	-0.025050092
12	0x3d91b804	0.07115176
13	0x3b51fe43	0.003204242
14	0x3d1946ca	0.037421025
15	0xbcd8a5e5	-0.026446292
16	0x3c5bc3b1	0.013413356
17	0xbd0ea6ca	-0.03482703
18	0xbd0ee756	-0.034888588
19	0x3c731587	0.0148366755
20	0x3d92afb4	0.07162419
21	0x3d09720b	0.033556025
22	0x3db0b14a	0.08627565
23	0x3d25369e	0.04033529
24	0x3d0b23f8	0.03396985
25	0x3d6fe6f5	0.058569867
26	0x3d68ce8c	0.056837603
27	0xbad09dfd	-0.0015916225
28	0x3d3d2f78	0.046187848
29	0x3d7be53c	0.06149791
30	0x3d2c6ea1	0.04209769
31	0x3d1e82ba	0.03869889

encoder.block2.block.2.weight f4 [32]
0	0x3f79ae59	0.9753166
1	0x3f78e68c	0.97226787
2	0x3f7d2f03	0.9889986
3	0x3f760794	0.96105313
4	0x3f7d8506	0.990311
5	0x3f7d3f80	0.9892502
6	0x3f784ad5	0.96989185
7	0x3f7a1789	0.9769216
8	0x3f782f34	0.96947026
9	0x3f7f3c66	0.99701536
10	0x3f798689	0.9747091
11	0x3f7a658f	0.97811216
12	0x3f797227	0.9743981
13	0x3f7af832	0.98034966
14	0x3f79011e	0.9726733
15	0x3f7b088a	0.98059905
16	0x3f7d8cb7	0.9904284
17	0x3f7d04f8	0.98835707
18	0x3f7f2400	0.99664307
19	0x3f784eb0	0.9699507
20	0x3f7aae07	0.97921795
21	0x3f7c49a6	0.9854988
22	0x3f779cac	0.9672344
23	0x3f7a6424	0.9780905
24	0x3f7c21cc	0.9848907
25	0x3f738b79	0.95134693
26	0x3f77d958	0.96816015
27	0x3f78587d	0.9701002
28	0x3f77ff5a	0.9687401
29	0x3f7b10aa	0.980723
30	0x3f77f3fe	0.9685668
31	0x3f796048	0.9741254

encoder.block2.block.2.bias f4 [32]
0	0xbd915014	-0.07095352
1	0xbd79fec4	-0.06103398
2	0x3d78e12c	0.060761616
3	0x3d8a232b	0.06744989
4	0x3d8b2fe6	0.06796245
5	0xbd82856e	-0.06373106
6	0xbd8f14de	-0.06986402
7	0x3d7ca829	0.061683808
8	0x3d83f744	0.064436466
9	0xbd8b53f8	-0.06803125
10	0xbd7d52b5	-0.061846454
11	0xbd8a5a39	-0.0675549
12	0x3d8dcaf4	0.06923476
13	0x3d7eafc6	0.06217935
14	0x3d771987	0.06032708
15	0x3d6d68c1	0.05796123
16	0xbd96270a	-0.07331665
17	0xbd907e57	-0.070553474
18	0xbd853cfc	-0.065057725
19	0x3d9e995a	0.07744093
20	0x3d63424e	0.055483155
21	0xbc8318e6	-0.016003083
22	0x3da07db0	0.07836473
23	0x3d8c50a1	0.06851316
24	0xbd7f4660	-0.062322974
25	0xbd97b97f	-0.074084274
26	0xbd810696	-0.06300084
27	0x3d82f3c6	0.06394152
28	0x3d857544	0.06516507
29	0xbd6979ed	-0.057001043
30	0x3d7c976b	0.06166784
31	0x3d8a266c	0.0674561

encoder.block2.block.2.running_mean f4 [32]
0	0x3f2e208f	0.6801843
1	0x3f27d12b	0.6555354
2	0x3ee24039	0.44189623
3	0x3efaabe7	0.48959276
4	0x3f1d0db7	0.6134905
5	0x3f31e526	0.6949028
6	0x3f5e618b	0.8686759
7	0x3f5a3be3	0.8524763
8	0x3f130b3d	0.57439023
9	0x3f1d5fcf	0.6147432
10	0x3f353dce	0.7079743
11	0x3f4d7f02	0.80271924
12	0x3f909d2b	1.1297964
13	0x3f4cb287	0.7995991
14	0x3f7b562d	0.9817837
15	0x3f9a4f84	1.2055516
16	0x3f33c2ec	0.702193
17	0x3f80c0f4	1.0058885
18	0x3f1c6b74	0.6110146
19	0x3f545b83	0.82952136
20	0x3f476e6e	0.7790288
21	0x3eeb0b9d	0.45907298
22	0x3f34f19f	0.70681185
23	0x3f8ac5a2	1.0841563
24	0x3f0704da	0.5274178
25	0x3f2cd479	0.6751171
26	0x3f7747e4	0.9659407
27	0x3f409687	0.75229686
28	0x3f7c45a7	0.9854378
29	0x3f1ff59e	0.6248416
30	0x3f7dc770	0.9913244
31	0x3f8126f9	1.0090019

encoder.block2.block.2.running_var f4 [32]
0	0x3f6f7cf9	0.9355007
1	0x3f6fe993	0.9371578
2	0x3f87399c	1.0564456
3	0x3effb4cc	0.49942625
4	0x3f90a984	1.1301732
5	0x3fb1fa5e	1.3904531
6	0x3fd01e9a	1.6259339
7	0x3ffbe4a1	1.9679147
8	0x3f8f6121	1.1201516
9	0x3f96573b	1.1745371
10	0x3f7b5030	0.9816923
11	0x3fd14ca3	1.6351513
12	0x4024bf34	2.57417
13	0x3feb2ce0	1.837307
14	0x4019f460	2.4055405
15	0x40449cfc	3.0720816
16	0x3fd17a0b	1.636537
17	0x403fcf71	2.9970362
18	0x3f9efadf	1.242031
19	0x3faeeb24	1.3665509
20	0x3ff789de	1.9338949
21	0x3f0c2691	0.5474635
22	0x3f974935	1.1819216
23	0x400d7ab3	2.210614
24	0x3f4b2509	0.79353386
25	0x3f22f275	0.6365121
26	0x3fea89e9	1.8323337
27	0x3fe0841e	1.7540319
28	0x400c5ace	2.1930423
29	0x3f72bfde	0.94824016
30	0x400ebd89	2.2303183
31	0x4001287e	2.0180964

encoder.final.block.0.weight f4 [3, 32, 3, 3]
0	0xbd83e87d	-0.06440828
1	0xbc863746	-0.016383778
2	0xbc6c6eb4	-0.014430691
3	0xbd0bef6d	-0.03416388
4	0xbd1ade15	-0.03780945
5	0x3bff5fae	0.0077933883
6	0xbd47f96e	-0.04882186
7	0x3d14f809	0.036369357
8	0xbd12e5d6	-0.03586372
9	0xbd26aedc	-0.040694103
10	0xbcf0f319	-0.029412793
11	0x3ca4d745	0.02012218
12	0xbd36b761	-0.044608478
13	0x3ce0d825	0.027446816
14	0x3b2a33b4	0.002597076
15	0xbd548a83	-0.051889908
16	0x3bb2c403	0.0054554953
17	0x3cda6165	0.02665777
18	0x3d06ce78	0.032911748
19	0x3cd974ad	0.026544893
20	0x3cd8f1fd	0.026482577
21	0x3d8bbbfa	0.06822963
22	0x3c4ec8cd	0.012621117
23	0x3d119eb5	0.035551745
24	0xbcdd249d	-0.026994998
25	0xbcb4e05b	-0.022079637
26	0xbd345b29	-0.04403225
27	0x3c256701	0.010095359
28	0x3d469740	0.048484087
29	0x3c80bcc3	0.015715009
30	0x3d7edacc	0.06222038
31	0xbc871d1d	-0.016493374
32	0x3cff8b23	0.031194275
33	0x3d25756a	0.040395178
34	0xbd0b5b82	-0.034022816
35	0x3d1c180c	0.03810887
36	0x3c4ac0fd	0.012375114
37	0x3d8e3de5	0.06945399
38	0x3bd92c29	0.0066275788
39	0x3d77e1aa	0.060517944
40	0x3c0d30f7	0.008617631
41	0x3d67d2bc	0.056597456
42	0x3d23a134	0.039948657
43	0xbd5ef196	-0.054429613
44	0xbd0dfa15	-0.034662325
45	0x3cd9ab14	0.026570834
46	0xbd00cb0d	-0.031443644
47	0xbd5d6de1	-0.054059867
48	0xbd0c5dab	-0.034269016
49	0xbd0b9337	-0.034075942
50	0x3d1dcd6c	0.038525984
51	0xbd9ec57d	-0.07752512
52	0xbc2e923c	-0.010654982
53	0xbd71a7f5	-0.058998067
54	0xbd4cec67	-0.05003014
55	0x3ca6565e	0.020304855
56	0x3d0406a5	0.0322329
57	0xbb79be54	-0.003810783
58	0xbd52aaf8	-0.05143258
59	0xbc910898	-0.017704293
60	0x3bd3d708	0.0064648427
61	0x3c59efe6	0.013301825
62	0xbd49795a	-0.049187995
63	0x3c622b59	0.01380428
64	0xbceff71f	-0.029292641
65	0x3d13e062	0.03610266
66	0x3c90aad2	0.017659578
67	0x3cd33b8c	0.02578523
68	0x3d3e4c4c	0.04645948
69	0x3da37ac1	0.07982398
70	0xbbadfd71	-0.0053097536
71	0x3be890c6	0.0070973365
72	0x3b1624c3	0.0022910095
73	0x3c512694	0.012765545
74	0xbcb8ce4d	-0.02255931
75	0x3cdb07f7	0.026737196
76	0x3c200b37	0.009768299
77	0x3ca758b4	0.02042804
78	0x3c15bfb4	0.009139944
79	0xbcae13ea	-0.02124973
80	0x3d219667	0.039450075
81	0xbd3e7be1	-0.04650486
82	0x3cb8358d	0.022486473
83	0x3cf91100	0.030403614
84	0xbd72d962	-0.059289344
85	0xbd75a3d0	-0.059970677
86	0xbd39d461	-0.045368556
87	0xbd1b1e17	-0.037870493
88	0xbd4abb46	-0.049495004
89	0xbd7e3eea	-0.06207172
90	0x3d01603f	0.031585928
91	0x3bc87ea8	0.006118614
92	0x3d0b3750	0.033988297
93	0xbc289628	-0.010289706
94	0x3c7acb50	0.015307263
95	0xbc719bee	-0.014746649
96	0x3c297815	0.010343571
97	0x3b6bcc1d	0.0035979815
98	0x3a0ae584	0.0005298483
99	0xbd21e8d4	-0.039528683
100	0xbbcc298b	-0.0062305382
101	0x3bc41ba7	0.0059847417
102	0xbd3b5a11	-0.04574019
103	0xbd29f6d5	-0.041495163
104	0xbd3ea2a0	-0.04654181
105	0xbcb71e96	-0.022353452
106	0x3c29f4a8	0.010373272
107	0xbca816c7	-0.020518674
108	0x3d09f42a	0.03368012
109	0x3b9e9195	0.004839132
110	0xba505d4b	-0.0007948472
111	0x3d133a24	0.03594412
112	0x3ce6cfd1	0.028175266
113	0x3b301382	0.0026867096
114	0x3d2f5675	0.04280706
115	0xbcc29d4c	-0.023756646
116	0xbc89b51f	-0.016809998
117	0x3d6fec3b	0.058574896
118	0x3ce125d5	0.02748386
119	0xbb5e52a8	-0.0033923779
120	0x3cd57187	0.02605511
121	0x3b614092	0.0034370762
122	0xbcf596aa	-0.029979069
123	0x3d6e8594	0.05823286
124	0xbc52b07a	-0.012859458
125	0x3d53a4b6	0.051670752
126	0x3cd69abc	0.02619683
127	0x3c0b2838	0.008493476
128	0x3bdb283f	0.0066881473
129	0x3cfd21d2	0.030899916
130	0x3cc4a37d	0.024003739
131	0x3c63c54c	0.01390202
132	0xbc7725a6	-0.01508466
133	0x3cc17aa9	0.02361806
134	0xbcd4f801	-0.025997164
135	0x3c83ddbe	0.016096946
136	0xbc4f7704	-0.012662653
137	0x3d479dc0	0.048734426
138	0x3d244a01	0.040109638
139	0xbb836142	-0.004009397
140	0x3d6e7907	0.05822089
141	0x3ccf8b03	0.02533484
142	0xbd0e9ea2	-0.034819253
143	0x3d7dc76d	0.061957765
144	0xbc09485d	-0.008379069
145	0xbd3d7985	-0.04625847
146	0xbba3b3a5	-0.0049957805
147	0xbd5fd9a2	-0.05465091
148	0xbbe49c4e	-0.006976641
149	0xbc0012bc	-0.007816967
150	0xbcd9ca7a	-0.026585806
151	0xbd80bd71	-0.06286133
152	0xbcb1002e	-0.021606531
153	0xbd8adf4a	-0.0678087
154	0xbd4380fa	-0.047730424
155	0xbcf79157	-0.03022067
156	0xbb456d62	-0.0030125012
157	0xbc6936cb	-0.014234255
158	0x3c9a22cb	0.018815419
159	0xbd96db02	-0.07365991
160	0xbcd21a7f	-0.0256474
161	0x3ce26f32	0.027640913
162	0xbd05a41e	-0.032627217
163	0xbd482942	-0.04886747
164	0x3d2815f3	0.041036557
165	0xbd6355c8	-0.05550173
166	0xbd5c01b6	-0.05371257
167	0x3c7e85bf	0.015534817
168	0xbc3f0e50	-0.011661127
169	0x3acc4e5c	0.0015587318
170	0xbd6413c1	-0.0556829
171	0xbca8049c	-0.02051001
172	0xbcba07fd	-0.022708887
173	0x3d31f138	0.043442935
174	0x3c454dbf	0.012042462
175	0xba0a107b	-0.0005266738
176	0x3cc6d8a8	0.024273232
177	0x3ca462e3	0.020066684
178	0x3d623829	0.05522934
179	0x3d5a7bb0	0.053340614
180	0x3d78d82f	0.060753044
181	0xbcbe460e	-0.023226764
182	0xbcdc8573	-0.026919102
183	0x3d5de1e5	0.054170508
184	0x3c0c8abd	0.008578
185	0xbbaeb400	-0.0053315163
186	0x3d8ca638	0.06867641
187	0x3b773886	0.00377229
188	0x3d0cf30d	0.03441148
189	0x3cc7fb2f	0.024411766
190	0xbc96f66d	-0.018428052
191	0xbd0d1b06	-0.0344496
192	0x36d0e858	6.2259314e-06
193	0xbd40b951	-0.04705173
194	0x3bf55e51	0.00748805
195	0xba1313f3	-0.00056105776
196	0xbd349215	-0.044084627
197	0xbd41a45c	-0.047275886
198	0x3c385156	0.011249861
199	0x3d2a8411	0.041629855
200	0x3c05b019	0.008159661
201	0xbb65aa78	-0.0035044234
202	0x3d73b85c	0.05950199
203	0xbd321ffe	-0.04348754
204	0xbaf318c5	-0.0018546811
205	0xbcfa6d8f	-0.03056982
206	0x3d0232c9	0.031786714
207	0x3d7a2b8d	0.06107669
208	0xbb430322	-0.0029756506
209	0x3cf40800	0.029788971
210	0xbd0f4051	-0.034973446
211	0xbbb949ca	-0.0056545483
212	0xbd392d37	-0.045209136
213	0x3d6550a4	0.055985108
214	0x3d6f98f0	0.058495462
215	0xbb328f91	-0.0027246217
216	0xbcb43aca	-0.022000689
217	0x3be482b8	0.0069735907
218	0xbce153c4	-0.027505763
219	0x3cb777e8	0.022396043
220	0xbce847b7	-0.028354509
221	0x3cd84ebc	0.026404731
222	0xbd4a66af	-0.049414333
223	0xbd92a96d	-0.07161222
224	0xbd83136b	-0.06400188
225	0xbb9c3a9d	-0.0047677294
226	0xbd43a49e	-0.047764413
227	0x3cac7013	0.021049535
228	0x3cc826fc	0.024432652
229	0xbd1a7b4a	-0.037715234
230	0xbd117e7e	-0.035521023
231	0xbd35f37b	-0.044421654
232	0x3c6c7344	0.014431778
233	0xbc945aec	-0.018109761
234	0xbd1d083f	-0.038337942
235	0x3c4ca100	0.012489557
236	0xbd80c197	-0.06286924
237	0xbd57a3f6	-0.0526466
238	0xbb5b3fcb	-0.0033454772
239	0x3baefe44	0.0053403694
240	0xbd315143	-0.043290388
241	0xbb2bda33	-0.0026222586
242	0x3cb7dc10	0.022443801
243	0x3bc6ee9a	0.006070924
244	0xbc9527d7	-0.018207474
245	0x3d552209	0.05203441
246	0x3cf6503d	0.030067557
247	0x3d123889	0.035698447
248	0x3cd0eccf	0.025503544
249	0xbcf7c8ba	-0.030247081
250	0x3d2d0170	0.0422377
251	0x3d536cc3	0.051617395
252	0x3d0d11a7	0.034440663
253	0x3c278b23	0.010226044
254	0xbd0345e1	-0.032049064
255	0xbcaa6f88	-0.020805135

encoder.final.block.0.bias f4 [3]
0	0x3dd64077	0.104615144
1	0x3cbd341b	0.023096135
2	0xbaddd1e8	-0.0016923519

decoder.initial.block.0.weight f4 [32, 3, 3, 3]
0	0x3d97aa30	0.074055076
1	0x3e32a3e0	0.17445326
2	0xbd94c7a1	-0.07264639
3	0xbd817264	-0.063206464
4	0xbd4f7a43	-0.050653707
5	0xbe502124	-0.20325142
6	0xbd43898a	-0.04773859
7	0x3e150d9a	0.1455597
8	0x3ccef9c9	0.025265591
9	0x3cadb1d0	0.021202952
10	0xbdb7ec22	-0.08980586
11	0xbdeb673d	-0.114943005
12	0xbca31b1c	-0.019910388
13	0x3e125293	0.14289312
14	0x3e54849b	0.2075371
15	0xbe261361	-0.1621833
16	0xbdfe5992	-0.12419428
17	0x3dd822a1	0.1055348
18	0x3cc9b053	0.02462021
19	0xbd9ffd60	-0.07811999
20	0xbe271975	-0.16318305
21	0xbcfc623a	-0.030808557
22	0x3d90abf0	0.070640445
23	0x3de769e6	0.112994954
24	0x3ddfe14e	0.10931645
25	0xbe05e3f4	-0.13075238
26	0x3d789f07	0.060698535
27	0xbdd0065f	-0.10157465
28	0x3e33aa32	0.17545393
29	0xbd8e3aef	-0.069448344
30	0xbe21602e	-0.15759346
31	0x3dca9ca9	0.09893162
32	0xbe0dd4ff	-0.13850783
33	0x3dd66f98	0.104705036
34	0xbd46b7a1	-0.048514966
35	0xbd5f911b	-0.054581743
36	0x3e090c91	0.133837
37	0xbd10dd2a	-0.03536717
38	0xbd22fc3c	-0.03979133
39	0xbd912b8a	-0.070883825
40	0xbd3d48f1	-0.04621214
41	0xbe111517	-0.14168201
42	0x3d4a62c6	0.049410604
43	0xbe02cf1e	-0.12774321
44	0x3d831dd3	0.06402173
45	0xbe0744fc	-0.13209909
46	0xbdd6b57c	-0.10483834
47	0x3d740b7e	0.059581272
48	0xbde6e6bb	-0.11274477
49	0xbddc6766	-0.10761909
50	0x3e493353	0.19648485
51	0xbd13097e	-0.035897724
52	0xbde5bd89	-0.112177916
53	0xbda578c7	-0.08079677
54	0x3e1da9c7	0.15396796
55	0xbd9fece6	-0.07808857
56	0x3d7e9b8f	0.06216007
57	0xbe0a9098	-0.1353172
58	0xbcc1b2d0	-0.023644835
59	0x3d81dfbd	0.06341503
60	0x3e276599	0.1634735
61	0x3a0d52a5	0.0005391038
62	0xbe2480c8	-0.16064751
63	0x3cf8fe4f	0.030394701
64	0x3d45bb4d	0.048274327
65	0x3e1d836b	0.15382163
66	0xbe3eef6c	-0.1864602
67	0x3d931767	0.07182198
68	0xbcf330a7	-0.029686285
69	0xbd67436f	-0.056460794
70	0x3da3956c	0.07987484
71	0xbe043b18	-0.12913167
72	0xbd9d3065	-0.07675246
73	0x3c10ea7f	0.008844971
74	0x3cfdb55c	0.030970268
75	0x3d92c1a4	0.0716584
76	0x3e2b86a8	0.16750586
77	0xbe1252ea	-0.14289442
78	0x3cc0f8b9	0.0235561
79	0x3d118c77	0.03553435
80	0xbb8ae006	-0.0042381315
81	0xbd998a5f	-0.07497095
82	0xbdcaa667	-0.0989502
83	0xbc6eaa3d	-0.014566955
84	0xbd9bfbad	-0.07616363
85	0xbdeb271b	-0.11482068
86	0x3e0058c6	0.12533864
87	0x3e2b8fef	0.16754125
88	0xbd9b7210	-0.07590115
89	0xbdfbd41d	-0.12296317
90	0x3de04577	0.10950749
91	0xbdb3f0bc	-0.08786151
92	0x3ded94de	0.1160066
93	0x3e66f0f0	0.22552848
94	0x3e218c1e	0.15776107
95	0xbe4820f2	-0.19543818
96	0x3ccb7892	0.024837766
97	0x3e282bf8	0.16423023
98	0xbc1f82fd	-0.00973582
99	0x3b086ff4	0.0020818682
100	0x3e014039	0.12622155
101	0x3b348586	0.0027545406
102	0xbdb8920f	-0.090122335
103	0x3e2b2b2f	0.16715692
104	0xbd9619f8	-0.07329172
105	0xbd000e13	-0.031263422
106	0xbdf1f30a	-0.11813934
107	0x3d9dcc07	0.07704931
108	0x3d07da4e	0.033167176
109	0xbd543b21	-0.051814202
110	0x3c078051	0.008270339
111	0xbe327478	-0.17427242
112	0x3e20a86e	0.15689251
113	0x3b8a8d28	0.004228253
114	0x3d102d6a	0.03519956
115	0x3db708bf	0.08937215
116	0xbd1e9468	-0.03871575
117	0xbdd4d028	-0.10391265
118	0xbd065381	-0.03279448
119	0xbaba2034	-0.0014200271
120	0x3e6193e1	0.22029068
121	0xbe2042a8	-0.15650427
122	0x3e002232	0.12513044
123	0xbd705997	-0.05867919
124	0x3d313726	0.043265484
125	0xbde49006	-0.11160283
126	0x3d419772	0.04726357
127	0x3cba44e7	0.022737933
128	0x3de33a54	0.110951096
129	0xbd83e3d8	-0.06439942
130	0xbe222be2	-0.15837052
131	0xbd210ce2	-0.039318927
132	0xbd30dbfb	-0.04317854
133	0x3e12a03b	0.14318936
134	0x3cdc621f	0.026902257
135	0xbd877c11	-0.06615461
136	0x3d948fdf	0.07254004
137	0xbdbaee9a	-0.09127541
138	0x3db4c2f7	0.08826249
139	0xbe0cb0ca	-0.13739315
140	0x3c6c7f0f	0.01443459
141	0xbdbe20b7	-0.092835836
142	0x3e0f01bb	0.13965504
143	0x3ce32a46	0.027730118
144	0xbde138ce	-0.10997163
145	0xbd2bb1bc	-0.041917548
146	0xbd1c677b	-0.038184624
147	0x3da8a383	0.082343124
148	0xbd79b7b6	-0.060966216
149	0xbe24995a	-0.16074124
150	0xbdb6f33d	-0.08933113
151	0x3df88936	0.12135546
152	0x3e1a2fcc	0.15057296
153	0x3dd46b1f	0.10371994
154	0x3c279d7c	0.010230418
155	0xbcb89a47	-0.022534503
156	0x3c070aef	0.008242353
157	0x3e0f795f	0.14011143
158	0xbd1ef91e	-0.038811795
159	0xbc877cbd	-0.016538972
160	0xbe46375e	-0.19357058
161	0xbd4902d0	-0.049074948
162	0x3d96a30a	0.07355316
163	0x3e09815a	0.1342825
164	0xbe1ae0fe	-0.1512489
165	0x3e22c40a	0.15895095
166	0x3e43260a	0.1905748
167	0xbdb6080a	-0.08888252
168	0x3bcf62f6	0.0063289357
169	0xbe22ba9c	-0.15891498
170	0xbe36414f	-0.17798351
171	0xbd86ddc3	-0.065852664
172	0x3e17922b	0.14801852
173	0xbc0111ee	-0.00787781
174	0x3d0dd8ae	0.03463047
175	0x3e6000e5	0.21875341
176	0xbde45e13	-0.11150756
177	0x3cb63f61	0.022247018
178	0xbdcd97d8	-0.100387275
179	0xbe17fd3a	-0.14842692
180	0xbd7bf8c5	-0.061516542
181	0xbe125897	-0.14291607
182	0x3e0cae41	0.13738348
183	0x3e529ff3	0.20568828
184	0xbd3a0815	-0.045417864
185	0xbdb479fd	-0.0881233
186	0x3d2489f3	0.04017062
187	0x3d9909a8	0.07472545
188	0xbe181190	-0.1485045
189	0x3d0f8018	0.03503427
190	0xbb750141	-0.003738478
191	0xbd6ccca9	-0.057812367
192	0x3d4c50d2	0.049881764
193	0x3bb8acd9	0.0056358394
194	0x3dc2b0d9	0.09506387
195	0xbe234168	-0.15942919
196	0x3ddbf343	0.10739758
197	0xbe128769	-0.14309467
198	0xbd97d19e	-0.07413028
199	0x3d451ae6	0.048121355
200	0xbe274e08	-0.1633836
201	0x3de555f6	0.111980364
202	0x3cb5689b	0.022144606
203	0x3e4173d6	0.18891844
204	0x3d7f3d84	0.062314525
205	0xbe0473ea	-0.12934843
206	0xbdc4d8a6	-0.09611635
207	0x3d1c5fbb	0.038177233
208	0xbe0144f8	-0.12623966
209	0xbc827ca6	-0.015928578
210	0x3dcc84d3	0.09986272
211	0xbd784ce8	-0.06062022
212	0x3e37f9bf	0.17966364
213	0xbe1e9610	-0.15486932
214	0x3c810e1b	0.015753796
215	0x3dc29f63	0.09503057
216	0xbcb86e25	-0.022513459
217	0x3e1e02cf	0.15430759
218	0xbdd61417	-0.104530506
219	0x3de67b8a	0.11254032
220	0xbbde2de0	-0.006780371
221	0xbdf9e4ab	-0.12201818
222	0x3e210457	0.15724312
223	0x3dd36303	0.10321619
224	0x3e095e36	0.13414845
225	0x3d10b55d	0.03532921
226	0x3d964ef7	0.0733928
227	0x3e0052f3	0.12531643
228	0xbd676dce	-0.056501202
229	0xbe359123	-0.17731147
230	0x3e3e1c27	0.18565427
231	0x3d1c2796	0.03812369
232	0x3e1b028e	0.15137693
233	0xbcf0cb1d	-0.029393727
234	0xbde5ad61	-0.1121471
235	0x3d990548	0.074717104
236	0xbd8b93f6	-0.06815331
237	0x3d81a58f	0.06330406
238	0x3d76fdeb	0.06030075
239	0xbd0202d4	-0.03174098
240	0xbaf603d7	-0.0018769455
241	0xbd9863c9	-0.074409075
242	0xbd85cd6e	-0.06533323
243	0xbd4d9bbb	-0.050197344
244	0x3dcfaece	0.10140763
245	0x3d20dd4f	0.039273556
246	0xbd972bfe	-0.07381438
247	0xbd9c3dd1	-0.07628978
248	0x3e2da866	0.1695877
249	0x3e2cb4b8	0.16865814
250	0xbe42f283	-0.19037823
251	0x3e21b01e	0.1578984
252	0x3e1e51d1	0.15460898
253	0x3e119003	0.14215092
254	0xbdfb0fd6	-0.1225888
255	0x3dcab620	0.09898019

decoder.initial.block.0.bias f4 [32]
0	0x3d1fd5e6	0.03902235
1	0xbe352d19	-0.17692985
2	0xbec55ead	-0.38548794
3	0xbd836800	-0.06416321
4	0x3d9f5fa6	0.07781915
5	0x3e0058ff	0.1253395
6	0x3c9a981d	0.018871361
7	0x3e95bab2	0.29244
8	0xbe3e987a	-0.18612853
9	0xbd6b9f18	-0.05752477
10	0x3de18c75	0.11013118
11	0x3dd831c7	0.10556369
12	0xbd77e17c	-0.060517773
13	0xbcb88fae	-0.02252945
14	0x3e17e10f	0.14831947
15	0x3d343e21	0.044004563
16	0x3cb4f34b	0.022088667
17	0x3e18f409	0.14936842
18	0x3dd0c7cc	0.10194358
19	0x3d8eed2d	0.069788314
20	0x3db89214	0.09012237
21	0x3da423e7	0.0801466
22	0xbcaa23de	-0.020769056
23	0x3ddf9cb7	0.10918563
24	0xbd415323	-0.047198426
25	0xbd1846a8	-0.037176758
26	0x3e4a85a5	0.19777544
27	0x3dc149fb	0.09437939
28	0x3da237bd	0.079207875
29	0x3e0af0b9	0.13568391
30	0xbda35ddf	-0.07976889
31	0xbdb2b3bb	-0.08725687

decoder.initial.block.2.weight f4 [32]
0	0x3f6010b1	0.8752547
1	0x3f6c4fc1	0.92309195
2	0x3f878047	1.0586022
3	0x3f6a637b	0.91558045
4	0x3f842a66	1.0325439
5	0x3f67d529	0.9055963
6	0x3f78caa2	0.97184193
7	0x3f76b08b	0.96363133
8	0x3f7898e5	0.971083
9	0x3f81f771	1.0153638
10	0x3f79dece	0.976056
11	0x3f7e7b4b	0.9940688
12	0x3f73261b	0.9498002
13	0x3f7277ec	0.94714236
14	0x3f86cfab	1.0532125
15	0x3f698f5c	0.91234374
16	0x3f78933f	0.9709968
17	0x3f654351	0.8955584
18	0x3f74c717	0.95616287
19	0x3f64484c	0.89172816
20	0x3f85e04e	1.0459077
21	0x3f833da2	1.0253184
22	0x3f71f0da	0.94508135
23	0x3f7bec36	0.98407304
24	0x3f7736c3	0.96567935
25	0x3f7b2738	0.9810672
26	0x3f74b5cf	0.9558992
27	0x3f80724a	1.0034878
28	0x3f76b30f	0.9636697
29	0x3f7f6bb9	0.99773747
30	0x3f7c154f	0.98470014
31	0x3f6d1f5a	0.92625964

decoder.initial.block.2.bias f4 [32]
0	0x3d82fc41	0.0639577
1	0xbe02ff06	-0.12792596
2	0x3e159aa5	0.14609773
3	0x3dd64cad	0.104638435
4	0x3d74fc7d	0.059811104
5	0x3e08014a	0.13281742
6	0x3d3ae86d	0.045631815
7	0xbdcbc1db	-0.09949084
8	0x3cf1de57	0.029524965
9	0xbc9def7d	-0.019279236
10	0x3d353abf	0.044245478
11	0x3d34249a	0.04398022
12	0xbe389e47	-0.18029128
13	0x3dd3e895	0.10347096
14	0x3b8efe3b	0.0043638027
15	0x3d8dc23b	0.06921812
16	0x3d699327	0.0570251
17	0xbd0b4f35	-0.034011085
18	0x3d94ca72	0.07265176
19	0xbe153874	-0.14572316
20	0xbd4ab675	-0.04949041
21	0x3d1c9937	0.038232055
22	0x3dc02e69	0.09383852
23	0xbb7a8385	-0.0038225364
24	0x3dd59135	0.10428087
25	0x3e0f6dc7	0.1400672
26	0x3d43c13e	0.047791712
27	0x3d1ff9ee	0.03905671
28	0xbdbdb7c0	-0.09263563
29	0xbd86fb2f	-0.06590878
30	0xbcfa2a22	-0.030537669
31	0xbdb906db	-0.09034511

decoder.initial.block.2.running_mean f4 [32]
0	0x3c92f737	0.017940147
1	0xbbac836e	-0.005264691
2	0xbb5638f4	-0.0032687755
3	0x3d6eedbc	0.05833219
4	0x3dbad793	0.09123149
5	0x3d0a01e6	0.033693217
6	0x3cd735a1	0.02627069
7	0x3e8d4e9c	0.27599037
8	0x3dde3beb	0.10851272
9	0x3efa0b9a	0.48836976
10	0x3e072c4a	0.13200489
11	0x3dd70566	0.104990765
12	0x3da6aa51	0.08137954
13	0x3c22547d	0.009907839
14	0x3e0f49b8	0.13992965
15	0x3c2ae9b3	0.010431695
16	0x3d1e9c8b	0.03872351
17	0x3d1a4d6c	0.03767149
18	0x3ce7b56f	0.028284756
19	0x3c5c6e5c	0.013454046
20	0x3dde0ebf	0.10842656
21	0x3dad2efd	0.08456228
22	0x3c34d9ab	0.011038224
23	0x3e105d72	0.14098147
24	0x3d83af8b	0.064299665
25	0x3d212e2d	0.039350677
26	0x3d64d13f	0.055863615
27	0x3f2ce664	0.6753905
28	0x3dd11bcb	0.10210379
29	0x3e2537cd	0.16134568
30	0x3d6b46ab	0.05744044
31	0x3dad0878	0.08448881
